Assets/Style_Transfer/Models/TransformerNet/Estilos 5-8/cara9_256.onnx (onnx, 449372 bytes, 62 tensors)

conv1.conv2d.weight f4 [8, 3, 9, 9]
-0.021104049 0.046969347 -0.12761433 0.104114585 0.024465369 0.053066522 0.14189486 0.12325452
-0.096401155 -0.035096172 0.10991973 0.11761944 0.04225465 -0.03542178 -0.1517164 -0.12767906
0.013260451 0.10467231 -0.047676444 0.02329634 0.044485312 -0.04776741 -0.10059379 -0.00039907184
-0.05128734 0.13187002 0.02856448 0.1292269 0.102517314 -0.14511691 -0.15375455 -0.081050515
-0.20080233 -0.17560327 0.09261556 0.017890256 0.02840283 0.08143143 0.06678888 -0.09594459
-0.18362986 -0.051660243 -0.05371476 0.10544445 -0.056948308 0.012897065 -0.16548117 0.0891222
-0.049587984 -0.00947393 0.113399476 0.10674446 0.24243313 0.066245034 0.050037704 -0.19047777
0.08889144 -0.10005766 0.115814 0.0059344536 -0.11953867 -0.01546551 -0.105700575 0.023770276
-0.044718582 -0.018809507 -0.19958094 -0.018051434 0.0010258482 0.029018357 0.07415453 -0.005226444
0.070831746 0.013135815 -0.001375032 0.0826696 -0.01404538 0.05005236 -0.09001725 0.077973135
0.062305275 0.11091225 0.03828187 -0.17261581 -0.0154993385 -0.010769818 -0.03389106 0.13074219
0.09427121 0.05588145 0.04367518 0.038999956 -0.058866605 0.056075446 -0.08141272 -0.153438
-0.2680432 -0.05061106 0.061008353 -0.082895406 -0.13101336 -0.118198894 -0.03906008 0.09542963
0.10733232 -0.035548568 0.016431998 -0.0062257033 0.027234972 -0.012985715 -0.30026844 -0.12632039
0.20731547 -0.062689245 -0.11892497 0.10404616 0.03884575 -0.17619504 0.17010093 0.25297937
0.050671164 0.007212748 0.06031753 -0.14360173 -0.06242768 -0.06150999 -0.028508583 -0.093078084
0.37855124 0.016058553 0.03657474 0.11405174 -0.068042696 0.097097196 -0.019285344 0.10473439
0.035256717 0.3369784 -0.0070387125 0.18513824 -0.0117343 -0.13964638 -0.056031663 -0.0684507
-0.041990053 0.03553303 0.22182362 -0.013607507 0.014133624 0.09344035 0.054873414 0.004629854
0.013677278 -0.16845185 0.024796218 -0.03191182 -0.006905805 -0.035297994 -0.058075618 -0.14607048
-0.044756792 0.009046948 -0.07866844 0.049691044 -0.19017683 -0.10099073 -0.049491372 -0.04649283
0.0074564763 -0.05119974 -0.13600062 0.024645383 0.039927714 0.013013624 0.19227771 0.03491999
-0.022499945 -0.1036351 -0.058879368 -0.050950646 -0.029607574 -0.05061205 0.11859187 0.28014114
0.43209058 0.4004762 0.11488362 -0.040046673 -0.16555445 -0.040027816 -0.027954122 -0.19201048
0.13033178 0.4869308 0.24104305 0.01721221 0.05323435 -0.068878874 -0.14069544 0.018390141
0.017022077 0.058440413 0.08064747 0.16430104 0.004237332 -0.082852565 -0.12076436 0.042631745
-0.24792863 0.032199755 -0.2133928 -0.15268002 -0.023503102 -0.077619 0.05292125 -0.005148554
0.16869338 -0.170438 0.017447833 -0.17973903 -0.01684421 -0.11849807 -0.14539959 0.062288523
-0.05371202 -0.009111229 -0.05520964 -0.002826921 -0.18500774 -0.040497508 0.046333957 0.22824438
0.11607981 0.05312232 -0.030745279 0.06809547 -0.0053515006 0.039765976 0.0744775 0.03968325
-0.032319818 -0.0151888225 -0.070350364 -0.03911663 -0.023484604 0.026888164 0.045947984 0.033265244
0.022261648 0.087633096 -0.13051978 0.044968635 0.009705211 0.06626362 -0.05967578 -0.047411762
00000000: 66e2 acbc ee62 403d 55ad 02be 073a d53d
00000010: 996b c83c 485c 593d e34c 113e de6c fc3d
00000020: f86d c5bd 01c1 0fbd 981d e13d 76e2 f03d
00000030: 3613 2d3d 6e16 11bd 8b5b 1bbe 4dbe 02be
00000040: 5d42 593c 705e d63d 6048 43bd f7d7 be3c
00000050: 3b36 363d c2a7 43bd 1e04 cebd 843a d1b9
00000060: ac12 52bd ef08 073e 0e00 ea3c 0e54 043e
00000070: 99f4 d13d 8799 14be d571 1dbe d0fd a5bd
00000080: 209f 4dbe 58d1 33be 3aad bd3d 968e 923c
00000090: 0dad e83c 86c5 a63d 9cc8 883d 997e c4bd
000000a0: 7709 3cbe b199 53bd 0204 5cbd 43f3 d73d
000000b0: a142 69bd 364e 533c e573 29be b385 b63d
000000c0: c51c 4bbd 8b38 1bbc fc3d e83d d79c da3d
000000d0: 6440 783e 7aab 873d 56f4 4c3d 9b0c 43be
000000e0: b70c b63d 08eb ccbd e42f ed3d ce75 c23b
000000f0: b1d0 f4bd 0d63 7dbc 8b79 d8bd e2b9 c23c
00000100: d52a 37bd 6516 9abc f25e 4cbe 9ae0 93bc
00000110: c175 863a e8b7 ed3c 55de 973d 9742 abbb
00000120: 3c10 913d 9a37 573c 6b3a b4ba ae4e a93d
00000130: 981e 66bc b403 4d3d f75a b8bd 61b0 9f3d
00000140: d133 7f3d f625 e33d 73cd 1c3d 33c2 30be
00000150: f0f0 7dbc e473 30bc 5ad1 0abd 48e1 053e
00000160: 4411 c13d f3e3 643d bfe4 323d 6bbe 1f3d
00000170: 1c1e 71bd 5eaf 653d b6bb a6bd da1e 1dbe
00000180: f53c 89be 8b4d 4fbd e5e3 793d 11c5 a9bd
00000190: 5e28 06be 4312 f2bd 76fd 1fbd 9c70 c33d
000001a0: 0cd1 db3d 609b 11bd 669c 863c fc00 ccbb
000001b0: e01b df3c 09c2 54bc c9bc 99be 225a 01be
000001c0: 824a 543e 3863 80bd ef8e f3bd 2716 d53d
000001d0: b91c 1f3d 796c 34be f02e 2e3e 8386 813e
000001e0: 918c 4f3d ea58 ec3b 840f 773d 550c 13be
000001f0: 2bb4 7fbd e6f1 7bbd d58a e9bc b99f bebd
00000200: 78d1 c13e 3a8d 833c 65cf 153d f593 e93d
00000210: f859 8bbd e5da c63d 4cfc 9dbc fc7e d63d
00000220: 5969 103d 6f88 ac3e 00a5 e6bb e194 3d3e
00000230: 3941 40bc 76ff 0ebe 7581 65bd e12f 8cbd
00000240: c3fd 2bbd 158b 113d bb25 633e 05f2 5ebc
00000250: b790 673c a75d bf3d f2c2 603d 08b6 973b
00000260: a916 603c a47e 2cbe 7021 cb3c f8b5 02bd
00000270: 174a e2bb a194 10bd b3e0 6dbd 8093 15be
00000280: e652 37bd a639 143c eb1c a1bd d688 4b3d
00000290: b7bd 42be 3ad4 cebd 77b7 4abd 446f 3ebd
000002a0: 7555 f43b d2b6 51bd bf43 0bbe 1de5 c93c
000002b0: 3e8b 233d 1837 553c 73e4 443e 4308 0f3d
000002c0: ce51 b8bc a43e d4bd 7e2b 71bd a0b1 50bd
000002d0: 958b f2bc 954e 4fbd 4be0 f23d a96e 8f3e
000002e0: fa3a dd3e 370b cd3e 1a48 eb3d fb07 24bd
000002f0: 1b87 29be 35f4 23bd 0b00 e5bc 659e 44be
00000300: b275 053e fe4e f93e fdd3 763e 9f00 8d3c
00000310: 430c 5a3d 5e10 8dbd 7712 10be eca6 963c
00000320: e271 8b3c 375f 6f3d 802a a53d 883e 283e
00000330: 51d9 8a3b 9bae a9bd 4e53 f7bd a09e 2e3d
00000340: 01e1 7dbe e4e3 033d a483 5abe 2758 1cbe
00000350: 9489 c0bc b6f6 9ebd f4c3 583d 34b5 a8bb
00000360: f5bd 2c3e 4d87 2ebe c2ee 8e3c 820d 38be
00000370: defc 89bc 1eaf f2bd a1e3 14be 4022 7f3d
00000380: 2301 5cbd 4447 15bc 8123 62bd dd43 39bb
00000390: ab72 3dbe b7e0 25bd adc8 3d3d e5b8 693e
000003a0: 40bb ed3d ca96 593d 86dd fbbc a375 8b3d
000003b0: a45b afbb a6e1 223d a987 983d e78a 223d
000003c0: c961 04bd 8ada 78bc da13 90bd c238 20bd
000003d0: c962 c0bc 9144 dc3c f433 3c3d 2341 083d
000003e0: 0f5e b63c fb78 b33d faa6 05be 0831 383d
000003f0: 9b02 1f3c 39b5 873d 976e 74bd d632 42bd

conv1.conv2d.bias f4 [8]
0.037955016 -0.0016686276 -0.022498684 -0.008350818 0.083048984 0.13471423 0.11466141 -0.18628497
00000000: b876 1b3d dab5 daba 294f b8bc dfd1 08bc
00000010: 9615 aa3d 87f2 093e 9ad3 ea3d 7dc1 3ebe

in1.weight f4 [8]
0.83205485 1.158455 0.88349015 1.2005415 0.6857279 0.66751975 0.58081776 0.84007114
00000000: 8c01 553f 4148 943f 692c 623f 58ab 993f
00000010: dd8b 2f3f 93e2 2a3f 79b0 143f e70e 573f

in1.bias f4 [8]
1.9153376 1.3360265 2.2244248 0.660957 1.5932871 1.9545768 1.7195983 2.4410787
00000000: c829 f53f eb02 ab3f fa5c 0e40 7a34 293f
00000010: d5f0 cb3f 932f fa3f cc1b dc3f a23a 1c40

conv2.conv2d.weight f4 [16, 8, 3, 3]
0.092770584 -0.045245945 -0.04587233 0.16258515 0.029385697 -0.09892681 -0.019558592 0.17842647
0.035660688 0.20599063 -0.025653431 0.19029002 -0.05901048 -0.24333046 -0.20274772 -0.41471973
-0.18777958 -0.12283829 0.024305139 0.048587434 0.032648467 -0.0018582764 -0.0139240045 0.034885697
0.13259396 -0.099922925 -0.011935944 -0.12962142 -0.01671268 0.154645 -0.2382704 -0.14892483
0.099279135 -0.10528972 0.046058834 -0.092720814 -0.21977693 0.02068858 -0.10700395 -0.2541343
-0.019318474 0.14800659 0.02397877 0.21143316 0.2622982 0.1825691 -0.0048964475 -0.12315473
-0.055422224 0.08043082 -0.11406823 -0.0050784294 0.04056811 0.2082913 0.04303791 0.21426243
0.18673241 0.12900391 0.2572733 0.3383269 0.117074214 0.2110713 0.17063406 0.14741929
-0.08396056 -0.17603385 0.1517127 0.01389926 -0.15362038 -0.11803463 0.013370936 0.17402928
0.06267789 -0.15079975 0.07132613 -0.12417511 0.009509992 0.09896975 -0.050396234 0.18864413
-0.044946905 -0.114593275 0.12629524 -0.012182914 0.17488144 0.13386312 -0.089174986 0.09275483
-0.1534402 -0.015624049 0.13882352 -0.25650308 0.10707273 -0.077612914 -0.12373957 0.243484
-0.26026508 0.25942627 -0.0054941066 0.1550493 -0.05095772 0.15105563 0.07373048 -0.19334283
-0.031690925 -0.0017381514 -0.067901924 0.07028724 0.20849925 -0.27777356 -0.030464469 -0.025756232
-0.16979769 0.15111063 -0.12785685 0.03402662 0.1641809 -0.12072655 0.065214485 0.08411326
-0.23969682 0.2471209 0.011404202 0.119944856 0.15065685 -0.25389645 -0.012902745 0.037202466
0.013909703 0.15633689 -0.117011435 0.01641711 -0.06417842 -0.046057753 0.14174384 -0.24350445
0.20667802 0.0068669566 -0.061621733 0.4705824 -0.39531666 0.253838 -0.07680229 -0.2201971
-0.03590125 -0.057657372 -0.19684955 -0.13041228 -0.14751974 -0.033139084 -0.18731734 -0.24037604
-0.11091741 0.2611852 0.038584866 0.005244934 0.16863094 -0.01108869 -7.982792e-07 -0.020578073
-0.0066499054 0.19404495 -0.0033558838 -0.02964226 0.06310134 -0.008886185 0.1122987 0.031184772
0.016628368 0.026047198 -0.0296726 0.11736392 0.004014686 0.07537202 0.04068479 -0.09013739
0.28456193 0.012323353 -0.09097796 0.23185757 -0.043869678 0.30094686 -0.20149375 -0.11267511
-0.15057363 -0.4410734 -0.22854137 -0.48708558 -0.45344403 0.03513608 -0.032037046 -0.115674004
0.05128542 0.116772644 0.08103776 -0.05251203 0.0678784 0.041911557 -0.13760932 -0.030304473
-0.06355631 -0.1683978 -0.18272932 -0.14915812 -0.20405523 -0.2678261 -0.34063718 -0.050388202
-0.019355223 -0.075930655 0.054631427 0.0011446567 -0.092436925 0.021021463 0.18738066 0.05807068
-0.15320192 0.043775726 0.23509854 -0.21600771 -0.26472703 0.0533131 -0.23158152 -0.25988865
-0.2954392 0.098230824 0.047160126 -0.040788915 -0.019670956 -0.10072662 0.0040309085 -0.013232337
-0.2139874 0.08153786 0.078680255 -0.16012846 -0.054202866 -0.17496422 -0.008745779 -0.07075781
-0.1346748 0.063746855 0.0818602 0.15846296 -0.046825998 -0.07321025 -0.020441502 -0.12106598
-0.046302024 -0.024846323 0.022040334 -0.100770235 0.10682943 0.07477288 0.024407249 -0.037124034
00000000: 81fe bd3d d053 39bd a0e4 3bbd b97c 263e
00000010: 46ba f03c 249a cabd 5739 a0bc 6eb5 363e
00000020: f110 123d 35ef 523e 2527 d2bc 63db 423e
00000030: f9b4 71bd 9f2b 79be 199d 4fbe 2556 d4be
00000040: 4a49 40be a492 fbbd 921b c73c 9e03 473d
00000050: 66ba 053d 6991 f3ba 8221 64bc 4ee4 0e3d
00000060: b6c6 073e 64a4 ccbd fa8e 43bc 7abb 04be
00000070: 08e9 88bc 425b 1e3e 28fd 73be c07f 18be
00000080: dc52 cb3d 23a2 d7bd 30a8 3c3d 69e4 bdbd
00000090: 340d 61be 197b a93c e324 dbbd e41d 82be
000000a0: c741 9ebc 0a8f 173e 206f c43c ef81 583e
000000b0: f34b 863e 65f3 3a3e 6172 a0bb 8c38 fcbd
000000c0: 6a02 63bd eab8 a43d 9b9c e9bd f468 a6bb
000000d0: bf2a 263d 514a 553e 8548 303d 9c67 5b3e
000000e0: c836 3f3e 9a19 043e 53b9 833e 2f39 ad3e
000000f0: 9bc4 ef3d 1323 583e b2ba 2e3e 15f5 163e
00000100: 84f3 abbd 3842 34be 935a 1b3e b9b9 633c
00000110: a94e 1dbe 24bc f1bd c511 5b3c bb34 323e
00000120: 445d 803d 406b 1abe 6f13 923d 854f febd
00000130: cccf 1b3c a7b0 ca3d 486c 4ebd ed2b 413e
00000140: 3f1a 38bd e1af eabd 8a53 013e d89a 47bc
00000150: 1f14 333e 6a13 093e 60a1 b6bd 3ff6 bd3d
00000160: 6e1f 1dbe 03fc 7fbc c127 0e3e 5f54 83be
00000170: f348 db3d 85f3 9ebd 2c6b fdbd df53 793e
00000180: 7741 85be 85d3 843e e807 b4bb 3ec5 1e3e
00000190: 0bb9 50bd 54ae 1a3e 0200 973d aafb 45be
000001a0: 58ce 01bd afd2 e3ba 2a10 8bbd c2f2 8f3d
000001b0: d480 553e 5638 8ebe 9f90 f9bc bcfe d2bc
000001c0: 72df 2dbe bfbc 1a3e e8ec 02be 7f5f 0b3d
000001d0: 0a1f 283e 7b3f f7bd 2c8f 853d 9343 ac3d
000001e0: 1573 75be 430d 7d3e b1d8 3a3c a6a5 f53d
000001f0: ca45 1a3e b7fe 81be 0966 53bc 9d61 183d
00000200: 86e5 633c c716 203e b1a3 efbd 2d7d 863c
00000210: fa6f 83bd 0ea7 3cbd 4c25 113e 3b59 79be
00000220: 67a3 533e 3504 e13b 1267 7cbd 2df0 f03e
00000230: f266 cabe 0ef7 813e 854a 9dbd 597b 61be
00000240: 300d 13bd 232a 6cbd ee92 49be cc8a 05be
00000250: 6a0f 17be d9bc 07bd 1ed0 3fbe 2325 76be
00000260: ab28 e3bd 11ba 853e 2a0b 1e3d b2dd ab3b
00000270: 97ad 2c3e 56ad 35bc 5449 56b5 5993 a8bc
00000280: 73e7 d9bb b8b3 463e 63ee 5bbb 53d4 f2bc
00000290: 463b 813d 5c97 11bc dcfc e53d 3577 ff3c
000002a0: 3738 883c ef60 d53c f413 f3bc 7f5c f03d
000002b0: a18d 833b a55c 9a3d 18a5 263d f499 b8bd
000002c0: 1ab2 913e e4e7 493c a752 babd 126c 6d3e
000002d0: b1b0 33bd b515 9a3e 6154 4ebe 35c2 e6bd
000002e0: f92f 1abe 5fd4 e1be c006 6abe 4863 f9be
000002f0: d129 e8be daea 0f3d 4739 03bd 7ee6 ecbd
00000300: a910 523d 7f26 ef3d 20f7 a53d db16 57bd
00000310: d503 8b3d 74ab 2b3d 75e9 0cbe 1641 f8bc
00000320: d029 82bd 7970 2cbe 651d 3bbe e8bc 18be
00000330: dbf3 50be 8120 89be ff67 aebe dc63 4ebd
00000340: d88e 9ebc 8881 9bbd 34c5 5f3d 4e08 963a
00000350: 924f bdbd 3435 ac3c b7e0 3f3e 85db 6d3d
00000360: f7e0 1cbe 2d4e 333d acbd 703e 2031 5dbe
00000370: 4d8a 87be d65e 5a3d b523 6dbe 2010 85be
00000380: cf43 97be 3e2d c93d fa2a 413d 4712 27bd
00000390: fc24 a1bc c249 cebd b615 843b 72cc 58bc
000003a0: 831f 5bbe 52fd a63d 1d23 a13d b7f8 23be
000003b0: d303 5ebd d229 33be 754a 0fbc 78e9 90bd
000003c0: 31e8 09be b68d 823d 52a6 a73d 1d44 223e
000003d0: 9ecc 3fbd 41ef 95bd f074 a7bc 71f1 f7bd
000003e0: 31a7 3dbd 848a cbbc ee8d b43c a060 cebd
000003f0: 63c9 da3d 8622 993d b6f1 c73c 5f0f 18bd

conv2.conv2d.bias f4 [16]
0.10113613 0.16421048 0.22335853 -0.22762969 -0.2724118 -0.1433277 0.00016981772 0.077931866
0.11948721 -0.07661538 0.1961924 -0.41261616 0.122638166 0.05113443 0.25753963 -0.33393925
00000000: 7620 cf3d cb26 283e 19b8 643e c217 69be
00000010: 8f79 8bbe 7fc4 12be 1911 3239 be9a 9f3d
00000020: b6b5 f43d 86e8 9cbd a9e6 483e 6d42 d3be
00000030: b829 fb3d 5672 513d 3cdc 833e 16fa aabe

in2.weight f4 [16]
0.3445431 0.6235552 0.5155332 0.28684476 0.59523803 0.55938846 0.5158174 0.6555816
0.49459293 0.6119223 0.7245278 0.4738565 0.58230066 0.36191538 0.6484251 0.45364818
00000000: f467 b03e 50a1 1f3f fcf9 033f 51dd 923e
00000010: 8561 183f 1534 0f3f 9c0c 043f 32d4 273f
00000020: 493b fd3e f1a6 1c3f a77a 393f 529d f23e
00000030: a811 153f f94c b93e 30ff 253f 9344 e83e

in2.bias f4 [16]
0.5172834 0.16898192 -0.21869513 1.2086252 0.5154789 0.5758689 -0.2466664 -0.38917133
0.67663026 0.11713178 0.2568729 -0.036043696 0.13761972 0.4760698 0.10155995 0.70179397
00000000: af6c 043f 9909 2d3e 9ef1 5fbe 3bb4 9a3f
00000010: 6df6 033f 256c 133f 1e96 7cbe 7741 c7be
00000020: a437 2d3f c9e2 ef3d d884 833e 8ea2 13bd
00000030: 2fec 0c3e 6cbf f33e aafe cf3d c5a8 333f

conv3.conv2d.weight f4 [32, 16, 3, 3]
-0.13637993 0.022369636 -0.13839132 -0.012713115 0.10983381 0.109332375 0.13564844 0.105832376
-0.0073806318 -0.029552339 0.09112218 0.031026125 0.002286028 0.047254946 0.00016103816 -0.0107341
-0.03200094 0.0442457 0.16286443 0.060999773 -0.033035126 -0.091107346 -0.07193205 -0.39666024
-0.37063166 -0.30488428 -0.8596843 -0.00029620173 0.082895935 0.044256624 0.031170964 0.03493123
-0.08397865 0.07335583 -0.025857983 -0.012994944 -0.0195004 0.06705402 0.02981855 -0.0678147
0.24486487 -0.090865284 0.02236591 0.23445596 -0.153317 -0.04026593 0.028367765 0.14345185
0.08287258 -0.18596287 0.27507013 0.054452356 -0.010653564 0.113311976 0.09511496 0.11217985
-0.05033323 0.2096828 0.13379642 -0.042157132 0.122102715 0.09694117 0.17066346 -0.04206154
0.0301242 0.0990625 -0.09265732 0.14547351 -0.020728441 0.070070304 0.020254632 -0.25526512
0.049329173 -0.04526242 -0.21912691 0.20979685 -0.5908012 -0.18088192 0.18658687 -0.39541346
-0.024765927 0.16294226 -0.04122386 0.09201351 0.26850286 -0.08866243 -0.053838793 0.1643751
-0.07609179 0.00096142775 0.14434083 -0.010427743 -0.008335309 0.073148146 0.16401437 -0.10918685
-0.0058195023 0.081383005 -0.03790899 0.11973427 0.094469555 -0.061949164 0.10168336 0.13207507
-0.1599264 0.00730642 -0.029216591 -0.04199966 0.07623661 0.05920109 0.02728557 0.0010486798
0.11955591 0.1275914 -0.049762834 -0.026903788 0.04402793 0.082073346 0.20651251 -0.030109903
0.13951354 0.19504137 -0.15044796 0.13369538 -0.019834984 -0.081119396 0.02799016 0.10719054
-0.084252305 0.15507019 0.082510635 -0.019383345 0.023176828 0.09818638 -0.09361661 0.16091193
-0.11832986 -0.056135666 0.062392987 -0.356092 -0.019957952 0.031933866 -0.16450568 -0.09168699
0.09225437 -0.010254604 -0.10562927 0.17581455 0.061596654 -0.015725955 0.019066827 -0.023413459
-0.034865197 -0.114894114 -0.001707527 0.014653989 -0.09229413 -0.22769953 -0.022506634 0.08520277
-0.106672525 -0.14053002 -0.18501966 0.035676997 -0.015595271 -0.02301566 -0.048651345 0.13790187
-0.12971011 0.04300066 0.115886144 -0.05873791 -0.012982751 0.08153117 -0.2577787 0.043810032
0.034539558 -0.10208624 -0.0017465536 0.29777855 -0.11019963 -0.15178514 0.055319406 0.21828626
0.16134666 0.09090553 0.054873683 0.15730774 0.11107695 -0.28406724 0.07642908 -0.14724702
-0.36587724 -0.2154664 -0.01775837 -0.26508814 -0.36902562 -0.10883767 -0.016660597 -0.123255044
-0.010163067 0.022380905 0.1985429 0.021007933 -0.0991383 -0.03675974 0.18323697 -0.08298435
-0.10022512 -0.10762619 -0.07937892 -0.17122185 -0.21813338 -0.13382214 -0.060700126 -0.20778453
0.009860307 0.13288787 -0.083690844 0.050924093 -0.31680873 -0.03213734 0.09919139 -0.1416049
-0.20616 -0.12465662 -0.0057607368 -0.20812742 -0.2487291 -0.6472441 -0.22084345 -0.14103593
-0.28007334 -0.34427232 0.16756128 -0.17501813 -0.031537097 -0.06453367 -0.045615625 -0.25438118
0.113737404 0.012970033 0.08422098 -0.047119614 -0.22876592 0.03781073 0.0641238 -0.012719828
-0.31919584 -0.14506939 0.14404775 -0.0944634 -0.03302974 0.003713987 -0.26386878 0.084490314
00000000: 2ea7 0bbe 8740 b73c 74b6 0dbe ab4a 50bc
00000010: 8cf0 e03d a7e9 df3d 6de7 0a3e a5be d83d
00000020: 3ad9 f1bb bf17 f2bc 449e ba3d 802a fe3c
00000030: 2fd1 153b 678e 413d 5adc 2839 14de 2fbc
00000040: 6b13 03bd fb3a 353d efc5 263e e6da 793d
00000050: d74f 07bd 7d96 babd 1c51 93bd 0d17 cbbe
00000060: 6fc3 bdbe cb19 9cbe 4514 5cbf 864b 9bb9
00000070: 58c5 a93d 6f46 353d 405a ff3c 0d14 0f3d
00000080: 00fd abbd 953b 963d 1fd4 d3bc bfe8 54bc
00000090: 4ebf 9fbc 9e53 893d 0846 f43c 6fe2 8abd
000000a0: dbbd 7a3e 9417 babd b638 b73c 3915 703e
000000b0: 22ff 1cbe e3ed 24bd 8463 e83c 0be5 123e
000000c0: 19b9 a93d 0d6d 3ebe fed5 8c3e 6f09 5f3d
000000d0: 498c 2ebc 1c10 e83d a2cb c23d 8dbe e53d
000000e0: 382a 4ebd 17b7 563e ee01 093e f5ac 2cbd
000000f0: fd10 fa3d 1889 c63d 67c2 2e3e b948 2cbd
00000100: 07c7 f63c 48e1 ca3d 1fc3 bdbd 02f7 143e
00000110: b1ce a9bc 0581 8f3d 0bed a53c 1cb2 82be
00000120: 630d 4a3d 1665 39bd ce62 60be fcd4 563e
00000130: bf3e 17bf 1c39 39be a110 3f3e a273 cabe
00000140: eae1 cabc 56da 263e 5ada 28bd 9471 bc3d
00000150: 3579 893e a694 b5bd 1186 5cbd f251 283e
00000160: 03d6 9bbd 5308 7c3a 15ce 133e 20d9 2abc
00000170: d290 08bc b2ce 953d 62f3 273e 5b9d dfbd
00000180: 86b1 bebb 22ac a63d 7546 1bbd 3e37 f53d
00000190: 4179 c13d 68be 7dbd 5e3f d03d b03e 073e
000001a0: bfc3 23be b16a ef3b a257 efbc d607 2cbd
000001b0: f121 9c3d d87c 723d fd85 df3c db73 893a
000001c0: bbd9 f43d 52a7 023e 1dd4 4bbd 5565 dcbc
000001d0: a156 343d 1216 a83d 0478 533e 0ba9 f6bc
000001e0: a3dc 0e3e edb8 473e 080f 1abe 71e7 083e
000001f0: fa7c a2bc ed21 a6bd 9f4b e53c b786 db3d
00000200: 798c acbd b8ca 1e3e 56fb a83d d2c9 9ebc
00000210: 55dd bd3c f115 c93d 11ba bfbd 19c6 243e
00000220: ed56 f2bd 83ee 65bd ca8f 7f3d b151 b6be
00000230: dc7e a3bc 16cd 023d 2d74 28be 63c6 bbbd
00000240: dcef bc3d ed02 28bc 2954 d8bd bb08 343e
00000250: c64c 7c3d b8d3 80bc 0932 9c3c 95cd bfbc
00000260: cfce 0ebd 9b4d ebbd 19cf dfba 4917 703c
00000270: b404 bdbd 112a 69be d55f b8bc ca7e ae3d
00000280: 2077 dabd 1ae7 0fbe cb75 3dbe 0b22 123d
00000290: 4f83 7fbc 568b bcbc a246 47bd 2636 0d3e
000002a0: bad2 04be 7621 303d b755 ed3d 2a97 70bd
000002b0: 9bb5 54bc d0f9 a63d 92fb 83be 2672 333d
000002c0: 5a79 0d3d 9712 d1bd 9dec e4ba 6e76 983e
000002d0: 58b0 e1bd 906d 1bbe 9a96 623d 6f86 5f3e
000002e0: 0f38 253e ae2c ba3d 3ac3 603d 4815 213e
000002f0: 507c e33d 4371 91be d986 9c3d ecc7 16be
00000300: 4354 bbbe 39a3 5cbe 007a 91bc a2b9 87be
00000310: edf0 bcbe 49e6 debd ce7b 88bc 246d fcbd
00000320: fe82 26bc 2958 b73c d44e 4b3e d418 ac3c
00000330: 0509 cbbd 6291 16bd 79a2 3b3e b3f3 a9bd
00000340: d442 cdbd 1f6b dcbd 6a91 a2bd c854 2fbe
00000350: 5b5e 5fbe ac08 09be b2a0 78bd 78c5 54be
00000360: 208d 213c c213 083e 1b66 abbd c895 503d
00000370: c134 a2be 72a2 03bd db24 cb3d e000 11be
00000380: 9b1b 53be f84b ffbd 90c4 bcbb 5b1f 55be
00000390: d7b2 7ebe cab1 25bf c924 62be b96b 10be
000003a0: c665 8fbe 7644 b0be 2f95 2b3e f437 33be
000003b0: 0b2d 01bd 3b2a 84bd 73d7 3abd 403e 82be
000003c0: 28ef e83d 4380 543c 0d7c ac3d 7f00 41bd
000003d0: 9d41 6abe 6ddf 1a3d 5753 833d d366 50bc
000003e0: a36d a3be 128d 14be 4181 133e 0776 c1bd
000003f0: 314a 07bd 5d66 733b cf19 87be 4209 ad3d

conv3.conv2d.bias f4 [32]
-0.04976124 -0.16664799 0.07576159 0.13046819 0.09167252 -0.04298343 0.08536444 -0.052347966
0.19399545 0.124368235 -9.839239e-05 -0.05630063 -0.16949248 0.083471306 -0.049317997 0.17020425
-0.112287395 -0.03189059 0.097392656 -0.19615336 -0.00027280764 -0.015073225 -0.06724287 -0.16577333
-0.21914354 0.06621047 -0.047075104 -0.19356123 0.10472228 0.09318561 0.014361043 0.1750743
00000000: 71d2 4bbd c5a5 2abe e428 9b3d 7499 053e
00000010: cdbe bb3d 650f 30bd 8dd3 ae3d d26a 56bd
00000020: bea6 463e c6b4 fe3d 0358 ceb8 7d9b 66bd
00000030: 708f 2dbe 01f3 aa3d ab01 4abd 064a 2e3e
00000040: eff6 e5bd b59f 02bd cd75 c73d 6ddc 48be
00000050: 9f07 8fb9 b0f5 76bc a1b6 89bd 7cc0 29be
00000060: 2a67 60be 5b99 873d d3d1 40bd ea34 46be
00000070: a278 d63d 19d8 be3d 954a 6b3c ad46 333e

in3.weight f4 [32]
0.29273644 0.34794125 0.31768492 0.30939227 0.5558029 0.30344656 0.39628336 0.36218667
0.44019076 0.44704568 0.2572282 0.35286477 0.3154035 0.20912036 0.14972591 0.37858197
0.4517898 0.38682678 0.22966717 0.25836962 0.5635617 0.4307595 0.5683563 0.2690566
0.32675073 0.4137205 0.4842406 0.3819839 0.35862365 0.46319702 0.4674467 0.45979095
00000000: 8de1 953e 5b25 b23e 99a7 a23e aa68 9e3e
00000010: 1949 0e3f 595d 9b3e a7e5 ca3e 8870 b93e
00000020: af60 e13e 2ce3 e43e 6ab3 833e b1aa b43e
00000030: 917c a13e a623 563e c051 193e 7fd5 c13e
00000040: fe50 e73e 290e c63e df2d 6b3e 0649 843e
00000050: 9445 103f 828c dc3e cc7f 113f c9c1 893e
00000060: df4b a73e 2cd3 d33e 62ee f73e 6593 c33e
00000070: 859d b73e 2928 ed3e 2d55 ef3e b869 eb3e

in3.bias f4 [32]
-0.08308961 -0.019814193 -0.06556773 -0.0035803637 0.09077097 0.1333649 0.316433 -0.21320158
0.43966964 0.23552208 0.28401816 0.025801603 0.1443429 0.06476317 0.09727439 0.18290678
0.06450478 0.17303646 0.0368402 0.15109733 -0.018729283 0.30503696 -0.04077861 0.018586626
0.13827193 0.052419547 0.25134686 0.018806076 0.12517902 -0.04341506 0.067122266 -0.06150362
00000000: e32a aabd 6051 a2bc 6048 86bd 89a4 6abb
00000010: 21e6 b93d cf90 083e 8203 a23e 8451 5abe
00000020: 611c e13e b32c 713e d46a 913e e25d d33c
00000030: a0ce 133e 8ea2 843d cc37 c73d ea4b 3b3e
00000040: 151b 843d 7830 313e c0e5 163d 42b9 1a3e
00000050: 276e 99bc ce2d 9c3e 7907 27bd fb42 983c
00000060: 2897 0d3e e1b5 563d 89b0 803e 330f 9a3c
00000070: ee2e 003e fdd3 31bd 6677 893d 38eb 7bbd

resnets.0.conv1.conv2d.weight f4 [32, 32, 3, 3]
0.039640512 -0.025060752 -0.010454023 -0.02649115 -0.13675083 0.0198375 -0.041813478 0.08641403
0.0026700534 -0.09828921 0.072413646 -0.019430393 0.2085139 0.09465954 -0.16492048 0.0825468
0.30650848 -0.0067779724 0.017122561 -0.04637225 -0.032616574 0.21791956 -0.06069725 -0.08116328
-0.013556837 -0.028097425 0.0050273393 -0.06884857 0.07353203 0.1185784 -0.06467091 -0.015626917
-0.024638792 0.17076 0.0121111935 -0.14126465 0.027176267 0.21997328 0.033714354 -0.14478163
-0.052991133 0.08744814 0.071761906 -0.015564561 -0.042236775 -0.08584128 -0.120095395 0.08151777
0.21146044 -0.119032465 -0.15746322 0.03426409 0.16622557 -0.02065302 -0.09096782 0.08346942
0.1574896 -0.010030944 -0.25534037 0.018747061 0.2772047 -0.007313709 -0.3049016 -0.26764387
0.024316434 0.08506454 -0.09990095 0.08968527 0.19181894 0.103532605 -0.058288004 -0.046508357
0.1306568 0.01738539 -0.116246656 0.031250782 0.07068336 -0.051704943 -0.15749702 -0.010407066
0.1993071 0.14185295 -0.25436264 -0.10469986 0.17179641 0.18193944 -0.34664902 -0.4193836
0.04495502 0.2771769 0.027252253 0.14598906 0.07419215 0.056127038 -0.026697079 -0.07323074
0.07424397 -0.0761289 -0.016179858 0.023353871 0.16516198 -0.19566405 -0.19166966 -0.18206246
0.3621294 0.035026513 -0.18647861 -0.09851937 0.029271472 0.08615617 0.0037499487 -0.089093186
-0.025321787 0.003940959 0.07962628 0.013290315 0.016550865 0.30020517 0.19398643 -0.10596859
-0.07874223 0.13633569 0.06279198 -0.1731896 -0.0717187 0.10483295 0.05560613 -0.16298625
-0.36162004 0.12780528 0.24805398 -0.012725074 -0.2164662 -0.08281504 0.08673291 -0.005828968
-0.13129663 -0.059085626 0.11571327 -0.13379748 -0.18014932 0.03712127 0.09113184 0.078040086
0.023236562 0.04081851 -0.029928017 -0.18288322 0.10451613 0.056631956 -0.03993906 -0.10257965
0.033087764 -0.12792736 -0.2008757 0.038295627 0.2018285 -0.031090643 -0.10576423 0.009004073
0.03223846 -0.15571435 0.063454844 -0.21542083 -0.059269037 0.27406117 -0.03210624 -0.2708613
-0.006859189 0.029207261 0.1050441 0.00044944568 0.08813309 -0.11227166 -0.011628927 -0.048835382
0.085108116 -0.05977536 0.022054736 0.070918016 0.19509235 0.16093053 -0.30479464 -0.5119827
0.103880726 0.37523523 -0.093792796 -0.23077036 0.21041663 0.11071715 -0.057221342 -0.057101272
-0.07905819 0.019980308 -0.113437474 -0.014652497 -0.042492103 0.009684062 -0.13080671 -0.05509501
0.17379498 0.1589475 -0.00966627 -0.11693967 0.07584955 0.0292476 0.034828372 0.07873081
0.011828205 -0.072027914 -0.18802254 0.25150344 0.27617687 -0.09313687 -0.03933783 -0.106614865
-0.097064205 0.0390767 0.24600062 0.04593525 0.03787331 -0.051114276 0.119190164 0.0081644785
-0.11038163 0.15157475 -0.018605057 -0.101457566 0.1933182 0.035165653 0.061055824 -0.18704386
-0.08278995 0.04869187 -0.33252126 -0.16110288 0.08067336 0.05974614 0.014653041 -0.19387013
0.11745956 0.031766906 -0.016746119 0.05151231 0.012724633 -0.15565899 0.01635571 -0.024540171
0.06269234 -0.080429874 0.085703894 0.11754253 0.04825798 0.24846634 -0.13311319 -0.12138374
00000000: 175e 223d 354c cdbc 5a47 2bbc f803 d9bc
00000010: 6908 0cbe 4182 a23c 9c44 2bbd d7f9 b03d
00000020: 10fc 2e3b da4b c9bd 9b4d 943d 7d2c 9fbc
00000030: ab84 553e dcdc c13d eae0 28be 4c0e a93d
00000040: aeee 9c3e c119 debb 9d44 8c3c d4f0 3dbd
00000050: f598 05bd 4e26 5f3e ae9d 78bd ef38 a6bd
00000060: 7f1d 5ebc 922c e6bc 61bc a43b 7b00 8dbd
00000070: f697 963d 3bd9 f23d 2f72 84bd 0504 80bc
00000080: 4bd7 c9bc b6db 2e3e 076e 463c aea7 10be
00000090: c3a0 de3c ad40 613e 1018 0a3d a341 14be
000000a0: 3b0d 59bd 0318 b33d e8f7 923d 8002 7fbc
000000b0: 7800 2dbd 8ecd afbd 93f4 f5bd caf2 a63d
000000c0: 1689 583e 4bc7 f3bd 0a3e 21be 8158 0c3d
000000d0: 0937 2a3e 8630 a9bc 564d babd 04f2 aa3d
000000e0: f444 213e d458 24bc f9bb 82be 7093 993c
000000f0: c6ed 8d3e d6a7 efbb 101c 9cbe 9e08 89be
00000100: 4233 c73c 5136 ae3d df98 ccbd e9ac b73d
00000110: 2f6c 443e e708 d43d 67bf 6ebd 8c7f 3ebd
00000120: e5ca 053e ce6b 8e3c ba12 eebd d200 003d
00000130: 70c2 903d 90c8 53bd e646 21be 6682 2abc
00000140: 2917 4c3e e641 113e d23b 82be e16c d6bd
00000150: 66eb 2f3e 554e 3a3e fb7b b1be 72b9 d6be
00000160: c122 383d 21ea 8d3e 1e40 df3c 287e 153e
00000170: 0ef2 973d 77e5 653d d5b3 dabc 00fa 95bd
00000180: 390d 983d 78e9 9bbd 9f8b 84bc 9e50 bf3c
00000190: 3920 293e 285c 48be 0d45 44be 956e 3abe
000001a0: 0669 b93e f677 0f3d 40f4 3ebe 86c4 c9bd
000001b0: baca ef3c a572 b03d b3c1 753b 7d76 b6bd
000001c0: a36f cfbc 2923 813b 1a13 a33d 9fbf 593c
000001d0: ae95 873c 7eb4 993e 61a4 463e 0f06 d9bd
000001e0: 9b43 a1bd 959b 0b3e 1599 803d 9d58 31be
000001f0: 41e1 92bd a8b2 d63d 41c3 633d dee5 26be
00000200: 4326 b9be 63df 023e dd01 7e3e d47c 50bc
00000210: 51a9 5dbe ef9a a9bd 06a1 b13d ed00 bfbb
00000220: a072 06be c503 72bd 14fb ec3d 3502 09be
00000230: 1079 38be 790c 183d 55a3 ba3d 7bd3 9f3d
00000240: 9a5a be3c 4f31 273d 9a2b f5bc bd45 3bbe
00000250: 8e0c d63d e9f6 673d 2497 23bd 4815 d2bd
00000260: 0987 073d 64ff 02be 5cb2 4dbe e0db 1c3d
00000270: 21ac 4e3e ceb1 febc eb9a d8bd d285 133c
00000280: 7a0c 043d 9573 1fbe 9df4 813d 4797 5cbe
00000290: 17c4 72bd bf51 8c3e d581 03bd 55ae 8abe
000002a0: 0cc3 e0bb 1144 ef3c 5c21 d73d 94a3 eb39
000002b0: 1f7f b43d afee e5bd 4187 3ebc 9c07 48bd
000002c0: 2a4d ae3d 02d7 74bd 22ac b43c 773d 913d
000002d0: 4ac6 473e f9ca 243e 0b0e 9cbe 4c11 03bf
000002e0: 6bbf d43d d51e c03e 7016 c0bd 114f 6cbe
000002f0: 7577 573e acbf e23d ed60 6abd 06e3 69bd
00000300: 43e9 a1bd bead a33c e851 e8bd 0711 70bc
00000310: 330c 2ebd e6a9 1e3c 32f2 05be 4eab 61bd
00000320: 50f7 313e 22c3 223e 465f 1ebc 117e efbd
00000330: 0257 9b3d aa98 ef3c 32a8 0e3d 9e3d a13d
00000340: 16cb 413c 5f83 93bd fb88 40be 0fc5 803e
00000350: 0e67 8d3e 8bbe bebd b420 21bd e558 dabd
00000360: 99c9 c6bd e40e 203d 96e7 7b3e 9a26 3c3d
00000370: 0b21 1b3d 345d 51bd f919 f43d 4ec4 053c
00000380: c40f e2bd 6936 1b3e a269 98bc fcc8 cfbd
00000390: 35f5 453e dc09 103d ac15 7a3d 6d88 3fbe
000003a0: c78d a9bd 2071 473d 3a40 aabe 27f8 24be
000003b0: 1338 a53d 5eb8 743d 4f13 703c e485 46be
000003c0: a38e f03d 041e 023d 282f 89bc 92fe 523d
000003d0: fb7a 503c 1265 1fbe 69fc 853c 7808 c9bc
000003e0: d764 803d 6bb8 a4bd 8685 af3d 23ba f03d
000003f0: 29aa 453d f66d 7e3e d34e 08be 0a98 f8bd

resnets.0.conv1.conv2d.bias f4 [32]
-0.08261091 0.18591169 0.061703034 0.045120593 0.23247164 0.08526611 -0.11662101 -0.10785847
0.0153466705 -0.23021723 -0.082801 -0.16617917 0.13155696 0.0511271 -0.011384351 -0.38140476
0.04791558 -0.036709268 -0.11178465 -0.1843044 0.009595532 -0.26332602 0.01537058 0.08073716
0.14632814 -0.13027813 0.36821446 -0.12945402 -0.12071434 0.18881282 0.11487245 -0.08921833
00000000: e92f a9bd a25f 3e3e 52bc 7c3d 5fd0 383d
00000010: 0c0d 6e3e 00a0 ae3d ffd6 eebd e7e4 dcbd
00000020: 9a70 7b3c 11be 6bbe 9293 a9bd df2a 2abe
00000030: deb6 063e a66a 513d 6e85 3abc 7c47 c3be
00000040: 2143 443d 755c 16bd 5aef e4bd 4bba 3cbe
00000050: 9436 1d3c abd2 86be e3d4 7b3c 8659 a53d
00000060: 0bd7 153e a167 05be 9b86 bc3e 988f 04be
00000070: 1439 f7bd 2658 413e 3f42 eb3d 1ab8 b6bd

resnets.0.in1.weight f4 [32]
1.0774944 1.3255223 0.7462034 0.9792926 1.2014403 0.84938973 0.7153449 1.4172647
0.8521282 0.8844149 1.0747421 1.195881 0.9700906 0.86566365 0.8853627 0.96662873
1.1740909 0.93602735 0.8790694 0.8524059 0.9081801 1.1736593 0.98000866 1.1748095
1.038491 0.95383227 1.029374 0.756337 0.88820106 0.90178746 1.0403615 1.0045483
00000000: 56eb 893f b7aa a93f 3007 3f3f ebb2 7a3f
00000010: ccc8 993f 9b71 593f d820 373f ee68 b53f
00000020: 1325 5a3f 0469 623f 2691 893f a112 993f
00000030: dc57 783f 229c 5d3f 21a7 623f fb74 773f
00000040: 9c48 963f 7d9f 6f3f b10a 613f 4637 5a3f
00000050: 7e7e 683f 783a 963f d9e1 7a3f 2860 963f
00000060: 46ed 843f 5a2e 743f 87c2 833f 4d9f 413f
00000070: 2561 633f 8bdb 663f 912a 853f 0a95 803f

resnets.0.in1.bias f4 [32]
0.22292504 0.18810825 0.6205808 0.15940359 -0.0059071947 -0.0382261 0.18141845 -0.11619612
0.06055169 0.00977847 0.24828783 0.03143192 0.43932736 0.31624445 -0.16538517 0.38359615
-0.1769208 0.2102013 0.14072748 -0.1451593 -0.20201069 0.06256423 0.05470018 -0.01362605
0.17301512 0.29553273 0.34703857 0.032525834 -0.12439688 0.12232415 0.11393079 0.18179464
00000000: 7646 643e 739f 403e 62de 1e3f b23a 233e
00000010: 2491 c1bb f992 1cbd c2c5 393e 3bf8 edbd
00000020: 0d05 783d e035 203c 2a3f 7e3e c2be 003d
00000030: 84ef e03e cbea a13e bb5a 29be b766 c43e
00000040: ba2a 35be 023f 573e dd1a 103e a4a4 14be
00000050: e4db 4ebe ad21 803d 4c0d 603d cc3f 5fbc
00000060: e02a 313e 1150 973e 0aaf b13e cf39 053d
00000070: cbc3 febd 1585 fa3d 8c54 e93d 6028 3a3e

resnets.0.conv2.conv2d.weight f4 [32, 32, 3, 3]
-0.03469345 -0.085123576 -0.069213696 0.12103395 -0.30016148 -0.26781192 0.09713637 0.18098988
0.016616605 -0.11764087 -0.18760324 0.05475273 0.07789622 -0.05747165 0.11766177 0.03568235
0.0023160856 -0.11046851 0.005546717 0.09067739 0.13059363 0.027144298 0.070443265 -0.07701945
0.2666413 -0.009882677 -0.02241852 0.08058111 -0.103080384 0.003468751 0.092212975 -0.06225394
-0.24471602 -0.010291757 -0.06597296 -0.107232854 0.11243397 -0.05525603 0.10125339 -0.054580975
-0.06764147 -0.0002550281 0.13051112 0.094433926 0.33816597 0.33643636 0.35727954 0.33329162
0.123321965 0.15726556 0.21336348 0.04554091 0.12542596 0.24410458 0.19422388 -0.05373829
-0.07067476 0.12317014 0.079873934 0.09316735 0.082806684 -0.0018752074 -0.15450104 -0.0122328065
-0.16210018 -0.18560313 -0.18046889 -0.15285692 0.0751292 0.02181771 0.06307607 0.17899835
-0.12749197 -0.1682154 -0.25806257 0.024635203 -0.114786945 0.047496002 0.076439194 0.12101323
0.042947426 0.26088035 0.31718785 0.14841677 0.082087174 0.15245245 0.28333005 -0.16338763
-0.015486467 0.08633137 0.08662498 -0.034573894 -0.022351675 -0.16358949 -0.15768822 -0.030198762
0.17549594 0.092999525 -0.012572584 -0.28260705 -0.035042465 -0.11910882 -0.21538873 -0.3254666
-0.07880712 -0.19294102 0.10381685 0.06530018 0.16916701 0.08477073 -0.0660968 -0.036094937
0.021532154 0.025613802 -0.093647934 -0.33376908 0.029883197 -0.15953486 -0.045512993 -0.042282246
0.009900579 -0.09061592 -0.023337388 -0.11096284 -0.108610235 -0.1499645 -0.052950233 -0.047074243
0.039978262 0.09825105 -0.03405403 0.004622239 0.12728328 0.10469451 0.09379403 0.18311231
0.07272356 -0.02194275 0.08475868 0.0030733834 0.086634554 0.060077243 0.042997465 0.12403879
0.29026955 0.050291438 -0.010033563 0.16970593 0.0060871113 0.0054896697 0.15486309 -0.03635509
-0.3265783 -0.11001668 -0.1202219 -0.12922718 -0.18410051 0.07332065 -0.21246678 0.12829107
-0.14412476 -0.036357813 -0.05263719 -0.08981469 -0.05093136 0.06136429 0.15369387 -0.0816009
0.08821485 0.12827994 0.17823103 -0.06368538 -0.055998575 -0.11582695 -0.0891111 0.036749713
-0.022257043 -0.064826414 -0.08902818 -0.08130537 0.06348192 -0.011241985 0.1358457 -0.088377036
0.037151784 0.14631899 0.06978659 -0.012798974 -0.062593974 -0.14047995 -0.23471057 -0.04394797
0.13478963 0.109773256 -0.09200727 -0.01807939 -0.09628406 -0.12674248 0.0086729275 -0.009355467
-0.13572313 0.23815723 0.048386965 -0.021406202 -0.26358375 0.063091114 -0.16900553 -0.043604456
-0.30272016 -0.008110092 0.06876753 -0.05175432 0.07980571 -0.00047605834 0.21103434 0.2004439
0.047360722 0.1694783 0.021337088 0.07005687 0.0016825694 -0.12673464 0.16181539 -0.16617952
-0.13602187 0.009090839 -0.11819191 -0.10338408 0.15299201 0.07580091 0.27658978 0.05691081
-0.014334797 -0.22744504 -0.19724537 0.06362627 -0.15048352 0.14409657 0.19019392 0.14996849
0.1427525 0.055519965 -0.018662415 -0.1769489 0.03705537 0.22877736 -0.17165406 0.122009724
0.20768362 -0.033314582 0.11281299 0.19568445 0.2216781 -0.08012758 8.101144e-05 0.02055648
00000000: b81a 0ebd 4555 aebd e9bf 8dbd a6e0 f73d
00000010: c4ae 99be a51e 89be 6fef c63d 6955 393e
00000020: 8c1f 883c b2ed f0bd 101b 40be 6644 603d
00000030: 0e88 9f3d 6567 6bbd a7f8 f03d a827 123d
00000040: 78c9 173b 503d e2bd 3cc1 b53b 11b5 b93d
00000050: 56ba 053e b85d de3c 8f44 903d 60bc 9dbd
00000060: 3585 883e f4ea 21bc 0ba7 b7bc b607 a53d
00000070: cf1b d3bd fc53 633b 28da bc3d fdfd 7ebd
00000080: d696 7abe c29e 28bc d51c 87bd e69c dbbd
00000090: c843 e63d 2654 62bd f05d cf3d 4d90 5fbd
000000a0: 9c87 8abd 4bb5 85b9 b5a4 053e 9366 c13d
000000b0: 1724 ad3e 6341 ac3e 58ed b63e 33a5 aa3e
000000c0: 3a90 fc3d 390a 213e f57b 5a3e 1b89 3a3d
000000d0: aa6f 003e 8df6 793e a0e2 463e ae1c 5cbd
000000e0: eebd 90bd a040 fc3d f294 a33d 86ce be3d
000000f0: 8d96 a93d 85c9 f5ba 8535 1ebe 1c6c 48bc
00000100: 97fd 25be bf0e 3ebe d6cc 38be 8686 1cbe
00000110: 57dd 993d 0ebb b23c 072e 813d 584b 373e
00000120: 418d 02be a840 2cbe c720 84be c4cf c93c
00000130: 6b15 ebbd 2b8b 423d 278c 9c3d c9d5 f73d
00000140: a4e9 2f3d 1c92 853e 7266 a23e 91fa 173e
00000150: 521d a83d 7f1c 1c3e a310 913e 164f 27be
00000160: f3ba 7dbc 80ce b03d 7068 b13d 5b9d 0dbd
00000170: dc1a b7bc 0184 27be 0579 21be 6563 f7bc
00000180: 35b5 333e 8976 be3d 3dfd 4dbc dfb1 90be
00000190: b088 0fbd 53ef f3bd dd8e 5cbe 8fa3 a6be
000001a0: a165 a1bd 5592 45be ee9d d43d 1abc 853d
000001b0: 1e3a 2d3e 479c ad3d c25d 87bd 49d8 13bd
000001c0: 3364 b03c 09d4 d13c 7dca bfbd c8e3 aabe
000001d0: 9bcd f43c 1b5d 23be d56b 3abd 2630 2dbd
000001e0: 0a36 223c d794 b9bd 0d2e bfbc 7c40 e3bd
000001f0: 0b6f debd 4b90 19be 58e2 58bd ecd0 40bd
00000200: 3fc0 233d d937 c93d 3d7c 0bbd 2776 973b
00000210: 8c56 023e 136a d63d 1617 c03d cb81 3b3e
00000220: 17f0 943d 48c1 b3bc f595 ad3d d16a 493b
00000230: 756d b13d 8e13 763d 1c1e 303d 0d08 fe3d
00000240: 369e 943e 65fe 4d3d d063 24bc 64c7 2d3e
00000250: 6476 c73b b0e2 b33b 6e94 1e3e 13e9 14bd
00000260: 4535 a7be 6d50 e1bd e636 f6bd 2154 04be
00000270: d884 3cbe 2329 963d e490 59be bc5e 033e
00000280: 7195 13be eeeb 14bd 189a 57bd c4f0 b7bd
00000290: 679d 50bd 1f59 7b3d ed61 1d3e 5f1e a7bd
000002a0: fda9 b43d d15b 033e 3282 363e 7b6d 82bd
000002b0: c35e 65bd ae36 edbd e17f b6bd de86 163d
000002c0: 6754 b6bc b6c3 84bd 6854 b6bd 6e83 a6bd
000002d0: cf02 823d 4d30 38bc 231b 0b3e 05ff b4bd
000002e0: 782c 183d a5d4 153e 46ec 8e3d cab2 51bc
000002f0: 4531 80bd fad9 0fbe f857 70be c902 34bd
00000300: 4b06 0a3e cdd0 e03d 4f6e bcbd 3b1b 94bc
00000310: 9430 c5bd c8c8 01be e518 0e3c ac47 19bc
00000320: 01fb 0abe 7ddf 733e 6931 463d 0f5c afbc
00000330: 73f4 86be ea35 813d c90f 2dbe 969a 32bd
00000340: 23fe 9abe 31e0 04bc fed5 8c3d 56fc 53bd
00000350: 2d71 a33d 7897 f9b9 6319 583e 2a41 4d3e
00000360: 51fd 413d b88b 2d3e 1ecb ae3c fa79 8f3d
00000370: a989 dc3a bac6 01be efb2 253e f72a 2abe
00000380: 5149 0bbe bef1 143c 9a0e f2bd 08bb d3bd
00000390: f0a9 1c3e 823d 9b3d 2d9d 8d3e 4f1b 693d
000003a0: 7fdc 6abc 5ae7 68be b1fa 49be 7d4e 823d
000003b0: 5a18 1abe 0d8e 133e 32c2 423e 5791 193e
000003c0: b62d 123e e768 633d ece1 98bc 1832 35be
000003d0: 5fc7 173d 9d44 6a3e 15c6 2fbe 3ce0 f93d
000003e0: 04ab 543e df74 08bd 7f0a e73d 8161 483e
000003f0: 95ff 623e ee19 a4bd b0e4 a938 1066 a83c

resnets.0.conv2.conv2d.bias f4 [32]
-0.12509948 -0.004556713 0.054035276 -0.15429585 -0.113152266 0.191651 0.13752185 0.11441642
-0.17698509 -0.091661975 0.2161597 0.06495034 -0.123179145 -0.008042329 -0.19046833 0.0004687152
0.009285565 -0.16567351 -0.21143389 -0.09832163 0.04540607 -0.09325798 -0.05061092 -0.18700689
-0.0065891067 0.049033593 0.13810371 -0.21674637 -0.13354225 -0.2607862 -0.24759944 -0.2856172
00000000: 141a 00be 7b50 95bb 1854 5d3d bbff 1dbe
00000010: 60bc e7bd 2940 443e 87d2 0c3e 2853 ea3d
00000020: 943b 35be 46b9 bbbd f858 5d3e af04 853d
00000030: 5945 fcbd f9c3 03bc 210a 43be e4bd f539
00000040: 7b22 183c 51a6 29be 2082 58be da5c c9bd
00000050: b7fb 393d 0afe bebd 654d 4fbd bc7e 3fbe
00000060: 6fe9 d7bb 73d7 483d 0f6b 0d3e c3f2 5dbe
00000070: 4dbf 08be c585 85be b58a 7dbe 6b3c 92be

resnets.0.in2.weight f4 [32]
0.471235 0.5590218 0.71533227 0.44455588 0.6969946 0.69634104 0.63500243 0.53312474
0.6677402 0.7978635 0.60954064 0.68460965 0.5587844 0.6660821 0.80527 0.565828
0.8269103 0.6074299 0.6055813 0.5658792 0.83841527 0.7930013 0.74412906 0.5365721
0.6872101 0.5958443 0.83751166 0.58877635 0.5848913 0.6090459 0.67668134 0.7436742
00000000: b745 f13e 0d1c 0f3f 0420 373f d49c e33e
00000010: 3d6e 323f 6843 323f 858f 223f dd7a 083f
00000020: 06f1 2a3f c840 4c3f db0a 1c3f 9442 2f3f
00000030: 7f0c 0f3f 5b84 2a3f 2d26 4e3f 1bda 103f
00000040: 65b0 533f 8780 1b3f 6007 1b3f 76dd 103f
00000050: 62a2 563f 2202 4b3f 3e7f 3e3f ca5c 093f
00000060: 00ed 2f3f 4189 183f 2a67 563f 0cba 163f
00000070: 70bb 153f 6fea 1b3f fd3a 2d3f 6f61 3e3f

resnets.0.in2.bias f4 [32]
-0.052813657 -0.055901848 0.05670444 -0.073978744 -0.09278993 0.18571307 0.1494025 0.16937697
-0.17908607 0.15828778 0.33151168 0.17673919 -0.06923552 -0.2312886 -0.13992913 -0.056280788
0.01680863 -0.1254034 -0.09924641 0.045677915 0.1219904 0.08579481 -0.093064986 -0.19874816
0.11591894 0.041612502 0.23028734 -0.21322912 -0.01984072 -0.1993337 -0.19378005 0.06835176
00000000: 2253 58bd 56f9 64bd ea42 683d 2b82 97bd
00000010: a608 bebd 912b 3e3e f8fc 183e 2871 2d3e
00000020: 5762 37be 3116 223e e6bb a93e 1efb 343e
00000030: 5acb 8dbd ebd6 6cbe 9549 0fbe af86 66bd
00000040: 41b2 893c c069 00be b441 cbbd c418 3b3d
00000050: 1ad6 f93d 30b5 af3d db98 bebd a384 4bbe
00000060: e966 ed3d df71 2a3d 72d0 6b3e bc58 5abe
00000070: 0189 a2bc 221e 4cbe 476e 46be 02fc 8b3d

resnets.1.conv1.conv2d.weight f4 [32, 32, 3, 3]
-0.02275216 -0.08117823 0.015621076 0.037467204 -0.29416266 -0.010134336 0.12535505 -0.21923712
-0.066979766 -0.09195499 -0.08792546 0.11799436 0.040291794 -0.24562106 0.3498681 -0.07575925
-0.26941854 0.033323776 0.041437663 -0.3818062 0.094391674 0.07621125 -0.3121652 0.23397498
0.09712641 -0.25977424 0.0797838 0.019199163 -0.18234292 -0.0026573017 0.033680245 -0.279425
0.086376525 0.12995075 -0.1900187 -0.09640485 -0.027777392 -0.009079674 -0.0037905246 -0.029649308
-0.0003435683 -0.27435693 -0.07193406 -0.18009704 -0.25419793 0.025858477 -0.12568828 0.019031065
0.10576037 -0.12467966 0.032275047 0.074734576 -0.11486248 0.07506693 -0.2679018 0.1561235
-0.14604068 0.14584616 0.43210357 -0.25039718 -0.03408525 0.22905858 -0.14568694 -0.080065764
-0.10732685 0.08586111 -0.061337907 -0.09072888 -0.027976565 0.02742175 -0.023192955 -0.0032818224
0.11363163 -0.114738315 0.06464037 0.13148299 -0.17056617 0.10686798 0.10523101 -0.1738052
0.036359202 0.016164364 -0.29010236 0.16881871 0.08877759 -0.20388784 0.2703591 -0.12172301
-0.195471 0.008183336 -0.06862413 0.074361764 0.05582045 0.0039686374 0.16541871 -0.13375963
-0.010715765 -0.024245901 -0.033904873 -0.028877134 0.13899235 -0.18423115 -0.0445933 0.11496817
-0.16520955 -0.019891318 0.10356645 -0.09723821 0.14509758 -0.12537856 0.08832909 0.174147
-0.11908272 0.15190637 0.17763658 -0.18828754 -0.050218396 0.007184491 -0.049372118 0.07701081
0.05227601 -0.17189063 0.038891584 0.0948324 -0.25490308 0.020026226 -0.038887765 -0.022202354
0.1657915 0.057113357 0.019387139 0.19146644 0.0069044787 -0.10360806 -0.060086314 -0.09575793
-0.07745602 0.14847022 -0.053019207 0.06082226 0.05127926 0.014593678 0.094218045 0.16288982
0.18274112 -0.07150532 0.094251096 0.058801815 -0.12262581 0.18465884 -0.013554042 0.024407815
0.0052670324 0.055814054 0.2296121 0.055844437 0.09763261 0.110064834 0.0910326 -0.006383066
-0.021161955 -0.08963104 0.0445373 -0.1111072 -0.06741335 0.07076798 0.05069987 0.200336
-0.013073493 0.121040605 -0.05801626 0.22239973 0.04138477 0.09982604 0.22833353 -0.23697098
0.08024657 0.032573014 -0.19927803 -0.25769517 -0.04739887 0.07867415 0.023670604 -0.08391742
0.16428961 0.06204487 -0.11976446 0.0025974964 -0.0032990966 -0.04587277 0.03287837 -0.14531519
-0.016164085 0.20906915 -0.12293372 0.07423937 0.1801949 -0.05320706 -0.06539136 -0.15523015
0.027266089 0.054498505 -0.10463037 -0.093178146 0.12724507 -0.039571807 -0.0656826 -0.03398751
0.24037063 -0.07865371 -0.1866975 0.00030500762 -0.06648457 -0.10110942 0.07425901 -0.061623394
-0.03636453 0.17721556 -0.06853523 0.02418225 0.2248135 -0.21842533 0.03237249 0.28871486
-0.21832836 0.24157883 -0.14151177 -0.023759453 -0.03915063 -0.3229592 -0.020627579 0.057050683
-0.24985503 0.22157882 0.023933649 -0.32532614 -0.07744898 0.08165551 -0.26182348 -0.005760815
0.12543344 -0.2695116 -0.12652607 0.058727756 -0.23727566 0.02607231 0.022785641 -0.30585325
0.05141371 -0.0007233042 -0.04991223 0.19932441 0.045596726 0.08435232 -0.00745369 0.019069992
00000000: bd62 babc c640 a6bd 8bef 7f3c 3677 193d
00000010: 7d9c 96be 7c0a 26bc 135d 003e b27f 60be
00000020: b02c 89bd e652 bcbd 4312 b4bd 07a7 f13d
00000030: 0209 253d 1684 7bbe e921 b33e aa27 9bbd
00000040: 3af1 89be 837e 083d 8aba 293d 1a7c c3be
00000050: 6c50 c13d a514 9c3d 1ed4 9fbe 2397 6f3e
00000060: 36ea c63d 2101 85be b065 a33d 9047 9d3c
00000070: 1ab8 3abe 2026 2ebb 4cf4 093d cb10 8fbe
00000080: 2de6 b03d cf11 053e 4394 42be e86f c5bd
00000090: 6a8d e3bc eac2 14bc 736a 78bb 1be3 f2bc
000000a0: f520 b4b9 8378 8cbe 2a52 93bd 5c6b 38be
000000b0: 3b26 82be 28d5 d33c 6eb4 00be 09e7 9b3c
000000c0: e598 d83d 0d58 ffbd d732 043d 710e 993d
000000d0: 053d ebbd b1bc 993d 6d2a 89be d7de 1f3e
000000e0: b08b 15be b258 153e ae3c dd3e 0f34 80be
000000f0: fa9c 0bbd 558e 6a3e f52e 15be 85f9 a3bd
00000100: 2ece dbbd f3d7 af3d 753d 7bbd 10d0 b9bd
00000110: 1c2f e5bc 94a3 e03c 27ff bdbc d813 57bb
00000120: b3b7 e83d ecfb eabd 2c62 843d 7aa3 063e
00000130: e6a8 2ebe 99dd da3d 5b83 d73d fef9 31be
00000140: 63ed 143d 216b 843c 4c88 94be d0de 2c3e
00000150: 06d1 b53d f9c7 50be 826c 8a3e ea49 f9bd
00000160: 8d29 48be 6613 063c cf8a 8cbd fb4a 983d
00000170: fca3 643d 580b 823b 8663 293e 49f8 08be
00000180: 2d91 2fbc 579f c6bc d6df 0abd bd8f ecbc
00000190: 0354 0e3e 17a7 3cbe 77a7 36bd 6f74 eb3d
000001a0: b12c 29be 1ef3 a2bc a61a d43d d424 c7bd
000001b0: 7694 143e 3d63 00be e2e5 b43d 9753 323e
000001c0: a4e1 f3bd 588d 1b3e 5de6 353e 73ce 40be
000001d0: ceb1 4dbd e16b eb3b 6b3a 4abd d8b7 9d3d
000001e0: 5f1f 563d 1904 30be c84c 1f3d 7d37 c23d
000001f0: a882 82be 0a0e a43c c748 1fbd b6e1 b5bc
00000200: 3fc5 293e b2ef 693d c7d1 9e3c c70f 443e
00000210: f73e e23b 7630 d4bd 111d 76bd bc1c c4bd
00000220: 43a1 9ebd 9408 183e ab2a 59bd c320 793d
00000230: 340a 523d 521a 6f3c 64f5 c03d 97cc 263e
00000240: 7d20 3b3e 6271 92bd b806 c13d 2cda 703d
00000250: 3e23 fbbd 3517 3d3e c611 5ebc e6f2 c73c
00000260: 1297 ac3b 479d 643d 6f1f 6b3e 23bd 643d
00000270: 9bf3 c73d ac69 e13d 4d6f ba3d 0a29 d1bb
00000280: d65b adbc 7b90 b7bd be6c 363d 2c8c e3bd
00000290: 0310 8abd cdee 903d abaa 4f3d e124 4d3e
000002a0: 3432 56bc 23e4 f73d 75a2 6dbd c1bc 633e
000002b0: 1483 293d 9871 cc3d 44d0 693e 85a8 72be
000002c0: 5058 a43d 486b 053d 8a0f 4cbe 9ff0 83be
000002d0: 5125 42bd ea1f a13d dbe8 c13c e5dc abbd
000002e0: 893b 283e c322 7e3d 1247 f5bd c23a 2a3b
000002f0: a835 58bb 16e5 3bbd 78ab 063d 81cd 14be
00000300: 8b6a 84bc 3916 563e adc4 fbbd d00a 983d
00000310: 0385 383e a5ef 59bd e8eb 85bd a7f4 1ebe
00000320: 225d df3c d339 5f3d 7348 d6bd 2fd4 bebd
00000330: 884c 023e 0c16 22bd 9984 86bd 7d36 0bbd
00000340: b823 763e 3215 a1bd a12d 3fbe 6ee9 9f39
00000350: 1029 88bd 7512 cfbd 1c15 983d d068 7cbd
00000360: f9f2 14bd ff77 353e 335c 8cbd db19 c63c
00000370: 8335 663e e4aa 5fbe 0499 043d 6fd2 933e
00000380: 7891 5fbe 7160 773e 76e8 10be 2fa3 c2bc
00000390: 695c 20bd e95a a5be 2bfb a8bc faad 693d
000003a0: ffd9 7fbe 8fe5 623e 8010 c43c 2691 a6be
000003b0: 929d 9ebd 013b a73d ba0d 86be 38c5 bcbb
000003c0: a071 003e 6dfd 89be 0d90 01be 848c 703d
000003d0: 64f8 72be 9995 d53c f4a8 ba3c cc98 9cbe
000003e0: 2f97 523d 209c 3dba c470 4cbd b31b 4c3e
000003f0: a2c3 3a3d e9c0 ac3d 153e f4bb ac38 9c3c

resnets.1.conv1.conv2d.bias f4 [32]
0.10311092 0.076676354 0.058675174 -0.080805644 0.33471128 -0.03402918 0.25951612 -0.10294747
-0.20320746 0.0205349 -0.09892357 0.16927023 -0.13528782 0.038582638 0.053662855 0.09351994
-0.015524465 0.02267891 -0.014740998 0.21964888 0.1877448 -0.03578231 -0.13180304 0.05977801
-0.029370172 -0.2174453 0.17968161 -0.06980202 0.019455757 -0.037165895 0.17699654 -0.09075145
00000000: d12b d33d 7e08 9d3d 6155 703d 6e7d a5bd
00000010: 475f ab3e 2e62 0bbd 4cdf 843e 20d6 d2bd
00000020: 9e15 50be ce38 a83c 7198 cabd 2d55 2d3e
00000030: e488 0abe d408 1e3d 95cd 5b3d 6287 bf3d
00000040: 535a 7ebc 1fc9 b93c 3a84 71bc a3eb 603e
00000050: 2c40 403e 7990 12bd 60f7 06be c9d9 743d
00000060: b799 f0bc fba9 5ebe 75fe 373e 5df4 8ebd
00000070: ae61 9f3c 443b 18bd 953e 353e e5db b9bd

resnets.1.in1.weight f4 [32]
0.96378225 1.1135849 0.7891365 0.7324634 0.99901396 0.7493442 0.73170066 0.6850884
0.7281902 0.8069225 0.8349796 1.1739458 1.2421944 0.9491384 1.0694586 0.9367455
0.9597062 0.88320583 1.0106343 0.7376397 0.9301115 1.0701841 0.7664718 0.8247223
1.1073232 0.87879044 0.69217175 0.9068593 1.1865859 1.0078831 0.6885565 0.8312695
00000000: 6fba 763f f389 8e3f da04 4a3f b982 3b3f
00000010: 61bf 7f3f 06d5 3f3f bc50 3b3f f461 2f3f
00000020: ac6a 3a3f 7992 4e3f 39c1 553f db43 963f
00000030: 3a00 9f3f bcfa 723f 05e4 883f 8ece 6f3f
00000040: 4eaf 753f c719 623f 775c 813f f5d5 3c3f
00000050: ca1b 6e3f cbfb 883f 7f37 443f 0021 533f
00000060: c4bc 8d3f 69f8 603f 2b32 313f ee27 683f
00000070: 0ce2 973f 5002 813f 3d45 303f 14ce 543f

resnets.1.in1.bias f4 [32]
0.14326644 0.30924624 0.022539653 -0.014447536 0.3391422 0.29432434 0.18194771 0.28120157
-0.0551136 0.4018287 0.4575578 0.29758084 -0.23948944 -0.2864863 -0.11243997 -0.07469022
-0.027138505 -0.22827412 -0.8435319 0.7118158 -0.11172163 0.07845317 0.015002876 0.004047073
0.2459693 -0.3803322 0.38016212 -0.30313984 -0.28299242 -1.0290529 0.16815652 -0.12407248
00000000: 70b4 123e 8655 9e3e 14a5 b83c 5cb5 6cbc
00000010: 0ca4 ad3e aeb1 963e 8050 3a3e a7f9 8f3e
00000020: ccbe 61bd 7ebc cd3e 0445 ea3e 845c 983e
00000030: b83c 75be 55ae 92be ed46 e6bd 30f7 98bd
00000040: 9251 debc b1c0 69be b5f1 57bf 8f39 363f
00000050: 4fce e4bd 0eac a03d 9fce 753c 4f9d 843b
00000060: 60df 7b3e e7ba c2be 9ca4 c23e 2535 9bbe
00000070: 62e4 90be 01b8 83bf 3931 2c3e b619 febd
