Assets/Style_Transfer/Models/TransformerNet/Estilos 5-8/dragon_e10-512.onnx (onnx, 449372 bytes, 62 tensors)

conv1.conv2d.weight f4 [8, 3, 9, 9]
-0.057136025 0.080391474 0.045506105 0.029263588 -0.0014232618 -0.028534349 -0.0944447 -0.013745411
0.09391432 -0.02347545 0.050705433 -0.06524716 -0.072692126 0.00069282984 0.051516484 -0.11353137
-0.024666138 0.04179995 0.030886132 0.040022872 -0.12884964 -0.13228662 -0.04535258 0.14848877
0.019596659 -0.11497196 -0.06156217 0.06367635 -0.12457924 0.10457322 0.14799121 -0.028513199
0.060611784 0.0737666 0.0149283875 -0.13471119 0.06326481 -0.19489549 0.06775624 0.06455196
0.10421489 0.30900165 -0.09105469 0.08593522 -0.07145605 0.0677674 -0.109048195 0.006396815
-0.101775706 0.002697429 0.17094366 -0.22314431 0.08475826 0.01336573 0.14056462 -0.12155085
0.0041161114 -0.07817886 -0.5169893 -0.2734489 -0.13658434 0.06666237 -0.0077403733 0.17811549
0.050311442 -0.24750438 -0.07563181 -0.2393158 -0.045081243 0.13274215 0.043616645 -0.03809688
0.20063895 0.20853457 0.11134687 0.18513736 -0.0390148 -0.0005559065 0.09835279 -0.058106784
-0.13368818 -0.04201051 -0.018831095 0.024549335 -0.074116044 -0.047553785 -0.049383346 -0.045324933
-0.058949526 -0.013498538 -0.06393727 -0.0042396584 -0.017738929 -0.04490314 0.09563501 0.16253228
-0.025354013 -0.07227675 -0.009698073 0.0020924243 0.01791866 -0.15524682 -0.030432122 0.11590521
0.19053826 0.12231199 -0.12241613 -0.14392433 0.020072747 -0.12704426 0.14965037 0.2594631
0.079852805 0.017608734 0.01515887 -0.03494974 -0.11097032 -0.14990632 -0.13751805 0.22349101
0.18785687 0.11628664 0.14687254 -0.20607431 0.09373598 -0.097119726 -0.13194206 -0.039929826
0.4356398 0.46029308 0.297059 0.16952707 -0.38455558 0.0017610884 -0.016656423 -0.049669333
-0.040852893 0.48232517 0.5017084 -0.12357218 -0.18748695 -0.28479975 0.019826127 0.063279286
-0.045760915 -0.049339946 -0.09804739 0.17861977 -0.033207264 0.06982458 0.15899147 0.058807496
0.033329986 -0.09100238 -0.101487264 -0.13972045 0.06953403 -0.040020544 -0.105256155 -0.013303716
-0.029952982 -0.09973082 -0.04266659 0.011398531 -0.0062320777 -0.06619309 -0.029504474 -0.031165676
0.06429474 0.032297224 -0.031424433 -0.007082944 0.024247093 -0.02291894 -0.0003544659 0.046961095
0.097496 0.03214788 0.06094446 0.00088230876 0.1137001 0.17403711 -0.06391498 -0.043381423
-0.11346401 -0.0039000928 0.1606015 0.03324463 0.11732705 0.08225214 -0.014136322 0.073523216
0.010950372 -0.29854402 -0.2775263 -0.0326701 0.07970593 0.13929759 0.017674698 -0.16759714
0.00399429 -0.10358464 -0.3133677 -0.28168055 -0.39966166 0.08240936 0.14130297 -0.056336146
0.03459834 0.15393704 0.047038056 -0.13405824 -0.15503488 -0.48081347 0.021387246 0.078129955
0.072348796 0.065655224 0.42146015 0.39542037 -0.14644434 -0.33982563 -0.17208628 0.14802337
0.12857541 -0.010651927 -0.015988361 -0.002952736 0.15069702 0.016082654 0.016543806 0.105725914
0.047693167 0.02131738 -0.14565265 -0.14901619 -0.18448281 0.07451851 -0.121076934 -0.084581524
0.050051663 0.004801711 -0.040356547 0.17925887 -0.04472959 0.12459698 0.10226308 -0.026808873
-0.032330494 -0.06442997 -0.10533618 0.08760499 0.11401001 -0.03916372 0.17634037 0.1167851
00000000: 7707 6abd 49a4 a43d 9c64 3a3d 31ba ef3c
00000010: be8c baba dec0 e9bc 396c c1bd 6f34 61bc
00000020: 2756 c03d 964f c0bc 80b0 4f3d 4ea0 85bd
00000030: 9cdf 94bd 069f 353a f302 533d 2383 e8bd
00000040: a410 cabc 6d36 2b3d ea04 fd3c 06ef 233d
00000050: 29f1 03be 2576 07be a0c3 39bd 710d 183e
00000060: 2c89 a03c 6b76 ebbd 9d28 7cbd bf68 823d
00000070: 6723 ffbd 7c2a d63d 028b 173e 8394 e9bc
00000080: 1044 783d f112 973d 3296 743c bbf1 09be
00000090: fb90 813d af92 47be c9c3 8a3d d133 843d
000000a0: 9e6e d53d 7735 9e3e e27a babd cefe af3d
000000b0: 8d57 92bd a2c9 8a3d a954 dfbd 609c d13b
000000c0: c86f d0bd 59c7 303b db0b 2f3e f17f 64be
000000d0: bd95 ad3d effb 5a3c 2cf0 0f3e a7ef f8bd
000000e0: 72e0 863b 3d1c a0bd 6959 04bf 7f01 8cbe
000000f0: c4dc 0bbe 4886 883d f5a2 fdbb e863 363e
00000100: 5f13 4e3d ca71 7dbe dae4 9abd 330f 75be
00000110: 1ca7 38bd 8fed 073e 5ea7 323d 790b 1cbd
00000120: 4c74 4d3e 168a 553e d409 e43d a694 3d3e
00000130: fccd 1fbd 41ba 11ba 306d c93d 6101 6ebd
00000140: 8ee5 08be 3613 2cbd ab43 9abc b01b c93c
00000150: 27ca 97bd c2c7 42bd 3146 4abd a3a6 39bd
00000160: 0f75 71bd f928 5dbc 8bf1 82bd d5ec 8abb
00000170: 3b51 91bc 5bec 37bd 4adc c33d dd6e 263e
00000180: 38b3 cfbc d505 94bd abe4 1ebc 0e21 093b
00000190: 27ca 923c 06f9 1ebe c94c f9bc b65f ed3d
000001a0: 761c 433e b57e fa3d 4fb5 fabd e660 13be
000001b0: 9a6f a43c e417 02be f23d 193e 59d8 843e
000001c0: de89 a33d 3140 903c e95c 783c 7527 0fbd
000001d0: 6844 e3bd 0b81 19be 88d1 0cbe d4da 643e
000001e0: 8d5d 403e b127 ee3d c165 163e 2505 53be
000001f0: a6f8 bf3d b5e6 c6bd d21b 07be 758d 23bd
00000200: 2e0c df3e 89ab eb3e 1e18 983e 8198 2d3e
00000210: 78e4 c4be 52d4 e63a 0d73 88bc 1272 4bbd
00000220: 5d55 27bd 53f3 f63e f66f 003f 6913 fdbd
00000230: 94fc 3fbe 46d1 91be 676a a23c 9298 813d
00000240: cc6f 3bbd af18 4abd 12cd c8bd 1ae8 363e
00000250: 5704 08bd 3000 8f3d a9ce 223e 21e0 703d
00000260: 0685 083d 755f babd 8ed8 cfbd e112 0fbe
00000270: dc67 8e3d 95ec 23bd 8a90 d7bd d4f7 59bc
00000280: f55f f5bc ac3f ccbd 2ac3 2ebd e7c0 3a3c
00000290: 7536 ccbb 3e90 87bd 5eb3 f1bc 294f ffbc
000002a0: f6ac 833d 184a 043d e8b6 00bd 0a18 e8bb
000002b0: d7a1 c63c 80c0 bbbc 9cd7 b9b9 475a 403d
000002c0: fcab c73d 7fad 033d e6a0 793d bd4a 673a
000002d0: 99db e83d c936 323e dbe5 82bd b8b0 31bd
000002e0: d25f e8bd b398 7fbb b874 243e 852b 083d
000002f0: 2a49 f03d cf73 a83d 089c 67bc 5793 963d
00000300: 3069 333c c3da 98be ed17 8ebe 15d1 05bd
00000310: dd3c a33d 07a4 0e3e 87ca 903c 969e 2bbe
00000320: 88e2 823b 2f24 d4bd bb71 a0be 6f38 90be
00000330: 74a0 ccbe 3dc6 a83d bab1 103e bbc0 66bd
00000340: fdb6 0d3d aca1 1d3e faaa 403d 9046 09be
00000350: 77c1 1ebe 2f2d f6be 4e34 af3c 9902 a03d
00000360: 9b2b 943d 3f76 863d a0c9 d73e 8a74 ca3e
00000370: 81f5 15be a0fd adbe 6337 30be 7093 173e
00000380: 46a9 033e 6c85 2ebc 06fa 82bc b182 41bb
00000390: 5250 1a3e c5bf 833c e086 873c d486 d83d
000003a0: e959 433d c9a1 ae3c f825 15be b397 18be
000003b0: 10e9 3cbe 299d 983d 2ff7 f7bd 1439 adbd
000003c0: f902 4d3d ac57 9d3b e84c 25bd a38f 373e
000003d0: 6036 37bd b42c ff3d 4e6f d13d 489e dbbc
000003e0: fb6c 04bd dcf3 83bd 7fba d7bd 3f6a b33d
000003f0: 157e e93d 236a 20bd 9292 343e 072d ef3d

conv1.conv2d.bias f4 [8]
0.0984074 -0.03384004 0.044015896 -0.014585479 -0.059627276 0.059556853 -0.008973668 0.04616136
00000000: d289 c93d db9b 0abd 034a 343d eff7 6ebc
00000010: bb3b 74bd e3f1 733d 4b06 13bc b213 3d3d

in1.weight f4 [8]
0.38718498 0.2291954 -0.066139966 0.3835427 0.27560437 0.30313483 0.15887691 0.32555097
00000000: 1c3d c63e 33b2 6a3e 6474 87bd b55f c43e
00000010: 041c 8d3e 7d34 9b3e a1b0 223e 9eae a63e

in1.bias f4 [8]
2.2694001 0.15590224 0.617443 1.6348614 1.1157962 0.6268101 0.12792112 1.9764704
00000000: da3d 1140 d6a4 1f3e bf10 1e3f 2343 d13f
00000010: 69d2 8e3f a076 203f c1fd 023e fbfc fc3f

conv2.conv2d.weight f4 [16, 8, 3, 3]
-0.19915861 -0.115018964 0.26901925 -0.20888534 -0.056495678 0.12140043 -0.20477869 -0.012909772
0.14533815 -0.019360244 -0.00033597442 -0.09629975 0.086403616 0.122116886 -0.069968194 0.06928801
0.08054982 0.13965586 0.03467925 0.045094967 -0.10374426 0.012043343 -0.05671059 -0.10208381
-0.018868992 -0.13750187 -0.038921814 -0.04541361 0.20234469 0.1406188 -0.13126902 -0.029753182
0.044781167 -0.1872244 -0.009376489 0.09833168 -0.104207 -0.04794239 0.008815371 -0.024329029
0.23641346 0.42133343 -0.06819942 0.41859668 0.23972343 -0.21487887 -0.12067206 -0.23191191
-0.14261863 -0.07433586 0.054780375 0.04302095 0.304708 0.19571657 -0.19872777 -0.1936516
-0.061487608 -0.34902003 -0.20065407 -0.27493224 -0.19313712 -0.2723031 0.055519205 0.029402502
-0.04428426 -0.1443144 0.0049052997 -0.008144029 -0.07343335 -0.0362238 0.042424895 0.041239936
0.07399861 0.11005086 0.17194268 -0.032620564 -0.1482307 0.043709625 0.07351426 -0.095086366
0.046840914 0.048640817 -0.03795921 -0.19025543 -0.0013061507 0.061415445 -0.16807002 0.0885398
0.011691874 -0.13387382 0.09176104 -0.16446856 -0.19938682 0.11556404 -0.08200304 -0.24190657
-0.02840259 0.11275996 0.021080125 0.030143736 0.1778588 0.005269719 -0.03205488 0.16618305
0.26394936 -0.2643804 -0.04765757 0.049339578 -0.0035843558 -0.008868196 0.033546027 -0.043054126
-0.16221814 -0.09878825 0.12258042 0.04435277 0.0065427544 0.25029325 -0.09371956 -0.20611355
0.20167209 -0.017938 -0.30872706 0.33405432 0.015174891 -0.38624778 0.05706985 -0.05007978
0.09521248 -0.019584224 -0.021163844 0.07704945 -0.23657817 -0.0027751832 -0.042992644 0.031294063
-0.18056013 -0.37961406 0.07909332 0.019436905 -0.31977567 0.27277136 0.2887582 -0.00034251058
0.055086926 -0.15518357 -0.23763756 -0.017949605 0.051923003 -0.20636916 0.08296683 0.044542886
-0.12509045 0.02296462 0.21623632 0.084508404 -0.017119851 0.065818176 0.020236336 -0.018196164
0.0894489 0.18702188 0.08907543 0.17254312 0.16506997 0.16378026 0.18353297 0.33606914
0.16353598 0.31910896 0.39589146 0.11612438 -0.16622566 -0.13653822 0.26748142 0.08399712
0.11194032 0.12976399 -0.023956627 0.092619464 0.04237324 -0.055153657 0.15067224 -0.031901028
-0.24248204 -0.11355372 -0.10828579 -0.31434393 -0.34732127 0.12985002 -0.056002975 -0.1106309
0.22829774 0.056271207 0.016727893 -0.015679607 -0.13192575 -0.048642933 -0.044800077 -0.1181988
-0.20722061 0.10258486 -0.08221092 -0.2569648 0.26054955 0.17502624 -0.08321362 0.010127329
0.07712916 0.2453019 0.2255733 0.0885173 0.29186368 0.2266992 0.1378933 0.24126054
0.033052277 0.08100355 0.023944024 0.12364732 0.14424092 -0.0910481 0.07982826 -0.064812936
-0.17677799 0.078604884 0.05430268 0.07984597 -0.031787902 0.08176454 -0.0018052332 -0.2081085
-0.10464172 -0.014862752 -0.041358657 -0.046996072 -0.08016567 -0.1104215 -0.08692146 -0.24474545
-0.26355895 -0.20106979 -0.21013229 -0.049523417 -0.06873222 -0.057394285 -0.09823934 -0.15211585
-0.040970117 0.22842541 0.010727057 0.11165503 -0.19533935 -0.04191726 -0.027293703 -0.08756412
00000000: 3cf0 4bbe 108f ebbd e4bc 893e 0ae6 55be
00000010: 0368 67bd caa0 f83d 81b1 51be 8283 53bc
00000020: 86d3 143e 6099 9ebc b925 b0b9 ce38 c5bd
00000030: 61f4 b03d 6b18 fa3d 7c4b 8fbd dfe6 8d3d
00000040: 4ef7 a43d f201 0f3e d40b 0e3d 80b5 383d
00000050: df77 d4bd 7151 453c 5d49 68bd 5111 d1bd
00000060: 2593 9abc 4acd 0cbe 7b6c 1fbd 9f03 3abd
00000070: 7233 4f3e 60fe 0f3e 636b 06be f2bc f3bc
00000080: 756c 373d c1b7 3fbe d89f 19bc 1f62 c93d
00000090: 7b6a d5bd 3d5f 44bd 596e 103c ac4d c7bc
000000a0: 5f16 723e 04b9 d73e 23ac 8bbd 4e52 d63e
000000b0: 0f7a 753e 3509 5cbe ea22 f7bd 517a 6dbe
000000c0: 9e0a 12be 663d 98bd 6361 603d bc36 303d
000000d0: b002 9c3e ed69 483e 4b7f 4bbe 9b4c 46be
000000e0: 6eda 7bbd c1b2 b2be 4378 4dbe ebc3 8cbe
000000f0: bdc5 45be 506b 8bbe 1b68 633d 84dd f03c
00000100: 6a63 35bd 27c7 13be a3bc a03b 896e 05bc
00000110: 3964 96bd 685f 14bd bac5 2d3d 35eb 283d
00000120: 958c 973d 5862 e13d be11 303e 249d 05bd
00000130: cac9 17be dd08 333d a58e 963d a4bc c2bd
00000140: 42dc 3f3d 983b 473d 1e7b 1bbd 52d2 42be
00000150: 2533 abba c38e 7b3d 8c1a 2cbe 5b54 b53d
00000160: 468f 3f3c 3816 09be 36ed bb3d 726a 28be
00000170: 0f2c 4cbe d7ac ec3d 36f1 a7bd 5bb6 77be
00000180: 8cac e8bc b2ee e63d 3ab0 ac3c ffef f63c
00000190: 9e20 363e 9bad ac3b fa4b 03bd e42b 2a3e
000001a0: 5f24 873e de5c 87be 9634 43bd 4c18 4a3d
000001b0: 83e7 6abb e94b 11bc 8f67 093d 8659 30bd
000001c0: 831c 26be 7e51 cabd 710b fb3d 40ab 353d
000001d0: 9a64 d63b 7026 803e 0af0 bfbd 6e0f 53be
000001e0: 2183 4e3e b6f2 92bc 7911 9ebe 2b09 ab3e
000001f0: 1ba0 783c 45c2 c5be 13c2 693d 7520 4dbd
00000200: c3fe c23d 186f a0bc cc5f adbc 1acc 9d3d
00000210: 8c41 72be d9df 35bb 0e19 30bd 342e 003d
00000220: c1e4 38be c65c c2be aefb a13d 253a 9f3c
00000230: a3b9 a3be b0a8 8b3e 1dd8 933e fe92 b3b9
00000240: d4a2 613d 71e8 1ebe 4357 73be 0d0b 93bc
00000250: 37ad 543d 7052 53be 83ea a93d 9a72 363d
00000260: b617 00be 4c20 bc3c 0e6d 5d3e be12 ad3d
00000270: ee3e 8cbc aecb 863d acc6 a53c 1f10 95bc
00000280: fc30 b73d aa82 3f3e 2e6d b63d 25af 303e
00000290: 1a08 293e 03b6 273e 11f0 3b3e 4111 ac3e
000002a0: fa75 273e 4062 a33e 49b2 ca3e 9ed2 ed3d
000002b0: 0f37 2abe add0 0bbe 53f3 883e af06 ac3d
000002c0: f740 e53d dae0 043e b040 c4bc 46af bd3d
000002d0: 908f 2d3d cde8 61bd d349 1a3e a7aa 02bd
000002e0: 364d 78be da8e e8bd f1c4 ddbd b0f1 a0be
000002f0: 18d4 b1be 67f7 043e 6063 65bd 7492 e2bd
00000300: e2c6 693e a37c 663d ef08 893c 8572 80bc
00000310: 8b17 07be d03d 47bd 4980 37bd 3612 f2bd
00000320: a431 54be 0318 d23d 335e a8bd e490 83be
00000330: c066 853e 143a 333e e76b aabd 19ed 253c
00000340: e5f5 9d3d 6c30 7b3e b0fc 663e 8f48 b53d
00000350: 286f 953e d623 683e e733 0d3e 010d 773e
00000360: d361 073d 30e5 a53d 4226 c43c ce3a fd3d
00000370: e4b3 133e 6d77 babd 007d a33d a5bc 84bd
00000380: 4a05 35be 99fb a03d 7d6c 5e3d 4986 a33d
00000390: 0834 02bd 2b74 a73d 939d ecba 651a 55be
000003a0: 664e d6bd e682 73bc b267 29bd f47e 40bd
000003b0: e62d a4bd ab24 e2bd e103 b2bd 8d9e 7abe
000003c0: 33f1 86be 3de5 4dbe eb2c 57be 11d9 4abd
000003d0: 7ac3 8cbd 4516 6bbd b531 c9bd 42c4 1bbe
000003e0: 48d0 27bd 5ae8 693e 8ac0 2f3c 64ab e43d
000003f0: 0a07 48be 6fb1 2bbd 0b97 dfbc d154 b3bd

conv2.conv2d.bias f4 [16]
0.22808464 -0.14874533 0.13732748 0.26920304 -0.0023024175 -0.12071194 0.13206466 -0.22218505
0.025503566 -0.27732596 0.20305614 0.15891701 0.23188348 -0.0687083 0.12042691 0.14415073
00000000: 058f 693e b250 18be 939f 0c3e fbd4 893e
00000010: 28e4 16bb d237 f7bd f53b 073e 7a84 63be
00000020: dbec d03c abfd 8dbe f3ed 4f3e 24bb 223e
00000030: dd72 6d3e f0b6 8cbd 62a2 f63d 409c 133e

in2.weight f4 [16]
0.32848087 0.27361357 0.18646829 0.41779685 0.2835996 0.12576512 0.14980826 0.31562507
0.22121446 0.2320555 0.26694235 0.37732556 0.4679951 0.26231265 0.41465393 0.14587785
00000000: a52e a83e 1417 8c3e 8bf1 3e3e 78e9 d53e
00000010: f733 913e 92c8 003e 5667 193e 9c99 a13e
00000020: 0b86 623e f59f 6d3e abac 883e d130 c13e
00000030: 0e9d ef3e d84d 863e 854d d43e 0161 153e

in2.bias f4 [16]
-0.27841508 0.03475347 0.61542 0.15666653 0.0076545165 0.27804542 0.1549222 0.037704483
0.09038549 -0.038658 -0.03923157 0.11240012 -0.20545904 0.069683805 -0.47777933 0.01741043
00000000: 6c8c 8ebe a859 0e3d 2a8c 1d3f 316d 203e
00000010: bdd2 fa3b f85b 8e3e eda3 1e3e 0470 1a3d
00000020: 071c b93d da57 1ebd 48b1 20bd 0932 e63d
00000030: db63 52be 62b6 8e3d 7e9f f4be 51a0 8e3c

conv3.conv2d.weight f4 [32, 16, 3, 3]
-0.16633412 -0.12585288 -0.048570104 0.022902988 0.07509133 -0.08983425 -0.025217265 0.03356368
0.14951734 0.29020175 0.15970472 -0.115416296 0.069661275 0.3396604 0.12715377 -0.19288774
0.10833772 0.24371651 -0.24320264 -0.072801806 -0.0025754685 0.09518199 -0.10521455 -0.2285426
0.13753255 0.08540319 -0.15699717 -0.30638203 -0.23786986 -0.059444994 -0.47147793 -0.56108415
-0.28771824 -0.46489707 -0.23619993 -0.5377317 -0.015224137 0.017344015 0.011361269 -0.048351258
0.047373742 0.047300372 -0.16202478 -0.14170724 0.1317464 0.0876011 0.20516494 -0.006707066
0.055085268 0.09057768 0.06620749 -0.083991595 -0.0794418 -0.052204765 -0.059023492 -0.14667289
-0.1545328 -0.0032152012 -0.042669024 -0.033185188 0.0579631 -0.16523291 -0.18746987 0.21565026
0.046354048 -0.14234011 -0.022718938 -0.081999145 -0.16154264 -0.08961344 -0.18539467 -0.27486014
-0.17323937 -0.0045115524 -0.096423075 -0.031138577 -0.056100465 -0.24722415 -0.13222529 -0.2084572
-0.39536858 0.004489017 0.013828063 -0.059697017 0.051201943 -0.009529731 -0.039623234 0.004384378
-0.10542032 0.0059199072 0.065853216 0.10153295 -0.027601214 -0.1471786 0.0049204263 0.21365759
-0.28359216 -0.15213306 -0.007927022 -0.22348496 -0.17420748 -0.02155689 0.06953959 0.0660886
-0.3617649 0.001218285 0.18851984 -0.1138584 -0.1520135 -0.1889339 -0.13141271 0.05070976
-0.05533226 -0.19532041 0.11040731 0.09589147 -0.03706833 0.01835673 -0.0074002775 0.03589577
-0.016661761 -0.044518758 0.16041127 -0.19050378 -0.074636295 -0.054314084 0.10882859 0.21514246
-0.042668276 0.17005795 0.19629358 -0.032470938 0.070356876 0.05439518 0.045205195 0.033644155
0.16472152 0.14160979 0.024119338 -0.25505885 -0.35256147 -0.15177608 -0.17994988 -0.19949801
-0.25146905 -0.22437152 -0.32388386 -0.19900943 -0.36743987 -0.36920685 0.062309172 -0.041640066
0.019056797 -0.12509814 -0.13739748 -0.19894321 -0.022763712 -0.13400698 -0.07355098 0.12645015
-0.035527617 0.017610105 -0.03934013 -0.11096485 -0.032979637 -0.016407957 -0.20089188 0.022775369
-0.05578324 -0.05021085 0.09262357 0.070108175 -0.0033380827 -0.04245983 0.08447057 -0.003038855
-0.13943501 -0.13931397 -0.34270558 -0.5359897 0.08357472 -0.081579655 -0.022964688 -0.08566926
-0.09056403 -0.046461135 0.08705396 0.071831085 0.11086227 -0.013195721 -0.035747126 -0.053501584
-0.06546663 0.0012732634 -0.041593723 -0.1598248 0.00066502753 -0.0072731236 -0.22538191 -0.109826826
-0.0832493 -0.21389991 -0.026605427 0.021104502 -0.009597064 0.1746799 0.096849 -0.61870265
-0.47810838 -0.23486689 -0.21051712 -0.2561689 0.03571834 0.03017298 -0.06539604 -0.005672993
0.021234985 -0.08867845 -0.015453149 0.08384067 -0.15942736 -0.09249742 0.063657224 0.015051406
-0.0270256 -0.1988742 -0.050325684 -0.07491413 0.008337255 -0.14625049 0.03336068 0.040175393
-0.073401146 -0.014249978 -0.020883767 -0.025122557 0.016504359 0.0021188736 0.00023557883 -0.0249112
-0.056845866 0.00078405475 0.0048660617 -0.13592206 -0.069167025 -0.11922461 -0.37366316 -0.31820393
-0.34886855 -0.073371105 -0.17490113 -0.16299875 -0.41996428 -0.36710975 -0.37934914 -0.45995218
00000000: 7e53 2abe 94df 00be 72f1 46bd 0c9f bb3c
00000010: 7cc9 993d 05fb b7bd 7094 cebc 127a 093d
00000020: 131b 193e 5395 943e a289 233e 615f ecbd
00000030: 92aa 8e3d f8e7 ad3e 9934 023e 5d84 45be
00000040: 2be0 dd3d d290 793e 1d0a 79be 1d19 95bd
00000050: 31c9 28bb c6ee c23d ba7a d7bd 1207 6abe
00000060: 55d5 0c3e dee7 ae3d dec3 20be 1bde 9cbe
00000070: 2894 73be 987c 73bd 8e65 f1be 36a3 0fbf
00000080: ce4f 93be fd06 eebe 65de 71be c9a8 09bf
00000090: a96e 79bc 0915 8e3c 9e24 3a3c f80b 46bd
000000a0: f80a 423d 09be 413d d3e9 25be b41b 11be
000000b0: 87e8 063e 3568 b33d c216 523e f3c6 dbbb
000000c0: 17a1 613d ca80 b93d cb97 873d c903 acbd
000000d0: 62b2 a2bd aad4 55bd 9ec2 71bd 6b31 16be
000000e0: d93d 1ebe 20b6 52bb b7c5 2ebd 31ed 07bd
000000f0: b76a 6d3d d132 29be 1af8 3fbe 6cd3 5c3e
00000100: bedd 3d3d 9bc1 11be 111d babc 2bef a7bd
00000110: 6f6b 25be 4087 b7bd 1ad8 3dbe 78ba 8cbe
00000120: a965 31be a5d5 93bb 7679 c5bd 5416 ffbc
00000130: 9ac9 65bd 5428 7dbe 1166 07be ce75 55be
00000140: c06d cabe 9b18 933b 1a8f 623c dc84 74bd
00000150: 21b9 513d 9722 1cbc f94b 22bd d4aa 8f3b
00000160: 9ce6 d7bd c8fb c13b 0dde 863d 82f0 cf3d
00000170: f11b e2bc fdb5 16be 873b a13b 0ec9 5a3e
00000180: fe32 91be c5c8 1bbe 57e0 01bc 3ed9 64be
00000190: 7263 32be 1398 b0bc c66a 8e3d 7659 873d
000001a0: 4039 b9be dcae 9f3a 580b 413e 982e e9bd
000001b0: 6da9 1bbe e377 41be 0e91 06be 0ab5 4f3d
000001c0: 14a4 62bd 1302 48be 3a1d e23d bf62 c43d
000001d0: f6d4 17bd da60 963c 077e f2bb 7107 133d
000001e0: 3f7e 88bc 4d59 36bd da42 243e 6c13 43be
000001f0: eada 98bd 7278 5ebd 86e1 de3d 4e4e 5c3e
00000200: eec4 2ebd ac23 2e3e 2f01 493e 3f00 05bd
00000210: 4417 903d 7bcd 5e3d 1529 393d 74ce 093d
00000220: c2ac 283e 2802 113e eb95 c53c 1397 82be
00000230: f082 b4be 306b 1bbe c844 38be 3549 4cbe
00000240: 8dc0 80be a6c1 65be 1bd4 a5be 21c9 4bbe
00000250: 1421 bcbe ae08 bdbe e737 7f3d c68e 2abd
00000260: 001d 9c3c ba19 00be edb1 0cbe c5b7 4bbe
00000270: f77a babc 2039 09be e5a1 96bd 267c 013e
00000280: 6885 11bd 1143 903c 1e23 21bd 8a41 e3bd
00000290: a815 07bd fb69 86bc 9ab6 4dbe 6993 ba3c
000002a0: f77c 64bd e4a9 4dbd 6db1 bd3d e094 8f3d
000002b0: bcc3 5abb 5cea 2dbd e8fe ac3d 8727 47bb
000002c0: 0dc8 0ebe 52a8 0ebe 1b77 afbe 9f36 09bf
000002d0: 3929 ab3d 3c13 a7bd 7120 bcbc 5d73 afbd
000002e0: a279 b9bd 084e 3ebd 5949 b23d 2d1c 933d
000002f0: c20b e33d de32 58bc 946b 12bd 7a24 5bbd
00000300: 5e13 86bd a1e3 a63a 2e5e 2abd 1da9 23be
00000310: 3e55 2e3a 6253 eebb 84ca 66be e3ec e0bd
00000320: 9c7e aabd 9408 5bbe a0f3 d9bc 59e3 ac3c
00000330: 013d 1dbc 4adf 323e c558 c63d 4c63 1ebf
00000340: 9fca f4be f280 70be cd91 57be 9228 83be
00000350: 654d 123d 532d f73c 5cee 85bd 84e4 b9bb
00000360: fef4 ad3c 0c9d b5bd 342f 7dbc a8b4 ab3d
00000370: ed40 23be 4a6f bdbd b85e 823d 2c9a 763c
00000380: cb64 ddbc aea5 4bbe 4e22 4ebd 946c 99bd
00000390: fb98 083c b0c2 15be 35a5 083d f48e 243d
000003a0: 5753 96bd bd78 69bc 6f14 abbc d2cd cdbc
000003b0: 2634 873c cddc 0a3b b605 7739 9312 ccbc
000003c0: 36d7 68bd 0689 4d3a 7c73 9f3b 272f 0bbe
000003d0: 71a7 8dbd 082c f4bd c750 bfbe a0eb a2be
000003e0: e69e b2be 9743 96bd 4819 33be 25e9 26be
000003f0: 8f05 d7be cff5 bbbe 0d3a c2be da7e ebbe

conv3.conv2d.bias f4 [32]
0.1387388 -0.10867029 0.08625929 0.04137637 -0.23903012 -0.30778766 0.14512011 0.123516664
0.23437028 -0.08888387 0.34318647 -0.29089344 -0.0968643 0.34089103 -0.082033604 0.23650287
-0.2009212 0.04158757 0.13253914 0.022052966 0.21612605 0.14215249 0.11612115 0.037072755
-0.2449229 0.09311659 -0.05916149 -0.06784264 -0.010940449 -0.002189353 -0.13655835 -0.16166216
00000000: 8b11 0e3e 878e debd b6a8 b03d 457a 293d
00000010: 50c4 74be 5896 9dbe 5e9a 143e 4ef6 fc3d
00000020: c3fe 6f3e bf08 b6bd 23b6 af3e fcef 94be
00000030: ca60 c6bd 4589 ae3e 3c01 a8bd cf2d 723e
00000040: 49be 4dbe ba57 2a3d 57b8 073e 6ca8 b43c
00000050: 2650 5d3e 6c90 113e edd0 ed3d 9ad9 173d
00000060: 12cd 7abe e9b3 be3d 5253 72bd 15f1 8abd
00000070: 923f 33bc 407b 0fbb f4d5 0bbe c48a 25be

in3.weight f4 [32]
0.17339922 0.3871342 0.17566717 0.21197067 0.16366406 0.1556987 0.21960735 0.19843595
0.26416802 0.14143902 0.22054037 0.21665059 0.19107914 0.17398164 0.26749122 0.5629078
0.20033075 0.2317732 0.42378917 0.2799344 0.1816773 0.2152743 0.2299545 0.22713941
0.38066012 0.32006028 0.18492544 0.17024602 0.24304794 0.17550926 0.23445967 0.2985102
00000000: 918f 313e 7436 c63e 18e2 333e d70e 593e
00000010: 8d97 273e 7b6f 1f3e c0e0 603e cb32 4b3e
00000020: 0841 873e 64d5 103e 56d5 613e a7d9 5d3e
00000030: 40aa 433e 3e28 323e 9cf4 883e ba1a 103f
00000040: 8123 4d3e f455 6d3e e5fa d83e 9053 8f3e
00000050: 9d09 3a3e de70 5c3e 3179 6b3e 3c97 683e
00000060: e2e5 c23e f1de a33e 185d 3d3e f954 2e3e
00000070: 8fe1 783e b3b8 333e 3216 703e 54d6 983e

in3.bias f4 [32]
0.058353703 -0.18329614 -0.008989619 -0.07101795 0.7327163 -0.0041044066 0.072213605 0.066056594
-0.19242017 0.058746316 -0.025220681 -0.023424443 -0.21090922 -0.009955878 0.043541033 -0.16209841
0.098727636 0.08191264 -0.08378563 2.6237836e-05 0.0065245996 -0.012526813 -0.19424662 0.014526164
-0.15650024 0.031155922 0.12418308 0.08033246 0.42867607 -0.029476961 -0.04719775 -0.19593185
00000000: 4b04 6f3d fcb1 3bbe 3249 13bc dc71 91bd
00000010: 4c93 3b3f 427e 86bb bae4 933d ae48 873d
00000020: cb09 45be fa9f 703d 9a9b cebc 9ee4 bfbc
00000030: 96f8 57be fb1d 23bc 1558 323d 20fd 25be
00000040: b731 ca3d d0c1 a73d cd97 abbd 5319 dc37
00000050: 4fcc d53b 433d 4dbc 96e8 46be 26ff 6d3c
00000060: 9941 20be b43a ff3c b353 fe3d 5885 a43d
00000070: 6e7b db3e ab79 f1bc 6e52 41bd 5ca2 48be

resnets.0.conv1.conv2d.weight f4 [32, 32, 3, 3]
0.10683212 -0.3193478 -0.26994938 -0.07059864 -0.12344273 -0.081582434 -0.101312935 -0.1769616
-0.020055179 -0.3648803 0.044979256 0.29276106 -0.051943835 0.0379668 0.12223451 0.06015376
0.014327691 0.13210182 -0.19548845 -0.05292689 0.015211163 -0.10284871 -0.19773817 -0.0767539
0.12320359 0.22078402 0.060186785 -0.061420128 -0.202431 -0.23326348 -0.15208392 0.057351656
0.25871223 -0.02595969 -0.021047212 0.08467904 -0.11348951 -0.16097125 0.0509163 0.0020195623
0.017277224 0.06949776 -0.005089724 0.041690275 0.01977924 -0.047703627 -0.15765978 -0.036436196
-0.1033732 -0.21174265 -0.14546067 -0.025143 0.0118684815 0.20893294 0.063301474 0.029832214
0.20185307 -0.0761762 -0.07320552 0.002791134 -0.12685472 -0.2273274 -0.119758114 -0.09139589
-0.14197409 -0.024005895 -0.022455296 -0.11596548 -0.07776358 0.20379023 0.09613089 0.054628864
-0.06205726 -0.078627706 -0.13098297 0.0015619973 0.12044935 0.045213163 -0.15941136 0.03380718
-0.099810556 -0.03203386 0.07972488 0.15733705 -0.3892893 -0.20017003 0.12485379 -0.24633281
-0.22116196 -0.29224712 0.2680119 -0.085379995 -0.13577023 0.0787244 0.11368957 0.049017064
0.13061686 -0.020531477 -0.054983545 -0.27865255 0.08949505 -0.08856426 -0.23818523 0.058449436
0.06942419 -0.13108923 -0.16507652 -0.043933887 0.25523198 0.33328366 0.1840733 0.25185204
0.09364252 0.08204943 0.23845945 0.2049175 0.24543795 0.34670877 0.08282298 -0.04706671
0.09302663 -0.08451428 0.018993821 0.010881094 -0.17344823 0.0029439637 0.064182475 -0.09458412
-0.06904893 -0.21690297 0.018390916 0.20878832 -0.107212394 -0.4582945 -0.39896205 0.15454395
-0.12503462 -0.00053339836 -0.20437895 -0.031913824 0.13177437 -0.114254154 -0.27398193 0.0037351525
0.15036532 0.14589593 -0.17509194 0.053588804 0.28385586 0.18211037 -0.060870036 0.32914835
0.18501796 0.047698822 0.21753837 -0.057980616 -0.38724327 0.02093827 -0.031374667 -0.336533
-0.10371942 0.105014116 0.2976279 0.34871152 0.09622855 0.20471308 0.043530393 0.0021868052
0.033588946 -0.070422485 0.17234862 -0.13942239 -0.19869426 -0.33878836 -0.014465502 -0.028945168
-0.09192406 0.014098949 -0.17905791 -0.07348256 -0.1848988 -0.30152208 -0.223089 -0.08135778
-0.083950154 -0.10361647 -0.06601928 -0.009716393 -0.2369184 -0.11406537 -0.21021064 -0.058088932
0.05381754 0.13394335 0.2043037 -0.01723758 -0.00027619282 0.11685749 -0.036878273 -0.07101973
-0.13926877 0.24955481 0.107198454 -0.13169168 0.13485329 0.2859995 0.12219873 0.011988526
-0.17813839 -0.20393229 0.09799367 -0.15795079 -0.032214165 -0.02005281 -0.113298625 -0.05612843
0.18287502 0.036214642 -0.079906665 0.13631259 0.08558674 0.073542535 0.15399507 -0.11889917
-0.2889219 0.05024356 0.03571436 -0.14702703 0.22543341 0.2521931 0.081069954 0.22580619
-0.06904792 -0.114505954 -0.17400911 -0.056523062 -0.117300585 -0.22202428 0.119076006 -0.10386252
0.14600854 0.012037052 -0.096334256 -0.16303223 -0.09959122 -0.09859554 -0.0554519 -0.08214781
-0.11565527 -0.16601287 -0.3084548 0.07215633 0.36004964 0.012530963 -0.038729392 0.26142052
00000000: ccca da3d 8e81 a3be ce36 8abe 0596 90bd
00000010: 8bcf fcbd b114 a7bd 287d cfbd 6c35 35be
00000020: c24a a4bc 97d1 babe 2b3c 383d c7e4 953e
00000030: 0fc3 54bd 1383 1b3d 1656 fa3d ca63 763d
00000040: b1be 6a3c b345 073e 202e 48be dec9 58bd
00000050: 3e38 793c 58a2 d2bd e07b 4abe 2631 9dbd
00000060: 2a52 fc3d 3515 623e 6b86 763d ac93 7bbd
00000070: 124a 4fbe 9fdc 6ebe e3bb 1bbe 92e9 6a3d
00000080: ee75 843e 6aa9 d4bc 346b acbc 346c ad3d
00000090: 306d e8bd a6d5 24be 9c8d 503d a25a 043b
000000a0: f788 8d3c d754 8e3d b3c7 a6bb 6cc3 2a3d
000000b0: 1308 a23c e164 43bd 9171 21be 1f3e 15bd
000000c0: 54b5 d3bd 11d3 58be a4f3 14be b1f8 cdbc
000000d0: 0574 423c 84f2 553e 34a4 813d b062 f43c
000000e0: 92b2 4e3e 4402 9cbd c7ec 95bd 75eb 363b
000000f0: 34e6 01be 84c8 68be be43 f5bd c52d bbbd
00000100: a861 11be 03a8 c4bc 2bf4 b7bc 4f7f edbd
00000110: 8342 9fbd 63ae 503e 46e0 c43d 84c2 5f3d
00000120: c12f 7ebd 9007 a1bd 6620 06be efbb cc3a
00000130: 26ae f63d 7031 393d bb3c 23be 6679 0a3d
00000140: 7a69 ccbd f035 03bd cc46 a33d f71c 213e
00000150: ed50 c7be 5ff9 4cbe 58b3 ff3d ab3e 7cbe
00000160: 4878 62be 6aa1 95be db38 893e b5db aebd
00000170: 5a07 0bbe 423a a13d 14d6 e83d 1ec6 483d
00000180: 6dc0 053e a131 a8bc 6d36 61bd 8cab 8ebe
00000190: 2e49 b73d 2e61 b5bd d4e6 73be ad68 6f3d
000001a0: 452e 8e3d 413c 06be d209 29be 05f4 33bd
000001b0: c4ad 823e 28a4 aa3e b67d 3c3e c0f2 803e
000001c0: a6c7 bf3d 8809 a83d b72e 743e e5d5 513e
000001d0: 1654 7b3e d083 b13e 189f a93d 06c9 40bd
000001e0: bf84 be3d d315 adbd ee98 9b3c 9e46 323c
000001f0: 6a9c 31be 84ef 403b 1a72 833d 52b5 c1bd
00000200: 8769 8dbd d01b 5ebe 8ca8 963c 9bcc 553e
00000210: 2c92 dbbd 94a5 eabe c144 ccbe c540 1e3e
00000220: 1309 00be c2d3 0bba b748 51be 12b8 02bd
00000230: dcef 063e 15fe e9bd 5c47 8cbe 76c9 743b
00000240: 5ef9 193e be65 153e 4d4b 33be ef7f 5b3d
00000250: 8e55 913e 247b 3a3e dc52 79bd 2286 a83e
00000260: 5975 3d3e d75f 433d 61c2 5e3e 157d 6dbd
00000270: c044 c6be bc86 ab3c b982 00bd 0e4e acbe
00000280: d96a d4bd a411 d73d af62 983e 518a b23e
00000290: 7913 c53d 4ea0 513e ed4c 323d 8150 0f3b
000002a0: 9094 093d aa39 90bd 287c 303e bec4 0ebe
000002b0: 8276 4bbe ab75 adbe b700 6dbc 6b1e edbc
000002c0: ae42 bcbd 47ff 663c f55a 37be 067e 96bd
000002d0: 1c56 3dbe 1a61 9abe 7171 64be e89e a6bd
000002e0: 0fee abbd df34 d4bd 1e35 87bd 8231 1fbc
000002f0: bd9a 72be 1b9b e9bd 7541 57be a9ee 6dbd
00000300: c86f 5c3d 7228 093e fd34 513e d335 8dbc
00000310: f9cd 90b9 fb52 ef3d ac0d 17bd cb72 91bd
00000320: 799c 0ebe 4c8b 7f3e dd8a db3d 2fda 06be
00000330: fb16 0a3e 876e 923e 5443 fa3d 866b 443c
00000340: e969 36be a0d3 50be e8b0 c83d dabd 21be
00000350: 00f3 03bd ca45 a4bc 1c09 e8bd ede6 65bd
00000360: 9743 3b3e ce55 143d 1ba6 a3bd 8795 0b3e
00000370: 1a48 af3d 789d 963d e2b0 1d3e 6881 f3bd
00000380: 92ed 93be 31cc 4d3d 3949 123d 418e 16be
00000390: 04d8 663e 741f 813e 0108 a63d bd39 673e
000003a0: ff68 8dbd 1982 eabd 722f 32be ba84 67bd
000003b0: 4a3b f0bd 555a 63be 1fde f33d dfb5 d4bd
000003c0: 4383 153e 0e37 453c e54a c5bd ecf1 26be
000003d0: 7bf6 cbbd 75ec c9bd 8821 63bd 1c3d a8bd
000003e0: acdc ecbd 47ff 29be caed 9dbe b3c6 933d
000003f0: 6d58 b83e ab4e 4d3c b6a2 1ebd e9d8 853e

resnets.0.conv1.conv2d.bias f4 [32]
-0.41014734 -0.04348891 -0.3070901 0.05175066 0.31552392 -0.217861 0.10732597 0.049036846
-0.07272742 0.012439962 0.15250859 -0.070690565 -0.06645632 0.24735332 0.15146658 0.17107566
0.0041263113 0.28003213 -0.2213599 -0.01988175 -0.01927562 -0.015235533 -0.1220387 -0.21313648
0.05085988 0.0055320305 0.15485063 -0.31671742 0.061414946 0.16164903 -0.16151093 0.031077081
00000000: d5fe d1be 6d21 32bd ea3a 9dbe 80f8 533d
00000010: 5a8c a13e f416 5fbe b8cd db3d dcda 483d
00000020: 1df2 94bd fbd0 4b3c 362b 1c3e 37c6 90bd
00000030: 401a 88bd 304a 7d3e 0e1a 1b3e 752e 2f3e
00000040: 0236 873b 5f60 8f3e 2bac 62be 0ddf a2bc
00000050: e8e7 9dbc 759e 79bc 6def f9bd 7340 5abe
00000060: 7352 503d 0946 b53b 2a91 1e3e c928 a2be
00000070: 3d8e 7b3d 5387 253e 1f63 25be 5d95 fe3c

resnets.0.in1.weight f4 [32]
0.7346457 1.2227226 0.9887667 1.2741387 0.6388646 0.9565966 1.2123606 0.9306146
0.8347392 1.0544614 1.0068711 0.7148095 0.85217226 0.93804276 1.3458885 0.95336854
0.62405384 0.7250112 0.9887628 0.68983763 0.9722957 0.6971254 0.7475459 0.8111342
1.0094312 0.6874552 0.9271004 0.9528049 0.60977346 0.78821456 0.77755016 0.91157943
00000000: be11 3c3f 2d82 9c3f d01f 7d3f fa16 a33f
00000010: a18c 233f 84e3 743f a22e 9b3f c23c 6e3f
00000020: 78b1 553f 97f8 863f 27e1 803f c1fd 363f
00000030: f627 5a3f 9223 703f 1346 ac3f f60f 743f
00000040: fec1 1f3f 569a 393f 8f1f 7d3f 3399 303f
00000050: 5fe8 783f cf76 323f 2b5f 3f3f 7ea6 4f3f
00000060: 0b35 813f 10fd 2f3f 7456 6d3f 06eb 733f
00000070: 1d1a 1c3f 6ec8 493f 870d 473f 455d 693f

resnets.0.in1.bias f4 [32]
-0.30125096 -0.030303067 -0.15326425 -0.4611093 0.051260054 -0.18287444 -0.6079985 -0.5988684
-0.38427258 -0.36209837 -0.42893893 0.23254168 -0.032186568 -0.24347965 -0.6432158 -0.24650429
0.18771757 -0.005137133 -0.55798256 0.034952033 -0.08977698 0.20154046 0.23942766 -0.12222667
-0.038441427 0.3831003 -0.22455452 -0.0495056 0.08003896 0.029785616 0.09358301 -0.2719067
00000000: 913d 9abe 233e f8bc 4ef1 1cbe 8516 ecbe
00000010: 10f6 513d 7043 3bbe caa5 1bbf 714f 19bf
00000020: 60bf c4be f564 b9be e29d dbbe 681f 6e3e
00000030: 10d6 03bd bb52 79be caa9 24bf 9f6b 7cbe
00000040: 0939 403e 6555 a8bb f2d7 0ebf dd29 0f3d
00000050: fedc b7bd 9f60 4e3e 862c 753e fa51 fabd
00000060: c274 1dbd b925 c43e 9ff1 65be 62c6 4abd
00000070: 77eb a33d f700 f43c 73a8 bf3d 5b37 8bbe

resnets.0.conv2.conv2d.weight f4 [32, 32, 3, 3]
0.102806725 -0.028372237 0.078084275 -0.0026903008 0.12720342 0.16279142 0.0019755757 0.16098535
0.09725606 0.10865785 -0.16525146 0.07040174 -0.04738477 -0.24727215 0.214914 0.23777713
-0.035126507 0.2687369 -0.10515794 -0.023808528 -0.10212115 0.11391737 -0.07141066 0.041668184
0.17439872 -0.11927125 0.11697948 0.2919365 0.22583134 0.22804604 -0.028619548 0.08653682
0.4929412 -0.38994443 -0.22224094 0.3089388 -0.11437475 -0.17700681 -0.13867854 0.15099944
0.03447587 0.02555391 -0.059695397 -0.17728312 -0.04953558 -0.39269486 0.020185707 0.20428325
-0.22366619 -0.19269535 -0.11848618 -0.049586054 -0.05705791 -0.37994796 -0.065887176 -0.13403842
0.0033240456 -0.15051408 -0.008194981 -0.07652684 -0.052090507 0.1610478 0.039534803 -0.31716362
-0.08902406 0.14176217 -0.07357935 0.025154667 -0.11802079 -0.026455546 -0.14391138 -0.17984733
0.0038069685 0.23146313 0.35333592 0.025935577 -0.036902487 0.023995973 -0.15723057 -0.12609035
-0.2163263 -0.0058250176 -0.15529421 -0.07991985 -0.13068858 0.30088875 0.13222875 0.07875991
0.3202703 0.18920179 -0.07094399 0.0512001 -0.6214029 0.054473847 0.15147147 -0.166471
0.03820061 -0.09159785 0.0022554423 0.009708247 0.028524797 0.01363411 -0.020056995 -0.27009276
0.022813361 -0.08463496 0.039362583 0.087541476 -0.14581032 -0.027399683 -0.04806557 -0.0637758
-0.14545937 -0.21546458 -0.15296541 0.121819235 0.32141596 0.01968868 0.13110651 0.252348
-0.064431936 -0.14652444 -0.03170164 0.12656572 -0.04295972 -0.19260141 0.0023503546 -0.06650432
-0.3698711 0.08577598 -0.07126256 -0.11194068 -0.014961654 -0.18533672 0.03531016 0.044457454
0.17984807 0.058862347 -0.065969676 0.11563203 -0.23928027 0.05550511 0.06058232 -0.13348915
0.14989574 0.06340854 0.05870611 0.17521988 0.15376572 0.024882967 0.050604828 0.008608152
-0.07748261 0.1502853 0.08240139 0.2874788 -0.035050277 -0.044022687 0.07750568 -0.062050298
-0.19375601 -0.08746721 0.10354439 0.04719767 -0.28817472 -0.053823296 0.085646465 -0.09855849
-0.000561251 0.07724401 -0.0053256396 -0.13306518 -0.1948847 -0.14242722 0.05351644 -0.039000276
-0.032778196 0.08414476 0.084299 0.08416905 0.039273314 0.18280883 -0.108971655 0.30180302
0.01527684 -0.092458785 -0.1165551 0.07502495 0.14566 0.12764466 0.1340518 0.06305017
-0.013123674 0.18302374 0.035833113 -0.022670163 -0.031976823 0.026454316 -0.17224222 -0.2559611
-0.0374591 0.08285134 0.05950573 -0.09398117 -0.09684873 0.01715862 0.074768305 0.14017873
0.055105332 0.02169772 -0.29321572 -0.14911644 0.06860403 -0.0004476828 -0.025997013 -0.0062191407
0.13677512 0.04287396 0.030002818 -0.060998604 -0.05140792 0.13027439 0.2990734 0.11709986
0.14319618 0.052094553 0.1365084 -0.12698598 -0.17001733 -0.10035662 -0.2064635 0.2834915
0.006714762 -0.10038168 -0.112555176 -0.059742082 0.005984697 0.036227223 -0.026569542 0.08641155
-0.04970414 0.025590645 0.180729 -0.078113414 0.090942495 0.08062696 -0.34659305 -0.07822711
0.08918542 -0.14403597 -0.07410535 0.17907032 -0.104334705 -0.09140821 -0.056000564 -0.09058727
00000000: 558c d23d e56c e8bc a6ea 9f3d c24f 30bb
00000010: 9d41 023e cbb2 263e a978 013b 58d9 243e
00000020: 2f2e c73d 0288 de3d ae37 29be ca2e 903d
00000030: 8816 42bd e934 7dbe 6a12 5c3e d97b 733e
00000040: d0e0 0fbd e297 893e 0c5d d7bd 1a0a c3bc
00000050: e524 d1bd 834d e93d c13f 92bd 42ac 2a3d
00000060: 9495 323e 7c44 f4bd f092 ef3d b378 953e
00000070: 5540 673e e784 693e 8b73 eabc 373a b13d
00000080: ca62 fc3e cca6 c7be 2193 63be 3a2d 9e3e
00000090: 4f3d eabd 4641 35be bf01 0ebe 999f 1a3e
000000a0: 9236 0d3d 6f56 d13c 2983 74bd b589 35be
000000b0: d2e5 4abd 4d0f c9be 7f5c a53c a12f 513e
000000c0: c008 65be ee51 45be e2a8 f2bd bf1a 4bbd
000000d0: 8eb5 69bd 8a88 c2be dbef 86bd 5e41 09be
000000e0: 3bd8 593b 5d20 1abe 3e44 06bc 1bba 9cbd
000000f0: db5c 55bd b7e9 243e 3fef 213d 4563 a2be
00000100: 3f52 b6bd 1a2a 113e c5b0 96bd 2911 ce3c
00000110: e2b4 f1bd 4db9 d8bc 815d 13be e629 38be
00000120: 557e 793b ac04 6d3e 72e8 b43e d976 d43c
00000130: 1027 17bd 3493 c43c 0d01 21be d41d 01be
00000140: a484 5dbe cadf bebb 7205 1fbe 05ad a3bd
00000150: 3ad3 05be 170e 9a3e f966 073e e04c a13d
00000160: 78fa a33e 1dbe 413e 154b 91bd 32b7 513d
00000170: 4314 1fbf f81f 5f3d 561b 1b3e 6077 2abe
00000180: 3e78 1c3d a797 bbbd 0bd0 133b 570f 1f3c
00000190: d6ac e93c 9a61 5f3c 914e a4bc 9949 8abe
000001a0: 16e3 ba3c 1855 adbd a93a 213d f248 b33d
000001b0: 4d4f 15be 4d75 e0bc 67e0 44bd e39c 82bd
000001c0: 4df3 14be bfa2 5cbe f7a2 1cbe 5d7c f93d
000001d0: a290 a43e 284a a13c c940 063e c233 813e
000001e0: e4f4 83bd 810a 16be 94d9 01bd 729a 013e
000001f0: 88f6 2fbd 4e39 45be 6808 1a3b 6b33 88bd
00000200: bf5f bdbe 51ab af3d 1bf2 91bd 2841 e5bd
00000210: ba21 75bc e9c8 3dbe 63a1 103d 0519 363d
00000220: 182a 383e a519 713d 1c1b 87bd 7cd0 ec3d
00000230: e305 75be 5459 633d 2b25 783d 61b1 08be
00000240: 457e 193e 56dc 813d d175 703d d76c 333e
00000250: c374 1d3e 5dd7 cb3c 0247 4f3d 3509 0d3c
00000260: 34af 9ebd 64e4 193e 0fc2 a83d 6c30 933e
00000270: e190 0fbd 2251 34bd 4cbb 9e3d 7428 7ebd
00000280: fa67 46be 0222 b3bd 150f d43d 5852 413d
00000290: a38b 93be d175 5cbd 6a67 af3d 09d9 c9bd
000002a0: eb20 13ba 1c32 9e3d b482 aebb 3d42 08be
000002b0: db8f 47be 71d8 11be 0e34 5b3d c1be 1fbd
000002c0: 6e42 06bd 1754 ac3d f4a4 ac3d d360 ac3d
000002d0: 0edd 203d 3d32 3b3e 882c dfbd ed85 9a3e
000002e0: b64b 7a3c 085b bdbd 71b4 eebd aea6 993d
000002f0: e527 153e 48b5 023e e044 093e 7320 813d
00000300: ae04 57bc 936a 3b3e bec5 123d c7b6 b9bc
00000310: 21fa 02bd b9b6 d83c 4460 30be 550d 83be
00000320: b76e 19bd f7ad a93d 48bc 733d 3379 c0bd
00000330: a158 c6bd 3c90 8c3c 2020 993d 038b 0f3e
00000340: 21b6 613d 6bbf b13c 5f20 96be fbb1 18be
00000350: 4580 8c3d f8b6 eab9 b0f7 d4bc efc9 cbbb
00000360: c70e 0c3e 9b9c 2f3d 78c8 f53c acd9 79bd
00000370: 1c91 52bd a666 053e 2620 993e 0dd2 ef3d
00000380: 05a2 123e 1961 553d dcc8 0b3e 9d08 02be
00000390: 0619 2ebe c687 cdbd 2b6b 53be cc25 913e
000003a0: 8207 dc3b e994 cdbd 5483 e6bd 1db4 74bd
000003b0: 471b c43b ff62 143d 5ea8 d9bc 8af8 b03d
000003c0: 9196 4bbd 79a3 d13c 0611 393e edf9 9fbd
000003d0: 0f40 ba3d bf1f a53d a574 b1be 8935 a0bd
000003e0: d8a6 b63d 2a7e 13be 8cc4 97bd 365e 373e
000003f0: 6fad d5bd 3a34 bbbd d960 65bd d285 b9bd

resnets.0.conv2.conv2d.bias f4 [32]
-0.15772295 0.077323906 0.29922104 -0.063241035 -0.18975511 -0.24650684 -0.14161223 -0.3462218
-0.062588125 -0.08342004 0.035088908 -0.1703801 -0.14554214 0.020531677 0.071880326 0.10166475
-0.10397327 0.12799035 0.19553311 0.14750239 0.062095363 0.14059052 -0.27834392 0.290453
0.11010935 0.18015753 -0.092724256 -0.23845068 -0.30054998 0.04602182 0.1177961 0.11266808
00000000: 2082 21be ff5b 9e3d 8033 993e 8484 81bd
00000010: 2a4f 42be 4a6c 7cbe cc02 11be fc43 b1be
00000020: 342e 80bd 20d8 aabd 63b9 0f3d 1f78 2ebe
00000030: 0009 15be 0c32 a83c fe35 933d 9c35 d03d
00000040: f0ef d4bd e70f 033e d539 483e de0a 173e
00000050: b557 7e3d f6f6 0f3e 1883 8ebe 41b6 943e
00000060: 0381 e13d 377b 383e 37e6 bdbd 6a2c 74be
00000070: b0e1 99be 6081 3c3d 153f f13d 86be e63d

resnets.0.in2.weight f4 [32]
0.26690516 0.3876172 0.38243172 0.2752071 0.27586645 0.43279424 0.3799003 0.39266276
0.2708916 0.34370667 0.39076698 0.31953698 0.26213455 0.37492532 0.47874594 0.63674664
0.3794452 0.43311387 0.29752836 0.34510285 0.3113239 0.37222338 0.32985514 0.34915754
0.47639227 0.38670808 0.40475368 0.3809712 0.39387915 0.24694164 0.4534838 0.33011135
00000000: cba7 883e c375 c63e 17ce c33e f2e7 8c3e
00000010: 5e3e 8d3e 3597 dd3e 4b82 c23e 180b c93e
00000020: 4eb2 8a3e 52fa af3e 9c12 c83e 5a9a a33e
00000030: 8036 863e 36f6 bf3e 301e f53e d401 233f
00000040: a446 c23e 1ac1 dd3e a355 983e 52b1 b03e
00000050: d965 9f3e 1094 be3e c6e2 a83e c7c4 b23e
00000060: b0e9 f33e 9afe c53e e03b cf3e a80e c33e
00000070: 87aa c93e 45de 7c3e 072f e83e 5b04 a93e

resnets.0.in2.bias f4 [32]
-0.16812725 0.059548464 0.51152813 0.004492411 -0.067901246 -0.19098881 -0.040630624 -0.3198887
-0.1336796 -0.045608662 0.14220153 -0.10686961 -0.3565211 -0.12181083 0.1535529 0.20129538
-0.25242475 0.15564105 0.16170667 0.026558558 0.027632067 0.19312568 -0.24844497 0.15837854
0.06139689 0.12823403 -0.19982956 -0.18008769 -0.27931994 0.20214312 0.20322551 0.03730373
00000000: 8d29 2cbe 17e9 733d 82f3 023f 1335 933b
00000010: cf0f 8bbd 9292 43be 4c6c 26bd 74c8 a3be
00000020: 4ee3 08be 26d0 3abd 479d 113e 74de dabd
00000030: ef89 b6be f577 f9bd f93c 1d3e 6020 4e3e
00000040: d13d 81be 5e60 1f3e 6f96 253e 5591 d93c
00000050: a55c e23c bdc2 453e 5c68 7ebe fc2d 223e
00000060: 4e7b 7b3d c84f 033e 1fa0 4cbe e868 38be
00000070: 0603 8fbe 9bfe 4e3e 591a 503e cccb 183d

resnets.1.conv1.conv2d.weight f4 [32, 32, 3, 3]
0.053380053 0.34363365 0.39176032 0.042079195 0.20855129 -0.08618621 -0.01089187 -0.062189724
-0.24719828 0.17202085 0.12596697 0.11557126 -0.039814893 -0.107466206 -0.10687914 0.26225603
0.120665014 -0.081856765 -0.032544043 -0.35665217 -0.19984883 -0.04636306 -0.09066026 -0.11892522
-0.2489189 -0.1208618 -0.08758038 0.22373174 0.3004072 0.28454617 0.1794753 0.16874821
0.1753518 -0.1620047 -0.09574713 -0.0037455221 0.1970673 0.054903794 0.11476141 -0.038777474
-0.08643153 -0.05635087 0.14050832 0.07991124 0.096849166 0.06098802 0.109836236 -0.089251876
0.04115454 0.033622965 -0.09161617 0.22857322 0.05651478 -0.0740548 0.20598106 0.11825265
0.030655 0.17429039 0.07935422 0.010342256 0.43695214 0.16693297 0.09782184 -0.30292833
-0.1511191 -0.11671731 -0.3396247 -0.11077471 0.006680332 -0.18511562 -0.021675125 -0.022421643
-0.076518856 -0.07377015 0.07501952 -0.1901578 0.010545369 -0.064740635 -0.32580397 -0.2024104
-0.19571885 -0.14875847 -0.079949126 0.013332559 -0.14267527 -0.0227878 0.14258479 0.121974856
0.20589122 0.4879443 0.032471586 -0.056053553 0.1278201 -0.076965764 0.09620442 0.13775948
-0.16520877 -0.02299766 -0.0605197 -0.13272984 -0.2590793 -0.26168376 -0.27039576 -0.16088569
-0.101556994 -0.21108404 -0.09417667 0.061648414 -0.07343706 -0.01041778 0.08847168 0.0397819
0.1566342 0.16426593 0.23282662 0.22769158 0.13066097 0.14200842 0.1094387 0.10255987
0.03723567 0.041121017 -0.08221407 -0.18539923 -0.19923483 -0.14629625 0.18934707 -0.07890925
0.06626473 0.19393437 0.003057048 0.19212054 0.14207457 -0.013526571 0.08122138 0.16441326
-0.04569281 0.6693352 0.3867787 -0.0203928 0.04723246 -0.0012972286 -0.3414039 0.13756596
0.19072042 0.096216224 0.12554966 0.112242244 -0.1017818 0.18072872 0.19228965 0.001691337
0.32227242 0.11486619 -0.07674345 -0.3840674 -0.012842358 0.035721645 0.061320294 0.10002175
-0.0047457283 0.15903895 -0.15815187 -0.13206723 -0.26367867 -0.0091898255 0.021328447 0.207574
0.08547866 0.16735138 0.26916876 -0.019541118 0.05285928 -0.017543888 -0.05212377 0.022201821
-0.1417206 -0.04727825 -0.017983412 -0.1325791 -0.0062314975 -0.23130232 -0.1008717 -0.27185968
-0.18103182 -0.0126260305 0.1048027 -0.008397986 0.031924877 0.16487092 0.16761437 0.19592641
0.042837147 -0.05665646 -0.06351058 -0.012146183 -0.06256967 -0.057641868 -0.012520692 0.07970282
0.100092776 -0.084999636 -0.0074019763 0.07302411 -0.10570382 -0.016919822 0.06291081 -0.09967261
0.04099634 -0.09787528 -0.10666178 -0.05208412 -0.0476567 -0.032806505 -0.014237502 -0.19461717
-0.007826106 -0.07685011 0.17221355 -0.24081598 -0.09081293 0.001113799 0.035388384 -0.1746471
0.026434863 -0.20478556 -0.0073630814 -0.05442739 -0.124442294 0.15830398 0.039357025 0.16167258
0.1344632 0.0014257316 -0.10249951 -0.008418405 -0.118643366 0.108633496 0.07228692 -0.25619525
-0.17144175 -0.09414744 -0.14315166 -0.117105685 -0.044945993 -0.28453925 -0.038827702 -0.05948194
-0.15212353 -0.38482064 -0.2095316 -0.31692874 0.081747666 0.031606887 0.1104261 -0.018803984
00000000: 0ba5 5a3d c0f0 af3e cf94 c83e 3c5b 2c3d
00000010: 788e 553e 6582 b0bd d073 32bc a7ba 7ebd
00000020: 8c21 7dbe 3c26 303e 7cfd 003e a0b0 ec3d
00000030: f114 23bd 3e17 dcbd 73e3 dabd 6c46 863e
00000040: 381f f73d 85a4 a7bd e74c 05bd 1d9b b6be
00000050: 2ca5 4cbe 31e7 3dbd 16ac b9bd 118f f3bd
00000060: 99e4 7ebe 6486 f7bd 585d b3bd ef19 653e
00000070: f9ce 993e 09b0 913e 5fc8 373e 55cc 2c3e
00000080: 6c8f 333e 8fe4 25be 1217 c4bd 6f77 75bb
00000090: 03cc 493e cde2 603d 0808 eb3d 21d5 1ebd
000000a0: 0403 b1bd 2bd0 66bd 6ae1 0f3e 81a8 a33d
000000b0: db58 c63d 93ce 793d d2f1 e03d b0c9 b6bd
000000c0: aa91 283d 3cb8 093d 42a1 bbbd 190f 6a3e
000000d0: 0b7c 673d 0baa 97bd b3ec 523e 722e f23d
000000e0: 3220 fb3c 2e79 323e 7784 a23d 9172 293c
000000f0: 31b8 df3e 7af0 2a3e d156 c83d 6c19 9bbe
00000100: f7be 1abe 7c09 efbd 4ae3 adbe dadd e2bd
00000110: b0e6 da3b f38e 3dbe 0890 b1bc 98ad b7bc
00000120: ebb5 9cbd ce14 97bd d6a3 993d bab8 42be
00000130: 7cc6 2c3c bd96 84bd c7cf a6be ac44 4fbe
00000140: 866a 48be 2454 18be 5ebc a3bd ce70 5a3c
00000150: 7719 12be 7bad babc bf01 123e f4cd f93d
00000160: 26d5 523e d6d3 f93e ed00 053d 6998 65bd
00000170: 46e3 023e 3aa0 9dbd d306 c53d d210 0d3e
00000180: 7d2c 29be 9765 bcbc 81e3 77bd 55ea 07be
00000190: 0ba6 84be 6afb 85be 5071 8abe 38bf 24be
000001a0: 1dfd cfbd 6a26 58be b3df c0bd 0c83 7c3d
000001b0: 2b66 96bd 56af 2abc a430 b53d 58f2 223d
000001c0: b764 203e 5435 283e 1a6a 6e3e fb27 693e
000001d0: fdcb 053e a86a 113e 6621 e03d e90a d23d
000001e0: 6e84 183d 836e 283d da5f a8bd 4cd9 3dbe
000001f0: 3704 4cbe afce 15be 33e4 413e 2c9b a1bd
00000200: ceb5 873d bb96 463e c158 483b 3fbb 443e
00000210: ff7b 113e 8d9e 5dbc 6557 a63d f35b 283e
00000220: 6228 3bbd 8d59 2b3f dc07 c63e cd0e a7bc
00000230: d376 413d c507 aaba 7ecc aebe 17de 0c3e
00000240: 374c 433e 030d c53d 1790 003e 43df e53d
00000250: fa72 d0bd f310 393e 94e7 443e daaf dd3a
00000260: e400 a53e f73e eb3d ab2b 9dbd 7ba4 c4be
00000270: c168 52bc dc50 123d fd2a 7b3d 34d8 cc3d
00000280: 0e82 9bbb 1bdb 223e 90f2 21be a23c 07be
00000290: e400 87be ec90 16bc ffb8 ae3c 478e 543e
000002a0: 700f af3d 295e 2b3e 7dd0 893e b214 a0bc
000002b0: f982 583d 33b8 8fbc bc7f 55bd 98e0 b53c
000002c0: 341f 11be d7a6 41bd f351 93bc d1c2 07be
000002d0: 9731 ccbb 84da 6cbe d295 cebd 3131 8bbe
000002e0: 6860 39be 69dd 4ebc cca2 d63d b597 09bc
000002f0: a9c3 023d ecd3 283e 1aa3 2b3e efa0 483e
00000300: 0176 2f3d 9b10 68bd d611 82bd c900 47bc
00000310: 8724 80bd e119 6cbd 9723 4dbc 3b3b a33d
00000320: 71fd cc3d 4a14 aebd 478c f2bb aa8d 953d
00000330: 3f7b d8bd 709b 8abc 62d7 803d 2721 ccbd
00000340: c7eb 273d d672 c8bd 7e71 dabd 2956 55bd
00000350: ac33 43bd 1d60 06bd 6944 69bc b949 47be
00000360: 1139 00bc 9763 9dbd c058 303e 7798 76be
00000370: 21fc b9bd e5fc 913a 69f3 103d b0d6 32be
00000380: ed8d d83c 4eb3 51be 0146 f1bb 41ef 5ebd
00000390: 9adb febd 701a 223e d534 213d 7f8d 253e
000003a0: b9b0 093e 9ddf ba3a 43eb d1bd 5aed 09bc
000003b0: 4bfb f2bd 3d7b de3d 2a0b 943d 062c 83be
000003c0: 6d8e 2fbe 5fd0 c0bd 5996 12be 1bd5 efbd
000003d0: 4a19 38bd 21af 91be cc09 1fbd 56a3 73bd
000003e0: 45c6 1bbe 3607 c5be 748f 56be 7c44 a2be
000003f0: 526b a73d 3976 013d 1427 e23d d00a 9abc

resnets.1.conv1.conv2d.bias f4 [32]
0.058757942 0.1577473 -0.13978994 0.1415933 0.22528155 -0.10655121 0.22742775 -0.030382568
-0.03809075 -0.15733816 -0.07591051 -0.061886657 0.000630647 0.121046275 0.25824457 -0.11753969
0.10799266 -0.10923425 0.21382535 0.14548798 -0.047206294 -0.073110506 -0.22745807 -0.09001461
0.025000561 0.07379614 0.10930804 0.14199848 0.005254379 -0.04802677 -0.0066521177 -0.025486972
00000000: 2bac 703d 8288 213e 1825 0fbe d6fd 103e
00000010: 35b0 663e 8537 dabd d2e2 683e dde4 f8bc
00000020: 0c05 1cbd 411d 21be f876 9bbd dd7c 7dbd
00000030: 0152 253a 1ce7 f73d a238 843e a6b8 f0bd
00000040: 412b dd3d 35b6 dfbd 08f5 5a3e cdfa 143e
00000050: 635b 41bd f6ba 95bd c5ea 68be 9459 b8bd
00000060: facd cc3c 6e22 973d e5dc df3d 0d68 113e
00000070: ed2c ac3b b8b7 44bd 02fa d9bb 0eca d0bc

resnets.1.in1.weight f4 [32]
0.7964459 1.0511734 0.9985226 0.672082 0.67465 0.55016196 0.953403 0.71604234
1.0810448 0.66850156 0.5415072 0.9649248 1.0076572 0.5692285 0.61229193 0.8285497
0.664169 0.82477504 1.2846068 0.6229113 0.7942266 0.71062344 0.77512634 0.7005648
0.9771534 0.63424075 1.0253003 0.7725762 0.9314342 1.0598065 0.6543546 1.0508106
00000000: e1e3 4b3f da8c 863f 2d9f 7f3f 910d 2c3f
00000010: ddb5 2c3f 6ad7 0c3f 3812 743f 8d4e 373f
00000020: ad5f 8a3f eb22 2b3f 37a0 0a3f 5005 773f
00000030: e9fa 803f f5b8 113f 2abf 1c3f d51b 543f
00000040: fb06 2a3f 7524 533f ff6d a43f 1d77 1f3f
00000050: 6f52 4b3f 6beb 353f ae6e 463f 3758 333f
00000060: ba26 7a3f 9a5d 223f 0a3d 833f 8ec7 453f
00000070: 7972 6e3f bda7 873f c883 273f f680 863f

resnets.1.in1.bias f4 [32]
0.5988434 -0.30643484 -0.3798494 0.7233314 0.37550288 0.6436391 0.13693662 -0.11177913
-0.17429705 0.59571594 0.4727604 -1.0491954 -1.2824693 -0.0065051056 0.3465907 0.11363476
0.3686794 -0.24096315 -0.57411087 -0.12572403 0.116558775 0.20482865 0.38113067 -0.45767823
-0.089102454 0.26780102 -0.49748167 0.017813127 -0.6726448 -0.8159626 0.024986317 -0.9217335
00000000: cd4d 193f 07e5 9cbe 9f7b c2be 3f2c 393f
00000010: ea41 c03e 88c5 243f 1d39 0c3e 75ec e4bd
00000020: ed7a 32be d780 183f a70d f23e 094c 86bf
00000030: f427 a4bf c828 d5bb 5674 b13e 57b9 e83d
00000040: 8cc3 bc3e 0bbf 76be eef8 12bf cdbd 00be
00000050: 5eb6 ee3d 9abe 513e 8f23 c33e cd54 eabe
00000060: 597b b6bd 371d 893e ebb5 febe d6ec 913c
00000070: 7332 2cbf ede2 50bf 1bb0 cc3c baf6 6bbf
