Assets/Style_Transfer/Models/TransformerNet/Estilos 5-8/dragon_e9-256.onnx (onnx, 449372 bytes, 62 tensors)

conv1.conv2d.weight f4 [8, 3, 9, 9]
000000 26 ff 25 bd 9d 13 e0 3d 8e 93 bd 39 9b bd 5f bc
       -0.04052653 0.10941241 0.00036158826 -0.013656045
000010 e1 4f 1a 3b bc 1b 33 bd f1 5e db bd ea 78 88 bc
       0.0023546147 -0.04372762 -0.10711468 -0.016659219
000020 93 2f 94 3d 6a dd 24 bd cd f9 00 bb af 89 e3 bd
       0.072356366 -0.04025022 -0.0019680143 -0.111102454
000030 04 40 9d bd 7d 6e 2d bb e1 a5 0e 3d aa d3 87 bd
       -0.07678226 -0.0026463561 0.034826163 -0.066321686
000040 15 7d 3e 3c c8 51 91 3a 51 b6 ef 3c e6 ad dd 3b
       0.011626502 0.0011086995 0.02926174 0.006765115
000050 94 3a c7 bd b6 12 dd bd 3f a9 3d 3b 23 82 0d 3e
       -0.0972797 -0.107945845 0.002893999 0.13819174
000060 f2 91 16 3d b9 f6 82 bc 96 99 ad bd 2e b9 3b 3d
       0.036760278 -0.015986787 -0.0847656 0.045830898
000070 19 79 c3 bd a6 fd 0a 3e 04 50 cb 3d 3e 52 15 bc
       -0.09544582 0.13573322 0.09927371 -0.009113846
000080 71 72 7d 3d c3 cb 6a 3d 52 cc 4c 3d 11 36 ec bd
       0.061876718 0.05732323 0.049999543 -0.1153375
000090 2b 53 06 3d 5c 54 23 be 51 52 b2 3d 10 32 86 3d
       0.03279416 -0.1595015 0.08707107 0.065525174
0000a0 8f c8 ee 3d 0b 16 93 3e ea 3e 58 bd a4 48 b5 3d
       0.11659347 0.28727755 -0.052794375 0.08851746
0000b0 7c 0a d4 bc ce 38 61 3d 90 48 8e bd 99 d1 44 3d
       -0.025883906 0.054985814 -0.06947434 0.04805145
0000c0 7f e5 02 bd b8 64 4c 3d 7e bc d6 3d 18 f8 45 be
       -0.031957146 0.04990074 0.10485171 -0.19332922
0000d0 a8 28 44 3d ca 5f 3b 3d 25 de d2 3d e4 03 c6 bd
       0.047890335 0.04574565 0.10296277 -0.09668711
0000e0 18 a1 80 3b 2c 07 96 bd 8a b7 bc be a4 e0 88 be
       0.003925454 -0.07325587 -0.3685878 -0.26733887
0000f0 5b 2d 80 be fe 41 90 bd de d7 9b bd 91 23 3d 3e
       -0.25034603 -0.07043837 -0.07609533 0.18470599
000100 66 f7 8f 3b 71 96 76 be 1b 66 ef bd 52 a7 71 be
       0.004393506 -0.24080826 -0.11689397 -0.23598984
000110 4e bd 15 be e8 1d b7 bc 1c 42 e9 bb 90 5d 8b bd
       -0.14622995 -0.022353128 -0.0071184766 -0.06804955
000120 dd 94 8a 3e 5a a1 26 3e 4f 7c 83 3d f5 9c 07 3e
       0.270667 0.16272488 0.06420194 0.13243468
000130 69 42 30 bd 03 8a e3 bb 43 bb bc 3d de e5 1f bd
       -0.043032084 -0.0069439425 0.09215405 -0.039037578
000140 4c f8 e6 bd c4 20 b0 bd e1 4c 14 bb af cf bb 39
       -0.112778276 -0.085999995 -0.0022628831 0.00035822156
000150 e4 60 97 bd b1 fd 18 bb 4d 17 6a bd 19 42 98 bd
       -0.07391527 -0.0023344571 -0.057151128 -0.07434482
000160 9c b8 a6 bd f7 18 87 bc 4c 40 ca bd 1b b2 60 bd
       -0.0814068 -0.016491396 -0.09875545 -0.054857355
000170 76 d7 41 bd 56 4c c7 bc 08 a5 c2 3d 27 bb dc 3d
       -0.04732462 -0.024328392 0.095041335 0.10777884
000180 17 15 c9 bc b3 9b 98 bd a5 49 21 bd 9c c3 64 bc
       -0.02454619 -0.07451572 -0.039376874 -0.0139626525
000190 01 77 ac bc 02 a2 16 be 95 60 30 bd 67 54 d7 3d
       -0.02105284 -0.14710239 -0.043060858 0.10514145
0001a0 79 5d d2 3d 85 30 5f 3d 99 bd bb bd 81 9e 3f be
       0.10271735 0.05448963 -0.09167022 -0.18712808
0001b0 4c da 61 bc da 10 f6 bd 05 53 03 3e 1d 20 1c 3e
       -0.013784956 -0.12014933 0.12824638 0.15246625
0001c0 43 95 81 3d d8 87 62 bc 73 42 5b bd ac 16 8a bd
       0.063272975 -0.013826333 -0.053530168 -0.067426056
0001d0 58 35 02 be ca 99 16 be 87 16 d1 bd ba dc 52 3e
       -0.12715662 -0.14707103 -0.10209375 0.20592013
0001e0 64 5d 16 3e 83 66 d7 3d 61 72 0c 3e 75 29 00 be
       0.14684063 0.105175994 0.13715507 -0.12515815
0001f0 75 f2 a2 3d 48 59 c1 bd 20 27 8a bd c3 a5 01 3c
       0.07956401 -0.09440857 -0.06745744 0.007913056
000200 e5 d8 cc 3e f3 29 da 3e e1 25 97 3e df 67 1a 3e
       0.40009227 0.4261013 0.29521087 0.15078686
000210 c9 6a 7f be 95 47 13 bc b1 9f 2a 3b 5f 7e bc bc
       -0.24943079 -0.008989234 0.0026035125 -0.023009477
000220 3a 36 3f bc 6a 9a c6 3e 4c ec cb 3e 95 61 71 3c
       -0.011670643 0.38789684 0.39828718 0.014732738
000230 04 45 dd bd 92 38 9c be 13 34 a8 bd 96 49 6c 3c
       -0.10804179 -0.3051191 -0.08213057 0.014421841
000240 b7 62 7c 3c ad 30 75 bd 8c 15 ad bd 41 10 02 3e
       0.015404395 -0.059860874 -0.08451375 0.12701513
000250 3b a2 a2 bc 5c 32 a5 bb e6 38 46 3d 8f 9c 18 3d
       -0.019852748 -0.0050414037 0.048394106 0.03725868
000260 3d 85 d2 3c 08 3a 03 bd 3d a9 d8 bd ab d5 e5 bd
       0.025698299 -0.032037765 -0.10579155 -0.112223946
000270 99 cd 94 3d b9 c1 92 bc a1 ac c5 bd 55 45 0b 3c
       0.07265777 -0.01791464 -0.09652067 0.008500417
000280 59 15 29 39 14 03 92 bd 84 c9 43 bd 87 76 af 3d
       0.00016125049 -0.07129493 -0.047799602 0.08567529
000290 12 40 a0 3c 5a 58 1c bd 64 e7 0d 3d 85 27 00 bd
       0.019561801 -0.038170196 0.0346445 -0.03128769
0002a0 d2 77 08 3d ee 29 62 3d 16 12 0d 3d d2 da f0 bb
       0.033317395 0.05521577 0.034441076 -0.007350304
0002b0 9d d4 f7 3c 74 c1 a7 bc df f8 f0 3c c6 89 96 3d
       0.03025275 -0.020477988 0.029415546 0.07350497
0002c0 92 09 8e 3d cf bc ef 3c ae 42 d6 3d cd 2c 75 3d
       0.06935419 0.029264836 0.10461937 0.05985718
0002d0 81 cb 08 3e 3e af 2a 3e eb ba 1b bd 1f c8 16 bd
       0.1335888 0.16668412 -0.038020056 -0.036811944
0002e0 de 61 b4 bd 61 a5 54 bd 16 29 e2 3d d1 7d c7 3d
       -0.08807729 -0.05191553 0.11042993 0.097407945
0002f0 f6 66 f4 3d df 60 47 3d 35 6d 49 bc 16 ab 90 3d
       0.11933701 0.048676368 -0.012294103 0.07063882
000300 d2 68 48 bd 17 9a 8d be 21 58 91 be 87 8f e1 bd
       -0.04892809 -0.27656624 -0.2838755 -0.11013704
000310 8a 4b 3b 3d a7 95 c9 3d a8 6c db b6 f9 18 17 be
       0.045726337 0.09842997 -6.539358e-06 -0.1475562
000320 f7 1b 36 3c bb bb b0 bd 54 8c 80 be 84 14 68 be
       0.011115066 -0.08629557 -0.25107062 -0.22664076
000330 36 14 ab be d4 5b 91 3d 09 8b 08 3e 8e 5a 10 bd
       -0.33413857 0.07097593 0.13334288 -0.03524261
000340 92 de 58 3d 9b 43 0b 3e 6e e4 82 3d 72 34 8c bd
       0.052946635 0.13600008 0.06391226 -0.06845941
000350 73 df e3 bd f9 e4 b6 be 08 b4 0b 3d d3 66 05 3e
       -0.11126604 -0.35721567 0.034107238 0.13027506
000360 dd fc 67 3d a9 b8 74 3d 3a 64 a2 3e 61 dc 8d 3e
       0.056637634 0.05974642 0.31717092 0.27707198
000370 68 0b 78 bd b3 85 92 be 8a 1a 49 be 7b 87 c0 3d
       -0.060557753 -0.2861763 -0.1963903 0.09400841
000380 25 59 04 3e 6a f3 1c 3d 1b c7 d7 bc 55 2e 0c bb
       0.12924631 0.038318075 -0.026340058 -0.002138992
000390 44 e9 97 3d db c4 2f 3b 0b bb 1c bd ac 7f e7 3c
       0.07417539 0.0026820216 -0.038264316 0.02825912
0003a0 2c 05 9d 3d 3c 00 85 3d f7 2e fd bd 37 5a 07 be
       0.07667002 0.06494185 -0.123624735 -0.13218008
0003b0 ca 93 e1 bd 76 8c f0 3d 6e 63 d2 bd 36 3b ef bd
       -0.11014517 0.11745541 -0.10272871 -0.116812155
0003c0 fb c7 d7 3b 7d 6b 70 3c 1f 89 c6 3b 2b e0 e4 3d
       0.006585119 0.014674065 0.0060588266 0.11175569
0003d0 e0 ad 92 bd 20 a3 9c 3d f2 1d 15 3d d9 a5 37 bd
       -0.0716207 0.07648301 0.03640551 -0.0448359
0003e0 0a dc d6 bc 8f 81 d3 bc 46 fa b1 bd 20 c1 9f 3d
       -0.02622797 -0.025818614 -0.08690314 0.078005075
0003f0 df 64 2a 3d eb dd d5 bd 33 13 e0 3d 3f 27 84 3d
       0.041600104 -0.10442718 0.10941162 0.06452798

conv1.conv2d.bias f4 [8]
000000 ce 1f c9 3d 9b e9 c0 bc 78 e3 34 3d 8f 76 00 bb
       0.098205194 -0.023548892 0.044162244 -0.0019601916
000010 9c 98 76 bd de aa 04 3b ff 5c 27 bc b8 96 c6 3d
       -0.060204133 0.0020243446 -0.010215043 0.09696716

in1.weight f4 [8]
000000 6e 1b c3 3e c0 8f a1 3e 17 de 17 bc f9 1d e0 3e
       0.38106865 0.31554985 -0.009269259 0.43772867
000010 35 6e 96 3e 94 f4 df 3e 98 f2 9a 3e 86 ff a9 3e
       0.29380956 0.43741286 0.3026321 0.3320276

in1.bias f4 [8]
000000 68 83 f2 3f d9 c1 29 3e 39 c6 0c 3f 01 86 b7 3f
       1.8946352 0.16577853 0.54989964 1.433777
000010 b1 2b 85 3f ed b8 20 3f 07 1b 1f 3e 80 af c8 3f
       1.0403959 0.62782174 0.15537654 1.5678558

conv2.conv2d.weight f4 [16, 8, 3, 3]
000000 ea 7a 0c 3b bc 05 e3 bc d3 c9 6c 3e 3f b7 85 bd
       0.0021435567 -0.027712695 0.23123865 -0.06529092
000010 e2 57 a9 bc df 98 78 3d f0 c5 29 be 08 f2 64 bc
       -0.020671789 0.060692664 -0.16579413 -0.01397372
000020 ea 51 cf 3d 45 4c c6 bd d4 c3 a6 bd e6 ed 30 be
       0.10123046 -0.09682516 -0.0814282 -0.17278251
000030 bf 07 b8 bc bc 78 0e 3c b8 b6 2b be 19 e7 d4 bb
       -0.022464631 0.0086957775 -0.1676892 -0.0064972755
000040 05 bf 3d 3b d8 34 a7 3d e2 1b 8d ba d2 ce ac 3d
       0.0028952968 0.08164376 -0.0010765756 0.08437885
000050 7d c9 83 bc f6 61 de bc d3 b4 75 bc bc 4c aa bc
       -0.016087288 -0.02714632 -0.014996725 -0.020788543
000060 8c 6f f4 bd f7 e6 27 be 12 90 f3 bc 03 81 28 bd
       -0.119353384 -0.163967 -0.029731784 -0.04113866
000070 35 44 dc 3c 74 08 f8 3d 17 9f 14 be 84 e2 07 be
       0.026887992 0.12110987 -0.14513813 -0.13270003
000080 87 3a 80 3d 20 4e 0e be 4e e7 79 3d 75 c0 a1 3d
       0.06261163 -0.1389699 0.061011605 0.078980364
000090 bc 8a b7 bd 0f d4 69 3d 66 5d c5 3d 39 4e 65 3d
       -0.08962008 0.057087 0.09636955 0.055982802
0000a0 07 07 8d 3e 20 f9 dc 3e ab a8 0c 3d d9 92 ea 3e
       0.27544424 0.43158817 0.03434054 0.4581516
0000b0 4e 16 8f 3e 7c 61 84 bd a1 ca 92 3b a5 c5 de bd
       0.27946705 -0.06463906 0.0044797217 -0.108775415
0000c0 b1 3c 9b bd 4f 7c 9b bd da 95 10 3d 3c 6a fc bc
       -0.07579935 -0.07592069 0.03529916 -0.030812375
0000d0 d5 73 26 3e 23 cf 6a 3d a1 a6 67 be 2b bc 2b be
       0.16255124 0.057326447 -0.22622158 -0.16770999
0000e0 29 67 bf bc dd 3d 89 be e3 3d a9 bd 92 d1 5e be
       -0.02336462 -0.2680501 -0.08263757 -0.21759632
0000f0 d7 cf 31 be f1 65 72 be 15 93 8e 3c 95 3b 08 3d
       -0.17364441 -0.236717 0.017404119 0.033259947
000100 63 b0 90 bd 82 16 0e be 79 d0 e0 3c da d8 99 bd
       -0.07064893 -0.13875774 0.027443158 -0.07512064
000110 56 e8 49 be 3d 20 f6 bd a2 f7 c3 bd 02 5d 95 bd
       -0.19717535 -0.12017868 -0.095687166 -0.072931305
000120 09 12 07 bd c9 7a 63 3d 8a 06 ee 3d 5e 58 c5 bd
       -0.032976184 0.05553702 0.11622341 -0.09635995
000130 87 fb e1 bd 0e fd bc 3d 5e 79 4c 3d b9 33 55 bd
       -0.11034303 0.09227954 0.049920432 -0.05205128
000140 0e c2 5f 3d da 37 b3 3c 86 ce 4a bd 95 c8 39 be
       0.054628424 0.021877218 -0.049513362 -0.18142922
000150 f0 91 20 bd 47 f8 1c 3d b6 8f 33 be f0 ec 42 3d
       -0.039201677 0.038322713 -0.1753529 0.047589242
000160 cd b3 b2 bc 6e e3 21 be 44 b3 40 3e 06 b8 82 bd
       -0.021814251 -0.15809414 0.18818384 -0.06382756
000170 09 ee 88 bd a7 9f 61 3e 74 5f d1 3c d0 6b e1 bd
       -0.066860266 0.22033559 0.02555821 -0.11006892
000180 07 91 ad 3d 8a 6c 60 3e e0 74 12 3e ed 2e 14 3d
       0.084749274 0.21916404 0.14302397 0.036177564
000190 38 4b 3f 3e 06 6f 44 3d 99 3b f9 bc 7f 35 e6 3d
       0.18681037 0.047957443 -0.030423926 0.11240672
0001a0 c7 ce 62 3e e6 78 7a be 07 e1 65 bd d9 fa 98 3d
       0.22149192 -0.24460182 -0.056122806 0.074697204
0001b0 a6 14 28 bb 1b 04 e7 bb dd 04 f3 3c b5 4c 52 3c
       -0.0025647073 -0.00705005 0.029665405 0.012835671
0001c0 38 bb b0 bd 00 8b 2f bd 21 fe 09 3e 9a b2 a0 3d
       -0.08629459 -0.04285717 0.13475849 0.078465655
0001d0 df ac 14 3d 73 4e 18 3e 2a 54 03 be 5a 53 2d be
       0.036297675 0.14873676 -0.12825075 -0.16926327
0001e0 87 fa a7 3d 7a 0c 57 bd 1f 0c 82 be 3c 62 87 3e
       0.08202081 -0.052502133 -0.25399873 0.26442134
0001f0 c0 24 bb 3c 37 ae 92 be 3d a5 37 3d 30 ae 84 bd
       0.022844672 -0.2864854 0.044835318 -0.06478536
000200 bb e3 b2 3d a6 ae 93 bb 79 0b a0 bb 96 06 c6 3d
       0.087348424 -0.0045069037 -0.00488418 0.09669225
000210 d3 37 67 be 58 f2 9a 3c a1 b2 68 bc 24 d0 f5 bb
       -0.22579889 0.018914387 -0.014202745 -0.007501619
000220 7a e9 35 be c4 67 c8 be c8 72 37 3d 5a 44 db 3c
       -0.17764845 -0.39141667 0.0447872 0.026765991
000230 f6 29 87 be 4c ae 7e 3e eb 61 63 3e 1d e1 9d bd
       -0.263992 0.24871176 0.22205321 -0.077089526
000240 80 eb 22 bd eb 3e ac be 65 5a a1 be c3 a2 af bd
       -0.03977537 -0.33641753 -0.31514278 -0.08575966
000250 ec c0 a7 bd fa 39 28 be 0e d1 11 3d 00 12 25 3d
       -0.08191094 -0.16428366 0.03559976 0.04030037
000260 b5 0c 30 bb 7e 12 62 3b 98 80 25 3e b2 4d e4 3c
       -0.0026863043 0.0034495885 0.16162336 0.02786908
000270 f7 fb 46 bc a0 00 17 3d 75 49 c5 bc 8e 90 df bc
       -0.012145034 0.03686583 -0.024082879 -0.027290609
000280 a1 64 5c 3d fe e1 00 3e ed 67 46 be f6 1a d1 bd
       0.053806905 0.12586209 -0.19375582 -0.102102205
000290 6d a9 c0 bd 60 fc 39 be a7 f4 14 be 6c c5 e5 3c
       -0.094073154 -0.1816268 -0.14546452 0.02804824
0002a0 19 70 50 be 65 af ec bc 17 9c a1 3d 4d 7e 3e 3d
       -0.20355262 -0.028892228 0.078911 0.04650717
0002b0 f3 09 15 be 0c 21 5d bd f5 3a 1c 3e 85 0e 83 bb
       -0.14554577 -0.053986594 0.15256865 -0.0039995336
0002c0 e4 27 08 3e bc 0d e1 3c 45 5d 98 bd 8f bb ea 3d
       0.13296467 0.02747237 -0.07439665 0.11461555
0002d0 e5 91 57 3d a9 75 44 bd f9 75 3a bc db 43 bb 3c
       0.05262937 -0.047963772 -0.011380666 0.022859504
0002e0 74 4d 08 be 1d fb 87 bd e6 f9 95 ba 93 2e b5 bd
       -0.13310796 -0.06639693 -0.0011442273 -0.08846774
0002f0 3d 09 2b be af 48 05 3e ce b7 b9 bd 7d fe 2d be
       -0.16702743 0.13016008 -0.09068261 -0.16991611
000300 1c 1c 5a 3e 51 5e 61 3c 77 e5 38 bd 59 33 34 3d
       0.21299785 0.013755397 -0.04514071 0.04399428
000310 9e e0 b6 bd ce 43 d6 bc 21 07 63 3d 09 31 18 bc
       -0.08929561 -0.026155379 0.05542672 -0.009289035
000320 4b 04 a6 bd 17 24 9a 3d e3 dd b7 bd 26 2f 56 be
       -0.081062876 0.07526415 -0.089778684 -0.20916423
000330 42 82 e9 3d cc 3c 16 3d a3 80 28 be fe 1c 47 3d
       0.11401798 0.036679074 -0.16455321 0.048611633
000340 b2 05 83 3d 4e 95 3a 3e 8f 68 51 3e 42 86 47 3e
       0.06397571 0.18221018 0.20450042 0.19484809
000350 29 68 83 3e 50 57 98 3d 4e 5d 6b 3e 5e 86 d1 3e
       0.25665405 0.074385285 0.22984812 0.40922827
000360 ea ef 00 3d 57 90 d7 3d 19 ba bb bd 60 04 b8 3d
       0.0314788 0.105255775 -0.09166355 0.089852095
000370 96 03 21 3e 14 b3 d5 bd b1 b0 60 3d 55 2a 89 bb
       0.15724024 -0.10434547 0.054856006 -0.0041859546
000380 00 33 b6 bd b6 04 4a 3d 07 30 d9 3c a2 5d 60 3d
       -0.08896446 0.0493209 0.026512159 0.054776795
000390 a5 7d 30 bd 16 09 9d 3d 90 b7 6f bb 60 85 39 be
       -0.043088574 0.07667749 -0.0036577918 -0.18117285
0003a0 b8 f5 8c bd cc 26 b1 3c 4c 9b 78 bd 0f 37 c5 bc
       -0.06882805 0.021624945 -0.060694978 -0.024074106
0003b0 90 28 73 bc 3e 64 e8 bd 4f 49 4e bd 49 70 22 be
       -0.014841214 -0.11347245 -0.05036288 -0.15863146
0003c0 92 d9 80 be 19 9b 1f be 8c 45 e5 bd ab 81 b6 bc
       -0.25165993 -0.15586509 -0.11194906 -0.022278627
0003d0 a1 04 d8 bc 41 a7 2b bb 16 dd 89 bd a1 60 e1 bd
       -0.026369395 -0.002619222 -0.06731622 -0.110047586
0003e0 e8 80 bb bc dc 97 98 3d f4 aa dd bd 94 15 94 3c
       -0.022888616 0.0745084 -0.10823622 0.018076696
0003f0 ad 1e fc bd 48 23 67 bd 2b 54 97 bc 2f 9b 2d bc
       -0.123105384 -0.05643013 -0.018472752 -0.010596081

conv2.conv2d.bias f4 [16]
000000 21 09 d4 3d a5 66 ed bd c5 9d bf 3c e9 06 a3 3d
       0.10353304 -0.115918435 0.02339066 0.079603024
000010 ed f0 8d bc 5a f9 e8 bd bc b3 55 3e a1 db 59 bd
       -0.017326796 -0.11375685 0.20869344 -0.05318797
000020 9a 00 eb 3c 45 17 6d be 3e c2 91 3e 84 78 ec 3d
       0.02868681 -0.23153408 0.28468508 0.11546424
000030 42 61 5c 3e f2 f9 76 be d6 3a 21 3e a1 e6 cb 3d
       0.21521476 -0.24118784 0.157451 0.09956098

in2.weight f4 [16]
000000 42 e5 86 3e 3f 55 c3 3e 1b 51 55 3e d5 68 e8 3e
       0.26346785 0.38150975 0.2083172 0.4539248
000010 83 38 b7 3e 07 2f bf 3d 39 6d ad 3d 7d 74 69 3e
       0.35785303 0.09335142 0.08468098 0.22798343
000020 09 e5 73 3e 9f 17 97 3e 5a 05 93 3e 0c 8d a9 3e
       0.23817839 0.2951021 0.2871502 0.33115423
000030 88 e2 d3 3e 7b bf 99 3e 02 15 94 3e 13 c6 26 3e
       0.41383767 0.300289 0.28922278 0.16286497

in2.bias f4 [16]
000000 46 6c a4 be 82 7f 52 bd 0d 52 e0 3e 43 7c 36 3e
       -0.32113856 -0.051391132 0.438126 0.1782084
000010 58 5c 71 bd ff 85 db 3d 74 c7 0e 3e e1 54 31 3d
       -0.058925956 0.10718917 0.13943273 0.043293837
000020 16 1c 9b bc 3b 80 d0 bd e2 04 11 bd 68 d0 7d bd
       -0.01893429 -0.10180708 -0.035405047 -0.06196633
000030 7e 41 7e be 28 8d 9a bd c2 cc be be 3d 44 41 3d
       -0.24829671 -0.07546455 -0.37265593 0.047184218

conv3.conv2d.weight f4 [32, 16, 3, 3]
000000 95 5e 74 bd 84 94 56 be 29 b5 ef bc fa b3 8b bc
       -0.059660513 -0.20955092 -0.029261189 -0.017053593
000010 91 28 7c 3d 3f 90 00 be bb 15 ed bd e8 ff d7 3c
       0.061562125 -0.12555026 -0.115764104 0.026367143
000020 ec ca 3c 3d 16 b5 10 3e 6b 6b 57 bd ca 3e c2 be
       0.04609196 0.14131579 -0.052592676 -0.3793853
000030 49 9c 8f bd 50 67 33 3e fc 0e b1 bd 6d 01 37 be
       -0.07012231 0.1751988 -0.08645436 -0.17871638
000040 db 8e bd bb 7e 3d 77 3e f4 23 13 be 6b ac b4 bd
       -0.005784852 0.24144551 -0.14369184 -0.088219486
000050 61 ff 3f bd 82 79 76 3e 70 b2 23 bc 36 a4 5c be
       -0.046874408 0.24069789 -0.009991273 -0.21547017
000060 3a 1d 48 3e ff 02 e5 3d 06 02 a1 bd fa 6e 84 be
       0.19542399 0.11182212 -0.07861714 -0.25865918
000070 be 3f 57 be 3f 07 f9 bd c2 e7 e0 be 17 df 08 bf
       -0.2102041 -0.12159585 -0.43926817 -0.5346541
000080 61 83 a5 be 56 00 56 be 5d 1a 04 be c7 98 ac be
       -0.32326797 -0.20898566 -0.12900682 -0.3371031
000090 7e a6 82 bd 91 84 45 bd b4 23 26 bd 18 3b 72 3c
       -0.06379412 -0.04822213 -0.040561393 0.014784597
0000a0 94 91 7a 3d 20 89 34 3d 80 15 84 bc 54 83 b8 bd
       0.06117399 0.044076085 -0.016123533 -0.09009424
0000b0 8f de 4f 3d d0 34 8e 3d 52 d4 23 3e 43 29 b5 3b
       0.050749358 0.06943667 0.15998963 0.0055286004
0000c0 a1 01 08 3d 30 89 99 3d da 12 67 3c 53 0e 1e 3d
       0.03320468 0.074968696 0.014103616 0.03858788
0000d0 b8 62 58 3d 85 5e 85 3c ae 0b 96 bd e9 98 1d be
       0.05282852 0.016280422 -0.073264465 -0.15390362
0000e0 a0 ed e1 bd 88 72 f8 3c 36 ca e2 3d 97 1e 0f 3e
       -0.110316515 0.03032805 0.11073725 0.13976513
0000f0 f5 f2 0e 3e 0d ad b0 bd 0d 0f 94 bd 6d ad 2b bc
       0.13959868 -0.08626757 -0.07229433 -0.01047836
000100 6d ea bc bd 47 4d 3f be 8b ca a6 bd f4 60 01 be
       -0.09224401 -0.18681823 -0.08144101 -0.12634641
000110 30 4c 40 be 65 8f aa bd 2c fd 55 be 85 36 89 be
       -0.18779063 -0.083281316 -0.20897359 -0.26799408
000120 8c 88 cb bc 2c 4a ec 3d 4a a8 0f 3d 61 c2 c7 3d
       -0.024845384 0.11537585 0.035072602 0.09753872
000130 1c c6 af bc 95 31 b1 be 57 99 77 bd 6e 7b 2f be
       -0.02145677 -0.3460814 -0.06044897 -0.17136928
000140 41 cc 88 be a5 5a 89 bd 79 03 3e 3d a4 8c 57 bd
       -0.26718333 -0.06706742 0.04639003 -0.05262436
000150 9a d0 04 bc bf f7 36 3d 29 6d f1 bb 09 b8 9f bc
       -0.008106375 0.044669863 -0.007367749 -0.019496934
000160 73 3b a7 bd dc 63 3d bd 1c 05 f0 3c 41 6b b0 3d
       -0.08165636 -0.04623781 0.029299311 0.08614207
000170 4b 5c 09 bb 69 34 86 bd ca de 56 3d cc 40 55 3e
       -0.0020959552 -0.06552965 0.052458562 0.208255
000180 cd b6 a4 bd a1 ce 5a bb 9d d7 ab bd 46 21 83 be
       -0.08042679 -0.003338732 -0.08390734 -0.25611323
000190 c0 0e 5a be 6f 19 77 ba 6d 3c 8c 3d 84 2a 5b 3d
       -0.21294689 -0.0009426092 0.06847463 0.053507343
0001a0 eb 94 4b be 56 4b 3c b9 3e d3 47 3e e7 89 9a bd
       -0.19881026 -0.00017957142 0.19514176 -0.07545834
0001b0 b6 5e b4 bd a5 6c ec bd 50 ac d9 bc f0 e4 ec 3c
       -0.08807127 -0.1154416 -0.026571423 0.02891776
0001c0 0e 0f 90 bd 98 9f eb bd c8 2c 5f 3d c4 9c 3c 3d
       -0.070341215 -0.115050495 0.054486066 0.04604794
0001d0 d0 d6 bb bd e9 e9 22 3d e4 49 e4 bd 96 0d 29 bd
       -0.091718316 0.039773855 -0.11146906 -0.041272722
0001e0 47 93 dc 3c 59 a0 31 bd 07 8b 98 3d e0 28 47 bd
       0.026925696 -0.04336581 0.07448392 -0.048622966
0001f0 19 35 2a 3c 8d 99 75 bd fc b6 22 3d 00 32 f5 3d
       0.010388636 -0.05996089 0.03972529 0.11972427
000200 99 8b 82 bc ec ce b1 bd eb 74 d3 3c 39 ab cc 3d
       -0.015935706 -0.08682045 0.025812587 0.09993596
000210 b5 f0 b3 3c 00 4e bf bd 0a 6e b1 3d 5f f8 45 bd
       0.021965364 -0.09341049 0.086635664 -0.04833257
000220 2b 82 e0 3c 28 6b af bd 1f ff a1 bd b6 8d c3 be
       0.027405819 -0.0856536 -0.079099886 -0.38194054
000230 ae 53 c1 be 0b 72 0e be 87 41 83 be 82 34 6b be
       -0.37759155 -0.13910691 -0.2563593 -0.22969249
000240 4e b5 c5 bc 08 2f af bd 50 e9 66 be 22 69 0c bd
       -0.024134304 -0.085538924 -0.22549939 -0.03427995
000250 92 07 91 be d1 dd 8f be 61 e3 a6 3d 31 1b ab bc
       -0.28326088 -0.2809892 0.08148838 -0.02088699
000260 4d 3e 96 bb 84 cb e7 bd bc a1 45 be fc 18 68 be
       -0.0045850636 -0.113181144 -0.19299978 -0.22665781
000270 c7 bf 44 bd 4e 4d 3c be 60 77 9c bd 05 61 2b 3d
       -0.048034456 -0.18388864 -0.076399565 0.041840572
000280 8a 5c 60 bd 74 00 1b be 01 fc a3 bc a1 14 a7 bd
       -0.054775752 -0.15136892 -0.020017626 -0.081582315
000290 a3 65 0b bd 3e 25 da bb 74 33 27 be f8 71 70 3d
       -0.034032475 -0.0066572716 -0.16328222 0.05870244
0002a0 69 80 7b bc b3 fd dd bc f8 bc aa 3d 89 20 8f bc
       -0.01535044 -0.027098512 0.08336824 -0.017471569
0002b0 6f 0e 0b 3d 9e 94 f2 3a bc cf 31 3c 21 99 5c bd
       0.03394931 0.0018507426 0.01085275 -0.053856973
0002c0 28 9f 91 bd 49 12 80 be 11 4b bc be 4f 6f be be
       -0.07110435 -0.2501395 -0.3677602 -0.37194297
0002d0 4b 03 d4 3d de 3f 75 bd 84 a4 e3 bc 5f 3b 76 bd
       0.103521906 -0.05987536 -0.027788408 -0.060115214
0002e0 d8 32 2f bd 35 93 97 bb 6a 7d 94 3d 92 5f bc 3d
       -0.042773098 -0.0046257027 0.07250483 0.09197916
0002f0 c6 d7 0c 3e af 05 93 bd a8 2b c3 bd 75 a4 c2 bd
       0.13754186 -0.071788184 -0.09529811 -0.09504024
000300 7f 77 09 be d3 be 83 bd 27 78 c2 bd 1a a4 6a be
       -0.1342449 -0.06432881 -0.094955735 -0.22914162
000310 2c 4b a4 bd 36 d2 80 bd ab bc 2c be e7 39 93 bd
       -0.080221504 -0.062900946 -0.16868846 -0.07188778
000320 f6 6e 21 be 60 bd ab bd 75 1e 29 bd 71 c0 5a bd
       -0.15764984 -0.0838573 -0.04128881 -0.053406183
000330 6a fe 1f 3d c7 2b ed 3d 92 3a 50 bd b7 5c a6 be
       0.039060988 0.115806155 -0.050837107 -0.3249261
000340 fc 72 88 be 38 09 f6 bd ee e0 0a be 50 8d 6f be
       -0.26650226 -0.12013477 -0.13562366 -0.2339375
000350 b1 74 61 bd ef 43 d6 3d 59 67 12 bd ea e5 ba bd
       -0.055042926 0.10462176 -0.03574309 -0.09125884
000360 31 2b b3 bc d6 db a7 bd 6b 23 ca bc d6 30 46 3c
       -0.021871181 -0.08196227 -0.024675092 0.012096604
000370 a6 b9 1b be 02 6a 0e be 71 81 f9 3c a7 ec ca bd
       -0.15207538 -0.13907626 0.03045723 -0.09908419
000380 b5 6f df bd 8b 63 16 be 1b cd 29 bd f1 cb 81 bd
       -0.10909978 -0.1468641 -0.04145537 -0.06337727
000390 04 43 0a bd 35 cb 13 be a0 46 e2 bc 1f 0e ba 3c
       -0.033755317 -0.14432986 -0.027621567 0.022711812
0003a0 53 4a 8d bd 00 ed f6 bc 8f 54 9d 3c e9 a8 a0 3c
       -0.06898942 -0.030142307 0.01920536 0.019611793
0003b0 2d 49 e7 3c c0 8d 3c 3d 4b 8d 85 3d 5a 48 86 3c
       0.028233135 0.04603362 0.0652109 0.016391922
0003c0 11 49 5e bd 27 64 c3 3c bc f1 6b 3d fe 41 02 be
       -0.0542689 0.023851467 0.057603583 -0.12720487
0003d0 2e 31 a4 bd d5 42 ff bd 81 79 ca be e1 6a 50 be
       -0.08017193 -0.12463919 -0.39545825 -0.20353271
0003e0 dc 97 a3 be cf 8a a8 bd 31 5d 4f be 0e 77 4d be
       -0.31951797 -0.08229601 -0.20250393 -0.20064947
0003f0 f6 b9 36 be 26 af 0f be 04 fa 0f be 92 11 87 be
       -0.17844376 -0.14031658 -0.14060217 -0.26380593

conv3.conv2d.bias f4 [32]
000000 ea 66 87 3d 75 0c a9 bd ce c8 b3 bb cc c9 db 3d
       0.06611426 -0.08254329 -0.0054865843 0.10731849
000010 96 40 a8 be 02 9e 84 be d3 60 4f 3e 61 e8 27 3e
       -0.32861775 -0.259018 0.2025178 0.1639724
000020 d0 ff 50 3e 45 b8 b9 bd 54 3f 81 3d e6 35 be be
       0.20410085 -0.0906835 0.06310907 -0.37150496
000030 29 1b ee 39 36 9c 9c 3e 7f 81 a4 3c 9f 5d 15 3e
       0.00045415133 0.3058793 0.02008128 0.14586495
000040 6e d3 e2 bd b8 75 16 3e 8d 4b 6f 3d e5 a2 ac 3d
       -0.11075483 0.14693344 0.05842166 0.08429507
000050 65 95 28 3e 66 e3 b8 3b e2 f7 bb 3d 9d f3 f3 3d
       0.1646324 0.0056423424 0.09178139 0.119117
000060 08 34 15 be ee 89 8e 3d df 1e a2 bd 79 36 3b 3a
       -0.1457063 0.06959902 -0.079160444 0.0007141601
000070 4d 8a 01 bd d5 f4 0a be 6b 16 88 bd 17 30 0b be
       -0.031626035 -0.13569959 -0.06644901 -0.13592564

in3.weight f4 [32]
000000 68 e9 89 3e da f5 db 3e ad aa ac 3e 60 c9 b2 3e
       0.26935887 0.42961007 0.33723965 0.34919262
000010 1f f4 25 3e 34 9d 8c 3e 0c 14 b4 3e ba a5 b7 3e
       0.16206406 0.27463686 0.35171545 0.35868627
000020 fb 3e b6 3e f4 fc 5f 3e 16 59 8e 3e bd 9e 43 3e
       0.35594925 0.21873838 0.27802342 0.19103523
000030 b1 9d 74 3e 1d dd a9 3e b5 c1 c8 3e c3 48 31 3f
       0.2388828 0.3317651 0.39210287 0.6925165
000040 44 f3 ad 3e 75 31 a8 3e 65 62 dc 3e 55 b5 c7 3e
       0.3397466 0.32850233 0.4304382 0.39005533
000050 50 d2 99 3e 09 2c 9f 3e ef a2 be 3e 64 16 b1 3e
       0.30043268 0.31088284 0.37233683 0.34587395
000060 f3 42 de 3e 1e e9 b4 3e d2 10 86 3e b4 39 7c 3e
       0.43410453 0.35334104 0.26184708 0.24631387
000070 00 ae 9a 3e ae 24 6c 3e fa 67 b3 3e 6a a0 a7 3e
       0.30210876 0.23060867 0.35040265 0.32739574

in3.bias f4 [32]
000000 95 f2 44 3c b2 33 7a be 2c 5f c2 bd 8d 53 1d be
       0.012020727 -0.24433783 -0.09490809 -0.15363903
000010 26 b4 00 3f f9 57 15 be b1 31 a9 3c 2a ed a2 3d
       0.50274885 -0.1458434 0.020653578 0.07955392
000020 0e c7 5b be b4 c7 03 bc 6c 41 28 bc f2 a9 45 be
       -0.21462652 -0.008043218 -0.010269504 -0.1930311
000030 12 58 4f be 53 8e 82 bd ab 10 bc bc d2 e6 dd bd
       -0.2024844 -0.063748024 -0.022957167 -0.10835041
000040 2b dc 9c 3c 98 2b 65 bc 73 1b b0 bd 2b 12 46 bb
       0.019147953 -0.013987444 -0.085989855 -0.0030223231
000050 85 73 90 bd 34 97 cc bd 37 bf 37 be 9b 91 91 bc
       -0.070532836 -0.09989777 -0.17944036 -0.017769625
000060 a3 28 3d be 8f 25 53 3d 7a 50 b8 3d 1f 39 f5 bb
       -0.18472533 0.05154949 0.08999725 -0.007483616
000070 eb 4a 91 3e e9 2b af bd 9a f5 9a bd 89 c1 61 be
       0.2837747 -0.08553297 -0.07566376 -0.22046484

resnets.0.conv1.conv2d.weight f4 [32, 32, 3, 3]
000000 5b 8b 8f bb 29 f9 62 be df d1 28 be c2 23 0e 3d
       -0.004380626 -0.2216536 -0.1648631 0.03470207
000010 bd 14 d7 bd ec f0 ae 3d 60 f0 c7 bd ec e9 2d bd
       -0.105020024 0.08542046 -0.09762645 -0.042459413
000020 ff 58 81 3d 46 b5 59 be 01 29 23 bd 65 3a 25 3e
       0.06315803 -0.21260557 -0.039834026 0.16135557
000030 33 9d 53 3d b5 49 9f 3d c6 c7 05 3d cb 8e 5c 3c
       0.05166359 0.077777304 0.032661222 0.013461779
000040 04 29 9d 3d b4 37 1f 3e c7 1c f4 bd 80 8b 00 3d
       0.07673839 0.15548593 -0.11919551 0.031383038
000050 28 70 11 bd d8 6f d5 bd 70 84 89 bd c1 d4 4d be
       -0.03550735 -0.10421723 -0.067147136 -0.2010069
000060 8a 44 ce 3c df 55 0f 3e 06 16 10 bd eb 80 d9 bc
       0.025179166 0.13997601 -0.035177253 -0.02655073
000070 4b cc d3 bd ac c2 ab bd 98 5d 6b 3d 91 8f a8 3d
       -0.103417 -0.0838674 0.057462305 0.08230508
000080 97 b1 cf 3d 0d b7 0f bc 9c 37 97 bd 06 fa c9 bc
       0.101412944 -0.00877167 -0.073836535 -0.024655353
000090 89 ac 9a bd b2 af 27 bd 29 e8 88 3d 75 95 08 3d
       -0.0755244 -0.04093904 0.06684906 0.03334566
0000a0 51 06 bc 3d e1 74 cf bc 37 bf 60 bd 24 e7 a1 3c
       0.09180892 -0.025324287 -0.054869857 0.019763537
0000b0 9b 0f f7 bc 53 72 a6 bd aa a0 33 be f5 6f a0 bd
       -0.030158808 -0.08127274 -0.17541757 -0.07833854
0000c0 2d 8a 5e bd 59 cb 5e be db f2 b2 bd 0b 92 ac ba
       -0.054330993 -0.21757258 -0.08737727 -0.0013166083
0000d0 a4 e4 db bd 4c dc 20 3d db 6b 23 3d f6 d1 f8 3c
       -0.10736969 0.03927259 0.03989778 0.030373555
0000e0 36 bb 01 3e f8 ef a5 bc b4 9c 07 3c 6b 18 5d 3c
       0.12669072 -0.020256028 0.008277107 0.013494591
0000f0 35 47 4f bd 1b 50 a1 bd a4 80 2d 3b 51 30 4f bc
       -0.050605018 -0.07876607 0.002647438 -0.012645797
000100 2c 7d 3d bd 64 7f 81 bc e8 0b 86 bd 20 7d 02 bd
       -0.04626195 -0.015807815 -0.0654524 -0.03185761
000110 7c b3 e6 bd 74 48 6e 3d 3a d3 00 3e 94 ae aa 3d
       -0.11264703 0.058174565 0.12580577 0.083340794
000120 37 53 95 bd 4d 0c 8d bd 35 27 25 be 79 7b be 3d
       -0.072912626 -0.06887112 -0.16128238 0.09300894
000130 02 40 ed 3d eb af 19 3d c3 7d 1c bd 40 a6 a9 3d
       0.11584474 0.037521284 -0.038205873 0.08283663
000140 a2 86 20 bd 94 5e 7e bd 8d 2f 06 3c 10 83 12 3e
       -0.039190896 -0.062101915 0.008190048 0.14307809
000150 50 54 3b be 89 c0 00 be e9 0c e0 3d ed a1 0d be
       -0.18293881 -0.12573446 0.109399624 -0.13831301
000160 70 0d 1b be df 4e 3f be db 18 f9 3d 4d 82 06 be
       -0.15141845 -0.1868243 0.12162944 -0.13135643
000170 09 45 13 be 7a ec 94 3d d9 81 ac 3d 9c 88 c8 3d
       -0.14381804 0.07271667 0.08423204 0.09791681
000180 d9 c0 a4 3d 0f 76 f4 3d 3b 42 69 3d a5 33 4a bd
       0.08044595 0.119365804 0.056947928 -0.04936566
000190 34 fb ad 3d c1 ef 8f bd 60 4c 8a bd 28 cd a0 3d
       0.08495179 -0.07028151 -0.067528486 0.078516304
0001a0 6b 0f 96 bc 32 08 92 bd d5 28 36 be 07 8b 56 be
       -0.018317899 -0.071304694 -0.17789014 -0.20951472
0001b0 a3 c6 05 39 92 38 1b bb d2 60 bc bd 5b 0b 05 3e
       0.00012757866 -0.0023684842 -0.091981545 0.12992613
0001c0 24 6b 86 3b 7e 84 36 3c 06 a9 12 3e 87 ea 1b 3e
       0.0041021276 0.011139987 0.1432229 0.15226184
0001d0 20 53 3d 3e 79 fd 85 3d 00 01 fb bc e4 ba c0 bd
       0.18488741 0.06542487 -0.030640125 -0.094106466
0001e0 17 95 19 3d 30 e3 08 be 70 4a 74 bc 13 b0 7f bc
       0.0374957 -0.13367915 -0.014910325 -0.015605944
0001f0 1f 35 82 bd b1 8c 3d 3d cf 9d b3 bd 16 3a 13 3b
       -0.06357788 0.046276752 -0.08770334 0.0022465042
000200 42 ed 0a bd b1 ae 5f bd 5d ac 13 3e 75 d1 62 3e
       -0.033917673 -0.054609958 0.1442122 0.22150214
000210 47 26 c0 bd 1b 17 cc be 64 1b d2 be bd 9c 05 3d
       -0.09382301 -0.39861378 -0.41036522 0.03262018
000220 a2 12 07 be 47 d8 05 be e0 cf ba bd 02 3f 97 3c
       -0.13190702 -0.13070785 -0.0912168 0.018462662
000230 64 a1 7b 3d 4f ff 81 bd d0 53 49 be b8 46 df bd
       0.06143321 -0.063475244 -0.19660878 -0.109021604
000240 de ce 81 3d 49 6c 9c 3d 3d 9f c0 bd c5 37 56 3c
       0.06338285 0.07637841 -0.09405372 0.01307482
000250 77 9d 04 3e 42 be 28 3e 8a fc 47 3c 3f 56 29 3e
       0.12950693 0.16478828 0.012206206 0.16536807
000260 79 b4 0e 3e c5 3d db bd 70 b9 7b 3d 7e d1 e2 bc
       0.13936032 -0.10705141 0.061456144 -0.027687784
000270 5f eb 9c be 89 19 6e ba cb 85 3c 3c c1 b6 7c be
       -0.30648324 -0.00090827845 0.011506508 -0.2467909
000280 32 72 03 be 45 a1 c6 bc 22 70 85 3e 16 9b 97 3e
       -0.12836531 -0.024246821 0.26062113 0.2961051
000290 15 8b ed 3d 75 f1 d7 3d 63 dd b1 3c e4 03 82 bd
       0.115987934 0.10544101 0.02171201 -0.06348398
0002a0 53 6b c3 3c 13 1d e6 bd 79 96 64 3d 1b 00 9c bd
       0.023854887 -0.11236014 0.055807564 -0.076172076
0002b0 c2 3f ef bd 04 45 7d be 82 c9 e4 3c eb d6 89 3d
       -0.11682083 -0.24733359 0.027928118 0.067304455
0002c0 7c e2 1c 3d 48 91 46 bd 54 68 9e bd 4b 41 25 3d
       0.03830193 -0.048478395 -0.07734743 0.04034547
0002d0 11 55 4d be 4a 0f 88 be 91 0b 44 be 64 f3 42 be
       -0.20051982 -0.26574165 -0.19145037 -0.19038159
0002e0 12 fd 34 be 91 37 17 be 00 be 42 be d0 8b 46 bd
       -0.17674664 -0.1476729 -0.19017792 -0.04847318
0002f0 62 67 56 be 9f 46 1b bd 98 54 16 be 32 de 4f bd
       -0.20937875 -0.037909146 -0.14680707 -0.05074901
000300 2e e6 23 3e be a2 e6 3d b2 43 78 3d 04 1e 2f 3c
       0.16005775 0.11261509 0.060611434 0.010688309
000310 e3 58 ef 3d af f7 c6 3d 70 89 38 3d 57 de 01 be
       0.11686876 0.09715211 0.045052946 -0.12682472
000320 62 bd 8e bd 2b fb 84 3e ad 4d c0 3d b4 84 ae bd
       -0.06969716 0.25972876 0.093898155 -0.08521405
000330 1a 3a d2 3d ee 3f 4c 3e 1a 63 12 3e 23 e6 89 3c
       0.10264988 0.19946262 0.14295617 0.01683337
000340 ba 59 82 be f7 c2 41 be 33 35 41 3d 38 ca e6 bd
       -0.2545908 -0.1892203 0.047169875 -0.11269039
000350 3d 8e 07 be cf 09 df bd fb 25 e6 bd 8a 96 1b 3e
       -0.13237853 -0.10890543 -0.11237713 0.15194145
000360 9f 19 48 3e b3 c7 1f 3d 9c e6 1e be bf d2 41 3e
       0.19541024 0.039008807 -0.15517658 0.1892805
000370 8c 12 43 3e e2 17 3a 3e 45 68 4f 3e 4b 2f 8f 3d
       0.19050044 0.18173173 0.2025462 0.06991442
000380 4b dd c1 bd ef af 9a bc d5 d2 4f 3d 93 52 44 be
       -0.094660364 -0.01888272 0.050738174 -0.19172125
000390 78 1f e3 3d 00 55 4a 3e 4f 10 a6 3c ba ec ba 3d
       0.110899866 0.19758987 0.020271448 0.09127183
0003a0 a5 31 94 bb 49 b0 99 bd de dc 05 be 56 ad 08 3d
       -0.0045225197 -0.07504327 -0.13072535 0.03336843
0003b0 68 01 83 3c 29 ab c1 bd 0a 51 16 3e 10 9d 12 bd
       0.015991881 -0.09456474 0.14679351 -0.035794318
0003c0 3a ca 3b 3e 9e 13 a6 3d ae 53 15 be ad 43 1d be
       0.18338862 0.081092104 -0.14582703 -0.15357848
0003d0 77 a5 4f be 20 68 44 be 27 71 b6 bd 05 09 de bd
       -0.20277964 -0.19180346 -0.08908301 -0.10841564
0003e0 7a 9f bc bd 73 d4 ab bd be 3d 33 be 5d 78 95 3d
       -0.09210105 -0.08390131 -0.17504022 0.07298348
0003f0 3d ff d2 3e eb 3d 4a bd df a2 c5 3d 24 e6 a3 3e
       0.41210356 -0.049375456 0.09650206 0.3201152

resnets.0.conv1.conv2d.bias f4 [32]
000000 42 d1 68 be fc 9c 32 be 3a 2c 83 be b8 e1 4c bd
       -0.22736076 -0.17442697 -0.2561968 -0.05001995
000010 c9 df 56 3e 9e e5 3d be e7 19 e6 3d fd c3 65 3e
       0.20983805 -0.18544623 0.11235409 0.22438045
000020 f0 a8 2f be 3f 7f 3e bc c7 fe ba 3d df 46 07 bd
       -0.17154288 -0.0116270175 0.09130626 -0.033026572
000030 23 a3 75 bd 6b 8d 24 3e ea 88 4b 3d e8 ef 46 3e
       -0.059970032 0.16069572 0.04969112 0.19427454
000040 7c 51 3f 3d 93 a0 ae 3d 26 b1 5a be 96 73 42 3d
       0.04670857 0.08526721 -0.2135664 0.047473513
000050 c6 f5 c4 bd 64 6a 25 3d bc 9c 13 be 91 af b1 bd
       -0.0961719 0.040384665 -0.14415258 -0.08676065
000060 da b3 ec bd 68 52 56 bd 67 c7 5b b9 7b 3b 44 be
       -0.115577415 -0.052324682 -0.0002095975 -0.19163315
000070 46 67 1c 3d 71 fa 6d 3e c8 23 60 be 7a ef 0d 3d
       0.038184427 0.23240067 -0.2188865 0.03465221

resnets.0.in1.weight f4 [32]
000000 d0 89 28 3f 35 0c 8e 3f 0a 34 7a 3f 61 d4 a8 3f
       0.65835285 1.1097475 0.97735655 1.3189813
000010 22 be 11 3f de e8 6e 3f 22 8d 9f 3f 3a 25 79 3f
       0.56930745 0.9332408 1.2464945 0.9732243
000020 90 3d 46 3f 0f 10 80 3f c4 a4 70 3f 23 4d 2b 3f
       0.77437687 1.0004901 0.9400141 0.66914576
000030 2c f9 50 3f e0 8e 75 3f 85 d4 b3 3f 21 dd 84 3f
       0.81630206 0.95921135 1.4049231 1.0379983
000040 b8 eb 1a 3f f8 32 2f 3f ad 6d 7e 3f 4a 8d 27 3f
       0.6051593 0.6843715 0.993861 0.65449965
000050 da d0 8b 3f 1b c2 25 3f 30 b3 55 3f c2 09 4b 3f
       1.0923111 0.64749306 0.83476543 0.79311764
000060 ec 73 8a 3f 37 58 24 3f c5 ad 63 3f 46 76 7f 3f
       1.0816627 0.64197105 0.88937026 0.99789846
000070 6f a3 2c 3f a5 34 41 3f be 74 33 3f 86 ea 59 3f
       0.6743688 0.75470954 0.7010001 0.8512348

resnets.0.in1.bias f4 [32]
000000 ee e5 72 be 12 7d 2a bd bd ab fb bd 1a bb c1 be
       -0.23720524 -0.041623183 -0.12288616 -0.3783806
000010 e0 28 11 3d d7 2f 53 be 2d dc 1e bf d5 29 04 bf
       0.035439372 -0.20623718 -0.6205471 -0.5162633
000020 a6 10 8b be fd 4b 2c be fb 17 06 bf 45 3e 41 3d
       -0.2716114 -0.16825862 -0.5238034 0.047178525
000030 4f d0 94 bc fe b0 4f be 2b 8d 24 bf 15 f6 2a be
       -0.018165736 -0.20282361 -0.64277905 -0.16695435
000040 e7 73 42 3e aa d6 de bd f2 fe f2 be 57 3b 36 3d
       0.18989526 -0.10880788 -0.47460133 0.044490185
000050 a0 90 7e bd 13 03 fc 3d e1 d0 de 3d ae 34 fb bd
       -0.062149644 0.12305274 0.10879684 -0.12265907
000060 aa e5 a6 bd b3 4a 34 3e 02 8d 67 be 86 56 9b bd
       -0.08149274 0.1760662 -0.22612384 -0.075848624
000070 c4 19 cf 3c 5f 0d 60 bd c5 eb 94 3d bd 79 95 be
       0.02528084 -0.05470025 0.07271532 -0.2919444

resnets.0.conv2.conv2d.weight f4 [32, 32, 3, 3]
000000 f4 dc 15 3d ef 8c 5d 3d c7 22 00 3e 76 86 1e 3d
       0.03658767 0.054089483 0.12513267 0.03870245
000010 b3 ae 37 3e 36 3c 33 3e 43 a5 ec 3d 36 96 4f 3d
       0.17937736 0.17503437 0.11554959 0.05068036
000020 24 b9 44 bb fa e5 63 3e 98 c7 23 bd 3d ca e1 3d
       -0.003001758 0.22255698 -0.03998527 0.11024902
000030 ab c8 49 bd 3f 0e 96 bd 5c bd 63 3e a1 f5 05 3e
       -0.049263638 -0.07326936 0.22240204 0.13081981
000040 22 3a 92 3d 88 f5 94 3e f6 ff 27 bd ab a9 a5 3d
       0.07139994 0.29093575 -0.041015588 0.08089002
000050 9f b4 3a be 58 c4 db 3d e2 36 7a bd de c1 84 3d
       -0.18232964 0.10730809 -0.061087497 0.0648229
000060 f6 3a ee 3d e2 39 c1 bd 9c 90 a2 3d 52 d3 91 3e
       0.1163234 -0.094348684 0.07937738 0.28481537
000070 05 34 24 3e 59 10 0f 3e 68 5a ba bd fa 15 c3 3d
       0.16035469 0.1397108 -0.09099275 0.09525676
000080 af 92 94 3e 83 be e5 be c2 16 20 be 4d 1c bc 3e
       0.2901816 -0.4487191 -0.15633681 0.36740342
000090 f1 e9 4d bd 41 1a 01 bd 42 23 95 bd 23 e1 02 3e
       -0.050271932 -0.03151918 -0.072821155 0.12781195
0000a0 f7 b1 10 bd c6 0e 2e 3d f0 58 f4 3c 3b cb 75 bd
       -0.03532597 0.042494558 0.029827565 -0.06000827
0000b0 b9 cd 5a 3d ea f9 b3 be da 1f d2 bd 1c d7 35 3d
       0.05341885 -0.35151607 -0.102599815 0.044394597
0000c0 87 2b 1e be 12 bd 3f be 74 d4 44 bd 12 e4 0d bd
       -0.15446292 -0.18724468 -0.048054174 -0.034641333
0000d0 bd 02 ad bd 87 5e a7 be 7f df 19 3d 06 a5 2b bd
       -0.08447788 -0.32689306 0.037566658 -0.041905425
0000e0 90 46 0d bd 07 1a 81 3c 21 c7 ad 3c c7 9e 0d 3d
       -0.03449112 0.015759481 0.021213116 0.03457525
0000f0 7e 6a 79 bd 2c 8b 30 3e 9d c4 0d 3e 31 fd 10 be
       -0.060892574 0.1724059 0.13844533 -0.14159085
000100 a3 d1 02 3b da 34 0e 3e 7c e2 38 be 31 fe 08 3c
       0.001996138 0.13887349 -0.18055147 0.008361385
000110 b7 d4 8a bd 0e 36 b3 bd 40 0f 3c be 21 1a 99 be
       -0.067788534 -0.087505445 -0.18365192 -0.29902747
000120 a4 6a 7d 3c aa 14 08 3e 43 ab 6c 3e ed 25 33 3d
       0.01546732 0.13289133 0.23112206 0.04373734
000130 4a 6d 8d 3a e1 79 94 3d 32 c6 32 bd 6c 86 bb bd
       0.0010790017 0.07249809 -0.043646045 -0.09156498
000140 a1 73 3d be 7b a4 38 bd a6 d8 aa bc 36 d8 05 3d
       -0.1850114 -0.045078736 -0.02085526 0.032676898
000150 db 8f 7f bd d4 4d 7f 3e 94 65 3b 3e 50 cd a0 3d
       -0.06239305 0.24932033 0.18300468 0.0785166
000160 dc db 2f 3e dc 8d 9d 3d 52 80 7d bd d3 31 9b bc
       0.17173713 0.07693073 -0.061889954 -0.018944656
000170 c6 af da be 3f de 52 ba 20 32 3a bc 90 5d 09 be
       -0.4271223 -0.00080439815 -0.01136449 -0.13414598
000180 58 f1 35 3c 43 7b 90 bd 17 97 0f bd 94 20 dd bc
       0.011104904 -0.0705476 -0.0350562 -0.026993074
000190 d9 75 cc bd 4b 8d bf bd 3a ac 20 3d 52 4b 3f be
       -0.09983415 -0.09353121 0.039226748 -0.18681076
0001a0 10 06 68 3d 31 2b 58 3c d8 1e 6b 3d 75 7f bd 3d
       0.056646407 0.013193891 0.05740246 0.09252826
0001b0 b7 c4 33 be 2f 8e ad bd d1 e2 00 bd f7 42 8b bd
       -0.1755551 -0.08474385 -0.03146631 -0.06799882
0001c0 10 3a 29 be f7 fb 8c be cf 0e af bd 86 6a 09 3e
       -0.16526055 -0.27535984 -0.085477464 0.13419542
0001d0 2d 0b 7b 3e 2c 5a a1 3d ce 01 51 3e 32 80 8a 3e
       0.24515982 0.07878527 0.20410845 0.2705093
0001e0 4c 93 13 bc 93 50 18 bd 6d c6 08 3a 98 ef e5 3d
       -0.009007286 -0.037186217 0.0005217556 0.112273395
0001f0 a2 d7 11 bd a9 60 fd bc 64 0b c5 bc 4d 76 91 bd
       -0.035606034 -0.03092988 -0.024053283 -0.07102642
000200 fe 84 b8 be da bd 21 bc c9 d8 cd bd 0c 2f c6 bd
       -0.36038965 -0.009871924 -0.10051114 -0.09676942
000210 7f 03 13 bd 18 b3 fd bd b7 b9 2a 3e d8 1a e5 3d
       -0.035892006 -0.12387675 0.16672407 0.11186761
000220 66 43 ed 3d 70 a8 51 bd d5 9d 45 bd 98 15 fa 3d
       0.11585121 -0.051186025 -0.048246223 0.1221115
000230 b7 79 63 be 59 ae f5 bd da 87 e2 b8 d0 9d 6c bd
       -0.222144 -0.11996145 -0.00010801824 -0.05776769
000240 d9 31 b8 3c 97 ab b8 bd 8b 47 05 bd fa 7b 32 3d
       0.022484707 -0.09017103 -0.03253893 0.043575265
000250 11 1e e5 3d 31 df 90 bc f6 5e 3d 3c 2b 73 2a 3c
       0.11187375 -0.017684551 0.011558285 0.010403435
000260 78 e0 49 bd 75 7e b1 3d 7c 10 9a bc 1e 75 0c 3e
       -0.049286336 0.08666698 -0.018806688 0.13716552
000270 0f ce 3c bd f5 36 33 ba 0c da 9b 3d d2 db 01 be
       -0.04609495 -0.00068364973 0.076099485 -0.12681511
000280 e9 3a 28 be 43 56 31 3d 49 da 06 3d 1c b7 3a bb
       -0.16428722 0.043295156 0.032923017 -0.002849049
000290 ed 76 6d be 92 d0 5d bc 65 c0 09 3b 87 fa c6 bd
       -0.23189898 -0.013538497 0.0021019217 -0.09715753
0002a0 78 aa 0a bd 8c c4 fd 3c 6b 08 82 bc d4 08 02 be
       -0.033853978 0.03097751 -0.015873155 -0.1269868
0002b0 82 c9 1c be a2 ee ea bd f2 11 d9 3c 55 20 24 bc
       -0.15311244 -0.11471297 0.026497815 -0.010017474
0002c0 a8 c5 66 bd a5 ea d3 3d 6c 04 b0 3d c6 8b 18 39
       -0.056340843 0.10347489 0.085945934 0.0001454792
0002d0 6e 5c a4 3c 39 3f 39 3e 8e 64 a8 bd 92 d9 44 3e
       0.020063605 0.18090524 -0.08222304 0.19223621
0002e0 31 cf 55 bc d2 cc de bd ac 21 14 be c8 66 1d 3d
       -0.013049887 -0.1087891 -0.1446597 0.038428098
0002f0 ed de 9d 3d 0b aa b6 3d 61 0c eb 3d 7c f5 dc 3d
       0.07708535 0.08919152 0.114769705 0.1078901
000300 fd 7f a2 3d e8 69 f5 3d 22 0c a7 3d ed 7a cf bc
       0.07934568 0.11983091 0.08156611 -0.02532717
000310 a9 71 3d 3d 4e dd a9 3c e6 2e ae bc 77 bb 1c be
       0.046250973 0.02073541 -0.021262597 -0.15305887
000320 2c c1 86 3b 89 12 59 3d fe 4d ff 3d 4a 9c 5a bd
       0.0041123834 0.052996192 0.12466048 -0.053371705
000330 c1 0f 9b 3c 22 40 82 3b 5d fe 17 bc 2f 7f d2 3d
       0.01892841 0.0039749304 -0.0092769535 0.102781646
000340 73 4d 64 3b 95 6d 02 bd b6 da 90 bd 3e 48 cb bd
       0.0034836202 -0.031842787 -0.07072966 -0.099258885
000350 0d 79 a3 bd 07 60 d2 bb 43 38 77 bc 93 98 47 bd
       -0.07982073 -0.0064201388 -0.015089097 -0.04872949
000360 12 d9 af 3d 3f 83 2d 3d ce 76 8e 3d 13 ec 95 3b
       0.08586325 0.042361494 0.06956254 0.0045752614
000370 9e b3 7c 3d 45 18 ed 3d c2 38 ae 3e 66 8e 35 3e
       0.061694734 0.11576895 0.34027678 0.17730102
000380 f7 da 67 3d e6 90 63 3d 2f 37 dc 3d 0c 41 2d 3d
       0.056605306 0.055558108 0.10752713 0.04229836
000390 09 f8 48 3c 0f 85 17 3c 39 d2 14 3b 96 1a 17 3e
       0.012266167 0.009248032 0.002270831 0.14756235
0003a0 03 42 87 3d f0 cf 04 bd f2 68 48 bc 9f 8b 2b bd
       0.066043876 -0.032424867 -0.012232052 -0.0418812
0003b0 1f 8e d4 bc 3c 31 40 3d 92 f6 22 bd 02 44 20 3d
       -0.025946675 0.046921954 -0.03978593 0.039127357
0003c0 bd a2 f7 bb d5 3f 80 3d 81 ab 90 3d 05 be 61 bd
       -0.0075572417 0.06262175 0.07063962 -0.055112857
0003d0 d1 1b b2 3d 3b 1f 03 3c c2 19 90 be ba d2 c9 bd
       0.08696712 0.008003051 -0.28144652 -0.09854646
0003e0 30 9b 85 3c 13 c1 1a be 00 c8 c4 bc 03 84 08 3e
       0.01630935 -0.15112714 -0.024021149 0.13331608
0003f0 1d 2e 09 be 44 a7 5a bd 97 c1 1b bd 26 88 2e bc
       -0.13396497 -0.053382173 -0.03802642 -0.0106525775

resnets.0.conv2.conv2d.bias f4 [32]
000000 67 12 0c be 08 a3 59 3d 26 a0 08 3e 32 63 3c 3c
       -0.13678895 0.053133994 0.13342342 0.011498259
000010 a4 67 c9 bc 9f e0 2a be 7a a6 b8 bd 84 80 42 be
       -0.024585553 -0.16687249 -0.09016128 -0.18994337
000020 61 35 5a bd 65 0b 7c bd 8d 74 fa 3d 64 27 10 be
       -0.053273562 -0.061534304 0.122292615 -0.14077526
000030 80 c9 e6 bd 82 1f 2c 3e 09 d6 3e 3e 0e 3c dc 3d
       -0.11268902 0.16808894 0.18636335 0.10753642
000040 0f a9 94 bd ec 3f 54 3d c0 a4 ce 3d d6 9c 94 3c
       -0.07258808 0.051818773 0.10090017 0.018141191
000050 16 8f ed 3d fd 81 36 3e 5d fe 2f be f2 65 83 3e
       0.11599557 0.17823024 -0.17186876 0.25663716
000060 41 fd eb 3c c4 99 89 3d 3b 58 f0 bd b5 fe 88 be
       0.028807284 0.067187816 -0.117355786 -0.26756826
000070 4b 88 89 be ac 65 81 3d 97 c0 25 3d 67 02 39 3d
       -0.26861796 0.063182205 0.04046687 0.045168307

resnets.0.in2.weight f4 [32]
000000 0e d5 ad 3e 80 ce de 3e 10 32 09 3f 87 8d 9a 3e
       0.3395161 0.43516922 0.53592014 0.30186102
000010 1d 13 88 3e bb d7 02 3f f0 3b ed 3e 6d 85 f1 3e
       0.26577082 0.5111043 0.4633479 0.47172108
000020 f9 a5 a7 3e d0 1d b9 3e 4c cc dd 3e 92 00 c5 3e
       0.32743815 0.36155558 0.4331993 0.38476998
000030 97 64 8e 3e e2 76 d3 3e 89 59 0a 3f fd 2b 29 3f
       0.2781112 0.41301638 0.5404287 0.66082746
000040 5b 38 e3 3e 60 c9 0c 3f 4e 37 a0 3e b8 ee d4 3e
       0.44378933 0.54994774 0.31292194 0.41588378
000050 40 af d9 3e c4 64 da 3e cc 5e c9 3e 75 94 e6 3e
       0.42516518 0.42655003 0.39330137 0.4503514
000060 42 4b ef 3e 7a 96 d6 3e 9a 8e fc 3e 4a 4d c5 3e
       0.46737105 0.4191168 0.49327546 0.3853553
000070 64 7d ea 3e 92 21 8f 3e 30 9c 12 3f 59 ab c7 3e
       0.4579879 0.279553 0.57269573 0.38997915

resnets.0.in2.bias f4 [32]
000000 1d 2b 03 be b1 00 03 3e 25 67 94 3e 52 bf 9c 3d
       -0.12809415 0.12793233 0.28984943 0.07653679
000010 da 0f b4 3d 31 91 4b be bf 1a a6 bb e4 7c 7d be
       0.08792086 -0.19879605 -0.0050691064 -0.24754673
000020 a9 35 99 bd a5 7b ec bc 78 d3 0c 3e 62 d2 07 be
       -0.07480938 -0.028867552 0.13752544 -0.13263848
000030 f9 ca 7a be 5e 33 05 3c 6f 95 6a 3e 83 28 11 3e
       -0.2449149 0.008129923 0.22908567 0.1417561
000040 a9 6b 7b be cd 33 42 3d 8d 92 49 3d 8a 98 81 3c
       -0.24552788 0.047412682 0.049212027 0.015819807
000050 ed 84 c2 3c 95 73 10 3e 05 da 4c be 5a 93 18 3e
       0.023745025 0.14106591 -0.20005043 0.1489996
000060 ef 9d 96 3c 7c ab 8d 3d 9d 27 42 be e3 4b 75 be
       0.018385855 0.06917474 -0.18960424 -0.2395473
000070 51 35 54 be be 0a 5f 3e f4 26 5a 3e 1a 4e 10 3d
       -0.20723464 0.21781442 0.21303922 0.035230733
