Assets/Style_Transfer/Models/TransformerNet/Estilos 5-8/dragon_e10-720.onnx (onnx, 449372 bytes, 62 tensors)

conv1.conv2d.weight f4 [8, 3, 9, 9]
0.02799745 0.01190042 -0.101976484 -0.046168037 -0.012981242 -0.011666758 -0.098146625 0.004006765
0.089423284 -0.06258647 -0.13117065 -0.08571715 0.029774573 -0.0007885602 0.05450043 0.009202333
0.123106405 0.04748782 -0.07833561 -0.026942562 0.04749074 0.024561184 0.039557215 0.13165805
0.011253353 0.05747437 -0.07054511 0.008282646 -0.0060716313 0.103788465 -0.016460616 0.007286626
0.07143118 -0.002859141 0.032567877 0.003867623 0.037720174 -0.016542671 0.07821695 0.029755667
0.090912454 0.17052732 -0.03619999 0.11205738 0.20113811 0.08242602 0.03636211 0.049836338
-0.057017278 0.021267213 0.018565645 -0.0445394 0.0890894 0.17861305 -0.013591795 -0.104904786
0.02640519 0.012492268 -0.08550633 -0.085416146 -0.16876279 -0.10796195 -0.0340068 0.056027535
-0.030352777 -0.045610253 0.04705699 -0.08803066 -0.16926125 -0.12322468 0.009167476 0.00838147
0.25901332 0.13523228 0.1027223 0.061816737 -0.052457903 0.005831003 0.119875796 0.057965778
0.032402862 0.050035723 -0.041412555 -0.055398956 -0.058305096 0.019082824 0.0049690125 -0.05119753
-0.05302623 0.080263555 -0.05585223 -0.14642948 -0.008127394 0.07496472 0.03632915 0.05266198
0.012241519 0.031657387 0.073120795 -0.058372516 -0.010366768 -0.019327115 0.018418187 0.026082605
0.007601895 -0.01380675 -0.028357243 -0.1309329 0.04993844 0.02854968 0.04589339 -0.042392936
0.043867394 0.012348283 -0.08318642 -0.07003952 0.038987737 -0.005162891 0.08475041 0.0922006
-0.029804476 -0.028688 0.017708104 -0.02515558 0.12288786 0.114228725 0.08889902 0.07406941
0.13535276 0.0658385 0.014628704 0.01824866 -0.0039560623 0.045449324 0.08388685 -0.04579924
-0.09624062 0.12473735 0.15250078 0.07959295 0.022556243 -0.16839385 -0.10501696 0.042364027
0.011635194 -0.058445867 0.01918548 0.12229591 -0.02696173 -0.091409564 -0.03479994 0.05129426
0.0804151 0.067295596 -0.022752615 -0.03700584 -0.044708442 -0.079775885 -0.07464132 0.07502363
0.08172655 0.03352712 0.02946029 0.06026773 -0.02574372 -0.032216467 0.042708736 -0.022933552
-0.049036212 -0.013310702 0.056938455 0.0025108918 -0.058362238 0.006833334 0.12895755 0.056722473
0.03202246 -0.025331987 0.07854918 0.045320857 0.01089553 0.11085353 0.0714207 0.09822288
-0.036310565 -0.04401764 0.034301892 0.03220046 -0.065835856 -0.01560837 0.060306404 0.04678865
-0.06835566 -0.11876792 -0.105135456 -0.09060907 -0.06128432 -0.05230887 0.006579167 -0.018081667
0.0034660688 -0.053502247 -0.10858691 -0.06167774 -0.14682803 0.02499597 0.07202753 -0.022942891
0.058012016 0.001665031 -0.042311016 -0.042089384 0.021683829 -0.084878236 -0.027365461 -0.014296818
-0.03929964 -0.0486765 0.14730494 0.16399422 0.08838294 -0.0737496 -0.0587542 -0.019034903
-0.04668606 0.036428075 -0.04159733 0.07091463 0.0671891 0.028073682 -0.029374924 -0.008537912
0.025618562 -0.028676491 -0.088676706 -0.10302881 -0.05217687 0.04726871 -0.13259192 -0.10313013
0.004383799 -0.0061359755 0.0013938417 0.050461326 -0.09979269 0.0073270737 -0.004651279 -0.063277006
-0.013610642 0.0075787264 -0.07536253 -0.002161377 0.011461908 -0.119067535 0.039768007 0.045032177
00000000: e95a e53c fbf9 423c 0cd9 d0bd b21a 3dbd
00000010: 46af 54bc ee25 3fbc 1901 c9bd 2e4b 833b
00000020: 8e23 b73d 562d 80bd 9951 06be 798c afbd
00000030: cee9 f33c 61b7 4eba d83b 5f3d 62c5 163c
00000040: 361f fc3d 9782 423d 6c6e a0bd a6b6 dcbc
00000050: a685 423d 8934 c93c bf06 223d 5ed1 063e
00000060: fc5f 383c 3f6a 6b3d f479 90bd efb3 073c
00000070: 89f4 c6bb 0c8f d43d 6ad8 86bc a6c4 ee3b
00000080: 834a 923d 6d60 3bbb e565 053d f277 7d3b
00000090: 7880 1a3d 7f84 87bc 3530 a03d 28c2 f33c
000000a0: 4f30 ba3d b79e 2e3e 7146 14bd 577e e53d
000000b0: 26f7 4d3e f9ce a83d 70f0 143d 3021 4c3d
000000c0: f38a 69bd 9438 ae3c fb16 983c f26e 36bd
000000d0: 8174 b63d 57e6 363e 1fb0 5ebc 52d8 d6bd
000000e0: b24f d83c 5fac 4c3c f11d afbd a9ee aebd
000000f0: 27d0 2cbe 281b ddbd b74a 0bbd 217d 653d
00000100: 63a6 f8bc d1d1 3abd d5be 403d 6b49 b4bd
00000110: d252 2dbe 395d fcbd 2e33 163c 6f52 093c
00000120: 659d 843e 557a 0a3e 1260 d23d 8c33 7d3d
00000130: 19de 56bd 0012 bf3b 7181 f53d 866d 6d3d
00000140: ddb8 043d 42f2 4c3d 36a0 29bd 04ea 62bd
00000150: 53d1 6ebd 9553 9c3c 19d3 a23b 80b4 51bd
00000160: 0832 59bd 3861 a43d 4fc5 64bd 9cf1 15be
00000170: c328 05bc 1a87 993d e0cd 143d 17b4 573d
00000180: a790 483c 2dab 013d 5bc0 953d 0518 6fbd
00000190: 60d9 29bc e653 9ebc bde1 963c 30ab d53c
000001a0: 5119 f93b b535 62bc 734d e8bc 4613 06be
000001b0: 408c 4c3d 05e1 e93c b5fa 3b3d 37a4 2dbd
000001c0: 4cae 333d 7450 4a3c a45d aabd e170 8fbd
000001d0: 9bb1 1f3d 782d a9bb 9f91 ad3d abd3 bc3d
000001e0: 8428 f4bc 1903 ebbc 9610 913c 1313 cebc
000001f0: a1ac fb3d c0f0 e93d b010 b63d b4b1 973d
00000200: ea99 0a3e 56d6 863d 3bad 6f3c 377e 953c
00000210: dba1 81bb 1229 3a3d decc ab3d fc97 3bbd
00000220: cd19 c5bd 4c76 ff3d 2a29 1c3e a101 a33d
00000230: dfc7 b83c 706f 2cbe 2213 d7bd e785 2d3d
00000240: 8aa1 3e3c ef64 6fbd de2a 9d3c 4776 fa3d
00000250: d9de dcbc f034 bbbd 628a 0ebd ee19 523d
00000260: acb0 a43d 46d2 893d b163 babc 7093 17bd
00000270: 3320 37bd 8a61 a3bd 8cdd 98bd fda5 993d
00000280: 4060 a73d bc53 093d b556 f13c 4cdb 763d
00000290: 7ee4 d2bc 6af5 03bd 5bef 2e3d 25df bbbc
000002a0: 32da 48bd 2115 5abc 4c38 693d c68d 243b
000002b0: 3e0d 6fbd 29ea df3b 730d 043e d355 683d
000002c0: fc29 033d 0785 cfbc 64de a03d 5da2 393d
000002d0: 2a83 323c 2d07 e33d 0445 923d 1429 c93d
000002e0: 63ba 14bd d74b 34bd 2480 0c3d a1e4 033d
000002f0: f3d4 86bd 40ba 7fbc d903 773d 75a5 3f3d
00000300: 0dfe 8bbd 983c f3bd 4251 d7bd 4091 b9bd
00000310: 4405 7bbd d341 56bd 0e96 d73b 0120 94bc
00000320: fc26 633b 2c25 5bbd d062 debd cca1 7cbd
00000330: 165a 16be 59c4 cc3c 2b83 933d bbf2 bbbc
00000340: 029e 6d3d 2b3d da3a 514e 2dbd eb65 2cbd
00000350: 49a2 b13c a4d4 adbd 882d e0bc 333d 6abc
00000360: a9f8 20bd 0261 47bd 1bd7 163e 1aee 273e
00000370: 1d02 b53d 080a 97bd 3ea8 70bd 16ef 9bbc
00000380: e239 3fbd 9b35 153d f661 2abd b13b 913d
00000390: 709a 893d c7fa e53c aea3 f0bc 99e2 0bbc
000003a0: 05de d13c f6ea eabc 229c b5bd c500 d3bd
000003b0: 6ab7 55bd d69c 413d 2dc6 07be e435 d3bd
000003c0: f9a5 8f3b 4b10 c9bb 91b1 b63a 89b0 4e3d
000003d0: 1c60 ccbd f317 f03b c269 98bb 6097 81bd
000003e0: 2cff 5ebc f756 f83b ac57 9abd e4a5 0dbb
000003f0: baca 3b3c aed9 f3bd c7e3 223d a973 383d

conv1.conv2d.bias f4 [8]
0.07844005 0.0081042955 0.011457029 0.028966876 -0.027928544 -0.05844151 -0.01405919 0.124245964
00000000: 2da5 a03d e1c7 043c 43b6 3b3c f14b ed3c
00000010: 67ca e4bc 5d60 6fbd 8458 66bc ab74 fe3d

in1.weight f4 [8]
0.63556755 0.9107553 0.63851213 0.65015334 0.8106607 0.7363161 0.7719972 0.5860138
00000000: 8eb4 223f 4227 693f 8875 233f 7370 263f
00000010: 7687 4f3f 367f 3c3f 9ca1 453f 0005 163f

in1.bias f4 [8]
1.0989184 0.300754 0.45137125 0.64355826 0.51414055 0.46550888 0.071029104 1.2013733
00000000: 5ca9 8c3f 6efc 993e 221a e73e 3cc0 243f
00000010: b79e 033f 2e57 ee3e b577 913d 9ac6 993f

conv2.conv2d.weight f4 [16, 8, 3, 3]
-0.108559124 -0.19553143 -0.06391928 -0.0448761 -0.029448494 -0.113108255 -0.15244642 -0.0041065523
-0.1093691 0.03810825 0.03924314 -0.053281028 0.051584605 0.066209055 -0.10336795 0.050133746
0.034872055 0.12380736 -0.1314846 -0.057569593 -0.16222131 -0.1063032 -0.103762396 -0.11806667
-0.16521664 -0.21275309 -0.08250792 -3.5086792e-05 -0.020424146 0.029355628 -0.032481056 -0.10531343
0.017498521 -0.060904223 0.08234049 0.012076893 0.1811636 0.12588345 0.045573615 0.063273124
0.0016824296 0.13944235 0.017792495 0.19991769 0.10449056 0.11109807 0.14005652 -0.028354343
0.003186083 -0.027695002 0.071987554 -0.114691004 0.07535773 -0.008568445 -0.241087 -0.17105414
-0.051822215 -0.124858364 0.041518025 -0.1631889 0.022077031 -0.09119578 0.061413545 0.014964226
-0.0018982858 -0.06655237 0.033491317 0.031067647 0.00016124317 -0.017488139 -0.027249444 0.013029266
-0.0052632038 0.009467997 -0.014966567 -0.06708169 -0.10176599 0.036771838 -0.022043455 -0.1250574
-0.013764247 0.012509191 -0.010021952 -0.09885034 -0.06423778 0.057235222 -0.1170957 0.00481227
-0.042092387 -0.14641531 0.19715555 -0.011193356 0.0026399216 0.21949388 0.04665105 -0.0733162
0.061416507 0.19786996 0.13780238 -0.012375022 0.100114666 0.04563112 0.0067708828 0.022427892
0.12665984 -0.11880184 -0.07189797 0.078599766 0.0036860248 -0.031739708 -0.0735734 0.06728023
-0.04240939 -0.03631504 0.16128588 0.10538872 0.06527785 0.14541346 -0.059053544 -0.038843337
-0.054318517 -0.08514127 -0.16513081 0.12584092 -0.0010364447 -0.18529354 0.0706049 -0.09156489
0.0037874144 0.067725256 0.018701378 0.06721558 -0.12668957 0.0715636 -0.0027165734 0.021727705
-0.11230648 -0.23016018 -0.013651018 -0.0037666585 -0.13396811 0.13822094 0.09367019 -0.09131068
-0.004877106 -0.15347199 -0.046096377 -0.08825616 0.01737173 0.04465547 -0.06620818 -0.026850853
0.06430851 -0.022830486 0.12763853 -0.020281881 0.026840538 0.04165471 -0.055809747 0.02854541
0.080585495 0.10056791 -0.07078179 -0.0811276 -0.12602894 -0.06454037 -0.15174575 -0.05726242
-0.08124687 -0.029970527 -0.040303644 0.023585005 -0.07420738 -0.17526616 0.03784373 -0.019882148
-0.0776382 -0.012846072 0.009507283 0.0020086565 -0.07747133 -0.054917198 -0.019678466 -0.08305733
-0.06982665 0.026844831 -0.1584786 -0.10812339 -0.09668556 0.044530157 -0.062177796 -0.02374691
0.11297234 -0.015937824 0.014874538 0.062141027 -0.03684696 0.0773951 0.120712124 0.09485032
0.0066971593 0.064015165 -0.04332721 -0.14614868 0.03511593 0.042325158 -0.115529984 0.19656293
0.14902352 0.20361722 0.21592179 0.13775149 0.062053885 0.04640547 0.1334192 0.18481874
-0.030279405 0.023009628 -0.13087824 0.0030244037 0.1134423 -0.06095548 0.012492493 0.033342034
0.06000821 0.08304828 0.050015837 0.077341214 0.0073632663 0.1156156 0.029794881 -0.089707844
0.006843318 0.08318221 -0.088859215 -0.053607557 -0.029165236 -0.08914808 -0.031417537 -0.13689865
-0.19104055 -0.09787361 -0.06433603 -0.00909246 0.063196324 0.048668507 -0.027148748 0.031789366
0.06337817 0.036112245 -0.022787863 0.09738157 0.022818279 0.024600822 -0.009958643 -0.012408316
00000000: 3f54 debd 6439 48be 1de8 82bd 00d0 37bd
00000010: f83d f1bc 4da5 e7bd ea1a 1cbe 4290 86bb
00000020: e8fc dfbd 6517 1c3d 6abd 203d 353d 5abd
00000030: 614a 533d 9d98 873d 93b2 d3bd 0b59 4d3d
00000040: 00d6 0e3d b78e fd3d e6a3 06be 18ce 6bbd
00000050: 581d 26be 7eb5 d9bd 6181 d4bd f0cc f1bd
00000060: 8d2e 29be f2db 59be eaf9 a8bd 282a 13b8
00000070: 8a50 a7bc 377b f03c db0a 05bd 91ae d7bd
00000080: 0f59 8f3c b576 79bd 21a2 a83d 29de 453c
00000090: f382 393e 97e7 003e 66ab 3a3d 5795 813d
000000a0: f884 dc3a fac9 0e3e 91c1 913c 39b7 4c3e
000000b0: 26ff d53d 6387 e33d fa6a 0f3e 5e47 e8bc
000000c0: 9acd 503b a1e0 e2bc 366e 933d 1ee3 eabd
000000d0: 2755 9a3d aa62 0cbc 83df 76be d128 2fbe
000000e0: 8843 54bd beb5 ffbd ce0e 2a3d fe1a 27be
000000f0: e4da b43c dac4 babd c58c 7b3d 832c 753c
00000100: e7cf f8ba 9c4c 88bd 312e 093d 9481 fe3c
00000110: 6213 2939 4943 8fbc 3a3a dfbc b478 553c
00000120: f476 acbb a81f 1b3c 5536 75bc 2062 89bd
00000130: b06a d0bd 119e 163d 7a94 b4bc 0c0f 00be
00000140: 7083 61bc 5af3 4c3c 1d33 24bc 0c72 cabd
00000150: 198f 83bd 7b6f 6a3d dfcf efbd 3fb0 9d3b
00000160: 1169 2cbd e5ed 15be 25e3 493e 5664 37bc
00000170: 8902 2d3b 01c3 603e 2c15 3f3d ce26 96bd
00000180: e08f 7b3d 6c9e 4a3e 111c 0d3e 9bc0 4abc
00000190: eb08 cd3d b3e7 3a3d 48de dd3b b3ba b73c
000001a0: 1eb3 013e 614e f3bd 3e3f 93bd eaf8 a03d
000001b0: 3c91 713b 7f01 02bd a7ad 96bd 38ca 893d
000001c0: 78b5 2dbd 14bf 14bd 2028 253e 0bd6 d73d
000001d0: 65b0 853d 44e7 143e 21e2 71bd 311a 1fbd
000001e0: 187d 5ebd 8c5e aebd 0d18 29be 71dc 003e
000001f0: 50d9 87ba 97bd 3dbe 4d99 903d 6086 bbbd
00000200: 4536 783b 8ab3 8a3d a233 993c 52a8 893d
00000210: e9ba 01be f08f 923d 8a08 32bb 4dfe b13c
00000220: f100 e6bd 1caf 6bbe 85a8 5fbc 0bda 76bb
00000230: f02e 09be ca89 0d3e 28d6 bf3d 1801 bbbd
00000240: 21d0 9fbb c327 1dbe 8ecf 3cbd a5bf b4bd
00000250: 294f 8e3c a7e8 363d 2798 87bd 52f6 dbbc
00000260: 2eb4 833d 0007 bbbc adb3 023e 3026 a6bc
00000270: b0e0 db3c 219e 2a3d c398 64bd 10d8 e93c
00000280: 020a a53d 8cf6 cd3d 0bf6 90bd 3a26 a6bd
00000290: bb0d 01be be2d 84bd 3d63 1bbe 008c 6abd
000002a0: c264 a6bd c084 f5bc 6f15 25bd 5735 c13c
000002b0: 0afa 97bd f978 33be 0702 1b3d e3df a2bc
000002c0: c700 9fbd 5578 52bc 6fc4 1b3c aaa3 033b
000002d0: 4aa9 9ebd dbf0 60bd bc34 a1bc f619 aabd
000002e0: 4601 8fbd b1e9 db3c 3748 22be cc6f ddbd
000002f0: 1403 c6bd 4165 363d 25ae 7ebd e188 c2bc
00000300: 0b5e e73d 0a90 82bc 56b4 733c 9787 7e3d
00000310: d7ec 16bd 5281 9e3d eb37 f73d e240 c23d
00000320: d873 db3b 621a 833d df77 31bd 00a8 15be
00000330: b9d5 0f3d 255d 2d3d fc9a ecbd cb47 493e
00000340: 9f99 183e 0881 503e 9a1a 5d3e ba0e 0d3e
00000350: 372c 7e3d aa13 3e3d 0b9f 083e 2041 3d3e
00000360: 840c f8bc b07e bc3c f204 06be 1335 463b
00000370: 7054 e83d 74ac 79bd 50ad 4c3c a891 083d
00000380: 2bcb 753d 3715 aa3d 68dd 4c3d 1265 9e3d
00000390: 8e47 f13b dfc7 ec3d 6514 f43c bfb8 b7bd
000003a0: ea3d e03b 6f5b aa3d d2fb b5bd 9993 5bbd
000003b0: efeb eebc 4593 b6bd adaf 00bd 292f 0cbe
000003c0: 22a0 43be f671 c8bd 9cc2 83bd 8bf8 14bc
000003d0: 136d 813d a158 473d 0d67 debc 9135 023d
000003e0: 6acc 813d 6fea 133d 9dad babc fd6f c73d
000003f0: 66ed ba3c aa87 c93c 9329 23bc 404c 4bbc

conv2.conv2d.bias f4 [16]
-0.08872412 -0.022845542 -0.07425853 -0.08708083 -0.036526095 0.0024898802 -0.08108538 0.0015694002
0.082244925 -0.0884279 0.05784938 0.13295227 0.14852092 -0.15426706 0.06174664 0.17416097
00000000: feb4 b5bd 9326 bbbc db14 98bd 6f57 b2bd
00000010: 639c 15bd 422d 233b 1710 a6bd 55b4 cd3a
00000020: 0770 a83d b019 b5bd 79f3 6c3d a424 083e
00000030: de15 183e 2ff8 1dbe 0bea 7c3d 4157 323e

in2.weight f4 [16]
0.49036658 0.68376064 0.4958929 0.70459837 0.8392461 0.63884884 0.3153406 0.6601874
0.8272973 0.6475282 0.66724133 0.7935074 0.9135806 0.6788049 0.79325485 0.6098804
00000000: 5411 fb3e f00a 2f3f ade5 fd3e 8f60 343f
00000010: d5d8 563f 998b 233f 5374 a13e 0b02 293f
00000020: c1c9 533f 68c4 253f 54d0 2a3f 4d23 4b3f
00000030: 6be0 693f 28c6 2d3f c012 4b3f 1f21 1c3f

in2.bias f4 [16]
-0.17044841 0.15093242 0.22927195 0.092365645 0.027949328 0.070635565 0.17327066 -0.012662456
-0.06579765 -0.2040004 -0.12801085 -0.07868954 -0.007983141 -0.1214219 -0.032405715 0.040089227
00000000: 078a 2ebe 078e 1a3e 44c6 6a3e 332a bd3d
00000010: fdf5 e43c 61a9 903d dd6d 313e 3176 4fbc
00000020: ebc0 86bd 7be5 50be 4715 03be fb27 a1bd
00000030: b8cb 02bc 0cac f8bd dbbb 04bd 9a34 243d

conv3.conv2d.weight f4 [32, 16, 3, 3]
0.009260085 -0.06571364 0.046199195 0.026534831 -0.026146151 -0.004645433 -0.014653306 -0.0075846133
-0.03671986 0.10021946 0.020107225 -0.055186577 0.09779599 0.111043975 -0.053525805 -0.104103595
0.05837221 0.08107872 0.004006144 0.04440414 -0.03357116 0.10824255 -0.06220614 -0.1103406
0.12299883 -0.012477931 -0.090083286 -0.12114137 -0.14979558 -0.040359862 -0.17757408 -0.3435014
-0.2527804 -0.044813108 -0.032562893 -0.11500879 0.024691256 -0.033939596 -0.011655897 0.033601813
0.030615188 -0.08588413 -0.014021952 -0.08663989 0.033785332 0.03229618 0.06241927 -0.044760887
-0.06580389 -0.08079159 -0.1209103 -0.06969622 -0.045877706 -0.029580012 0.038327117 -0.01685719
0.033526715 0.06979052 0.08712814 0.088554256 0.10446455 -0.0055762515 0.03101002 0.060482286
-0.007874046 0.029470455 -0.02698307 0.032276068 -0.040726315 -0.019536128 -0.007892295 -0.14772683
0.021601036 0.12212022 -0.016846353 0.08086583 -0.05783764 -0.17815845 0.042164665 -0.16314735
-0.22219044 -0.07432522 -0.0633576 -0.03054673 0.011061433 -0.009212492 0.016532918 -0.019039573
0.04381744 0.16008544 0.0894112 0.04411722 -0.019454446 -0.0024358497 0.061338555 0.06195496
-0.023408737 0.08920718 -0.037891615 -0.095220245 -0.13031602 0.029352201 0.021555092 0.011657885
-0.087213494 -0.038251124 0.11402122 -0.026897462 0.004584339 -0.061633803 0.001515217 0.028221294
-0.088956445 -0.07108084 0.012661065 0.0035090116 -0.06761844 0.03335955 -0.088988334 -0.12034523
-0.15528925 -0.14142287 -0.02708615 -0.12514782 -0.004801532 0.0025309904 0.03234296 0.03388485
0.060877167 0.029983407 0.1006903 -0.0074176104 0.10634681 0.023816563 0.05650409 0.028525291
0.08465629 -0.052683696 -0.09404899 -0.2329784 -0.25861946 -0.13907944 -0.2638366 -0.17457473
0.07481273 0.043344524 -0.035521116 0.029698038 -0.04197326 -0.110090606 0.025586093 -0.006406672
-0.011356625 -0.005714357 -0.09273015 -0.067794636 -0.024577778 -0.03885572 0.07328146 0.03698637
0.0058909925 0.034405954 0.018654803 -0.03171066 0.008785447 0.019565161 -0.11425192 0.016433444
-0.010422623 -0.04823562 -0.069081664 -0.066748045 -0.024151055 -0.1110389 -0.096146174 -0.16102464
-0.13237058 -0.099033 -0.13965297 -0.09688279 0.1494424 -0.015777074 -0.025326492 0.0044401614
0.0016222941 -0.016933236 0.060545716 0.0194578 0.033921458 -0.008033632 -0.036103986 -0.03973906
-0.057645798 -0.02887598 -0.09519546 -0.14143871 -0.08226447 -0.096779905 -0.05235532 0.006493371
-0.07074444 -0.052852858 -0.022690138 -0.0046623116 -0.067133024 0.04369488 -0.051941376 -0.21797755
-0.15048046 0.004432671 -0.106203996 -0.11859182 0.039289508 0.018349726 -0.028259696 -0.07519344
0.13880306 0.10194569 0.14349104 0.09981344 1.2857246e-05 0.061554678 0.12167373 0.05820462
-0.027731277 -0.09322816 -0.021052964 -0.014559408 -0.003440667 -0.098572604 0.050530754 -0.018387472
-0.039806828 0.044977244 0.022589305 0.036845613 0.002834639 0.10278037 0.10930862 0.01638086
-0.053803165 -0.03555664 -0.01991237 -0.12527196 -0.04961311 -0.044270076 -0.20676781 -0.07983969
-0.1336173 -0.03662515 -0.1413 -0.13103771 -0.009116559 0.031148283 0.04394559 -0.08822395
00000000: 9db7 173c df94 86bd 5e3b 3d3d 935f d93c
00000010: 7430 d6bc b738 98bb 6c14 70bc 5988 f8bb
00000020: 9067 16bd dc3f cd3d e8b7 a43c 520b 62bd
00000030: 4449 c83d 066b e33d e03d 5bbd 4434 d5bd
00000040: b317 6f3d 9a0c a63d f945 833b 1ee1 353d
00000050: ea81 09bd 45ae dd3d decb 7ebd 41fa e1bd
00000060: d0e6 fb3d 3c70 4cbc 967d b8bd f718 f8bd
00000070: 0364 19be 6250 25bd fbd5 35be 6adf afbe
00000080: 6f6c 81be f38d 37bd ab60 05bd ba89 ebbd
00000090: 5145 ca3c 3f04 0bbd 60f8 3ebc 0ea2 093d
000000a0: b4cc fa3c 05e4 afbd 54bc 65bc 4170 b1bd
000000b0: 7d62 0a3d 0049 043d 59ab 7f3d 3157 37bd
000000c0: 31c4 86bd 1076 a5bd d29f f7bd e4bc 8ebd
000000d0: 43ea 3bbd c851 f2bc e5fc 1c3d 1718 8abc
000000e0: 4f53 093d 55ee 8e3d 3d70 b23d ef5b b53d
000000f0: 83f1 d53d fdb8 b6bb ba08 fe3c 46bc 773d
00000100: 2502 01bc 066c f13c 990b ddbc e933 043d
00000110: a3d0 26bd 3b0a a0bc af4e 01bc b445 17be
00000120: a8f4 b03c 2a1a fa3d 5d01 8abc fc9c a53d
00000130: 29e7 6cbd 2b6f 36be dbb4 2c3d 1910 27be
00000140: e485 63be d237 98bd a1c1 81bd 233d fabc
00000150: 033b 353c feef 16bc 0b70 873c e1f8 9bbc
00000160: ea79 333d 70ed 233e 381d b73d 42b4 343d
00000170: ee5e 9fbc c7a2 1fbb 233e 7b3d 7cc4 7d3d
00000180: aec3 bfbc 41b2 b63d 3d34 1bbd d502 c3bd
00000190: 9071 05be 0774 f03c 4e94 b03c b700 3f3c
000001a0: fd9c b2bd 36ad 1cbd f583 e93d 1158 dcbc
000001b0: 3938 963b ba73 7cbd 3f9a c63a 5830 e73c
000001c0: cc2e b6bd d592 91bd 5b70 4f3c 72f7 653b
000001d0: 897b 8abd 06a4 083d 843f b6bd 8f77 f6bd
000001e0: 2504 1fbe 28d1 10be c6e3 ddbc c026 00be
000001f0: 2b56 9dbb f9de 253b 0d7a 043d d7ca 0a3d
00000200: 565a 793d c39f f53c b736 ce3d 6d0f f3bb
00000210: 5bcc d93d f41a c33c d570 673d dfad e93c
00000220: 4760 ad3d dcca 57bd c29c c0bd e491 6ebe
00000230: c569 84be d76a 0ebe 9715 87be b8c3 32be
00000240: 6b37 993d 078a 313d 977e 11bd 4d49 f33c
00000250: 27ec 2bbd 2f77 e1bd ed99 d13c 0fef d1bb
00000260: 2311 3abc 803f bbbb 4ee9 bdbd ead7 8abd
00000270: 5657 c9bc 2d27 1fbd 9714 963d 057f 173d
00000280: 3a09 c13b 42ed 0c3d f5d1 983c 09e3 01bd
00000290: d6f0 0f3c 1e47 a03c e9fc e9bd 6e9f 863c
000002a0: a6c3 2abc b792 45bd b07a 8dbd 33b3 88bd
000002b0: 6fd8 c5bc 5d68 e3bd 49e8 c4bd a5e3 24be
000002c0: 278c 07be d0d1 cabd 3001 0fbe 7c6a c6bd
000002d0: 6e07 193e ec3e 81bc 8179 cfbc c67e 913b
000002e0: 28a3 d43a 92b7 8abc c9fe 773d f765 9f3c
000002f0: 3af1 0a3d 7f9f 03bc c6e1 13bd 6dc5 22bd
00000300: 001e 6cbd 528d ecbc d6f5 c2bd 4fd5 10be
00000310: 467a a8bd 8b34 c6bd 8872 56bd 58c6 d43b
00000320: 76e2 90bd 3d7c 58bd abe0 b9bc 4ec6 98bb
00000330: 0a7d 89bd 67f9 323d 7bc0 54bd 8235 5fbe
00000340: 8d17 1abe f03f 913b 7b81 d9bd 45e0 f2bd
00000350: 09ee 203d 2a52 963c e180 e7bc 05ff 99bd
00000360: 6422 0e3e e7c8 d03d 51ef 123e fd6a cc3d
00000370: 73b5 5737 c220 7c3d 1430 f93d f867 6e3d
00000380: b42c e3bc 68ee bebd 4477 acbc 958a 6ebc
00000390: d07c 61bb 6fe0 c9bd 56f9 4e3d 53a1 96bc
000003a0: 7c0c 23bd 0f3a 383d 350d b93c 6deb 163d
000003b0: 5ac5 393b 847e d23d 33dd df3d 2731 863c
000003c0: b560 5cbd d7a3 11bd 441f a3bc 4b47 00be
000003d0: 1e37 4bbd 8a54 35bd f1ba 53be fe82 a3bd
000003e0: f9d2 08be 4104 16bd f2b0 10be c02e 06be
000003f0: 9f5d 15bc af2a ff3c 4a00 343d c2ae b4bd

conv3.conv2d.bias f4 [32]
0.01896868 -0.12751557 0.0016549013 -0.024045656 -0.16644137 -0.06518581 0.06572234 -0.02677776
0.035667546 0.017587148 -0.044059157 -0.050095733 -0.053232875 0.13528463 -0.06615152 0.14432839
-0.09413459 0.109631956 0.08056926 0.02422699 0.08904865 -0.03445845 0.10298507 0.14305916
-0.08340758 -0.009855971 -0.02084353 -0.03200533 -0.06099342 -0.13803709 -0.030522855 0.0076720947
00000000: 3564 9b3c 7193 02be 46e9 d83a 65fb c4bc
00000010: 9b6f 2abe 2380 85bd 6f99 863d 085d dbbc
00000020: 2218 123d ec12 903c 6077 34bd 2f31 4dbd
00000030: b70a 5abd 0e88 0a3e 737a 87bd d2ca 133e
00000040: a3c9 c0bd b886 e03d 7f01 a53d ae77 c63c
00000050: 235f b63d 4e24 0dbd d6e9 d23d 1a7e 123e
00000060: 98d1 aabd f07a 21bc 0dc0 aabc 0518 03bd
00000070: 3dd4 79bd 9859 0dbe 110b fabc 3266 fb3b

in3.weight f4 [32]
0.50199604 0.6680269 0.72786945 0.56026787 0.5439521 0.6830471 0.84103703 0.6940165
0.6279225 0.6891705 0.5424977 0.5569032 0.5490117 0.5501937 0.54305136 0.8315949
0.7353079 0.6692417 0.63578105 0.6345477 0.793919 0.57258534 0.55854964 0.61311233
0.6887022 0.7570836 0.6857146 0.7111858 0.5090231 0.7589291 0.5008399 0.6085181
00000000: d082 003f d003 2b3f a755 3a3f b76d 0f3f
00000010: 7240 0b3f 2ddc 2e3f 344e 573f 11ab 313f
00000020: 87bf 203f 7a6d 303f 21e1 0a3f 3591 0e3f
00000030: 088c 0c3f 7fd9 0c3f 6a05 0b3f 67e3 543f
00000040: 233d 3c3f 6d53 2b3f 8cc2 223f b871 223f
00000050: 473e 4b3f f494 123f 1cfd 0e3f eef4 1c3f
00000060: ca4e 303f 3bd0 413f fe8a 2f3f 4610 363f
00000070: 564f 023f 2d49 423f 0b37 003f d8c7 1b3f

in3.bias f4 [32]
-0.032813754 -0.13667396 -0.11281101 -0.16844064 0.13257295 -0.07333112 0.0662348 -0.02813237
-0.11365358 0.027222073 -0.11029635 -0.116031066 -0.0948544 -0.05305831 -0.038328167 -0.18874611
-0.09356561 -0.031030374 -0.038948283 -0.06298542 -0.057542633 -0.10214846 -0.116582364 -0.047429934
-0.07848535 -0.006119122 -0.01217647 -0.017715445 0.2801929 -0.005910213 0.0066388003 -0.1519893
00000000: b767 06bd 42f4 0bbe 7509 e7bd b47b 2cbe
00000010: 34c1 073e a02e 96bd 1ca6 873d db75 e6bc
00000020: 35c3 e8bd d300 df3c 0ee3 e1bd b2a1 edbd
00000030: 0643 c2bd ac53 59bd fffd 1cbd a946 41be
00000040: 549f bfbd 6933 febc 3c88 1fbd 80fe 80bd
00000050: d3b1 6bbd 3633 d1bd bcc2 eebd e445 42bd
00000060: edbc a0bd ea82 c8bb d17f 47bc fb1f 91bc
00000070: 7275 8f3e 76aa c1bb 4b8a d93b 15a3 1bbe

resnets.0.conv1.conv2d.weight f4 [32, 32, 3, 3]
0.111428015 -0.07902772 0.029969446 0.040134188 -0.087323315 0.08523078 0.022578772 -0.036155093
0.028923504 -0.08232446 -0.048496906 0.014607819 0.01872504 0.044212557 0.03238013 0.064924926
-0.012035029 0.024850149 -0.06546596 0.009433542 -0.10619872 -0.013007022 0.018907541 -0.12685762
0.011453187 0.06714916 -0.08231267 0.05197055 -0.019557549 -0.017475057 0.018866431 -0.007018329
0.02026137 0.06640959 0.00049078366 0.017037274 -0.04821908 -0.08307341 -0.00091925834 0.053537156
0.0971368 -0.055757932 -0.034088135 0.021978721 -0.08460678 -0.059298374 -0.19088808 -0.12529583
-0.031062704 -0.17081547 -0.055527005 0.003140291 -0.0801925 0.048082113 0.054549135 0.05786771
0.1104813 -0.030549401 -0.0036971602 0.065834016 -0.028122483 -0.0012187094 0.049804587 0.02767919
-0.06126734 -0.063416794 -0.01091031 0.002229313 -0.052773897 0.11500495 0.053389214 -0.0039103185
-0.0309951 -0.02690123 -0.06644177 0.040952563 -0.007550524 -0.019589996 0.068478264 0.08181445
-0.111260705 -0.04574044 -0.02205274 0.039343294 -0.084549926 -0.10556298 0.06502356 -0.09917144
-0.06023685 -0.060187224 0.014192453 -0.08155933 -0.053420383 -0.018477244 -0.050885413 -0.024138967
-0.009537892 0.028522966 -0.0033152138 -0.03061238 0.010530037 -0.085395664 -0.059562907 -0.00691906
-0.05889982 -0.0062971883 -0.11322198 -0.11170307 -0.0027599419 0.025693594 -0.055777967 0.09044592
0.013414225 -0.0029287226 0.0391854 0.04923151 0.07213448 0.05562798 0.012660349 0.0563919
0.05707765 -0.074812345 0.04069416 0.13631226 0.015992584 0.10818565 -0.04952823 0.005638376
-0.13980754 -0.060056783 0.04162617 0.05524169 -0.08844802 -0.16795748 -0.15257886 -0.030988803
-0.14280672 -0.077169195 -0.13944824 -0.05180029 -0.042817865 -0.074707165 -0.07476911 -0.087126344
0.005078058 0.023591459 -0.033933662 -0.017795937 0.018829107 0.07829708 -0.085724704 -0.08275111
0.07405985 -0.021076733 -0.003801583 -0.022666335 -0.10036911 -0.0045097414 -0.039415445 -0.04751195
-0.031737845 -0.0043323264 0.1605047 0.060764704 0.008898614 0.054118223 -0.060417723 -0.058670852
0.07329362 0.003882543 -0.03248656 -0.011524081 -0.01224748 -0.09965108 -0.016743165 -0.015140386
-0.012952002 -0.04158061 -0.07034576 -0.07672109 -0.12569158 -0.17247495 -0.11887817 -0.109153315
-0.11016764 -0.08445301 -0.09918578 0.0032925387 -0.11627405 0.045678288 -0.016557394 0.055648718
0.060830947 -0.006775098 0.035172734 0.026212445 0.0020434742 -0.0045923823 0.034412853 -0.07089842
-0.0374096 0.07033892 -0.009831813 -0.08130801 -0.015308386 0.009353083 -0.011312573 0.033946067
-0.05400867 -0.013453905 0.035048597 -0.034770347 0.0027766377 0.03140732 -0.054419618 -0.013739782
0.18268964 0.089348674 -0.03191234 0.12411738 0.052966833 0.102901 0.03831734 0.062132068
-0.016122155 0.054849293 0.05109502 -0.13044065 0.08399506 0.10150225 -0.07045691 0.041807175
0.05490167 -0.1156659 -0.0030620613 0.055915926 -0.064849384 -0.0363103 0.059063885 -0.071827896
0.0046688817 0.0106504215 -0.09383193 -0.07466864 -0.0883498 -0.06753306 -0.06628743 -0.056886222
-0.044730358 0.014697154 -0.12250932 0.035580747 0.19039547 -0.07862531 0.123755224 0.25577757
00000000: 5f34 e43d 49d9 a1bd 7c82 f53c bf63 243d
00000010: 91d6 b2bd 7a8d ae3d 1ef7 b83c 5d17 14bd
00000020: fcf0 ec3c ba99 a8bd b1a4 46bd a255 6f3c
00000030: 4165 993c 3a18 353d 07a1 043d 5cf7 843d
00000040: 922e 45bc 8a92 cb3c 0413 86bd 258f 1a3c
00000050: b77e d9bd 681b 55bc fde3 9a3c f7e6 01be
00000060: 26a6 3b3c 8085 893d 8c93 a8bd 12df 543d
00000070: 2737 a0bc da27 8fbc c68d 9a3c 03fa e5bb
00000080: 2cfb a53c c001 883d efa7 003a c191 8b3c
00000090: 5f81 45bd 6422 aabd 62fa 70ba c749 5b3d
000000a0: a9ef c63d 6e62 64bd 00a0 0bbd b80c b43c
000000b0: 5246 adbd dae2 72bd 2a78 43be 8d4d 00be
000000c0: 3677 febc 40ea 2ebe 4970 63bd 57cd 4d3b
000000d0: f73b a4bd c0f1 443d ea6e 5f3d b106 6d3d
000000e0: 0544 e23d bd42 fabc 0e4c 72bb fcd3 863d
000000f0: 1f61 e6bc 1abd 9fba e5ff 4b3d 78bf e23c
00000100: 76f3 7abd aae0 81bd 28c1 32bc aa19 123b
00000110: 7129 58bd b787 eb3d a6ae 5a3d 2122 80bb
00000120: 70e9 fdbc f85f dcbc 9f12 88bd e0bd 273d
00000130: 636a f7bb 337b a0bc 553e 8c3d 568e a73d
00000140: a7dc e3bd 545a 3bbd f3a7 b4bc 6f26 213d
00000150: 8328 adbd 6731 d8bd 122b 853d 651a cbbd
00000160: eaba 76bd e186 76bd 7687 683c 9408 a7bd
00000170: 55cf 5abd 975d 97bc 396d 50bd 15bf c5bc
00000180: d244 1cbc ffa8 e93c 0f44 59bb d0c6 fabc
00000190: 2d86 2c3c ece3 aebd 3cf8 73bd 48b9 e2bb
000001a0: f040 71bd a558 cebb ede0 e7bd 94c4 e4bd
000001b0: 24e0 34bb 5f7b d23c 7077 64bd b63b b93d
000001c0: 56c7 5b3c d0ef 3fbb df80 203d fba6 493d
000001d0: 3ebb 933d 2ada 633d 5a6d 4f3c 31fb 663d
000001e0: 41ca 693d 3737 99bd ebae 263d 7195 0b3e
000001f0: e102 833c 7090 dd3d 1dde 4abd 20c2 b83b
00000200: b529 0fbe 1afe 75bd 3480 2a3d 1c45 623d
00000210: 3c24 b5bd 0cfd 2bbe a23d 1cbe 3bdc fdbc
00000220: ed3b 12be e20a 9ebd 85cb 0ebe 8a2c 54bd
00000230: c961 2fbd 1200 99bd 8c20 99bd 4c6f b2bd
00000240: d765 a63b e042 c13c 06fe 0abd c9c8 91bc
00000250: 803f 9a3c 385a a03d 6f90 afbd 6a79 a9bd
00000260: b1ac 973d 1da9 acbc fb23 79bb c0ae b9bc
00000270: 528e cdbd 74c6 93bb 1772 21bd e49b 42bd
00000280: 8bff 01bd 30f6 8dbb 585b 243e 69e4 783d
00000290: 7ecb 113c 12ab 5d3d 9378 77bd d950 70bd
000002a0: f71a 963d 4372 7e3b a110 05bd 80cf 3cbc
000002b0: a8a9 48bc de15 ccbd f628 89bc 620f 78bc
000002c0: a234 54bc 6e50 2abd 7011 90bd f21f 9dbd
000002d0: 4bb5 00be 469d 30be 6676 f3bd c68b dfbd
000002e0: 929f e1bd b3f5 acbd ea21 cbbd a2c7 573b
000002f0: 1721 eebd 2819 3b3d 5fa3 87bc e9ef 633d
00000300: df29 793d a401 debb 4911 103d 7bbb d63c
00000310: cfeb 053b b27b 96bb 7ef4 0c3d 3133 91bd
00000320: cf3a 19bd da0d 903d 9d15 21bc d084 a6bd
00000330: 06d0 7abc ac3d 193c 5f58 39bc 080b 0b3d
00000340: 3238 5dbd c46d 5cbc 1e8f 0f3d 5a6b 0ebd
00000350: 40f8 353b f6a4 003d 1be7 5ebd d31c 61bc
00000360: fe12 3b3e 70fc b63d 84b6 02bd 4131 fe3d
00000370: c0f3 583d c2bd d23d a5f2 1c3d 327e 7e3d
00000380: 9c12 84bc a7a9 603d 0349 513d 3c92 05be
00000390: 9a05 ac3d 69e0 cf3d b64b 90bd 003e 2b3d
000003a0: 93e0 603d 3ee2 ecbd ddac 48bb 1908 653d
000003b0: c1cf 84bd 1cba 14bd f9ec 713d 811a 93bd
000003c0: 6bfd 983b 1b7f 2e3c f42a c0bd dfeb 98bd
000003d0: bdf0 b4bd c64e 8abd b4c1 87bd 8701 69bd
000003e0: 2e37 37bd 55cc 703c 2be6 fabd 1ebd 113d
000003f0: 08f7 423e 4e06 a1bd 6173 fd3d 47f5 823e

resnets.0.conv1.conv2d.bias f4 [32]
-0.05565384 -0.13497798 -0.032920342 -0.039562136 0.018781563 -0.03967693 0.05931346 0.10946199
-0.1580188 0.0015467461 -0.060573455 -0.028264338 -0.12549895 0.0781809 0.010167273 0.04146988
0.0072633186 -0.05749657 -0.098518126 -0.14741725 0.11099925 0.025613125 0.115909524 -0.03911792
-0.038745813 0.08761264 0.12214971 -0.10929926 0.06597606 0.03536687 -0.12121695 -0.07164252
00000000: 48f5 63bd ab37 0abe 7bd7 06bd e80b 22bd
00000010: cbdb 993c 4784 22bd acf2 723d 9c2d e03d
00000020: aecf 21be 30bc ca3a df1b 78bd 9d8a e7bc
00000030: cc82 00be 4f1d a03d a294 263c 52dc 293d
00000040: 2201 ee3b 8681 6bbd dfc3 c9bd 8cf4 16be
00000050: 9353 e33d 9ed2 d13c f961 ed3d 1d3a 20bd
00000060: eeb3 1ebd 416e b33d a129 fa3d 4ad8 dfbd
00000070: 751e 873d dadc 103d 9840 f8bd 50b9 92bd

resnets.0.in1.weight f4 [32]
0.83378476 1.0294559 0.983218 1.1133779 0.7932078 0.9354552 1.1303252 0.94431394
0.8348441 1.0318526 0.9320245 0.83689886 0.8264101 0.91846436 1.1648808 0.91111916
0.8982299 0.9142967 0.9624723 0.9443791 0.94087464 0.8456946 0.9528198 0.91898906
0.9234199 0.8469108 1.1308324 0.9117546 0.91273767 0.9436863 0.99934906 0.8988619
00000000: eb72 553f 36c5 833f 2db4 7b3f 2b83 8e3f
00000010: ab0f 4b3f fe79 6f3f 7fae 903f 8fbe 713f
00000020: 58b8 553f bf13 843f 2899 6e3f 013f 563f
00000030: 9d8f 533f 7b20 6b3f d01a 953f 1b3f 693f
00000040: 65f2 653f 590f 6a3f 9664 763f d4c2 713f
00000050: 29dd 703f 717f 583f 00ec 733f de42 6b3f
00000060: 3f65 6c3f 25cf 583f 1ebf 903f c068 693f
00000070: 2da9 693f 6d95 713f 57d5 7f3f d01b 663f

resnets.0.in1.bias f4 [32]
-0.04706354 -0.046739668 -0.27051836 -0.3186426 0.10334173 -0.013645463 -0.3036449 -0.52963585
-0.27378976 0.07932499 -0.45283478 -0.034920104 0.06579613 -0.095681965 -0.67382514 -0.30407605
0.07328099 0.04096453 -0.21526365 0.035558667 -0.1319698 0.0007150541 0.06737054 -0.003148585
-0.043887213 0.0813864 0.022214126 -0.02719186 0.100531064 0.008755305 0.22574699 -0.07983634
00000000: b3c5 40bd 1872 3fbd 6281 8abe 1f25 a3be
00000010: d4a4 d33d 3891 5fbc 5877 9bbe 3796 07bf
00000020: 2c2e 8cbe 2475 a23d f6d9 e7be 6208 0fbd
00000030: 1fc0 863d e8f4 c3bd ce7f 2cbf dbaf 9bbe
00000040: 5814 963d 6cca 273d 136e 5cbe f7a5 113d
00000050: 1723 07be 7872 3b3a 91f9 893d 7e58 4ebb
00000060: 14c3 33bd eaad a63d 66fa b53c 77c1 debc
00000070: 3be3 cd3d 6972 0f3c 382a 673e 3c81 a3bd

resnets.0.conv2.conv2d.weight f4 [32, 32, 3, 3]
-0.07206091 0.013318489 0.086632654 -0.02055385 0.1219001 0.060658697 0.043261636 0.06558264
-0.08996295 0.05641728 -0.0383753 0.049361367 -0.011012126 -0.06097686 0.05227851 0.075713366
-0.03720983 0.1983111 -0.030562757 -0.04908432 -0.22848773 0.013875794 -0.07228429 0.04208422
0.071243234 -0.020740945 0.017861122 0.07974966 0.09184108 0.017664049 0.05172752 0.032526832
0.16643095 -0.15197608 -0.041223932 0.18006696 0.03261948 0.037700497 -0.050442398 0.14208283
-0.018584583 0.037089486 -0.0043475125 -0.052259743 0.036694907 -0.082376115 0.07098326 0.09990466
-0.09465043 -0.08565485 0.0064688884 -0.04223679 -0.10681008 -0.18564555 0.15038688 0.0073748045
0.005414937 0.10199029 0.0023426597 0.08627991 -0.029124033 0.17533404 0.11905979 -0.027003044
0.07233165 0.05079642 -0.009070288 0.001511228 -0.09847167 -0.025399543 -0.06867484 -0.08028718
-0.022006216 0.08396959 0.13642989 0.056734245 -0.010746893 0.09041342 -0.05966008 -0.112435974
-0.05058009 0.04958809 -0.08617164 -0.0816678 -0.03135362 0.043480832 0.032313507 -0.016562758
0.0023617756 0.05206274 -0.040039215 -0.049796265 -0.14743343 -0.027383076 -0.0059536025 -0.006003092
0.060332924 0.08095189 0.045719612 -0.001009644 -0.016663363 0.024486462 0.0322753 -0.0878828
-0.011487889 -0.056315042 -0.020337278 0.01788666 -0.036591947 -0.022345118 -0.03294397 -0.06228506
-0.05100846 -0.17689034 -0.05868065 0.08878348 0.14049825 0.030972175 0.03643677 0.036662295
-0.00658599 -0.11593845 -0.05315087 0.08408104 0.025648473 0.034970686 -0.08467795 -0.07843261
-0.24037625 0.10727163 -0.053708933 -0.13528217 0.015721986 -0.14874454 0.053566623 0.08838882
0.059186727 -0.10011371 -0.028916357 0.079607405 -0.14136256 0.03753507 0.07695988 0.019851204
0.024254464 -0.013937086 0.024279008 0.032662798 0.05450679 -0.05345261 0.021882713 0.033803083
-0.0015776271 0.07002387 0.0047884993 0.12872428 -0.059026096 -0.054288182 0.023300491 -0.014641642
-0.013058015 0.066726625 -0.01942414 0.019682426 -0.08770564 -0.06848113 -0.018024936 -0.07105827
-0.0044168807 0.004872288 -0.061607517 -0.049268518 -0.07055116 -0.062423658 0.08621041 0.009698598
-0.031299118 0.08779278 0.05606755 0.04172824 -0.006555434 0.10873586 -0.04126483 0.06341999
-0.045369085 -0.061625842 -0.0055659316 0.0030976227 0.008979024 0.024814678 0.0472524 -0.049500845
0.038197957 0.02822187 -0.024760736 0.013843882 0.05476865 0.014596046 -0.012395958 -0.009860246
0.071050085 0.06406732 0.08713856 -0.034192163 -0.0028429711 -0.051083177 -0.025118796 -0.041397315
0.040237956 0.0254589 -0.013533736 0.02776517 0.04887536 -0.025128081 0.048873305 0.04071997
0.058418475 0.07437414 -0.007831657 -0.023768283 -0.01774218 -0.121888645 0.084182605 0.010153041
-0.016075216 -0.05177747 -0.03269022 0.03447876 -0.05829803 -0.015894635 0.030426057 0.009995392
0.015976595 -0.038594425 -0.04166464 -0.074548215 -0.04045782 0.06925697 0.00795404 0.015720915
0.058508337 0.058161035 -0.013282169 0.06279965 0.054853957 0.0099613285 -0.19696862 -0.083823405
-0.03668587 -0.1354284 -0.02117689 0.073100485 -0.04827698 -0.0421003 -0.09335566 0.007129128
00000000: ac94 93bd cb35 5a3c 766c b13d 8c60 a8bc
00000010: c2a6 f93d 4175 783d 1d33 313d 3150 863d
00000020: 7f3e b8bd ce15 673d 6b2f 1dbd 252f 4a3d
00000030: 346c 34bc dfc2 79bd fe21 563d 9c0f 9b3d
00000040: 5669 18bd 1112 4b3e bf5e fabc a40c 49bd
00000050: b0f8 69be 4c57 633c c909 94bd 8160 2c3d
00000060: f9e7 913d eae8 a9bc 7d51 923c ca53 a33d
00000070: 2d17 bc3d 32b4 903c 3ce0 533d db3a 053d
00000080: e06c 2a3e 9e9f 1bbe 6dda 28bd 7963 383e
00000090: 019c 053d d66b 1a3d b09c 4ebd 297e 113e
000000a0: b23e 98bc 25eb 173d 9475 8ebb 500e 56bd
000000b0: 664d 163d cfb4 a8bd ac5f 913d d09a cc3d
000000c0: 16d8 c1bd cf6b afbd f8f8 d33b 7c00 2dbd
000000d0: 3ebf dabd de19 3ebe 05ff 193e 58a8 f13b
000000e0: c96f b13b 49e0 d03d 4f87 193b 85b3 b03d
000000f0: 8695 eebc c48a 333e 9fd5 f33d 7d35 ddbc
00000100: 9e22 943d e80f 503d 8c9b 14bc 6614 c63a
00000110: 84ab c9bd b412 d0bc 65a5 8cbd 9b6d a4bd
00000120: 6146 b4bc 40f8 ab3d 47b4 0b3e 2b62 683d
00000130: bc13 30bc ac2a b93d 215e 74bd d544 e6bd
00000140: 122d 4fbd e21c 4b3d c27a b0bd 7341 a7bd
00000150: a76c 00bd f518 323d 2b5b 043d 9fae 87bc
00000160: 05c8 1a3b bd3f 553d 2900 24bd 2bf7 4bbd
00000170: caf8 16be 7952 e0bc 7016 c3bb 96b5 c4bb
00000180: a81f 773d 1bca a53d 7d44 3b3d 0856 84ba
00000190: 9b81 88bc d597 c83c 1b33 043d e6fb b3bd
000001a0: b337 3cbc 9aaa 66bd 5d9a a6bc 0b87 923c
000001b0: 70e1 15bd 1c0d b7bc 42f0 06bd 9e1e 7fbd
000001c0: 3fee 50bd be22 35be 1f5b 70bd 1dd4 b53d
000001d0: c6de 0f3e 5cb9 fd3c b93e 153d 342b 163d
000001e0: 4acf d7bb 2371 edbd bab4 59bd ae32 ac3d
000001f0: bf1c d23c 6c3d 0f3d a26b adbd 47a1 a0bd
00000200: 3125 76be 3ab1 db3d e6fd 5bbd 6987 0abe
00000210: 65cb 803c 7d50 18be ad68 5b3d 3305 b53d
00000220: c86d 723d 6b08 cdbd ffe1 ecbc 3509 a33d
00000230: 59c1 10be 60be 193d 249d 9d3d fe9e a23c
00000240: 4cb1 c63c 6058 64bc c5e4 c63c 6dc9 053d
00000250: 8342 5f3d 20f1 5abd 6043 b33c 1a75 0a3d
00000260: 62c8 ceba ad68 8f3d d8e8 9c3b 4cd0 033e
00000270: 59c5 71bd 495d 5ebd ace0 be3c 7fe3 6fbc
00000280: 49f1 55bc f8a7 883d 601f 9fbc 0a3d a13c
00000290: 049f b3bd d63f 8cbd 08a9 93bc 0087 91bd
000002a0: 7bbb 90bb b7a7 9f3b 2a58 7cbd c9cd 49bd
000002b0: 207d 90bd f3af 7fbd 158f b03d dee6 1e3c
000002c0: 8133 00bd b3cc b33d 16a7 653d 3beb 2a3d
000002d0: f7ce d6bb e8b0 de3d 4f05 29bd 57e2 813d
000002e0: efd4 39bd 616b 7cbd 6b62 b6bb 7c01 4b3b
000002f0: c21c 133c 2748 cb3c bc8b 413d 66c1 4abd
00000300: 7675 1c3d 8d31 e73c 07d7 cabc 73d1 623c
00000310: 1855 603d 4124 6f3c 6b18 4bbc df8c 21bc
00000320: b582 913d ba35 833d b475 b23d 150d 0cbd
00000330: 2451 3abb 983c 51bd efc5 cdbc 3b90 29bd
00000340: 8ed0 243d 2f8f d03c 9abc 5dbc c873 e33c
00000350: 8831 483d 68d9 cdbc 602f 483d fcc9 263d
00000360: 3648 6f3d 7851 983d 5a50 00bc b4b5 c2bc
00000370: 0c58 91bc c1a0 f9bd ee67 ac3d f158 263c
00000380: 2cb0 83bc 9d14 54bd 2ee6 05bd 9a39 0d3d
00000390: eac9 6ebd 7735 82bc 1140 f93c b6c3 233c
000003a0: 59e1 823c 3015 1ebd 8ba8 2abd bcac 98bd
000003b0: 19b7 25bd 99d6 8d3d a951 023c 26c9 803c
000003c0: 70a6 6f3d 443a 6e3d 749d 59bc 1a9d 803d
000003d0: 8bae 603d d734 233c 24b2 49be 9bab abbd
000003e0: ec43 16bd bead 0abe 287b adbc b5b5 953d
000003f0: 15be 45bd 5d71 2cbd 4131 bfbd 769b e93b

resnets.0.conv2.conv2d.bias f4 [32]
-0.12897244 0.08797433 0.015946802 0.071999826 -0.07106424 -0.20099431 0.07204749 -0.008470725
-0.1246118 -0.042697705 0.0035271742 -0.12088661 -0.03867175 0.08678577 -0.07258172 0.043217972
-0.1760601 0.0058190576 0.009355214 -0.02460456 0.019280143 -0.011126572 -0.07569945 0.252243
-0.08856831 0.05199198 -0.07086052 -0.11065769 -0.10598722 0.08792148 -0.0005200428 0.09925285
00000000: 5a11 04be e32b b43d dea2 823c a574 933d
00000010: 218a 91bd 74d1 4dbe a28d 933d ccc8 0abc
00000020: 7934 ffbd cae3 2ebd 2a28 673b 6693 f7bd
00000030: 4566 1ebd bdbc b13d baa5 94bd 5405 313d
00000040: 1949 34be cbad be3b 9d46 193c 818f c9bc
00000050: 64f1 9d3c 3a4c 36bc 5008 9bbd ff25 813e
00000060: 4d63 b5bd 8bf5 543d 521f 91bd 80a0 e2bd
00000070: d40f d9bd 2d10 b43d 7b53 08ba 1445 cb3d

resnets.0.in2.weight f4 [32]
0.5410379 0.6957768 0.9316759 0.5511278 0.85077405 0.9192111 0.84643054 0.874561
0.6189444 0.788279 0.5588914 0.6512106 0.6289242 0.6609763 0.8294583 0.88301665
0.93226063 0.8044352 0.6515562 0.7660374 0.87453383 0.7175945 0.6456848 0.63517505
0.7640663 0.87885445 0.9537119 0.7049259 0.7748594 0.80916464 0.73714924 0.7484285
00000000: 7681 0a3f 6e1e 323f 5082 6e3f b616 0d3f
00000010: 54cc 593f 6b51 6b3f acaf 583f 3be3 5f3f
00000020: 2473 1e3f a7cc 493f 8213 0f3f bdb5 263f
00000030: 2d01 213f be35 293f 6157 543f 610d 623f
00000040: a2a8 6e3f 77ef 4d3f 63cc 263f 071b 443f
00000050: 73e1 5f3f 46b4 373f 994b 253f d59a 223f
00000060: d999 433f 9bfc 603f 7726 743f 0676 343f
00000070: 305d 463f 6a25 4f3f d0b5 3c3f 0399 3f3f

resnets.0.in2.bias f4 [32]
-0.084441565 0.16815603 0.1639341 0.043096244 -0.061426718 -0.17151478 0.046071067 -0.036561746
-0.049765885 -0.016070565 0.02566843 -0.08148715 -0.045656547 -0.056039028 0.0002786419 0.08304994
-0.15613484 -0.013088493 -0.039054204 -0.0050551896 0.034044586 -0.06682481 -0.13357337 0.23397352
-0.068897694 0.10122348 -0.14288583 -0.13716093 -0.04055801 0.17129123 0.08095074 0.100849815
00000000: b3ef acbd 1831 2c3e 57de 273e b085 303d
00000010: 959a 7bbd 92a1 2fbe 04b5 3c3d c5c1 15bd
00000020: 50d7 4bbd 6ba6 83bc 9946 d23c bce2 a6bd
00000030: 5c02 3bbd 2e89 65bd af16 9239 1616 aa3d
00000040: d0e1 1fbe 1e71 56bc 4df7 1fbd 01a6 a5bb
00000050: 5672 0b3d 72db 88bd 75c7 08be c196 6f3e
00000060: 3c1a 8dbd 424e cf3d aa50 12be ea73 0cbe
00000070: 2820 26bd f866 2f3e 80c9 a53d 598a ce3d

resnets.1.conv1.conv2d.weight f4 [32, 32, 3, 3]
-0.09583299 0.040725555 0.09098701 -0.019779142 0.02000914 -0.035887364 0.027531948 0.078637786
0.018432118 0.09710065 0.12514149 -0.03652614 0.052399367 0.049305912 0.012201889 0.17832401
0.014662056 0.016017914 -0.017956698 -0.10764766 -0.040127993 -0.063517235 -0.12003222 -0.12435461
-0.11850648 -0.05458273 -0.011830215 0.15554118 0.12121592 0.08037703 0.13886692 0.16946603
0.14576733 -0.02656905 0.002579988 0.073988646 -0.06439192 -0.028584331 -0.03577786 -0.06739274
-0.0042169723 -0.11642527 0.10856309 0.051436216 0.021122344 0.02740789 0.03329301 -0.066499524
0.08047235 0.0346131 0.029926566 0.09829953 -0.016693385 0.0041592983 0.022764064 0.043589287
0.03533782 0.12405354 0.09617647 0.0779414 0.123366624 0.04305246 0.065960154 -0.048902094
0.04276339 -0.05813084 -0.048708145 -0.05630994 -0.019174095 0.0034299286 -0.0023102984 0.037092835
-0.02242718 -0.001428231 0.042871553 -0.06258651 0.010179757 -0.09975955 -0.07314898 -0.080331706
-0.13106573 -0.15649714 -0.07281648 -0.13468921 -0.054877523 -0.013733726 0.0016205795 0.021233851
0.06726757 0.14643289 -0.004516127 -0.03891785 0.0285547 -0.10904565 -0.015602747 -0.034890212
-0.08399242 0.026908623 -0.03233595 -0.009312119 -0.06533528 -0.09651133 -0.056696873 -0.005320501
0.03231396 -0.029008208 0.013754598 0.018107222 -0.07130821 -0.042760402 -0.025381852 -0.049690627
0.015361965 0.010000716 -0.012834653 0.054549213 0.0027132335 0.10900896 -0.05672517 0.011078866
0.018194577 -0.01953941 -0.030019797 0.026234623 -0.06232997 -0.048665576 -0.07383057 -0.11037353
-0.012805104 0.08627713 0.09001764 0.23575474 0.11957805 0.10294895 0.13108698 0.12227574
0.044255603 0.33527 0.18478483 0.060745135 0.17423826 0.035066564 -0.06534151 0.12862441
0.026430605 -0.112627685 -0.13840568 0.07629396 0.004208952 -0.052007273 0.025416441 -0.09101926
0.076093994 -0.122269094 -0.1067086 -0.17092465 -0.04960053 0.1355818 0.057788044 -0.0034723785
-0.04154468 -0.09687814 -0.03744813 -0.0383723 -0.13847859 -0.03432936 0.0039386027 0.119285285
-0.053567417 0.04186243 0.11736959 0.0035214038 -0.009551281 -0.011798402 -0.017817728 0.036081593
-0.02426294 -0.036892943 -0.03503498 0.019879293 0.041369177 -0.12209847 -0.087522045 -0.12890482
-0.08423849 -0.029942924 0.016183287 -0.09372327 -0.10488812 0.03421391 0.053995874 0.042625908
0.03628149 -0.013009067 -0.06820273 0.04447606 -0.040102597 -0.028710416 -0.026744906 0.039747912
0.070110604 0.003813562 0.020536546 0.070577234 0.018362787 -0.025303742 0.0155791305 -0.05547881
-0.05465953 -0.10475403 -0.037296932 -0.12120014 -0.06152275 -0.12684576 -0.08737407 -0.088348754
0.046332747 -0.011967622 0.056737673 -0.11815634 -0.0003822247 -0.015790014 -0.044909433 -0.08882261
0.021309804 -0.041752048 0.026329571 -0.061177526 -0.02471277 0.10498754 -0.030511888 0.043953456
0.00016141417 -0.115443856 -0.17067692 -0.13143215 -0.114666596 -0.038181808 0.023853207 -0.020698378
-0.11678898 -0.016462604 -0.012421305 0.012591218 0.02432431 0.018105853 -0.013282838 -0.014362815
-0.017867884 -0.015322529 -0.0047571436 -0.11768219 0.009980681 -0.049789198 0.04879484 -0.092881665
00000000: 1644 c4bd d7cf 263d 6657 ba3d de07 a2bc
00000010: 35ea a33c a1fe 12bd ae8a e13c d90c a13d
00000020: f4fe 963c b5dc c63d 1725 003e 6f9c 15bd
00000030: b8a0 563d fff4 493d 6fea 473c 929a 363e
00000040: 1f39 703c 0038 833c ed19 93bc 6076 dcbd
00000050: 405d 24bd 5315 82bd 74d3 f5bd a1ad febd
00000060: 86b3 f2bd 2492 5fbd 85d3 41bc 3046 1f3e
00000070: 0d40 f83d b69c a43d 2133 0e3e 8188 2d3e
00000080: 0844 153e 56a7 d9bc 0415 293b 5c87 973d
00000090: e9df 83bd b029 eabc ce8b 12bd 3405 8abd
000000a0: 872e 8abb 5f70 eebd 5356 de3d c8ae 523d
000000b0: c408 ad3c 8386 e03c 405e 083d e730 88bd
000000c0: b0ce a43d 77c6 0d3d 8f28 f53c 4451 c93d
000000d0: 91c0 88bc b94a 883b b47b ba3c ae8a 323d
000000e0: 64be 103d c80f fe3d 2bf8 c43d be9f 9f3d
000000f0: a4a7 fc3d c757 303d 1e16 873d 904d 48bd
00000100: aa28 2f3d 9b1a 6ebd 3182 47bd 40a5 66bd
00000110: fe12 9dbc a7c8 603b 6068 17bb a8ee 173d
00000120: 35b9 b7bc 7b33 bbba 159a 2f3d 5b2d 80bd
00000130: ffc8 263c bc4e ccbd 22cf 95bd f384 a4bd
00000140: 1836 06be c940 20be cf20 95bd f8eb 09be
00000150: 41c7 60bd 6c03 61bc a069 d43a 9df2 ad3c
00000160: 94c3 893d 81f2 153e 05fc 93bb 5368 1fbd
00000170: 8ceb e93c 5353 dfbd aaa2 7fbc 0ae9 0ebd
00000180: 3804 acbd 796f dc3c b372 04bd dc91 18bc
00000190: 81ce 85bd bba7 c5bd fb3a 68bd 9957 aebb
000001a0: a55b 043d 9fa2 edbc f75a 613c 9955 943c
000001b0: 0a0a 92bd 8825 2fbd 9aed cfbc 6688 4bbd
000001c0: c0b0 7b3c 0bda 233c 7048 52bc ff6e 5f3d
000001d0: 81d0 313b 1740 df3d a758 68bd 2284 353c
000001e0: cb0c 953c 1d11 a0bc 14ec f5bc fee9 d63c
000001f0: b64d 7fbd 8e55 47bd 7b34 97bd 840b e2bd
00000200: 80cc 51bc 10b2 b03d 2b5b b83d b169 713e
00000210: 56e5 f43d e6d6 d23d aa3b 063e b46b fa3d
00000220: 5d45 353d 82a8 ab3e 3c38 3d3e e4cf 783d
00000230: 846b 323e f5a1 0f3d c5d1 85bd 1eb6 033e
00000240: ff84 d83c 58a9 e6bd 38ba 0dbe 0240 9c3d
00000250: 40eb 893b 9405 55bd 2436 d03c 4e68 babd
00000260: 2bd7 9b3d 3868 fabd 0a8a dabd df06 2fbe
00000270: ed29 4bbd f5d5 0a3e 28b3 6c3d d890 63bb
00000280: c12a 2abd 0c68 c6bd 3663 19bd 462c 1dbd
00000290: 55cd 0dbe f19c 0cbd 650f 813b d84b f43d
000002a0: 8269 5bbd f077 2b3d 785f f03d 5ac7 663b
000002b0: fa7c 1cbc 164e 41bc 7cf6 91bc 4bca 133d
000002c0: 13c3 c6bc 0e1d 17bd d780 0fbd e6d9 a23c
000002d0: ba72 293d c30e fabd c23e b3bd a0ff 03be
000002e0: 3b85 acbd dd4a f5bc d092 843c fcf1 bfbd
000002f0: 95cf d6bd e323 0c3d c72a 5d3d 8198 2e3d
00000300: e69b 143d fb23 55bc dfad 8bbd 872c 363d
00000310: 9f42 24bd 1b32 ebbc 2218 dbbc b5ce 223d
00000320: 2696 8f3d f4ec 793b 423c a83c cc8a 903d
00000330: 8e6d 963c cb49 cfbc 9c3f 7f3c c03d 63bd
00000340: ace2 5fbd 4889 d6bd abc4 18bd c737 f8bd
00000350: 47ff 7bbd dbe3 01be 2df1 b2bd 31f0 b4bd
00000360: 68c7 3d3d d813 44bc c365 683d f4fb f1bd
00000370: 5565 c8b9 0f5a 81bc f4f2 37bd a1e8 b5bd
00000380: e691 ae3c 3204 2bbd 1db1 d73c 4995 7abd
00000390: 6f72 cabc b503 d73d 11f4 f9bc 8a08 343d
000003a0: 4941 2939 d46d ecbd eec5 2ebe 2696 06be
000003b0: 52d6 eabd 8764 1cbd cd67 c33c a58f a9bc
000003c0: 102f efbd 95dc 86bc bb82 4bbc 654b 4e3c
000003d0: c643 c73c ba52 943c 43a0 59bc 0352 6bbc
000003e0: ab5f 92bc 580b 7bbc d0e1 9bbb 5c03 f1bd
000003f0: 0386 233c c2ef 4bbd 19dd 473d be38 bebd

resnets.1.conv1.conv2d.bias f4 [32]
-0.0038884224 0.1487108 -0.18233538 0.10956844 0.063812904 0.03373505 0.02701486 -0.002120655
-0.120839074 0.053653568 -0.033175312 -0.13251914 -0.12585948 0.008145285 0.028636586 0.026090382
-0.00023797723 -0.051362716 0.110401504 0.01321021 0.120787464 0.05458292 -0.03896061 -0.027220795
0.10700899 -0.015894318 0.045736946 0.016773386 0.07585262 -0.102697924 0.013354991 0.054526143
00000000: e7d4 7ebb a547 183e 20b6 3abe 6b65 e03d
00000010: 57b0 823d c42d 0a3d 454e dd3c b0fa 0abb
00000020: 7a7a f7bd d8c3 5b3d d6e2 07bd 19b3 07be
00000030: 4fe1 00be cd73 053c 4697 ea3c 7fbb d53c
00000040: 8789 79b9 b661 52bd 2f1a e23d a36f 583c
00000050: 6b5f f73d 5792 5f3d 2995 1fbd 25fe debc
00000060: 8827 db3d cd34 82bc aa56 3b3d 5768 893c
00000070: 9e58 9b3d 4a53 d2bd e4ce 5a3c ce56 5f3d

resnets.1.in1.weight f4 [32]
0.8070794 0.9656389 0.9786544 0.90930027 0.87432927 0.74367267 0.99960744 0.8898485
0.9919799 0.84723955 1.0034934 0.94405395 0.9540741 0.94206136 0.8896007 1.0112091
0.91634786 0.946812 1.1043991 0.85163045 0.9537535 0.98801124 0.91641164 0.890949
0.9087066 0.9098639 1.0619626 1.0273235 0.9357363 0.9693646 0.84753007 0.962408
00000000: c19c 4e3f 1c34 773f 1889 7a3f e7c7 683f
00000010: 0bd4 5f3f 5561 3e3f 46e6 7f3f 1ccd 633f
00000020: 65f2 7d3f b1e4 583f 7972 803f 85ad 713f
00000030: 333e 743f ef2a 713f dfbc 633f 4d6f 813f
00000040: c695 6a3f 4562 723f f35c 8d3f 7404 5a3f
00000050: 3029 743f 4eee 7c3f f499 6a3f 3c15 643f
00000060: ffa0 683f d7ec 683f 64ee 873f 567f 833f
00000070: 6a8c 6f3f 4728 783f bbf7 583f 5f60 763f

resnets.1.in1.bias f4 [32]
0.23613797 -0.524769 -0.3881838 0.38177133 0.10747664 0.21699381 0.019708399 -0.09799318
-0.42717025 0.28730035 0.28112987 -0.16429672 -0.7665379 -0.07139198 0.049576085 0.07423821
0.23470457 -0.04770025 -0.423036 -0.16338843 -0.033312194 -0.112352826 0.15255591 -0.29273587
0.008689789 0.17899437 -0.16529511 -0.03680559 -0.5307339 -0.67048883 0.112641 -0.47308594
00000000: 27ce 713e 4357 06bf 07c0 c6be 8877 c33e
00000010: b61c dc3d a033 5e3e 8273 a13c a6b0 c8bd
00000020: 0fb6 dabe 0819 933e 41f0 8f3e 663d 28be
00000030: d43b 44bf f535 92bd 4b10 4b3d 340a 983d
00000040: 6556 703e 5661 43bd 2d98 d8be 4c4f 27be
00000050: 5e72 08bd 3d19 e6bd 9e37 1c3e 7ae1 95be
00000060: 9e5f 0e3c 4d4a 373e 1f43 29be 75c1 16bd
00000070: 2dde 07bf 28a5 2bbf 53b0 e63d 5238 f2be
