Assets/Style_Transfer/Models/TransformerNet/Estilos 5-8/ola e10-256.onnx (onnx, 449372 bytes, 62 tensors)

conv1.conv2d.weight f4 [8, 3, 9, 9]
000000 3e d0 98 3c cb c7 8c 3d 46 65 f1 3c 37 2f 0b 3d
       0.018653985 0.06874045 0.029467236 0.033980574
000010 79 eb cf 3c 4c 70 8b 3c ce 39 60 bd a0 7c 14 bc
       0.025380837 0.01702132 -0.054742627 -0.009062916
000020 09 ba 1a 3d 2f 42 a5 3d b9 a4 9e 3d 7d f2 63 bd
       0.037775073 0.08069264 0.07746262 -0.055651177
000030 15 a3 59 bd 9e e5 9e 3c a4 7b e4 3d 8a 3a 51 3d
       -0.053134043 0.0193966 0.11156395 0.051081218
000040 98 2c d9 3d a2 8e 2b 3e 0d 8b 0d 3d c5 98 ff 3c
       0.10604209 0.16753629 0.034556437 0.031200776
000050 05 0b a1 bd c2 45 af bd 92 23 27 bd 0c 3f b1 3d
       -0.0786343 -0.08558227 -0.040805407 0.08654603
000060 80 58 fc bb fb e1 28 3a bf c2 82 3d b6 33 43 3d
       -0.0077009797 0.0006442365 0.06384801 0.047656737
000070 2c cf d1 bb a2 67 15 be 9d 99 37 be de a3 8d bd
       -0.0064028706 -0.14590314 -0.17929693 -0.06916021
000080 9f c6 12 3d c4 67 fb 3c d4 b8 9f bc ab c2 70 3b
       0.03583395 0.030689128 -0.019497313 0.0036737125
000090 05 43 af 3d 80 73 04 bd de ec 40 be a8 ea 4a be
       0.08557705 -0.032336712 -0.18840358 -0.19816077
0000a0 ca 66 ce bd 31 06 0c 3d e4 43 11 3d 84 b4 de bd
       -0.10078199 0.034185592 0.035465136 -0.108742744
0000b0 bd 5d ec bb 94 f6 9a 3c 98 59 cf bd 80 53 05 bd
       -0.007213323 0.018916406 -0.101245105 -0.032550335
0000c0 82 2f 3d 3c bc b1 aa 3d 2a be c3 3a 85 cf b7 3c
       0.011546971 0.083346814 0.0014933993 0.02243782
0000d0 16 9f e8 bc 50 e3 54 bc e4 7b c7 3d 85 2f 58 bd
       -0.02839617 -0.012993649 0.09740427 -0.052779693
0000e0 0d 4c 78 bd 27 18 dd bb a5 ce 8a 3d fa 20 be 3c
       -0.060619403 -0.006747264 0.067776956 0.023209084
0000f0 49 76 9e 3b 67 e6 81 bd 66 7b 8f bc 6f 3f 13 3d
       0.004835878 -0.06342774 -0.017514896 0.035949167
000100 93 ad 3a 3d 28 e2 a6 bd 4b 90 5a bd 41 ff 1b 3c
       0.04557569 -0.08148605 -0.053360265 0.0095213065
000110 5c 6a 75 3d 6c 95 4f bc de 81 82 bd 68 92 6f 3d
       0.059915885 -0.012669902 -0.063724265 0.058489233
000120 1b d7 34 3c 97 87 50 3d aa e1 79 39 c0 8c b3 3d
       0.011037613 0.05091056 0.00023830557 0.0876708
000130 d3 1f 7f 3b 48 0f 4b bd 20 37 57 39 41 86 b6 3c
       0.003892888 -0.04957512 0.00020524533 0.022280814
000140 a2 ec f6 3c 5f 8e d2 bc c2 84 f9 bc a3 ee 16 3d
       0.030142132 -0.025702653 -0.030458812 0.036848675
000150 ff 7c 2f bc af 30 8a 3c e6 e8 24 3d a3 96 b4 ba
       -0.010710954 0.016868917 0.04026117 -0.0013777803
000160 11 20 a7 3d 5f b8 37 3d a2 f3 2a 3d 55 bf 4f 3d
       0.08160413 0.044853564 0.041736253 0.050719578
000170 d9 8a 6d bd 97 72 f3 3b e5 35 26 3d 7d 44 89 3d
       -0.057993744 0.0074294317 0.04057874 0.06702516
000180 77 eb 88 3d 65 a1 12 3d 50 32 17 bc 2d a2 92 bd
       0.06685536 0.03579845 -0.009228304 -0.07159839
000190 e6 26 8e 3d 90 6e b6 bc f0 18 09 be a5 6f d8 bc
       0.06941013 -0.022269517 -0.13388419 -0.026420424
0001a0 b8 1a d1 3c 3b ca 87 3c 2e a3 5d bd 51 48 64 3d
       0.025525436 0.016575923 -0.0541107 0.05573303
0001b0 da 29 e8 3c d2 89 60 bc 05 f7 ce bd 17 45 71 be
       0.028340269 -0.013704734 -0.10105709 -0.23561512
0001c0 e4 10 90 bc 36 ea 99 3d 7c 81 76 bb 86 47 75 bd
       -0.01758618 0.07515375 -0.00376138 -0.059882663
0001d0 eb 71 54 ba 66 4d 9f bb c5 9d b6 bd dd c7 ef bd
       -0.00081041333 -0.0048615215 -0.08916811 -0.11708043
0001e0 04 9f 5a be f4 cf 71 bd 49 7f 07 3d d6 e6 3d bd
       -0.21349722 -0.05903621 0.033080373 -0.04636272
0001f0 43 d1 8b bd 95 dc 46 3d a0 c9 65 bd 82 f6 88 bd
       -0.06827023 0.048550207 -0.056100488 -0.06687643
000200 72 d6 17 bd 0e 0a 95 3c 03 ef 88 3d be a2 de 3d
       -0.037069745 0.018193271 0.06686213 0.10870884
000210 9c 3b 96 3d d2 d6 77 bc 7b 95 d8 bb 65 15 3a bd
       0.07335588 -0.015126901 -0.0066096163 -0.04543056
000220 41 94 f5 bd 9c 52 8f bd cd 19 1d 3d 2b ee 51 3d
       -0.11991168 -0.06998178 0.038354684 0.051252525
000230 a7 c3 b7 3b 03 10 2a 3d 8a 5d 7a bc 21 3c 0f 3d
       0.0056080404 0.041519176 -0.0152810905 0.034969453
000240 5d 9d 71 3d 6f e9 a5 bd f4 e9 f8 bc 87 d9 ad bc
       0.058987964 -0.081011645 -0.030384995 -0.02122189
000250 9f 37 bb bc 5d d5 33 3c 11 43 13 3d 78 1b c6 3c
       -0.02285367 0.010976163 0.03595263 0.02418302
000260 c2 5f 7d 3d ac 48 bd 3c a8 56 f7 3c f3 11 14 3d
       0.0618589 0.023105942 0.030192688 0.03614993
000270 fa 80 7f 3d 3f 17 43 bd 62 54 10 bd 3b 5f 1b 3d
       0.06237886 -0.04762959 -0.035236724 0.037932616
000280 dc 7e bc 3c 31 2e 62 3d df e4 23 bc b4 20 ec bb
       0.02300971 0.055219833 -0.010003298 -0.007206047
000290 28 b4 b0 3c b7 b5 06 3d f5 27 99 3d d5 ae 52 bd
       0.02157028 0.03288814 0.07478324 -0.051436264
0002a0 39 eb e3 bc 42 71 37 bc f2 fb 84 bd a1 bb be 3b
       -0.027822124 -0.011196436 -0.06493367 0.005820707
0002b0 65 03 ec 3c 0b fe 8b 3c 9e 2b 60 3d 7d 19 71 3d
       0.028810212 0.01708891 0.054729097 0.0588622
0002c0 2f 64 42 3d 93 45 19 3c 17 9e dc bb 57 dc 75 3d
       0.047458824 0.009354967 -0.006732713 0.060024586
0002d0 e3 d1 8c 3c 5b 83 c2 3d d5 6c 00 3d 22 08 07 bd
       0.017189926 0.0949771 0.03135379 -0.03296674
0002e0 f2 a6 ab 3d 0f f8 6a 3d b6 d3 26 bd 51 38 04 bd
       0.08381452 0.057365473 -0.040729247 -0.03228027
0002f0 f5 1d 64 bc 4e 2b 52 bc 35 e6 23 3e b4 e0 f4 3b
       -0.013923158 -0.012827707 0.16005786 0.0074730758
000300 5f 34 33 bc f6 7e 5d bc 39 cc 58 3d 47 21 b7 bd
       -0.010937779 -0.013519039 0.052929137 -0.08941894
000310 14 f7 cf bd 79 a8 61 3d 4e 09 bc 3c b7 36 b3 3d
       -0.10154548 0.05509231 0.022953656 0.087506704
000320 7d 9b 3c bd 97 22 d4 bd b7 fd a2 bd 4a 3c 91 bc
       -0.046046723 -0.1035816 -0.079585485 -0.017728943
000330 7d 2e 76 bc c5 b3 35 bd 5d d2 18 3c 34 f9 20 bc
       -0.015025732 -0.044360895 0.009327498 -0.00982504
000340 1e 87 77 3d 9f f7 89 bc 16 84 54 3b a2 1a 96 3d
       0.060431592 -0.016841708 0.0032427362 0.073292986
000350 ca 34 a3 bc ac 66 a3 bd 8d 93 8c bd ae 43 82 3d
       -0.019922633 -0.079785675 -0.068640806 0.06360565
000360 9e 25 06 3d 57 33 57 bd 19 0e 3d bb 90 aa 4e bd
       0.03275072 -0.052539196 -0.0028847514 -0.05045563
000370 84 9c c6 3c 0f 57 22 bd d4 16 20 bd dd 71 82 bd
       0.024244554 -0.039633807 -0.03908427 -0.06369374
000380 03 7e 8b 3b d6 d4 7c 3d 08 b6 3d 3d c6 b9 c0 3c
       0.004256965 0.061726414 0.046316177 0.023526084
000390 4a 02 aa 3d e1 c9 be 3c 0d 14 2d 3d b5 98 bc bc
       0.08301218 0.023289623 0.04225545 -0.023022035
0003a0 84 5c 4c bd 08 72 ad 3c 49 84 96 bd dc 2b b7 bc
       -0.049892917 0.021172538 -0.0734945 -0.022359781
0003b0 39 da b3 3c a3 24 3f 3d 8f 6e 0c bd a3 b5 8a bc
       0.021954643 0.0466658 -0.034285124 -0.016932314
0003c0 79 d8 ee bc 74 14 b9 bc 6e f8 29 bd 78 d9 a5 3b
       -0.029155957 -0.02259276 -0.041496687 0.0050613247
0003d0 8f c8 8b bb 55 67 26 3d af 6e 89 3d e9 4c c3 bd
       -0.004265852 0.04062589 0.06710564 -0.09536154
0003e0 33 80 ed bd cd f4 5e 3c 46 6e 98 3c d5 db a4 bd
       -0.11596718 0.01360817 0.01860727 -0.08049742
0003f0 68 f0 67 bb 12 9d ba 3c 9b fd b9 3d 1d 7a d6 3d
       -0.0035391096 0.022779975 0.090815745 0.1047251

conv1.conv2d.bias f4 [8]
000000 3e 4f 24 3c f9 5d e3 bd f9 b1 85 3d 29 3f 95 bc
       0.010028658 -0.11101908 0.06528086 -0.018218594
000010 13 8d 34 bd db af fa 3d 82 63 37 bd 3d 89 a9 3d
       -0.04407985 0.12240573 -0.044772632 0.08278129

in1.weight f4 [8]
000000 4c 81 98 3f 45 b4 8b 3f e7 17 83 3f 77 51 93 3f
       1.1914458 1.0914389 1.024167 1.1509236
000010 ee cf 5b 3f fd 97 7f 3f 2c 60 80 3f 6b 10 97 3f
       0.8586415 0.9984129 1.0029349 1.1801885

in1.bias f4 [8]
000000 93 41 c1 3e 55 b7 47 3f 24 b3 80 3f d9 7d 6b 3f
       0.37745342 0.7801412 1.0054669 0.91988903
000010 36 33 96 3f 66 48 5b 3f 8c 14 7e 3f 17 e9 16 3f
       1.1734378 0.85657346 0.992501 0.58949417

conv2.conv2d.weight f4 [16, 8, 3, 3]
000000 cd ae 6b 3d 32 d2 1b 3d 7a 97 af bc db af 0e be
       0.05753975 0.038042255 -0.021434534 -0.13934271
000010 89 11 08 3d 6b bc 2a 3d e7 30 9c 3d 87 cd 1f bd
       0.033219848 0.041683596 0.07626515 -0.039014366
000020 51 09 27 bd 28 2a ad 3d e2 05 43 be 13 5e 93 be
       -0.04078037 0.08455306 -0.19045213 -0.2878271
000030 60 d5 0e 3e e0 f9 21 3d ce 4f cb bd 15 1c 5f 3d
       0.13948584 0.03954494 -0.09927331 0.05447014
000040 e8 b4 3e 3e 27 6b fd 3c 4c b6 dd bd 27 b3 8b bc
       0.18623698 0.030934883 -0.10825786 -0.0170532
000050 a6 8a 8b bc 90 bf 87 3d f0 aa b7 bb c7 98 b4 3d
       -0.017033886 0.066283345 -0.005605094 0.088182025
000060 37 bf 02 3d 77 78 30 bd bd 0d b7 3c 7a 1c 8f 3d
       0.031920638 -0.043083634 0.022345418 0.06987853
000070 7c 9a 82 3d 82 68 03 be fc 44 89 3d c4 1f 5a bd
       0.06377122 -0.12832835 0.06702611 -0.05325295
000080 b2 0b 3f be bd 83 f8 bb 96 c5 5c 3d a1 b7 e9 3c
       -0.18656805 -0.007584064 0.05389937 0.028529944
000090 12 4a 09 be ce 52 bd 3c 34 e1 9d 3d b2 a7 6f 3d
       -0.13407162 0.023110773 0.0770897 0.058509536
0000a0 d0 be c5 bd 6e ca 85 3d 28 fb ba 3d 2e ff 9d bd
       -0.09655535 0.06532751 0.091299355 -0.07714687
0000b0 d8 73 35 bd fb ab b1 3d c2 bd d3 bd 42 2d b2 bd
       -0.04429993 0.08675381 -0.10338928 -0.087000385
0000c0 51 cc a0 3d d0 45 a8 3d aa b2 d7 bd d0 a7 a0 3d
       0.0785147 0.08216441 -0.10532124 0.07844508
0000d0 92 b6 ac 3c e3 97 77 bb 12 a0 ce 39 06 c0 c5 bc
       0.02108315 -0.003777974 0.00039410644 -0.024139415
0000e0 63 44 b9 bd 3c ee 9d 3d ca 85 ba 3d 0a 5e 9c 3c
       -0.09046247 0.07711455 0.091075495 0.01908781
0000f0 13 dc 2f be 02 5c 9a 3d 4a ea 86 3c 0d cb 0d 3e
       -0.17173795 0.0753708 0.01646914 0.13846989
000100 b3 8c fd 3c 05 35 3c be 9b a7 83 bc 54 34 23 3e
       0.03095088 -0.183796 -0.016071131 0.1593793
000110 25 3d b4 3d ad 17 33 be 0a 10 55 bd ae 25 9a 3d
       0.08800725 -0.174895 -0.05201725 0.07526718
000120 89 7c 00 3c dd e4 c4 bd b6 4a b1 bd ac c2 ee bd
       0.0078421915 -0.09613965 -0.08656828 -0.116582245
000130 a3 86 26 bc d2 6b 08 bd 92 0f cf bd 18 ea ab bd
       -0.010163936 -0.03330595 -0.10110392 -0.08394259
000140 34 5d 23 ba 07 02 f3 bc 47 3d 9b bd c8 7e 0f bd
       -0.0006231845 -0.029664053 -0.07580047 -0.035033017
000150 a3 e5 5f 3d d7 3b c7 3d f8 5a 04 3d 50 1c 23 bd
       0.054662358 0.097282104 0.032313317 -0.039821923
000160 77 e0 2a 3e e9 ee 06 3e 04 de d4 bd f5 a9 08 3d
       0.16687189 0.13177074 -0.103939086 0.03336521
000170 09 c6 96 3d cb b1 be 3d b4 63 37 3d 11 77 cc 3d
       0.07361991 0.09311255 0.04477282 0.099836476
000180 3d de 1a 3e d6 03 30 3e cc 8f 34 bd 1e ab 2e bd
       0.1512384 0.17188963 -0.044082448 -0.04264366
000190 25 6b 74 bd e6 77 8c bd 8a bc 9f 3d fd b4 25 bc
       -0.059672493 -0.06858806 0.07799633 -0.010113952
0001a0 29 62 d4 bd df 65 fd bc 89 f2 51 3b 8d bb be 3d
       -0.10370285 -0.030932365 0.0032035431 0.09313116
0001b0 55 71 9c 3d af c4 23 bd c4 5e 02 bb 9b f8 15 3e
       0.07638804 -0.039982494 -0.001989291 0.14645617
0001c0 23 22 e8 3d 20 8d 4c bd 52 42 3e 3e 06 89 19 bd
       0.11334636 -0.049939275 0.18579987 -0.03748419
0001d0 19 c1 de bc e0 66 ee bb 65 fc 86 bd b6 bb fe 3d
       -0.027191686 -0.0072754472 -0.06591109 0.12438147
0001e0 cb 67 ca 3c 30 47 4e 3e cc 01 31 3e 14 65 bc 3d
       0.024707695 0.20144343 0.17285842 0.091989666
0001f0 4f 2e b2 3d 29 09 1a 3e 50 85 05 bd 9a 00 a2 3d
       0.08700239 0.15042557 -0.03259784 0.07910271
000200 32 8e c6 bd 33 90 33 3c 00 d3 82 bc 28 7a 70 bd
       -0.0969509 0.010959673 -0.015969753 -0.058710247
000210 dd 6a e0 bc 64 2f d8 bd 3c 81 9d 3d 25 ce 81 3c
       -0.027394706 -0.10555914 0.07690665 0.015845368
000220 e6 52 51 bd a8 f4 cb 3c 65 a7 e7 bd b6 7b aa bd
       -0.05110445 0.024896935 -0.11311225 -0.08324377
000230 be e1 87 3d 80 ac 7f bd 00 c5 9e bc 57 0d 91 3a
       0.06634854 -0.06242037 -0.019381046 0.0011066598
000240 c1 be c4 3c 38 72 dd 3c 05 2c c2 3c 82 83 bc 3b
       0.02401674 0.027032003 0.02370263 0.0057529816
000250 0c f0 c9 3d bf 6f 14 bc 5d 8e ed bb 1d 3f 99 3d
       0.098602384 -0.0090598455 -0.007249637 0.07482741
000260 7a 15 02 3d 98 c9 93 bd ff 9b 14 3d 27 4d 45 3d
       0.031758763 -0.07216185 0.036281582 0.04816928
000270 0e 5b bb 3c 39 49 df bd de a3 26 bd e0 aa d9 3c
       0.022870567 -0.10902638 -0.04068362 0.026570737
000280 fc fd 86 bd 74 b9 74 be 1d b3 ca 3d 21 08 ec bc
       -0.065914124 -0.2389887 0.098974444 -0.02881247
000290 b2 5b 25 3e 7b c7 25 be 82 27 ab bd 9e 15 f0 3b
       0.1614826 -0.16189377 -0.08357145 0.0073267957
0002a0 69 f0 68 be eb 4b 1e be 8e 19 1b bd 4c 4d 9a 3c
       -0.22747959 -0.15458648 -0.037866168 0.018835686
0002b0 47 bf 82 3d 0e 05 ab bd 9b b5 f2 3c 70 92 73 3d
       0.063841395 -0.083505735 0.029627612 0.059465826
0002c0 96 4d 59 bd 56 90 42 bd e1 a3 79 3d 88 fe dd bd
       -0.053052507 -0.04750093 0.060947303 -0.108395636
0002d0 cc 05 11 be a7 5b 37 3d cb 46 40 3e 7c 4a 71 be
       -0.14162368 0.04476514 0.18777005 -0.2356357
0002e0 f5 f5 ae bd 16 3f 8d 3b f7 9c d8 bd 2c ff c7 bd
       -0.08543006 0.004310499 -0.10576814 -0.09765467
0002f0 7d a1 97 bd 52 c7 1c be 0c fe e9 bb 10 1f af bd
       -0.07403848 -0.1531041 -0.0071408805 -0.085508466
000300 31 56 ab bd a7 91 ab bd a1 0a 5a be 9d 34 0c be
       -0.08366049 -0.0837739 -0.21293117 -0.13691945
000310 e6 5d 28 be 76 64 49 be 07 66 9c 3d e4 22 11 3c
       -0.1644207 -0.19667229 0.07636648 0.008858416
000320 19 04 5e ba dd ea 85 3d 64 fe 52 3d 6d 08 d2 bd
       -0.00084692385 0.06538937 0.051512137 -0.10255513
000330 66 7d 27 3b c3 09 e2 3d cb dd 1e bd 0e 12 50 3c
       0.002555692 0.11037018 -0.038785737 0.012699617
000340 eb f9 ea 3c 99 46 d2 bd cc c4 cc bc b4 64 b3 3d
       0.028683623 -0.10267372 -0.024996184 0.08759442
000350 ae 8d 41 bd 15 31 c3 3d ba e1 74 3d 61 5c 61 3c
       -0.047254257 0.09530846 0.059785582 0.013754935
000360 94 62 a8 bc cc 58 59 bd 57 15 d2 3b 8e 82 e5 3c
       -0.020554818 -0.0530632 0.0064112353 0.028016355
000370 cf 68 e3 bd 7e 34 26 be ca dd de bc 57 e4 92 be
       -0.11103975 -0.16230962 -0.027205367 -0.28689834
000380 3a 68 47 be 96 44 c9 bc 44 b4 e0 3d 6a 2f 60 bb
       -0.19473353 -0.024568837 0.10971883 -0.0034207948
000390 5f a7 25 be 26 35 a6 bc 5b 9f 3a 3e 01 d2 5f bd
       -0.16177128 -0.020289015 0.18224852 -0.054643635
0003a0 ea b7 34 bd 2e be bb 3d b4 2c 90 3d 2e 72 7f 3c
       -0.044120707 0.09167133 0.070397764 0.015591187
0003b0 05 2a 26 be 30 0c 21 3e 7f e1 ab 3d 09 ba 0a be
       -0.16226967 0.15727305 0.08392619 -0.1354753
0003c0 4a 3a be 3d 2c 3e 34 bd b9 4b 59 bd 23 90 98 bd
       0.092884615 -0.044004604 -0.05305073 -0.07449367
0003d0 18 8b 39 bd 6c ab 0a 3d b7 5f 5d bd dc 9e 75 3d
       -0.045298666 0.033854887 -0.05404636 0.059965953
0003e0 79 e2 8c bb ed 8d e5 3c d0 0c 15 bc 91 f8 22 3d
       -0.0042994586 0.028021777 -0.009097293 0.039787833
0003f0 6d f8 ac 3c de 4c b4 bd c9 ba 29 be f0 83 3e 3e
       0.021114552 -0.08803724 -0.16575159 0.18605018

conv2.conv2d.bias f4 [16]
000000 1b d3 c8 bd 66 be 2b 3c 81 92 9c bd fb 31 10 3e
       -0.0980589 0.010482406 -0.07645131 0.14081566
000010 98 bd b6 3d 63 77 0e be 9a de 02 bc 02 85 f2 3d
       0.08922881 -0.1391273 -0.007987643 0.118417755
000020 24 82 da bd e3 02 a4 bc 75 82 72 3e 72 6f de 3d
       -0.106693536 -0.020020908 0.23682578 0.108611
000030 30 46 a9 bd d7 c3 06 bc a2 44 0d 3e 76 d7 1e 3d
       -0.0826534 -0.008225403 0.13795713 0.0387797

in2.weight f4 [16]
000000 53 09 0f 3f 2e 22 1c 3f 6f ea 1a 3f ef c0 d3 3e
       0.558736 0.60989654 0.6051397 0.41358134
000010 ba 7b 32 3f a4 a1 d1 3e 57 9d 2e 3f 30 9d 05 3f
       0.6972004 0.40943635 0.6820883 0.52192974
000020 bc ba 03 3f 4e f6 ee 3e bc ac 16 3f b6 02 12 3f
       0.5145681 0.4667229 0.5885732 0.57035387
000030 93 cc 0a 3f a8 a4 df 3e da 38 a7 3e 37 19 14 3f
       0.54218405 0.4368031 0.32660562 0.57850975

in2.bias f4 [16]
000000 4d 2c 89 be e2 1c 54 be 29 f2 3e 3e c8 bc 31 3e
       -0.2679161 -0.20714143 0.18647064 0.1735717
000010 3b 76 f6 bd 4c 12 5c be ec 24 31 bd db 1c 90 3d
       -0.120342694 -0.21491355 -0.043248102 0.07036754
000020 d8 d0 9b be 95 01 8b be 44 da bb 3c b9 6d c9 be
       -0.30432773 -0.27149644 0.022931226 -0.39341524
000030 0e 2b af be 02 65 cc be f2 41 4f 3e eb 57 6c 3c
       -0.34212536 -0.39920813 0.2024 0.014425258

conv3.conv2d.weight f4 [32, 16, 3, 3]
000000 c8 8f c3 bd 38 0d 1d be 3f 45 a4 3c 7e 12 2a be
       -0.095489085 -0.15337074 0.02005255 -0.16608617
000010 a9 df 88 bd 86 c3 ab bd 64 66 03 be f3 b2 43 be
       -0.06683285 -0.083869025 -0.12832028 -0.19111232
000020 d5 99 c9 bd 9b 6c 32 bd ba ac 7a bd 50 34 23 be
       -0.09843794 -0.043560605 -0.06119988 -0.15937924
000030 11 b2 f5 bc 49 76 68 be 4c 5f 39 be 70 7e b5 bd
       -0.029992135 -0.22701372 -0.18102759 -0.08862007
000040 fe 68 6c be 1c c4 4a be c6 19 b3 3d 2d 59 16 3d
       -0.23086926 -0.19801372 0.0874515 0.03670614
000050 8a 64 38 3c f1 0e 1a bd bd 1b ae 3d bc 30 93 bc
       0.011254439 -0.037611905 0.085013844 -0.017967574
000060 94 38 14 3c 74 08 58 3d 2a d6 da 3c 61 c4 e3 bd
       0.009046692 0.052742437 0.02671345 -0.11121441
000070 58 96 96 3d 06 44 3f 3d 00 60 5d 3d 07 5d bd bd
       0.073528945 0.04669573 0.05404663 -0.09246259
000080 2f 76 a5 3c b9 45 bc bb dc ce 0d 3d 77 f6 cd bd
       0.020197956 -0.0057456163 0.034621105 -0.10056775
000090 0d fa 4c 3c 3b ab 4b bd 4a 48 27 3d 44 ab a2 bd
       0.012510789 -0.049723845 0.040840425 -0.079428226
0000a0 11 50 53 be 94 9c e6 bd 96 5e 9d bd 02 1f 30 be
       -0.20636012 -0.11260334 -0.076840565 -0.17199329
0000b0 1e 7c 35 be 78 c9 ad 3c e8 d7 30 3d 78 59 01 3e
       -0.17723128 0.021214232 0.043174654 0.12631786
0000c0 06 c4 a5 bd 88 fb c8 3b 58 ad 13 3e 86 22 46 bd
       -0.08094029 0.0061335005 0.14421594 -0.048372768
0000d0 11 f5 ba bc f6 32 03 3d 6e a4 85 3d 69 30 81 3c
       -0.022821935 0.032031022 0.06525503 0.015770154
0000e0 3d 9b 1d be db ce b6 3d 26 17 30 bd 6b f5 c1 bc
       -0.1539125 0.08926173 -0.042990826 -0.023676595
0000f0 ef 92 d2 bd f0 24 a8 3c 3a 34 18 be f0 8b cb bd
       -0.102819316 0.020525426 -0.14863673 -0.099388
000100 93 37 b3 bd 59 d7 e0 bc 0d b6 1b bd 8c 94 3b bd
       -0.08750834 -0.027446436 -0.038015414 -0.045795962
000110 22 48 43 3d fa e2 b2 bd 5d fb a9 3c eb 5f bf 3d
       0.047676213 -0.087346986 0.020749742 0.09344467
000120 b0 8c b2 3d 01 70 d8 3c 62 a4 3b 3c 91 bd 88 bd
       0.0871824 0.026420595 0.011452766 -0.06676782
000130 20 db 4d 3d 6b 2d af bd c9 07 43 be 5f bb ab bd
       0.050257802 -0.08553585 -0.19045939 -0.083853476
000140 36 8d 46 3c 85 b4 1d 3d 4d 1c 43 3d f2 33 3a 3d
       0.012118628 0.038502235 0.04763441 0.045459695
000150 cc da 01 bd fc d7 86 bd 4b f1 a0 bd a5 14 2e be
       -0.0317028 -0.065841645 -0.07858523 -0.17000063
000160 ea 80 23 be 94 f1 a4 bd 17 13 b2 bd 8c 81 7a bd
       -0.15967146 -0.0805389 -0.08695047 -0.0611587
000170 01 25 d6 3c 6c e4 f7 3c b6 a6 cc 3c 4e b5 2f bd
       0.026140692 0.030260287 0.024981838 -0.042897515
000180 01 22 73 bc 42 29 08 bd 07 7d 0b 3b df 47 f6 bc
       -0.01483965 -0.03324247 0.002128424 -0.030063568
000190 f7 33 cb bd 2b fe 72 bd e7 22 65 bd 2a 06 12 bd
       -0.09922021 -0.059324425 -0.05594149 -0.03565041
0001a0 ac 2b f7 bd 59 b8 ce bd 7b 6d ba bd 04 44 1a 3b
       -0.120688766 -0.10093755 -0.09102913 0.0023539076
0001b0 6d b0 31 bb 7f 3a 84 bd d9 85 0c 3c f4 ab 09 3c
       -0.0027113215 -0.0645647 0.008576834 0.008402813
0001c0 6c 20 34 bd 8f 38 49 3c af 95 a5 bd 14 42 80 bc
       -0.043976232 0.012281551 -0.080851905 -0.015656509
0001d0 d2 c6 67 bd 12 fb 11 3d e2 bc c3 bc bb d7 6b bd
       -0.056586094 0.03563983 -0.023893777 -0.057578783
0001e0 7e 7a 05 3e 42 dc 83 3d 55 01 24 3d 26 d5 1b 3e
       0.13035008 0.06438495 0.040040333 0.15218028
0001f0 69 a6 34 3e 61 24 6f 3b 6a a7 94 3d 10 c9 e3 3b
       0.17641605 0.003649019 0.07258494 0.0069514588
000200 6e 0c c6 bd 32 cb 08 bc fb 77 50 bd 0d be 3b bd
       -0.096703395 -0.008349227 -0.050895672 -0.045835543
000210 f6 a4 ca 3c 23 5a 7b bd 01 54 8c bc 41 f6 12 3c
       0.024736863 -0.061365258 -0.0171299 0.008969844
000220 66 65 a0 bc 11 e7 32 bb 2a 34 ab bc 65 49 87 3d
       -0.0195796 -0.002729837 -0.020898897 0.06605796
000230 08 ea c8 3d 5e 8f 4a 3d ab 55 ea 3c 2b 49 8f 3d
       0.09810263 0.04945313 0.028605303 0.069963776
000240 8c 49 a2 bd 73 bf dc 3c 86 13 90 bd eb 00 ab bd
       -0.07924184 0.026946759 -0.07034974 -0.083497845
000250 ea 5b 9e bd a1 c2 54 bd c5 c0 f1 bd 64 98 c1 bd
       -0.07732375 -0.051943425 -0.11804346 -0.09452894
000260 ae fd 41 3d 41 79 87 bd 86 a1 da 3b b1 33 05 bc
       0.04736107 -0.06614924 0.006672087 -0.00813
000270 a2 11 12 bc e6 8b 4e bc d1 19 09 3e bf 88 39 bd
       -0.008915337 -0.012606597 0.13388754 -0.045296427
000280 d6 bd 16 3e 85 af 3c bd 79 0d 37 3e 1a 75 4a bc
       0.14720854 -0.046065826 0.17876233 -0.012357021
000290 29 7f e6 bc 56 81 d5 3d cc 80 b5 3a 7a 0a 9a bd
       -0.028136807 0.104250595 0.0013847589 -0.075215295
0002a0 6a 9e a1 bd 62 c9 93 bd 1e f6 12 be 23 3b d1 bd
       -0.07891543 -0.07216145 -0.14351699 -0.102163576
0002b0 c9 cc 79 3d 5f 76 ab 3d 47 9c 0d bd 66 d2 91 3d
       0.060986314 0.08372187 -0.034572866 0.071202084
0002c0 5a 1d 02 be 9f a9 a6 3b 46 91 d3 bc 12 d8 0e 3c
       -0.12706509 0.0050861384 -0.025826108 0.008718507
0002d0 2d 22 42 3c ba 27 6c bc 8d 9e 9a bd 35 38 d8 bd
       0.011848968 -0.014413768 -0.075497724 -0.10557596
0002e0 94 5d 30 bd 67 de 6a bd 44 8e 06 bd c6 04 1a bd
       -0.043057993 -0.057341006 -0.03285052 -0.03760221
0002f0 7b b4 a0 bd 38 28 72 3d ac 46 eb 3b 5d 88 c5 bd
       -0.07846924 0.059120387 0.0071800556 -0.0964515
000300 79 b5 11 3e 04 ea da 3d b0 d5 ff bd 38 c4 ea 3b
       0.14229383 0.10689166 -0.124919295 0.0071645044
000310 ec 6b aa 3b 53 48 2e 3b 50 21 70 be 22 fc 50 3d
       0.0052008536 0.0026593402 -0.23450208 0.051021703
000320 0a 66 63 bc 59 f6 8a bd 79 b4 4f 3d 53 36 70 3d
       -0.0138793085 -0.06785268 0.05070922 0.058645558
000330 0c fa ba 3c bb 94 8b 3d 11 24 44 3d e8 3f 51 3b
       0.02282431 0.068154775 0.047885958 0.003192896
000340 7c 25 12 3e 3e 93 11 3e e9 ea 09 3e dc 92 31 3d
       0.14272112 0.14216325 0.13468517 0.043352947
000350 9a 9c 14 be 49 52 0f 3d cd ec 86 bd d0 06 b4 3b
       -0.14512864 0.034990583 -0.06588135 0.005493976
000360 22 f3 a0 bd b5 8d d4 bc 7f b8 a0 3d c9 08 4c bd
       -0.07858874 -0.025946477 0.0784769 -0.049813066
000370 fb 1e 72 3e 93 14 bf bd dc 34 ed 3d d9 d5 91 bd
       0.2364463 -0.09330096 0.11582348 -0.07120866
000380 7d 16 82 bd a3 46 5c bd 63 86 de bb 73 a5 9a bd
       -0.063519455 -0.053778302 -0.0067909225 -0.07551088
000390 02 b5 99 3c b0 13 20 bd 51 37 e1 3d 95 e8 63 3c
       0.018763069 -0.039081275 0.10996879 0.013910432
0003a0 d2 fc 1a 3e 6c 08 c7 3c 85 ce e8 3d 08 d6 ee ba
       0.15135506 0.024296008 0.113675155 -0.0018221745
0003b0 bb b9 01 bd 1c 77 59 3c e5 1e 6d 3c dd 5c 46 bd
       -0.031671267 0.013273027 0.014472698 -0.048428405
0003c0 73 2f 1e bd 36 28 8c bc be e2 d6 bc a3 52 71 bd
       -0.03861947 -0.017109018 -0.026231166 -0.0589167
0003d0 fd a9 9c 3d 54 2c 33 3d f7 a5 14 3d 6a 64 0d 3c
       0.0764961 0.043743446 0.03629109 0.008629898
0003e0 63 f1 fe 3a 99 dd 53 bd c0 bd 8c bb cc 35 36 bc
       0.0019450601 -0.051725004 -0.004295081 -0.011121225
0003f0 af 15 38 bd 88 42 64 bc de c9 07 be 9f a0 4f 3c
       -0.044942554 -0.013931878 -0.132606 0.012672572

conv3.conv2d.bias f4 [32]
000000 09 e1 f4 bd 18 f4 5a bd 0e 71 da 3d 48 9b 51 3d
       -0.119569845 -0.053455442 0.10666095 0.05117348
000010 7b bc 53 bc 3a c4 a5 3d d1 45 2a 3d b6 e4 01 3e
       -0.012923355 0.08094068 0.04157049 0.12684903
000020 86 f6 33 bd c2 37 4a 3d 6f 95 a1 3d bd ea 70 bd
       -0.043936275 0.04936958 0.0788983 -0.058817614
000030 c7 9b 1a bc f6 71 9d bc b5 31 80 bc e4 91 76 3c
       -0.009436554 -0.01921938 -0.015648702 0.0150494315
000040 28 69 d0 bc cb e3 dc 3d 3f f4 f9 bc 75 d6 e5 bd
       -0.025440767 0.107856356 -0.030511973 -0.11222545
000050 9a 11 b2 3d 7d 90 2f bd a8 17 af 3c 09 9d da 3d
       0.086947635 -0.042862404 0.021373585 0.10674483
000060 ab 04 20 be 52 1e 10 3e dd c4 bc 3d a3 ff d2 3d
       -0.1562678 0.14074066 0.09217236 0.10302665
000070 5b 69 fe 3c f2 31 11 bd 78 98 4f 3e e1 73 5e bc
       0.031056097 -0.035448022 0.20273006 -0.013577432

in3.weight f4 [32]
000000 f5 74 06 3f d2 56 15 3f f3 97 1f 3f c4 96 13 3f
       0.5252221 0.583356 0.6234123 0.57651925
000010 9b c3 02 3f 44 dc 2e 3f 64 2d 00 3f 50 12 00 3f
       0.5107972 0.6830485 0.5006926 0.5002794
000020 05 06 02 3f 12 75 19 3f c5 f0 05 3f 90 22 17 3f
       0.50790435 0.5994426 0.5232051 0.59037113
000030 30 22 04 3f e8 09 2b 3f fb 3e 11 3f cd bd 15 3f
       0.51614666 0.6681199 0.56736726 0.5849274
000040 0a c2 13 3f 48 82 18 3f 72 5c 0c 3f 6a 9d cf 3e
       0.57717955 0.59573793 0.5482856 0.40549785
000050 e0 56 16 3f 79 95 08 3f 13 1f fc 3e 25 8a 23 3f
       0.5872631 0.5335308 0.49242458 0.63882667
000060 41 cb 06 3f dc fe 0e 3f be bb 23 3f 23 60 22 3f
       0.5265389 0.55857635 0.63958347 0.63427943
000070 0c 81 f0 3e da 5e f9 3e 58 c9 06 3f d3 01 03 3f
       0.46973455 0.48705178 0.52650976 0.5117466

in3.bias f4 [32]
000000 fb 23 21 be b9 96 db bd b8 3e 9b bd d8 b3 06 be
       -0.15736382 -0.107221074 -0.07580322 -0.13154542
000010 6b 2d 5f be 99 23 90 bd 6f 98 9b be 19 b1 33 be
       -0.2179467 -0.0703804 -0.30389735 -0.17548026
000020 55 5e fb bc e2 a8 37 be c3 93 96 bd 67 a1 07 be
       -0.03068463 -0.17935517 -0.07352402 -0.13245164
000030 ca 95 34 be 05 72 9e be fc 7a 2d bd 31 81 41 be
       -0.17635265 -0.30946365 -0.042353615 -0.18896939
000040 96 b6 3d be a9 d1 83 bd cf 0c 6d be 84 15 4d be
       -0.18526682 -0.06436474 -0.23149417 -0.20027739
000050 cf 3b 8b bd af ec 4e be fa 96 10 be 56 fb b9 bd
       -0.06798517 -0.20207475 -0.14120093 -0.09081142
000060 a6 bc ff 3c 3a 59 0f be d7 86 9c bd 3e 80 01 be
       0.031217884 -0.13998881 -0.07642906 -0.12646577
000070 5d 38 1d be a6 72 47 be 7e 5e 14 be e1 ee ec bc
       -0.15353532 -0.19477329 -0.14489171 -0.0289225

resnets.0.conv1.conv2d.weight f4 [32, 32, 3, 3]
000000 86 00 3d bd b9 d9 19 ba a5 ae 8b bc 80 9c 29 bd
       -0.046143077 -0.000586893 -0.01705105 -0.041409016
000010 5a 8d fe bd 4e 6d b0 3b c9 a9 86 3d 3e fe 75 bd
       -0.124293044 0.005384124 0.06575353 -0.060056917
000020 e6 3e 31 bd 9c 01 81 bd c6 02 07 be 6c 20 bf bd
       -0.043272875 -0.06299135 -0.13184652 -0.09332356
000030 e9 14 f8 bd 8c 80 2e be 94 66 1a 3e f5 58 e5 bd
       -0.12113363 -0.17041224 0.15078193 -0.11198608
000040 bf b1 ae 3d 02 9f 9a bb 67 bf 1c 3d 8e 42 53 bd
       0.08529996 -0.0047186622 0.038268473 -0.051577143
000050 82 2c 30 3b e3 27 28 3b d6 a7 0d 3d 2a e5 52 3b
       0.0026881997 0.002565854 0.03458389 0.003218005
000060 29 33 96 3d 8e 30 45 3d 1a 6d 9e 3d e4 91 09 3d
       0.07333977 0.04814201 0.07735653 0.033586398
000070 0c c7 78 3d c5 bf 8d bd b1 04 7e 3c 74 96 64 bd
       0.0607367 -0.06921343 0.015504048 -0.055807546
000080 73 bb d5 bc 18 b0 88 bc 12 57 ce bc 3b 39 1c be
       -0.02609036 -0.01668553 -0.025188003 -0.15256207
000090 0d 8d 4b 3b fc 5d 33 be 5d b3 e7 bd 7c e3 72 bd
       0.0031059415 -0.17516321 -0.11313508 -0.059298977
0000a0 2c 15 b2 bc 9f 17 0f be 5a 7f be bd 61 65 78 bd
       -0.021738611 -0.13973854 -0.09301634 -0.060643557
0000b0 e7 da ab bc b3 8c bb bd 26 f5 83 3c f6 f4 1f 3d
       -0.020978404 -0.091576956 0.016108107 0.039051972
0000c0 72 14 69 bc 10 d6 80 bd 19 2f 84 3d 36 3f 6b 3d
       -0.014226066 -0.06290829 0.06454296 0.05743333
0000d0 16 20 bd bc b2 7a 6c 3d 82 a5 fd bd 63 2a 77 bd
       -0.023086589 0.0577342 -0.12385084 -0.060343158
0000e0 e7 7d 51 bb 11 82 95 bd 5b 55 4a be 2d 6c 9c bd
       -0.0031965913 -0.07300199 -0.19759123 -0.076378204
0000f0 46 84 e4 bd 9c f6 c4 bd 79 95 1d be d8 83 8a bc
       -0.11158042 -0.096173495 -0.1538905 -0.016908571
000100 dc 20 a2 3c db c3 83 ba 0d 51 ec 3c 5b e9 30 3d
       0.01979106 -0.0010052876 0.028847242 0.043191295
000110 b2 bd c9 3c 1c c9 79 3c 1a c0 0c be f5 1f 21 bd
       0.024626587 0.015245702 -0.13745156 -0.039337117
000120 28 86 e0 3b 2f 91 0b bd ee 66 fb bb d2 58 64 3d
       0.00685193 -0.034074005 -0.0076721823 0.05574877
000130 fc 17 86 bd fa e5 b1 3c 7e 30 cb 3d 50 41 d8 bc
       -0.065475434 0.021716107 0.099213585 -0.02639833
000140 ff 0b 0f bd d0 0a b6 bc 52 f3 ab 3c 73 7b 5f 3a
       -0.03492355 -0.022221953 0.020990048 0.000852517
000150 39 24 c5 3c 46 26 89 3d 6c f4 f4 3c 5d 11 a6 3a
       0.024065124 0.06696753 0.029901706 0.001266997
000160 2f c7 26 bd fb 12 15 3c 08 56 ba 3d 9d 63 12 bd
       -0.0407173 0.009098764 0.090984404 -0.03573953
000170 6d d0 7b bd aa c0 51 3a 5c fc 73 3d f1 2c 3c 3d
       -0.061478067 0.00080014265 0.05956684 0.045941297
000180 2e d6 e4 bd 3e 07 d3 bb 55 18 15 bd 51 5f 63 bd
       -0.11173664 -0.0064400723 -0.036400158 -0.055510823
000190 b6 52 aa 3b 47 76 07 3d 38 71 96 3a 0b 78 46 bc
       0.005197848 0.033071782 0.0011477834 -0.012113581
0001a0 1c 75 ad bd 40 e9 2d 3d b1 53 1a 3c 12 ce c7 bc
       -0.084696025 0.042458773 0.009419368 -0.024390254
0001b0 c9 35 47 3c 0d 68 8b bc df 92 e1 bc 73 1a 03 be
       0.0121588195 -0.017017389 -0.027535854 -0.12803058
0001c0 59 49 d9 bd bb 45 56 3c 09 b6 0d be d9 db b1 bd
       -0.10609693 0.0130781485 -0.13838972 -0.08684511
0001d0 3d 31 44 bd bb 7d 93 3d 9c 76 c2 bd 34 b3 ea bc
       -0.04789852 0.072017156 -0.09495279 -0.028649904
0001e0 ac ca 59 bd a1 36 78 bd a4 c6 00 be 40 73 00 bc
       -0.0531718 -0.060598973 -0.12575775 -0.007839978
0001f0 f0 40 e0 bc ed 12 48 be a7 4d ea bc 58 98 01 3b
       -0.027374715 -0.1953847 -0.02860148 0.0019774642
000200 53 4f af 3c 01 00 3a 3e a2 23 b3 bc d7 fd 6c bd
       0.02140013 0.18164064 -0.021867577 -0.057859268
000210 85 26 7e bd f0 03 43 3c 53 0c 0f bd da 31 6c bd
       -0.062048454 0.011902794 -0.034923863 -0.05766473
000220 cf 38 24 be 91 b8 0f be 88 86 56 bd 85 3d ce bd
       -0.16037296 -0.1403525 -0.052374393 -0.10070328
000230 86 9e f8 bd 80 94 a5 bd fe 18 de bd b2 da 5e 3d
       -0.12139611 -0.08084965 -0.10844611 0.054407783
000240 17 ab 29 bc 24 f5 23 bc 99 1f 91 bc 8f 94 a2 3b
       -0.010355732 -0.010007177 -0.017715262 0.004961557
000250 cb f5 3c bd 38 6a eb bd 65 de ad bc f2 2c 44 3d
       -0.046132844 -0.11494869 -0.02122421 0.047894426
000260 1a 28 2a bd b7 54 db 3c 88 72 5d bd 7a d7 a9 3c
       -0.04154215 0.026773794 -0.054064304 0.02073263
000270 84 4f 12 3a d4 19 9f 3d c8 2c ce bd ee 91 e3 bc
       0.0005581307 0.07768598 -0.10067135 -0.027779546
000280 a6 45 90 bd ef d3 0b 3c c3 60 e0 bb bb f5 9f 3d
       -0.070445344 0.008534416 -0.0068474724 0.07810541
000290 5a 7e 64 3d 7c af ee bd 73 96 aa bd 4c 27 15 bd
       0.05578456 -0.11654565 -0.08329477 -0.03641443
0002a0 28 25 c7 3d ec 4d 02 bd cd dd 03 3c 76 74 17 3c
       0.09723884 -0.031812593 0.008048487 0.009244075
0002b0 a2 22 6e bd c5 e4 c9 bc bb 0b 26 bd 86 e9 b4 bc
       -0.058138497 -0.024645219 -0.04053853 -0.022084009
0002c0 75 6f b5 3b 4f 67 99 bd 35 27 26 3b e8 b7 36 3c
       0.0055369684 -0.07490408 0.002535296 0.011152245
0002d0 cf b4 6d 3d 0b 2f 7d 3d ce e6 b2 3d 4e e3 b8 3d
       0.05803376 0.06181244 0.08735429 0.0902773
0002e0 02 dc 8d bd 84 d2 5a 3a f7 83 d0 3d 77 01 86 bc
       -0.06926729 0.00083474093 0.1018142 -0.01635812
0002f0 1c b6 0e 3a 01 5a 06 bd de 7b 72 3d 52 6c db 3d
       0.00054440065 -0.03280068 0.05920016 0.1071402
000300 a2 3b 8f bd 96 5b 1f 3b 32 a0 92 bd b1 ec 59 3c
       -0.06993796 0.0024316064 -0.07159461 0.013301061
000310 d3 9e fe 3c ff ec d0 3c 1a 13 1f be de dd 81 bd
       0.031081593 0.025503634 -0.1553463 -0.06341146
000320 53 f8 de 39 4e e4 0e be 15 1a 89 bc 9f 5d 2f be
       0.00042528156 -0.13954279 -0.01673607 -0.17125557
000330 b6 93 97 bb 38 cc 14 be f5 b5 01 be 05 d1 4e bd
       -0.004625763 -0.14531028 -0.12667067 -0.050492305
000340 9e b7 92 3d d1 ee 58 3c dd 8c 9e bd 39 10 70 bd
       0.071639284 0.013240532 -0.07741711 -0.05860922
000350 27 c0 9e bd be 49 e3 3b 0b 2e 79 bd 5b e8 01 bd
       -0.07751494 0.006936281 -0.060834926 -0.031715732
000360 5a 52 17 bc 47 e6 83 bd 7a 77 c4 3c 35 9d 7e 3c
       -0.009235943 -0.06440406 0.023982752 0.015540411
000370 54 33 78 bb df 3e 50 be 0d e2 38 3d 8e d4 d8 bd
       -0.003787239 -0.20336483 0.045137454 -0.105874166
000380 db ea 5f 3d c4 c4 4c bc 6d 9b d4 3c 47 19 67 3d
       0.054667335 -0.012498084 0.025953019 0.05642059
000390 ca 3f 2b bd 53 4c d2 bb da 45 f4 3b d5 dd 5d 3c
       -0.04180888 -0.00641779 0.007454616 0.013541658
0003a0 5c 1b 56 bd ee 34 40 bd 16 fc 66 bd 25 18 54 3d
       -0.052272186 -0.046925478 -0.05639275 0.05178084
0003b0 21 6a 84 3c e8 97 13 be 0d 8f 09 be cc c6 60 3d
       0.016163887 -0.14413416 -0.13433476 0.054877087
0003c0 d5 fd 8a bc 62 5c 35 3c f4 52 cd 3c 03 0c 3f bd
       -0.01696674 0.011069389 0.02506397 -0.046642315
0003d0 02 d1 c8 bd 76 91 0d bb a0 99 c5 bd 26 3b 0a 3d
       -0.0980549 -0.0021601594 -0.09648442 0.033747815
0003e0 65 a6 30 3e 1e 8d bd 3c a5 2f 6a 3d e5 29 52 bc
       0.17250974 0.023138579 0.057174344 -0.012827371
0003f0 dd cd 0a bd 59 ac 4a bc 67 ce 27 bc ef 93 25 3d
       -0.033887733 -0.012370192 -0.010242081 0.040424284

resnets.0.conv1.conv2d.bias f4 [32]
000000 62 06 32 3d 1c e5 b8 3d 24 b1 08 3e 09 0b b9 3d
       0.04346312 0.09028074 0.13348824 0.09035308
000010 f5 c1 e2 3c 90 c0 d5 bc 71 7d a7 3d 76 49 04 3c
       0.027680377 -0.026092798 0.08178223 0.008074155
000020 8a 2e d9 3d 97 37 4e 3c d6 70 05 3d 4b 6a 22 3d
       0.1060458 0.012586496 0.03257831 0.03965215
000030 b4 32 a7 3d ee 3e 44 bd 35 ab 6d 3d ec 71 e0 bd
       0.08163968 -0.047911577 0.058024604 -0.10959229
000040 d4 39 30 3d 40 1b c2 bd 2e d8 99 3c 86 30 97 bd
       0.0430239 -0.09477854 0.01877984 -0.07382302
000050 41 40 06 bd c3 d5 0e 3e db 59 e7 3c 6d a8 0c be
       -0.03277612 0.13948731 0.028241089 -0.13736124
000060 f7 49 a0 3d d7 91 e3 3d fb f8 f9 3d b7 4a 14 be
       0.07826608 0.11111801 0.122056924 -0.14481626
000070 50 5c 03 3e c0 47 36 bd a8 e9 f4 bb 93 55 57 bd
       0.12828183 -0.04450202 -0.007474143 -0.052571844

resnets.0.in1.weight f4 [32]
000000 e5 4c 84 3f eb 7b 67 3f 0c 57 85 3f e7 86 5c 3f
       1.0335966 0.9042346 1.041719 0.86143345
000010 a3 27 99 3f dc cb 62 3f 33 81 7c 3f da c0 55 3f
       1.1965221 0.88592315 0.9863464 0.83497393
000020 eb 40 70 3f 0e 3a 7a 3f 3d 83 80 3f de 83 55 3f
       0.93849057 0.97744834 1.0040051 0.8340434
000030 de 3e 84 3f 34 0c 7d 3f 05 0f 56 3f e9 b8 65 3f
       1.0331686 0.98846745 0.8361667 0.89735276
000040 46 b3 82 3f 5f 9b 62 3f 68 82 80 3f 0f e3 6d 3f
       1.021096 0.8851833 1.0039797 0.9292459
000050 67 02 81 3f 43 e2 86 3f 30 2c 83 3f 9e 63 82 3f
       1.0078858 1.05378 1.024786 1.0186651
000060 b2 b3 74 3f f1 41 8b 3f 86 d8 80 3f d9 ed 56 3f
       0.95586693 1.0879499 1.0066078 0.83956677
000070 a8 0e 83 3f 9f fb 8b 3f fb 9f 74 3f 6e 68 85 3f
       1.0238848 1.0936164 0.9555661 1.0422494

resnets.0.in1.bias f4 [32]
000000 2e b7 81 bd b8 a5 17 3e a8 cc d2 bd ec fb 88 3d
       -0.06333767 0.1480931 -0.10292941 0.06688675
000010 36 53 a5 bd f7 b4 cb bd c7 43 db bd 07 ff 92 3d
       -0.08072512 -0.09946626 -0.10706287 0.07177549
000020 6f c2 ea bd 8d e5 29 3e 3e 16 f3 be da 8d 09 be
       -0.114628665 0.16591473 -0.47477907 -0.13433018
000030 24 f9 a2 bd 1b 5f 01 3d ac 06 82 3a dd 11 27 bd
       -0.07957676 0.03158484 0.0009920201 -0.04078852
000040 63 8c 63 bd b9 20 28 3e f3 85 d7 bd bb c8 80 bb
       -0.055553805 0.16418733 -0.10523596 -0.003930179
000050 56 19 24 bf 65 c1 39 be 15 60 94 3d 29 65 bc bd
       -0.6410116 -0.1814018 0.07244889 -0.09198982
000060 49 b5 7e ba fa dd 4b 3d 2f 6e be bd b6 18 a1 bd
       -0.00097163446 0.04977224 -0.092983596 -0.07866041
000070 34 20 3a bf 0f 33 22 be 5b 69 70 3c 3b 10 c2 bd
       -0.7270539 -0.1583979 0.014673556 -0.09475752

resnets.0.conv2.conv2d.weight f4 [32, 32, 3, 3]
000000 31 50 00 3d f0 28 6f 3d 68 fb f9 bc 3a 9e 8d bb
       0.031326476 0.05838865 -0.030515388 -0.0043218406
000010 3d 23 82 3d 3e c6 b1 3d bd fc 44 bd a8 4d 45 3d
       0.063543774 0.0868039 -0.048092593 0.048169762
000020 91 e1 81 bc 48 6e 01 bd ee 92 8f bc bd 61 40 bd
       -0.015854629 -0.031599313 -0.017526116 -0.04696821
000030 04 2b 07 bd 81 5b 99 3d 5e f4 fc 3b 7a 29 a6 bd
       -0.033000007 0.07488156 0.0077195605 -0.0811338
000040 6e 75 20 bd 3d 57 13 bd 50 48 56 bd 9f 8b de bd
       -0.03917449 -0.03597187 -0.052315056 -0.10866474
000050 d5 10 6f bd 1a 1f 24 bc e9 b4 c5 3c ef c2 bf 3d
       -0.05836566 -0.010017181 0.024134116 0.093633525
000060 b2 5a 8c bd 26 59 fe bc 14 b2 f0 3c 7a c7 4d 3d
       -0.06853236 -0.031048369 0.02938179 0.050239064
000070 07 c6 0a bd b3 d2 0e bd 75 d4 94 3d 2f da b8 3d
       -0.03388026 -0.034868907 0.072670855 0.0902599
000080 8a ee 26 bc fd 0c c0 3c 06 4e f0 bb a4 eb 25 3d
       -0.010188708 0.023443693 -0.00733352 0.040507928
000090 6b 70 b6 3c c4 f2 ee 3d 42 42 1a bd ed ec 00 3a
       0.022270402 0.116673976 -0.037660845 0.0004918117
0000a0 dd cd 7c 3c e8 eb 40 bd 9d 03 07 be ca 27 ba bd
       0.015429941 -0.047099978 -0.13184972 -0.090896204
0000b0 16 38 e8 bd 47 a3 a4 3d 0b b1 73 bd 9d 99 95 bc
       -0.113388225 0.08038955 -0.059495013 -0.018261725
0000c0 54 c1 82 bd 1c eb b3 bd 91 34 b8 bc 83 62 5d bb
       -0.06384531 -0.08785078 -0.022486003 -0.0033780641
0000d0 69 2d 89 bd 55 8f fd ba 72 46 9b bd 2b e6 b4 bd
       -0.066981144 -0.0019345084 -0.07581796 -0.088329636
0000e0 43 02 8d bd b3 fd 4d 3d c4 e8 03 3d 76 4d d4 bc
       -0.06885197 0.050290775 0.032204404 -0.025915843
0000f0 7a b7 89 bd 39 42 f2 bc 40 07 a0 bd a1 45 01 be
       -0.067244485 -0.029572593 -0.07813883 -0.12624218
000100 fc 84 6b bb 17 5a 81 3d aa bf 47 bd 67 d9 b3 bc
       -0.003593742 0.063160114 -0.04876677 -0.021954251
000110 1f 72 07 3e fb c0 25 3d dc e6 93 3d d1 e7 db 3b
       0.13227127 0.040467244 0.07221767 0.0067109843
000120 ab 32 e6 bd d8 3d ab bb eb c0 7d bd 06 db 37 3d
       -0.11240133 -0.005225878 -0.06195156 0.04488661
000130 f1 80 0c 3e 5b 34 23 3d 88 f8 2c 3d 28 92 53 3d
       0.13721062 0.039844852 0.042229205 0.051653057
000140 92 69 f3 3c 9f 49 f1 3c 5d 90 cd 3c d8 81 b3 bd
       0.029713426 0.02945405 0.025093252 -0.08765
000150 67 ce c0 3d e4 ee 65 3d 93 76 78 3d 5c 0d 5a 3c
       0.09414368 0.056136027 0.060659956 0.013308849
000160 de 03 8f bc 8c d0 c2 bd 0d a7 6d 3d 3a 7d b7 3d
       -0.017457899 -0.095124334 0.05802064 0.08959432
000170 89 a8 fe 3d d0 eb cb 3d c1 4d 21 3e ff e3 f4 3d
       0.12434489 0.09957087 0.15752317 0.11957549
000180 87 c1 11 3e 1f 70 b6 3d 5a 38 71 3e 76 e6 6e bc
       0.14233981 0.08908104 0.23556653 -0.014581313
000190 1c 63 28 3d 41 af 2d 3d 11 69 83 3d 4a f5 c4 3d
       0.041110143 0.042403463 0.06416524 0.09617098
0001a0 6b 74 12 bb 7f be 53 3d c8 cf 0b 3d b0 93 56 3d
       -0.0022347223 0.051695343 0.034133703 0.05238694
0001b0 7c dd c1 bb 55 08 3f bc 36 2a 35 3d ac 38 46 bc
       -0.0059162956 -0.011659701 0.04422971 -0.012098473
0001c0 2b 5f fa 3d e5 16 77 3d 2a 40 3c 3d e0 16 56 bd
       0.12225183 0.06032457 0.04595963 -0.05226791
0001d0 51 59 82 3d 6e 84 19 bd 2e 3a d0 3d 7c c1 41 3d
       0.06364692 -0.03747981 0.10167347 0.04730366
0001e0 95 e5 e9 3c ff 32 95 3d 1e c2 c0 bc 6c e7 32 bd
       0.028551856 0.07285117 -0.023530062 -0.043677732
0001f0 ab 41 31 bc 1e 5f 3f bd 09 a6 5e 3d 45 e6 a1 bb
       -0.010818879 -0.04672157 0.054357562 -0.0049407803
000200 c9 ce 1c 3d 7f a2 88 3d 43 67 a8 3b 09 1a 76 3d
       0.038283143 0.06671619 0.005139263 0.060083423
000210 60 a4 17 bd 53 bc 51 bd 02 57 af bd c9 ef 8e 3c
       -0.037021995 -0.05120499 -0.08561517 0.017448323
000220 91 8e 4a bc ab da 86 bc 61 75 32 bd 76 30 e2 3b
       -0.012363092 -0.01646169 -0.043568972 0.0069027497
000230 5d fe a0 bc e3 3b b3 bd 39 92 ac bd d5 9c 9c bd
       -0.01965254 -0.08751657 -0.08426327 -0.07647101
000240 71 73 75 bd 48 f2 eb 3d 5d e8 25 3d f4 54 7c bd
       -0.059924547 0.11520821 0.040504802 -0.061604455
000250 57 0c d8 3d 21 e7 a3 bc aa 8d e7 bc 76 27 21 3d
       0.10549229 -0.020007672 -0.028265793 0.039344274
000260 a6 52 4c 3c 33 15 1c 3d 18 9c c3 3d ec ef 97 3d
       0.012470877 0.038106155 0.09551257 0.07418808
000270 b6 ba 83 3b d7 8b 3b bd 24 25 91 3d f5 67 8d bd
       0.0040200604 -0.04578766 0.07087162 -0.06904594
000280 47 2b 27 bc 99 78 2b bd 29 af 2a 3c 6d b9 6c bb
       -0.010203189 -0.041863058 0.010417738 -0.0036121265
000290 f2 9c 5a bc 16 1d 99 3c d7 71 d3 ba b8 de 0b 3c
       -0.013343083 0.018690627 -0.0016131949 0.008536987
0002a0 29 87 41 3c b7 d7 d7 bc 56 2a 32 b9 8e dc 86 bd
       0.01181201 -0.026347978 -0.00016991174 -0.06585036
0002b0 8b 73 69 bd 9e 3b f9 bd 80 7b d2 bc 84 2d 09 bc
       -0.056994956 -0.12169574 -0.025693655 -0.008372668
0002c0 2d 29 e5 bc bb 1d 98 bd f2 9d 21 3d b8 87 00 bd
       -0.027973736 -0.07427546 0.03945727 -0.03137943
0002d0 ae 1d de 39 8c 7f cc 3d 06 1c cb bc f4 4e 01 3d
       0.00042365253 0.09985265 -0.024793636 0.031569436
0002e0 84 45 84 3d ff 9e 10 3c 76 9b 0c 3c b7 96 10 3e
       0.064585716 0.00882697 0.008581987 0.14119993
0002f0 b5 d8 0f bd 54 27 b6 3d b3 40 12 3e 24 08 2f bd
       -0.035118777 0.0889422 0.14282493 -0.042732373
000300 f8 64 e9 3b ea 96 91 3e 5d 78 37 3d 17 ec a2 bc
       0.007122632 0.2843545 0.04479252 -0.019887967
000310 62 18 db 3b 69 fb 8e 3d 67 cc 0a be d9 db 0f 3c
       0.0066862563 0.069815464 -0.13554536 0.008780443
000320 4e 90 66 3c 53 51 00 3d 95 61 b3 bc 9a 91 af bc
       0.014072491 0.031327557 -0.021897117 -0.021431733
000330 ed 04 6e bd 5e 99 16 3c 28 04 cb 3b 0e 43 6b 3c
       -0.058110166 0.009191839 0.006195564 0.014359249
000340 a9 93 d6 3c 9a 13 24 bc 01 63 73 3a b0 c1 90 bd
       0.026193457 -0.010014439 0.0009284467 -0.07068193
000350 f3 3a 35 bd 67 2b 6c bd e2 75 68 bd 7d bf c7 bd
       -0.04424567 -0.05765858 -0.056753047 -0.0975332
000360 8d ea 46 3b 06 ac f3 b9 91 86 e3 3c df 3b c9 3d
       0.0030352206 -0.0004647674 0.027774127 0.09825873
000370 f5 c9 04 3e d1 61 99 3c b4 ff fa 37 1c 58 22 3d
       0.12967665 0.0187234 2.9921393e-05 0.03963481
000380 74 50 ed 3c f9 e7 90 3b ed 6e 29 bb 4d 4b d0 3c
       0.028969027 0.0044221845 -0.002585347 0.025426531
000390 c6 e0 b5 3c 15 8d 19 3d f3 b7 a6 3c f7 55 ed bc
       0.022201907 0.037488062 0.020351386 -0.028971655
0003a0 f1 88 38 3c 71 af 6e bd 35 9d 90 3d 3f cd 13 bd
       0.011263118 -0.058272783 0.07061235 -0.03608441
0003b0 91 e6 4a bd 69 4a 78 3d 1e 6b 47 bc 4e e1 a5 bd
       -0.04953629 0.060617838 -0.012171535 -0.08099614
0003c0 7c 3a f8 3b 43 f9 b0 bd 6b 18 0b be 51 85 58 bd
       0.0075753313 -0.08641293 -0.13583533 -0.052861515
0003d0 04 eb 81 bd 83 06 70 bd e0 c2 b0 bd 39 f5 ab bd
       -0.06343654 -0.05859996 -0.086309195 -0.08396382
0003e0 95 cb b3 bc 9d e9 c3 bc b5 ad cc bc d6 f7 43 bd
       -0.021947661 -0.023915106 -0.024985174 -0.047843777
0003f0 c0 68 7a 3c aa 8c 2d 3e 1a 97 87 bb 3d b4 b7 3d
       0.015283763 0.1694819 -0.0041378858 0.089699246

resnets.0.conv2.conv2d.bias f4 [32]
000000 93 a4 72 bc 05 b6 07 bc c8 c9 31 bc 99 d4 16 3e
       -0.014809745 -0.008283143 -0.010851331 0.14729537
000010 33 63 d1 3d 9c bf 35 3d 4b b9 a2 3d 0f f5 96 3d
       0.10223999 0.044372186 0.07945498 0.0737096
000020 11 f7 8b bd 26 2f 87 bd 34 79 49 bd d9 cf bb bd
       -0.068342336 -0.0660079 -0.049187854 -0.09170503
000030 ee 3c e6 bd fe c2 66 bd 40 4b 68 3d 6b c3 d6 bd
       -0.1124209 -0.056338303 0.05671239 -0.10486492
000040 b4 f7 a7 bd f5 66 e0 3c b0 6c ad bd 78 2f ab bd
       -0.082015425 0.027392844 -0.08467996 -0.08358663
000050 d2 1e b7 3b 8f 22 e5 3c af 7d 24 3c b5 e1 b4 3c
       0.005588391 0.02797058 0.010039731 0.022080282
000060 33 eb b2 3c 83 fe 15 3d 6d 1f f4 bc ff 26 79 3c
       0.021840667 0.036619674 -0.029800141 0.015207051
000070 e3 cc 22 3d ba 29 87 bd cf 61 ca bd d8 89 65 bc
       0.039746176 -0.065997556 -0.09881937 -0.014009915

resnets.0.in2.weight f4 [32]
000000 e7 6e 32 3f fd 5b 2e 3f 4d 98 2d 3f 4e 7e 1e 3f
       0.69700474 0.6810911 0.6781052 0.61911476
000010 a5 fa 6d 3f 02 b6 3e 3f 10 ba 34 3f 89 1e 19 3f
       0.9296058 0.7449647 0.7059641 0.5981222
000020 fd 29 3e 3f 8b cb 42 3f a3 f5 3b 3f 1d 9e 35 3f
       0.7428282 0.7609183 0.73421687 0.70944387
000030 73 aa 23 3f 35 ca 2a 3f c5 77 30 3f c9 47 62 3f
       0.6393196 0.66714793 0.68932754 0.88390785
000040 33 aa 54 3f bf 47 38 3f 84 0d 2a 3f 19 00 4c 3f
       0.83072203 0.71984476 0.66426873 0.7968765
000050 92 4d 3c 3f 86 15 36 3f b9 43 24 3f ff 08 60 3f
       0.7355586 0.7112659 0.64165837 0.87513727
000060 1a 6c 58 3f ae b0 4a 3f d4 77 41 3f e7 9e 36 3f
       0.8453995 0.7917584 0.7557347 0.71336216
000070 d6 ff 36 3f 2e f2 2b 3f 0a d1 2d 3f e6 e2 42 3f
       0.71484125 0.6716641 0.67897093 0.7612747

resnets.0.in2.bias f4 [32]
000000 09 61 c5 3d 86 95 11 bd 41 ba 2c bc 18 09 5b 3d
       0.096376486 -0.035542987 -0.010542453 0.05347547
000010 bb 70 c0 3d e7 52 90 3d e5 2f a7 3d a3 94 07 3d
       0.09396502 0.07047062 0.08163432 0.033100735
000020 d9 95 04 be ef be 0a bd 45 79 89 bd 32 4f 34 bd
       -0.12947787 -0.033873495 -0.067125835 -0.04402084
000030 aa 01 f8 bc d1 7a 25 bd ef 26 9a 3d 31 fd 7c bd
       -0.030274231 -0.04040033 0.07526957 -0.0617649
000040 4b bc 74 bd 5a 07 1d b9 ab 21 fc bd f1 c2 29 bd
       -0.059749883 -0.00014975425 -0.12311109 -0.041445676
000050 2c 11 f4 3d 3a 43 17 3d f8 f1 4b bd fd ea 5b bc
       0.11917338 0.036929347 -0.049791306 -0.013422725
000060 09 d7 09 3b 0c 8a 97 3d 19 5d f5 3c 0d 32 d8 3c
       0.0021032712 0.07399377 0.029951619 0.026391054
000070 f6 46 0b bd 23 21 4f bd 20 02 81 bd 4a 3b c1 bb
       -0.03400322 -0.05056871 -0.062992334 -0.0058969604
