Assets/Style_Transfer/Models/Estilos fallidos/intento_5.1.onnx (onnx, 449372 bytes, 62 tensors)

conv1.conv2d.weight f4 [8, 3, 9, 9]
00000000: cd0c 263d 5ddd a9bc fc97 e7bd e862 36be
00000010: dba8 21be d78d e8bd 9e6c 6fbd d111 68bd
00000020: 0153 cb3d 9c5f 063d 138c a8bd 00e1 47be
00000030: dfb1 0bbe 4347 9f3c 8eac 3d3b bb10 c6bd
00000040: 0661 a6bb c4b5 5d3d d2eb 75bd 1a75 2ebe
00000050: 1db5 91bd 5714 f43d bfc3 633e 03d4 8d3e
00000060: 3121 043d 63a6 05be 7472 87bd 617c 0bbe
00000070: d29a fbbd b680 133d 9cc0 ba3d 0fc5 e4bd
00000080: 6ee3 c53d bc91 b93e b353 073d 99a9 e7bd
00000090: e704 5abe 0232 a0bc 7e0a 973d c76e c5bd
000000a0: 5bb3 cabd e3dc 723d c5a3 3f3e 56d1 b83d
000000b0: 62f6 0cbe fe60 6cbe 7d84 083c 032f 583d
000000c0: 933f 5c3a acb2 37bd 8e01 f1bb 6d6c 2cbd
000000d0: fd7d 7dbc 34f7 b0bb 3d43 dcbd 312f 50bd
000000e0: e4a1 3a3d 7fa6 b1ba d377 79bd 12ae 9bbd
000000f0: 31e8 5bbd ea45 6e3c 412c 8ebd f083 abbd
00000100: 1f06 85bd b4bf 4b3d 7400 cabb 045b 1fbe
00000110: a405 72bb d221 113c 4ceb d4bd c15f 38bd
00000120: b883 8fbd 2b89 92bd 4cf5 1dbc 32d1 25bd
00000130: 18a9 16be ae84 2d3c 32ca 26bd 80c6 0bbe
00000140: 38ef 4fbc 3b69 7abc 69a5 983b 7a00 90bd
00000150: 939c 8cbd 179c e4bc e035 61bd 17f2 e1bc
00000160: a37f 433d 7765 c03c 656b debd 5022 f4bd
00000170: e991 03be 92de 3a3d ee4d 2d3e b757 6f3e
00000180: 0cc5 cb3c 4840 7c3d aca4 953d 11ca 1dbd
00000190: 273f 34be 8cf8 8cbc 24e8 5b3e 39f5 b63e
000001a0: 9805 bc3e d3fb 693e 9c53 013c e537 00bd
000001b0: 52a6 3ebe 3687 14be d4eb 403d 029c 0a3e
000001c0: 045c e53d ae63 c83e 714d ee3e 03d3 2b3e
000001d0: d143 e4bd d9bd 9fbd ebb0 053d 4ba1 ea3d
000001e0: b05e 4fbc 9fa6 8dba 317c a33e 4458 c93e
000001f0: 74f1 4c3e 14f3 69bd fd15 0abe e411 633c
00000200: 986c 993d 01fb 093e e029 2c3e 8084 f53d
00000210: 7cc6 303d b056 063e 5ddc 4bbb 027d 03be
00000220: 810c 30bc 38f4 b03d d402 a73d 7580 3a3c
00000230: 026b 86bb c07b 983d e724 acba 5fbe d43c
00000240: 4114 47bd 52ed bdbb e253 563e 192d f33d
00000250: 831e b1bd 6528 943d 0d83 f03b a12d 95bc
00000260: 06eb 08bb fa2e 7cbd bae9 4ebd 5d32 4b3d
00000270: 9af0 b63c e5e0 dfbc 9703 0f3d dea1 25bd
00000280: c6ee 4abc f092 9d3d 9046 18be c034 50bd
00000290: 2f2a 49be d0c9 3cbe 32a2 c2bd 5ef0 05be
000002a0: 07ee a9bd ea62 89bc 83fa 40bc ec8c 28be
000002b0: 3192 03be 13fe 85be d78f ddbd 01e4 a73d
000002c0: 429f ac3d 7b10 2cbb b739 d4bd 544d 37bd
000002d0: e74f 0cbe 6477 35be 2b3c 08be 8105 c43d
000002e0: 01af 893e a071 643e 18d5 253e fea1 03be
000002f0: 37d0 d9bd 9814 d8bd b19f b8bd ff02 283c
00000300: 9a35 25bd 2722 15bd 4dc6 aa3e 0a1d e03e
00000310: 4ad8 e33d 6020 cbbd c9d6 18be 7dac f9bd
00000320: f770 6d3d 9e6c 79bd fa6e 7ebd 6438 8e3e
00000330: 33c6 ad3e 3106 053e 1417 bfbd 16ae 05be
00000340: 734b 2cbc d196 573d 459c babd 3195 8c3d
00000350: 76f0 573d 0d0b 363d 7a76 b03c bde3 96bd
00000360: 1695 2fbc 996d 633d 26cd a43c 8eee ed3c
00000370: 672e 043c 8839 41bd 9b2e f6bb 8358 073d
00000380: 2acd b83b 0a35 523d f753 2e3d 70aa ff3d
00000390: 321c 623d 641c c63c 481f 973d f4ce b83d
000003a0: 4897 fdbc c6c2 213d e56a 88bd d2a7 d4ba
000003b0: 8212 1abc f59c 0ebd 2a98 21bd 6f98 a6bb
000003c0: ece1 89bb 581d ecbd 4df3 5e3d 5051 bc3c
000003d0: 58f8 aa3c 1796 343d f0e9 b83d e464 21bd
000003e0: db75 4d3d bd4e 4fbc d966 96bd c682 8dbd
000003f0: f37b 183d bb5b 853d 393e 063e 67bf 603e
0.04053955 -0.020735437 -0.113082856 -0.17811167 -0.1578707 -0.11355179 -0.058453195 -0.056657616
0.09927941 0.032806024 -0.08229842 -0.19519424 -0.13642071 0.01944316 0.0028941962 -0.0967116
-0.005077484 0.054128423 -0.06003935 -0.17036858 -0.07114623 0.11917942 0.2224264 0.27700815
0.032258216 -0.13051753 -0.06613627 -0.13621666 -0.12285389 0.03601142 0.091187686 -0.111703984
0.096625194 0.36244 0.033038806 -0.11311645 -0.21290933 -0.019555096 0.07375048 -0.0964027
-0.098974906 0.059292685 0.18714817 0.09024303 -0.13765863 -0.23083875 0.008332369 0.05277921
0.0008401807 -0.04484813 -0.0073549217 -0.04209559 -0.0154719325 -0.0054005627 -0.10755012 -0.050826255
0.045564547 -0.0013553648 -0.06090529 -0.07601561 -0.05368823 0.014543036 -0.069420345 -0.083747745
-0.06495308 0.04974337 -0.006164605 -0.15562063 -0.0036929632 0.008858161 -0.10396442 -0.045013193
-0.07007545 -0.07155069 -0.009641003 -0.040482707 -0.14712942 0.010590715 -0.040720172 -0.1364994
-0.012691312 -0.015283878 0.0046583903 -0.07031341 -0.06865802 -0.02790646 -0.05498302 -0.027581258
0.047729146 0.023485882 -0.10860328 -0.11920607 -0.12848629 0.045622416 0.16924259 0.23373304
0.024874233 0.06158474 0.07306799 -0.038522784 -0.17602216 -0.01720836 0.21475273 0.35733965
0.36723018 0.2284997 0.007893469 -0.031303305 -0.18618134 -0.14504704 0.047099903 0.13536075
0.11199191 0.3913855 0.46543458 0.16779713 -0.111457475 -0.077998824 0.032639425 0.114565454
-0.012656853 -0.0010807103 0.31930688 0.39325154 0.20013982 -0.057116583 -0.1348495 0.013859246
0.07491416 0.13474657 0.16812849 0.11988163 0.04315804 0.13119006 -0.0031106689 -0.12840655
-0.010745169 0.08640331 0.08154836 0.011383166 -0.004102112 0.074454784 -0.0013133556 0.025969682
-0.0486033 -0.005796113 0.20930436 0.11873836 -0.08648398 0.07234267 0.007339841 -0.018210234
-0.0020892038 -0.061568238 -0.050515868 0.049608577 0.022331525 -0.027328918 0.034915533 -0.04043757
-0.01238603 0.07694042 -0.14870667 -0.050831556 -0.19644998 -0.1843636 -0.095035926 -0.13079974
-0.08297353 -0.016770799 -0.011778477 -0.16460007 -0.12848736 -0.26170406 -0.10818451 0.08197785
0.084288135 -0.002625494 -0.10362571 -0.04475148 -0.13702355 -0.17721325 -0.13304202 0.09571362
0.2689133 0.2230897 0.1619457 -0.12854764 -0.10635417 -0.10550803 -0.09014834 0.010254621
-0.04033432 -0.036409523 0.33354416 0.43772155 0.11125238 -0.099182844 -0.14925684 -0.12191103
0.05796906 -0.0608946 -0.062117554 0.27777398 0.33940277 0.12990643 -0.09330574 -0.1305469
-0.010516035 0.052634064 -0.09111837 0.068643935 0.052719556 0.044444133 0.021540869 -0.073676564
-0.010716697 0.055524442 0.020117354 0.029044416 0.008067704 -0.047174007 -0.00751288 0.033043396
0.005639692 0.051320113 0.042560544 0.1248368 0.05520267 0.02418346 0.07379013 0.09023848
-0.030955926 0.03949239 -0.066610135 -0.0016224331 -0.009403827 -0.034817655 -0.039451756 -0.0050840895
-0.00420784 -0.115290344 0.05443125 0.022987992 0.020870373 0.04408845 0.09028995 -0.039402857
0.050161224 -0.01265305 -0.073438354 -0.06909709 0.037227582 0.06511637 0.13109674 0.21948014

conv1.conv2d.bias f4 [8]
00000000: dc9f 8d3e 1ce9 b53d 93fe e3bd d960 b0bc
00000010: 5f09 04bc ee57 52bd 73cc 06bd 1b55 0bbe
0.27661026 0.08882353 -0.111325406 -0.021530556 -0.008058875 -0.051353388 -0.03290982 -0.13606684

in1.weight f4 [8]
00000000: 862e 5c3f c1fa 793f 525e a43f 2fce 683f
00000010: 2821 773f 1660 8d3f 7d92 893f feff 6a3f
0.8600849 0.97648245 1.2841284 0.9093961 0.9653497 1.1044948 1.074783 0.91796863

in1.bias f4 [8]
00000000: 3d63 1f3f 6543 023f 89e7 173f 8cd3 f13e
00000010: c300 883f 38b1 cf3f 0439 a63f 5fdd 683f
0.622608 0.50884086 0.5933767 0.4723171 1.0625232 1.6225958 1.298615 0.90962785

conv2.conv2d.weight f4 [16, 8, 3, 3]
00000000: 745f 77be f0c4 bdbe 9fdb acbe 41e2 24be
00000010: c182 3cbd b70f a8bd 1e85 8abe 86cd b1be
00000020: 6260 32be bf97 07bd c152 26bd 3d47 30be
00000030: d514 11bd fb16 6ebd a827 97bd 877e 64be
00000040: cae5 4cbe 484b 34be 45b4 25be b4c3 5bbe
00000050: 57dd 17be b4ee 9dbe cea5 99be da8c 56be
00000060: dccc 7bbe 23f9 06be 4ba9 3ebe 463b 263d
00000070: 515a 283e 962e 453e 8277 14bd 4a06 95bd
00000080: ca80 133b 0e0a dc3d ff96 11bd 2d02 01be
00000090: 8e64 e03d 8f41 b0bc bccc 513e 64b8 093d
000000a0: 2594 19bc 0968 1bbe a418 18be 4ec3 5fbe
000000b0: 76e2 a4be d8fd 21be c80b 74be b9fb c13c
000000c0: 4539 70bd a603 62be ce6c e5bd 2f2a 96bd
000000d0: 153a 4fbe 4e9d 4b3d a857 0ebe f32b 56bd
000000e0: 8044 c9bd 5082 a33c f57b 893d 9c94 b03d
000000f0: 643f ad3d 9a68 b93c a4e8 4e3d 0487 89bd
00000100: 7f9c debd 3c21 85be c15e d7bc 4f1b 4a3d
00000110: 763a 95bd 3e9f 833d 6c2a 723d 17d6 6a3e
00000120: d25f 673c 897b 87bd fa2e bbbd 3da2 3ebc
00000130: e079 36be 00a6 26be a0c7 1b3e 382f 843d
00000140: 8228 cdbc c4a0 123d 175d 53bd 5dff 8bbb
00000150: 446f 09be 5b63 82bd 1609 653c 8500 553c
00000160: b97e 8cbc 8e62 ce3d ec68 c1be 7b4d 0abe
00000170: de97 5d3c 0cf5 22be 912a 143e 181c 933e
00000180: e6cb 9abd f5de c63d 6927 d13d 8a92 e63e
00000190: ee75 033e c11b 2ebe e032 223e 7f9f 90be
000001a0: 3b97 9fbe 78a6 aebd cbdf 45be 650d 183e
000001b0: 1dbf 063e 480e 6fbd cc57 cabd aa7b d93c
000001c0: fb6c 51be e587 aa3b a6f0 23bd 0526 05be
000001d0: 2082 d13e 80fc d33c 7e33 fdbe 1231 063d
000001e0: 7f99 66be a059 b0be 8c20 6d3e 3892 f8bd
000001f0: 52b4 253e 0b74 d03e 9139 8a3c a221 0dbe
00000200: 2dfd 9c3d 8983 743b a158 0bbd 9c58 553e
00000210: 37ae 2dbe ce44 80bd 8027 7fbd c00b 2a3e
00000220: b1bb 4cbe e0f8 f93c ce56 de3d 742f 5fbd
00000230: 9690 273e 21bf 063e e741 db3d 4ede 523e
00000240: a127 d33d 37c6 f1bd b9ee 20be 2286 73bb
00000250: 5e42 49be cb2d 39be c511 cbbe 444a d3be
00000260: e9b7 cfbe 3cb6 1a3e e818 6cbb 1f42 9d3c
00000270: 782a 923d 0b01 e43d e96d cfbd 1b25 263d
00000280: b574 54bd 21cb 353d d1ec 2d3e 8ede aebc
00000290: 8ab0 233e 1396 6cbe 72b1 42be d7d2 323e
000002a0: 2a73 25be 6722 283e 7f80 033e a07e dabd
000002b0: e804 953e 4303 acbd b866 223d ac9c 80bd
000002c0: 933e 84be 6f76 2abe 83b6 26be ae69 343c
000002d0: 94bb f83d 0f68 ad3d 19e6 8fbe 104a 11bd
000002e0: 2696 e9bc 905d bcbd 1469 0bbe 92ab 3fbe
000002f0: ee22 b03d 4dcc 243e 696d 6ebe c166 c0bb
00000300: 963f ddbd 109a afbe bb3a b33c a938 52bd
00000310: 32d0 17be fc70 9e3e 66fe eebd 80b8 b6be
00000320: dc87 33be f6c8 a8be 1acb 22be 513b abbd
00000330: cc9b b1bd efaa f4bd c4ac 8f3c 5756 4e3e
00000340: f8ed 5b3e 4365 a6bd 6ae6 cd3d 24ba c6bd
00000350: b9b3 17bd 6102 07be be05 09be 57c2 6a3c
00000360: 5501 c33d 0032 183e 5956 973d 36c0 093e
00000370: ce49 a33e 4b68 b2bd 087f 6b3e 3fc0 0d3e
00000380: bac4 2fbe 6e22 843e 9a4d 113e 1dc0 ec3d
00000390: d8ef 643c d4a4 28be 888d 8ebe 8dce 3a3e
000003a0: 4ce4 21be e9d0 11be 60e7 2d3d f7a5 a43c
000003b0: 1802 843e 88b3 6dbd 073a 8bbe 6f72 2cbd
000003c0: 83bb 70bc b626 14be 2608 66bc 20ae 1e3d
000003d0: b937 56be 96fd 5ebe f543 803d 50a8 f73d
000003e0: 9a9f 03bc f5d1 95bb 6594 d33d 8441 8d3e
000003f0: d1e4 2f3e 1948 253e e094 6a3e 8794 763d
-0.24157506 -0.37064314 -0.33761308 -0.16101934 -0.046023134 -0.08206122 -0.27054685 -0.34727114
-0.1741958 -0.0331037 -0.040606264 -0.17214675 -0.035420258 -0.058127385 -0.07380611 -0.22313891
-0.20009533 -0.17606843 -0.16182049 -0.21461374 -0.14830528 -0.3084618 -0.3000931 -0.20952168
-0.24589866 -0.13180976 -0.18619268 0.04058387 0.16440703 0.19256052 -0.036246784 -0.0727659
0.0022507184 0.10744105 -0.03554439 -0.12598486 0.10956679 -0.021515636 0.20488256 0.033623114
-0.009373699 -0.15176405 -0.1485315 -0.21851847 -0.32204026 -0.1581949 -0.23832619 0.023679601
-0.058648366 -0.22071704 -0.112023935 -0.07332265 -0.20237 0.049710564 -0.13900626 -0.052288007
-0.098275185 0.019959599 0.06713096 0.08622095 0.084593564 0.022632886 0.050514832 -0.06715205
-0.10869693 -0.26001918 -0.0262903 0.04934245 -0.07286541 0.064268574 0.059122488 0.22933231
0.014121966 -0.06615359 -0.091398194 -0.01163536 -0.17819929 -0.16274261 0.1521287 0.06454319
-0.02504373 0.03579785 -0.05160245 -0.004272385 -0.1342135 -0.06366607 0.013979217 0.013000612
-0.01715027 0.100773916 -0.37775362 -0.13506119 0.0135249775 -0.1591379 0.14469363 0.2873237
-0.07558422 0.097104944 0.10212595 0.45033675 0.12837955 -0.17002775 0.1583972 -0.28246686
-0.31170067 -0.08527845 -0.19323651 0.1484886 0.13158841 -0.05836323 -0.09880027 0.026548225
-0.20451729 0.005204188 -0.040024422 -0.13002785 0.4091959 0.025877237 -0.49453348 0.03276164
-0.22519492 -0.34443378 0.23156947 -0.12137264 0.16182068 0.40713534 0.016873153 -0.13782361
0.07665477 0.0037309846 -0.03402007 0.20834583 -0.16960989 -0.062631235 -0.06229353 0.16606045
-0.19993474 0.03051418 0.108564004 -0.054488614 0.16363749 0.13158847 0.10705929 0.20592615
0.10310293 -0.118053846 -0.15716065 -0.0037158807 -0.19654223 -0.18083875 -0.39661995 -0.41267598
-0.4057 0.1510858 -0.0036025587 0.019196568 0.071370065 0.111330114 -0.101283856 0.04056273
-0.051869113 0.044383172 0.1698487 -0.021346357 0.15985313 -0.23104124 -0.19013003 0.17463242
-0.16157213 0.16419373 0.12841986 -0.10668683 0.29105306 -0.083990596 0.03964874 -0.06279883
-0.2582899 -0.16646741 -0.1628056 0.011011524 0.12145153 0.08467113 -0.28105238 -0.035471022
-0.02851398 -0.09197533 -0.13614303 -0.18717793 0.08600412 0.1609356 -0.23283924 -0.005871624
-0.10803144 -0.34297228 0.02187859 -0.051323567 -0.14825514 0.30945575 -0.116696164 -0.35687637
-0.17532295 -0.3296582 -0.1589779 -0.08360923 -0.08672294 -0.119466655 0.017538436 0.20150124
0.21477497 -0.08124783 0.100537136 -0.09703472 -0.03703663 -0.13184501 -0.13381097 0.014328561
0.095217384 0.14862823 0.073895164 0.13452229 0.31892246 -0.087112986 0.22997677 0.13842867
-0.17164889 0.25807518 0.14189759 0.1156008 0.013973199 -0.16469127 -0.27842355 0.18242855
-0.15809745 -0.14239849 0.042456985 0.02009867 0.25782847 -0.058032542 -0.2719271 -0.04210132
-0.014693144 -0.14467892 -0.014040029 0.038740277 -0.20919694 -0.21776423 0.06262962 0.1209265
-0.008033657 -0.004572148 0.103310384 0.27589047 0.1717713 0.16140784 0.22908354 0.06020024

conv2.conv2d.bias f4 [16]
00000000: 345b 283d 607a 063e ebd1 823d 85a6 ffbd
00000010: f1ed 0dbe eabf c23d 16ff 3bbe 18b8 fe3d
00000020: cb87 f1bd 578a cb3b 0a19 203e 0f66 5bbe
00000030: c235 783c d8e8 873e 54a5 0cbd ae5b 6bbe
0.041102603 0.1313262 0.06387695 -0.12482933 -0.13860299 0.09509261 -0.18359026 0.12437457
-0.117934786 0.0062115598 0.15634552 -0.21425651 0.015149536 0.26544833 -0.034337357 -0.22984192

in2.weight f4 [16]
00000000: 9216 f93e 897b 323f 5fdb 153f eb94 233f
00000010: 298f 703f 6bc0 283f 2ded 2d3f d2fc 1e3f
00000020: 7e34 8a3f d022 143f 50e1 ec3e 9ebc 263f
00000030: 469f 583f a91d 3f3f 8d2d 2e3f b88b 5c3f
0.48650032 0.6971975 0.5853786 0.63899106 0.93968445 0.65918607 0.67940027 0.62104523
1.0797269 0.5786562 0.4626565 0.65131557 0.8461803 0.7465463 0.68038255 0.86150694

in2.bias f4 [16]
00000000: 2a8f ddbd 6cc8 4ebe 7593 a7bd 1e4c 443d
00000010: 687e cdbe 5050 7ebb 0d00 b53d 09e1 93bd
00000020: 0c74 363e 9f6a 49be 3b33 debd 71ad 63be
00000030: a062 9cbe 609a 93be d2ee a43e f66c 22be
-0.10818322 -0.20193642 -0.08182422 0.047924154 -0.40135503 -0.0038805194 0.088379 -0.072206564
0.17817706 -0.19669579 -0.10849615 -0.22234131 -0.30543995 -0.28828716 0.32213455 -0.15861878

conv3.conv2d.weight f4 [32, 16, 3, 3]
00000000: 1eb4 2cbe f7d1 6abe c719 c9bd d796 0f3e
00000010: c067 813d eff7 a63d 2473 043e 7520 f43d
00000020: e630 1e3d 6885 0bbe 25d9 f9bd d7d7 923d
00000030: 6d33 57bd 6ec6 d53d 91a2 a03c 9b27 b8bc
00000040: 4032 18bc e190 8bbd a7cc d8bd f899 2fbe
00000050: 5472 96be 2854 003c 4b8c 3a3d 241f 39be
00000060: f1e0 0c3e b7d1 cf3b f920 21bd 5fb1 01be
00000070: 78d7 61be 9b99 01be 68e9 8a3c 99c0 0fbe
00000080: 06df 2dbd b5f9 01be 8030 b0be e96e efbd
00000090: 3272 b93d f7f9 33be 205e 00be 07cf 59be
000000a0: c46d 89be 039f fabd 0e4b 23be d02d 5cbe
000000b0: c92a a43b 55d0 14be 3d09 d83c 41b9 94bc
000000c0: 2fd6 a2be 4751 d7bd e13c 993d 4ebb 08bf
000000d0: 96a7 f9bc cc85 cf3d b5fd c83c 70de c33c
000000e0: 9b6c bcbd 38dc 5bbe fa7e 8abe 8d12 0abe
000000f0: 38c0 3ebe c54e e8bd 5f74 113e fdf4 533d
00000100: 1795 21bc 6895 433d 55ad f53d 7fb1 743e
00000110: 661b 1d3d 1d17 c93d bc7d 1f3e c0b0 48ba
00000120: 1bc6 dabe b8c7 8bbe a506 16be e923 633e
00000130: 6b0c 52bc a70b 9f3b d0ef 4ebe 84e7 90be
00000140: 0e7d 04be 6946 1a3e 972e 38bd 9c26 9c3b
00000150: 704d 95bc 6085 6cbd 386f b6bc 71d6 72be
00000160: a614 44be 45b7 2abd 8366 cebc 1e02 c8bd
00000170: 8025 6abd e665 193d d8c3 203d 8dc6 f0bd
00000180: 5f25 3cbd 7773 053e 1848 a9bd 5ef4 00bd
00000190: d448 ebbd e847 233d 34c0 05be c4fd cdbd
000001a0: 0d7b 923d e5e7 d6bd 35fb 31bd c1b0 103e
000001b0: a7c9 03be c4be 59be 97e1 14be 8cb2 d1bd
000001c0: bd89 efbe f2f7 b63d 83fa 07be b0a7 9abe
000001d0: d665 5f3e b864 023e 2e2e 0d3e 76de 6bbd
000001e0: 79f4 79be 6973 d2bd 96d8 68bd c25d 4fbe
000001f0: c492 33bd e7b3 e33d c596 be3d 559e 073d
00000200: 6e8a 7c3d 554d 853d a6ec fc3d 66a8 403e
00000210: 90c9 abbc 2293 223e 3cdb c23d 5f8e e6bd
00000220: 6990 25be 4362 54be aa15 15be 3e64 94be
00000230: bb0e 60be 17c6 ebbd fd87 f5be 131c 393d
00000240: 7eb8 b63c 2bfb f7bd 9d0b 0fbc 6f25 4d3e
00000250: 9c81 5e3e 80a3 573e 3a5d b53d a21e e43d
00000260: 6337 d03d d9bb 6abe 256d 11be 618a f5bd
00000270: 5548 3bbe 5669 09be 26a8 44bd bd35 0d3c
00000280: cbe9 fbbd d918 b03b b66f 36bd 6ce7 abbd
00000290: 6cb9 9abd dea4 0b3e c4db 913d 83be a93d
000002a0: 16b2 a83b 0ce1 4c3e 1ded 633e a080 f6bd
000002b0: 7993 34be 51a5 e8bd d90c 5d3d c1b3 b03d
000002c0: 88d8 203e afb0 aabd c0a3 fabd 4ead 59be
000002d0: b12c eebc e7c2 1fbe a122 ce3c bca9 42be
000002e0: 23ab 43be 5738 51be f601 4dbe 90eb bcbd
000002f0: 68d0 07bd f802 e3bd 23b6 edbc 6968 673d
00000300: eec6 a2bc 053a ae3d 0302 683d f7d4 e4bd
00000310: 6cd9 2ebe e53c abbd cc59 4d3d 406d 483d
00000320: 1fe9 95bd 7216 e33d 1d89 873d ef55 d93d
00000330: 6717 e2bd b0e2 02be fc74 a3bc 059f 1ebe
00000340: 8f25 5abe 4e68 84be 727e 13be 607e 023c
00000350: 31fe b03d f9ad 18be d7ee c7bd f896 2cbd
00000360: 3c74 cdbe e99f adbe fb9c b0be 2506 633e
00000370: e23c 7f3e cf16 953e 83a8 abbd 5674 18be
00000380: 5f86 2fbe 7742 55be b4a2 03be cac3 d0bd
00000390: 0436 42be 2358 12be df2f 98bd 2bba e5bd
000003a0: de0b cfbd aec7 bcbd e663 173d 813e 21bc
000003b0: e012 9e3d ad0c 303d e969 b93c 4138 a7bd
000003c0: 16e8 ce3d 9d64 033e 5af3 d43d f618 db3d
000003d0: e915 103e 8841 e73d 15ff 003e eaa9 f53c
000003e0: 38fa 973d aaec 553d 8183 a93d c231 823d
000003f0: 0947 7fbd 5306 8cbd fe8b 4bbd 8603 a5ba
-0.16865584 -0.22931658 -0.0981937 0.14022385 0.06318617 0.08152758 0.12934548 0.11920253
0.038620852 -0.13625109 -0.1219962 0.071700744 -0.052539278 0.10438238 0.019608768 -0.022479823
-0.009289324 -0.06814743 -0.10585909 -0.17148578 -0.293841 0.007832564 0.04554395 -0.18078285
0.13757683 0.0063421386 -0.039338086 -0.12665318 -0.22054851 -0.12656252 0.016957 -0.14038314
-0.04244902 -0.12692912 -0.34412003 -0.11691076 0.09054984 -0.17575823 -0.12535906 -0.21270381
-0.26841557 -0.1223736 -0.159466 -0.21501851 0.005009983 -0.14532597 0.026371593 -0.018154742
-0.31804034 -0.10513549 0.07482315 -0.53410804 -0.030475419 0.101329416 0.02453504 0.023909777
-0.09200402 -0.21470726 -0.2705 -0.13483639 -0.18628013 -0.11343149 0.14204548 0.05174731
-0.009862206 0.047749907 0.11995951 0.23895834 0.038356207 0.09818862 0.15575308 -0.00076557323
-0.42729267 -0.2730081 -0.14650972 0.22181667 -0.0128203435 0.004853684 -0.20208669 -0.28301632
-0.1293833 0.15065922 -0.044966307 0.004765345 -0.018225402 -0.057744384 -0.02226983 -0.23714615
-0.19148502 -0.041678686 -0.025195366 -0.09766029 -0.05716467 0.037450694 0.03924927 -0.117566206
-0.045934077 0.13032328 -0.08265704 -0.031483047 -0.114885 0.039863497 -0.13061601 -0.100581676
0.07152376 -0.10493449 -0.04345246 0.14129926 -0.12869893 -0.21264178 -0.1453918 -0.10239133
-0.46784773 0.089340106 -0.13279156 -0.3020606 0.21816191 0.12733734 0.13787147 -0.057585202
-0.24409665 -0.10275919 -0.056847177 -0.2025061 -0.04384114 0.11118298 0.09306101 0.03310998
0.061655454 0.065088905 0.123498246 0.18814239 -0.020970136 0.15876439 0.09514472 -0.11257624
-0.1616837 -0.20740609 -0.14559045 -0.2898273 -0.21880619 -0.11512392 -0.47955313 0.04519279
0.02230477 -0.12108453 -0.008730796 0.20033811 0.2172913 0.21058464 0.08855672 0.11138655
0.10166814 -0.2292322 -0.14201792 -0.11989284 -0.18289311 -0.13419089 -0.04801192 0.008618769
-0.12300452 0.005374056 -0.04454013 -0.083937496 -0.07554898 0.1363711 0.07121995 0.0828829
0.0051481826 0.20007724 0.2225842 -0.12036252 -0.17634381 -0.113596566 0.05396733 0.08628035
0.157076 -0.08334481 -0.12238264 -0.21257517 -0.029074045 -0.15601693 0.025162997 -0.19010061
-0.19108252 -0.20431648 -0.2002028 -0.092246175 -0.033157736 -0.110845506 -0.029017514 0.056496058
-0.019870248 0.0850716 0.056642544 -0.11173432 -0.17075127 -0.08361224 0.050134465 0.048932314
-0.07319855 0.110882655 0.06617949 0.10612094 -0.1103962 -0.12781787 -0.019953243 -0.15490349
-0.2130339 -0.25860828 -0.14403704 0.0079647 0.08642233 -0.14910115 -0.09762352 -0.042136163
-0.40127742 -0.33911064 -0.34494767 0.22170313 0.24925569 0.29118964 -0.083817504 -0.14888129
-0.17141102 -0.20826136 -0.12855035 -0.10193594 -0.18965918 -0.14291434 -0.07431006 -0.11217149
-0.10109685 -0.092177734 0.036960505 -0.009841562 0.07718444 0.04298084 0.02263351 -0.081650265
0.10102861 0.1283135 0.10397978 0.1069812 0.14070858 0.11291796 0.12597306 0.029988248
0.07420772 0.052227654 0.082770355 0.06357147 -0.062323604 -0.06837144 -0.049694054 -0.0012589551

conv3.conv2d.bias f4 [32]
00000000: 7e99 ee3e 285c 8abe 3d0a 0fbe c5f2 1ebe
00000010: d830 183e 8713 823d cdb5 f13d 2753 c03c
00000020: e040 c4bc 515f 60be 0494 8c3b e4c0 6f3d
00000030: 111c 53be 036b 553e b2ac 19be 0191 e13d
00000040: 2563 ccbd b254 1c3e a536 843d 3965 83be
00000050: 6bea 3abe e295 4e3d 6628 aabd 9b20 0c3e
00000060: 5d3b 993d 2b1f 8e3d 015a ce3d 8200 01bd
00000070: 12b3 d73b cbb8 8c3e 5517 deba 33de 9abe
0.4660148 -0.27023435 -0.1396875 -0.15522297 0.14862382 0.06351381 0.11802254 0.02347715
-0.023956716 -0.2191136 0.004290106 0.058533564 -0.20616175 0.20841603 -0.15007284 0.110139854
-0.09979848 0.15266684 0.06455735 -0.25663164 -0.18253486 0.05043591 -0.08308487 0.13684313
0.07482026 0.069395386 0.10075761 -0.031494625 0.006582626 0.27484736 -0.0016944209 -0.3024765

in3.weight f4 [32]
00000000: 41eb 1a3f 0837 433f 492e 193f 960d 043f
00000010: 9fb7 213f b983 3b3f 06d6 ff3e 40c3 2d3f
00000020: e46e 373f add1 283f 17c0 053f 41a7 fd3e
00000030: 7981 293f 5024 213f 0ad2 fb3e 7c14 0e3f
00000040: 08fb 273f 1ade 1b3f 74f5 5e3f 3da4 473f
00000050: 1ae2 333f 7148 243f 51fd 0f3f cf7b 413f
00000060: e1d6 113f ab96 0e3f 0fb6 113f af36 213f
00000070: 91b1 063f 1c63 313f df59 0c3f 2ea5 ec3e
0.6051522 0.76255846 0.5983625 0.5158323 0.6317081 0.7324787 0.49967974 0.6787605
0.7165358 0.6594494 0.5224623 0.49541667 0.66213185 0.62946033 0.49183685 0.55500007
0.6561742 0.60885775 0.8709328 0.7798498 0.7026688 0.64173037 0.56245905 0.7557954
0.56968504 0.5569865 0.56918424 0.62974066 0.52614695 0.69291854 0.5482463 0.46219772

in3.bias f4 [32]
00000000: 2631 bbbd 706b eebe c6f0 69be 1a48 ae3d
00000010: 1212 6bbd 2190 a2bd 4958 a2be 05f2 9ebd
00000020: a1cb 723d 7861 a0be 2c16 f73d 53c9 0e3e
00000030: 2be8 8cbe ce95 ba3c fbb8 1abc c474 c1bb
00000040: f842 6b3d 7dee 13bd 805b d1be 2b0c 9abe
00000050: c01c 493d cc1f 2cbe 8f15 7b3d af1b f93d
00000060: 3af6 92bd 1f2a c5bd dbc6 aabe 5d0a 22bd
00000070: d497 273e 5096 6dbc 887b 0bbe 84a3 e33c
-0.09140234 -0.46566343 -0.22845754 0.08509846 -0.05739028 -0.07937647 -0.3170798 -0.07761005
0.059276227 -0.31324363 0.12064776 0.13943987 -0.2752088 0.02277651 -0.009443517 -0.005903812
0.057436913 -0.036116112 -0.4089012 -0.30087408 0.049099684 -0.16809005 0.061299857 0.12163483
-0.0717587 -0.096271746 -0.3335484 -0.039560664 0.16366512 -0.014501169 -0.13621342 0.027787931

resnets.0.conv1.conv2d.weight f4 [32, 32, 3, 3]
00000000: 9d08 cbba 4489 ec3d d1b4 e4bd bc66 8abc
00000010: 032d 613e eee3 42bd a7d6 70be 163d 323e
00000020: 9848 fdbd c740 e8bd b5e3 a8bd 84d4 36be
00000030: ba4f ee3c 30f2 4ebe 3f4c 3bbe 3991 9ebe
00000040: f6e6 9dbe ea9e cebd ce16 a73d 7f7c f13d
00000050: 9877 443e 022c 10bd f9fe 293c 8b98 e03c
00000060: 31c9 4b3c 3456 acbc da3e cc3c 9e7d 7dbe
00000070: 0d51 e9bd 2b04 813e 8366 a6be 03fb 90bd
00000080: 5337 0ebd ea0c 4cbe e8d6 0abe 5790 ab3c
00000090: fe70 d13c a385 3ebe 56ab 78be 3f95 8d3d
000000a0: c021 83be 0ce9 4f3b 341e 693e 31dd 82be
000000b0: 0e0a 17bd b561 203e 7fdc 6d3e dfe2 363e
000000c0: f405 003e 4890 db3c cd0b 69be 5aaa a0bd
000000d0: 79ae 103e fc0e 54bd 1549 6f3e 68f5 733d
000000e0: 9cf4 253e 273c c83d af3a 253c 68be d63d
000000f0: 559f 3cba 5cd6 883d 4f8b 113e 5c6d 913d
00000100: bde6 d93d 1fb1 653d f44c 183d 75fa 313d
00000110: 12c1 abbd e728 ce3d b85e 8a3d a835 5cbe
00000120: 9cc2 1cbd aff5 28bd f4b1 94bd d4a0 6fbd
00000130: 3625 313d 3961 cabc 89cf a1bd c317 35be
00000140: bbb2 dabe e309 95bd debf 1bbe d0f4 0dbe
00000150: c263 e63d 846f e0bd e7b6 14be 6866 d8bb
00000160: e112 98bd e4e8 a4bd fead 483e 69e4 4f3e
00000170: 6400 ea3d e452 6d3d b6ff e43d ec44 a63b
00000180: d7cc a23d 4b8c 8b3d e37c 16be 1745 293e
00000190: 69d3 b93d 9c8a 823e 0c6e e93d c452 dbbd
000001a0: 418e de3b 3f94 f63d 196f 3fbd f040 cdbd
000001b0: 4876 e13c fa6a 173d 45c1 653d 6969 6fbd
000001c0: 3459 19be 4bee 42bc 62b3 d7bd 5182 4bbd
000001d0: 306f 183e d6e7 17be 883d 4bbe 1eb9 4ebe
000001e0: 47ca 26be 8300 34bd 98ce debd 9d4b 08be
000001f0: 15b9 8dbe 9dd9 c7be 3a01 d2bd 91ff e2bd
00000200: 1e6e 55bd 4039 03be fc1e fdbc 4ffe 123e
00000210: e737 13be 825f 94be 53d6 d0bd f891 ec3c
00000220: da1c 6dbe 1a77 03be 3b21 7d3c d80b d5be
00000230: 7162 f2bc 0095 813e 6bec 96be c34d 4fbd
00000240: 4396 9c3d caa2 023e 4c68 63be b325 6e3b
00000250: 139c 573e 5863 51be 5a22 8fbe 059a c63b
00000260: 06f2 cebe 82ee 97be f435 83be ab34 82bd
00000270: 958e babd fd74 1cbe a841 11be d598 47bb
00000280: 679d 9a3d 15cb 793d f66c 8ebe bb48 48be
00000290: 67c8 56be b3d5 3e3e ed2e 01be f5ce 8abd
000002a0: df6d 7abe 920d 8bbd 4ce2 c93d 1b37 96bd
000002b0: 83c4 0e3e 9d42 243c 95ba c43d 92c9 b9bd
000002c0: 9be1 5d3b a1c0 43bd 48f2 35bd 101d 75bd
000002d0: 3ed1 d5bd d9b7 02be 0a87 c9bd 2741 413b
000002e0: 671e 023d 7d5b 1fbd 7d8c 7c3d 11f4 f7bc
000002f0: 1126 b6be ec75 f93d 2e1e e63d 1787 ac3d
00000300: 58cd 3fbc 33e0 bc3d af24 f5bc f77d d63d
00000310: e2e5 133d 2460 58be 4332 063e b3dc 25be
00000320: a16e 9e3d cda6 ff3d f840 72be 8695 e63d
00000330: 29e1 803d fb6f c5be 472e de3d 9cd9 86bc
00000340: ad6e 393e e591 323d b684 063e 0832 863d
00000350: 7e57 4ebc ff41 f8bc 41d6 543d c00c 01be
00000360: 4278 edbd 88a0 2f3e 4459 4a3e dba1 99be
00000370: 6b22 91bc 3fb5 15bd a784 44be 7d78 653d
00000380: a56c 863c 91f7 ab3c 119b abbd e30f 1ebe
00000390: 3f7e 013e d2cb e73a 5d88 debd 42e8 35bb
000003a0: bdf3 c9bd 1a40 abbd 674d b8bd 49e6 20be
000003b0: d359 83be 3c24 a9bc 2f66 20bd 835d 1c3d
000003c0: 22be bbbc 7d24 923a b553 9fbd c0f3 833e
000003d0: 09dd 983d e3d4 643d 60c0 2b3d f717 4dbc
000003e0: c654 1d3d ffe3 033e 5ad1 91bd 289a 8cbe
000003f0: bfa4 04bd 496f 0ebe d6f4 2b3e 07e5 70be
-0.0015490238 0.11549619 -0.111673005 -0.01689469 0.21989827 -0.047580652 -0.23519383 0.17406115
-0.12367362 -0.1134048 -0.08246557 -0.17854506 0.029090751 -0.20209575 -0.18290804 -0.3097017
-0.30840272 -0.10088904 0.081586465 0.11791324 0.19186246 -0.03519822 0.010375732 0.027416488
0.0124381045 -0.021037199 0.024932314 -0.2475495 -0.11392412 0.25198492 -0.32500085 -0.07079127
-0.03472073 -0.19926801 -0.13558543 0.02094285 0.025566574 -0.18605666 -0.2428411 0.06913232
-0.25611687 0.00317246 0.22765428 -0.2555938 -0.036874823 0.15662272 0.23228644 0.17859982
0.12502271 0.026802197 -0.22758408 -0.07844992 0.14129056 -0.051772103 0.23367722 0.05956021
0.16206592 0.09777098 0.010084792 0.10485536 -0.0007195373 0.06681511 0.14213298 0.07100937
0.10639713 0.05607712 0.037182763 0.043451745 -0.083864346 0.10066395 0.067563474 -0.21504843
-0.03827153 -0.041249927 -0.07260504 -0.058502987 0.043248378 -0.024704563 -0.07900912 -0.17684846
-0.42714486 -0.07277276 -0.1520991 -0.1386292 0.11249496 -0.1095877 -0.14522897 -0.0066040047
-0.07425476 -0.08052233 0.19597623 0.20301975 0.11425856 0.05794038 0.111815855 0.005074134
0.07949226 0.06813868 -0.14696078 0.16530262 0.090735264 0.25496376 0.11397943 -0.10709146
0.0067918603 0.120399944 -0.04673681 -0.100221515 0.027522221 0.036967255 0.05609252 -0.058450136
-0.14975435 -0.011897634 -0.105322614 -0.049684826 0.14886165 -0.14834532 -0.19847691 -0.20187804
-0.162881 -0.0439458 -0.108792484 -0.13310094 -0.2768027 -0.39033213 -0.1025414 -0.11083902
-0.05210697 -0.12814808 -0.030898564 0.14354824 -0.14376794 -0.28979117 -0.10197129 0.028878197
-0.23155537 -0.12838402 0.015449817 -0.416106 -0.029587956 0.2530899 -0.29477248 -0.05061127
0.07645848 0.12757412 -0.22207755 0.0036338388 0.21055631 -0.20448053 -0.27955896 0.006060841
-0.40419024 -0.29674155 -0.256271 -0.06357702 -0.091092266 -0.15279002 -0.14185202 -0.0030456085
0.07549553 0.06098469 -0.27817506 -0.19558994 -0.20974885 0.18636207 -0.12615557 -0.06777755
-0.24455975 -0.06789698 0.09857616 -0.07334729 0.13942151 0.0100256475 0.096059 -0.090716496
0.0033856395 -0.047791127 -0.04442051 -0.05984217 -0.104403004 -0.12765445 -0.0984021 0.0029488297
0.031767275 -0.03890561 0.061657418 -0.030267747 -0.35575917 0.12180695 0.11236225 0.08424204
-0.011706673 0.0922245 -0.029924719 0.10473245 0.036107905 -0.21130425 0.13105111 -0.16197471
0.077359445 0.124829866 -0.23657596 0.11258988 0.06292946 -0.38561997 0.108486705 -0.016461186
0.18108626 0.043596167 0.13136563 0.065525115 -0.012594102 -0.030304907 0.05196214 -0.1260252
-0.11595203 0.17151082 0.19760615 -0.30006298 -0.017716607 -0.036549803 -0.19191228 0.05602311
0.016409228 0.020992072 -0.08379186 -0.15435748 0.12645815 0.0017684645 -0.10865853 -0.0027756845
-0.098609425 -0.08361836 -0.08999138 -0.15712847 -0.25654468 -0.02064716 -0.03915995 0.038175117
-0.02291781 0.001114979 -0.07779638 0.25771904 0.07464034 0.055867087 0.04193151 -0.012517921
0.038410924 0.12879942 -0.07120009 -0.27461362 -0.032383677 -0.1390964 0.16792616 -0.23524867

resnets.0.conv1.conv2d.bias f4 [32]
00000000: 0f3f 8dbe d28e 2fbd 5ed1 3fbd fd51 06be
00000010: cced 9dbd 590b 9f3d fd0b 0bbe 9562 183e
00000020: b67b 32be fe39 2a3e 3ecb b2bd 178d 35be
00000030: ae1a 89be eb97 863b e91a b23d 3d78 eebd
00000040: 91a3 373d a664 fa3d cd17 56be b655 243e
00000050: 1c64 f33d 8591 8fbd 6750 cfbd ffe5 8a3d
00000060: b7ba 823d a4cc 7dbc 4506 4b3e 97fc 53be
00000070: b57e 48bd b8fe 353e bb8d 813d 9852 cc3d
-0.27587172 -0.042860813 -0.046830527 -0.13117214 -0.07711372 0.07765836 -0.13578792 0.14881356
-0.17430004 0.16623685 -0.087301716 -0.17729603 -0.26778167 0.0041074655 0.08696539 -0.116440274
0.044833723 0.122262284 -0.20907517 0.16048321 0.11884329 -0.070101775 -0.101227574 0.067821495
0.06383269 -0.015490685 0.1982661 -0.20701824 -0.048948962 0.17772949 0.06325861 0.09976691

resnets.0.in1.weight f4 [32]
00000000: 8bdb 553f e426 4e3f cbee 573f 99a1 803f
00000010: e385 783f 8371 6e3f 3535 323f 6121 5c3f
00000020: 71f3 5f3f edda 5c3f 744b 823f dec2 743f
00000030: 1f5c 4d3f b3f8 8b3f 2de3 603f 970d 733f
00000040: a78d 663f 1184 683f b013 693f 5067 843f
00000050: 30db 853f fdf7 983f dd12 7a3f 339a 773f
00000060: 52af 4e3f bf1f 333f ddea 4e3f f37a 693f
00000070: b286 453f 289b 893f 9eef 5b3f bf96 583f
0.8353812 0.8052809 0.84348744 1.0049316 0.97079295 0.93141955 0.6961244 0.8598843
0.8748084 0.86271554 1.0179276 0.95609844 0.8021869 1.0935272 0.8784664 0.9494261
0.90059894 0.9082652 0.91045666 1.0344028 1.0457516 1.195068 0.97685033 0.96719664
0.8073627 0.69970316 0.8082712 0.9120323 0.77158654 1.0750475 0.859125 0.8460502

resnets.0.in1.bias f4 [32]
00000000: c03b 61be 1e6e 03bf 5498 bcbe 4f9c 99be
00000010: 426c 3cbf c3ee 92be 78e9 e4be 4897 afbe
00000020: 244b b5be e7c4 bbbe a077 d5be e029 5abe
00000030: 7a07 00bf 5ec0 8f3c 94fa e5be 9aae babd
00000040: 5d7b adbe 9fe5 f2be d6f6 52be 3b55 bbbe
00000050: 9a67 95be f954 123e 5209 edbe ba0c a6be
00000060: a733 48be c259 b3be d3fc 82be 6e13 abbe
00000070: d105 41be 56bf 46bf 4b9d 1ebf c2ef 23be
-0.21995449 -0.513399 -0.36834967 -0.30002066 -0.7360269 -0.28697786 -0.44709373 -0.34295106
-0.3540889 -0.36673662 -0.4169283 -0.21305037 -0.5001141 0.017547783 -0.44917738 -0.09115334
-0.3388318 -0.47440812 -0.20601973 -0.36588463 -0.29180604 0.14290227 -0.46296173 -0.32431585
-0.19550954 -0.35029417 -0.25583515 -0.3341326 -0.18849875 -0.77635705 -0.6195876 -0.16009429

resnets.0.conv2.conv2d.weight f4 [32, 32, 3, 3]
00000000: 7347 d9bc 47c6 803d 3ba6 cdbe 2c95 8abe
00000010: 3b8a 03be bfbe 20be a788 81bb 6792 843d
00000020: 950d dbbb bf60 1fbd 72d5 01be c112 4fbd
00000030: dd80 0c3d ca87 69bd df34 b83c 3c79 e3bd
00000040: d79f e9bb 7663 56bd 3871 10be 0cfc 9cbd
00000050: b812 1fbe 5902 06be 769a 88bc f1be e0bd
00000060: 750f 9ebe acc7 88be 0ffb 47be cee5 113f
00000070: 6461 a53e 5781 593e b61d f03c 6fae 9d3e
00000080: 067b 3b3d ab10 c83c 7e37 8e3d 75da 393e
00000090: 5f41 09bc 9f31 0abe 1de6 91be b788 7a3d
000000a0: ab7d 2ebd 41e4 ccbd dd16 b7bd 1bf3 ae3c
000000b0: 77d9 a1bc ff72 d6bc 8dac a53e c5e6 6c3d
000000c0: cba8 d53e 2144 fd3e eaef 493e f784 a43e
000000d0: 48cf d13e 392d ad3d e985 94bd d640 ef3b
000000e0: c935 7ebe 0e97 0a3e 51f1 743d b2c7 98bd
000000f0: c061 dcbd e819 0dbe dd09 c7bd 1880 b73d
00000100: 243a 40bd b254 1e3e 4116 5fbd afa4 da3d
00000110: c09f 713d 5a35 4d3d 3681 b03d 5cb2 3fbd
00000120: 62f0 0dbe 0e3a ae3d bf1e 363e 0e77 00be
00000130: 4a6f 5f3c c8db 703e f61f 4f3e 91b4 f03d
00000140: c676 093e aadf c43d e6ae 5c3d daac 2ebe
00000150: a8df 8f3c f18a 073e 7c73 2f3e fa1a 0ebe
00000160: 12ba 77be 4287 aebe c176 013e 9e36 1c3d
00000170: aa92 683b 38b3 ebbc ccdd dabc 45ab e93d
00000180: e385 a73d cfba 633d c26b d13d 9fba 7cbe
00000190: fb9a 7cbb 7691 64bd 4a9e a93c 8e65 833e
000001a0: fa6f f33d 21a5 7b3d 476f 233e b369 223e
000001b0: b101 ae3d d66d 9f3c 32c2 ec3d 8662 423e
000001c0: ef38 5e3e b857 c73d 5a7e 733d 27b2 0c3e
000001d0: aaa6 cb3d 8a59 ac3e ea9b 4a3e 468a df3e
000001e0: 0d7c 993e 7f68 f43d 9921 aa3e 6a2d f8bc
000001f0: 3866 6fbe eded 09be b244 b0bd 4b87 8bbe
00000200: f11a d9be cf94 1ebe d536 3dbe 792e 9abe
00000210: 127b 3cbd 74c7 20be 4164 49be a370 41bd
00000220: a54c 183c 5ee7 eabc 00ee ab3d bc85 f03d
00000230: e3b4 613e 8ed7 81bd 2443 09bd 38ce 4c3e
00000240: 6aff 01be 703b 9e3a c308 753d e57b 53bd
00000250: 86cc 5b3e feeb 363d 80bb 55bc 06bc 373e
00000260: e5a0 d53e f300 b5bd abf0 15bd 703e 40bd
00000270: 761f 02be a704 93bd af12 27be 5a31 25be
00000280: 283b 01be 0838 a0bd 23b4 08be 6b36 453d
00000290: b9f8 a3bd 914e a33c 17a9 793e 2089 353e
000002a0: 8e18 32be ac11 eebd c597 083d 253e 023e
000002b0: aacb 9a3e 52c1 683d 9709 13be 4907 fdbd
000002c0: b7b4 0b3e ac78 aa3d 1f2f 1f3e 61b0 80bb
000002d0: 2222 cdbd 29c3 723d 3a8e ae3c 56f6 de3b
000002e0: bc13 a13e 49f5 9c3d c969 debd 15ca 153c
000002f0: b4fc 85be 5d6d d23e 8f09 733e 5a96 783e
00000300: 9f07 da3e cd77 b13e f1a4 9c3d f086 693e
00000310: 8174 d73d b51b 53bd 9957 4ebe 8e64 54bd
00000320: e01f 253e d6c3 1ebd 9691 d3bd 233d d03d
00000330: bf4c 6ebe a3e9 83be 801c 1cbd c44d fe3d
00000340: f45f e0bd 0be5 12be 9420 f6bd 1f96 45be
00000350: d75a c0be b5f6 c7bc 2bf8 04be 2a0f 75be
00000360: 2147 bd3c ecd6 493e ba14 a53e a56e ec3d
00000370: 4640 003b 6d23 5abd 9a46 183e 9549 513d
00000380: 64c1 8cbe cab1 5d3d 7ab3 d0bd e703 11be
00000390: a206 763c ad78 41be 8f82 86be ee1e 8bbd
000003a0: 5bad 31be b084 8bbe acf2 2f3d 4227 a9bb
000003b0: f499 bc3c cfbb 92bd c46b a23c c674 6e3e
000003c0: efff 50bc 937b 4bbd d0ca 403e 5995 8c3b
000003d0: e4b0 8f3e 6cab fa3c a66c c1bd 72a7 af3e
000003e0: 4ede ac3d cd84 a03c 3321 f03d 5b2e f03d
000003f0: dd07 b1bd 8252 0ebd c5dc 2dbe f791 9a3c
-0.026523327 0.062878184 -0.40165886 -0.27066934 -0.128457 -0.15697764 -0.003953058 0.064732365
-0.0066849687 -0.038910624 -0.12679079 -0.050554994 0.03430258 -0.057014264 0.022486148 -0.11107108
-0.00712965 -0.052340947 -0.1410569 -0.076652616 -0.15534484 -0.13086833 -0.016675215 -0.10973919
-0.30871168 -0.26714838 -0.19529365 0.5699128 0.32300866 0.21240745 0.029311042 0.30797145
0.04577162 0.02442201 0.06944178 0.18149741 -0.008377402 -0.13495491 -0.28495875 0.061165538
-0.042600315 -0.100044735 -0.08939908 0.021356156 -0.019757016 -0.026177881 0.32358208 0.057837266
0.4173034 0.4946604 0.19720426 0.32132694 0.40978456 0.08455891 -0.07252104 0.00730143
-0.24825205 0.13534185 0.05980045 -0.07459964 -0.10760832 -0.13779414 -0.09718678 0.08959979
-0.046930447 0.15461996 -0.054464582 0.10675942 0.05899024 0.05009971 0.08618395 -0.046800956
-0.1386123 0.08507167 0.17785166 -0.12545416 0.013637373 0.2352134 0.20227036 0.1175319
0.13424215 0.09612973 0.053877734 -0.17058125 0.017562702 0.13236596 0.17133898 -0.13877478
-0.24192074 -0.3408757 0.12642957 0.038138025 0.003548781 -0.028771982 -0.02671709 0.1140962
0.08179834 0.055598076 0.10225631 -0.24680565 -0.0038544524 -0.055802785 0.02070536 0.25663418
0.11886592 0.061436776 0.15960418 0.15860634 0.08496416 0.019461554 0.11560477 0.18982896
0.21701406 0.09733528 0.05944667 0.13739835 0.09943898 0.33662063 0.19786039 0.43660182
0.29977456 0.119339935 0.33228758 -0.030295093 -0.23378837 -0.13469668 -0.086068526 -0.27251658
-0.42403367 -0.15486453 -0.18477948 -0.3011358 -0.046015806 -0.15701085 -0.1966715 -0.04722656
0.009295617 -0.028674778 0.08395004 0.11744258 0.22041659 -0.06339942 -0.033511296 0.20000541
-0.12695089 0.0012072157 0.05982281 -0.051631827 0.21464738 0.044658653 -0.013045192 0.17942819
0.41724315 -0.08838072 -0.036606472 -0.046934545 -0.12707314 -0.07178622 -0.16315721 -0.16132107
-0.12620223 -0.07823187 -0.13349967 0.0481476 -0.080064245 0.019934924 0.24380909 0.1772809
-0.1739218 -0.116244644 0.033347864 0.12719019 0.30233508 0.05682499 -0.14359127 -0.12354905
0.13643156 0.083237976 0.15545319 -0.003927276 -0.10016276 0.05926815 0.021308053 0.006804268
0.3146037 0.07663972 -0.10860021 0.009142418 -0.2616936 0.41099063 0.23734115 0.24276105
0.4258394 0.34661713 0.076486476 0.22805381 0.10520268 -0.051540095 -0.20150603 -0.05185371
0.1612544 -0.038760982 -0.10330503 0.10167911 -0.23271464 -0.25764188 -0.038113117 0.12417176
-0.109558016 -0.14345185 -0.120179325 -0.19295548 -0.37569305 -0.024409631 -0.12985294 -0.23931566
0.023105206 0.19710892 0.32242376 0.11544541 0.001956956 -0.05325644 0.14870682 0.051095564
-0.27491295 0.05412463 -0.101904824 -0.14161645 0.01501623 -0.1889369 -0.26271483 -0.06793009
-0.17351286 -0.2724967 0.04295604 -0.0051621506 0.02302263 -0.07164728 0.019826777 0.23286733
-0.012756332 -0.049678396 0.18827367 0.0042902646 0.28064644 0.030599318 -0.09444551 0.34307438
0.08440839 0.019594574 0.11725082 0.117275916 -0.08644078 -0.034746654 -0.16978748 0.01886843

resnets.0.conv2.conv2d.bias f4 [32]
00000000: 1159 2fbe cc2c 29be a76c 0b3d dfd3 e0bd
00000010: 7061 7ebd 90b8 b0bd 08ca 903b f0b0 8bbe
00000020: 0db1 2f3e c03d a0b9 65fb b7bd 01a4 a5be
00000030: 8ec3 363e 65e3 813e 250c 3dbd c19e fe3d
00000040: d9eb 823c 082b e43d 4aef 113e 113e 08bc
00000050: 87a7 a1bd b536 5d3d 65bd deba 2379 b1bd
00000060: aa7f 573e 0316 44be 8e49 16be e29d 84bd
00000070: cbaa e93d ef89 b83d 5048 613c 7524 08be
-0.1712382 -0.16520995 0.034039166 -0.10977911 -0.062104642 -0.086289525 0.0044186153 -0.2728343
0.17157383 -0.00030563585 -0.089834966 -0.32351688 0.17848036 0.253688 -0.04615416 0.12432624
0.015981602 0.1114102 0.14251438 -0.008315579 -0.078932814 0.05400725 -0.00169937 -0.08665683
0.21044794 -0.19149022 -0.14676496 -0.06475426 0.11409529 0.09010684 0.013750151 -0.13295157

resnets.0.in2.weight f4 [32]
00000000: 3764 2f3f f6e1 da3e dd36 243f 6358 e63e
00000010: e904 f93e 47c9 1b3f 1bb6 023f b98f 2b3f
00000020: a2d1 223f 99e1 033f be1f 2d3f 2d57 113f
00000030: e4c9 ec3e 9728 0f3f 8e5a f63e 628e d33e
00000040: a37a 003f 231c 1c3f d6ab 203f f5df 203f
00000050: 16fb 133f 734b 133f 1449 c33e 0525 3f3f
00000060: 250b dd3e e110 043f f81d 163f a087 fd3e
00000070: a6cd 2d3f b28c 133f f331 d43e a908 263f
0.6851229 0.4275052 0.64146215 0.4498931 0.4863656 0.60854 0.5105912 0.6701618
0.63601124 0.5151611 0.6762656 0.56773645 0.4624778 0.5592131 0.48115963 0.41319567
0.5018713 0.60980433 0.627622 0.6284173 0.57805 0.57537 0.38141692 0.7466586
0.43172565 0.51588255 0.5863948 0.49517536 0.6789192 0.5763656 0.41444358 0.64856964

resnets.0.in2.bias f4 [32]
00000000: 95f1 5bbe 7423 0fbd 5655 75bc a2a1 23be
00000010: 398e af3c 4a89 4bbd 25b9 243e 03a4 27be
00000020: f0a7 c73d 75ff 3cbd bf60 b7bd 646f 7fbe
00000030: 966f 453e 5324 0cbd b8a7 023e d3ec 8d3e
00000040: 60ba b93d 58df 1b3e 647d 4cbd adb3 4c3d
00000050: 8f22 bcbd d81b a9bd ce47 c23d 992c 35bd
00000060: 92cd 813e 8f45 69be ac4c 5bbd 4f86 eebc
00000070: 1f27 403d b2ee b23d 40a9 603d bcad ac3d
-0.21478875 -0.03494592 -0.014973959 -0.15979627 0.021430122 -0.049691476 0.16086252 -0.1637116
0.097488284 -0.04614206 -0.08954 -0.24944836 0.19280848 -0.03421433 0.12759292 0.27719745
0.09068751 0.15221918 -0.04992427 0.04997604 -0.09186279 -0.08257264 0.09486352 -0.044231985
0.2535215 -0.22780441 -0.053539917 -0.029116778 0.04691231 0.08736934 0.05484891 0.08431575

resnets.1.conv1.conv2d.weight f4 [32, 32, 3, 3]
00000000: 9cd1 a43c d56c 72be e845 71be 6089 a2bd
00000010: e476 82bd aae5 39bd 9c4f 4dbe f40c 46bb
00000020: 79f2 f93d a37a 99bd 5fdd 15be 8e84 453c
00000030: f68e 4cbd e158 4f3c bf96 afbd cd03 19be
00000040: d1ac 0dbd d8b1 55bd 84b1 56bd 351b f1bd
00000050: b4dc 58bc 3ab6 7fbe 8290 46bd 9582 3b3e
00000060: 4eef 81be 558b dfbc f685 583e f4e2 fbbd
00000070: d384 e5bd 25d7 7dbe 4f9d 70bd 5774 d4bd
00000080: 73b8 cfbd 36b6 b53c 2f6d 6a3d b51d c2bd
00000090: 2ea3 1fbd 2d46 8cbd 67bb 583d 9d34 c73d
000000a0: d26e 8bbd 0395 d7bd 015e b63d 4d2b 20be
000000b0: 4919 15be 287d 37bd 9eee d9bd 53a0 19be
000000c0: 8a20 aebc 8cff c33d 8aa5 e73b c71f 26be
000000d0: 464b a5bc e53f adbc b988 373e 0d9e 4d3d
000000e0: 6271 653e c491 0a3e c1ac a5bb 86fb 9f3c
000000f0: aaf4 dcbb 10de 9a3d 107d 40bd 0e9a 9bbe
00000100: 43f2 c3bd da4f b03d a27a f0bd b159 ba3d
00000110: 12b2 873d 3c20 09be 2944 f53c 9a0b b93c
00000120: 8be4 49be 031d dfbd 9d4b 573d 4e28 fdbd
00000130: 17c1 f4bd 25fd 72be fa34 9abd 4067 80bc
00000140: 43f1 f9bd a369 db3e 1778 0e3e c071 e63d
00000150: 43ad 953e 06fc b23d 35f2 993d 47ef f53d
00000160: f5aa 7b3d 1f91 993c 6127 90be f219 763d
00000170: 6fa3 a03e 58cf f4be dee2 3dbe 9487 b93d
00000180: ad70 77be 8c61 853d 31fb af3d 27b3 2bbe
00000190: c345 d7bd d29a 3d3d 82a4 b2bd 4ced 863d
000001a0: 51c0 b73d 0b5d 55be f1d7 79bc a9ab 673d
000001b0: f4c4 d23d cc5a 56be a404 77be 0fb8 313c
000001c0: 3c86 d63c f8c3 d7bc 6199 453d e96b 5d3d
000001d0: 5c06 7f3d ef68 b63d 05e1 f1bd 48b3 80be
000001e0: c668 913e 78ee 713c 4dd0 95be e941 143e
000001f0: b2cd afbd 9b38 80be 8fb8 e13d 4e51 b1bd
00000200: 37ad 96bd 83cd c73c 0816 debb e478 08be
00000210: ed52 f1bc 45be 133d 97de fcbb cb34 b13d
00000220: 6752 083d 5194 9c3d 284a abbd 4a29 e33d
00000230: 5624 1b3e 6cd5 18bb 0a0e c93d bfc1 0f3e
00000240: 5a29 793e 69f5 043d ca52 8bbd 6b17 5e3e
00000250: de8f 9c3d cec8 073e 9186 4a3e 0734 bf3d
00000260: 66e7 7f3d f887 0d3d eca8 6f3b ecef 85bd
00000270: 1f79 ebbd 4f4b a8bd 3978 77bd 64d7 11be
00000280: 1ee3 29be 85de 413d 5728 4b3e 4ded fdbc
00000290: 6120 64be 3aa0 603e e4d4 893c f32d cdbd
000002a0: 09cb b8bc 9bcd 1dbe 0ee9 66be 4101 9abe
000002b0: 2dde 01bc 58df 0b3e c3dd 9dbe 1f20 b7bd
000002c0: 5156 f13d 962c e0be dc6e 8abc 12ad 4c3d
000002d0: a94d 4abd 9cb3 a3bc e906 913e ba6f 52be
000002e0: 917a ffbd af95 be3d 198b 5ebd 16ff 8e3c
000002f0: 3ff8 563d 1d9b 973e b600 5b3a 61b3 35be
00000300: a956 ad3e 1c12 833d e0c0 99be a560 413e
00000310: 0f97 5abd c69a 3dbe e38c 083d 2591 4b3e
00000320: d901 0b3e 7427 b03d cffb 773d 0ff1 533d
00000330: 454f 803d f6c3 273e 665d 9b3c 0ade 643e
00000340: 9d43 ae3c 7bdb b5bd 99f8 5f3e 7792 1a3d
00000350: 559d 7dbd 7583 bb3e 64a2 f03d f7d1 93bd
00000360: a004 1fbe 8aaa 01bd 5b37 623d b1f2 31be
00000370: fe60 b6bd f7a8 e73d 74fb d2be 0d96 8abe
00000380: 9b2d b4bd ea5e 453d 99e9 003e f072 f73c
00000390: 4e72 1ebe 1f46 4abd 9f2f 1e3e e3bf debc
000003a0: ee8e 853d dd4d 8c3e d252 0dbd 824b f5bc
000003b0: df27 e5bb 6954 aa3d 6360 1d3d ac91 85be
000003c0: edba 22be 0b6b 04be c661 c1be a40b a33d
000003d0: 488d 1f3e ce5a 303e db01 093e 6458 9a3d
000003e0: 10f7 1a3d ed72 da3c e2ae 97bd 77ce 98bc
000003f0: 67df 73bc 9677 323d 87c1 6f3d a109 cfbc
0.02011948 -0.23674329 -0.23561823 -0.079363585 -0.06370333 -0.04538504 -0.200499 -0.0030220123
0.12204451 -0.07494094 -0.14635228 0.012055529 -0.049941026 0.012655468 -0.085736744 -0.14942856
-0.03458864 -0.05217156 -0.052415386 -0.117727675 -0.0132362135 -0.24971858 -0.048477657 0.18311532
-0.25377887 -0.027288118 0.21144852 -0.12299147 -0.11206975 -0.24789102 -0.05874377 -0.103737526
-0.10142603 0.022181612 0.05723303 -0.094783224 -0.03897398 -0.068493225 0.052913096 0.09726832
-0.06808247 -0.105264686 0.089046486 -0.15641518 -0.14560427 -0.044797093 -0.10641216 -0.15002565
-0.02125575 0.09570226 0.0070692943 -0.1622306 -0.020177495 -0.021148631 0.1792325 0.050199557
0.22406533 0.13532168 -0.0050559943 0.019529115 -0.0067430334 0.07561886 -0.04699427 -0.30390972
-0.09567692 0.086089805 -0.1174214 0.090991385 0.06625761 -0.13391203 0.029939728 0.02258854
-0.19716088 -0.108942054 0.052562345 -0.12361203 -0.119508915 -0.2372938 -0.07529636 -0.015674233
-0.1220422 0.42854032 0.13912998 0.11252165 0.2923375 0.08739476 0.075169004 0.12008529
0.061442334 0.018745957 -0.28155044 0.060083337 0.3137469 -0.4781444 -0.18543574 0.090590626
-0.24164076 0.06512746 0.08592833 -0.1676756 -0.10511353 0.046290226 -0.087227836 0.065882295
0.08972228 -0.20836274 -0.015249238 0.056560192 0.10291472 -0.20933074 -0.24122864 0.010847106
0.026187055 -0.026338562 0.048241977 0.05405799 0.062261924 0.08906733 -0.11810497 -0.2513678
0.28400248 0.014766328 -0.29260483 0.14478268 -0.08584155 -0.25043187 0.1102153 -0.08658086
-0.07357257 0.024389988 -0.0067775287 -0.13327366 -0.029458487 0.036070127 -0.0077169645 0.086526476
0.03328171 0.076454766 -0.083637536 0.1109186 0.1515058 -0.0023320569 0.09817131 0.14038752
0.2433218 0.032460604 -0.068029 0.21688621 0.07644628 0.13260195 0.19777896 0.09336095
0.062476538 0.034553498 0.003656919 -0.06539902 -0.114977114 -0.08217489 -0.060417388 -0.14242321
-0.16590545 0.04733135 0.19839607 -0.030996943 -0.22277977 0.21936122 0.016825147 -0.1001853
-0.022557752 -0.15410464 -0.22549841 -0.30079082 -0.007926506 0.13659418 -0.30833253 -0.089416735
0.11784042 -0.43784016 -0.016898565 0.04996974 -0.04939047 -0.019983105 0.28325585 -0.20550433
-0.124745496 0.09305894 -0.054331873 0.017455619 0.05248284 0.2961053 0.0008354293 -0.17744209
0.3385518 0.063999385 -0.30029964 0.18884523 -0.053366717 -0.18516073 0.033337485 0.19879587
0.13574924 0.08601275 0.060542878 0.051743563 0.062651195 0.16383347 0.018965434 0.22350326
0.021272475 -0.08879753 0.21872176 0.037737336 -0.06191762 0.3662373 0.117497236 -0.07217782
-0.15529108 -0.03165678 0.055228572 -0.17377736 -0.089052185 0.11311524 -0.41207469 -0.27067605
-0.08797761 0.04818622 0.1258911 0.030206174 -0.15473291 -0.04938328 0.15447854 -0.027191108
0.06521402 0.27403155 -0.03450281 -0.029943231 -0.0069932784 0.08316881 0.038422 -0.260877
-0.15891619 -0.12931459 -0.37769908 0.07961205 0.15581238 0.17222139 0.13379614 0.075363904
0.037833273 0.026666129 -0.07406403 -0.018653138 -0.014884806 0.043571077 0.05853417 -0.025273146

resnets.1.conv1.conv2d.bias f4 [32]
00000000: 70b6 85bd 81f5 03be 4b5f 15bd 2403 2c3e
00000010: eb83 e43d 66b9 0b3e 4b65 20bd 1f70 473d
00000020: f293 40be 6779 90bd 3a52 c4be c566 92bd
00000030: d27a 92be 50a5 643c a31f 103e 4aca 00be
00000040: 5e60 68bb 0a7d 873d c6d0 23be 99a7 4d3d
00000050: 0485 de3d 28af afbd 56ed f2bd e8e5 383e
00000060: af70 d4bc bc81 e33d fbca 3d3d 9f23 ad3d
00000070: c947 c7bd 4591 403e 7f10 02be 70fb 613c
-0.06528938 -0.12886621 -0.03646783 0.16798073 0.11157974 0.13644943 -0.0391591 0.04869091
-0.18806437 -0.07054406 -0.38343984 -0.07148508 -0.2860933 0.013955429 0.14074568 -0.12577167
-0.003545783 0.06615646 -0.1599761 0.05020866 0.108652145 -0.0857833 -0.118616745 0.18056452
-0.025932638 0.11108729 0.046336155 0.0845406 -0.09730489 0.18805416 -0.12701605 0.0137928575

resnets.1.in1.weight f4 [32]
00000000: 32b1 543f 5675 673f 0077 2d3f cd53 643f
00000010: b2e3 363f 4f81 6d3f dc60 383f d6d8 173f
00000020: 6d55 4d3f 1877 463f 7c99 603f fc23 153f
00000030: 5776 6d3f c907 4f3f 1d45 443f 627a 763f
00000040: ac4b 373f d968 463f 7b8d 3a3f 9133 5a3f
00000050: 06e9 403f ea30 5b3f 9a71 183f 5dc1 373f
00000060: 0930 353f 06be 413f 7dda 2b3f 3080 4d3f
00000070: 7178 493f fbdd 3c3f cbab 4f3f cbf9 733f
0.8308288 0.90413415 0.67759705 0.8919037 0.71441185 0.92775434 0.72022796 0.5931524
0.80208474 0.7752547 0.877342 0.5825803 0.927587 0.80871254 0.7666796 0.9628049
0.7159984 0.77503735 0.7287213 0.85234934 0.75355566 0.8562151 0.5954834 0.71779424
0.7077642 0.7568058 0.6713026 0.80273724 0.78699404 0.73776215 0.8112151 0.9530303

resnets.1.in1.bias f4 [32]
00000000: 61bb 4dbf f2ce 62bf 9c6c e3be 137b b1be
00000010: 9d63 a1be a888 90bf 6b1c 65be 3ca5 e5be
00000020: 76af 25bf 0d60 29bf 5cc8 1ebf 5b94 83bc
00000030: ce81 7dbf f322 d7be a9b5 f6be 52cb 8cbf
00000040: 3a21 a7be 5ffc c8be da61 e1be ad3d 0abf
00000050: 91e9 6dbe 65ed 67bf 1fad 8fbe 4910 f4be
00000060: 9047 cdbe be0c 57be df09 fabe 5322 29bf
00000070: e7da 2cbe 3074 60be 1ccd efbd d32c 15bc
-0.8036404 -0.88597023 -0.444188 -0.3466421 -0.3152131 -1.1291704 -0.22374122 -0.44852626
-0.6472086 -0.66162187 -0.62024474 -0.016061952 -0.9902619 -0.42018852 -0.4818547 -1.0999548
-0.32642537 -0.39255044 -0.44019967 -0.5400036 -0.2323363 -0.9059661 -0.28061768 -0.47668675
-0.4009366 -0.21000955 -0.48835656 -0.66068 -0.1688038 -0.21919322 -0.117090434 -0.009104925
