Assets/Style_Transfer/Models/Estilos fallidos/intento_3.onnx (onnx, 450223 bytes, 62 tensors)

conv1.conv.weight f4 [8, 3, 9, 9]
-0.012334065 0.040675364 0.03503011 -0.05515464 -0.02498407 0.054757204 -0.0436246 -0.0016187897
-0.07821411 -0.013449822 -0.06278705 -0.0734725 -0.06427741 0.010851235 0.051317967 -0.03600477
0.028357878 -0.023037069 -0.010992777 -0.051121622 -0.03684399 -0.053654086 0.011063402 0.019356534
-0.012261086 0.041353934 -0.031402808 -0.010883673 -0.052214343 -0.052863758 0.046690643 -0.049966447
0.05323861 -0.021561172 -0.00047030547 -0.016428 -0.014191893 0.040948104 -0.07127895 0.04991621
0.040917438 -0.02612286 0.015438912 0.030868387 0.06370546 0.038393583 -0.020733282 -0.056178868
0.0062555256 -0.020757265 0.0043342873 0.008928323 0.026852291 -0.0021340584 0.017215632 0.027255258
-0.0027122716 -0.07929836 0.024372762 0.018740492 -0.012901575 0.09129109 0.04695137 -0.038157538
0.0067188866 0.039238334 -0.019143905 0.019407023 0.0478544 -0.026531834 0.042809457 -0.030262072
0.070539 0.042915154 0.05031325 -0.0087549025 -0.08646928 -0.029465772 -0.06738373 -0.02813255
0.0006306745 -0.045196854 -0.056990694 -0.04393436 0.055029653 -0.016807703 0.06301246 0.052474156
-0.020144967 0.038861834 -0.022536093 -0.053469747 -0.044769306 0.00858628 0.022714818 -0.008330957
-0.013530614 0.027789999 -0.06373221 -0.009555772 -0.047518764 -0.028977843 0.00032940667 -0.048117217
0.087059334 0.041667014 0.054503813 -0.027969686 0.0038576964 -0.046468884 -0.050833214 -0.0017069897
-0.008494524 0.06247665 0.016832458 -0.02878874 0.0075145755 0.0289011 0.018111518 0.02089434
-0.052916475 0.012022779 -0.005351007 0.009971619 -0.050895803 0.070392884 -0.02081038 -0.017626377
-0.021717383 -0.036077544 0.025508715 0.07190186 -0.0061227856 0.07373469 -0.02534647 -0.034295924
0.07062267 0.0034518787 -0.012603579 -0.009599024 0.033781018 0.021769764 0.05469149 0.060079753
-0.04900872 -0.040888872 -0.052673604 -0.041700445 -0.08095787 -0.061589606 -0.01558523 0.030536242
-0.017986031 0.03423916 -0.015496193 0.0057140538 -0.045467608 -0.060421083 -0.06836386 -0.0546778
0.040466305 -0.05584983 -0.044129428 -0.074465595 0.02876605 0.06435714 0.022316573 -0.0015784616
0.04520773 0.03336064 -0.07395025 -0.06513569 -0.027852759 -0.02214754 -0.010005559 -0.05251908
-0.012420152 0.03737782 -0.04364034 0.008170616 -0.04461409 -0.009441126 -0.06265731 -0.056095093
-0.0054787155 0.023083268 -0.030970246 -0.02471596 -0.061270934 0.024042005 -0.08932456 0.017898442
-0.02533269 0.0001255949 -0.013555026 -0.041518733 -0.0042400965 -0.06344039 -0.023060944 0.019949475
-0.047791224 -0.03696304 0.0028430836 0.018970577 -0.015248825 -0.00714914 0.009291466 0.018233357
-0.006737269 0.009573089 0.0057838704 -0.052643113 0.06634293 0.0019360925 -0.019429661 -0.0437594
0.042327713 0.019240469 -0.058412176 0.003551 -0.040819425 0.004948098 0.06568242 0.0104521625
-0.027119214 0.04025514 0.039431736 -0.029510714 0.024592187 -0.06689755 -0.083139665 -0.04304838
0.0036885936 0.017247511 -0.039443776 0.04483293 0.043038156 -0.0240297 -0.040827975 -0.016186755
-0.051086072 -0.078525715 0.034423023 -0.026874289 0.0661794 0.051978186 -0.05073114 0.012907207
-0.033667892 -0.059426807 -0.0029525112 -0.027826194 0.043234978 -0.042724885 -0.040412534 -0.01212003
00000000: d114 4abc 369b 263d bc7b 0f3d d5e9 61bd
00000010: 64ab ccbc 1749 603d b5af 32bd 922d d4ba
00000020: b82e a0bd a45c 5cbc 7f96 80bd c078 96bd
00000030: e0a3 83bd 61c9 313c ca32 523d bd79 13bd
00000040: c84e e83c 3cb8 bcbc 0c1b 34bc e864 51bd
00000050: b9e9 16bd 63c4 5bbd 4543 353c 9891 9e3c
00000060: b9e2 48bc be62 293d 3ba0 00bd 6f51 32bc
00000070: b5de 55bd ab87 58bd b03e 3f3d 9ea9 4cbd
00000080: bb10 5a3d 0ea1 b0bc 5593 f6b9 0394 86bc
00000090: 1d85 68bc 33b9 273d b3fa 91bd f174 4c3d
000000a0: 0b99 273d 9cff d5bc 7ef3 7c3c b3df fc3c
000000b0: 0278 823d 9742 1d3d d8d8 a9bc d01b 66bd
000000c0: 27fb cc3b 240b aabc a306 8e3b 1a48 123c
000000d0: 56f9 db3c 8fdb 0bbb cc07 8d3c 6b46 df3c
000000e0: 5ec0 31bb 2e67 a2bd 63a9 c73c a985 993c
000000f0: 2161 53bc d3f6 ba3d 1450 403d 144b 1cbd
00000100: 1b2a dc3b 60b8 203d aed3 9cbc 7afb 9e3c
00000110: fa02 443d 4a59 d9bc f858 2f3d 2ae8 f7bc
00000120: c076 903d cdc7 2f3d 4415 4e3d b970 0fbc
00000130: ce16 b1bd 3462 f1bc 7b00 8abd 3c76 e6bc
00000140: d953 253a 5620 39bd 136f 69bd 84f4 33bd
00000150: c666 613d 4fb0 89bc ad0c 813d 24ef 563d
00000160: 0f07 a5bc 962d 1f3d 9d9d b8bc 1803 5bbd
00000170: 0560 37bd 78ad 0c3c 6d14 ba3c 917e 08bc
00000180: 82af 5dbc daa7 e33c 0886 82bd d08f 1cbc
00000190: 09a3 42bd f162 edbc 37b4 ac39 8f16 45bd
000001a0: 2a4c b23d 08ab 2a3d 643f 5f3d af20 e5bc
000001b0: 68d1 7c3b 2856 3ebd 7d36 50bd 12bd dfba
000001c0: 9e2c 0bbc 84e7 7f3d 39e4 893c 5dd6 ebbc
000001d0: d43c f63b 00c2 ec3c 9b5e 943c 9b2a ab3c
000001e0: f2be 58bd 31fb 443c 8057 afbb 0060 233c
000001f0: 1e78 50bd 252a 903d 887a aabc 3165 90bc
00000200: a7e8 b1bc 0cc6 13bd a7f7 d03c 4841 933d
00000210: a6a1 c8bb 3702 973d 66a3 cfbc e279 0cbd
00000220: 9ea2 903d ea38 623b 3e7f 4ebc 3a45 1dbc
00000230: f75d 0a3d 8156 b23c 2f04 603d 3016 763d
00000240: 5ebd 48bd 177b 27bd 47c0 57bd 16ce 2abd
00000250: 3dcd a5bd 6245 7cbd 3159 7fbc 2427 fa3c
00000260: 7157 93bc 5d3e 0c3d bfe3 7dbc f53c bb3b
00000270: 3e3c 3abd 197c 77bd 5a02 8cbd d4f5 5fbd
00000280: ffbf 253d cbc2 64bd 0fc1 34bd 6b81 98bd
00000290: c7a6 eb3c adcd 833d 3fd1 b63c 62e4 ceba
000002a0: be2b 393d 2ba5 083d 3b73 97bd dc65 85bd
000002b0: 782b e4bc c26e b5bc 5bee 23bc 3f1e 57bd
000002c0: e57d 4bbc 7c19 193d 37c0 32bd 0cde 053c
000002d0: 44bd 36bd f4ae 1abc 7a52 80bd f8c3 65bd
000002e0: cc86 b3bb 1f19 bd3c 50b5 fdbc 2079 cabc
000002f0: 3bf7 7abd bdf3 c43c cbef b6bd c19f 923c
00000300: 8086 cfbc 20b2 0339 e615 5ebc 8c0f 2abd
00000310: 82f0 8abb 09ed 81bd 4eea bcbc 156d a33c
00000320: bbc0 43bd 8e66 17bd 0753 3a3b 2f68 9b3c
00000330: 35d6 79bc 5543 eabb 3c3b 183c 1f5e 953c
00000340: 4fc4 dcbb 72d8 1c3c 9f86 bd3b 4ea0 57bd
00000350: cdde 873d 7cc4 fd3a f42a 9fbc 0e3d 33bd
00000360: d35f 2d3d 309e 9d3c 9b41 6fbd e5b7 683b
00000370: 4532 27bd a823 a23b 8184 863d 8c3f 2b3c
00000380: 1d29 debc 93e2 243d 2c83 213d 74c0 f1bc
00000390: 8e75 c93c 9501 89bd 2145 aabd 8053 30bd
000003a0: 55bc 713b a74a 8d3c cc8f 21bd bca2 373d
000003b0: c748 303d efd9 c4bc 3c3b 27bd 169a 84bc
000003c0: a13f 51bd 17d2 a0bd 28ff 0c3d 7827 dcbc
000003d0: 1189 873d 14e7 543d 75cb 4fbd c078 533c
000003e0: 58e7 09bd 8669 73bd eb7e 41bb c2f3 e3bc
000003f0: 2917 313d 4a00 2fbd 9d87 25bd 1793 46bc

conv1.conv.bias f4 [8]
0.03637195 -0.010172143 -0.022728523 0.012190058 -0.00892294 0.05894301 -0.022310197 -0.07801382
00000000: c1fa 143d 0fa9 26bc 2b31 babc cfb8 473c
00000010: 8631 12bc 3a6e 713d e0c3 b6bc b6c5 9fbd

in1.weight f4 [8]
0.985261 0.9742633 1.0090313 0.9896218 1.0219157 1.0201986 0.9395672 1.0286933
00000000: 113a 7c3f 5269 793f f027 813f db57 7d3f
00000010: 22ce 823f de95 823f 7a87 703f 39ac 833f

in1.bias f4 [8]
0.051034328 0.034948353 0.05822979 0.023198681 -0.013123447 0.03735907 0.00067938765 -0.00607745
00000000: 5f09 513d 0126 0f3d 5c82 6e3d 290b be3c
00000010: ba03 57bc d305 193d ef18 323a 5825 c7bb

conv2.conv.weight f4 [16, 8, 3, 3]
0.023553498 -0.11705623 -0.01700016 0.020925704 0.037025902 0.025174653 0.019784126 -0.0072043533
0.1051718 -0.0077744746 0.03454794 -0.10285232 0.061916724 -0.09223846 -0.08072717 -0.11413088
0.034634095 0.040551513 -0.13212977 -0.09196417 0.04903779 -0.116080254 -0.10644237 0.03853483
0.022970462 -0.07866161 -0.10774735 -0.13798802 -0.09062834 -0.05846462 0.019929115 0.08282929
-0.02148739 -0.013676782 -0.053616345 -0.025547212 0.019120118 -0.009097534 -0.022761554 -0.056483835
0.01890704 -0.033482354 -0.026726821 -0.0031934797 0.078649886 -0.07761845 0.010327598 0.06220175
0.073220514 -0.025490247 -0.06881198 0.064188875 0.03943014 -0.049908563 -0.05254942 -0.071042486
-0.02236563 -0.105420716 -0.10393206 0.12067434 0.094863996 -0.06489893 -0.016834142 0.059950463
0.046213206 0.12582514 -0.036952365 0.04765688 0.03311686 -0.08981621 -0.07121414 0.045657326
0.04640603 0.051483374 0.033643536 0.0645152 -0.015730586 -0.08280868 0.12628335 -0.041657966
-0.089569606 0.0429279 -0.08790377 0.0028639804 -0.10714109 0.008507032 -0.12851019 -0.06741749
-0.04661155 0.10693754 0.06685708 -0.006020934 -0.024654873 0.009837317 0.06650166 0.110630095
-0.037338708 0.012914732 0.10312141 0.05534614 -0.05592226 -0.050453022 0.014439349 0.074562505
-0.0034299225 0.09526549 0.0010818572 0.08512509 0.0066171414 -0.073662594 0.051993556 0.11398513
0.06171669 0.069223076 0.013415111 0.04795131 -0.023001222 0.027759131 -0.06429814 -0.04564098
0.012803542 -0.031367302 0.080808304 -0.02030935 0.14494003 0.06947499 0.060428213 -0.05909748
-0.029559758 -0.0544927 -0.003908557 -0.02882967 -0.008417631 -0.073473185 -0.03628099 0.051842947
-0.088542074 -0.06291318 0.0069747227 0.087397605 -0.08420789 0.0014984144 -0.025222726 -0.030748442
-0.020446524 0.08875271 -0.028264638 -0.087195545 0.12816483 -0.06088594 -0.036022972 -0.05706177
0.030964138 -0.035186898 -0.12838605 -0.04324885 0.060521863 0.04024367 0.07622749 0.056230687
0.0849653 0.008436469 -0.08649379 0.021996357 0.043429077 -0.05391973 0.009993229 -0.095513806
-0.041611273 -0.064070776 -0.0017043677 -0.072265774 -0.07983463 -0.022007855 0.10548724 -0.07710093
-0.097389296 0.008676401 -0.03852449 0.0025874162 0.1041388 -0.08534447 0.085634865 -0.048826702
-0.012122461 0.07484571 -0.11105839 -0.1457115 -0.07305598 0.09687396 0.037821025 -0.053139396
-0.104517095 -0.06644293 -0.12811264 0.050474074 0.008572787 -0.053847294 -0.05464791 -0.09362923
0.002952091 0.069184616 -0.069152266 0.018650506 0.09092472 0.050197184 0.07401035 -0.017805768
0.008407006 -0.05164561 -0.051295143 -0.01360343 0.08103185 -0.0956935 0.015635394 0.034045506
-0.009250776 0.043562483 0.0026785617 0.073551506 0.103841096 -0.06122393 -0.0720115 -0.044445556
-0.10454072 -0.03354214 0.09997387 -0.10003981 0.012856141 0.050409738 -0.04376229 -0.0059221745
0.08872139 0.0029803512 -0.043302324 -0.059683274 0.030310182 -0.04186817 -0.10888721 0.032187823
0.082920596 -0.036995538 -0.13909747 -0.0683167 0.087841064 0.10069655 -0.097969756 -0.08381662
0.09633295 0.045180824 -0.010863703 -0.08952248 -0.10018538 -0.0023384318 -0.05382122 -0.010433175
00000000: 44f3 c03c 2dbb efbd eb43 8bbc 626c ab3c
00000010: 79a8 173d 133b ce3c 5212 a23c 7f12 ecbb
00000020: 5064 d73d 05c1 febb 2482 0d3d 3da4 d2bd
00000030: 649c 7d3d 85e7 bcbd 4954 a5bd 73bd e9bd
00000040: 7bdc 0d3d 5819 263d 074d 07be b657 bcbd
00000050: dadb 483d 7cbb edbd 75fe d9bd b3d6 1d3d
00000060: 8d2c bc3c 5719 a1bd a5aa dcbd bb4c 0dbe
00000070: 5a9b b9bd 9978 6fbd 6242 a33c 67a2 a93d
00000080: 5306 b0bc 9514 60bc d09c 5bbd 6348 d1bc
00000090: cba1 9c3c d30d 15bc 7076 babc 985b 67bd
000000a0: f0e2 9a3c cb24 09bd 35f2 dabc b349 51bb
000000b0: 3113 a13d 6cf6 9ebd 1635 293c 43c7 7e3d
000000c0: a3f4 953d ecd0 d0bc 4ced 8cbd 7575 833d
000000d0: 8081 213d ec6c 4cbd 103e 57bd b97e 91bd
000000e0: 2038 b7bc d1e6 d7bd 55da d4bd 1c24 f73d
000000f0: 0e48 c23d bbe9 84bd c1e7 89bc 9e8e 753d
00000100: 0f4a 3d3d 4ed8 003e 5d5b 17bd dc33 433d
00000110: 8ba5 073d 90f1 b7bd b8d8 91bd 2d03 3b3d
00000120: 4014 3e3d 3be0 523d cecd 093d 8c20 843d
00000130: 6edd 80bc 9997 a9bd 6c50 013e 8ba1 2abd
00000140: 4570 b7bd 2ad5 2f3d e406 b4bd 9eb1 3b3b
00000150: ca6c dbbd 1461 0b3c 2d98 03be 2e12 8abd
00000160: c1eb 3ebd 1202 db3d 5dec 883d 414b c5bb
00000170: 04f9 c9bc b32c 213c 0632 883d 0892 e23d
00000180: 79f0 18bd 5098 533c 5131 d33d a2b2 623d
00000190: bd0e 65bd d4a7 4ebd 0593 6c3c 3ab4 983d
000001a0: 8dc8 60bb 8e1a c33d 1bcd 8d3a 1056 ae3d
000001b0: 9bd4 d83b 6adc 96bd 32f7 543d 0971 e93d
000001c0: a4ca 7c3d d4c4 8d3d 0ecb 5b3c 9868 443d
000001d0: 0f6d bcbc 1e67 e33c beae 83bd 09f2 3abd
000001e0: f3c5 513c 007b 00bd d37e a53d cb5f a6bc
000001f0: 296b 143e e748 8e3d 9383 773d 3310 72bd
00000200: 4e27 f2bc bd33 5fbd 5a13 80bb 332c ecbc
00000210: 1aea 09bc 1c79 96bd 609b 14bd 4559 543d
00000220: 8c55 b5bd a0d8 80bd 378c e43b 84fd b23d
00000230: 3075 acbd 7266 c43a e49f cebc 28e4 fbbc
00000240: 787f a7bc fbc3 b53d 3e8b e7bc 9493 b2bd
00000250: a43d 033e 8963 79bd d38c 13bd 9ab9 69bd
00000260: 81a8 fd3c 2320 10bd a277 03be b525 31bd
00000270: c6e5 773d 8cd6 243d 291d 9c3d 2652 663d
00000280: 4a02 ae3d 1e39 0a3c a823 b1bd b431 b43c
00000290: b0e2 313d efda 5cbd a4ba 233c be9c c3bd
000002a0: 9570 2abd 8a37 83bd 1765 dfba 1400 94bd
000002b0: 5780 a3bd d149 b4bc b209 d83d 18e7 9dbd
000002c0: 0a74 c7bd 7727 0e3c dbcb 1dbd a491 293b
000002d0: b946 d53d 15c9 aebd 5561 af3d 82fe 47bd
000002e0: 499d 46bc b548 993d 9572 e3bd 6535 15be
000002f0: 609e 95bd db65 c63d 38ea 1a3d b2a8 59bd
00000300: 0f0d d6bd 3b13 88bd f62f 03be e7bd 4e3d
00000310: e074 0c3c fb8e 5cbd 7dd6 5fbd afc0 bfbd
00000320: de77 413b aab0 8d3d b49f 8dbd f2c8 983c
00000330: bd36 ba3d 909b 4d3d bd92 973d 67dd 91bc
00000340: 8abd 093c 598a 53bd db1a 52bd ece0 5ebc
00000350: 07f4 a53d f4fa c3bd cc15 803c 4d73 0b3d
00000360: 9190 17bc 936e 323d cf8a 2f3b 2ca2 963d
00000370: a4aa d43d f2c5 7abd c47a 93bd 8b0c 36bd
00000380: 7219 d6bd 7c63 09bd 1abf cc3d ace1 ccbd
00000390: 90a2 523c 717a 4e3d 1640 33bd cd0e c2bb
000003a0: 8fb3 b53d ff51 433b c75d 31bd 7376 74bd
000003b0: 0f4d f83c f57d 2bbd 4200 dfbd 61d7 033d
000003c0: 46d2 a93d a288 17bd 916f 0ebe a0e9 8bbd
000003d0: 04e6 b33d fe39 ce3d 5ea4 c8bd 0ca8 abbd
000003e0: 364a c53d 870f 393d acfd 31bc 9057 b7bd
000003f0: fe2d cdbd 6040 19bb a473 5cbd e8ef 2abc

conv2.conv.bias f4 [16]
0.08615492 -0.06344022 0.07907089 0.032928195 -0.13990264 -0.090819485 0.07703607 0.01804443
-0.04340437 0.063202485 -0.05190714 0.08585366 0.118893765 0.09799997 0.011502445 0.09818655
00000000: fe71 b03d f2ec 81bd ebef a13d b7df 063d
00000010: a342 0fbe 91ff b9bd 16c5 9d3d ead1 933c
00000020: c8c8 31bd 4e70 813d 959c 54bd 0bd4 af3d
00000030: 937e f33d 35b4 c83d c074 3c3c 0816 c93d

in2.weight f4 [16]
0.9997249 0.97976553 1.0051842 0.99738973 0.9878953 1.0033525 1.0215937 0.9884588
0.97867596 1.0001035 1.0273579 0.9702875 1.021573 1.028259 0.99685127 0.99301785
00000000: f9ed 7f3f ead1 7a3f e0a9 803f ef54 7f3f
00000010: b5e6 7c3f db6d 803f 95c3 823f a30b 7d3f
00000020: 828a 7a3f 6403 803f 7780 833f c364 783f
00000030: e7c2 823f fe9d 833f a531 7f3f 6b36 7e3f

in2.bias f4 [16]
-0.0040054885 0.06312057 0.038160205 0.0062128305 0.048070848 0.019118603 0.043188762 -0.0083164675
-0.033629302 -0.011768602 0.040460013 -0.0326534 0.036746394 -0.016096795 0.021522576 0.004195726
00000000: 7940 83bb 5b45 813d e04d 1c3d 0095 cb3b
00000010: f0e5 443d 9e9e 9c3c b3e6 303d cb41 08bc
00000020: e1be 09bd 18d1 40bc 66b9 253d 92bf 05bd
00000030: 6383 163d 6ddd 83bc 1d50 b03c 4d7c 893b

conv3.conv.weight f4 [32, 16, 3, 3]
-0.04208343 -0.002907675 0.030670194 -0.006661785 -0.046168044 0.054319307 0.08368633 0.0017380905
-0.047544636 0.015415652 0.014093959 -0.019075379 -0.035651047 0.08807952 -0.01716654 -0.025160689
0.03717168 -0.015870193 0.112683214 0.0530133 -0.016172322 -0.0555081 0.044066638 -0.028904662
-0.037980113 0.0682273 -0.0065207453 -0.008409717 0.04436351 0.032231137 -0.015712418 0.04889424
0.0054462254 -0.014193981 -0.044024188 0.02779017 0.0632567 -0.013554162 -0.06316137 0.012985509
-0.041671496 0.024277119 0.002821754 -0.02795809 -0.048380896 0.041697603 -0.06072155 -0.05509726
-0.012917251 0.036871478 0.022914018 -0.03608309 -0.08508464 -0.04200454 0.027223106 -0.053620066
-0.043378 -0.0328827 0.031149374 -0.042942647 0.092146955 0.029533952 0.05836979 0.11352267
0.096652165 0.0005447801 0.022738516 0.030190622 0.08944207 -0.03087619 0.012205964 0.09954033
0.04068293 0.035913754 0.016614351 0.02764324 0.041070443 0.003880131 -0.052447837 0.01656675
-0.026776517 0.02947193 -0.044436414 0.041619603 -0.06865234 -0.00030772915 -0.086609066 0.0453675
-0.03740613 -0.01301819 -0.037613075 0.048108794 0.0797733 -0.07208219 0.011230622 -0.051374827
-0.013569403 0.07299918 0.084451266 -0.009716976 0.009196108 0.062893294 -0.07019182 0.00939936
-0.01200887 0.03151014 0.054625586 0.073483296 -0.00015723966 -0.051863868 0.07182173 0.027631884
0.066070154 -0.005084421 0.018239936 -0.09543958 0.037133742 0.070367716 0.12809405 -0.033437476
0.046068635 0.11568159 0.016082348 0.023173183 0.029103026 -0.022514882 0.03200649 -0.0036930337
-0.03714718 0.0014708589 -0.028796094 0.1219029 0.010785234 0.021571385 0.13450414 0.017672382
0.023684641 -0.053904716 -0.0016623733 -0.023028972 0.103485346 -0.065848485 -0.06776165 -0.00260042
-0.016662162 -0.076311745 -0.09295989 0.060179144 -0.07323365 -0.07134971 -0.051625535 -0.02730464
0.0024097806 0.0015603955 -0.01483866 0.030309381 0.012920497 -0.06807646 -0.08468913 -0.0030871648
0.051338885 0.0051752958 0.0038255346 0.0064362125 0.061167136 0.040383305 0.0371558 0.07704302
0.056151584 0.041003637 -0.058950562 0.034986794 0.027781364 0.07353792 -0.020561557 0.073922165
0.032048628 0.04412309 -0.07296823 -0.025509255 0.048030365 0.023212347 0.03500015 -0.009899633
-0.069781 -0.0024339058 0.018375138 -0.036091764 0.0017763082 0.109067746 0.03754311 -0.049473733
-0.038491305 -0.09109936 -0.09836255 -0.04717425 0.05856036 -0.1308967 0.027189711 -0.0268608
0.08095513 -0.04843911 -0.0015748099 -0.087877825 -0.019062923 0.01710707 -0.03224451 -0.05595773
0.06331927 0.076768585 -0.035412956 -0.064639315 0.016984142 0.03114278 -0.06522366 -0.048540775
-0.05785042 -0.07167984 0.008734304 0.04550312 0.0943882 0.02539472 -0.058672078 -0.03312543
-0.061654147 -0.020444497 -0.04303938 0.012777407 0.094723 -0.05415176 0.033049054 -0.0014800979
0.010212167 -0.032539718 0.05206895 0.082012415 0.12878354 0.06632595 -0.049506065 0.041954223
-0.051754832 0.026691569 -0.094412066 -0.028946016 -0.053783026 0.04904387 0.050927646 -0.055017285
0.07707702 0.039700594 -0.0898108 -0.041380145 0.013176231 -0.03163554 -0.00665332 -0.11825924
00000000: ad5f 2cbd b18e 3ebb 0f40 fb3c 1a4b dabb
00000010: b41a 3dbd ec7d 5e3d bd63 ab3d a4d0 e33a
00000020: 2abe 42bd ee91 7c3c 59ea 663c f843 9cbc
00000030: d506 12bd 0963 b43d d8a0 8cbc ca1d cebc
00000040: 5541 183d 3502 82bc 75c6 e63d 7924 593d
00000050: d17b 84bc 765c 63bd 387f 343d 78c9 ecbc
00000060: 0991 1bbd c1ba 8b3d faab d5bb e9c8 09bc
00000070: 83b6 353d cc04 043d 54b7 80bc 5445 483d
00000080: 4076 b23b df8d 68bc b552 34bd 36a8 e33c
00000090: bb8c 813d 4712 5ebc c05a 81bd 2cc1 543c
000000a0: bbaf 2abd cfe0 c63c 2ded 383b 5d08 e5bc
000000b0: 0c2b 46bd 1bcb 2a3d 29b7 78bd aaad 61bd
000000c0: e1a2 53bc 8c06 173d 2eb6 bb3c ddcb 13bd
000000d0: db40 aebd f40c 2cbd fe02 df3c b7a0 5bbd
000000e0: 21ad 31bd 03b0 06bd f92c ff3c a1e4 2fbd
000000f0: 8bb7 bc3d 30f1 f13c 2915 6f3d 937e e83d
00000100: 92f1 c53d 93cf 0e3a 2046 ba3c 5352 f73c
00000110: 672d b73d 10f0 fcbc 86fb 473c cddb cb3d
00000120: 25a3 263d 4d1a 133d d21a 883c 1374 e23c
00000130: 7b39 283d cc49 7e3b 8bd3 56bd feb6 873c
00000140: 6d5a dbbc 1e6f f13c f502 36bd 5179 2a3d
00000150: 9999 8cbd b556 a1b9 1860 b1bd 46d3 393d
00000160: 2c37 19bd 3f4a 55bc 2b10 1abd ba0d 453d
00000170: 2f60 a33d d49f 93bd a500 383c 696e 52bd
00000180: 3452 5ebc 9880 953d c9f4 ac3d f433 1fbc
00000190: 46ab 163c 33ce 803d bbc0 8fbd c6ff 193c
000001a0: dac0 44bc c710 013d 14bf 5f3d 697e 963d
000001b0: b3e0 24b9 356f 54bd 4517 933d 435c e23c
000001c0: ca4f 873d 379b a6bb eb6b 953c d475 c3bd
000001d0: 8d19 183d f31c 903d 162b 033e bcf5 08bd
000001e0: 77b2 3c3d 78ea ec3d 21bf 833c b0d5 bd3c
000001f0: 7869 ee3c 2171 b8bc 3d19 033d d306 72bb
00000200: a427 18bd d6c9 c03a c9e5 ebbc 3aa8 f93d
00000210: 8db4 303c 79b6 b03c 74bb 093e acc5 903c
00000220: 4b06 c23c 31cb 5cbd fee3 d9ba 41a7 bcbc
00000230: 20f0 d33d 92db 86bd 9fc6 8abd cf6b 2abb
00000240: 167f 88bc 5549 9cbd c161 bebd 687e 763d
00000250: 86fb 95bd cc1f 92bd 4c75 53bd fbad dfbc
00000260: 69ed 1d3b 2f86 cc3a da1d 73bc 614b f83c
00000270: 7eb0 533c ac6b 8bbd 7f71 adbd 0852 4abb
00000280: b948 523d 8795 a93b d2b5 7a3b dde6 d23b
00000290: 648a 7a3d f768 253d ae30 183d bbc8 9d3d
000002a0: 34ff 653d 6ef3 273d 2576 71bd 504e 0f3d
000002b0: be95 e33c 0d9b 963d b670 a8bc 8164 973d
000002c0: 6c45 033d 6aba 343d 5e70 95bd c9f8 d0bc
000002d0: 7dbb 443d d227 be3c 515c 0f3d 1232 22bc
000002e0: 57e9 8ebd 2a82 1fbb 7587 963c f5d4 13bd
000002f0: 03d3 e83a e95e df3d cec6 193d f8a4 4abd
00000300: 0fa9 1dbd 4d92 babd 4e72 c9bd c939 41bd
00000310: fddc 6f3d c909 06be f5bc de3c 2e0b dcbc
00000320: cecb a53d 1768 46bd da69 ceba 4af9 b3bd
00000330: d929 9cbc 2024 8c3c d212 04bd ef33 65bd
00000340: 89ad 813d d938 9d3d 2d0d 11bd 9e61 84bd
00000350: 5422 8b3c 251f ff3c fb93 85bd b1d2 46bd
00000360: 90f4 6cbd e1cc 92bd 541a 0f3c 7b61 3a3d
00000370: 9a4e c13d 9608 d03c 2252 70bd 88ae 07bd
00000380: 0f89 7cbd 387b a7bc 104a 30bd 5458 513c
00000390: 22fe c13d 3cce 5dbd 725e 073d d8ff c1ba
000003a0: ef50 273c 5e48 05bd 4046 553d 20f6 a73d
000003b0: d5df 033e e6d5 873d dfc6 4abd 31d8 2b3d
000003c0: e0fc 53bd 47a8 da3c 1d5b c1bd 3220 edbc
000003d0: 974b 5cbd 3ae2 483d 8299 503d ce59 61bd
000003e0: 8fda 9d3d 179d 223d baee b7bd 3a7e 29bd
000003f0: 1ee1 573c 4594 01bd 1804 dabb e731 f2bd

conv3.conv.bias f4 [32]
-0.016079837 -0.06661727 0.043233003 0.0038004161 -0.07911638 -0.010499961 -0.080237456 0.03439603
0.061150778 -0.04320112 0.011173813 -0.07210714 -0.0878362 -0.012298407 0.0652072 0.06680559
0.098864295 -0.07212792 -0.038325455 0.005008798 0.0018360155 0.018373838 -0.06373188 -0.039282195
0.0068011056 -0.0028887398 -0.016781405 -0.08092521 -0.06164651 -0.036997173 -0.06309369 0.025848934
00000000: ddb9 83bc a36e 88bd 1715 313d 6710 793b
00000010: c507 a2bd 0708 2cbc 8953 a4bd dae2 0c3d
00000020: 3d79 7a3d a8f3 30bd 5e12 373c e9ac 93bd
00000030: 77e3 b3bd 427f 49bc 5a8b 853d 5fd1 883d
00000040: 5d79 ca3d ceb7 93bd 27fb 1cbd d820 a43b
00000050: 75a6 f03a bb84 963c dc85 82bd 5ee6 20bd
00000060: cfdb de3b 0351 3dbb 2879 89bc 1ebc a5bd
00000070: 0d81 7cbd 598a 17bd 4437 81bd 25c1 d33c

in3.weight f4 [32]
0.9704918 0.9989663 0.998144 0.9996731 0.99106926 0.9790642 1.0134728 0.98826283
0.94218254 1.0020386 0.974065 0.97371393 0.9557699 0.98042387 0.96540165 0.97156477
0.9977993 0.9932405 1.0020345 0.9838922 0.99637103 1.019477 0.9351769 0.9995512
0.9839097 0.98669696 1.0027139 0.99657875 0.9870376 0.9734222 0.9710153 0.9948994
00000000: 2772 783f 41bc 7f3f 5d86 7f3f 94ea 7f3f
00000010: b7b6 7d3f f4a3 7a3f 7ab9 813f cbfe 7c3f
00000020: e032 713f cd42 803f 535c 793f 5145 793f
00000030: 56ad 743f 0ffd 7a3f 9024 773f 78b8 783f
00000040: c66f 7f3f 0245 7e3f ab42 803f 5ce0 7b3f
00000050: 2c12 7f3f 397e 823f c167 6f3f 96e2 7f3f
00000060: 82e1 7b3f 2c98 7c3f ee58 803f c91f 7f3f
00000070: 7fae 7c3f 3332 793f 7594 783f bab1 7e3f

in3.bias f4 [32]
-0.039508004 0.026001818 0.023338044 0.025113685 -0.004457279 0.005648609 0.009135108 -0.0061822347
-0.035377007 0.0045921095 -0.030741518 -0.07350351 -0.05360715 0.052674126 -0.052673824 0.0073307357
-0.016267823 -0.002796725 -0.00874851 -0.023835082 -0.018944487 -0.0011319367 -0.062695734 -0.023778204
-0.0015961716 -0.0019972103 0.062147375 0.00240359 -0.035008222 -0.025475327 -0.021294445 -0.020789515
00000000: 25d3 21bd c401 d53c 6d2f bf3c 37bb cd3c
00000010: 5e0e 92bb f717 b93b 6cab 153c 5894 cabb
00000020: 7be7 10bd 6879 963b a3d5 fbbc 0289 96bd
00000030: 2c93 5bbd d3c0 573d 82c0 57bd ab36 f03b
00000040: 1944 85bc 4249 37bb e955 0fbc ca41 c3bc
00000050: 7831 9bbc 7e5d 94ba 9f66 80bd 82ca c2bc
00000060: a236 d1ba a1e3 02bb 3f8e 7e3d 8c85 1d3b
00000070: c864 0fbd a2b1 d0bc b071 aebc c64e aabc

res_blocks.0.conv1.conv.weight f4 [32, 32, 3, 3]
-0.05110963 0.002770965 -0.059934027 -0.01856197 0.007805295 0.03672103 -0.016690923 0.028435098
-0.04804218 0.0060812486 0.026740748 -0.02191572 0.0028804783 0.035111908 0.023066202 0.034718163
-0.017415231 0.025201028 0.027302103 0.03409523 -0.06805972 -0.008721529 -0.008992809 0.033208072
-0.07548745 -0.011265786 -0.0034915914 -0.04717433 -0.036388237 -0.07225229 -0.053104736 -0.08313043
-0.013928108 0.04656309 0.028233264 0.02398264 -0.039621457 0.04689672 0.017340368 0.050769545
0.017657977 0.018950673 0.028627424 -0.02885777 0.03032577 0.011227703 -0.03098399 -0.031516504
-0.03243719 0.04483995 -0.07301198 0.024461642 -0.027206209 -0.055623084 0.03766308 -0.013417952
-0.08405373 0.019933483 -0.04795625 -0.028791415 -0.03038443 -0.045117535 -0.03712209 -0.009780948
0.017344523 0.0016507366 0.06223761 -0.0033188686 -0.073829845 -0.036337666 -0.046479873 -0.03850505
-0.0084136855 -0.07656805 -0.020552645 0.004114397 -0.0028532748 0.04025185 -0.0854076 0.052624255
-0.016409071 0.05418214 -0.02150951 -0.055873413 -0.08611967 -0.07631644 -0.033628605 0.07858938
-0.029768959 0.060862012 -0.025038479 -0.02847298 -0.0019352153 -0.028422754 -0.068365455 -0.025259387
0.02267697 0.0060861656 -0.011962864 -0.020927098 -0.05655588 0.024367537 0.055897124 0.043994002
0.01874141 0.0027051198 -0.02376089 0.008145028 -0.003006138 -0.034812767 -0.0027112158 0.009079246
0.016202044 -0.010385023 0.050569415 -0.056279484 0.013997701 -0.052482795 0.014879496 -0.06351882
-0.035751496 -0.011465708 0.085886665 -0.024103906 0.018163938 0.027484765 0.029783955 0.033903513
0.04038951 -0.018155443 0.009171542 -0.00391477 0.0706996 0.0004182019 -0.011615154 0.0094685145
0.018954618 0.014119942 -0.02993496 0.031598564 -0.03697976 -0.042031806 0.004234306 -0.016332224
0.011462205 -0.0059583774 -0.08019651 -0.006197069 -0.0030739107 0.022538362 0.010324192 0.038597137
-0.058172874 0.04230466 0.013247558 0.025255447 0.008453485 0.011879083 -0.04528597 0.044748027
0.0544837 0.021516033 -0.022516979 0.020502878 0.03231226 -0.0101860175 -0.02450432 -0.015163673
0.024452496 0.0320697 -0.012917012 0.0082078995 -0.023669757 0.0028555512 0.0029808413 -0.020779345
-0.012571878 0.00089500385 -0.04639921 0.007402314 0.0056992974 0.08029619 0.03489863 0.038946398
-0.0017602307 0.019751169 0.0072920443 -0.0011869792 -0.028220125 -0.018072251 -0.041448526 -0.008843211
-0.053340007 -0.013667499 -0.023678362 0.028438844 0.038964737 -0.0022785617 -0.026225 -0.010011228
-0.076 -0.01565878 -0.034063075 0.0013166021 0.017620027 -0.0072738836 -0.05965471 0.003277041
-0.031136107 -0.013950777 0.052646324 0.042242475 0.013704964 -0.021863881 -0.0051334766 -0.024533793
-0.08218672 -0.020349061 -0.039697263 -0.08091797 -0.07679228 0.014558473 -0.089250155 -0.05444952
0.01293004 -0.0067018913 -0.0711308 -0.04444409 -0.0035013184 -0.017751547 0.029720033 0.060949124
-0.02483833 -0.021676747 -0.04359344 0.016748019 -0.008213105 -0.026995191 -0.018896498 -0.010998915
0.059631288 0.019939749 -0.05865627 -0.017282462 0.04559217 0.005730477 0.10379815 0.005992877
-0.0032099877 0.0053127087 -0.044749867 -0.042209 -0.013327349 -0.005378816 0.06988587 -0.009249934
00000000: 5558 51bd 1499 353b 627d 75bd 460f 98bc
00000010: 8fc3 ff3b ca68 163d 67bb 88bc b9f0 e83c
00000020: e0c7 44bd 3645 c73b 6a0f db3c 9988 b3bc
00000030: 68c6 3c3b 81d1 0f3d 55f5 bc3c a234 0e3d
00000040: 63aa 8ebc 6372 ce3c a9a8 df3c 71a7 0b3d
00000050: e562 8bbd bee4 0ebc 9356 13bc 3005 083d
00000060: 2a99 9abd 2294 38bc 2fd3 64bb df39 41bd
00000070: d50b 15bd 02f9 93bd 5a84 59bd 4940 aabd
00000080: b832 64bc f0b8 3e3d 7249 e73c 3e77 c43c
00000090: 1c4a 22bd c616 403d 630d 8e3c baf3 4f3d
000000a0: 76a7 903c 713e 9b3c 0f84 ea3c 2167 ecbc
000000b0: c06d f83c 66f4 373c 23d2 fdbc 7317 01bd
000000c0: dcdc 04bd 18aa 373d 4e87 95bd c863 c83c
000000d0: 8edf debc 08d5 63bd 9a44 1a3d f8d6 5bbc
000000e0: 5d24 acbd 8b4b a33c c66d 44bd f9db ebbc
000000f0: c5e8 f8bc 2acd 38bd 550d 18bd 4540 20bc
00000100: 1a16 8e3c 875d d83a ddec 7e3d 6081 59bb
00000110: 1a34 97bd ced6 14bd ae61 3ebd 79b7 1dbd
00000120: 8ed9 09bc b6cf 9cbd 055e a8bc 10d2 863b
00000130: 02fe 3abb 20df 243d 2eea aebd 888c 573d
00000140: 516c 86bc 17ee 5d3d b634 b0bc 85db 64bd
00000150: 825f b0bd cb4b 9cbd 26be 09bd 78f3 a03d
00000160: 08de f3bc 724a 793d 7f1d cdbc 2b40 e9bc
00000170: 0da7 fdba d6d6 e8bc 3003 8cbd c6ec cebc
00000180: 0ec5 b93c 756e c73b e3ff 43bc 4e6f abbc
00000190: 23a7 67bd 6e9e c73c 62f4 643d 0e33 343d
000001a0: 9687 993c 6148 313b 33a6 c2bc b972 053c
000001b0: a002 45bb d597 0ebd a7ae 31bb 1ec1 143c
000001c0: 26ba 843c f225 2abc e021 4f3d 5185 66bd
000001d0: 9d56 653c 33f8 56bd 21c9 733c 2816 82bd
000001e0: 2970 12bd aada 3bbc 59e5 af3d 8e75 c5bc
000001f0: 8acc 943c bb27 e13c 7bfd f33c 69de 0a3d
00000200: 796f 253d b9ba 94bc 3c44 163c 7947 80bb
00000210: f4ca 903d 1c42 db39 7d4d 3ebc d421 1b3c
00000220: b746 9b3c 5457 673c 293a f5bc 7f6d 013d
00000230: 1778 17bd 8b29 2cbd efbf 8a3b 28cb 85bc
00000240: f9cb 3b3c 7e3e c3bb 113e a4bd c810 cbbb
00000250: aa73 49bb 5fa2 b83c cd26 293c 0818 1e3d
00000260: ae46 6ebd a747 2d3d 490c 593c 83e4 ce3c
00000270: 7c80 0a3c 7ca0 423c c87d 39bd b549 373d
00000280: 4d2a 5f3d 6442 b03c 8775 b8bc a7f5 a73c
00000290: dc59 043d 41e3 26bc 49bd c8bc 0e71 78bc
000002a0: 9a50 c83c 855b 033d e0a1 53bc 6d7a 063c
000002b0: 14e7 c1bc 3324 3b3b 385a 433b 7239 aabc
000002c0: 47fa 4dbc b19e 6a3a 190d 3ebd 1c8f f23b
000002d0: 2cc1 ba3b 5472 a43d def1 0e3d 4286 1f3d
000002e0: 8bb7 e6ba 34cd a13c 1af2 ee3b 6a94 9bba
000002f0: e42d e7bc 420c 94bc eec5 29bd 1ee3 10bc
00000300: 0d7b 5abd a5ed 5fbc 20f9 c1bc 94f8 e83c
00000310: 7d99 1f3d ec53 15bb d0d5 d6bc 2206 24bc
00000320: e3a5 9bbd d746 80bc b985 0bbd d691 ac3a
00000330: e057 903c c259 eebb 7f58 74bd a0c3 563b
00000340: 2611 ffbc cd91 64bc aca3 573d 7206 2d3d
00000350: c98a 603c e21b b3bc b936 a8bb 18fb c8bc
00000360: 8351 a8bd 13b3 a6bc 9999 22bd 52b8 a5bd
00000370: 4545 9dbd a986 6e3c c9c8 b6bd 7606 5fbd
00000380: 85d8 533c 8a9b dbbb 06ad 91bd 020b 36bd
00000390: 6076 65bb b16b 91bc 6d77 f33c caa5 793d
000003a0: c179 cbbc 6f93 b1bc 098f 32bd 2433 893c
000003b0: 4290 06bc 0525 ddbc d4cc 9abc cb34 34bc
000003c0: f03f 743d af58 a33c 8f41 70bd f393 8dbc
000003d0: dbbe 3a3d bac6 bb3b 2094 d43d e55f c43b
000003e0: a85e 52bb 3b16 ae3b a34b 37bd 58e3 2cbd
000003f0: f45a 5abc c740 b0bb 5320 8f3d 098d 17bc

res_blocks.0.conv1.conv.bias f4 [32]
0.0029486448 0.019402197 -0.02979721 0.05629648 0.03929125 0.03756129 -0.07421041 -0.022152493
0.029922364 -0.019739404 0.0024873004 0.02751835 -0.010107993 -0.027265811 -0.025227027 0.049550634
-0.056043662 0.035892863 -0.021893699 0.051989395 -0.038321782 -0.04830834 0.011341056 0.035870496
-0.06456846 -0.026790658 -0.00988806 0.028293721 -0.011751079 -0.049145337 0.0137078855 0.045463257
00000000: 0d3e 413b 5bf1 9e3c 4719 f4bc 2397 663d
00000010: ddef 203d ded9 193d a1fb 97bd 2579 b5bc
00000020: bf1f f53c 88b4 a1bc fa01 233b 2a6e e13c
00000030: ff9b 25bc 8d5c dfbc e9a8 cebc 9bf5 4a3d
00000040: 0a8e 65bd 6504 133d 6a5a b3bc d5f2 543d
00000050: 4df7 1cbd f7de 45bd d6cf 393c f1ec 123d
00000060: 783c 84bd 1578 dbbc 8801 22bc 3cc8 e73c
00000070: 9987 40bc 9f4c 49bd 0a97 603c ae37 3a3d

res_blocks.0.in1.weight f4 [32]
1.0121374 1.005712 1.0175143 0.9935633 1.0024399 0.9862915 0.9894397 1.0047064
0.9887928 0.99206996 1.0149429 1.0189108 0.99663126 1.0000623 0.9941126 1.0005468
0.993948 1.0063372 0.9935728 1.0184647 1.0061278 1.0348718 0.975416 1.0009321
0.9971298 0.9830497 1.0028567 1.0283778 1.0011396 1.0056757 0.98521096 1.0282074
00000000: b88d 813f 2cbb 803f e93d 823f 2a5a 7e3f
00000010: f34f 803f 9a7d 7c3f ec4b 7d3f 389a 803f
00000020: 8621 7d3f 4cf8 7d3f a6e9 813f ab6b 823f
00000030: 3a23 7f3f 0b02 803f 2a7e 7e3f eb11 803f
00000040: 6073 7e3f a8cf 803f c95a 7e3f 0d5d 823f
00000050: ccc8 803f ae76 843f ddb4 793f 8b1e 803f
00000060: e643 7f3f 25a9 7b3f 9c5d 803f e2a1 833f
00000070: 5825 803f fbb9 803f c936 7c3f 4d9c 833f

res_blocks.0.in1.bias f4 [32]
-0.028281892 -0.0041929292 0.002952615 0.017935487 -0.022170251 -0.029950319 -0.04337201 -0.0681314
-0.02691467 0.0160749 0.016016832 -0.007133447 -0.0069560423 0.020208918 -0.027614849 0.0064058136
0.013408963 -0.03694855 0.0067396387 -0.009673965 0.020362882 -0.020207355 0.0076680956 -0.030712709
-0.017527359 -0.024196614 -0.021099951 -0.016581083 9.007135e-05 0.005822055 -0.0078980625 0.0052186605
00000000: 6daf e7bc d764 89bb a980 413b 71ed 923c
00000010: 639e b5bc 5f5a f5bc d9a6 31bd 7a88 8bbd
00000020: 277c dcbc 82af 833c bb35 833c b1bf e9bb
00000030: 83ef e3bb 2c8d a53c 8938 e2bc dce7 d13b
00000040: 44b1 5b3c 5d57 17bd 30d8 dc3b 8d7f 1ebc
00000050: 0fd0 a63c e589 a5bc a644 fb3b 3899 fbbc
00000060: 8995 8fbc fa37 c6bc ced9 acbc 0dd5 87bc
00000070: b0e4 bc38 f0c6 be3b e066 01bc 4c01 ab3b

res_blocks.0.conv2.conv.weight f4 [32, 32, 3, 3]
0.01880578 0.012008208 -0.042657305 0.031234886 -0.05007786 -0.0044651707 -0.03975481 -0.014867329
-0.0021146135 -0.036885332 -0.017708415 0.10559162 -0.020513633 0.0711437 -0.03639816 0.0065002306
-0.021541411 0.0055190204 -0.045367055 -0.0021064074 0.025469163 -0.056782156 -0.062148344 -0.061926197
0.0048036613 0.019359348 0.021770706 0.035756905 -0.029338641 -0.058124498 -0.052093517 0.04428822
0.03525605 0.0072372225 0.008385462 -0.02698666 -0.06020088 0.042768497 -0.009141293 0.055390704
-0.015426394 0.01900758 -0.038302604 0.009584579 0.044121046 -0.016215153 0.062445678 -0.046587624
0.030338539 0.067850284 0.04594584 -0.015689217 -0.0017293361 0.034405332 -0.009635095 0.06223068
0.027098037 0.01204099 -0.045730174 -0.0102852 -0.012847102 -0.037819542 0.023847055 -0.054544017
0.01611818 0.005936277 0.051688734 -0.061215453 -0.031822078 -0.012862855 0.022909665 0.049167037
-0.008712607 0.021535408 0.018443808 0.022036841 -0.02212872 0.01682744 -0.018425941 0.0005699377
-0.059173107 -0.029288072 -0.022925662 0.0084230155 -0.06558781 -0.016599752 0.0062497035 -0.052250616
-0.040706404 -0.029439574 0.008923249 0.048755884 0.009763131 -0.02170739 0.03171262 0.03201067
0.04570187 -0.010109559 0.037363254 -0.0035899407 -0.030607658 0.006408584 0.08062684 0.011737104
-0.019016892 0.05086384 -0.0435204 0.030267842 -0.05046164 0.019319471 0.027003743 0.04612525
-0.0054587354 0.05598681 0.039985184 -0.020894628 -0.043238617 -0.051380523 0.017550595 -0.010230127
0.015846053 0.06345327 -0.016243197 -0.03790659 -0.02084389 0.08871632 -0.03262648 0.01901537
-0.010226876 -0.032047085 -0.005645806 0.038506214 -0.018313657 -0.060203683 -0.026913008 -0.04018111
0.085170366 -0.022989443 -0.011742665 -0.07218233 -0.022249287 -0.021469546 -0.011851104 0.05928112
0.0047261296 0.05094622 0.03795271 -0.0259449 -0.07368562 0.02804089 -0.05133786 -0.034784928
-0.029736737 0.01462263 -0.010424899 0.0630978 -0.035723533 0.03538368 0.00063496834 0.038123727
0.029186249 0.019701468 -0.004058998 -0.030802535 0.015291073 -0.0011076181 -0.060447957 0.038623538
0.013099688 0.044522606 0.027862435 -0.00944781 0.0036535556 0.01533149 -0.012661916 0.020600017
-0.023754915 0.0065804454 0.032666855 -0.057265714 0.083945714 -0.052691985 -0.014555645 0.05723812
0.013012356 0.09514089 0.008652333 0.078390084 0.031179143 -0.019597769 0.022603558 -0.013027458
-0.052447792 -0.023669632 0.06722457 -0.016938161 0.009479841 0.011054189 -0.049706466 -0.03412042
-0.0077891555 0.02874638 0.0036366396 0.017022448 -0.008250985 0.036239646 -0.021360284 -0.0048881657
0.012103063 0.032244336 0.020150922 0.032188687 -0.047624193 0.012766631 0.036271583 -0.006453827
-0.03920806 0.043981627 0.009099199 0.0077824076 0.024869546 0.029134743 0.038009934 -0.07371376
0.031039892 -0.0026258067 0.011734092 -0.0044106087 0.03707751 0.05490938 -0.0014884309 -0.07470493
0.006003961 0.007454332 0.038922317 0.037754834 0.045509834 0.049868636 -0.011392607 -0.057078015
-0.0034116013 0.054410152 0.007602276 0.00020289069 -0.025487937 -0.006258923 -0.020196838 -0.074977964
0.017323002 -0.014400366 0.028920114 -0.053777292 0.038405098 -0.045616638 -0.02677379 -0.017198332
00000000: 940e 9a3c 13be 443c 6db9 2ebd 4ee0 ff3c
00000010: 711e 4dbd 9150 92bb f1d5 22bd 1996 73bc
00000020: 5495 0abb 1315 17bd 3d11 91bc 6b40 d83d
00000030: 350c a8bc cab3 913d 3d16 15bd e3ff d43b
00000040: 9d77 b0bc e6d8 b43b ced2 39bd a70b 0abb
00000050: b5a4 d03c 6894 68bd 438f 7ebd 53a6 7dbd
00000060: 0868 9d3b 7f97 9e3c 7b58 b23c d575 123d
00000070: 9757 f0bc f413 6ebd 0360 55bd 9167 353d
00000080: a668 103d 3926 ed3b 2d63 093c 2113 ddbc
00000090: 3395 76bd 052e 2f3d 5dc5 15bc 5de1 623d
000000a0: fcbe 7cbc c9b5 9b3c 31e3 1cbd a308 1d3c
000000b0: 45b8 343d a4d5 84bc 0ac7 7f3d aad2 3ebd
000000c0: 8788 f83c 17f5 8a3d b531 3c3d ac86 80bc
000000d0: e4aa e2ba 9bec 0c3d 84dc 1dbc 99e5 7e3d
000000e0: b4fc dd3c 9347 453c 904f 3bbd 4183 28bc
000000f0: a77c 52bc aae8 1abd e65a c33c 8c69 5fbd
00000100: 460a 843c 1a85 c23b 91b7 533d 0ebd 7abd
00000110: de57 02bd b9be 52bc 0dad bb3c 6063 493d
00000120: 53bf 0ebc 066b b03c 7817 973c 9b86 b43c
00000130: 4a47 b5bc b3d9 893c 00f2 96bc df67 153a
00000140: 805f 72bd 8aed efbc 99ce bbbc b000 0a3c
00000150: e752 86bd 34fc 87bc 50ca cc3b be04 56bd
00000160: c2bb 26bd 432b f1bc d232 123c 40b4 473d
00000170: 8af5 1f3c b2d3 b1bc 18e5 013d 9f1d 033d
00000180: e231 3b3d 90a2 25bc 360a 193d 3645 6bbb
00000190: e9bc fabc 19ff d13b af1f a53d fb4c 403c
000001a0: 50c9 9bbc 9a56 503d 7242 32bd 44f4 f73c
000001b0: ddb0 4ebd de43 9e3c f436 dd3c d5ed 3c3d
000001c0: 31df b2bb 6d52 653d 81c7 233d 362b abbc
000001d0: fa1a 31bd 6274 52bd 44c6 8f3c 439c 27bc
000001e0: 95cf 813c caf3 813d 7410 85bc f143 1bbd
000001f0: cec0 aabc e7b0 b53d 58a3 05bd 1fc6 9b3c
00000200: a08e 27bc ce43 03bd 7400 b9bb b1b8 1d3d
00000210: 8606 96bc 2398 76bd ab78 dcbc f394 24bd
00000220: cd6d ae3d 5b54 bcbc 4f64 40bc 54d4 93bd
00000230: 2344 b6bc e7e0 afbc 222b 42bc c2d0 723d
00000240: a6dd 9a3b fcac 503d 4d74 1b3d 668a d4bc
00000250: 7de8 96bd 02b6 e53c a647 52bd a47a 0ebd
00000260: 759a f3bc c193 6f3c 32cd 2abc 6b39 813d
00000270: d752 12bd 7aee 103d 0174 263a a027 1c3d
00000280: 0018 ef3c f964 a13c 5801 85bb 9955 fcbc
00000290: 6987 7a3c 7f2d 91ba 4798 77bd b733 1e3d
000002a0: 13a0 563c 565d 363d c33f e43c fdca 1abc
000002b0: 7e70 6f3b ee30 7b3c ed73 4fbc 5ec1 a83c
000002c0: ab99 c2bc c7a0 d73b aecd 053d 748f 6abd
000002d0: bbeb ab3d 8dd3 57bd cd7a 6ebc 8572 6a3d
000002e0: c731 553c 3ad9 c23d 84c2 0d3c fb8a a03d
000002f0: 676b ff3c 808b a0bc 192b b93c 1f71 55bc
00000300: 7fd3 56bd d1e6 c1bc 09ad 893d e6c1 8abc
00000310: 5651 1b3c a11c 353c 0299 4bbd dbc1 0bbd
00000320: 2c3c ffbb 877d eb3c b054 6e3b a972 8b3c
00000330: 242f 07bc 0670 143d c3fb aebc e82c a0bb
00000340: ed4b 463c a312 043d 8c13 a53c 49d8 033d
00000350: 9611 43bd 222b 513c 8391 143d a07a d3bb
00000360: a198 20bd 1426 343d cf14 153c 9103 ff3b
00000370: 38bb cb3c fcab ee3c 4eb0 1b3d 3df7 96bd
00000380: 5f47 fe3c ba15 2cbb 5940 403c de86 90bb
00000390: 96de 173d a8e8 603d 7417 c3ba e6fe 98bd
000003a0: e0bc c43b 7843 f43b 026d 1f3d d0a4 1a3d
000003b0: 8568 3a3d 0e43 4c3d 0fa8 3abc a3ca 69bd
000003c0: 2c95 5fbb 2edd 5e3d 831c f93b 0ebf 5439
000003d0: 14cc d0bc a717 cdbb d773 a5bc 0c8e 99bd
000003e0: f8e8 8d3c 83ef 6bbc e0e9 ec3c 9445 5cbd
000003f0: aa4e 1d3d 83d8 3abd b554 dbbc 84e3 8cbc

res_blocks.0.conv2.conv.bias f4 [32]
0.04067193 -0.038085133 0.0034188945 -0.0039724438 -0.015446451 0.025345115 -0.028786665 -0.04755912
0.057321973 -0.09661331 0.00024335599 -0.030197822 0.02536018 -0.06475644 -0.07178299 -0.026066788
0.03161823 0.021274436 0.00031989274 0.020981938 0.014870959 -0.062340233 0.017050516 -0.059551727
0.0026896538 0.014425634 0.012854683 -0.051066797 0.0033938552 0.06892894 0.024028836 -0.016813068
00000000: 9c97 263d 28ff 1bbd 880f 603b 462b 82bb
00000010: 1c13 7dbc 8fa0 cf3c 03d2 ebbc 5acd 42bd
00000020: 72ca 6a3d 33dd c5bd 602d 7f39 6c61 f7bc
00000030: 27c0 cf3c 069f 84bd f602 93bd 048a d5bc
00000040: 1e82 013d ba47 ae3c 47b7 a739 50e2 ab3c
00000050: 53a5 733c 7958 7fbd 86ad 8b3c 83ec 73bd
00000060: e744 303b 7f59 6c3c 739c 523c 6b2b 51bd
00000070: 716b 5e3b 9e2a 8d3d 1fd8 c43c 8fbb 89bc

res_blocks.0.in2.weight f4 [32]
1.0093554 0.96918476 0.97822523 0.9675274 0.9891361 0.96067685 0.9589975 1.0122324
0.9727847 0.9859118 0.972784 0.96130383 0.95034766 0.9588278 0.9491466 0.9873618
0.9870894 1.0007917 0.9635537 0.99463344 0.96016717 0.9950626 0.9834995 0.9805162
0.9673615 0.9893387 0.9703746 1.0020553 0.97665924 0.98947227 0.9507556 1.000323
00000000: 8f32 813f 7e1c 783f f86c 7a3f e0af 773f
00000010: 0638 7d3f ebee 753f dc80 753f d590 813f
00000020: 6b08 793f b764 7c3f 5f08 793f 0218 763f
00000030: fc49 733f bd75 753f 46fb 723f bec3 7c3f
00000040: e4b1 7c3f f119 803f 75ab 763f 4ca0 7e3f
00000050: 84cd 753f 6cbc 7e3f a0c6 7b3f 1c03 7b3f
00000060: 01a5 773f 4d45 7d3f 786a 783f 5943 803f
00000070: 5706 7a3f 0e4e 7d3f b864 733f 960a 803f

res_blocks.0.in2.bias f4 [32]
-0.03443109 -0.018367968 -0.02144876 0.0028132582 -0.00203512 0.048051223 -0.010619927 0.0037465817
-0.017154422 0.0078586 0.018023849 -0.0040679653 0.0051726843 0.016705787 0.009747404 0.004700906
-0.035911884 -0.013490687 -0.016890885 -0.014493272 -0.0025064484 0.057565592 -0.031725902 0.046121676
0.001627797 0.018987302 0.0032686896 -0.039374486 0.036439463 -0.013847907 0.031542044 -0.049213495
00000000: 9d07 0dbd 6c78 96bc 4fb5 afbc a45e 383b
00000010: a65f 05bb 5cd1 443d 34ff 2dbc 3689 753b
00000020: 6e87 8cbc 5bc1 003c c0a6 933c 914c 85bb
00000030: 9f7f a93b 93da 883c 93b3 1f3c 0f0a 9a3b
00000040: 5718 13bd 0b08 5dbc c15e 8abc 3075 6dbc
00000050: 3a43 24bb e6c9 6b3d 05f3 01bd 15ea 3c3d
00000060: ce5b d53a 428b 9b3c 8337 563b 2447 21bd
00000070: 8c41 153d 55e2 62bc 3b32 013d 1794 49bd

res_blocks.1.conv1.conv.weight f4 [32, 32, 3, 3]
-0.019838596 0.034858003 0.009168351 -0.037564445 -0.010666266 0.064084604 0.0058080372 0.030140687
-0.02954242 -0.016225228 0.011483699 0.025000323 0.020818528 0.035130575 -0.04809017 0.03965827
-0.044695273 -0.017775232 0.04986202 -0.024737312 -0.019681523 -0.02061572 0.06692131 -0.060817473
-0.066968024 0.02637786 0.01952258 -0.0053159096 -0.013985138 0.01468996 -0.0010052511 0.04780722
-0.035367955 -0.033278856 0.032040514 0.0025315366 0.017524607 0.029112292 -0.02088097 -0.0052401847
-0.0058942204 0.02767577 0.06605262 0.047768235 -0.00622017 0.0067808474 -0.0050187833 0.014394852
-0.04385061 -0.017612796 0.009977137 0.053733554 -0.035983324 -0.037001345 0.01752865 -0.044985883
-0.08309437 -0.03383005 -0.0077770357 -0.017983738 0.024458949 0.084282756 -0.04330414 -0.0072900066
0.029423198 -0.049118567 -0.05220164 0.072685406 0.0061857034 -0.043158554 0.0019813438 0.010456586
0.01760276 -0.06789447 0.019925205 0.02842336 -0.020163173 -0.046709355 -0.056545835 -0.043963414
-0.03094818 -0.058490604 -0.06909628 0.049131732 -0.015174899 -0.00578589 -0.002764202 0.016908512
-0.013537539 -0.00026831953 -0.056657862 0.0555979 -0.02372303 0.02129944 -0.028235644 0.012262425
-0.0052384785 0.055019904 0.04240317 -0.028559078 -0.0672084 0.04605955 0.013761226 -0.0035434815
-0.020359049 0.041604687 0.0043840283 -0.040750396 -0.030460365 -0.0455978 0.009925819 0.030311696
0.086610585 0.04767093 -0.031445388 -0.048972946 0.042036094 0.024351196 -0.027888391 -0.022665776
0.027043706 -0.068319745 -0.057953533 0.0422007 -0.06523455 0.04163113 -0.008137513 0.044851284
-0.055143908 0.04301768 0.0029500078 -0.040738363 0.061538838 0.0050144074 -0.052099127 -0.03436248
0.03568188 -0.029854335 0.014802466 0.089637615 0.02803759 -0.026176032 0.048783917 0.06301553
0.04219055 -0.05000164 0.003102583 -0.037245035 -0.034395497 -0.053528946 -0.04249615 0.03127834
-0.023162482 -0.009129798 0.08342359 -0.05855018 0.011601542 -0.005914864 -0.019061783 -0.058554884
0.009898058 0.032151256 -0.0359723 0.04542853 -0.0016318816 0.029102193 -0.022513632 -0.04357053
-0.041647647 -0.01178471 -0.014029057 -0.010479217 0.03743224 -0.030955521 -0.041813333 -0.035821185
-0.016462704 0.004757518 0.019916022 -0.03290308 0.034300774 0.012768804 -0.057805836 -0.014823611
0.029073166 0.023225646 -0.025391098 -0.023009911 0.041804656 -0.010845844 0.025359713 0.04679809
-0.04036489 0.058488272 -0.010798767 0.040947706 -0.009210564 0.010387373 0.012087172 0.006736206
0.0036220897 0.0141635975 0.025021436 -0.0035484785 -0.007831788 0.007383642 -0.051876917 -0.07624376
0.06287229 0.013304859 0.089171275 0.11427071 -0.0002961853 -0.0012731033 0.018126277 -0.03241626
0.045288637 0.0057147695 0.05094871 0.026786357 -0.039579768 -0.018977236 0.045064196 0.031752646
0.041017536 -0.010701886 -0.0130755985 0.010938898 -0.03195866 0.005813493 -0.035950664 -0.022103274
-0.0070565757 -0.04076548 -0.036436018 -0.0025464972 -0.042231258 0.018114304 0.06613704 -0.08777065
-0.040176325 -0.03139122 -0.026591044 0.032459892 0.019234842 0.036837593 0.049743496 0.023133637
-1.2977645e-05 -0.03271811 0.06862006 0.01421514 0.02666304 -0.05212617 0.00903329 -0.03850372
00000000: 8d84 a2bc 44c7 0e3d da36 163c 2ddd 19bd
00000010: 90c1 2ebc ca3e 833d 5951 be3b 9ae9 f63c
00000020: f202 f2bc c5ea 84bc 2026 3c3c 7acd cc3c
00000030: 9e8b aa3c 14e5 0f3d 33fa 44bd b670 223d
00000040: 6412 37bd 5d9d 91bc 1e3c 4c3d e7a5 cabc
00000050: 253b a1bc 4ce2 a8bc 0a0e 893d be1b 79bd
00000060: 8826 89bd 6216 d83c d1ed 9f3c 1531 aebb
00000070: ec21 65bc 28ae 703c a1c2 83ba 81d1 433d
00000080: fddd 10bd 694f 08bd ea3c 033d 23e8 253b
00000090: c48f 8f3c e77c ee3c 910e abbc dbb5 abbb
000000a0: 4e24 c1bb 4cb8 e23c 9946 873d a0a8 433d
000000b0: 91d2 cbbb df31 de3b 9b74 a4bb 63d8 6b3c
000000c0: b29c 33bd b648 90bc 2577 233c b717 5c3d
000000d0: 4063 13bd b98e 17bd 3e98 8f3c 1e43 38bd
000000e0: 622d aabd 6191 0abd 81d6 febb a252 93bc
000000f0: 225e c83c 709c ac3d af5f 31bd 02e1 eebb
00000100: eb08 f13c 8d30 49bd 63d1 55bd 16dc 943d
00000110: 71b1 ca3b 06c7 30bd 6fd9 013b 1a52 2b3c
00000120: aa33 903c 420c 8bbd 2f3a a33c 1bd8 e83c
00000130: 3d2d a5bc 4f52 3fbd 9b9c 67bd fb12 34bd
00000140: 0a87 fdbc d893 6fbd 5a82 8dbd 5b3e 493d
00000150: 24a0 78bc 9097 bdbb 9d27 35bb b883 8a3c
00000160: 8ecc 5dbc 3dad 8cb9 1312 68bd a0ba 633d
00000170: cd56 c2bc 2a7c ae3c 704e e7bc 57e8 483c
00000180: 8ba7 abbb 8d5c 613d f2ae 2d3d baf4 e9bc
00000190: 8fa4 89bd f0a8 3c3d c476 613c c139 68bb
000001a0: 05c8 a6bc ad69 2a3d e5a7 8f3b e3e9 26bd
000001b0: 0488 f9bc c2c4 3abd e79f 223c 3c50 f83c
000001c0: e460 b13d 9842 433d e1cc 00bd db97 48bd
000001d0: 0a2e 2c3d 297c c73c 3276 e4bc 94ad b9bc
000001e0: c38a dd3c 39eb 8bbd af60 6dbd a4da 2c3d
000001f0: b199 85bd 6785 2a3d 3453 05bc fbb5 373d
00000200: 94de 61bd 4f33 303d eb54 413b 45dd 26bd
00000210: 2610 7c3d e64f a43b e565 55bd acbf 0cbd
00000220: 2a27 123d 1491 f4bc 0b86 723c ed93 b73d
00000230: 17af e53c 1e6f d6bc a5d1 473d 490e 813d
00000240: 00d0 2c3d 85ce 4cbd b554 4b3b 408e 18bd
00000250: 4be2 0cbd 2b41 5bbd 7110 2ebd b71d 003d
00000260: 3fbf bdbc 2695 15bc fdd9 aa3d 50d2 6fbd
00000270: 6514 3e3c 7ad1 c1bb 7527 9cbc 3fd7 6fbd
00000280: 772b 223c 09b1 033d b157 13bd 4413 3a3d
00000290: dce4 d5ba b967 ee3c 826e b8bc 0377 32bd
000002a0: b996 2abd a814 41bc 21da 65bc 06b1 2bbc
000002b0: 8c52 193d 6f96 fdbc 7544 2bbd 3cb9 12bd
000002c0: cbdc 86bc f4e4 9b3b ed26 a33c 61c5 06bd
000002d0: f87e 0c3d 3f34 513c d0c5 6cbd bbde 72bc
000002e0: d92a ee3c b643 be3c fe00 d0bc 487f bcbc
000002f0: 5c3b 2b3d c4b2 31bc 2cbf cf3c 5baf 3f3d
00000300: a855 25bd 6691 6f3d 50ed 30bc c8b8 273d
00000310: e8e7 16bc cd2f 2a3c 4609 463c 64bb dc3b
00000320: 9560 6d3b 6f0e 683c c1f9 cc3c 978d 68bb
00000330: e650 00bc 7af2 f13b e47c 54bd b025 9cbd
00000340: 30c3 803d a0fc 593c 6e9f b63d c306 ea3d
00000350: 5149 9bb9 42de a6ba 8f7d 943c eac6 04bd
00000360: 9480 393d f642 bb3b 98af 503d 106f db3c
00000370: 651e 22bd 2676 9bbc 3c95 383d 100f 023d
00000380: 0102 283d f756 2fbc 093b 56bc 1039 333c
00000390: 15e7 02bd 1d7f be3b 0141 13bd ed11 b5bc
000003a0: d93a e7bb b4f9 26bd ef3d 15bd 22e3 26bb
000003b0: affa 2cbd 7364 943c db72 873d 19c1 b3bd
000003c0: ee8f 24bd 1494 00bd 76d5 d9bc aaf4 043d
000003d0: 6392 9d3c 04e3 163d d6bf 4b3d c182 bd3c
000003e0: 90ba 59b7 6d03 06bd ad88 8c3d 9ee6 683c
000003f0: 736c da3c 4082 55bd 5d00 143c 14b6 1dbd

res_blocks.1.conv1.conv.bias f4 [32]
0.00839516 0.043233365 0.00032023678 -0.0441757 0.048305154 -0.0440215 0.018385105 -0.06152906
-0.031392734 -0.01872229 -0.018207766 0.041713174 -0.008587472 0.050764754 0.032370295 -0.065204345
0.032517318 0.040333983 0.03181884 0.03255356 -0.032216314 -0.02177377 0.037685066 0.008473056
-0.04045823 -0.037505347 0.0195763 0.05630185 -0.05981994 -0.050901614 -0.012689206 -0.024820229
00000000: da8b 093c 7815 313d 74e5 a739 94f1 34bd
00000010: a0db 453d e34f 34bd 5c9c 963c e505 7cbd
00000020: ab95 00bd 7d5f 99bc 7428 95bc 6fdb 2a3d
00000030: 78b2 0cbc b4ee 4f3d b796 043d db89 85bd
00000040: e130 053d 3f35 253d 7954 023d e256 053d
00000050: 41f5 03bd e85e b2bc a85b 1a3d 93d2 0a3c
00000060: 87b7 25bd 359f 19bd 7a5e a03c c59c 663d
00000070: c105 75bd 367e 50bd 63e6 4fbc cb53 cbbc

res_blocks.1.in1.weight f4 [32]
1.0288074 0.98490286 1.0125974 1.005971 0.989289 1.0041275 1.0212946 0.96220297
0.9958091 1.0084422 1.0250858 0.9850585 0.9949119 1.0052866 0.99846923 1.0094811
0.97797596 1.0300646 0.9865879 1.0108645 0.9717102 1.0058069 0.9779885 0.9856043
1.0085418 1.0227541 1.0018893 0.9911073 1.0119256 1.0030146 0.9926878 1.0059118
00000000: f6af 833f 9822 7c3f cb9c 813f a8c3 803f
00000010: 0b42 7d3f 4087 803f c8b9 823f ef52 763f
00000020: 58ed 7e3f a214 813f 0336 833f cb2c 7c3f
00000030: 8cb2 7e3f 3bad 803f ae9b 7f3f ad36 813f
00000040: a25c 7a3f 28d9 833f 0691 7c3f 0264 813f
00000050: 00c2 783f 48be 803f 745d 7a3f 9050 7c3f
00000060: e617 813f 9be9 823f e93d 803f 35b9 7d3f
00000070: c786 813f c862 803f ca20 7e3f b8c1 803f

res_blocks.1.in1.bias f4 [32]
-0.07728082 -0.07091764 -0.013216203 -0.03228746 0.0010486518 0.011509433 -0.05271612 -0.0034510295
0.014682863 -0.009734901 -0.021772597 -0.040839013 0.030148385 0.019870196 -0.055938557 0.014750187
-0.007739981 -0.026054218 0.008419492 -0.04663786 -0.017026499 -0.030849494 -0.01724477 -0.016057774
0.0017073406 -0.0029730988 -0.015188177 -0.015827665 0.01588888 -0.019206744 0.0011361142 0.0030409908
00000000: 6845 9ebd 453d 91bd c688 58bc db3f 04bd
00000010: ea72 893a 1092 3c3c dcec 57bd ab2a 62bb
00000020: 6490 703c 227f 1fbc 725c b2bc cf46 27bd
00000030: bff9 f63c d2c6 a23c d41f 65bd c5aa 713c
00000040: ab9f fdbb a86f d5bc e9f1 093c 5707 3fbd
00000050: 287b 8bbc 14b8 fcbc e744 8dbc 988b 83bc
00000060: d8c8 df3a 52d8 42bb d5d7 78bc 05a9 81bc
00000070: 6529 823c 7657 9dbc abe9 943a 5c4b 473b
