Assets/Style_Transfer/Models/Estilos fallidos/reconet1.1.onnx (onnx, 450974 bytes, 62 tensors)

conv1.conv2d.weight f4 [8, 3, 9, 9]
0.06315366 0.08760017 0.028958932 0.010705132 0.04243557 0.07223516 -0.018499127 -0.012779908
0.0779947 0.005289684 0.019268263 0.014761311 -0.043217562 -0.05267885 0.038139272 0.03938427
0.0078062443 0.034320172 0.008561056 0.030273907 0.060645167 0.06991135 0.050855555 0.062463988
-0.0032673005 0.07197156 -0.012680644 0.029815348 0.009219958 0.029498322 0.04283672 0.078111075
-0.011423759 -0.0148219485 -0.039721403 -0.014127962 0.06162614 0.056266133 0.03664172 0.016033497
0.031266853 0.02485817 -0.034402438 -0.06952354 -0.06426658 0.030304806 0.0047329003 -0.006072657
0.03193113 -0.02741559 0.04424535 0.031638686 -0.07691221 0.01379632 0.032709215 -0.040401395
-0.06408647 0.01578536 0.011424684 -0.011134287 -0.056444924 -0.000916475 0.024819437 0.0457379
-0.03237654 -0.014135766 -0.01776219 -0.044487685 -0.026838005 -0.052212376 0.0048344615 -0.001530193
0.017397134 0.034433287 0.05483102 0.02343867 0.045349855 -0.04750271 0.03854374 0.0030691102
-0.052269697 0.052275028 0.053588916 0.060814057 0.00231767 0.0010014492 -0.022550054 0.040399183
-0.02969076 -0.02121375 0.046378974 0.048160635 0.028725369 -0.042254493 0.05518365 -0.037819907
-0.07397369 0.029655121 0.039727222 -0.02358983 -0.0052440646 0.0121688945 0.061382696 0.012077241
-0.02132253 -0.033367556 -0.06789003 -0.0046978625 0.06283342 0.041685704 0.04713335 0.08679975
-0.010923969 0.074945316 0.0058454564 -0.033610046 -0.065041505 0.061687842 0.006032321 -0.012477705
0.08836686 -0.026940705 -0.026085418 -0.09805246 -0.0101774745 -0.049030647 -0.02208516 0.01736681
0.031363457 0.042639673 -0.00095213915 0.012155174 -0.017362818 -0.036747612 -0.11116005 0.00062326324
-0.045360453 0.012632598 -0.011505449 -0.09163737 -0.073572375 -0.042193275 -0.1272252 -0.018456213
0.044896077 0.0072857263 0.02175214 -0.03727746 -0.06811961 -0.084044315 -0.01633342 -0.024129828
-0.072634645 0.04660292 0.025468988 -0.046297636 0.0005156273 -0.019447561 -0.013295358 -0.010172408
-0.06642531 0.005713582 0.071159974 -0.04108473 0.04751445 -0.014681817 0.0031493467 0.021496346
0.04967653 0.05318019 0.011900926 0.018485785 0.03057286 -0.06556825 0.023725012 -0.05308501
0.03633312 0.0342675 0.04045981 -0.056479882 -0.038151078 -0.046810534 0.044834692 0.019942341
0.058864575 -0.004009921 -0.040994607 -0.04352343 -0.036116615 0.013458821 -0.013338516 -0.0477106
-0.0020482254 0.030886944 -0.030334672 0.017181618 0.015277068 -0.059282888 0.0075322567 0.045193367
-0.0012750429 -0.020749025 0.0033744248 -0.048066575 -0.024013171 -0.07685644 -0.049558938 -0.0045552603
-0.052782647 0.04927443 -0.04002175 -0.0048431377 -0.07079673 -0.030009136 0.020450508 -0.029870914
-0.057434868 -0.0037973165 -0.06388571 0.0054255323 -0.052007258 -0.022951318 -0.056275018 0.00830096
-0.016683903 -0.027271578 -0.040707175 -0.025239553 0.021359352 0.027350198 0.0008979566 -0.016271077
-0.026637523 -0.04143794 -0.017601175 0.00644458 0.027306365 0.055699985 -0.020452859 -0.024309877
-0.02393806 0.04323891 0.012955698 0.034437228 -0.009463112 0.028779695 0.013049061 -0.027892724
-0.039650828 -0.039045516 0.035296746 -0.037529193 -0.04896727 0.04464555 0.0459341 0.015979446
00000000: b556 813d b867 b33d 483b ed3c 9464 2f3c
00000010: ecd0 2d3d 07f0 933d 7b8b 97bc d262 51bc
00000020: afbb 9f3d 1655 ad3b 7ad8 9d3c 6dd9 713c
00000030: e604 31bd c7c5 57bd ed37 1c3d 6651 213d
00000040: 86cb ff3b 4f93 0c3d ac43 0c3c fc00 f83c
00000050: 1167 783d af2d 8f3d ea4d 503d 3dda 7f3d
00000060: 3520 56bb d365 933d 7ac2 4fbc 513f f43c
00000070: 4f0f 173c 77a6 f13c 8e75 2f3d b3f8 9f3d
00000080: b82a 3bbc c2d7 72bc e9b2 22bd f878 67bc
00000090: b16b 7c3d 5177 663d a115 163d ae58 833c
000000a0: ac11 003d 5ca3 cb3c 92e9 0cbd 5c62 8ebd
000000b0: 329e 83bd c941 f83c 7216 9b3b 24fd c6bb
000000c0: 37ca 023d a996 e0bc 9d3a 353d 9197 013d
000000d0: 2684 9dbd f609 623c 19fa 053d ef7b 25bd
000000e0: c43f 83bd 4d50 813c 992e 3b3c 966c 36bc
000000f0: cb32 67bd 993f 70ba 2252 cb3c aa57 3b3d
00000100: 439d 04bd b399 67bc 0382 91bc b838 36bd
00000110: 60db dbbc a5dc 55bd 676a 9e3b c290 c8ba
00000120: 6f84 8e3c eb09 0d3d 7e96 603d 7402 c03c
00000130: c5c0 393d 3492 42bd 0ae0 1d3d 2023 493b
00000140: c018 56bd 571e 563d 0d80 5b3d 2918 793d
00000150: 0de4 173b 0f43 833a e4ba b8bc 9d79 253d
00000160: 093a f3bc 75c8 adbc e1f7 3d3d 1644 453d
00000170: 7751 eb3c 0c13 2dbd 4008 623d 0ce9 1abd
00000180: 857f 97bd 4cef f23c 03b9 223d 763f c1bc
00000190: 67d6 abbb 0b60 473c 6c6c 7b3d 9fdf 453c
000001a0: 96ac aebc 6bac 08bd ee09 8bbd 87f0 99bb
000001b0: cfae 803d a1be 2a3d e60e 413d 11c4 b13d
000001c0: 72fa 32bc ee7c 993d 3e8b bf3b b0aa 09bd
000001d0: 7b34 85bd 64ac 7c3d c7aa c53b 4a6f 4cbc
000001e0: aff9 b43d c1b2 dcbc 16b1 d5bc bacf c8bd
000001f0: 6cbf 26bc 5cd4 48bd f0eb b4bc d744 8e3c
00000200: f876 003d f0a6 2e3d fa98 79ba 7f26 473c
00000210: 783c 8ebc aa84 16bd e1a7 e3bd 7d62 233a
00000220: e2cb 39bd f5f8 4e3c 5a81 3cbc 60ac bbbd
00000230: 1dad 96bd dbd2 2cbd 5347 02be 7c31 97bc
00000240: f3e4 373d 1abd ee3b 8b31 b23c 40b0 18bd
00000250: 4b82 8bbd 6d1f acbd aacd 85bc ebab c5bc
00000260: 79c1 94bd b4e2 3e3d 57a4 d03c 97a2 3dbd
00000270: 2a2b 073a 7e50 9fbc c6d4 59bc 2caa 26bc
00000280: fe09 88bd 0039 bb3b 52bc 913d 7648 28bd
00000290: 839e 423d 018c 70bc 4565 4e3b 1b19 b03c
000002a0: 9e79 4b3d 79d3 593d 1afc 423c 806f 973c
000002b0: ef73 fa3c a648 86bd f55a c23c ab6f 59bd
000002c0: 0ad2 143d 145c 0c3d 30b9 253d 7357 67bd
000002d0: 4e44 1cbd 67bc 3fbd 95a4 373d 1f5e a33c
000002e0: fb1b 713d a865 83bb f6e9 27bd a045 32bd
000002f0: 04ef 13bd 6382 5c3c ca89 5abc 316c 43bd
00000300: 853b 06bb 9e06 fd3c 6b80 f8bc 77c0 8c3c
00000310: ab4c 7a3c 9dd2 72bd 26d1 f63b ae1c 393d
00000320: 571f a7ba dcf9 a9bc 7425 5d3b 75e1 44bd
00000330: 45b7 c4bc e966 9dbd 50fe 4abd 4b44 95bb
00000340: 9e32 58bd fcd3 493d d9ed 23bd 2fb3 9ebb
00000350: e0fd 90bd b8d5 f5bc d387 a73c d9b3 f4bc
00000360: d340 6bbd 66dc 78bb 83d6 82bd aac8 b13b
00000370: 9005 55bd 6704 bcbc a280 66bd c000 083c
00000380: aeac 88bc a568 dfbc 91bc 26bd 2ec3 cebc
00000390: cff9 ae3c 860d e03c d964 6b3a ec4a 85bc
000003a0: ef36 dabc d4ba 29bd 5730 90bc 0e2d d33b
000003b0: 99b1 df3c ab25 643d c18c a7bc 8225 c7bc
000003c0: c019 c4bc 491b 313d 2344 543c 0d0e 0d3d
000003d0: 2b0b 1bbc 65c3 eb3c bbcb 553c 487f e4bc
000003e0: e868 22bd 31ee 1fbd 5293 103d 36b8 19bd
000003f0: e791 48bd 41de 363d 6525 3c3d 54e7 823c

conv1.conv2d.bias f4 [8]
0.041974448 -0.045557 0.0020008276 -0.06759627 -0.05848109 -0.008081002 -0.019391755 0.056515004
00000000: 66ed 2b3d fa99 3abd 5120 033b ea6f 8abd
00000010: de89 6fbd 2e66 04bc 75db 9ebc 477c 673d

in1.weight f4 [8]
1.0598764 1.040066 0.97128147 0.8831088 0.9509751 0.9452508 0.98762447 1.0231093
00000000: 08aa 873f e220 853f e7a5 783f 6b13 623f
00000010: 1b73 733f f5fb 713f f5d4 7c3f 3ff5 823f

in1.bias f4 [8]
0.013338485 0.04180554 -0.0323068 0.14384004 -0.013658874 0.05658952 0.011260716 0.027462734
00000000: a989 5a3c 493c 2b3d 2354 04bd ce4a 133e
00000010: 78c9 5fbc 6aca 673d de7e 383c 87f9 e03c

conv2.conv2d.weight f4 [16, 8, 3, 3]
-0.06227363 0.015584402 0.056748938 -0.08583438 -0.08479498 0.07265217 -0.0066895797 -0.046921488
0.05245498 -0.04302741 0.008907719 -0.08450152 -0.070414685 0.03322976 -0.023843892 -0.05289997
0.09572004 0.09004603 -0.035109583 0.070961915 0.08874764 0.04225726 0.022043427 0.057589926
0.043011535 -0.09564453 0.07475324 -0.028904954 0.020583337 0.019979378 -0.00074465043 -0.009489879
-0.03346646 0.0155599 0.02989419 -0.07692463 -0.07674248 -0.043494385 0.074145816 -0.025849745
0.10831526 -0.09793586 0.005067274 0.10256183 0.08881665 0.054816514 0.07955194 -0.025751576
0.084773816 0.15751483 0.034296293 0.08133054 0.056173757 0.04258918 0.0661127 0.10268217
0.11339601 0.13904385 -0.021839628 -0.008005137 0.02435775 0.108769834 -0.010448919 -0.025335852
0.0593053 -0.11927938 -0.14056312 -0.1461107 -0.09786195 -0.09062351 -0.1450416 0.029812843
-0.1530743 0.056715764 -0.08758449 -0.022291597 -0.07272201 -0.110246524 -0.00064955454 -0.048110206
-0.06543394 0.121604785 0.04206128 -0.0842002 -0.08320742 0.120433524 0.062338326 -0.0545084
-0.052024174 -0.010508198 0.01953323 -0.07658117 -0.053265423 0.06454997 0.046474114 0.045488637
-0.0072056646 0.03270162 0.014957907 -0.08134126 -0.08864772 0.04516619 -0.06448962 0.030724851
-0.062672384 0.05547239 0.0284327 -0.008918933 0.07050204 0.024346514 -0.11325049 0.00014285228
-0.025287364 -0.020099433 0.06698731 0.057734508 -0.0334047 0.015034125 0.06987033 -0.07426282
-0.05166323 -0.047227703 -0.0777647 -0.057140782 -0.098247916 0.015204812 0.10583243 0.07519311
0.029896 0.053841107 0.009562737 0.049216133 -0.062437948 0.059224788 0.025646083 -0.12669323
-0.09549709 0.05690278 -0.14715359 -0.00088223995 0.02513799 0.07980631 -0.06389114 0.0049480307
-0.14464526 -0.07067744 0.051833443 -0.09239179 -0.07901216 -0.0077647977 -0.009930196 -0.0990524
-0.10738583 -0.058555223 -0.121934704 0.0047467137 0.05985878 0.055626906 0.024746818 -0.013863226
-0.042088076 -0.056717824 -0.03525008 -0.04343421 0.035574976 -0.024896782 -0.038360637 -0.1222074
-0.06623611 -0.038062878 0.026895681 0.086426646 -0.02677855 0.049579125 -0.026517766 -0.024250602
-0.0044004014 0.032911353 0.0048538973 -0.13411245 -0.13740107 0.059365235 0.045665473 -0.0071234503
-0.09126178 -0.024267165 0.09054875 -0.10265665 0.06780269 0.020818 -0.031097088 0.01398338
-0.11283042 0.02516251 0.0075391224 -0.050605647 -0.12163072 0.011662331 0.051730793 -0.022274375
0.008340792 0.024529373 0.08496848 -0.09585249 0.083921 -0.12491221 0.084418185 0.060790535
-0.12142937 0.017815324 -0.058770206 0.061316714 -0.039589453 0.0023812545 -0.060911853 0.032817937
0.004243368 0.05074911 0.17171884 -0.046914324 0.08393938 0.09317639 0.08865531 -0.033930145
0.16587207 -0.05986145 0.08246391 -0.07192689 0.03904033 -0.002457932 -0.048716746 -0.09515628
0.04358338 -0.085462086 0.0746811 0.013455671 -0.02294393 0.0084128175 0.018011367 -0.06311324
0.071371846 0.096862525 -0.026593668 0.012825978 -0.047565103 0.05664177 0.03736497 -0.0051034684
-0.024044883 -0.012918816 0.015346608 -0.007841613 0.042748768 0.066805236 -0.046898883 -0.0047124284
00000000: a212 7fbd b855 7f3c 9371 683d efc9 afbd
00000010: fea8 adbd a9ca 943d 4334 dbbb bf30 40bd
00000020: 08db 563d 823d 30bd aef1 113c 220f adbd
00000030: 9335 90bd ee1b 083d 4454 c3bc a4ad 58bd
00000040: de08 c43d 0e6a b83d 11cf 0fbd 7b54 913d
00000050: 53c1 b53d f315 2d3d 6b94 b43c 6ae3 6b3d
00000060: dd2c 303d 48e1 c3bd 3a18 993d 15ca ecbc
00000070: 639e a83c cbab a33c a534 43ba 707b 1bbc
00000080: 2014 09bd f3ee 7e3c a9e4 f43c a98a 9dbd
00000090: 292b 9dbd 2b27 32bd c3d9 973d d8c2 d3bc
000000a0: 64d4 dd3d 9992 c8bd 600b a63b f00b d23d
000000b0: 81e5 b53d 4887 603d 21ec a23d f8f4 d2bc
000000c0: e59d ad3d 914b 213e 457a 0c3d a090 a63d
000000d0: 7416 663d fe71 2e3d 1866 873d 084b d23d
000000e0: 2b3c e83d 8361 0e3e 05e9 b2bc fa27 03bc
000000f0: e789 c73c b8c2 de3d f131 2bbc 228d cfbc
00000100: 1dea 723d bf48 f4bd c7ef 0fbe 0b9e 15be
00000110: d96b c8bd d298 b9bd c985 14be 103a f43c
00000120: 82bf 1cbe ca4e 683d 7f5f b3bd de9c b6bc
00000130: 47ef 94bd eec8 e1bd de46 2aba 350f 45bd
00000140: 3b02 86bd ee0b f93d 7348 2c3d 2871 acbd
00000150: a768 aabd daa5 f63d 7956 7f3d 3344 5fbd
00000160: 4d17 55bd 942a 2cbc 2704 a03c 97d6 9cbd
00000170: d82c 5abd c632 843d a45b 3e3d 4b52 3a3d
00000180: 7f1d ecbb 22f2 053d 0212 753c 3f96 a6bd
00000190: f08c b5bd 2f00 393d 2213 84bd afb2 fb3c
000001a0: 615a 80bd 0437 633d b2eb e83c b720 12bc
000001b0: 6063 903d 5772 c73c dfef e7bd 9eca 1539
000001c0: 7227 cfbc 91a7 a4bc a530 893d 057b 6c3d
000001d0: 5ed3 08bd b151 763c 2d18 8f3d 1b17 98bd
000001e0: d39c 53bd d671 41bd 1943 9fbd 740c 6abd
000001f0: 3436 c9bd 9b1d 793c acbe d83d d8fe 993d
00000200: 75e8 f43c 7e88 5c3d 07ad 1c3c db96 493d
00000210: efbe 7fbd b195 723d bc17 d23c dfbb 01be
00000220: fa93 c3bd e412 693d 6eaf 16be 1f46 67ba
00000230: 30ee cd3c 7e71 a33d 5cd9 82bd 1723 a23b
00000240: e31d 14be 55bf 90bd 4e4f 543d e837 bdbd
00000250: 21d1 a1bd d86f febb 43b2 22bc fcdb cabd
00000260: 1aed dbbd 9ad7 6fbd e7b8 f9bd 528a 9b3b
00000270: 7b2e 753d 0ad9 633d d7b9 ca3c 9622 63bc
00000280: 8c64 2cbd f350 68bd 6362 10bd 12e8 31bd
00000290: 11b7 113d 56f4 cbbc 0b20 1dbd e047 fabd
000002a0: cca6 87bd d2e7 1bbd 5554 dc3c 7400 b13d
000002b0: b15e dbbc 7b13 4b3d c93b d9bc 33a9 c6bc
000002c0: 3e31 90bb 0ece 063d 710d 9f3b c654 09be
000002d0: deb2 0cbe f628 733d b80b 3b3d d56b e9bb
000002e0: 75e7 babd efcb c6bc 9f71 b93d a63d d2bd
000002f0: 23dc 8a3d 838a aa3c 52bf febc 8c1a 653c
00000300: a313 e7bd 9c21 ce3c be0a f73b de47 4fbd
00000310: 8719 f9bd 5d13 3f3c abe3 533d c078 b6bc
00000320: d1a7 083c d3f1 c83c f403 ae3d 4f4e c4bd
00000330: c6de ab3d f9d1 ffbd 71e3 ac3d 7fff 783d
00000340: f6af f8bd 71f1 913c 07b9 70bd 3c27 7b3d
00000350: 8d28 22bd d20e 1c3b b57e 79bd 1a6c 063d
00000360: f30b 8b3b 4cde 4f3d 10d7 2f3e 3c29 40bd
00000370: 69e8 ab3d 43d3 be3d ea90 b53d 56fa 0abd
00000380: 5eda 293e 4831 75bd d7e2 a83d 684e 93bd
00000390: c1e8 1f3d 4215 21bb 368b 47bd 4ce1 c2bd
000003a0: 7c84 323d bf06 afbd 68f2 983d 2d75 5c3c
000003b0: e9f4 bbbc ead5 093c 938c 933c 8441 81bd
000003c0: 672b 923d dc5f c63d f7da d9bc 0d24 523c
000003d0: a0d3 42bd 3301 683d 030c 193d ff3a a7bb
000003e0: c6f9 c4bc 71a9 53bc 5770 7b3c 1c7a 00bc
000003f0: 5519 2f3d 2fd1 883d 0b19 40bd b76a 9abb

conv2.conv2d.bias f4 [16]
-0.032853886 0.11316098 -0.005559334 0.120430715 -0.12131409 0.120484844 0.012917277 -0.05026227
-0.096783854 0.09127417 0.057463404 0.014490814 0.007362567 -0.07969003 0.11628633 -0.061254036
00000000: cc91 06bd f2c0 e73d 132b b6bb 61a4 f63d
00000010: 8673 f8bd c2c0 f63d fda2 533c cfdf 4dbd
00000020: 9d36 c6bd f4ed ba3d bf5e 6b3d e16a 6d3c
00000030: b041 f13b 8734 a3bd 8727 ee3d 83e5 7abd

in2.weight f4 [16]
0.97388005 1.0335597 0.98627543 0.97111905 0.9546348 0.9824314 0.99310106 1.0025167
1.0163019 1.0146855 0.9698953 1.0262794 1.0149488 1.0281291 1.0026122 1.0622493
00000000: 3450 793f af4b 843f 8c7c 7c3f 429b 783f
00000010: f262 743f a080 7b3f df3b 7e3f 7852 803f
00000020: 2e16 823f 37e1 813f 0f4b 783f 205d 833f
00000030: d8e9 813f bc99 833f 9955 803f c9f7 873f

in2.bias f4 [16]
-0.06670684 0.0377215 0.073598646 0.02242673 0.03642687 0.08735994 -0.020103576 0.022764275
-0.00033088957 0.057444986 0.00033132982 -0.0047677807 0.057519548 0.000260024 -0.015539273 0.004579629
00000000: 999d 88bd dc81 1a3d e3ba 963d 43b8 b73c
00000010: 5734 153d c5e9 b23d 41b0 a4bc 257c ba3c
00000020: 3f7b adb9 6f4b 6b3d 56b6 ad39 0b3b 9cbb
00000030: 9e99 6b3d d553 8839 6f98 7ebc b610 963b

conv3.conv2d.weight f4 [32, 16, 3, 3]
0.019007232 -0.04644125 -0.008769841 0.05335425 -0.076471195 -0.006686777 -0.053378522 -0.09959691
0.0035580446 -0.02621525 -0.07358599 0.0073272735 0.06540791 -0.034428526 -0.047013942 0.06852077
0.042387005 0.020904815 -0.0228491 -0.025012609 -0.04039732 -0.033991333 0.03935036 -0.046213165
0.05096396 0.056113455 0.06422719 -0.06363826 0.028430358 -0.0037143696 -0.032671273 0.026916863
0.022698194 -0.02214269 0.04168695 0.042205483 -0.005910417 -0.06923352 0.011651657 0.013279761
-0.021246172 -0.04032884 0.027989557 -0.08138257 -0.050046258 -0.06097954 -0.026934886 -0.03749899
-0.021876317 -0.028529385 0.012067243 0.042740136 0.008606785 -0.0010793182 0.073202446 0.038876317
-0.054423817 0.0004770281 0.06419499 -0.002425007 0.070517235 -0.036967393 0.021411039 0.011361506
0.027899608 0.07101152 0.027735135 0.047941152 0.11030075 -0.07450495 -0.0006091405 -0.07002891
-0.052009497 -0.031427655 0.051985927 -0.032065794 0.025442963 0.041988365 0.06111645 0.10413565
-0.018526172 -0.054218177 -0.104150005 0.0010595615 -0.025751965 0.0012959212 0.04391287 0.03547558
0.03267318 0.08031742 0.072888196 0.058998745 -0.0048882714 -0.02604373 -0.069040075 -0.11747454
-0.03298994 -0.0068000657 -0.041272536 -0.023354238 0.01402757 0.0032230231 -0.06004588 -0.021274911
0.018184857 -0.02346361 0.032567862 -0.0025381239 -0.099992886 -0.10230077 -0.1407518 0.027642552
0.01488344 -0.06161394 -0.032496948 -0.09021699 -0.119885094 0.057440963 0.020714981 0.020510197
0.06174437 -0.09252207 0.0015617303 -0.039920382 0.06941834 0.0017906848 -0.02461733 -0.038890023
0.0042503313 0.04863264 0.035931263 -0.071037754 -0.048642397 -0.017061012 -0.038791746 0.018209854
-0.05539531 0.10641823 -0.036169965 0.017815592 0.07245463 -0.013572533 0.05624288 -0.03465067
-0.09482486 -0.029184777 -0.023515802 -0.031998843 0.05898557 0.08537075 0.0018305064 0.06827493
0.016875599 0.07799459 0.1729436 0.024396904 0.025927465 0.0037706797 0.021440858 0.04907273
-0.045954715 0.07530838 0.061779164 -0.007515419 0.00028177255 0.07050982 0.011936474 0.059962194
-0.011727334 -0.036134195 0.016019138 0.0539602 -0.008489374 0.06554851 0.038228475 0.09261286
0.021169735 0.006292369 0.015097148 -0.06687425 0.048765175 0.0341402 -0.06747013 0.010647463
-0.082843125 0.031691004 -0.01880801 0.069241576 0.05084374 0.010183557 -0.026069105 -0.050364096
-0.019980695 -0.011611649 0.031626068 -0.010859695 0.06828369 -0.015146006 0.011235668 -0.0022315502
0.026951345 -0.019684229 0.072411075 -0.025275469 0.078755446 -0.008662315 -0.057947043 0.077582315
0.04288961 0.045597013 -0.0758425 0.09801609 0.0715738 0.05095183 0.0018100003 -0.02976176
-0.0033043113 0.049169306 -0.010540742 -0.024005365 0.06309286 0.08529238 -0.08786954 0.024834178
-0.034695823 0.11849312 -0.0551547 0.031433724 -0.020857822 -0.003728927 -0.014443727 0.0645668
0.0588599 -0.043355953 0.0952185 0.08153054 0.038525388 0.02562409 0.026040986 0.09369458
-0.022840997 -0.045439336 -0.013880667 0.046350233 -0.11508401 -0.09362781 -0.029698525 -0.05455939
0.0006852612 -0.044491448 0.06789316 -0.042935465 0.032065745 0.048639588 -0.018723434 -0.07541229
00000000: 0eb5 9b3c 2e39 3ebd 61af 0fbc fc89 5a3d
00000010: ee9c 9cbd c01c dbbb 70a3 5abd 77f9 cbbd
00000020: 152e 693b 5dc1 d6bc 40b4 96bd a019 f03b
00000030: 95f4 853d ed04 0dbd b191 40bd 9e54 8c3d
00000040: ff9d 2d3d 9340 ab3c 092e bbbc 3ee7 ccbc
00000050: a977 25bd 7f3a 0bbd d82d 213d 044a 3dbd
00000060: 96bf 503d 39d7 653d 8c89 833d c754 82bd
00000070: c8e6 e83c c86c 73bb 50d2 05bd c180 dc3c
00000080: 90f1 b93c 9664 b5bc efbf 2a3d a8df 2c3d
00000090: 2cac c1bb 4eca 8dbd 97e6 3e3c 5b93 593c
000000a0: 740c aebc db2f 25bd 5b4a e53c e8ab a6bd
000000b0: 4efd 4cbd afc5 79bd 8da6 dcbc 8a98 19bd
000000c0: f635 b3bc 75b6 e9bc b0b5 453c 4810 2f3d
000000d0: 7903 0d3c e977 8dba 2aeb 953d c63c 1f3d
000000e0: 82eb 5ebd a119 fa39 aa78 833d deec 1ebb
000000f0: 576b 903d 1f6b 17bd 3466 af3c 9c25 3a3c
00000100: b88d e43c 7d6e 913d cb34 e33c f15d 443d
00000110: 5ce5 e13d 0d96 98bd baae 1fba 516b 8fbd
00000120: e907 55bd 49ba 00bd 32ef 543d 6c57 03bd
00000130: c36d d03c fefb 2b3d 3e55 7a3d 1245 d53d
00000140: 33c4 97bc e113 5ebd 994c d5bd fce0 8a3a
00000150: c9f5 d2bc e6db a93a fbdd 333d d74e 113d
00000160: 50d4 053d 767d a43d 6846 953d aba8 713d
00000170: cb2d a0bb a959 d5bc e264 8dbd 7e96 f0bd
00000180: 7620 07bd 16d3 debb 640d 29bd 6351 bfbc
00000190: e5d3 653c 5b39 533b abf2 75bd b948 aebc
000001a0: 69f8 943c c236 c0bc e165 053d a756 26bb
000001b0: 12c9 ccbd 1183 d1bd 3d21 10be a272 e23c
000001c0: acd9 733c e65e 7cbd 851b 05bd afc3 b8bd
000001d0: 5186 f5bd 3747 6b3d 77b2 a93c 0005 a83c
000001e0: aae7 7c3d 367c bdbd f9b2 cc3a 8e83 23bd
000001f0: 342b 8e3d 69b5 ea3a 48aa c9bc 254b 1fbd
00000200: 5d46 8b3b 0533 473d a92c 133d 3e7c 91bd
00000210: 403d 47bd 89c3 8bbc 18e4 1ebd d52c 953c
00000220: 31e6 62bd cdf1 d93d f526 14bd 01f2 913c
00000230: 1863 943d 545f 5ebc ef5e 663d dced 0dbd
00000240: 8933 c2bd ea14 efbc 36a4 c0bc 3811 03bd
00000250: da9a 713d dcd6 ae3d 9aed ef3a bad3 8b3d
00000260: b23e 8a3c a1bb 9f3d 2118 313e 04dc c73c
00000270: d665 d43c 821d 773b bda4 af3c 7d00 493d
00000280: 033b 3cbd 483b 9a3d 260c 7d3d e743 f6bb
00000290: dfba 9339 7467 903d 3391 433c eb9a 753d
000002a0: 0124 40bc 7301 14bd 913a 833c 5f05 5d3d
000002b0: 0417 0bbc 4c3e 863d 7695 1c3d d0ab bd3d
000002c0: 276c ad3c 3830 ce3b 075a 773c 5ef5 88bd
000002d0: febd 473d 98d6 0b3d c82d 8abd b272 2e3c
000002e0: a8a9 a9bd 6dce 013d 4113 9abc 87ce 8d3d
000002f0: 8741 503d efd8 263c e08e d5bc 954a 4ebd
00000300: 8eae a3bc c93e 3ebc 568a 013d ddec 31bc
00000310: 52d8 8b3d f426 78bc cf15 383c 333f 12bb
00000320: 11c9 dc3c d240 a1bc 424c 943d 800e cfbc
00000330: 894a a13d 62ec 0dbc e159 6dbd 7ae3 9e3d
00000340: 04ad 2f3d efc3 3a3d 5053 9bbd a9bc c83d
00000350: 4995 923d deb2 503d 883d ed3a efce f3bc
00000360: 258d 58bb c165 493d 14b3 2cbc e6a6 c4bc
00000370: d436 813d c5ad ae3d f2f4 b3bd 0c71 cb3c
00000380: 351d 0ebd 85ac f23d e5e9 61bd a6c0 003d
00000390: 06de aabc 0461 74bb 62a5 6cbc 993b 843d
000003a0: 1417 713d 0396 31bd eb01 c33d 7cf9 a63d
000003b0: cccc 1d3d 9de9 d13c e853 d53c f2e2 bf3d
000003c0: 0b1d bbbc 991e 3abd bd6b 63bc bed9 3d3d
000003d0: 2ab1 ebbd f0bf bfbd 524a f3bc ab79 5fbd
000003e0: 1aa3 333a aa3c 36bd 920b 8b3d 19dd 2fbd
000003f0: 5f57 033d 4e3a 473d e361 99bc c271 9abd

conv3.conv2d.bias f4 [32]
0.07723888 0.017378736 0.03719586 -0.072796375 -0.090169564 0.07661964 0.012353146 0.09504921
-0.031202247 0.044643797 0.0466483 -0.052892778 0.013778729 -0.081343435 0.0032671236 -0.04096578
0.03641052 0.010078903 -0.075225234 0.08563521 0.02545081 0.026593115 0.04701699 0.0027842803
-0.070649445 0.023406085 -0.02023146 -0.0783282 0.03398274 -0.012495359 0.06019823 -0.017255547
00000000: 6b2f 9e3d da5d 8e3c b05a 183d 4416 95bd
00000010: d2aa b8bd c2ea 9c3d da64 4a3c 29a9 c23d
00000020: db9b ffbc 6adc 363d 4a12 3f3d 19a6 58bd
00000030: 2ec0 613c 6397 a6bd 3d1d 563b bccb 27bd
00000040: 3323 153d fc21 253c b00f 9abd 8361 af3d
00000050: 387e d03c ced9 d93c e394 403d 7978 363b
00000060: a8b0 90bd 1ebe bf3c 72bc a5bc 896a a0bd
00000070: 7c31 0b3d 56b9 4cbc 6b92 763d 815b 8dbc

in3.weight f4 [32]
0.9365109 0.9863642 0.9833403 0.99131256 0.9999175 0.98159045 0.9751371 0.95954347
1.0100428 0.97554564 0.9415966 1.009652 0.9660596 0.9892507 0.97684723 0.93535364
0.97696674 0.97675985 0.9299331 0.9864982 0.931787 0.99283504 1.0124283 0.967874
0.98497784 1.0129488 1.0167708 0.98600316 0.98364913 0.9648213 0.9956599 0.9900363
00000000: 2ebf 6f3f 5d82 7c3f 31bc 7b3f a9c6 7d3f
00000010: 98fa 7f3f 8349 7b3f 96a2 793f a4a4 753f
00000020: 1549 813f 5cbd 793f 7a0c 713f 473c 813f
00000030: af4f 773f 893f 7d3f a912 7a3f 5673 6f3f
00000040: 7e1a 7a3f ef0c 7a3f 1810 6e3f 258b 7c3f
00000050: 9889 6e3f 702a 7e3f 4097 813f 97c6 773f
00000060: 8227 7c3f 4ea8 813f 8c25 823f b46a 7c3f
00000070: 6ed0 7b3f 87fe 763f 91e3 7e3f 0573 7d3f

in3.bias f4 [32]
0.07035791 -0.02287291 0.05191501 0.0060141305 -0.013544214 -0.005931508 0.048127405 0.049983375
0.033682868 -0.0030002054 -0.0008061904 -0.0036542113 -0.01766817 -0.0028948758 -0.013375369 -0.057221875
-0.049481098 0.02153839 -0.08073435 -0.005274651 -0.028427113 -0.0144173065 -0.00070154574 0.007720029
-0.02804444 0.00998061 0.034135602 -0.006396697 0.02073012 -0.033908114 0.035748754 -0.046083704
00000000: cf17 903d f85f bbbc d5a4 543d 2f12 c53b
00000010: 8de8 5dbc 185d c2bb 3e21 453d 5ebb 4c3d
00000020: 0cf7 093d 189f 44bb 8656 53ba 7e7b 6fbb
00000030: d7bc 90bc f5b7 3dbb 5d24 5bbc 7c61 6abd
00000040: b1ac 4abd 4771 b03c 0d58 a5bd fbd6 acbb
00000050: fadf e8bc 9136 6cbc f0e7 37ba 4cf8 fc3b
00000060: 74bd e5bc b685 233c c6d1 0b3d 629b d1bb
00000070: 36d2 a93c 3ce3 0abd 496d 123d 44c2 3cbd

res_blocks.0.conv1.conv2d.weight f4 [32, 32, 3, 3]
-0.012629105 0.06438485 -0.046273943 0.07764755 0.0589792 -0.041792102 -0.02411353 -0.0397402
-0.00827955 -0.012824622 -0.014853913 0.01845505 -0.030129006 0.06893885 -0.0038263756 -0.054917794
0.039405245 -0.067095675 -0.022703411 0.007234686 0.027049502 0.05902013 0.002218163 0.012224853
0.005539182 0.0064184605 0.0334374 0.029051822 -0.09805419 -0.029437784 -0.0038640567 0.006936363
-0.060260642 -0.053822093 -0.040259156 -0.05507869 -0.07154099 -0.009318252 -0.02126792 0.0028340947
0.065133594 -0.022494217 0.04663559 0.05045517 -0.040303204 0.040758695 -0.04918902 0.06819232
0.02764705 -0.0032887543 0.05767184 0.020938568 -0.07436445 -0.056921046 -0.060035367 0.00041754686
-0.024656242 -0.014641629 0.06826046 -0.07448531 0.061115663 0.0079131685 0.07364496 -0.021744557
0.0289091 0.08520716 -0.059063125 -0.0050435164 0.014940391 -0.01407742 0.03518728 -0.023415327
0.014733347 -0.041967858 -0.008023787 -0.019708175 -0.032468315 0.05298533 0.014357785 -0.019005643
-0.0037947132 -0.011327429 -0.066328995 -0.08860746 -0.0008229936 0.043044504 -0.008083351 -0.05134504
-0.0260883 0.077749506 -0.00860276 0.022718003 -0.065952845 -0.0048335562 -0.052448995 0.08391797
-0.03602615 -0.05930358 -0.05552872 -0.018224975 -0.034311865 -0.010252223 -0.06106761 0.060849685
-0.013276574 0.016269283 -0.034752168 -0.017894732 -0.10431823 -0.0574327 -0.071049154 -0.012138005
-0.009391123 -0.07575842 -0.01700404 0.0008668103 -0.072899684 -0.037676852 -0.036567144 -0.032948725
0.038971424 -0.06338762 0.016180592 0.040864334 -0.062965505 -0.054964717 0.04913686 0.0382202
-0.0031518894 0.01534893 -0.027155768 0.026033802 0.0073261443 -0.07516547 0.020323178 0.040122613
0.03308098 -0.0109554585 0.017882908 0.02551969 0.04138656 0.006656399 -0.018870031 0.047421526
-0.06511667 -0.07122848 -0.047545232 0.006503465 0.029737843 0.047326066 -0.018120643 0.0302077
0.04160564 -0.057537824 0.09781223 -0.05495086 0.0182288 0.053427767 0.023806551 -0.09349811
-0.07510893 0.054005902 -0.0129742725 0.081316225 -0.04015907 0.013472126 0.056714896 0.05316529
-0.035253998 0.06585603 0.005071205 -0.015484993 -0.041040674 0.03959188 0.00090664666 0.028151728
0.017170237 -0.019768778 0.007685855 0.0063816602 -0.03613044 0.009882959 0.03063535 -0.06605094
0.05496426 -0.008785803 0.07181326 -0.00827392 0.0025156545 -0.0014687106 -0.0043977792 0.040662304
0.032058682 0.034881555 0.021508358 0.031051546 -0.012801909 0.018560877 -0.0006373553 -0.005903849
0.0035549824 0.016375877 -0.0031887647 0.036162592 -0.014450608 0.027983163 0.0077233263 0.011261837
-0.0025082137 0.033252377 -0.01819969 -0.046196774 0.0016687594 -0.024536764 -0.016955163 0.05484238
0.010217413 0.0014656878 0.08217023 0.06942031 -0.021380203 0.022050995 0.02548631 -0.0030974988
-0.060099613 -0.006177358 0.08917542 -0.00084855035 0.04596529 0.03447384 0.07648751 -0.074751146
0.0089083975 0.060426373 0.07289932 0.054392975 0.012808102 0.0062319925 -0.044926107 0.0046679005
-0.03915288 0.059920643 0.052691266 -0.01996232 -0.009611118 -0.021927822 -0.05389019 0.0014049164
0.058603685 -0.039435416 0.031826947 -0.017045189 -0.01970528 0.034964938 0.06035375 -0.025212362
00000000: 4eea 4ebc 34dc 833d bf89 3dbd ae05 9f3d
00000010: 2c94 713d 322e 2bbd bd89 c5bc 9fc6 22bd
00000020: f3a6 07bc 5d1e 52bc d45d 73bc 0c2f 973c
00000030: 1bd1 f6bc d02f 8d3d eec3 7abb 7bf1 60bd
00000040: 6567 213d 7569 89bd 81fc b9bc f210 ed3b
00000050: eb96 dd3c 18bf 713d 9a5e 113b c04a 483c
00000060: 0782 b53b f351 d23b a8f5 083d 16fe ed3c
00000070: a3d0 c8bd 8227 f1bc 1d3c 7dbb 6e4a e33b
00000080: ddd3 76bd 8e74 5cbd c9e6 24bd 319a 61bd
00000090: 1584 92bd 95ab 18bc 103a aebc 38bc 393b
000000a0: c364 853d cb45 b8bc f604 3f3d 15aa 4e3d
000000b0: f914 25bd 97f2 263d 6d7a 49bd 6aa8 8b3d
000000c0: 117c e23c 2488 57bb 4f39 6c3d 5c87 ab3c
000000d0: 644c 98bd 0b26 69bd a5e7 75bd 31ea da39
000000e0: e3fb c9bc 71e3 6fbc 24cc 8b3d c18b 98bd
000000f0: 6b54 7a3d 3ca6 013c 2bd3 963d a421 b2bc
00000100: c7d2 ec3c 1781 ae3d 2dec 71bd 1544 a5bb
00000110: 8bc8 743c fba4 66bc 8a20 103d 80d1 bfbc
00000120: 2364 713c 7de6 2bbd 3476 03bc 0a73 a1bc
00000130: 7ffd 04bd 2507 593d ea3c 6b3c b9b1 9bbc
00000140: b9b0 78bb ae96 39bc 7fd7 87bd d477 b5bd
00000150: 2abe 57ba 6f4f 303d 0870 04bc 2d4f 52bd
00000160: 21b7 d5bc 223b 9f3d 97f2 0cbc 1b1b ba3c
00000170: 4912 87bd cf62 9ebb c2d4 56bd 2fdd ab3d
00000180: 2890 13bd 50e8 72bd 1572 63bd 8b4c 95bc
00000190: 998a 0cbd f1f8 27bc 0822 7abd 853d 793d
000001a0: fd85 59bc 2947 853c 4a58 0ebd f997 92bc
000001b0: cca4 d5bd 8d3e 6bbd 3882 91bd 7cde 46bc
000001c0: 3add 19bc 3b27 9bbd 0e4c 8bbc a83a 633a
000001d0: 6e4c 95bd 0b53 1abd 6ec7 15bd 3ef5 06bd
000001e0: 80a0 1f3d 5ed1 81bd 298d 843c 5c61 273d
000001f0: 0ff4 80bd af22 61bd bb43 493d c98c 1c3d
00000200: ee8f 4ebb 147a 7b3c c675 debc d744 d53c
00000210: 2710 f03b 5bf0 99bd cb7c a63c 9c57 243d
00000220: ec7f 073d 867e 33bc 2d7f 923c ab0e d13c
00000230: f484 293d ec1d da3b 5395 9abc 133d 423d
00000240: e45b 85bd 3de0 91bd cabe 42bd 051b d53b
00000250: c79c f33c fad8 413d be71 94bc 2376 f73c
00000260: ad6a 2a3d c8ac 6bbd c751 c83d 2714 61bd
00000270: 9054 953c 13d7 5a3d f505 c33c f07b bfbd
00000280: b6d2 99bd 4b35 5d3d 0b92 54bc 1f89 a63d
00000290: d67d 24bd 31ba 5c3c e14d 683d d9c3 593d
000002a0: 7f66 10bd 87df 863d 5a2c a63b c5b4 7dbc
000002b0: 441a 28bd 182b 223d 07ac 6d3a 749e e63c
000002c0: 99a8 8c3c 22f2 a1bc a0d9 fb3b 3f1d d13b
000002d0: 83fd 13bd 22ec 213c fcf6 fa3c b745 87bd
000002e0: 3422 613d 54f2 0fbc d512 933d 568f 07bc
000002f0: aedd 243b c081 c0ba 3f1b 90bb 848d 263d
00000300: f74f 033d f6df 0e3d 4c32 b03c d05f fe3c
00000310: 19bf 51bc fb0c 983c 3114 27ba 1375 c1bb
00000320: b5fa 683b b426 863c 98fa 50bb 3a1f 143d
00000330: 3ec2 6cbc f23c e53c f513 fd3b 9183 383c
00000340: d860 24bb a533 083d 8417 95bc d438 3dbd
00000350: 46ba da3a 5301 c9bc 8ee5 8abc 67a2 603d
00000360: f066 273c 521c c03a de48 a83d 3c2c 8e3d
00000370: 8925 afbc 4aa4 b43c aac8 d03c 68ff 4abb
00000380: 032b 76bd 6f6b cabb 9aa1 b63d 4071 5eba
00000390: 1a46 3c3d 7134 0d3d 7ca5 9c3d 2117 99bd
000003a0: 87f4 113c a581 773d 3d4c 953d 2bcb 5e3d
000003b0: 13d9 513c be35 cc3b 7004 38bd 30f5 983b
000003c0: c55e 20bd 596f 753d ccd2 573d 0588 a3bc
000003d0: f377 1dbc faa1 b3bc f6bb 5cbd 2c25 b83a
000003e0: 6b0a 703d 0887 21bd f95c 023d 5aa2 8bbc
000003f0: f86c a1bc 6537 0f3d 7e35 773d 288a cebc

res_blocks.0.conv1.conv2d.bias f4 [32]
-0.067168415 0.019368678 -0.004446722 0.012861584 -0.015275702 0.07285351 -0.08728353 -0.017043075
-0.08114212 0.01519632 0.071474455 0.05340853 -0.028007947 0.055455714 0.058189426 0.06462774
-0.050825838 0.054463685 -0.049724292 0.009381348 0.06328949 -0.026764207 0.027920606 0.029433407
0.039975803 -0.021741284 -0.10768135 -0.0885969 0.056930337 -0.041967113 0.027534125 -0.03017024
00000000: 988f 89bd 10ab 9e3c cfb5 91bb 65b9 523c
00000010: f046 7abc 3934 953d b5c1 b2bd eb9d 8bbc
00000020: d72d a6bd fcf9 783c 3361 923d e7c2 5a3d
00000030: ec70 e5bc 8825 633d 0958 6e3d 8c5b 843d
00000040: c12e 50bd 5015 5f3d b3ab 4bbd 3ab4 193c
00000050: ec9d 813d 9c40 dbbc c1b9 e43c 541e f13c
00000060: abbd 233d c71a b2bc 0a88 dcbd 4b72 b5bd
00000070: c92f 693d b5e5 2bbd 3f8f e13c 9427 f7bc

res_blocks.0.in1.weight f4 [32]
1.0435255 0.9838053 1.0112344 0.97612864 0.984966 0.98951024 1.0126351 0.9741337
0.9973594 0.9986282 0.9944691 1.0233456 0.9935957 1.0003932 1.0002618 1.0195229
1.0121734 1.0087056 1.0257354 1.0044603 0.9942585 1.015041 1.001574 1.0517806
1.0045409 1.0048679 1.0274427 1.0406481 0.9672908 0.996011 0.995548 1.0007882
00000000: 3e92 853f aada 7b3f 2170 813f 91e3 793f
00000010: bb26 7c3f 8b50 7d3f 079e 813f d360 793f
00000020: f252 7f3f 19a6 7f3f 8795 7e3f fdfc 823f
00000030: 4a5c 7e3f e20c 803f 9408 803f ba7f 823f
00000040: e68e 813f 441d 813f 4c4b 833f 2892 803f
00000050: ba87 7e3f ddec 813f 9433 803f bfa0 863f
00000060: cc94 803f 839f 803f 3e83 833f f533 853f
00000070: 5fa0 773f 94fa 7e3f 3cdc 7e3f d419 803f

res_blocks.0.in1.bias f4 [32]
0.036595393 -0.03539115 -0.0075026103 -0.0734645 -0.04966266 0.0009000398 -0.05919198 -0.047888555
-0.038112 -0.007694596 0.036389165 -0.0059100376 0.056507163 -0.010334324 -0.020553853 -0.060990416
0.013536214 -0.009370475 0.01816579 -0.005713661 -0.0034118027 0.029256636 0.0016760161 0.022979155
-0.051456016 -0.028364686 -0.045334484 0.0770058 -0.022727853 0.0155838635 -0.03522515 0.015053423
00000000: 0de5 153d 4ff6 10bd 75d8 f5bb 8e74 96bd
00000010: 136b 4bbd a6f0 6b3a 4a73 72bd ca26 44bd
00000020: 541b 1cbd f322 fcbb ce0c 153d fda8 c1bb
00000030: 0e74 673d 4c51 29bc 8e60 a8bc 16d1 79bd
00000040: ffc6 5d3c 9f86 19bc 6cd0 943c aa39 bbbb
00000050: 8d98 5fbb 9dab ef3c c5ad db3a c83e bc3c
00000060: 8bc3 52bd 0f5d e8bc a7b0 39bd 38b5 9d3d
00000070: c32f babc 7653 7f3c 3f48 10bd a2a2 763c

res_blocks.0.conv2.conv2d.weight f4 [32, 32, 3, 3]
0.026483268 0.05954235 -0.005163066 0.0702538 -0.037755072 -0.037869178 0.0012529092 0.0004460813
-0.073333964 0.006963424 -0.06054048 -0.0048858044 0.027270224 0.05005855 0.0018204056 -0.008459626
0.026865019 -0.0023523795 0.047433358 -0.03373 -0.021606188 0.040150553 0.016514985 0.014523866
0.018522339 0.03668506 -0.070255265 0.04324063 0.017653178 0.049385745 0.03282038 -0.026599463
0.024530353 0.01995411 -0.03724544 0.026223503 0.022099482 -0.00017984805 -0.0024327717 0.022717537
0.010577604 -0.083454944 0.022792555 -0.03107013 -0.033763733 -0.08118257 0.010534845 0.0005722713
0.0402895 -0.04352278 0.034908656 0.06307057 0.043633364 0.008361419 0.03018751 -0.0010425767
0.044004235 0.066908084 0.011998876 -0.06430798 -0.02052156 -0.02005094 0.01662889 0.033385243
-0.03268063 0.0077768466 0.03926616 -0.014803636 -0.045584153 -0.03655848 0.07930593 0.02788449
-0.038859397 -0.02775945 -0.011251627 -0.028413247 -0.003981849 0.020478506 -0.021787735 0.07980596
0.007675241 -0.013764197 0.0078068585 -0.09916769 -0.027605668 0.025396736 -0.02794967 0.059606846
-0.06750051 0.046022557 -0.05471633 0.03270607 -0.04837158 0.024045425 0.081424296 0.013440383
-0.0070315935 -0.024795474 0.015060921 0.0023375761 -0.03192653 -0.011681285 0.059984487 0.0013851887
-0.020085746 0.09212883 0.054504707 -0.027651586 -0.03427962 0.052677922 0.04276387 0.036280133
-0.029498903 0.014588406 0.02232629 -0.0069918777 0.029995294 0.025768016 -0.041257516 -0.0027229453
0.030932449 0.05013752 0.028266985 -0.054298017 0.035335805 0.06904715 0.024363102 -0.042214897
0.022921778 0.004271784 0.04309229 -0.07650244 -0.023383474 0.03964738 0.010762115 -0.014509691
-0.07422311 0.03415369 0.036227975 -0.015617434 0.06965712 0.061647285 -0.024039201 -0.016391601
0.04657886 -0.040376943 -0.09217173 -0.061468977 -0.01432724 0.021681432 0.024407702 0.0023633991
0.06759768 0.04956771 -0.051420413 -0.033097185 0.024724333 0.08303072 -0.046648692 0.016499167
0.07168362 0.028067222 0.0213648 0.026948638 -0.044196334 0.08196803 0.01653044 -0.033221047
0.0054493137 -0.04720934 -0.050800633 -0.045386802 -0.04360836 0.05962503 -0.038807295 0.037741825
0.013822367 -0.04763449 -0.004292039 0.014575646 0.028830659 0.010380741 -0.019778488 -0.027201304
-0.025492929 0.011767398 -0.05787011 -0.024518723 0.026777824 -0.014044212 0.04656089 -0.010031476
-0.030741751 -0.026903119 -0.011786676 -0.046564985 -0.013502415 -0.0846638 0.06274783 0.015510393
0.038900003 -0.023974508 -0.03699169 0.024772553 0.032732118 -0.0024786668 0.028555516 0.07064199
0.041415025 0.030513296 0.01723074 0.01824779 -0.051983774 0.010308676 -0.016368218 0.0793287
-0.022992631 -0.015888423 0.0068255765 0.022220356 -0.058721013 -0.016392572 -0.019775236 0.036153257
0.055535775 -0.10808101 -0.030728154 0.034937497 0.01844535 -0.025454419 0.03221457 0.031736773
0.0191444 0.05515203 0.040296745 -0.101375304 0.024823947 0.06880313 0.07616744 0.06778882
0.019329485 0.006159496 0.013628054 -0.015483065 -0.041313954 0.059034873 -0.034385037 -0.064550966
0.05986519 0.04369507 0.010605074 -0.016393026 -0.05907458 -0.033985373 0.04982382 -0.025755335
00000000: 70f3 d83c aee2 733d f02e a9bb 39e1 8f3d
00000010: 10a5 1abd b61c 1bbd a838 a43a 05e0 e939
00000020: 1e30 96bd 6f2d e43b 4bf9 77bd 1919 a0bb
00000030: ce65 df3c 320a 4d3d ad9a ee3a 3e9a 0abc
00000040: 0714 dc3c 612a 1abb 7b49 423d 7828 0abd
00000050: 76ff b0bc e874 243d 6f4a 873c 82f5 6d3c
00000060: 29bc 973c 1343 163d fee1 8fbd 161d 313d
00000070: 669d 903c b548 4a3d aa6e 063d 1ee7 d9bc
00000080: e1f3 c83c cd76 a33c ad8e 18bd acd2 d63c
00000090: f909 b53c 9895 3cb9 236f 1fbb 211a ba3c
000000a0: b04d 2d3c 6dea aabd 74b7 ba3c c986 febc
000000b0: d74b 0abd 0c43 a6bd 589a 2c3c 7a04 163a
000000c0: 9a06 253d f144 32bd 61fc 0e3d 252b 813d
000000d0: e6b8 323d 55fe 083c cc4b f73c 12a7 88ba
000000e0: c93d 343d 1b07 893d ef96 443c e7b3 83bd
000000f0: d51c a8bc de41 a4bc 4f39 883c f7be 083d
00000100: 20dc 05bd ebd4 fe3b 8ed5 203d f38a 72bc
00000110: 73b6 3abd 58be 15bd 266b a23d 046e e43c
00000120: 082b 1fbd c967 e3bc be58 38bc e6c2 e8bc
00000130: 2c7a 82bb 8ac2 a73c 317c b2bc 4f71 a33d
00000140: 9780 fb3b 3a83 61bc add0 ff3b 6e18 cbbd
00000150: 4825 e2bc d10c d03c b5f6 e4bc 4f26 743d
00000160: b53d 8abd 2682 3c3d 3b1e 60bd cdf6 053d
00000170: 4721 46bd e9fa c43c c8c1 a63d 0d35 5c3c
00000180: 4869 e6bb e11f cbbc 15c2 763c 0532 193b
00000190: 65c5 02bd dc62 3fbc 4bb2 753d 388f b53a
000001a0: dd8a a4bc 0aae bc3d 5440 5f3d 9485 e2bc
000001b0: c968 0cbd cec4 573d 2b29 2f3d 7a9a 143d
000001c0: afa7 f1bc 3604 6f3c a0e5 b63c 1f1c e5bb
000001d0: b1b8 f53c 7217 d33c a4fd 28bd 7173 32bb
000001e0: 0c66 fd3c 005d 4d3d 2a90 e73c 9967 5ebd
000001f0: 47bc 103d 9868 8d3d 2195 c73c 87e9 2cbd
00000200: 74c6 bb3c 52fa 8b3b 8b81 303d 50ad 9cbd
00000210: b38e bfbc 4b65 223d 9553 303c 0eba 6dbc
00000220: 4902 98bd bde4 0b3d c963 143d 44e0 7fbc
00000230: 64a8 8e3d dd81 7c3d dced c4bc ae47 86bc
00000240: 7ac9 3e3d 4b62 25bd 88c4 bcbd e5c6 7bbd
00000250: cdbc 6abc 429d b13c a9f2 c73c 42e3 1a3b
00000260: a770 8a3d 8307 4b3d 369e 52bd ea90 07bd
00000270: af8a ca3c 030c aa3d b312 3fbd 4329 873c
00000280: ddce 923d 3bed e53c 3c05 af3c 64c3 dc3c
00000290: 3707 35bd dbde a73d d86a 873c cb12 08bd
000002a0: 2890 b23b 955e 41bd 5314 50bd 83e7 39bd
000002b0: ae9e 32bd 6039 743d 66f4 1ebd 2c97 1a3d
000002c0: 3677 623c 621c 43bd 3ca4 8cbb b1ce 6e3c
000002d0: 462e ec3c fc13 2a3c 7f06 a2bc 45d5 debc
000002e0: 8cd6 d0bc 0bcc 403c 3509 6dbd 7ddb c8bc
000002f0: 2b5d db3c b219 66bc a2b6 3e3d 0f5b 24bc
00000300: 20d6 fbbc ee63 dcbc e71c 41bc edba 3ebd
00000310: 3c39 5dbc 3764 adbd ef81 803d 4e1f 7e3c
00000320: 9c55 1f3d 3066 c4bc 9984 17bd cfef ca3c
00000330: 1d12 063d 2171 22bb 42ed e93c bfac 903d
00000340: cda2 293d 05f7 f93c 7b27 8d3c 647c 953c
00000350: f0ec 54bd b9e5 283c a416 86bc 1677 a23d
00000360: 0b5b bcbc 7028 82bc 16a9 df3b 7707 b63c
00000370: 7285 70bd b749 86bc adff a1bc 7015 143d
00000380: 7b79 633d 9459 ddbd 9cb9 fbbc 9f1a 0f3d
00000390: b41a 973c c985 d0bc 6df3 033d 6bfe 013d
000003a0: b7d4 9c3c 18e7 613d 330e 253d db9d cfbd
000003b0: 975b cb3c a8e8 8c3d adfd 9b3d ddd4 8a3d
000003c0: de58 9e3c 99d5 c93b 3448 5f3c aeac 7dbc
000003d0: d238 29bd 8dce 713d 53d7 0cbd 4c33 84bd
000003e0: 3435 753d 9af9 323d e8c0 2d3c ab4a 86bc
000003f0: 30f8 71bd 3f34 0bbd 1014 4c3d dafc d2bc

res_blocks.0.conv2.conv2d.bias f4 [32]
0.026193863 0.07009483 -0.031429257 0.024264278 0.05111409 -0.05048908 0.11454276 -0.0073187957
0.073501 0.07913844 0.009324688 -0.038930472 -0.07770976 -0.053169377 0.03598105 -0.022753531
-0.064000465 0.07550417 -0.020719085 -0.0864925 0.032866653 -0.03654192 -0.052886434 -0.0563218
-0.00471762 0.052454572 0.1012719 -0.06234358 0.06470939 -0.0046999715 -0.071766876 -0.058544576
00000000: 8394 d63c e18d 8f3d f7bb 00bd e1c5 c63c
00000010: 025d 513d a3cd 4ebd 6595 ea3d 82d2 efbb
00000020: b187 963d 5613 a23d 94c6 183c 8f75 1fbd
00000030: 4b26 9fbd 22c8 59bd de60 133d 9d65 babc
00000040: ad12 83bd eea1 9a3d 12bb a9bc fb22 b1bd
00000050: 2f9f 063d fbac 15bd 729f 58bd b0b1 66bd
00000060: 4496 9abb 9bda 563d a467 cf3d fb5b 7fbd
00000070: 5b86 843d 3802 9abb 83fa 92bd 70cc 6fbd

res_blocks.0.in2.weight f4 [32]
0.97178215 0.9612623 0.9851773 0.9832354 0.98515546 0.961902 0.98330504 0.9744914
0.9839679 0.97451335 1.0134995 0.96999794 0.94724715 0.95368844 0.9552708 0.96204406
0.98200667 0.96714336 0.96090496 0.996355 0.9921176 0.96556646 0.9805893 0.9304832
0.9809165 0.94735533 0.9714981 0.9480358 0.96085995 0.97653663 0.9793727 0.9312118
00000000: b7c6 783f 4915 763f 9434 7c3f 51b5 7b3f
00000010: 2633 7c3f 363f 763f e1b9 7b3f 4578 793f
00000020: 52e5 7b3f b579 793f 5aba 813f c951 783f
00000030: ca7e 723f ed24 743f a18c 743f 8548 763f
00000040: ca64 7b3f b596 773f defd 753f 1f11 7f3f
00000050: 6bfb 7d3f 5d2f 773f e607 7b3f 2634 6e3f
00000060: 581d 7b3f e185 723f 19b4 783f 79b2 723f
00000070: ebfa 753f 4efe 793f 2bb8 7a3f e663 6e3f

res_blocks.0.in2.bias f4 [32]
0.0023669812 0.018491257 -0.03723345 0.030088399 -0.015469578 -0.039883856 0.028650656 0.02279586
0.01896123 0.10184286 0.009888271 -0.038955394 -0.06957238 -0.06507254 0.03626034 -0.040853932
0.0059443926 0.04197845 0.01089041 -0.029542262 0.007732367 -0.0072720665 -0.033182614 -0.067717955
-0.048512407 0.019274035 0.05680412 -0.011983583 0.062375676 -0.038133577 -0.022128327 -0.0685508
00000000: 5b1f 1b3b fa7a 973c 1a82 18bd f27b f63c
00000010: 1d74 7dbc 415d 23bd c8b4 ea3c 62be ba3c
00000020: 9554 9b3c fd92 d03d 6a02 223c b18f 1fbd
00000030: f77b 8ebd c044 85bd b985 143d 7456 27bd
00000040: 2ec9 c23b 98f1 2b3d b16d 323c 9d02 f2bc
00000050: cc5f fd3b 844a eebb 7eea 07bd b6af 8abd
00000060: f2b4 46bd 95e4 9d3c 70ab 683d ca56 44bc
00000070: a37d 7f3d f431 1cbd 7746 b5bc 5d64 8cbd

res_blocks.1.conv1.conv2d.weight f4 [32, 32, 3, 3]
0.0060055866 -0.01997638 0.003591626 0.024548693 -0.014811617 0.023723645 -0.010169519 -0.003673787
0.014395925 -0.06956302 -0.070632994 -0.015353876 0.017070316 0.032843396 0.012614834 -0.041631684
-0.029732885 -0.012892782 -0.045520518 0.011954194 -0.050331168 -0.0027474852 0.061606836 -0.048478052
0.04904944 0.031346314 -0.0760238 -0.025040563 0.041237034 0.06342647 -0.03172551 -0.083294824
0.0447747 -0.027916852 0.04198161 -0.018675486 0.016139539 0.022397112 -0.05639601 -0.025949096
0.02265556 -0.02944679 0.0793328 0.068018086 0.01278343 0.00974081 -0.02874641 0.016094929
-0.03664113 -0.011519494 -0.066511974 0.009919751 0.059123415 0.04461893 0.02874574 -0.027962292
-0.05034397 0.008576321 -0.0007610916 -0.033509884 0.017183665 0.02515508 -0.05400847 0.03173632
-0.020419901 0.002302099 0.029308492 -0.031823546 0.04185888 0.00069979695 -0.04775382 -0.021943526
-0.06705188 -0.033667497 -0.055798892 -0.057793044 0.042265754 0.037029218 0.05867227 -0.028715901
-0.0136261685 0.025847053 0.04396756 0.037414357 -0.02640285 0.010250949 0.0496549 -0.017134024
0.086138 0.016444437 -0.025835756 0.016243711 0.031636037 0.0038467362 -0.041022014 -0.012440143
-0.043640144 -0.0052017765 -0.0010416079 0.032890875 -0.018693326 0.083303556 0.024975877 -0.016745694
0.03396709 -0.036786072 -0.010139587 0.048544697 -0.013963623 -0.052105647 0.033088088 -0.05569416
-0.053086907 -0.018611228 -0.05722914 0.0029772378 0.0044751293 0.07032845 -0.054291543 -0.026241016
-0.07908969 -0.01697827 0.056504276 -0.045990024 -0.009540327 -0.05966237 0.03314061 -0.03965021
0.0026543739 0.024699703 0.03825226 0.08093312 0.0058860215 -0.017076956 0.020481795 -0.01174161
-0.03335738 -0.07359423 0.047256928 -0.0060511604 -0.010231779 -0.04289309 -0.092433974 -0.030063834
-0.018280802 -0.005592863 0.041321892 -0.020086313 0.057493392 0.006301197 -0.09336356 -0.08199326
-0.011578963 0.07002005 -0.023326583 0.028021475 0.03064516 -0.06434299 0.055683836 -0.014586327
0.039144758 -0.064285874 -0.037273373 -0.021480324 0.0017784757 0.055204723 -0.013654698 -0.058538504
-0.034524016 0.021851454 0.024927028 -0.005778424 0.009514914 0.05472073 0.013248577 0.024681183
0.12461909 -0.017184097 -0.04905141 0.050492425 -0.051566985 -0.018429779 -0.039755475 0.008895964
0.06074783 0.029685605 0.028354552 -0.047559407 0.009270906 -0.01511061 0.008096966 0.022635434
-0.045410253 -0.05771385 -0.06058054 0.021147892 0.019538786 -0.029064436 -0.022066975 0.03241652
0.040305726 -0.046059523 -0.030608224 -0.042592682 -0.0014727482 0.024103703 -0.039333034 0.013380429
-0.0011971557 -0.008510551 0.052039444 0.05257159 0.05932398 -0.05454342 0.016767796 0.0064503606
-0.017888932 0.0041235173 -0.01824965 0.04594144 0.059491426 0.037170913 0.0071845576 0.021578055
0.022821104 0.005673587 0.026677193 0.02527468 0.00025187343 0.028846659 0.038292903 -0.05602574
0.0070106504 0.010693655 -0.06857038 -0.034732994 0.04035833 0.0064232247 0.0018983044 0.019873654
0.0328395 -0.0075621763 0.05966533 -0.08024031 -0.019976 -0.011505453 0.001820213 -0.024694676
-0.05154961 -0.054353613 -0.025345718 0.0052778735 -0.023432957 -0.02761463 -0.00019093444 0.009873901
00000000: 83ca c43b 81a5 a3bc 7c61 6b3b 571a c93c
00000010: 6dac 72bc 1758 c23c 0e9e 26bc ebc3 70bb
00000020: e3dc 6b3c 0e77 8ebd 08a8 90bd d38e 7bbc
00000030: 0cd7 8b3c cc86 063d 73ae 4e3c fc85 2abd
00000040: 6192 f3bc 3f3c 53bc b973 3abd 86db 433c
00000050: 0e28 4ebd 270f 34bb 7357 7c3d ec90 46bd
00000060: 11e8 483d fe64 003d 5eb2 9bbd de21 cdbc
00000070: 2ae8 283d bde5 813d 9cf2 01bd 7a96 aabd
00000080: ad65 373d e2b1 e4bc e9f4 2b3d 55fd 98bc
00000090: 1137 843c 267a b73c 81ff 66bd 3393 d4bc
000000a0: 2798 b93c 653a f1bc 3c79 a23d 114d 8b3d
000000b0: 9771 513c eb97 1f3c 977d ebbc 83d9 833c
000000c0: 0215 16bd 42bc 3cbc 6e37 88bd 7486 223c
000000d0: 652b 723d 57c2 363d 307c eb3c 2d11 e5bc
000000e0: 7b35 4ebd b383 0c3c fe83 47ba a941 09bd
000000f0: c2c4 8c3c 0712 ce3c fc37 5dbd f2fd 013d
00000100: a347 a7bc d0de 163b 5d18 f03c 6859 02bd
00000110: 3874 2b3d 9472 373a 8299 43bd e9c2 b3bc
00000120: 7f52 89bd eee6 09bd 618d 64bd 66b8 6cbd
00000130: db1e 2d3d f3ab 173d 5652 703d 9c3d ebbc
00000140: 4b40 5fbc 33bd d33c 5417 343d cc3f 193d
00000150: ca4a d8bc 99f3 273c f062 4b3d a75c 8cbc
00000160: 1f69 b03d 7cb6 863c 82a5 d3bc 8811 853c
00000170: ca94 013d 8619 7c3b b306 28bd bed1 4bbc
00000180: 02c0 32bd aa73 aabb 9086 88ba 95b8 063d
00000190: bf22 99bc 0e9b aa3d 369a cc3c 442e 89bc
000001a0: 1321 0b3d feac 16bd 8320 26bc ced6 463d
000001b0: aec7 64bc bb6c 55bd 6087 073d 8f1f 64bd
000001c0: a871 59bd 9376 98bc 1a69 6abd c31d 433b
000001d0: 1ba4 923b 5d08 903d cf60 5ebd 66f7 d6bc
000001e0: c7f9 a1bd 0316 8bbc 0771 673d 0960 3cbd
000001f0: 084f 1cbc 8760 74bd 73be 073d 4268 22bd
00000200: 01f5 2d3b 0857 ca3c 67ae 1c3d 43c0 a53d
00000210: 87df c03b f9e4 8bbc 70c9 a73c e25f 40bc
00000220: c0a1 08bd 92b8 96bd 7b90 413d d048 c6bb
00000230: 31a3 27bc aab0 2fbd 064e bdbd 6e48 f6bc
00000240: 9fc1 95bc 5644 b7bb 2541 293d 0d8c a4bc
00000250: 317e 6b3d 467a ce3b 6535 bfbd 15ec a7bd
00000260: b1b5 3dbc ac66 8f3d 6417 bfbc 4b8d e53c
00000270: 8f0b fb3c 42c6 83bd bc14 643d 7dfb 6ebc
00000280: 4156 203d 50a8 83bd f7ab 18bd 81f7 afbc
00000290: be1b e93a 591e 623d f4b7 5fbc 12c6 6fbd
000002a0: 0e69 0dbd d201 b33c c433 cc3c ef58 bdbb
000002b0: 71e4 1b3c d822 603d 8f10 593c 3130 ca3c
000002c0: 4b38 ff3d aac5 8cbc 22ea 48bd 25d1 4e3d
000002d0: e737 53bd 0cfa 96bc a3d6 22bd 61c0 113c
000002e0: b7d2 783d 3a2f f33c ce47 e83c a7cd 42bd
000002f0: 00e5 173c 7e92 77bc 23a9 043c f26d b93c
00000300: 1a00 3abd 5c65 6cbd 4d23 78bd 583e ad3c
00000310: ce0f a03c 8a18 eebc cdc5 b4bc 2fc7 043d
00000320: 9e17 253d e9a8 3cbd 19be fabc aa75 2ebd
00000330: 3b09 c1ba 2175 c53c ad1b 21bd 9639 5b3c
00000340: e1e9 9cba d76f 0bbc 5027 553d 4f55 573d
00000350: b4fd 723d ec68 5fbd 9e5c 893c 8c5d d33b
00000360: cf8b 92bc 921e 873b 4a80 95bc 172d 3c3d
00000370: 48ad 733d 8740 183d 706c eb3b 76c4 b03c
00000380: 53f3 ba3c 7fe9 b93b 218a da3c d90c cf3c
00000390: e10d 8439 d44f ec3c 05d9 1c3d 3f7b 65bd
000003a0: 99b9 e53b 7134 2f3c a16e 8cbd 2f44 0ebd
000003b0: c74e 253d ea79 d23b 87d0 f83a 13ce a23c
000003c0: b682 063d 22cc f7bb a263 743d 0855 a4bd
000003d0: b5a4 a3bc 5e81 3cbc 3794 ee3a 7d4c cabc
000003e0: af25 53bd e5a1 5ebd d3a1 cfbc 03f2 ac3b
000003f0: 79f6 bfbc 1438 e2bc 9335 48b9 24c6 213c

res_blocks.1.conv1.conv2d.bias f4 [32]
0.03190022 0.084352925 -0.05770821 -0.047135822 0.017547619 0.058760565 0.04762135 0.09029061
0.056499034 0.04849725 -0.024423262 -0.0037275525 0.06888571 -0.021621985 0.05485804 0.022287093
0.026504401 0.046763707 -0.0008643244 0.07468626 0.030163025 -0.017908908 0.005979002 0.028225837
-0.0051376303 -0.10794259 0.059036285 -0.054249402 0.07684739 -0.007913181 0.07331761 -0.014869995
00000000: cea9 023d 3ac1 ac3d 725f 6cbd 7e11 41bd
00000010: 06c0 8f3c ebae 703d 9b0e 433d 49ea b83d
00000020: 886b 673d 0da5 463d 4b13 c8bc f449 74bb
00000030: f313 8d3d 9720 b1bc d3b2 603d 6c93 b63c
00000040: c21f d93c 4d8b 3f3d d493 62ba 1cf5 983d
00000050: 7318 f73c b4b5 92bc 81eb c33b df39 e73c
00000060: 9159 a8bb 0111 ddbd 08d0 713d 9f34 5ebd
00000070: 2a62 9d3d 49a6 01bc 8b27 963d 48a1 73bc

res_blocks.1.in1.weight f4 [32]
1.0133102 0.99728686 0.9924566 1.0096505 1.0421035 0.9787285 0.9788624 0.99830765
1.0002167 0.99514586 1.0262711 0.9795775 1.0130359 0.9961913 1.0225712 1.0139194
1.0186255 1.0049014 0.99635065 0.99098134 1.0278546 1.0114242 0.9865376 0.99577874
1.0112184 1.0150913 0.99878824 0.9724404 0.9930938 1.0031664 0.98138475 0.9934593
00000000: 26b4 813f 314e 7f3f a311 7e3f 3a3c 813f
00000010: a663 853f f38d 7a3f ba96 7a3f 1791 7f3f
00000020: 1a07 803f e1c1 7e3f da5c 833f 97c5 7a3f
00000030: 29ab 813f 6506 7f3f 9de3 823f 1cc8 813f
00000040: 5262 823f 9ca0 803f d610 7f3f f4b0 7d3f
00000050: bd90 833f 5976 813f ba8d 7c3f 5beb 7e3f
00000060: 9b6f 813f 83ee 813f 96b0 7f3f dbf1 783f
00000070: 653b 7e3f c267 803f 083c 7b3f 5953 7e3f

res_blocks.1.in1.bias f4 [32]
-0.022500088 -0.03273009 0.022204258 0.0003533916 -0.016372828 -0.01885644 0.0080877 0.030161275
-0.036519263 -0.007832833 -0.041136596 -0.037158385 -0.02392254 -0.004761219 -0.008063601 -0.042393167
0.029282555 -0.033888444 -0.09581424 -0.05297206 -0.029545689 -0.06458631 -0.103728585 -0.026236206
-0.004736616 -0.049014073 -0.05207555 -0.007145732 -0.038997475 -0.04275531 -0.06512965 -0.05553923
00000000: 1b52 b8bc fd0f 06bd b4e5 b53c 6b47 b939
00000010: 4f20 86bc d278 9abc 4682 043c c714 f73c
00000020: 3995 15bd 4855 00bc d97e 28bd 6433 18bd
00000030: 34f9 c3bc 0004 9cbb 321d 04bc 75a4 2dbd
00000040: f8e1 ef3c 9cce 0abd 423a c4bd 3bf9 58bd
00000050: cd09 f2bc d445 84bd a76f d4bd 50ed d6bc
00000060: 9d35 9bbb fbc2 48bd 2c4d 55bd bf26 eabb
00000070: d1bb 1fbd 3120 2fbd b262 85bd 1b7d 63bd
