Assets/Style_Transfer/Models/Estilos fallidos/reconet1.2.onnx (onnx, 450974 bytes, 62 tensors)

conv1.conv2d.weight f4 [8, 3, 9, 9]
00000000: 5537 8b3c 4635 0c3d abe8 4ebc 9850 723d
00000010: 8803 233d 7460 9c3c 988f 823d f184 86bc
00000020: d864 de3c ea4c 9f3d c729 8f3b 4442 d83a
00000030: 7690 673d af5f 9d3d 099f 2d3d 4671 b6bc
00000040: 87c4 363d 3800 913d d39f 343c d731 8c3c
00000050: 6c6d 05bd 862d d53b c941 78bc bc6e d1bc
00000060: 5867 7c3d 8d62 d3bc 8546 9b3d 6546 ac3c
00000070: d78e 92bb 9bbb 1b3b 0aaf 353d d005 963c
00000080: 0185 773d a923 0ebd 4b50 063c 9eff 06bd
00000090: c254 b33b 224f 28bb 3419 0f3c 8c50 c23b
000000a0: a337 603d ae95 a63d 9a43 e4bc 739d 2cbd
000000b0: e31a 82bc 421c aebc cd31 efbc 9d29 003c
000000c0: bd27 e2b9 c874 eb3c 2929 7a3d ed29 e3bb
000000d0: 58fa 303d 0d70 303c 66b1 9d3d 8f45 4b3d
000000e0: 7b96 9e3c 7113 5f3b 0bc7 573d 5cea 7d3d
000000f0: ffaa 873d cc93 72bd f400 e73c 26a3 303d
00000100: 7654 573d e26f 2f3c d278 073d 616f d63c
00000110: 0b2e 373d 3c6a 22bc b731 a7bd dc44 82bb
00000120: e4af 6a3b 0c95 12bd 3fa1 08bd 36dc 01bd
00000130: 0fdd 343d c698 71bd ccd2 c1bc 57e9 ecbc
00000140: ad47 b5bc 478e 33bc 4e06 02bd 61f3 c9bc
00000150: e56b 3e3c 71c1 60bd 56e9 4bbd c4f7 983c
00000160: bfde 833c 491d 2c3d 1537 f539 6810 36bc
00000170: 84e6 4abd ff0a 2ebc 87e4 45bd de24 133b
00000180: 3900 a0bc c361 623d bd45 3fbd 53b3 1cbd
00000190: d615 28bc 8b64 f63c 3ba0 fc3c 55e7 b23c
000001a0: 4b1e 09bc 88db 4dbd 94b1 19bd 15b6 54bb
000001b0: 5502 cabc ddb2 5d3b 4345 46bb 37f4 3ebd
000001c0: b25b 633d dc2c 743d 8c38 7c3d 243a 2bbd
000001d0: b4e4 2fbd f2cd d83a cdcc df3c 8212 eabc
000001e0: 73c5 393d de7f e2ba a908 d03c 415d 7e3d
000001f0: 9046 0d3d 6968 d6bc 2ec3 03bd 9347 243c
00000200: e942 8dbc 09de db3b ff9e ee3a ebc4 af3d
00000210: ff51 99bb 1bf5 b13c 9007 82bd 8c35 2d3b
00000220: c113 513c fa2d c33c 9adb 963d 058d 3b3d
00000230: 8858 3a3b 3f17 363d bc75 80bc fafc 3cbd
00000240: c401 95bc 9a0d 4c3d 0b35 d4bc 47bb 4e3d
00000250: 9280 423d 1a2b 273d 003c 10bd 0b04 10bd
00000260: d593 f3bd e538 893d 1ab7 adbd daa9 c4bd
00000270: d881 9bbd 34b1 4a3c 01e8 f6bc 676e 37bd
00000280: aa80 bdbd 5522 c8bc 3f39 843d 6b46 e2bc
00000290: b2b7 353b 5673 8fbd 8269 9a3c 4da7 c5bc
000002a0: 336a 01bc 08bf c13c 0371 6dbc 5b3b 8ebc
000002b0: 233d 6fbd f51a b03c 5d9f abbc 9b98 4fbd
000002c0: eedd d23c d43f 3f3d fe5a 1dbc 058d 7fbc
000002d0: d28f 79bd f2d5 92bd 4cf6 55bd 2e09 d8bb
000002e0: 7cd2 8d3b d1f2 083d 2917 5c3d 2c2c 08bd
000002f0: 39c0 24bd e0c0 94bd aa02 91bd aced c1bc
00000300: c5f1 6f3d 2831 4fbd 44ab 283c 8ac7 4cbc
00000310: 30eb 9b3c 2cdb 143d cc68 83bd 2166 e1bc
00000320: c58b 05bc 5558 d7bc f432 8c3c 9db2 a33c
00000330: c223 b8bc 59b5 50bd 20b2 a1bc 15f8 20bd
00000340: dcf8 6dbc d056 1ebd 03d2 573c bc71 633d
00000350: 0377 2a3d 2e71 2b3d a246 143d 68ef 18bd
00000360: 5a36 c3bb 61a4 19bc af4f b5bc 56a1 a93c
00000370: cd4c 973d 6355 9f3b 4776 93bc 7f33 6dbc
00000380: 8519 41bd cb73 a2bc c28e 5abd 36f4 33bc
00000390: 44ec aebc 3be6 65bc 4eab 483c 6cd0 aa3c
000003a0: fc7f 4abd 6318 2dbd e557 5ebb 5ca1 7c3c
000003b0: 424f 983b f61e e7ba 88d6 3cbc 8e11 b43c
000003c0: 68fa b9bd ee96 babd 8eae 70bd df69 a0b9
000003d0: 664b a33a 00b5 903c 481f fa3c 1164 fdbc
000003e0: 369f b73c e52b 413d 939b 463d 24c9 333c
000003f0: 7676 0e3d dfb0 153d 66eb 323d f19a 2e3a
0.016994158 0.034230493 -0.012628715 0.05915889 0.03979829 0.019088961 0.063750446 -0.016420813
0.027147695 0.07778342 0.004368994 0.0016499241 0.056534253 0.07684266 0.042387996 -0.02227081
0.044621017 0.0708012 0.011024433 0.01711361 -0.032575056 0.006505671 -0.015152403 -0.025565498
0.061621994 -0.025803829 0.0758181 0.02102966 -0.0044725942 0.0023762945 0.044356383 0.018313318
0.060429577 -0.034701977 0.008197854 -0.03295862 0.0054727504 -0.0025681932 0.008734036 0.005930012
0.05474056 0.08134018 -0.027864266 -0.042142343 -0.015881961 -0.021253709 -0.029198552 0.007822421
-0.00043135686 0.02874221 0.06107441 -0.006932488 0.043207496 0.0107689025 0.07699852 0.049626883
0.019358864 0.0034038688 0.052680057 0.06199108 0.06624412 -0.05922298 0.028198697 0.04312434
0.052570783 0.010707827 0.033074208 0.026176156 0.044721644 -0.009913024 -0.08163779 -0.003975494
0.0035810405 -0.035786673 -0.0333569 -0.03170415 0.04415613 -0.058983587 -0.023660086 -0.028919859
-0.022128904 -0.0109592145 -0.031744294 -0.024652185 0.011622404 -0.05487198 -0.049783073 0.018672831
0.016097425 0.042020116 0.0004677108 -0.01111231 -0.049536243 -0.010622739 -0.048313644 0.0022452394
-0.019531356 0.055269014 -0.046697367 -0.038256954 -0.010259112 0.03007724 0.030838123 0.021838823
-0.008369039 -0.05025819 -0.037522867 -0.0032457162 -0.024659315 0.0033828535 -0.0030253686 -0.04661962
0.05550737 0.059613094 0.061577365 -0.041803494 -0.042942718 0.0016540869 0.027319336 -0.028573278
0.045354318 -0.0017280539 0.025394754 0.062100653 0.03449112 -0.026172834 -0.03216856 0.01002683
-0.01724382 0.0067098183 0.0018205344 0.08582481 -0.004678964 0.02172332 -0.06349099 0.0026429622
0.012761057 0.023825634 0.073661044 0.045788784 0.0028434116 0.044455763 -0.01568114 -0.046139695
-0.018189318 0.04981766 -0.0259042 0.05047157 0.047485895 0.04081259 -0.03521347 -0.035160106
-0.11893431 0.06700305 -0.084821895 -0.09602709 -0.07593125 0.01237135 -0.030139925 -0.044783022
-0.09253056 -0.024430433 0.06456231 -0.027621469 0.00277279 -0.070044205 0.018849138 -0.024127627
-0.007898855 0.023650661 -0.014492276 -0.017362287 -0.058407914 0.02149723 -0.020950014 -0.050682645
0.02574059 0.04669173 -0.009604214 -0.0155975865 -0.060928173 -0.07169713 -0.05223684 -0.006592891
0.00432807 0.033434693 0.053733025 -0.03324525 -0.04022238 -0.072633505 -0.07080586 -0.023672901
0.05858018 -0.05058399 0.010294739 -0.012498746 0.019033045 0.03634183 -0.06416473 -0.02751452
-0.008150999 -0.026287237 0.01711414 0.01998263 -0.022477988 -0.050954197 -0.019738257 -0.03929909
-0.014524665 -0.03865701 0.013172629 0.055528387 0.041617405 0.041855983 0.036200173 -0.03733769
-0.005957407 -0.00937757 -0.022132723 0.020706814 0.073876955 0.004862474 -0.018000735 -0.01447761
-0.047143478 -0.019830605 -0.0533588 -0.010983517 -0.021352895 -0.014031942 0.0122478735 0.020851336
-0.04943846 -0.042259585 -0.00339269 0.01541933 0.00464812 -0.0017633128 -0.011525758 0.021981027
-0.09080964 -0.09110819 -0.05876022 -0.00030596458 0.0012458384 0.017664433 0.030532494 -0.030931504
0.022414785 0.047161 0.04848821 0.010973249 0.034780942 0.03654563 0.043681525 0.00066606613

conv1.conv2d.bias f4 [8]
00000000: 517c 9cbc 702f 2b3d fb5b a8bc d7e1 e4bc
00000010: 3bd4 883c 5a22 f6bc f76d 83bb c9b2 ea3c
-0.019102247 0.041793287 -0.020551672 -0.02793972 0.016702762 -0.030045677 -0.0040109116 0.028649705

in1.weight f4 [8]
00000000: 7990 813f fb7d 863f 0b57 803f 524d 773f
00000010: 7046 793f 262c 7f3f 5ed2 833f 5431 743f
1.0122215 1.0507196 1.0026563 0.96602356 0.97373104 0.9967674 1.0298574 0.9538777

in1.bias f4 [8]
00000000: 6374 773c 4d6c 74bd bffb 9abd f09f e43c
00000010: 9a02 bb3c 39dd a7bd 1e7b 6bbc bdc0 f83d
0.015103432 -0.059673596 -0.07567548 0.027908295 0.022828389 -0.08196492 -0.014372615 0.12146137

conv2.conv2d.weight f4 [16, 8, 3, 3]
00000000: d3cf 0b3e 3d2e a93d c6c9 46bc 4804 5cbc
00000010: 8203 67bc f5c5 613c e483 a93d fe25 cb3d
00000020: 2a35 40bd 3094 b0bc bbf4 f7bb dee3 eebd
00000030: 806b f7bd 8c6b 73bb 1698 a5bd 49d8 11bd
00000040: 12b6 a7bd 1f88 3d3d 208d aa3b 95d2 ddbd
00000050: cc01 9d3d 3a03 19bd 44cf f13d a084 ba3d
00000060: e9c2 543c 9e62 77bd 7022 e23d 36fd 173b
00000070: 56dd 2bbc 90dd bfbb 57e8 f6bb 0e7c 5b3b
00000080: 2abc 873d 027f b93b 68bb f2bb 612d f5bc
00000090: f6d7 94bc 4c32 c5bd 60ee 37bd 4179 ecbd
000000a0: 6771 d6bd b011 06bd c6b7 3e3d 67a7 213b
000000b0: 3065 9d3d 9f9d 613d 6495 e2bc 1d9c b0bd
000000c0: 9e1a 743d e863 37bc f560 213d bd8c 13bd
000000d0: 7c35 463c 0511 a9bd 8de6 7b3c 7f8c ca3d
000000e0: ca61 a3bc 47d2 27bd f942 adbd 8c58 f13d
000000f0: d883 d83d c340 c3bd 9cb7 903d c57a 70bd
00000100: 3aea f4bc 1837 693c 08d8 85bb ecc7 623c
00000110: 1312 76bd 8b60 4c3d 608c 64bd 9169 fe3c
00000120: 0508 433d b4ac b13c a8f2 21bd 233e 99bd
00000130: 0225 16bc 7df5 a63d bda8 083e b995 1a3e
00000140: 9c9d 27bd c199 4cbc e92a cebd a096 ff3c
00000150: ebea 9b3c 56d3 e6bd 3869 643d 1221 14bc
00000160: 33a0 bcbd 5b0d f4ba 364e d8bd 93be 81bc
00000170: f19a 94bc 645a aabd 02dc ebbd b596 f7bd
00000180: 0529 06be 4e31 753d 977e 8b3d 0d16 aabc
00000190: af4b 1ebd 33eb 82bc 104e 70bd 99d0 713c
000001a0: 1223 803d 8c95 04be 6e12 91bc a618 053c
000001b0: 427b c83d 24eb c13d cd3c f1bd 0c20 c5bc
000001c0: daeb 183c a623 ad3d ccbe 153e 514e c13d
000001d0: e634 d1bd 4f1d 053e 2533 b1bc 0c47 0fbd
000001e0: 6ad7 883b 779f 1b3e d72e 81bd 89e3 a33d
000001f0: 6a62 82bc 4af5 af3d 527b 8bbd 7ced 863d
00000200: 1803 6dbd ea8b 8f3d 5f93 8abd 3dd7 0f3c
00000210: fe45 8cbd 0e2d 033d db28 953d 0b3e 743b
00000220: b898 8d3d 233e 3b3d f495 aa3d 834f ed3c
00000230: 8f96 e73d ddf0 be3d 9a15 e4ba 7db5 19bd
00000240: 9e4c 84bd 6bc4 bcbc c3ab c23c a9d8 b3bd
00000250: 3ce2 ebbd 85ae b1bd df20 a73c ea0c 6d3d
00000260: ea80 c53d 21fb 6d3d d453 463c 660e 7fbd
00000270: c43c e93d 9b78 b2bd 5283 e63d b97a b53b
00000280: b0d2 053d a815 d3bd 3ae3 ac3c d04b 22bd
00000290: bd07 fd3d e81c d4bd 0360 4cbd 5695 163c
000002a0: 10dc ddbc d45b d83d ed19 a2bc 8bb8 75bd
000002b0: 810e fe3d 022e a53d 43a0 813d 30d6 a83d
000002c0: 1899 063d 7b2b 6a3b 69f5 463d 1015 f23c
000002d0: 8bdf d83d 502c e73d dd9a ce3d c327 c4bd
000002e0: 45b1 42bd 19ab b8bb 739c 8abd 8b37 a13b
000002f0: ace8 51bd cc9f 2fbc 9bf4 903d a5b7 a3bc
00000300: 4dd3 503d 2a81 a73c c298 0c3d d3ba 19be
00000310: 9bf7 94bd 2b19 043d d87f 2cbd c9c0 413d
00000320: 6307 2cbc 24b8 1b3d 43f0 ce3c 9607 d53d
00000330: 6bf4 8cbd 4b0c e13d 0876 093e a72e 8bbd
00000340: 3ce9 8d3d 4009 a7bc b09b c13a ec37 7e3d
00000350: a452 9bbd acad 0ebe fd9d 90bd 3f78 243c
00000360: 341d b0bd c8a5 3a3d 6c0a ba3a 114c 03bd
00000370: f786 2bbc 45cf fb3c 2b8b a0bc 7653 743d
00000380: 4809 93bd dc59 5abd 5ac7 f4bc 71a0 bc3d
00000390: f9c9 a5bd 3bbe 3fbd 612d b23d 12d7 efbd
000003a0: 5e1f 30bd 6daf 17bd d7e2 123d fe0a ad3d
000003b0: dd19 b9bd 67f2 3b3c 8f56 413d 033e 1fbd
000003c0: e145 e33d 3e4e 293d 6714 153e f530 b63c
000003d0: 9878 f3bd 72ed 4f3b af18 cb3c cd55 d83c
000003e0: d437 173c 196a 83bd 668e 2139 5f01 ed3d
000003f0: d322 abbd 733c d53d 1f47 a0bd ce85 afbd
0.13653497 0.082607724 -0.0121330675 -0.013428755 -0.014099957 0.013780107 0.08277109 0.09919356
-0.0469257 -0.021555036 -0.007567016 -0.11664556 -0.12081051 -0.003714296 -0.08085649 -0.035606656
-0.08189024 0.046272393 0.0052048117 -0.10831181 0.07666358 -0.037356593 0.11807111 0.091073275
0.012985923 -0.060396783 0.11041725 0.0023191697 -0.010489782 -0.0058552697 -0.0075350213 0.003349069
0.06627686 0.0056608925 -0.0074075945 -0.029928865 -0.018169384 -0.09628734 -0.044905066 -0.11546565
-0.104708485 -0.032731712 0.04656198 0.002466643 0.076853156 0.05508196 -0.027659126 -0.08623526
0.059595697 -0.011193253 0.039399106 -0.03602289 0.012097713 -0.08255199 0.015374792 0.09890079
-0.01994409 -0.04097202 -0.0846004 0.11784467 0.10572022 -0.09533837 0.07066271 -0.058710832
-0.029896844 0.014234327 -0.004084591 0.01384161 -0.06007583 0.049896758 -0.055797935 0.031056197
0.04761507 0.021688797 -0.039538056 -0.07482555 -0.009164097 0.08152292 0.13345619 0.15096177
-0.040921792 -0.01248783 -0.10066778 0.031199753 0.019032916 -0.11270778 0.055764407 -0.009041088
-0.09210243 -0.0018619703 -0.105617926 -0.015837943 -0.018140288 -0.08318022 -0.115165725 -0.12089292
-0.13101585 0.059861474 0.068112545 -0.020762468 -0.038646396 -0.015981292 -0.058668196 0.014759206
0.06256689 -0.12947673 -0.017708983 0.008123552 0.097891346 0.09468678 -0.11779175 -0.024063133
0.009333575 0.08454065 0.14623564 0.09438766 -0.10215168 0.12999462 -0.021630833 -0.034979865
0.00417607 0.1519755 -0.06307762 0.08002383 -0.015916068 0.08591707 -0.06810631 0.06588265
-0.05786428 0.07009108 -0.0676639 0.008779344 -0.068492875 0.03202539 0.07283183 0.0037268426
0.069138944 0.045713555 0.083293825 0.028968578 0.11308014 0.09323285 -0.0017401457 -0.037526596
-0.06459926 -0.023042878 0.023763543 -0.08781559 -0.1151776 -0.08675865 0.020401416 0.057873644
0.09643729 0.058100823 0.012104947 -0.06226959 0.11388543 -0.0871441 0.11255516 0.0055383113
0.03267163 -0.10306865 0.021104444 -0.03962308 0.123549916 -0.10357076 -0.04989625 0.009190878
-0.027082473 0.1056439 -0.019787753 -0.059990447 0.1240511 0.08065416 0.063293956 0.08243978
0.032860845 0.0035731483 0.048573885 0.029551059 0.105895124 0.11287749 0.100881316 -0.095778964
-0.04753234 -0.005635631 -0.067681216 0.0049199513 -0.051247284 -0.010719251 0.07077905 -0.01998503
0.050982762 0.020447332 0.03432537 -0.15012674 -0.072737895 0.032250565 -0.04211411 0.047302995
-0.010499808 0.038017407 0.02526105 0.104018375 -0.068825565 0.10988673 0.13423932 -0.067960076
0.069292516 -0.020390153 0.001477113 0.06206505 -0.07584122 -0.13933438 -0.07061384 0.0100384345
-0.0859932 0.045568258 0.001419378 -0.032054964 -0.01046919 0.030738482 -0.01959761 0.059649907
-0.07179505 -0.053308353 -0.029880214 0.09210289 -0.08095164 -0.046812277 0.087000616 -0.11710943
-0.042998664 -0.037032533 0.035860863 0.08449362 -0.09038136 0.011471367 0.04720169 -0.0388775
0.11097313 0.041334383 0.14558564 0.022240141 -0.11888236 0.0031727222 0.024792043 0.0264081
0.009229619 -0.06416721 0.00015407204 0.11572527 -0.083562516 0.104119204 -0.07826065 -0.08570443

conv2.conv2d.bias f4 [16]
00000000: df9d b33c 72bb b7bc c502 f1bc 631e fb3d
00000010: 4a6d 5fbd be4d 593d 37a2 de3c 338a 13bc
00000020: fd1f 873d 7e7b 8b3d c800 10bb e62d 11be
00000030: 9a06 0b3c 7658 37bd 820b f4bc 9179 9e3d
0.021925865 -0.022428248 -0.029420266 0.12261655 -0.054547586 0.053052656 0.02717696 -0.009005117
0.06597898 0.06810664 -0.0021973122 -0.14177665 0.008485461 -0.044762097 -0.029790644 0.07738031

in2.weight f4 [16]
00000000: 4082 803f abfe 7a3f 663b 833f 9bf2 843f
00000010: 439e 853f 1cce 7e3f 02e5 7e3f 2a09 793f
00000020: 63be 7b3f 4533 7d3f 547d 763f bdf3 7c3f
00000030: aba1 803f 7000 833f 83eb 803f e106 793f
1.0039749 0.9804484 1.0252502 1.0386537 1.0438923 0.9953325 0.9956819 0.9727961
0.9833738 0.98906356 0.96284986 0.98809415 1.0049337 1.0234509 1.0071872 0.9727612

in2.bias f4 [16]
00000000: 781d 23bc 936b 2c3c cfb4 9dbc 17b9 28ba
00000010: 376e 6a3c 7265 d93c 8a21 febb 0310 813d
00000020: 5d8c 2ebd f1fe 7abb 30e7 2f3d 33ba 7b3b
00000030: 2c70 3d3c d2d5 323d 1034 113d 9b16 173d
-0.009955756 0.010523695 -0.019251255 -0.0006436272 0.014308504 0.02653763 -0.007755463 0.06301882
-0.04261433 -0.003829893 0.042945087 0.0038410544 0.011562388 0.043660946 0.03545004 0.036886793

conv3.conv2d.weight f4 [32, 16, 3, 3]
00000000: b3e8 083d ba09 123b 762d ca3d 7197 a63d
00000010: d224 893d a04b 763d 2ab8 a9bc dd63 a13d
00000020: efca 6a3d c9e4 f43c 0bfe 403d f4ef 36bd
00000030: c009 82bd a3da 99bb cf4e 85bd 9b30 6c3d
00000040: aeb0 5e3c 87f8 21bc 70e6 a43d 0a87 8d3d
00000050: 8cde a63d f88a d1bc e7ba 683d 652e 803d
00000060: 408f 023c 133d 533d 5207 263d e3b5 e6bd
00000070: b108 3b3d eb4d 883d bd4f b9bb 58dc 7cbd
00000080: 86a9 e63d 4a06 55bd 9494 0f3d d4d0 533d
00000090: 174d 483d c810 f93c 12d1 c0bd dcff 06bd
000000a0: 6615 0cbc bb9f 103d f40e af3d 996a cbbd
000000b0: ab6a 94bd 43cb 21bd f085 59bd 0f50 93bd
000000c0: e87b c23d b4cf a53d 6171 783d 9dcb 5a3c
000000d0: 667c 7fbc 7bc8 65bd aa89 d5bc 101e 70bc
000000e0: 53c8 b53d 9e86 c13c 7631 2ebc 7386 603d
000000f0: 874c 7dbc 6d78 983d 5536 043c 88f9 033b
00000100: fa5d 13bd 80f5 4bbc 4e80 e0ba ef54 a1bd
00000110: d238 7abc ddfd 873c 0fbd a4bd 984b ad3c
00000120: ed79 a6bc 098a b0bc 073d 9dbd dce1 203d
00000130: 5ed8 fabc 2811 313d 1ab0 9ebc e854 68bd
00000140: d879 f9bb aba6 00bd 3cd9 cab9 50dd 47bd
00000150: a8ae 233d 7f42 04bd 65aa 5cbd d4cc dd3c
00000160: 2d69 04bd b704 933c ebb7 2e3d 1cd7 823d
00000170: 2d75 8e3c 405f 6dbd 6778 c3bc d60d 0ebc
00000180: c0be d13b 101a 5c3d eb5d c53c 070d 62bc
00000190: 4d6b 9fbc f8e8 ccbd 7e49 a73d b728 5e3c
000001a0: e08d c0bc c9d5 c2bd 553e a7bd 4ce3 843d
000001b0: 7cfc adbd 3854 88bc e31c aebd a427 98bd
000001c0: 60a5 22bc 0554 23bd 0e92 d8bd 5c40 42bd
000001d0: f22a b3bc d8a1 95bd 557f 943d 2ab3 513d
000001e0: 9255 07bd 09aa 04bd 27be 39bd dd99 8a3d
000001f0: 50c8 ba3c 785e 68bb ecca 7dbc 1ac8 5a3d
00000200: 44f5 5b3c 73a4 453d ebdf e33b 677a 7dbc
00000210: 2b50 97bd 88de 1dbb c78b c03c beee e8bc
00000220: 33d8 943d 62bf 8d3d a506 9cbd 12b1 11bd
00000230: 1080 ed3b c232 b8bd ec7b 67bd 9b98 053d
00000240: 188c 86bd 09e9 ddbd 6412 8fbd b1f4 053d
00000250: 1d51 a13c fbca bc3d de74 73bd 5780 34bd
00000260: 1175 323c 1fa7 5f3d 13d5 953c 7342 a03d
00000270: ed70 d9bb 97d8 c93b fac4 07bb 77c4 60bd
00000280: 0c24 67bd d6ce ad3b 37dc 0e3d fa10 893d
00000290: 6b10 8a3c d12e eaba c352 083d 7af7 843d
000002a0: 4741 01bd 3c7b 823d 12dc d1bd 55b2 b4bd
000002b0: 934d 32bd 91b6 83bd 94ab 2cbc b12e 7fbd
000002c0: eaf7 71bd 2b54 afbd 4c8c b3bd a289 c438
000002d0: a7a6 8abc 3f64 68bd f8cc b5bc 538e 5d3d
000002e0: 1ad8 6ebd e599 b9bd 087e 50bc 2883 5a3c
000002f0: 2794 97bd f5c4 a3bd 5af2 02bd 5b8d 7b3c
00000300: 1086 94bc 3094 cb3c 6f9e 003d a10a 0fbd
00000310: 07f9 bc3c 514c 933a 94cd 5c3d 40c2 923d
00000320: a92b 743d 2e0a b6bc 2b3a 6bbd 3be4 c0bc
00000330: b654 073d 62bc d5bd d5b8 92bd 426a 2bbb
00000340: 93b4 b73d 9bb8 25bd da47 553c 36d2 e43d
00000350: 0390 fe3b 9f00 893d 84ff a53c 26dc 243c
00000360: ba37 c33d cdc9 263d 8f5f b83c e3e8 72bc
00000370: 0170 bd3d 5937 9f3d 7c26 b6bd 0bb8 82bd
00000380: 9ec6 dcbc 5068 c9bc b60e 8dbd 1a57 41bd
00000390: 18be 41bd e786 a73d 0c5c efbc 1ee8 2e3b
000003a0: dfe0 80bd 59de 19bd 16c7 c6bd 411d 41bd
000003b0: ca40 1ebc 3f9d 81bd 64eb b3bd 58aa 9b3d
000003c0: c22b 2fbd 0258 ac3d 94a1 d3bc 1c44 6a3d
000003d0: 1c4b d13c 678c 81bd ac6f acbb 10ae 76bd
000003e0: d8f4 dabd d7b5 4a3c 48c1 103d a561 813c
000003f0: a418 513c df9c d73b dc6f 94bc 8350 4cbb
0.033425044 0.002228363 0.09871952 0.08134354 0.06696476 0.060130715 -0.0207177 0.078803755
0.05732244 0.02989425 0.047117274 -0.04466243 -0.06349516 -0.004695253 -0.06509172 0.05766354
0.013591928 -0.009885914 0.08051765 0.06910522 0.08147916 -0.02557896 0.05681887 0.06258849
0.007968724 0.051571917 0.040534325 -0.11265161 0.045662586 0.06655487 -0.0056552575 -0.061733574
0.11262803 -0.05200795 0.035053805 0.051712826 0.048901644 0.03040351 -0.09414877 -0.03295885
-0.008550024 0.03530858 0.08547774 -0.09932441 -0.07246908 -0.039500486 -0.05310625 -0.07193004
0.094962895 0.08096257 0.060655 0.013354209 -0.015593624 -0.056099396 -0.02606662 -0.014655605
0.088760994 0.02362376 -0.01063191 0.05481572 -0.01546014 0.074448444 0.008069594 0.0020137746
-0.035978295 -0.0124486685 -0.0017128082 -0.07877528 -0.015272336 0.016600544 -0.080438726 0.02115421
-0.02032181 -0.021550195 -0.07677656 0.039277896 -0.03062075 0.043229252 -0.019371081 -0.056721598
-0.007613402 -0.031408947 -0.00038690295 -0.048795044 0.039961487 -0.032289978 -0.05387344 0.027075209
-0.032326866 0.017946584 0.042655867 0.06388685 0.017389858 -0.057952166 -0.023861123 -0.008670291
0.006400913 0.053735793 0.024092635 -0.013797051 -0.019460345 -0.10005373 0.081683144 0.013559512
-0.023505151 -0.095134325 -0.08166186 0.06488666 -0.08495423 -0.016641721 -0.085016035 -0.07429436
-0.009927124 -0.03987505 -0.10574733 -0.04742466 -0.021871064 -0.0730626 0.07250849 0.051196255
-0.03304059 -0.03238872 -0.04534736 0.06767628 0.022800595 -0.0035456698 -0.015490275 0.053413488
0.013425175 0.048252534 0.0069541833 -0.0154710775 -0.07388338 -0.0024088938 0.023504151 -0.028434154
0.07267799 0.06921269 -0.07618455 -0.035569258 0.0072479323 -0.08994056 -0.056514665 0.03261624
-0.065696895 -0.108354636 -0.069859296 0.03270406 0.019691998 0.09218403 -0.059437625 -0.044067707
0.010892169 0.05460274 0.018290078 0.07825174 -0.0066357763 0.0061598527 -0.0020716772 -0.054874863
-0.05643086 0.005304198 0.034877982 0.06692691 0.016853532 -0.0017866736 0.033282053 0.06492515
-0.031556394 0.06371161 -0.10247053 -0.08823077 -0.04353101 -0.06431306 -0.010538954 -0.062300388
-0.05907432 -0.08560976 -0.08766994 9.3716444e-05 -0.01692517 -0.056736227 -0.022192463 0.05409081
-0.05831156 -0.09062556 -0.012725361 0.013336934 -0.07401305 -0.07996551 -0.031969406 0.015353526
-0.018130332 0.024850935 0.031401094 -0.034922246 0.023067964 0.0011237954 0.053906992 0.071659565
0.05961195 -0.02222165 -0.05742852 -0.023546329 0.03303977 -0.10436322 -0.0716416 -0.0026155864
0.08969989 -0.040459257 0.013017619 0.11172907 0.0077686324 0.066895716 0.02026344 0.010062253
0.095321134 0.040719796 0.022506503 -0.014826032 0.09249879 0.077742286 -0.08894059 -0.0638276
-0.026950177 -0.024585873 -0.068875715 -0.047202207 -0.04730043 0.081800275 -0.029218696 0.0026688646
-0.06292891 -0.037565563 -0.097059414 -0.04714704 -0.009659002 -0.063288204 -0.087851316 0.0760085
-0.04276634 0.08415224 -0.025833882 0.05719386 0.02554851 -0.06325608 -0.0052623358 -0.060224593
-0.106912315 0.012372456 0.035340577 0.01579363 0.012762222 0.00657998 -0.018119745 -0.0031175918

conv3.conv2d.bias f4 [32]
00000000: 67ac 29bd 79dd e73a 2d3d 9c3d f805 f33c
00000010: a35f 57bd 8436 78bd 0ba6 a7bb e77f 8dbb
00000020: 5f45 ea3d 4748 81bd 61f1 543d 9082 e63d
00000030: 6e56 86bc dc1a b13c 59c1 0b3d f5ee 9e3c
00000040: 6fae 573b 4b4d 0e3c 4ae6 56bd 05e8 383d
00000050: f1ce 0d3d 5049 c8bc 79a3 76bd 07ac ad3d
00000060: 444a 61bd 9fb5 123d e3ea eb3b b246 733d
00000070: c810 47bd 3f89 1c3b f51b e23c 19da 003d
-0.04142418 0.0017689905 0.07628856 0.029665932 -0.05258144 -0.060598865 -0.0051162294 -0.0043182257
0.11439013 -0.06312614 0.05198801 0.112553716 -0.016398635 0.021619253 0.034119938 0.019401053
0.0032910367 0.00868542 -0.052465715 0.045143146 0.034621183 -0.02444902 -0.060214493 0.08480077
-0.055002466 0.03581774 0.0071996315 0.059393592 -0.04859999 0.0023885516 0.027601222 0.031457994

in3.weight f4 [32]
00000000: f4c4 743f 32dd 7a3f f01c 873f 00db 6f3f
00000010: 2b4c 7e3f 8d0f 773f 608d 753f 177e 7f3f
00000020: 85ca 7c3f e12e 7b3f 2e4d 6f3f 79ec 753f
00000030: a3ae 733f 678d 7f3f ed74 673f eff8 743f
00000040: fa6b 803f 3b47 733f 9b86 823f 97a9 733f
00000050: efed 743f 01a6 773f 2711 843f f994 813f
00000060: fa2f 803f 7840 743f 311f 7e3f 3261 713f
00000070: e9a4 773f bfd5 813f cf01 7c3f 86cc 823f
0.95613027 0.9799377 1.0555706 0.9369354 0.99334973 0.96508104 0.95918846 0.9980177
0.9874652 0.98118407 0.9347714 0.96063954 0.9518835 0.9982514 0.9041279 0.9569234
1.0032952 0.95030564 1.0197328 0.9518065 0.9567556 0.96737677 1.0317734 1.0123588
1.0014641 0.9541087 0.99266344 0.94288933 0.9673601 1.0143355 0.9844026 1.0218666

in3.bias f4 [32]
00000000: 3b6a 113d 54e2 acbc bee6 583d 05cb 40bd
00000010: 6d7f 7bbd a3f2 15bd b822 d5bb 988e ec3b
00000020: 7525 f139 d93d 363c ad7b 37bd dd55 3dbd
00000030: f962 fcbc bae3 e9bd 5cca b9bd 4344 d03a
00000040: 0b6f 68bd d7b6 bb3d da86 fc3c 070c 2dbc
00000050: 5861 32bd 045d 05bd 2664 b73c 7d3c 3fbb
00000060: c5ad 53bd 8669 52bd 76fc 3cbd 50a8 a4bc
00000070: e220 75bd e935 a53c 6516 28bd 44dc 2ebd
0.0355017 -0.021104015 0.052954428 -0.047068615 -0.06140082 -0.03660835 -0.006504383 0.007219147
0.0004599501 0.011123144 -0.04479568 -0.046224464 -0.030808913 -0.114203885 -0.090718 0.0015889484
-0.056746524 0.09165733 0.030826021 -0.01056195 -0.043549865 -0.03255941 0.022386622 -0.002918034
-0.05167939 -0.051370166 -0.046139203 -0.020099789 -0.059845813 0.020167308 -0.041036982 -0.04269053

res_blocks.0.conv1.conv2d.weight f4 [32, 32, 3, 3]
00000000: ed6b 68bd c146 1bbd 1f5d 633c abbb 8abd
00000010: f508 2ebd 4510 0dbd a657 8fbd 6759 65bd
00000020: 5923 b1bc e446 093d 838e 5a3c a30c 72bd
00000030: 5dca 223c 7d6c d43b ac92 94bd 5b2e de3b
00000040: 56eb 863c e12f aebc 249d a9bc 9a65 223c
00000050: b165 893c 929d 34bd 50cf c73c fd88 92bd
00000060: 977f 843c 5134 563d 5cfd 413d 77d8 153d
00000070: d54a 093c f869 343b e304 82b7 b2f1 acbc
00000080: ecd8 843d 67dd c63c 1ba1 4b3d aa77 4cbd
00000090: 4e10 7d3d 0c4b 433d bbe8 7e3d d6c6 1b3d
000000a0: 9de1 03bd 2ffc 1abd 0091 343c e83b c83c
000000b0: 257a 7bbd 2414 543d 8f1a b3bd aae9 aabd
000000c0: 002d 623d 6b12 d73b bff3 b3bc 882b 2e3c
000000d0: 5438 5bbd fc4f 1b3c 624c 0dbc c60b 39bd
000000e0: 6e00 8fbd 9f99 20bd 85e5 a13c c81b 323d
000000f0: c2ba 48bd 0869 12bd d8fd 133d d75f 793c
00000100: 1901 1d3b 0423 df3c 77e2 17bb a178 bfbc
00000110: 08b4 803b 8ad9 22bd 13dc d3bc cca0 8e3c
00000120: 2f80 f5bc 7fba 68bc 1454 98bc 8de8 5b3d
00000130: b64f 38bd 5605 92bc c139 a7bc 6077 433d
00000140: f50a 923d f670 3a3c fd49 383d 1051 0cbd
00000150: 9de4 1ebd 63f5 46bd d64c 543d 487b 9cbb
00000160: dd18 10bd 2df6 b63c b293 82bd 8099 55bd
00000170: 432c b1bc 3318 a0bc f99a 393d 2f91 f23c
00000180: 6bf6 973b 6843 e73a c6a8 86bc 9df1 edbb
00000190: 0fa7 85bd 0035 733d e884 183d adfe 8c3c
000001a0: 1e91 b43c ef1d d13c c15d e03c c335 fb3b
000001b0: f1f7 083d 36b1 20bd 8581 4f3d 899e c63c
000001c0: b295 ffbc ebb3 113d 90e9 373b 2286 073d
000001d0: 7a74 40bd 2c42 5f3c 177d 913c 580a 443d
000001e0: 7d14 3cbd 1978 30bc f4fe 7fbd d333 94bd
000001f0: bdc4 813d 1b51 1f3c f973 15bc 2507 f4bc
00000200: 31ab 943c 185c bf3c 2bd1 653c d0f9 1a3c
00000210: 9536 ae3c 734e f93c 1a63 e13c ac83 af3b
00000220: 3508 843d 0d7a 1e3d d0e6 07bd b1b3 b33b
00000230: dc66 da3c 0209 a53d f3a5 1f3b 8a04 30bc
00000240: f741 69bd c93d a4bd 9187 13bd b55f b93b
00000250: c0f8 023d f22c 0f3d 7187 bd3c 1eab 5cbd
00000260: f3d9 7f3c a478 063d 4b7e aebc 664d 833d
00000270: 6b20 cd3c 5da9 60bd d0c9 6c3d ddc5 08bd
00000280: d5ca 88bd 12c5 1cbd c74c 29bc ca39 4d3b
00000290: a55e 5cbb 7a0f d13d e974 0a3d d521 90bd
000002a0: c4d8 eebc 452e 18bd f1ab 89bd c3e7 e5bb
000002b0: 6bc4 c83c 4a88 6cbd e759 303c 44a5 cfbc
000002c0: 2e68 5abd 5085 52bd b7a9 b43d f993 b6bc
000002d0: f1f0 64bd 7517 173d bc5f 75bd ca4c f13b
000002e0: 6b7f 5dbc aac5 4ebd aca5 483c 3f3a 11bd
000002f0: 3184 423d fe28 843b 9973 8f3d 80db a73c
00000300: 6a52 2dbd 9353 11bd 52b0 3a3d 7966 ca3c
00000310: 0e61 fabc 13cb 803d 6f3a bbbd ec92 ecbc
00000320: 5ef6 83bc 8dc9 bdbc d20f 253d 29d7 12bc
00000330: e9f7 c3bb 1e1c dabc 994b f73c caf8 29bd
00000340: 517a 7a3c b867 1f3c 0793 863c 3fce 953c
00000350: c9ec 813d ed43 12bd 7b62 dab9 755b c8bc
00000360: 50f4 67bd 63a0 d7bd a767 8cbc 5413 1cbc
00000370: 5fd1 c13c 402a 34bd 7631 65bc 7cb5 a8bd
00000380: 711d bebd 156f cf3c 99ad d2ba 1f49 5fbc
00000390: d0f0 9fbc 4858 8cbd 140a a5bc 48c4 1a3b
000003a0: 34c4 1abd dcf2 9cbc 0d4a b53d 4f80 b0bc
000003b0: bfd8 b9bd 6b0b 89b9 db6e 2c3d 799a fa3c
000003c0: 549c edba 62dd 5e3c b214 6d3d e43d 2b3c
000003d0: 7dd7 b03c 838d 8bbd f2ab 04bd 1275 aabc
000003e0: a7fc b33b 573d 723d 1836 01bb c0d1 c5bc
000003f0: b82a 87bd 76bb 1fbd 90f6 30bd c501 0cbd
-0.05674355 -0.037909273 0.013877182 -0.06774076 -0.04248901 -0.034439344 -0.069991395 -0.055993464
-0.0216233 0.033514872 0.0133396415 -0.059094083 0.0099359425 0.0064826594 -0.07254538 0.0067804283
0.016469639 -0.021263065 -0.020704813 0.009911919 0.016772123 -0.044095583 0.024390846 -0.07155035
0.01617412 0.052295987 0.047360763 0.03658339 0.008379658 0.0027528983 -1.5499483e-05 -0.021111343
0.06486687 0.024275495 0.04971419 -0.049918808 0.061783127 0.047678992 0.062233668 0.03803142
-0.032197583 -0.037838157 0.011020899 0.024442628 -0.061395783 0.05177702 -0.087453 -0.08345349
0.055218697 0.006563475 -0.021966813 0.010630496 -0.053520516 0.009479519 -0.008624168 -0.045177244
-0.06982504 -0.039209004 0.019762764 0.043483526 -0.04900623 -0.035744697 0.036130756 0.015220604
0.0023956953 0.027238376 -0.0023175755 -0.02337295 0.0039277114 -0.039758243 -0.025861776 0.017410658
-0.02996835 -0.01420462 -0.01859478 0.053688575 -0.044997893 -0.01782481 -0.020413281 0.047721267
0.07130996 0.011379471 0.044992436 -0.034256995 -0.03879224 -0.048573863 0.05183109 -0.0047754385
-0.03517996 0.022334183 -0.06375827 -0.052148342 -0.021627551 -0.01954279 0.04531381 0.029610245
0.0046375296 0.001764399 -0.0164379 -0.0072614686 -0.065260045 0.059376717 0.037236124 0.017211283
0.022041854 0.025526969 0.027388455 0.007666321 0.03343958 -0.0392315 0.05066063 0.024245517
-0.03119931 0.035571974 0.0028062798 0.033086903 -0.04698608 0.013626616 0.017759843 0.047861427
-0.045917977 -0.010770821 -0.062499 -0.07236447 0.06336353 0.009723927 -0.009121888 -0.029788563
0.018148037 0.023359343 0.01402692 0.009458974 0.021266261 0.030432915 0.027513076 0.0053562727
0.06446878 0.038690615 -0.033179104 0.0054840674 0.026660375 0.08058359 0.0024360388 -0.01074327
-0.056947675 -0.08019597 -0.036017958 0.005657161 0.031975508 0.034954973 0.023135873 -0.053874128
0.015615928 0.032829896 -0.021300456 0.06411247 0.025039872 -0.054849017 0.05780965 -0.033391822
-0.06679312 -0.03827388 -0.010333247 0.0031314963 -0.0033625748 0.1020803 0.0338029 -0.07037703
-0.029156096 -0.0371535 -0.06722248 -0.0070161535 0.024507722 -0.057747163 0.010763622 -0.02534736
-0.05332201 -0.051396668 0.08821433 -0.022287356 -0.055893842 0.036887605 -0.059905753 0.0073638903
-0.013519148 -0.050481476 0.0122465305 -0.03545594 0.04748935 0.004033207 0.070044704 0.020490408
-0.042314924 -0.035480093 0.04557831 0.024707066 -0.030563857 0.06288733 -0.09142005 -0.028878652
-0.016108688 -0.023167396 0.04029829 -0.008962431 -0.005980481 -0.026624735 0.030187415 -0.04149703
0.015287952 0.009729318 0.01642753 0.018286822 0.06343991 -0.03570931 -0.00041653574 -0.024457673
-0.05662948 -0.10528638 -0.017139269 -0.009526093 0.023659406 -0.043985605 -0.013988843 -0.082377404
-0.09282959 0.025321523 -0.0016073465 -0.013628273 -0.019524008 -0.06852776 -0.020146407 0.0023615528
-0.03778477 -0.019158773 0.08852015 -0.021545557 -0.09074544 -0.00026139183 0.042097908 0.030591236
-0.0018128254 0.013602586 0.057881065 0.010451768 0.021587128 -0.068141006 -0.032390542 -0.020807777
0.005492765 0.05914053 -0.001971608 -0.024147868 -0.06599945 -0.038997136 -0.04320389 -0.034181375

res_blocks.0.conv1.conv2d.bias f4 [32]
00000000: d582 80bd 3b5a 39bd ab1d 513d f45d a33c
00000010: 2eee 003d a58e 2fbd 310b 993c 8d0d bf3b
00000020: 9897 26bd 5cc1 4abd 581f a73d 238d acbd
00000030: c8fe de3c 81b8 efbc 6818 563d 34e1 e03c
00000040: 30d9 833b 9391 053c 58f8 993d ef44 453c
00000050: ac1f dd3a 7ed1 073d bdf9 37bc 7e8f f53c
00000060: a16e 8a3d 1154 5dbd 863a e1bc 7ab6 55ba
00000070: e9f9 18bd 6bb8 203c 0406 c6bc a44d 833d
-0.06274954 -0.045252066 0.051053684 0.019942261 0.031477146 -0.042860646 0.018682094 0.005830473
-0.040671915 -0.049500808 0.08160275 -0.08425357 0.027221099 -0.029262783 0.05226937 0.027451135
0.0040236935 0.008152383 0.07518071 0.012040361 0.0016870401 0.03315877 -0.011228976 0.029975649
0.06759382 -0.05403525 -0.027493726 -0.00081524963 -0.037347708 0.009809594 -0.02417279 0.06411293

res_blocks.0.in1.weight f4 [32]
00000000: a9c6 843f 5980 7d3f c9b0 7d3f 4d83 823f
00000010: 10ea 7c3f 6afb 873f 4fa2 843f 219b 783f
00000020: 5c11 793f fb9a 853f 1680 813f 3661 783f
00000030: ecf3 803f 45af 813f c2ce 803f 3095 7a3f
00000040: ceec 843f a454 813f 9620 803f 3a15 823f
00000050: 588d 803f d48c 7f3f f884 803f 1b49 7f3f
00000060: ad78 7c3f 9fea 803f 8246 833f 5cae 753f
00000070: c056 7f3f 2e65 813f ab10 823f aafb 7d3f
1.0373126 0.9902397 0.9909788 1.019632 0.9879465 1.06236 1.0362033 0.9711171
0.97292113 1.0437921 1.0117214 0.9702333 1.0074439 1.0131613 1.0063097 0.9788389
1.0384767 1.0103955 1.0009944 1.0162728 1.0043135 0.9982426 1.0040579 0.99720925
0.98621637 1.0071601 1.0255892 0.95969176 0.99741745 1.0109003 1.0161337 0.99212134

res_blocks.0.in1.bias f4 [32]
00000000: 2deb 32bd fe9c e4bc 9fee 83bd 7765 343c
00000010: 1b0e bdbc 4c5f a4b9 6e4a 2e3d d0f5 33bd
00000020: ae53 abbd 6105 83bc c427 1a3c 7778 503d
00000030: 3ee7 ccbc c904 11bd f27d 873c e57b bb3c
00000040: c22a a73b 820e edbc 0f5d 14bd 7ca3 13bd
00000050: 61d8 9abd 87a4 e7bb d6ca 19bd ce6e a93b
00000060: a227 253b e09a c8ba 7c4c 03bd 8737 2dbd
00000070: 7a10 04bd 7315 91bd 2146 8abc bf8c d6bc
-0.043681312 -0.027906891 -0.06441998 0.011010519 -0.023078015 -0.0003135152 0.04255145 -0.043935597
-0.0836557 -0.015993776 0.009408895 0.050896134 -0.025012609 -0.035404954 0.016539548 0.022886226
0.0051015327 -0.028937582 -0.03622156 -0.036044583 -0.07560802 -0.0070691737 -0.037546955 0.0051706797
0.0025200625 -0.0015304945 -0.032055363 -0.042289283 -0.032242276 -0.07084169 -0.016879143 -0.02619016

res_blocks.0.conv2.conv2d.weight f4 [32, 32, 3, 3]
00000000: c549 2dbc 4de7 9d3c aae7 3d3b bd63 bc39
00000010: dd4c 8f3c a1eb dfbc 0222 ad3c 9320 b03d
00000020: e971 08bd b294 163b cf8c 36bc 8255 923c
00000030: abe9 83bc a7f6 7cbc ce6e 2fbc 8349 76bc
00000040: df98 273b e1b6 433d 2745 87bc 8cff 293b
00000050: 9954 cabc eb4b a8bc b686 823c 7712 143d
00000060: 9d55 77bd f603 c03c 5221 bc3c 0d17 b3bc
00000070: d17d 95bc 10e8 a93d 3d05 183d a4af b5b9
00000080: 15d7 59bd 7fbf c1bc a0f9 dfbc 3c3c 55bc
00000090: 15b3 65bd c7b9 ddbc 5594 0a3d 08b7 22bd
000000a0: d8d8 ecbc 18c5 0d3d 90d1 9e3d 6c68 443b
000000b0: 4bae 0e3d 4272 c13c cd16 b8bc 78fa f5bb
000000c0: 5547 1b3d 08e2 fabb dfc1 ccbd 38f6 983c
000000d0: e082 45bd b625 61bd 1c9a 8e3c 66bb 16bd
000000e0: fb5a 10bd 947e a63a 268f 213d b4a8 1ebd
000000f0: fc2d a43c 21b3 973c 5b61 5cbd a80c 153d
00000100: c145 583b cb02 6ebd 9b8e a2bc 971e afbc
00000110: 42d6 bfbd cd75 ebbc c793 083c 797c 90bc
00000120: 4084 ec3c 6676 233b 9a23 45bd d263 bf3b
00000130: 02be 483d 7b1a 0dbd b79f 8ebd 74fe 3a3c
00000140: d2f8 0ebd ab93 313d 841f 4bbc 545e ebbc
00000150: 5298 80bd 90cc 053d fdeb ee3b ee93 dbbb
00000160: a385 473d 48fd c4ba 91be 5a3d 1308 5c3d
00000170: 3d87 8e3d 6631 38bd 2c50 c83c 5f13 51bc
00000180: 6574 a43d a00e 663d 967f 84bd 466c 4dbd
00000190: 3f36 063c ca75 97bd e56f 60bd 5a04 c63c
000001a0: fe11 c83c 9010 99bd fff3 ed3b 22f0 76bd
000001b0: e1c1 9dbc 42cc e6bc 9ddc 843c 24c5 22bd
000001c0: c39a 293d a1f5 523c 6fc5 8bbc 2517 973d
000001d0: 20ed be3d 916c 24bd 4026 5bbd 048b 283d
000001e0: 2613 673d c05f 163c 9950 a5bc b0fa 23bd
000001f0: f605 9a3d c338 273c 263c 0a3d 00ac 3a3d
00000200: e11f d0bd 40c4 5c3d c2a2 3d3b eb15 61bc
00000210: 4a65 30bd 9ccb 063d cb14 173c 7283 1d3d
00000220: b750 59bc 979d 63bd d152 a83b 79b4 1cbd
00000230: aaa6 49bd d672 76bb fed8 4fbb d25f 30bc
00000240: e351 a03c f66a 28bd b40a 653c 4b96 2bbd
00000250: 575d 25bd 0dc9 a3bd 71a1 ce3d 9c72 4b3d
00000260: a032 433d a651 d9bc 04a1 8abc 0107 26bd
00000270: ef74 07bd 7e9e cfbd b561 ce3b f043 08bd
00000280: 3487 663c 5226 563d 00cc 0bbc 1c66 15bd
00000290: a4bc 3a3d d990 12bd 4f29 f63b bd44 20bd
000002a0: b077 a8bd 3ff6 32bd 1d7d 4a3b d23a bb3c
000002b0: 43ed b0ba 8bfb b13c 6d8b a1bc 3c6e f53c
000002c0: ed33 35bd 0384 0c3c 341f 393d 478a a3bb
000002d0: 92f1 febc 3fc1 b53c 9b91 933c ae76 e03c
000002e0: 7c4f 83bd e6c0 e9bc 10f9 5cbd aff5 033d
000002f0: fd11 28bd a93d a8bc 07ea 553d fad7 d1bc
00000300: 03d9 b03c 1bfb 50bb 9ddf 053d 4917 893c
00000310: 6995 603d 2c54 9bbc 91dc cc3c 37c9 aebb
00000320: a8ac 3ebd 6b5a 33bd 275a 14bd 3488 203d
00000330: 41d8 ad3c 804a 0fbd ea7b 9dbc 1152 59bc
00000340: a197 3a3d e61a 26bd 448e dabb ed50 a4bc
00000350: e25e a63c fa1b af3c 057c 7c3c e5ba fc3c
00000360: 2216 b53c dd77 0a3d 41a5 503b 51df dbbc
00000370: c861 483c 3f38 5d3d c7da 043d 6780 16bd
00000380: 8cf8 f2bc 7fcb 96bd 8060 f5bb 94f3 bb3c
00000390: 30c7 533d 48c4 afbd 7463 46bd def7 9dbc
000003a0: 27f3 943c 0a4e 52bd d00a 603d fc36 0fbc
000003b0: e2d8 853d 05a6 a03c e48d 78bc d5b7 293d
000003c0: 58c7 d63c b3f3 b03c 9527 f53d d1fb 97bd
000003d0: 149d 27bd c5de 09bd 52ea af3c a8fb b23a
000003e0: 667f 82bc ad9d b13c 2497 7bbc 77ac 6b3c
000003f0: 2ef3 f6bd da23 bfbb 6537 913c f62e 11bc
-0.01057667 0.019275332 0.0028977194 0.00035932465 0.017492706 -0.027334036 0.02113438 0.08599963
-0.03331176 0.0022976813 -0.01114197 0.017863039 -0.016102633 -0.015439666 -0.01070757 -0.015032175
0.0025573296 0.04778183 -0.016512467 0.0025939671 -0.024698542 -0.020544013 0.015933376 0.036150422
-0.06038438 0.023439389 0.022965107 -0.021861577 -0.01824847 0.082962155 0.03711437 -0.00034653873
-0.053183634 -0.023650883 -0.02734071 -0.013014849 -0.05607899 -0.027066125 0.033832867 -0.039725333
-0.028911993 0.03461179 0.077548146 0.0029969467 0.034834187 0.023614053 -0.02247181 -0.007506665
0.037909824 -0.0076563396 -0.099979155 0.018672094 -0.048220515 -0.054967605 0.01740747 -0.03679981
-0.035243016 0.0012702518 0.039443158 -0.038735107 0.020041458 0.018518033 -0.053803783 0.036389023
0.003300056 -0.058108132 -0.01984339 -0.021376891 -0.09367038 -0.028742695 0.008336014 -0.017637478
0.028871655 0.0024942397 -0.048129655 0.005840757 0.04900933 -0.034449082 -0.06964057 0.011413205
-0.034905262 0.043353718 -0.012397651 -0.028731503 -0.06279053 0.03266579 0.0072913156 -0.006700984
0.04871143 -0.0015029097 0.053404395 0.053718638 0.069593884 -0.044968985 0.024452291 -0.012760966
0.08030013 0.05616629 -0.064696476 -0.050152086 0.008191644 -0.07395513 -0.05479421 0.024171997
0.024422642 -0.07473862 0.0072617526 -0.060287602 -0.019257488 -0.02817357 0.016218478 -0.03973879
0.041407358 0.012875945 -0.017061917 0.07377461 0.09322572 -0.0401426 -0.053503275 0.0411482
0.056414746 0.009178102 -0.020180034 -0.040033996 0.07520668 0.010206404 0.03374877 0.04557419
-0.101623304 0.053898096 0.0028936123 -0.013738136 -0.043065347 0.03290902 0.009221266 0.038455434
-0.013263873 -0.05557021 0.0051368256 -0.03825805 -0.04923121 -0.0037605069 -0.003171503 -0.010765033
0.019570297 -0.04111763 0.013979603 -0.041891377 -0.04037222 -0.07997332 0.10089386 0.049669847
0.0476557 -0.02652819 -0.016922481 -0.040534023 -0.0330705 -0.10137652 0.0062982687 -0.033267915
0.014070321 0.05228264 -0.008532524 -0.036474332 0.045590058 -0.03578267 0.0075122486 -0.039128054
-0.082259536 -0.04369187 0.0030897327 0.022855196 -0.0013498444 0.02172639 -0.019719804 0.02995979
-0.044238973 0.008576396 0.045195773 -0.004990849 -0.03112105 0.022186873 0.018013766 0.02740034
-0.06411645 -0.028534364 -0.053948462 0.032216724 -0.04103278 -0.020537214 0.05222514 -0.025615681
0.021587854 -0.0031887952 0.032683957 0.016734736 0.05482999 -0.018961035 0.025007518 -0.0053340453
-0.046551377 -0.0437874 -0.03621879 0.039192393 0.021221282 -0.034983158 -0.019224126 -0.013264195
0.04555476 -0.040552996 -0.0066697914 -0.02005812 0.020308916 0.021375645 0.015410428 0.030850837
0.02210528 0.033805717 0.003183678 -0.026839884 0.012230344 0.05400872 0.032435205 -0.036743548
-0.029659532 -0.073630325 -0.0074883103 0.022943296 0.051703632 -0.085823596 -0.04843469 -0.019283231
0.01818235 -0.051343955 0.05469781 -0.008741137 0.06535508 0.019610414 -0.015170548 0.04143508
0.026218101 0.02160058 0.1197044 -0.07421077 -0.040921286 -0.033659715 0.021474037 0.0013655322
-0.015929889 0.021681631 -0.015355859 0.014384381 -0.120581016 -0.0058331313 0.01772661 -0.008861294

res_blocks.0.conv2.conv2d.bias f4 [32]
00000000: e355 9bbd 6bf5 55bd e896 80bb 9064 f73c
00000010: 70ee 16bc 153a 0fbd 6b87 843d e7dd d8bc
00000020: d581 81bd 9345 d8bc ac15 02bd 20e3 0abd
00000030: ccda 0dbd 0b9f 84bd 2da5 92bd f321 1ebd
00000040: 00e1 bb3d ad0b aabc ce40 7cbc 9fcd 31bd
00000050: a895 963c 49cd f83c c87f 1c3d 9fa5 703d
00000060: ce25 9dbd 8c58 9fbd 25ea c4bc 826d 0abb
00000070: e9d8 afbb 9594 18bc 3a15 6ebd e04f b7bc
-0.07584741 -0.052236002 -0.0039242394 0.03019932 -0.009212121 -0.0349675 0.064711414 -0.026472999
-0.063235916 -0.026400363 -0.03175895 -0.03390801 -0.03463249 -0.064756475 -0.07160411 -0.038606595
0.09173775 -0.02075752 -0.01539631 -0.043408986 0.018381909 0.030371325 0.0382078 0.0587517
-0.07673226 -0.07780561 -0.02403743 -0.00211224 -0.005366434 -0.0093127685 -0.058125712 -0.022376955

res_blocks.0.in2.weight f4 [32]
00000000: 3940 7e3f 9461 7d3f cef8 773f e9f1 723f
00000010: d182 713f 6f3e 783f 115b 753f c68f 733f
00000020: bd43 793f 06c4 813f a2b1 753f 0cd9 6f3f
00000030: 0924 763f aa84 773f 073d 673f 6eb3 7a3f
00000040: aac5 7b3f ab2e 7d3f 7113 793f 8251 7a3f
00000050: ac7d 783f 88fc 7c3f 174d 6f3f 6d90 733f
00000060: d1ee 773f 92f2 6e3f ea6c 793f b386 733f
00000070: 534f 773f 3f4d 773f 54af 7a3f f37b 783f
0.99316746 0.9897702 0.9686402 0.94900376 0.94340235 0.96970266 0.9584208 0.95141256
0.97368985 1.0137947 0.9597417 0.9369056 0.96148735 0.96686804 0.90327495 0.9793004
0.98348486 0.98899335 0.9729529 0.9778062 0.9706676 0.9882283 0.93477005 0.9514225
0.9684878 0.9333888 0.97431815 0.9512741 0.96605414 0.96602243 0.9792378 0.9706413

res_blocks.0.in2.bias f4 [32]
00000000: b0de f6bc a5b9 263c 0bae a53b d2ff 203d
00000010: 30bd 52bd 9a17 8abc e0d6 8d3b 0f41 c2bb
00000020: d62e a8bc d872 89bd 3703 913c 91c9 49bd
00000030: 8b4d 02bd 5fb2 8fbd aefa 3bbd ee9b 83bc
00000040: be70 053d befe 07bd 66a7 70bc cf67 243d
00000050: 1dd8 673c 62bb 3a3c 4129 05bc 86cb 023d
00000060: a3fe b6bc a3f9 cebb 0959 9ebd f716 18bd
00000070: 5d4c 47bc 25e1 0b3d a137 64bd 0d2b 1dbc
-0.030135483 0.010176097 0.005056148 0.03930647 -0.051449955 -0.016856957 0.0043285936 -0.0059281657
-0.020530146 -0.06711358 0.017701728 -0.049264494 -0.031812232 -0.070164435 -0.045893364 -0.016065564
0.032578222 -0.033201925 -0.014688348 0.040138062 0.0141506465 0.011397215 -0.0081275115 0.031932376
-0.022338217 -0.00631638 -0.07731826 -0.037131276 -0.0121642025 0.03415026 -0.055717114 -0.009592784

res_blocks.1.conv1.conv2d.weight f4 [32, 32, 3, 3]
00000000: 338d 8cbd 0cc3 433d f77a 8bbd d81e 983d
00000010: a1af 473d 41ff 563d 89bf 4d3c b6b9 2f3d
00000020: ac2c aa3b a39e 603b 00b2 4f3d 378a 203c
00000030: 6ddc 003c d0d5 05bd fd77 963b 0eff d73b
00000040: df5f 3c3c 5bee f2bd a718 20bc 6b89 cabc
00000050: 9fea f53a 0081 aa3d 0df2 fa39 05cd 38bd
00000060: 01f9 0fbd d736 523d c705 98bc 925c b53d
00000070: 2b48 08bc 6858 eebb c294 ae3c 13d4 8e3d
00000080: 5b0f 5e3d 34de efbc f2b5 563d 240a 9cbc
00000090: e2b4 a53c 5100 69bd 9f1d a8bd bc33 013d
000000a0: 65cc 7b3d f5a1 80bd 0e08 233c ddbc 603d
000000b0: e4e2 ad3c 1f35 213d 118b 0f3d 91a5 3cba
000000c0: 5110 493c f2af e23d e25f 8dbc 2019 cd3b
000000d0: db6c 433d 5b0a c6bc daa8 e8bc ac0f b5bd
000000e0: 3271 a33c 4afd da3b 253c 1abd 163b 133d
000000f0: 2969 00bd 5b66 9ebd fe03 22bc 4fb4 02bd
00000100: 0dde 233c fd82 043c 4497 97bc c865 2ebd
00000110: 7e21 fd3c 2941 a43c acef 123d 7512 bbbc
00000120: 6c21 253c 2342 5abd 0364 f03a 8e34 643d
00000130: 3750 bf3c a810 ea3a 7b1e 6abd 8758 3a3d
00000140: ce13 17bd 8206 443d 906c 37bc 782b 153c
00000150: 3752 903b 0337 1f3d cc36 e83b 0244 01bc
00000160: 548c ddbc c8fc 6d3d 544a a2bd 14c8 9ebc
00000170: 8056 383d 612e 893d c89e 533b db40 2a3c
00000180: 171a 1cbc c02c cc3c 5af0 c7bc 7b53 1bbb
00000190: ce73 6239 b76e 803d b618 a6bc 0c8a 6ebd
000001a0: 188c 9e3c b9c0 8abc 3df8 f03b a791 3dbc
000001b0: a157 0dbd 2c14 423c a2a5 95bc 2844 19ba
000001c0: 3e20 8cbc 13f4 ab3c e176 f6bc 1a89 013d
000001d0: ff2a c83c 913e 06bc 3f0a f43c 7a60 38bc
000001e0: 2c06 56bb 8b86 223d f305 9dbd b662 843d
000001f0: e7ed 0bbd 2a79 6f3c 6a39 1bbd 7f2e f2bc
00000200: 3354 b9bc 2602 fdbb 6458 6cbc 6f66 323c
00000210: f670 073d 11e4 b83c 0450 4c3d dad6 1a3d
00000220: ea56 c1bc 688c 153c 6d97 40bd 040e be3c
00000230: 8016 893b b257 90bd 834e 31bd 7676 93bd
00000240: 90cb 7c3b fe7d 25bd 31fd 25bd c520 61bd
00000250: 60aa 633d c339 3d3c ef2b 65bd b58b 4abd
00000260: a784 003d 8468 193c 215b d2bc fa17 883c
00000270: 15f7 d6bc 331c 1dbd cc4b 76bc 63e2 883c
00000280: c90c 073d 5f6d 833d b682 573a 09d6 adbc
00000290: c455 d03b cfc4 32bc e92b 89bd 6f64 833d
000002a0: 817a 973c ea8e 1abc 0224 66bd 7eea 83bc
000002b0: 88e3 943c 761d 00bd f2b0 d13c edaf 9c3d
000002c0: a3aa 22bd f6af cd3a eae6 23bd 34e5 1dbc
000002d0: fc5c 95ba f43c b3bc c7e4 8ebd 44a1 253d
000002e0: 967a 4c3d a282 c1bc c80d 5c3c 0583 15bd
000002f0: 262b 813d 29aa 84bb 2932 9cbd 3db7 4e3d
00000300: 40e1 8fbc 8c01 21bc 884b 39bd 4a06 80bc
00000310: b8ad cdbc d999 55bc 966e 29bd d11e 083d
00000320: ba68 d2bc a89c 223d 962b 3dbd e50a d8bb
00000330: 7b1d 903c 0f42 403c d746 84bd f404 6d3c
00000340: 0566 42bc fd5f 93bc 5bf5 18bd 83b5 dcbc
00000350: c842 a73c 74f3 8f3d f86c 983d fdeb 06bd
00000360: f0a2 7bbd a296 21bd a042 8f3c 5f4e acbc
00000370: f2b7 143d c022 55bd 5b61 c6bc 1bf3 90bc
00000380: 0676 803d 6107 463d 69fa 69bd 4617 613c
00000390: 5fc4 253c 8bcc 253d 36b4 f33c 6d0c 203c
000003a0: 21c3 48bd 6ab1 863d 58cb 01bd 4ccb 323d
000003b0: 218f 30bb 93a2 373d 9deb 89bc c354 11bc
000003c0: 465c b93c fe45 233d 7c94 1d3d 675c ce3c
000003d0: e725 34bc fb86 993c 24b0 bbbc 3ac0 963d
000003e0: 0c58 833d 6933 81bd cd43 98bc 0016 86bb
000003f0: 9d7f 26bd 6300 ebbb 3a03 373d e491 6b3d
-0.06862869 0.047793433 -0.06810563 0.07427758 0.048751477 0.052489523 0.012557873 0.042901717
0.0051933136 0.0034274242 0.050706863 0.009798578 0.007865054 -0.03267461 0.0045919404 0.006591684
0.011497467 -0.11861869 -0.009771503 -0.02472373 0.0018761939 0.08325386 0.00047864058 -0.045117397
-0.035149578 0.05132183 -0.018557442 0.08855547 -0.008317987 -0.0072737224 0.021311168 0.06974044
0.054213863 -0.02928076 0.05241961 -0.019047804 0.020227853 -0.056885067 -0.08208775 0.03154348
0.061474223 -0.06280891 0.009950651 0.054867614 0.021226354 0.0393573 0.035044733 -0.0007196302
0.012271957 0.11068715 -0.017257635 0.0062590986 0.047711235 -0.02417486 -0.028400827 -0.0884088
0.019951437 0.0066830264 -0.037655015 0.03594502 -0.03135029 -0.077343665 -0.009888647 -0.031910237
0.0100016715 0.008087871 -0.018504746 -0.042577535 0.03089976 0.020050602 0.0358731 -0.02283595
0.010078769 -0.05328573 0.0018340353 0.055714183 0.02335368 0.0017857747 -0.057157975 0.045494583
-0.03688412 0.04785777 -0.011195317 0.009104602 0.004404332 0.038870823 0.0070866104 -0.0078897495
-0.027044453 0.0581024 -0.07924333 -0.019382514 0.045004368 0.06698299 0.0032290686 0.010391439
-0.009527705 0.024923682 -0.0244066 -0.0023700881 0.0002159618 0.06271117 -0.020275455 -0.05823712
0.019353911 -0.0169376 0.007353811 -0.011570371 -0.034507398 0.01184563 -0.018267456 -0.0005846643
-0.017105218 0.020990407 -0.030085983 0.03162489 0.024434565 -0.008193628 0.029790042 -0.011253471
-0.0032657487 0.03967909 -0.0766715 0.0646414 -0.03416243 0.01461629 -0.03789655 -0.029563187
-0.022623157 -0.0077212034 -0.014425371 0.01088868 0.033066712 0.022569688 0.049880996 0.037802555
-0.023601014 0.009127714 -0.04701941 0.023200043 0.0041835904 -0.070479766 -0.043287765 -0.07200329
0.003857348 -0.04040336 -0.040524665 -0.054962892 0.055582404 0.011549416 -0.0559501 -0.04944964
0.031376507 0.009363297 -0.02567822 0.016612995 -0.026240865 -0.03835697 -0.01503272 0.016709512
0.032971177 0.06417345 0.00082210766 -0.021220224 0.0063578803 -0.010911181 -0.06697828 0.064156406
0.018491032 -0.009433487 -0.056186683 -0.016103026 0.018174902 -0.031278096 0.02559707 0.07650743
-0.039713513 0.0015692699 -0.04001514 -0.009637166 -0.0011395509 -0.02187965 -0.069772296 0.040436998
0.049921595 -0.02362186 0.01343102 -0.036501903 0.06307058 -0.004048605 -0.07626755 0.05046772
-0.017563462 -0.009827029 -0.045238048 -0.015627999 -0.02510725 -0.013037168 -0.04136523 0.033232514
-0.025684703 0.03970018 -0.046184145 -0.0065930956 0.017592182 0.0117345 -0.06458824 0.014466513
-0.011865144 -0.017990107 -0.037343364 -0.02694202 0.020417586 0.07028857 0.07442659 -0.0329399
-0.061434686 -0.039450295 0.017487824 -0.021033464 0.036308236 -0.052035093 -0.024216345 -0.017694047
0.06272511 0.04834688 -0.057123575 0.013738459 0.010117619 0.04047827 0.029749017 0.009768588
-0.049014214 0.06576808 -0.031688064 0.04365091 -0.002694078 0.044832777 -0.016835982 -0.008870306
0.022627007 0.03986167 0.038471684 0.025190545 -0.010995365 0.018741122 -0.022911139 0.07360883
0.06413278 -0.06308634 -0.018587017 -0.004091978 -0.040649045 -0.007171677 0.04468081 0.05751218

res_blocks.1.conv1.conv2d.bias f4 [32]
00000000: bef8 3ebd ab84 b43a d1ed 86bd 5bce 0cbd
00000010: 1384 913d 63b3 33bd ce42 d839 df66 4bbd
00000020: 7ab1 ba3b 2710 aabc 7256 02bd 3fca a03d
00000030: 7a9f 013d 91b7 603d 7b58 0fbc 94ae d83c
00000040: afcc 273d c63c a13c 53c1 903c 3f20 923c
00000050: eaff b63d f3ab 28bd 20a1 e33d 488c ce3b
00000060: c1cf f9bc 0870 5b3d 929b 943c e5ec 803d
00000070: 247d 3dbc 28fa 563d 267c 9e3d 7030 883d
-0.046623938 0.0013772448 -0.06588329 -0.034376483 0.07105269 -0.04387225 0.00041248504 -0.049658652
0.0056974264 -0.020759655 -0.031820722 0.078510754 0.03164623 0.054862563 -0.008749123 0.026450433
0.040966686 0.0196823 0.01767031 0.017837642 0.089355305 -0.04117961 0.111147165 0.006303344
-0.030494573 0.05357364 0.018140588 0.06295184 -0.01156548 0.05248466 0.07738523 0.06649864

res_blocks.1.in1.weight f4 [32]
00000000: 086c 7c3f 93b2 803f e536 813f 20f1 803f
00000010: 7dee 7e3f e3e8 7e3f 3999 7b3f 10b0 833f
00000020: dac5 833f d44d 833f ea04 7f3f 182c 7e3f
00000030: 289f 813f 79ff 803f f43f 803f 41eb 813f
00000040: 9027 7f3f 34f4 7f3f 4a8f 7c3f 61b4 763f
00000050: 87bf 7d3f b1e7 813f 8dd4 803f 8bf7 793f
00000060: ad9a 713f a400 7b3f 0ef2 7e3f f5e9 7e3f
00000070: ec79 803f 7f88 813f cee8 803f 5cf9 7f3f
0.9860234 1.0054497 1.0094877 1.0073586 0.99582654 0.99574107 0.98280674 1.0288105
1.0294755 1.0258126 0.99616873 0.9928603 1.0126696 1.0077964 1.0019517 1.0149919
0.9966974 0.99982 0.9865614 0.96368986 0.9912037 1.0148832 1.0064865 0.97643346
0.9437664 0.9804785 0.99588096 0.9957574 1.0037208 1.011978 1.0071046 0.9998987

res_blocks.1.in1.bias f4 [32]
00000000: 5d69 1ebd d0f5 d53b 3724 09bd e17c 57bc
00000010: 4568 923c 01d9 74bd bc01 12be 00b3 bebd
00000020: 6b16 eebd 5a79 233c 8eb4 ebbd 42ac 06be
00000030: 0a4b 61be f41c b03b e385 34bd 3bdc 0cbe
00000040: b5cb b3bb 4ef3 06be b899 fdbc 2e3d 77bc
00000050: 0fb0 0abd bcd1 d0bd f45e f0bc 53f9 d3bd
00000060: 7fca 9fbd 6b0c 31bd e09f a0bd e397 ddbd
00000070: a4f1 babd e105 bebc d64f 3a3d 9195 febd
-0.0386747 0.0065295473 -0.033481803 -0.013152332 0.017871985 -0.059777264 -0.14258474 -0.09311485
-0.1162537 0.009977663 -0.115090474 -0.13151649 -0.22001281 0.005374545 -0.044072997 -0.13755886
-0.0054869303 -0.13178751 -0.030957088 -0.01509027 -0.03385931 -0.10196254 -0.029342152 -0.10350289
-0.07802295 -0.043224733 -0.07842994 -0.10819986 -0.091281205 -0.023196163 0.045486294 -0.12430871
