Assets/Style_Transfer/Models/Estilos fallidos/ReCoNet.onnx (onnx, 449372 bytes, 62 tensors)

conv1.conv2d.weight f4 [8, 3, 9, 9]
000000 d7 b9 9f bd 6f 92 fc 3c 25 a2 9f bc b0 29 28 bd
       -0.07799118 0.030831544 -0.019486496 -0.04105538
000010 84 45 3a bc 36 99 ca 3d 5a 23 0c 3d 3e ab 74 bd
       -0.011369113 0.09892504 0.0342134 -0.05973362
000020 28 c6 c8 bc 06 7a ae bc cd fb 2f 3c f9 9d ad bd
       -0.02450855 -0.02129842 0.010741186 -0.084773965
000030 25 4c 04 be 78 50 94 3c 1f 23 e7 3d 9c 28 af 3c
       -0.12919672 0.018104777 0.11285996 0.021381669
000040 37 29 10 bd 82 89 08 bd ef 98 98 bd 7d c1 00 be
       -0.035195556 -0.033334263 -0.07451045 -0.1257381
000050 6c 6c 3f be 37 21 ec bd 04 ea 50 bc a2 1d 2d bc
       -0.18693703 -0.11529773 -0.012751106 -0.010566147
000060 73 d5 0f bd 20 6b 74 bd 40 25 c8 bc 47 70 87 bd
       -0.03511567 -0.059672475 -0.024431825 -0.06613212
000070 6f b5 23 3d 37 9f fc bd 71 b0 08 bd 8f a6 89 3d
       0.03996795 -0.12335055 -0.033371393 0.06721222
000080 68 2a db 3d cc 13 85 3d 7a f3 46 bd 60 66 7d bc
       0.10701448 0.064979166 -0.04857204 -0.015466303
000090 cf d6 ec bc 71 2f d4 3c 32 f4 d0 3c 91 e4 37 bc
       -0.028911022 0.025901528 0.025507066 -0.011223928
0000a0 77 25 22 3e 45 80 4a 3e 59 b1 d2 3c 41 b0 2e bd
       0.15834604 0.19775493 0.025719332 -0.042648558
0000b0 cd 6e b8 bb 94 47 33 bd 02 7b b5 bc e3 b5 aa 3c
       -0.005628443 -0.043769434 -0.022153381 0.020838683
0000c0 5a 94 b6 3b ec bc 89 3d f3 93 a9 3d d0 34 29 3d
       0.005571884 0.06725487 0.08280172 0.04131013
0000d0 53 b3 8b 3d 60 b2 5a 3c 44 a0 94 3c 93 00 04 3d
       0.06821313 0.013348192 0.018142827 0.03222711
0000e0 bb 33 4e 3a 04 de 2b 3d 8b 94 c4 3b eb 94 6c 3d
       0.0007865985 0.041959777 0.005999153 0.057759207
0000f0 85 15 5a bd d2 2a 4f bd 58 60 06 bc 82 8e 88 bb
       -0.05324318 -0.050577946 -0.008201681 -0.004167379
000100 b7 a6 05 bd 42 f1 1d bd 23 c1 60 bd 9b b6 55 3d
       -0.032629695 -0.03856016 -0.05487169 0.0521761
000110 fc ce 0d 3d 46 ae 03 be 2b b9 09 3c f4 01 1f 3c
       0.034621224 -0.12859449 0.008405964 0.0097050555
000120 16 bf f1 bb 0c da a5 3c 34 df d0 bc dc 09 c0 bc
       -0.0073775155 0.020245574 -0.025497057 -0.023442201
000130 99 7f 97 bc 70 5f 56 3d bb ac 85 bc 23 c3 e3 bc
       -0.01849346 0.05233711 -0.016317716 -0.02780301
000140 b2 0e e6 3c 78 cb 6f bd 52 e7 d7 3d 9b 9c 98 bc
       0.02808318 -0.058543652 0.10542168 -0.018629363
000150 c8 37 84 bd 1f a3 f5 3b cf 7f 29 3e 09 4b ed 3c
       -0.06455952 0.007496252 0.16552661 0.028966444
000160 e3 6f 02 bd 82 b2 16 3c b4 8c b7 bc 0c ac a2 3c
       -0.031844985 0.009197833 -0.02240596 0.019857429
000170 03 d6 02 bd 31 14 ea 3c 71 cf 0c 3d d1 36 a3 3d
       -0.03194238 0.028574081 0.03437752 0.0796944
000180 0e 68 85 3d 44 c9 3e 3a fd e2 3d bd 6e fa d0 ba
       0.065139875 0.0007277916 -0.04635905 -0.0015943774
000190 1b 9f 36 3d 4a be 60 bd 8e 0c 0d bc df 8d fc bc
       0.04458533 -0.054868974 -0.00860895 -0.030829368
0001a0 8c ac 2a 3c 3c 14 86 bd 76 e4 20 bd de 21 e7 bc
       0.010417115 -0.06546828 -0.039280377 -0.028214391
0001b0 a4 3d 16 bd 22 a2 91 3c 0b 4d 1b 3c 60 4e c5 bc
       -0.03667988 0.017777506 0.009478818 -0.024085224
0001c0 b1 41 e7 3d 29 40 a2 3d ec 0f 26 3c 39 8b 73 3c
       0.112918265 0.07922394 0.010135632 0.014864736
0001d0 9f bb a5 bd c2 76 a7 3b 4f 1f a6 3d da e9 54 3d
       -0.080924265 0.0051105926 0.081114404 0.05198083
0001e0 26 9c 55 3d bc 77 14 3e 51 39 17 3e 3d 02 6e 3d
       0.052150868 0.144988 0.14767958 0.058107603
0001f0 47 88 18 bd d1 6e 98 3c fe ae a7 3c ef 98 a4 3d
       -0.03723934 0.018607529 0.020469185 0.08036982
000200 7e 6b 49 bd af c2 63 3d ed fe 67 3d 63 3c a2 3d
       -0.04917478 0.055605587 0.0566396 0.07921674
000210 40 fd be 3d d0 a8 95 bc 2b 18 a5 3c 1a 87 bb bd
       0.09325647 -0.018268973 0.020153126 -0.09156628
000220 1e f8 92 3d 76 36 51 bd c2 3d 02 3d e2 38 f2 3d
       0.07176231 -0.05107733 0.031797178 0.11827256
000230 3f fc 14 3c 57 2b c3 3b 31 28 a5 bc fe 55 8b bd
       0.009093343 0.0059560942 -0.020160766 -0.06803511
000240 ef 86 e4 bd d8 5f a0 bc d4 f5 53 3c bc be 0c 3c
       -0.11158549 -0.019576952 0.012937028 0.0085903965
000250 ac 81 d9 3d 23 01 8b bc f6 a4 77 bd 27 17 46 bd
       0.10620436 -0.016968315 -0.060460053 -0.048361924
000260 51 43 f9 bc 91 40 46 bd e4 dd e2 bc b1 81 97 bd
       -0.030427607 -0.04840142 -0.027693696 -0.073977835
000270 69 7f 14 bd f4 52 8a 3d df 77 0f bd f7 9e bc 3a
       -0.03625432 0.06754103 -0.035026427 0.0014390637
000280 d0 8d 7f bd df db 6d 3c a5 9a f8 3c a2 3b 84 3c
       -0.062391102 0.014517753 0.030347178 0.016141716
000290 4e 04 12 3d b5 70 19 bd b4 01 af 3d dc 51 ca 3d
       0.035648637 -0.037461 0.08545247 0.09878895
0002a0 95 b5 44 ba 8a a0 17 ba 3c e8 b9 bb 08 87 fb bc
       -0.00075038645 -0.0005784115 -0.0056734364 -0.030704036
0002b0 68 b2 31 bd 5a 2e 20 bd 9e 86 0e bb 43 6f a8 bc
       -0.043383032 -0.039106704 -0.0021747719 -0.020560866
0002c0 e2 9d 55 3d 85 aa 00 bc c6 f8 a4 bc d6 10 8f bb
       0.052152522 -0.007853155 -0.020138156 -0.0043660207
0002d0 76 b4 3b bb 36 0b a4 bc a2 7e 1d bd ad 72 1f be
       -0.0028641499 -0.020024877 -0.038450845 -0.15571089
0002e0 0d cd c3 bc 7a 4d 38 bd 6b d8 de bc 64 d1 bd bd
       -0.023901487 -0.044995762 -0.027202806 -0.09268454
0002f0 7b 59 ee 3c d6 02 a1 bc c5 f1 20 3b f4 a3 24 bd
       0.029095402 -0.019654673 0.0024558168 -0.04019542
000300 2e f3 5d bd a0 2d 20 bd 05 b0 2a bc 08 c0 49 bc
       -0.054186992 -0.03910601 -0.010417943 -0.01231385
000310 cb 75 e4 3c 9d 15 d8 3c 97 d7 f8 3c c1 c9 e4 bb
       0.0278882 0.026377494 0.030376239 -0.0069820588
000320 35 7d aa bc fd ab 14 3d 05 2d b8 bc 92 63 11 bd
       -0.020811656 0.036296833 -0.022482404 -0.03549535
000330 96 6d fc 3c 5f 63 c9 bc 28 ee 84 bc eb 81 40 3d
       0.030813973 -0.024583517 -0.016226843 0.0469989
000340 ad bc 81 bb 3b d5 35 bc c7 4f 18 3c 1c 04 be bc
       -0.0039592595 -0.011098201 0.009296364 -0.023195319
000350 1d 19 fc 3c 58 bb 2d bd f9 03 f5 3c f4 55 e2 3c
       0.030773694 -0.042414993 0.02990912 0.027628876
000360 aa fd 81 3c 3c 78 0d 3c 4f e2 88 bd f4 d0 f1 3b
       0.015868027 0.008634623 -0.0668379 0.0073796455
000370 20 bf f3 3c 72 94 12 3c 28 aa 7a bd dc 53 c0 bc
       0.029754221 0.008946525 -0.06119743 -0.023477487
000380 0e e6 08 3d 8f 23 a1 bc 32 b7 fa bb 0a fa 02 bd
       0.033422522 -0.019670276 -0.007651233 -0.031976737
000390 e0 3c 81 bc f8 2a 98 3d 37 0e 65 bd f8 36 2a 3b
       -0.015776098 0.07430071 -0.05592176 0.0025972705
0003a0 58 17 d7 3c cb 21 a0 bc 1d fe 05 bc ba 2a 01 3d
       0.026256248 -0.019547364 -0.008178261 0.031534888
0003b0 68 e8 b4 3c af 8f 6d bd bd a9 00 3d 82 66 2d 3d
       0.022083476 -0.057998355 0.031411875 0.042334087
0003c0 15 76 ae bc 40 29 9c bc 4e f6 1d 3d 28 02 dc 3c
       -0.02129654 -0.019062638 0.038564973 0.026856497
0003d0 eb 38 95 3d 67 43 7f 3d 45 71 76 bd f3 69 04 bd
       0.07286247 0.06232014 -0.060166616 -0.032327604
0003e0 36 a4 ef bc 29 e0 17 bc 4d 47 b1 3c e3 45 78 3d
       -0.029253107 -0.009269753 0.021640444 0.060613524
0003f0 e3 dd c7 ba 02 66 07 bd 9f af ac 39 97 8d cf bd
       -0.0015248623 -0.033056267 0.00032937244 -0.10134428

conv1.conv2d.bias f4 [8]
000000 76 6d bd bb df 23 d7 3d f3 43 fa bc d4 6a 97 bd
       -0.005780871 0.10504889 -0.030549979 -0.07393423
000010 d5 46 c1 bd 41 ad 51 3d 4b 57 7e 3c 52 5c 38 3c
       -0.09437338 0.05119062 0.015523742 0.01125248

in1.weight f4 [8]
000000 84 fd 85 3f 97 7c 90 3f fb a5 a4 3f 3c 33 9b 3f
       1.0467992 1.1288022 1.2863153 1.212501
000010 9b 08 a9 3f f0 d3 a8 3f 78 9d 95 3f bc 5e a2 3f
       1.3205751 1.3189678 1.1688681 1.2685161

in1.bias f4 [8]
000000 5a 9e 23 3f 82 ce 81 3f c0 a6 53 3f 85 b0 49 3e
       0.639135 1.0141146 0.82676315 0.19696243
000010 8f ff 63 3f 97 96 5e 3f be 8c 82 3f c9 90 56 3f
       0.89061826 0.8694853 1.0199201 0.83814675

conv2.conv2d.weight f4 [16, 8, 3, 3]
000000 ad 2d 47 bd a5 4c 8c 3d a4 23 5b bd 8b d0 23 be
       -0.048627544 0.06850556 -0.053500786 -0.15997522
000010 93 84 19 3d 04 3c 02 3d ab 77 70 3b fa 11 e0 bc
       0.03747995 0.031795517 0.0036692421 -0.027352322
000020 cf c1 80 3b a0 27 a6 bb 77 c6 fe bd 37 f2 97 3c
       0.003929354 -0.0050706416 -0.12440198 0.018548114
000030 63 29 40 3d 7e b1 82 3d ea b0 9d bd 67 38 1f bc
       0.04691447 0.0638151 -0.07699759 -0.009718037
000040 25 04 39 bc 3c bf da 3d 40 31 c3 bd 2e 14 16 be
       -0.011292492 0.10681006 -0.09530878 -0.14656135
000050 15 c4 14 bd 79 64 0d be 26 c9 b1 3c d5 a9 7a 3d
       -0.03631981 -0.13807859 0.02170236 0.06119712
000060 9e 3c 3a bd b7 17 17 3e 56 ab 25 3e 26 88 fd bd
       -0.045467965 0.1475514 0.1617864 -0.12379484
000070 70 85 ad bd b8 72 51 3c 9e 72 07 3b 25 e0 27 bd
       -0.08472717 0.012783699 0.0020667682 -0.040985245
000080 d4 f3 70 bd e8 f9 aa 3c 31 fc b2 bd 34 f4 ce bb
       -0.058826283 0.020871118 -0.08739508 -0.0063157324
000090 df 2f 8a bc e1 62 26 3d 0d dc 73 bd b5 41 4c 3d
       -0.01686853 0.040621642 -0.05953603 0.04986735
0000a0 32 d9 6e bb 76 ac 17 bd db 3e 47 3d 35 63 9a bc
       -0.0036445376 -0.037029706 0.048643928 -0.018846134
0000b0 72 fe 94 bd be ff 86 3d ef 25 17 3d bc 44 39 bd
       -0.07275094 0.06591748 0.03690141 -0.045231566
0000c0 a8 7b 0d 3e 94 ae e3 bd 2c de db bd 88 f6 70 3b
       0.13816702 -0.111172825 -0.10735735 0.0036768038
0000d0 85 46 d9 bd a3 df 3a 3d fa 5f 95 be 33 90 08 be
       -0.10609154 0.045623433 -0.29174787 -0.13336258
0000e0 41 c0 36 3e 66 ca 5e bd 7b 0c eb 3d e6 fa c0 bc
       0.17846777 -0.05439224 0.1147699 -0.023557138
0000f0 dd de 3e 3e ff a2 22 3d ae 34 1b bd 9e 65 ff 3d
       0.18639703 0.039706226 -0.037892036 0.12470554
000100 46 e5 22 bd ad 5f df ba 21 f7 07 3d 46 66 b3 3c
       -0.039769433 -0.0017042063 0.033194665 0.021899354
000110 06 43 48 be fe fb c7 3b 10 0b 8e bd 9b ba 79 3d
       -0.19556817 0.006103038 -0.06935704 0.060968976
000120 6d 17 f1 bc 07 ad f7 bc bc ce 44 bd 33 a3 6d bd
       -0.029430116 -0.030233873 -0.04804872 -0.058016967
000130 4c 21 de bd dd a9 cd bd 2b 9b f0 bd 4d b9 a0 bd
       -0.108461946 -0.100421645 -0.11748346 -0.07847843
000140 f6 79 3f bd a6 0f d8 bd 24 85 8c bd 97 54 b2 bc
       -0.04674717 -0.1054986 -0.06861332 -0.021768851
000150 e3 18 9a 3d 0b db 0b be a1 66 15 bd ac 73 07 3e
       0.07524278 -0.13657777 -0.036474828 0.13227719
000160 20 f4 9c 3b d9 3b 8a 3d b5 de b3 bb 5a 95 ca bd
       0.004789844 0.06749696 -0.005489195 -0.09891768
000170 03 8f 39 bd d9 39 e6 bd fe 52 07 be 98 22 df bc
       -0.045302402 -0.11241502 -0.13215253 -0.027238175
000180 e1 e8 8b bb c0 55 23 3d fb 25 ef 3d 54 61 b4 bb
       -0.0042697047 0.0398767 0.11677166 -0.0055047665
000190 ef b9 2c 3e a6 14 32 3e 6d de ad bd ad d6 db bc
       0.16867803 0.17390689 -0.0848969 -0.026835764
0001a0 3e 44 5d 3d 0a 32 6a be 4e 4a 84 bd e9 56 ba 3d
       0.05402016 -0.22870651 -0.06459485 0.09098608
0001b0 82 52 0a be 0a 0b 83 bb d7 c3 b9 3c 90 71 b6 bc
       -0.13508037 -0.0039991187 0.022676392 -0.022270948
0001c0 89 d8 22 3d cd 61 a0 bc 1f ef c2 3b 88 54 4e bd
       0.039757285 -0.019577885 0.0059489156 -0.050373584
0001d0 f8 cb 7f 3b 55 21 26 bc f5 47 12 3d c6 3a f2 3d
       0.0039031487 -0.010139783 0.035713155 0.118276164
0001e0 95 12 03 be c4 23 4b bd 1f 22 c6 3d 32 48 ad bd
       -0.12800057 -0.049594656 0.09674477 -0.08461036
0001f0 e4 8e 6c 3d ab 64 75 bd 54 72 95 bd 65 31 27 be
       0.05775346 -0.059910458 -0.07297197 -0.16327436
000200 55 b5 f0 3d 6e 85 0a bc 13 04 80 bd 96 ab 35 3c
       0.11753336 -0.008454664 -0.06250777 0.011088273
000210 bc 56 67 3d cd e5 03 3d a1 b8 34 3c 64 9d 21 3b
       0.0564792 0.032201577 0.011030347 0.0024660463
000220 2a 36 e6 3c 88 4c 72 3c d1 e7 97 bd 7a ed 97 bd
       0.028102 0.014788754 -0.07417262 -0.07418342
000230 49 89 88 3c 3e d1 5c 3d 70 65 30 be d2 db 79 bc
       0.016667025 0.053910486 -0.17226195 -0.015250163
000240 ba b3 4e 3e 56 36 ae bc 66 43 51 3d 50 09 1b 3d
       0.20185748 -0.021266144 0.051089667 0.037850678
000250 9d a8 be 3d fb b1 0c bd 69 0f 07 3e 88 ec c2 3c
       0.09309504 -0.034349423 0.13189472 0.023794428
000260 1b 20 28 be 3d cf 7e 3d 08 95 1e bd 0d 6c 21 bc
       -0.16418497 0.062209357 -0.038716346 -0.0098524215
000270 c9 59 83 3c 55 a6 d1 bd 53 01 17 bd bd 9e e4 3b
       0.016034024 -0.102368034 -0.036866497 0.006976931
000280 d4 33 e0 bc 31 16 b6 bd 1c 52 d9 3c df dc 8c bc
       -0.027368464 -0.088909514 0.02652841 -0.017195163
000290 14 e5 26 bb 03 7d 94 bd 6b 39 ae 3c 49 3b 05 bd
       -0.002546613 -0.072504066 0.021267613 -0.03252724
0002a0 12 d0 42 bd 6c fe 17 be f4 7d 16 3c f0 9d f4 3b
       -0.047561713 -0.14843148 0.009185303 0.0074651167
0002b0 8d b4 c0 bc 77 5a 7f bd 2f 8b de 3d 08 45 a4 3d
       -0.023523593 -0.062342133 0.10866391 0.08020979
0002c0 57 52 7c 3d 76 38 40 bd 12 b9 0d 3d 08 c4 21 3d
       0.061601963 -0.046928845 0.034600325 0.03949359
0002d0 92 04 8b 3d 66 be 40 3d fa 85 5d 3d 75 6d 53 3d
       0.06787981 0.047056578 0.054082848 0.05161806
0002e0 ef da 07 3d a4 1d 78 bc 8e 3a ac bd 6f e7 03 3e
       0.033167776 -0.015143786 -0.08409606 0.12881254
0002f0 d1 29 bf 3b e3 50 bd 3d 09 42 a7 3b 53 b5 94 bc
       0.0058338423 0.092439435 0.0051043076 -0.018152868
000300 61 43 de bc 7d f8 d7 bc c0 3f fb 3c 08 b4 8e bd
       -0.027131738 -0.026363606 0.030670047 -0.06967932
000310 a7 3a 1e 3e 8a 3c 93 3d 02 1c 08 3d e2 0d 9f 3d
       0.15452062 0.07189281 0.033229835 0.0776632
000320 56 88 d1 3d b7 a5 db bd 6c 5a 3d 3e f0 17 27 3a
       0.10231082 -0.10724967 0.18491524 0.00063741114
000330 58 96 3d be a6 e9 02 bd b6 e8 2e 3d 10 dc a5 3c
       -0.18514383 -0.031961106 0.0427024 0.020246536
000340 47 26 25 3e df 61 32 3e 01 59 14 3d ff ca d6 3d
       0.16127883 0.17420147 0.036217693 0.10487937
000350 2b 7c 1d 3d 3b c0 25 be 9c 26 24 bd 65 7e 29 bd
       0.038448494 -0.16186611 -0.040075883 -0.041380305
000360 3b f9 68 3d ba cf 48 3d 85 c9 88 3e ee 2b 11 bc
       0.05687831 0.04902623 0.26716247 -0.008860571
000370 2e 35 0d 3e d7 20 51 3d 02 a8 ae 3d 77 7f 38 3d
       0.13789818 0.05105671 0.08528139 0.045043435
000380 06 41 45 3e 06 70 16 bc f9 33 18 3d 40 74 8f 3d
       0.19263086 -0.009181982 0.03715894 0.07004595
000390 b6 36 1e be 6f 10 c5 3c 46 94 29 3d 97 c7 fb bc
       -0.15450558 0.024055688 0.04140117 -0.03073482
0003a0 17 34 00 be 81 e8 46 3c 8e 12 6b 3d 1b b9 07 3e
       -0.1251987 0.012140394 0.057390742 0.13254206
0003b0 b8 b1 5a 3e 31 e9 91 bb 94 90 59 3d 02 42 48 3d
       0.21356857 -0.0044528474 0.053116396 0.048891075
0003c0 95 e1 a0 3d 70 28 39 3e c4 77 48 3e 50 72 3a bd
       0.07855526 0.18081832 0.19576937 -0.045519173
0003d0 5c 16 8d bd 95 ce ee bd 85 12 3f 3d bf 8f d6 3c
       -0.0688903 -0.11660496 0.04664852 0.02619159
0003e0 83 f8 64 3d ab 77 bf 3d 56 fa 8d 3d c3 04 c1 bd
       0.05590106 0.09348997 0.069325134 -0.09424736
0003f0 c8 78 a7 3d dd dc bd 3c f5 1a 59 bc 88 0f a6 3d
       0.08177334 0.023176605 -0.013251056 0.08108431

conv2.conv2d.bias f4 [16]
000000 3f 20 07 3e 79 56 d6 bd da 7e e9 bd 6b 05 22 3c
       0.13195895 -0.10465712 -0.11401148 0.009888987
000010 9f f0 97 3d f6 ba b3 bd 77 10 56 bd 1a a9 e6 3c
       0.07418942 -0.08775894 -0.052261796 0.028156806
000020 ce fe 26 3e 01 6c a7 bb ae 33 a5 3d fc 37 2b 3d
       0.16308138 -0.0051093106 0.08066498 0.041801438
000030 2a 58 34 bb 1a 55 fe 3c 9a 14 0b bd 0c 4f 2a 3e
       -0.002751837 0.031046439 -0.033955194 0.16631716

in2.weight f4 [16]
000000 a0 21 44 3f 48 7a 5d 3f 62 5b 45 3f e9 a4 5e 3f
       0.7661381 0.8651471 0.77092564 0.8697038
000010 5f 0e 70 3f 71 92 2b 3f a2 40 47 3f be fe 5a 3f
       0.9377193 0.67020327 0.77832997 0.85544956
000020 0f 61 2f 3f 50 47 2f 3f 61 b3 4f 3f 2c 61 12 3f
       0.68507475 0.6846819 0.81133085 0.5717952
000030 44 b7 61 3f bc 44 5a 3f 49 bc 56 3f ad bb 41 3f
       0.88170266 0.8526113 0.8388105 0.75676996

in2.bias f4 [16]
000000 92 58 1b be 19 b4 f1 3d 52 99 95 bd 50 1a e3 bd
       -0.15170506 0.11801929 -0.07304634 -0.11089003
000010 63 a6 89 3e 1c 6f 90 bd 68 4e 42 3d 0c 9d 98 3d
       0.26884755 -0.070524424 0.047438055 0.07451829
000020 da ad 97 3e 63 55 8a be 91 94 24 3e b3 cb 2a be
       0.29624826 -0.2701827 0.16072299 -0.16679268
000030 3e 3c b8 bd d0 63 be bd 3d a9 80 be 11 b7 70 3e
       -0.08995865 -0.092963815 -0.2512912 0.23507334

conv3.conv2d.weight f4 [32, 16, 3, 3]
000000 a5 f0 3a 3b 04 f4 14 3d db b3 a2 bb 59 fc e9 bc
       0.0028524783 0.036365524 -0.004965288 -0.028562712
000010 dc 10 0a bd 30 34 4d bc 1e 79 5e bd 1e 7f ec 3c
       -0.033707485 -0.0125246495 -0.054314725 0.028869208
000020 17 d6 ff bc 10 ce 43 bc 8f df 47 3d f8 0a e3 3c
       -0.031230016 -0.011950985 0.048797186 0.027715191
000030 cd 52 fb 3b de 4b ac 3d 39 ed 60 bd 1c b1 9f bd
       0.0076697827 0.08412908 -0.054913733 -0.07797453
000040 a9 dc 99 bd 91 18 c3 bd bb eb c6 3b 00 2d 48 3b
       -0.07512791 -0.0952617 0.0060705817 0.00305444
000050 e4 df a8 bd d0 5f 0b be 80 b3 f0 bd 6e 22 0e bd
       -0.08245829 -0.13610768 -0.11752987 -0.034700803
000060 03 68 41 3d 52 b8 81 3c cc 69 2a bd 9a f4 52 be
       0.047218334 0.015834961 -0.041604802 -0.2060112
000070 11 26 09 be fb f6 3a bd db 13 3e bd 7b 3f eb bc
       -0.13393427 -0.045645695 -0.046405654 -0.028716793
000080 a6 b7 22 bd 00 54 a8 3d 98 95 32 3d f0 17 65 bd
       -0.039725922 0.08219147 0.043599695 -0.05593103
000090 56 b2 c1 3d a1 0c 3d 3d 1e 15 c0 3d 15 80 21 bc
       0.09457843 0.046154622 0.09379028 -0.009857197
0000a0 29 9b 87 3b 70 a4 c4 bd 63 6d 0d bd 61 16 e9 bd
       0.0041383696 -0.096016765 -0.034528147 -0.113812216
0000b0 59 76 33 be 66 f2 87 bc 6d c6 da 3d 59 a8 aa 3c
       -0.17525615 -0.016595077 0.10682378 0.020832228
0000c0 e1 38 9f bd 13 5f 4a 3c 1f 6a 81 bc 8f d0 60 bd
       -0.07774521 0.012351769 -0.015797673 -0.054886397
0000d0 60 99 3e bd 1d 85 b6 bd 1a b2 9d 3c fd 61 4e bc
       -0.04653299 -0.08912108 0.019249965 -0.012596604
0000e0 d8 b6 32 bd f5 27 95 3d 83 2d e8 bc 17 24 b8 bd
       -0.043631405 0.07283012 -0.028342014 -0.089912586
0000f0 26 90 bd bd 96 4a 23 bd 28 20 9b 3d e0 60 87 bd
       -0.0925601 -0.039866053 0.07574493 -0.06610274
000100 f0 14 92 3c 3f 0a fe 3c 9f 5d bc 3c 5a f3 b7 3d
       0.01783225 0.031010745 0.02299386 0.089819625
000110 1f 63 01 bd 76 a7 37 bd 89 cd 15 bd d0 04 89 bc
       -0.03158867 -0.044837438 -0.036572967 -0.016725928
000120 e0 1a 4b 3d 39 ec f2 3d b4 a8 4a bd da 18 e3 bb
       0.049586177 0.11861462 -0.049477294 -0.006930453
000130 5d ab 85 3d 4c d0 28 bc 33 13 8d bc 73 20 63 bd
       0.065268256 -0.010303568 -0.017221069 -0.055450868
000140 0a fe b5 bd ca 80 27 3d 55 4a 94 3d 2c 2e 7b 3d
       -0.08886345 0.040894307 0.0724074 0.06132333
000150 73 89 24 3d 9e eb 92 b9 df cc 48 bd 12 d6 90 3b
       0.040170144 -0.00028022839 -0.049023505 0.0044200504
000160 1a 0e 8b bd 35 9e 12 bd 18 e6 4c bd 07 2f 01 be
       -0.06789799 -0.03579541 -0.050024122 -0.12615596
000170 f7 f5 cc bd 7f 90 86 bc a3 d9 ce 3d e8 9e f1 3d
       -0.100078516 -0.016426323 0.10100105 0.11797887
000180 f0 27 79 3c 66 3a 37 bd eb 6a c7 3c 80 d2 76 3c
       0.015207276 -0.044733427 0.024342975 0.015064836
000190 8c 01 17 39 90 f5 d9 3c 2f 55 a4 bc fb 70 44 bc
       0.00014401058 0.026606351 -0.02006015 -0.011989827
0001a0 bc 35 9b 3d 75 78 5f 3c 42 6c 5e bc 85 46 a9 bd
       0.075786084 0.013639559 -0.013575615 -0.08265404
0001b0 12 d2 ba bd fa 99 f6 bd 52 92 e1 bd 01 3a 24 bd
       -0.09122099 -0.120410874 -0.110142365 -0.04009438
0001c0 1c 14 88 bc f4 12 42 bd 69 fd 6c 3d 39 a0 6c 3d
       -0.016611151 -0.047381356 0.05785886 0.057769988
0001d0 99 22 0a 3d 73 50 f2 bc 8d 40 97 bd ec 5e 89 bd
       0.0337244 -0.029579377 -0.07385359 -0.06707558
0001e0 b4 58 80 bd 33 d6 53 bc 20 71 9e 3c 53 75 af bd
       -0.06266919 -0.012929487 0.019341052 -0.085673
0001f0 03 31 2e bc 92 26 7a 3c eb db 0d be e1 1c 0d be
       -0.0106318025 0.015267985 -0.13853423 -0.13780548
000200 32 c4 88 bd af 25 1d bd 20 c2 58 3c 47 3e 1f bd
       -0.06678046 -0.038366016 0.013229877 -0.03887775
000210 de c5 72 3c 0a 99 a7 3c f6 c5 b2 3d 7d 70 09 3d
       0.014817683 0.020458717 0.08729164 0.033554543
000220 dd 22 ba 3d 20 c6 e3 3d 8a 06 8c 3c c2 98 a1 3a
       0.09088681 0.11121774 0.017092962 0.001232885
000230 ed 6e 45 bd a8 79 27 3c 7f 03 ef bd 9b 4a b3 bd
       -0.04820149 0.010221876 -0.11670589 -0.08754464
000240 6e 49 42 bd ed d3 84 3b 81 20 93 bb 3c 3c b3 3d
       -0.04743331 0.004053584 -0.0044899588 0.08751723
000250 d3 25 03 bd fb 4a 17 3c 6d 4f 08 bc 4f 15 80 3d
       -0.032018494 0.009234185 -0.008319718 0.06254064
000260 5a 31 1a 3d 5d 8a 8b bd 8b ea 21 3d 55 02 ff bd
       0.03764472 -0.068135 0.03953032 -0.12451617
000270 03 22 14 bd 5c 87 a2 bc c6 94 a9 bd 18 9b 5d bd
       -0.03616525 -0.019839935 -0.082803294 -0.054102987
000280 63 66 67 3c ac 02 08 3d 3e 39 8e 3d 0f 18 9a 3b
       0.014123532 0.033205673 0.06944512 0.004702575
000290 41 3d 98 3c 3c 2a 8d 3d dc d6 b0 bc 86 bb 24 3d
       0.018583896 0.06892821 -0.021586828 0.0402179
0002a0 b8 b6 a2 3d b2 ed 9f 3c 89 e0 87 3d 64 e8 ed bc
       0.07945007 0.019522522 0.066346236 -0.029041477
0002b0 82 6e 2a bd 3d be 00 bd 22 42 3b 3d 39 86 21 bc
       -0.041609295 -0.031431425 0.045717366 -0.009858661
0002c0 7d c4 d8 bc ad 81 39 3c 7c ce 35 3d 3c ce 49 bd
       -0.02646088 0.011322421 0.044386372 -0.049268946
0002d0 3d bf 5e bd 6a 45 ac bc e3 72 c3 3a d5 25 70 3d
       -0.054381598 -0.021029193 0.0014911558 0.05862983
0002e0 12 53 84 3c 4e e1 c3 bd 02 fc 89 3d 0a 41 21 bc
       0.016152892 -0.09564458 0.0673752 -0.009842167
0002f0 8d 22 39 3d 9c c6 b7 bd ab 07 ba bd 54 8b dd bd
       0.045198966 -0.089734286 -0.09083494 -0.1081759
000300 4b a6 14 be 61 66 aa bd 4f 80 cb bd 97 ca 56 3c
       -0.1451656 -0.083203085 -0.09936582 0.013109825
000310 ca c4 8d bd f8 83 7a bd 09 14 63 3d 68 56 38 bd
       -0.069223 -0.06116101 0.05543903 -0.04500428
000320 d9 ca 42 bd 46 0e 09 3d 76 f1 15 3c 90 3d 7c bc
       -0.04755673 0.033460878 0.009151807 -0.015395537
000330 20 1d 43 bd 39 d9 92 3c 8a 10 9a bd 78 99 c5 3c
       -0.047635198 0.017925845 -0.07522686 0.024121031
000340 c4 ba a3 3d d5 b6 b9 bc 04 d1 1e bc d4 3e c8 bc
       0.07994607 -0.022670189 -0.009693388 -0.024444021
000350 cd e4 1b 3d 98 3c d3 3c 6d 36 18 3c ad 60 cc 3d
       0.03806 0.02578573 0.00929032 0.09979377
000360 17 19 69 bd a7 7d 09 bd 67 f9 55 bd 24 f3 f1 3c
       -0.056908693 -0.033567097 -0.0522398 0.029534884
000370 b1 e4 d7 3c 25 81 88 bd 60 6a 92 3d 2e 10 b2 3b
       0.026354166 -0.06665257 0.07149196 0.0054340577
000380 48 52 7f 3c 28 d6 e4 3d e0 fc 0b 3e 26 b2 32 3d
       0.015583582 0.111736596 0.13670683 0.043626927
000390 7e 2c 14 3e 93 d4 9d 3d ea 70 88 3d 9d 1f d2 3d
       0.14470097 0.07706561 0.06662162 0.10259936
0003a0 42 1d 50 3d a2 ce 07 bd 0c 1f e4 3c 4c b0 ae 3c
       0.050809152 -0.033156045 0.027846836 0.0213243
0003b0 72 34 26 3d 30 de be 3d 29 85 3c bc da 16 20 3d
       0.04057736 0.09319723 -0.011506357 0.039084293
0003c0 b7 7b 16 bd f9 ac b2 bc 67 ed 74 3d 62 42 80 bc
       -0.036739077 -0.021810995 0.059796717 -0.015656654
0003d0 f0 b7 00 be ee 1f 0d be ba a1 37 be 1c 3b 49 be
       -0.12570167 -0.13781711 -0.17932788 -0.19651455
0003e0 82 a5 14 be 0c 28 47 bd b9 9f cc 3c e4 22 96 bd
       -0.14516261 -0.048622176 0.024978505 -0.073308736
0003f0 04 3c 54 3d fb 7f 5f 3d c5 91 95 3d eb fe 1e bd
       0.051815048 0.05456541 0.07303194 -0.038817327

conv3.conv2d.bias f4 [32]
000000 cb ea fc 3d 16 cb 10 3d 5e ad cc 3d ca 2c 87 3b
       0.12349471 0.035349928 0.09994005 0.0041252123
000010 32 ff e8 bc f7 15 64 bd e2 3d 80 3d e3 a3 2d 3e
       -0.028442 -0.05568501 0.06261803 0.16957049
000020 b5 36 34 3e d7 7e d8 bc a7 8a 1f 3d 03 79 96 3d
       0.17598994 -0.02642767 0.03895059 0.073473
000030 11 21 92 bd f9 ee b1 bc 6b 06 52 3d 70 12 cd 3d
       -0.07135213 -0.021720396 0.051275652 0.10013282
000040 8f e7 bd 3d e7 51 b8 3c 8c 6a 45 3d ad 42 01 bd
       0.09272682 0.022499992 0.048197314 -0.031557728
000050 70 43 0a be 23 a3 5d bd ed d3 a4 3d d1 a3 06 3d
       -0.13502288 -0.054110657 0.08048234 0.03287107
000060 9b 29 31 3c ea 1e cd bc 04 e6 bd 3d 95 d6 07 3e
       0.010813142 -0.025039155 0.092723876 0.1326545
000070 ba 69 bb bd 55 79 62 bc 66 76 fd 3d d1 f7 1b 3d
       -0.09151025 -0.013822873 0.12376098 0.038078133

in3.weight f4 [32]
000000 18 44 38 3f 7d b1 3a 3f 49 fa 40 3f 23 7f 42 3f
       0.719789 0.72927076 0.75381905 0.75975245
000010 b3 fe 48 3f b0 d7 33 3f ca ab 30 3f 95 79 4d 3f
       0.7851364 0.7025099 0.6901213 0.80263644
000020 f7 bb 50 3f a1 ec 5a 3f 2d f7 36 3f 8e c6 34 3f
       0.8153681 0.8551732 0.7147091 0.7061547
000030 3b d1 40 3f 29 83 47 3f 9d 1d 2d 3f 76 af 27 3f
       0.7531926 0.7793451 0.6762331 0.6550211
000040 a0 3b 3a 3f 34 19 2a 3f 93 34 4c 3f 72 36 19 3f
       0.7274723 0.66444707 0.7976772 0.598487
000050 d1 12 41 3f 45 4b 38 3f ee b3 0e 3f 3b fc 44 3f
       0.75419337 0.7198985 0.557433 0.76947373
000060 dc 49 49 3f a0 0b 3a 3f 25 5d 4d 3f 61 98 39 3f
       0.78628325 0.7267399 0.8022025 0.72498137
000070 08 d7 37 3f f4 d8 44 3f 3b 2c 48 3f f4 20 33 3f
       0.71812487 0.76893544 0.7819249 0.6997216

in3.bias f4 [32]
000000 a9 7a 6a bd 07 1b 07 bd c8 3e 3a 3d 55 9d 81 bd
       -0.057245884 -0.03298476 0.04547003 -0.06328837
000010 d1 7b 4e be 87 f3 25 3c bc ef 21 be f2 4c 23 bc
       -0.2016442 0.010128862 -0.15814108 -0.009967076
000020 f7 55 0f bc 09 cc 95 bd 04 27 4d bd ae df 13 be
       -0.008748523 -0.07314307 -0.050086036 -0.14440796
000030 e0 91 4f 3b 9c a9 90 bd 6c 67 9c bd cc 3c d8 bd
       0.0031672642 -0.070636004 -0.07636914 -0.10558471
000040 95 2c a3 bd d5 2b dd 3c c1 47 04 be 10 53 f8 bd
       -0.07967488 0.02699844 -0.12917997 -0.12125218
000050 dc a6 84 bd 4a a2 a6 bd bd 56 6c bd ac 3e aa bd
       -0.064771384 -0.08136423 -0.057699908 -0.08312735
000060 c1 a1 b2 bd 9f d4 37 bd 4d b3 dd 3c cb 7e 1d bd
       -0.08722258 -0.044880506 0.027063036 -0.038450997
000070 e6 0a 3a bd c9 f7 8c bd b0 67 97 bd b0 25 de bd
       -0.04542055 -0.06883199 -0.07392824 -0.10847032

resnets.0.conv1.conv2d.weight f4 [32, 32, 3, 3]
000000 cb f6 10 bc c7 65 6e bd cf e4 5d bd 1e d7 c0 3c
       -0.0088479025 -0.05820253 -0.054173287 0.023540076
000010 34 32 6f bc 47 94 da bc 57 f5 ba 3b d6 11 b0 bd
       -0.014599372 -0.026682032 0.0057055163 -0.08597152
000020 fb c4 78 bd 3b 33 06 3d 18 ad 84 3b ac ad 89 3a
       -0.06073473 0.0327637 0.0040489547 0.0010504029
000030 03 12 1d 3d 45 8f 64 bb 6b 17 84 bb 8b 07 2c 3c
       0.038347255 -0.0034875434 -0.004031112 0.010499845
000040 90 4f 65 bd b8 db e4 3c f8 71 f5 bc 33 dd 2e bc
       -0.05598408 0.027936801 -0.029961571 -0.010672855
000050 e7 b9 7a 3c 4e 5a a0 bb a2 2d b3 3b 8c 68 2a bc
       0.015303112 -0.0048935777 0.0054680863 -0.0104009025
000060 c1 7e 2c 3d 30 71 54 bd 7d 39 a1 bc 97 df da 3c
       0.04211307 -0.051865757 -0.019680733 0.026717944
000070 7a 42 c4 3c bd 1f 44 3d f3 1f a3 3c 66 5f 7c bc
       0.02395748 0.04788183 0.019912696 -0.015403604
000080 34 e6 c2 3c e4 9f 63 3d d5 b3 7c bd 22 e1 72 bb
       0.02379141 0.055572405 -0.06169494 -0.003706046
000090 23 0b a7 bd 60 88 c9 3d 66 6b 15 3e 60 c3 30 bd
       -0.08156421 0.098404646 0.1459175 -0.043155074
0000a0 aa 5e 30 3e 9a 98 62 bd 40 85 45 3d 90 19 ba bd
       0.17223611 -0.055321313 0.04822278 -0.09086907
0000b0 ed 55 aa bd 38 2b 95 bc cc 1e 50 bd b2 f4 7d bd
       -0.0831717 -0.018209085 -0.05081062 -0.062000938
0000c0 8f 92 76 bd 63 d4 f6 bc f9 08 13 3c 3b da 1f 3c
       -0.060198363 -0.03013057 0.008974307 0.00975662
0000d0 a6 e7 c5 bc 50 e6 2f bd af de df bd ca a7 a4 bd
       -0.02415831 -0.042944252 -0.109311454 -0.08039816
0000e0 9b 6d b0 3d 25 f4 c0 3c a3 c5 c2 3b a7 24 47 3c
       0.086146556 0.023553917 0.0059439703 0.012154735
0000f0 12 d9 c0 3d ac 2f e6 ba f1 48 3b bd 58 17 c4 3d
       0.09416403 -0.0017561815 -0.04572386 0.09574765
000100 01 81 44 3d 9a 48 12 be 77 26 84 3c 15 4a bb bc
       0.04797459 -0.14285508 0.016131623 -0.022862474
000110 48 9b 99 3c 70 4c ee bc e4 0d 9d bd 5d 0e fa 3c
       0.018750802 -0.029089183 -0.07668665 0.030524427
000120 42 95 c3 bd 3d 64 3d bd d3 a8 92 3d ca 12 89 bc
       -0.09549953 -0.046238173 0.07161107 -0.016732592
000130 ea 4a 03 bd df 9c 99 bd de 97 33 3d 14 3a 4a bd
       -0.032053865 -0.07500624 0.043846004 -0.049371794
000140 d9 ec 6e bd fe 73 22 bd 56 bc 90 bd e9 63 f9 bb
       -0.058331344 -0.0396614 -0.07067172 -0.007610787
000150 5a 46 66 3c e6 78 20 bc 87 8e 2e 3d ba 4e 32 3d
       0.014054859 -0.009794449 0.042616393 0.04353211
000160 36 20 a6 3d a0 7b 78 bd d9 10 9f bd 24 9b 67 bd
       0.081116125 -0.060664773 -0.07766885 -0.056544438
000170 40 19 13 3d 57 9a 4c bd ca a2 cf bd d9 14 16 bd
       0.035912752 -0.049951877 -0.101384714 -0.036640976
000180 70 96 29 bd 91 64 5f bc 98 40 03 be 15 43 bb ba
       -0.041403234 -0.013634817 -0.1281761 -0.001428696
000190 09 e9 f2 3c 2a ec 8f bd 67 5c 97 3d eb f6 45 3c
       0.029652135 -0.070274666 0.07390671 0.012082796
0001a0 a0 66 b2 bd 83 cf 4e 3d d2 16 97 bc cb 3a 95 3d
       -0.087109804 0.050490867 -0.018443499 0.072866045
0001b0 87 7e 7c 3d 87 12 36 3d 32 d0 6f bb ab 95 9a bc
       0.061644103 0.044451263 -0.00365926 -0.018870195
0001c0 34 93 aa bd a1 76 88 3d 4e 89 83 bd a6 b8 c8 bd
       -0.08328858 0.06663252 -0.06422673 -0.09800844
0001d0 be a7 82 3d b0 8b 0b 3e ef 35 11 ba 66 fc 96 bc
       0.063796505 0.13627505 -0.0005539348 -0.0184309
0001e0 43 ba 48 3d 7c 34 7c bc 18 fb 2f 3c 4a f3 f3 3c
       0.049005758 -0.015393373 0.010741018 0.029779095
0001f0 17 4a e4 3c 9c 04 44 3d d1 23 07 3d 4e 49 81 bd
       0.02786736 0.04785596 0.03299314 -0.0631281
000200 dc 97 ce bd 15 d4 b0 bc db e6 9b 3b c6 b4 21 bd
       -0.100875586 -0.021585504 0.0047577447 -0.03947904
000210 8e 88 36 bd 36 47 52 39 a8 c7 58 3d bf b2 9f 3d
       -0.044563822 0.00020053689 0.052924782 0.07797765
000220 5c f2 61 3d 8b 97 70 bd a1 9b 3e 3d be 69 fa bc
       0.055162773 -0.058738273 0.046535138 -0.030568
000230 7a 33 90 bd f6 0d 50 bd 8a 24 4e bd 14 54 a7 3d
       -0.070410684 -0.050794564 -0.050327815 0.081703335
000240 9f ec 6c 3b cb f5 6c bd a7 04 af bd 23 61 5b 3d
       0.003615178 -0.057851594 -0.08545809 0.053559434
000250 ce ee 6c bd e5 d0 eb 3c dc 5e 32 bd cb 3f 08 bd
       -0.05784493 0.028786132 -0.043547496 -0.033263963
000260 e7 b5 80 3d b1 41 87 3d 3a a4 c0 bd e0 99 1b 3c
       0.06284695 0.066043265 -0.09406324 0.009497136
000270 d5 eb b9 bc 30 4a 89 bd a5 89 15 3d c1 ca 0d be
       -0.022695461 -0.06703603 0.03650822 -0.13846876
000280 43 c1 9c 3c f8 6a 81 3d b6 b9 95 bd 4d 36 24 3b
       0.019135123 0.06319231 -0.07310812 0.002505678
000290 37 3c d8 3d 0c 0c d2 3c b2 e7 0a 3d 67 00 31 bd
       0.1055836 0.02564051 0.033912368 -0.043213274
0002a0 10 0e c4 3c e8 e1 f6 3b 42 90 c9 b8 65 6a 99 3a
       0.023932487 0.0075342543 -9.611297e-05 0.0011704682
0002b0 85 75 06 3b 05 8c cf bc 34 9d 90 bc 9e c3 9f bc
       0.0020516824 -0.025335321 -0.017653085 -0.019502457
0002c0 ce 18 79 3b bc 69 30 bb e8 4e 33 bd ee 08 d7 bc
       0.003800917 -0.0026918491 -0.043776423 -0.026249375
0002d0 00 7d f5 bc 88 86 62 bd ff ec e1 bc 08 f1 15 3c
       -0.029966831 -0.05530408 -0.027578829 0.009151705
0002e0 2b 98 bc bd 1c 84 47 ba 43 e0 a6 bd 5c 00 0f 3d
       -0.09208711 -0.00076109334 -0.08148243 0.034912452
0002f0 5b 4b 65 3d 09 c3 cb bc 04 f0 19 3d 2c cb 7a bd
       0.055980068 -0.024873273 0.037582412 -0.061228916
000300 3f 08 db bb b8 e7 07 bd 46 3b bb 3d 37 32 c3 3c
       -0.0066843326 -0.03317997 0.09142165 0.023827655
000310 be 81 59 3d 3d 75 50 3d b3 86 a2 3a 58 34 26 3a
       0.053102247 0.050893057 0.0012399763 0.0006340197
000320 c3 dd d0 3c 92 57 18 3d 0f eb 11 bd a0 f5 94 bd
       0.02549637 0.03719289 -0.03562456 -0.07273412
000330 68 69 86 3d 7e f2 b2 bc 20 70 91 3c 53 9b 0e 3d
       0.065630734 -0.021844145 0.01775366 0.034816097
000340 9f 52 a8 3a 9f a8 51 bc f4 d9 5d bd 47 7d 3b bc
       0.0012842006 -0.01279655 -0.054162934 -0.011443443
000350 46 20 f7 3c c8 fa 63 bd 6d ee bc bd b1 f6 2a 3d
       0.030166756 -0.055659086 -0.092251636 0.04173917
000360 9e 71 9e 3d e7 17 88 bc 7f 5a 4a bd 60 07 20 3d
       0.077365145 -0.01661296 -0.04940271 0.039069533
000370 7f d0 c2 bd e4 ad 87 bd d8 99 0e bc 23 d3 99 3c
       -0.09512424 -0.06624964 -0.008703671 0.018777436
000380 d9 3e 50 3c 9e 83 89 bd af 3e 82 bd 4f c3 77 3d
       0.012710297 -0.06714557 -0.06359612 0.060488995
000390 07 0b ab bd 7d 53 36 3d 83 67 61 3d 0d c4 cb 3d
       -0.08351713 0.044513214 0.055030357 0.09949503
0003a0 ca 4f 5c 3d 37 b8 af bd d4 3c 7b bd bf a0 86 3c
       0.05378703 -0.08580058 -0.061337307 0.016434072
0003b0 36 e3 27 bd af 5a 6e bd bc 0a a8 bd 21 80 91 3d
       -0.04098817 -0.05819195 -0.082051724 0.07104517
0003c0 5c 26 91 bd 09 c5 58 3c 69 48 cc bb ff 96 a6 bd
       -0.070873946 0.013230571 -0.006234218 -0.08134269
0003d0 50 13 02 3d 70 3c ce 3c 98 5d 5f bd 9f 44 03 3c
       0.0317567 0.025175303 -0.054532617 0.008011966
0003e0 0e 35 80 bc 06 90 57 bc 9f 97 d5 bd 74 40 8f bd
       -0.015650298 -0.013156896 -0.1042931 -0.06994715
0003f0 2d 96 8e 3c 49 1a 81 3c 81 54 72 bd 1c ba 9a bb
       0.017405594 0.015759604 -0.05916262 -0.004721893

resnets.0.conv1.conv2d.bias f4 [32]
000000 bc 29 7f 3c c4 43 2c 3d 4e d3 fb 3c e5 d0 ad bc
       0.015573915 0.042056814 0.030740406 -0.021217773
000010 19 d7 39 bd 29 80 30 bc 97 8b a7 3c c6 d9 ac ba
       -0.04537115 -0.010772743 0.020452304 -0.001318746
000020 98 9b 58 3d e8 3c cc 3c c7 1b 4f 3d e7 d1 a3 3c
       0.05288276 0.024931386 0.0505636 0.01999755
000030 fa 01 23 ba c0 67 61 3d 0e 0d 04 3b 2f 24 56 3d
       -0.0006218251 0.055030584 0.0020149383 0.0522806
000040 c9 5c 5b 3d 67 44 13 3d 2f e9 48 bd c0 76 27 bd
       0.053555284 0.035953905 -0.049050506 -0.040884733
000050 be 33 b4 3d af 2b 36 3d 24 82 93 3c 1d b9 41 3d
       0.087989315 0.044475254 0.018006392 0.04729568
000060 35 56 0e 3d c0 c1 8f bd 7b 11 c0 3d 65 7d c3 bc
       0.034750182 -0.07019377 0.09378334 -0.023863504
000070 21 46 1e 3c fe b8 0e 3d 60 c9 d4 bc d7 52 85 3c
       0.009660275 0.03484439 -0.02597493 0.016274853

resnets.0.in1.weight f4 [32]
000000 66 1b 88 3f 9b 11 78 3f 27 36 82 3f 11 e3 78 3f
       1.0633361 0.96901864 1.0172776 0.97221476
000010 9b a1 6b 3f 86 37 6e 3f 92 59 84 3f 66 b6 80 3f
       0.92043465 0.9305347 1.0339835 1.0055664
000020 10 57 77 3f 8c 9e 77 3f 2e 22 78 3f 6f 94 77 3f
       0.9661722 0.967263 0.96927154 0.96710867
000030 b4 95 76 3f 7f 01 82 3f 73 c0 74 3f cc 68 83 3f
       0.9632218 1.0156707 0.95606154 1.0266356
000040 5f 17 7b 3f 6d a3 75 3f a5 3c 7b 3f c2 e6 6f 3f
       0.98082536 0.9595249 0.9813941 0.93711483
000050 78 b6 80 3f ab 26 88 3f 8a a2 7e 3f e8 42 7e 3f
       1.0055685 1.06368 0.99466765 0.9932084
000060 6f 7a 83 3f 3a 8e 63 3f 6d da 83 3f c7 c7 81 3f
       1.0271739 0.88888896 1.0301033 1.0139092
000070 29 b6 82 3f f1 98 80 3f 16 87 7d 3f e5 50 80 3f
       1.0211841 1.0046674 0.9903425 1.0024687

resnets.0.in1.bias f4 [32]
000000 88 99 22 be a1 64 5d 3d f2 c4 41 bd 8a 6d 27 3d
       -0.1587888 0.054051045 -0.047306962 0.04087595
000010 d6 ed 1b be 90 f1 af 3d a1 e6 c6 3b 4a a6 97 be
       -0.15227446 0.08590996 0.0060699736 -0.29619056
000020 f5 5f e4 bd 1c 88 ff 3d 45 8c f3 bd 50 98 50 3c
       -0.11151115 0.12477133 -0.11891989 0.012731627
000030 73 c3 57 be a9 43 c5 3d ff 06 9f bd 50 ea fa bd
       -0.21070652 0.09632046 -0.07765006 -0.12251723
000040 21 31 d7 bd 96 ec 56 bd d8 f3 11 be ef 2d 0f be
       -0.105074175 -0.05247172 -0.14253175 -0.13982366
000050 f7 18 16 be db d7 f4 bd 5e 2a 31 3d 97 3f 1d 3d
       -0.14657961 -0.11955234 0.043253295 0.038390722
000060 6a 38 12 be 0a 91 04 3e 25 fe 54 be c1 a9 65 be
       -0.14279333 0.12945953 -0.20800073 -0.22428037
000070 0f 2f 60 bd 4e b6 95 bd c6 cc 44 be a1 af 68 3d
       -0.05473238 -0.073101625 -0.1921874 0.056808118

resnets.0.conv2.conv2d.weight f4 [32, 32, 3, 3]
000000 f8 43 75 3d f8 da 07 3e c9 a1 64 bc 2d ce 95 bc
       0.059879273 0.13267124 -0.013954588 -0.018286789
000010 23 6a 2b bd 26 1b bb bb f5 44 bf 3b f5 3f 1c bd
       -0.041849267 -0.0057100235 0.0058370777 -0.03814693
000020 43 57 c9 3b f9 f2 44 3d f3 7a 03 3e 8c eb 94 3d
       0.0061444356 0.04808328 0.1283987 0.072714895
000030 e8 b0 e6 3a f3 9f 7e bd 76 1e 75 3d e1 66 d9 bb
       0.001760033 -0.06216426 0.059843503 -0.0066345786
000040 72 05 54 3d f2 c5 1b 3c 91 71 9d bd 8d 8b 8d bc
       0.051763006 0.009507643 -0.07687677 -0.017278457
000050 69 d3 f0 bb 7b b1 50 ba 0d 44 ea bc b4 bd 12 3d
       -0.007349421 -0.0007961017 -0.028596902 0.035825446
000060 e3 26 2a bd c2 02 dc bb c9 32 d9 3c 85 e9 48 3d
       -0.04154099 -0.006714196 0.026513474 0.049050827
000070 39 d9 51 bd b8 4e 1f 3c cd c1 e7 3d 87 39 dd 3d
       -0.05123255 0.009723358 0.113162614 0.10801988
000080 5a 38 43 3d b6 bb a8 bc 78 d5 0f 3c a3 d9 dc 39
       0.047661163 -0.02059732 0.008778922 0.00042123822
000090 3c 29 58 3d fa 3f aa bd c2 01 6b bd 5d 96 fc b6
       0.0527737 -0.08312984 -0.057374723 -7.52769e-06
0000a0 42 47 f2 bc e5 cf 18 3e 2d b1 eb bd e2 1e ab bd
       -0.029574994 0.14923055 -0.11508403 -0.083555
0000b0 70 25 37 bc 4d b1 4d bc 93 e8 09 bd ca d4 b1 3c
       -0.011178359 -0.012554479 -0.033669066 0.021707911
0000c0 4e 83 15 3d 8c 05 a6 bd 32 80 bb 3c eb 47 aa 3c
       0.036502175 -0.08106527 0.022888277 0.020786246
0000d0 bb 26 0c bd ff 1e 74 3b 23 b5 23 bc 05 c2 ba bd
       -0.034216624 0.003724992 -0.009991917 -0.091190375
0000e0 6c f4 40 3d 84 26 23 bd 92 cc 13 3d f5 7e 64 3d
       0.0471081 -0.039831653 0.036083765 0.05578514
0000f0 d6 a0 92 bc 4d b6 08 3d 51 5b 5e 3d a2 cb 70 3d
       -0.017898958 0.03337698 0.054286305 0.05878795
000100 94 3a be 3c 90 84 a1 ba 0a 04 ac 3b 22 c8 59 3d
       0.023221292 -0.0012322832 0.005249505 0.053169377
000110 f3 f8 06 bd a1 ba 2a 3c 56 bd 55 3d be 38 d4 3c
       -0.03295226 0.010420472 0.052182518 0.025905963
000120 83 ab e5 bc b6 21 3c 3c f3 88 51 3c d0 9a 00 be
       -0.028035885 0.011482647 0.012788999 -0.12559056
000130 d0 0b 21 3c ba 3a de 3d 6f db 24 be d8 a3 35 bd
       0.0098294765 0.10851045 -0.16099332 -0.044345707
000140 a2 ff da 3b 5d 4e eb 3c 10 c9 95 bd ed 03 25 bb
       0.006683306 0.02872389 -0.0731374 -0.0025179342
000150 50 e2 d7 3c a2 5b 1e 3a 5a 0f bd bc ae 00 81 3d
       0.026353031 0.0006040876 -0.02307861 0.06298958
000160 24 81 07 bc 2a e6 fd 3b c9 c1 72 bd 0e ff 75 bd
       -0.008270536 0.007748385 -0.05926684 -0.060057692
000170 29 cf fd 3a dc 96 4a 3d 63 48 e2 3c 90 ce a6 3d
       0.0019364107 0.049460277 0.027622407 0.081448674
000180 a2 4e 38 bd ba 72 0d bb d5 97 a2 bd 87 59 e8 bd
       -0.044996865 -0.0021583275 -0.07939116 -0.11345201
000190 3f d2 7a bc 88 dc 54 3d 4e 31 22 bd 71 ab f0 bc
       -0.015308916 0.051968127 -0.039597802 -0.029378625
0001a0 a1 2d a2 3c b0 94 59 3d 00 b2 8a 3c 4b e6 78 bc
       0.019797148 0.053120315 0.01693058 -0.015191625
0001b0 06 9f 44 3d 64 77 6b bd af 60 0d bc d0 0f 25 3d
       0.04800322 -0.057486907 -0.008629008 0.040298283
0001c0 65 14 24 bd 3e fb 00 bd af 07 44 3d 0e 49 29 3d
       -0.040058512 -0.031489603 0.04785889 0.041329436
0001d0 48 81 54 3d 0a 2d 74 3c a9 eb 60 3d ad c4 fb 3c
       0.051881105 0.014903316 0.054912243 0.03073343
0001e0 64 2d 98 bc 69 44 dd bb 47 d3 b9 3d 50 87 d4 3c
       -0.018576331 -0.00675254 0.09073501 0.025943428
0001f0 1c 88 af 3b da c9 c3 bc ca a4 af 3c 82 cc 97 bd
       0.0053568017 -0.023899961 0.021440882 -0.07412054
000200 de 90 98 bd 87 08 32 3d 37 f8 5c bb 68 91 10 bd
       -0.07449506 0.043465164 -0.0033717284 -0.03529492
000210 4b 54 91 3c 4c 0f 51 3c be 55 06 bd f2 5a 66 bd
       0.01774039 0.012759995 -0.032796614 -0.056239076
000220 6b 24 91 3d 7c 4f 89 3d 5f 7f 8a 3d 38 49 83 bd
       0.07087024 0.067046136 0.06762575 -0.0641045
000230 34 ee 72 bd 7f ca 5f 3d a3 48 25 3c fb da a5 3c
       -0.0593092 0.054636475 0.010088119 0.02024602
000240 97 5a 4c bc 7b 38 e8 bd 3c d8 2c bd aa 69 a1 3b
       -0.01247277 -0.11338898 -0.042198405 0.004925926
000250 3f a6 4b 3b 82 d4 4b bd d3 98 91 3c 6a 8e 8c 3d
       0.0031074432 -0.04976321 0.017773068 0.06863101
000260 92 94 a2 bd 19 cc ee 3d ec 8e b6 3c 57 ad 48 bb
       -0.07938494 0.11660022 0.022284947 -0.0030620897
000270 92 22 03 bc 18 86 3c 3c ad 45 d9 3c db 3e d0 bd
       -0.008003848 0.01150658 0.026522482 -0.10168239
000280 05 ed 54 3e ad 5d 1a 3c 5a c9 85 3d 5a 41 cf bc
       0.20793541 0.009421748 0.065325454 -0.025299717
000290 99 60 37 bd 26 e0 8b 3d a6 23 90 bd cb f7 27 bc
       -0.044769857 0.06829862 -0.070380494 -0.01025195
0002a0 5b 2c 99 bd 8f e1 06 bd 79 7b 09 bd f6 1b 65 bc
       -0.07479163 -0.032929953 -0.03356502 -0.013983717
0002b0 46 c3 ab bd ef 95 b7 3c 55 0d 88 3d 91 8f d0 3d
       -0.08386855 0.022410361 0.06643168 0.10183633
0002c0 a9 ff 88 bd 94 b8 ec 3c 74 8e a2 3c 14 b4 70 bd
       -0.06689388 0.028896607 0.019843318 -0.058765486
0002d0 54 ce 16 3b ba 38 74 3d 35 fc de bc 83 7e 8a 3d
       0.0023011165 0.05962441 -0.027219871 0.067624114
0002e0 94 dd bb bc e8 6d a1 3c 5e 2f fc 3c 52 f8 38 3d
       -0.022932805 0.019705728 0.030784305 0.04515869
0002f0 c6 d1 10 3d 20 d8 b0 3d 85 a3 62 3d d5 75 4b bd
       0.035356306 0.086349726 0.055331726 -0.04967292
000300 ac 79 9f 3d 49 76 af bc 8a 17 c7 bc c9 1b a2 3c
       0.07786879 -0.021418707 -0.024303216 0.01978864
000310 0d df 4c bc 7f 19 b6 3c b1 4c 9d bc 7b 17 e2 bb
       -0.012504351 0.022228954 -0.019201608 -0.0068997717
000320 43 be 09 bd d2 40 04 be cf 33 10 bd 77 1d 89 3d
       -0.033628713 -0.12915352 -0.03520566 0.06695073
000330 09 18 9a 3d 8c 13 69 3d 30 e0 41 3d e8 dc 84 3c
       0.075241156 0.056903407 0.047332942 0.016218618
000340 2e b4 af bb e1 a5 49 bc dc ba bf bd f4 a3 ed bc
       -0.0053620553 -0.012307615 -0.093618125 -0.029008843
000350 83 92 1d 3c 36 89 0a bb 0c e0 66 bc 35 95 fd bc
       0.009617451 -0.0021138913 -0.014091503 -0.030954937
000360 83 7a 33 3d aa 67 ef bc ac de 8f bd 3c 12 22 3e
       0.04381801 -0.029224236 -0.07024893 0.15827268
000370 21 fe 6a 3d b2 a7 98 bd 30 7d 43 ba 71 08 e6 3c
       0.057371262 -0.0745386 -0.0007457314 0.028080197
000380 84 88 8a 3c e8 70 fa bc 2a b1 a0 bd ef 27 e7 3c
       0.016910799 -0.030571416 -0.07846291 0.028217284
000390 a1 57 07 3c 81 db b7 3d 5f fb 1a 3d e0 0d 00 3b
       0.008260638 0.08977414 0.037837382 0.001953952
0003a0 7d c1 05 3c d3 71 44 bd a0 64 54 bc 42 bc 9f 3d
       0.008163807 -0.047960114 -0.012963444 0.07799579
0003b0 2d f0 d5 bc 96 8c 86 3c a7 d9 b1 3d 4e ef a7 bd
       -0.026115501 0.016424458 0.08684092 -0.081999406
0003c0 b0 18 32 3e 0c b2 3f 3c 7f 22 02 bd c5 24 04 3e
       0.1739223 0.0117001645 -0.03177118 0.12904651
0003d0 c9 9a bb bc d9 6d e9 bd ce ad 08 3d e3 b3 9c 3d
       -0.022900956 -0.11397905 0.033368878 0.07651498
0003e0 56 25 39 3d bb 63 96 3d 2c 78 a5 3d ea f9 48 3d
       0.045201622 0.07343241 0.080795616 0.04906646
0003f0 84 e4 4b bc 3f 10 36 bc 98 38 86 bb 21 9c 4e bc
       -0.012444619 -0.011112272 -0.004096102 -0.012610466

resnets.0.conv2.conv2d.bias f4 [32]
000000 be 25 ca bc 89 6e 1c 3d f5 12 85 3d 75 77 a8 bc
       -0.0246762 0.038191352 0.064977564 -0.020564774
000010 b7 55 d6 bc 98 ab 2f 3d 90 60 18 3d 96 8c 1c bd
       -0.026163919 0.042888254 0.037201464 -0.03822001
000020 4f 92 e0 bd d2 55 f0 3d c2 15 56 ba 64 05 3e 3e
       -0.10965406 0.11735119 -0.00081666943 0.18556744
000030 ac 46 94 3d 67 48 a8 3d a6 40 d6 bc a6 52 71 bd
       0.07240042 0.08216935 -0.026153874 -0.05891671
000040 b9 ca 74 3d 14 48 74 3c a9 84 a4 bc 9c b1 27 3d
       0.059763644 0.014909763 -0.020082789 0.040940866
000050 aa 2c 85 bd dd 08 30 3e 63 55 96 3c 1f fd 00 bb
       -0.065026596 0.17190881 0.018351262 -0.0019682122
000060 aa 8a a5 3a c1 0c 9a 3c da f1 ec 3c 68 aa 05 bc
       0.0012629826 0.01880491 0.028923918 -0.008158304
000070 38 f3 d8 3b 92 7f d8 3d af 91 43 bd 79 cd 51 bd
       0.006620791 0.10571207 -0.047746357 -0.051221345

resnets.0.in2.weight f4 [32]
000000 05 b8 42 3f a4 01 3c 3f c1 b2 47 3f 12 2d 50 3f
       0.7606204 0.73440003 0.7800713 0.8131877
000010 aa 03 48 3f 33 09 5b 3f 52 24 46 3f 26 5d 70 3f
       0.7813059 0.8556091 0.7739917 0.93892133
000020 73 83 41 3f 97 c8 58 3f bb 8e 4c 3f d7 0e 46 3f
       0.755912 0.84681076 0.7990529 0.77366394
000030 fe 1f 44 3f f0 ac 34 3f 8b b4 42 3f 85 96 47 3f
       0.76611316 0.7057638 0.76056737 0.7796405
000040 7a 12 43 3f 85 65 68 3f ca a1 37 3f 12 94 67 3f
       0.7620007 0.90779907 0.71731246 0.9046031
000050 4a 92 54 3f 90 89 45 3f 45 99 5b 3f e2 e2 51 3f
       0.8303572 0.7716303 0.85780746 0.8198682
000060 2b 90 63 3f c6 81 53 3f 03 97 4a 3f 1a 96 6b 3f
       0.8889186 0.82619894 0.79136676 0.9202591
000070 6c 27 67 3f 94 d1 4d 3f ab 17 6f 3f 45 da 4f 3f
       0.9029453 0.80397916 0.9339549 0.8119243

resnets.0.in2.bias f4 [32]
000000 77 d5 2e 3d e1 27 e4 3d e2 ba 56 3d 52 f5 a5 bd
       0.042684045 0.11140419 0.05242432 -0.08103432
000010 4b 5b e7 bb 1c a8 4b 3d 1a 65 94 3c a3 29 0e 3c
       -0.0070604435 0.04972087 0.018114615 0.008676919
000020 73 67 0e bc 20 95 fc 3a cb 48 ca 3c b2 cd 18 3e
       -0.008691656 0.0019270517 0.024692914 0.14922217
000030 b4 86 62 3c ac 55 fc 3c f9 8a b3 bd 59 07 f3 bc
       0.013826061 0.03080257 -0.08766741 -0.02966659
000040 74 d9 4f 3c 1e 30 8a 3c 8d 96 c0 3d b5 b0 8a 3d
       0.012686122 0.016868647 0.09403715 0.067719854
000050 1a 73 a8 bc 02 cb f1 3d d6 a6 76 3d 68 00 09 bb
       -0.020562697 0.11806299 0.0602177 -0.0020904783
000060 a9 71 0d 3d c5 92 67 bd b5 b5 7d bd 02 57 02 3d
       0.034532223 -0.056536455 -0.061940867 0.03182126
000070 30 35 b1 3b 66 14 0e 3d a3 9e 21 3d 06 9b e7 3c
       0.005407952 0.034687422 0.03945793 0.028272163
