Assets/Style_Transfer/Models/TransformerNet/Joyas_5e9.onnx (onnx, 449372 bytes, 62 tensors)

conv1.conv2d.weight f4 [8, 3, 9, 9]
0.013330913 -0.117641084 0.04747625 0.03660865 0.03365012 0.01861233 -0.044734426 0.021133237
-0.03049552 -0.046643402 0.08268739 0.052397337 -0.051434927 -0.07827221 0.037730377 -0.042183276
-0.058480445 -0.018688358 0.039788723 0.08673046 -0.047171205 -0.04656753 -0.14526403 0.018881755
-0.060537003 0.03688098 -0.007941268 0.033227704 -0.032511447 -0.123078376 -0.0072948197 0.18062721
0.17333525 0.016102094 0.021360692 0.0010386673 0.005505761 -0.0639547 -0.1936282 -0.016413465
0.13291234 0.26137376 -0.039467003 -0.044184923 0.078577936 0.007217739 -0.11081993 0.02409219
0.21830206 0.1979173 0.37869444 0.26276702 0.14296928 0.018418452 -0.021127008 -0.081446745
0.025401076 0.09414277 0.16665468 0.24307533 0.05999736 -0.0018395057 0.020674586 -0.012302438
0.011342261 -0.005608912 0.034978356 0.13007261 0.083909616 -0.049179666 -0.06954027 0.013163665
0.02348439 -0.021454878 -0.103982724 -0.03882754 -0.07477263 -0.25418645 -0.028467001 -0.0018066616
-0.11299099 -0.023967138 -0.05727734 0.09088461 0.07140883 0.04372318 0.068837844 0.036056045
0.051180538 0.055116214 -0.023657238 0.011120351 0.15466708 0.025191665 -0.05585411 0.09545761
0.005326078 0.045119297 0.047411595 0.018970104 0.054912508 0.12992829 -0.060645293 -0.20224868
-0.15461685 -0.1417449 0.12818196 0.11872191 0.044897966 0.06849922 -0.09852631 -0.057584334
0.022364285 0.051296964 -0.2725607 -0.09195689 0.11640732 0.057143334 0.087689415 -0.10526402
-0.09634872 -0.055215314 -0.11470982 -0.43959764 -0.34113634 0.054954346 0.002092249 -0.06920318
0.00311791 -0.032630883 -0.29661462 -0.21931963 -0.15189314 -0.19213143 -0.01988437 0.033335276
-0.07246925 0.008829719 -0.12466087 -0.2550318 -0.1581864 -0.27806297 -0.2817844 0.057907894
0.05938042 0.084250495 0.040886387 0.031516053 -0.03207892 -0.07223445 -0.12797076 -0.051654037
0.13244191 0.034659725 0.033915143 0.060771365 0.1502296 0.13514958 -0.053434186 0.17475139
0.15348797 0.15234537 0.08540139 -0.0097332485 -0.078504436 -0.01065029 0.016343186 -0.06867365
0.038757995 -0.0016287493 -0.058244687 -0.053579614 -0.03993379 -0.017219502 -0.09168469 -0.043231595
0.057536136 0.032721613 -0.043449 -0.066947386 -0.03354852 -0.02381584 -0.0040909224 -0.029921412
-0.14414881 0.02346269 -0.040358532 0.09120874 -0.08663364 -0.074823156 -0.023171118 0.053729754
0.19334522 0.15214013 0.25982067 0.095280945 0.06258 -0.0467752 -0.030537078 0.11416392
-0.011626727 0.10497677 0.10132447 0.1441851 -0.00814048 -0.024087008 -0.020555053 0.009620747
0.06299886 0.099841826 0.13077761 -0.071763866 0.14426869 0.14105514 0.16169061 0.032568455
0.023518885 -0.047884576 -0.05349853 -0.09536245 -0.05455954 -0.03363516 0.07822806 0.0460731
0.012386151 -0.026724903 0.025927583 -0.05034004 -0.02154337 0.0014618046 0.03675285 0.11745194
-0.04275841 -0.030762997 -0.039957102 -0.050374355 -0.059934746 -0.014496419 0.035698436 -0.06287999
0.060984433 -0.009175015 -0.12869799 -0.016157763 0.041144185 -0.023650067 0.017276263 0.06342044
0.02678714 0.047980465 0.025679488 0.10294339 -0.03549874 0.046681255 -0.092189275 -0.04519189
00000000: e769 5a3c cfed f0bd 7576 423d f4f2 153d
00000010: b5d4 093d e378 983c 723b 37bd 9c1f ad3c
00000020: bed1 f9bc 270d 3fbd 0258 a93d 979e 563d
00000030: 6ead 52bd 2e4d a0bd 2b8b 1a3d 5fc8 2cbd
00000040: 3189 6fbd 5418 99bc 80f9 223d bd9f b13d
00000050: 9836 41bd 98bd 3ebd 18c0 14be e9ad 9a3c
00000060: a6f5 77bd 8310 173d 181c 02bc c619 083d
00000070: b92a 05bd 8410 fcbd 6209 efbb 57f6 383e
00000080: cc7e 313e 8ae8 833c 9efc ae3c e423 883a
00000090: ac69 b43b affa 82bd 7946 46be 8875 86bc
000000a0: 2c1a 083e c8d2 853e 27a8 21bd 40fb 34bd
000000b0: 78ed a03d c882 ec3b 8ff5 e2bd fc5c c53c
000000c0: 938a 5f3e d5aa 4a3e 3de4 c13e 6689 863e
000000d0: 8a66 123e 4be2 963c 8c12 adbc 8dcd a6bd
000000e0: eb15 d03c edcd c03d 86a7 2a3e bde8 783e
000000f0: cbbf 753d 921b f1ba c05d a93c 2a90 49bc
00000100: e4d4 393c f7ca b7bb 7745 0f3d c131 053e
00000110: ced8 ab3d 9e70 49bd 216b 8ebd 6aac 573c
00000120: 5662 c03c 24c2 afbc e5f4 d4bd a009 1fbd
00000130: 6522 99bd ba24 82be a133 e9bc 81cd ecba
00000140: d267 e7bd bb56 c4bc a59b 6abd b621 ba3d
00000150: cb3e 923d 1417 333d dbfa 8c3d 81af 133d
00000160: afa2 513d 8ac1 613d d3cc c1bc 2232 363c
00000170: 0c61 1e3e c05e ce3c 47c7 64bd 487f c33d
00000180: 6186 ae3b 03cf 383d a932 423d 3167 9b3c
00000190: f0eb 603d ec0b 053e 3367 78bd 471a 4fbe
000001a0: e153 1ebe 9325 11be 2242 033e 7924 f33d
000001b0: eee6 373d 5249 8c3d 29c8 c9bd 8ddd 6bbd
000001c0: 4e35 b73c c41c 523d 138d 8bbe e553 bcbd
000001d0: f666 ee3d 210f 6a3d 8296 b33d aa94 d7bd
000001e0: 7a52 c5bd 7429 62bd fbec eabd f112 e1be
000001f0: 6ca9 aebe cf17 613d 1d1e 093b 66ba 8dbd
00000200: d955 4c3b f6a7 05bd dfdd 97be 5395 60be
00000210: e089 1bbe 1abe 44be 8ce4 a2bc 928a 083d
00000220: c26a 94bd 87aa 103c 334e ffbd 8793 82be
00000230: 9efb 21be 455e 8ebe 0b46 90be d430 6d3d
00000240: e238 733d 868b ac3d 7c78 273d fa16 013d
00000250: 3065 03bd a8ef 93bd c40a 03be 2f93 53bd
00000260: da9e 073e 5bf7 0d3d 9bea 0a3d 65eb 783d
00000270: cad5 193e a764 0a3e cedd 5abd 07f2 323e
00000280: f32b 1d3e 6d00 1c3e ede6 ae3d 3478 1fbc
00000290: efc6 a0bd 8e7e 2ebc 25e2 853c c5a4 8cbd
000002a0: b4c0 1e3d c27b d5ba fb91 6ebd 4c76 5bbd
000002b0: 9d91 23bd ea0f 8dbc 2fc5 bbbd 9d13 31bd
000002c0: 03ab 6b3d 1907 063d 94f7 31bd b61b 89bd
000002d0: 2c6a 09bd 7019 c3bc 250d 86bb c01d f5bc
000002e0: bf9b 13be d434 c03c fd4e 25bd a6cb ba3d
000002f0: fa6c b1bd e23c 99bd 5bd1 bdbc bb13 5c3d
00000300: 4afc 453e 9fca 1b3e 3707 853e a822 c33d
00000310: f129 803d 5a97 3fbd e528 fabc c6ce e93d
00000320: 077e 3ebc 10fe d63d 3483 cf3d 42a5 133e
00000330: a65f 05bc 1e52 c5bc 1263 a8bc 56a0 1d3c
00000340: 8c05 813d df79 cc3d 91ea 053e eff8 92bd
00000350: 2cbb 133e c270 103e 3992 253e 8066 053d
00000360: adaa c03c 9e22 44bd 4621 5bbd 634d c3bd
00000370: d379 5fbd 06c5 09bd 0836 a03d 26b7 3c3d
00000380: 48ef 4a3c 2fee dabc 1566 d43c 5c31 4ebd
00000390: b97b b0bc 069a bf3a 288a 163d a58a f03d
000003a0: 7123 2fbd ae02 fcbc 0faa 23bd 5755 4ebd
000003b0: 237e 75bd 6382 6dbc 8638 123d 39c7 80bd
000003c0: d0ca 793d cd52 16bc 68c9 03be 495d 84bc
000003d0: ce86 283d c9bd c1bc f386 8d3c 93e2 813d
000003e0: b470 db3c 2a87 443d ca5d d23c fcd3 d23d
000003f0: 2067 11bd d834 3f3d bbcd bcbd 221b 39bd

conv1.conv2d.bias f4 [8]
0.041672707 -0.023663683 -0.003787513 0.1539835 0.031026307 0.05004363 -0.039724734 -0.16310553
00000000: 00b1 2a3d 57da c1bc ec37 78bb daad 1d3e
00000010: e22a fe3c 8dfa 4c3d 67b6 22bd 2305 27be

in1.weight f4 [8]
0.48841223 0.5584013 0.64708054 0.4297477 0.64189595 0.4462128 0.32984784 0.6441618
00000000: 2b11 fa3e 63f3 0e3f 12a7 253f e407 dc3e
00000010: 4b53 243f 0176 e43e d1e1 a83e cae7 243f

in1.bias f4 [8]
1.915875 -0.10278162 2.1384563 0.19059318 1.09916 0.20147143 0.71748024 2.322497
00000000: 643b f53f 2c7f d2bd 78dc 0840 dc2a 433e
00000010: 46b1 8c3f 874e 4e3e c9ac 373f caa3 1440

conv2.conv2d.weight f4 [16, 8, 3, 3]
0.11720751 0.03819311 0.056813903 -0.0537432 0.079866625 0.027149595 -0.087579735 -0.022688538
0.008463454 -0.032017943 0.049815934 -0.13105327 0.0032306581 0.09984839 -0.06735855 0.17825337
0.14560121 0.036502305 0.029220505 -0.07106314 -0.058881193 0.12736906 0.096269414 -0.062308516
-0.07985659 -0.16611843 -0.13274057 -0.50391334 -0.23871408 0.12431116 -0.54789174 -0.16999385
0.15011813 -0.31130338 -0.16127992 0.14153074 0.2717191 0.2187618 0.16204737 0.16920319
0.09069237 -0.048150364 0.08784427 -0.053396855 -0.14923258 -0.15418208 -0.123021945 -0.14733675
-0.14572087 0.028094795 -0.04389089 -0.18550064 0.12461064 -0.038128577 -0.19863406 -0.2924461
-0.14528832 -0.12992376 -0.22455162 -0.118542895 -0.20366555 -0.21588978 -0.14651346 -0.061785612
0.07460357 -0.039059177 -0.019555798 -0.034621976 -0.17322548 0.06831692 -0.09211729 -0.1971656
0.17649494 -0.08415948 -0.29082295 0.16573611 -0.044592038 -0.08767357 -0.009616466 0.013791284
-0.044816673 -0.20143424 -0.20232874 -0.16580588 -0.021534145 -0.14001171 -0.022317547 -0.4067894
-0.2068744 -0.2448109 0.06454492 0.06806998 -0.06826327 -0.046441667 -0.0013031871 -0.11661691
0.07456624 0.040267177 -0.035360623 0.256446 0.23262677 0.27009472 0.0476274 0.00032115437
0.0924556 0.010898971 -0.20835209 -0.079826996 -0.17468962 -0.22384241 0.0948623 -0.14130126
-0.0035016036 0.16844523 -0.17913468 -0.09223145 0.24446987 0.15589146 -0.032296017 -0.040083878
0.07228945 -0.042068545 -0.18102993 -0.06664008 -0.1409907 -0.2794951 -0.29141188 -0.3770986
-0.0096181575 -0.27016488 -0.16328828 0.0220679 -0.027330747 -0.1150489 0.18198386 0.023431908
-0.11667255 -0.057781268 -0.18806313 0.041269574 0.09414487 -0.14034942 0.15496598 -0.0011635853
0.048962615 -0.13569845 -0.074538775 0.08806501 0.20875816 0.068672046 0.092074655 0.29983792
-0.05507943 0.12768526 0.05169829 0.21229798 -0.016705815 0.040773675 0.038176585 0.042320527
0.042689785 0.08559461 -0.15344614 -0.19005981 -0.20151325 -0.021087801 0.11465848 0.09872785
0.11675085 0.39578646 0.064758405 0.112027384 0.13367541 0.20032822 0.14444196 0.13737677
0.08078229 0.13147399 -0.09028915 0.03848189 0.1086496 0.10467281 0.2959646 0.11647137
0.106735535 0.07686108 0.25973362 -0.21090677 -0.1865104 0.0780356 0.14485794 0.15424946
0.089224376 0.082502455 0.069621034 0.09142674 0.3311813 0.29623178 -0.008132336 0.08672241
0.056693397 -0.040262286 0.0035059433 -0.08603903 0.0712774 0.119829364 -0.10374367 -0.14418583
0.08429952 -0.08423457 0.020894058 0.062455766 0.032468885 0.051507957 -0.14065723 -0.15934107
0.15053223 0.11587398 0.0677394 -0.14984803 0.021174219 -0.10582583 0.029292151 -0.19991755
0.029922113 0.11111175 -0.019932795 0.16695201 -0.1051567 -0.111278094 -0.0011850896 0.19500668
0.0057985024 -0.011371108 0.16796839 0.3608781 0.23512726 -0.064560615 -0.14934532 -0.16289932
-0.037960548 -0.08229421 -0.11726887 0.048425533 0.057345767 -0.03265962 -0.14023797 0.091180615
-0.023039132 -0.27324685 -0.002435193 0.05601999 -0.10558365 0.035221502 -0.020320421 -0.03336471
00000000: 7e0a f03d 6170 1c3d b2b5 683d d421 5cbd
00000010: 1d91 a33d d468 de3c 015d b3bd 50dd b9bc
00000020: 4daa 0a3c 3f25 03bd cb0b 4c3d d432 06be
00000030: 73b9 533b 507d cc3d 48f3 89bd 0d88 363e
00000040: 7c18 153e 7183 153d d75f ef3c 8d89 91bd
00000050: 682d 71bd 096d 023e e628 c53d 3737 7fbd
00000060: da8b a3bd f31a 2abe 25ed 07be 7700 01bf
00000070: 7771 74be d996 fe3d a242 0cbf de12 2ebe
00000080: 91b8 193e 2863 9fbe 9026 25be 6fed 103e
00000090: c41e 8b3e 1803 603e bfef 253e 9a43 2d3e
000000a0: ecbc b93d 5139 45bd b2e7 b33d a9b6 5abd
000000b0: 6dd0 18be e8e1 1dbe eef2 fbbd 72df 16be
000000c0: da37 15be 0e27 e63c efc6 33bd e1f3 3dbe
000000d0: dd33 ff3d b62c 1cbd ba66 4bbe 7fbb 95be
000000e0: 76c6 14be bc0a 05be dcf0 65be 9ec6 f2bd
000000f0: b48d 50be 3612 5dbe a007 16be e912 7dbd
00000100: c2c9 983d 84fc 1fbd 7b33 a0bc c6cf 0dbd
00000110: 0562 31be bee9 8b3d fda7 bcbd c7e5 49be
00000120: 17bb 343e ce5b acbd bfe6 94be bab6 293e
00000130: 24a6 36bd 338e b3bd 628e 1dbc d6f4 613c
00000140: b091 37bd c744 4ebe 442f 4fbe 04c9 29be
00000150: 6068 b0bc 3b5f 0fbe 4ad3 b6bc b346 d0be
00000160: e2d6 53be b5af 7abe 2130 843d 4668 8b3d
00000170: 9dcd 8bbd 9e39 3ebd b4cf aaba d9d4 eebd
00000180: 2fb6 983d 32ef 243d 4dd6 10bd e44c 833e
00000190: b635 6e3e db49 8a3e f314 433d 9c60 a839
000001a0: 5d59 bd3d 9991 323c 405a 55be 567c a3bd
000001b0: d6e1 32be f236 65be 2a47 c23d 47b1 10be
000001c0: 297b 65bb e87c 2c3e 156f 37be d8e3 bcbd
000001d0: 4f56 7a3e 03a2 1f3e d448 04bd fe2e 24bd
000001e0: 7e0c 943d 1150 2cbd e95f 39be 987a 88bd
000001f0: de5f 10be fb19 8fbe f033 95be 1113 c1be
00000200: 7a95 1dbc 0d53 8abe 0b35 27be bec7 b43c
00000210: bbe4 dfbc c29e ebbd fa59 3a3e 46f4 bf3c
00000220: 05f2 eebd 0dac 6cbd 9f93 40be 490a 293d
00000230: 07cf c03d c2b7 0fbe 67af 1e3e 7283 98ba
00000240: 068d 483d 89f4 0abe c9a7 98bd 6e5b b43d
00000250: b3c4 553e eea3 8c3d a391 bc3d 5b84 993e
00000260: f89a 61bd edbf 023e 96c1 533d a464 593e
00000270: a2da 88bc 4c02 273d 0d5f 1c3d 4a58 2d3d
00000280: 7cdb 2e3d 3a4c af3d fc20 1dbe 0a9f 42be
00000290: 7d59 4ebe 53c0 acbc 11d2 ea3d d431 ca3d
000002a0: 121b ef3d 86a4 ca3e 0ea0 843d 9d6e e53d
000002b0: 35e2 083e d722 4d3e 98e8 133e 7fac 0c3e
000002c0: 2f71 a53d 1ea1 063e 85e9 b8bd 309f 1d3d
000002d0: ae83 de3d b35e d63d ac88 973e 8b88 ee3d
000002e0: 2998 da3d 5869 9d3d cefb 843e f2f7 57be
000002f0: 95fc 3ebe 21d1 9f3d a455 143e 92f3 1d3e
00000300: 45bb b63d 0cf7 a83d 7995 8e3d f13d bb3d
00000310: 9890 a93e b1ab 973e 7d3d 05bc 859b b13d
00000320: 5637 683d 11ea 24bd f8c3 653b 3b35 b0bd
00000330: e3f9 913d 1969 f53d 9077 d4bd 73a5 13be
00000340: 3aa5 ac3d 2d83 acbd 042a ab3c 9ed1 7f3d
00000350: 18fe 043d 02fa 523d 7308 10be 4e2a 23be
00000360: 1f25 1a3e 564f ed3d f4ba 8a3d c371 19be
00000370: 8e75 ad3c 36bb d8bd 18f6 ef3c 30b7 4cbe
00000380: 381f f53c 8f8e e33d 1a4a a3bc 78f5 2a3e
00000390: 655c d7bd c5e5 e3bd 0255 9bba d5af 473e
000003a0: 5d01 be3b e24d 3abc e8ff 2b3e 04c5 b83e
000003b0: 33c5 703e 5b38 84bd fbed 18be 14cf 26be
000003c0: 857c 1bbd de89 a8bd a92a f0bd da59 463d
000003d0: 65e3 6a3d 18c6 05bd 8b9a 0fbe e7bc ba3d
000003e0: 90bc bcbc 03e7 8bbe c297 1fbb 3875 653d
000003f0: 3e3c d8bd 6c44 103d 0377 a6bc 6fa9 08bd

conv2.conv2d.bias f4 [16]
-0.18654644 0.29007357 -0.013060887 0.1325892 -0.30307406 0.050934505 -0.118724026 0.08698418
0.010804789 -0.054262094 0.22168157 -0.053329244 -0.21300271 0.127533 -0.07586034 0.119504884
00000000: 0806 3fbe 8684 943e 55fd 55bc 77c5 073e
00000010: 862c 9bbe b3a0 503d 9525 f3bd c324 b23d
00000020: 9206 313c ee41 5ebd 7e00 633e c46f 5abd
00000030: 621d 5abe 0398 023e aa5c 9bbd fabe f43d

in2.weight f4 [16]
0.19592798 0.26268005 0.34719652 0.5634116 0.28073293 0.34239465 0.4532626 0.27628112
0.724802 0.468386 0.41621482 0.2947206 0.46467885 0.28637958 0.22673588 0.42408425
00000000: 58a1 483e 007e 863e bec3 b13e be3b 103f
00000010: 3abc 8f3e 5a4e af3e 0912 e83e b874 8d3e
00000020: a08c 393f 4ad0 ef3e 1c1a d53e 9ee5 963e
00000030: 63ea ed3e 58a0 923e 732d 683e 9221 d93e

in2.bias f4 [16]
0.4524873 0.076225415 0.021257013 -0.1983026 0.3430948 0.31946674 0.12569898 1.716784
0.073583744 -0.1264153 0.12453789 0.08625277 0.227542 0.41411704 1.4225861 0.11303207
00000000: 6aac e73e 121c 9c3d 3023 ae3c d60f 4bbe
00000010: 1faa af3e 2591 a33e 3cb7 003e 94bf db3f
00000020: 13b3 963d 0373 01be b90d ff3d 4ba5 b03d
00000030: c500 693e 2607 d43e 4d17 b63f 5c7d e73d

conv3.conv2d.weight f4 [32, 16, 3, 3]
0.041098554 0.074959226 -0.0031590504 0.017220676 0.16295984 0.17424707 -0.010184637 0.10692285
0.1262501 -0.010702895 0.10983022 0.13983782 -0.035747763 0.017192306 0.2315282 -0.11532778
-0.11446558 0.055812407 0.037138052 -0.055151347 -0.05599715 -0.017108642 -0.17304426 0.04928042
0.09143424 0.115037896 -0.015322418 -0.0014411355 0.0094838375 -0.097957134 0.11520764 0.21056044
0.07305777 0.18615048 0.088285595 0.13881075 0.09223168 0.01891853 -0.07107298 0.016362479
0.017279623 0.1586278 -0.26945817 -0.07776414 0.06475014 -0.22834086 -0.09039745 -0.14608616
-0.23055105 -0.108791225 0.020479491 0.11652613 -0.1089572 -0.108491026 -0.21029095 -0.42668793
-0.31774113 0.022427678 -0.43461734 -0.5627902 0.13713156 0.05760481 -0.009637369 0.024497943
0.02498094 -0.000101674836 -0.15325765 -0.0734146 -0.13288781 0.06810094 0.052751854 -0.042660438
0.07150834 -0.03304503 -0.17953494 0.052368373 0.01671394 0.014803007 -0.16078156 -0.08142859
-0.037813928 -0.07352478 -0.022106897 -0.13998628 0.07511706 0.13946944 0.13594292 -0.077212356
0.029226774 0.06527239 -0.62026036 -0.20276979 -0.25080398 -0.17780492 -0.16672772 -0.15908875
-0.06379166 -0.035519417 -0.16062492 0.025914947 -0.039990988 0.016550193 0.07824275 0.053338587
0.07526504 -0.12166596 0.003440916 -0.034350757 -0.04176679 -0.1544758 -0.05551792 -0.1500775
0.06706413 0.2034865 -0.10663926 -0.1689231 -0.21339299 -0.092118956 0.008233722 -0.16493304
-0.22462822 -0.18575735 0.031571295 0.1330361 -0.17641449 -0.14229026 0.04233416 0.016978309
-0.021118142 -0.04552502 0.01071319 0.09256469 -0.059135348 0.00090062316 -0.036782246 0.04930416
-0.1323789 -0.21714741 -0.07620496 0.061165374 0.04429741 -0.20034419 -0.24351129 -0.22128575
0.032689746 0.089990154 0.18875416 0.01597742 0.14510791 0.42922923 0.09595778 0.08131856
0.2433679 -0.10256279 -0.05007705 0.22155836 -0.16610612 -0.14258134 -0.1657622 -0.16582143
-0.20386344 -0.4075304 0.018750576 -0.030646475 -0.11063967 0.00096837373 -0.10336047 -0.075153336
-0.08227001 -0.18294004 -0.14087828 -0.018610327 -0.028342802 -0.02080364 -0.046810944 -0.039449904
0.010796534 -0.065840155 -0.07689314 0.0033169882 -0.24961697 -0.1983588 -0.26649877 -0.2857793
-0.17386417 -0.08968377 -0.12176075 -0.17363957 -0.060399875 -0.07503901 0.07947321 -0.23793568
0.2239764 0.33797756 -0.092305414 0.37355587 0.55984 0.0789638 0.08283436 -0.095876694
0.033383038 0.12834345 -0.08967227 0.048828408 0.2568308 0.1765891 0.1708701 0.056204177
-0.0847973 -0.11169801 0.09398386 -0.016848383 -0.014286939 0.029921679 0.10519988 -0.07514583
0.24155766 0.07587308 -0.04102965 -0.098990954 -0.053358987 -0.014212806 -0.13121068 -0.059129056
-0.037410665 -0.019144548 -0.05850152 -0.09119587 -0.12814382 -0.14450908 -0.07710659 -0.06279394
-0.07779363 -0.01377406 0.12476613 0.15608719 0.07969489 0.07131888 0.086055525 0.018840788
-0.10439344 -0.18862976 -0.2119602 -0.2129686 0.10517848 -0.060650546 -0.19000782 -0.1014338
0.0046814326 -0.18449709 -0.10180825 -0.21138385 -0.19031757 -0.14023726 0.058574654 -0.054037817
00000000: f556 283d 3984 993d 1208 4fbb 6012 8d3c
00000010: f2de 263e d36d 323e 77dd 26bc 5efa da3d
00000020: b547 013e 325b 2fbc abee e03d a531 0f3e
00000030: 3f6c 12bd e1d6 8c3c ba15 6d3e f930 ecbd
00000040: ee6c eabd 8d9b 643d 121e 183d 61e6 61bd
00000050: 445d 65bd 6c27 8cbc 8432 31be 44da 493d
00000060: e041 bb3d fd98 eb3d e10a 7bbc 7ce4 bcba
00000070: 1962 1b3c c09d c8bd fcf1 eb3d 289d 573e
00000080: 509f 953d 3b9e 3e3e 14cf b43d 6824 0e3e
00000090: f7e3 bc3d 08fb 9a3c b68e 91bd 9b0a 863c
000000a0: ff8d 8d3c 536f 223e 6cf6 89be ce42 9fbd
000000b0: b99b 843d 30d2 69be 4c22 b9bd 9c97 15be
000000c0: 9315 6cbe efcd debd 9bc4 a73c 40a5 ee3d
000000d0: f424 dfbd 8b30 debd 8356 57be d776 dabe
000000e0: f7ae a2be 40ba b73c 2a86 debe 0513 10bf
000000f0: 376c 0c3e 05f3 6b3d 0ee6 1dbc e9af c83c
00000100: d4a4 cc3c 433a d5b8 93ef 1cbe 655a 96bd
00000110: be13 08be 8178 8b3d 5412 583d b6bc 2ebd
00000120: f772 923d 3a5a 07bd 02d8 37be 3880 563d
00000130: aceb 883c 5088 723c eca3 24be 08c4 a6bd
00000140: c7e2 1abd 2994 96bd 8619 b5bc 9058 0fbe
00000150: f9d6 993d 14d1 0e3e 9f34 0b3e 8321 9ebd
00000160: fd6c ef3c 88ad 853d 62c9 1ebf e2a2 4fbe
00000170: 6169 80be 7e12 36be acba 2abe 29e8 22be
00000180: 34a5 82bd cf7c 11bd dc7a 24be 954b d43c
00000190: 97cd 23bd 4594 873c bc3d a03d 9079 5a3d
000001a0: 8f24 9a3d 012c f9bd fe80 613b 61b3 0cbd
000001b0: a713 2bbd e72e 1ebe c266 63bd ebad 19be
000001c0: eb58 893d c45e 503e af65 dabd 2dfa 2cbe
000001d0: b183 5abe dda8 bcbd bce6 063c 35e4 28be
000001e0: f104 66be 2d37 3ebe e750 013d 9e3a 083e
000001f0: 00a6 34be 8ab4 11be 9666 2d3d 1816 8b3c
00000200: f4ff acbc 7278 3abd 6086 2f3c 8e92 bd3d
00000210: e837 72bd cc17 6c3a fba8 16bd 29f3 493d
00000220: 568e 07be e45b 5ebe 5911 9cbd 8b88 7a3d
00000230: 3371 353d 0727 4dbe 065b 79be bb98 62be
00000240: afe5 053d c24c b83d c548 413e 14e3 823c
00000250: 2b97 143e efc3 db3e 8385 c43d 588a a63d
00000260: 6f35 793e 710c d2bd 981d 4dbd 32e0 623e
00000270: b917 2abe d800 12be 91bd 29be 18cd 29be
00000280: 94c1 50be d3a7 d0be cf9a 993c 510e fbbc
00000290: 0d97 e2bd 76da 7d3a a7ae d3bd fee9 99bd
000002a0: 2e7d a8bd a254 3bbe 6542 10be af74 98bc
000002b0: 2a2f e8bc 656c aabc d5bc 3fbd 3996 21bd
000002c0: f2e3 303c 34d7 86bd 277a 9dbd d461 593b
000002d0: 979b 7fbe 921e 4bbe 8772 88be aa51 92be
000002e0: 7309 32be 20ac b7bd b35d f9bd 92ce 31be
000002f0: dc65 77bd 0dae 99bd dac2 a23d 69a5 73be
00000300: 125a 653e 650b ad3e 9f0a bdbd b742 bf3e
00000310: ad51 0f3f c6b7 a13d 10a5 a93d 005b c4bd
00000320: a7bc 083d 776c 033e 18a6 b7bd 4c00 483d
00000330: 547f 833e c6d3 343e 92f8 2e3e 5a36 663d
00000340: 35aa adbd edc1 e4bd 9c7a c03d 9f05 8abc
00000350: c413 6abc 4f1e f53c 0973 d73d 0fe6 99bd
00000360: e45a 773e 5863 9b3d b50e 28bd c5bb cabd
00000370: f48e 5abd d4dc 68bc 185c 06be 4f31 72bd
00000380: ed3b 19bd 07d5 9cbc 4a9f 6fbd e6c4 babd
00000390: 2238 03be 30fa 13be 0fea 9dbd 1c9a 80bd
000003a0: 4452 9fbd 98ac 61bc 6285 ff3d 52d5 1f3e
000003b0: 1337 a33d a20f 923d e13d b03d ff57 9a3c
000003c0: 3acc d5bd 2928 41be 180c 59be 7114 5abe
000003d0: d167 d73d b56c 78bd 6991 42be 86bc cfbd
000003e0: b466 993b ceec 3cbe d880 d0bd 0275 58be
000003f0: 9ce2 42be 5b9a 0fbe faeb 6f3d c256 5dbd

conv3.conv2d.bias f4 [32]
0.04567092 -0.05896546 0.12220298 0.051652845 -0.12611954 0.010071031 0.0749888 -0.010457282
-0.13690545 0.09610045 -0.01637824 -0.18852964 -0.13988005 0.07745241 0.036245305 -0.153404
0.1070945 0.24559109 0.13880071 -0.07237859 0.069366686 -0.17624553 -0.15111418 0.08484709
0.059257522 -0.28821084 0.048906416 -0.032831337 0.04505472 -0.11412474 -0.034010705 -0.09118238
00000000: 6e11 3b3d c485 71bd 8e45 fa3d ef91 533d
00000010: 7b25 01be f700 253c ba93 993d 0555 2bbc
00000020: f130 0cbe 50d0 c43d a92b 86bc ea0d 41be
00000030: b73c 0fbe 5e9f 9e3d f575 143d f015 1dbe
00000040: 5c54 db3d 3b7c 7b3e c621 0e3e 3a3b 94bd
00000050: 1f10 8e3d b579 34be adbd 1abe 50c4 ad3d
00000060: 04b8 723d 5f90 93be 1852 483d 277a 06bd
00000070: 4c8b 383d 3bba e9bd cf4e 0bbd d4bd babd

in3.weight f4 [32]
0.4202922 0.3586512 0.34059766 0.16545574 0.34589046 0.23850647 0.31921414 0.14495063
0.29740006 0.3565444 0.41831523 0.44357246 0.38003966 0.29203817 0.39269507 0.5758852
0.3556246 0.30575085 0.4103386 0.20031309 0.2431533 0.441866 0.23939428 0.54678625
0.38585073 0.20143145 0.3320582 0.16396731 0.18665838 0.38479462 0.37578797 0.37663138
00000000: 8a30 d73e 21a1 b73e d162 ae3e 3b6d 293e
00000010: 8e18 b13e 0a3b 743e 0970 a33e f06d 143e
00000020: d244 983e fd8c b63e 6a2d d63e ee1b e33e
00000030: 8f94 c23e 0786 953e 540f c93e 366d 133f
00000040: 6d14 b63e 608b 9c3e e717 d23e e01e 4d3e
00000050: 2efd 783e 433c e23e c623 753e 2ffa 0b3f
00000060: 3a8e c53e 0c44 4e3e 8803 aa3e 0ce7 273e
00000070: 6023 3f3e cd03 c53e 4867 c03e d4d5 c03e

in3.bias f4 [32]
-0.11805685 -0.072504364 0.04993467 0.073254324 0.015788522 -0.025556443 0.11172796 0.09785631
0.014710011 -0.053979248 0.00057969696 -0.04956308 -0.012040468 0.10045233 -0.04478817 -0.16372226
-0.11084889 0.054379903 -0.06993185 -0.21494399 0.30035195 -0.07005423 0.30186084 -0.18030034
-0.028463664 -0.0023032492 0.13735944 0.06706208 0.04639916 -0.0629544 0.07407143 0.005269251
00000000: cac7 f1bd 2b7d 94bd 4c88 4c3d 5d06 963d
00000010: ee56 813c bf5b d1bc a1d1 e43d e468 c83d
00000020: 4202 713c 5819 5dbd cef6 173a a802 4bbd
00000030: 6245 45bc f4b9 cd3d cd73 37bd cfa6 27be
00000040: be04 e3bd 76bd 5e3d 6e38 8fbd 471a 5cbe
00000050: bbc7 993e 9878 8fbd 818d 9a3e a7a0 38be
00000060: a12c e9bc 1cf2 16bb f4a7 0c3e d857 893d
00000070: 0c0d 3e3d 3dee 80bd c3b2 973d aea9 ac3b

resnets.0.conv1.conv2d.weight f4 [32, 32, 3, 3]
0.023918938 0.06977229 -0.39074352 0.10166791 -0.117848486 -0.058163747 -0.16855237 -0.20511527
0.2241858 0.027420552 0.028693188 0.010437549 -0.001802548 0.014217502 -0.0729818 -0.11994257
-0.071285166 -0.021670414 0.06470664 0.010032146 -0.022135384 0.068198115 -0.03126174 -0.12671044
0.05665467 -0.015923718 0.07961936 -0.047109604 0.009969041 0.0009306561 -0.083203696 -0.072667286
-0.08327648 -0.08445526 -0.06674121 -0.015191616 0.25907722 0.12723404 -0.19941558 0.20831467
-0.025063002 0.10334648 -0.10145034 0.1012385 0.25057727 0.030441951 -0.12967484 -0.26668736
0.044045504 -0.13774638 0.14724764 -0.07417631 0.027935447 0.14992943 -0.10517999 0.0209337
-0.053497016 -0.08523733 -0.07774344 -0.012548244 0.18701215 -0.17910862 -0.00782665 -0.002371863
-0.095616765 -0.17260389 0.0058032232 -0.04966958 0.062708795 0.077528015 -0.0809651 0.09812305
0.27581677 0.16949497 -0.46721444 0.108610354 -0.12046412 0.109525874 -0.18304467 -0.08270539
0.2631206 -0.11231429 0.18026307 0.22964406 -0.15693912 0.03574647 0.035041686 0.08185955
-0.013439464 -0.024623947 0.14434393 -0.023262912 -0.1532145 0.11010533 -0.054155365 0.07603512
-0.004143325 -0.07744 0.18911433 0.050536923 -0.060894802 -0.26034388 -0.062190693 -0.23174348
0.18779233 -0.40867853 0.04967415 0.3068256 -0.009574427 -0.111142464 -0.12489304 -0.102819584
-0.16881573 -0.04646616 -0.19193342 -0.03719811 -0.13633184 -0.015911514 0.15619127 0.013602723
0.088199705 0.19585776 -0.20126458 0.2991616 -0.032747976 0.090180576 0.016216073 -0.036796264
-0.075338155 0.023581015 -0.015457879 -0.042569388 -0.051715788 -0.00052908325 0.099793896 0.23487347
0.12693568 -0.19951537 0.06604752 -0.016695036 0.04209177 -0.39989743 -0.021855183 0.20012397
-0.040718917 0.10062181 -0.26882815 0.10795778 -0.018847886 -0.1426301 0.1762813 -0.40359306
0.07407705 -0.032117415 0.022214947 -0.04368964 -0.10011086 -0.0049543744 -0.082971774 0.09932822
-0.09807388 -0.1073521 -0.04844852 -0.27594608 0.28534272 -0.2300534 0.048801716 0.17082436
-0.06121268 0.15784226 0.13204964 -0.025030982 -0.20696525 0.1236845 -0.10197645 -0.09698364
-0.09683992 -0.029375786 0.047802344 0.054859757 -0.02905108 0.050225854 0.060531855 0.042593263
-0.009627547 -0.015935581 -0.0016545511 0.00012526812 0.014014894 0.1397089 -0.13188295 -0.41324377
0.031592026 -0.47977588 0.04244362 -0.30559617 -0.17043279 0.10732374 0.05101449 -0.036297947
-0.07449735 0.003715894 -0.073792696 0.056152754 -0.109551154 0.010357206 0.079185225 -0.34153694
0.07355549 0.32043692 -0.13170844 0.060351618 -0.08198912 0.4328012 0.15594186 -0.3942549
0.0310094 -0.024936903 0.08786699 -0.092785284 -0.10809152 -0.08108373 0.056960825 0.054237433
-0.14326684 -0.03996773 0.15344943 0.0170242 -0.12107669 0.0075525753 -0.05327779 -0.10166219
-0.29951766 0.004954722 -0.035244156 -0.09386206 0.052083414 -0.017605236 0.005742936 -0.111532494
0.028412193 0.042472698 -0.045909736 0.010123115 0.08515549 0.0075485855 0.0056203054 -0.0055845496
0.08986883 0.119490966 -0.040283594 0.19785151 0.059982684 -0.08477373 0.08763523 -0.0068427105
00000000: a6f1 c33c c6e4 8e3d 890f c8be 4437 d03d
00000010: 8c5a f1bd 1c3d 6ebd fe98 2cbe bd09 52be
00000020: f690 653e 11a1 e03c fa0d eb3c 4102 2b3c
00000030: 7943 ecba 87f0 683c 7b77 95bd 73a4 f5bd
00000040: f5fd 91bd 2786 b1bc ea84 843d df5d 243c
00000050: 4455 b5bc 74ab 8b3d 4f0c 00bd 62c0 01be
00000060: ba0e 683d 7572 82bc 7a0f a33d 00f6 40bd
00000070: 3055 233c 46f7 733a b366 aabd 96d2 94bd
00000080: dc8c aabd e1f6 acbd 9eaf 88bd 41e6 78bc
00000090: c5a5 843e a449 023e 9933 4cbe 7150 553e
000000a0: ed50 cdbc 52a7 d33d 32c5 cfbd 2156 cf3d
000000b0: aa4b 803e 6661 f93c 7bc9 04be 3f8b 88be
000000c0: 0f69 343d 630d 0dbe 16c8 163e c0e9 97bd
000000d0: e1d8 e43c 1a87 193e 9b68 d7bd 277d ab3c
000000e0: b01f 5bbd e990 aebd f437 9fbd 2697 4dbc
000000f0: 1d80 3f3e 4068 37be 593b 00bc 4271 1bbb
00000100: b9d2 c3bd 13bf 30be f728 be3b 5472 4bbd
00000110: 786d 803d 02c7 9e3d 08d1 a5bd bdf4 c83d
00000120: db37 8d3e 1790 2d3e bb36 efbe 1b6f de3d
00000130: e4b5 f6bd 1a4f e03d 1070 3bbe 7261 a9bd
00000140: beb7 863e 0905 e6bd e296 383e d027 6b3e
00000150: a6b4 20be e46a 123d df87 0f3d fba5 a73d
00000160: 3331 5cbc 29b8 c9bc e5ce 133e dd91 bebc
00000170: 43e4 1cbe e77e e13d 04d2 5dbd 4db8 9b3d
00000180: bbc4 87bb dd98 9ebd 30a7 413e ceff 4e3d
00000190: d46c 79bd cb4b 85be abbb 7ebd 2a4e 6dbe
000001a0: a24c 403e 503e d1be 1f77 4b3d 3f18 9d3e
000001b0: 0fde 1cbc a99e e3bd ecc7 ffbd 1393 d2bd
000001c0: 08de 2cbe 4d53 3ebd 328a 44be 0c5d 18bd
000001d0: 939a 0bbe dd58 82bc 9bf0 1f3e f5dd 5e3c
000001e0: 0ca2 b43d f08e 483e 4d18 4ebe b62b 993e
000001f0: be22 06bd 98b0 b83d 92d7 843c aeb7 16bd
00000200: e44a 9abd f92c c13c 0b43 7dbc 3d5d 2ebd
00000210: efd3 53bd 2db2 0aba be60 cc3d ac82 703e
00000220: 6dfb 013e c24d 4cbe ec43 873d 07c4 88bc
00000230: 6b68 2c3d 5bbf ccbe a409 b3bc 4ced 4c3e
00000240: e1c8 26bd cf12 ce3d d8a3 89be f818 dd3d
00000250: e266 9abc a00d 12be 1683 343e c0a3 cebe
00000260: b5b5 973d 8d8d 03bd 1ffc b53c e8f3 32bd
00000270: ec06 cdbd 4e58 a2bb 1bed a9bd 986c cb3d
00000280: f5da c8bd 6bdb dbbd f571 46bd ce48 8dbe
00000290: 7118 923e 1e93 6bbe 4fe4 473d 95ec 2e3e
000002a0: 26ba 7abd 67a1 213e 0538 073e c60d cdbc
000002b0: b3ee 53be 4d4e fd3d 07d9 d0bd 5c9f c6bd
000002c0: 0254 c6bd 7da5 f0bc 64cc 433d a0b4 603d
000002d0: 88fc edbc a0b9 4d3d 40f0 773d 4676 2e3d
000002e0: dcbc 1dbc 568b 82bc 86dd d8ba 685a 0339
000002f0: ba9e 653c da0f 0f3e 530c 07be b094 d3be
00000300: a466 013d 2fa5 f5be 5cd9 2d3d 1a77 9cbe
00000310: ef85 2ebe 8dcc db3d 92f4 503d 28ad 14bd
00000320: 1192 98bd 5b86 733b a020 97bd 6e00 663d
00000330: 5b5c e0bd 45b1 293c dd2b a23d eedd aebe
00000340: 43a4 963d 4f10 a43e 94de 06be 4233 773d
00000350: e9e9 a7bd 1e98 dd3e 39af 1f3e c7db c9be
00000360: 6d07 fe3c 7a48 ccbc 9cf3 b33d 3606 bebd
00000370: 165f ddbd 3a0f a6bd c14f 693d 1228 5e3d
00000380: 8bb4 12be 34b5 23bd d921 1d3e 5676 8b3c
00000390: 0ef7 f7bd 987b f73b d039 5abd 4434 d0bd
000003a0: 615a 99be 385b a23b 2d5c 10bd c03a c0bd
000003b0: 6b55 553d db38 90bc 3d2f bc3b 266b e4bd
000003c0: b0c0 e83c daf7 2d3d d90b 3cbd 6cdb 253c
000003d0: 0066 ae3d 205a f73b 8a2a b83b 99fe b6bb
000003e0: 260d b83d aeb7 f43d 6900 25bd 9699 4a3e
000003f0: 67b0 753d d99d adbd 197a b33d d138 e0bb

resnets.0.conv1.conv2d.bias f4 [32]
-0.11588913 0.23945835 0.11009365 -0.1543802 0.12282909 0.003059342 -0.04427444 0.102390245
0.21348497 -0.07594074 0.1124475 -0.0063267625 0.26500264 -0.028169299 -0.14652056 -0.20281355
0.18355726 -0.13644718 -0.037199624 0.13653946 0.0003320899 -0.084458426 -0.085119545 0.19055627
-0.041631144 -0.04043201 -0.18764526 -0.0060873493 0.073272854 0.12963352 -0.10055195 0.18481693
00000000: 4857 edbd 9234 753e c878 e13d d815 1ebe
00000010: d18d fb3d 3e7f 483b 1d59 35bd fab1 d13d
00000020: ce9b 5a3e d286 9bbd e04a e63d bb50 cfbb
00000030: 6dae 873e 4dc3 e6bc 7c09 16be 5bae 4fbe
00000040: 6ff6 3b3e cfb8 0bbe a25e 18bd 00d1 0b3e
00000050: 5a1c ae39 8af8 acbd 2853 aebd 2f21 433e
00000060: 6b85 2abd 099c 25bd 1426 40be 6378 c7bb
00000070: 1410 963d a6be 043e 2eee cdbd a640 3d3e

resnets.0.in1.weight f4 [32]
1.2153105 0.66187596 0.8493289 0.95260763 0.9204299 0.845939 0.86802757 0.9534708
1.1547985 1.0726347 0.80517143 0.4357686 1.0707047 0.8309762 1.0187654 1.2203841
0.826189 0.9750184 0.8526807 0.87749845 0.8326147 0.9615265 1.0686414 0.99520177
1.0605592 1.0767087 0.6076626 1.196198 0.8062436 0.86614865 1.1302902 1.0123931
00000000: 4b8f 9b3f b470 293f 9e6d 593f 18de 733f
00000010: 4ba1 6b3f 758f 583f 0e37 5e3f aa16 743f
00000020: 70d0 933f 184c 893f b71f 4e3f 101d df3e
00000030: da0c 893f dbba 543f e866 823f 8c35 9c3f
00000040: 1f81 533f ce9a 793f 4849 5a3f bda3 603f
00000050: 3d26 553f 9a26 763f 3ec9 883f 8bc5 7e3f
00000060: 67c0 873f 97d1 893f c78f 1b3f 041d 993f
00000070: fb65 4e3f ebbb 5d3f 59ad 903f 1996 813f

resnets.0.in1.bias f4 [32]
-0.66953355 -0.0972332 0.073434524 0.015123415 0.042810522 0.18324801 -0.032409485 -0.14569221
-0.397829 0.034832325 0.05833282 0.45875973 -0.43631026 0.0046828957 0.080651805 -0.6679774
-0.0788418 -0.04656586 -0.23418406 -0.20009483 0.073196284 -0.109880194 -0.3244132 -0.3134888
-0.39145082 0.24048705 0.13011551 -0.47063568 -0.195295 -0.35241228 -0.13089783 -0.08060147
00000000: 8d66 2bbf 3322 c7bd d764 963d 33c8 773c
00000010: 165a 2f3d 5ea5 3b3e cfbf 04bd 5730 15be
00000020: 3eb0 cbbe 57ac 0e3d 65ee 6e3d 8ee2 ea3e
00000030: 0f64 dfbe fa72 993b c62c a53d 9100 2bbf
00000040: cf77 a1bd d8bb 3ebd f2cd 6fbe a9e5 4cbe
00000050: efe7 953d de08 e1bd 7d19 a6be 9b81 a0be
00000060: 3e6c c8be 3d42 763e 003d 053e 29f7 f0be
00000070: 6afb 47be 626f b4be 150a 06be 6212 a5bd

resnets.0.conv2.conv2d.weight f4 [32, 32, 3, 3]
0.13755357 0.047309987 -0.015322574 0.22490935 0.041577324 -0.10739598 0.29729486 -0.23552683
-0.20283009 -0.10493304 -0.10781249 -0.07978978 0.017368665 -0.06255137 0.009110082 -0.027766747
-0.05553366 0.14148596 -0.0069007976 0.013564465 0.02794613 -0.0062111365 -0.01079444 -0.018127657
0.15060548 0.04965272 0.11181117 -0.07324939 -0.12255728 0.17032628 -0.0001052198 0.22999766
0.11247797 0.018810477 0.044369947 0.05848653 -0.13044323 -0.07992463 0.024013778 -0.08966409
-0.24655205 -0.03070015 -0.04297204 0.06355593 0.100608915 -0.16080274 0.006894504 -0.094882965
-0.0076956335 0.20879257 -0.032632586 0.18671134 0.032315347 -0.21111612 -0.16147304 -0.10528132
-0.06355804 -0.039547503 0.10116872 -0.03395442 -0.1899061 -0.14394301 -0.097009934 -0.25283116
-0.022299208 0.16401535 0.03326545 0.18884897 -0.026661625 0.044802934 -0.045384675 -0.0373017
0.034615185 0.16204801 0.23114687 0.28047225 0.07779453 0.052276615 -0.07969541 -0.09141296
0.05084432 -0.024728261 0.070262976 0.10804709 -0.09619576 0.049132735 -0.08864405 0.2857007
0.33301237 0.016231347 0.045478884 0.14057662 0.1013123 -0.0646376 -0.1577311 0.03882792
-0.13636269 -0.10479225 -0.016698292 -0.18065976 0.029448843 -0.05174899 -0.12849523 -0.09037836
0.07021206 -0.12217948 -0.013620677 -0.11007475 0.13268316 0.11154244 -0.028982628 -0.22359616
0.15111654 -0.0050464836 -0.016756505 0.1076213 0.33702424 0.071516685 0.11639542 -0.09287212
-0.112580046 -0.15350091 0.24685201 -0.040401284 0.025836408 -0.13999623 -0.15859772 0.00576008
0.05478552 -0.07421236 -0.07741249 -0.084645934 0.17008343 0.044608478 0.013837142 -0.052641142
0.06645645 0.24313118 0.022445705 0.17781116 0.02107174 0.17521358 -0.15011477 -0.08739645
-0.11374351 -0.06802534 0.11998411 -0.039694823 0.11443604 -0.007152673 0.07197293 -0.008585134
0.16058978 -0.202369 0.07956942 0.2882009 0.24384138 -0.060164187 -0.22324565 0.0483353
-0.16829945 0.17366026 -0.08146099 -0.08653654 0.0065890998 0.09010648 0.11668146 0.1562488
0.13384914 0.08869858 0.24027881 0.04733851 -0.0008188483 0.021566922 0.18777451 0.043406185
0.022712426 0.021792514 0.02316315 -0.0642199 0.006860671 -0.23675385 0.07450551 -0.050565276
-0.1402378 -0.0766569 -0.12391183 0.1198208 -0.10206516 -0.2054103 -0.22433528 -0.28138804
-0.059981707 0.020656941 -0.032751277 0.17866807 0.19907741 0.12126952 0.18771596 -0.03159894
0.023163963 0.0511761 -0.036079958 -0.07584946 -0.04897766 0.06670798 0.26393777 0.13194555
0.058839034 -0.008140789 0.17934138 0.06558738 0.00021426783 0.18594913 -0.042398002 -0.20161457
0.1211504 0.12078777 0.16499051 -0.10438041 -0.05336371 0.12292381 0.07251964 -0.08763941
0.20231868 -0.104047775 0.06475302 0.28347716 -0.14549221 0.1644695 -0.054596413 -0.115508884
0.11129352 0.12724778 0.05277149 0.014828727 -0.027803386 0.10243542 -0.0364639 0.03617318
0.10508502 0.107169636 -0.18066303 0.21855372 -0.06374428 0.0013748312 -0.06455704 0.063381545
0.3474592 -0.13056168 -0.18091848 0.2420028 -0.09186009 -0.06171937 -0.022117686 0.018080836
00000000: d8da 0c3e 1ec8 413d 890b 7bbc a34e 663e
00000010: fc4c 2a3d 6cf2 dbbd 0837 983e f22d 71be
00000020: b1b2 4fbe 22e7 d6bd cbcc dcbd d368 a3bd
00000030: bb48 8e3c ef1a 80bd 7442 153c 1777 e3bc
00000040: 4377 63bd b2e1 103e 1620 e2bb 7d3d 5e3c
00000050: 48ef e43c ca86 cbbb 2adb 30bc 7480 94bc
00000060: 5338 1a3e a760 4b3d 41fd e43d c703 96bd
00000070: 50ff fabd 036a 2e3e 73a9 dcb8 8284 6b3e
00000080: da5a e63d 6e18 9a3c 43bd 353d 928f 6f3d
00000090: e992 05be 86af a3bd 8bb8 c43c cea1 b7bd
000000a0: 2478 7cbe e27e fbbc 7303 30bd 9d29 823d
000000b0: 0c0c ce3d 79a9 24be 4beb e13b 0052 c2bd
000000c0: a72b fcbb b8cd 553e bfa9 05bd 4231 3f3e
000000d0: 195d 043d d32e 58be 3059 25be bc9d d7bd
000000e0: b82a 82bd 90fc 21bd 8c31 cf3d ca13 0bbd
000000f0: bf76 42be cc65 13be 25ad c6bd 1673 81be
00000100: d4ac b6bc a4f3 273e 5a41 083d a061 413e
00000110: 7b69 dabc 4883 373d 48e5 39bd abc9 18bd
00000120: a7c8 0d3d eaef 253e c4b1 6c3e 0f9a 8f3e
00000130: bd52 9f3d 0120 563d 5937 a3bd b836 bbbd
00000140: 2242 503d ec92 cabc 09e6 8f3d cb47 dd3d
00000150: 4802 c5bd 683f 493d 038b b5bd 5d47 923e
00000160: 9980 aa3e 9af7 843c 1148 3a3d 51f3 0f3e
00000170: d37c cf3d b860 84bd 4384 21be 060a 1f3d
00000180: a9a2 0bbe 529d d6bd dbca 88bc dffe 38be
00000190: b33e f13c c0f6 53bd 4194 03be 4a18 b9bd
000001a0: 57cb 8f3d 3c39 fabd 4329 5fbc df6e e1bd
000001b0: 18de 073e 5d70 e43d fa6c edbc 64f6 64be
000001c0: 4bbe 1a3e f95c a5bb f044 89bc 8e68 dc3d
000001d0: 718e ac3e 5777 923d b960 ee3d bd33 bebd
000001e0: 5e90 e6bd 582f 1dbe c6c6 7c3e d17b 25bd
000001f0: e0a6 d33c 2c5b 0fbe 7167 22be 0ebf bc3b
00000200: c866 603d a6fc 97bd 718a 9ebd d95a adbd
00000210: 5a2a 2e3e 61b7 363d 2eb5 623c 3d9e 57bd
00000220: 521a 883d 61f7 783e 0ee0 b73c 2114 363e
00000230: a49e ac3c 306b 333e b0b7 19be e9fc b2bd
00000240: 5bf2 e8bd df50 8bbd 3bba f53d 0a97 22bd
00000250: 715d ea3d f860 eabb 8b66 933d a9a8 0cbc
00000260: a671 243e d239 4fbe 4bf5 a23d 128f 933e
00000270: 8eb1 793e b96e 76bd 829a 64be 3cfb 453d
00000280: b156 2cbe ffd3 313e 05d5 a6bd 123a b1bd
00000290: 60e9 d73b bf89 b83d b0f6 ee3d afff 1f3e
000002a0: c00f 093e 9aa7 b53d a60b 763e 07e6 413d
000002b0: fba7 56ba 1dad b03c f647 403e afca 313d
000002c0: 690f ba3c 3786 b23c a5c0 bd3c b985 83bd
000002d0: 7bcf e03b 9a6f 72be 5896 983d 891d 4fbd
000002e0: 7f9a 0fbe 4bfe 9cbd 7cc5 fdbd 9c64 f53d
000002f0: 8a07 d1bd 1457 52be 26b8 65be 1812 90be
00000300: 61af 75bd bf38 a93c 3426 06bd c3f4 363e
00000310: f3da 4b3e 275c f83d 9d38 403e e46d 01bd
00000320: 5ac2 bd3c 089e 513d 94c8 13bd f656 9bbd
00000330: cc9c 48bd 329e 883d da22 873e bc1c 073e
00000340: 3301 713d f260 05bc 44a5 373e ad52 863d
00000350: 15ad 6039 7369 3e3e 87a9 2dbd 0d74 4ebe
00000360: b31d f83d 945f f73d 46f3 283e 65c5 d5bd
00000370: e893 5abd 7abf fb3d 2d85 943d 4a7c b3bd
00000380: a12c 4f3e 0017 d5bd 3b9d 843d eb23 913e
00000390: e9fb 14be b16a 283e 7da0 5fbd ec8f ecbd
000003a0: dbed e33d 3e4d 023e eb26 583d 30f4 723c
000003b0: edc3 e3bc a9c9 d13d 2c5b 15bd 542a 143d
000003c0: d136 d73d c17b db3d bbff 38be 8ccc 5f3e
000003d0: 5c8c 82bd ae33 b43a 7b36 84bd 2fce 813d
000003e0: 2ce6 b13e f6b1 05be b242 39be 95cf 773e
000003f0: 2521 bcbd 73cd 7cbd 2630 b5bc 431e 943c

resnets.0.conv2.conv2d.bias f4 [32]
-0.0023816822 0.02197411 -0.17956808 -0.07311393 -0.13655548 0.061870348 0.060773302 -0.026065351
0.08466199 0.24360739 -0.04681898 -0.14365096 -0.007493866 -0.18335281 -0.14794281 -0.06951658
0.028108409 0.19631243 0.32837188 -0.13233149 0.08390831 0.12060196 -0.115377024 -0.1370348
-0.09415552 -0.07028105 -0.18048076 0.03746404 -0.010519417 0.0037390934 -0.121654056 0.24363084
00000000: ff15 1cbb 0c03 b43c b2e0 37be c2bc 95bd
00000010: 33d5 0bbe c36b 7d3d 6ded 783d 0187 d5bc
00000020: 4463 ad3d 3774 793e 42c5 3fbd 3d19 13be
00000030: 1b8f f5bb d7c0 3bbe 527e 17be b55e 8ebd
00000040: 9b43 e63c 2006 493e 5c20 a83e e881 07be
00000050: 1fd8 ab3d 29fe f63d ca4a ecbd da52 0cbe
00000060: 9cd4 c0bd 83ef 8fbd f3cf 38be e573 193d
00000070: a259 2cbc 940b 753b c325 f9bd 5d7a 793e

resnets.0.in2.weight f4 [32]
0.4519983 0.4172755 0.45897576 0.37012607 0.6018071 0.4279179 0.4045987 0.37246248
0.50319636 0.5063677 0.47136822 0.3689735 0.5097746 0.5420251 0.4049538 0.56773025
0.50167024 0.44091427 0.593046 0.41475114 0.39037582 0.586613 0.51988137 0.64497757
0.51408416 0.44920737 0.5695645 0.39870656 0.4726366 0.5872719 0.5938746 0.49765918
00000000: 526c e73e 22a5 d53e dffe ea3e 2a81 bd3e
00000010: 0810 1a3f 0e18 db3e 9027 cf3e 67b3 be3e
00000020: 7ad1 003f 50a1 013f 2d57 f13e 18ea bc3e
00000030: 9780 023f 28c2 0a3f 1b56 cf3e c556 113f
00000040: 766d 003f 84bf e13e ddd1 173f 435a d43e
00000050: 57df c73e 452c 163f f216 053f 401d 253f
00000060: 059b 033f 82fe e53e fbce 113f 4423 cc3e
00000070: 6dfd f13e 7457 163f 2a08 183f 2fcd fe3e

resnets.0.in2.bias f4 [32]
-0.039815094 -0.06591133 -0.03381877 -0.121379025 -0.18550767 0.044174 0.1775975 -0.059314646
0.26768252 0.046232674 -0.025833244 -0.16919845 -0.18000242 -0.22535773 -0.24138148 -0.06302999
-0.22056733 0.20820422 0.19399361 -0.110184684 0.061023608 0.1411222 -0.07666507 -0.17196733
-0.019856747 -0.005208331 -0.10537063 0.094566256 0.066661365 -0.124745026 0.08391418 0.25313962
00000000: 2715 23bd 85fc 86bd 8d85 0abd 9195 f8bd
00000010: b9f5 3dbe ccef 343d 1edc 353e eaf3 72bd
00000020: af0d 893e 795e 3d3d 3da0 d3bc 5c42 2dbe
00000030: 8e52 38be 2dc4 66be b52c 77be de15 81bd
00000040: 67dc 61be 7d33 553e 43a6 463e 82a8 e1bd
00000050: e4f3 793d 5782 103e 9402 9dbd 3418 30be
00000060: 9eaa a2bc a6aa aabb 8fcc d7bd f4ab c13d
00000070: c185 883d 527a ffbd 33db ab3d 849b 813e

resnets.1.conv1.conv2d.weight f4 [32, 32, 3, 3]
-0.06557487 -0.15132096 0.004972442 -0.12836267 -0.045600217 0.049910773 -0.026983507 -0.02919517
-0.07779023 -0.20679633 0.00042418338 0.15407765 -0.18471438 0.02345602 0.15418708 0.07529459
0.08798349 0.14190325 -0.034995623 -0.0003925223 0.06817927 -0.008628494 0.018808072 -0.02220571
0.16679238 -0.07388849 -0.07906584 -0.09536787 -0.022512395 0.1676896 -0.18157573 -0.10308321
0.058912206 -0.30470726 -0.07934478 0.024749713 0.1729594 0.0279863 -0.05323542 -0.029754661
-0.1035701 0.04778792 -0.4475288 -0.077696085 0.2378774 -0.25154057 -0.03335549 0.31284693
-0.10827148 -0.0023116313 0.094572045 0.1254997 -0.027933808 -0.14241192 0.004933501 -0.10729909
-0.12038011 0.007033205 -0.13564724 -0.09562058 -0.13403314 -0.08647895 0.14689904 -0.25208142
-0.03403974 0.2208133 -0.10930775 -0.0129735125 0.009879712 0.0419765 -0.013742788 -0.10163202
0.11150431 0.03799101 -0.18555145 -0.0003783225 -0.092974104 -0.041340094 -0.03282416 0.017388737
0.13304117 0.21066321 0.08405276 -0.17176323 0.0640843 -0.04463837 0.04690911 -0.4508592
-0.123939455 0.12530743 -0.028957173 -0.07832085 -0.11352969 0.00595246 -0.041047838 -0.05476446
-0.07311804 -0.013740622 -0.08741524 -0.34058225 0.017349511 0.24952894 -0.07996787 0.09289883
0.038478736 0.34161574 0.09409015 0.013804294 0.08563906 0.02579307 0.04149119 0.029543098
-0.035240676 0.03324807 -0.0050603305 -0.00299505 -0.023037488 0.033894256 0.069868766 0.015620041
-0.12591992 -0.030666536 -0.047369935 -0.102528416 -0.13132676 0.06787205 0.10749213 0.0154279675
0.022450194 0.14340869 0.052263 -0.015297837 -0.025640832 -0.026122095 0.039792947 -0.107022464
-0.28662467 -0.1924845 -0.038365744 -0.01618954 -0.05864417 0.24536477 0.18075128 -0.02604987
0.09966132 -0.052920308 0.03871079 -0.006699305 0.11821295 0.037795432 -0.08367433 -0.0114967795
0.13640723 0.21190903 -0.030114226 -0.23663048 0.20115592 0.035541598 -0.20413613 0.17823014
-0.04084754 0.05219693 0.05939063 0.25200924 0.17302161 0.044921543 -0.007935682 -0.17480417
-0.0056428458 -0.21016355 -0.33940834 -0.016169326 -0.010118387 -0.0011155644 -0.052366246 0.046295155
0.08927037 0.04104347 0.01624735 -0.17065078 0.07959024 -0.07804652 -0.14850163 0.02802304
-0.04922113 -0.033195246 -0.0045139333 0.03280774 -0.019852528 -0.09669642 -0.014187745 0.16020638
-0.044469014 -0.04727402 -0.031152064 0.04403993 -0.081788756 0.013390225 -0.116651736 -0.057707295
0.17940822 -0.08299984 0.009410656 0.037478954 -0.059431612 0.009921607 0.1423517 0.29530808
0.050166328 -0.2578869 0.12872872 -0.037919696 -0.046911467 -0.32387152 -0.102214575 0.20879014
-0.029241929 -0.11805484 -0.04683484 -0.12599614 0.033449356 -0.052432254 -0.025455186 -0.14618647
-0.028175775 -0.32178888 0.07657851 0.22965263 -0.032013554 0.053794943 -0.09746081 0.123569906
-0.052873638 -0.18019158 -0.15234315 -0.03835888 0.09871107 -0.017068703 0.059235077 0.0050398097
0.11686822 -0.081161976 0.06629932 0.19999535 -0.17031643 -0.35328016 -0.076666534 -0.0027986018
0.081771605 -0.13060983 0.09790307 0.4325248 0.052158777 -0.005949837 0.046845805 -0.061956685
00000000: 1e4c 86bd e2f3 1abe deef a23b 8171 03be
00000010: 4bc7 3abd 3d6f 4c3d 840c ddbc b62a efbc
00000020: 7c50 9fbd 6bc2 53be ee64 de39 88c6 1d3e
00000030: c425 3dbe d726 c03c 38e3 1d3e 0d34 9a3d
00000040: b030 b43d 164f 113e 9257 0fbd 74cb cdb9
00000050: 93a1 8b3d 875e 0dbc 6313 9a3c c0e8 b5bc
00000060: 9fcb 2a3e d952 97bd 45ed a1bd 3b50 c3bd
00000070: ea6b b8bc d3b6 2b3e fdee 39be 4a1d d3bd
00000080: ed4d 713d 9702 9cbe 847f a2bd e9bf ca3c
00000090: 451c 313e 8643 e53c 620d 5abd 0cc0 f3bc
000000a0: 901c d4bd 44bd 433d 7f22 e5be 201f 9fbd
000000b0: 2296 733e edc9 80be c49f 08bd 792d a03e
000000c0: 70bd ddbd bd7e 17bb fdae c13d fe82 003e
000000d0: 71d5 e4bc 6ed4 11be 35a9 a13b a0bf dbbd
000000e0: d989 f6bd cd76 e63b 1ce7 0abe b9d4 c3bd
000000f0: fc3f 09be e01b b1bd b46c 163e d110 81be
00000100: 416d 0bbd e21c 623e bedc dfbd db8e 54bc
00000110: 84de 213c 8def 2b3d 6e29 61bc 7324 d0bd
00000120: 5f5c e43d 769c 1b3d 3301 3ebe 9659 c6b9
00000130: 3569 bebd 3b54 29bd a072 06bd d372 8e3c
00000140: f23b 083e 19b8 573e da23 ac3d b3e2 2fbe
00000150: a13e 833d b9d6 36bd c423 403d 04d7 e6be
00000160: f8d3 fdbd 9750 003e 9837 edbc af66 a0bd
00000170: 4182 e8bd db0c c33b c721 28bd b350 60bd
00000180: e9be 95bd 5920 61bc c306 b3bd cc60 aebe
00000190: 9020 8e3c 8484 7f3e 32c6 a3bd be41 be3d
000001a0: e19b 1d3d 42e8 ae3e 56b2 c03d 682b 623c
000001b0: 8863 af3d fd4b d33c abf2 293d 5e04 f23c
000001c0: 8758 10bd 212f 083d 21d1 a5bb 9a48 44bb
000001d0: 1db9 bcbc b4d4 0a3d 5b17 8f3d 33eb 7f3c
000001e0: 27f1 00be 6338 fbbc fa06 42bd 6bfa d1bd
000001f0: 867a 06be 8000 8b3d d524 dc3d 96c5 7c3c
00000200: 78e9 b73c bad9 123e ba11 563d c7a3 7abc
00000210: b90c d2bc 01fe d5bc eefd 223d 982e dbbd
00000220: 78c0 92be a81a 45be 6625 1dbd ed9f 84bc
00000230: df34 70bd e740 7b3e dd16 393e 8966 d5bc
00000240: 3c1b cc3d f7c2 58bd 358f 1e3d d885 dbbb
00000250: a219 f23d 62cf 1a3d 725d abbd fd5c 3cbc
00000260: 56ae 0b3e aefe 583e 1cb2 f6bc 434f 72be
00000270: d1fb 4d3e 1194 113d 1009 51be f681 363e
00000280: c04f 27bd 73cc 553d 9743 733d 5b07 813e
00000290: 942c 313e a7ff 373d aa04 02bc ddff 32be
000002a0: 9fe7 b8bb 1d35 57be eec6 adbe 8975 84bc
000002b0: 97c7 25bc 2138 92ba fd7d 56bd fd9f 3d3d
000002c0: 62d3 b63d 331d 283d 2a19 853c 14bf 2ebe
000002d0: 3500 a33d dbd6 9fbd d010 18be 9390 e53c
000002e0: 189c 49bd bdf7 07bd 9ee9 93bb 6961 063d
000002f0: c5a1 a2bc c608 c6bd b773 68bc 240d 243e
00000300: 2425 36bd 67a2 41bd 9d32 ffbc 3763 343d
00000310: dd80 a7bd ad62 5b3c 1be7 eebd 7c5e 6cbd
00000320: cab6 373e d2fb a9bd 272f 1a3c 8883 193d
00000330: 906e 73bd 3c8e 223c a5c4 113e 9f32 973e
00000340: 357b 4d3d c009 84be 76d1 033e af51 1bbd
00000350: 3d26 40bd 7dd2 a5be e055 d1bd 15cd 553e
00000360: c58c efbc bcc6 f1bd e4d5 3fbd 2205 01be
00000370: 3102 093d 34c3 56bd 6587 d0bc e8b1 15be
00000380: e2d0 e6bc 83c1 a4be 32d5 9c3d 0f2a 6b3e
00000390: a520 03bd 1658 5c3d 8899 c7bd 3812 fd3d
000003a0: 0792 58bd 2484 38be d8ff 1bbe 331e 1dbd
000003b0: 0829 ca3d aad3 8bbc 7ba0 723d fd24 a53b
000003c0: 9b58 ef3d 4038 a6bd f0c7 873d 95cb 4c3e
000003d0: 6e67 2ebe 23e1 b4be 5803 9dbd bf68 37bb
000003e0: df77 a73d 95be 05be 6881 c83d e473 dd3e
000003f0: 71a4 553d daf6 c2bb 63e1 3f3d 4bc6 7dbd

resnets.1.conv1.conv2d.bias f4 [32]
-0.023962215 0.13362221 -0.08867795 -0.007873134 0.114914864 0.041086033 0.22547765 -0.010582444
0.0540247 -0.29153317 0.18484177 -0.27856392 -0.11978967 -0.010771844 -0.1366519 -0.3095835
-0.3662382 -0.28624296 -0.04137879 -0.01259058 0.33308187 0.00516249 -0.07280603 -0.0783759
-0.10040237 0.18719321 -0.075035736 0.1306845 -0.0784378 -0.17260557 -0.20550416 -0.033649977
00000000: 684c c4bc 43d4 083e c99c b5bd 51fe 00bc
00000010: 7c58 eb3d d449 283d 9de3 663e fd61 2dbc
00000020: 0149 5d3d d643 95be 2947 3d3e ee9f 8ebe
00000030: 4954 f5bd 637c 30bc 7aee 0bbe ba81 9ebe
00000040: 9383 bbbe 708e 92be ce7c 29bd b848 4ebc
00000050: b589 aa3e 1b2a a93b 541b 95bd 8b83 a0bd
00000060: c29f cdbd 94af 3f3e 56ac 99bd 28d2 053e
00000070: ffa3 a0bd 84bf 30be af6f 52be 8fd4 09bd

resnets.1.in1.weight f4 [32]
1.0456848 0.7311876 0.68928903 0.8458691 0.7784407 0.88549757 0.9063498 1.0499164
1.0244453 0.87749463 0.9107121 0.83315283 0.63564366 0.6677157 0.7447404 0.6528115
0.84469926 0.89286846 1.0770898 0.7115797 0.640556 0.7921603 0.7235191 0.8681015
0.6705372 0.8688905 0.7044767 1.0947418 0.9149225 0.6830086 1.0866109 0.7048048
00000000: 00d9 853f 1c2f 3b3f 3f75 303f e18a 583f
00000010: e447 473f f8af 623f 8a06 683f a963 863f
00000020: 0621 833f 7da3 603f 6e24 693f 8149 553f
00000030: 8bb9 223f 6bef 2a3f 4fa7 3e3f a81e 273f
00000040: 363e 583f 0793 643f 14de 893f 162a 363f
00000050: 7afb 233f 04cb 4a3f 8c38 393f e63b 5e3f
00000060: 53a8 2b3f 9c6f 5e3f 9658 343f 8020 8c3f
00000070: 5c38 6a3f a7d9 2e3f 1116 8b3f 166e 343f

resnets.1.in1.bias f4 [32]
-0.6477 -0.14399971 0.10304955 0.09927064 -0.040496536 -1.0724705 -0.84609556 -0.76800936
-0.4803711 -0.23201182 -0.17118499 -0.30669245 0.106739126 0.36778674 -0.033104096 0.385467
0.13530917 -0.5916789 -0.47506788 0.123825654 0.33107895 -0.24221225 0.14751889 0.14874461
0.13842893 -0.64595324 -0.05228239 -1.0030152 -0.20300291 0.10702263 -0.9765301 0.2948412
00000000: abcf 25bf a974 13be a40b d33d 684e cb3d
00000010: b2df 25bd b746 89bf b899 58bf 439c 44bf
00000020: 33f3 f5be 8294 6dbe 1e4b 2fbe cb06 9dbe
00000030: 0b9a da3d 8b4e bc3e 2998 07bd ee5b c53e
00000040: 7d8e 0a3e 4578 17bf 193c f3be 4e98 fd3d
00000050: 2e83 a93e 7d06 78be 310f 173e 8250 183e
00000060: 50c0 0d3e 315d 25bf 0f26 56bd cd62 80bf
00000070: ffdf 4fbe ae2e db3d e0fd 79bf 6df5 963e
