Assets/Style_Transfer/Models/TransformerNet/origen10720.onnx (onnx, 449372 bytes, 62 tensors)

conv1.conv2d.weight f4 [8, 3, 9, 9]
000000 3c b6 a0 bc 2c f8 04 3b fa f5 88 bd 29 d3 a4 3c
       -0.019618146 0.0020289524 -0.06687541 0.02012022
000010 92 14 00 3d 8f da 22 3d 9e 08 61 bc ba 49 b0 3c
       0.031269617 0.039759215 -0.013734965 0.02151953
000020 d5 4b df bc 0b 48 21 3c 5c 15 b0 bc 22 d0 08 3d
       -0.02725784 0.009843837 -0.02149456 0.033401616
000030 0e 95 08 3e 39 2b a8 3b 56 2e 92 3d 5e c9 3b 3d
       0.1333811 0.0051321057 0.07137744 0.045846336
000040 a7 9c 11 bd af 20 86 bb f6 78 98 bc 6f 09 43 3d
       -0.035549786 -0.0040932517 -0.018612366 0.04761642
000050 56 02 9f bc 4d 70 85 3d be de 66 3d 3b 36 9b 3d
       -0.019410294 0.0651556 0.056364767 0.07578703
000060 3c f2 2e bd fc 82 82 3d 7b 98 79 3d 24 b9 27 3c
       -0.04271148 0.063726395 0.060936432 0.010237012
000070 b3 26 cb bc 4c f2 d7 3d 99 e9 a8 3d e3 fa 0f 3d
       -0.024798727 0.10544261 0.0824768 0.035151374
000080 91 d1 4f 3a b5 cf 71 3c 62 a9 86 bc 24 bd 19 3c
       0.0007927651 0.014758994 -0.01643819 0.009383474
000090 f6 31 4c bc 75 21 a3 bb 8c 08 ce bc 15 0a ef bc
       -0.0124630835 -0.0049783536 -0.02515056 -0.029179612
0000a0 97 7c 9a bd 50 b5 b6 bd e6 f8 26 3d 16 4f 12 bd
       -0.07543295 -0.08921301 0.04076471 -0.035719953
0000b0 a0 76 35 3d 52 44 9e bb 15 bf d3 bb 26 81 0a 3d
       0.044302583 -0.0048299218 -0.0064619877 0.03381457
0000c0 47 6f 44 bd 9c d6 99 be 7b be 2b be 77 2a 26 3d
       -0.047957685 -0.30046546 -0.16771881 0.04056784
0000d0 d2 26 1f bd 7b 9a 06 bc 84 91 25 bd be 07 81 bd
       -0.03885538 -0.008215542 -0.040421978 -0.06300305
0000e0 a6 dc 88 ba eb e2 8b 3d 4d 58 51 be 66 90 3f be
       -0.0010441735 0.068303905 -0.2044384 -0.18707427
0000f0 f7 01 5c bd 97 e7 a1 bc 8e 9c 4a 3d 22 4d 58 3d
       -0.05371281 -0.019763751 0.04946571 0.052807935
000100 58 42 3b bc d8 21 f6 bd 91 12 aa 3d 20 42 7f 3d
       -0.011429392 -0.12018174 0.083043225 0.06231892
000110 c4 e2 9b 3c 67 09 6b 3d d9 dc 60 3d ec 6d 0e 3c
       0.019029029 0.057382014 0.054898117 0.0086932
000120 05 0d 45 3c 34 70 9b bb 0f 78 00 be 89 6f 22 3d
       0.01202703 -0.0047436003 -0.12545799 0.03965715
000130 b5 0e 19 3e a2 ac 99 3d ef 7b a4 3d 36 56 aa 3d
       0.14947017 0.0750363 0.08031451 0.08317225
000140 5c ec 55 bd 09 15 5f 3d de ea 0e 3b b4 01 a6 bd
       -0.052227363 0.05446342 0.0021807472 -0.081057936
000150 c3 03 2f 3b d1 36 2e bc cd dc ca bb 70 db 61 3d
       0.0026705123 -0.010633186 -0.0061908723 0.055140913
000160 34 ff bf bc e5 a8 80 3d dc a1 0d bd 0e c7 e3 3c
       -0.02343712 0.06282214 -0.03457819 0.027804878
000170 fe 09 24 3c 80 49 c3 3d 41 1c 23 3d 38 25 44 3c
       0.010012148 0.095355034 0.039821867 0.011971764
000180 7d 88 7b bc 13 d9 0e 3d 36 78 ac bd 14 5d be 3d
       -0.015352366 0.034874987 -0.08421366 0.09295097
000190 ba bd 69 3d 7d ff a6 3b 95 2f 4e 3d c0 f3 47 bc
       0.057065703 0.0050963745 0.050338347 -0.012204111
0001a0 e2 7c 2e bb 75 4c a8 bd 13 ba a2 bc f8 94 c0 bc
       -0.002662473 -0.08217708 -0.019864118 -0.023508534
0001b0 50 b9 af bc 69 76 16 bd 12 a7 84 3d 4b 77 7d 3c
       -0.021450669 -0.03673402 0.06477179 0.015470336
0001c0 dd 91 20 bd 3e aa 9b bd 2f 44 6a bc 29 32 93 bd
       -0.039201606 -0.076008305 -0.014298483 -0.07187302
0001d0 4a 31 85 3d 56 07 10 bd 17 b1 83 3d 9d 89 51 3d
       0.06503542 -0.035163246 0.064302616 0.05115663
0001e0 35 91 31 3d 5f e9 4d be 5c 96 0d be 0d e7 93 3c
       0.04335137 -0.20108555 -0.13826889 0.01805451
0001f0 63 bd c9 bd 71 c2 30 bd 9b bd b0 3d ec 65 84 bc
       -0.09850576 -0.043154184 0.086299144 -0.016161881
000200 da fa c5 3d 46 07 b6 3b 46 8e 5c be 78 31 65 be
       0.09666987 0.0055550663 -0.21538648 -0.22382152
000210 d5 88 1e 3d da bb 7a 3d f7 b7 53 3d 87 89 6c 3c
       0.038704712 0.061214305 0.051689114 0.014437086
000220 d0 3b 4f 3c cf 26 25 3b 3d ae e9 3d b0 5c 9d bd
       0.012648538 0.0025200134 0.114101864 -0.07683694
000230 d1 d4 5a be 42 6a e5 bd 88 f3 42 bd 78 fb 29 3d
       -0.21370246 -0.11201908 -0.04759553 0.041499585
000240 89 4b c6 3c 3d b4 8f bc 82 1c 77 bd 16 c8 2f 3e
       0.02420594 -0.017541999 -0.06032992 0.1716617
000250 68 1a f4 3d e8 4d 17 bd 8c ce 14 3c 31 52 6e 3d
       0.11919099 -0.03693953 0.009082448 0.058183853
000260 b5 53 5d bd 99 e4 bb 3c b5 ee 0c bd c2 c4 ad bd
       -0.054034907 0.022936152 -0.034407336 -0.08484794
000270 05 a4 00 bd 12 72 e7 bc e1 30 38 3d 78 66 b4 bc
       -0.03140642 -0.028252635 0.04496849 -0.022021517
000280 72 17 64 3d 4e c9 4a 3d 37 c0 2b bd f2 63 eb 3c
       0.05568642 0.049508385 -0.041931357 0.028734181
000290 36 4a 8e bd 49 b0 f4 bb a5 35 0d 3d 65 cb c2 3b
       -0.06947748 -0.007467304 0.034474988 0.0059446567
0002a0 f2 da a8 3d ef 65 48 3b 06 37 98 3d 29 95 af bb
       0.082448855 0.0030578335 0.0743237 -0.0053583574
0002b0 fa 0d 6f bd 28 3f 9b bd 7a 7b 89 bc ac 6a 87 ba
       -0.05836294 -0.075804055 -0.016782511 -0.0010331473
0002c0 4a 14 e3 3b dc 18 5d 3c d1 0f 2a 3d f1 65 85 bd
       0.006929909 0.0134946965 0.04151899 -0.065135844
0002d0 62 d4 3f bd fd 6a 88 bc 17 3f 22 bd 9b 1e 8a 3d
       -0.046833403 -0.016652578 -0.03961095 0.06744119
0002e0 b7 8b e7 3c 5d 44 09 bc 34 ae ad bc 2c c9 72 bc
       0.028264863 -0.0083781155 -0.02120123 -0.014818471
0002f0 c1 f4 44 bd 1a 4f ae 3c 45 08 11 3c 1f b1 19 bd
       -0.048084978 0.021277953 0.008852069 -0.03752243
000300 77 50 f3 3b e9 95 9b 3b 33 26 32 bc d4 26 4a bd
       0.0074253636 0.0047480953 -0.010873365 -0.049353436
000310 94 9c 18 bd ad 18 9b 3d f8 2a 64 3c 70 2a 0e bc
       -0.0372587 0.07573066 0.01392626 -0.00867711
000320 77 a3 ed 3d d7 72 04 3e 3c 60 ff bc 00 2f 94 3d
       0.11603444 0.12934433 -0.031173818 0.07235527
000330 e2 e8 f0 3d b0 ae 65 3b d8 40 e9 bc 16 3a 2b 3d
       0.11763169 0.0035046749 -0.028473303 0.041803442
000340 da 15 f8 3c 45 5f da 3b 1c 70 ca 3d 92 cd 90 bd
       0.030283857 0.006664189 0.098846644 -0.070704594
000350 24 22 62 bd dc c8 6a 3d be 77 30 3d 26 ef 60 3d
       -0.05520834 0.05732046 0.043082945 0.05491557
000360 d5 58 4b bc 0d 20 0a 3d 16 15 6b 3d d1 c7 26 3e
       -0.012411316 0.033721972 0.057393156 0.16287161
000370 67 37 ab bd d6 6e 4d bd bb b7 e2 3c 1b 43 b4 bb
       -0.083601765 -0.05015453 0.0276755 -0.0055011637
000380 75 3e c9 bb 24 c9 68 3d ac 56 26 3d cb b9 be bd
       -0.0061414787 0.056832448 0.04061 -0.09312781
000390 c7 41 f1 3d 9b 8b 09 3e fe 4b 0b bd 3c 9e fe bc
       0.11780124 0.13432162 -0.03400802 -0.031081311
0003a0 ec aa 1a bd b5 b9 11 bd 18 9e c1 bd ee e4 2c bd
       -0.03776066 -0.035577495 -0.09453982 -0.042210512
0003b0 bf 0e f2 bd 69 0b 95 bd e8 3f bb 3a b6 5a b8 bd
       -0.11819219 -0.07277567 0.0014286013 -0.09001677
0003c0 08 2b bf 3c 02 ea c9 3c 95 4a 89 bd 28 b5 49 bc
       0.023335949 0.024647716 -0.067036785 -0.012311257
0003d0 d1 db 17 3d 68 b2 95 bb ee bb 69 bb 35 c2 16 3d
       0.037074868 -0.004568387 -0.0035664993 0.036806304
0003e0 ef 23 2b 3d 63 76 d9 3c 44 2b fa bc f6 39 86 bc
       0.041782316 0.026545709 -0.030538209 -0.01638506
0003f0 2f 5e 14 3d eb c4 67 3d c5 30 d4 3d c9 50 e6 3d
       0.036222633 0.05658428 0.103608645 0.11245877

conv1.conv2d.bias f4 [8]
000000 82 de 7b 3d cc dd b1 3d 91 a9 89 3d e2 23 1a 3d
       0.061491497 0.086848825 0.06721795 0.037631877
000010 c8 82 f1 3b 8a e5 89 3c d1 f2 78 3b ca 12 5b bb
       0.0073703267 0.016833086 0.0037986527 -0.0033427947

in1.weight f4 [8]
000000 98 42 64 3f 3b 0a 6d 3f 86 5d 69 3f c4 c5 65 3f
       0.89164114 0.92593735 0.9115833 0.8975489
000010 94 f1 46 3f 4a 16 62 3f 29 1d 91 3f 0c 7d 5d 3f
       0.7771237 0.8831526 1.1337024 0.8651893

in1.bias f4 [8]
000000 d5 4a 74 3f 73 5f 43 3e 1e e1 0c 3f 3c b3 39 3c
       0.95426685 0.1907938 0.55031 0.011334237
000010 bf 9d 28 3f c4 2f 21 3e a9 e7 0b 3e f6 e0 13 3e
       0.658657 0.15740877 0.1366259 0.14441285

conv2.conv2d.weight f4 [16, 8, 3, 3]
000000 d2 21 d5 bc e7 a8 e7 3d f7 75 9c 3d cf c6 03 be
       -0.026017103 0.113115124 0.076396875 -0.12868808
000010 f2 61 c4 bd 26 3f 65 3e ed f1 e6 bd cb aa 0a be
       -0.09588994 0.2238737 -0.112766124 -0.13541715
000020 8f 8d 8a 3d c0 b4 d8 bb 68 f5 0e bd e3 e6 10 bd
       0.067652814 -0.006613344 -0.034902006 -0.03537644
000030 fb 51 06 be a5 78 dd 3b dc fd 3b 3e 98 aa 52 3d
       -0.1311721 0.0067587667 0.18358558 0.051432222
000040 12 d1 66 3e b4 10 68 3e ed cd 39 3d 1b 91 2f bd
       0.22540691 0.22662622 0.0453624 -0.042862993
000050 9d 5f 90 3d fe f2 03 bd 72 ff 2b bd f1 b1 19 3e
       0.07049487 -0.032214157 -0.04199166 0.15009286
000060 16 f7 18 bd a9 55 c7 3c 16 66 89 bc 03 f0 f2 3d
       -0.037345015 0.024332838 -0.016772311 0.11862185
000070 3e c6 9b bd 5b 26 63 bd 0a 01 4d 3e 9d ab 63 bc
       -0.07606171 -0.0554565 0.20019928 -0.013895896
000080 23 64 e0 bd 90 ce be 3d 75 e5 12 3d 57 16 4d be
       -0.109565996 0.093167424 0.03586336 -0.20028053
000090 b7 82 a5 3c 45 47 09 3e 2a ce 2e bc bf 51 fd 3d
       0.020203931 0.13406093 -0.0106692705 0.123691075
0000a0 98 b2 d1 bd 57 c7 c8 bd 41 e7 d6 3c 76 31 80 3c
       -0.10239142 -0.09803646 0.026233317 0.015648585
0000b0 a4 14 f1 bd 46 5d b4 bd 46 73 96 3d 85 43 3a 3d
       -0.11771515 -0.08806853 0.073462054 0.045474548
0000c0 c5 00 19 bd 06 ce 9e 3d bb 67 d0 3d a6 a1 3a 3c
       -0.03735425 0.077541396 0.10176035 0.011391079
0000d0 5e 2b bd bc 0d f5 1c 3e b3 37 3a 3d a9 6d 7f bd
       -0.023091968 0.15327854 0.045463275 -0.06236044
0000e0 22 b4 f2 bc 34 ba dd 3d 3f 00 4d 3c 0b f7 ae bb
       -0.02962691 0.10826531 0.012512266 -0.0053395084
0000f0 a2 0d 12 3e 93 43 d7 3b d1 0f e6 bd 8b 81 9e 3c
       0.14263013 0.006569335 -0.112334855 0.01934888
000100 99 8f 0a 3d 45 40 13 3d bd 84 1f bd 90 ca 09 be
       0.03382835 0.035949964 -0.03894495 -0.13456178
000110 87 0e 1a bd b6 36 9e 3d 48 cc de bc 21 58 0b be
       -0.03761151 0.07725279 -0.027197018 -0.13607837
000120 f9 52 05 be a0 0a ba 3c f5 e5 0a 3d ed 72 52 3c
       -0.13019933 0.022710145 0.03391071 0.012844783
000130 27 45 04 3e 2a af e0 3d c4 03 73 be f1 b1 2c 3c
       0.12917005 0.1097091 -0.23731905 0.010540471
000140 68 e8 62 3d 68 cd 3d 3c 1c fc 17 3e 01 f1 79 3e
       0.05539742 0.011584617 0.14842266 0.24408342
000150 71 c6 e7 bc db 8c 65 3b 6c 12 7e 3e 71 00 71 bd
       -0.028292866 0.0035026583 0.24811715 -0.05883831
000160 a4 d9 9b 39 ea 81 36 3e 0e ab 0d be 0c 06 00 3d
       0.0002972606 0.17822996 -0.13834783 0.031255767
000170 5d 35 e0 3c 66 1a db bd 63 05 42 bd cd f1 d8 bc
       0.027369196 -0.106983945 -0.04736842 -0.026482487
000180 bc bf 19 3d e1 ca cd 3c bf 12 33 bb a5 f4 d5 3c
       0.037536368 0.025121154 -0.0027324406 0.026117632
000190 68 a5 f2 3d b7 f4 b3 bd df 81 50 3d 59 0a fa 3d
       0.11847955 -0.0878691 0.050905105 0.12209005
0001a0 fc 60 29 bd 2c 17 0b 3e 02 d4 48 3e 59 1d fb bb
       -0.041352257 0.13583058 0.19612125 -0.0076634106
0001b0 ad b1 a6 bd 90 f8 76 bc 80 a2 30 3d 49 f1 0d 3c
       -0.08139358 -0.01507391 0.043123722 0.008663484
0001c0 06 5d 20 3d f2 27 98 3d c0 26 8a 3c ab e8 42 3d
       0.039151214 0.07429494 0.01686418 0.04758517
0001d0 91 7c 58 bd eb 4f 8c 3c 26 80 7c bd 2c 0a 81 3d
       -0.05285317 0.017127952 -0.06164565 0.06300768
0001e0 60 9b 73 bd 59 16 31 3d 97 9b 9e 3d 6c 83 92 bd
       -0.05947435 0.043234203 0.0774452 -0.07153973
0001f0 6f e1 a3 bc 0b 30 1e 3e c9 8b 06 bd c2 c5 b2 3d
       -0.020004956 0.15448014 -0.032848153 0.087291256
000200 41 b4 08 3b ef f1 98 bd fd ce 5a bc 41 aa 98 bd
       0.0020859393 -0.0746802 -0.013355014 -0.07454348
000210 20 5d 99 3d e1 6a bc 3e 29 3a f1 bb 05 18 25 bb
       0.07488465 0.36800292 -0.0073616696 -0.0025191319
000220 d1 d4 b4 3d d0 6f ef bc 28 15 d2 bc 1a fd 46 3c
       0.08829654 -0.029228121 -0.025644854 0.012145305
000230 99 38 2e 3c 3d 48 88 3c 13 bd 83 bb 69 0f a2 3d
       0.010633611 0.016636008 -0.004020342 0.079130955
000240 e1 4c 4b bc ae 09 bc bd bb f4 5c be 04 d8 8c bd
       -0.012408466 -0.09181534 -0.21577732 -0.06877139
000250 28 a4 01 be 62 ac 22 be 54 de 45 bb 72 47 f3 3c
       -0.12660277 -0.15886071 -0.0030192332 0.029697154
000260 bb 57 89 bd be 7b 45 be 48 7b 9c bd 09 0c df bd
       -0.067061864 -0.19285485 -0.076407015 -0.108909674
000270 33 30 5c be 83 8f a3 be b7 b4 79 be 1a 61 9c be
       -0.21502762 -0.31945428 -0.24385343 -0.30542833
000280 90 63 73 bd 8c 3c a4 3a bc 06 7a bd 3f 0c 68 bd
       -0.059421122 0.0012530251 -0.06104158 -0.056652304
000290 dc a1 1c bd fb 91 80 3d 5c 06 82 3c e4 27 3a bd
       -0.0382403 0.062778436 0.015872173 -0.0454482
0002a0 b2 24 53 bb 4b a2 ca 3d b7 6e 65 bc 2a 5b b1 bd
       -0.0032217917 0.09894236 -0.014003447 -0.08659966
0002b0 96 2d 31 3c b9 f3 ee bd 29 25 52 bd 47 1e ee bd
       0.010814091 -0.1166758 -0.05130497 -0.11626869
0002c0 73 64 f4 3c 6e 1a 40 bd a8 0d 88 3d f3 64 5e bc
       0.029833054 -0.046900205 0.0664323 -0.013573873
0002d0 4f db 21 3d f5 1a 6e bd 7d 96 9c bc ac 4b 3d 3d
       0.03951579 -0.058131177 -0.019114727 0.046214744
0002e0 a4 79 7a bd ad 98 e6 bd 40 71 9f 3d 60 d7 31 bc
       -0.06115116 -0.11259589 0.077852726 -0.010854572
0002f0 3c ea 5e 3c a9 98 89 b7 04 57 8a bd 73 32 de 3d
       0.0136056505 -1.640276e-05 -0.06754878 0.10849466
000300 1c 31 95 3c 2f 92 1a be f3 97 4d be 20 63 0b be
       0.018211894 -0.15094827 -0.20077495 -0.13612032
000310 78 f5 91 bd 55 33 69 3d 97 d7 89 bc 11 58 aa bd
       -0.071268976 0.05693372 -0.016826434 -0.083175786
000320 86 8a 04 bd 94 3e b9 3d c1 35 0d 3e 10 c9 4b 3d
       -0.03235867 0.09045139 0.13790037 0.049752295
000330 7c 0b e3 bd 46 3e 2c 3d e0 b9 59 3e be 87 f8 bd
       -0.11086175 0.042051576 0.21262312 -0.12135266
000340 a3 f7 40 bc 92 51 3f bd c6 42 2d 3c a1 7d d1 3c
       -0.011777791 -0.04670865 0.010575002 0.0255726
000350 95 a3 e5 3d 55 2f 0c 3c df e9 41 3d 3d 9c 5e 3d
       0.112128414 0.008556207 0.047342177 0.05434822
000360 de 00 60 ba db d2 a6 bd 2f 46 15 bd 63 88 cc 3d
       -0.0008545051 -0.08145686 -0.036443885 0.09986951
000370 1e 37 9f 3d b7 0b 94 bd 2d cf fe 3d f5 29 d7 bc
       0.07774185 -0.07228797 0.124418594 -0.026265124
000380 bc 8e 86 bd f8 6d 7d be e2 f9 c9 bd 42 d6 ad bd
       -0.06570193 -0.24748981 -0.098621145 -0.08488132
000390 2c 07 08 be 8e ef 21 3d c0 82 81 be 68 4b b2 bd
       -0.13283986 0.039535098 -0.25295067 -0.08705789
0003a0 17 30 69 be 1e e0 90 be a4 ed 5d bd 4e 1c 86 3d
       -0.22772251 -0.28295988 -0.05418171 0.065483674
0003b0 22 64 65 3d e4 7c 30 3d a8 f8 b3 3d b7 ba a3 3d
       0.056003697 0.043087855 0.08787662 0.079945974
0003c0 b6 d9 ab 3c 09 85 9a 3d 76 ec 51 3c e2 24 a3 bd
       0.020977836 0.07544906 0.012812724 -0.07966019
0003d0 6f 95 96 bd aa ae 83 bd ec 67 9f bd 2a 11 85 bd
       -0.07352721 -0.06429799 -0.077834934 -0.064974144
0003e0 6b 2d 06 bd 17 00 07 be ff 7a bb bd c4 40 1b bc
       -0.032758158 -0.13183628 -0.09154319 -0.009475891
0003f0 e7 96 41 3d 3f c6 08 3c 1c 2f 84 3d 4c 61 6b 3d
       0.047263052 0.008348047 0.06454298 0.057465836

conv2.conv2d.bias f4 [16]
000000 6f cd 87 3d f1 a2 80 3d 24 5c 18 3d 20 59 49 3d
       0.0663098 0.062810786 0.037197247 0.04915726
000010 ee ad 80 be 34 9c 46 be ad 19 83 bd 40 b4 60 bd
       -0.25132698 -0.19395524 -0.06401382 -0.0548594
000020 b4 23 81 3d 45 71 57 3d bb b0 66 3e 0b ff b4 bd
       0.06305638 0.052598257 0.22528355 -0.08837708
000030 39 6b 9d 3d e7 df d4 3d 00 ba f8 3c 57 8b 0b 3c
       0.07686467 0.103942685 0.03036213 0.008517108

in2.weight f4 [16]
000000 a6 22 1b 3f 9c ff 1c 3f c4 bf 3a 3f dd ad 35 3f
       0.60599744 0.6132753 0.7294886 0.7096842
000010 7a a8 34 3f 3e 27 68 3f cd f5 64 3f 31 77 66 3f
       0.70569575 0.9068488 0.8943756 0.9002562
000020 44 c7 67 3f 37 1b 2b 3f 0f b2 17 3f 86 a4 21 3f
       0.9053843 0.668384 0.5925607 0.6314167
000030 fb e1 36 3f e9 0f 63 3f 78 bc 3a 3f 47 8a 43 3f
       0.7143857 0.8869615 0.7294383 0.7638287

in2.bias f4 [16]
000000 84 c4 3e 3e 58 95 2c be 5f bb 82 3d 7c 2a 9c 3d
       0.18629652 -0.16853845 0.063833944 0.07625291
000010 d9 24 ce be 67 a1 27 3d bb dc 3a 3e 7f 08 35 be
       -0.40262488 0.04092541 0.18248264 -0.17679022
000020 a8 6c 3d 3e bd d7 2f bd 4b e2 5d 3c f1 bd 69 be
       0.1849848 -0.042930353 0.013542722 -0.22826363
000030 d7 69 9c bd 31 f9 36 bd e5 86 5e be 97 d8 85 be
       -0.07637375 -0.04467124 -0.21731146 -0.26141807

conv3.conv2d.weight f4 [32, 16, 3, 3]
000000 6e 22 71 bb 4a c6 27 3d 14 91 b3 bd 27 ef 84 3d
       -0.0036794203 0.040960588 -0.08767906 0.06490927
000010 33 0a b1 3d 5d c1 8e 3d 60 b0 ed 3d 94 d3 aa 3c
       0.086445235 0.06970475 0.116059065 0.020852841
000020 2d 1e b6 3d ad fb 6a 3d 53 e6 ba 3d 76 78 fd bc
       0.08892474 0.057368923 0.09125962 -0.03094123
000030 09 c5 71 bd b7 32 1a 3e 0b a2 e7 3d f9 0f 06 3e
       -0.059025798 0.15058409 0.11310204 0.1309203
000040 ff 9c 15 3c 4e ea 18 3d 09 d4 1b 3e 17 81 c9 bc
       0.009131669 0.037332825 0.15217604 -0.024597688
000050 33 be d6 bc 16 78 e2 3d a6 18 0a be 85 9d aa bd
       -0.02621374 0.11058061 -0.13485965 -0.08330826
000060 d1 e5 d3 3d 23 b6 b0 3d 70 a3 53 3d 7c 67 d8 3d
       0.103465684 0.0862849 0.051669538 0.10566613
000070 52 5e 3d be 2b 18 77 3d ea 6c 82 bd dd 9a c7 bd
       -0.18493012 0.060325783 -0.0636843 -0.09746335
000080 2d e5 96 3d a2 7b 6c be 29 7c d4 bd 91 da f0 bb
       0.073679306 -0.23094037 -0.10375244 -0.007350274
000090 eb f2 47 3d f2 42 21 3e b3 3f cf 3d ca 6b 5f 3b
       0.04881565 0.15748194 0.101195715 0.0034091347
0000a0 a1 a9 8a ba 3c 1f 73 bd 30 4b 0a 3e 3a ff 13 3c
       -0.0010579118 -0.05935596 0.13505244 0.009033019
0000b0 7c 9f 64 3c a9 1f d5 3d 49 7c c7 bd a1 43 2c 3d
       0.01395404 0.10406429 -0.097405024 0.042056683
0000c0 62 ac e7 bb e5 67 03 be c1 c4 04 3c a8 74 1c be
       -0.00707011 -0.12832601 0.00810355 -0.15278876
0000d0 c4 96 db bd 7e 3a d3 3d a9 f3 eb 3b 40 4f 13 be
       -0.10722116 0.10313891 0.0072006774 -0.143857
0000e0 78 bf 43 3d 02 c6 87 3c 5b bb 73 be cb 79 a4 bd
       0.04779002 0.01657391 -0.23801939 -0.08031043
0000f0 61 a2 1d bd 22 fc 73 3a d9 d5 0e 3d 88 79 a2 bc
       -0.038484935 0.0009307285 0.03487191 -0.019833341
000100 a9 ad 80 3d 59 c0 5b bc 4a e8 e9 3c a6 18 e2 3d
       0.06283123 -0.0134125585 0.028553147 0.110398576
000110 06 c7 f2 3d 8b d1 b7 3d 28 4f 93 bc 66 8b 07 3e
       0.11854367 0.08975514 -0.01798208 0.1323677
000120 43 17 95 3b 9f 3c 6c be 05 36 d9 3c 7f 73 df bd
       0.004549892 -0.2307 0.026515016 -0.10910701
000130 d4 22 b2 be 97 6c 81 3d 7d 29 6f be 68 64 2f bd
       -0.34792197 0.0631954 -0.2335567 -0.042820364
000140 e4 84 e2 3d 1e b6 c5 3c d8 cd 8f bd cf f8 8d bd
       0.11060503 0.024134692 -0.070216835 -0.06932222
000150 b5 fc 7f bd ff d4 99 3d 29 de 89 3c b2 19 d2 3c
       -0.06249686 0.07511329 0.016829567 0.025647018
000160 0b fb a7 3c 00 6b 78 bd e7 82 82 bc e0 6c 7e 3d
       0.020505449 -0.06064892 -0.01593156 0.06211555
000170 05 17 b1 bd a3 c5 ae bc 0a 68 1e 3d 67 5f 83 bc
       -0.08646969 -0.021334475 0.038673438 -0.016036702
000180 28 bb b6 bd 5f 77 7e bd 2b f9 89 3d 68 11 93 3d
       -0.08922416 -0.06212556 0.06736978 0.07181054
000190 8d 3f 24 3d 82 42 b4 bc 97 e2 30 bd e2 12 9b bd
       0.04009967 -0.02200437 -0.043184843 -0.07571961
0001a0 dc 7f 59 3c a4 8f 32 bc b4 dc d1 bc 0a 9d 83 3c
       0.013275113 -0.010898504 -0.025617935 0.016066093
0001b0 71 fd fe bd 7a 74 1b be 9e ec 20 be de f1 bb bb
       -0.12450684 -0.15181151 -0.15715262 -0.00573562
0001c0 97 54 39 be 9e a4 14 3c 0b b8 c1 bb 28 45 86 ba
       -0.18098675 0.009072451 -0.005911832 -0.0010243999
0001d0 48 62 29 3e 20 24 6e bd 8d e8 98 3c fa 68 36 3c
       0.16541398 -0.05813992 0.018665576 0.011133427
0001e0 20 93 66 bd 46 ad 36 3d 42 1b 49 3d e5 0f ef 3d
       -0.056292653 0.04459884 0.04909826 0.116729535
0001f0 fc f8 16 bd 0a ba 19 bc 6c 6f a5 bd 5f 14 b8 3d
       -0.036858544 -0.009382734 -0.08077893 0.089882605
000200 a4 27 b8 3c 3a 94 6d bd 06 d8 d4 3c 7b 68 30 3e
       0.02247984 -0.058002688 0.025981914 0.17227356
000210 4c ed 36 bb 02 58 b8 bd 43 16 31 bd 3e 65 9f 3c
       -0.0027912436 -0.09001161 -0.04323412 0.019457456
000220 43 69 a6 3d ef 60 38 3d fb ff be 3d f6 a6 81 3d
       0.08125546 0.045014318 0.09326168 0.063306734
000230 d6 82 9f bc 2b 5e 02 3d ed 0f c8 3c 1a a2 32 bd
       -0.019471567 0.031828087 0.024421657 -0.043611623
000240 c6 63 e7 bc c7 9c 0b 3d 5d a8 d0 bd f9 ca 9f bc
       -0.028245818 0.03408506 -0.10188363 -0.019505965
000250 13 ae 92 3c 15 c5 c8 bd 33 87 cb 3d 61 71 41 3d
       0.01790527 -0.098032154 0.099378966 0.047227267
000260 67 12 ed bd 20 49 75 3d dc c5 0b bd 36 b1 4a bd
       -0.115757756 0.05988419 -0.03412424 -0.049485408
000270 12 94 01 3d 40 7d 99 3d 3e 6e 86 bd 00 fe 88 3d
       0.03163535 0.07494593 -0.06563996 0.06689072
000280 8e 20 f3 3c 23 45 26 be 6f e7 23 3d c9 1b 5d b9
       0.02967861 -0.16237311 0.040015634 -0.00021086553
000290 4c 86 58 3d b9 24 23 3d 20 b9 ee bd a4 c3 40 3d
       0.05286245 0.039829943 -0.116564035 0.047061577
0002a0 b0 06 7d bc 02 6e 95 bd 25 e5 ab bd 24 e3 dd bd
       -0.015443489 -0.07296373 -0.08393315 -0.10834339
0002b0 cd 06 37 3c 15 32 9f 3d 3c e5 4f be fb 64 09 bc
       0.011171055 0.07773224 -0.2030229 -0.008385892
0002c0 e8 cd 51 3d 7c 0a 4f be b3 6e eb 3c 53 61 32 3d
       0.051221758 -0.20218843 0.028739309 0.043549847
0002d0 f0 25 f6 bb c4 cd c8 bd 72 c7 b7 bc 0d e2 86 3d
       -0.0075118467 -0.09804872 -0.02243397 0.065860845
0002e0 2c 95 7f bd 76 f5 82 bd 5f 55 fe bc ed 0b 3d be
       -0.06239812 -0.06394474 -0.031046567 -0.1846158
0002f0 0a b7 72 bd 3f 62 a7 bc 4f d5 4f bc fe b4 8e bc
       -0.05925659 -0.02043259 -0.012685134 -0.017420288
000300 10 19 b1 bd 58 55 1f 3d 8c 50 9e 3d b7 2e ac bd
       -0.086473584 0.03889975 0.07730207 -0.08407348
000310 76 14 42 bd 6e 59 16 3e 8f 87 95 3c 0d 69 c3 3c
       -0.047382794 0.14682552 0.018253116 0.023853803
000320 4a bc 67 3c 29 07 e1 ba ae e9 96 bd 3c 34 03 3e
       0.014144013 -0.0017168272 -0.073687896 0.12812895
000330 64 dc 2f be 05 fa 83 bd 74 5f 02 3e 14 a3 1d 3e
       -0.17173916 -0.06444172 0.12731725 0.1539424
000340 87 51 37 be 1a 83 8b bd ee 45 0b 3e 34 9b 70 be
       -0.17902194 -0.06812115 0.13600895 -0.23496705
000350 60 0f 1a 3c e3 ee 23 3d 83 11 b9 bd 59 94 0c be
       0.00940308 0.040022742 -0.09036543 -0.13728465
000360 db 28 dc bd 21 0e 54 3d 61 da 07 3e 9e 6e ec bd
       -0.1074998 0.051771287 0.13266899 -0.11544536
000370 f3 ca 29 bd 62 7b 57 3d d6 60 1f be 1c 90 e0 3c
       -0.041453313 0.0526079 -0.15564284 0.027412467
000380 5c e0 90 3d f7 45 0a 3d 66 77 ee 3c 18 92 be 3c
       0.07074043 0.03375813 0.029109668 0.023263022
000390 a0 b1 2b 3a e9 aa c0 3c 3a 33 22 3c ef f5 ee bc
       0.00065496005 0.023518996 0.009899909 -0.029170005
0003a0 e3 b5 f8 3c 67 85 88 bd 90 7c 46 bd 6a 13 0b 3d
       0.030360168 -0.066660695 -0.048458636 0.03395406
0003b0 da 4a f4 bd f6 1f 4d 3d 3c d2 fc bc 90 df be bc
       -0.11928339 0.05007931 -0.030861966 -0.023299962
0003c0 7d 4a da 3c 16 fb c4 3c c2 64 6a bc 69 c0 00 bd
       0.026646847 0.024045508 -0.014306249 -0.031433497
0003d0 89 48 da bd 3f ca 5a 3d b6 08 87 bd de 7d 64 bd
       -0.10658366 0.053415533 -0.06593458 -0.0557841
0003e0 78 5c 36 3d 10 c6 6b bc be d1 87 bd d1 70 e3 bd
       0.04452178 -0.0143904835 -0.06631802 -0.111055024
0003f0 51 3a d1 3d 24 23 b4 3c 5a 28 c0 3d 1e 3a cb 3c
       0.10216201 0.021989413 0.093826964 0.024807986

conv3.conv2d.bias f4 [32]
000000 6a e0 af 3c 7f 97 3c be 62 22 47 3c a4 4e 56 3d
       0.021469314 -0.18417166 0.012154194 0.05232109
000010 a1 ef 4a 3d 57 9f fd 3c 9d 01 29 bd 99 dd 30 bd
       0.049544934 0.030959768 -0.041261304 -0.043180082
000020 48 3b 46 bc 60 6f 8d bc 6c 59 ea 3d 01 7b d4 bb
       -0.012099095 -0.017265022 0.11442837 -0.00648439
000030 70 03 43 bc 02 34 3a 3c 74 2d cd bc cb 56 c1 3c
       -0.011902675 0.011364939 -0.025046088 0.023600956
000040 51 68 25 3d 6e c9 30 bd a4 33 74 bb ee 78 ae 3d
       0.040382687 -0.04316085 -0.0037262226 0.08519159
000050 3e fb dc 3d 62 ab 84 bc 8c aa b7 3d 44 d2 63 3d
       0.10790108 -0.016195003 0.08968076 0.055620447
000060 1b 44 51 bc 8f 2c 33 3d 91 ce 8b bd 03 f5 0d be
       -0.012772585 0.043743666 -0.06826509 -0.13862996
000070 c9 2d a0 3d 99 49 4b bd 71 4f 0c bd 42 2b 05 be
       0.07821233 -0.049630735 -0.03425545 -0.13004783

in3.weight f4 [32]
000000 1f f4 2b 3f bd 6c 48 3f ee 61 69 3f 8d 4c 5a 3f
       0.67169374 0.7829092 0.91165054 0.8527306
000010 9d a8 3f 3f d0 70 51 3f 1a 62 4e 3f d0 af 25 3f
       0.7486666 0.81812763 0.8061844 0.64721394
000020 0a 6a 33 3f f8 76 55 3f 1f fe 29 3f 7e 4b 49 3f
       0.7008368 0.83384657 0.66403383 0.78630817
000030 3f 02 2f 3f 7d fe 1d 3f 9b ed 68 3f c6 c1 2f 3f
       0.683628 0.61716443 0.9098756 0.6865505
000040 07 1c 39 3f 75 54 44 3f b8 3a 31 3f 3a 0d 4b 3f
       0.7230839 0.7669137 0.6923022 0.7931706
000050 6f 25 5c 3f b2 69 47 3f de d8 24 3f c9 c8 3b 3f
       0.8599462 0.77895653 0.64393413 0.7335325
000060 f7 8f 3b 3f 43 33 2e 3f e2 cb 3f 3f 43 0c 3b 3f
       0.7326655 0.6804697 0.74920475 0.73065585
000070 ce db 37 3f 8c c9 60 3f 66 1f 43 3f 5a 84 14 3f
       0.7181977 0.87807536 0.76219785 0.5801445

in3.bias f4 [32]
000000 63 55 11 be ed bf 21 bd 64 e4 13 bd 9d e2 ac bd
       -0.14192729 -0.039489675 -0.036106482 -0.084416606
000010 0b 87 4a be 68 fe b6 bd bd 44 2d bd 0d 0e 27 bd
       -0.19778077 -0.08935243 -0.042301882 -0.040784884
000020 69 4b a7 bd 16 de 16 3c 9d 7b 42 be 79 c1 e0 bd
       -0.0816868 0.009208223 -0.18992467 -0.10974402
000030 d5 58 da bd 52 80 d3 bd 3a 22 cb bd e2 51 b2 bd
       -0.106614746 -0.103272095 -0.099186376 -0.08707024
000040 6b 70 6b bd 7d da 82 bd 0b fa 59 bd 86 78 6a bd
       -0.057480257 -0.063893296 -0.053216975 -0.057243846
000050 41 ca 20 be 85 fa 76 be 2a 7e d2 bd 6c 39 83 bd
       -0.15702154 -0.24119003 -0.1027797 -0.06407437
000060 b3 15 cf bd b4 f5 2a be 19 46 86 bd 10 32 4c bd
       -0.10111561 -0.16695291 -0.06556339 -0.04985243
000070 c5 b1 18 be 19 b5 a5 bc 8e cb 21 be 8b 57 89 bd
       -0.14911564 -0.020227956 -0.15800306 -0.067061506

resnets.0.conv1.conv2d.weight f4 [32, 32, 3, 3]
000000 48 24 88 bc 2c 8b b7 3c 55 df 82 3d 7f 9f f4 b9
       -0.016618863 0.02240523 0.063902535 -0.0004665814
000010 ac 46 f0 3c b1 96 5d bc 72 2e 45 bc 92 85 94 3c
       0.029330574 -0.013524697 -0.012034999 0.018130098
000020 2e 38 c3 bd ae c6 81 bd 72 79 b1 3d 84 1f 9f bd
       -0.095322 -0.06336723 0.08665742 -0.07769683
000030 94 9e f9 3c 11 a0 05 be aa df b6 3d fd 40 eb 3d
       0.030471124 -0.13049342 0.08929379 0.11487005
000040 85 5e ac bd f0 cc 7a 3d 15 7f 7d 3d 19 7a e5 38
       -0.08416466 0.0612306 0.061888773 0.000109423134
000050 06 f6 9a 3d f7 74 10 3e 33 e7 a8 bd 85 59 17 bc
       0.075664565 0.14107119 -0.08247223 -0.009237652
000060 9f 5f e0 3c ee b8 0d bd 8b b8 03 bd 79 d9 c6 bd
       0.027389346 -0.03460019 -0.032158416 -0.09709448
000070 14 eb c2 bd 80 f4 c0 3d a9 0c 87 bc b5 1f d4 bd
       -0.09517494 0.09421635 -0.016485529 -0.1035761
000080 29 47 ed bc cf 36 f3 3b 55 d2 15 3d dc cb 6f bd
       -0.028964596 0.007422305 0.03657754 -0.058544025
000090 e0 0f 82 3c f8 17 61 bd c5 f8 8b 3c ec 07 24 3d
       0.01587671 -0.0549545 0.017086396 0.040046617
0000a0 2a 15 ff bc f5 db 83 bc b2 87 fc bd 8d 25 53 bd
       -0.031138021 -0.016096095 -0.12330569 -0.051549483
0000b0 96 40 03 bd 0a 24 dd bc 2f 40 b5 3c 2f 71 7e 3d
       -0.032044016 -0.026994724 0.022125332 0.06211966
0000c0 f4 b1 37 3c 29 4c b4 bd 04 f7 48 3d 6b dc 60 3d
       0.011211861 -0.08803589 0.049063697 0.054897707
0000d0 34 1e 5b bd d9 be 4f bd 18 9e f5 bd 96 9c 68 3d
       -0.0534956 -0.050719116 -0.119930446 0.056789957
0000e0 f5 5b a6 bc de f0 2d bd 83 87 ae bd 29 7d a5 3d
       -0.02030752 -0.042466037 -0.085219406 0.08080513
0000f0 07 b4 d2 3c 82 eb b8 bd 05 07 07 3e 27 c2 94 bc
       0.02572061 -0.090292946 0.13186271 -0.018158985
000100 42 61 04 3d 83 3d d6 3c 85 2e 3b bd d0 e6 23 3c
       0.032319315 0.026152378 -0.04569866 0.01000376
000110 d8 15 13 bd ce 34 fa 3c ba d2 15 bd 08 ce 20 bd
       -0.035909504 0.030542757 -0.036577918 -0.039258987
000120 67 ea 4e 3d 15 1f 8b bd e3 c9 c9 3d a2 ca d9 bd
       0.050516512 -0.06793038 0.0985296 -0.10634352
000130 e7 64 a2 3d 2d bc f1 3c 4e fe e7 bd 57 21 1e 3d
       0.07929402 0.029508675 -0.11327802 0.038606014
000140 d6 db 83 bd 46 73 a5 3d 59 2e 7e bd d2 4e 46 3d
       -0.06438415 0.08078627 -0.06205592 0.048415013
000150 d0 3f c1 3d f7 7b 0c be f9 a0 27 3d fb 6b e2 ba
       0.094359994 -0.13719164 0.040925 -0.0017274612
000160 c2 f8 4a 3d e3 2e 7f bd 66 5a 9f 3d 02 99 d6 bd
       0.04955364 -0.062300574 0.07780914 -0.10478403
000170 1d b7 75 bc ad e5 9b 3d c6 15 56 bd 3e 95 f0 bd
       -0.014997271 0.076121666 -0.05226686 -0.11747216
000180 dc 52 b0 bd 4c 02 84 bc 67 cc 50 bd e0 52 d4 3b
       -0.08609554 -0.016114376 -0.050976183 0.006479606
000190 01 5f b7 bd 02 58 a1 3d 98 61 17 bd a8 04 56 bc
       -0.089536674 0.07878114 -0.036958307 -0.013062634
0001a0 2f 9c 61 bd dd 69 33 bd 9e c0 b3 3c 78 1b ec 3c
       -0.05508059 -0.04380213 0.021942433 0.028821692
0001b0 61 a3 1f bd 72 92 9e bc 29 b1 f0 3d 16 dc ef 3c
       -0.03897417 -0.01935694 0.117525406 0.02927975
0001c0 1f 72 5a bd db 99 52 bc 51 65 1c be 08 f0 be 3d
       -0.05333149 -0.012854065 -0.15273024 0.09323126
0001d0 af b8 58 bd b9 fa de bc 8e ee 5e 3d 4c ac d1 bc
       -0.052910503 -0.027219163 0.054426722 -0.025594853
0001e0 aa dd 3f 3c 8e ef a2 3d 78 ca d5 bd 1e 9b ec 3c
       0.011710564 0.07955848 -0.104390085 0.02888256
0001f0 ba 7c 56 bd 11 f8 92 3d 59 33 44 bd 99 f5 2b bc
       -0.052365042 0.07176221 -0.04790053 -0.010495567
000200 c7 66 d6 bd e7 b6 a5 bd 54 4e 69 3d 97 7b e8 bd
       -0.10468822 -0.080915265 0.056959465 -0.11351698
000210 ce 3d 53 bd 70 60 30 be c3 e3 cf 3c 5b bf 26 bd
       -0.051572613 -0.17224288 0.02537716 -0.040709835
000220 a9 63 96 3d 32 9c 00 bd de 20 ce 3c 81 bb 29 bd
       0.073432274 -0.03139896 0.025162157 -0.041438583
000230 59 6b 9f bd ff e0 44 bb 4d 90 bd bd 16 0a 85 3c
       -0.07784147 -0.0030041335 -0.09256039 0.01624016
000240 64 ee 5b bd 49 e1 d4 3d fb 7e 27 3d 52 9c f0 bd
       -0.053694144 0.10394532 0.040892582 -0.11748566
000250 11 dd 15 3e ff a2 e2 3d 31 34 0b 3d 0b 5b a3 bb
       0.14635111 0.11066245 0.03398532 -0.0049852184
000260 63 6e be 3c 15 d4 c7 bd 42 2c 0c 3d 43 7a 48 3d
       0.023245996 -0.09757248 0.034221895 0.048944723
000270 ab 05 ad 3c 3d 7f d0 bd db 09 14 3d 9f 57 b4 3d
       0.021120867 -0.10180519 0.03614221 0.08805775
000280 04 bf 51 bd 8c 57 80 bb 9f 11 e9 3c fe c2 25 bd
       -0.051207557 -0.0039166864 0.028450785 -0.040469162
000290 19 e1 5c 3d 70 da 89 3d b1 85 03 bd 5a 35 60 3d
       0.053925607 0.06731117 -0.03210992 0.05473838
0002a0 99 b2 b1 3c 41 0d f0 3d 02 e9 d1 bd bb ef 9d 3b
       0.021691607 0.11721278 -0.10249521 0.004819838
0002b0 2c f6 33 bb 99 b7 21 3d d8 3e c2 3c ce e8 85 3c
       -0.0027459962 0.039481733 0.023711607 0.016346361
0002c0 dc e1 69 3c 3c a4 5a 3d 51 62 40 bd 57 61 31 3d
       0.0142750405 0.053379282 -0.04696876 0.04330572
0002d0 2b 63 e6 bd d3 22 3d bc d7 b9 b1 bd b4 d5 28 bd
       -0.112493835 -0.011543947 -0.08678024 -0.04121943
0002e0 cc a1 ad bd f3 20 ff bc 50 65 41 bd 31 ce 66 bd
       -0.08478126 -0.031143641 -0.04721576 -0.056348983
0002f0 fd 0d e9 bd 10 77 ff bd d3 b9 0a 3c c4 42 da 39
       -0.11379621 -0.12473881 0.0084671555 0.00041629944
000300 59 ec 22 3d 0f 11 3f bd 4f 84 c1 3d 67 70 e6 3d
       0.03977618 -0.046647128 0.09449064 0.11251908
000310 17 82 42 3d d2 ee 50 3c ed 24 20 3d 19 d4 42 bd
       0.047487345 0.012752252 0.039097715 -0.047565553
000320 04 17 a3 bc 74 9a 57 3d c3 c5 75 3d 1c d7 91 bc
       -0.019908436 0.052637532 0.060003053 -0.017802767
000330 c9 e5 ae 3d fe 56 a7 3d 29 f6 d3 3c 8b fa 8a 3d
       0.08539922 0.08170889 0.025874214 0.067860685
000340 80 ab ed 3c 4e 3f 78 3d 72 3e ce 3d a4 8a 3d be
       0.029012442 0.060607247 0.10070504 -0.18509918
000350 39 b9 0d 3d c2 c8 f1 bc 35 52 c2 3d 9b 32 09 be
       0.03460047 -0.029514674 0.09488336 -0.1339821
000360 a7 f4 45 bd 66 40 e6 bd 0b 21 36 bc 4d 29 09 3d
       -0.04832902 -0.11242752 -0.0111162765 0.033486653
000370 6a ee 1a 3d 89 0c 81 3d 20 7d 6b 3d 60 0c 7a 3d
       0.037825026 0.06301219 0.057492375 0.061046958
000380 04 05 7b bd 9b ad b6 3d 2e f4 9d bd e7 88 79 3d
       -0.06128408 0.08919831 -0.07712589 0.060921576
000390 4f 5a f8 3c 07 be ea 3b 01 79 85 bd e3 23 93 3c
       0.0303165 0.0071637663 -0.0651722 0.017961448
0003a0 30 e9 6e 3d 18 3d 94 bc 3f b9 be bb 13 44 1b bd
       0.058327854 -0.018095538 -0.005820423 -0.037906718
0003b0 97 35 2c 3d 0f c8 6c bc 92 41 dd bc d1 ec 43 3d
       0.042043295 -0.014451995 -0.027008805 0.047833268
0003c0 5b cc 97 b9 2c e7 d6 3a de be fa 3b 98 05 ff bc
       -0.0002895322 0.0016395799 0.0076521477 -0.031130597
0003d0 3b 54 db 3c f8 f1 37 3d ff cd 0d be 43 98 0a 3e
       0.026773563 0.044908494 -0.13848113 0.13534646
0003e0 b8 e5 c0 bd 4b fc 64 bc 59 0b ca bd 3d e8 8d 3d
       -0.094188154 -0.013976167 -0.09865446 0.069290616
0003f0 1b 2b bc bb 1a 2c 79 bd 2e c4 37 bd 10 10 6f 3c
       -0.0057424433 -0.060833074 -0.044864826 0.014591232

resnets.0.conv1.conv2d.bias f4 [32]
000000 71 53 bc bd 5c a5 70 bd 13 6a b3 3d 32 5a 97 3d
       -0.09195603 -0.05875145 0.087604664 0.0739025
000010 43 4d f2 3a 01 9d 84 bd 85 6d e1 3d 53 bb fa bd
       0.001848616 -0.064752586 0.11007217 -0.122427605
000020 d1 fb f1 3d ce 93 67 3e f0 df 59 3d 88 ed b5 bd
       0.11815608 0.22614977 0.05319208 -0.08883196
000030 e7 4a 34 bd d2 dc e8 3d ea 07 f3 bd 94 a4 95 3c
       -0.044016745 0.11370243 -0.11866744 0.018266954
000040 90 06 7f 3c c9 bf d6 3d 16 69 45 3c 8e 5c 9d 3c
       0.0155655295 0.10485799 0.01204898 0.019209173
000050 c4 0d 5b bd db 7d ad 3d 99 3f b1 3d 48 4c 96 3d
       -0.053479925 0.08471271 0.086547084 0.07338768
000060 8f 17 40 3d 9a e9 50 bd 64 d1 f4 3d ea 77 d0 bc
       0.046897467 -0.05100403 0.119540006 -0.025447804
000070 04 80 d4 3d 2f 34 a1 bd 59 5e d9 3c 39 85 ec bc
       0.103759795 -0.07871281 0.026534246 -0.02887212

resnets.0.in1.weight f4 [32]
000000 b1 fd 8b 3f 7f ae 75 3f 7b f7 76 3f 60 e6 68 3f
       1.0936795 0.95969385 0.96471375 0.90976524
000010 e8 62 65 3f 95 b1 7f 3f f1 26 5c 3f f8 15 85 3f
       0.89604044 0.99880344 0.8599692 1.0397329
000020 ec ac 83 3f f6 51 81 3f 38 a6 55 3f 7c 08 6c 3f
       1.0287147 1.0103137 0.83456755 0.92200446
000030 33 31 83 3f e4 8e 74 3f 02 c0 7f 3f 24 dd 79 3f
       1.024939 0.95530534 0.99902356 0.9760306
000040 a2 13 6e 3f db ff 6c 3f df cf 87 3f d8 6d 72 3f
       0.9299871 0.92577904 1.0610312 0.9469886
000050 22 8d 71 3f 39 a6 78 3f 3c c1 68 3f 3a 23 5a 3f
       0.94355977 0.97128636 0.9091985 0.8521
000060 66 6c 78 3f 0d 63 63 3f ce ef 7d 3f 73 fe 90 3f
       0.970404 0.88823014 0.9919404 1.1327652
000070 8c c4 6b 3f f7 96 71 3f 88 1c 7b 3f 76 af 85 3f
       0.9209678 0.9437098 0.9809041 1.0444171

resnets.0.in1.bias f4 [32]
000000 d9 25 84 bd 76 35 0b 3c c8 36 58 3d 22 5f 04 bf
       -0.06452531 0.008496633 0.05278662 -0.5170766
000010 1e 8e 84 bd 9e 40 a7 bd f1 58 af bd 6f 44 75 be
       -0.06472419 -0.081666216 -0.08561886 -0.23951887
000020 52 8f af bc ca ab a7 3c 75 dc a4 be 3f 82 0d be
       -0.021430645 0.020467658 -0.32199445 -0.13819216
000030 24 9b 2c be c8 5a 0d 3d 55 39 9b be ca c5 1b be
       -0.16856056 0.034510404 -0.30317178 -0.1521217
000040 52 fc 35 be b9 82 dc 3c 7d f7 be be f6 24 6a be
       -0.17772034 0.026917802 -0.37298194 -0.22865662
000050 53 3f 8e be 48 a1 d6 bd 75 71 20 be 71 62 17 be
       -0.27782688 -0.10479981 -0.1566828 -0.14783646
000060 47 80 8c bd b5 54 06 be 4b 83 99 be 90 0a 1b be
       -0.068604045 -0.1311825 -0.2998298 -0.15140748
000070 f9 72 1a 3c e2 e0 f3 be 31 9d a8 be df f6 1a bd
       0.009426826 -0.4763251 -0.32932428 -0.03783309

resnets.0.conv2.conv2d.weight f4 [32, 32, 3, 3]
000000 b0 14 3c bd 46 d7 c3 3c bf 38 3c bd 4d 3a ad bc
       -0.045918167 0.023906361 -0.045952555 -0.021145964
000010 35 ac 32 bd c1 fe 11 3d e3 1e 3a 3c 94 56 1c be
       -0.04362126 0.035643343 0.011359903 -0.15267402
000020 a2 a5 1b 3e 32 ce f7 3b 19 81 77 3d 20 39 e7 3c
       0.15199903 0.007562422 0.06042585 0.028225482
000030 f2 84 3e 3d 30 ae 23 bd f5 c6 76 bd cc c2 55 bc
       0.046513505 -0.03996104 -0.060248334 -0.0130469315
000040 c6 cb f4 3c e0 24 b8 bd ef 8e a7 bc 8b a1 d5 bc
       0.029882323 -0.08991408 -0.020453898 -0.026078006
000050 30 99 aa 3d d2 21 c7 bd 57 6b 99 3d e1 de 3e 3c
       0.083299994 -0.097232476 0.074911766 0.011649818
000060 23 79 45 bb 09 c2 fa 3d bf 41 24 3b 07 85 d2 bc
       -0.0030132018 0.122440405 0.0025063602 -0.025698198
000070 aa 58 d9 3c 41 4b a4 3d 83 70 03 bd 6c 34 4d 3d
       0.026531536 0.08022166 -0.03208972 0.05009882
000080 0a 40 88 bd 00 d2 dd 3c fb ac ad 3d f9 7c b9 bd
       -0.066528395 0.027077675 0.08480259 -0.0905704
000090 79 62 b0 bc 30 08 f2 3b 97 4d af bc a5 d0 41 3d
       -0.02153133 0.00738623 -0.021399302 0.04731812
0000a0 62 50 da 3d 3d 43 1c bd c2 88 ba 3d ac 8a 8a 3d
       0.10659863 -0.03815006 0.09108116 0.06764731
0000b0 6d 63 8d bd 34 67 a8 bd 79 1a a6 bb b4 99 bc bc
       -0.069037296 -0.082228094 -0.0050690738 -0.02302251
0000c0 8e 8c b2 3c 3e bc 09 be ce 7c f0 bd 51 e5 67 3d
       0.021795537 -0.13450715 -0.117425546 0.056615178
0000d0 76 9d a9 bd 6a b4 e0 bb ad 70 ba bc b0 bd 8b bc
       -0.082819864 -0.0068574445 -0.022758806 -0.017058223
0000e0 12 c2 c4 bc 60 f0 8d 3d b4 c7 0e 3d 1c 5c ee 3d
       -0.024018321 0.069306135 0.03485842 0.11638662
0000f0 be 82 1b 3d 26 38 3c 39 7e cd 93 bb 7f ba e3 3c
       0.037966482 0.00017949994 -0.0045105806 0.02779889
000100 de 03 9c bd 84 33 0b 3b 85 27 9a 3c 9c d0 11 3d
       -0.07617925 0.0021240423 0.018817673 0.035599336
000110 1d 16 1f 3d fd 5d 7e 3c 3d 5a 2d bd b8 16 42 bd
       0.03883945 0.015525338 -0.042322386 -0.047384948
000120 bb 60 b6 bd 83 f0 e0 bd 8d 4d 4c bc 34 ab 4c bd
       -0.089051686 -0.10983374 -0.012469661 -0.04996796
000130 22 79 da 3c 8d a6 17 3d 78 75 62 bd 0a 30 f8 bd
       0.026669089 0.03702407 -0.05528781 -0.12118538
000140 06 85 bf 3c cc 2b 82 3d 8f 58 4e be ce e5 00 bd
       0.02337886 0.0635601 -0.2015097 -0.03146916
000150 c2 ff 25 3c c5 32 be be ca a7 60 bd 5e 48 2a 3d
       0.010131778 -0.3714811 -0.054847516 0.04157292
000160 02 6b 06 be 2a f7 b8 bd 9c af 81 bd 2e 48 97 bd
       -0.13126758 -0.09031518 -0.06332323 -0.07386814
000170 78 5e ce 3d 04 07 55 3d 69 83 c4 3b c8 79 27 3d
       0.10076612 0.052008644 0.0059971106 0.040887624
000180 f4 e5 28 3e 2d b4 66 bc a4 f3 1d bd 66 d0 8c bd
       0.1649397 -0.014081043 -0.038562432 -0.06875686
000190 ab b3 ba 3c 06 7e f7 bc 36 88 36 bd 41 53 06 bd
       0.02279075 -0.03021146 -0.044563495 -0.03279424
0001a0 41 49 50 3d 6a f5 8e bc 8a a4 c0 bb 53 52 61 3d
       0.05085111 -0.017451007 -0.0058789896 0.05501015
0001b0 6b 22 7e bd b6 04 3c bc ef eb 14 be 44 2e 08 3e
       -0.062044542 -0.011475733 -0.14543127 0.13298899
0001c0 17 2e a8 bc 8f e4 e3 bd e1 0c f9 3b 3e fa fe 3c
       -0.02052979 -0.111275785 0.0076004122 0.031125184
0001d0 95 40 48 bd 3c 30 50 3d 77 63 42 bd 37 d7 5b 3d
       -0.048889715 0.05082725 -0.04745814 0.05367204
0001e0 78 a8 24 bd ec 78 16 be a7 01 22 3d c0 4f 66 bd
       -0.040199727 -0.14694566 0.039552357 -0.0562284
0001f0 dc 9a 3c bd 54 5d 38 3c ae 12 b2 bd 45 f4 65 bd
       -0.046046123 0.01125272 -0.08694969 -0.056141157
000200 89 e9 8b bd 19 ab 83 bd 9b 0d b8 bd e9 dd 14 bd
       -0.06831653 -0.06429119 -0.0898697 -0.036344443
000210 9b 8c 18 bd b3 9d 44 3a ff 75 8d 3c de c5 08 be
       -0.037243467 0.00075003057 0.017268179 -0.1335673
000220 36 b2 09 be 6f 7b 03 bd 55 52 4a bc 49 e6 ca bb
       -0.13446888 -0.032100137 -0.012348731 -0.006192003
000230 3d 88 9d bb 85 24 21 3d 5a 5a 50 bc bf 84 82 bc
       -0.0048075006 0.03934147 -0.012716854 -0.015932439
000240 3d fb 5c bd e4 26 2b bd 14 24 cf bd a9 50 14 bd
       -0.053950537 -0.041785136 -0.10114303 -0.036209736
000250 60 78 f2 bd 11 a1 e1 bc 7b a0 c4 3c 6b f3 8d 3d
       -0.11839366 -0.027542623 0.024002304 0.06931194
000260 58 a8 de bc 20 48 a6 bd 89 f5 fb bd 0a 0a 2e 3d
       -0.027179882 -0.081192255 -0.123026915 0.042490043
000270 bf 9d e2 bd 19 36 f7 bd b2 1c c4 3c d5 f1 8d bd
       -0.11065244 -0.12070865 0.023939464 -0.069308914
000280 93 46 3c bd b8 85 59 3b 26 66 e3 3c c2 0b 3a bc
       -0.045965742 0.0033191275 0.02775867 -0.011355342
000290 f3 ee 16 3d 9a 23 88 3d 80 4b 66 3d 84 40 b4 3c
       0.036848973 0.066474155 0.056224346 0.02200342
0002a0 59 0b 94 3d 50 bb 07 3b 04 6f 72 bd f3 bb 98 3c
       0.07228727 0.0020711012 -0.059187904 0.018644309
0002b0 87 d3 99 3c 3d ce d2 3d c2 52 14 bd fd 7a 7b 3d
       0.018777622 0.10293243 -0.036211737 0.061396588
0002c0 41 62 1d ba 67 1b 7a 3d e9 6a 8b bd 1b 0a 9e bd
       -0.00060037157 0.06106129 -0.06807501 -0.07716771
0002d0 6b e2 83 bd 3a df b8 bd 20 a5 f3 3c 9e 01 ba 3b
       -0.0643967 -0.09026952 0.029741824 0.0056764623
0002e0 55 a8 d1 3c 0c 0d 50 3d 3a c1 31 3d 0b e9 13 3d
       0.025592962 0.050793692 0.043397166 0.03611092
0002f0 14 7f 9b bc 85 2c a3 bc 1d 37 92 bc 68 a1 15 3b
       -0.018981494 -0.01991869 -0.017848546 0.0022831801
000300 f7 9c 12 3d 81 41 fc bc 8f f2 2b bd 6a 7f 28 3a
       0.035794225 -0.030792953 -0.04197937 0.00064276776
000310 f3 60 84 3c 60 c8 81 bd 14 2a b5 3d 97 d9 88 3d
       0.01615951 -0.063370466 0.088459164 0.06682127
000320 19 a4 f3 3d 05 73 70 3d fe 28 50 3c 43 7e fb bc
       0.118965335 0.05870344 0.012705086 -0.030699855
000330 75 f2 bc 3d 8d 39 59 ba 29 78 a9 bc 72 81 3f bd
       0.092259325 -0.0008286469 -0.02068718 -0.046754308
000340 ea 56 a7 3d 33 a1 12 3d 67 67 94 bb 25 26 73 3d
       0.081708744 0.035798263 -0.004528928 0.05936255
000350 58 7a 12 bd 0c 0e 18 3d ce b8 a0 bc 2b 76 cf bb
       -0.035761207 0.03712277 -0.019619372 -0.0063312254
000360 ff ce 6c bd 7b 93 37 3d 47 71 f5 bd d8 2e 30 bc
       -0.057814594 0.044818383 -0.119844966 -0.010753356
000370 9d 86 ad 3c bb 5a c0 bd 09 e8 9b bd 38 b6 3c bd
       0.021182353 -0.093923055 -0.076126166 -0.046072215
000380 7e 22 65 3c 41 ee 9b 3d 8e 1e 55 3d 93 99 f4 bb
       0.013985274 0.07613803 0.052031092 -0.0074645965
000390 4a 0c dd 3c 83 9a 3b bd 61 a6 65 bd 4e ae 4c bc
       0.026983399 -0.04580165 -0.056066874 -0.012492729
0003a0 42 5d 3a 3d a5 bd 52 3d fe 11 bd 3c f6 2a c2 bc
       0.045499094 0.05145039 0.023079868 -0.023702126
0003b0 ee 94 66 3d 27 c8 8d bd 7f e3 80 3d 90 ba 3e 3d
       0.056294374 -0.06922942 0.062933914 0.04656464
0003c0 31 c8 ea 3b 78 da fc 3d 7b 21 3e bd 32 09 87 3d
       0.007164978 0.12346357 -0.04641865 0.06593551
0003d0 94 84 74 3d bf d7 b7 3c 75 3f 4e 3c f8 07 10 bd
       0.05969675 0.022441743 0.0125883715 -0.03516385
0003e0 05 7a 01 3d 21 17 32 3d 1a dc 9d bd 68 db f1 bd
       0.031610508 0.04347909 -0.07707997 -0.118094265
0003f0 97 b6 64 3c 91 50 cf 3c 1a 43 c7 bb cb c4 8e 3c
       0.013959548 0.025306972 -0.006080997 0.017427823

resnets.0.conv2.conv2d.bias f4 [32]
000000 fc 27 c5 3c 30 2f d1 3d 8e 59 6f bd c8 fd 81 3c
       0.024066918 0.102140784 -0.058435015 0.015868083
000010 89 29 c4 3d 6a e2 c1 3c db a7 f5 3b f4 1f 90 3d
       0.09578235 0.023667533 0.0074968166 0.070373446
000020 54 7d 6c bd 51 a7 af 3d 8c 82 47 bc 91 94 47 3d
       -0.05773671 0.08576835 -0.012177121 0.04872567
000030 47 41 20 3d 9b cb 30 3e be 99 fd bc b0 a0 ae 3c
       0.039124753 0.1726517 -0.030957099 0.021316856
000040 76 3c 58 bd eb eb f2 bc 4a 87 e5 bd c7 fd c8 bc
       -0.052792035 -0.02965351 -0.11207445 -0.024535073
000050 0a 93 ec 3d dd 6d a3 bd 24 02 a0 bc 0d 27 bc 3d
       0.11551483 -0.07979939 -0.01953227 0.09187136
000060 65 58 34 bc b9 e3 4a 3b e9 84 d4 3d 63 dd bb 3d
       -0.011007403 0.0030958487 0.10376913 0.091730855
000070 c0 16 42 3e 21 58 2c 3c 28 bf 20 bc 60 b5 2a bd
       0.18953991 0.010519058 -0.0098112 -0.04167688

resnets.0.in2.weight f4 [32]
000000 5f 57 58 3f a5 82 32 3f c1 bd 56 3f 9e 1f 50 3f
       0.8450832 0.697306 0.8388329 0.81298244
000010 1e 50 33 3f 69 e6 35 3f d4 3f 64 3f a0 09 63 3f
       0.70044124 0.71054703 0.89159894 0.8868656
000020 b7 61 3c 3f cc aa 39 3f a7 66 44 3f 02 33 40 3f
       0.735866 0.7252624 0.76719135 0.7507783
000030 cc 5b 52 3f 47 99 3e 3f 16 dd 54 3f d4 4a 61 3f
       0.8217132 0.7445263 0.8314985 0.88004804
000040 ff ea 3c 3f 72 fa 42 3f 76 b6 2f 3f 68 6e 44 3f
       0.73796076 0.761634 0.6863779 0.76730967
000050 eb fe 2e 3f 23 be 34 3f 44 bc 2a 3f bd 49 41 3f
       0.68357724 0.70602626 0.6669352 0.7550314
000060 d8 ca 28 3f 40 c6 3b 3f ef 39 29 3f 9e 71 46 3f
       0.65934515 0.7334938 0.66104025 0.77517116
000070 0f 34 54 3f de 0f 47 3f 31 c9 3c 3f 0d ff 5c 3f
       0.82891935 0.77758586 0.73744494 0.86326677

resnets.0.in2.bias f4 [32]
000000 5c 6c b0 3d aa b2 5d 3d ec 3d b3 bb 53 3f 1f be
       0.08614418 0.054125465 -0.005470028 -0.155515
000010 3b 83 36 3c 7b 60 af 3c a3 e8 95 3c 38 13 1e 3d
       0.011139686 0.02140831 0.018299406 0.038592547
000020 9d f6 0e bd a0 fa 4e 3c cf f7 69 3d cb d1 96 bc
       -0.034903158 0.012632996 0.057121094 -0.018410584
000030 bb 55 82 3d 8f c7 11 3e 93 a8 20 3e 21 21 ae 3d
       0.06364008 0.14236282 0.15689306 0.085024126
000040 62 87 c0 bd 3e a2 54 bd bb fd 22 be 6b 7d 5b 3c
       -0.09400822 -0.05191254 -0.15917103 0.013396601
000050 72 3c c4 3d a4 e6 cd bc a6 ea 2d 3d bc 26 13 3e
       0.095818415 -0.025134392 0.042460106 0.14370245
000060 5c 0a b7 bc 3a 99 14 3d fa 8c a4 3c f9 04 af 3d
       -0.022343807 0.03627894 0.020086754 0.0854587
000070 bd 4d d8 3d 02 1f 5b bd 23 f5 2e bd 46 0b 7b bd
       0.105617024 -0.05349637 -0.04271425 -0.061290048
