Assets/Style_Transfer/Models/TransformerNet/video.onnx (onnx, 449372 bytes, 62 tensors)

conv1.conv2d.weight f4 [8, 3, 9, 9]
-0.1232719 -0.11399261 -0.1560055 -0.21121424 -0.073276564 -0.09234684 -0.17406213 0.025654303
0.15767197 -0.09974062 -0.14075556 -0.16610827 -0.03947287 0.027147168 0.023010585 -0.08412017
-0.02352839 0.19722433 -0.10192588 -0.029789062 -0.05586813 0.036463324 0.15519649 0.11530624
-0.041788347 0.051756173 0.19562843 0.026573638 -0.020002203 -0.02705613 -0.02220103 -0.03387517
-0.08956867 -0.1084624 -0.07969831 -0.018709542 -0.017388625 -0.03288593 -0.051901378 0.006942204
-0.04221559 -0.04245215 -0.12161033 -0.14927253 -0.1538547 -0.010744823 -0.01338593 0.029829469
0.045481995 -0.06031404 0.02716057 0.10621001 0.026265208 0.0026937735 0.009796733 0.05401675
0.040654168 -0.0614466 -0.046959955 -0.011397202 0.09222108 0.0040995027 -0.031060016 -0.0035246615
-0.07921995 -0.06946898 -0.06484854 -0.02785588 -0.016392393 -0.0034987766 0.010186109 -0.05703478
0.012401372 -0.08352967 -0.021073822 -0.06213066 -0.14481603 -0.062821485 -0.047968704 -0.060172245
-0.056456443 -0.0029069525 -0.06852734 -0.06935305 -0.088020384 -0.02062504 -0.021461882 0.01451758
0.013719178 0.06569646 0.0326214 0.02532055 -0.017804323 0.121182434 0.22259386 0.22644839
-0.016433153 0.0012623412 0.21696727 0.055342354 -0.036481462 0.052585546 0.17268279 0.19143265
0.14144 0.04359371 0.089684576 0.20571631 0.04823763 0.06636617 0.07710679 0.03002692
0.115518786 0.016423767 -0.046282053 -0.086345114 0.0433521 0.008262307 0.046041526 0.041277986
0.007986384 -0.00459284 0.015751254 -0.109233364 -0.11783532 -0.1329565 0.11735452 0.09295006
0.08113163 0.014268427 -0.027638305 0.042590864 0.021617047 0.04456092 -0.17900354 0.044320453
0.09787872 0.08153575 -0.011336513 0.0032829002 -0.042040862 -0.03842955 -0.04486324 -0.14083111
0.02255941 0.0077990536 -0.0059690783 0.0027268743 -0.0022752008 -0.065705195 -0.04635791 -0.08607589
-0.1857335 0.004805286 0.0071819145 -0.069566 -0.020290738 -0.08215539 -0.14266032 -0.14628372
-0.053102203 -0.117974386 0.07114426 -0.011902818 -0.005924041 -0.0796933 -0.034161348 0.042685952
-0.08017227 0.019403901 0.095532924 0.08420349 -0.022259248 0.013870711 -0.030834109 0.10422679
0.058086626 -0.09450852 -0.08217872 0.14278178 0.067184344 0.0040667537 -0.11092822 -0.09433158
0.07081566 -0.025239099 -0.09156672 -0.06519056 0.094013214 0.06963856 -0.09849776 -0.14960751
-0.055044647 -0.056809604 -0.15246546 -0.16972697 -0.113977574 -0.112659834 -0.04709195 0.0022474478
-0.065135345 -0.094954334 -0.1605328 -0.18821138 -0.1463975 -0.26011968 -0.17494366 -0.023797348
-0.008545707 -0.04435268 -0.06434644 -0.12633106 0.0045921304 -0.08886792 -0.047180243 -0.13693124
0.054379143 -0.002354913 0.00527505 -0.042061333 -0.05430087 -0.025766723 -0.057425283 -0.067497075
-0.13496445 0.06169633 -0.010083363 -0.023401916 -0.049694877 -0.027631482 -0.05689081 0.036935613
-0.005181682 -0.047194343 0.015403656 0.034157947 0.04952714 0.0112234475 0.057534333 -0.014251845
0.030265268 -0.022016753 0.033769134 0.044884812 0.07027365 0.09276061 0.052699286 0.10437199
0.1155366 0.10110558 -0.004849198 -0.011206727 0.06224562 0.09453138 0.16314897 0.1628699
00000000: fa75 fcbd f574 e9bd e8bf 1fbe 8c48 58be
00000010: 0612 96bd 5720 bdbd 583d 32be f928 d23c
00000020: c374 213e cf44 ccbd 3a22 10be 4918 2abe
00000030: 4eae 21bd bd63 de3c b280 bc3c 3247 acbd
00000040: 9cbe c0bc 2df5 493e 84be d0bd 3108 f4bc
00000050: fbd5 64bd 915a 153d d4eb 1e3e ae25 ec3d
00000060: 422a 2bbd 48fe 533d d252 483e f5b0 d93c
00000070: a9db a3bc d1a4 ddbc efde b5bc b1c0 0abd
00000080: c76f b7bd 8921 debd de38 a3bd c144 99bc
00000090: 9772 8ebc 66b3 06bd 8a96 54bd 6e7b e33b
000000a0: 41ea 2cbd 4ee2 2dbd d60e f9bd e6da 18be
000000b0: 168c 1dbe 0e0b 30bc a950 5bbc ee5c f43c
000000c0: 544b 3a3d db0b 77bd d87f de3c a284 d93d
000000d0: 222a d73c 058a 303b 7a82 203c ab40 5d3d
000000e0: fc84 263d 6eaf 7bbd 1559 40bd 54bb 3abc
000000f0: 68de bc3d 1f55 863b 9371 febc 02fe 66bb
00000100: 123e a2bd c145 8ebd 50cf 84bd 0432 e4bc
00000110: 5749 86bc bb4b 65bb a3e3 263c 4d9d 69bd
00000120: 202f 4b3c 9b11 abbd 02a3 acbc b87c 7ebd
00000130: a74a 14be 8da8 80bd d57a 44bd 2c77 76bd
00000140: df3e 67bd 9282 3ebb 1058 8cbd f908 8ebd
00000150: 0844 b4bd d8f5 a8bc d4d0 afbc 25db 6d3c
00000160: 67c6 603c de8b 863d 049e 053d 0b6d cf3c
00000170: 5fda 91bc 7f2e f83d a5ef 633e 16e2 673e
00000180: d29e 86bc 2475 a53a ab2c 5e3e aaae 623d
00000190: 966d 15bd f163 573d c2d3 303e ec06 443e
000001a0: a6d5 103e 518f 323d 8cac b73d 4ca7 523e
000001b0: d294 453d fdea 873d 2aea 9d3d 04fb f53c
000001c0: 1d95 ec3d 238b 863c 4092 3dbd b5d5 b0bd
000001d0: f991 313d a15e 073c 0a96 3c3d 1b13 293d
000001e0: 53d9 023c 897f 96bb c608 813c beb5 dfbd
000001f0: a553 f1bd c025 08be 9157 f03d 9a5c be3d
00000200: 5728 a63d 1fc6 693c ba69 e2bc c273 2e3d
00000210: 3c16 b13c 8385 363d b44c 37be 5d89 353d
00000220: a374 c83d 37fc a63d c8bc 39bc ed25 573b
00000230: 0a33 2cbd 4e68 1dbd 84c2 37bd 0836 10be
00000240: 83ce b83c 348f ff3b 4298 c3bb 5cb5 323b
00000250: 891b 15bb 7290 86bd cbe1 3dbd 8e48 b0bd
00000260: ec30 3ebe a975 9d3b 4456 eb3b 9e78 8ebd
00000270: c338 a6bc 1641 a8bd 8c15 12be 66cb 15be
00000280: b281 59bd 8e9c f1bd 15b4 913d 0a04 43bc
00000290: 751e c2bb 3e36 a3bd c5ec 0bbd 77d7 2e3d
000002a0: 5c31 a4bd eef4 9e3c c4a6 c33d e172 ac3d
000002b0: 0759 b6bc fb41 633c d097 fcbc db74 d53d
000002c0: 3eec 6d3d af8d c1bd 514d a8bd 6335 123e
000002d0: f297 893d 6742 853b 562e e3bd ea30 c1bd
000002e0: cd07 913d 3ac2 cebc 5587 bbbd a182 85bd
000002f0: 008a c03d a99e 8e3d 32b9 c9bd b632 19be
00000300: 7f76 61bd 30b1 68bd e81f 1cbe e8cc 2dbe
00000310: 136d e9bd 33ba e6bd 7de3 40bd eb49 133b
00000320: ae65 85bd 6b77 c2bd b662 24be 7cba 40be
00000330: 3ae9 15be 682e 85be 6e24 33be a8f2 c2bc
00000340: 4b03 0cbc 28ab 35bd 11c8 83bd ee5c 01be
00000350: 9579 963b 6200 b6bd 1240 41bd b437 0cbe
00000360: aabc 5e3d e254 1abb 54da ac3b 8148 2cbd
00000370: 976a 5ebd bc14 d3bc c636 6bbd e83b 8abd
00000380: 1f34 0abe 4ab5 7c3d b134 25bc 60b5 bfbc
00000390: db8c 4bbd 6b5b e2bc 5706 69bd cc49 173d
000003a0: 19cb a9bb db4e 41bd 9e5f 7c3c 34e9 0b3d
000003b0: f8dc 4a3d 8de2 373c 1fa9 6b3d 9280 69bc
000003c0: deee f73c 7a5c b4bc 8151 0a3d 23d9 373d
000003d0: a2eb 8f3d 46f9 bd3d 35db 573d fbc0 d53d
000003e0: 749e ec3d 7110 cf3d 05e6 9ebb 6b9c 37bc
000003f0: 43f5 7e3d ab99 c13d 8610 273e 5ec7 263e

conv1.conv2d.bias f4 [8]
-0.06395346 0.05599319 -0.06629743 0.041583013 -0.05133224 -0.15029255 0.12959193 -0.04666972
00000000: 08fa 82bd 1d59 653d f2c6 87bd f352 2a3d
00000010: c141 52bd 4ae6 19be bfb3 043e c028 3fbd

in1.weight f4 [8]
0.8647477 0.98255354 0.9891489 0.76693505 0.7805154 0.8179786 1.024253 1.1214975
00000000: 1b60 5d3f a188 7b3f dd38 7d3f db55 443f
00000010: dbcf 473f 0c67 513f b91a 833f 3b8d 8f3f

in1.bias f4 [8]
0.45606133 -0.14129938 0.37032712 0.60731065 0.8294214 1.1349659 1.0676095 0.35317013
00000000: df80 e93e c9b0 10be 849b bd3e b678 1b3f
00000010: f654 543f 9046 913f 6ea7 883f b7d2 b43e

conv2.conv2d.weight f4 [16, 8, 3, 3]
0.060558476 -0.054040916 -0.05104709 -0.0519524 -0.17380846 -0.20542876 -0.16026647 -0.22164665
-0.12087816 -0.007844973 0.2884327 0.3014889 0.11755591 0.10786208 -0.027781779 0.04727278
-0.107383154 -0.11240959 -0.083323546 0.029750377 0.18865423 0.074122034 0.10927256 0.20407645
0.007700849 0.1264045 0.14873776 0.17701735 0.009436161 0.09396472 0.04506832 0.102061845
0.16377176 0.12089294 0.058845315 0.016705701 -0.25592902 -0.06761846 0.06952416 0.0069240374
0.065251075 0.080549106 0.10208932 0.12951937 0.0062999027 -0.19933121 -0.14465538 -0.08213302
-0.19477676 -0.15709981 -0.094063096 -0.17386341 -0.021386068 0.07194823 -0.14543384 -0.1262864
-0.073734045 -0.21742894 -0.010002037 0.06695739 0.017314255 0.033621173 -0.030647313 -0.035189837
-0.037838686 0.029951323 0.099292494 0.14082432 0.102648266 0.122634016 0.09057805 0.17748547
0.043669146 0.15090404 0.19697835 -0.016736416 0.1271184 0.13647321 -0.09219312 -0.06533846
0.053523306 0.097490385 0.044933412 0.16099848 0.1460579 0.07036158 0.05256389 0.113525875
-0.05626781 -0.04745116 0.15761682 0.08976905 -0.026154235 0.19460979 0.114935406 -0.052851822
0.13491781 0.15213555 -0.02219093 0.0725109 0.05583196 0.08065327 0.051299416 0.09931645
0.22342288 0.20839728 0.1977399 0.11159004 0.1421983 0.18082666 0.0020189295 0.23508961
0.44337162 0.17053731 0.10828542 0.36367008 0.2805975 0.019210866 0.0033681137 -0.12560888
0.016008351 -0.0015070068 0.097356334 0.10268428 0.08412922 0.032614235 -0.05847714 0.009676369
-0.103704914 0.12874691 -0.09631707 0.04275416 0.07388497 0.045745846 0.05184178 0.25409988
0.20636055 0.053284515 0.23809782 0.101393215 0.2448377 0.1612637 0.05613 0.15995651
-0.0033799047 -0.11589664 -0.023692174 -0.1014229 -0.06616114 -0.17616446 -0.13360444 -0.20600936
-0.17884874 0.12638439 -0.0013904106 0.07983408 0.058332644 -0.0074824565 0.0057475925 0.10797771
-0.108019955 -0.18664646 -0.04755111 -0.11512499 0.0709915 0.049935564 0.10416445 0.14423348
0.040396184 0.12501287 0.013340983 0.113468215 0.08200398 -0.024345916 0.111809246 0.002279376
-0.034565628 0.069774285 0.06922671 0.033529993 -0.09845404 -0.018233247 -0.043138806 -0.09360474
-0.20816098 0.04428509 -0.04077005 -0.055428848 -0.15514612 -0.09495899 -0.31708822 -0.23889829
-0.27899227 -0.31066644 -0.17773171 -0.23430502 -0.07781382 -0.24136817 -0.0336815 -0.011823146
-0.17808785 -0.024920844 -0.06792243 -0.000646386 -0.12710427 0.0020462705 0.13048545 0.0030606869
0.0124075385 0.20492508 0.15476051 -0.035176154 -0.0073530255 0.17268737 0.15753794 0.009011786
0.03744186 0.021111282 0.039601717 0.07861331 0.075829014 0.09511992 0.16672178 0.09353031
0.29356486 0.07206886 -0.18436624 -0.22351013 0.02509518 0.0039101774 0.03140857 0.14564969
0.010655685 0.06543545 0.07117079 0.08984619 -0.07282462 0.020074239 0.08494487 0.0683919
0.1848593 0.15157811 0.15188098 -0.013120772 -0.04282952 0.005453817 0.108420625 0.06221964
0.0017700237 -0.09011122 -0.102651566 -0.021811604 0.000886318 0.045670617 0.03970379 -0.100839645
00000000: 2a0c 783d 025a 5dbd c116 51bd 0acc 54bd
00000010: d8fa 31be eb5b 52be e51c 24be 57f7 62be
00000020: f88e f7bd 3488 00bc 73ad 933e c15c 9a3e
00000030: 27c1 f03d cbe6 dc3d 9d96 e3bc 1aa1 413d
00000040: b3eb dbbd 0037 e6bd 89a5 aabd 10b7 f33c
00000050: 932e 413e 4bcd 973d 4bca df3d 6bf9 503e
00000060: 6757 fc3b 2e70 013e b64e 183e 0944 353e
00000070: 219a 1a3c 9370 c03d 8f99 383d cd05 d13d
00000080: c9b3 273e b896 f73d c907 713d 65da 883c
00000090: 2109 83be 8c7b 8abd af62 8e3d 09e3 e23b
000000a0: 5ba2 853d eef6 a43d 3514 d13d baa0 043e
000000b0: 6a6f ce3b 7b1d 4cbe 8a20 14be 5b35 a8bd
000000c0: 8f73 47be c6de 20be 27a4 c0bd 4009 32be
000000d0: d631 afbc 9859 933d 9cec 14be 3951 01be
000000e0: e001 97bd b1a5 5ebe 95df 23bc f520 893d
000000f0: a0d6 8d3c 5bb6 093d 1310 fbbc 3823 10bd
00000100: bdfc 1abd 7a5c f53c dd59 cb3d 4034 103e
00000110: 4139 d23d 8b27 fb3d fc80 b93d c0be 353e
00000120: 6bde 323d 9786 1a3e b1b4 493e cf1a 89bc
00000130: 532b 023e a2bf 0b3e bfcf bcbd 2cd0 85bd
00000140: 413b 5b3d 0aa9 c73d 190c 383d c9dc 243e
00000150: 3490 153e bb19 903d 3c4d 573d 4180 e83d
00000160: 1379 66bd 265c 42bd 4e66 213e d6d8 b73d
00000170: 6841 d6bc ca47 473e 4163 eb3d 277b 58bd
00000180: e527 0a3e 6cc9 1b3e c1c9 b5bc 9880 943d
00000190: 0eb0 643d 8b2d a53d 561f 523d 6c66 cb3d
000001a0: f8c8 643e 1966 553e 547c 4a3e 5289 e43d
000001b0: 6e9c 113e a02a 393e 0450 043b 55bb 703e
000001c0: 9b01 e33e 55a1 2e3e bfc4 dd3d f732 ba3e
000001d0: 7aaa 8f3e 1b60 9d3c 92bb 5c3b 9d9f 00be
000001e0: f223 833c c286 c5ba c262 c73d 234c d23d
000001f0: f14b ac3d 8196 053d ba85 6fbd a289 1e3c
00000200: 3e63 d4bd 3bd6 033e e241 c5bd fc1e 2f3d
00000210: 0151 973d ff5f 3b3d 0c58 543d 6119 823e
00000220: 2e50 533e dd40 5a3d eacf 733e 3fa7 cf3d
00000230: bcb6 7a3e 5022 253e 92e8 653d a4cb 233e
00000240: 6481 5dbb 385b edbd 1716 c2bc cfb6 cfbd
00000250: 7e7f 87bd 7564 34be 9acf 08be 1ef4 52be
00000260: 2024 37be e96a 013e 703e b6ba 0d80 a33d
00000270: 36ee 6e3d 652f f5bb 4d56 bc3b 6b23 dd3d
00000280: 9139 ddbd 4020 3fbe f4c4 42bd a7c6 ebbd
00000290: fe63 913d 3c89 4c3d 2c54 d53d f1b1 133e
000002a0: 7876 253d 6003 003e 2394 5a3c 0662 e83d
000002b0: b4f1 a73d 1671 c7bc 3ffc e43d 9561 153b
000002c0: b094 0dbd d2e5 8e3d bcc6 8d3d bf56 093d
000002d0: 46a2 c9bd e45d 95bc 51b2 30bd d8b3 bfbd
000002e0: 2728 55be 4864 353d 7ffe 26bd 5c09 63bd
000002f0: a0de 1ebe dc79 c2bd 6359 a2be c1a1 74be
00000300: 13d8 8ebe ac0f 9fbe 4dff 35be a8ed 6fbe
00000310: da5c 9fbd 3829 77be 9df5 09bd deb5 41bc
00000320: a95c 36be cc26 ccbc ea1a 8bbd 3b72 29ba
00000330: 9f27 02be b91a 063b fa9d 053e ce95 483b
00000340: fd48 4b3c e1d7 513e 8a79 1e3e df14 10bd
00000350: a6f1 f0bb f5d4 303e a051 213e 2ca6 133c
00000360: a35c 193d 91f1 ac3c 6935 223d 0400 a13d
00000370: 3e4c 9b3d 3cce c23d 1db9 2a3e d28c bf3d
00000380: 224e 963e d798 933d 81ca 3cbe d7df 64be
00000390: 6894 cd3c f220 803b 46a6 003d 3125 153e
000003a0: 2f95 2e3c 0503 863d fec1 913d 4701 b83d
000003b0: 1325 95bd bb72 a43c 93f7 ad3d 0d11 8c3d
000003c0: c24b 3d3e 4b37 1b3e b086 1b3e 82f8 56bc
000003d0: 026e 2fbd efb5 b23b a20b de3d 05da 7e3d
000003e0: 2400 e83a 3b8c b8bd fc3a d2bd 40ae b2bc
000003f0: cb57 683a 1d11 3b3d 71a0 223d 0485 cebd

conv2.conv2d.bias f4 [16]
0.06598027 0.06532613 -0.0056783142 0.11183511 -0.007309677 0.021736156 -0.065035716 0.14609072
-0.07449512 0.07424866 0.15167354 0.008918675 0.039609242 -0.051924188 -0.07694174 0.04249041
00000000: aa20 873d b5c9 853d 2711 babb ce09 e53d
00000010: 0486 efbb 0610 b23c 7231 85bd ce98 153e
00000020: e690 98bd ae0f 983d 4f50 1b3e a21f 123c
00000030: 4d3d 223d 75ae 54bd a293 9dbd 6d0a 2e3d

in2.weight f4 [16]
0.4527705 0.5696524 0.8615742 0.47960755 0.31200117 0.30030486 0.7454975 0.5005942
0.37379706 0.6459954 0.6944451 0.63316435 0.43703413 0.41671485 0.4542809 0.5990873
00000000: 89d1 e73e bdd4 113f 2090 5c3f 1f8f f53e
00000010: 9ebe 9f3e 8fc1 993e edd8 3e3f f126 003f
00000020: 5462 bf3e f45f 253f 27c7 313f 0f17 223f
00000030: f0c2 df3e a65b d53e 8297 e83e c95d 193f

in2.bias f4 [16]
0.019353477 -0.050056525 0.07654543 -0.28270495 -0.0028030325 0.1898973 0.07628542 -0.01570293
-0.14953001 -0.24136817 0.12775257 -0.0036650463 -0.07786788 0.15366074 0.47074065 0.15736829
00000000: 2f8b 9e3c 1208 4dbd dac3 9c3d b4be 90be
00000010: 15b3 37bb 7074 423e 883b 9c3d 6ea3 80bc
00000020: 651e 19be 3829 77be 92d1 023e 4631 70bb
00000030: 3279 9fbd 3e59 1d3e eb04 f13e 2725 213e

conv3.conv2d.weight f4 [32, 16, 3, 3]
-0.18225315 0.06247179 0.20416541 0.024284389 0.009986328 -0.011143536 0.18454288 -0.024651257
-0.22828704 -0.038912475 -0.08529826 0.071224645 0.040611785 -0.028686745 -0.06686877 0.080948874
-0.099152766 -0.16061455 -0.28050208 0.03322905 0.21693496 0.100115 0.11920392 -0.022082983
0.18745284 0.02878067 -0.13880521 0.056011394 -0.05474125 -0.13024208 -0.1090927 -0.18052773
-0.24331792 -0.067713745 -0.1535977 -0.086387955 -0.20357533 -0.053603515 0.011570582 -0.02556028
0.059530336 0.07566597 0.08425904 0.0017871445 -0.079813614 0.23848355 0.012686288 -0.008987639
-0.17383972 -0.015476552 0.21420756 -0.10365702 0.1630254 0.27789548 0.038849514 -0.018881321
0.047317695 0.05516415 -0.0740623 -0.13053012 -0.0077719004 -0.034963947 -0.10359686 0.11734534
-0.04893643 -0.109606236 0.0037183275 -0.19686884 -0.2716607 -0.22656702 -0.27486074 -0.086938746
-0.23819156 -0.087666295 0.009626043 -0.16983205 0.04689535 -0.04909918 -0.07740479 -0.03316687
0.01980895 0.009491214 -0.0441323 0.13709755 -0.012029718 0.1419897 0.026008287 0.1339615
0.101668574 -0.02070979 -0.08988041 -0.1952738 -0.17896669 -0.23684718 -0.15654206 0.030149318
-0.19692954 0.053620093 0.25075403 0.009282897 0.009030157 -0.14858703 0.01266444 -0.049045447
-0.02884231 -0.09122544 -0.024384854 -0.06020593 0.08248748 0.010162622 -0.16744891 -0.061052456
-0.2058361 -0.076539084 -0.18030266 -0.114443675 -0.028179625 -0.030672576 0.087010555 0.012429862
0.06738443 -0.011823902 -0.13384202 -0.005646567 -0.10450216 -0.055579897 0.26577115 -0.10403326
-0.12727904 -0.18503712 -0.10481821 0.17908378 -0.15261617 0.06074494 0.15091996 0.2712849
0.09394969 -0.36877003 0.061158232 -0.22704098 -0.16111286 -0.23075464 -0.09488432 0.1623103
0.06682347 0.029275753 -0.07405206 0.1271343 0.067435324 0.098109655 0.05613714 -0.1034867
0.058603924 -0.016565457 -0.11944341 -0.08438922 -0.045004938 -0.028761758 -0.059500616 -0.09579071
-0.24079248 -0.12440974 0.10170664 -0.0042215455 0.0034222675 0.16215216 0.020881778 0.08364859
0.088915415 -0.06226543 0.023435883 0.025150059 0.21036875 0.07580991 0.03449077 -0.10971358
0.02350896 0.19198433 0.07603983 0.07682094 -0.030116873 -0.1594288 -0.01666017 0.07414541
0.00026775667 0.10593859 0.089550585 -0.1363824 -0.06662718 -0.118870124 -0.17428702 -0.084131904
-0.28313386 -0.23311147 -0.1640825 -0.167322 -0.026153807 -0.06403531 0.056744695 -0.035270125
0.1022621 0.004326374 -0.060758647 -0.102403164 -0.009481938 -0.0034227048 0.050630476 -0.077288456
-0.17553577 -0.15201877 0.07807705 -0.1095647 -0.1853251 -0.0015471283 0.03578855 0.08258388
-0.055340745 -0.03664934 0.07938947 -0.02822377 0.03132331 0.10118449 -0.06425712 -0.09986756
0.027024355 0.07498345 0.06935341 -0.0140210455 0.05838567 0.06249057 0.01667828 0.051156994
0.0009419972 -0.09552811 -0.18796915 -0.041849487 0.09229939 -0.11301172 -0.059731256 -0.053519912
0.06984919 -0.018200187 0.0010560103 -0.33836436 -0.31969616 -0.31552482 -0.3280965 -0.35695043
-0.2311788 -0.11186903 -0.27998412 -0.23092362 -0.030790979 0.06781431 0.08752129 -0.18366161
00000000: 92a0 3abe 6be2 7f3d bd10 513e 0ef0 c63c
00000010: b29d 233c 6193 36bc cff8 3c3e 6ff1 c9bc
00000020: 14c4 69be b062 1fbd dbb0 aebd 3ade 913d
00000030: 8b58 263d 7700 ebbc 7ef2 88bd 86c8 a53d
00000040: 9b10 cbbd 2478 24be f89d 8fbe 2f1b 083d
00000050: 3324 5e3e 1809 cd3d 2f21 f43d 5fe7 b4bc
00000060: a3f3 3f3e 71c5 eb3c f422 0ebe 346c 653d
00000070: 5c38 60bd 2e5e 05be fe6b dfbd 43dc 38be
00000080: 5528 79be 81ad 8abd b748 1dbe 2bec b0bd
00000090: 0d76 50be 5c8f 5bbd 8a92 3d3c cb63 d1bc
000000a0: 15d6 733d c3f6 9a3d 0190 ac3d 9e3e ea3a
000000b0: 5275 a3bd 0835 743e 26da 4f3c e440 13bc
000000c0: 0a03 32be 5d91 7dbc 3a59 5b3e 224a d4bd
000000d0: 21f0 263e 5148 8e3e ab20 1f3d 00ad 9abc
000000e0: 33d0 413d cef3 613d faad 97bd b0a9 05be
000000f0: 6dab febb 5b36 0fbd 972a d4bd c152 f03d
00000100: 9171 48bd 3c79 e0bd 2faf 733b fc97 49be
00000110: 1c17 8bbe 2f01 68be 8cba 8cbe f10c b2bd
00000120: 7de8 73be 638a b3bd 8db6 1d3c 74e8 2dbe
00000130: 5715 403d 391c 49bd 6786 9ebd fcd9 07bd
00000140: 6146 a23c 0981 1b3c 12c4 34bd 4d63 0c3e
00000150: 4b18 45bc bf65 113e 550f d53c 342d 093e
00000160: 9d37 d03d 94a7 a9bc 3813 b8bd dbf5 47be
00000170: 0b43 37be 1188 72be 904c 20be b4fb f63c
00000180: e6a7 49be bea0 5b3d d562 803e 4b17 183c
00000190: 39f3 133c 3327 18be 837e 4f3c e1e3 48bd
000001a0: b546 ecbc 67d4 babd bfc2 c7bc 7e9a 76bd
000001b0: 32ef a83d 2081 263c ba77 2bbe 2412 7abd
000001c0: b3c6 52be 86c0 9cbd 43a1 38be 7261 eabd
000001d0: f5d8 e6bc 0e45 fbbc 9732 b23d 9fa6 4b3c
000001e0: d900 8a3d 0ab9 41bc e20d 09be d606 b9bb
000001f0: 3a05 d6bd bfa7 63bd 2813 883e 640f d5bd
00000200: 7055 02be 5f7a 3dbe eeaa d6bd bd61 373e
00000210: 6a47 1cbe b0cf 783d c38a 1a3e dbe5 8a3e
00000220: b268 c03d 6dcf bcbe 0e81 7a3d 6e7d 68be
00000230: c5fa 24be f24a 6cbe b652 c2bd ac34 263e
00000240: beda 883d b4d3 ef3c 9ba8 97bd 7e2f 023e
00000250: 881b 8a3d b7ed c83d 0ff0 653d d6f0 d3bd
00000260: ab0a 703d 48b4 87bc bf9e f4bd 41d4 acbd
00000270: 1957 38bd c79d ebbc ebb6 73bd eb2d c4bd
00000280: 4e92 76be 89ca febd 924b d03d e454 8abb
00000290: 1f48 603b 370b 263e 4310 ab3c f44f ab3d
000002a0: 4919 b63d 090a 7fbd 9cfc bf3c 7f07 ce3c
000002b0: e86a 573e 3a42 9b3d 3246 0d3d 83b1 e0bd
000002c0: dd95 c03c 8a97 443e c5ba 9b3d 4c54 9d3d
000002d0: a9b7 f6bc 4e41 23be e97a 88bc 8cd9 973d
000002e0: b161 8c39 55f6 d83d 4c66 b73d d4a7 0bbe
000002f0: d573 88bd 2e72 f3bd 4c78 32be 594d acbd
00000300: ecf6 90be c6b4 6ebe 3e05 28be 7556 2bbe
00000310: 8240 d6bc f224 83bd 206d 683d 6877 10bd
00000320: cb6e d13d 41c4 8d3b 0fde 78bd c0b8 d1bd
00000330: 215a 1bbc 754f 60bb e761 4f3d 6949 9ebd
00000340: a6bf 33be cfaa 1bbe dce6 9f3d 7563 e0bd
00000350: ddc5 3dbe 03c9 caba 0497 123d bd21 a93d
00000360: faac 62bd 9e1d 16bd f296 a23d 8935 e7bc
00000370: df4c 003d d039 cf3d 3d99 83bd 5d87 ccbd
00000380: 2e62 dd3c ec90 993d 2909 8e3d 87b8 65bc
00000390: d025 6f3d 1df6 7f3d e3a0 883c ff89 513d
000003a0: 5df0 763a 3ea4 c3bd fc7a 40be 5e6a 2bbd
000003b0: 7607 bd3d b072 e7bd c3a8 74bd b237 5bbd
000003c0: 180d 8f3d 8f18 95bc d369 8a3a 183e adbe
000003d0: 37af a3be 788c a1be 44fc a7be 35c2 b6be
000003e0: 23ba 6cbe 971b e5bd 145a 8fbe 3e77 6cbe
000003f0: 5d3d fcbc 3be2 8a3d 5d3e b33d ca11 3cbe

conv3.conv2d.bias f4 [32]
-0.044139627 0.0049804407 0.02301419 -0.04949491 0.24487025 -0.0619417 0.04838357 0.08254477
-0.062264793 -0.13177836 -0.02928831 -0.004213275 -0.090845436 -0.09268354 0.08612782 -0.055730212
0.0049843076 0.1378436 -0.017445998 0.028398877 -0.05495121 -0.01692864 -0.009871095 -0.05369949
0.06953094 -0.055667743 0.032068506 -0.0072252857 0.0695413 -0.12221464 0.048659306 -0.013029682
00000000: c1cb 34bd f732 a33b 4188 bc3c 2dbb 4abd
00000010: 44bf 7a3e 94b6 7dbd da2d 463d 3b0d a93d
00000020: 5e09 7fbd e8f0 06be 0aee efbc 830f 8abb
00000030: 2c0d babd ded0 bdbd c863 b03d 5d45 64bd
00000040: 6753 a33b df26 0d3e e9ea 8ebc c3a4 e83c
00000050: 8514 61bd eead 8abc 60ba 21bc fff3 5bbd
00000060: 3d66 8e3d dc03 64bd 445a 033d 17c2 ecbb
00000070: ab6b 8e3d ab4b fabd fb4e 473d 737a 55bc

in3.weight f4 [32]
0.80754364 0.49857864 0.58245087 0.41675466 0.44562006 0.5015561 0.47288212 0.6147912
0.64452755 0.5122127 0.44808516 0.60595167 0.5054842 0.4274417 0.5129512 0.47305784
0.5118054 0.58954906 0.40764683 0.46209025 0.5761249 0.70760375 0.72005296 0.51262856
0.32960245 0.70829517 0.44143054 0.54713184 0.3858633 0.52154773 0.37190834 0.47859925
00000000: 2ebb 4e3f b345 ff3e 801b 153f de60 d53e
00000010: 5028 e43e fb65 003f 9b1d f23e f562 1d3f
00000020: c2ff 243f 5f20 033f 6b6b e53e a61f 1b3f
00000030: 6a67 013f a3d9 da3e c550 033f a334 f23e
00000040: ae05 033f b0ec 163f 16b7 d03e 1897 ec3e
00000050: ec7c 133f 8525 353f 6455 383f a03b 033f
00000060: a7c1 a83e d552 353f 2f03 e23e d510 0c3f
00000070: e08f c53e 2784 053f c56a be3e f60a f53e

in3.bias f4 [32]
-0.2552467 -0.24185324 -0.18018438 -0.1964815 -0.2519818 -0.14044106 -0.17717649 -0.23526533
-0.28217575 0.01962978 -0.2819984 -0.109689765 -0.11729283 -0.11881865 -0.19564368 -0.00820663
-0.14193273 -0.20678358 -0.10832134 -0.18570794 -0.250936 -0.31836474 -0.2515479 -0.095715754
-0.20479277 -0.23184624 -0.3497363 -0.10247308 -0.27987742 -0.16532598 -0.23378104 -0.16103734
00000000: b2af 82be 60a8 77be 4182 38be 7232 49be
00000010: c203 81be c8cf 0fbe c16d 35be 65e9 70be
00000020: 5779 90be a2ce a03c 1862 90be 07a5 e0bd
00000030: 3937 f0bd 3157 f3bd d156 48be 1a75 06bc
00000040: d056 11be 13bf 53be 94d7 ddbd 392a 3ebe
00000050: af7a 80be b400 a3be e3ca 80be 9f06 c4bd
00000060: 32b5 51be 1a69 6dbe a310 b3be 68dd d1bd
00000070: 184c 8fbe 374b 29be 4c64 6fbe f9e6 24be

resnets.0.conv1.conv2d.weight f4 [32, 32, 3, 3]
0.012035239 -0.02287548 -0.17469767 -0.022939932 -0.017676895 0.07911244 -0.2665512 0.09936879
0.057364386 -0.026941717 0.020883199 0.04232307 0.02431587 0.048758827 -0.0005938602 -0.123865746
-0.030316645 -0.016875457 -0.22974503 -0.061433543 -0.04372663 -0.13682432 -0.07236042 -0.24689786
-0.16513865 -0.38951865 -0.48139197 0.060274247 0.017030947 0.08196022 0.070437804 0.086979695
0.008287359 -0.07796328 -0.087997004 -0.021475501 0.11657861 0.00097203435 -0.05528399 0.028414082
0.0073275142 -0.0062215724 0.16583155 0.035949577 0.18565719 -0.025984224 -0.034225248 -0.066441685
0.008358058 -0.12484565 -0.018316362 0.052284352 0.0025177829 0.028749587 0.11220487 0.102658436
0.024934575 0.019762475 -0.020143196 -0.18089448 0.019686783 0.019008318 0.0030803732 -0.10381686
0.01258501 -0.0042025363 -0.115711965 -0.072266504 -0.16906871 -0.15210485 -0.18394561 -0.27411896
-0.25900835 -0.26256156 -0.011665765 -0.16189717 -0.14595512 -0.11606931 -0.22641084 -0.33458227
-0.18990599 -0.01698867 -0.047363788 0.031326957 0.025361756 0.11720301 0.021394897 0.11212699
-0.060632892 0.008116375 0.07115648 -0.025411237 0.021811197 0.10082704 -0.0080594 -0.066615164
-0.03647256 0.034727655 -0.028345332 0.012370027 -0.03154524 0.013867106 0.0479032 0.033854146
0.02749672 0.16803391 0.1525859 0.1696368 -0.031048983 -0.0275471 -0.024296675 -0.0028210685
-0.09809479 -0.072229795 -0.022637883 -0.05819563 0.017210998 0.052523408 0.04424921 0.005999521
-0.0904107 -0.19086869 -0.062504284 0.056898396 -0.0092370175 -0.06270802 0.0021070174 0.009986545
-0.21155155 -0.014768153 -0.04613773 -0.054932725 0.0329469 0.028895078 0.1648653 -0.093840614
-0.1467742 0.00048725522 -0.0042793425 0.012351005 -0.009686737 -0.053166687 -0.064801805 -0.12488387
-0.043852296 0.080145076 -0.049524732 0.020403847 -0.0067449906 -0.053196374 0.011742662 -0.0014714226
-0.03669475 -0.090555206 0.14329158 -0.0061660735 -0.049974993 0.14685407 -0.13453335 -0.28630242
-0.066909604 -0.1101742 -0.03988064 -0.0036540073 -0.009218736 -0.04879702 0.071619794 0.012570202
-0.15141143 0.117452934 0.0665459 0.026852414 -0.015873369 -0.07238659 -0.19945225 -0.16533324
-0.077838995 0.07963707 -0.15810359 -0.0718413 -0.25065565 -0.19244994 -0.11256583 -0.08739646
-0.05059966 -0.11509703 -0.1795927 0.035906203 -0.124601305 -0.20418729 -0.12932222 -0.07987741
-0.33890766 -0.19841501 -0.16775945 -0.19158773 -0.12423475 -0.29583097 -0.22633812 -0.034464218
0.06934203 -0.05640027 0.0810881 0.01914299 -0.24863502 -0.07774542 -0.005841638 -0.061234314
-0.13799614 -0.11693199 -0.0014006975 0.017292788 -0.068948835 -0.063105024 -0.012414109 9.07373e-05
0.19109896 0.102730304 0.05037981 0.11447787 0.047443673 -0.037102744 0.037208635 -0.009443477
-0.067779236 -0.29839376 -0.10495724 -0.06583712 -0.19668949 -0.07963467 -0.22935863 -0.24160422
-0.2887744 -0.38540083 -0.07788592 -0.10910342 -0.23259175 -0.023208244 0.048004895 -0.21774766
-0.08852246 0.047369882 -0.01069268 -0.20515808 -0.08848762 0.062292337 0.040264446 -0.18361437
0.0038029684 -0.19610837 -0.20497032 -0.17414652 0.041497618 0.09207697 0.06346116 0.05470142
00000000: 732f 453c 5c65 bbbc f2e3 32be 86ec bbbc
00000010: 23cf 90bc b405 a23d 6679 88be dd81 cb3d
00000020: ebf6 6a3d e0b4 dcbc 3e13 ab3c f55a 2d3d
00000030: 1332 c73c 56b7 473d 49ad 1bba 53ad fdbd
00000040: 9d5a f8bc 663e 8abc 4842 6bbe bda1 7bbd
00000050: b21a 33bd ad1b 0cbe b331 94bd cbd2 7cbe
00000060: 1b1a 29be fd6e c7be 0279 f6be 21e2 763d
00000070: 7c84 8b3c c3da a73d b241 903d 6922 b23d
00000080: b4c7 073c 36ab 9fbd c637 b4bd 64ed afbc
00000090: c4c0 ee3d 1fd0 7e3a 7771 62bd a6c4 e83c
000000a0: a51b f03b 55de cbbb bfcf 293e dd3f 133d
000000b0: eb1c 3e3e dedc d4bc c62f 0cbd 9412 88bd
000000c0: 3cf0 083c 13af ffbd 320c 96bc 1e28 563d
000000d0: 6301 253b 4184 eb3c abcb e53d 963e d23d
000000e0: 9843 cc3c eae4 a13c 5803 a5bc 673c 39be
000000f0: 2d46 a13c 55b7 9b3c 16e0 493b ef9d d4bd
00000100: 5c31 4e3c 6eb5 89bb 65fa ecbd 7600 94bd
00000110: 5920 2dbe 60c1 1bbe 3d5c 3cbe 5259 8cbe
00000120: be9c 84be 786e 86be c421 3fbc 5fc8 25be
00000130: 4275 15be bfb5 edbd 3ed8 67be 5e4e abbe
00000140: b776 42be d32b 8bbc 8800 42bd b250 003d
00000150: 75c3 cf3c 2208 f03d 5a44 af3c d6a2 e53d
00000160: 325a 78bd 8bfa 043c 7dba 913d 3a2b d0bc
00000170: 65ad b23c 687e ce3d 930b 04bc 886d 88bd
00000180: 4064 15bd 963e 0e3d 7834 e8bc a7ab 4a3c
00000190: 9535 01bd dc32 633c 2536 443d a5aa 0a3d
000001a0: cd40 e13c 1511 2c3e 7a3f 1c3e 45b5 2d3e
000001b0: 705a febc 75aa e1bc d209 c7bc ade1 38bb
000001c0: ece5 c8bd 37ed 93bd 1573 b9bc 8a5e 6ebd
000001d0: 14fe 8c3c c922 573d a93e 353d a197 c43b
000001e0: 3f29 b9bd 1573 43be 3f02 80bd 4b0e 693d
000001f0: dc56 17bc 106d 80bd e315 0a3b 9b9e 233c
00000200: f8a0 58be 20f6 71bc ebfa 3cbd 2301 61bd
00000210: 54f3 063d 5fb5 ec3c 73d2 283e 822f c0bd
00000220: fa4b 16be 4a76 ff39 ba39 8cbb df5b 4a3c
00000230: 1fb5 1ebc 50c5 59bd cfb6 84bd 1dc3 ffbd
00000240: 779e 33bd 1a23 a43d 72da 4abd f825 a73c
00000250: 1505 ddbb 71e4 59bd 4b64 403c c0dc c0ba
00000260: 3c4d 16bd 0275 b9bd 07bb 123e c60c cabb
00000270: 94b2 4cbd ea60 163e 1cc3 09be 3b96 92be
00000280: e707 89bd 03a3 e1bd e259 23bd 1278 6fbb
00000290: 2e0a 17bc 62df 47bd 66ad 923d 40f3 4d3c
000002a0: 990b 1bbe 2a8b f03d 3849 883d 98f9 db3c
000002b0: de08 82bc 6c3f 94bd 363d 4cbe 1e4d 29be
000002c0: 0d6a 9fbd c318 a33d e8e5 21be 8821 93bd
000002d0: f055 80be 9911 45be ea88 e6bd eafc b2bd
000002e0: 9741 4fbd feb7 ebbd 26e7 37be 6212 133d
000002f0: f82e ffbd 7916 51be 0b6d 04be c496 a3bd
00000300: 4e85 adbe 4e2d 4bbe 22c9 2bbe 932f 44be
00000310: ca6e febd 2877 97be 2ec5 67be 5a2a 0dbd
00000320: 3203 8e3d f803 67bd 8511 a63d c2d1 9c3c
00000330: 2e9a 7ebe fe38 9fbd 366b bfbb d5d0 7abd
00000340: dc4e 0dbe 0a7a efbd 9c97 b7ba 9ba9 8d3c
00000350: 0c35 8dbd 353d 81bd 8c64 4bbc 384a be38
00000360: 72af 433e 4464 d23d 0f5b 4e3d 6073 ea3d
00000370: 4c54 423d 0cf9 17bd 1568 183d d0b8 1abc
00000380: d7cf 8abd 11c7 98be d2f3 d6bd 9dd5 86bd
00000390: f868 49be 8017 a3bd fddc 6abe 1967 77be
000003a0: 3dda 93be 4253 c5be a782 9fbd 9d71 dfbd
000003b0: 882c 6ebe 371f bebc c8a0 443d 3ef9 5ebe
000003c0: 434b b5bd ec06 423d 5a30 2fbc f614 52be
000003d0: ff38 b5bd 4026 7f3d 55ec 243d 6805 3cbe
000003e0: 393b 793b a2d0 48be bde3 51be 7753 32be
000003f0: 68f9 293d da92 bc3d edf7 813d 990e 603d

resnets.0.conv1.conv2d.bias f4 [32]
0.1588977 -0.088313624 0.0007882757 -0.16739061 -0.004350524 -0.075729236 0.06560483 -0.028007861
0.07728 -0.105337426 -0.00041204793 -0.030918311 -0.04262184 -0.10901851 0.008689036 -0.015275264
0.008879912 0.050724387 0.07776598 0.07441032 0.13909401 0.0661589 0.14503992 -0.11477137
0.08701081 0.072101794 -0.064260185 0.11703123 0.066335276 0.0066046524 -0.08082411 -0.071893595
00000000: 14b6 223e c6dd b4bd 49a4 4e3a 7268 2bbe
00000010: d78e 8ebb ee17 9bbd d35b 863d be70 e5bc
00000020: fa44 9e3d 26bb d7bd 2308 d8b9 6648 fdbc
00000030: 3d94 2ebd 1945 dfbd 755c 0e3c 1a45 7abc
00000040: 0d7d 113c 60c4 4f3d c543 9f3d 7064 983d
00000050: a96e 0e3e 517e 873d 5885 143e 410d ebbd
00000060: b932 b23d 1baa 933d d89a 83bd 12ae ef3d
00000070: cada 873d d76b d83b 1c87 a5bd f33c 93bd

resnets.0.in1.weight f4 [32]
1.0401721 1.1537495 1.1759169 0.88408524 0.7111466 1.1289089 0.9383189 1.1598678
1.0014696 1.062948 0.7337004 0.77104133 0.88943577 1.1292567 0.8212387 0.80672085
1.0083315 0.9098964 0.91135764 0.87694675 0.8623348 1.0450001 0.92355645 0.8533736
0.8485551 0.87815654 0.98720366 1.0589927 0.9666563 0.8606269 0.89921933 0.93095297
00000000: 5c24 853f 10ae 933f 7284 963f 6953 623f
00000010: b40d 363f 1680 903f ab35 703f 8c76 943f
00000020: 2830 803f ae0e 883f cad3 3b3f f762 453f
00000030: 10b2 633f 7c8b 903f b33c 523f 4285 4e3f
00000040: 0211 813f f8ee 683f bc4e 693f 957f 603f
00000050: f9c1 5c3f 90c2 853f 326e 6c3f b176 5a3f
00000060: e83a 593f dece 603f 61b9 7c3f 138d 873f
00000070: ca76 773f 0b52 5c3f 3d33 663f ef52 6e3f

resnets.0.in1.bias f4 [32]
-0.14727564 -0.4531836 -0.4230005 -0.09798299 -0.021435851 -0.40352264 0.02245576 -0.3727254
-0.029116493 -0.3792598 -0.30484894 -0.36795494 -0.31955805 0.040014878 -0.08114953 -0.462526
-0.4172922 -0.39861998 -0.025877113 -0.30068347 -0.2056697 -0.5162203 -0.07098193 -0.1445581
-0.06839536 -0.0563297 -0.28566805 -0.28205577 -0.18837582 -0.10559736 -0.3233306 -0.2742846
00000000: 6dcf 16be ae07 e8be 8693 d8be 4eab c8bd
00000010: 3d9a afbc 859a cebe 24f5 b73c ddd5 bebe
00000020: b685 eebc 572e c2be 2915 9cbe 9764 bcbe
00000030: 1d9d a3be a4e6 233d ba31 a6bd 35d0 ecbe
00000040: 53a7 d5be eb17 ccbe 3dfc d3bc 2ff3 99be
00000050: 149b 52be 0327 04bf f95e 91bd 0a07 14be
00000060: de12 8cbd f9b9 66bd 1543 92be 9d69 90be
00000070: 97e5 40be 6e43 d8bd 978b a5be 086f 8cbe

resnets.0.conv2.conv2d.weight f4 [32, 32, 3, 3]
0.03969925 0.02848035 0.13194992 0.0620394 0.003009139 -0.04007929 0.14031626 0.076056845
-0.24684595 -0.103370495 -0.044658676 -0.041319866 -0.17488366 0.061083995 0.20584874 0.11101351
0.11315107 0.18705381 -0.08193054 -0.097443394 -0.18955168 -0.041054778 -0.07728555 -0.05036556
-0.5258065 -0.2379356 0.14290293 0.027676083 -0.021018008 0.010032072 0.122923136 0.061046597
-0.11379619 -0.04037538 -0.1586039 -0.11463494 0.023709485 0.002692486 0.013844727 -0.124842726
-0.038889468 0.1115694 -0.0105053475 -0.029080898 0.09256531 -0.02546519 0.021511253 0.12189296
0.06262538 0.0022597935 0.26960772 0.08568637 -0.10816502 0.23643172 0.10958078 0.062524445
0.04426582 0.06996368 0.12873487 -0.08822265 0.028556999 -0.093170755 -0.08795911 0.14296047
-0.08629843 -0.19297343 -0.22848532 -0.111500956 0.009336736 -0.02099445 0.24092104 0.07946529
-0.1388394 -0.04184092 0.24836293 -0.028049354 0.09735351 0.17763405 0.10078835 0.03530212
0.10058891 -0.01612968 0.023522357 -0.24355814 -0.13129768 -0.2237756 0.04123182 -0.21321568
0.08360145 0.23216213 -0.019352207 0.028900983 0.06489031 0.1812872 0.076156005 0.0065901163
0.0088620195 0.0130971735 -0.12847036 0.025476912 -0.069604695 0.04139321 0.075721666 -0.008358981
-0.04937296 0.108012296 0.09128287 0.1500489 0.1560221 -0.025143614 0.038885437 0.084731966
-0.03968926 0.15306714 0.12472282 0.11178248 0.28550136 -0.07592841 0.0059120497 0.075557925
0.22532141 0.0603031 -0.033814285 0.35271558 0.116257854 0.0010130424 0.11674907 0.13863176
0.09661961 0.15833168 0.15843867 0.10704443 0.19378784 0.09583243 -0.053820983 0.020174447
-0.03580452 -0.2765138 -0.1637379 -0.16015585 -0.060394134 -0.08537715 0.018108452 0.13877963
0.047938135 -0.005097742 0.049985748 0.07042352 -0.032454472 -0.038127575 0.025914876 -0.18810111
-0.15012302 -0.05847337 -0.046396803 0.012721281 0.057818837 0.11954917 0.03833485 0.044922862
-0.048685037 -0.00926853 -0.022448178 0.1443619 0.12299314 0.045829095 -0.00884688 0.045497313
0.18024059 0.07746393 -0.12425281 0.25260288 0.07510659 0.097084895 0.23977557 0.14184563
0.10771394 0.18508026 0.03462175 0.2446398 -0.094965026 -0.021835238 0.041134406 0.05065563
0.11281823 0.15837525 0.045194462 0.06349751 0.2247064 0.13434926 0.16823089 -0.1299875
-0.27077258 -0.052695505 0.085444994 -0.11284039 0.12681484 0.1296815 -0.024462452 0.056386877
0.022523237 0.010472129 0.07339615 0.013798698 0.16319434 0.100977376 0.11464068 0.10848489
0.058317024 0.023386106 0.19260305 0.12220624 0.008758694 0.1741298 0.0153843295 -0.17570205
0.011405425 0.019346694 -0.15183306 -0.10260172 -0.17366524 -0.20234145 -0.112621166 -0.022779932
-0.005885376 0.06350992 0.027971795 0.15080181 0.08210024 0.037524614 0.078727625 -0.13957077
0.036455903 -0.05211963 0.12023767 0.14494076 0.16149166 0.057967674 0.15109849 0.1002781
0.018091267 0.0015426712 -0.12818277 0.032063775 -0.04149932 -0.09553071 -0.066926554 0.0039917915
0.083544806 0.098663636 0.083319284 0.13506335 -0.033915766 0.13376392 0.11668528 -0.065263495
00000000: ae9b 223d 9f4f e93c e11d 073e 071d 7e3d
00000010: fa34 453b 2e2a 24bd 11af 0f3e b1c3 9b3d
00000020: 2fc5 7cbe e9b3 d3bd 04ec 36bd 053f 29bd
00000030: b414 33be 3633 7a3d 03ca 523e 0d5b e33d
00000040: c0bb e73d 098b 3f3e 33cb a7bd 6790 c7bd
00000050: d619 42be 0e29 28bd e347 9ebd 1e4c 4ebd
00000060: 419b 06bf 64a5 73be 2555 123e f4b8 e23c
00000070: f52d acbc 8f5d 243c 20bf fb3d ff0b 7a3d
00000080: fa0d e9bd a860 25bd 1069 22be b9c5 eabd
00000090: 653a c23c 6b74 303b fed4 623c 8bad ffbd
000000a0: 904a 1fbd 7f7e e43d 9f1e 2cbc 103b eebc
000000b0: e292 bd3d 609c d0bc 5e38 b03c 04a3 f93d
000000c0: bc41 803d 0b19 143b 060a 8a3e 567c af3d
000000d0: 9f85 ddbd 281b 723e e36b e03d d10c 803d
000000e0: 1450 353d 1e49 8f3d 13d3 033e 14ae b4bd
000000f0: 5ef0 e93c 4fd0 bebd e823 b4bd 3b64 123e
00000100: 3bbd b0bd d49a 45be 0ef8 69be 9d5a e4bd
00000110: 1cf9 183c 8efc abbc 01b4 763e b3be a23d
00000120: ea2b 0ebe 6261 2bbd da52 7e3e c2c7 e5bc
00000130: 4761 c73d b3e5 353e 1f6a ce3d f598 103d
00000140: 8f01 ce3d 6422 84bc f5b1 c03c 4e67 79be
00000150: e672 06be 6e25 65be b2e2 283d 3655 5abe
00000160: 3d37 ab3d e9bb 6d3e 8588 9ebc c1c1 ec3c
00000170: 36e5 843d 5aa3 393e aef7 9b3d e7f1 d73b
00000180: 0132 113c 8795 563c bc8d 03be f5b4 d03c
00000190: e88c 8ebd ed8b 293d f613 9b3d 1cf4 08bc
000001a0: 4d3b 4abd 8d35 dd3d 83f2 ba3d 6ba6 193e
000001b0: 42c4 1f3e fbf9 cdbc 5646 1f3d f487 ad3d
000001c0: 3591 22bd a2bd 1c3e ae6e ff3d 36ee e43d
000001d0: 3c2d 923e 5b80 9bbd deb9 c13b 1dbe 9a3d
000001e0: a8ba 663e 6200 773d d980 0abd 2397 b43e
000001f0: 9918 ee3d 10c8 843a 231a ef3d 7cf5 0d3e
00000200: 81e0 c53d b321 223e bf3d 223e 1c3a db3d
00000210: 5270 463e cb43 c43d 6473 5cbd e244 a53c
00000220: c3a7 12bd 3793 8dbe e8aa 27be e5ff 23be
00000230: d75f 77bd 37da aebd 2d58 943c 3f1c 0e3e
00000240: c75a 443d f60a a7bb dbbd 4c3d 353a 903d
00000250: fbee 04bd a92b 1cbd 6f4b d43c 949d 40be
00000260: d9b9 19be c681 6fbd 930a 3ebd eb6c 503c
00000270: 72d3 6c3d 32d6 f43d 0105 1d3d 0901 383d
00000280: f669 47bd 08db 17bc 3ee5 b7bc 9bd3 133e
00000290: d4e3 fb3d 4ab7 3b3d 81f2 10bc 645b 3a3d
000002a0: fd90 383e 69a5 9e3d 4278 febd 2a55 813e
000002b0: 7cd1 993d 72d4 c63d ba87 753e fb3f 113e
000002c0: 2099 dc3d ae85 3d3e 89cf 0d3d db82 7a3e
000002d0: 067d c2bd d0df b2bc 8d7c 283d 477c 4f3d
000002e0: 3f0d e73d 1f2d 223e d41d 393d fc0a 823d
000002f0: 6f19 663e da92 093e b844 2c3e 711b 05be
00000300: b4a2 8abe 3ed7 57bd c9fd ae3d dd18 e7bd
00000310: c0db 013e 3acb 043e 7b65 c8bc edf5 663d
00000320: a782 b83c 4b93 2b3c b850 963d ef13 623c
00000330: 6b1c 273e 3acd ce3d bcc8 ea3d 532d de3d
00000340: d5dd 6e3d 3894 bf3c bc39 453e 4447 fa3d
00000350: a080 0f3c 154f 323e 8e0e 7c3c 3deb 33be
00000360: d2dd 3a3c f57c 9e3c 207a 1bbe da20 d2bd
00000370: 4dd5 31be 9932 4fbe eda5 e6bd fb9c babc
00000380: 1dda c0bb 7d11 823d 1b25 e53c ca6b 1a3e
00000390: 2c24 a83d 69b3 193d f33b a13d a4eb 0ebe
000003a0: c952 153d 657b 55bd 2b3f f63d 5a6b 143e
000003b0: 125e 253e 836f 6d3d 90b9 1a3e 9b5e cd3d
000003c0: 2334 943c 7533 ca3a 5842 03be 4e55 033d
000003d0: 31fb 29bd 9ba5 c3bd ca10 89bd 93cd 823b
000003e0: 8a19 ab3d 2910 ca3d 4da3 aa3d 0c4e 0a3e
000003f0: 42eb 0abd 69f9 083e b1f8 ee3d dea8 85bd

resnets.0.conv2.conv2d.bias f4 [32]
-0.054213148 -0.012342524 0.037352663 0.013408542 0.025067093 -0.00095799804 -0.02417666 0.02460893
-0.16077296 0.09965851 0.18278402 0.0167363 0.15773197 0.0045977985 -0.04948184 0.14318886
0.006721469 0.08976537 0.008068821 0.11386395 0.15354572 0.09742521 -0.03842447 -0.0021850592
-0.016903866 -0.038640212 -0.01653153 0.016831182 -0.026045151 -0.062000908 -0.030902453 0.008087197
00000000: 9b0e 5ebd 4c38 4abc 1bff 183d 80af 5b3c
00000010: 8159 cd3c 2922 7bba 220e c6bc ab98 c93c
00000020: aba1 24be c319 cc3d bc2b 3b3e 911a 893c
00000030: 7d84 213e 21a9 963b 78ad 4abd 1aa0 123e
00000040: c53f dc3b e8d6 b73d 1733 043c 8131 e93d
00000050: 173b 1d3e de86 c73d fa62 1dbd 3633 0fbb
00000060: fa79 8abc 3345 1ebd 226d 87bc 8ce1 893c
00000070: a45c d5bc aaf4 7dbd 2427 fdbc 2a80 043c

resnets.0.in2.weight f4 [32]
0.7907762 0.4653462 0.4990757 0.5925914 0.5560854 0.6350371 0.5562785 0.4539946
0.6031556 0.6679049 0.51827615 0.5455719 0.4402305 0.42146444 0.5175581 0.77841693
0.5321826 0.62005246 0.7144131 0.63078326 0.44601467 0.58317655 0.48320317 0.6117476
0.38988096 0.55950296 0.6868982 0.4741351 0.5609455 0.5591357 0.40193427 0.4881522
00000000: 4f70 4a3f db41 ee3e da86 ff3e 12b4 173f
00000010: 9d5b 0e3f cb91 223f 4568 0e3f fb71 e83e
00000020: 6868 1a3f d1fb 2a3f bfad 043f 9aaa 0b3f
00000030: e465 e13e 30ca d73e b07e 043f 5546 473f
00000040: 1e3d 083f c2bb 1e3f c7e3 363f 037b 213f
00000050: 095c e43e 0f4b 153f 6866 f73e 7e9b 1c3f
00000060: 7a9e c73e 963b 0f3f 8fd8 2f3f d6c1 f23e
00000070: 209a 0f3f 8423 0f3f 54ca cd3e 16ef f93e

resnets.0.in2.bias f4 [32]
0.0005739888 -0.08205023 0.09176241 0.095199235 -0.111149 0.02311661 -0.01761886 -0.047844347
-0.15706803 0.11612102 0.15487957 -0.058188308 0.09275982 -0.013493429 -0.045808576 0.20256168
0.01783808 0.041504424 0.011761452 0.05138766 -0.020319229 0.012120243 -0.122450456 0.03947283
0.08265752 -0.083960205 -0.124596134 0.033603232 -0.21418293 -0.09848944 0.055906013 0.023853503
00000000: bc77 163a f309 a8bd eeed bb3d d1f7 c23d
00000010: 16a2 e3bd 0b5f bd3c 6d55 90bc 6ff8 43bd
00000020: 71d6 20be dbd0 ed3d c098 1e3e dd56 6ebd
00000030: dcf8 bd3d 8b13 5dbc c6a1 3bbd 546c 4f3e
00000040: 2a21 923c 8b00 2a3d 1bb3 403c de7b 523d
00000050: 8374 a6bc fc93 463c 4ec7 fabd 43ae 213d
00000060: 5948 a93d 54f3 abbd 422c ffbd 8ba3 093d
00000070: c552 5bbe d5b4 c9bd b4fd 643d 6c68 c33c

resnets.1.conv1.conv2d.weight f4 [32, 32, 3, 3]
0.010865487 -0.047209423 0.33202678 -0.24438334 0.07814042 -0.091402926 -0.16357473 0.15413104
-0.1024913 -0.08522429 0.034610692 0.040157996 0.043243665 0.010532659 0.039449636 0.11012685
-0.10117996 0.011920814 0.063576154 0.061987534 -0.16555919 0.17764801 0.035630003 -0.23426647
0.24509993 0.005900645 -0.0901572 0.057728965 0.08224763 0.21950519 -0.15031238 0.1595817
0.08862583 -0.092738636 0.03899211 -0.0056138723 -0.09849303 -0.0589987 0.23112969 -0.02460457
0.072668135 -0.07898126 -0.018703409 -0.038932305 -0.2532906 0.052058272 -0.017798442 -0.073264256
0.076215416 -0.04045531 -0.12443316 0.07565265 -0.046133477 -0.022008846 -0.15300775 -0.07432993
0.075113684 -0.22040261 -0.085824884 -0.040510073 -0.14053418 -0.17804956 -0.14665312 0.045778513
0.036160793 -0.20851114 0.20153615 -0.021982206 -0.26373214 0.036212478 -0.14359504 -0.063461415
-0.03653569 0.030497065 0.020830277 0.11275482 -0.06040052 -0.048222598 0.11012538 0.027800651
-0.13926612 -0.08793303 -0.06697734 0.23036371 -0.20553346 -0.013916629 0.062547244 -0.262909
0.014713015 -0.060471904 0.096824735 -0.17860377 -0.17150088 -0.0722591 -0.107284136 0.009681023
0.1468601 0.11092539 0.05607154 0.077234864 0.10139172 -0.032486826 0.087557465 -0.012268818
-0.14021048 0.05284465 -0.077264965 -0.05100594 -0.08761089 -0.0036964759 0.01677059 -0.2104679
0.03946917 -0.028694749 -0.08667759 0.09019615 -0.124357864 -0.2550997 -0.1927213 -0.10287155
-0.017423574 -0.0011106804 0.036745906 0.1194611 0.037375074 0.11216917 0.13358931 -0.07440277
-0.08508201 0.017481672 -0.111855984 0.02316815 -0.054649014 -0.04880075 -0.0094888685 0.031046549
-0.0061898734 0.13448882 -0.38262925 -0.06343415 0.02118365 -0.31711745 -0.011394881 -0.22483161
0.061349306 0.043725543 0.3525937 -0.036217786 -0.004555641 0.07416765 -0.050713666 -0.04917574
-0.05986936 -0.08156184 -0.08374776 0.06568214 -0.025556715 0.0027062853 0.080030724 0.14988586
-0.0010128627 0.07610988 -0.16633599 -0.043298412 0.2145234 -0.121951856 0.1093134 -0.07956051
-0.07764174 -0.008962234 -0.15771493 0.074941464 -0.09248451 -0.08629217 0.032594454 -0.078367636
-0.13302295 -0.12904236 -0.04107506 -0.10687526 0.02989215 -0.052397523 -0.006974272 0.07454912
0.011955353 0.0070523997 0.021258235 0.00072543015 -0.062472496 0.008177969 0.014130746 0.074506335
-0.16103196 0.111608386 0.085778125 -0.1909005 0.15430886 -0.03830054 0.10291083 0.011501606
-0.08124109 0.10965663 0.114844605 0.041805685 0.041146103 -0.10662118 0.10699209 0.022948941
-0.0016276122 0.21354955 -0.25235373 0.017264452 0.16631435 -0.030090123 0.07559294 0.012455797
0.122660704 0.06577611 -0.17604403 0.18672268 -0.037924856 0.06542506 0.1447384 -0.036792032
0.21534087 0.16954947 -0.07170801 -0.112585954 -0.12282347 -0.18019263 -0.133764 -0.23469795
-0.02522901 -0.12444633 -0.059804678 -0.05194934 0.27976894 -0.18492024 -0.029023064 0.11460232
-0.23265894 -0.10198568 -0.14110388 -0.014553474 -0.1801622 -0.12408801 -0.12447891 0.08596823
-0.07863717 0.03751613 0.03591522 -0.11053961 0.094822936 0.0566233 -0.14444573 0.08211822
00000000: 2805 323c ab5e 41bd 6aff a93e a03f 7abe
00000010: 1608 a03d 7531 bbbd 2280 27be 87d4 1d3e
00000020: f5e6 d1bd 138a aebd f1c3 0d3d b67c 243d
00000030: 4520 313d 2c91 2c3c f195 213d 308a e13d
00000040: 7037 cfbd 854f 433c 3734 823d a4e6 7d3d
00000050: 5988 29be 5ce9 353e c4f0 113d 8de3 6fbe
00000060: 7afb 7a3e 335a c13b 57a4 b8bd 3575 6c3d
00000070: 7271 a83d f8c5 603e 7deb 19be 6369 233e
00000080: 7681 b53d c1ed bdbd 31b6 1f3d 93f4 b7bb
00000090: b7b6 c9bd 9fa8 71bd 43ad 6c3e 868f c9bc
000000a0: 08d3 943d edc0 a1bd e437 99bc 7b77 1fbd
000000b0: 4eaf 81be 0e3b 553d 0ace 91bc 920b 96bd
000000c0: d416 9c3d 78b4 25bd d0d6 febd c7ef 9a3d
000000d0: 75f6 3cbd e54b b4bc 10ae 1cbe 4a3a 98bd
000000e0: 34d5 993d 39b1 61be f5c4 afbd e4ed 25bd
000000f0: 31e8 0fbe a052 36be 3c2c 16be 4082 3b3d
00000100: 571d 143d f283 55be 7e5f 4e3e 0714 b4bc
00000110: e607 87be 8953 143d 940a 13be 0ff8 81bd
00000120: 73a6 15bd fbd4 f93c 42a4 aa3c 00ec e63d
00000130: 8966 77bd 0f85 45bd 6a89 e13d 31be e33c
00000140: c79b 0ebe 3c16 b4bd 6a2b 89bd 77e4 6b3e
00000150: 5d77 52be 9302 64bc c518 803d 029c 86be
00000160: dc0e 713c 63b1 77bd 0c4c c63d e8e3 36be
00000170: ed9d 2fbe 94fc 93bd c9b7 dbbd 279d 1e3c
00000180: 7e62 163e da2c e33d 45ab 653d 502d 9e3d
00000190: 76a6 cf3d e810 05bd 5451 b33d 2703 49bc
000001a0: 5693 0fbe a273 583d 183d 9ebd 9beb 50bd
000001b0: 576d b3bd 9340 72bb 7a62 893c e684 57be
000001c0: 6daa 213d 4011 ebbc 0584 b1bd c2b8 b83d
000001d0: 56af febd 6e9c 82be bc58 45be 52ae d2bd
000001e0: e2bb 8ebc 4094 91ba e082 163d 05a8 f43d
000001f0: 9b16 193d f3b8 e53d a3cb 083e 7b60 98bd
00000200: 7a3f aebd b935 8f3c c014 e5bd 22cb bd3c
00000210: a5d7 5fbd 4ce3 47bd 3377 1bbc 5555 fe3c
00000220: 6cd4 cabb 70b7 093e fbe7 c3be c3e9 81bd
00000230: 5589 ad3c 385d a2be 98b1 3abc 423a 66be
00000240: 6949 7b3d 8e19 333d 2987 b43e 1a59 14bd
00000250: 7d47 95bb 35e5 973d 22b9 4fbd 806c 49bd
00000260: 9339 75bd e509 a7bd f283 abbd 5c84 863d
00000270: 515c d1bc ef5b 313b 26e7 a33d ae7b 193e
00000280: 08c2 84ba 7fdf 9b3d fb53 2abe ad59 31bd
00000290: 06ac 5b3e e5c1 f9bd b4df df3d 9ff0 a2bd
000002a0: a202 9fbd 55d6 12bc 0680 21be e97a 993d
000002b0: 8568 bdbd f3b9 b0bd c381 053d 367f a0bd
000002c0: 2b37 08be ae23 04be 523e 28bd 6be1 dabd
000002d0: 62e0 f43c c99e 56bd 6f88 e4bb 36ad 983d
000002e0: 63e0 433c d117 e73b c025 ae3c cb2a 3e3a
000002f0: 29e3 7fbd e3fc 053c a584 673c c796 983d
00000300: 90e5 24be f092 e43d 71ac af3d 6c7b 43be
00000310: 2403 1e3e 07e1 1cbd eac2 d23d 3b71 3c3c
00000320: bb61 a6bd a893 e03d a633 eb3d 703c 2b3d
00000330: d188 283d 355c dabd ab1e db3d 6bff bb3c
00000340: 9a55 d5ba bcac 5a3e 8234 81be 2e6e 8d3c
00000350: 4f4e 2a3e 907f f6bc 79d0 9a3d 6613 4c3c
00000360: 8935 fb3d a0b5 863d e344 34be 3b34 3f3e
00000370: 1857 1bbd 93fd 853d 4e36 143e 3eb3 16bd
00000380: 5182 5c3e 609e 2d3e a6db 92bd 7793 e6bd
00000390: df8a fbbd 6b84 38be 6ef9 08be a954 70be
000003a0: 12ad cebc b8dd febd c0f5 74bd d5c8 54bd
000003b0: e03d 8f3e bb5b 3dbe c7c1 edbc 9fb4 ea3d
000003c0: 253e 6ebe dedd d0bd 897d 10be b271 6ebc
000003d0: 717c 38be db21 febd ccee febd 1d10 b03d
000003e0: 860c a1bd 83aa 193d d61b 133d 9762 e2bd
000003f0: 8732 c23d d5ed 673d 95e9 13be 992d a83d

resnets.1.conv1.conv2d.bias f4 [32]
0.12859736 -0.12413536 -0.016619552 0.1334028 0.028556703 0.011251597 0.06104498 -0.111304164
-0.0315523 -0.13777614 -0.13187021 0.068738654 -0.015192475 0.071995266 0.034199707 -0.12635298
-0.15167682 0.06282047 -0.10172554 -0.16114272 0.040042948 -0.15032998 0.14406994 0.0833872
-0.045839082 -0.007277561 -0.09154702 -0.14177461 -0.031271227 0.11956363 0.04210481 0.06073932
00000000: 07af 033e ae3a febd ba25 88bc be9a 083e
00000010: bfef e93c 9e58 383c 4d0a 7a3d 70f3 e3bd
00000020: fc3c 01bd 3015 0dbe fc08 07be dac6 8c3d
00000030: dce9 78bc 4172 933d fe14 0c3d ad62 01be
00000040: 2b51 1bbe 05a8 803d 7b55 d0bd 9902 25be
00000050: 1304 243d 1af0 19be 1287 133e e9c6 aa3d
00000060: c3c1 3bbd 9b78 eebb 017d bbbd 5d2d 11be
00000070: 4216 00bd c7dd f43d 1876 2c3d cbc9 783d

resnets.1.in1.weight f4 [32]
0.81534374 0.9053502 0.8971431 0.96141344 0.76329666 1.0143837 0.7935611 0.8313858
0.7665618 0.8640138 0.84657854 0.8467411 0.8367916 0.82916546 0.93543255 1.0296156
1.1414622 0.99889046 0.8161832 0.89984185 0.91313773 1.1127433 0.98762685 0.8882937
0.9645016 0.87851036 0.75861675 0.9878731 0.80520904 0.86616975 0.9510611 0.94464386
00000000: 5eba 503f 08c5 673f 2cab 653f 311f 763f
00000010: 6967 433f 53d7 813f d226 4b3f b3d5 543f
00000020: 653d 443f 0230 5d3f 5fb9 583f 06c4 583f
00000030: f937 563f 3044 543f 8278 6f3f 72ca 833f
00000040: 6f1b 923f 49b7 7f3f 62f1 503f 095c 663f
00000050: 65c3 693f 5f6e 8e3f 1dd5 7c3f 3767 633f
00000060: 94e9 763f 0ee6 603f b534 423f 40e5 7c3f
00000070: 2e22 4e3f 4dbd 5d3f be78 733f 2ed4 713f

resnets.1.in1.bias f4 [32]
-0.28962022 -0.48655492 -0.36870152 -0.41496053 -0.2180183 -0.08440167 -0.23709208 -0.25797758
-0.10930068 -0.4330544 -0.43966627 -0.26743928 -0.37101638 -0.1248163 -0.5787818 -0.10100638
-0.47603083 -0.53387797 -0.5635327 -0.58883566 -0.21112075 -0.55403984 -0.6095746 -0.049588073
-0.24035336 -0.40173328 -0.116425514 -0.47244248 -0.299335 -0.1057445 0.04164014 -0.1736969
00000000: 1a49 94be ba1d f9be 72c6 bcbe b575 d4be
00000010: 3040 5fbe c8da acbd 44c8 72be a315 84be
00000020: 09d9 dfbd 4eb9 ddbe f01b e1be cded 88be
00000030: dcf5 bdbe b09f ffbd 0b2b 14bf 6fdc cebd
00000040: 50ba f3be 3aac 08bf ae43 10bf efbd 16bf
00000050: 0a30 58be 8ed5 0dbf 150d 1cbf dd1c 4bbd
00000060: 311f 76be fcaf cdbe 8070 eebd fbe3 f1be
00000070: 7042 99be 9390 d8bd da8e 2a3d 9add 31be
