Assets/Style_Transfer/Models/Estilos mejoras/ReCoNet/Rnc_S3.onnx (onnx, 449372 bytes, 62 tensors)

conv1.conv2d.weight f4 [8, 3, 9, 9]
0.09653284 0.014773638 0.031635188 0.011129977 0.019692382 0.059023097 0.06793203 0.091367684
0.024754196 -0.0062910365 0.07245201 0.04384669 -0.01507821 -0.036104582 -0.03968663 0.02021382
0.061259415 0.036726076 0.0639711 0.00872154 -0.030382968 -0.027760994 0.031088592 0.13055387
0.122265905 0.02074232 0.1407843 0.0359152 -0.0134069845 -0.110992074 -0.037903197 0.01957581
0.07303546 -0.020708233 -0.061112307 0.078523375 -0.028467262 0.026329577 -0.02402413 -0.1365976
-0.004903666 -0.05653989 -0.13692866 -0.07152193 -0.0047060587 -0.029728215 0.00065804785 -0.06935162
-0.07543169 -0.017557256 -0.21113782 -0.18682677 0.009492287 0.008510434 0.012115427 0.009623047
-0.061872687 -0.049941126 -0.0011199908 -0.15698074 -0.18563978 0.01667426 0.1416273 0.08648272
0.10070987 0.023141721 0.04468357 0.018952284 -0.08574023 -0.08024903 0.008986947 0.08838653
0.062490106 0.14040482 0.12204316 0.066532604 0.07865502 0.093195595 0.08591397 0.054363698
0.07959537 -0.03641544 -0.044201158 -0.032956127 -0.084886 0.031752776 -0.07546734 -0.11050276
-0.072825074 -0.0149029475 -0.01713131 0.07459917 -0.0085156355 -0.05065812 0.034097914 0.02209107
-0.02612424 -0.020437643 0.022814928 0.011014664 -0.058068354 -0.021653807 0.0143602975 0.14099686
0.1696278 0.06290037 -0.051756892 0.006446923 -0.0683251 0.005311625 -0.015650306 -0.026057225
0.14450471 0.20195927 -0.035393346 -0.075732484 -0.004152475 -0.12297919 -0.039784957 -0.06391819
-0.08963998 0.017805154 -0.06809117 -0.17381942 -0.14443192 -0.0144975595 -0.0632687 -0.05455791
-0.066242695 -0.052333858 -0.049138345 -0.19524248 -0.19191034 0.0042102 0.052944 -0.07384004
-0.10064009 -0.07959646 -0.031537417 -0.04464894 -0.20978001 -0.22750817 -0.05692707 0.03864717
0.006221293 0.012524597 0.0027673685 -0.020669868 -0.0054047606 -0.1086296 -0.1264668 -0.01603846
0.10668623 -0.012806046 -0.052598536 0.042704154 0.0040504 -0.004934301 -0.06498194 -0.037554555
-0.03391002 -0.0006002788 -0.11146219 0.03743152 -0.04294585 0.022595488 -0.0119133005 -0.050654322
-0.13390559 -0.115885615 -0.065065324 -0.07377188 0.08634404 0.20879723 0.11327647 0.15932693
-0.0160736 0.00095517543 -0.013132123 0.009582982 -0.03821226 0.03596752 0.21573591 0.26638892
0.314758 0.21593757 0.13044477 -0.079924904 -0.09654635 -0.0126544265 0.06473738 0.17366955
0.28091264 0.44400698 0.3186378 0.12824517 -0.03744422 -0.10839527 -0.043985233 0.04986948
0.10882803 0.15585199 0.22681998 0.20906442 -0.07519888 -0.12065964 -0.043388404 -0.0024844944
-0.04506561 0.0700444 0.109199636 0.18137108 0.015892586 -0.1536875 -0.047004245 -0.050686944
0.00167292 -0.0053625004 -0.0898331 -0.036608104 -0.06272583 -0.046216644 -0.08569182 0.05977343
0.01667997 -0.085246526 -0.029077267 -0.023627153 -0.032128792 -0.0027643018 -0.11565764 -0.12207215
0.051204994 -0.009550364 -0.067363165 0.003033586 -0.007965262 -0.084347315 -0.107536264 -0.06287945
-0.044363014 0.026400484 -0.022845987 -0.0350035 -0.09485117 -0.13614702 -0.07179688 -0.013821534
0.00885913 0.039652064 -0.010070212 -0.078954495 0.049543228 -0.06371023 -0.07329361 -0.09298975
00000000: 02b3 c53d 210d 723c e693 013d 825a 363c
00000010: eb51 a13c 34c2 713d f31f 8b3d fb1e bb3d
00000020: 50c9 ca3c 0a25 cebb b861 943d 9698 333d
00000030: 990a 77bc 66e2 13bd 738e 22bd 7497 a53c
00000040: 27eb 7a3d 156e 163d 4803 833d cae4 0e3c
00000050: b4e5 f8bc 066b e3bc 81ad fe3c eaaf 053e
00000060: 8c66 fa3d cceb a93c c229 103e d11b 133d
00000070: f8a8 5bbc d04f e3bd 6240 1bbd 735d a03c
00000080: 9e93 953d 50a4 a9bc e650 7abd ddd0 a03d
00000090: 2d34 e9bc 20b1 d73c 41ce c4bc 3ee0 0bbe
000000a0: efae a0bb 5f96 67bd 0737 0cbe 177a 92bd
000000b0: 4835 9abb 9688 f3bc d880 2c3a 3908 8ebd
000000c0: ee7b 9abd 3cd4 8fbc 8334 58be 844f 3fbe
000000d0: 8a85 1b3c 596f 0b3c c97f 463c fca9 1d3c
000000e0: 376e 7dbd 118f 4cbd a8cc 92ba 8fbf 20be
000000f0: 5b18 3ebe 7598 883c bf06 113e da1d b13d
00000100: fa40 ce3d b593 bd3c 1e06 373d d241 9b3c
00000110: 9398 afbd 9a59 a4bd fd3d 133c ff03 b53d
00000120: a0f5 7f3d 48c6 0f3e c4f1 f93d 3f42 883d
00000130: e215 a13d 55dd be3d aaf3 af3d 78ac 5e3d
00000140: e602 a33d 5b28 15bd 460c 35bd 01fd 06bd
00000150: b6d8 adbd 330f 023d 9f8e 9abd 454f e2bd
00000160: 5025 95bd 7e2b 74bc f656 8cbc 73c7 983d
00000170: 2a85 0bbc e47e 4fbd 41aa 0b3d 55f8 b43c
00000180: 8102 d6bc d86c a7bc 5fe6 ba3c d976 343c
00000190: 15d9 6dbd 5363 b1bc 7447 6b3c 7b61 103e
000001a0: e9b2 2d3e e9d1 803d 09ff 53bd b640 d33b
000001b0: 08ee 8bbd 240d ae3b 1235 80bc f675 d5bc
000001c0: 0bf9 133e 69ce 4e3e 9df8 10bd a219 9bbd
000001d0: 7c11 88bb 83dc fbbd 8df5 22bd 8ae7 82bd
000001e0: 2a95 b7bd 1ddc 913c 6273 8bbd b8fd 31be
000001f0: f6e5 13be 2c87 6dbc 0593 81bd 1d78 5fbd
00000200: 40aa 87bd 075c 56bd 4a45 49bd a5ed 47be
00000210: 2584 44be b8f5 893b cfdb 583d 7239 97bd
00000220: 641c cebd 7803 a3bd 612d 01bd cfe1 36bd
00000230: 92d0 56be e7f7 68be 5c2c 69bd 7f4c 1e3d
00000240: fddb cb3b f833 4d3c bd5c 353b db53 a9bc
00000250: 6b1a b1bb 3279 debd 8380 01be 1763 83bc
00000260: 4f7e da3d 73d0 51bc 9071 57bd 8dea 2e3d
00000270: 38b9 843b ebaf a1bb 4015 85bd ced2 19bd
00000280: 3ce5 0abd 075c 1dba 4a46 e4bd cb51 193d
00000290: fde7 2fbd 2c1a b93c 0130 43bc e87a 4fbd
000002a0: 8c1e 09be 7055 edbd f840 85bd b615 97bd
000002b0: 25d5 b03d f1ce 553e 7efd e73d 9926 233e
000002c0: c8ac 83bc bd64 7a3a 1e28 57bc f101 1d3c
000002d0: 7584 1cbd ae52 133d e0e9 5c3e 2164 883e
000002e0: f627 a13e bd1e 5d3e 5093 053e abaf a3bd
000002f0: 18ba c5bd 8354 4fbc 0895 843d 6ed6 313e
00000300: c8d3 8f3e e254 e33e 7e24 a33e b452 033e
00000310: 1c5f 19bd 57fe ddbd dc29 34bd f143 4c3d
00000320: 3be1 de3d aa97 1f3e 7f43 683e fc14 563e
00000330: df01 9abd 671c f7bd 0ab8 31bd e6d2 22bb
00000340: b896 38bd 7073 8f3d 0fa4 df3d 57b9 393e
00000350: 2b31 823c 4260 1dbe 8687 40bd 1d9d 4fbd
00000360: e145 db3a eab7 afbb 6bfa b7bd 61f2 15bd
00000370: 6676 80bd aa4d 3dbd 317f afbd fcd4 743d
00000380: 6fa4 883c bb95 aebd 7333 eebc bb8d c1bc
00000390: 7b99 03bd 4a29 35bb eadd ecbd f700 fabd
000003a0: 54bc 513d 2179 1cbc b3f5 89bd 21cf 463b
000003b0: bb80 02bc 49be acbd f93b dcbd f1c6 80bd
000003c0: feb5 35bd d445 d83c 8227 bbbc d45f 0fbd
000003d0: 5541 c2bd 206a 0bbe 3e0a 93bd b773 62bc
000003e0: e225 113c 346a 223d 88fd 24bc e5b2 a1bd
000003f0: d7ed 4a3d 827a 82bd f61a 96bd 6971 bebd

conv1.conv2d.bias f4 [8]
0.112874426 -0.018007087 0.014219042 -0.13232964 0.0065367464 -0.062038638 -0.0362448 -0.00084222096
00000000: b52a e73d 9983 93bc fcf6 683c 6c81 07be
00000010: 3432 d63b 3a1c 7ebd 6d75 14bd 7ec8 5cba

in1.weight f4 [8]
1.0081393 1.0268682 1.3211076 1.004675 1.1139032 1.2334794 0.88468885 1.1793115
00000000: b50a 813f 6b70 833f 0e1a a93f 3199 803f
00000010: 6194 8e3f a7e2 9d3f f87a 623f aef3 963f

in1.bias f4 [8]
0.8901127 -0.17588985 0.28836986 0.5181605 0.70430595 0.6490451 0.18989435 0.57309663
00000000: 6dde 633f 781c 34be 37a5 933e 2ba6 043f
00000010: 654d 343f d227 263f aa73 423e 76b6 123f

conv2.conv2d.weight f4 [16, 8, 3, 3]
0.08339465 0.18325454 0.11915835 0.05490182 0.09037172 0.037384667 0.047519714 0.015380459
-0.11526322 -0.030028595 -0.04509456 -0.067933924 0.021269763 -0.08810787 -0.004652417 0.18745686
0.15420789 0.22269419 -0.034056272 0.075199775 -0.005378923 0.08185065 0.024332093 0.009994123
-0.1636749 0.09275518 -0.031944025 -0.11177219 -0.03733218 0.09546556 -0.119940266 -4.3419863e-05
0.048459534 0.096909136 0.14229651 0.1633264 -0.08582354 -0.113666475 -0.12889066 -0.04891683
-0.21924998 -0.15824008 0.13165525 -0.12899487 0.016141199 -0.20090294 -0.25472867 -0.0820366
-0.14715211 -0.219876 -0.06799582 -0.1611192 -0.2235946 -0.013834231 -0.10565191 0.0188284
-0.046142854 -0.12052993 -0.08435773 0.035900768 0.0027185546 -0.09021929 0.036738176 -0.028040698
-0.11448417 -0.018205421 -0.061507773 -0.10526581 -0.11847796 -0.041486632 0.06456424 0.041688357
-0.06864394 -0.14105742 -0.0065052244 0.008463284 -0.0660919 0.044081166 -0.14273477 0.0010804127
0.005966275 0.009775554 0.0385829 0.15413609 0.004407667 -0.04083387 0.05206622 0.08096226
-0.04788743 0.03876054 -0.12774111 -0.049176063 -0.043413464 -0.1598468 0.0015817747 -0.07016567
-0.015947757 0.03963836 -0.072750226 -0.1083994 0.15210365 0.007995221 -0.011747101 0.1110679
-0.008064004 0.018624125 0.0015894367 0.02771808 -0.030770842 -0.15395829 0.16873433 0.02579883
0.008814291 0.052454747 -0.12336302 0.07872843 0.0874942 -0.12373572 -0.021957126 -0.15244345
0.054737385 -0.07427755 -0.056024693 -0.100055024 0.06367095 -0.1900555 -0.091236934 -0.06591981
-0.120383054 -0.09236207 -0.054384053 -0.12356979 -0.16325359 -0.09697961 -0.14635669 -0.13455844
-0.031697325 -0.048576817 -0.1037399 -0.20982954 -0.06062373 -0.13981694 -0.24445339 -0.21156487
0.037620507 -0.07992903 -0.089296155 -0.07003996 -0.008092615 -0.087635785 -0.069885984 -0.039025787
-0.0566866 0.14784099 -0.042881276 -0.030295992 -0.03163825 0.04868403 -0.08203267 -0.19372284
-0.23516764 -0.16382572 -0.032879002 -0.017947264 0.014330039 0.04909157 0.02239398 0.0027758766
-0.12876475 0.04574809 -0.13043216 -0.0819616 0.016765766 -0.037257135 0.025528481 -0.16204035
-0.060809013 0.00558575 -0.05027071 -0.04274391 0.031484112 -0.1023705 -0.015652644 0.023922527
-0.010996215 -0.025274102 0.11855393 0.10479836 0.010973017 -0.21798605 -0.25864193 -0.3089896
-0.0064835427 -0.08213848 -0.1797749 -0.044407867 0.07576427 0.047188174 -0.04497126 -0.16433729
-0.020789815 -0.007513019 0.05862394 -0.049364284 -0.12267443 0.032104027 -0.017691672 0.044548906
0.17030314 0.14677708 0.08935043 0.01117428 -0.023815952 -0.17287569 0.0020588918 -0.11860424
-0.06727168 0.05875409 -0.024695804 -0.07212431 -0.031084487 0.12779278 0.115991265 0.30416265
0.043074645 -0.025727272 -0.026659753 0.16318321 -0.20318738 -0.16350569 0.15638264 -0.12688434
-0.027769884 0.10476341 -0.044679742 -0.0010069755 0.04192329 0.11729265 0.049255483 -0.059502684
0.2593323 0.078258455 0.03778824 0.1027239 0.21606192 0.043377746 -0.044358682 0.26648107
0.050263572 -0.035168845 -0.09828752 0.106329866 -0.054403063 0.02711102 0.11481308 -0.106439486
00000000: d0ca aa3d 14a7 3b3e 4b09 f43d bbe0 603d
00000010: cf14 b93d aa20 193d 08a4 423d 52fe 7b3c
00000020: 200f ecbd 87fe f5bc 13b5 38bd f120 8bbd
00000030: ed3d ae3c e671 b4bd 4d73 98bb b1f4 3f3e
00000040: ace8 1d3e f209 643e 977e 0bbd 5702 9a3d
00000050: ad41 b0bb 50a1 a73d 1954 c73c 64be 233c
00000060: 659a 27be 6ef6 bd3d bdd7 02bd d1e8 e4bd
00000070: a1e9 18bd 7383 c33d 3ea3 f5bd b91d 36b8
00000080: 817d 463d 4c78 c63d 2db6 113e 093f 273e
00000090: 41c4 afbd f8c9 e8bd eafb 03be 045d 48bd
000000a0: 1183 60be b009 22be a2d0 063e 3b17 04be
000000b0: 8c3a 843c 80b9 4dbe cc6b 82be ce02 a8bd
000000c0: 0baf 16be 2d27 61be 6441 8bbd 6efc 24be
000000d0: fcf5 64be f8a8 62bc 0760 d8bd 043e 9a3c
000000e0: 4a00 3dbd 65d8 f6bd bfc3 acbd af0c 133d
000000f0: c729 323b e4c4 b8bd c57a 163d 9bb5 e5bc
00000100: ad76 eabd 8923 95bc 93ef 7bbd 9a95 d7bd
00000110: 93a4 f2bd e3ed 29bd 423a 843d 69c1 2a3d
00000120: 3295 8cbd 5b71 10be c729 d5bb 96a9 0a3c
00000130: 315b 87bd 748e 343d 1029 12be a29c 8d3a
00000140: be80 c33b a529 203c 1a09 1e3d dad5 1d3e
00000150: 316e 903b 6b41 27bd 6443 553d 8bcf a53d
00000160: 9c25 44bd 5fc3 1e3d 91ce 02be d76c 49bd
00000170: 51d2 31bd e1ae 23be 8d53 cf3a 05b3 8fbd
00000180: dfa4 82bc d55b 223d 12fe 94bd 8100 debd
00000190: 0fc1 1b3e 63fe 023c ea76 40bc 9177 e33d
000001a0: e21e 04bc 9f91 983c a554 d03a 0711 e33c
000001b0: 2213 fcbc 3ea7 1dbe b1c8 2c3e 1158 d33c
000001c0: d169 103c cada 563d c0a5 fcbd 5f3c a13d
000001d0: 2930 b33d 2769 fdbd 6edf b3bc 231a 1cbe
000001e0: 4f34 603d d41e 98bd 267a 65bd a6e9 ccbd
000001f0: ea65 823d e99d 42be 6eda babd f700 87bd
00000200: 648b f6bd 5328 bdbd d0c1 5ebd 2812 fdbd
00000210: f32b 27be 3f9d c6bd 87de 15be b0c9 09be
00000220: 0ed5 01bd 7cf8 46bd 9675 d4bd 8edd 56be
00000230: 9750 78bd 2c2c 0fbe fd51 7abe 76a4 58be
00000240: f617 1a3d d5b1 a3bd e7e0 b6bd 1c71 8fbd
00000250: e396 04bc 647a b3bd 6220 8fbd 81d9 1fbd
00000260: 3530 68bd a163 173e 47a4 2fbd 4d2f f8bc
00000270: 1c97 01bd e868 473d bf00 a8bd 485f 46be
00000280: c9cf 70be eec1 27be 22ac 06bd 2406 93bc
00000290: 8ac8 6a3c 3e14 493d 9473 b73c 7beb 353b
000002a0: e8da 03be 5962 3b3d 0290 05be 7cdb a7bd
000002b0: 5c58 893c f09a 18bd 1b21 d13c e8ed 25be
000002c0: df12 79bd ab08 b73b a9e8 4dbd 3d14 2fbd
000002d0: 7cf5 003d a0a7 d1bd f939 80bc 2df9 c33c
000002e0: 7829 34bc a20b cfbc 67cc f23d 86a0 d63d
000002f0: 2bc8 333c bc37 5fbe b76c 84be e333 9ebe
00000300: e673 d4bb 3838 a8bd e916 38be 06e5 35bd
00000310: 4c2a 9b3d 6348 413d c933 38bd 0948 28be
00000320: 674f aabc c52f f6bb a81f 703d 3432 4abd
00000330: bb3c fbbd 837f 033d 20ee 90bc ea78 363d
00000340: f263 2e3e bb4c 163e 5cfd b63d 5414 373c
00000350: ac19 c3bc 5306 31be 79ee 063b c8e6 f2bd
00000360: bcc5 89bd 21a8 703d db4e cabc e9b5 93bd
00000370: e5a4 febc 1cdc 023e d48c ed3d 35bb 9b3e
00000380: 0a6f 303d 00c2 d2bc 8e65 dabc 8019 273e
00000390: 5a10 50be 096e 27be c522 203e f8ed 01be
000003a0: ab7d e3bc 338e d63d 1b02 37bd 7efc 83ba
000003b0: c1b7 2b3d 2137 f03d 1ec0 493d 16b9 73bd
000003c0: 34c7 843e f845 a03d d7c7 1a3d e860 d23d
000003d0: 563f 5d3e ddac 313d 73b1 35bd 3570 883e
000003e0: 2de1 4d3d 350d 10bd f84a c9bd 79c3 d93d
000003f0: bfd5 5ebd ee17 de3c 1f23 eb3d f2fc d9bd

conv2.conv2d.bias f4 [16]
-0.067602016 0.13400193 -0.11918415 -0.04393205 0.09797548 0.04877487 -0.10546249 -0.059589155
0.107998416 -0.014658253 0.13098544 0.1701246 -0.0768865 0.17369314 0.006850831 -0.029631509
00000000: ed72 8abd cd37 093e d216 f4bd 18f2 33bd
00000010: 5ea7 c83d 28c8 473d b8fc d7bd c213 74bd
00000020: 462e dd3d 2b29 70bc 0c21 063e 2535 2e3e
00000030: ab76 9dbd 9ddc 313e f07c e03b c7bd f2bc

in2.weight f4 [16]
0.79456526 0.6214135 0.7964392 0.8519391 0.7796582 0.68706805 0.5723976 0.8930533
0.795232 0.55644757 0.59752864 1.0387819 0.807804 0.7166581 0.67272633 0.9024968
00000000: a168 4b3f f514 1f3f 70e3 4b3f ae18 5a3f
00000010: ae97 473f b1e3 2f3f a688 123f 249f 643f
00000020: 5394 4b3f 5973 0e3f a3f7 183f cef6 843f
00000030: 3ecc 4e3f e876 373f cb37 2c3f 080a 673f

in2.bias f4 [16]
0.15565641 -0.19302809 -0.12687516 0.10623315 0.04602281 0.03302317 0.057425067 0.3123211
0.04084078 -0.24069576 -0.07599462 0.16128734 -0.053594906 0.008599139 -0.09917697 -0.2010928
00000000: 6564 1f3e 28a9 45be 90eb 01be c490 d93d
00000010: 6a82 3c3d 4e43 073d 8c36 6b3d 8de8 9f3e
00000020: a948 273d f378 76be 11a3 9bbd 8228 253e
00000030: 5586 5bbd 67e3 0c3c 4c1d cbbd 45eb 4dbe

conv3.conv2d.weight f4 [32, 16, 3, 3]
-0.020742813 0.13692181 0.013060122 -0.03594811 -0.015062941 0.074101485 -0.04906897 -0.04987494
-0.024527771 -0.027360072 0.02932575 0.055640984 -0.07476458 0.0565981 0.055825107 0.0145767005
-0.115864165 -0.0012213815 0.041146453 -0.094841145 -0.14511652 -0.029992823 0.05754358 -0.02566666
0.16218495 0.13178372 0.18584526 -0.013562557 -0.12618396 0.14352915 -0.010843081 -0.10876754
0.11978662 0.04887802 -0.021394119 -0.0070373123 -0.095514625 0.059860315 -0.013951141 -0.07513928
0.08295888 0.077099256 -0.035061806 -0.031276617 0.054937 -0.026508074 0.0032808308 0.0868824
0.05770291 0.07998808 0.096872374 -0.10832627 -0.1091535 0.034909796 -0.06005606 -0.09699232
-0.03623607 0.05280259 0.039435778 0.070097074 -0.07867138 -0.052943103 0.00058733573 -0.035980918
-0.11727842 -0.15838346 0.009782268 0.0066353143 -0.08899936 0.04385159 0.031649932 0.048904754
-0.1182326 -0.02161262 0.051879104 -0.0077356813 -0.00042821767 0.019005544 -0.03401943 0.01901546
-0.028740592 0.048236586 -0.06819572 0.05476911 -0.043606047 -0.028904727 -0.03144917 0.02559421
0.03540557 0.02697543 -0.005284872 0.16426429 0.13063508 0.037934497 -0.0066730883 0.042445123
-0.051675797 -0.06662708 -0.09007168 0.049267877 0.20947786 0.10007808 -0.06726989 0.10206776
0.14494494 -0.11048956 -0.12634121 -0.14050041 0.031056933 -0.03497885 -0.15980516 4.461357e-05
0.11185682 0.031626318 -0.033033185 0.078843564 0.13919793 -0.03520045 -0.051557243 -0.07058252
-0.04284263 0.022276985 -0.05432748 0.03291875 0.096963756 0.11262578 -0.078121744 -0.058930498
-0.03722814 -0.14468096 -0.01813495 -0.022816487 -0.07705584 -0.08201243 -0.008913889 0.053247746
-0.12566318 0.01895023 0.014546197 0.009173172 -0.034118246 -0.08297048 -0.07917522 -0.18022057
-0.08951935 -0.05492735 0.068486795 0.0968072 -0.053602446 -0.07583598 0.03493316 -0.003988161
-0.064758085 -0.02768733 -0.059894737 0.06975273 -0.0034433545 0.010159023 0.017070893 0.004369897
-0.12727632 -0.12214601 -0.070789956 -0.1175005 0.09956187 -0.038445354 -0.12441166 -0.076460786
0.10618505 -0.03966012 -0.13483419 -0.027006105 0.01745543 0.042365633 -0.19188122 0.09431066
0.031167408 -0.06943304 -0.06810601 -0.045181327 -0.032919955 0.027743516 -0.3005493 0.029758831
0.06347822 -0.17193328 -0.04227224 -0.0031157178 -0.036089696 -0.043121036 -0.071132235 0.12711412
0.047133513 -0.014669582 -0.019112809 -0.016439455 -0.056919876 -0.0037045388 0.07271527 0.108235605
-0.051887106 0.017062018 0.12602839 -0.060156647 -0.08600375 0.032525785 -0.0059616645 -0.10312926
-0.14273772 0.026235476 -0.12902349 -0.3153893 -0.05574896 0.1336928 -0.013801745 -0.13357972
0.04798374 0.038477633 0.10618054 -0.0051216814 -0.03148354 -0.0446712 0.11058312 -0.006594254
-0.16824864 -0.089477025 -0.025623934 0.0025863892 -0.13329317 0.005743725 0.020956242 0.014588783
-0.0046299184 0.0124902185 0.020420553 -0.18548496 -0.07909647 0.14704113 0.02532385 -0.060016494
0.11393172 0.074851796 0.08566898 -0.018391363 -0.1717929 -0.2056932 0.19050741 0.1127703
-0.16933563 -0.07383248 0.057759892 -0.06141273 0.08666592 -0.11542214 0.086857125 0.13396098
00000000: d5ec a9bc 3b35 0c3e 1ffa 553c 533e 13bd
00000010: 8eca 76bc 85c2 973d 8bfc 48bd aa49 4cbd
00000020: 77ee c8bc 3b22 e0bc 8e3c f03c cde7 633d
00000030: 2c1e 99bd 69d3 673d dea8 643d 1dd3 6e3c
00000040: 314a edbd c316 a0ba 2f89 283d 133c c2bd
00000050: 6d99 14be 82b3 f5bc d1b2 6b3d e342 d2bc
00000060: d013 263e 50f2 063e 384e 3e3e 7d35 5ebc
00000070: 5e36 01be 4ef9 123e 2ea7 31bc 84c1 debd
00000080: b052 f53d 5234 483d b842 afbc 4199 e6bb
00000090: 2c9d c3bd 1730 753d 5493 64bc 9fe2 99bd
000000a0: 58e6 a93d 37e6 9d3d f89c 0fbd e91b 00bd
000000b0: 9f05 613d 7627 d9bc 3503 573b 66ef b13d
000000c0: e359 6c3d cad0 a33d 0665 c63d 2ada ddbd
000000d0: df8b dfbd 93fd 0e3d 58fd 75bd e9a3 c6bd
000000e0: 466c 14bd 8747 583d 6987 213d 0e8f 8f3d
000000f0: 761e a1bd deda 58bd 6ff7 193a ba60 13bd
00000100: ab2f f0bd 462f 22be ce45 203c 0d6d d93b
00000110: 4c45 b6bd ba9d 333d 5ca3 013d 5a50 483d
00000120: ef23 f2bd f30c b1bc 2f7f 543d 997b fdbb
00000130: 6782 e0b9 84b1 9b3c f557 0bbd 4fc6 9b3c
00000140: 6471 ebbc ba93 453d 33aa 8bbd 9355 603d
00000150: 419c 32bd 9bc9 ecbc d8d0 00bd f3aa d13c
00000160: 6e05 113d 94fb dc3c b82c adbb e634 283e
00000170: 34c5 053e 3461 1b3d eca9 dabb f0da 2d3d
00000180: 00aa 53bd c773 88bd 8077 b8bd 1dcd 493d
00000190: 5d81 563e bdf5 cc3d ccc4 89bd e708 d13d
000001a0: 726c 143e 5a48 e2bd 975f 01be 57df 0fbe
000001b0: 1c6b fe3c fc45 0fbd f7a3 23be 751f 3b38
000001c0: 3015 e53d 998a 013d ce4d 07bd bc78 a13d
000001d0: e789 0e3e 592e 10bd b02d 53bd 918d 90bd
000001e0: c17b 2fbd 397e b63c 7e86 5ebd d0d5 063d
000001f0: ef94 c63d 58a8 e63d 4bfe 9fbd 1b61 71bd
00000200: 897c 18bd 3f27 14be bf8f 94bc a4e9 babc
00000210: 74cf 9dbd 22f6 a7bd 8f0b 12bc 4f1a 5a3d
00000220: d9ad 00be 833d 9b3c 2c53 6e3c 124b 163c
00000230: 93bf 0bbd 6dec a9bd 9e26 a2bd be8b 38be
00000240: ec55 b7bd 80fb 60bd ce42 8c3d da42 c63d
00000250: 3d8e 5bbd e54f 9bbd 1316 0f3d 1faf 82bb
00000260: e39f 84bd 8ad0 e2bc 2f54 75bd 85da 8e3d
00000270: e7a9 61bb 0872 263c 42d8 8b3c 5a31 8f3b
00000280: b954 02be b027 fabd 53fa 90bd 1aa4 f0bd
00000290: 18e7 cb3d e078 1dbd 8acb febd 7997 9cbd
000002a0: 8c77 d93d a672 22bd f911 0abe e83b ddbc
000002b0: b1fe 8e3c 9687 2d3d 837c 44be f325 c13d
000002c0: cb52 ff3c e932 8ebd 2a7b 8bbd 0e10 39bd
000002d0: 13d7 06bd 5f46 e33c 99e1 99be cbc8 f33c
000002e0: de00 823d 470f 30be a825 2dbd 1231 4cbb
000002f0: cad2 13bd af9f 30bd c7ad 91bd 342a 023e
00000300: 120f 413d b058 70bc 7792 9cbc 09ac 86bc
00000310: d124 69bd d9c7 72bb beeb 943d a1aa dd3d
00000320: 9387 54bd a5c5 8b3c 960d 013e d166 76bd
00000330: bc22 b0bd c239 053d 115a c3bb 6f35 d3bd
00000340: d629 12be c8eb d63c bc1e 04be b57a a1be
00000350: 0559 64bd c4e6 083e b720 62bc 1fc9 08be
00000360: 998a 443d b99a 1d3d 2f75 d93d c7d3 a7bb
00000370: e2f4 00bd 26f9 36bd 6779 e23d 9d14 d8bb
00000380: 5f49 2cbe bb3f b7bd 49e9 d1bc 6980 293b
00000390: 017e 08be dc35 bc3b 6dac ab3c ca05 6f3c
000003a0: 92b6 97bb c6a3 4c3c 0149 a73c c5ef 3dbe
000003b0: 54fd a1bd f391 163e f673 cf3c dbd3 75bd
000003c0: 0955 e93d e64b 993d 3873 af3d 7ca9 96bc
000003d0: 7aea 2fbe 3da1 52be 6014 433e 1df4 e63d
000003e0: 5266 2dbe 7c35 97bd a395 6c3d ea8b 7bbd
000003f0: e77d b13d 7162 ecbd 26e2 b13d 112d 093e

conv3.conv2d.bias f4 [32]
-0.06770692 -0.04302956 -0.009158819 0.06917243 0.013221698 -0.18761317 0.07048609 0.055376638
0.17009495 0.05258834 -0.08067348 0.0771574 0.024518063 -0.033095744 -0.04526514 -0.02284663
-0.091188535 0.07276899 -0.077055454 -0.005082206 0.06084823 -0.017061315 0.034314204 0.06581082
0.05753493 0.058426898 0.1869697 0.053766817 -0.07293197 -0.0043484834 -0.06680414 0.08307469
00000000: eda9 8abd c43f 30bd df0e 16bc 46aa 8d3d
00000010: d29f 583c ab1d 40be 035b 903d 9dd2 623d
00000020: 5f2d 2e3e df66 573d 2338 a5bd b304 9e3d
00000030: 1bda c83c 678f 07bd f067 39bd db28 bbbc
00000040: 0ec1 babd e907 953d 40cf 9dbd a288 a6bb
00000050: fe3b 793d 2cc4 8bbc 0d8d 0c3d d3c7 863d
00000060: bfa9 6b3d 0b51 6f3d fc74 3f3e 983a 5c3d
00000070: 5b5d 95bd b97d 8ebb 9cd0 88bd 1023 aa3d

in3.weight f4 [32]
0.8265291 0.81793094 0.6976995 0.6885303 0.6628644 0.6821554 0.7174233 0.95372915
0.7677695 0.8932598 0.7123229 0.6905744 0.63928294 0.86454684 0.7886161 0.86044014
0.78637624 0.7230825 0.6135633 0.9154284 0.7351336 0.8169921 0.7960973 0.910558
0.6655851 0.72069794 0.70280844 0.7637883 0.8201664 0.7781289 0.8194702 0.69131744
00000000: 6997 533f ec63 513f 6f9c 323f 8643 303f
00000010: 7bb1 293f bca1 2e3f 0ea9 373f 9827 743f
00000020: 8b8c 443f adac 643f cb5a 363f 7cc9 303f
00000030: 0ca8 233f f152 5d3f bfe2 493f ce45 5c3f
00000040: f44f 493f ef1b 393f 7c12 1d3f 8459 6a3f
00000050: b731 3c3f 6526 513f 08cd 4b3f 541a 693f
00000060: c963 2a3f a97f 383f 41eb 333f a187 433f
00000070: 6df6 513f 7533 473f cdc8 513f 2efa 303f

in3.bias f4 [32]
-0.30038622 -0.11452672 -0.11754339 0.029029721 -0.07606557 0.003457151 -0.06951218 0.028133048
0.058618437 0.07934925 -0.10670963 -0.2637022 -0.17808738 -0.07358969 -0.15310383 -0.38120514
-0.17785412 -0.15855846 -0.3302226 -0.362512 -0.12605958 -0.054451417 -0.14970818 0.09724588
-0.17898531 -0.10561687 -0.065161206 -0.30126405 -0.028657874 -0.043096803 -0.1910755 -0.1539413
00000000: 39cc 99be fc8c eabd 97ba f0bd bdcf ed3c
00000010: 44c8 9bbd 5e91 623b 675c 8ebd 4777 e63c
00000020: e319 703d dc81 a23d 948a dabd fa03 87be
00000030: 8a5c 36be 31b6 96bd 40c7 1cbe 522d c3be
00000040: 641f 36be 265d 22be f012 a9be 2c9b b9be
00000050: c315 01be 7308 5fbd 1a4d 19be d928 c73d
00000060: ed47 37be a84d d8bd 3d73 85bd 483f 9abe
00000070: ebc3 eabc 4686 30bd 4ca9 43be caa2 1dbe

resnets.0.conv1.conv2d.weight f4 [32, 32, 3, 3]
-0.14283451 -0.035887346 0.029381953 -0.08502571 -0.10589764 -0.012174759 -0.17728668 -0.010800483
-0.11114148 0.0048849843 -0.21987127 0.06646969 0.060288012 -0.06817748 -0.25974005 -0.10540348
0.07432349 -0.0074564256 0.035608575 -0.07479966 -0.0048950724 -0.048739232 -0.1579274 0.07011667
-0.09994627 -0.085397966 -0.052454334 -0.032697424 -0.108153336 -0.010758789 -0.050664064 0.035934348
-0.09727633 -0.07314751 0.03499839 0.003906396 -0.09418849 -0.06241663 0.05799334 0.04589819
-0.08673015 -0.16576901 -0.09127936 0.09363015 0.030382184 -0.082059726 0.05323861 -0.014713825
-0.124977954 -0.047292326 0.010740747 -0.16642843 -0.16086791 -0.060852326 0.004524998 -0.078157514
-0.07183579 0.018652147 -0.14097953 0.008396312 0.050738066 -0.045346607 0.024778927 0.019764956
-0.04072251 0.09879008 0.03284609 -0.06257487 0.05267761 -0.007539081 -0.01568442 -0.0070183706
0.005122812 -0.07968717 -0.045591056 0.040414125 -0.02360111 0.021898247 0.01820419 -0.010593247
0.06871709 -0.13206285 0.11384144 0.024963401 -0.09764764 -0.044336725 0.118112676 -0.00034113633
-0.07946809 -0.013307398 0.006974963 0.109107964 0.16762862 0.1423422 0.12835772 -0.07753658
-0.13769159 0.033253834 0.0112871835 -0.052487843 -0.09026537 0.07773741 0.029413834 -0.051550433
-0.1366682 0.03722775 -0.08664451 0.05698851 -0.051842704 -0.055861373 0.043805048 0.030790215
0.014171613 -0.09425881 -0.035518482 0.035500135 0.053496096 0.059696257 0.009530433 0.04587477
0.023806062 -0.044402324 -0.091624096 -0.03811271 0.069078684 0.0026801522 -0.088582076 -0.05321283
-0.030108243 0.022431325 -0.22386521 -0.08551143 -0.092233494 -0.04681443 0.06900521 -0.22688724
0.015920898 0.081953086 0.024395155 0.021693943 0.077679746 -0.06552904 0.020557102 0.028904954
0.01350965 -0.092262425 -0.14004607 -0.07359441 -0.07320822 0.07890495 -0.041454293 -0.07837788
0.07893365 -0.121553026 -0.1311425 0.09309593 -0.001742021 -0.070055045 -0.083262525 -0.00045441923
0.009186088 0.10864159 -0.14012478 -0.086300336 0.068530716 0.01569144 -0.020392714 -0.047447138
-0.061413236 0.007164738 -0.00042259385 -0.185522 -0.046341848 0.09684884 -0.0015633785 0.011645797
0.051134266 -0.03407729 0.089277424 -0.059442226 0.04705697 0.24617726 -0.022595782 -0.048711367
0.0058385637 0.07456912 -0.040062316 -0.22953187 0.07729677 -0.04829964 0.005658671 -0.040367182
-0.13221717 -0.08010412 0.2139256 0.10411356 -0.17163838 -0.077434815 -0.027250258 -0.14031376
-0.018402955 -0.025649374 -0.08173616 -0.21197195 -0.17021073 0.030526424 -0.08161829 0.08318529
0.03742635 0.0436658 0.057929803 -0.041010145 0.008151956 0.2560107 0.030602148 0.039468996
-0.07959264 -0.10569623 -0.11542362 0.088538006 -0.121874936 -0.06596207 -0.017959537 -0.012255585
-0.09131072 -0.09908552 -0.109473854 -0.03244139 -0.05385783 -0.026964035 -0.11137378 -0.063546926
-0.014354733 -0.029781276 0.09940371 -0.0017393836 -0.08826231 -0.22516856 0.15872991 0.16573353
-0.009634339 -0.16782853 -0.08714419 -0.03561409 -0.04598386 -0.083155416 0.009357543 -0.038282644
0.044133 -0.060000245 -0.04205283 0.08662763 -0.17224607 0.030222509 0.049332608 -0.022412157
00000000: 3643 12be 9cfe 12bd 6cb2 f03c f621 aebd
00000010: dde0 d8bd a478 47bc a48a 35be 82f4 30bc
00000020: 259e e3bd 3812 a03b ef25 61be 4321 883d
00000030: 90f0 763d a2a0 8bbd a6fc 84be c8dd d7bd
00000040: ea36 983d 0855 f4bb 4cda 113d 9030 99bd
00000050: d866 a0bb caa2 47bd b8b7 21be 5499 8f3d
00000060: a1b0 ccbd 21e5 aebd 5bda 56bd bced 05bd
00000070: 7f7f ddbd a245 30bc 1f85 4fbd e52f 133d
00000080: d038 c7bd 5dce 95bd 795a 0f3d 3a01 803b
00000090: e5e5 c0bd 95a8 7fbd 6d8a 6d3d beff 3b3d
000000a0: 949f b1bd 5abf 29be acf0 babd 2ac1 bf3d
000000b0: 0fe4 f83c ee0e a8bd bb10 5a3d 4112 71bc
000000c0: 71f4 ffbd 99b5 41bd f5f9 2f3c 376c 2abe
000000d0: 8fba 24be 4a40 79bd 6f46 943b 0c11 a0bd
000000e0: a51e 93bd 63cc 983c f05c 10be af90 093c
000000f0: b8d2 4f3d 5dbd 39bd 2dfd ca3c 1eea a13c
00000100: a6cc 26bd 7452 ca3d 9f89 063d 4127 80bd
00000110: 7ac4 573d 650a f7bb 9d7c 80bc 5cfa e5bb
00000120: 43dd a73b 0733 a3bd b0bd 3abd 4889 253d
00000130: 1d57 c1bc f463 b33c f420 953c 4c8f 2dbc
00000140: 8cbb 8c3d 7c3b 07be b325 e93d 0c80 cc3c
00000150: 7cfb c7bd 6d9a 35bd 0fe5 f13d 8bda b2b9
00000160: 2ac0 a2bd 4607 5abc 3b8e e43b ff73 df3d
00000170: d6a6 2b3e 27c2 113e 3570 033e 80cb 9ebd
00000180: 06ff 0cbe 2c35 083d e1ed 383c 7efd 56bd
00000190: 0ddd b8bd cb34 9f3d 48f5 f03c 8c26 53bd
000001a0: c0f2 0bbe 207c 183d ad72 b1bd c96c 693d
000001b0: 0459 54bd e5ce 64bd ec6c 333d c33b fc3c
000001c0: 0e30 683c c30a c1bd d47b 11bd 9768 113d
000001d0: b91e 5b3d 1084 743d 8925 1c3c 2fe7 3b3d
000001e0: ee04 c33c 36df 35bd 6aa5 bbbd 131c 1cbd
000001f0: 2079 8d3d 7ea5 2f3b 856a b5bd b2f5 59bd
00000200: 90a5 f6bc e6c1 b73c ec3c 65be 9e20 afbd
00000210: eae4 bcbd 7dc0 3fbd 9b52 8d3d 2155 68be
00000220: 8b6c 823c 05d7 a73d 59d8 c73c 7fb7 b13c
00000230: 8f16 9f3d 1734 86bd 5e67 a83c 15ca ec3c
00000240: 9457 5d3c 15f4 bcbd 3d68 0fbe abb8 96bd
00000250: 31ee 95bd eb98 a13d facb 29bd 9584 a0bd
00000260: f7a7 a13d cbf0 f8bd 384a 06be 14a9 be3d
00000270: 8654 e4ba 0579 8fbd 8b85 aabd 1e3f eeb9
00000280: 3f81 163c 7b7f de3d df7c 0fbe 3bbe b0bd
00000290: d559 8c3d 568b 803c 9f0e a7bc ee57 42bd
000002a0: 728c 7bbd 2ec6 ea3b 968f ddb9 7bf9 3dbe
000002b0: f3d0 3dbd af58 c63d 47ea ccba 03ce 3e3c
000002c0: 2a72 513d a194 0bbd 15d7 b63d b179 73bd
000002d0: cfbe 403d e415 7c3e ca1a b9bc 9285 47bd
000002e0: 6c51 bf3b b2b7 983d 6218 24bd 670a 6bbe
000002f0: c54d 9e3d d8d5 45bd 5f6c b93b 0f58 25bd
00000300: f063 07be a10d a4bd 500f 5b3e 7d39 d53d
00000310: f9c1 2fbe 2596 9ebd ef3b dfbc 69ae 0fbe
00000320: cbc1 96bc a31e d2bc 4a65 a7bd 2d0f 59be
00000330: b94b 2ebe 8d12 fa3c 7d27 a7bd 0d5d aa3d
00000340: 5f4c 193d e9da 323d cd47 6d3d 41fa 27bd
00000350: c88f 053c d613 833e 5bb1 fa3c 3eaa 213d
00000360: 7701 a3bd 4477 d8bd 3863 ecbd 6a53 b53d
00000370: 9199 f9bd 1f17 87bd e11f 93bc a6cb 48bc
00000380: 1d01 bbbd 59ed cabd d433 e0bd 43e1 04bd
00000390: 079a 5cbd aee3 dcbc f017 e4bd e424 82bd
000003a0: 1d30 6bbc ddf7 f3bc 2c94 cb3d 07fc e3ba
000003b0: dfc2 b4bd 9692 66be 188a 223e 0db6 293e
000003c0: 59d9 1dbc 3edb 2bbe a778 b2bd 14e0 11bd
000003d0: 9259 3cbd 634d aabd 6150 193c 43ce 1cbd
000003e0: cec4 343d d1c2 75bd 973f 2cbd d469 b13d
000003f0: 4661 30be 3295 f73c fd10 4a3d b399 b7bc

resnets.0.conv1.conv2d.bias f4 [32]
-0.040120892 -0.018927425 0.067903005 0.012673267 0.054427028 0.10947519 -0.033572655 -0.040671833
0.07720566 -0.020011922 0.06642119 -0.07416677 -0.04924108 -0.032793075 0.042838946 -0.01942366
-0.01571071 0.029395873 0.05125686 0.04774149 -0.03940925 -0.039397858 -0.014613214 -0.0024263079
-0.02595038 -0.027180191 -0.05463505 -0.04524921 -0.05599605 0.021671347 -0.024758002 0.06481512
00000000: ce55 24bd b00d 9bbc bb10 8b3d 89a3 4f3c
00000010: e0ee 5e3d 8734 e03d 7b83 09bd 8297 26bd
00000020: 001e 9e3d 0bf0 a3bc d507 883d bfe4 97bd
00000030: 04b1 49bd 0852 06bd e477 2f3d 5e1e 9fbc
00000040: bfb3 80bc 9dcf f03c b7f2 513d 958c 433d
00000050: 986b 21bd a65f 21bd 436c 6fbc b102 1fbb
00000060: e495 d4bc fea8 debc 01c9 5fbd 3c57 39bd
00000070: 1d5c 65bd 1c88 b13c 4bd1 cabc cabd 843d

resnets.0.in1.weight f4 [32]
0.98252404 0.9937721 1.0017768 1.0307126 0.92685163 0.9744164 0.91392094 1.0078741
0.8974304 0.97266906 1.0287971 0.98545617 1.0034628 0.99186796 0.97884583 0.9628373
0.9461766 0.897492 1.0205225 0.9623598 0.844608 0.9891132 0.90366083 0.9885742
0.9522665 0.9842262 1.0126364 0.8994715 1.0144345 1.045622 0.8860576 0.9864993
00000000: b286 7b3f d967 7e3f 393a 803f 64ee 833f
00000010: 2646 6d3f 5a73 793f b9f6 693f 0502 813f
00000020: 00be 653f d700 793f a0af 833f db46 7c3f
00000030: 7871 803f 0feb 7d3f a495 7a3f 817c 763f
00000040: a138 723f 09c2 653f 7ba0 823f 365d 763f
00000050: 3b38 583f 8636 7d3f 5156 673f 3313 7d3f
00000060: bdc7 733f 40f6 7b3f 129e 813f c443 663f
00000070: fdd8 813f f1d6 853f acd4 623f 388b 7c3f

resnets.0.in1.bias f4 [32]
-0.14409125 0.031605534 -0.09467216 -0.1717103 -0.1575329 0.0025697513 -0.31775558 -0.42449248
-0.15175357 -0.32347602 -0.026678436 -0.157799 -0.4161455 -0.41266778 -0.41031656 -0.1540157
-0.15078248 -0.013593816 -0.09937662 -0.039315972 -0.26996288 -0.0926489 -0.1285466 0.017619876
-0.20729426 -0.046430673 -0.3813876 -0.33331248 -0.47504672 -0.16947757 -0.2255576 -0.18981844
00000000: a88c 13be ce74 013d 7ae3 c1bd d3d4 2fbe
00000010: 4e50 21be 4669 283b dcb0 a2be 1457 d9be
00000020: 4a65 1bbe a69e a5be bc8c dabc 1096 21be
00000030: 0611 d5be 3149 d3be 0315 d2be 4bb6 1dbe
00000040: b966 1abe 99b8 5ebc f885 cbbd c909 21bd
00000050: 9338 8abe b5be bdbd b8a1 03be 8f57 903c
00000060: f244 54be 172e 3ebd 3c45 c3be efa7 aabe
00000070: 5339 f3be 878b 2dbe 92f8 66be c45f 42be

resnets.0.conv2.conv2d.weight f4 [32, 32, 3, 3]
0.1261026 0.06714938 0.025829932 0.008025941 0.011987608 0.07323422 0.07495899 0.074948534
0.11821503 0.16413023 0.11614502 0.1033844 0.1704349 0.11251868 0.07801268 0.04661397
0.13915066 0.005207607 0.00318149 0.002313653 -0.022279149 0.027995938 0.07772899 0.035947833
0.0047530644 0.021919796 0.13942683 0.105831586 0.091345556 -0.043848384 0.0752743 -0.010205278
0.12858373 0.0047895405 0.032440446 0.009652707 0.039012816 0.05649574 0.014624064 -0.06296353
0.06340833 -0.011211465 0.009842173 0.029025393 0.04844845 -0.12753929 -0.050556105 0.03610085
-0.04051623 0.030641872 0.025812779 -0.16638651 0.073588386 -0.03668983 -0.025998672 -0.055121522
0.060743574 -0.00091541413 -0.06613736 -0.076120175 0.05647182 0.017074905 0.061809205 -0.09912354
-0.0178716 -0.16264375 -0.086329944 0.0064005577 -0.023423811 -0.19588332 -0.0634342 -0.10295735
0.0745823 -0.100823626 -0.1792238 -0.061582834 -0.12776704 -0.14131239 -0.06841536 -0.067424215
-0.09354248 0.030920817 0.054598108 0.06711899 0.029244984 0.10646159 0.02057658 0.04608439
0.11489699 0.073880695 -0.09609704 -0.03671122 -0.046131466 -0.13239881 -0.08589526 0.052708838
-0.04552912 0.007671541 0.08925789 0.08408758 -0.017369835 -0.16478166 0.0541851 -0.046098806
-0.025505638 0.023584548 -0.068127625 -0.12933816 0.24603148 0.0018833515 0.020670572 0.16772705
-0.0092046615 -0.014014213 0.15779008 0.09360769 0.055702534 0.03497827 -0.058161728 -0.050068684
0.049976226 -0.07284706 -0.08191286 0.014355389 0.023602957 -0.110260606 0.25847843 0.14032066
0.07366979 0.24330305 0.10169708 0.010953678 0.11083999 0.040431365 0.05950319 -0.24074581
-0.14340991 -0.06875069 -0.10131271 0.046831824 -0.014335908 -0.08032163 0.028308488 0.11275342
-0.049222775 -0.09322201 -0.02185367 -0.13507302 0.017290043 0.0639462 -0.10062211 0.04525089
0.05920705 -0.13634954 -0.0067272196 -0.011285547 -0.12603986 -0.049247105 0.0035186396 -0.03557615
-0.013288526 0.049963538 -0.11957117 -0.008103355 -0.02693572 -0.03644568 0.09835054 0.06436498
-0.19552402 -0.042419333 0.055916775 0.09214875 0.11721916 0.018571492 0.06474218 0.12794362
-0.002780391 0.07386919 -0.009242699 0.01840471 -0.03662463 0.07000075 0.08016266 0.022715619
-0.019463718 0.03571911 0.020223053 -0.006001271 -0.07195835 0.044908274 -0.029169934 0.025282895
0.13143492 -0.09797792 0.030719941 0.026023872 -0.1599978 0.024023369 0.13111651 0.14747769
0.08894855 -0.001504263 0.036984697 0.035726897 0.09487922 -0.053707287 0.00043147244 0.007920043
-0.015900131 -0.007573578 0.07272974 -0.043080572 0.027228521 0.027972212 -0.08826281 -0.062166087
0.07787042 -0.07768679 -0.08350041 0.0453609 0.00521094 -0.17102213 -0.051061038 -0.13324848
-0.11631665 0.094731584 0.022803606 0.07302904 0.075198136 -0.03808726 -0.013889739 0.08134913
0.12281404 -0.03702668 0.049922105 0.05112118 0.10895299 0.14645486 0.0387567 0.014105524
0.117645785 0.109621696 0.055833817 -0.17377765 -0.09899649 -0.024683537 -0.13669905 -0.04490693
-0.13923132 -0.06268182 -0.05763869 -0.11622349 -0.12478151 -0.043493565 -0.14127252 -0.17716074
00000000: 0a21 013e 9d85 893d 4b99 d33c 3d7f 033c
00000010: ac67 443c d3fb 953d 1984 993d 9e7e 993d
00000020: b91a f23d c111 283e 71dd ed3d 33bb d33d
00000030: 7d86 2e3e 3270 e63d 1dc5 9f3d 4aee 3e3d
00000040: 837d 0e3e 93a4 aa3b 8c80 503b a8a0 173b
00000050: c382 b6bc bd57 e53c 6030 9f3d 093e 133d
00000060: 98bf 9b3b 2591 b33c e8c5 0e3e 3bbe d83d
00000070: 6113 bb3d 5d9a 33bd 6a29 9a3d 0a34 27bc
00000080: 74ab 033e 94f1 9c3b 46e0 043d 6326 1e3c
00000090: e7cb 1f3d 1468 673d c599 6f3c 06f3 80bd
000000a0: 3adc 813d 4bb0 37bc 1141 213c a9c6 ed3c
000000b0: e271 463d a999 02be eb13 4fbd 7cde 133d
000000c0: 59f4 25bd aa04 fb3c 5275 d33c 3a61 2abe
000000d0: 82b5 963d 1348 16bd 2bfb d4bc 1bc7 61bd
000000e0: 41ce 783d 67f8 6fba 0673 87bd e5e4 9bbd
000000f0: ff4e 673d ace0 8b3c a62b 7d3d 4801 cbbd
00000100: 7667 92bc 158c 26be c1cd b0bd c5bb d13b
00000110: 4be3 bfbc a395 48be cae9 81bd 4edb d2bd
00000120: 9bbe 983d 9e7c cebd 7286 37be 483e 7cbd
00000130: 5dd5 02be 32b4 10be 5a1d 8cbd b515 8abd
00000140: 3393 bfbd a74d fd3c 44a2 5f3d ae75 893d
00000150: 2d93 ef3c 8908 da3d 3790 a83c fcc2 3c3d
00000160: 1d4f eb3d c34e 973d 86ce c4bd 815e 16bd
00000170: 59f4 3cbd 8e93 07be dbe9 afbd 39e5 573d
00000180: be7c 3abd 8d61 fb3b d7cc b63d 1c36 ac3d
00000190: 2f4b 8ebc 86bc 28be 32f1 5d3d 1ad2 3cbd
000001a0: 33f1 d0bc 6234 c13c 7f86 8bbd 3971 04be
000001b0: adef 7b3e cada f63a 5555 a93c a4c0 2b3e
000001c0: 26cf 16bc df9b 65bc b993 213e 63b5 bf3d
000001d0: 5728 643d 6045 0f3d fe3a 6ebd d214 4dbd
000001e0: dfb3 4c3d d730 95bd eec1 a7bd de32 6b3c
000001f0: fd5a c13c 50d0 e1bd 4957 843e 38b0 0f3e
00000200: 30e0 963d 6f24 793e 8f46 d03d 0e77 333c
00000210: 1400 e33d 5c9b 253d 9eb9 733d 1286 76be
00000220: 0cda 12be 29cd 8cbd 0a7d cfbd bad2 3f3d
00000230: 28e1 6abc ab7f a4bd 34e7 e73c 44eb e63d
00000240: d29d 49bd 2eeb bebd 7806 b3bc 9550 0abe
00000250: d9a3 8d3c 3af6 823d f712 cebd ff58 393d
00000260: 1783 723d 379f 0bbe 0270 dcbb 04e7 38bc
00000270: 9810 01be 55b7 49bd fa98 663b 4cb8 11bd
00000280: 1eb8 59bc 91a6 4c3d bbe1 f4bd efc3 04bc
00000290: 4da8 dcbc 1148 15bd 026c c93d c9d1 833d
000002a0: 7337 48be e5bf 2dbd fd08 653d 7cb8 bc3d
000002b0: 9910 f03d 3e23 983c 8c97 843d a703 033e
000002c0: 3837 36bb bb48 973d b06e 17bc 79c5 963c
000002d0: b503 16bd 8e5c 8f3d 522c a43d 1b16 ba3c
000002e0: 6072 9fbc 344e 123d d1aa a53c 4fa6 c4bb
000002f0: e65e 93bd bdf1 373d c9f5 eebc 131e cf3c
00000300: e096 063e a6a8 c8bd 63a8 fb3c 0430 d53c
00000310: 77d6 23be a8cc c43c 6843 063e 6404 173e
00000320: a82a b63d b12a c5ba 447d 173d 5e56 123d
00000330: 0950 c23d 2cfc 5bbd 4037 e239 11c3 013c
00000340: fe40 82bc c72b f8bb 54f3 943d 4175 30bd
00000350: 590e df3c fb25 e53c 22c3 b4bd dea1 7ebd
00000360: 877a 9f3d 401a 9fbd 4302 abbd 5acc 393d
00000370: 88c0 aa3b 6d20 2fbe 6125 51bd 4a72 08be
00000380: 6c37 eebd a202 c23d a1ce ba3c 4090 953d
00000390: 7b01 9a3d 6301 1cbd ca91 63bc 5f9a a63d
000003a0: ed85 fb3d 4aa9 17bd 1f7b 4c3d 7164 513d
000003b0: bf22 df3d 43f8 153e 58bf 1e3d db1a 673c
000003c0: 46f0 f03d 5781 e03d 00b2 643d c5f2 31be
000003d0: acbe cabd 2135 cabc d6fa 0bbe 54f0 37bd
000003e0: a892 0ebe 535f 80bd 8c16 6cbd 9506 eebd
000003f0: 738d ffbd 4f26 32bd bea9 10be a069 35be

resnets.0.conv2.conv2d.bias f4 [32]
0.0016302047 -0.048005804 0.02563447 -0.075042576 0.038728792 -0.10578429 -0.02025008 -0.056175765
0.026866406 0.052463472 0.051448442 0.07406914 0.0606692 0.00969843 -0.027694473 0.04344287
-0.02361425 0.022549458 -0.0024381005 -0.011531241 0.05118616 -0.09484137 -0.044380877 0.003870806
-0.04238036 -0.008598956 -0.01587679 -0.026008867 -0.030651508 0.082923606 -0.10552115 -0.007541214
00000000: 98ac d53a bca1 44bd 61ff d13c ecaf 99bd
00000010: 15a2 1e3d 6fa5 d8bd 7fe3 a5bc 8f18 66bd
00000020: f016 dc3c f0e3 563d 9abb 523d 90b1 973d
00000030: 4480 783d 2ae6 1e3c 85df e2bc 27f1 313d
00000040: ac72 c1bc a4b9 b83c 8ac8 1fbb 88ed 3cbc
00000050: 94a8 513d 313c c2bd b9c8 35bd 59ad 7d3b
00000060: 0797 2dbd a3e2 0cbc 0b10 82bc 8c10 d5bc
00000070: df18 fbbc dad3 a93d 791b d8bd 4a1c f7bb

resnets.0.in2.weight f4 [32]
0.7982693 0.7027537 0.6970406 0.83750653 0.714962 0.8670137 0.81167644 0.7535132
0.7218834 0.7541435 0.68864924 0.7163544 0.6114482 0.5378386 0.8081171 0.72497237
0.68246317 0.68120694 0.63814914 0.732471 0.6967519 0.76368374 0.6557052 0.72715276
0.5490861 0.7784612 0.64335954 0.7588142 0.74419713 0.75771797 0.65627515 0.6936438
00000000: 605b 4c3f abe7 333f 4171 323f d466 563f
00000010: c007 373f 9cf4 5d3f 07ca 4f3f 3ee6 403f
00000020: 5acd 383f 8c0f 413f 514b 303f 0163 373f
00000030: df87 1c3f caaf 093f c3e0 4e3f ca97 393f
00000040: e8b5 2e3f 9463 2e3f be5d 233f 3883 3b3f
00000050: 555e 323f c780 433f 4cdc 273f af26 3a3f
00000060: e890 0c3f 3c49 473f 36b3 243f a641 423f
00000070: b483 3e3f cef9 413f a601 283f a492 313f

resnets.0.in2.bias f4 [32]
-0.024296949 0.00858015 0.03442989 -0.10816289 0.1544348 -0.011606213 -0.06849448 -0.02545028
-0.026145488 0.07037594 0.050294466 -0.007490443 0.08682748 -0.08495536 -0.02945921 -0.012184045
-0.02289638 -0.02733326 -0.00970518 -0.055382125 -0.0061874404 -0.07522874 -0.00046052728 -0.06117814
-0.030095441 -0.11485114 0.081586815 -0.039142314 -0.05396398 0.07516855 -0.054748457 0.046517864
00000000: 650a c7bc c293 0c3c 5b06 0d3d 8184 ddbd
00000010: 2824 1e3e fc27 3ebc d546 8cbd 1b7d d0bc
00000020: 102f d6bc 4321 903d 9201 4e3d 6472 f5bb
00000030: 9bd2 b13d 13fd adbd 7154 f1bc 979f 47bc
00000040: 3091 bbbc 00ea dfbc 7a02 1fbc 5ed8 62bd
00000050: 03c0 cabb 8711 9abd ed72 f1b9 ee95 7abd
00000060: b78a f6bc 1337 ebbd fd16 a73d b153 20bd
00000070: 5609 5dbd f8f1 993d eb3f 60bd 8489 3e3d

resnets.1.conv1.conv2d.weight f4 [32, 32, 3, 3]
0.048889097 0.06883224 -0.063972585 -0.12709695 -0.04049624 0.050467324 -0.18440922 -0.004253609
-0.06632554 0.048438486 -0.12855378 -0.013921229 0.029827446 -0.03542174 0.0012884376 0.026886206
0.08763437 0.05697555 0.009905076 0.07460956 -0.039244663 -0.033710558 0.04332004 0.09678986
0.051434744 0.048763912 0.07899624 -0.06241948 -0.10835653 0.018860772 0.011983555 0.061496068
-0.008672306 -0.10736046 0.050104365 0.0062660556 0.0051943283 -0.034626104 0.029270636 0.050160352
-0.01821104 -0.1253651 0.06373272 0.029652378 -0.0038616653 0.050106965 -0.07036891 0.10189918
-0.024765592 0.058570903 0.009476685 -0.050815757 -0.016679922 0.09793666 -3.9108585e-05 0.040512368
-0.026217878 -0.15157272 0.02731031 -0.036776274 -0.029911483 -0.05163749 -0.08964635 -0.12985723
0.045006834 -0.09445154 -0.014168984 -0.02539401 -0.059329506 -0.055205636 -0.0026678478 -0.060799304
-0.121895246 0.08575894 0.004596443 0.007977578 -0.058679193 0.0031814037 0.03418329 -0.006263624
-0.09782245 -0.113731034 0.08545085 -0.09341591 -0.05268549 0.039925657 -0.12951794 -0.038072508
-0.019796208 0.023215154 0.14198229 0.04094945 -0.21268243 0.18384506 0.1664687 0.059332445
-0.037047576 0.07994323 0.18450497 0.0045448276 -0.04560776 -0.07413611 0.112038985 -0.1066579
0.020851811 0.07890755 0.024875248 -0.13274963 -0.04741968 0.12850635 0.07205577 -0.011819296
0.001848848 0.100118496 -0.03451823 -0.03848888 0.04069675 -0.11383151 0.139743 -0.05051257
-0.02860113 0.027963746 0.048159946 -0.07552301 -0.020384565 0.00093506754 0.07956763 -0.0069743367
-0.117397316 0.04242078 0.074142255 0.058411676 -0.12653053 -0.016427327 0.16506486 -0.14463614
-0.12275407 0.10566338 0.03316043 -0.1573269 0.004556829 0.03834798 -0.042183965 0.043834563
-0.049816296 -0.037985947 -0.01469368 0.014397157 0.12688443 -0.022794044 0.0045936415 -0.0085154
0.10349738 -0.13889661 0.084406346 0.038688358 -0.06932259 -0.10218153 0.10258281 -0.034748454
0.004900284 0.053441007 -0.057840392 0.046914067 0.0016693614 -0.0430382 0.044329304 0.07389891
-0.04828237 0.003028139 0.050129943 0.022699127 -0.034617573 -0.00050628436 -0.058721926 -0.051714554
-0.018587396 0.026672317 -0.015361146 -0.04376773 0.062350843 0.10409599 -0.100011796 0.040830236
0.09029947 -0.066837326 -0.049821995 0.07901853 0.11803215 0.06026812 -0.002967205 -0.11258949
-0.04555642 0.18888107 -0.17496805 -0.048341446 -0.06991077 -0.047201503 -0.076574534 0.08387032
-0.045388576 0.02110902 -0.07960574 0.061789878 0.0032513933 0.011853118 -0.009683411 -0.043974437
0.06179893 -0.07205589 -0.09168052 0.049372528 0.057319935 -0.007949248 0.052694023 -0.003063743
-0.04308682 0.16534533 -0.07984496 -0.17322855 0.13721535 0.13426654 -0.1241556 -0.0031285821
0.10167332 -0.09123903 0.028934691 -0.020392654 0.0019128275 -0.06975526 -0.026391206 -0.06165569
-0.0639727 -0.11661657 0.05795951 -0.15243955 0.044108983 0.016562123 -0.13487181 -0.006614666
0.07515322 -0.035097245 0.023141438 0.045621004 -0.054963063 -0.07308967 0.0552947 -0.061567273
-0.101513535 -0.100700796 0.01779922 0.09853053 -0.08281222 0.0034442367 -0.05951731 0.025153922
00000000: ef3f 483d ebf7 8c3d 0f04 83bd b425 02be
00000010: 63df 25bd d3b6 4e3d c5d5 3cbe dc61 8bbb
00000020: afd5 87bd 6f67 463d 9aa3 03be de15 64bc
00000030: b058 f43c 6316 11bd cbe0 a83a 7640 dc3c
00000040: a679 b33d 325f 693d e648 223c e6cc 983d
00000050: 03bf 20bd 1514 0abd 5b70 313d c339 c63d
00000060: 3dad 523d abbc 473d c8c8 a13d 92ab 7fbd
00000070: 07ea ddbd e881 9a3c ac56 443c 4de3 7b3d
00000080: 4a16 0ebc cddf dbbd 3c3a 4d3d 7c53 cd3b
00000090: 2f35 aa3b 1ad4 0dbd f9c8 ef3c f174 4d3d
000000a0: 522f 95bc b55f 00be 4d86 823d 8be9 f23c
000000b0: fe13 7dbb f63c 4d3d 931d 90bd 84b0 d03d
000000c0: 36e1 cabc 0be8 6f3d 1944 1b3c 2f24 50bd
000000d0: 55a4 88bc 0493 c83d 8608 24b8 4cf0 253d
000000e0: e0c6 d6bc e135 1bbe dfb9 df3c b8a2 16bd
000000f0: ed08 f5bc d581 53bd 8198 b7bd 4bf9 04be
00000100: 1659 383d cf6f c1bd 0725 68bc 1907 d0bc
00000110: 7f03 73bd 4e1f 62bd 0fd7 2ebb b108 79bd
00000120: 37a4 f9bd 62a2 af3d c29d 963b 63b4 023c
00000130: 9859 70bd 197f 503b c703 0c3d 163f cdbb
00000140: 2357 c8bd d1eb e8bd db00 af3d d750 bfbd
00000150: becc 57bd 1689 233d 5aa0 04be ebf1 1bbd
00000160: a82b a2bc b52d be3c ce63 113e 9cba 273d
00000170: 6cc9 59be e141 3c3e c576 2a3e 9406 733d
00000180: 33bf 17bd 47b9 a33d dfee 3c3e c7ec 943b
00000190: 34cf 3abd acd4 97bd b274 e53d 756f dabd
000001a0: 6bd1 aa3c 489a a13d 2dc7 cb3c 85ef 07be
000001b0: 233b 42bd 2b97 033e fa91 933d b8a5 41bc
000001c0: 0b55 f23a ed0a cd3d fd62 0dbd 84a6 1dbd
000001d0: a3b1 263d 7f20 e9bd ca18 0f3e 45e6 4ebd
000001e0: eb4c eabc 3a14 e53c 5d43 453d cfab 9abd
000001f0: 88fd a6bc 521f 753a 5bf4 a23d fa88 e4bb
00000200: 016e f0bd 69c1 2d3d e5d7 973d 1541 6f3d
00000210: 3891 01be 9a92 86bc c306 293e 7f1b 14be
00000220: 7c66 fbbd 0b66 d83d 3bd3 073d 4e1a 21be
00000230: 7451 953b c512 1d3d 18c9 2cbd df8b 333d
00000240: 2c0c 4cbd 2797 1bbd c3bd 70bc 0ee2 6b3c
00000250: feed 013e 93ba babc 4286 963b 2d84 0bbc
00000260: 6ff6 d33d ea3a 0ebe 3cdd ac3d af77 1e3d
00000270: 01f9 8dbd 8d44 d1bd f016 d23d 6554 0ebd
00000280: 9092 a03b f5e4 5a3d 0cea 6cbd f728 403d
00000290: 79ce da3a d348 30bd a592 353d 5058 973d
000002a0: bcc3 45bd be73 463b 0e55 4d3d 85f3 b93c
000002b0: 28cb 0dbd 2bb8 04ba 6786 70bd a4d2 53bd
000002c0: 9844 98bc e77f da3c 51ad 7bbc cb45 33bd
000002d0: 9963 7f3d 4730 d53d fcd2 ccbd 9b3d 273d
000002e0: eeee b83d 02e2 88bd 2612 4cbd 78d4 a13d
000002f0: d7ba f13d b4db 763d 7075 42bb 5295 e6bd
00000300: 5e99 3abd 0a6a 413e d32a 33be ae01 46bd
00000310: 612d 8fbd 5d56 41bd 1cd3 9cbd 34c4 ab3d
00000320: 5fe9 39bd d3ec ac3c 5608 a3bd 6217 7d3d
00000330: 5415 553b 9533 423c 2ba7 1ebc 8a1e 34bd
00000340: e020 7d3d 0a92 93bd ffc2 bbbd d93a 4a3d
00000350: 4fc8 6a3d 903d 02bc b0d5 573d 14c9 48bb
00000360: ce7b 30bd 4950 293e c185 a3bd d362 31be
00000370: 2e82 0c3e 2b7d 093e 4b45 febd e608 4dbb
00000380: 1a3a d03d 87db babd 7208 ed3c 7f0e a7bc
00000390: d7b7 fa3a d9db 8ebd 5f32 d8bc ad8a 7cbd
000003a0: 1e04 83bd abd4 eebd f366 6d3d 1d19 1cbe
000003b0: 9fab 343d 4aad 873c d61b 0abe d7bf d8bb
000003c0: eee9 993d 21c2 0fbd 1d93 bd3c 17dd 3a3d
000003d0: f320 61bd 09b0 95bd b27c 623d f72d 7cbd
000003e0: 54e6 cfbd 383c cebd abcf 913c 60ca c93d
000003f0: 7499 a9bd b4b8 613b 6cc8 73bd 990f ce3c

resnets.1.conv1.conv2d.bias f4 [32]
-0.07541099 0.04684212 0.08544057 0.035252113 0.019737583 0.027177323 -0.11391429 0.038853157
0.023469582 -0.114638194 -0.026543794 0.07568276 0.014585928 -0.04567415 -0.03639469 0.10995839
-0.01364254 0.06506086 -0.031527147 -0.027243199 -0.007870849 0.07919079 0.029390737 0.07015818
0.012024868 0.056210227 0.10459737 0.11916936 -0.025857212 -0.06487187 -0.06821467 0.0022341996
00000000: 1471 9abd 86dd 3f3d 77fb ae3d 8564 103d
00000010: b6b0 a13c faa2 de3c e54b e9bd 7d24 1f3d
00000020: 4843 c03c 6ec7 eabd 5f72 d9bc 90ff 9a3d
00000030: d1f9 6e3c d114 3bbd 9912 15bd dd31 e13d
00000040: f684 5fbc a13e 853d 9c22 01bd 212d dfbc
00000050: bcf4 00bc c82e a23d d8c4 f03c 18af 8f3d
00000060: f403 453c b23c 663d 2537 d63d 110f f43d
00000070: 81d2 d3bc 8bdb 84bd 22b4 8bbd a66b 123b

resnets.1.in1.weight f4 [32]
0.8983087 1.0611473 0.8021467 0.88681793 0.86970747 0.8034555 0.8855322 1.0294775
0.94464207 0.9340845 0.786923 0.76897734 0.9040266 1.0015568 0.8902341 0.9335167
0.84423274 0.94710195 0.874233 0.86637247 0.90225375 0.9168182 0.8854274 0.8817651
0.8723819 0.9503723 0.9854118 0.80358386 0.9695023 0.9195721 0.98682123 0.9675261
00000000: 8ff7 653f add3 873f 7c59 4d3f 8006 633f
00000010: 26a5 5e3f 42af 4d3f 3db2 623f ebc5 833f
00000020: 10d4 713f 2920 6f3f c973 493f b3db 443f
00000030: 4a6e 673f 0333 803f 62e6 633f f3fa 6e3f
00000040: a31f 583f 4675 723f bccd 5f3f 96ca 5d3f
00000050: 1afa 663f 99b4 6a3f 5fab 623f 5cbb 613f
00000060: 6c54 5f3f 994b 733f f343 7c3f acb7 4d3f
00000070: 4d31 783f 1469 6b3f 51a0 7c3f caaf 773f

resnets.1.in1.bias f4 [32]
-0.36407846 0.1512728 -0.33363512 -0.30785516 -0.18173759 -0.52551985 -0.23018989 -0.0592535
-0.8073934 -0.595246 -0.42394298 -0.67789865 -0.5595521 -0.15304355 -0.2459356 -0.5332215
-0.80608785 -0.44193673 -0.3910276 -0.3392411 -0.56583214 -0.14990385 -0.37192747 -0.24225448
-0.23003525 -0.03996191 -0.44215325 -0.728617 -0.31969985 -0.28674066 0.0063091726 -0.52767986
00000000: 7e68 babe 42e7 1a3e 39d2 aabe 319f 9dbe
00000010: 6b19 3abe 7888 06bf e6b6 6bbe ccb3 72bd
00000020: 55b1 4ebf 0b62 18bf 0e0f d9be c48a 2dbf
00000030: ce3e 0fbf 73b7 1cbe 8bd6 7bbe 3481 08bf
00000040: c65b 4ebf 8845 e2be c534 c8be 02b1 adbe
00000050: 60da 10bf 6580 19be 476d bebe 8f11 78be
00000060: 5c8e 6bbe 1aaf 23bd e961 e2be a586 3abf
00000070: b3af a3be accf 92be 2dbd ce3b 0716 07bf
