Assets/Style_Transfer/Models/Estilos mejoras/ReCoNet/Rnc_S5.2.onnx (onnx, 449372 bytes, 62 tensors)

conv1.conv2d.weight f4 [8, 3, 9, 9]
0.02050539 -0.04009157 -0.041952144 -0.0052559813 0.19305219 0.014228149 0.01061089 0.0038235937
-0.11254932 0.049850956 -0.12544753 -0.028004538 0.19844198 0.40638226 0.24344344 0.15459964
0.019807287 -0.04265645 -0.06754595 -0.23387177 -0.01665765 0.2458914 0.28499022 0.07613055
0.113228075 0.11403097 -0.09390301 -0.003659904 -0.030542227 0.0057033966 0.09609392 -0.022978753
0.047294047 0.18914053 0.13069165 -0.13675494 -0.05154527 0.09937545 0.18276207 0.03717836
-0.13605756 0.06308168 0.24668641 0.11837883 -0.06523211 -0.078747295 0.07094206 0.10497603
0.09010705 -0.081047826 0.06961958 0.18658876 0.09350197 -0.083241045 -0.05105832 -0.09726261
0.056032646 0.048032187 -0.050302256 -0.011256732 0.1777985 0.034293428 -0.059870765 0.0711974
-0.10414019 -0.014076047 -0.0014270862 -0.032282665 -0.12197221 0.037849095 0.03104487 -0.068688735
0.056169022 -0.015830588 -0.043034323 -0.050723266 -0.08112674 -0.10803863 -0.063435964 0.04238349
-0.068894565 0.016648812 0.059244078 -0.0071229967 -0.035706207 0.036174532 -0.022390323 -0.09536123
-0.100523554 -0.07847804 -0.025854781 -0.06814719 -0.07531929 0.09634453 0.25024536 0.15107562
0.07313762 0.05413623 -0.05916781 -0.0709155 -0.16865087 -0.08249673 0.10978271 0.057632495
-0.034160897 0.013190771 0.02579234 -0.12380176 0.0037370352 -0.046352547 -0.10275739 -0.07471655
-0.1916986 -0.14150043 0.113611646 -0.04938091 -0.13096075 -0.056661975 0.09351558 0.10393201
-0.0863191 -0.09596522 -0.008057471 0.20639135 0.07527071 -0.10935119 -0.048471037 -0.012758221
0.15065984 0.0050970847 -0.030693647 0.024693167 0.19763488 0.06282168 -0.050527014 -0.06830998
-0.09251859 0.018062122 0.027125318 -0.12189233 -0.027628057 0.05424463 0.011798646 -0.108983405
0.01742206 0.027407832 -0.00719997 0.10178252 -0.03208285 -0.088238284 0.09921897 -0.0045279562
-0.035064477 0.051863104 -0.022818862 0.020364163 -0.017126596 0.024913758 -0.0626174 0.0015870248
0.067483574 -0.027459133 0.04789197 0.08037074 -0.0168154 0.0050639133 -0.043929882 -0.067130305
-0.05648401 0.041173898 -0.011524404 0.04079192 -0.067668825 -0.013648745 0.0057965345 0.026027637
-0.03295669 -0.047212847 -0.031750593 0.058509987 -0.031039966 -0.123486705 -0.076344505 -0.033452895
-0.053552523 -0.08647727 -0.07691019 -0.039595548 0.03884448 0.08150871 -0.00889125 -0.107700475
-0.110979944 -0.20479026 -0.1417159 -0.020075968 -0.016278904 0.0033846134 0.049049426 0.019557744
0.06607903 -0.109400734 -0.12347279 -0.06400374 0.07407784 -0.038979154 -0.020646175 0.002285563
0.04270637 0.064437985 0.08151156 0.005307602 0.051082425 0.06137192 0.06751535 -0.049508825
-0.07914848 -0.036629092 0.09250286 0.121774666 -0.04550469 -0.069749326 0.07982354 0.082697794
-0.061019138 0.044084575 0.026354376 0.04989487 0.07858135 -0.026980387 -0.0006748168 0.08435722
0.096130885 0.049620934 0.05578135 0.0064865374 0.06392633 0.12340329 0.04223599 0.043906245
0.033951942 0.02586667 0.019457975 -0.073623195 -0.06456384 -0.06942727 -0.014895468 -0.0067771333
-0.010264051 -0.025798446 0.005367345 -0.06629431 -0.025071396 -0.11582631 0.03800941 0.15225405
00000000: ebfa a73c 0f37 24bd 03d6 2bbd 5e3a acbb
00000010: 79af 453e 2f1d 693c 4cd9 2d3c 4295 7a3b
00000020: 4280 e6bd 8430 4c3d 5175 00be c669 e5bc
00000030: 6034 4b3e 5611 d03e 3d49 793e 5e4f 1e3e
00000040: e442 a23c 88b8 2ebd 8855 8abd 157c 6fbe
00000050: a075 88bc f5ca 7b3e 3dea 913e 55ea 9b3d
00000060: 1fe4 e73d 1289 e93d 3950 c0bd 00db 6fbb
00000070: b133 fabc 8fe3 ba3b e4cc c43d f03d bcbc
00000080: 67b7 413d 0eae 413e 08d4 053e 7d09 0cbe
00000090: 2221 53bd 5b85 cb3d fb25 3b3e 5648 183d
000000a0: ac52 0bbe f830 813d 5d9b 7c3e 9a70 f23d
000000b0: 6a98 85bd 4346 a1bd 124a 913d acfd d63d
000000c0: 0c8a b83d 67fc a5bd b694 8e3d 2011 3f3e
000000d0: f67d bf3d 487a aabd 8722 51bd 9f31 c7bd
000000e0: 7d82 653d 66bd 443d bd09 4ebd 286e 38bc
000000f0: cf10 363e 4477 0c3d 0c3b 75bd f1cf 913d
00000100: 7447 d5bd 389f 66bc 110d bbba d43a 04bd
00000110: 91cc f9bd a707 1b3d d051 fe3c aeac 8cbd
00000120: 7d11 663d 26af 81bc c244 30bd 33c3 4fbd
00000130: c725 a6bd 5b43 ddbd b7ea 81bd 4f9a 2d3d
00000140: 9818 8dbd 1763 883c eba9 723d 0768 e9bb
00000150: ac40 12bd bf2b 143d e96b b7bc c04c c3bd
00000160: 4bdf cdbd 18b9 a0bd 68cd d3bc c190 8bbd
00000170: 0041 9abd 4850 c53d 2920 803e 91b3 1a3e
00000180: 2dc9 953d f4bd 5d3d f259 72bd 253c 91bd
00000190: d0b2 2cbe 0cf4 a8bd c2d5 e03d 0d10 6c3d
000001a0: 4cec 0bbd 1b1e 583c 754a d33c c78b fdbd
000001b0: 0ce9 743b 2bdc 3dbd 7772 d2bd fe04 99bd
000001c0: a34c 44be 7de5 10be 39ad e83d a343 4abd
000001d0: 931a 06be 6316 68bd 1985 bf3d 4eda d43d
000001e0: 11c8 b0bd 6a89 c4bd 7c03 04bc 4158 533e
000001f0: 8827 9a3d 84f3 dfbd 9189 46bd db07 51bc
00000200: 9346 1a3e 7205 a73b 3e71 fbbc 5349 ca3c
00000210: cc60 4a3e a7a8 803d 6af5 4ebd 1ae6 8bbd
00000220: 637a bdbd 04f7 933c ea35 de3c b0a2 f9bd
00000230: 3c54 e2bc 9e2f 5e3d 1c4f 413c b132 dfbd
00000240: b5b8 8e3c 6486 e03c baed ebbb 5b73 d03d
00000250: 4e69 03bd 46b6 b4bd 5133 cb3d 405f 94bb
00000260: c59f 0fbd 686e 543d 9fee babc bfd2 a63c
00000270: 134d 8cbc f017 cc3c 8d3d 80bd b703 d03a
00000280: d434 8a3d faf1 e0bc 5f2a 443d 6a99 a43d
00000290: 73c0 89bc 2fef a53b d2ef 33bd 9d7b 89bd
000002a0: c75b 67bd f6a5 283d dbd0 3cbc 6e15 273d
000002b0: f495 8abd fc9e 5fbc dbf0 bd3b e937 d53c
000002c0: 98fd 06bd 4262 41bd e90c 02bd 2ba8 6f3d
000002d0: 8747 febc 99e6 fcbd 825a 9cbd e705 09bd
000002e0: e459 5bbd ff1a b1bd 1783 9dbd f12e 22bd
000002f0: 641b 1f3d 0aee a63d 9bac 11bc 1192 dcbd
00000300: 7449 e3bd 8ab4 51be f91d 11be 5b76 a4bc
00000310: 565b 85bc 64d0 5d3b 0de8 483d 9037 a03c
00000320: 7154 873d 7e0d e0bd 4ddf fcbd 6514 83bd
00000330: 1fb6 973d 9ba8 1fbd 2b22 a9bc 62c9 153b
00000340: e0ec 2e3d 10f8 833d 88ef a63d 65eb ad3b
00000350: ce3b 513d 1f61 7b3d 7d45 8a3d c4c9 4abd
00000360: 9918 a2bd 6308 16bd 2472 bd3d ff64 f93d
00000370: 2063 3abd bcd8 8ebd 867a a33d 765d a93d
00000380: 34ef 79bd 0792 343d 22e5 d73c 905e 4c3d
00000390: 42ef a03d f905 ddbc 30e6 30ba 7ac3 ac3d
000003a0: 45e0 c43d 523f 4b3d fc7a 643d 058d d43b
000003b0: cfeb 823d ddba fc3d a5ff 2c3d 09d7 333d
000003c0: 3111 0b3d 57e6 d33c 5566 9f3c c2c7 96bd
000003d0: 0c3a 84bd e22f 8ebd 1f0c 74bc b712 debb
000003e0: 8d2a 28bc 4357 d3bc 8ee0 af3b 50c5 87bd
000003f0: 8762 cdbc 5836 edbd c1af 1b3d 7ce8 1b3e

conv1.conv2d.bias f4 [8]
-0.114804685 -0.04921254 -0.07521032 0.04377763 -0.040853 0.00017423958 -0.13129988 0.036682677
00000000: b81e ebbd 1793 49bd de07 9abd 2c50 333d
00000010: 7a55 27bd 15b4 3639 7a73 06be 9340 163d

in1.weight f4 [8]
1.3836023 1.1101851 1.3546097 1.0824084 1.245784 1.076277 1.2477292 1.0694237
00000000: e119 b13f 8c1a 8e3f da63 ad3f 5c8c 8a3f
00000010: da75 9f3f 72c3 893f 97b5 9f3f e0e2 883f

in1.bias f4 [8]
0.72829753 0.26581553 0.38432628 0.61606884 -0.095622994 0.62813807 0.5857055 0.27492213
00000000: b571 3a3f f918 883e 6ac6 c43e b0b6 1d3f
00000010: fdd5 c3bd a8cd 203f ccf0 153f 98c2 8c3e

conv2.conv2d.weight f4 [16, 8, 3, 3]
-0.037311915 -0.026570039 -0.12431429 0.035945885 0.05163489 -0.037063304 -0.10658505 -0.12436413
0.019602835 0.058382533 0.021795832 -0.06392796 0.039438486 0.05069016 -0.03032075 -0.09698946
-0.09433677 0.003700022 -0.022928635 0.081579074 -0.058469027 -0.05490448 -0.10045449 -0.06685593
-0.105190866 -0.09445255 0.067467086 -0.11262213 -0.2154312 0.05063297 -0.094005965 -0.10439829
-0.2051155 -0.09380096 -0.11000352 -0.24240305 -0.2672377 -0.11439677 -0.039214466 -0.25463375
-0.1641495 -0.13740668 -0.06155053 -0.08992691 0.04549298 -0.07023754 0.013220691 -0.19409311
-0.09698993 -0.2447513 -0.07480949 -0.09529315 -0.09117241 -0.22200659 0.021440562 0.054181248
0.08057637 -0.081537485 -0.041409593 0.110279106 -0.1383932 -0.071527116 -0.08488736 0.0059830435
-0.1087891 -0.1300381 0.005376046 0.03401767 -0.0786235 0.0688907 0.11087095 0.030553505
-0.041080095 -0.074708045 -0.15884776 -0.13274254 -0.042461485 -0.045986462 -0.029159166 -0.0091095185
0.011284426 0.012273992 0.079605795 -0.039485715 0.04565623 0.07010225 -0.092499964 -0.16142333
-0.08087455 -0.020773161 0.04618432 -0.017614253 0.039350282 0.033342224 0.040094517 -0.08326948
-0.027797736 -0.04094669 -0.0702051 0.03380627 0.09270112 0.11406833 0.20425749 -0.02222346
0.10679944 0.13884763 0.15519935 0.005495846 -0.20706633 -0.27907267 -0.46628198 -0.36652485
-0.32191455 -0.44111627 -0.28266352 -0.3749714 -0.23607741 -0.013590524 -0.079446726 0.050819162
-0.09945799 -0.14775501 -0.069023706 0.019510299 -0.11595553 -0.10719877 0.009147904 -0.06904546
0.014646762 -0.08574041 0.023032976 -0.01889863 -0.11491823 -0.056219216 -0.1277664 0.1447682
0.032861844 0.03691796 0.043649767 -0.045594186 0.021191312 -0.010464066 -0.051340587 0.056579288
-0.14457221 -0.17017643 -0.20136005 -0.09179618 -0.18246508 -0.089396 -0.021427473 -0.051827427
0.046993162 -0.083713934 -0.16144845 -0.21840803 -0.02161342 -0.12446555 -0.04165222 -0.02587581
-0.081613764 -0.050548445 0.03637099 -0.09848186 0.021817971 -0.022898423 0.019443514 -0.012819298
0.0527077 -0.0003595731 0.021793673 -0.11409958 0.0316171 -0.024352761 0.038492292 -0.03883316
0.017574517 -0.018086972 0.01710147 0.009606432 0.19984783 0.18694754 0.24783231 0.008801232
-0.0016100005 0.140285 -0.17004097 -0.20658618 -0.062690556 0.06696054 0.011805168 -0.03093116
-0.05100363 0.06669925 -0.035608165 0.075640835 0.056451507 -0.032135088 -0.068355046 -0.1069116
-0.17431252 0.08118672 0.07737529 0.01120687 -0.027483886 0.1071269 0.072119676 -0.09177758
-0.021065375 -0.067878 -0.1034154 -0.19998403 -0.1759307 -0.09700979 -0.0049176165 -0.02848852
0.07415889 -0.104668885 -0.16103487 -0.050346825 -0.027608652 -0.17015597 -0.22607289 -0.18930376
-0.09530675 -0.11262486 0.120453514 -0.07952992 -0.017787252 0.12519538 0.00067173725 -0.037044443
0.057053033 0.072749265 -0.08076276 -0.057316795 -0.1748922 -0.04652308 -0.050565746 -0.03363923
-0.083900094 -0.009403501 -0.034740828 0.048486616 -0.1007083 -0.088488564 -0.10581909 0.07574513
0.031175772 -0.1319563 0.048619747 0.0033971875 -0.2062246 -0.06881131 -0.017452693 -0.119007684
00000000: 61d4 18bd 69a9 d9bc 7e98 febd fe3b 133d
00000010: 1b7f 533d b1cf 17bd 4349 dabd 9fb2 febd
00000020: 2096 a03c 8622 6f3d 2c8d b23c aaec 82bd
00000030: 408a 213d 7ca0 4f3d 3963 f8bc 69a2 c6bd
00000040: a333 c1bd 117c 723b d5d4 bbbc ee12 a73d
00000050: 387d 6fbd 85e3 60bd 15bb cdbd c3eb 88bd
00000060: 4f6e d7bd 5770 c1bd 2f2c 8a3d 6ea6 e6bd
00000070: ff99 5cbe 8464 4f3d 3386 c0bd c5ce d5bd
00000080: cc09 52be b81a c0bd 8749 e1bd 8138 78be
00000090: 61d3 88be db48 eabd 599f 20bd 5b5f 82be
000000a0: ce16 28be 56b4 0cbe 691c 7cbd 9a2b b8bd
000000b0: d956 3a3d b3d8 8fbd 999b 583c 58c0 46be
000000c0: a8a2 c6bd 16a0 7abe b835 99bd 0e29 c3bd
000000d0: 9ab8 babd b255 63be 1ea4 af3c 28ed 5d3d
000000e0: 3905 a53d 20fd a6bd 1b9d 29bd 03da e13d
000000f0: f2b6 0dbe cf7c 92bd 6dd9 adbd 680d c43b
00000100: d2cc debd b528 05be 8b29 b03b 1d56 0b3d
00000110: 5c05 a1bd 9116 8d3d 4f10 e33d 584b fa3c
00000120: 9a43 28bd 8800 99bd fda8 22be a9ed 07be
00000130: 18ec 2dbd 4d5c 3cbd 34df eebc 1740 15bc
00000140: 50e2 383c db18 493c 5d08 a33d c6bb 21bd
00000150: 0702 3b3d c591 8f3d 9f70 bdbd 284c 25be
00000160: 8ea1 a5bd 7a2c aabc c52b 3d3d c44b 90bc
00000170: c32d 213d db91 083d 263a 243d 3089 aabd
00000180: 14b8 e3bc b7b7 27bd b1c7 8fbd 7278 0a3d
00000190: 16da bd3d a89c e93d e028 513e f90d b6bc
000001a0: aab9 da3d 132e 0e3e 94ec 1e3e 7f16 b43b
000001b0: 3209 54be 9de2 8ebe 83bc eebe 25a9 bbbe
000001c0: fcd1 a4be fed9 e1be 46b9 90be 40fc bfbe
000001d0: 47be 71be caaa 5ebc f7b4 a2bd c127 503d
000001e0: a1b0 cbbd 174d 17be 4d5c 8dbd 10d4 9f3c
000001f0: 187a edbd 078b dbbd 17e1 153c b567 8dbd
00000200: f9f8 6f3c ab98 afbd a7af bc3c 4dd1 9abc
00000210: 405a ebbd 1f46 66bd 32d5 02be 1d3e 143e
00000220: 249a 063d 4937 173d 19ca 323d f8c0 3abd
00000230: 6799 ad3c 7971 2bbc 824a 52bd afbf 673d
00000240: bd0a 14be bb42 2ebe 5431 4ebe a3ff bbbd
00000250: 20d8 3abe 4015 b7bd ab88 afbc ff48 54bd
00000260: e77b 403d 3672 abbd be52 25be 5ba6 5fbe
00000270: a10e b1bc cbe7 febd 859b 2abd 82f9 d3bc
00000280: 1e25 a7bd e30b 4fbd bff9 143d dbb0 c9bd
00000290: 9abb b23c 7995 bbbc 0148 9f3c 0808 52bc
000002a0: 07e4 573d 1685 bcb9 a588 b23c 0aad e9bd
000002b0: ef80 013d 717f c7bc 18aa 1d3d 850f 1fbd
000002c0: 6ff8 8f3c 212b 94bc 6218 8c3c 4c64 1d3c
000002d0: e9a4 4c3e 2d6f 3f3e c1c7 7d3e 0b33 103c
000002e0: a706 d3ba dfa6 0f3e 381f 2ebe 548b 53be
000002f0: e863 80bd 9c22 893d 776a 413c 5863 fdbc
00000300: 2fe9 50bd 9e99 883d ded9 11bd 95e9 9a3d
00000310: b239 673d 15a0 03bd bbfd 8bbd 78f4 dabd
00000320: fb7e 32be 3945 a63d f076 9e3d 059d 373c
00000330: e325 e1bc 5965 db3d 7bb3 933d e2f5 bbbd
00000340: 4b91 acbc 9f03 8bbd 74cb d3bd 9dc8 4cbe
00000350: 2d27 34be 12ad c6bd f523 a1bb c260 e9bc
00000360: 9ee0 973d a45c d6bd 53e6 24be 7938 4ebd
00000370: 8a2b e2bc 5e3d 2ebe a77f 67be d8d8 41be
00000380: 2f30 c3bd dda7 e6bd 55b0 f63d 95e0 a2bd
00000390: 92b6 91bc 3833 003e 8617 303a eabb 17bd
000003a0: 71b0 693d 91fd 943d f266 a5bd 04c5 6abd
000003b0: f116 33be fc8e 3ebd 071e 4fbd 4ac9 09bd
000003c0: d0d3 abbd 2411 1abc 664c 0ebd e799 463d
000003d0: 2740 cebd 7e39 b5bd aeb7 d8bd 4320 9b3d
000003e0: 5564 ff3c 8d1f 07be 8025 473d 59a3 5e3b
000003f0: 8b2c 53be f2ec 8cbd f3f8 8ebc 4dba f3bd

conv2.conv2d.bias f4 [16]
0.013286049 0.035453115 0.11004514 0.014517763 0.13961948 0.105687395 0.050146352 0.071258575
-0.08370354 0.052456487 -0.09842739 0.04254825 -0.055387665 -0.042754672 0.0018725683 -0.07126994
00000000: baad 593c 4937 113d 595f e13d e9db 6d3c
00000010: 69f8 0e3e a272 d83d 4366 4d3d 04f0 913d
00000020: c36c abbd 9ddc 563d 4d94 c9bd 1347 2e3d
00000030: 2dde 62bd 861f 2fbd f770 f53a f9f5 91bd

in2.weight f4 [16]
0.57810026 0.57986116 0.73607033 0.6601118 0.64797306 0.6534913 0.85246295 0.6586712
0.47271705 0.76719975 0.74222034 0.6072024 0.6252933 0.70747155 0.502321 0.76730645
00000000: 61fe 133f c871 143f 1b6f 3c3f 16fd 283f
00000010: 90e1 253f 354b 273f 033b 5a3f ad9e 283f
00000020: f807 f23e 3467 443f 2702 3e3f 9e71 1b3f
00000030: 3913 203f db1c 353f 1c98 003f 326e 443f

in2.bias f4 [16]
-0.22833163 -0.04082114 -0.0581921 -0.24434663 -0.2173955 -0.16463226 -0.23450938 0.05398024
-0.24766289 -0.16760887 -0.012965284 -0.2940331 -0.27889055 0.07503909 -0.29413524 -0.14499696
00000000: c4cf 69be 1134 27bd d75a 6ebd 0136 7abe
00000010: ed9c 5ebe 5c95 28be 3a23 70be 621a 5d3d
00000020: 579b 7dbe a9a1 2bbe 586c 54bc 828b 96be
00000030: beca 8ebe 18ae 993d e598 96be 157a 14be

conv3.conv2d.weight f4 [32, 16, 3, 3]
-0.02592122 -0.029776426 -0.067634806 -0.01392892 -0.081445575 0.008887921 0.010941615 0.0583105
0.034621928 -0.09548903 -0.03478067 0.03217591 -0.020647775 0.021755079 0.050888296 -0.03666286
0.031620372 0.115191616 0.018046742 -0.036765177 -0.049390025 -0.025192669 -0.14854231 -0.16978578
-0.28601694 -0.11728442 -0.113294 0.08808021 0.10200641 0.101545416 0.0148354545 0.038944367
0.0154826045 0.023268964 -0.03415611 0.031071093 -0.043757528 -0.014298941 -0.101110466 -0.06275003
-0.08280821 -0.11445803 0.025528466 0.045874927 0.05985733 -0.065894574 -0.03507029 0.022508262
0.018371992 -0.0067824675 0.020866817 0.05574837 0.029680958 0.11796234 -0.073857255 -0.049479086
-0.04445974 -0.107389316 0.040649842 0.00013749374 0.037147243 0.052505225 0.14693567 0.028702332
0.04137965 0.01634001 -0.023945894 -0.05984361 -0.09934328 -0.14927559 -0.1972573 -0.13671178
-0.04197446 -0.06040639 -0.0872819 0.041275438 0.050024293 0.019827569 0.08509184 0.06567165
-0.036162127 -0.17905024 -0.058551032 -0.10869082 -0.048851598 -0.011340794 -0.0052504577 0.049443472
0.114265464 0.16741765 -0.14799573 -0.16345964 -0.101027675 -0.08118403 0.036560755 0.10493416
0.1015382 0.14887185 0.17485869 -0.20524421 -0.1705642 -0.14168651 -0.11272885 -0.011030148
0.05809274 0.050266303 0.053544268 0.12044026 -0.013671157 -0.021881634 -0.052270733 0.0175831
0.005859194 -0.018226769 0.11341711 0.15286818 0.050290506 0.2419611 0.2842709 0.16023637
0.07813205 0.0127654085 0.02365804 -0.22698855 -0.30315506 -0.25460163 -0.07558367 -0.042858556
-0.04779703 0.061991684 0.10923262 0.08904141 0.0066509354 0.13874657 0.11999179 -0.040383488
-0.09167982 -0.003389997 0.033424634 0.004663117 -0.108120814 -0.0141245965 -0.05218129 -0.016117664
0.0657496 0.08269238 0.0011458192 0.12638554 0.06789994 0.13354062 0.16114084 0.033047162
0.08932337 0.06777281 0.09861232 0.057254523 0.1542155 0.14282484 0.07367587 0.16438505
0.15170096 0.119672865 -0.002855918 -0.07989188 -0.1198419 -0.16652417 -0.19759858 -0.1819479
-0.12328663 -0.11138734 -0.05431165 -0.090215996 -0.046062075 0.061097022 -0.12389662 -0.1850146
0.14145793 0.037011802 -0.10233874 -0.082939595 -0.13415343 -0.012995906 -0.051647652 -0.027814602
-0.12748186 -0.085616 0.026087696 -0.006937484 -0.012181178 -0.07492339 0.0068826196 0.07152957
0.14332707 0.13990651 -0.04623909 0.12865512 0.09360081 0.12697956 0.016877294 0.01819559
0.021228397 -0.12146724 -0.095018506 0.034738112 -0.07149201 -0.057710223 -0.022248339 -0.06909358
-0.11179944 -0.084584095 -0.15040477 -0.1360876 -0.14813948 0.013213169 -0.021445397 0.017993307
-0.045357935 -0.058683738 -0.11110165 0.023825524 -0.01131879 -0.023281101 0.017453356 0.073698536
-0.021423321 0.007514302 -0.016549228 -0.032877736 0.10600883 0.030209651 0.09077872 0.073207535
0.16220278 0.11833496 0.03165565 -0.07993707 -0.01288143 0.09324978 0.1271499 0.014527861
0.070216976 0.20340618 0.12570496 -0.053771317 0.11729221 0.0006093786 -0.03026944 0.013097341
0.058025096 0.1342402 0.10529697 0.071832255 -0.006246104 -0.083362296 0.030204134 0.08953859
00000000: bd58 d4bc b1ed f3bc 1e84 8abd 2036 64bc
00000010: f0cc a6bd a59e 113c 7644 333c fed6 6e3d
00000020: b9cf 0d3d c18f c3bd 2d76 0ebd e3ca 033d
00000030: 8625 a9bc b537 b23c 3f70 503d cc2b 16bd
00000040: 5d84 013d 95e9 eb3d c3d6 933c 1597 16bd
00000050: 324d 4abd db60 cebc 7a1b 18be 53dc 2dbe
00000060: d070 92be d032 f0bd af06 e8bd 6663 b43d
00000070: bde8 d03d 0bf7 cf3d 6810 733c 2184 1f3d
00000080: c0aa 7d3c 8e9e be3c 47e7 0bbd ce88 fe3c
00000090: 183b 33bd 1b46 6abc 0113 cfbd 1683 80bd
000000a0: 5a97 a9bd f968 eabd 1321 d13c 59e7 3b3d
000000b0: f62c 753d bcf3 86bd dda5 0fbd 3f63 b83c
000000c0: dc80 963c 763f debb e3f0 aa3c 6758 643d
000000d0: 7b25 f33c 3d96 f13d 7942 97bd 95aa 4abd
000000e0: 6b1b 36bd eeee dbbd 7380 263d 322c 1039
000000f0: b527 183d b80f 573d 4e76 163e 2721 eb3c
00000100: b57d 293d 7cdb 853c 2e2a c4bc 931e 75bd
00000110: 7d74 cbbd b3db 18be d1fd 49be 2cfe 0bbe
00000120: 69ed 2bbd b16c 77bd dac0 b2bd 6f10 293d
00000130: 46e6 4c3d 6d6d a23c a144 ae3d dc7e 863d
00000140: bd1e 14bd f258 37be 35d3 6fbd 4b99 debd
00000150: 9d18 48bd bdce 39bc 080c acbb 3d85 4a3d
00000160: 0304 ea3d 886f 2b3e 318c 17be f761 27be
00000170: 99e7 cebd d043 a6bd bbc0 153d b9e7 d63d
00000180: 43f3 cf3d dd71 183e 280e 333e 8a2b 52be
00000190: 62a8 2ebe 4516 11be 62de e6bd cbb7 34bc
000001a0: a7f2 6d3d 0ae4 4d3d 3c51 5b3d 62a9 f63d
000001b0: fdfc 5fbc 1d41 b3bc d619 56bd 6f0a 903c
000001c0: 7bfe bf3b 4e50 95bc 3b47 e83d 7a89 1c3e
000001d0: 6bfd 4d3d a7c4 773e f58b 913e 0115 243e
000001e0: b203 a03d 0126 513c 82ce c13c b06f 68be
000001f0: 2437 9bbe 255b 82be 9ccb 9abd 748c 2fbd
00000200: d2c6 43bd feea 7d3d 5ab5 df3d 585b b63d
00000210: 17f0 d93b 9513 0e3e 41be f53d 2869 25bd
00000220: a1c2 bbbd b62a 5ebb 45e8 083d 10cd 983b
00000230: 726e ddbd da6a 67bc 0cbc 55bd 3109 84bc
00000240: baa7 863d 9f5a a93d 502f 963a 366b 013e
00000250: 200f 8b3d dfbe 083e 1b02 253e 765c 073d
00000260: 2cef b63d 79cc 8a3d 42f5 c93d b883 6a3d
00000270: abea 1d3e ad40 123e 60e3 963d 8e54 283e
00000280: 7f57 1b3e 0c17 f53d 5a2a 3bbb 5b9e a3bd
00000290: ac6f f5bd 5085 2abe 4857 4abe 8d50 3abe
000002a0: b37d fcbd 0c1f e4bd e575 5ebd 2ac3 b8bd
000002b0: 96ab 3cbd df40 7a3d 83bd fdbd 7874 3dbe
000002c0: 59da 103e b099 173d f996 d1bd 3cdc a9bd
000002d0: 845f 09be c8ec 54bc 7d8c 53bd 73db e3bc
000002e0: 9b8a 02be 7157 afbd ddb5 d53c d553 e3bb
000002f0: 9093 47bc 6f71 99bd 9987 e13b 187e 923d
00000300: 55c4 123e a743 0f3e 3365 3dbd 2bbe 033e
00000310: c8b1 bf3d ee06 023e 4042 8a3c eb0e 953c
00000320: 2de7 ad3c d1c3 f8bd 1099 c2bd 8d49 0e3d
00000330: 676a 92bd 8e61 6cbd 2642 b6bc ef80 8dbd
00000340: 1bf7 e4bd 6d3a adbd b503 1abe 8c5a 0bbe
00000350: e0b1 17be 0c7c 583c 42ae afbc b366 933c
00000360: 3ec9 39bd 5c5e 70bd 4389 e3bd bf2d c33c
00000370: 7272 39bc 02b8 bebc 57fa 8e3c 42ef 963d
00000380: f67f afbc 893a f63b 3f92 87bc ceaa 06bd
00000390: 281b d93d 3b7a f73c 32ea b93d d5ed 953d
000003a0: 7c18 263e 9959 f23d 5ba9 013d 0cb6 a3bd
000003b0: a20c 53bc bef9 be3d 9533 023e 4406 6e3c
000003c0: ebcd 8f3d b649 503e cdb8 003e 503f 5cbd
000003d0: e636 f03d b5be 1f3a 9ef7 f7bc 3b96 563c
000003e0: b9ab 6d3d 4376 093e f0a5 d73d ca1c 933d
000003f0: 1eac ccbb dab9 aabd a96e f73c 0260 b73d

conv3.conv2d.bias f4 [32]
-0.12032433 0.0037060047 0.00278089 0.102516 -0.026625417 -0.21742105 0.039763954 -0.0533698
-0.01783515 0.022515731 0.030476034 0.111285605 0.03328906 0.03868392 -0.14122121 0.08594349
-0.056137472 0.058766853 0.01656389 0.058045775 -0.04875804 -0.020714028 -0.11215095 0.078130506
-0.05010695 -0.091866225 0.013047065 -0.018919624 0.074863695 0.128184 -0.09415872 0.1322663
00000000: 9a6c f6bd 71e0 723b 983f 363b e9f3 d13d
00000010: 8c1d dabc a0a3 5ebe 87df 223d 4b9a 5abd
00000020: 051b 92bc e972 b83c e0a8 f93c b5e9 e33d
00000030: 1c5a 083d 0873 1e3d 4b9c 10be 2403 b03d
00000040: 68f0 65bd 83b5 703d ffb0 873c 68c1 6d3d
00000050: 83b6 47bd 77b0 a9bc 66af e5bd e302 a03d
00000060: f23c 4dbd 5c24 bcbd 5bc3 553c 54fd 9abc
00000070: 2352 993d ab42 033e 49d6 c0bd d170 073e

in3.weight f4 [32]
0.7209489 0.78254324 0.7456829 0.8311584 0.67295355 0.6391108 0.6639516 0.65545726
0.71018785 0.7091569 0.6681656 0.6174722 0.67039436 0.731196 0.69762886 0.5719801
0.73211 0.7956959 0.63480633 0.6377865 0.8076816 0.81235296 0.69611853 0.62186
0.75578755 0.72477543 0.67700124 0.8595395 0.5744323 0.8453974 0.6452921 0.73290586
00000000: 1b90 383f c154 483f 13e5 3e3f ccc6 543f
00000010: af46 2c3f c49c 233f bbf8 293f 0ccc 273f
00000020: dfce 353f 4e8b 353f e70c 2b3f a812 1e3f
00000030: f79e 2b3f a92f 3b3f ce97 323f 4a6d 123f
00000040: 906b 3b3f bab2 4b3f ab82 223f fa45 233f
00000050: 39c4 4e3f 5df6 4f3f d334 323f 3832 1f3f
00000060: 4b7b 413f e28a 393f f44f 2d3f c80a 5c3f
00000070: ff0d 133f f76b 583f dd31 253f b89f 3b3f

in3.bias f4 [32]
-0.14143331 -0.10860009 -0.17506373 -0.0573366 -0.059811097 -0.049008146 -0.15172455 -0.12132309
-0.1541241 -0.060279354 -0.16798654 -0.21328272 -0.116297536 -0.11633378 -0.015432946 -0.20770709
-0.09436272 -0.1883968 0.0028448727 0.09772634 -0.030780194 -0.14458883 -0.16027875 -0.10337229
-0.22785841 -0.19358516 -0.0702373 -0.0344985 -0.12143509 0.0065673487 -0.18918757 -0.07564449
00000000: e5d3 10be b969 debd e843 33be c8d9 6abd
00000010: 7bfc 74bd c4bc 48bd ae5d 1bbe 3d78 f8bd
00000020: b5d2 1dbe 7ce7 76bd aa04 2cbe c966 5abe
00000030: 672d eebd 6840 eebd 78da 7cbc 2bb1 54be
00000040: 3e41 c1bd 17eb 40be 0b71 3a3b bf24 c83d
00000050: bf26 fcbc 180f 14be 1d20 24be dab4 d3bd
00000060: b753 69be 303b 46be 93d8 8fbd 4d4e 0dbd
00000070: f6b2 f8bd ea32 d73b 63ba 41be 80eb 9abd

resnets.0.conv1.conv2d.weight f4 [32, 32, 3, 3]
-0.058517154 0.027645905 -0.027146675 -0.12188107 -0.08297068 -0.19973904 -0.23315686 -0.03399786
0.10124903 0.15157878 0.12067047 0.059902854 0.023781408 -0.04719779 -0.073706776 -0.10281069
-0.29240373 -0.20868175 0.026328303 -0.050477423 -0.18285282 0.02206044 -0.03264898 -0.011490271
0.12744953 0.019561915 0.094348215 0.07179202 0.16932279 0.12878801 0.15815806 -0.0023592091
-0.09434746 -0.016908262 -0.22410515 -0.06494531 -0.11945164 0.063135274 -0.0211261 0.07809868
-0.06079827 -0.14642966 -0.034380816 0.054971702 -0.11950228 0.068070725 0.09419899 -0.05977812
0.038220964 -0.115804195 0.0070701838 0.077758856 -0.018390033 -0.016469957 0.014052038 0.075179644
-0.025740534 0.063949324 0.026281888 -0.0010745405 0.12055607 0.0077885757 0.064222485 0.087289564
0.113706596 0.07162458 0.106050156 0.1384173 0.014157624 -0.07506899 -0.1313853 -0.038440462
-0.08055466 -0.08522325 -0.0790438 0.062090095 -0.11237785 -0.042923257 0.04151391 0.12688662
-0.037468158 0.04480673 -0.03694896 -0.06815808 0.07438316 0.007384896 -0.14640541 0.1606034
-0.09152436 -0.059601814 0.0142269535 -0.083933935 -0.12901846 -0.05566711 -0.03823982 -0.13276377
-0.021537112 -0.1280092 -0.10439155 -0.051225565 -0.01521737 -0.0069443113 -0.001977595 -0.020221027
0.0067173266 -0.11588933 -0.15692902 -0.0056974078 0.042121783 0.07686823 0.13671105 0.11856155
-0.14960054 -0.08618823 -0.03536063 -0.09007928 -0.22880086 0.12043178 0.1601933 0.022064513
0.11490448 0.0132618975 -0.11222331 -0.17207764 -0.27477375 -0.06906757 -0.040706724 -0.0241238
0.08978489 0.030351434 -0.036560506 0.017666385 -0.099282235 0.030222626 0.03940476 0.024989868
0.07790635 0.07264582 0.020966096 0.06624948 0.058020163 -0.13017769 -0.051466428 0.05235223
0.07883288 0.06640813 0.16359708 0.090569325 0.046256915 -0.043800425 -0.14041394 -0.10787447
-0.050909538 0.029759178 0.037130103 0.0042051165 0.08651911 -0.010968606 0.056029566 0.10231133
-0.062194668 0.003793486 -0.01594324 -0.058132213 0.08232982 -0.068281345 0.023370208 0.16289118
0.06014782 0.07636306 0.07412447 0.0854955 0.090657264 0.0962268 0.08304105 -0.07292308
-0.05859476 -0.17646876 -0.07217784 0.035014734 -0.0178491 -0.070284545 0.038003918 0.028601157
-0.112305924 -0.016883098 0.02073718 -0.11867125 -0.10991269 0.058695536 0.008524717 0.06394181
-0.12697329 -0.1756383 0.08151644 0.051530022 -0.1789506 -0.2192823 0.04478448 0.044358987
-0.07543658 0.0172854 -0.067950584 -0.24138275 0.10380562 -0.120937064 -0.020054001 0.09777304
0.053429358 0.07246658 0.00379855 0.035709247 -0.092033766 0.1604296 -0.092992365 -0.04242764
0.21024911 0.15834053 0.07479348 0.08862349 -0.035133034 -0.042680748 -0.05533589 -0.11044036
-0.19595753 -0.12002046 -0.092393935 -0.124379024 -0.09909636 -0.052775547 0.04099814 -0.0822625
0.09656313 0.015745914 -0.01509469 0.06560036 -0.082483634 0.045863867 0.016477773 -0.13862842
-0.10932404 0.032377858 -0.0024525742 -0.11979573 -0.118614174 -0.08968997 0.0052199513 0.027783329
0.11748814 0.04598199 0.020572383 -0.09248224 -0.027585885 -0.09739847 -0.03929783 0.07077286
00000000: afaf 6fbd aa79 e23c b462 debc c89c f9bd
00000010: 88ec a9bd 6488 4cbe acc0 6ebe 5741 0bbd
00000020: a75b cf3d 7837 1b3e 1422 f73d b25c 753d
00000030: 3ad1 c23c 7852 41bd 94f3 96bd 698e d2bd
00000040: f1b5 95be abb0 55be 74ae d73c 6ac1 4ebd
00000050: c53d 3bbe 19b8 b43c f0ba 05bd b141 3cbc
00000060: 2182 023e 4f40 a03c a339 c13d b207 933d
00000070: f462 2d3e 01e1 033e 30f4 213e f69c 1abb
00000080: 3e39 c1bd 3283 8abc d27b 65be 0c02 85bd
00000090: 10a3 f4bd 114d 813d a510 adbc 33f2 9f3d
000000a0: 9b07 79bd a8f1 15be e6d2 0cbd 022a 613d
000000b0: 9dbd f4bd aa68 8b3d 66eb c03d e7d9 74bd
000000c0: 968d 1c3d c02a edbd 00ad e73b 0940 9f3d
000000d0: b2a6 96bc 01ec 86bc 853a 663c c9f7 993d
000000e0: d0dd d2bc ddf7 823d 1d4d d73c 99d7 8cba
000000f0: 1ae6 f63d 4f37 ff3b 1487 833d dfc4 b23d
00000100: 01df e83d e8af 923d d330 d93d 44bd 0d3e
00000110: 61f5 673c c5bd 99bd de89 06be bf73 1dbd
00000120: d7f9 a4bd 8789 aebd b7e1 a1bd 2f52 7e3d
00000130: 5c26 e6bd 4cd0 2fbd 7d0a 2a3d 91ee 013e
00000140: 3678 19bd 4387 373d cb57 17bd 7796 8bbd
00000150: 3356 983d fffc f13b 4deb 15be 3875 243e
00000160: 2071 bbbd 0821 74bd 2b18 693c 8ee5 abbd
00000170: 6a1d 04be 3203 64bd 5ca1 1cbd 3af3 07be
00000180: 996e b0bc d814 03be 3dcb d5bd e6d1 51bd
00000190: 4752 79bc 1b8d e3bb 8a9a 01bb 91a6 a5bc
000001a0: 051d dc3b 6357 edbd 00b2 20be 52b1 babb
000001b0: e487 2c3d 176d 9d3d fbfd 0b3e 66d0 f23d
000001c0: e230 19be 7483 b0bd 4fd6 10bd 7c7b b8bd
000001d0: c64a 6abe f0a4 f63d b609 243e a3c0 b43c
000001e0: 0a53 eb3d 6e48 593c 56d5 e5bd 1f35 30be
000001f0: 25af 8cbe 4c73 8dbd 18bc 26bd 479f c5bc
00000200: 24e1 b73d 92a3 f83c 78c0 15bd 18b9 903c
00000210: 7c54 cbbd 7195 f73c e366 213d 8db7 cc3c
00000220: 5d8d 9f3d 55c7 943d 17c1 ab3c cfad 873d
00000230: 8da6 6d3d 4d4d 05be 76ce 52bd 4b6f 563d
00000240: 2273 a13d fc00 883d fe85 273e 697c b93d
00000250: e477 3d3d 1368 33bd acc8 0fbe 4aed dcbd
00000260: 8586 50bd 85c9 f33c bc15 183d 13cb 893b
00000270: ee30 b13d abb5 33bc 427f 653d 9a88 d13d
00000280: d6bf 7ebd 229c 783b 669b 82bc 0b1c 6ebd
00000290: 899c a83d 17d7 8bbd e172 bf3c f2cc 263e
000002a0: 8f5d 763d 3c64 9c3d 92ce 973d 4418 af3d
000002b0: 84aa b93d 8e12 c53d 6d11 aa3d b258 95bd
000002c0: 0f01 70bd 3ab4 34be fad1 93bd 9c6b 0f3d
000002d0: 4738 92bc 58f1 8fbd ffa9 1b3d f94c ea3c
000002e0: a600 e6bd 6c4e 8abc 05e1 a93c ea09 f3bd
000002f0: e819 e1bd bb6a 703d 41ab 0b3c ecf3 823d
00000300: 4905 02be 87da 33be 17f2 a63d 2511 533d
00000310: d33e 37be 8a8b 60be ee6f 373d c5b1 353d
00000320: 7e7e 9abd 1c9a 8d3c ad29 8bbd 0a2d 77be
00000330: 0a98 d43d daad f7bd 4a48 a4bc 3b3d c83d
00000340: bed8 5a3d 5c69 943d 18f1 783b dc43 123d
00000350: 337c bcbd a847 243e c872 bebd 9bc8 2dbd
00000360: 8b4b 573e 0524 223e 532d 993d 3b80 b53d
00000370: a8e7 0fbd 02d2 2ebd e3a7 62bd 8e2e e2bd
00000380: 17a9 48be 49cd f5bd 0839 bdbd 6eba febd
00000390: 08f3 cabd 2c2b 58bd aaed 273d 3e79 a8bd
000003a0: e4c2 c53d 93fd 803c b84f 77bc 7b59 863d
000003b0: 2eed a8bd c0db 3b3d 65fc 863c 9cf4 0dbe
000003c0: 48e5 dfbd a59e 043d 5ebb 20bb 7757 f5bd
000003d0: fdeb f2bd 60af b7bd 200c ab3b dd99 e33c
000003e0: 9f9d f03d 9c57 3c3d 6a87 a83c 5467 bdbd
000003f0: cbfb e1bc d978 c7bd c3f6 20bd 5cf1 903d

resnets.0.conv1.conv2d.bias f4 [32]
0.0011303416 -0.0046383226 0.038475864 0.029568167 -0.002092783 0.15989245 -0.022971863 -0.040178396
0.11775506 -0.02539464 0.026773691 0.09892339 -0.019875048 -0.15032999 0.015285631 -0.008400443
-0.08664661 0.12890686 0.021951923 0.028259192 -0.032872804 -0.028775243 -0.015835049 0.06544962
0.073783055 -0.14468658 0.061226018 0.14640263 -0.0376497 -0.10063332 0.1651224 0.063992344
00000000: f827 943a 12fd 97bb de98 1d3d f138 f23c
00000010: 1327 09bb d9ba 233e 7d2f bcbc 1a92 24bd
00000020: 9129 f13d 6c08 d0bc 8054 db3c 5998 ca3d
00000030: ffd0 a2bc 1bf0 19be 9570 7a3c 03a2 09bc
00000040: c773 b1bd 2900 043e 85d4 b33c d27f e73c
00000050: a2a5 06bd 0fba ebbc 81b8 81bc 730a 863d
00000060: 921b 973d b828 14be 22c8 7a3d 92ea 153e
00000070: 9236 1abd d818 cebd d915 293e 6b0e 833d

resnets.0.in1.weight f4 [32]
1.0326076 0.9740972 0.8012264 0.88882726 0.9674417 1.0954149 0.86364746 1.0865794
0.89191806 0.9276639 1.1532518 0.7896014 0.89896774 0.98372275 1.0169272 0.87344015
0.7663022 0.8860784 1.0739058 1.1720192 0.9523719 1.0483521 1.1764768 0.9773475
0.9568864 0.9070057 1.0744183 0.9299597 0.98464483 0.83028084 1.0600524 0.9647586
00000000: 7c2c 843f 6f5e 793f 2c1d 4d3f 2f8a 633f
00000010: 42aa 773f 8e36 8c3f 0018 5d3f 0915 8b3f
00000020: be54 643f 627b 6d3f c19d 933f 5123 4a3f
00000030: c022 663f 41d5 7b3f ac2a 823f c699 5f3f
00000040: 622c 443f 09d6 623f bf75 893f ba04 963f
00000050: a5ce 733f 6730 863f cb96 963f 7233 7a3f
00000060: 82f6 743f 8731 683f 8a86 893f d711 6e3f
00000070: af11 7c3f 498d 543f ccaf 873f 6bfa 763f

resnets.0.in1.bias f4 [32]
-0.16578205 -0.13851327 -0.13387784 -0.13153979 -0.032101836 -0.2771668 -0.18229829 -0.3707667
0.01595394 0.023101386 -0.26620847 -0.08285929 -0.10588286 0.06283211 0.016303422 -0.04441438
-0.26567796 -0.16669238 -0.2518277 -0.12602763 -0.0056848973 -0.034150515 -0.22404219 0.007343549
-0.014584378 -0.15561588 -0.21655792 -0.01867878 -0.06354351 -0.028502494 -0.27906942 -0.23243442
00000000: c5c2 29be 6cd6 0dbe 4617 09be 5eb2 06be
00000010: 377d 03bd cfe8 8dbe 67ac 3abe 22d5 bdbe
00000020: d6b1 823c 1e3f bd3c 7a4c 88be 22b2 a9bd
00000030: 1dd9 d8bd 1fae 803d c18e 853c daeb 35bd
00000040: f106 88be 68b1 2abe 8fef 80be 630d 01be
00000050: 6048 babb 69e1 0bbd 516b 65be 27a2 f03b
00000060: 51f3 6ebc c559 1fbe 5cc1 5dbe 3e04 99bc
00000070: 1a23 82bd 107e e9bc 30e2 8ebe 4a03 6ebe

resnets.0.conv2.conv2d.weight f4 [32, 32, 3, 3]
-0.06679377 -0.1862355 -0.10930391 -0.113628656 0.10311848 0.079555504 -0.005415752 0.13014765
0.07518692 -0.03204755 0.0057597165 0.06489454 -0.071805574 0.06240239 0.09763002 0.007331968
0.02974585 -0.012152952 0.043223448 -0.012008185 -0.026145976 0.044940032 0.110103026 0.017122392
0.22700968 -0.008067142 0.037080076 -0.03689493 0.044141132 0.07610582 0.050836105 -0.03379605
0.07003291 0.085089795 0.062200654 0.08229737 -0.09399908 -0.0070123565 0.11816734 -0.07947883
-0.0005445301 -0.07145557 0.10743197 0.014876678 -0.054916814 0.02026899 -0.11761946 -0.16327225
0.031828873 -0.02167332 0.015980741 0.07752447 0.13102666 0.14022388 0.09497249 -0.05468601
-0.11879266 -0.040542904 0.07020521 0.13388854 -0.039280124 0.0111186495 0.016735796 -0.059273098
-0.1486257 -0.120130144 -0.059719995 -0.0088267485 -0.34579614 -0.12941968 -0.17717206 -0.18274431
0.0857212 0.07988727 0.1059188 0.0044011734 0.09183426 -0.013470265 0.09454527 0.037975002
0.050064296 -0.100737795 0.08554012 0.11751759 0.0677843 -0.0517999 0.00886542 0.08389352
0.03152048 -0.013846038 -0.04928466 -0.06777663 -0.008412613 -0.08287958 -0.14276356 0.036108922
-0.08411961 -0.0035677045 -0.3104489 -0.013089123 0.06503708 -0.014582708 0.036910903 0.040677264
0.038732894 0.11822944 -0.004511867 0.0462174 -0.03135408 -0.11947363 -0.1782506 -0.079124145
-0.06746262 -0.04582149 0.05359281 -0.017514875 0.0043549296 0.10571166 0.18921377 0.25714394
0.20662571 0.1284273 0.0927965 -0.0044767973 -0.076284006 -0.025306614 -0.016348295 -0.03073047
0.049360212 0.08093287 0.053200074 0.077699006 0.1430994 0.11900408 -0.010129902 -0.010912097
-0.061589703 0.002880866 0.11432272 0.05302311 -0.06411207 0.016613752 0.055935793 0.00084842887
-0.04126209 -0.024864933 0.015532129 0.082079485 -0.0018364706 0.008402864 0.08447944 0.11959866
0.029636858 0.10148803 0.0017874979 0.11140501 -0.007001032 0.09409122 -0.024033077 0.12460243
0.18113649 0.14139183 -0.09949597 -0.06508775 0.008185495 -0.09066126 -0.13560542 -0.18017367
-0.05746522 -0.06835473 -0.20726627 0.03150704 0.06351664 -0.12550503 0.03840161 -0.04867795
-0.025378497 -0.23799095 0.09292953 0.081724964 0.045027494 0.001965944 -0.07150841 0.026370684
0.0676423 0.04033295 -0.05304538 0.008169542 0.11403418 0.0802096 0.08751197 0.17030686
0.15545538 0.12556951 0.038178045 0.21807614 0.06002931 -0.02763871 -0.22199374 -0.08344544
-0.102817856 0.04925388 -0.103878714 -0.07305081 -0.007872593 -0.052297488 -0.041405387 0.02999094
-0.04815167 -0.06434911 -0.006611673 -0.074882865 -0.061720975 0.033828553 -0.10550259 -0.011167517
-0.028966857 0.04181351 0.15987879 0.027467929 0.062330905 0.13862993 0.029037744 -0.061919887
0.010292559 0.004113165 0.05926046 -0.006703211 0.052418165 0.060612414 0.122298114 0.15932207
0.14501294 0.1456857 -0.06991752 -0.09198274 -0.10965959 -0.2538465 -0.14085603 -0.04078645
-0.18205181 -0.061901703 -0.07911853 0.0145612415 0.036172953 -0.13009624 -0.031644996 -0.007359001
-0.059829857 -0.07749056 -0.06667021 -0.03988032 0.0026982336 -0.033445906 0.028228475 0.14277655
00000000: 2ccb 88bd 85b4 3ebe bada dfbd 24b6 e8bd
00000010: c82f d33d ffed a23d 9f76 b1bb 6d45 053e
00000020: 9afb 993d 4b44 03bd 01bc bc3b 6ee7 843d
00000030: cd0e 93bd a699 7f3d 3ff2 c73d 0141 f03b
00000040: 92ad f33c 2d1d 47bc 120b 313d fabd 44bc
00000050: 1630 d6bc 0a13 383d b27d e13d 4244 8c3c
00000060: 3a75 683e 0c2c 04bc 47e1 173d 231f 17bd
00000070: 55cd 343d 5edd 9b3d 8539 503d ba6d 0abd
00000080: 6a6d 8f3d 8f43 ae3d 1dc6 7e3d 868b a83d
00000090: 9782 c0bd e9c7 e5bb b801 f23d ccc5 a2bd
000000a0: ccbe 0eba 4c57 92bd 4b05 dc3d 4fbd 733c
000000b0: 74f0 60bd 270b a63c 79e2 f0bd d730 27be
000000c0: fe5e 023d 3f8c b1bc 0bea 823c 26c5 9e3d
000000d0: da2b 063e d996 0f3e f080 c23d 70fe 5fbd
000000e0: 9149 f3bd 5110 26bd c0c7 8f3d 141a 093e
000000f0: 32e4 20bd ff2a 363c 8219 893c 59c8 72bd
00000100: 5631 18be cb06 f6bd f49c 74bd 119e 10bc
00000110: 310c b1be 9886 04be 986c 35be 5321 3bbe
00000120: 998e af3d f09b a33d f5eb d83d b837 903b
00000130: 9a13 bc3d 63b2 5cbc f3a0 c13d ad8b 1b3d
00000140: 3810 4d3d 9e4f cebd a92f af3d 10ad f03d
00000150: 7fd2 8a3d 222c 54bd 4440 113c 5ed0 ab3d
00000160: 9e1b 013d 7eda 62bc b6de 49bd 79ce 8abd
00000170: 0ed5 09bc c5bc a9bd 9c30 12be f3e6 133d
00000180: e746 acbd 26d0 69bb 29f3 9ebe c373 56bc
00000190: 2932 853d 4fec 6ebc e32f 173d 349d 263d
000001a0: 62a6 1e3d 4722 f23d 49d8 93bb 754e 3d3d
000001b0: 236d 00bd 97ae f4bd 5387 36be d70b a2bd
000001c0: d829 8abd 51af 3bbd 2284 5b3d 5b7b 8fbc
000001d0: ccb3 8e3b 5b7f d83d 41c1 413e 5fa8 833e
000001e0: b195 533e 7282 033e 170c be3d 19b2 92bb
000001f0: ca3a 9cbd d14f cfbc dcec 85bc 77be fbbc
00000200: ef2d 4a3d 22c0 a53d 52e8 593d a820 9f3d
00000210: a688 123e 69b8 f33d e3f7 25bc a7c8 32bc
00000220: 7c45 7cbd e9cc 3c3b 0822 ea3d c32e 593d
00000230: 304d 83bd 9019 883c ee1c 653d 1969 5e3a
00000240: 7002 29bd 8bb1 cbbc 797a 7e3c 4a19 a83d
00000250: bab5 f0ba 2bac 093c 8e03 ad3d 24f0 f43d
00000260: ffc8 f23c f5d8 cf3d 7a4a ea3a 4f28 e43d
00000270: ea68 e5bb e6b2 c03d 04e1 c4bc 8f2f ff3d
00000280: d87b 393e 05c9 103e 8bc4 cbbd ba4c 85bd
00000290: 741c 063c 9cac b9bd 26dc 0abe 727f 38be
000002a0: a760 6bbd 91fd 8bbd 9c3d 54be 870d 013d
000002b0: 0315 823d 6484 00be 024b 1d3d 8862 47bd
000002c0: 91e6 cfbc e6b3 73be d651 be3d 6b5f a73d
000002d0: c06e 383d 11d7 003b 0073 92bd 5507 d83c
000002e0: 0c88 8a3d 2a34 253d 1d46 59bd 8bd9 053c
000002f0: c18a e93d ee44 a43d 7a39 b33d ec64 2e3e
00000300: b22f 1f3e 4b95 003e 9560 1c3d 5a4f 5f3e
00000310: 4be1 753d 936a e2bc 5452 63be 71e5 aabd
00000320: 2b92 d2bd 70be 493d 5dbe d4bd aa9b 95bd
00000330: 0cfc 00bc e435 56bd b298 29bd 8faf f53c
00000340: af3a 45bd 77c9 83bd bca6 d8bb 305c 99bd
00000350: 22cf 7cbd cf8f 0a3d be11 d8bd f6f7 36bc
00000360: e74b edbc a544 2b3d 44b7 233e 6c04 e13c
00000370: b14e 7f3d 01f5 0d3e 90e0 ed3c b59f 7dbd
00000380: 1fa2 283c bbc7 863b 19bb 723d 9ca6 dbbb
00000390: 6eb4 563d b944 783d 6f77 fa3d 5325 233e
000003a0: 467e 143e a22e 153e eb30 8fbd 7261 bcbd
000003b0: 3595 e0bd 2bf8 81be 903c 10be b10f 27bd
000003c0: ca6b 3abe a48c 7dbd e508 a2bd 4692 6e3c
000003d0: 172a 143d f337 05be 2f9e 01bd c623 f1bb
000003e0: 2710 75bd 5fb3 9ebd 648a 88bd 8c59 23bd
000003f0: d9d4 303b 93fe 08bd 673f e73c 0434 123e

resnets.0.conv2.conv2d.bias f4 [32]
0.1509524 -0.09481421 -0.034686174 -0.0570367 -0.11718805 -0.12112007 0.050039023 -0.08606806
-0.01895867 -0.062327694 -0.07487456 -0.054271784 -0.023639081 -0.027262911 -0.092864834 -0.08694269
0.10835148 -0.06752973 0.061826818 -0.06830919 0.0683602 0.11159467 0.1536626 -0.055255905
0.0397495 -0.18090421 0.04167205 0.08380637 0.04265781 -0.0008889184 -0.04045259 0.05634566
00000000: 4493 1a3e f42d c2bd 1713 0ebd 519f 69bd
00000010: 4a00 f0bd cd0d f8bd b8f5 4c3d 7344 b0bd
00000020: 364f 9bbc 534b 7fbd d557 99bd 174c 5ebd
00000030: bfa6 c1bc 7856 dfbc eb2f bebd 020f b2bd
00000040: 61e7 dd3d 074d 8abd 1e3e 7d3d b0e5 8bbd
00000050: 6f00 8c3d bf8b e43d bb59 1d3e 0454 62bd
00000060: 5fd0 223d f43e 39be 50b0 2a3d ada2 ab3d
00000070: f5b9 2e3d 4e06 69ba 9db1 25bd b5ca 663d

resnets.0.in2.weight f4 [32]
0.59642553 0.642211 0.8903744 0.6867264 0.7065135 0.67771345 0.75993836 0.6120258
0.7383287 0.86072797 0.8107142 0.65601444 0.8416795 0.7402868 0.7036586 0.5490017
0.7220969 0.7467383 0.60354215 0.73401475 0.8617824 0.5647539 0.83280927 0.6583788
0.64034027 0.71921164 0.75676167 0.56523424 0.600135 0.5814254 0.4607093 0.5991306
00000000: 58af 183f f167 243f 94ef 633f 4dcd 2f3f
00000010: 12de 343f a17e 2d3f 528b 423f b9ad 1c3f
00000020: 1c03 3d3f ab58 5c3f f78a 4f3f 90f0 273f
00000030: 4f78 573f 7083 3d3f f822 343f 608b 0c3f
00000040: 58db 383f 3e2a 3f3f bd81 1a3f 64e8 3b3f
00000050: c59d 5c3f b693 103f fd32 553f 838b 283f
00000060: 57ed 233f 411e 383f 22bb 413f 31b3 103f
00000070: 73a2 193f 4cd8 143f 17e2 eb3e 9f60 193f

resnets.0.in2.bias f4 [32]
0.145592 -0.0049801245 -0.05310398 -0.05403557 -0.12444726 -0.13100886 0.004870426 -0.033929285
-0.017959492 0.0047860793 0.0017724432 -0.138805 -0.09035426 -0.010120432 -0.06714059 -0.19782472
0.089395955 -0.038751274 -0.024076868 -0.014463128 0.057938166 0.124587245 0.122936 -0.03620963
0.041691255 -0.06820364 -0.012718129 -0.027037099 -0.05030562 0.014240214 0.037808385 0.08942683
00000000: 1216 153e 5030 a3bb 8f83 59bd 6754 5dbd
00000010: 34de febd 3027 06be 1898 9f3b 6ff9 0abd
00000020: c91f 93bc 8bd4 9c3b 5351 e83a e622 0ebe
00000030: a70b b9bd 2bd0 25bc 0181 89bd 9092 4abe
00000040: 3a15 b73d a8b9 1ebd da3c c5bc c1f6 6cbc
00000050: 9250 6d3d 9927 ff3d dfc5 fb3d 8d50 14bd
00000060: 73c4 2a3d 5aae 8bbd b35f 50bc e87c ddbc
00000070: 440d 4ebd c94f 693c f7dc 1a3d 6a25 b73d

resnets.1.conv1.conv2d.weight f4 [32, 32, 3, 3]
-0.12532988 -0.11507295 0.11065626 0.045830898 0.05662674 0.12529299 0.2443059 0.2641441
0.2211572 0.008653913 -0.04481273 -0.009186465 0.03379707 0.06735681 0.1804652 0.008673752
0.13572693 0.13186699 -0.118417636 0.05961302 0.10374184 0.012114355 -0.010670858 -0.06272247
0.12435248 0.0052575064 -0.03261815 0.09661788 -0.06290884 -0.14471625 -0.08928875 -0.09522002
-0.17203501 0.11058876 -0.0525026 -0.07335074 -0.057214994 0.028537424 0.12180573 -0.007138062
0.02107435 0.0213075 0.11923339 0.041582655 0.12512495 -0.0786689 0.06327581 0.016276672
0.04599354 -0.0877994 -0.015373619 -0.05240201 0.037801407 -0.023707528 -0.17073019 0.008539769
0.036409132 -0.12501456 -0.03553816 -0.03015543 -0.08345048 -0.051156413 0.032631353 0.09934329
0.043659065 -0.11910534 0.034935452 -0.013079749 -0.056435958 0.11766988 0.032946385 -0.03539537
-0.14515589 -0.041017093 -0.07997104 -0.05062129 -0.106925614 -0.01690841 -0.10281508 -0.04813204
0.02049059 -0.0868958 -0.0038256892 0.10022301 -0.08665388 -0.03715928 -0.058268234 0.043545514
-0.0053781974 0.045466505 -0.06877578 -0.035207767 -0.032373194 -0.054553572 -0.053026192 -0.09887894
0.0134826405 -0.086664155 -0.010467157 -0.085832685 0.058895532 0.10699948 0.107792474 0.14681311
-0.014404201 0.060294695 0.11183487 -0.08840821 -0.03357976 -0.02894869 0.061009564 0.07151988
-0.05818459 0.16512318 -0.07106832 -0.010382579 0.04033291 0.061726294 0.020440198 0.043779593
0.029830694 0.079922095 -0.009551613 -0.0038492861 0.073460095 0.029299004 -0.091055796 -0.088867076
-0.16179731 -0.11605677 -0.13941641 -0.12042375 -0.16590673 -0.12563495 -0.06921032 -0.11880715
0.00022744616 -0.057401277 0.08089968 0.007334042 0.055036258 0.12304759 0.07518741 0.011715328
0.07069343 0.026465604 -0.10262377 0.03597245 0.012553498 -0.028671714 0.056829643 0.010181102
0.022768814 -0.19930151 -0.09488635 -0.088804685 -0.34965962 -0.27874303 -0.3737488 -0.11794129
-0.13488097 -0.1300347 0.051834606 -0.008252272 -0.034094635 0.028028393 -0.037127394 0.17538126
-0.14577281 -0.03452775 -0.017380333 0.04054275 0.012351293 -0.24043638 -0.0018342541 -0.079942845
-0.20637617 0.014923212 -0.041350096 -0.101054244 -0.03777287 -0.092765935 -0.060377225 0.051671904
-0.01230553 0.034691326 0.18329029 0.20141554 0.31190905 -0.06979747 -0.06744925 -0.17268752
0.07264456 0.09678172 0.0857493 -0.07768674 -0.08070738 -0.03448267 0.16856337 0.17570542
0.406616 -0.046814907 0.14021063 0.2823987 0.027956735 0.14279087 0.12590094 -0.118737094
-0.10479006 -0.016611617 -0.11903408 -0.13281102 -0.08012074 0.03487401 -0.054165054 -0.15410517
0.06732608 0.05055889 -0.03146302 0.08307108 0.113517754 0.069286235 -0.024661865 0.009275289
0.036941558 -0.06327346 -0.05182721 -0.042340748 -0.14197755 -0.18411887 -0.2813557 -0.06336704
-0.0036506895 -0.039806258 0.07258227 0.031580452 -0.07403545 -0.004124728 -0.015080008 0.17037278
-0.056041572 -0.054840438 0.1335972 -0.14797471 -0.13311557 -0.07657433 -0.14404479 -0.092253394
-0.1762862 -0.016511837 -0.011199011 -0.024137344 0.05494533 1.6815037e-06 0.0017040861 0.08701479
00000000: 7a56 00be 5eab ebbd c09f e23d 2eb9 3b3d
00000010: 71f1 673d ce4c 003e 532b 7a3e e53d 873e
00000020: 0877 623e 24c9 0d3c 8e8d 37bd d482 16bc
00000030: cc6e 0a3d 5ef2 893d dfcb 383e 5a1c 0e3c
00000040: 00fc 0a3e 2408 073e f284 f2bd c82c 743d
00000050: 9a76 d43d 4a7b 463c d3d4 2ebc a374 80bd
00000060: 83ac fe3d 2947 ac3b 9c9a 05bd 98df c53d
00000070: 5ad6 80bd 7f30 14be 05dd b6bd b702 c3bd
00000080: f229 30be 5c7c e23d f70c 57bd ea38 96bd
00000090: 455a 6abd 51c7 e93c 4875 f93d 67e6 e9bb
000000a0: 1ea4 ac3c 118d ae3c a330 f43d 9352 2a3d
000000b0: c120 003e 291d a1bd bf96 813d a856 853c
000000c0: b963 3c3d 2cd0 b3bd a2e1 7bbc 7da3 56bd
000000d0: a6d5 1a3d 4a36 c2bc e5d3 2ebe 63ea 0b3c
000000e0: be21 153d d103 00be 7690 11bd 8508 f7bc
000000f0: 16e8 aabd 6389 51bd 74a8 053d 7f74 cb3d
00000100: d9d3 323d 80ed f3bd 7a18 0f3d 724c 56bc
00000110: 6429 67bd e8fc f03d caf2 063d bcfa 10bd
00000120: bfa3 14be 8a01 28bd dbc7 a3bd 4558 4fbd
00000130: d1fb dabd 8183 8abc b690 d2bd 1a26 45bd
00000140: e2db a73c 6df6 b1bd 6ab8 7abb b941 cd3d
00000150: 9777 b1bd 5434 18bd acaa 6ebd c85c 323d
00000160: 973b b0bb 163b 3a3d 51da 8cbd 0536 10bd
00000170: c199 04bd 9173 5fbd fe31 59bd 0b81 cabd
00000180: 4be6 5c3c fa7c b1bd 707e 2bbc 0cc9 afbd
00000190: 713c 713d 8b22 db3d 4dc2 dc3d 2d56 163e
000001a0: 99ff 6bbc 92f7 763d ae09 e53d 5d0f b5bd
000001b0: ee8a 09bd ce25 edbc 2ae5 793d 0479 923d
000001c0: f752 6ebd 0d16 293e 448c 91bd b11b 2abc
000001d0: 1f34 253d b6d4 7c3d 3472 a73c 3b52 333d
000001e0: 805f f43c 32ae a33d 5e7e 1cbc 4e44 7cbb
000001f0: 3f72 963d 7704 f03c 767b babd f1ff b5bd
00000200: 32ae 25be 2caf edbd 2dc3 0ebe baa0 f6bd
00000210: 74e3 29be 73a6 00be 24be 8dbd 2a51 f3bd
00000220: 9d7e 6e39 9a1d 6bbd bbae a53d 6752 f03b
00000230: b36d 613d 6000 fc3d dbfb 993d a6f1 3f3c
00000240: b8c7 903d 65ce d83c 692c d2bd d957 133d
00000250: 30ad 4d3c f1e0 eabc 33c6 683d a3ce 263c
00000260: aa85 ba3c b215 4cbe c653 c2bd 3bdf b5bd
00000270: 9606 b3be 68b7 8ebe 015c bfbe 348b f1bd
00000280: 3d1e 0abe d127 05be 8650 543d 8a34 07bc
00000290: d1a6 0bbd cd9b e53c e512 18bd 2597 333e
000002a0: 7845 15be f86c 0dbd 3361 8ebc 2810 263d
000002b0: 145d 4a3c f434 76be 5b6b f0ba 13b9 a3bd
000002c0: 4654 53be 7d80 743c b85e 29bd 87f5 cebd
000002d0: bab7 1abd 11fc bdbd 1c4e 77bd eba5 533d
000002e0: 229d 49bc 7e18 0e3d 73b0 3b3e e03f 4e3e
000002f0: 8bb2 9f3e faf1 8ebd d522 8abd ffd4 30be
00000300: acc6 943d 7f35 c63d 549d af3d 3a1a 9fbd
00000310: e949 a5bd b33d 0dbd e09b 2c3e 1fec 333e
00000320: f92f d03e fdc0 3fbd 6093 0f3e 9096 903e
00000330: 8605 e53c c537 123e 2dec 003e 6f2c f3bd
00000340: 2c9c d6bd 1615 88bc 24c8 f3bd 9dff 07be
00000350: 5816 a4bd 0dd8 0e3d 2ddc 5dbd bfcd 1dbe
00000360: 41e2 893d d716 4f3d 5edf 00bd 2c21 aa3d
00000370: ff7b e83d f1e5 8d3d ae07 cabc 62f7 173c
00000380: 0850 173d 8495 81bd c548 54bd 7e6d 2dbd
00000390: 9062 11be a889 3cbe db0d 90be 94c6 81bd
000003a0: 6840 6fbb e30b 23bd 03a6 943d 815a 013d
000003b0: e69f 97bd ba28 87bb 2312 77bc 3476 2e3e
000003c0: d98b 65bd 5ea0 60bd b4cd 083e af86 17be
000003d0: 734f 08be 01d3 9cbd 7a80 13be 59ef bcbd
000003e0: 5f84 34be d543 87bc 0e7c 37bc aebb c5bc
000003f0: 5b0e 613d 07b0 e135 a45b df3a cf34 b23d

resnets.1.conv1.conv2d.bias f4 [32]
0.08290178 0.095650904 -0.02841678 0.0044554137 -0.038994294 0.053569425 -0.073857844 -0.13445279
-0.19610341 0.0624628 -0.04200066 0.06152438 0.10806116 -0.02590656 -0.027151024 -0.048155323
0.07907281 -0.01056801 -0.046948653 0.011880639 -0.094891705 0.039783277 -0.18990585 -0.01221904
-0.02475544 0.1201057 -0.13492647 -0.078702606 -0.099009745 -0.17391695 0.08541549 0.1329102
00000000: 69c8 a93d 9fe4 c33d 4fca e8bc b8fe 913b
00000010: 7bb8 1fbd 9d6b 5b3d c842 97bd fead 09be
00000020: 55cf 48be fed8 7f3d e208 2cbd fd00 7c3d
00000030: 2b4f dd3d fe39 d4bc d36b debc 843e 45bd
00000040: edf0 a13d 7225 2dbc 3b4d 40bd 03a7 423c
00000050: 9556 c2bd caf3 223d ae76 42be 5e32 48bc
00000060: eccb cabc faf9 f53d 2a2a 0abe d52e a1bd
00000070: 9fc5 cabd 4917 32be 51ee ae3d 9d19 083e

resnets.1.in1.weight f4 [32]
0.849047 1.1166054 1.0167837 0.75797397 1.119164 0.8052215 0.8874103 1.031043
1.0004367 1.131313 0.89651024 1.0160322 1.0442833 0.8759567 0.8952673 0.7606521
0.93804216 0.9323874 1.0669345 0.81864756 0.8407968 0.7127429 0.9135512 0.999527
1.0472105 1.0707517 0.8552955 0.9877196 1.0157582 0.784354 0.8722056 0.977808
00000000: 255b 593f edec 8e3f f825 823f 950a 423f
00000010: c440 8f3f ff22 4e3f 522d 633f 38f9 833f
00000020: 4f0e 803f ddce 903f b281 653f 580d 823f
00000030: 13ab 853f b33e 603f 3d30 653f 19ba 423f
00000040: 8823 703f f1b0 6e3f 4f91 883f e392 513f
00000050: 763e 573f 5276 363f 7ede 693f 00e1 7f3f
00000060: fe0a 863f 640e 893f a5f4 5a3f 31db 7c3f
00000070: 5d04 823f 6ccb 483f de48 5f3f a051 7a3f

resnets.1.in1.bias f4 [32]
-0.17734222 -0.12091058 -0.3307808 -0.31259298 0.024703188 -0.05839348 -0.2784712 -0.41258025
-0.36290026 -0.47369453 -0.25292242 -0.45033383 -0.34694502 -0.11339992 -0.37534323 -0.3725775
-0.06768581 -0.26890197 -0.12602535 -0.20415519 -0.3048719 -0.28082773 -0.48470214 -0.21195886
-0.41554847 -0.08311533 -0.17298011 -0.12773901 -0.3929414 0.027506944 -0.050088856 -0.19297193
00000000: 3399 35be f79f f7bd 1a5c a9be 300c a0be
00000010: 575e ca3c 002e 6fbd c793 8ebe b83d d3be
00000020: 10ce b9be 1788 f2be 0c7f 81be 2892 e6be
00000030: c7a2 b1be 383e e8bd fd2c c0be 7ac2 bebe
00000040: dc9e 8abd 85ad 89be ca0c 01be 0f0e 51be
00000050: 2b18 9cbe a7c8 8fbe e12a f8be be0b 59be
00000060: c5c2 d4be 5f38 aabd b321 31be 04ce 02be
00000070: 9d2f c9be 3e56 e13c f929 4dbd 6f9a 45be
