Assets/Style_Transfer/Models/Estilos mejoras/ReCoNet/Rnc_S6.onnx (onnx, 449372 bytes, 62 tensors)

conv1.conv2d.weight f4 [8, 3, 9, 9]
00000000: a003 0dbc 5718 11bd 9bf1 e6bd 9054 ebbd
00000010: b73f 0d3e e76b a3bd 2048 fcbd f675 61bd
00000020: af2f c0bd 773c f73c aeea 28be aca8 0dbe
00000030: 21a7 1a3e 9610 e03e 2097 303e 3a0d 0b3d
00000040: 6206 4fbd f087 a7bd d9b8 90bd ec0e a3be
00000050: 84d9 edbd 3ffa 803e 3974 a23e 4878 963c
00000060: 1462 3b3d 6a95 693d 93d2 18be 1e34 a6bc
00000070: f648 afbd 5943 e9bc 8c5c 863d 6721 c1bd
00000080: 8e5c c2bc 0820 1e3e 7fb7 6d3d cf34 4fbe
00000090: cb96 d1bd b9d7 d13d 253f 503e 9678 a7bc
000000a0: 3308 6fbe 5d74 6e3c 3b8f 633e a0cc 063d
000000b0: 75c8 02be 5992 22be f979 543d 4494 0e3e
000000c0: 1ab6 ce3d 4e14 cebd c138 8a3d 9b17 353e
000000d0: 5a1d 073d 001b e8bd 7068 d9bd 9932 0cbe
000000e0: 6cf1 8c3d f6d7 a03d 589b 50bd f713 21bc
000000f0: 4aa8 2c3e 3eea 1ebc ed2c 91bd ecdd c33d
00000100: 4dfe a1bd 8e67 49bc b807 38bc 7b53 1bbd
00000110: 1865 d7bd 1e26 2d3d c261 b53b bd2a 8dbd
00000120: dc4b fd3d 26a7 633d b828 e1bc 72e7 4cbd
00000130: e90b 59bd 000f 77bd 9647 23bd 2e4b 253d
00000140: 9364 52bd a022 123c 3c29 b63d b9b1 20bd
00000150: a76d c7bd c710 fd3c 8923 59bd b8f0 22be
00000160: 7e82 bebd 61f0 c1bb 90a2 b6bc 0455 a0bd
00000170: 0e7a 12be 617d ac3d 8124 9e3e f748 023e
00000180: 34e0 7a3c 6ed6 3e3d 0b33 37bd c7ff 31bd
00000190: b2e0 58be a488 0cbe 89d6 153e 5fc8 f23d
000001a0: 6032 2dbd 1c98 403c 8d81 163d 5a5a e8bd
000001b0: 78b7 d83c 02f1 60bd 230c c6bd 8ba1 94bd
000001c0: 4dcd 65be d2c9 25be 9f3c 0a3e 7cc5 6cbd
000001d0: 6528 05be 82a4 94bd 858a 013e 5e2e 183e
000001e0: 6344 e7bd ce73 1dbe 378d 8bbc 6d32 613e
000001f0: 30d3 253d 2cea f2bd 0ef8 d2bd 1d5a 98bc
00000200: 81f1 413e 6178 033d ea8d d5bc 5da3 343d
00000210: 7bdf 563e 0e0c 073d 4fef 4bbd fa26 efbd
00000220: 1246 07be 127f af3c c01b 4d3d 1e8d fdbd
00000230: 217d dcbc ca98 3e3d 9a05 c8bc d625 e6bd
00000240: 9071 0a3d bb42 253d f1d8 b9bc f205 953d
00000250: cbf4 63bd 9ffc babd a75a ac3d 4648 31bd
00000260: 1d04 42bd 5759 d73d feae f33c e128 4e3c
00000270: f265 2fbd acd1 bf3c 2de4 3dbd 5a7a b0bb
00000280: 1689 183d 95b4 1bbd 905a 213d 7ebb cf3d
00000290: b095 41bd b00e 08bd 2ccf 22bc 67ab 39bd
000002a0: 23fe 81bd 23a9 d23d 07bd e83d c0aa 0f3d
000002b0: fe9a b6bd 382a a1bd 45c9 1d3c 0635 df3d
000002c0: 151e 54bc 4e7a 44bd d393 ab3c 4572 043e
000002d0: c867 69bc 94c3 2ebe 1b26 fdbd 860c 473c
000002e0: 3eba a13c 14d0 71bd b6fc a8bc 2393 173d
000002f0: 7ad4 e33d e12a ce3d 4b03 81bc c7a2 c5bd
00000300: 5481 d0bd 4599 67be d6c7 0bbe 4890 423d
00000310: f240 133d de15 723d 3433 133d 1adb 5d3d
00000320: e50f e93d b3d7 01be fb5f 2dbe 76d4 64bd
00000330: 3ebc f93d 93b8 ebbc 3f9d f13b 3d1c 64bd
00000340: 362b 0e3d 9388 d23d 8784 e73d bec9 503c
00000350: e3f7 a23d a9fc c73d 192f 853d 6d0b 08bd
00000360: bab3 12be a87f afbd 1464 b33d 3728 093e
00000370: 647a 74bd e1be 97bd c61c 9e3d 7f51 513d
00000380: 9d8a 90bd e3b3 2c3d afb9 dd3c a1ba a03c
00000390: 6ba7 e73c 1fd5 97bd b723 bcbc cb86 5b3d
000003a0: a3c8 1f3d f2ec 3d3c b30b be3d 864e 453d
000003b0: 1cbb 2f3d 8e81 9c3d fb8d 853c 2f7f 143d
000003c0: 0bdd 333a 120b 1dbd 9e2f 04bd 121a 6dbd
000003d0: 4c35 93bd f9cd bcbd fd8b a0bc c27c aebb
000003e0: 23df 2ebd 1687 3cbd 4aff b23c 494e 5bbd
000003f0: 4ec2 c2bc 4331 16be 70c2 913c 984c 323e
-0.008606821 -0.035423603 -0.11276551 -0.114907384 0.13793837 -0.07979565 -0.12318444 -0.055044137
-0.09384095 0.0301802 -0.16495773 -0.13833874 0.15102817 0.43762654 0.1724515 0.03394816
-0.050543196 -0.08180225 -0.07066507 -0.31847322 -0.116137534 0.25190923 0.31729296 0.018367901
0.04574783 0.057027258 -0.14924078 -0.020288523 -0.08558838 -0.028474497 0.06560621 -0.09430199
-0.023725774 0.15441906 0.058036324 -0.20234989 -0.102338396 0.10246224 0.20336588 -0.020443242
-0.23342972 0.01455411 0.22222607 0.03290999 -0.12771781 -0.1587614 0.051874135 0.13923746
0.10093327 -0.100624666 0.06749106 0.17684786 0.032986976 -0.11333275 -0.10615623 -0.13691176
0.06881985 0.07853691 -0.050929397 -0.00983142 0.16861072 -0.009699402 -0.07088647 0.095638126
-0.07909832 -0.012292756 -0.011232309 -0.03792141 -0.10517329 0.04227268 0.0055353353 -0.06892917
0.12367985 0.055579327 -0.027485237 -0.05002541 -0.052989874 -0.06031704 -0.03986319 0.0403549
-0.051365446 0.008919388 0.088945836 -0.03923199 -0.097377114 0.03089179 -0.053012405 -0.1591214
-0.09302233 -0.005918548 -0.022294313 -0.078287154 -0.14304373 0.08422352 0.30887225 0.12723146
0.015312243 0.046591215 -0.044726413 -0.04345682 -0.21179464 -0.13724 0.1463262 0.11854624
-0.04228437 0.011755016 0.036744643 -0.11345358 0.026454672 -0.054917343 -0.09670284 -0.072573744
-0.22441597 -0.1619027 0.13499688 -0.057805523 -0.1300369 -0.0725794 0.12650497 0.14861438
-0.112923406 -0.15376207 -0.01703511 0.21991892 0.040484607 -0.11861071 -0.10301219 -0.018597657
0.18939783 0.032097224 -0.026068646 0.044101108 0.20983689 0.03297048 -0.04978877 -0.11677356
-0.13210323 0.021422897 0.050075293 -0.123804316 -0.026915135 0.04653243 -0.024416734 -0.112376854
0.033799708 0.040346842 -0.022686454 0.072765246 -0.055653375 -0.09130215 0.08415728 -0.043281816
-0.047367204 0.10515087 0.029746529 0.0125829885 -0.042821832 0.023415409 -0.046360184 -0.005385679
0.03724011 -0.038014013 0.039393008 0.10143183 -0.047261894 -0.033217132 -0.009937089 -0.045329478
-0.06347301 0.102861665 0.11364179 0.03507495 -0.08916281 -0.07869381 0.009630506 0.10898785
-0.012946625 -0.0479682 0.020944512 0.12934215 -0.014245935 -0.17066795 -0.12360784 0.012148982
0.019742128 -0.05903633 -0.020628314 0.037005555 0.11124511 0.10066772 -0.01574864 -0.09650188
-0.101809174 -0.22617061 -0.1365045 0.04750088 0.03595061 0.059102885 0.035937503 0.05416403
0.11379985 -0.12679939 -0.16931145 -0.05586668 0.121941075 -0.028774535 0.0073734815 -0.055690993
0.034709178 0.10279956 0.113045745 0.012743412 0.07957437 0.09764988 0.06503124 -0.03321402
-0.14326373 -0.0856927 0.08759323 0.13394247 -0.059687033 -0.07409454 0.07720332 0.05110311
-0.070576884 0.04216374 0.02706608 0.019620242 0.028278073 -0.074136965 -0.022966249 0.053595345
0.0390097 0.011592137 0.09279575 0.04817059 0.04290305 0.07641898 0.016303053 0.036254104
0.0006861246 -0.038340636 -0.032271974 -0.05788619 -0.071879 -0.09218974 -0.019598002 -0.005324931
-0.04269327 -0.046027265 0.021850247 -0.053541455 -0.023774292 -0.1466723 0.01779291 0.1741203

conv1.conv2d.bias f4 [8]
00000000: b02b d8bd 5272 b8bd 504a 90bd c5fd 573d
00000010: 0c8d 75bc 92f3 edbc 220e 1fbe e84b f63c
-0.10555208 -0.0900618 -0.07045424 0.052732248 -0.0149872415 -0.029046807 -0.15532735 0.030065492

in1.weight f4 [8]
00000000: 8125 c13f 0058 953f 6dee e13f 9726 843f
00000010: 6eda 9a3f ba0d 873f b98c 933f 0b10 843f
1.508957 1.166748 1.7650887 1.0324277 1.209791 1.0551064 1.152732 1.0317396

in1.bias f4 [8]
00000000: 6006 953f 5148 0a3f e2f6 253f 96e3 3d3f
00000010: 7e6b efbd 90a6 8b3f 15f4 323f 4ccc eb3e
1.164257 0.54016596 0.6482984 0.74175394 -0.116904244 1.0910206 0.6990369 0.46054304

conv2.conv2d.weight f4 [16, 8, 3, 3]
00000000: 99b4 bbbd 85f9 863d 77bf 85bd 4114 41be
00000010: 20ec 01bd 843f 183e f611 87be 79ca 4fbe
00000020: 47c4 0d3e 7033 88bd ea48 82bd ab86 68bd
00000030: c255 72bd 1866 c2bd 463a e4bd 75d2 07be
00000040: 058d 54be fa67 27be 0c9a c9bc 49b4 683e
00000050: b062 b6bd adb3 2abe 5c94 e2bc 77f2 b33b
00000060: e43e 8cbe d3d3 b6bd da89 4f3e 2962 76bc
00000070: 3266 0ebe 09a1 dd3d 3347 ad3c 7729 59bc
00000080: 1217 1fbe 28cd 01bc 261e d4bc 5797 4cbe
00000090: 3ba2 07be 17da 733c d95a c63d b86e cfbd
000000a0: 8e40 753b 04f9 b03c 4683 f7bc b285 babc
000000b0: 7ce8 e13d 2e10 293e 440f 483e 6e28 31be
000000c0: c46b 173d 6050 7dbe 9ff3 acbd afd8 3d3d
000000d0: ad50 d9bd b93b 83be 8eff eebc 3788 47b9
000000e0: beba af3c 946b b3bd 758e 58bd c30c 5e3d
000000f0: 507b 11be 788c 7dbd 3680 ffbd ebb3 e9bb
00000100: 4d96 acbd 96c6 0dbe acd1 66bd 10c5 0c3c
00000110: 5f22 91bd 8af7 393d 8262 7a3d ab79 9f3c
00000120: e8ce 203b d5b4 ebba b56b a0bd c03b 1bbe
00000130: 8b03 edbc 44c4 e2bb f496 32bd cf3e 073c
00000140: e7a9 5b3d 2e88 34bc b92f 993d c7d2 6cbd
00000150: fa80 173d 0737 a93d 344e 9dbd 61ef 2bbe
00000160: e2cd 75bd 95cd 233d 454c 333d 8935 1dbd
00000170: 4cce 703d 7543 3c3d 5656 ab3d b264 9fbc
00000180: 61c0 af3c b63d 303d 11dc a0bc d8ab 6d3d
00000190: 874b ed3d 9a20 0a3e 568e 713e 4490 083c
000001a0: bb68 073e ba02 2a3e beff 363e 1bce c63c
000001b0: 6cbe 80be 11df b0be f953 06bf e513 ddbe
000001c0: 5ab4 c8be b49f 01bf 1597 b5be 0764 dcbe
000001d0: 4b70 88be 34ba 8c3c d558 82bd d831 663d
000001e0: e7e7 56bd d98c efbd 772e 33bd bf7c 963d
000001f0: 0f72 93bd 8ab3 41bd 3c8c e3bb b677 abbd
00000200: b7bf 663a fdb1 bdbd 582d 7e3c 7fea ecbc
00000210: 0152 f8bd 4f27 83bd 2546 0cbe b0ac 2e3e
00000220: 93fb 7b3d cf51 773d 8498 563d 15b7 debc
00000230: 55e5 0c3d b039 bdbb 5aee 0cbd a01a 923d
00000240: a66a b8bd 2369 0dbe cb30 80be 602a 9cbc
00000250: 4647 dbbd b8d9 dfbd a7d7 edbb a21d 96bb
00000260: cff7 d03c 1f7d 01be 3df2 77be fc92 9ebe
00000270: e499 78bd 1b45 48be fbdd 0dbe 9c99 70bd
00000280: 6ee8 03be 5bf7 03be df6e 9bbc 9602 0bbe
00000290: a8a9 15bd fd7b b0bd da6b b8bc 20ef a3bd
000002a0: 9160 dabc 51ea 91bd e7b9 91bd 4211 e3bd
000002b0: 87ab 053d cd22 d2bc 7276 433d 52b2 01bd
000002c0: 500c c73c dd32 0fba 4a60 093d a474 d53c
000002d0: 4413 303e 9761 2b3e f869 6b3e 7d00 ecbc
000002e0: b622 b8bc 633e 093e 3b8b 2bbe 3a00 43be
000002f0: 049c 02bd dd25 b53d 95eb 393d d93a 6fbd
00000300: 4e2c 96bd 30b3 a83d 6a80 62bd 0ead a23c
00000310: c75c 4c3d 1e38 2cbd 3fc0 a6bd 123d f4bd
00000320: cd26 4fbe a59b 863d 5fba 7b3d 96dd afbc
00000330: 6222 0ebd 0b26 d03d 043b 483d d43f b2bd
00000340: e727 c1bc f169 97bd 4182 b1bd 9498 41be
00000350: c90a 39be a046 c0bd 721d 443b 1f56 1abd
00000360: 9d1c a2bb 5f7e 31be f7b7 4ebe 312f d5bd
00000370: 5d96 bfbd a9cf 68be b11c 67be 6ba1 4cbe
00000380: 1e23 f2bd 6b4f 05be 9f70 8a3d 424c 30be
00000390: 3256 e7bc 977f 923d 517e e7bd 32bc 8dbd
000003a0: 7558 613b 60bc 19bd e8a9 bfbd a735 8fbd
000003b0: fff6 69be baa3 09bd eae2 0abd 6bfc c6bc
000003c0: 1e10 8dbd 13be 8b3b 74b9 8abc 7fce 5b3d
000003d0: 3322 c8bd c9af bdbd 7b3a e6bd dea4 963d
000003e0: c035 e63c f1cf 1bbe c225 113d 0614 9abb
000003f0: d1e1 37be 8999 10bd 9012 b63c 7cef f2bd
-0.09165306 0.06590561 -0.0653066 -0.18855383 -0.031719327 0.1486798 -0.2638089 -0.20292081
0.13844405 -0.06650436 -0.063615635 -0.056769054 -0.059163816 -0.09492129 -0.11143927 -0.13263877
-0.2075692 -0.16348258 -0.024609588 0.22725023 -0.08905542 -0.16670103 -0.027658634 0.0054915505
-0.27391732 -0.08927121 0.2026743 -0.015038052 -0.13906172 0.10821731 0.021152114 -0.013254515
-0.15536144 -0.007922448 -0.025893282 -0.19979607 -0.1324548 0.01488354 0.096852966 -0.1012854
0.003742251 0.021603115 -0.030213963 -0.022768829 0.11030671 0.16510078 0.19537073 -0.17300579
0.036968008 -0.24737692 -0.084449045 0.046349224 -0.10611091 -0.25631502 -0.029174592 -0.00019028863
0.02145135 -0.08760753 -0.052870233 0.05421139 -0.14207196 -0.06190154 -0.12475626 -0.0071320436
-0.08427105 -0.13845286 -0.056352302 0.008591905 -0.07086634 0.045402087 0.0611291 0.019467195
0.0024537388 -0.0017982969 -0.078330435 -0.15159512 -0.028932353 -0.0069203693 -0.04360099 0.008254721
0.05362883 -0.011018796 0.074798055 -0.0578182 0.036988236 0.08262449 -0.07680932 -0.16790535
-0.0600108 0.03999098 0.04377391 -0.038381133 0.05879049 0.04596277 0.08366077 -0.019457195
0.021454038 0.043027602 -0.019636186 0.05802521 0.11586671 0.13488999 0.23589453 0.008335177
0.13223545 0.16602603 0.17870995 0.0242682 -0.2514528 -0.34545186 -0.5247188 -0.4317924
-0.39200097 -0.5063431 -0.3546683 -0.43045065 -0.26648173 0.017178632 -0.063645996 0.05619988
-0.052467253 -0.116967864 -0.043745484 0.07348012 -0.07199489 -0.047290362 -0.0069442075 -0.083724424
0.00088023714 -0.09262464 0.0155137405 -0.02892041 -0.12125016 -0.06403982 -0.13698633 0.17058063
0.061519217 0.060380753 0.052391544 -0.02718691 0.034398396 -0.005774699 -0.034406997 0.071339846
-0.090047166 -0.13809638 -0.25037226 -0.019063175 -0.10706954 -0.109301984 -0.007258374 -0.004581169
0.02550879 -0.12645386 -0.242135 -0.30971515 -0.060693637 -0.19557612 -0.1385421 -0.058740243
-0.12881634 -0.12887327 -0.018973766 -0.13575205 -0.03653875 -0.08617399 -0.022512365 -0.08004594
-0.026657375 -0.071247704 -0.07115536 -0.11087276 0.032634284 -0.02565136 0.04772038 -0.0316642
0.024297863 -0.00054625963 0.033539094 0.026056595 0.17194849 0.16736446 0.22989643 -0.028808827
-0.022477489 0.13402705 -0.16752331 -0.19043055 -0.03188707 0.088451125 0.045390684 -0.05840573
-0.07332669 0.08237302 -0.055298246 0.01985791 0.049893167 -0.042045705 -0.08142137 -0.11925711
-0.20229645 0.065726556 0.061457034 -0.021467965 -0.03470076 0.10163506 0.048884407 -0.087035805
-0.023578597 -0.073932536 -0.08667422 -0.1890586 -0.1807052 -0.09388471 0.0029924777 -0.037679788
-0.0049472586 -0.17333363 -0.20187365 -0.10409392 -0.093548514 -0.22735466 -0.22569539 -0.19983451
-0.11823104 -0.13018577 0.06759762 -0.1721659 -0.028239343 0.07153242 -0.1130339 -0.06920661
0.0034385 -0.037533164 -0.09358579 -0.06992655 -0.22848128 -0.033603407 -0.03390781 -0.024290284
-0.0688784 0.004264602 -0.016934134 0.053663727 -0.09772148 -0.09262044 -0.11241623 0.07355665
0.028101802 -0.15216042 0.0354364 -0.004702094 -0.17957236 -0.035302673 0.022225648 -0.11862084

conv2.conv2d.bias f4 [16]
00000000: 14d0 f93c c5f3 0d3d 6183 ff3d d74f 963c
00000010: 8b0c 323e b731 133e 5148 873c a9bc a83d
00000020: f00d 74bd ff56 bc3d 043d 51bd 8e35 703d
00000030: 38c9 a5bd f0d0 94bd c484 02bb 1862 4dbd
0.030494727 0.034656305 0.124762304 0.018348617 0.17387597 0.14374433 0.016513975 0.08239109
-0.059583604 0.09196281 -0.05108358 0.058644824 -0.0809502 -0.07266414 -0.001991556 -0.050142378

in2.weight f4 [16]
00000000: 8a14 1b3f 2d1a db3e e8ac 353f 7cab 003f
00000010: e01e 383f 408f 2c3f cde1 743f 3553 fc3e
00000020: b8b3 0a3f 928a 3c3f bea3 333f 962f 423f
00000030: 68ac 1c3f f451 243f f9cd 3f3f f3e7 463f
0.60578215 0.42793408 0.7096696 0.50261664 0.7192211 0.6740608 0.95657045 0.49282232
0.5418048 0.7364894 0.70171726 0.7585386 0.6120057 0.6418755 0.74923664 0.77697676

in2.bias f4 [16]
00000000: 696b 62be 1c72 12be 44bb 503c 096d c0be
00000010: 4b32 a5bd e469 ebbd 23cb dcbd 7e99 fe3d
00000020: 255b 45be 58b1 23be c554 bcbb 37d7 2fbe
00000030: 87b4 a4be 5519 043e a728 debc cdc6 d6bd
-0.22111286 -0.14301342 0.01273996 -0.37583187 -0.08066233 -0.114948064 -0.10780933 0.1243162
-0.1927305 -0.1598562 -0.00574741 -0.17171942 -0.3216898 0.12900288 -0.027118994 -0.10487137

conv3.conv2d.weight f4 [32, 16, 3, 3]
00000000: 2d4d 97bb bf6f 9fbc 47ad 9fbd 07c2 403c
00000010: 4871 62bd 53b2 8c3b e667 a33d 220d 083e
00000020: cccd 953d 9242 04be 243a 97bd 344b 13bb
00000030: 3469 86bd dd55 bcbc f6a8 933c 1a64 8bbd
00000040: 0a3b adbb 78ae 9f3d 942b 243c 2c82 efbc
00000050: a9e6 e3bc d886 01bd 7f0f 15be 3578 35be
00000060: 57e1 8fbe c336 f1bd 9239 eabd df9b eb3d
00000070: 78c7 063e eb1c 023e cfa4 543d 5dec 9f3d
00000080: 77b2 4d3d fa9c 743d 7da3 a13a e90d 8b3d
00000090: e1c5 b13c 180f e1bb b119 10be ef34 4abd
000000a0: e24a e0bd be47 3dbe d7c4 a03d e01b 803d
000000b0: 5e6e 953d b6c2 03be 4bae a7bd 1984 273c
000000c0: 72d7 5fbb 61c1 13bc 2e6c c73c 7ef4 ca3d
000000d0: c7ce 8d3d 32c5 163e b6d7 79bd 93fd a7bd
000000e0: ccff 57bd 3b5c 2abe c715 1a3c 39c2 d9bc
000000f0: fe28 adba 9cc5 8d3d 7c79 233e 953d 78bc
00000100: 8bdd 803c 5797 fd3c 8813 babd a21a 4fbd
00000110: 3f71 08be 4063 29be 661c 74be 28e5 21be
00000120: f3c5 e0bc f5a8 4bbd 5952 a3bd 97fd 283d
00000130: 9f8f 1c3d bf1e 143d 1b12 033e 1e71 d13d
00000140: d8f9 453c 8e2c 3dbe 7f84 57bd 30e8 bebd
00000150: a548 99bd 13d7 23bd 7edb 16bc 82dc 583d
00000160: eae3 d93d df3e 253e 2338 6ebe 5cf1 78be
00000170: e86c 15be 5b19 30be 6b75 09bd d083 7c3d
00000180: 28ab 863d dae2 093e 7964 133e 3844 8abe
00000190: 3cb2 69be f197 f2bd 6730 f5bd 2314 97bd
000001a0: 24c5 673c 7312 df3d e2fc 993d a113 b73d
000001b0: a7a4 99bc 017f 06bd b8d2 50bd 3137 853c
000001c0: a27e 2d3c c56d 87bb fae0 213e e8d3 253e
000001d0: ae8d 763d 2bc6 673e 3253 833e 1bea 1f3e
000001e0: 73ec ab3d ed68 b13c fe36 df3c c5b9 5dbe
000001f0: 9c25 94be dfc0 6fbe 9768 3cbd 3593 27bd
00000200: 1ccf 5dbd 0c28 f73c ad05 743d be32 ac3d
00000210: 0616 85bd a80a 073e 1593 eb3d 163e ecbd
00000220: 096f 2bbe d982 a7bc 744c b8bc 5440 393c
00000230: 2d35 fabd f789 a1bc c049 84bc ba25 54bc
00000240: 1f3c 5f3b 757c 0a3d 46da 79bd 3466 933d
00000250: a20f 063d 38ad a83d 2c8d d03d f894 debb
00000260: 0066 b23c fc56 4c3b 88b5 fe3c a696 12bc
00000270: 9587 af3d e3e3 9c3d 5b29 9c3c 7bc0 b83d
00000280: 9c3a ab3d 6b9b 383d 92b4 37bd fb6b a3bd
00000290: babd eabd 776f 53be 829a 54be ad1d 46be
000002a0: 57e8 0abe e74e ebbd adc8 58bd 2a5e ffbd
000002b0: a9b2 9ebd a200 ca3c 1fb4 25be 5988 5dbe
000002c0: 52a7 e13d 325c d03a ae1f 05be 1164 e4bd
000002d0: 2bf3 37be 0f88 78bd 2cb8 d5bd 445b 85bd
000002e0: 8372 25be 47a1 febd a80f 5ebc 101a 94bd
000002f0: 9d04 23bd 59cc 06be deb2 07bd 8952 833d
00000300: 04e0 db3d 1d9d e93d 655b 3abd 4545 ff3d
00000310: de41 8e3d f65d f13d c17e df3d 6771 963d
00000320: 8305 883d b055 e1bd 6f70 ecbd 001e 24bc
00000330: b150 d4bd caac b1bd c48b a8bd f3bb c4bd
00000340: 3aad 23be db5d 03be 02c0 11be ba7b 57be
00000350: 24db 82be 6f66 d73d 68cb 63bb 79f9 1b3d
00000360: 6686 e5bd 5fec a0bd aa40 04be 85a5 11bd
00000370: c602 f3bc 23bd 2ebd 7552 ad3c a24b ad3d
00000380: 47e8 b23b 9c2b 70bc 9d96 b5bc 26b8 c8bc
00000390: 898d cc3d f5e2 d83c 54f5 ef3d 6ce2 8a3d
000003a0: db77 0f3e 1eec bc3d 7957 02bd c60c d6bd
000003b0: 7cfd 4bbd df3d 093d 9d4f e33d 39b7 adbc
000003c0: 5193 783c 693a 3b3e 12d1 b43d f281 8dbd
000003d0: 3c12 883d 7b5d 3cbc 97e5 bc3c 07f2 d03c
000003e0: cb5f cc3d c740 553e 817e 2c3e b0ae c13d
000003f0: 233f 58bd d406 0bbe bc2c fc3b 8f1d 403d
-0.0046173544 -0.019462464 -0.07796722 0.01176501 -0.055283815 0.004293719 0.079788014 0.1328626
0.07314643 -0.1291602 -0.07384136 -0.0022475244 -0.06563035 -0.022990162 0.018024903 -0.06806202
-0.005286579 0.07796949 0.010020155 -0.029236875 -0.027819948 -0.031622738 -0.14556693 -0.17721637
-0.28101608 -0.11778023 -0.11436762 0.115043394 0.13162029 0.12706344 0.051914986 0.078087546
0.050219025 0.059720017 0.0012332048 0.067897625 0.021700801 -0.0068682544 -0.140723 -0.049366888
-0.10951783 -0.18484399 0.07850044 0.06255317 0.072964415 -0.12867245 -0.081875406 0.010224366
-0.0034155515 -0.009018273 0.024343576 0.099099144 0.06924205 0.14723662 -0.060996734 -0.08202662
-0.05273418 -0.16636746 0.009404606 -0.02658187 -0.0013211069 0.069224566 0.15964311 -0.015151401
0.01573064 0.030955954 -0.090857565 -0.05056251 -0.1332445 -0.16541767 -0.23838958 -0.15810072
-0.02743814 -0.049721677 -0.07974691 0.041257467 0.038222905 0.036162134 0.12799875 0.102266535
0.012083493 -0.18474028 -0.052616592 -0.0932163 -0.07484559 -0.040000033 -0.009207604 0.052944668
0.10639174 0.16137265 -0.23263602 -0.24310821 -0.14592326 -0.17197172 -0.033559244 0.061649144
0.06575614 0.13465443 0.14393796 -0.27005172 -0.22821897 -0.11845387 -0.11972123 -0.07376888
0.014146123 0.10892191 0.07518937 0.08939291 -0.01875527 -0.032835964 -0.050982207 0.016261669
0.010589274 -0.0041329586 0.15808478 0.16194117 0.06019371 0.22634189 0.2564941 0.15616648
0.083947085 0.021656478 0.027247902 -0.21652897 -0.28934944 -0.23413418 -0.045998182 -0.040911872
-0.054152593 0.030170463 0.059575725 0.08408116 -0.06498341 0.13187659 0.11502663 -0.115352795
-0.16741575 -0.020448135 -0.022497393 0.011306841 -0.12217174 -0.019719107 -0.016148448 -0.012948448
0.0034062935 0.033810098 -0.060999177 0.07197228 0.032729752 0.08236164 0.101831764 -0.006792661
0.021777153 0.0031179776 0.03109242 -0.00894705 0.08570782 0.076606534 0.019062689 0.09021088
0.08360788 0.045070093 -0.04484994 -0.0797958 -0.11461969 -0.20647989 -0.20762065 -0.19347258
-0.13565193 -0.11489659 -0.052925754 -0.12469132 -0.077489205 0.024658505 -0.16181992 -0.21634044
0.11018242 0.0015896617 -0.13000366 -0.11151899 -0.17963855 -0.06067663 -0.104355186 -0.06511548
-0.16156964 -0.12433105 -0.013553537 -0.072315335 -0.03979932 -0.1316389 -0.033129565 0.06412227
0.10736087 0.1140692 -0.045497317 0.12464384 0.06946157 0.117855 0.10912848 0.073458485
0.06641676 -0.11002672 -0.115448825 -0.010016918 -0.10366953 -0.08675535 -0.08229783 -0.09606161
-0.1598405 -0.12828772 -0.14233401 -0.21043292 -0.25557816 0.105175845 -0.003475869 0.038079713
-0.11207275 -0.07857584 -0.12915292 -0.035558242 -0.029664408 -0.042660844 0.021157483 0.084616914
0.0054598185 -0.014658835 -0.022166545 -0.024501871 0.09987933 0.026475409 0.117167145 0.06781468
0.14010565 0.09224723 -0.0318217 -0.10451655 -0.04980229 0.03350627 0.110991694 -0.021205531
0.015171842 0.18284 0.088289395 -0.06909551 0.06644103 -0.011496897 0.023058696 0.025506033
0.099792086 0.20825492 0.16845132 0.09457147 -0.052794587 -0.13576823 0.0076957624 0.04690319

conv3.conv2d.bias f4 [32]
00000000: 323e febd 0120 543c 63dc 203c 1cf4 843d
00000010: c300 653c 85dc 81be a3a9 7a3d 143a a3bd
00000020: 47ef 31bd 3384 8c3c 4e30 ac3d 902d 053e
00000030: a68c 843d 1504 183d f62c 39be cf8b d03d
00000040: 79e5 b5bc 9abf 653d db1d e3bc e555 673d
00000050: 0b69 bfbd 967c 71bd 7da8 c9bd 4c76 ad3d
00000060: b0d2 dab9 1aa4 b6bd 0f70 043d 7461 80bd
00000070: 0d49 8d3d 6949 eb3d a54d d5bd 9877 333e
-0.124142066 0.012947083 0.009818169 0.06491873 0.013977232 -0.25363556 0.061196934 -0.07970062
-0.043441083 0.017152881 0.08407651 0.13005662 0.06472139 0.037113268 -0.18083557 0.101829164
-0.022204148 0.05609093 -0.027724197 0.0564784 -0.09346207 -0.058956705 -0.0984659 0.08469829
-0.00041737175 -0.08918019 0.03233343 -0.06268588 0.06898699 0.11488611 -0.104152 0.1752609

in3.weight f4 [32]
00000000: b8aa 273f a6eb 333f 76bb 373f b418 493f
00000010: cacd 233f ff03 1a3f 6e62 1e3f d93a 1e3f
00000020: 9718 273f dda3 393f f857 263f 3b58 113f
00000030: e177 2d3f 54d7 343f 02a3 373f 98dd 123f
00000040: 7d01 353f d203 473f a68c 2f3f 0481 033f
00000050: 4e92 483f f5f8 453f 2d3a 2e3f 8349 273f
00000060: 59f1 3c3f 73eb 2b3f d3a5 2c3f c9da 413f
00000070: 3fba 0a3f e9f5 433f 1b76 063f a658 4d3f
0.6549487 0.70281446 0.7177042 0.7855332 0.63985884 0.6016235 0.6186894 0.61808544
0.65271896 0.7251566 0.6497798 0.56775254 0.67761046 0.70641065 0.71733105 0.57369375
0.70705396 0.77740204 0.6857399 0.5136874 0.78348243 0.77333003 0.6805752 0.65346545
0.7380577 0.6715614 0.6744053 0.75724465 0.5419044 0.76547104 0.52523965 0.8021339

in3.bias f4 [32]
00000000: 0791 23be bc4a fbbd 5e78 4dbe 3da7 84bd
00000010: d149 97bd 9e97 10be 08f9 0bbe a68e 06be
00000020: a993 29be e78a 25bd 2df5 11be f825 86be
00000030: bb66 81bd 8f11 acbd cf98 723d d238 5bbe
00000040: 2ae9 a4bd 62f5 42be eca0 1f3d f67e 843d
00000050: 9439 10bd cf70 41be 953f 21be ae13 8c3c
00000060: 0102 75be e637 7bbe b843 cabd 2540 89bd
00000070: ba0f 2bbe 53d2 2dbd 47aa 8cbe 1367 483c
-0.15973292 -0.12270114 -0.20065448 -0.06477211 -0.07387126 -0.14120337 -0.13669217 -0.13140354
-0.16560234 -0.04041567 -0.14253683 -0.26200843 -0.063184224 -0.084017865 0.05922776 -0.21408394
-0.08052285 -0.19038919 0.038971826 0.064695284 -0.03521116 -0.1889069 -0.15746911 0.017099228
-0.23926546 -0.24533042 -0.098761976 -0.06701688 -0.16705218 -0.04243691 -0.2747366 0.012231606

resnets.0.conv1.conv2d.weight f4 [32, 32, 3, 3]
00000000: c1d8 63bd 2a3b 62bd ec1f fbbd 624c 7ebd
00000010: 0251 c4bc 5207 e9bd 8430 83be e764 bebd
00000020: 89be af3d 750d 2f3e 5c93 b03d 956a 053c
00000030: 00e0 8e3d e84f 72bc fd4c e3bc bde2 b0bd
00000040: 677a a2be 9ca6 4bbe 9817 0d3d b636 62bd
00000050: bfc4 29be 660d 2abb d891 6bbd 8f18 f93b
00000060: 8b27 ba3d 8835 373b baf4 b43d d495 e03d
00000070: d34e 0b3e bc11 663d 1301 573e 4954 ed3b
00000080: 4cf1 96bd f6a6 f4b9 0127 62be dca3 15bd
00000090: f37f 16be ef6c 0a3e d482 0b3d c61f d03d
000000a0: b491 72bd e7d5 cabd 7990 1dbd a544 963d
000000b0: ab88 0dbe 7af2 0b3e f542 133e 1eb1 5ebd
000000c0: 157e d53d 9d5f 77bd 94ad 933d c481 db3d
000000d0: c72e eebc c92d d9bc 7239 8d3d 91e4 263e
000000e0: 01bd 483d 8cf8 ec3d 81f3 aa3d d968 073d
000000f0: 4441 eb3d 1d10 efbc a1ed 283d be55 a13d
00000100: a769 3e3d 8db4 f3bc aa83 d33d 0bed e43d
00000110: 6105 a1bc 80bc bfbd fcee 2dbe e1eb 9bbc
00000120: 4cec 6dbd f0cc 31bd d6f6 abbc d9f2 823d
00000130: 2a59 0ebe 0541 92bc d66f cd3b 583f f63d
00000140: c16f ffbc 63ea a63d 4e29 8a3d 2387 76bd
00000150: 6a3f 623d a90e 853c f375 59be ed19 163e
00000160: 912c cdbd 50a1 dbbd e4ae fa3c 6455 5ebd
00000170: 4e27 05be dc4a f2bd 1623 d9bd 778d 4cbe
00000180: 277e a0bc 8477 0bbe cc35 06be 6cc2 4ebd
00000190: 4b24 27bd 9b52 81bd 0a82 c5bb f7ea 46bd
000001a0: b195 3ebd 2bf9 cbbd 42e2 2bbe ede4 e9bb
000001b0: f3bc c2bb c934 103e 7b6d 333e 8f4b bf3d
000001c0: b4cf 24be 03d2 ebbd 6dc9 9fbd 7264 c4bd
000001d0: 8739 7cbe 3ef0 b93d ecbb c23d 6138 75bd
000001e0: 4636 b73d 514c 83bc 15eb dabd 5ff9 18be
000001f0: e167 aabe 6bc9 c9bd 1a88 44bd 9a7d bbbc
00000200: 78bc 4b3d d63d 933d 1ff3 24bd 9379 193c
00000210: a9a5 b3bd 5266 0f3d b051 443d 03ba 32bc
00000220: c63c ac3c 6d3e df3c 1512 fabb e8db 443d
00000230: e3f0 443d 989d 14be 9001 54bd 83cf 1f3d
00000240: 8a5d 9a3d e299 073c acba 8c3d ddf7 f83d
00000250: 5ed9 5e3d effe 6bbd 24b3 16be e9c4 02be
00000260: 8eb9 57bd f3b4 433b f1b6 233d c2c6 053d
00000270: 20dc 533d c7a2 87bd faad bb3c 0307 8c3d
00000280: 4642 83bd 6e30 5abd 3390 1ebb fce0 f9bd
00000290: c98c 8d3d b5c1 febc ff50 0d3d 2bf5 213e
000002a0: e815 983d c962 b53d e8c2 fa3d 85a0 bf3d
000002b0: dd4e 653d 097f 8a3d 3d8c 0d3e e77d edbc
000002c0: dc97 e13c 5831 31be 139e b2bd e752 9f3d
000002d0: ccf0 9bbc 0e84 eebc a953 2b3d 8500 e1ba
000002e0: 7b67 0abe 4624 46bc e89f dfbc 4b87 23be
000002f0: 774c fabd fde0 de3c d62a 0a3c 826f a03d
00000300: 23f3 18be b34f 62be 4227 413b 2112 8c3d
00000310: 6eda 10be 20d5 59be f660 d53d 91ae 993c
00000320: b788 0bbe e4fb 03bd 58c4 82bc 5018 80be
00000330: 6cc7 613d f7e9 2ebe 0145 9abd 45c8 da3d
00000340: 8173 093e 1a42 d73d 1bb8 27bd 7f68 843d
00000350: da19 a3bd ae0d f33d 56a6 e6bd 5879 99bd
00000360: 38e6 463e 1352 0a3e a3fa a53b a596 b93d
00000370: 0dcd 87bd 2ef9 cabd 4f29 68bd 1bb3 1dbe
00000380: 5614 7cbe 8a8d 10be 6e24 9fbd 4a27 ffbd
00000390: 3bec 0bbe d9ca b6bd e978 083d 8c75 adbd
000003a0: cfda fb3d b961 3ebc 6eb7 e63b 567a 9f3d
000003b0: 8eb9 35bd 59b3 d63d e4f6 503d 1395 adbd
000003c0: 8262 c2bd 275d 483d 728b ea3c 9e8f 39bd
000003d0: 694c eebd 5f93 88bd b4a9 053d f535 94bc
000003e0: 1999 a73d 0cc6 a93d 9448 a23d cd1a c6bc
000003f0: bc00 733c ea85 b9bd ade6 0e3c c111 7a3d
-0.055626635 -0.055232204 -0.12261948 -0.062084563 -0.023964409 -0.11378349 -0.25622952 -0.09296589
0.085812636 0.17094977 0.086218566 0.008143087 0.06976318 -0.014789559 -0.027746672 -0.08636997
-0.3173401 -0.19887775 0.03444633 -0.055227958 -0.16578959 -0.0025947927 -0.057512134 0.0076018046
0.090895735 0.002795549 0.088357404 0.109660774 0.13604288 0.056169257 0.20996504 0.0072427136
-0.073702425 -0.00046663702 -0.22085191 -0.03653322 -0.14697246 0.13518117 0.034060314 0.1016231
-0.059220985 -0.0990408 -0.038467858 0.07337312 -0.13821666 0.13666716 0.14381011 -0.05436813
0.10424439 -0.06039392 0.07210842 0.1071811 -0.02907504 -0.02651109 0.068957224 0.16298129
0.049008373 0.11570844 0.08347226 0.033058975 0.11487058 -0.029182488 0.041242246 0.07877682
0.046487477 -0.02974918 0.10327847 0.11178025 -0.019655885 -0.093621254 -0.16985697 -0.019033374
-0.05808668 -0.043408334 -0.020991724 0.06393976 -0.13901201 -0.01785327 0.0062694354 0.120238006
-0.031181218 0.081501745 0.067461595 -0.06018747 0.055236258 0.016242342 -0.212364 0.14658327
-0.10018266 -0.10724127 0.030600972 -0.054280654 -0.13003275 -0.118306845 -0.10602395 -0.1997584
-0.019591404 -0.1361981 -0.1310646 -0.050478384 -0.040806096 -0.06314584 -0.0060274648 -0.048563924
-0.046529476 -0.099596344 -0.1678553 -0.007137886 -0.0059429347 0.14082636 0.17522232 0.093405835
-0.16094857 -0.11514666 -0.07802091 -0.09589471 -0.2463132 0.09079026 0.095084995 -0.05986822
0.08945899 -0.016027601 -0.106893696 -0.14938878 -0.33282378 -0.098528706 -0.04798136 -0.02288704
0.049740285 0.07189529 -0.04027092 0.009367364 -0.087718315 0.03500969 0.047929466 -0.010908606
0.021025073 0.027251447 -0.00763155 0.04806128 0.04808129 -0.14513242 -0.051759303 0.039016258
0.075373724 0.008276435 0.06871542 0.12156651 0.054406516 -0.05761617 -0.14716774 -0.12770428
-0.052667193 0.0029862493 0.03996939 0.032660253 0.0517236 -0.06622844 0.022910107 0.06837275
-0.06409125 -0.053268842 -0.0024194836 -0.122011155 0.06911618 -0.031098226 0.034501072 0.1581618
0.07426053 0.088567324 0.12244207 0.093567885 0.055983413 0.06762511 0.13823028 -0.028990699
0.027538233 -0.1730398 -0.087215565 0.07779484 -0.01903572 -0.029115703 0.04182783 -0.0017166293
-0.13516037 -0.012093609 -0.027297929 -0.15969579 -0.12221616 0.027206892 0.008433064 0.078337684
-0.149365 -0.22100715 0.0029472862 0.06839395 -0.14145824 -0.21272707 0.104188845 0.018759998
-0.13626371 -0.032222643 -0.015962765 -0.2501855 0.055121824 -0.17081438 -0.07532693 0.1068273
0.13422967 0.10510655 -0.04094706 0.064652435 -0.07963915 0.118678436 -0.11262195 -0.074938476
0.19423759 0.13507871 0.0050652786 0.09061936 -0.06630907 -0.099108085 -0.05668002 -0.15400355
-0.24617133 -0.14116493 -0.0777062 -0.12458666 -0.13664334 -0.08925409 0.033318434 -0.08469686
0.12297594 -0.011619979 0.0070409095 0.077870056 -0.044366412 0.104834266 0.051016703 -0.08475699
-0.09491445 0.048916962 0.028630946 -0.04530298 -0.11635668 -0.06668734 0.032632545 -0.018092135
0.08183498 0.082897276 0.079239994 -0.024182701 0.014831718 -0.09058745 0.00872199 0.061052088

resnets.0.conv1.conv2d.bias f4 [32]
00000000: 716f ce3c 4011 e03c bedf 6cbc cef0 333c
00000010: 4cb0 593c e1c4 413e de7e 8ebc e5ca fbbb
00000020: 8afd ae3d 6d85 79bc 828c 413d d0ef e93d
00000030: f2ff 493d 4c77 4cbe 7760 c6bb 1089 463b
00000040: 1a4e c4bd 1c27 d93d f6c3 ff3c c558 c63b
00000050: ec22 a8bc 9c67 5ebd 702c b23c 49b5 79bb
00000060: 9b2d 643d 03ba fabd afa4 673d 8338 033e
00000070: 1e46 c4bd 8456 f7bd 877d 2f3e edad 6b3d
0.025199624 0.027351975 -0.014457641 0.010982705 0.013286661 0.1892276 -0.01739448 -0.007684099
0.085444525 -0.015229565 0.04725314 0.11422694 0.049316354 -0.19967383 -0.00605398 0.0030294098
-0.09585209 0.10603163 0.031221371 0.0060530626 -0.020524465 -0.05429803 0.021749705 -0.003810244
0.055707555 -0.1224251 0.05655354 0.12814526 -0.09583686 -0.120770484 0.17137729 0.057538915

resnets.0.in1.weight f4 [32]
00000000: 89a4 813f c319 693f 1fdc 493f f2c1 613f
00000010: 59d5 733f cc03 873f 0d98 603f bd66 8f3f
00000020: 3799 693f 9a92 5a3f 6d9c 9e3f 9e8c 4c3f
00000030: cd8a 713f 42ef 693f cd69 843f ca8f 523f
00000040: ac8c 563f ec61 5b3f d951 913f 048d 963f
00000050: 8776 7c3f 69e6 843f 120b 973f ddd5 7f3f
00000060: 549d 783f 8fbb 603f 838d 8a3f 1f75 693f
00000070: 68c2 763f e3e1 563f 813a 7b3f 62ba 693f
1.0128337 0.91054934 0.78851503 0.8818656 0.9524742 1.0548034 0.8773201 1.1203228
0.9124941 0.85379946 1.2391487 0.79902065 0.9435242 0.91380703 1.0344788 0.82250655
0.838084 0.8569629 1.1353103 1.1761785 0.9861836 1.0382816 1.1800253 0.99935704
0.97115064 0.8778619 1.0824436 0.9119434 0.9639039 0.83938426 0.98136145 0.9130002

resnets.0.in1.bias f4 [32]
00000000: 7bd5 35be 5480 3bbe a1d1 18be cc8b 1cbe
00000010: 0755 38bd eab5 97be b7d9 f8bd a288 b4be
00000020: a3e4 3abb b2dc aebd f82e 91be 59b6 d3bd
00000030: cd32 26bd e69c 1c3d 02c1 98bd d6d7 bdbd
00000040: f5e9 41be 7baf 53be f59b 74be ae91 01be
00000050: 3f11 6fbd 55af 68bd 703d 6abe e157 843d
00000060: 753c 7cbd 1ccb 38be 5bcc 87be 541c bfbc
00000070: 4cd5 a7bd 2d14 71bc 7a3c a1be a08f 9abe
-0.17757218 -0.18310672 -0.14923717 -0.15287703 -0.045002963 -0.29630977 -0.12150901 -0.35260493
-0.0028517626 -0.08538188 -0.28356147 -0.103375144 -0.04057579 0.038235568 -0.07458688 -0.09269683
-0.18936904 -0.20672409 -0.23887618 -0.12653229 -0.058366057 -0.056807835 -0.22874999 0.06462074
-0.061581094 -0.1804623 -0.26523098 -0.023328938 -0.0819498 -0.014714283 -0.31491452 -0.30187702

resnets.0.conv2.conv2d.weight f4 [32, 32, 3, 3]
00000000: 5619 c33d bbf0 0ebe 8209 4cbd eeb1 abbd
00000010: ceb4 333e 050b d93d 08d1 c3bd 76cb 063e
00000020: 8a30 633d 0c0e 013d 4a83 8c3d 2d78 d13c
00000030: ed8c 8bbd af91 003e 2094 fd3d e7f6 523c
00000040: 29f6 653d 3bd7 7c3d 5ba8 963d d8d6 243d
00000050: 7cb6 aabc 6911 553d 99b7 433e f70d e3bc
00000060: 9ee8 683e 28cb 2ebd c125 5fbd 0ac9 d7bd
00000070: 48a0 cdbc aef4 063d 6656 9bbc 6f7f d9bd
00000080: 0cc0 f03c a2e6 6c3d 9f16 893d e4c9 213d
00000090: 47ed ccbd 7d18 823c 04a3 493e f113 15bd
000000a0: 8096 4dbc 111b 82bd d63b 7c3d b54f e6bc
000000b0: 365a 45be 3077 be3c 1c94 11be 6a5a 1dbe
000000c0: c50a 493d f1e7 893c b3f1 1e3d accf bf3d
000000d0: c6a3 0a3e fff8 293e fc74 be3d 1ec7 72bd
000000e0: 67d9 b0bd a37a 913c 13cb 1a3e 0b10 193e
000000f0: 0ded b4bb 6094 803d bda3 ad3d 11ca 92bc
00000100: b57b 2ebe 0d37 16be 5610 603d 5d6e 003d
00000110: e4d3 f2be 8b65 45bd a628 acbd 3805 89be
00000120: 2458 133e dfce df3d 30be 023e 4bf3 e6bb
00000130: 9e43 c03d d6ae ebbb 076d b73d 44a1 e23c
00000140: 1b4b 9c3d b042 ffbc 88a0 d03d cb6e 1f3e
00000150: 39bd 813d 4e82 ddbd 7a1a 50bd cb10 1b3d
00000160: c148 a4bc 66a5 d6bd 4e0e eebd d04d b5ba
00000170: c2f0 87bd fae5 83bd f067 27be b3f0 a83d
00000180: 67d5 a9ba 4c68 e4bb a789 b9be fe6d 2cbd
00000190: c394 293b 5076 88bc f794 d9bc 10a9 9a3d
000001a0: 987d 22bb e4bc bc3d 5d62 3dbd 15c1 833c
000001b0: ed06 c6bd c075 debd e607 38be 1595 2fbe
000001c0: b94a 86bd 633e 32bb 9b2b 19bc 52ed babd
000001d0: 44ce 063d f4a6 053e bd48 423e c2a6 6e3e
000001e0: f76d 233e 6fd5 9b3d 65f8 913d 7099 61bb
000001f0: e3d7 88bd 1ac5 e43c 0a21 e93c c8cf 8abc
00000200: 8835 6c3d 0caa 8c3d 03df 423d 8642 a23c
00000210: 0af0 343e 8452 1c3e a6c2 be3c f703 2e3d
00000220: 9678 23bd a742 4e3d 1114 c63d 274d 173d
00000230: edec 95bd 3c33 adbc 9a7a 983c 51a0 d6bc
00000240: c080 c2bd bedc c9bd bc8a 273d cfbc 023e
00000250: 2a6b c9bd 700c bcbc c984 023e d512 4c3d
00000260: e357 f7bc 8c84 e63d d7f4 d7bb 9cef 6a3d
00000270: 2e98 cfbc b8ae 863d 61dc c0bd d59e 473d
00000280: bc92 f43d 7da4 3e3d b73d 27be cbc6 1dbd
00000290: 417e 1a3d 743c afbd c607 1abe c2ea 03be
000002a0: 045e e63c d2d3 c4bd 7aa7 78be fa87 8c3b
000002b0: 8418 f03b 2ea6 ddbd b1a0 c33c 4a8a 77bd
000002c0: 2e54 de3c f2a2 76be ed75 8f3d 817f 053e
000002d0: 875f 923d cc5e 08bc 3c27 9abd 29cb cc3c
000002e0: 0ec1 983d 247c bb3c 1106 d1bc da6f 7c3d
000002f0: 1ad8 393e 6f24 bb3d 315f be3d 5f18 113e
00000300: 9ec9 c33d d07d c33c 0eb5 6cbd 3645 3a3e
00000310: 01a1 743d e1d6 9abc 3554 5abe 2a51 c7bd
00000320: 4e1e 7e3d 6d92 bb3d 7116 8ebd a70c 913b
00000330: 7632 2abd 054b 643c 4825 e53d 20dd b1bc
00000340: 0883 a8bd 7952 26be f806 39bd cc65 9ebd
00000350: 928e a1bd b1c7 e6ba a9dd 12be ac87 9fbc
00000360: e016 3dbc 8835 803d d516 363e 7f29 e53b
00000370: f0bb 593d bf2e 063e 5c30 7d3c 7af4 c9bd
00000380: 2bae 33bb a488 1b3d f6e5 b13d 8764 1d3d
00000390: 81ff 623d 3018 993d bbcf 213e 6cd9 273e
000003a0: 2383 293e 62dc 3d3e 53dd b1bc 6abb 08be
000003b0: 9f65 06be 2e44 82be 305f eebd 8fc5 2b3d
000003c0: 6b03 71be 621b 15bd 9743 283c f1b9 aebc
000003d0: 278f dd3d 1160 28be 429d 01bd 3b1a 353c
000003e0: 3a71 a5bd faff 16be 67c2 9bbd becb c0bd
000003f0: 9f96 093d 4b38 50bd 9c48 38bc 0a9c 073e
0.09526317 -0.13959019 -0.049813755 -0.08383547 0.1754944 0.10597805 -0.09561354 0.13163552
0.055466212 0.031507537 0.06860979 0.02557 -0.06813989 0.12555574 0.12381768 0.012876249
0.05614296 0.061728697 0.0735633 0.040243953 -0.020838968 0.052018557 0.19113006 -0.02771662
0.22744986 -0.042674214 -0.054479364 -0.10536392 -0.025100842 0.03294819 -0.018962096 -0.10620009
0.02938845 0.057837136 0.06693768 0.03949918 -0.100061946 0.015880818 0.19691092 -0.03639597
-0.012548089 -0.06352819 0.0615805 -0.02811418 -0.19272694 0.023250192 -0.14216655 -0.15366521
0.049082536 0.016834231 0.03880472 0.09365782 0.13539037 0.1659889 0.09299657 -0.059271924
-0.08635216 0.017758673 0.15116529 0.14947526 -0.0055214227 0.062783 0.08478496 -0.017918618
-0.17039378 -0.14669438 0.05470308 0.03135525 -0.47427285 -0.048192542 -0.084061906 -0.26761794
0.14389092 0.109281294 0.12767863 -0.0070480458 0.09387897 -0.007192473 0.08956342 0.027664788
0.07631513 -0.031159729 0.10186869 0.15569608 0.063349195 -0.10815869 -0.0508065 0.037857812
-0.020054223 -0.10480766 -0.11623822 -0.0013832394 -0.06637718 -0.06440349 -0.16348243 0.08249035
-0.0012957276 -0.006970441 -0.36237833 -0.042097084 0.0025876022 -0.016657978 -0.02656029 0.07551777
-0.0024794098 0.092157155 -0.046236385 0.01608328 -0.0966929 -0.10862303 -0.17971763 -0.17146714
-0.06557221 -0.002719783 -0.009348775 -0.091272965 0.032911554 0.13051969 0.1897306 0.233058
0.15959917 0.076090686 0.071274556 -0.0034423731 -0.06681802 0.027926017 0.028458137 -0.016944781
0.05766824 0.06868371 0.04757596 0.019807111 0.17669693 0.15265852 0.023286175 0.04248425
-0.03990992 0.050356533 0.09671796 0.036938813 -0.07320581 -0.021142595 0.018613148 -0.026199492
-0.09497213 -0.09856556 0.04090379 0.12767337 -0.09834893 -0.02295515 0.12745966 0.049822647
-0.030193275 0.1125575 -0.0065904665 0.057357416 -0.02534112 0.06576294 -0.09417034 0.04873546
0.1194205 0.046543587 -0.16332136 -0.038519662 0.03771806 -0.085564524 -0.15042028 -0.12882522
0.028121002 -0.09610714 -0.24282637 0.0042886706 0.0073271412 -0.10822712 0.023880335 -0.060434617
0.02713975 -0.24085596 0.070049144 0.1303692 0.07147127 -0.008323383 -0.075270146 0.024999218
0.07458697 0.022886343 -0.025515588 0.061630107 0.18148842 0.091378085 0.092955 0.14169453
0.0955994 0.023863703 -0.057789855 0.18190464 0.059723858 -0.01890129 -0.21321185 -0.09732278
0.06204062 0.09158788 -0.06937874 0.004426557 -0.04155203 0.013933902 0.111887515 -0.021711886
-0.08228117 -0.16242398 -0.04517266 -0.0773426 -0.07888521 -0.001760712 -0.14342369 -0.019473873
-0.011541098 0.0626021 0.17782147 0.006993472 0.053157747 0.1310377 0.015453424 -0.09861083
-0.0027417045 0.037972108 0.0868644 0.03842595 0.05541945 0.074753165 0.15801899 0.16391534
0.16553931 0.185411 -0.02171198 -0.13352743 -0.13124703 -0.25442642 -0.11639249 0.041936453
-0.2353646 -0.036403067 0.010270021 -0.021328898 0.1081832 -0.16442896 -0.031644113 0.011053617
-0.08078237 -0.14746085 -0.07605439 -0.09413861 0.03359091 -0.050834935 -0.01124778 0.13243118

resnets.0.conv2.conv2d.bias f4 [32]
00000000: d04b 1e3e b8d7 debd 499e eebc a4c2 8ebd
00000010: d819 99bd 705c 1dbe b191 443d 2ac9 e2bd
00000020: 038d 31bd 9593 8abd 210c cebd d8dc c5bd
00000030: eb9e 26bc 0f58 bebc 4331 afbd b7bc f5bd
00000040: b6b1 083e 5f62 ffbd 0b82 6a3d e8bc b7bd
00000050: 6e61 c53d 1b1f 933d 3b7a 3d3e eda5 ffbc
00000060: c4d2 da3d 5736 41be 19fa 9e3d 3877 e13d
00000070: 4cf9 7d3b 7cc8 6bba 7b5f bfbc 1477 063d
0.15458608 -0.10880989 -0.02912821 -0.069707185 -0.074756324 -0.15367293 0.047990505 -0.11073525
-0.04334737 -0.0676643 -0.10060907 -0.09661263 -0.010169725 -0.023235349 -0.08554318 -0.11998885
0.13349041 -0.12469935 0.057252925 -0.08971578 0.09637724 0.07183667 0.18503658 -0.03120705
0.106847316 -0.18868385 0.07762546 0.11009067 0.003875333 -0.0008994413 -0.023360958 0.032828405

resnets.0.in2.weight f4 [32]
00000000: 8dd0 0b3f c881 2a3f ff1f 583f 1c10 3d3f
00000010: 5905 243f 40fd 303f ad15 3a3f 143d 113f
00000020: ce6a 2e3f b335 443f b858 393f 1d29 253f
00000030: 781d 403f 6b8b 2d3f 5238 2d3f 7469 eb3e
00000040: ed0b 333f d1ec 2e3f cad4 143f abf8 533f
00000050: fcbd 553f f764 123f 0a8b 413f 612d 2d3f
00000060: 1a08 0f3f 9cc1 203f 1af4 2c3f c87a 1c3f
00000070: 88c0 0a3f 283c 173f 15b0 ea3e c748 123f
0.546151 0.6660428 0.8442382 0.73852706 0.6407066 0.6913643 0.72689325 0.5673382
0.6813172 0.7664444 0.72401 0.6451586 0.75044966 0.6779086 0.6766406 0.45978892
0.6994007 0.68330103 0.5813719 0.8280131 0.8349302 0.5718531 0.7560278 0.6764737
0.55871737 0.62795424 0.6755997 0.6112485 0.5420003 0.59076166 0.45837465 0.571423

resnets.0.in2.bias f4 [32]
00000000: beeb df3d ad8f cfbc fd7d debc 01fd aabd
00000010: 5b32 edbd e2ff 01be bf75 d13c 254c 79bd
00000020: 1125 82bc af2e 2dbb e994 10bc aa2d 50be
00000030: 22eb 56bd dff2 d5bc 504b a3bd d102 66be
00000040: 1757 973d b465 8fbd f360 25bd 13fd 5cbd
00000050: 7c22 2f3d 1d3f c73d 46dd 063e dcc1 87bc
00000060: 987b ea3d dc3b c0bd d089 75bb 42fd 5ebc
00000070: f925 a8bd ba6e da3c 5024 7c3d 7d62 9f3d
0.10933636 -0.025337065 -0.027159685 -0.08349038 -0.1158187 -0.12695268 0.025568841 -0.060863633
-0.015886815 -0.002642553 -0.008824565 -0.2032992 -0.052470334 -0.026116787 -0.07973349 -0.22462012
0.07389658 -0.0700182 -0.04037566 -0.053952288 0.042757496 0.09728835 0.13170347 -0.016571932
0.11449355 -0.09386417 -0.0037466176 -0.013610186 -0.08210368 0.026664127 0.061558068 0.07782457

resnets.1.conv1.conv2d.weight f4 [32, 32, 3, 3]
00000000: d8b7 4dbe 6b78 2dbe eba5 cd3d f4e1 f03c
00000010: a9ff 913d 2d47 1a3e 7f2d 563e db2f 943e
00000020: aff4 693e 7542 d63b 9cff babd e1a1 cabd
00000030: d20a 193a ce10 083d 41e1 c33d 9611 933b
00000040: 6aef 0f3e f235 793d 94be b4bd 1823 0a3e
00000050: 0bb5 3e3e bfd4 893d d9db 843d 8337 03bb
00000060: 0855 163e 51dd 203b f655 a7bc 2840 093e
00000070: 2d1a 43bd d909 0dbe 2580 8cbd ff70 c5bd
00000080: a750 39be 0378 093e a5c5 29bd 938e b3bd
00000090: e89b 1fbb 13a4 cc3d bbd0 513e 2b17 263d
000000a0: 885b 9b3d 08bf a33d cef9 e03d 6b7e e93c
000000b0: 1311 173e 5d35 2fbe c025 bab9 0066 bcbb
000000c0: 7e3d 58bd 9f15 09be f051 88bc 6a88 09be
000000d0: 8b25 973c 1da0 223c a89c 5fbe 310f 80bc
000000e0: 7692 e93c 3d8a 15be 84bb 66bd effc 0a3c
000000f0: 2fc7 0bbe 79e2 a7bd ae01 333d d4e9 f43d
00000100: c7ad 2a3c fbae 4ebe 6280 8c3d 8df5 e6bb
00000110: a6cf 7fbd 9620 133e b1a0 603d 918b f2bc
00000120: a0cd 3fbe 8e98 02bc 6d63 a1bd b26a 6bbd
00000130: 97e5 debd dcaf c8bc ce1c f1bd ccf4 21bd
00000140: 09ca e63d 4311 0ebe 4ca6 3d3b 4b33 fb3d
00000150: 1161 b4bd cd78 3cbd 5fc4 90bd 3046 50bd
00000160: 4e0c 60bd e1d1 6fbb 5cbd dabd d2ee b3bd
00000170: 89e8 48bd a68e edbd 5fc7 85bc 6eb0 20bd
00000180: 5691 51bd 9879 80bd 24d2 1db9 95ea cdbb
00000190: 3efb 2a3e 7618 2b3e 7e20 403e 9d71 253e
000001a0: 79b4 37bd 9ca0 7f3d 63a9 9d3d 8fa9 d3bd
000001b0: 75b3 a6bd 8416 8dbd 277c 983d ee28 023e
000001c0: 3105 4c3c 80f6 873e f461 8ebc cce6 6e3d
000001d0: e89d fd3d 8b0c b23d bc7d 913c e3b3 f0ba
000001e0: 7d08 3abd 7f55 b43b 7823 c1bd 2435 6dbd
000001f0: 245d 46bb 84b7 6fbd 90f3 c8bd 5484 10be
00000200: ae85 64be 80a2 f1bd 807b 2cbe 22d9 0ebe
00000210: d32d f6bd fcf2 bebd 6af2 11bd 607e 3dbe
00000220: bd7d 76bd 04a4 d6bd 96de 4b3d 277d 4cbc
00000230: 71e0 a33d cfa6 d53d 1cdc c63d 4e11 643d
00000240: ea27 023e c5fe 26ba 87dd 30be b4c1 423d
00000250: 1a06 98bc dcd7 c1bd 40bf 5f3d dea0 91bc
00000260: 54b4 3bbd 1d62 9ebd 98a4 ad3b c0e2 16bd
00000270: 0ca0 70be 2f1e 73be c153 b9be 3048 253c
00000280: 573b c5bd 34e2 9fbd bfe4 bb3c 2f37 f4bc
00000290: 5fca 943c 2805 393d c9c4 483c 7590 753e
000002a0: dbf7 e3bd 6cc0 973c f0c9 a73c 2fc4 cd3d
000002b0: f05e ca3c 91e2 94be b0f1 623d 47e5 aebd
000002c0: 5dbf 63be f379 003e 8d22 9a3c 041a 57bd
000002d0: 120e ecbd 93dd 1abe e32c 9ebd 2253 dfbb
000002e0: c03e 04bd 8fc9 933d d4b1 413e 1f4b 833e
000002f0: e048 c53e 8254 42bd ab02 81bc a8b5 fdbd
00000300: c6b6 b53d c3e6 c03d 0b24 6a3d fd43 e73a
00000310: 2db7 39bd cbd9 843c f23c 8e3d 30dc 043e
00000320: 4b40 cd3e c5eb 85bd 6fea 423e 3885 b23e
00000330: f209 0abc 7944 173e d49b e83d a5f7 91bd
00000340: 1f30 8dbd b025 423d c63c 89bd 7d17 e8bd
00000350: 194c 46bd b0ae 683d d3e1 d9bd 92b1 17be
00000360: 0dcb d23d 8b50 613d e0e5 08bd 88fa 5b3d
00000370: 5a1f a83d 4525 433d 7b23 bdbd c9c2 62bd
00000380: 4851 d1bc 80a8 5f3c 37bd a63b 3c08 e5bb
00000390: 5205 a1bd 6b65 33be 30b2 a1be 707f 71bd
000003a0: 5543 55bd 949b adbd c42a 7f3d ee4d 8b3c
000003b0: 97d8 e2bd 7ece ddbc 2f20 eabc 9505 0f3e
000003c0: a632 26bd 2e80 65bd 378a ef3d 359c c4bd
000003d0: a35f 0dbe 9899 e3bd 8ca4 0bbe 558c f7bd
000003e0: 5e3b 57be aff7 613c 3688 1a3d 7ee8 ba3c
000003f0: 6dc2 a9ba 0595 5bbd bf6d 32bd 6351 b33d
-0.20089662 -0.16940467 0.10041412 0.029404618 0.071288414 0.15066214 0.20915793 0.2894276
0.22847246 0.006538684 -0.09130785 -0.09894157 0.0005838099 0.03321915 0.09564448 0.0044881804
0.14056173 0.060842462 -0.088254124 0.1348995 0.1862375 0.06730031 0.06487245 -0.0020022101
0.14680874 0.0024545977 -0.020426732 0.1340338 -0.047632385 -0.13773288 -0.06860379 -0.09640693
-0.18097173 0.13424687 -0.041448254 -0.08767428 -0.0024354402 0.09992232 0.2048978 0.04054944
0.075858176 0.07995421 0.109851465 0.028502664 0.14752607 -0.171102 -0.0003550481 -0.005749464
-0.05279302 -0.13387154 -0.016640633 -0.13430944 0.01845052 0.009925869 -0.21837103 -0.015632244
0.02851222 -0.14603515 -0.056331173 0.008483156 -0.13650201 -0.08197493 0.043702774 0.11958662
0.010417408 -0.20183937 0.068604246 -0.007048315 -0.06245389 0.143679 0.054840747 -0.029607566
-0.18730783 -0.007970942 -0.07880292 -0.0574748 -0.108836345 -0.024497919 -0.11773072 -0.039540097
0.11269004 -0.13873772 0.0028938232 0.12265643 -0.088075764 -0.046013642 -0.07068705 -0.050848186
-0.054699235 -0.0036593603 -0.10680649 -0.08785786 -0.049049888 -0.11599474 -0.01633042 -0.039230756
-0.051163994 -0.06273192 -0.0001505097 -0.006284068 0.16697404 0.1670855 0.18762395 0.16156621
-0.044849847 0.06240903 0.076983236 -0.10335075 -0.081396975 -0.0688906 0.07445555 0.12710926
0.01245241 0.26555252 -0.017380692 0.058325574 0.12383634 0.08693799 0.01776015 -0.0018364157
-0.04541825 0.005503356 -0.09430593 -0.057912007 -0.0030267918 -0.058524624 -0.09812081 -0.14112979
-0.2231662 -0.117985725 -0.16843987 -0.13950017 -0.12020459 -0.09323689 -0.035631575 -0.1850524
-0.060178507 -0.10480502 0.04977282 -0.0124810105 0.08001793 0.10432207 0.09709951 0.055680566
0.12710539 -0.0006370361 -0.17272006 0.04754801 -0.018557597 -0.09465 0.05462575 -0.017776903
-0.04582627 -0.077335574 0.005299162 -0.03683734 -0.23498553 -0.23741983 -0.36196712 0.010088012
-0.09630459 -0.07806817 0.022936223 -0.02981147 0.018162904 0.045170933 0.0122539485 0.23980887
-0.11131259 0.018524371 0.020482033 0.10047185 0.024703473 -0.29079106 0.055406272 -0.08539825
-0.22240968 0.1254652 0.018815303 -0.052515045 -0.11526121 -0.15123586 -0.07723405 -0.00681533
-0.032286406 0.072161786 0.18915492 0.2564325 0.38532162 -0.047443874 -0.015748342 -0.12388164
0.08872752 0.09419014 0.05716328 0.0017644163 -0.045340706 0.016217133 0.06945218 0.1297462
0.40088114 -0.0653911 0.19034742 0.34867263 -0.008425223 0.14772214 0.11357847 -0.071273126
-0.06893944 0.047399223 -0.06701045 -0.11332605 -0.048412416 0.05680722 -0.10638776 -0.14813831
0.10292635 0.055008452 -0.03342235 0.053705722 0.08209105 0.047642965 -0.09235283 -0.055361543
-0.025551453 0.013651013 0.005088474 -0.006989507 -0.07862343 -0.17519157 -0.3158126 -0.058959424
-0.052066166 -0.0847694 0.062296644 0.017004933 -0.110764675 -0.027076002 -0.0285798 0.13966973
-0.040575646 -0.056030445 0.11696284 -0.096001066 -0.13806014 -0.1111328 -0.13636988 -0.12087313
-0.2101874 0.0137919625 0.037727557 0.022815939 -0.001295162 -0.053608913 -0.043561693 0.08755758

resnets.1.conv1.conv2d.bias f4 [32]
00000000: c0a0 b33d d353 ea3d 9a15 bd3a 4cb6 bc3c
00000010: ea1f a6bd 4fdb a13d 3d94 c9bc 9e62 29be
00000020: a83e 34be 84b0 b03d d569 0cbd 620d ba3d
00000030: 633b 3b3d b55a 9dbd 1a88 96bc d79f 5cbd
00000040: 2990 0a3e 3edd 8dbd 5484 63bd 1e78 65bc
00000050: 897a 5abd c031 483d 16d9 5abe 5410 2bbc
00000060: 653e 21bd 7ad9 0b3e 336e e3bd f118 a2bd
00000070: d798 80bd 0abe 22be b4bb c63d d76d c93d
0.08770895 0.114417695 0.0014425993 0.023036145 -0.08111556 0.07903158 -0.024606818 -0.16541526
-0.17602026 0.08627418 -0.034280617 0.09084584 0.045710932 -0.076833166 -0.018375445 -0.053863373
0.13531555 -0.06926964 -0.05554612 -0.014005689 -0.053339515 0.04887557 -0.21371874 -0.010440905
-0.039366145 0.1365718 -0.11105003 -0.079149134 -0.06279152 -0.15892807 0.0970377 0.098354034

resnets.1.in1.weight f4 [32]
00000000: 74a6 613f 599d 8b3f 183d 7b3f 5f89 3c3f
00000010: 422a 873f c933 543f 779d 6b3f ef15 7b3f
00000020: d74c 833f f218 a03f 4da7 6d3f 41d4 863f
00000030: f1bf 883f a041 4e3f 114f 683f 6032 4a3f
00000040: 3cf2 6e3f fc54 623f 337c 893f 439c 3a3f
00000050: a0c2 633f c93f 3e3f 51e0 603f d350 823f
00000060: 9825 833f 1248 753f b6e9 4d3f 1115 783f
00000070: 5bd6 7b3f 0743 433f a9a2 613f c4b9 693f
0.8814461 1.0907394 0.98140097 0.7364711 1.0559771 0.8289152 0.9203715 0.98080343
1.0257825 1.2507613 0.92833406 1.0533525 1.0683576 0.80568886 0.90745646 0.78983116
0.9333837 0.88410926 1.0741028 0.72894686 0.8896885 0.7431608 0.8784228 1.0180916
1.0245848 0.95813096 0.8043474 0.96907145 0.98373955 0.7627415 0.88138825 0.9129908

resnets.1.in1.bias f4 [32]
00000000: 7530 2bbe ef07 eabd 0aef ccbe b880 a7be
00000010: 7387 d9bc f4ae bdbd 9ada 83be 890d e5be
00000020: 8c50 abbe ef21 c9be b5ef 91be c473 eabe
00000030: e5fd 9ebe 6719 45be 5aa5 ccbe 0b33 c6be
00000040: 0b99 63bd 5601 8fbe c8a2 b5bd 9e20 78be
00000050: 0367 85be fdde 7fbe 076b 06bf 86ff 61be
00000060: 92b4 e8be 72cc 3dbe 0102 61be d774 f9bd
00000070: e61d dcbe bb41 823c 591e 84bd ac4c 7abe
-0.16717704 -0.114272945 -0.40026122 -0.32715392 -0.026553845 -0.09261885 -0.25752717 -0.4473689
-0.3345989 -0.39283702 -0.28503194 -0.45791447 -0.3105308 -0.19247971 -0.39969903 -0.38710818
-0.055565875 -0.27930707 -0.08868939 -0.24231192 -0.26055154 -0.24987407 -0.5250706 -0.2207013
-0.45450264 -0.18535021 -0.2197342 -0.121804886 -0.4299156 0.015900483 -0.06451101 -0.2444331
