Assets/Style_Transfer/Models/Estilos mejoras/ReCoNet/Rnc_S4.onnx (onnx, 449372 bytes, 62 tensors)

conv1.conv2d.weight f4 [8, 3, 9, 9]
0.13063638 0.051574185 0.06418662 0.041538224 0.04191081 0.062366955 0.05610927 0.060873333
-0.03763216 -0.0001005768 0.081678286 0.052252676 -0.0015525613 -0.0147487335 -0.02856148 0.0067502325
0.018023374 -0.035313763 0.03228932 -0.02304029 -0.07015298 -0.047720566 0.050652824 0.14556448
0.08376814 -0.057990965 0.04836361 0.0044685043 -0.045633465 -0.15994678 -0.069687404 0.03582132
0.07488298 -0.08924464 -0.155607 0.00014612592 -0.04328709 0.012922011 -0.05477413 -0.15937787
-0.00027380456 -0.081073366 -0.21045467 -0.13595207 -0.03583567 -0.05171589 -0.01339943 -0.09366998
-0.08918031 -0.014682621 -0.24065374 -0.24312603 -0.017557042 0.0034604 -0.02794779 -0.009697969
-0.084379435 -0.064632334 -0.0010295196 -0.17097186 -0.21047357 0.013232303 0.13267632 0.034173746
0.08497246 0.004402742 0.01535295 0.0041585364 -0.08603149 -0.08108225 0.005998405 0.05440093
-0.019567003 0.10014307 0.08066385 0.011773634 0.047908124 0.09071267 0.07336137 0.017385641
0.007857765 -0.038364794 -0.031782288 -0.0058703446 -0.042780526 0.0688249 -0.0681097 -0.13232309
-0.111999415 -0.06777813 -0.033659216 0.08423479 0.033588853 0.024930747 0.124447145 0.08277625
-0.017036328 -0.051370274 -0.027815232 -0.03351976 -0.07311903 -0.0039308057 0.091576636 0.27196494
0.27468994 0.07904319 -0.09427482 -0.053657822 -0.109859176 -0.01067255 -0.009417697 0.038365483
0.27617222 0.30122375 -0.03898831 -0.12541541 -0.045536295 -0.14629395 -0.04493632 -0.057799228
-0.04229879 0.10926231 -0.018561495 -0.19735803 -0.17226909 -0.013399413 -0.0892959 -0.070266135
-0.07800223 -0.032337096 0.0009795895 -0.18590534 -0.22527067 -0.0063292417 0.06935873 -0.106837526
-0.12127603 -0.10272389 -0.03425325 -0.02133637 -0.20683081 -0.24910136 -0.060973585 0.041079246
-0.02429162 0.0060294964 -0.012145418 -0.039954644 -0.002990548 -0.09797688 -0.12853196 -0.021587627
0.08330735 -0.05540034 -0.062157113 0.02677265 -0.022994692 -0.010135408 -0.05481823 -0.049195837
-0.069936946 -0.06308669 -0.12718353 0.037743278 -0.019470928 0.06865971 0.028456723 -0.052589267
-0.18189096 -0.1842929 -0.13165839 -0.111334875 0.07990305 0.24949116 0.2030483 0.26396015
0.039668918 -0.019469101 -0.076502316 -0.059657916 -0.10499542 0.0076343436 0.2395951 0.37207824
0.47852498 0.32940936 0.12899922 -0.1421684 -0.16849664 -0.07502749 0.041530468 0.19459395
0.38316125 0.6212272 0.44351783 0.12855163 -0.08791618 -0.15280828 -0.08288649 0.042264275
0.13296324 0.24231116 0.36774972 0.29876542 -0.07250819 -0.13237838 -0.03831591 -0.033393547
-0.05766097 0.07520966 0.16663706 0.28554705 0.07743513 -0.14874613 -0.03806296 -0.028967522
-0.021837546 -0.016519712 -0.096410766 -0.0025832884 0.019747362 0.013859235 -0.07299328 0.062858604
0.015473721 -0.09774813 -0.022309542 -0.020551695 -0.013317225 0.056477513 -0.0554287 -0.102141745
0.03911723 -0.045740306 -0.09103056 0.009445312 -0.0009901158 -0.07229298 -0.066228665 -0.021047648
-0.048443813 -0.022687703 -0.10149224 0.013224148 -0.07251602 -0.13339186 -0.072680905 0.010170873
0.06082465 0.07030213 -0.0064417664 -0.07843781 0.101359844 -0.02498048 -0.04720491 -0.0913016
00000000: 8bc5 053e 743f 533d 4674 833d fc23 2a3d
00000010: abaa 2b3d 7e74 7f3d d5d2 653d 5156 793d
00000020: 2e24 1abd c2ec d2b8 f246 a73d e706 563d
00000030: 507f cbba aca4 71bc c4f9 e9bc 0e31 dd3b
00000040: c1a5 933c 2aa5 10bd ce41 043d febe bcbc
00000050: 5eac 8fbd a476 43bd 5679 4f3d db0e 153e
00000060: a18e ab3d ef87 6dbd ec18 463d 886c 923b
00000070: 28ea 3abd 17c9 23be 45b8 8ebd 60b9 123d
00000080: 3f5c 993d e5c5 b6bd 7157 1fbe 6139 1939
00000090: ce4d 31bd d8b6 533c d75a 60bd f433 23be
000000a0: 6d8d 8fb9 cb09 a6bd 6e81 57be 0537 0bbe
000000b0: 6cc8 12bd 0bd4 53bd 4889 5bbc 0cd6 bfbd
000000c0: 2ba4 b6bd 608f 70bc ef6d 76be 08f6 78be
000000d0: c9d3 8fbc e1c7 623b c4f2 e4bc 3be4 1ebc
000000e0: 20cf acbd f55d 84bd f2f0 86ba 3f13 2fbe
000000f0: 6286 57be 4dcc 583c 4ddc 073e c5f9 0b3d
00000100: 0b06 ae3d e044 903b f18a 7b3c 5544 883b
00000110: 4731 b0bd 730e a6bd 458e c43b 82d3 5e3d
00000120: fb4a a0bc cf17 cd3d 1733 a53d 33e6 403c
00000130: 4f3b 443d 90c7 b93d 7c3e 963d 556c 8e3c
00000140: dbbd 003c 6724 1dbd 252e 02bd 055c c0bb
00000150: a23a 2fbd 12f4 8c3d 197d 8bbd b47f 07be
00000160: f35f e5bd 43cf 8abd 3fde 09bd 4a83 ac3d
00000170: 7794 093d 913b cc3c 25de fe3d 9886 a93d
00000180: c58f 8bbc a369 52bd c5dc e3bc 044c 09bd
00000190: 6ebf 95bd fdcd 80bb 888c bb3d fd3e 8b3e
000001a0: 29a4 8c3e 65e1 a13d 2813 c1bd 4ec8 5bbd
000001b0: d9fd e0bd ebdb 2ebc af4c 1abc 2025 1d3d
000001c0: 7266 8d3e 003a 9a3e 35b2 1fbd e66c 00be
000001d0: 4484 3abd 15ce 15be 260f 38bd e2be 6cbd
000001e0: 7f41 2dbd ebc4 df3d 470e 98bc 3918 4abe
000001f0: 4f67 30be 3689 5bbc c5e0 b6bd b1e7 8fbd
00000200: a2bf 9fbd e773 04bd 9265 803a f85d 3ebe
00000210: 5bad 66be 8765 cfbb f30b 8e3d a2cd dabd
00000220: 915f f8bd e760 d2bd 234d 0cbd 9cc9 aebc
00000230: 75cb 53be 6d14 7fbe 70bf 79bd b642 283d
00000240: 38ff c6bc 1593 c53b 93fd 46bc 7ba7 23bd
00000250: 12fd 43bb 1aa8 c8bd e29d 03be 89d8 b0bc
00000260: 0b9d aa3d 78eb 62bd 7598 7ebd 5152 db3c
00000270: 5d5f bcbc fb0e 26bc 1589 60bd 9381 49bd
00000280: 1a3b 8fbd 9833 81bd 663c 02be b298 1a3d
00000290: 7f81 9fbc 769d 8c3d 131e e93c d867 57bd
000002a0: a041 3abe 47b7 3cbe 75d1 06be 8a03 e4bd
000002b0: 36a4 a33d 9c7a 7f3e e5eb 4f3e c925 873e
000002c0: e07b 223d aa7d 9fbc 3fad 9cbd dc5b 74bd
000002d0: d707 d7bd 8429 fa3b 6b58 753e 0a81 be3e
000002e0: 3a01 f53e 58a8 a83e 5f18 043e 9894 11be
000002f0: 628a 2cbe 03a8 99bd da1b 2a3d a343 473e
00000300: b62d c43e bf08 1f3f c514 e33e 0aa3 033e
00000310: 660d b4bd c679 1cbe 64c0 a9bd 4e1d 2d3d
00000320: 8427 083e 6b20 783e b149 bc3e c8f7 983e
00000330: 2d7f 94bd 338e 07be 25f1 1cbd acc7 08bd
00000340: e92d 6cbd 8607 9a3d e8a2 2a3e 3933 923e
00000350: 4f96 9e3d e850 18be e8e7 1bbd 4c4d edbc
00000360: a7e4 b2bc 5954 87bc 0273 c5bd 634c 29bb
00000370: 38c5 a13c d811 633c 807d 95bd 03bc 803d
00000380: 7d85 7d3c 2c30 c8bd 80c2 b6bc 075c a8bc
00000390: 7d30 5abc f754 673d 3409 63bd b12f d1bd
000003a0: 6339 203d 305a 3bbd 3b6e babd 83c0 1a3c
000003b0: c6c6 81ba 580e 94bd e5a2 87bd 1e6c acbc
000003c0: 056d 46bd 90db b9bc 2adb cfbd 19aa 583c
000003d0: 4783 94bd e097 08be bad9 94bd bca3 263c
000003e0: 4523 793d 90fa 8f3d 7415 d3bb 01a4 a0bd
000003f0: c095 cf3d dda3 ccbc f059 41bd 55fc babd

conv1.conv2d.bias f4 [8]
0.115052186 -0.007826945 -0.030023027 -0.14565256 0.07636631 0.016268967 -0.039405715 0.013213018
00000000: 7ba0 eb3d 963c 00bc daf2 f5bc f225 15be
00000010: f165 9c3d 7f46 853c e367 21bd 6a7b 583c

in1.weight f4 [8]
0.9938143 1.0118207 1.1575327 0.80217427 0.9965519 1.0836157 0.9483826 1.0971012
00000000: 9d6a 7e3f 5783 813f 082a 943f 4b5b 4d3f
00000010: 061e 7f3f ebb3 8a3f 34c9 723f d06d 8c3f

in1.bias f4 [8]
1.253513 -0.32960504 0.52896 0.8694171 0.9824959 1.0606456 0.09171837 1.036921
00000000: 1d73 a03f fec1 a8be ec69 073f 1e92 5e3f
00000010: da84 7b3f 3cc3 873f d7d6 bb3d d4b9 843f

conv2.conv2d.weight f4 [16, 8, 3, 3]
0.14739546 0.21186909 0.09090268 0.15167035 0.13234231 0.013149986 0.19027793 0.06556674
-0.14434901 -0.004182403 0.0444866 0.0990997 0.09226078 0.021601925 0.1629646 0.2694988
0.2601633 0.37252206 -0.0692773 0.035449002 -0.061034404 0.0361724 -0.019129632 -0.06311873
-0.22780617 0.037273146 -0.120451674 -0.10555602 -0.03710368 0.092987895 -0.073369354 0.02618223
0.07230817 0.18582776 0.17495088 0.16889557 0.035880953 -0.10449598 -0.20042065 0.005305624
-0.24639183 -0.21281105 0.114219435 -0.1647571 -0.014447164 -0.21389334 -0.39579436 -0.25015736
-0.12428638 -0.30516416 -0.16928878 -0.17474693 -0.24855663 -0.01014535 -0.113027684 0.012775887
-0.061086528 -0.14235374 -0.099746354 0.017017461 -0.010826729 -0.094520524 0.033348363 0.028602036
-0.07507447 0.050090212 -0.011362465 -0.04686156 -0.025807854 -0.018037764 0.13017996 0.14846238
-0.06894595 -0.025617456 0.14881392 -0.07599151 -0.056114253 0.09018901 -0.22615388 -0.0010008294
0.04320879 0.19463743 0.21923983 0.34296 0.16678043 0.1261004 0.25022915 0.23495674
0.11775309 0.25509006 -0.04915558 0.023420272 0.043971837 -0.056481354 0.08832007 0.0015167976
0.09181592 0.14595856 0.011219089 -0.18960378 0.10389496 -0.06489889 -0.10165491 0.05064474
-0.08017558 -0.040083397 -0.05714187 -0.043932166 -0.065752394 -0.17988895 0.12554704 0.058361128
0.017058376 0.04330921 -0.0781315 0.097272195 0.095517725 -0.1841346 -0.11984792 -0.272184
-0.021403585 -0.16002092 -0.16170546 -0.2220212 -0.0410776 -0.29229575 -0.116507255 -0.08860974
-0.15075198 -0.08321068 -0.0477378 -0.13343766 -0.1096684 -0.0500877 -0.12309463 0.10824852
0.21543467 0.20670034 0.14581819 0.060885735 0.23080191 0.07314494 -0.012041762 0.038137596
0.11470503 -0.08514395 -0.16336599 0.030451661 0.003594016 -0.17261869 -0.03978329 -0.08364773
-0.17007668 0.12515558 -0.060881965 -0.04436687 -0.032079253 0.045331303 -0.08544715 -0.1820613
-0.234928 -0.17716394 -0.118429326 -0.12699309 -0.11390898 -0.0063343877 -0.028545491 -0.06247889
-0.19001216 0.0126178 -0.14395408 0.011012389 0.13503595 0.045233913 0.026954098 -0.1563578
-0.04142211 0.028956449 -0.073318414 -0.06997249 0.03772898 -0.081357956 -0.012310792 -0.00994213
-0.04146636 -0.038711738 0.09901611 0.072911814 -0.0131996535 -0.20407979 -0.29876184 -0.38914248
-0.033704158 -0.14414792 -0.27118433 -0.062130675 0.043145303 -0.01912133 -0.10767561 -0.22343189
-0.08250432 -0.058562465 0.015499392 -0.0944297 -0.1904332 -0.027480682 -0.07481045 -0.02417739
0.09024868 0.10285232 0.061311744 -0.04007508 -0.06258279 -0.18678336 -0.05136037 -0.19637457
-0.11655282 0.10092062 0.09849072 -0.10806608 0.045207005 0.2616041 0.1739364 0.44737065
0.16136375 -0.045755696 -0.014163412 0.15444586 -0.20072111 -0.1458911 0.14592469 -0.09874455
0.0038032164 0.1098611 0.06720701 0.081822746 0.092713475 0.15247187 0.0609762 -0.07231574
0.21406084 0.01686976 -0.02534341 0.10742938 0.24302931 0.063425176 0.025306446 0.3626363
0.15030172 0.061836753 0.03451988 0.24859808 -0.1051652 -0.029557748 -0.03569489 -0.17453834
00000000: d6ee 163e 36f4 583e 2f2b ba3d 794f 1b3e
00000010: be84 073e 0a73 573c 38d8 423e db47 863d
00000020: 3ad0 13be 8a0c 89bb 9537 363d c9f4 ca3d
00000030: 38f3 bc3d 85f6 b03c 31e0 263e bffb 893e
00000040: 2034 853e 36bb be3e 42e1 8dbd f932 113d
00000050: 36ff 79bd 8329 143d bfb5 9cbc 6544 81bd
00000060: 0546 69be baab 183d 5eaf f6bd c12d d8bd
00000070: 07fa 17bd 7070 be3d ac42 96bd 1e7c d63c
00000080: 4e16 943d a249 3e3e 5326 333e f6f2 2c3e
00000090: e8f7 123d fd01 d6bd 123b 4dbe cdda ad3b
000000a0: 244e 7cbe 24eb 59be e1eb e93d 16b6 28be
000000b0: ccb3 6cbc db06 5bbe 8fa5 cabe a014 80be
000000c0: dc89 febd 7a3e 9cbe 0a5a 2dbe dcf0 32be
000000d0: a185 7ebe af38 26bc 0f7b e7bd f451 513c
000000e0: de35 7abd 2ec5 11be d147 ccbd 3468 8b3c
000000f0: 9862 31bc fa93 c1bd 4b98 083d d14e ea3c
00000100: a5c0 99bd 652b 4d3d a229 3abc e8f1 3fbd
00000110: fe6a d3bc efc3 93bc e54d 053e 8606 183e
00000120: 8933 8dbd b3db d1bc ad62 183e 70a1 9bbd
00000130: 0fd8 65bd 04b5 b83d e294 67be 432e 83ba
00000140: b3fb 303d 094f 473e 6880 603e 7498 af3e
00000150: 7dc8 2a3e 7720 013e 091e 803e 8098 703e
00000160: 8828 f13d 2a9b 823e 5d57 49bd dfdb bf3c
00000170: d01b 343d fe58 67bd 27e1 b43d 48cf c63a
00000180: fc09 bc3d 2976 153e 45d0 373c 7e27 42be
00000190: e1c6 d43d b6e9 84bd 7330 d0bd dc70 4f3d
000001a0: 1833 a4bd 7d2e 24bd 980d 6abd 37f2 33bd
000001b0: 31a9 86bd cf34 38be 678f 003e 140c 6f3d
000001c0: 02be 8b3c 0065 313d 6803 a0bd a536 c73d
000001d0: cc9e c33d c88d 3cbe d472 f5bd b45b 8bbe
000001e0: 9256 afbc 86dc 23be 1e96 25be 8759 63be
000001f0: fc40 28bd caa7 95be 5b9b eebd 0679 b5bd
00000200: ba5e 1abe 5c6a aabd b688 43bd e2a3 08be
00000210: d399 e0bd c328 4dbd 0a19 fcbd 66b1 dd3d
00000220: e89a 5c3e 41a9 533e 5d51 153e 5263 793d
00000230: 5657 6c3e 04cd 953d cf4a 45bc 2b36 1c3d
00000240: 79ea ea3d f45f aebd 6a49 27be c375 f93c
00000250: 9589 6b3b f4c2 30be cef3 22bd 804f abbd
00000260: 9528 2ebe c928 003e 5e5f 79bd 09ba 35bd
00000270: 8965 03bd 51ad 393d eafe aebd 476e 3abe
00000280: f790 70be 776a 35be 138b f2bd 7a0a 02be
00000290: 1c49 e9bd b290 cfbb 3cd8 e9bc dde9 7fbd
000002a0: 8c92 42be e4ba 4e3c b368 13be 4f6d 343c
000002b0: dd46 0a3e 3247 393d d7ce dc3c 421c 20be
000002c0: 3baa 29bd 1336 ed3c f727 96bd bd4d 8fbd
000002d0: b489 1a3d 009f a6bd 34b3 49bc 51e4 22bc
000002e0: a1d8 29bd 3390 1ebd f5c8 ca3d ca52 953d
000002f0: 5c43 58bc 4bfa 50be 50f7 98be af3d c7be
00000300: 5f0d 0abd 839b 13be acd8 8abe bc7c 7ebd
00000310: 21b9 303d 56a4 9cbc 0885 dcbd 54cb 64be
00000320: 06f8 a8bd 32df 6fbd 29f1 7d3c 5c64 c1bd
00000330: ec00 43be 2b1f e1bc 3936 99bd a90f c6bc
00000340: 4dd4 b83d 3da4 d23d 0622 7b3d c425 24bd
00000350: 682b 80bd 2344 3fbe 405f 52bd 6a16 49be
00000360: 3fb3 eebd 78af ce3d 81b5 c93d c051 ddbd
00000370: fb2a 393d f9f0 853e 621c 323e c40d e53e
00000380: 8a3c 253e 536a 3bbd a80d 68bc 0e27 1e3e
00000390: d689 4dbe 7a64 15be 486d 153e 953a cabd
000003a0: 623f 793b dbfe e03d d4a3 893d af92 a73d
000003b0: 90e0 bd3d 9621 1c3e 2ec2 793d 461a 94bd
000003c0: c432 5b3e 7332 8a3c fc9c cfbc ef03 dc3d
000003d0: addc 783e 0fe5 813d 774f cf3c 77ab b93e
000003e0: b2e8 193e 8948 7d3d b864 0d3d 7f90 7e3e
000003f0: da60 d7bd 1723 f2bc ce34 12bd 2eba 32be

conv2.conv2d.bias f4 [16]
0.019729769 0.10662332 -0.15189776 -0.19476026 0.08912742 -0.005493508 -0.11674315 -0.054826356
0.06557145 -0.027538363 0.14708264 0.110684164 -0.0987456 0.2108593 0.002011688 0.014147926
00000000: 53a0 a13c 545d da3d 168b 1bbe 3c6f 47be
00000010: 7088 b63d e302 b4bb 0817 efbd 9a91 60bd
00000020: 534a 863d 2298 e1bc d59c 163e 61ae e23d
00000030: 223b cabd 80eb 573e 86d6 033b b4cc 673c

in2.weight f4 [16]
0.5463929 0.5638837 0.6074519 0.68561697 0.6081901 0.34251755 0.48879367 0.70743996
0.6308114 0.42562386 0.5132551 0.9619023 0.7735528 0.52976316 0.59883094 0.723432
00000000: 68e0 0b3f af5a 103f f881 1b3f 9884 2f3f
00000010: 59b2 1b3f 765e af3e 2a43 fa3e c91a 353f
00000020: db7c 213f 5feb d93e b064 033f 3b3f 763f
00000030: 8e07 463f 8f9e 073f fc4c 193f d732 393f

in2.bias f4 [16]
0.10686943 -0.23351084 -0.27194244 0.07036525 -0.046216406 0.1022034 -0.002131783 0.36153033
-0.17243525 -0.30467442 0.033285834 0.35901973 -0.11887362 -0.22213131 0.0059687183 -0.29590788
00000000: 5cde da3d 771d 6fbe 0a3c 8bbe a81b 903d
00000010: 6a4d 3dbd 0450 d13d 62b5 0bbb 811a b93e
00000020: de92 30be 49fe 9bbe ba56 083d 6fd1 b73e
00000030: 0374 f3bd 6476 63be 3d95 c33b 3d81 97be

conv3.conv2d.weight f4 [32, 16, 3, 3]
-0.062273145 0.047821067 -0.041761566 -0.027091157 -0.05493376 0.046990532 -0.022262927 -0.048788745
0.03344341 -0.08820046 -0.050394036 -0.029303027 -0.10773371 -0.011023096 -0.03446872 -0.046582565
-0.20152898 -0.11884844 0.009925215 -0.10782004 -0.17712177 -0.030367132 0.04450886 -0.094464034
0.15683815 0.12842262 0.13910319 -0.16309689 -0.21756263 0.148451 -0.15436018 -0.15907986
0.20785075 0.05210166 0.031690247 0.14121996 -0.11649133 0.03782829 -0.033965684 -0.08532543
0.07186516 0.10184362 0.024441717 -0.01120031 0.09890098 -0.050215077 -0.054277893 0.04444117
0.011855152 0.020397952 0.06102872 -0.2049947 -0.17862703 0.0018922917 -0.005450107 -0.037824214
-0.00012179464 0.134295 0.11448799 0.15470077 0.008671312 0.025753157 0.10228201 -0.19173662
-0.27696106 -0.3041193 -0.04875466 -0.095978834 -0.24551512 -0.04373085 -0.06284729 -0.071368575
-0.24932154 -0.19680676 -0.06815672 -0.17097805 -0.19884449 -0.14344853 -0.15261862 -0.106551945
-0.13876246 0.10612857 0.007895325 0.09624373 -0.016924093 -0.027164372 -0.061653674 -0.026779756
-0.054023303 -0.08022846 -0.076001994 0.08301759 0.07256492 0.027014347 -0.009205534 0.023890505
-0.08454958 -0.11766098 -0.102571115 0.048016682 0.13396646 0.007584961 -0.0916535 0.088825256
0.10213839 -0.09276836 -0.10472001 -0.086542554 -0.06998841 -0.11515534 -0.20085901 -0.04305603
0.0395391 -0.036295418 -0.1649364 -0.028299194 0.021853276 -0.12250486 -0.15113904 -0.15628186
-0.14737774 -0.076362215 -0.15178499 -0.07710447 -0.008497108 -0.00385797 -0.101877145 -0.10036331
-0.10735783 -0.15112852 -0.040783282 -0.0804603 -0.09175596 -0.097589135 -0.06147628 -0.116635345
-0.28420186 -0.1273381 -0.08888418 -0.122433685 -0.1545162 -0.153385 -0.15879491 -0.28577492
-0.098239996 -0.06271622 0.16392417 0.11071711 -0.0009008435 0.020690707 0.085690506 0.058443207
-0.018669998 -0.010970574 -0.074668415 0.04807231 0.108370714 0.06737898 0.021232044 0.15325043
-0.028258838 -0.09664398 -0.1273228 -0.16716357 0.11051657 -0.04812761 -0.17804387 -0.10385773
0.08745936 -0.07034677 -0.1912461 -0.034524098 0.059862718 0.09523571 -0.12356314 0.16874926
0.03703058 -0.14049211 -0.09377976 -0.065015525 0.057897627 0.13341829 -0.2835933 0.087429486
0.09542748 -0.065344274 -0.03867948 0.031252723 0.07044649 -0.17202522 -0.114911966 0.17051291
0.02206089 0.001715765 -0.03651179 0.013495843 -0.008329235 -0.027980095 0.14514537 0.18499506
0.042868294 0.07463371 0.16282505 -0.010984983 -0.082649924 0.081434265 0.0392919 -0.13235189
-0.19417436 -0.028069364 -0.1713943 -0.51804626 -0.15304206 0.15150751 -0.06746025 -0.13503382
-0.10931927 -0.048493538 0.106699586 -0.028016297 -0.048553538 0.010159956 0.11071758 -0.026269877
-0.15405126 -0.13644992 -0.0743033 -0.085658856 -0.2173766 -0.11056975 -0.09212011 -0.0967874
-0.13740768 -0.10573979 -0.06843111 -0.31434938 -0.20010419 0.12310323 -0.08147115 -0.11993416
0.1430891 0.04842208 0.06949879 -0.09099955 -0.22563359 -0.14323038 0.25172856 0.1120767
-0.16120458 0.06627654 0.11991543 -0.022787748 -0.0051755775 -0.15224013 -0.03400799 0.060849734
00000000: 2012 7fbd 06e0 433d 2d0e 2bbd 46ee ddbc
00000010: 3902 61bd 2579 403d be60 b6bc b5d6 47bd
00000020: f5fb 083d 71a2 b4bd fa69 4ebd e70c f0bc
00000030: 7ea3 dcbd 379a 34bc 132f 0dbd 5ccd 3ebd
00000040: 9d5d 4ebe d066 f3bd 5e9d 223c c1d0 dcbd
00000050: 695f 35be 7ec4 f8bc ec4e 363d 5c76 c1bd
00000060: 2e9a 203e 3881 033e 1171 0e3e df02 27be
00000070: bdc8 5ebe 8a03 183e 9810 1ebe d5e5 22be
00000080: d4d6 543e 8d68 553d a2cd 013d f79b 103e
00000090: 0293 eebd d6f1 1a3d 9a1f 0bbd 19bf aebd
000000a0: 0a2e 933d 6393 d03d ff39 c83c 8181 37bc
000000b0: 998c ca3d 53ae 4dbd 7f52 5ebd f207 363d
000000c0: 1d3c 423c 9b19 a73c 40f9 793d 21ea 51be
000000d0: 01ea 36be c606 f83a d096 b2bb 90ed 1abd
000000e0: 006c ffb8 a184 093e ae78 ea3d e169 1e3e
000000f0: 1e12 0e3c 49f8 d23c 3b79 d13d 9b56 44be
00000100: d7cd 8dbe 86b5 9bbe f7b2 47bd 8d90 c4bd
00000110: 5168 7bbe 1f1f 33bd 14b6 80bd b029 92bd
00000120: 254e 7fbe b687 49be c095 8bbd df14 2fbe
00000130: e49d 4bbe 2ce4 12be 0e48 1cbe e837 dabd
00000140: bf17 0ebe f059 d93d 655b 013c 6f1b c53d
00000150: 65a4 8abc d187 debc 9088 7cbd 3861 dbbc
00000160: 8a47 5dbd d24e a4bd efa6 9bbd 2005 aa3d
00000170: eb9c 943d 314d dd3c cfd2 16bc 05b6 c33c
00000180: 5528 adbd 3df8 f0bd ce10 d2bd 24ad 443d
00000190: 812e 093e 448b f83b d5b4 bbbd 04ea b53d
000001a0: ef2d d13d 57fd bdbd 7277 d6bd 393d b1bd
000001b0: 1556 8fbd 90d6 ebbd fcad 4dbe 855b 30bd
000001c0: c0f3 213d 81aa 14bd 16e5 28be b6d3 e7bc
000001d0: a405 b33c d4e3 fabd 31c4 1abe 5a08 20be
000001e0: 31ea 16be cb63 9cbd 866d 1bbe f3e8 9dbd
000001f0: 7437 0bbc ffd5 7cbb f7a4 d0bd 478b cdbd
00000200: 6cde dbbd 6fc1 1abe 5f0c 27bd 5fc8 a4bd
00000210: 8cea bbbd d0dc c7bd 8dce 7bbd 83de eebd
00000220: e882 91be eb64 02be e908 b6bd 83be fabd
00000230: 7f39 1ebe f510 1dbe 229b 22be 1751 92be
00000240: 0d32 c9bd 5d71 80bd bddb 273e a7bf e23d
00000250: 9526 6cba 8f7f a93c 817e af3d 2562 6f3d
00000260: d3f1 98bc ecbd 33bc c1eb 98bd 78e7 443d
00000270: 77f1 dd3d fefd 893d d3ee ad3c aeed 1c3e
00000280: 147f e7bc 47ed c5bd e860 02be ed2c 2bbe
00000290: 8356 e23d 7521 45bd 2251 36be 5db3 d4bd
000002a0: e51d b33d f811 90bd 05d6 43be 2469 0dbd
000002b0: 9c32 753d f10a c33d ac0e fdbd 9bcc 2c3e
000002c0: 61ad 173d 2add 0fbe 9a0f c0bd dc26 85bd
000002d0: 1026 6d3d ce9e 083e 2433 91be 3b0e b33d
000002e0: 7c6f c33d 38d3 85bd 606e 1ebd db02 003d
000002f0: 4046 903d 6127 30be f756 ebbd f09a 2e3e
00000300: 0ab9 b43c 85e3 e03a 638d 15bd ab1d 5d3c
00000310: 5877 08bc 8336 e5bc fda0 143e 586f 3d3e
00000320: aa96 2f3d 8fd9 983d 9cbb 263e 5cfa 33bc
00000330: 5d44 a9bd 02c7 a63d 8bf0 203d 4187 07be
00000340: a5d5 46be b9f1 e5bc fd81 2fbe ae9e 04bf
00000350: 0fb7 1cbe c924 1b3e 9928 8abd 4e46 0abe
00000360: c8e2 dfbd 29a1 46bd 5085 da3d 6f82 e5bc
00000370: 13e0 46bd f275 263c e6bf e23d ed33 d7bc
00000380: 9dbf 1dbe 87b9 0bbe 542c 98bd e96d afbd
00000390: f997 5ebe 6572 e2bd 78a9 bcbd 7938 c6bd
000003a0: 99b4 0cbe 1a8e d8bd 9c25 8cbd 67f2 a0be
000003b0: 1de8 4cbe 8c1d fc3d 59da a6bd 0aa0 f5bd
000003c0: f385 123e 3b56 463d 6255 8e3d f95d babd
000003d0: 7e0c 67be fcaa 12be 91e2 803e 7888 e53d
000003e0: d012 25be ffbb 873d 3996 f53d 5fad babc
000003f0: e497 a9bb d6e4 1bbe f64b 0bbd 923d 793d

conv3.conv2d.bias f4 [32]
0.0026617406 -0.05965279 0.008263212 0.09874811 0.062915884 -0.17673372 -0.034937035 0.09126961
0.14822952 0.07136655 -0.12050582 0.15086654 0.07092793 0.01650684 0.032470156 -0.031822883
-0.1490686 -0.050014835 -0.12434345 -0.020937907 0.059699427 -0.10502564 0.0062047755 0.12396014
0.019944707 0.029415416 0.21140224 0.03344785 -0.14214012 -0.076699205 -0.15378709 0.13725246
00000000: 9970 2e3b 7c56 74bd 6c62 073c 733c ca3d
00000010: 0bda 803d aff9 34be 231a 0fbd 90eb ba3d
00000020: 7bc9 173e a028 923d c1cb f6bd c27c 1a3e
00000030: aa42 913d 5a39 873c 6dff 043d b658 02bd
00000040: 70a5 18be 5bdc 4cbd c7a7 febd f985 abbc
00000050: 6387 743d af17 d7bd 6e51 cb3b d0de fd3d
00000060: 1563 a33c 99f8 f03c d479 583e 9d00 093d
00000070: 2e8d 11be 7914 9dbd 5d7a 1dbe e98b 0c3e

in3.weight f4 [32]
0.749565 0.5653016 0.5869184 0.4535185 0.5405684 0.59630233 0.5181819 0.69262093
0.39323345 0.68658966 0.4807743 0.65456384 0.4991375 0.64617187 0.6248605 0.8035223
0.7112125 0.5045478 0.6101306 0.8086655 0.53484124 0.64689547 0.7036772 0.70505834
0.53418905 0.53954047 0.41549718 0.7208572 0.72873724 0.5702834 0.65609133 0.49773133
00000000: 7ee3 3f3f 9bb7 103f 4940 163f 9433 e83e
00000010: b162 0a3f 45a7 183f 92a7 043f 9b4f 313f
00000020: e555 c93e 57c4 2f3f 0d28 f63e 7f91 273f
00000030: f38e ff3e 856b 253f dcf6 1f3f a3b3 4d3f
00000040: 0612 363f 0b2a 013f 8531 1c3f b404 4f3f
00000050: 5beb 083f f19a 253f 3024 343f b47e 343f
00000060: 9dc0 083f 531f 0a3f 0cbc d43e 198a 383f
00000070: 868e 3a3f 18fe 113f 9af5 273f a4d6 fe3e

in3.bias f4 [32]
-0.29701656 -0.25659254 -0.14133088 -0.09516803 -0.1417438 -0.063722014 -0.13435754 0.037420593
0.01632184 -0.0308945 -0.13552628 -0.299726 -0.3266589 -0.13527454 -0.17307828 -0.44613788
-0.22699699 -0.2481498 -0.34754312 -0.43055454 -0.15645234 -0.15762207 -0.19912161 -5.827669e-05
-0.2498428 -0.1805439 -0.17235154 -0.29462716 -0.18034072 -0.14609393 -0.23642182 -0.20913732
00000000: 8e12 98be 1960 83be 0bb9 10be 75e7 c2bd
00000010: 4925 11be b080 82bd 0695 09be 5646 193d
00000020: 61b5 853c 7616 fdbc 67c7 0abe b075 99be
00000030: d63f a7be 6985 0abe 6f3b 31be 2f6c e4be
00000040: e671 68be fb1a 7ebe 2cf1 b1be a571 dcbe
00000050: 0b35 20be ae67 21be 89e6 4bbe 1f6e 74b8
00000060: cad6 7fbe 80e0 38be ec7c 30be 5fd9 96be
00000070: 3dab 38be a699 15be 9018 72be 1828 56be

resnets.0.conv1.conv2d.weight f4 [32, 32, 3, 3]
-0.33164832 -0.17195322 -0.086804755 -0.2834876 -0.12028588 -0.109298185 -0.34023646 -0.08026078
-0.21182862 -0.104106985 -0.2778239 -0.10987377 -0.15261017 -0.28347933 -0.29296726 -0.18208313
-0.030785128 -0.20480952 -0.090228304 -0.17883055 -0.010488007 -0.116656415 -0.18692428 0.09425591
-0.1819763 -0.19319989 -0.04254945 -0.08097879 -0.08349985 0.013766118 -0.118365094 0.00861607
0.03222336 -0.04801508 0.11515084 -0.01819318 -0.16117844 -0.20043206 -0.09534166 -0.03418441
-0.21256866 -0.12615733 0.038919963 0.014384661 -0.06942 -0.0145134805 0.13785738 -0.02908521
-0.15743299 -0.13926683 -0.16603394 -0.2859269 -0.16613154 -0.13303824 -0.024482878 -0.15601857
-0.13106507 0.0152734155 -0.13928126 -0.029098118 0.045644302 -0.11135903 -0.027202085 -0.09475794
-0.10696208 -0.027656196 -0.118279725 -0.035622712 -0.058278263 -0.26147583 -0.057144582 -0.03256208
0.050898623 -0.11806061 0.047071896 -0.018123044 -0.042767704 0.13837971 -0.050350625 -0.14651929
0.125881 -0.07665186 0.08813927 0.07497648 -0.099825434 -0.009998581 0.12424456 -0.07821271
0.031550124 0.05932884 -0.06477193 0.12512663 0.06329609 0.09691036 0.20488745 -0.11669545
-0.23135202 0.09917067 -0.028811866 -0.045209654 -0.010164834 0.010643695 -0.0019848812 -0.031350657
-0.06671439 0.17943174 0.0062228874 0.0935043 0.099358715 0.06268235 0.063228965 0.22490196
0.10654756 -0.07794266 0.06999586 0.06915366 0.008515199 0.053046618 -0.016979797 -0.020555757
-0.023821022 0.016004704 -0.03406905 -0.10196937 0.024103606 -0.028306743 -0.15319726 -0.18739063
-0.14943637 -0.0037164025 -0.2826548 -0.16235232 -0.11895582 -0.15023762 -0.040088493 -0.4699136
-0.17546615 -0.1647818 -0.23853001 -0.09922974 -0.105760284 -0.3211396 -0.14179367 -0.11901303
-0.06031604 -0.15179391 -0.25856534 -0.1498713 -0.19441411 0.006274694 -0.15725432 -0.14987111
0.038680635 -0.17211883 -0.25234663 0.0821623 -0.11053185 -0.19703457 -0.055392202 -0.092647344
-0.11754842 0.101112254 -0.1578746 -0.15721762 0.009550773 0.118019074 -0.042521987 -0.19830446
0.20060545 0.1906619 0.058541343 -0.2885808 -0.22888029 -0.068804525 -0.048101347 0.0142989345
0.059478436 0.027633484 0.20657094 0.004712113 0.021719465 0.273921 0.04691782 -0.0048252116
0.03918655 0.04318407 -0.04982434 -0.1531434 0.10567585 0.009001736 0.044421066 -0.08792462
-0.12635778 -0.2364636 0.10078315 0.15160772 -0.089071326 0.03892196 -0.056167983 -0.213173
0.064429335 -0.09418577 -0.16576187 -0.14450449 -0.111641094 -0.11803976 -0.049805246 0.018055253
-0.22524592 0.037723187 -0.22490476 -0.18363991 0.04979232 0.09599276 -0.031048361 0.18052143
-0.013338202 -0.07595769 -0.16905369 0.06825514 -0.114365384 -0.12737952 -0.049559288 -0.10184222
-0.171385 -0.17346106 -0.19109397 -0.10756522 -0.12647802 -0.06336632 -0.17543387 -0.19388977
-0.12573335 -0.19665629 0.06831997 0.065733954 -0.10888965 -0.24897407 0.15404221 0.1694262
-0.0992793 -0.17101467 -0.09259692 -0.06731238 -0.120800205 -0.13265035 -0.08840758 -0.026800416
0.07443278 -0.10412343 -0.0912886 0.17495847 -0.17940636 -0.099911496 0.043990072 -0.10766885
00000000: cfcd a9be 8114 30be b1c6 b1bd 4925 91be
00000010: 7258 f6bd bad7 dfbd 7933 aebe c45f a4bd
00000020: 9ae9 58be 0b36 d5bd ef3e 8ebe 8005 e1bd
00000030: d745 1cbe 3424 91be ceff 95be 0074 3abe
00000040: 1831 fcbc 96b9 51be 9ec9 b8bd 5b1f 37be
00000050: e4d5 2bbc 8fe9 eebd 1469 3fbe 3e09 c13d
00000060: ff57 3abe 31d6 45be 5548 2ebd 35d8 a5bd
00000070: f801 abbd 498b 613c 6669 f2bd 6b2a 0d3c
00000080: a4fc 033d 76ab 44bd 34d4 eb3d dd09 95bc
00000090: f60b 25be 103e 4dbe 7d42 c3bd f404 0cbd
000000a0: 99ab 59be 632f 01be 8a6a 1f3d a4ad 6b3c
000000b0: 132c 8ebd f3c9 6dbc 7c2a 0d3e 1b44 eebc
000000c0: 1d36 21be f79b 0ebe cd04 2abe 0365 92be
000000d0: 631e 2abe 2d3b 08be 5190 c8bc 55c3 1fbe
000000e0: ec35 06be 593d 7a3c bf9f 0ebe 2d5f eebc
000000f0: 85f5 3a3d 3410 e4bd e8d6 debc 7310 c2bd
00000100: ef0e dbbd 3f8f e2bc a43c f2bd 1fe9 11bd
00000110: 30b5 6ebd 29e0 85be 7010 6abd d15f 05bd
00000120: 137b 503d c3c9 f1bd 76ce 403d c776 94bc
00000130: 302d 2fbd 69b3 0d3e 753c 4ebd 2709 16be
00000140: f3e6 003e a6fb 9cbd 5d82 b43d 458d 993d
00000150: 4771 ccbd 17d1 23bc ef73 fe3d fc2d a0bd
00000160: b43a 013d cc02 733d 25a7 84bd 3221 003e
00000170: 61a1 813d f078 c63d 04ce 513e 06fe eebd
00000180: 8be7 6cbe fe19 cb3d dd06 ecbc c22d 39bd
00000190: 678a 26bc e462 2e3c c814 02bb 8c69 00bd
000001a0: 8ea1 88bd f4bc 373e 5de9 cb3b 2f7f bf3d
000001b0: 957c cb3d 9b5f 803d 307e 813d b34c 663e
000001c0: 9b35 da3d 67a0 9fbd fd59 8f3d 6fa0 8d3d
000001d0: 5583 0b3c 6947 593d 3719 8bbc 8c64 a8bc
000001e0: 4e24 c3bc 4c1c 833c fd8b 0bbd 51d5 d0bd
000001f0: ed74 c53c 8be3 e7bc bedf 1cbe 54e3 3fbe
00000200: d905 19be e38e 73bb 21b8 90be b03f 26be
00000210: 1c9f f3bd e4d7 19be d533 24bd 8498 f0be
00000220: 66ad 33be 8fbc 28be 3641 74be f638 cbbd
00000230: d998 d8bd 696c a4be 5c32 11be 1abd f3bd
00000240: f40d 77bd dd6f 1bbe ad62 84be dd77 19be
00000250: 7e14 47be f39b cd3b 4707 21be d077 19be
00000260: 966f 1e3d eb3f 30be 9433 81be b544 a83d
00000270: 865e e2bd 6ec3 49be efe2 62bd e4bd bdbd
00000280: 3abd f0bd f113 cf3d e1a9 21be a8fd 20be
00000290: d87a 1c3c fcb3 f13d 892b 2ebd 5310 4bbe
000002a0: 846b 4d3e e03c 433e 0cc9 6f3d ddc0 93be
000002b0: 985f 6abe 63e9 8cbd eb05 45bd 1446 6a3c
000002c0: a99f 733d 9e5f e23c 5587 533e 1268 9a3b
000002d0: 05ed b13c 603f 8c3e e62c 403d cf1c 9ebb
000002e0: 1382 203d c8e1 303d 9b14 4cbd a0d1 1cbe
000002f0: 946c d83d 047c 133c ddf2 353d d311 b4bd
00000300: ef63 01be 8423 72be 6567 ce3d 0e3f 1b3e
00000310: 076b b6bd a26c 1f3d 6610 66bd 064a 5abe
00000320: 87f3 833d 78e4 c0bd 7bbd 29be fcf8 13be
00000330: 16a4 e4bd d4be f1bd 9600 4cbd 9ce8 933c
00000340: dea6 66be a183 1a3d 6f4d 66be 1a0c 3cbe
00000350: 08f3 4b3d da97 c43d 2259 febc 9cda 383e
00000360: 7988 5abc b58f 9bbd 691c 2dbe 5ac9 8b3d
00000370: 6638 eabd c76f 02be aefe 4abd a792 d0bd
00000380: 8d7f 2fbe c79f 31be 23ae 43be 274b dcbd
00000390: 7483 01be 34c6 81bd f0a4 33be 0a8b 46be
000003a0: 3ec0 00be 4460 49be 57eb 8b3d 869f 863d
000003b0: 8901 dfbd 0ff3 7ebe 3ebd 1d3e 107e 2d3e
000003c0: f252 cbbd 781e 2fbe 74a3 bdbd 13db 89bd
000003d0: 1966 f7bd 7ed5 07be 090f b5bd 8c8c dbbc
000003e0: 3770 983d aa3e d5bd 84f5 babd 5028 333e
000003f0: 4db6 37be 669e ccbd ef2e 343d 7c81 dcbd

resnets.0.conv1.conv2d.bias f4 [32]
-0.030207565 -0.06044188 0.112711184 -0.025938934 0.10669059 0.09711902 -0.025991213 -0.05666884
0.10802402 -0.013158464 0.015370348 -0.05994455 -0.04110029 -0.0072838403 0.10056594 -0.062068943
0.00020386209 0.07209273 0.049486123 0.03244515 -0.010578338 -0.092194505 0.04910601 0.07166852
-0.09283178 0.029210052 -0.06689616 -0.13475206 -0.061874576 -0.08350522 -0.10301844 0.056579396
00000000: db75 f7bc e891 77bd 1fd5 e63d e37d d4bc
00000010: 9980 da3d 56e6 c63d 86eb d4bc 961d 68bd
00000020: b33b dd3d 9996 57bc e9d3 7b3c 6b88 75bd
00000030: c758 28bd 48ad eebb 84f5 cd3d 013c 7ebd
00000040: d0c3 5539 5aa5 933d f6b1 4a3d 35e5 043d
00000050: c450 2dbc 79d0 bcbd 6223 493d f2c6 923d
00000060: 971e bebd eb49 ef3c db00 89bd 72fc 09be
00000070: 3270 7dbd c904 abbd 55fb d2bd ccbf 673d

resnets.0.in1.weight f4 [32]
0.8683098 0.8870393 1.1170497 1.0530317 0.83515096 0.94618446 0.87763166 0.946587
1.0200869 0.9231116 0.9336372 1.0612267 0.9665567 0.92181915 0.88812953 0.9109906
0.83831334 0.8665151 0.9961127 0.87531245 0.85882235 0.8229242 0.8979289 0.966929
0.8835787 0.99691147 1.0897887 1.033145 0.99061704 1.0223697 0.7779955 1.0911679
00000000: 8d49 5e3f 0215 633f 7cfb 8e3f bec9 863f
00000010: 74cc 553f 2539 723f 78ac 603f 8753 723f
00000020: 3592 823f 0b51 6c3f d902 6f3f 47d6 873f
00000030: 4370 773f 57fc 6b3f 755c 633f ae36 693f
00000040: b49b 563f efd3 5d3f 3e01 7f3f 7a14 603f
00000050: c8db 5b3f 29ab 523f abde 653f a988 773f
00000060: 3732 623f 9735 7f3f 327e 8b3f 183e 843f
00000070: 1499 7d3f 03dd 823f b72a 473f 64ab 8b3f

resnets.0.in1.bias f4 [32]
-0.21354084 -0.13672155 0.0068547144 -0.3288054 -0.26581192 -0.10224489 -0.4120661 -0.56040573
-0.10254945 -0.47407156 -0.30190742 -0.28826752 -0.5450302 -0.4689834 -0.41294783 -0.19157897
-0.28005973 -0.14273699 -0.11005641 -0.1697874 -0.30195507 -0.22244982 -0.24496716 -0.17311676
-0.32450828 -0.36922863 -0.540811 -0.19297993 -0.6528267 -0.31191546 -0.40184516 -0.43024638
00000000: 73aa 5abe bc00 0cbe 839d e03b 2e59 a8be
00000010: 8018 88be c565 d1bd 54fa d2be c076 0fbf
00000020: 7205 d2bd 82b9 f2be 9c93 9abe cd97 93be
00000030: 1987 0bbf 981e f0be e66d d3be 472d 44be
00000040: fd63 8fbe a529 12be 4165 e1bd c0dc 2dbe
00000050: db99 9abe e3c9 63be acd8 7abe 8545 31be
00000060: f325 a6be 890b bdbe 9772 0abf 889c 45be
00000070: a71f 27bf 62b3 9fbe a6be cdbe 4149 dcbe

resnets.0.conv2.conv2d.weight f4 [32, 32, 3, 3]
0.18006153 0.010690962 0.04409353 0.069801934 -0.04873258 0.13537978 0.10965901 0.08967054
0.23357159 0.06819863 0.028885432 0.03573109 0.10949245 0.060601737 0.066810966 0.040090412
0.10399934 0.01958814 -0.022811035 0.020284014 0.05122212 -0.006619671 0.055874247 0.04444839
-0.075800136 -0.018566577 0.06892674 0.25482726 0.1407116 0.08886211 0.15744114 0.034931652
0.2342345 0.014569279 0.06503043 0.04879501 0.13737737 0.15041062 0.03424104 0.023685059
0.13398014 0.1275048 0.066218846 0.06445332 0.08130044 -0.19395469 -0.053395905 0.057609346
-0.047609914 0.004977485 0.06431692 -0.13882776 0.03294467 -0.09131493 0.023818484 -0.008950102
0.115997985 0.057375547 0.022884542 -0.06537116 0.07597453 0.05354591 0.0061011775 -0.095612
0.05450691 -0.1608955 -0.0687189 0.06494052 0.018091606 -0.24022432 -0.04502587 -0.08448897
0.02056226 -0.10384733 -0.22438641 -0.12487638 -0.16978902 -0.24185768 -0.061753124 -0.09584027
-0.18067904 0.0876296 0.09787177 0.1493581 0.08293197 0.157319 0.008442607 0.07256002
0.13249084 0.023176394 -0.10799327 0.010431188 -0.019955754 -0.01815083 -0.018917678 0.043528188
0.021894805 0.08486271 0.07772374 -0.07049623 -0.01611918 -0.17198035 0.017532704 -0.06207215
-0.09618858 -0.0085377125 -0.1910062 -0.2981431 0.35494888 0.11975176 0.1558506 0.2324418
0.061073028 0.00023483174 0.26145044 0.082501546 -0.051279757 -0.009710703 -0.11534704 -0.07107992
-0.045766544 -0.14343981 -0.106705785 -0.08039247 0.014782745 -0.12029754 0.34591413 0.16787603
0.03058833 0.32440293 0.16350052 0.01968687 0.081761256 0.093897946 0.10685969 -0.08621999
-0.026895843 0.05495019 0.12537764 0.14598054 0.0180987 -0.027233237 0.059585407 0.101093754
-0.025692938 -0.004148063 -0.023837045 -0.111032516 0.09349465 0.03025906 -0.09444763 0.13122167
0.06401157 -0.09622742 0.085053846 0.017267106 -0.069678515 0.064713776 0.024946949 0.009308106
0.07637859 0.09420576 -0.1565664 -0.021410495 -0.046362318 -0.10835447 0.0541094 -0.049015313
-0.21542141 -0.06380648 -0.004127843 0.13223472 0.1763981 0.07829358 0.11323121 0.20822947
0.031249667 0.05317902 0.009589183 0.0071922177 -0.088418506 0.0829226 0.075931706 -0.009742356
0.009381308 -0.027929846 0.059181396 0.077389486 -0.12426555 0.168224 0.14596343 0.15089609
0.18946376 -0.04849622 0.034334507 0.10169583 -0.15914054 -0.0048767235 0.03950304 0.11121261
0.09467164 0.014722001 0.04054358 0.060522467 0.0077058715 -0.097527005 0.018375142 0.076153815
0.060157362 0.10248435 0.1341886 0.015386358 0.09781301 0.08047522 0.017900728 -0.010014071
0.12113982 0.011503637 0.017645074 0.08003934 0.050770324 -0.15757728 -0.0066184225 -0.07178077
-0.15809849 0.17058788 0.08292265 0.08791182 0.10637852 0.05133184 0.07383145 0.037816316
0.2122695 0.067570865 0.17661738 0.16697063 0.2105155 0.24986613 0.09518008 0.027022364
0.23923516 0.15712985 0.012126575 -0.14647534 -0.10395122 -0.04009016 -0.06538615 -0.014384111
-0.17585975 -0.043747187 -0.049692634 -0.15644655 -0.16570778 -0.049796786 -0.13892743 -0.22927639
00000000: 0d62 383e 2529 2f3c 6b9b 343d 51f4 8e3d
00000010: d09b 47bd ffa0 0a3e e794 e03d 30a5 b73d
00000020: 642d 6f3e b9ab 8b3d 24a1 ec3c c35a 123d
00000030: 943d e03d 8739 783d 30d4 883d d835 243d
00000040: 9bfd d43d 4f77 a03c 35de babc a92a a63c
00000050: 49ce 513d d3e9 d8bb 65dc 643d 840f 363d
00000060: 1a3d 9bbd ef18 98bc 7629 8d3d b878 823e
00000070: b416 103e 57fd b53d 4038 213e 7e14 0f3d
00000080: 2bdb 6f3e fcb3 6e3c ad2e 853d 47dd 473d
00000090: a7ac 0c3e 3e05 1a3e 5540 0c3d 2b07 c23c
000000a0: 1732 093e 9e90 023e bf9d 873d 1a00 843d
000000b0: d880 a63d 0f9c 46be aab5 5abd c7f7 6b3d
000000c0: 9d02 43bd 2c1a a33b 97b8 833d dd28 0ebe
000000d0: fef0 063d 5203 bbbd fb1e c33c 73a3 12bc
000000e0: 5a90 ed3d 9f02 6b3d 5d78 bb3c 51e1 85bd
000000f0: 8998 9b3d f552 5b3d 63ec c73b 39d0 c3bd
00000100: a342 5f3d cac1 24be 7fbc 8cbd 89ff 843d
00000110: d934 943c 5dfd 75be 0c6d 38bd 8e08 adbd
00000120: 2f72 a83c e9ad d4bd 8dc5 65be 30bf ffbd
00000130: 2cdd 2dbe 8aa9 77be d8f0 7cbd e747 c4bd
00000140: ed03 39be 2677 b33d ff70 c83d 54f1 183e
00000150: 3dd8 a93d 3b18 213e dc52 0a3c 599a 943d
00000160: aeab 073e 6cdc bd3c 932b ddbd 93e7 2a3c
00000170: 407a a3bc 0db1 94bc 3ff9 9abc 9d4a 323d
00000180: bc5c b33c 80cc ad3d a02d 9f3d 5460 90bd
00000190: 5f0c 84bc 9e1b 30be bfa0 8f3c 5e3f 7ebd
000001a0: 85fe c4bd c3e1 0bbc 2197 43be 36a6 98be
000001b0: dcbb b53e 6940 f53d 4d97 1f3e 3905 6e3e
000001c0: b627 7a3d 2a3d 7639 d5dc 853e 92f6 a83d
000001d0: b90a 52bd a419 1fbc 123b ecbd 5992 91bd
000001e0: b375 3bbd e3e1 12be 9088 dabd cfa4 a4bd
000001f0: 5433 723c 8f5e f6bd a81b b13e b2e7 2b3e
00000200: 6194 fa3c 2418 a63e ae6c 273e 5c46 a13c
00000210: 7272 a73d 914d c03d 41d9 da3d 1b94 b0bd
00000220: ac54 dcbc 7313 613d ff62 003e ec7b 153e
00000230: ba43 943c 3d18 dfbc d40f 743d 3e0a cf3d
00000240: ff79 d2bc 79ec 87bb e845 c3bc 0465 e3bd
00000250: 207a bf3d d9e1 f73c c26d c1bd f95e 063e
00000260: 7f18 833d e212 c5bd b630 ae3d bf73 8d3c
00000270: 9cb3 8ebd a888 843d 8b5d cc3c 0781 183c
00000280: 616c 9c3d f3ee c03d f152 20be 1065 afbc
00000290: 6ae6 3dbd f3e8 ddbd d1a1 5d3d 48c4 48bd
000002a0: 6e97 5cbe f9ac 82bd db42 87bb 8a68 073e
000002b0: b4a1 343e 6258 a03d c4e5 e73d 1b3a 553e
000002c0: 4dff ff3c 3ed2 593d f31b 1d3c b2ac eb3b
000002d0: c314 b5bd 53d3 a93d 1582 9b3d 679e 1fbc
000002e0: 0fb4 193c 22cd e4bc 3168 723d 617e 9e3d
000002f0: f07e febd ea42 2c3e 7077 153e 8184 1a3e
00000300: ca02 423e f9a3 46bd 57a2 0c3d e745 d03d
00000310: bdf5 22be eccc 9fbb f1cd 213d 70c3 e33d
00000320: 34e3 c13d 8c34 713c 0611 263d 68e6 773d
00000330: 8981 fc3b 3dbc c7bd 7787 963c 88f6 9b3d
00000340: 9167 763d 51e3 d13d bd68 093e 1017 7c3c
00000350: 3052 c83d 31d0 a43d 8ca4 923c 0f12 24bc
00000360: 2718 f83d c079 3c3c 678c 903c aaeb a33d
00000370: 8bf4 4f3d f05b 21be 5adf d8bb cc01 93bd
00000380: 92e4 21be 97ae 2e3e 5ad3 a93d 1d0b b43d
00000390: fbdc d93d 5641 523d f134 973d 48e5 1a3d
000003a0: 2d5d 593e 9862 8a3d 30db 343e 59fa 2a3e
000003b0: 6091 573e e8dc 7f3e c6ed c23d 015e dd3c
000003c0: 10fa 743e a6e6 203e 8bae 463c a2fd 15be
000003d0: 61e4 d4bd 9435 24bd 2ce9 85bd 56ab 6bbc
000003e0: 9414 34be 4030 33bd 818a 4bbd 8633 20be
000003f0: 4daf 29be b7f7 4bbd fe42 0ebe 6ec7 6abe

resnets.0.conv2.conv2d.bias f4 [32]
0.0295665 -0.12578613 -0.0181941 -0.11853134 0.13302979 -0.07701166 -0.045555603 -0.100821614
-0.06111508 0.05409808 0.15711007 0.13448796 0.066699125 0.10365857 -0.11689276 -0.029353509
-0.065440275 0.05736575 -0.009293386 -0.04321517 0.107261166 -0.10260092 -0.1061638 -0.088526785
-0.07693782 0.034096833 -0.075213075 -0.084723085 -0.021570956 0.15013418 -0.07137424 0.034295682
00000000: 7235 f23c 14ce 00be cb0b 95bc 8fc0 f2bd
00000010: f638 083e 4ab8 9dbd 8398 3abd 907b cebd
00000020: ce53 7abd f395 5d3d 76e1 203e 36b7 093e
00000030: 8d99 883d f24a d43d 7965 efbd c576 f0bc
00000040: 8d05 86bd 59f8 6a3d 4943 18bc 6402 31bd
00000050: beab db3d 6e20 d2bd 686c d9bd 884d b5bd
00000060: 9391 9dbd 1fa9 0b3d 5009 9abd 4c83 adbd
00000070: 93b5 b0bc c6bc 193e a82c 92bd a179 0c3d

resnets.0.in2.weight f4 [32]
0.5747567 0.5518715 0.43920064 0.6459911 0.6245009 0.6790926 0.553675 0.5126431
0.5457258 0.55760115 0.48540744 0.51315844 0.44816038 0.43283054 0.5429111 0.52150905
0.5632832 0.45593345 0.44020194 0.52250564 0.39986807 0.4425498 0.46365055 0.60132295
0.3695168 0.53727144 0.480563 0.5369401 0.5831854 0.59036434 0.4668745 0.544053
00000000: 4123 133f 7347 0d3f e8de e03e ac5f 253f
00000010: 4adf 1f3f 03d9 2d3f a5bd 0d3f 943c 033f
00000020: b0b4 0b3f f3be 0e3f 5387 f83e 5a5e 033f
00000030: 4775 e53e f79b dd3e 39fc 0a3f 9e81 053f
00000040: 5433 103f 1c70 e93e 2662 e13e eec2 053f
00000050: 82bb cc3e e395 e23e 9b63 ed3e 4df0 193f
00000060: 4e31 bd3e 9f8a 093f 5b0c f63e e874 093f
00000070: a34b 153f 1e22 173f 2d0a ef3e 0f47 0b3f

resnets.0.in2.bias f4 [32]
-0.07953814 0.012606256 -0.006777223 -0.26341158 0.21848476 -0.0036261082 -0.09548014 -0.086579464
-0.06921088 0.048870433 0.26948643 0.029966561 0.07176594 -0.031416163 -0.047721833 -0.056051802
-0.076974615 0.043738928 -0.00042464 -0.12212448 0.011682172 -0.1100472 -0.06482375 -0.17604071
-0.073089145 -0.1461021 0.051464576 -0.11472774 -0.11128755 0.13325587 -0.045639224 0.113999665
00000000: e4e4 a2bd 788a 4e3c 7813 debb e2dd 86be
00000010: 78ba 5f3e 00a4 6dbb 178b c3bd 9350 b1bd
00000020: 6fbe 8dbd 5d2c 483d 20fa 893e 6f7c f53c
00000030: 05fa 923d 3cae 00bd f877 43bd 9396 65bd
00000040: dea4 9dbd 9727 333d 37a2 deb9 661c fabd
00000050: 9566 3f3c 6d60 e1bd 50c2 84bd 0444 34be
00000060: c3af 95bd ca9b 15be 85cc 523d 61f6 eabd
00000070: baea e3bd 3a74 083e 32f0 3abd a878 e93d

resnets.1.conv1.conv2d.weight f4 [32, 32, 3, 3]
-0.07542143 0.053871505 -0.07000906 -0.23473163 -0.07314961 0.017156344 -0.2522158 -0.05228576
-0.1295133 0.37320697 -0.05914346 -0.26768938 0.18077356 0.0056007686 -0.14797854 0.12405751
0.2476364 -0.19584173 -0.023816781 0.1750167 -0.020182334 -0.13770495 0.059626352 0.0821951
-0.010708403 0.039775055 0.10603558 -0.1318346 -0.2498038 0.08540309 -0.09071569 -0.18106687
0.031050317 -0.2048795 -0.06293574 0.087584466 0.08462696 -0.09433186 -0.33690062 0.021377958
-0.01904745 -0.24563293 -0.010747377 0.07966488 0.010741323 0.19440034 -0.1720046 -0.05360316
0.078523494 -0.09782665 -0.22307618 0.094517164 -0.17586519 -0.18108948 -0.025762253 -0.07177498
-0.106643 -0.14745048 0.009966322 -0.1318991 0.011263318 -0.070354015 -0.26757774 0.087021254
-0.025430733 -0.09206146 0.020045158 0.11481919 -0.21593267 -0.060933124 0.040673885 -0.18800889
-0.19108473 0.17311458 0.085477 -0.12065007 -0.0049764044 0.1119701 -0.08519701 0.14349782
0.16007237 -0.014168631 0.22412683 -0.25941876 -0.114731885 0.28762394 -0.28709155 -0.034670103
0.25389928 0.03131488 0.16061771 0.17328517 -0.2789344 0.28791234 0.28595045 0.023561768
0.026983423 0.3496119 0.26022422 0.0009182858 -0.21940933 -0.088804275 0.08770894 -0.27147347
-0.0058243438 0.025221445 -0.19078095 -0.35277024 -0.04136533 0.17895348 0.03983989 -0.020288117
0.05918523 0.05665345 -0.08242643 -0.011575754 -0.037366938 -0.16322978 0.098581426 -0.088790976
-0.058650687 0.048751958 0.06128717 -0.033147004 0.0076641734 0.20326258 0.09233721 -0.04608369
-0.13003357 0.111843556 0.10006623 0.013865257 -0.07765481 0.034418978 0.1403127 -0.02019843
-0.10763106 0.058659565 0.06385775 -0.10865854 0.036425784 0.029846203 -0.035424437 0.15928443
-0.00581964 0.051269308 0.032745708 0.022780329 0.2590032 0.022857621 -0.0006741403 0.12799045
0.124739364 -0.14470159 0.092150494 0.10493781 -0.083740875 -0.13725586 0.05781199 -0.02124819
0.060086235 0.07071392 -0.07869929 0.08410492 -0.016812291 -0.039444465 0.22015029 0.05694616
-0.047327854 0.09472634 0.050434582 0.024496228 -0.1323979 0.030504387 0.0058279983 -0.054307457
0.076662615 -0.026338473 -0.11396038 -0.08292186 0.25905612 0.23094794 -0.20066136 0.029367542
0.14657068 -0.24926488 -0.009049734 -0.015407991 -0.08266845 -0.051837347 0.034480914 -0.16676597
-0.108407915 0.23541935 -0.2244831 0.0695735 -0.01309566 -0.021080889 -0.01339462 0.15102497
0.07560452 0.033782687 -0.08124632 0.1970456 0.015744416 0.10521175 0.16228224 0.09435224
0.10178397 0.03614093 -0.0348634 -0.00012482458 -0.039839115 -0.03240038 0.17957841 -0.002044381
0.038981438 0.28436852 -0.0084013445 -0.08633959 0.28412727 0.18395934 -0.092554465 0.1401691
0.16471753 -0.019819433 -0.043131653 -0.06181338 0.060561992 -0.040490646 -0.030352246 0.03723395
-0.003760489 -0.10198073 -0.011135469 -0.02764821 0.20329322 -0.04047745 -0.15306608 0.21708046
0.09988625 -0.05116925 0.20840181 -0.0992217 -0.035349924 0.021802092 -0.16450188 -0.010850619
0.026633687 -0.26348802 0.067479484 0.3115173 -0.15048793 0.00016097687 -0.18913111 0.13479377
00000000: 8d76 9abd 5ea8 5c3d e960 8fbd 7d5d 70be
00000010: 76cf 95bd 768b 8c3c 6e22 81be 9829 56bd
00000020: 229f 04be fc14 bf3e 6a40 72bd 950e 89be
00000030: b41c 393e a786 b73b b087 17be dd11 fe3d
00000040: 6594 7d3e bc8a 48be 691b c3bc 9437 333e
00000050: 6c55 a5bc 8702 0dbe c33a 743d e855 a83d
00000060: 4c72 2fbc 2beb 223d 2f29 d93d a6ff 06be
00000070: 91cc 7fbe d1e7 ae3d 26c9 b9bd 9869 39be
00000080: 3c5d fe3c efcb 51be 74e4 80bd 7c5f b33d
00000090: e650 ad3d 1031 c1bd 3d7e acbe d420 af3c
000000a0: 6609 9cbc 3387 7bbe c415 30bc 5727 a33d
000000b0: 60fc 2f3c e210 473e f921 30be fd8e 5bbd
000000c0: edd0 a03d 5759 c8bd 156e 64be 3792 c13d
000000d0: 0116 34be 856f 39be 5c0b d3bc c3fe 92bd
000000e0: a567 dabd 42fd 16be c949 233c 8f10 07be
000000f0: c889 383c c415 90bd f3ff 88be 3338 b23d
00000100: 1d54 d0bc b88a bcbd be35 a43c 5326 eb3d
00000110: 741d 5dbe 0395 79bd a999 263d 6785 40be
00000120: b7ab 43be f344 313e 910e af3d 6217 f7bd
00000130: 1b11 a3bb 9450 e53d c57b aebd 18f1 123e
00000140: 03ea 233e 8c23 68bc 8181 653e 89d2 84be
00000150: 8df8 eabd 7243 933e aafd 92be 3d02 0ebd
00000160: 16ff 813e 0844 003d f878 243e ab71 313e
00000170: 7dd0 8ebe 3f69 933e 1968 923e 9c04 c13c
00000180: 570c dd3c 5500 b33e 1c3c 853e 1eb9 703a
00000190: d7ac 60be 04df b5bd bfa0 b33d 92fe 8abe
000001a0: 23da bebb 349d ce3c 155c 43be 4d9e b4be
000001b0: b16e 29bd 953f 373e 272f 233d 4433 a6bc
000001c0: 366c 723d 730d 683d 30cf a8bd 3ba8 3dbc
000001d0: 130e 19bd b525 27be 0fe5 c93d 0bd8 b5bd
000001e0: b43b 70bd 22b0 473d 4108 7b3d 27c5 07bd
000001f0: bf23 fb3b 1124 503e 4b1b bd3d 40c2 3cbd
00000200: 8527 05be 3c0e e53d 86ef cc3d 1a2b 633c
00000210: 7c09 9fbd eafa 0c3d 22ae 0f3e 2e77 a5bc
00000220: ac6d dcbd 0345 703d dac7 823d 5e88 debd
00000230: 3433 153d 0680 f43c 3719 11bd 751b 233e
00000240: aeb2 bebb c4ff 513d 5d20 063d d09d ba3c
00000250: 119c 843e e83f bb3c cab8 30ba ee0f 033e
00000260: 5a77 ff3d a72c 14be 66b9 bc3d a2e9 d63d
00000270: 5680 abbd cd8c 0cbe 44cc 6c3d af10 aebc
00000280: fc1c 763d 76d2 903d 182d a1bd 333f ac3d
00000290: eeb9 89bc 8590 21bd 146f 613e 6040 693d
000002a0: dada 41bd e2ff c13d 7e94 4e3d 50ac c83c
000002b0: 5193 07be 56e4 f93c cbf8 be3b 7f71 5ebd
000002c0: 4a01 9d3d c8c3 d7bc 0f64 e9bd f0d2 a9bd
000002d0: 01a3 843e 9e7d 6c3e 2c7a 4dbe 3394 f03c
000002e0: a016 163e 4b3f 7fbe 5645 14bc cc71 7cbc
000002f0: 144e a9bd 6653 54bd dc3b 0d3d b3c4 2abe
00000300: f804 debd c511 713e e6de 65be 8d7c 8e3d
00000310: 2e8f 56bc d4b1 acbc 1c75 5bbc 4aa6 1a3e
00000320: 8bd6 9a3d b75f 0a3d 7864 a6bd 52c6 493e
00000330: 6ffa 803c 4279 d73d 512d 263e bf3b c13d
00000340: 1d74 d03d 8308 143d edcc 0ebd 58e3 02b9
00000350: 572e 23bd 43b6 04bd 67e3 373e 06fb 05bb
00000360: 00ab 1f3d c098 913e cba5 09bc d0d2 b0bd
00000370: 2179 913e d65f 3c3e 328d bdbd 7d88 0f3e
00000380: b6ab 283e 5d5c a2bc d1aa 30bd 0730 7dbd
00000390: da0f 783d 85d9 25bd 46a5 f8bc a082 183d
000003a0: 8972 76bb 46db d0bd 8b71 36bc 807e e2bc
000003b0: 192c 503e afcb 25bd 5bbd 1cbe 574a 5e3e
000003c0: 2a91 cc3d d996 51bd 4967 553e bf34 cbbd
000003d0: 15cb 10bd 4d9a b23c 2e73 28be cbc6 31bc
000003e0: e42e da3c e7e7 86be af32 8a3d 327f 9f3e
000003f0: 8219 1abe e6cb 2839 96ab 41be 6107 0a3e

resnets.1.conv1.conv2d.bias f4 [32]
-0.05053952 0.035599396 0.07614018 0.07486346 -0.025494624 0.13973324 -0.14493044 0.0072734365
0.050257873 -0.044128496 -0.0644205 0.2541792 -0.023495715 -0.026490385 0.004364194 0.033563778
0.04914896 0.13554719 -0.10157205 0.026596239 0.027301071 0.16105896 0.032209758 0.098112114
0.03450537 -0.013516885 0.1742429 0.12986693 -0.02280451 -0.064903945 -0.11291916 0.06123446
00000000: 8702 4fbd acd0 113d 62ef 9b3d 0452 993d
00000010: 1ada d0bc 3b16 0f3e a568 14be 0256 ee3b
00000020: 33db 4d3d 15c0 34bd e5ee 83bd c723 823e
00000030: 167a c0bc 5d02 d9bc 8301 8f3b 2c7a 093d
00000040: 6b50 493d e2cc 0a3e 0205 d0bd 5be0 d93c
00000050: 7fa6 df3c a4ec 243e 61ee 033d 01ef c83d
00000060: 8155 0d3d ed75 5dbc bb6c 323e d6fb 043e
00000070: 86d0 babc 5cec 84bd 2942 e7bd fcd0 7a3d

resnets.1.in1.weight f4 [32]
0.9036026 0.88662934 0.7811886 0.72654414 0.7891344 0.74664146 0.7108361 0.92250586
0.98818713 0.8386583 0.8320814 0.80440354 0.95202655 0.9249362 0.8170793 0.93204
0.8968166 0.91089404 0.75355613 0.7117933 0.87691677 0.69786507 0.86141825 1.0363231
0.88716465 0.98861915 0.9906932 0.8057143 0.95669323 0.74299014 0.7704649 0.8954617
00000000: 8052 673f 24fa 623f fafb 473f ccfe 393f
00000010: b604 4a3f e523 3f3f 5bf9 353f 5829 6c3f
00000020: d5f9 7c3f 4fb2 563f 4903 553f 64ed 4d3f
00000030: 03b8 733f 9ec8 6c3f 1c2c 513f 2c9a 6e3f
00000040: c695 653f 5a30 693f 0ee9 403f 1638 363f
00000050: 9e7d 603f 49a7 323f e885 5c3f 3ca6 843f
00000060: 391d 633f 2516 7d3f 129e 7d3f 4b43 4e3f
00000070: d9e9 743f 9a34 3e3f 303d 453f fa3c 653f

resnets.1.in1.bias f4 [32]
-0.51926225 0.072491765 -0.42049235 -0.5604022 -0.21846302 -0.631526 -0.35132453 -0.22157726
-0.97060853 -0.7602785 -0.48195466 -0.69330096 -0.6350307 -0.1965074 -0.33773 -0.5637786
-0.7921589 -0.5112712 -0.56931984 -0.4858616 -0.72217906 -0.3200451 -0.42053476 -0.5905139
-0.33435303 -0.19701411 -0.49107906 -0.7969894 -0.49901864 -0.5155308 -0.24276966 -0.61838883
00000000: 5fee 04bf 9076 943d c64a d7be 8576 0fbf
00000010: c5b4 5fbe b0ab 21bf cfe0 b3be 26e5 62be
00000020: cd79 78bf 9da1 42bf c3c2 f6be 2c7c 31bf
00000030: 5f91 22bf 3c39 49be f2ea acbe cb53 10bf
00000040: edca 4abf abe2 02bf f2be 11bf dac2 f8be
00000050: bae0 38bf f4dc a3be 5550 d7be eb2b 17bf
00000060: 5230 abbe 11be 49be b76e fbbe 7f07 4cbf
00000070: 5f7f ffbe d4f9 03bf 9c98 78be bb4e 1ebf
