Assets/Style_Transfer/Models/Estilos mejoras/ReCoNet/Rnc_S2.onnx (onnx, 449372 bytes, 62 tensors)

conv1.conv2d.weight f4 [8, 3, 9, 9]
0	0x3e456d69	0.19280018
1	0x3ddb5f44	0.1071153
2	0x3e098304	0.13428885
3	0x3e0beec6	0.13665304
4	0x3e2eb4a6	0.170611
5	0x3e4e8269	0.20166935
6	0x3e27ec63	0.16398768
7	0x3defb111	0.117036946
8	0xbbabd675	-0.005244071
9	0x3cd13ccc	0.025541686
10	0x3da3d4ee	0.079995975
11	0x3d3563fd	0.04428481
12	0x3c70981b	0.014684702
13	0x3d1d509e	0.03840696
14	0x3d357c34	0.044307902
15	0x3d7f5e6c	0.062345907
16	0x3d57868a	0.05261854
17	0x3bde72a7	0.00678857
18	0x3d753007	0.059860256
19	0xbccd0340	-0.025025964
20	0xbdb381df	-0.08765005
21	0xbcf3ea87	-0.029774917
22	0x3df207bd	0.11817882
23	0x3e742d21	0.2384534
24	0x3e28283f	0.16421603
25	0x3c172cb2	0.009226965
26	0x3dfe0511	0.1240331
27	0x3c8b141a	0.016977359
28	0xbd46425b	-0.048403125
29	0xbe3323c1	-0.17494108
30	0xbd62d8ef	-0.055382665
31	0x3dcf40e2	0.10119797
32	0x3e3bb11d	0.18329282
33	0x3ca06114	0.01957754
34	0xbd913028	-0.07089263
35	0x3d886c71	0.066613086
36	0xbd36dd6a	-0.04464475
37	0x3cd19025	0.025581429
38	0xbd001382	-0.031268604
39	0xbde93593	-0.113871716
40	0x3daf2bcc	0.085532755
41	0x3d8ac7d3	0.06776395
42	0xbd514e4c	-0.05110006
43	0xbcf993e4	-0.030466028
44	0x3c500cfe	0.01269841
45	0xbd9f1e92	-0.07769503
46	0x3b8e0b40	0.004334837
47	0xbd477242	-0.04869295
48	0xbcade82e	-0.021228876
49	0x3dafb3e6	0.08579235
50	0xbdad9279	-0.08475203
51	0xbdb88abf	-0.09010839
52	0x3d695bc7	0.05697229
53	0xbbea74ca	-0.0071550356
54	0xbd9b3242	-0.07577945
55	0xba0376af	-0.00050149387
56	0xbd41532c	-0.04719846
57	0xbc08fe86	-0.008361464
58	0x3d96465b	0.07337638
59	0xbd8ac36f	-0.06775557
60	0xbdff3ecc	-0.124631494
61	0x3cd46921	0.025929036
62	0x3d951f53	0.07281365
63	0xbd6f222a	-0.05838219
64	0x3d638285	0.055544395
65	0xb9eefc88	-0.00045583048
66	0x3c8632f2	0.016381714
67	0xbae57559	-0.0017506286
68	0xbdb5e484	-0.088814765
69	0xbdbf6526	-0.093454644
70	0xbd129239	-0.03578398
71	0xbcb04072	-0.021515105
72	0xbe120861	-0.14261009
73	0x3d1aa8ce	0.03775864
74	0x3d286904	0.041115776
75	0xbcdc92a0	-0.026925385
76	0xbc4f5218	-0.01265385
77	0x3c9fc8a0	0.019504845
78	0x3c0c94d5	0.008580406
79	0xbd1bffa6	-0.038085602
80	0xbd6b4cc7	-0.057446267
81	0xbcefd0c4	-0.029274352
82	0xbd2eff7b	-0.042724114
83	0xbbbc9691	-0.0057552536
84	0x3b8ca8e4	0.0042925943
85	0x3e38dd9a	0.18053284
86	0x3d8f8e97	0.07009619
87	0xbcc3b95b	-0.023892095
88	0xbd4df2ad	-0.05028026
89	0xbc7e4e52	-0.015521603
90	0xbd5b19f2	-0.05349154
91	0x3c9d3115	0.019188443
92	0xbd32c745	-0.04364707
93	0xbb949280	-0.0045340657
94	0x3e23cacd	0.15995331
95	0x3e15c065	0.14624174
96	0x3ce2def7	0.027694209
97	0xbca17605	-0.019709596
98	0x3cf391e9	0.029732661
99	0xbd330549	-0.043706212
100	0xbe03e364	-0.12879711
101	0xbda7766c	-0.08176884
102	0x3d9e8db4	0.077418715
103	0x3eab9d3d	0.335184
104	0x3ebd0362	0.36916643
105	0x3e1f1242	0.15534309
106	0xbcd96324	-0.026536532
107	0x3d1f8b78	0.038951367
108	0xbe107cfc	-0.14110178
109	0xbd8928a3	-0.06697204
110	0xbda7ac1b	-0.081871234
111	0x3c87bb3b	0.01656877
112	0x3eaadbbb	0.33370766
113	0x3ed42259	0.41432455
114	0x3d9b4fe7	0.075835995
115	0xbd00eba8	-0.03147474
116	0x3d314a2f	0.043283638
117	0xbe513d6b	-0.20433585
118	0xbdbc3ed0	-0.09191668
119	0xbdc5354b	-0.096293055
120	0xbd39596e	-0.045251302
121	0x3e2f1b14	0.17100173
122	0x3e006052	0.12536743
123	0xbd05be21	-0.032652024
124	0xbd59bf60	-0.053161025
125	0x3d838a2e	0.0642284
126	0xbe2de531	-0.16981961
127	0xbddcacdd	-0.107751586
128	0xbdc1c5d7	-0.09461563
129	0xbc9b5497	-0.018961234
130	0x3d84749a	0.064675525
131	0xbd43532a	-0.047686733
132	0xbd9be909	-0.07612807
133	0x3da22924	0.07918003
134	0x3db2194c	0.08696231
135	0xbe411284	-0.1885472
136	0xbe15a9c5	-0.14615543
137	0xbddfb5e3	-0.10923364
138	0xbc945fb1	-0.018112035
139	0x3ce339be	0.027737495
140	0xbde5950e	-0.112100706
141	0xbe226531	-0.15858914
142	0xbcefee15	-0.029288331
143	0x3c4ffcbe	0.012694536
144	0xbdfca8cb	-0.12336882
145	0xbcea8c26	-0.028631281
146	0xbcf92f7b	-0.030418148
147	0xbd4f1d5b	-0.050565105
148	0xbbda68dc	-0.0066653322
149	0xbdab0630	-0.083507895
150	0xbde815fc	-0.11332318
151	0xbceb0ef0	-0.028693646
152	0x3d2cd3ac	0.042194054
153	0xbe29252d	-0.16518088
154	0xbdddd24a	-0.10831125
155	0x392cf578	0.00016494642
156	0xbd2ffaaf	-0.04296368
157	0xbd16ea50	-0.03684455
158	0xbda55c68	-0.08074266
159	0xbd8011e9	-0.06253416
160	0xbd993b63	-0.0748203
161	0xbdb7b6c4	-0.08970407
162	0x3cc5d0f5	0.02414749
163	0x3e217f8a	0.15771309
164	0x3dd0d3b8	0.10196632
165	0x3e7e887a	0.24856749
166	0x3e94e95e	0.29084295
167	0x3e6554b2	0.2239559
168	0x3d06aa03	0.03287698
169	0xbd1637a3	-0.036674153
170	0xbb6227ca	-0.003450858
171	0x3c4134f7	0.011792413
172	0x3e02c875	0.12771781
173	0x3e85f756	0.26165265
174	0x3e877427	0.26455805
175	0x3ec92a31	0.39290002
176	0x3e32466e	0.1740968
177	0x3d900922	0.07032992
178	0xbbefe605	-0.0073211216
179	0x3d13fabd	0.036127795
180	0x3d1a8279	0.037722085
181	0x3d87cd10	0.066309094
182	0x3e7824d7	0.24232803
183	0x3ed824da	0.42215616
184	0x3f180cab	0.5939433
185	0x3ee35674	0.44401896
186	0x3e4f7b94	0.20261985
187	0xbd96cab3	-0.073628806
188	0xbd84cd33	-0.06484451
189	0x3cc849fa	0.024449337
190	0x3da6d335	0.08145753
191	0x3e370a35	0.17874987
192	0x3ec32651	0.3811517
193	0x3f2cc69e	0.67490566
194	0x3f07cb60	0.530447
195	0x3e592417	0.21205173
196	0xbc3c22f9	-0.0114829475
197	0xbd87b7d1	-0.06626857
198	0xbd1d0b7e	-0.038341038
199	0x3d96b315	0.07358376
200	0x3e0aae5b	0.13543074
201	0x3e7001fa	0.23438254
202	0x3ec8510a	0.39124328
203	0x3ec79ab4	0.38985217
204	0x3d3fae75	0.046797235
205	0xbd185b02	-0.037196167
206	0x3cec2dd5	0.028830448
207	0xbd25470a	-0.04035095
208	0xbd1f551e	-0.038899533
209	0x3dad3120	0.084566355
210	0x3e296ad2	0.16544655
211	0x3e9a1cfa	0.30100232
212	0x3e1b939c	0.15193027
213	0xbd6bfd84	-0.05761482
214	0x3c12dd83	0.008963945
215	0xbd2a6f54	-0.041610077
216	0xbd5004fe	-0.05078601
217	0xbb72d2da	-0.0037051947
218	0xbdbcdde2	-0.09222008
219	0xbbe99d98	-0.0071293823
220	0x3cbbe686	0.02293707
221	0x3d3cd81d	0.04610454
222	0xbd40ce5b	-0.047071796
223	0x3d2ed98f	0.04268795
224	0xbd76ee1d	-0.060285676
225	0xbe2b61c5	-0.16736515
226	0xbd2ec90c	-0.042672202
227	0xbd2fa595	-0.04288252
228	0xbd496c39	-0.049175475
229	0x3c167862	0.009183975
230	0xbdd5a3f3	-0.104316615
231	0xbe24dbc8	-0.16099465
232	0xbd23b6d5	-0.039969284
233	0xbe24521e	-0.1604695
234	0xbe454326	-0.19263896
235	0xbd32ccef	-0.04365247
236	0xbd3bf972	-0.045892186
237	0xbdf9eb5f	-0.122030966
238	0xbe0c7cd9	-0.137195
239	0xbdec7e08	-0.11547476
240	0xbe18cad1	-0.14921118
241	0xbdfb6479	-0.12275023
242	0xbe6cd6a8	-0.2312876
243	0xbd80692c	-0.0627006
244	0xbde11d8a	-0.10991962
245	0xbe0cd50f	-0.1375315
246	0xbcbbec21	-0.022939743
247	0x3de56f93	0.11202922
248	0x3dbd742d	0.092506744
249	0x3d82e52f	0.063913696
250	0xbce4ea8b	-0.02794387
251	0xbdd92444	-0.1060262
252	0x3da66730	0.0812515
253	0x3a4d2f3a	0.00078271667
254	0x3bd5d4aa	0.0065255957
255	0xbc5f2037	-0.01361852

conv1.conv2d.bias f4 [8]
0	0x3e57326d	0.2101533
1	0xbdc6282b	-0.0967563
2	0xbe3a65e9	-0.18202938
3	0xbe1af718	-0.15133321
4	0x3dcd8c7b	0.1003656
5	0xbc6fc6f3	-0.0146348355
6	0x3bbd494d	0.0057765604
7	0xbd6ba3ba	-0.05752919

in1.weight f4 [8]
0	0x3f126c85	0.5719684
1	0x3f2bf1aa	0.67165625
2	0x3f6ee5ee	0.93319595
3	0x3e451e62	0.19249871
4	0x3f344eaa	0.7043253
5	0x3f58ebc3	0.84734744
6	0x3f0da853	0.5533497
7	0x3f2f1b25	0.68400794

in1.bias f4 [8]
0	0x3fc2058d	1.5157944
1	0xbef2c991	-0.47419408
2	0x3f0b187c	0.54334235
3	0x3f94eb29	1.1634265
4	0x3f7df157	0.9919638
5	0x3f8f0ee5	1.117642
6	0x3e415a0b	0.18882005
7	0x3f8ca753	1.0988563

conv2.conv2d.weight f4 [16, 8, 3, 3]
0	0x3df6dca8	0.120538056
1	0x3e7b0665	0.24514158
2	0x3e243bd2	0.16038445
3	0x3e68328d	0.22675534
4	0x3e8ef72b	0.2792295
5	0x3e32fece	0.17480013
6	0x3ea4756f	0.32120845
7	0x3e918f38	0.2842958
8	0x3dabfd4a	0.083979204
9	0xbd8be67c	-0.06831071
10	0xbc9b9b88	-0.018995062
11	0xbd872b2c	-0.06600031
12	0x3d55ffea	0.05224601
13	0xbc4c56c5	-0.012471859
14	0x3ce2cea9	0.027686434
15	0x3e7d1c43	0.24717812
16	0x3e7cd2de	0.24689814
17	0x3e86be65	0.26317134
18	0xbe046dcc	-0.12932509
19	0xbd309eff	-0.04312038
20	0xbe08092b	-0.13284747
21	0xbba91605	-0.0051600956
22	0xbdb74fce	-0.089507684
23	0xbe060114	-0.13086349
24	0xbe86508d	-0.2623333
25	0xbc9f3a6d	-0.01943704
26	0xbe367f17	-0.17821918
27	0xbe020152	-0.12695816
28	0xbc32dbbd	-0.0109166475
29	0x3dea8386	0.11450867
30	0xbda472aa	-0.08029683
31	0x3de69994	0.112597615
32	0x3e293f52	0.16528061
33	0x3e1775d5	0.14791043
34	0x3e849b8c	0.25899923
35	0x3e9481b8	0.29005218
36	0x3e26f93a	0.1630601
37	0x3dd02db4	0.10164967
38	0xbd46c810	-0.04853064
39	0xbcee5532	-0.029093359
40	0xbe276611	-0.16347529
41	0xbde03083	-0.10946753
42	0xbcf8ffd3	-0.030395424
43	0xbe3fa904	-0.18716818
44	0x3d375b9e	0.044765107
45	0x3e39acb1	0.18132283
46	0xbe84e1d9	-0.25953558
47	0xbf019e08	-0.5063176
48	0x3e83fac9	0.2577727
49	0xbdc37098	-0.0954296
50	0xbeb98da0	-0.36240864
51	0x3d8f70b5	0.07003919
52	0x3a289183	0.00064303743
53	0xbc00ad55	-0.007853826
54	0xbded56c3	-0.11588814
55	0x3c89fbcf	0.016843705
56	0xbd6eb3ba	-0.05827687
57	0xbe099896	-0.13437113
58	0xbda65605	-0.08121876
59	0x3d1a9deb	0.03774826
60	0xbc75bef9	-0.014999145
61	0xbdb10ba3	-0.08644798
62	0x3d49ba91	0.04925019
63	0xbc95e394	-0.018296994
64	0xbded77cb	-0.11595114
65	0x3c272e1b	0.0102038635
66	0xbd51c0a1	-0.051209096
67	0xbd6c9405	-0.05775835
68	0xbc9c5347	-0.019082678
69	0xbd11321e	-0.035448186
70	0x3e1a9581	0.15096094
71	0x3e379864	0.17929226
72	0xbe4cd019	-0.20001258
73	0xbd83807d	-0.064209916
74	0x3d9beb2a	0.07613213
75	0xbc6209ca	-0.013796279
76	0x3dfdd467	0.12394028
77	0x3e595622	0.21224263
78	0x3ac98b8e	0.0015376674
79	0x3eb2aa74	0.3489567
80	0x3ea3db83	0.32003412
81	0x3e65a31a	0.224255
82	0x3e1b3aac	0.151591
83	0x3de25f45	0.110533275
84	0x3dd56ac1	0.10420752
85	0xbd40d9b1	-0.047082607
86	0xbd283c27	-0.04107299
87	0x3d60be9d	0.054869283
88	0xbe3f848c	-0.18702906
89	0xbdefcf7b	-0.11709496
90	0xbe9886ca	-0.29790336
91	0xbe594502	-0.2121773
92	0xbe3de8ce	-0.18545839
93	0xbe91117c	-0.28333652
94	0xbe130bdb	-0.14359991
95	0xbe6c69cf	-0.23087238
96	0xbe04865d	-0.1294188
97	0xbdc22146	-0.09479003
98	0xbe723803	-0.2365418
99	0xbe826cdc	-0.25473678
100	0x3d89a231	0.06720389
101	0xbe0cb2e5	-0.13740118
102	0xbe00d6ee	-0.12581989
103	0x3db7408b	0.089478575
104	0xbd71fc52	-0.059078522
105	0xbd923b8e	-0.071402654
106	0xbab3601e	-0.0013685261
107	0x3b6fb79e	0.003657795
108	0x3d351ce7	0.044217017
109	0xbde342f7	-0.11096757
110	0x3e052cf8	0.13005435
111	0x3d515a70	0.05111164
112	0xbd8914e7	-0.0669344
113	0xbd14405d	-0.036194194
114	0xbe38a62d	-0.18032141
115	0xbd6c1154	-0.057633713
116	0x3c494f66	0.0122869965
117	0x3e861c2c	0.26193368
118	0x3d340985	0.04395439
119	0xbeb134a7	-0.34610483
120	0x3e9f84ea	0.31156093
121	0xbd5d2983	-0.053994667
122	0xbe32840b	-0.17433183
123	0xbdcd32fb	-0.100194894
124	0xbcfd70f5	-0.030937651
125	0xbe9fb0c0	-0.31189537
126	0xbec2b735	-0.380304
127	0xbeaf2b09	-0.3421252
128	0xbecc3bb7	-0.3988931
129	0xbeaa58c9	-0.33270863
130	0xbe943d99	-0.28953245
131	0xbebf529d	-0.37367716
132	0xbeb7f9de	-0.3593282
133	0xbe992afe	-0.29915613
134	0xbebd8a63	-0.37019643
135	0xbe2cee27	-0.16887723
136	0xbd1c3da9	-0.03814474
137	0xbd1b63a7	-0.037936833
138	0xbd728a20	-0.059213758
139	0xbdd8a571	-0.105784304
140	0x3d80f923	0.06297519
141	0xbd0e661d	-0.03476535
142	0xbdc99fda	-0.098449424
143	0xbd95de9f	-0.07317852
144	0x3e44b64b	0.19210164
145	0xbd936754	-0.07197443
146	0xbe60e0a1	-0.21960689
147	0x3db9f8ac	0.090806335
148	0x393b87d1	0.00017884305
149	0xbe7ff2ae	-0.24994919
150	0xbcd6060e	-0.026125934
151	0xbdeb0aa2	-0.114766374
152	0xbe8335bf	-0.25626943
153	0x3d66e150	0.05636722
154	0xbcd394c3	-0.025827771
155	0x3d277154	0.040879562
156	0xbe053cad	-0.13011427
157	0x3dacacea	0.08431418
158	0x3ca50f5c	0.020148925
159	0xbe9d5d4d	-0.30735245
160	0xbe4f5089	-0.20245565
161	0xbd6bb3f8	-0.05754468
162	0xbd451f74	-0.0481257
163	0xbdec2e17	-0.115322284
164	0xbe02b11e	-0.12762877
165	0x3d87a956	0.06624095
166	0xbccaf1de	-0.024773534
167	0xbdeb560b	-0.11491021
168	0xbdf85e27	-0.12127333
169	0x3cdbdfba	0.02684008
170	0xbe4d7341	-0.20063497
171	0x3ddc6c04	0.1076279
172	0x3e7b50ea	0.24542585
173	0x3d4e85f0	0.0504207
174	0x3dac172b	0.084028564
175	0xbd8ad8e0	-0.06779647
176	0xbce06be0	-0.027395189
177	0x3cc41c36	0.023939233
178	0xbd4e9429	-0.050434265
179	0xbd60b482	-0.054859646
180	0xba4120d9	-0.00073672604
181	0x3c82ebe8	0.01598163
182	0x3dbc9c7f	0.09209537
183	0xbdcbaad6	-0.09944694
184	0x3d3d8ec4	0.04627873
185	0x3dcf804c	0.101318926
186	0x3c80e1d3	0.015732681
187	0x3e09e20c	0.13465136
188	0x3dca88e0	0.09889388
189	0xbed2920f	-0.4112706
190	0xbeff5e5b	-0.49876675
191	0xbee5b15f	-0.44861886
192	0xbde3a06c	-0.111145824
193	0xbe45eac2	-0.19327834
194	0xbea9cfe1	-0.33166412
195	0xbe016df6	-0.12639603
196	0x3bfb5818	0.0076704137
197	0xbdef9c0f	-0.11699688
198	0xbbb72213	-0.0055887788
199	0xbe2656db	-0.1624407
200	0xbd8c63b9	-0.06854958
201	0x39cc25c3	0.00038938047
202	0x3d32e642	0.043676622
203	0xbdd95298	-0.10611457
204	0xbe3350dc	-0.17511314
205	0xbd131a1d	-0.035913575
206	0xbdecdb45	-0.1156526
207	0x3d861b99	0.065482326
208	0x3e295475	0.16536124
209	0x3e0cd163	0.1375175
210	0x3df5765c	0.11985466
211	0xbc48d0a9	-0.01225678
212	0xbd8460b7	-0.064637594
213	0xbe1eb6b5	-0.15499385
214	0xbd90c8de	-0.070695624
215	0xbe7f94ea	-0.2495915
216	0xbd73a634	-0.059484676
217	0x3e76131d	0.24030729
218	0x3e889c15	0.2668158
219	0xbcf6fb98	-0.030149266
220	0x3e4d5460	0.20051718
221	0x3ed51b85	0.41622558
222	0x3e7a176c	0.24422997
223	0x3f12faed	0.5741413
224	0x3e8dcdf4	0.27696192
225	0xbe1b2c14	-0.15153533
226	0xbdc20704	-0.094739944
227	0x3ca873e7	0.020563079
228	0xbe8a21c4	-0.26978886
229	0xbe4ff42f	-0.20307992
230	0x3cfe2209	0.031022089
231	0xbe14b0f4	-0.14520627
232	0xbd49958f	-0.049214896
233	0x3bb7bd09	0.0056072515
234	0x3d6ad916	0.057335936
235	0x3cd6c58d	0.026217246
236	0x3b0ec686	0.002178581
237	0x3ddfb53a	0.10923238
238	0xbc09f374	-0.00841986
239	0xbe2c0f8e	-0.16802809
240	0x3e0d5b0e	0.13804266
241	0xbd85bbc2	-0.065299526
242	0xbdf96545	-0.12177519
243	0x3df2d908	0.11857802
244	0x3eaa22c3	0.33229646
245	0x3e6ecfcc	0.23321456
246	0xbd6be106	-0.057587646
247	0x3eaaa4a8	0.33328748
248	0x3e5a465f	0.21315907
249	0xbc56ad48	-0.013102837
250	0xbadeeb6f	-0.001700742
251	0x3e85e50e	0.26151317
252	0xbdd6abd7	-0.104819946
253	0xbaf08401	-0.0018349887
254	0x3c57b5c4	0.013165895
255	0xbddd012e	-0.10791241

conv2.conv2d.bias f4 [16]
0	0x3e0fef08	0.14056027
1	0x3d8b186e	0.06791769
2	0xbddaa29a	-0.10675545
3	0xbe28defa	-0.16491309
4	0x3d0c01f5	0.034181554
5	0xbd2c6ae5	-0.04209413
6	0xbd224b5c	-0.03962265
7	0xbe21ef27	-0.15813886
8	0x3cb2067e	0.021731611
9	0xbc9e6587	-0.019335521
10	0x3e36f035	0.17865069
11	0x3e451b93	0.192488
12	0xbe442209	-0.19153608
13	0x3ddad21a	0.10684605
14	0xbe5f82c8	-0.21827233
15	0x3d5353a4	0.051593438

in2.weight f4 [16]
0	0x3d58e373	0.052951287
1	0x3ea92bd7	0.3304126
2	0x3f0cfd4c	0.55074
3	0x3e5e3e80	0.2170353
4	0x3e6c591f	0.23080872
5	0x3dd9670d	0.106153585
6	0x3e6129f1	0.21988656
7	0x3e3ed5b0	0.18636203
8	0x3ec1a3b9	0.37820223
9	0x3e808401	0.2510071
10	0x3e284ff2	0.16436747
11	0x3ebbac87	0.36655065
12	0x3ef08f2e	0.46984237
13	0x3ee2a3cc	0.44265592
14	0x3ea2c624	0.31791794
15	0x3ec83b26	0.39107627

in2.bias f4 [16]
0	0x3dc23ecb	0.09484633
1	0xbe82b95c	-0.25532043
2	0xbeb0e345	-0.34548393
3	0x3e133730	0.14376521
4	0xbe54fafe	-0.20798871
5	0xbe0ebb75	-0.13938697
6	0xbe46b454	-0.19404727
7	0x3ece1243	0.40248308
8	0xbe883a92	-0.26607186
9	0xbed41f06	-0.4142992
10	0x3d92f399	0.07175369
11	0x3ebfc798	0.37456965
12	0xbe67ed21	-0.22649051
13	0xbe8daa2c	-0.27668893
14	0x3e0d9ee5	0.13830145
15	0xbed28b8e	-0.41122097

conv3.conv2d.weight f4 [32, 16, 3, 3]
0	0x3c31a4a9	0.010842481
1	0x3e0c8fad	0.13726683
2	0xbaac4830	-0.0013144072
3	0x3be63578	0.007025417
4	0xbc8841cc	-0.016632937
5	0x3d96713f	0.07345819
6	0x3cbcd2d4	0.02304975
7	0x3bd6de63	0.0065572723
8	0x3dbcb04a	0.09213312
9	0xbd7315a6	-0.059346817
10	0xbccdde89	-0.025130527
11	0xbcd429be	-0.02589881
12	0xbdeebad0	-0.116567254
13	0xbd226199	-0.039643858
14	0xbd8a8142	-0.06762935
15	0xbcadf96e	-0.021237101
16	0xbe4a9f98	-0.19787443
17	0xbe007fbd	-0.12548728
18	0xbda6e8f1	-0.08149899
19	0xbe32f8f9	-0.17477788
20	0xbe8c7a9a	-0.27437288
21	0xbdc755a3	-0.09733131
22	0xbd0a5bf4	-0.0337791
23	0xbe58db7c	-0.21177477
24	0x3c9cfd8b	0.019163867
25	0xbdb7b5cb	-0.08970221
26	0xbdc5dc16	-0.09661119
27	0xbe307657	-0.17232643
28	0xbe5251f2	-0.20539072
29	0x3dc4c1b3	0.09607258
30	0xbe31548b	-0.17317407
31	0xbe2bb6f6	-0.16769013
32	0x3e38b307	0.18037044
33	0x3b27323d	0.0025512122
34	0x3c6f6571	0.014611588
35	0x3e58449d	0.21119924
36	0xbe05ef23	-0.13079505
37	0x3af9a9fd	0.0019047853
38	0xbda759bd	-0.08171413
39	0xbe064eed	-0.13116045
40	0x3c0dd4f3	0.008656728
41	0xbd4520e5	-0.048127074
42	0xbda77f04	-0.08178523
43	0xbd896a81	-0.06709767
44	0xbcf037b0	-0.029323429
45	0xbda66472	-0.08124627
46	0xbd97f787	-0.07420259
47	0x3d35d938	0.04439661
48	0x3c2a7c56	0.010405621
49	0x3cba6b4a	0.022756238
50	0x3d8ed878	0.06974882
51	0xbe5cd7f9	-0.21566762
52	0xbe368e28	-0.17827666
53	0x3b5176e4	0.0031961733
54	0xbd29ab01	-0.041422848
55	0xbd3265bd	-0.043554056
56	0x3bdc5e58	0.006725114
57	0x3d9988b5	0.07496778
58	0x3d97c877	0.074112825
59	0x3e02fb27	0.1279112
60	0xbd156062	-0.03646887
61	0xbc0be054	-0.008537371
62	0x3da1ca75	0.07899944
63	0xbe7da540	-0.24770069
64	0xbeaa8696	-0.33305806
65	0xbea4c541	-0.32181743
66	0xbd496554	-0.0491689
67	0xbdb72cc5	-0.08944086
68	0xbe62ef82	-0.22161677
69	0xbc6d0576	-0.014466634
70	0xbd0a8198	-0.033814996
71	0xbd8487c8	-0.06471211
72	0xbea34525	-0.3188869
73	0xbe52ce3c	-0.20586485
74	0xbe1b279d	-0.1515183
75	0xbe70defb	-0.2352256
76	0xbeaf10fc	-0.34192646
77	0xbe8e93e4	-0.27847207
78	0xbe26babd	-0.16282173
79	0xbe1c196c	-0.15244073
80	0xbe685f9c	-0.22692722
81	0x3dca3a22	0.09874369
82	0x3bc563db	0.0060238666
83	0x3dc569af	0.09639298
84	0xbcab9adf	-0.020947872
85	0xbcf5aae0	-0.029988706
86	0xbd83270e	-0.064039335
87	0xbcda8b09	-0.026677625
88	0xbd5b704d	-0.053573895
89	0xbda8d56b	-0.08243831
90	0xbdd73add	-0.10509274
91	0x3cc1948f	0.023630409
92	0x3de93a81	0.11388112
93	0x3d97184c	0.07377681
94	0xbc30cbc9	-0.010790774
95	0x3c8c862b	0.01715382
96	0x3ca5fb6a	0.020261485
97	0xbcfa229a	-0.030534077
98	0xbd36cbed	-0.044628073
99	0x3db5a9d7	0.08870285
100	0x3e28ba27	0.16477261
101	0x3db06e2d	0.08614764
102	0x3cd70e0f	0.02625182
103	0x3d9b5577	0.075846605
104	0x3d8daca7	0.069176964
105	0x3d01a6b7	0.031653132
106	0x3cb5ba05	0.022183428
107	0x3c7ebd0f	0.015548005
108	0xbe63facc	-0.2226364
109	0xbe77c4b2	-0.24196127
110	0xbe9bc13c	-0.30420864
111	0xbe2f95cf	-0.17146991
112	0xbdf84035	-0.121216215
113	0xbe4f6be8	-0.20256007
114	0xbe4f7d01	-0.20262529
115	0xbe69d5e2	-0.22835496
116	0xbe2004ad	-0.15626784
117	0xbe726e9f	-0.23675011
118	0xbe8ba5e4	-0.27275002
119	0xbe8f7aff	-0.28023526
120	0xbe87ac55	-0.26498666
121	0xbe53a225	-0.20667322
122	0xbe90e51d	-0.282998
123	0xbe23db3f	-0.16001604
124	0xbde0ab12	-0.10970129
125	0xbdd09bde	-0.10185979
126	0xbcd80dd9	-0.02637379
127	0xbd897b25	-0.06712941
128	0xbdeeada9	-0.11654217
129	0xbdd38dbc	-0.10329768
130	0xb84eafef	-4.927808e-05
131	0xbd9ee204	-0.07757953
132	0xbdc3ede4	-0.095668584
133	0xbde39ff7	-0.11114495
134	0xbdbb8aa5	-0.09157304
135	0xbe93bc3f	-0.28854558
136	0xbec2eb33	-0.38070068
137	0xbe829d79	-0.25510767
138	0xbe6d927b	-0.23200409
139	0xbe845c98	-0.25851893
140	0xbe920e13	-0.28526363
141	0xbeac931d	-0.3370599
142	0xbe9978f1	-0.29975083
143	0xbed1afb3	-0.4095436
144	0xbdc9e0cc	-0.0985733
145	0xbd758978	-0.059945554
146	0x3e1cf231	0.15326764
147	0x3dc6e6f2	0.09712018
148	0x3c75968c	0.014989506
149	0x3d53920d	0.051652957
150	0x3d8ffce7	0.07030659
151	0x3dadefc0	0.08492994
152	0xbbd06b6b	-0.0063604615
153	0x3d8cbe4e	0.06872235
154	0x3bbd19ec	0.0057709124
155	0x3e0a429b	0.1350197
156	0x3e3400a4	0.1757837
157	0x3e0eff06	0.13964471
158	0x3df851c7	0.12124973
159	0x3e9ec49e	0.31009382
160	0x3d5194c0	0.05116725
161	0xbc921328	-0.0178314
162	0xbe1c0b44	-0.15238672
163	0xbe5756b9	-0.21029176
164	0x3e0cb0b1	0.13739277
165	0xbd4517d7	-0.04811844
166	0xbe2fae57	-0.17156349
167	0xbe0a2e3d	-0.13494201
168	0x3dbac9a9	0.09120495
169	0xbd1df0de	-0.038559787
170	0xbe0ff9cd	-0.14060135
171	0xbd9c42f4	-0.07629958
172	0xbd4116a9	-0.04714075
173	0xbd87ba2c	-0.06627306
174	0xbe57cf02	-0.21075061
175	0x3e1cd06e	0.15313885
176	0xbd6ab83b	-0.057304602
177	0xbe90af29	-0.28258637
178	0xbe3d5b34	-0.18491822
179	0xbe6acecd	-0.2293045
180	0xbd3a1566	-0.045430563
181	0xbdefd6d3	-0.11710896
182	0xbee78dd2	-0.45225388
183	0x3d6e2fbf	0.058151003
184	0xbdfd102e	-0.12356602
185	0xbe9bf38c	-0.3045925
186	0x3d51ebb4	0.051250175
187	0x3db31d53	0.087458275
188	0xbda9ce69	-0.08291323
189	0xbe0e0f7b	-0.13873093
190	0xbde2cc5a	-0.11074133
191	0x3e24766d	0.16060801
192	0x3db502a8	0.08838397
193	0x3b9c0933	0.004761839
194	0xbd5b65c9	-0.053563867
195	0x3d8f59e5	0.06999568
196	0x3b212409	0.002458813
197	0xbcef2685	-0.029193172
198	0x3dd15e27	0.10223036
199	0x3d18f858	0.037346214
200	0xbdbe1032	-0.09280433
201	0x3c094bf5	0.008379926
202	0x3da01b71	0.07817734
203	0xbe3ea4e7	-0.18617593
204	0xbe79d1f9	-0.24396504
205	0x3bf2d7e8	0.007410992
206	0xbd6fe0d5	-0.058564026
207	0xbccb61ef	-0.024826972
208	0xbe148833	-0.14505081
209	0x3bdcfcca	0.006744002
210	0xbd65999f	-0.056054708
211	0xbeea9f14	-0.45824492
212	0xbdd7548d	-0.10514174
213	0x3e7a8b3b	0.24467175
214	0x3c5ef66a	0.013608554
215	0x3c82e80d	0.015979791
216	0xbea25bc7	-0.31710646
217	0xbe4c08b0	-0.19925189
218	0xbd6f6c50	-0.058452904
219	0xbdd70f14	-0.10500923
220	0xbe540d18	-0.2070812
221	0xbba743d1	-0.00510452
222	0x3dad8b28	0.084738076
223	0xbdb4a918	-0.088213146
224	0xbe31496e	-0.17313167
225	0xbde9d766	-0.11418037
226	0xbd98c200	-0.074588776
227	0xbdbf87a1	-0.09352041
228	0xbe50e0f0	-0.20398307
229	0xbdd65d28	-0.10466987
230	0xbdd8f20a	-0.1059304
231	0xbdb5d5bf	-0.088786595
232	0xbdf91b87	-0.121634535
233	0xbdf0a8f0	-0.11750972
234	0xbdb485a7	-0.08814555
235	0xbef28551	-0.47367337
236	0xbeadca0a	-0.33943206
237	0x3e0c5972	0.13705996
238	0xbe1eba3a	-0.15500727
239	0xbdc52c56	-0.09627597
240	0x3e34f6f8	0.17672336
241	0xbcad234b	-0.021134993
242	0x3e0534ed	0.13008471
243	0xbdbf6d6b	-0.09347042
244	0xbe9b2122	-0.30298716
245	0xbe12a91c	-0.14322323
246	0x3e7b3af0	0.24534202
247	0x3dd06699	0.10175819
248	0xbe3bf896	-0.18356547
249	0x3d4b8aa3	0.04969276
250	0x3dbc9839	0.09208722
251	0x3bd232c0	0.0064147413
252	0xbe1f020e	-0.15528128
253	0xbe4b2cd0	-0.19841313
254	0xbc4f1213	-0.012638587
255	0x3d80c438	0.06287426

conv3.conv2d.bias f4 [32]
0	0x3cf27ab2	0.029599521
1	0xba15ec70	-0.0005719131
2	0xbdff98fc	-0.12480351
3	0x3e0246dc	0.12722343
4	0x3c6c3f20	0.014419347
5	0xbe4eb783	-0.20187192
6	0xbcbc01ba	-0.022950042
7	0x3e86257a	0.26200467
8	0x3dc9020e	0.09814845
9	0x3df538fd	0.1197376
10	0xbd90848a	-0.0705653
11	0x3e83c101	0.25733188
12	0x3e2232a8	0.15839636
13	0xbd2e3157	-0.042527523
14	0x3d5d0d88	0.053967983
15	0x3d40f564	0.047109023
16	0xbe9ae10c	-0.30249822
17	0xbd030537	-0.031987395
18	0x3d644c14	0.055736616
19	0xbd930043	-0.07177784
20	0x3de865b4	0.11347523
21	0xbdef3240	-0.11679506
22	0x3c01b594	0.007916827
23	0x3e193b85	0.14964111
24	0x3cd807b5	0.026370862
25	0x3b527c41	0.0032117518
26	0x3e9e0a23	0.3086711
27	0xbcfba40c	-0.030717872
28	0xbdca213d	-0.09869621
29	0xbd0fcb56	-0.035106026
30	0xbe448fd4	-0.19195491
31	0x3e96ac87	0.29428503

in3.weight f4 [32]
0	0x3f201bd0	0.6254244
1	0x3ed9d025	0.42541614
2	0x3ed7aba3	0.42123136
3	0x3ea705fd	0.32621756
4	0x3ec5e14e	0.38648456
5	0x3eec7a64	0.46187127
6	0x3ecdb1f0	0.40174818
7	0x3eb3d886	0.35126132
8	0x3e2e366e	0.17012951
9	0x3eeaae6d	0.458362
10	0x3eace178	0.3376577
11	0x3ef88355	0.48537698
12	0x3ee17a99	0.44038847
13	0x3ebf95d7	0.37419006
14	0x3eeae087	0.45874426
15	0x3f1cbcf4	0.6122582
16	0x3f0c8b2e	0.5489987
17	0x3ecc7387	0.3993189
18	0x3ef62530	0.48075247
19	0x3f1dc4a8	0.616282
20	0x3ea91940	0.33027077
21	0x3ed672e8	0.41884542
22	0x3f06a12b	0.5258967
23	0x3ebf89a1	0.3740969
24	0x3ece1667	0.40251467
25	0x3ed07097	0.407109
26	0x3ea81b09	0.32833126
27	0x3f0f45b5	0.5596574
28	0x3ee758df	0.4518499
29	0x3eedc50d	0.464394
30	0x3f04121d	0.5159014
31	0x3ea9c4de	0.3315801

in3.bias f4 [32]
0	0xbeb6d7ef	-0.3571162
1	0xbe8c0cd3	-0.27353534
2	0xbe53f227	-0.20697843
3	0xbe087da7	-0.13329183
4	0xbe2416e3	-0.16024356
5	0xbdc0f11b	-0.09420987
6	0xbe1ee0b2	-0.15515402
7	0x3dd3e81f	0.10347008
8	0x3da54531	0.08069838
9	0xbe25cab0	-0.161906
10	0xbe33abea	-0.17546049
11	0xbe744e1e	-0.23857924
12	0xbe993870	-0.2992587
13	0xbe6992a2	-0.22809842
14	0xbe43fcbe	-0.19139382
15	0xbef63be2	-0.48092562
16	0xbe956eff	-0.29186246
17	0xbe9de74b	-0.30840525
18	0xbec5e27a	-0.3864935
19	0xbf0e1e75	-0.55515224
20	0xbe70226d	-0.23450632
21	0xbe4a68f2	-0.19766596
22	0xbe8d33eb	-0.27578673
23	0xbce8a9a1	-0.028401198
24	0xbeb2f199	-0.3494995
25	0xbe6c3e90	-0.2307074
26	0xbe724851	-0.23660399
27	0xbe9b31de	-0.30311483
28	0xbe6aa01b	-0.22912638
29	0xbbbc80d2	-0.0057526613
30	0xbe85bfa2	-0.26122767
31	0xbe769543	-0.24080376

resnets.0.conv1.conv2d.weight f4 [32, 32, 3, 3]
0	0xbeaebbdf	-0.3412771
1	0xbe17b374	-0.1481455
2	0xbdbade87	-0.09124475
3	0xbe87fd31	-0.26560357
4	0xbdb25caa	-0.087090805
5	0xbdebdf28	-0.11517173
6	0xbec19412	-0.3780828
7	0xbe04d2a6	-0.12970981
8	0xbe75c6cd	-0.24001618
9	0xbe2c37b9	-0.16818132
10	0xbee89691	-0.45427373
11	0xbe5310bb	-0.20611851
12	0xbe5a8c22	-0.21342519
13	0xbededceb	-0.43527922
14	0xbec795ba	-0.3898142
15	0xbdc77bfd	-0.09740446
16	0xbb91558f	-0.004435248
17	0xbe5f1f46	-0.21789274
18	0xbdc221e6	-0.09479122
19	0xbe70493d	-0.23465438
20	0x3cf5a5d8	0.029986307
21	0xbc292296	-0.010323187
22	0xbe240fa7	-0.16021596
23	0x3e0d9c3c	0.1382913
24	0xbdedf450	-0.116188645
25	0xbe12e35e	-0.14344546
26	0xbd32f775	-0.043693025
27	0xbe7134fe	-0.23555371
28	0xbe868062	-0.26269823
29	0xbc7c0deb	-0.015384178
30	0xbe83ecfc	-0.25766742
31	0xbe4a95da	-0.19783726
32	0xbe014fd0	-0.12628102
33	0xbcc32377	-0.023820622
34	0x3cab744f	0.020929484
35	0xbd81749d	-0.0632107
36	0xbde7b88f	-0.11314499
37	0xbe54642c	-0.20741338
38	0xbe428931	-0.18997647
39	0xbc9b0232	-0.018921945
40	0xbe9bce47	-0.30430815
41	0xbe42bee4	-0.19018131
42	0x3db97fd4	0.090575844
43	0xbddeacc5	-0.10872797
44	0xbe254615	-0.16140015
45	0xbd647942	-0.055779703
46	0x3cac2393	0.021013057
47	0xbd1a3cf2	-0.03765578
48	0xbe9f2aef	-0.31087443
49	0xbeae41a3	-0.34034452
50	0xbe5ebd3c	-0.21751875
51	0xbe7ca559	-0.2467245
52	0xbd387517	-0.04503354
53	0xbd505ca4	-0.0508696
54	0xbd4d33b8	-0.05009815
55	0xbe1925e1	-0.14955856
56	0xbe275399	-0.16340484
57	0x3dde0009	0.108398505
58	0x3cd637b1	0.026149603
59	0x3cdd4257	0.027009172
60	0x3cf1d1e2	0.029519025
61	0xbd3b2186	-0.045686267
62	0xbd288a9b	-0.04114781
63	0xbdce37ab	-0.100692116
64	0xbdefc24a	-0.117069796
65	0xbe09b913	-0.13449506
66	0xbdd76e32	-0.10519065
67	0xbdebe889	-0.11518962
68	0xbe11f7d8	-0.14254701
69	0xbe27f415	-0.16401704
70	0x3ccaa9ff	0.024739264
71	0xb829f397	-4.05196e-05
72	0x3deac5e9	0.114635296
73	0xbe57096d	-0.2099969
74	0x3e11faf5	0.14255889
75	0xbcf98288	-0.03045775
76	0xbe1bce3f	-0.15215395
77	0x3de3dbdb	0.111259185
78	0xbdd10900	-0.10206795
79	0xbe8e3008	-0.2777102
80	0x3e770cb3	0.24125938
81	0x39988d3d	0.0002909693
82	0xbb6a0de1	-0.003571384
83	0x3dfd41ca	0.12366064
84	0xbe6c6fae	-0.23089477
85	0xbcc4964f	-0.023997454
86	0x3e112e4d	0.14177819
87	0xbd7f0626	-0.062261723
88	0xbc5bb7ae	-0.013410492
89	0x3e0dc35a	0.13844052
90	0xbdba6ed6	-0.091031715
91	0x3dfcbf5f	0.12341189
92	0x3cd17c3c	0.025571935
93	0xbda70f61	-0.0815723
94	0x3e493661	0.1964965
95	0xbe61fb4d	-0.2206852
96	0xbe91fb87	-0.28512213
97	0x3d53b566	0.051686667
98	0xbc0c52e5	-0.0085646855
99	0xbe418f79	-0.18902387
100	0xbdaf1c4c	-0.08550319
101	0xbd20870d	-0.039191294
102	0x3cb71190	0.022347242
103	0xbd9ef654	-0.07761827
104	0xbdec1394	-0.11527172
105	0x3eb516b8	0.35368896
106	0x3dad0efd	0.084501244
107	0x3d863501	0.065530784
108	0x3e113116	0.14178881
109	0x3d2533e4	0.04033269
110	0x3d66f82e	0.056389026
111	0x3e946db2	0.2898994
112	0x3d93dc44	0.07219747
113	0xbdc40224	-0.09570721
114	0x3e091d98	0.13390195
115	0x3dd1f14e	0.10251103
116	0xbc6c8cd7	-0.014437876
117	0x3ccba006	0.024856579
118	0xbdfdd923	-0.12394931
119	0xbd067395	-0.03282507
120	0xbe0f5e54	-0.14000827
121	0xbd8027ae	-0.06257568
122	0xbdc651a3	-0.0968354
123	0xbe2fe3b1	-0.17176701
124	0xbd81e0ba	-0.06341691
125	0x3d1cc653	0.038275074
126	0xbe18bdfa	-0.1491622
127	0xbe7a9d50	-0.24474072
128	0xbe57986f	-0.21054243
129	0x3d0ad92e	0.033898525
130	0xbe9f852b	-0.31156287
131	0xbe6b633a	-0.2298707
132	0xbe111c36	-0.14170918
133	0xbe5c2c67	-0.21501313
134	0xbe02256c	-0.12709588
135	0xbf003817	-0.50085586
136	0xbe9ea3cf	-0.3098435
137	0xbe3a06bb	-0.1816663
138	0xbe4e8013	-0.20166044
139	0xbda4d579	-0.08048529
140	0xbe04830b	-0.12940614
141	0xbee72780	-0.45147324
142	0xbe11be3e	-0.14232728
143	0xbe83cf46	-0.25744075
144	0xbd86af7d	-0.065764405
145	0xbe077231	-0.13227154
146	0xbeb28554	-0.34867346
147	0xbdd228a4	-0.10261658
148	0xbe5a7ebb	-0.21337406
149	0xbd714da1	-0.058911923
150	0xbdb21c33	-0.08696785
151	0xbe18aacc	-0.14908904
152	0xbd7f467e	-0.062323086
153	0x3c8c8dbd	0.01715743
154	0xbd4ff308	-0.050768882
155	0x3cb56455	0.022142569
156	0x3d814ba4	0.063132554
157	0xbd1c1a80	-0.03811121
158	0x3badf2b3	0.005308473
159	0xbd39c9c5	-0.045358438
160	0xbdfba947	-0.122881465
161	0x3d90702c	0.07052645
162	0xbebf7147	-0.3739111
163	0xbea06933	-0.3133026
164	0xbe1ab02e	-0.1510627
165	0x3df53991	0.119738705
166	0xbdbc56bd	-0.091962315
167	0xbe2159a5	-0.15756853
168	0x3df362f8	0.11884111
169	0x3d84685b	0.06465217
170	0x3d10a49b	0.03531323
171	0xbea0f0d7	-0.31433746
172	0xbebdd6b6	-0.37077874
173	0xbe5ed887	-0.21762286
174	0xbd611a70	-0.054956853
175	0xbcb3f488	-0.021967188
176	0xbd2d5561	-0.04231775
177	0xbe14e8d2	-0.14541939
178	0x3d48470e	0.048895888
179	0xbdefc603	-0.117076896
180	0x3e6347ea	0.22195402
181	0x3ea6800d	0.3251957
182	0x3e50ce6b	0.20391242
183	0xbd785797	-0.060630407
184	0x3d3af4f7	0.045643773
185	0x3d3f2e7c	0.04667519
186	0xbce5f404	-0.028070457
187	0xbe4f3624	-0.20235497
188	0x3e69090e	0.2275736
189	0xbd005f35	-0.031340797
190	0x3cb9b8e5	0.022671172
191	0x3cd1e79c	0.025623135
192	0xbe13a514	-0.14418441
193	0xbe4ec7f2	-0.2019346
194	0x3e2e45c8	0.17018807
195	0x3e21a0cb	0.15783994
196	0xbd2a06f8	-0.041510552
197	0x3d6ed36f	0.058307108
198	0xbde90750	-0.11378348
199	0xbe8fe6fa	-0.2810591
200	0x3cbafdb0	0.022826046
201	0x3cdc347a	0.026880492
202	0xbe38b35c	-0.1803717
203	0xbe021a5a	-0.12705365
204	0x3da04a1c	0.07826635
205	0xbd023fba	-0.031799056
206	0x3d5d369c	0.054007158
207	0x3e335610	0.17513299
208	0xbe28a033	-0.16467361
209	0xbc6879de	-0.014189212
210	0xbbadd2d2	-0.0053046728
211	0xbc609983	-0.013708475
212	0x3d387d40	0.045041323
213	0x3daf082a	0.08546479
214	0xbd5329bc	-0.051553473
215	0x3d3e1876	0.046410047
216	0x3dfc88cc	0.123307794
217	0xbd71a8a4	-0.05899872
218	0xbe7b1e7f	-0.24523352
219	0x3e6af8e6	0.2294651
220	0xbe10d37e	-0.14143178
221	0xbdf929b7	-0.121661596
222	0x3bd40bf2	0.0064711506
223	0xbdf3d7c3	-0.11906388
224	0xbea531bd	-0.3226451
225	0xbe719544	-0.23592097
226	0xbe834ffb	-0.25646958
227	0xbe52ee6d	-0.20598765
228	0xbdac1f5d	-0.084044196
229	0xbcac27ce	-0.021015074
230	0xbe4de050	-0.201051
231	0xbe332428	-0.17494261
232	0xbd45a546	-0.04825332
233	0xbe2e9526	-0.17049083
234	0x3e16dd5d	0.14732881
235	0x3dc2b2ec	0.09506783
236	0xbdc47279	-0.095921464
237	0xbe1247ed	-0.1428525
238	0x3e6a4a87	0.22879992
239	0x3e2d74c2	0.16939071
240	0xbd77e57f	-0.0605216
241	0xbe9a9fbc	-0.30199993
242	0xbd9e4aff	-0.07729148
243	0xbd8625eb	-0.06550201
244	0xbd7ccf3d	-0.061721075
245	0xbd948a24	-0.07252911
246	0xbe03a5ef	-0.12856267
247	0xbc509d2b	-0.012732784
248	0x3e01707d	0.12640567
249	0xbca7477f	-0.020419834
250	0xbd461fb8	-0.048370093
251	0x3e62ad48	0.22136414
252	0xbe92344d	-0.28555527
253	0xbe5dfeb1	-0.21679188
254	0xbd0d6df3	-0.034528684
255	0xbe260a86	-0.16214952

resnets.0.conv1.conv2d.bias f4 [32]
0	0x3c3d463f	0.0115523925
1	0x3d986cbd	0.07442615
2	0xbd2b8dfe	-0.04188346
3	0xbbd6384f	-0.006537474
4	0x3dcdccfa	0.10048862
5	0x3eb3976d	0.35076466
6	0x3d818fb3	0.063262366
7	0xbd62b2d5	-0.05534633
8	0x3e48fcd4	0.19627696
9	0x3a520fa3	0.00080131943
10	0x3d0e0318	0.03467092
11	0xbdb75fd9	-0.08953828
12	0xbddc16ee	-0.10746561
13	0xbe0a900a	-0.13531509
14	0xbcc942d0	-0.024567991
15	0xbe186912	-0.14883831
16	0xbd90da31	-0.07072867
17	0x3d4cda39	0.0500128
18	0x3d70dc51	0.05880386
19	0x3d75937e	0.059955113
20	0x3d8905c4	0.06690553
21	0xbe3408ca	-0.17581478
22	0xbe270363	-0.16309886
23	0x3dbfae45	0.09359411
24	0xbda7ab77	-0.08187001
25	0xbcf71bec	-0.030164681
26	0x3ca2ba08	0.019864097
27	0xbd242e16	-0.040083013
28	0xbe0d585b	-0.13803236
29	0x3d6ba692	0.0575319
30	0xbd87af82	-0.06625272
31	0xbde16c33	-0.110069655

resnets.0.in1.weight f4 [32]
0	0x3f2819b0	0.65664196
1	0x3f43bce0	0.76460075
2	0x3f94e888	1.1633463
3	0x3f846f24	1.0346417
4	0x3f4e9006	0.8068851
5	0x3f81e07f	1.0146636
6	0x3f6750d0	0.90357685
7	0x3f8649b1	1.0491239
8	0x3f6bb894	0.9207852
9	0x3f753921	0.95790297
10	0x3f5ef5fb	0.87094086
11	0x3f841dc3	1.0321583
12	0x3f850d76	1.0394733
13	0x3f7c6379	0.98589283
14	0x3f47948e	0.7796105
15	0x3f63177d	0.88707715
16	0x3f53f8ba	0.828014
17	0x3f5536b0	0.8328657
18	0x3f6ede3a	0.9330784
19	0x3f53e342	0.8276864
20	0x3f86ef71	1.0541822
21	0x3f7109b2	0.9415542
22	0x3f5d92d7	0.86552185
23	0x3f7458bf	0.95447916
24	0x3f7147bc	0.9425008
25	0x3f6e8376	0.93169343
26	0x3f8c73e5	1.0972868
27	0x3f8b77e3	1.0895962
28	0x3f8dcc8c	1.1078048
29	0x3f7c26e0	0.9849682
30	0x3f57aaa1	0.84244734
31	0x3f87c2dd	1.0606343

resnets.0.in1.bias f4 [32]
0	0xbe931a38	-0.2873094
1	0xbe222deb	-0.15837829
2	0x3c97c7df	0.018527923
3	0xbee99703	-0.45623025
4	0xbee0dcbf	-0.43918416
5	0xbc4b48ff	-0.01240754
6	0xbea3eb25	-0.3201534
7	0xbef84646	-0.48491114
8	0xbd1638dc	-0.03667532
9	0xbed32b90	-0.41244173
10	0xbea0a54a	-0.31376106
11	0xbec523f6	-0.38504
12	0xbefe1a11	-0.49629262
13	0xbee1afac	-0.4407934
14	0xbef5fa91	-0.4804273
15	0xbe8a9fd3	-0.2707506
16	0xbf0cfe80	-0.55075836
17	0xbe33b19d	-0.17548223
18	0xbdeb3b95	-0.11485974
19	0xbeb89741	-0.36052898
20	0xbe1b11d5	-0.15143521
21	0xbef72ecd	-0.48277894
22	0xbeb5cfc5	-0.35510078
23	0xbe7a4f43	-0.24444298
24	0xbe0df4d5	-0.13862927
25	0xbf23d932	-0.6400329
26	0xbf0a42e0	-0.54008293
27	0x3cc78523	0.024355477
28	0xbf18b07b	-0.5964429
29	0xbea26453	-0.31717166
30	0xbebc421b	-0.36769184
31	0xbefea743	-0.49736986

resnets.0.conv2.conv2d.weight f4 [32, 32, 3, 3]
0	0x3e3ea919	0.18619193
1	0x3e54150c	0.20711154
2	0x3e01c251	0.12671782
3	0x3e033518	0.12813222
4	0x3e2e4f4f	0.17022441
5	0x3e30febe	0.17284676
6	0x3e489207	0.19586955
7	0x3e8de882	0.27716452
8	0x3e772b0b	0.24137513
9	0x3cf7fb5d	0.030271227
10	0x3d31e9bd	0.0434358
11	0x3deb0dcf	0.11477243
12	0x3e4f39ca	0.20236889
13	0x3cd9149f	0.02649909
14	0x3e4d0b39	0.20023812
15	0x3e2a2ebb	0.16619389
16	0x3d96fa71	0.07371987
17	0x3dfe2de8	0.124111
18	0xbdf0c361	-0.117560156
19	0xbd46359a	-0.048390962
20	0x3ca3f139	0.020012485
21	0x3b9074b6	0.0044084443
22	0x3e022b91	0.12711932
23	0x3ba06f0f	0.0048960517
24	0xbd51b5eb	-0.05119888
25	0x3c64ae8a	0.013957629
26	0xbd05461e	-0.032537572
27	0x3e69c24a	0.22828022
28	0x3e853ed3	0.26024494
29	0x3dc7c8dc	0.09755108
30	0x3e028723	0.12746863
31	0x3d803740	0.06260538
32	0x3e9d0626	0.30668753
33	0x3c950dcd	0.018195057
34	0x3c78d7c6	0.015188163
35	0x3e4c8fda	0.1997675
36	0x3e573977	0.21018015
37	0x3db61a3f	0.08891725
38	0xbd833298	-0.06406134
39	0x3c63d24e	0.013905121
40	0x3d9afcb1	0.07567728
41	0x3dd746ec	0.10511574
42	0x3de33a7e	0.11095141
43	0x3e1d72cf	0.15375827
44	0x3e0b6802	0.13613895
45	0xbe8edc73	-0.27902564
46	0xbdce8bd0	-0.10085261
47	0xbd45de04	-0.048307434
48	0xbdec16aa	-0.1152776
49	0xbd0b7984	-0.034051433
50	0xbba9443f	-0.0051656063
51	0xbe20a3bd	-0.15687461
52	0x3bdb8992	0.0066997493
53	0xbe1540c6	-0.1457549
54	0x3d29bb89	0.041438613
55	0xbbaecf67	-0.005334783
56	0xbcce633f	-0.025193809
57	0x3cbdedb5	0.023184637
58	0x3d00a91a	0.031411268
59	0xbe25ef8a	-0.16204658
60	0xbdbf32ad	-0.093358375
61	0xbc9a9e39	-0.018874275
62	0xbc8bf6c5	-0.017085442
63	0xbe283576	-0.16426644
64	0xbc66e80c	-0.01409341
65	0xbe47f27a	-0.19526091
66	0xbe205cdc	-0.15660423
67	0x3ca51047	0.020149363
68	0x3da65035	0.08120767
69	0xbe3f9009	-0.18707289
70	0x3def5447	0.116859965
71	0x3ce29317	0.027658029
72	0x3da2d88d	0.0795146
73	0xbd1cfa19	-0.03832445
74	0xbe8f9293	-0.28041515
75	0xbcf9f52c	-0.030512415
76	0xbe06d71b	-0.13167994
77	0xbe786a52	-0.24259308
78	0xbdd7690b	-0.10518082
79	0xbe171f4a	-0.1475803
80	0xbe3ecace	-0.18632051
81	0x3e0ab9bd	0.13547416
82	0x3d9eb2ed	0.07748971
83	0x3de161ee	0.11005007
84	0x3cf4202a	0.029800493
85	0x3de6edd8	0.11275834
86	0xbd3b78f3	-0.045769643
87	0xbbcfd07a	-0.006341991
88	0x3d259ce4	0.040432826
89	0xbd0081e2	-0.031373866
90	0xbb8dffd1	-0.004333474
91	0x3dce5031	0.10073889
92	0x3d770f5f	0.060317393
93	0xbdb848ef	-0.08998286
94	0xbd5b825e	-0.053591125
95	0x3d801d17	0.062555484
96	0x3ddc741c	0.107643336
97	0x3e07a246	0.13245496
98	0x3dd1cf1a	0.102445796
99	0xbd7b5938	-0.061364383
100	0x3cbf256d	0.023333276
101	0xbe09ff64	-0.1347633
102	0x3ca25446	0.019815575
103	0xbd2cd1c6	-0.042192243
104	0xbd80bed0	-0.062863946
105	0xbd962bdf	-0.073325865
106	0xbdb3e026	-0.08782987
107	0xbe8d7a96	-0.27632588
108	0x3ed1c891	0.40973333
109	0x3d342ccf	0.043988045
110	0x3e2dfb20	0.16990328
111	0x3e9004c0	0.28128624
112	0xbe3b2cbf	-0.18278788
113	0x3d6f51e7	0.058427718
114	0x3dbeca33	0.0931591
115	0xbdc6180b	-0.096725546
116	0xbd9e3e2e	-0.077267036
117	0x3d0a2639	0.03372786
118	0xbccf6730	-0.025317758
119	0x3d17b6c3	0.03703953
120	0x3e08f67b	0.13375275
121	0x3ca63a5e	0.020291504
122	0xbd27b556	-0.04094442
123	0xbcd465c3	-0.02592743
124	0x3d80a2e9	0.06281073
125	0xbe1d47d2	-0.15359429
126	0x3ea91c1f	0.33029267
127	0x3e717e31	0.23583294
128	0x3d9555f6	0.072917864
129	0x3ec7d77d	0.39031592
130	0x3e6cd27f	0.23127173
131	0x3dd37361	0.10324741
132	0x3e0ec725	0.13943155
133	0x3dedeb5a	0.116171554
134	0x3df3edbe	0.1191058
135	0x3e16dae8	0.14731944
136	0x3d53ba87	0.05169156
137	0x3e3819f2	0.17978647
138	0x3e680909	0.22659697
139	0xbda3207e	-0.07965182
140	0x3b9f81c4	0.004867764
141	0x3d8e26e5	0.06941012
142	0x3e3f0554	0.18654376
143	0x3e9e1b5a	0.30880243
144	0x3d808168	0.06274682
145	0x3c0ab28e	0.008465422
146	0x3d80b6b9	0.062848516
147	0xbd16f368	-0.036853224
148	0x3d994d0a	0.07485397
149	0xbd8b507c	-0.068024606
150	0xbd3a89e5	-0.045541663
151	0x3dd32148	0.10309082
152	0xbd9653a9	-0.07340176
153	0xbc9f6649	-0.019457953
154	0x3e013305	0.12617119
155	0xbd734797	-0.059394445
156	0x3da427d2	0.080154076
157	0x3dff3ebd	0.12463138
158	0xbd28caf9	-0.041209195
159	0x3d19c9d3	0.03754599
160	0x3d4a0482	0.049320705
161	0x3d7ab6f7	0.061209645
162	0xbe6904db	-0.22755758
163	0xbdc823fd	-0.09772489
164	0xbe076832	-0.13223341
165	0xbe271d23	-0.16319709
166	0xbd2f2653	-0.04276116
167	0xbe4f0fec	-0.20220917
168	0xbe9dd69d	-0.308278
169	0xbde5028c	-0.111821264
170	0xbdfcc6cc	-0.12342605
171	0x3e8a2b4d	0.2698616
172	0x3e21a4bd	0.15785499
173	0x3e3547e1	0.17703201
174	0x3e80e64a	0.25175697
175	0x3e5fa90d	0.21841832
176	0x3d8a28f1	0.0674609
177	0x3d9d8827	0.076919846
178	0x3d948542	0.072519794
179	0x3db73f51	0.089476235
180	0xbdb30504	-0.08741191
181	0x3dafb4b0	0.08579385
182	0x3e077b52	0.13230637
183	0x3d50b0d9	0.050949905
184	0x3d88168b	0.06644925
185	0x3d0243b2	0.03180284
186	0x3e641ab2	0.22275808
187	0x3e284690	0.16433167
188	0xbe0d3ce0	-0.13792753
189	0x3e14d81c	0.14535564
190	0x3ddbc080	0.10730076
191	0x3e83ba8d	0.25728264
192	0x3e7b925d	0.24567552
193	0x3d998b1f	0.07497238
194	0x3cd6b814	0.026210822
195	0x3d2994ab	0.041401546
196	0xbd9e78fc	-0.0773792
197	0xbe0d56f9	-0.13802709
198	0x3e4087ee	0.18801853
199	0x3d28d514	0.041218832
200	0x3d91353d	0.070902325
201	0x3d889c5b	0.066704474
202	0x3df70be6	0.12062816
203	0x3dc21e1e	0.09478401
204	0xbe36a39f	-0.17835854
205	0xbd66499f	-0.056222554
206	0x3db3b989	0.087756224
207	0x3de80eba	0.11330934
208	0xbd1874a7	-0.037220623
209	0x3e4f2be1	0.20231582
210	0x3e7327a3	0.23745589
211	0x3d87b930	0.066271186
212	0x3e65b5ef	0.22432683
213	0x3d53d6a5	0.051718373
214	0x3d489fac	0.0489804
215	0x3d70d217	0.058794107
216	0x3c898753	0.01678816
217	0x3d956192	0.07294001
218	0xbdd9b8fe	-0.106309876
219	0x3dc86733	0.09785309
220	0x3e26e936	0.162999
221	0xbe4910f4	-0.19635373
222	0xbc496a07	-0.012293345
223	0xbd58abbd	-0.052898157
224	0xbe37c053	-0.1794446
225	0x3e3b5de3	0.18297534
226	0x3d9e80da	0.0773942
227	0x3e6120a4	0.21985108
228	0x3d7d50e5	0.061844725
229	0x3de330a8	0.11093265
230	0x3c9ea073	0.019363618
231	0xbe168d0b	-0.14702241
232	0x3e87d7ef	0.26531932
233	0x3da3b14a	0.079927996
234	0x3e4e5b61	0.20152046
235	0x3e925125	0.28577533
236	0x3ea1bcd3	0.31589374
237	0x3e8a1bbf	0.26974294
238	0x3e3c07f7	0.18362413
239	0x3e7413e2	0.2383571
240	0x3eb68e06	0.3565523
241	0x3ea48466	0.32132262
242	0x3e173c56	0.1476911
243	0xbe78736f	-0.24262784
244	0xbd1cc698	-0.03827533
245	0xbcde6c69	-0.027151303
246	0xbd9b0a38	-0.075703084
247	0x3de90e30	0.11379659
248	0xbe4c7b1b	-0.19968836
249	0x3d2e9c6a	0.042629637
250	0x3d244b78	0.040111035
251	0xbe8b55f4	-0.27214015
252	0xbe6c4b76	-0.23075661
253	0xbe76ee61	-0.24114372
254	0xbec4a0a6	-0.38403815
255	0xbed10159	-0.4082134

resnets.0.conv2.conv2d.bias f4 [32]
0	0xbd2096ce	-0.03920632
1	0xbe25067c	-0.16115755
2	0x3d1ef48b	0.038807433
3	0xbda9b856	-0.082871124
4	0x3e010a2b	0.12601535
5	0xbdc332ef	-0.09531199
6	0x3d8136c8	0.06309277
7	0xbaff8e93	-0.0019497446
8	0xbd32ba7f	-0.043634888
9	0x3dfb5d07	0.12273603
10	0x3e7f155b	0.2491049
11	0x3dacc400	0.084358215
12	0x3c045b8e	0.008078469
13	0x3e719c54	0.2359479
14	0xbdee7322	-0.116430536
15	0x3c463533	0.012097645
16	0x3cbce7c0	0.023059726
17	0x3e75b339	0.2399415
18	0xbd4965df	-0.049169417
19	0xbd9b7be7	-0.07591992
20	0x3d774849	0.06037167
21	0xbdb01415	-0.0859758
22	0xbd1975d9	-0.037465904
23	0x3ca3f0f8	0.020012364
24	0xbdde5ca1	-0.10857511
25	0xbdf18121	-0.117922075
26	0xbda6a43a	-0.081367925
27	0xbda7593c	-0.08171317
28	0xbc06e913	-0.00823428
29	0xbd0995e3	-0.03359021
30	0xbcf497ed	-0.0298576
31	0xbdd96b1e	-0.10616134

resnets.0.in2.weight f4 [32]
0	0x3ee0a51d	0.4387597
1	0x3e985e3c	0.29759395
2	0x3e8ea0b4	0.27856982
3	0x3ef9a191	0.48756078
4	0x3f040ca4	0.5158179
5	0x3f1711e3	0.5901167
6	0x3ed0f669	0.40812996
7	0x3eca8e0c	0.39561498
8	0x3efb9f0a	0.49144775
9	0x3eb72e8d	0.35777703
10	0x3e957c33	0.2919632
11	0x3eccc65f	0.39995095
12	0x3e653ab1	0.2238567
13	0x3e932b37	0.28743908
14	0x3ec23a16	0.3793494
15	0x3ea5dfc7	0.3239729
16	0x3eb6ea78	0.3572576
17	0x3e96682e	0.29376358
18	0x3e92588a	0.28583175
19	0x3ecbade8	0.39781117
20	0x3e5f7bd6	0.21824583
21	0x3e8df07e	0.27722543
22	0x3ec74daf	0.38926455
23	0x3f1b2862	0.60608494
24	0x3e461c98	0.19346845
25	0x3ebf3d10	0.37351274
26	0x3ec497bf	0.38397023
27	0x3eb8dd38	0.36106277
28	0x3eec284c	0.46124494
29	0x3ecdeb14	0.40218413
30	0x3eac7d43	0.33689317
31	0x3ede27df	0.43389794

resnets.0.in2.bias f4 [32]
0	0xbdcff0f8	-0.10153383
1	0xbc137fd8	-0.009002648
2	0x3d259957	0.04042944
3	0xbe78fbeb	-0.24314849
4	0x3e3f8706	0.18703851
5	0x3d756d4c	0.059918687
6	0xbdf22eb6	-0.11825316
7	0x3bd39c07	0.006457809
8	0x3aa7d362	0.0012804086
9	0x3e30f1bc	0.17279714
10	0x3ebe10f4	0.3712231
11	0xbd45f2f7	-0.048327412
12	0xbd03d09d	-0.03218137
13	0x3daa049e	0.08301662
14	0xbd8df8a2	-0.069321886
15	0xbd83a8c0	-0.06428671
16	0xbd49ebab	-0.049297016
17	0x3e4cfc05	0.20018013
18	0xbb00c752	-0.0019650054
19	0xbe184630	-0.14870524
20	0xbd9d7007	-0.07687383
21	0xbe15eea6	-0.14641818
22	0xbc127ca9	-0.008940854
23	0x3a835ab9	0.0010021544
24	0xbe1bb18e	-0.1520445
25	0xbed6a782	-0.41924673
26	0xbd93a5d1	-0.07209361
27	0xbe19bb09	-0.15012754
28	0xbe1429d8	-0.14469087
29	0x3d88273e	0.0664811
30	0xbd8c15c4	-0.06840089
31	0x3cd2a0cf	0.025711445

resnets.1.conv1.conv2d.weight f4 [32, 32, 3, 3]
0	0xbdb8f059	-0.09030218
1	0x3cff3a33	0.031155681
2	0xbda3161e	-0.07963203
3	0xbe1e03be	-0.15431115
4	0xbd4d5a39	-0.05013487
5	0xbd85cdcd	-0.06533394
6	0xbe3eeb34	-0.1864441
7	0xbd8583b2	-0.065192595
8	0xbe7d4f82	-0.24737361
9	0x3ea97a82	0.3310128
10	0xbe16b85d	-0.14718767
11	0xbe9d01e5	-0.30665508
12	0x3e2c3a5f	0.16819142
13	0xbe0d9c47	-0.13829146
14	0xbde8bda3	-0.11364295
15	0x3e290019	0.16503944
16	0x3e6045c6	0.21901616
17	0xbe182f48	-0.14861786
18	0x3cbfd687	0.023417724
19	0x3e5e4ba5	0.21708544
20	0x3a8eaa3a	0.0010884472
21	0xbe237b3e	-0.15964982
22	0x3d3644df	0.044499274
23	0xbc8e66d0	-0.01738301
24	0x3b9bc162	0.0047532776
25	0xbdaf971f	-0.08573746
26	0xba5bdfad	-0.00083875173
27	0xbe105c66	-0.14097747
28	0xbe7d8370	-0.2475717
29	0x3e363aee	0.17795917
30	0xbc9caa53	-0.019124186
31	0xbea1c171	-0.31592897
32	0x3e116c70	0.14201522
33	0xbe00688c	-0.12539881
34	0xbe5481c3	-0.20752625
35	0x3e31b6a5	0.1735483
36	0x3e203bd1	0.15647818
37	0xbca0d067	-0.019630624
38	0xbe9c1b6a	-0.30489665
39	0xbe0d6b96	-0.13810572
40	0x3d85e178	0.065371454
41	0xbe48aa7a	-0.19596282
42	0xbe7018bf	-0.2344694
43	0x3e4ff7be	0.2030935
44	0x3e5f3532	0.21797636
45	0x3e117537	0.1420487
46	0xbe8e8565	-0.27836147
47	0x3d75fd24	0.060055867
48	0x3d3e2fef	0.04643243
49	0xbdeee740	-0.11665201
50	0xbe09f796	-0.13473353
51	0x3e08ae26	0.13347682
52	0xbe8d9b0f	-0.27657363
53	0xbe910704	-0.28325665
54	0x3d6ea9cf	0.05826741
55	0xbd1026e3	-0.035193335
56	0xbe446faa	-0.19183221
57	0xbe56c6b2	-0.20974234
58	0x3c2731c3	0.010204735
59	0xbeb4e1e4	-0.3532859
60	0xbd15c742	-0.03656698
61	0x3bf87250	0.0075819865
62	0xbf10b466	-0.56525266
63	0x3cf225ef	0.029559104
64	0xbd1ad488	-0.03780034
65	0x3dc05971	0.093920596
66	0xbcc73baf	-0.024320452
67	0x3e054d0d	0.13017674
68	0x3cafceb5	0.02146087
69	0xbd60d5f3	-0.054891538
70	0x3d638da5	0.055555005
71	0xbe2e231f	-0.17005585
72	0xbe2903f6	-0.16505417
73	0x3e888119	0.26660994
74	0x3dc9c314	0.09851661
75	0xbd9cff73	-0.076659106
76	0xbcf794a5	-0.030222246
77	0x3e3079ab	0.17233913
78	0xbd792170	-0.060822904
79	0x3e1c7808	0.15280163
80	0x3ed2dd30	0.41184378
81	0xbe21dd4b	-0.15807073
82	0x3e4c3b42	0.1994448
83	0xbdd120d8	-0.102113426
84	0xbdc6c95b	-0.09706374
85	0x3e886c7d	0.2664527
86	0xbea1cd6c	-0.31602037
87	0xbe5329c3	-0.206214
88	0x3e3cb07b	0.18426697
89	0xbe14829d	-0.1450295
90	0x3beb5781	0.007182062
91	0x3e88338e	0.26601833
92	0xbec42ad0	-0.38313913
93	0x3dd74239	0.10510678
94	0x3ec603e4	0.38674843
95	0xbdaf8e9c	-0.085721225
96	0xbe7f3726	-0.24923381
97	0x3f034f8b	0.5129325
98	0x3e73ccad	0.23808546
99	0xbdb454e1	-0.08805252
100	0xbe724b91	-0.23661639
101	0x3d1e7dd7	0.03869423
102	0x3e3c15b1	0.1836765
103	0xbed9a3aa	-0.42507678
104	0x3e36563d	0.17806335
105	0x3e4bd70a	0.1990625
106	0xbec500d5	-0.38477197
107	0xbdc2e19a	-0.09515686
108	0xbe1d00e5	-0.15332372
109	0xbc932ad1	-0.017964752
110	0xbd864122	-0.06555392
111	0xbd2951c4	-0.041337743
112	0xbd9f87f4	-0.07789603
113	0x3bb314f1	0.005465143
114	0xbde01c39	-0.10942883
115	0xbe1ae95c	-0.15128082
116	0xbde71b2b	-0.11284479
117	0xbeadcd11	-0.33945516
118	0x3d18448e	0.037174754
119	0xbe15d432	-0.14631727
120	0xbe204bf1	-0.1565397
121	0x3d720cde	0.059094302
122	0x3be369dc	0.0069401097
123	0xbda823bb	-0.0820994
124	0x3da51bf1	0.0806197
125	0x3ec96ae4	0.39339364
126	0x3e10c099	0.1413597
127	0xbdee22a5	-0.11627702
128	0xbe41b1c3	-0.18915467
129	0x3e81e617	0.25370857
130	0x3d9aaaa8	0.07552081
131	0xbd3f53ff	-0.046710964
132	0x3e03e443	0.12880044
133	0x3d98dda2	0.07464148
134	0x3df0ad74	0.117518336
135	0xbd698814	-0.05701454
136	0xbdb62439	-0.08893628
137	0x3db31fe3	0.08746316
138	0xbd6fb6bb	-0.058523875
139	0xbe013304	-0.12617117
140	0xbb90e3fb	-0.0044217086
141	0xbd80f046	-0.062958285
142	0xbdaaf081	-0.08346654
143	0x3e81d240	0.2535572
144	0xbce120f7	-0.02748154
145	0x3df9c560	0.121958494
146	0xbe2cc65b	-0.16872542
147	0xbdc98bcd	-0.09841118
148	0x3e852901	0.26007846
149	0xbe37a388	-0.17933476
150	0xbda3d463	-0.07999494
151	0x3d7f2768	0.06229344
152	0xbd0b0c4c	-0.033947274
153	0xbda22923	-0.079180025
154	0x3e332bd9	0.17497195
155	0x3e4aff6f	0.19824003
156	0x3d3b1258	0.04567179
157	0xbde568d4	-0.11201635
158	0xbc48d494	-0.012257714
159	0x3e276dd1	0.16350485
160	0x3e21d573	0.1580408
161	0x3d343d15	0.044003565
162	0x3cde8adb	0.02716582
163	0x3eacb19c	0.33729255
164	0x3e0a8184	0.13525969
165	0xbd5e157b	-0.054219704
166	0x3ec33d11	0.38132527
167	0x3e1af4c4	0.15132433
168	0xbd948a62	-0.07252957
169	0x3e7c4a5a	0.24637738
170	0x3e4c3bee	0.19944736
171	0x3d69b46f	0.05705684
172	0xbcc238e7	-0.023708774
173	0x3ca1a018	0.019729659
174	0xbe44c66b	-0.19216315
175	0xbe2a40fa	-0.16626349
176	0x3d84a41a	0.064766124
177	0xbd7843b6	-0.06061145
178	0xbe057a1a	-0.1303486
179	0x3e01b851	0.12667967
180	0x3d61149b	0.05495129
181	0xbbd990a5	-0.0066395574
182	0xbee1349f	-0.4398546
183	0xbd031d9f	-0.03201067
184	0xbd069d3b	-0.03286479
185	0xbef0ee29	-0.47056702
186	0xbdab1dca	-0.08355291
187	0xbbc48a8a	-0.0059979605
188	0xbe2aff44	-0.16698939
189	0xbc8a51db	-0.016884735
190	0x3e073a31	0.13205792
191	0xbde071cb	-0.10959204
192	0x3d5989aa	0.053109802
193	0x3ea3d78b	0.32000384
194	0xbe5cce55	-0.21563084
195	0x3e338038	0.1752938
196	0x3e1c38f0	0.15256095
197	0xbc5ef7ec	-0.013608914
198	0xbd6fb792	-0.058524676
199	0x3e1c025c	0.15235275
200	0x3c665a15	0.014059563
201	0xbc6e1b21	-0.014532835
202	0xbe2bb714	-0.16769058
203	0xbc87c430	-0.016573042
204	0x3d3f1e09	0.046659503
205	0xbd7fb797	-0.062430944
206	0x3d4ac326	0.049502514
207	0x3e811c0c	0.2521671
208	0x3e070dd1	0.13188864
209	0xbd284d55	-0.041089375
210	0xbb557c1e	-0.00325752
211	0xbcef96b7	-0.029246671
212	0xbe7f156d	-0.24910517
213	0xbd6703ba	-0.05640004
214	0x3e0a9fc7	0.13537513
215	0xbe1fe14f	-0.15613292
216	0xbc1dbf20	-0.009628087
217	0x3e9b036a	0.30276042
218	0xbd366d33	-0.044537734
219	0xbdb48dfc	-0.08816144
220	0x3e9c80ad	0.30566922
221	0x3e4881aa	0.19580713
222	0xbe7c5527	-0.24641858
223	0xbc1c9bb6	-0.009558609
224	0x3e104983	0.14090542
225	0x3d6737ba	0.05644963
226	0xbcc3cf4e	-0.023902562
227	0xbdf53fd3	-0.11975064
228	0x3db776a4	0.08958176
229	0xbd1d499b	-0.038400274
230	0xbdac2936	-0.08406298
231	0x3cc85859	0.02445619
232	0xbcaac0a0	-0.020843804
233	0xbe575a38	-0.2103051
234	0xbe4856cb	-0.19564359
235	0x3e2ac3eb	0.166763
236	0x3eee20e6	0.46509475
237	0xbe028032	-0.12744215
238	0xbcbbc000	-0.022918701
239	0x3f0edf8f	0.55809873
240	0x3e0765da	0.13222447
241	0xbd98e501	-0.07465554
242	0x3f2373f3	0.638488
243	0xbdd32926	-0.10310583
244	0xbd244837	-0.040107932
245	0x3dcd6492	0.10028948
246	0xbe3769c8	-0.17911446
247	0xbc43dabb	-0.011954005
248	0x3d33608b	0.043793242
249	0xbe67aac7	-0.2262374
250	0xbd07a219	-0.033113573
251	0x3ec39ec4	0.38207066
252	0xbe4b4cf5	-0.19853576
253	0xbdc6ba59	-0.09703512
254	0xbeb33bea	-0.35006648
255	0x3cba56db	0.022746494
