Assets/Style_Transfer/Models/Estilos mejoras/ReCoNet/Rnc_S1.5.onnx (onnx, 449372 bytes, 62 tensors)

conv1.conv2d.weight f4 [8, 3, 9, 9]
00000000: 6998 f1bb a466 18bc a20d 43bc e6f6 8ebc
00000010: 97bb 653c 79e8 71bd 127e 823c 313a 18bc
00000020: b3b5 c0bd 915e 8cbd ccbe 09bd 8fac 56bd
00000030: 3cc1 9a3d f0bc bcbc 7e05 aebc 447b aabc
00000040: fdf8 07bd db2f c8bd 3cfd e13c aedf 0b3d
00000050: 902f 0dbd 462f dbbb b13f 8bbd 022c 513c
00000060: 1f73 edbc 7e70 aa3c ad91 c23c 414c 5a3c
00000070: 4652 1b3d 76a5 2b3d 8735 af3d ca5c 88bd
00000080: f6f2 25bd af02 cb3b 449a 023d 93e2 a83b
00000090: 64c2 5e3d 1536 4ebd e0b9 013c ef8c c83c
000000a0: d7bc cebd 2736 a5bd c2a0 22be 36ea 29bb
000000b0: 5c15 903d dfee 2fbd 2847 9bbd 9e0a 36bd
000000c0: 48b5 e13d a81f 563d 9aec b7bc 2f39 a0bd
000000d0: f2c8 fd3b 6b30 b03d 87c0 6f3d 39bc a3bc
000000e0: 01dc 34bd ec68 84bd 8a0d f33d 2d5c 963d
000000f0: 7e5a 9b3c 0ea1 773d 399c ba3d 177b f2bc
00000100: afe4 243d 0cc2 e1bd 540a e3bc 10f3 96bc
00000110: ffec ac3d 9fb9 4dbd 93a0 d8bc d667 813d
00000120: 538d a3bc 4130 743d 7030 d13c eea8 52bb
00000130: 7b87 8ebd e145 c13d 0b55 2c3d 5024 31bd
00000140: 543d a43d ad1e 443d 5420 61bc 7e3d 133d
00000150: e993 9f3c 30ee 70bd 3601 33bd 7532 293d
00000160: 29ab 50bd e743 06bc c649 17bd 6a9b bcbd
00000170: 7112 28bd 766b 1e3d 63d6 3bbc 6dc4 61bd
00000180: 7a69 5f3d 3587 75bc c91e 2dbd bc66 393d
00000190: 8dea b23c f4ea 02bd 9618 b8bb 3339 34bd
000001a0: fe92 98bd 3674 193d 708d 55bd 2fc5 3fbd
000001b0: 0c18 d83d 9655 753c 04c8 de3d d7ce 9c3d
000001c0: b478 c0bd 8eda 35bd 2d7d 99bd 086a 8dbc
000001d0: 6416 7ebd 1261 5a3d a34e 9bba 4bee 043e
000001e0: 42d4 983d d369 33bd dc6a fbbd 49ff f0bd
000001f0: 87bc 1ebd b343 22bd 50f5 983c 3c74 ddbd
00000200: 330b 3f3d af92 133e b697 173e 9fd1 53bd
00000210: a507 45bd 6e32 20bd 0847 e53d cb41 93bd
00000220: b56b b4bd caa3 b8bd e7c7 843b bf91 2d3e
00000230: 0607 263d 9eb2 863a f276 b83b 6e5e c33d
00000240: bd8d 8d3d 3153 70bc 626a 41bd 73e6 40bd
00000250: 2654 803d 4f74 c23d 64cd 6bbd a744 5bbd
00000260: fb11 f6bb 55cf 7cbd 0970 c5bc 6917 2ebc
00000270: 3c9b 8d3c 1fe0 a9bd 70be af3d b11c 2b3c
00000280: d8d9 a9bd 1d31 14bd 9ef5 ec3b 4e64 e1bd
00000290: 1927 46bd a181 42bc d359 f7bc 9995 dabb
000002a0: 3cf2 553d 6333 d53c f452 8dbd e7e2 b3bd
000002b0: f801 c5bd fbf0 bdbc 0772 f6bc cd3a cdbd
000002c0: 6abc 90bc dc20 203d d086 113d 4deb ee3c
000002d0: 7d7a 613d 766f f2bc deb4 6abd 46f5 43bd
000002e0: e4d7 31bd ee6b 2bbd e236 ae3d a67a 1bbd
000002f0: e79a 513c 4b91 313c 5e4e febb 2163 2b3d
00000300: 5f25 d63c 0603 22bc 4b1f 08bd 5d78 bcbd
00000310: 8d4c 073d 5556 0bbd 29ea 443d 968e 683d
00000320: 550d 433d 98c4 d03d e189 cc3c 73d1 cfbd
00000330: 6c72 12bd 4434 f13c 1e4b 9abc aa17 82bd
00000340: b541 1fbd 8b90 b63d e44b 4a3e 4de9 633e
00000350: 8873 563d 09fd b83c 1229 1a3d 425a 393d
00000360: 7914 5f3c 9c50 273d cc0e a03d 8b4c b73d
00000370: 0a2f 593e 2dbe 193e 8529 303c 2fd0 70bc
00000380: 0d7a 8e3d c845 1f3c 27c4 b73d 6431 7d3d
00000390: 95ab 653d a1d6 003e 28bf cc3d 2006 cd3a
000003a0: b60f 37bd 56fe 1f3d d61a 57bd 4684 d93d
000003b0: f62f f63d 1209 3a3d aef2 57bd 166d b43d
000003c0: e1b3 15bd 4b79 30bd 7760 ce3a f600 12bd
000003d0: 6b16 22bc 79c9 adbd 5470 033d 0341 3ebc
000003e0: 391f 873c 12b0 0aba eb9d 613c ea8f f83b
000003f0: c61c b3bb 34f0 c0bd f6c6 483d a2c0 bc3d
-0.007372905 -0.009301815 -0.011905106 -0.017451715 0.014021776 -0.059059594 0.015929256 -0.009291218
-0.094096564 -0.068539746 -0.033629224 -0.05241066 0.07556388 -0.023039311 -0.021242853 -0.02081073
-0.033196438 -0.09774753 0.027586572 0.034148864 -0.034469187 -0.006688985 -0.067992575 0.01276684
-0.028985558 0.020805594 0.023751104 0.013323844 0.03792026 0.041905843 0.085551314 -0.06658323
-0.04051491 0.0061953883 0.0318854 0.005153963 0.054384604 -0.050344545 0.007917851 0.024481265
-0.10094612 -0.08066969 -0.15881637 -0.0025926954 0.07035324 -0.042952415 -0.07581931 -0.04444372
0.11020905 0.052276284 -0.022451688 -0.07823407 0.007744902 0.08602985 0.058533218 -0.019987212
-0.044155125 -0.06465325 0.11867817 0.073418 0.018964048 0.060456328 0.09111828 -0.02959971
0.040257152 -0.1102334 -0.027714886 -0.018426448 0.08443641 -0.05022585 -0.026443755 0.06318633
-0.01996485 0.05961633 0.025535792 -0.0032144147 -0.069594346 0.094371565 0.04207329 -0.04324752
0.0801951 0.047880817 -0.013740618 0.035947315 0.019479709 -0.058820903 -0.043702327 0.041307885
-0.05094448 -0.0081949 -0.03693559 -0.092093304 -0.041033212 0.0386767 -0.011464688 -0.055118967
0.05454395 -0.014985849 -0.042265687 0.04526399 0.021840358 -0.03196235 -0.0056181652 -0.043999862
-0.074499115 0.037464343 -0.05213684 -0.04681891 0.105514616 0.014974019 0.10877994 0.07656639
-0.09398022 -0.044397883 -0.074945785 -0.017262474 -0.062033072 0.05331523 -0.0011848997 0.12981527
0.0746236 -0.043802094 -0.12276241 -0.11767442 -0.038754012 -0.039615344 0.018671662 -0.108131856
0.04664154 0.14411424 0.14803967 -0.051713582 -0.048102994 -0.039110593 0.11195189 -0.071902834
-0.08809606 -0.09015615 0.0040521505 0.16950129 0.04053404 0.0010276621 0.0056294138 0.095394954
0.069118 -0.014668272 -0.047220595 -0.047094774 0.0626605 0.0949484 -0.057568923 -0.05353227
-0.0075094677 -0.061721165 -0.024101274 -0.010625699 0.017285936 -0.08294701 0.08581245 0.010443852
-0.082935035 -0.03617965 0.0072314283 -0.1100546 -0.04837713 -0.011871726 -0.030194199 -0.0066706655
0.052232966 0.02602548 -0.06900588 -0.087835126 -0.09619516 -0.023186198 -0.03008367 -0.10020981
-0.017667968 0.039093837 0.035528958 0.029164935 0.055048455 -0.029594164 -0.057301395 -0.047841333
-0.04341878 -0.041850977 0.08506562 -0.037958764 0.012793279 0.010837863 -0.007760807 0.041842584
0.026140867 -0.009888416 -0.03323297 -0.09202645 0.03303199 -0.03401788 0.048074875 0.056776606
0.047620136 0.10193747 0.02496809 -0.10147371 -0.035753652 0.029443868 -0.018834647 -0.0635217
-0.038881022 0.08914288 0.19755512 0.22256966 0.052356273 0.022581594 0.037636824 0.045252092
0.013615721 0.04084836 0.07815322 0.08950146 0.2120935 0.15013953 0.0107520865 -0.014698072
0.06956873 0.009721227 0.0897296 0.06181468 0.056071837 0.12581874 0.09997398 0.0015642084
-0.044692717 0.039060913 -0.052515827 0.10620932 0.120208666 0.045418806 -0.05272167 0.08809869
-0.0365485 -0.043084424 0.0015745301 -0.035645448 -0.00989304 -0.084856935 0.032089546 -0.01161218
0.01649438 -0.0005290519 0.013770561 0.0075855153 -0.0054660765 -0.09420815 0.04901787 0.09216429

conv1.conv2d.bias f4 [8]
00000000: 1114 493c 57d0 4e3d d99e 773d df15 9f3d
00000010: abdd 3b3d 062f 49bd 2c57 343b 4210 88bd
0.012272851 0.050491657 0.060454223 0.077678435 0.045865696 -0.04911711 0.0027517779 -0.06643726

in1.weight f4 [8]
00000000: 3e88 9e3f 5e77 a73f 4e3f a53f 4c1f bc3f
00000010: 4eaf 983f 8b7d aa3f 2a86 a13f dea9 ca3f
1.2385328 1.3083303 1.2909944 1.4697051 1.1928499 1.3319563 1.2619069 1.5833089

in1.bias f4 [8]
00000000: b6ae 063f 2fe3 7b3e 48d9 3a3e 6339 cd3e
00000010: 88be 773e 2e76 cf3e 5074 223f 6eb8 973e
0.5261034 0.24598382 0.18246949 0.40082845 0.24193776 0.4051985 0.6345873 0.29632896

conv2.conv2d.weight f4 [16, 8, 3, 3]
00000000: 0eae 5e3d 167d df3d 8b6b 563d b9be a9bd
00000010: 66ec f5bd 58c2 1e3d fcae b6bd e6b8 1dbd
00000020: 17c6 fabd ff45 423d c069 44bc 2795 ab3b
00000030: 9efe b0bc da8c e33d 72f5 e7bb 6cf9 123d
00000040: 7ca8 cbbc d889 93bd 9fb8 a33d a7e9 e6bb
00000050: b4ef 313b ea3c b1bd cb9b fcbd 806c f63d
00000060: 17e3 1d3d 9a29 85bd e39d 9abc 1acd 89bc
00000070: 0c1f c5bc c365 593e 20b5 063d 8883 0cbe
00000080: a13d 013e 49ee 22be 5938 7bbd 20cb 3dbc
00000090: 4474 e2bd 3c64 0dbe 76bd 5abc 1c6d 08bd
000000a0: c818 8f3d da4c 543d 209e 82bb 818f 8bbc
000000b0: 3c16 7b3d c28c b13d e5a0 ac3d 0bbf 673d
000000c0: 557c 09be 76ed 693d 7420 773c f470 1dbe
000000d0: a2ee ccbd 7653 aa3d 745b 023e 38ae 293d
000000e0: 1670 113e 4040 b4bd f0c2 963d 05b9 203e
000000f0: 3311 15be d956 c1bb 9e9e f7bc 11ce acbd
00000100: 6658 293d c792 acbd f210 063e fd7d 7cbd
00000110: b32a 9fbd a6ee 0e3d c13c 2b3d f88e 413c
00000120: 5bfd 573d 21a8 f83c 13e9 8cbd 9bbe 0ebe
00000130: b3c5 fabc 8a25 3c3d ddaf a1bd 7a13 8a3d
00000140: 0e5d 51bd f7a0 8c3d 6478 8e3d 14f5 d9bb
00000150: 00c6 293e 636a 5dbd 7f5c 2abd ccdb b33c
00000160: adf3 a2bd 4ee4 58be 2fea 93bd 0202 4bbd
00000170: b275 efbd 66c0 f73d 14ee d4bd e0c1 67be
00000180: 734a 063e bf11 c1bd 3ebb c7bd ff03 513b
00000190: 3432 873d 9265 edbd 95e0 763d 99cf b03c
000001a0: 5074 a7bd ae6a 4cbd 8727 62bd f5e8 143d
000001b0: 51bd 793d ca71 2bbd e7c8 8dbd 0a83 ad3d
000001c0: 23fa 71bd b318 d3bc 8293 2e3e ec8e 5fbd
000001d0: afc6 10be cf33 ed3b 8c73 a33d 3893 c3bc
000001e0: 6239 333d 178b 283e 8def b3bb 399e 9e3d
000001f0: bc4c a2bd f294 eebc 7588 a9bd 8d79 623d
00000200: edbb cfbd f001 14bc 9aba 05be 9710 15bd
00000210: bdbf 733b 3b78 06be 7e67 cebd 0bd5 a3bd
00000220: 1c75 103e 1ac3 993d e954 253d 80ef 193e
00000230: 670b bf3c b697 d43c 1994 823d f7a2 96bd
00000240: 0a10 fb3b 4334 f43c 7233 bd3b d1aa f8bb
00000250: 0fd4 123d 804d f1bd b14b b1bd 111d 863d
00000260: 3f55 843d 53db 65bd d3d2 19bd 198b b83d
00000270: e1ed 50bd a334 0ebe 91b0 cf3d ae45 76bd
00000280: 5c6f 3c3d 703f 553c eb66 a2bd f909 ce3d
00000290: b38f 233e 98ef 53bd cba7 71bd 8a48 a33d
000002a0: d806 d6bc 5133 553c 5e16 a33d 72ee 9dbd
000002b0: 656f ca3c 27c0 e0bd 5a39 2b3e b217 39bc
000002c0: c687 68be 9d71 b43d 7555 a83d c12a b73c
000002d0: 5177 363d fac0 11bc d178 203d 912b 18be
000002e0: 38e7 06be 5afd dd3d dabb afbd 3062 ff3c
000002f0: f827 7d3d 50f4 5fbd 86ef 4fbd 0935 05bc
00000300: 0b23 7cbd 5615 b6bd 16bd c1bd 6d99 183d
00000310: c973 19be 8744 26bd 644e 7b3d c159 02be
00000320: c6b6 dbbd 542d 07bc cc72 0cbd 130c ccbd
00000330: 0c5b b53d 35cf 633d 031d f2bd e812 973c
00000340: 7cb9 c5bd 8eeb b63d 4e9f efbd 6e1d 77bd
00000350: ae64 0ebd 481e 7cbd 7659 3abd f7ed 503d
00000360: be29 f0bd 971d be3d 15a0 913d 6e76 8a3d
00000370: 2ecd c33d 5ef5 f0bd f0ed a13b c566 a03c
00000380: e8c4 603d 640b a7bd ff5a e6bd 6e2a a23a
00000390: 3552 36bd 50ef 23be 338f 15be e6d4 67bd
000003a0: 760d b6bd fc22 a1bc dd36 e0bd 8963 bb3c
000003b0: 98b7 08be 6051 69be b1a7 d4bd e3a4 d9bd
000003c0: c30b a83a 6a48 883d b984 f53d b21a 9ebd
000003d0: f4a0 96bd 23a9 91ba b074 b1bc 7655 35bb
000003e0: a7f0 17be 5259 7dbd 8540 19be 7f66 943d
000003f0: 40b6 d23d 26ff a5bd 9ef8 c43d 3654 2f3d
0.05436521 0.1091253 0.052348655 -0.082883306 -0.1200798 0.03875956 -0.08920094 -0.03850641
-0.12244814 0.047430035 -0.011988103 0.005236286 -0.021605786 0.1111085 -0.00707882 0.0358824
-0.024860613 -0.07204026 0.07994198 -0.0070468965 0.002715093 -0.086541966 -0.12334403 0.120324135
0.038546648 -0.065020755 -0.018874114 -0.016821433 -0.024062656 0.21230225 0.032887578 -0.1372205
0.12621166 -0.15911211 -0.061333034 -0.011584073 -0.11057332 -0.13807768 -0.013350835 -0.03330718
0.069871485 0.051831104 -0.003986135 -0.017036201 0.0613005 0.086694255 0.08429126 0.056578677
-0.13426335 0.057111226 0.015083421 -0.1537512 -0.10006453 0.083167 0.12730199 0.041425914
0.14202914 -0.08801317 0.073614 0.1569558 -0.14557342 -0.0059002456 -0.030227002 -0.084377415
0.04134407 -0.08426433 0.13092402 -0.06164359 -0.07771816 0.03489556 0.041805986 0.011813872
0.052731853 0.030353608 -0.06880393 -0.13939898 -0.030611848 0.045934238 -0.078948714 0.06741996
-0.051114134 0.06866639 0.069565564 -0.00665153 0.16579437 -0.054056536 -0.041592117 0.021955393
-0.07956634 -0.21180841 -0.07222401 -0.04956246 -0.116923705 0.12097244 -0.10396972 -0.22632551
0.13114338 -0.09427213 -0.097525105 0.003189325 0.06601372 -0.115916386 0.060272772 0.021583365
-0.08176482 -0.049906425 -0.055213477 0.036354978 0.06097156 -0.041856565 -0.06923085 0.08472259
-0.05907644 -0.025768613 0.17048457 -0.05457966 -0.14138292 0.007238842 0.07981023 -0.02387391
0.043755896 0.16459309 -0.005491203 0.07745022 -0.07924792 -0.029123757 -0.0827798 0.0552917
-0.10143266 -0.009033665 -0.13059464 -0.036392774 0.0037193142 -0.13131802 -0.10078333 -0.07999619
0.14107174 0.07507916 0.04036418 0.15032768 0.023320867 0.025951248 0.06375904 -0.07355302
0.007661824 0.029810077 0.005773955 -0.0075887223 0.035846766 -0.1178236 -0.08657015 0.06548513
0.06461572 -0.056117367 -0.037554573 0.09010906 -0.05100811 -0.13887267 0.10141099 -0.060125045
0.046004638 0.013015613 -0.07929786 0.10060496 0.15972786 -0.051742166 -0.05899791 0.0797282
-0.02612631 0.013012723 0.079632506 -0.077114955 0.02471132 -0.1097415 0.16721097 -0.011297153
-0.22708043 0.088107325 0.08219425 0.022359254 0.044547383 -0.008896107 0.03917772 -0.1486037
-0.1317414 0.108393386 -0.08580752 0.03117475 0.061805695 -0.054676354 -0.050765537 -0.00813032
-0.061556857 -0.08890788 -0.094598934 0.037255693 -0.14985575 -0.040592697 0.061354056 -0.12729551
-0.10728221 -0.008250553 -0.034289166 -0.099632405 0.088552564 0.05561753 -0.1182194 0.018441632
-0.09654519 0.08931647 -0.11700307 -0.0603308 -0.034763984 -0.061552316 -0.045495473 0.05100819
-0.11726712 0.092829876 0.07110611 0.0676087 0.09560619 -0.1176555 0.0049416944 0.019580254
0.054875284 -0.081564695 -0.11247825 0.0012372264 -0.044511992 -0.16009259 -0.14605407 -0.05659952
-0.08889286 -0.019670002 -0.10947964 0.02287461 -0.13351285 -0.22784948 -0.10383547 -0.10627153
0.0012820888 0.06654437 0.119882055 -0.077199355 -0.07354918 -0.0011113029 -0.021662086 -0.0027669347
-0.14837895 -0.06185276 -0.14966018 0.07246112 0.10288668 -0.08105306 0.096177325 0.04280492

conv2.conv2d.bias f4 [16]
00000000: 4b3b cbbd 4def e03b dd5d a53d 82c4 923c
00000010: a9b8 a13d ef35 32bd c741 febd 08d7 d43d
00000020: 4a1c bebd 6a8e c9bd 2246 20be f113 2bbd
00000030: 5889 b1bc 07e5 483d b7c2 273d d0e5 03be
-0.099234186 0.0068644644 0.080745436 0.017915968 0.07896549 -0.043508466 -0.1241489 0.103925765
-0.092827395 -0.098416165 -0.15651754 -0.041767064 -0.021671936 0.049046542 0.04095718 -0.12880635

in2.weight f4 [16]
00000000: 7344 6e3f 9f13 5c3f 87bf 293f b4ed 623f
00000010: 91a1 683f 3e82 553f 3ab8 7b3f dcb4 333f
00000020: 4530 4d3f d46a 383f b871 303f 04e4 253f
00000030: f75e 5b3f d324 423f c42c 4c3f 6112 4f3f
0.93073195 0.8596744 0.6630787 0.88643956 0.9087153 0.8340186 0.9832798 0.70197845
0.8015178 0.72038007 0.6892352 0.6480105 0.8569178 0.7583744 0.79755807 0.8088742

in2.bias f4 [16]
00000000: 640e a6bd 7be9 86bc 008d 27be 4093 2d3e
00000010: f510 83bd 347f c83c 198c a93a 7c72 ffbd
00000020: 44fd 3d3c 0e16 e5bd 7d47 1fbe dcd6 09be
00000030: bfe6 40be 9dbc a9bd c8e3 5ebd ac63 cabd
-0.081082135 -0.016468754 -0.16362381 0.16950703 -0.06399719 0.024474718 0.0012935429 -0.12473008
0.011596028 -0.11185847 -0.15554614 -0.13460869 -0.18838023 -0.08287928 -0.054416448 -0.09882292

conv3.conv2d.weight f4 [32, 16, 3, 3]
00000000: d5db 11be 2f64 83bd f260 d4bd d087 c23d
00000010: 851f 06bd b79f 9e3c 6b19 b73d 07cc b33d
00000020: abbb 00b9 0ed2 a6bc 8a2e 98bc e757 fc3c
00000030: 8984 483a 54ff e43c 155f ccbc 1e5b d0bd
00000040: 11ad 9e3c ffef 8dbc 0384 0cbd f54f 1c3d
00000050: e175 13bc a761 c93b 956b 503d 4316 33bd
00000060: c4fe 963d 393b df3b 8466 84bd 83ee 8ebd
00000070: a231 5d3d 0444 373d def8 e13a 6e28 32bd
00000080: 237f 20bc a15a b53c 6c83 34bd 29ac 923c
00000090: 7a0a 39bc 3d1f 66bd 8bc9 213b 4d75 8abd
000000a0: f4e0 a0bd 405a 2bbe ceb9 913a 5ba1 a33d
000000b0: dd5f 8cbc 6994 c33c b0fd 77bc 6f18 b23d
000000c0: 077b 19bd 5d5a 5cbd a313 f7bc 7536 063e
000000d0: d26d 133c a9f6 44bd 0b0c c53b 07fa df3d
000000e0: bb20 7a3d 3a93 8abc ab5d 173d c36f b93d
000000f0: 6068 01be cf5d dabd a060 b8bd d116 9d3d
00000100: 1bde 77bd dbfd 96bc a380 dbbd b35b 74bd
00000110: 031d e6bd 439d 38be 20b1 f6bd a470 d23c
00000120: b87a 2cbd b1e5 bbbd a5da 8cbd 3eb5 713b
00000130: cf4c 3abd 0bda b7bd 34ad 06be 32cb 1cbe
00000140: a885 55bd 057b a93d 19a0 923d 6dd2 913d
00000150: b8c7 13bd af76 3ebd e35d 6cbc 1922 53bd
00000160: 40d3 4e3d 2f03 7c3d a7a6 e2bc b072 c3bd
00000170: cd3c 4abd 6f02 dc3c 272d c9bb 81cd e8bc
00000180: 9684 4a3d 7bcf 883c c893 4e3d 84c0 5d3d
00000190: 268f c0bc f960 f03b 848c d23c 8697 4d3b
000001a0: c652 d6bc a550 1bbd 6026 84bc 9c4d b23d
000001b0: 6f58 9bbd 5be8 dfbd d6e3 07be 13df 45bc
000001c0: dd33 43bd 0454 a7bc 68b9 1cbe 56fa b5bd
000001d0: 39bf 96bd 4dff aabd e477 0b3c 45d5 6abd
000001e0: d62a 42bd b4bd 2e3c 8914 333d b019 a23d
000001f0: bccd c63c 57a7 eb3c 3656 8abd 1326 b6bd
00000200: 45ee c6bd cb19 d2bd d5bc 10bd aee7 31be
00000210: d570 e1bd 3bf1 193c 9320 0cbe 70f4 90bc
00000220: 1fb4 fbbd 096f 93bd 48d9 003d fe8c 003d
00000230: f8ab 82bd 389b 273c 3eee 823d b74e aa3d
00000240: 2c8a 67bd a33f bbbd 6c22 2f3d 7daa 633c
00000250: 1093 33be c641 89bd 1f2d af3b 38fe 41bd
00000260: 6c3a b439 3121 c1bb 68e7 3d3d 04e6 bfbd
00000270: 1e96 933d 22f6 273d 4aa0 093c 12ab ccbc
00000280: e625 bebd 5b5b 353c 7a49 1c3d d1f5 fdbb
00000290: ed63 763d 684b 593d 5222 933d bca4 85bd
000002a0: 1e5b 253d 3d7a d2bd c151 ecbd 96e4 463d
000002b0: a692 ad3d d561 a63d 663e 0d3e 2ca1 4fbc
000002c0: 06fb 823d 0dac 303d 6135 29be 3b64 85be
000002d0: 6ed5 dabd 35ca c5bb 3ef3 4dbd 8981 103d
000002e0: 1b5f 65bd 3071 cabb 4da8 6e3d 4fa9 bd3c
000002f0: f7be 8cbd 48e5 ec3d a52c 183d 1236 0b3d
00000300: 61cc a33c 628a 543d 8844 823d 109a 16bc
00000310: 7788 2bbe faf6 7cbe 38ab 183d 9d55 4fbd
00000320: 9b79 973c 6ee1 a0bd 800c 90bb 4db6 003e
00000330: 63e9 e4bd c065 27bd 6c2e ee3c f8d7 49bc
00000340: 81fd 0abe fcc5 17bd 1422 7abb e973 843d
00000350: d313 853d b7f5 fabc e916 e53d ceec 503d
00000360: 4188 22bc 0d8f b7bd 0601 b8bc 2ed1 f5bd
00000370: 541a 1ebe a6e0 3dbd a126 16be b928 90bd
00000380: de2b 563d b97e 2f3d 98a9 49bd 1dde bb3d
00000390: ff8b 483c ee65 433d a2f4 663d dbc8 47bd
000003a0: 544b 1f3d f77e f23c 6477 84bb 5be9 0b3e
000003b0: 864c 5b3d c7d7 0b3e 0a65 fc3b 9f63 ddbb
000003c0: 2d3f aa3d 42d2 e73c e9be c9bd c016 e73d
000003d0: 656e 4b3d 144c 0e3d 29f7 8ebc 35d4 8ebc
000003e0: 2025 2dbd 22a5 013d e1e2 dcbd 37e4 08be
000003f0: d46d bcbd 2a2d 20be 08c4 8dbd 016a 2dbd
-0.14244016 -0.06415593 -0.10370053 0.094985604 -0.032744903 0.019363267 0.08940395 0.087791495
-0.00012276943 -0.020363834 -0.018576879 0.030803634 0.0007649144 0.027953781 -0.024947682 -0.10173629
0.019369634 -0.017326353 -0.034305584 0.03816219 -0.0090002725 0.0061456743 0.05088385 -0.043722402
0.073728114 0.00681248 -0.06464866 -0.06979086 0.05400241 0.0447426 0.0017240306 -0.043495588
-0.009795937 0.022137942 -0.044070646 0.017904358 -0.011294002 -0.056182135 0.002468678 -0.067606546
-0.078554064 -0.16733646 0.0011117996 0.079897605 -0.017135555 0.023874478 -0.015136167 0.086960666
-0.037470844 -0.053797115 -0.03016073 0.13106711 0.008998351 -0.048086796 0.0060133985 0.10936361
0.06106637 -0.016915906 0.036954563 0.0905452 -0.12637472 -0.10662424 -0.09002805 0.076703675
-0.06051455 -0.018431595 -0.10717895 -0.059657764 -0.11236002 -0.1802874 -0.12045503 0.025688477
-0.04210922 -0.091746695 -0.06877641 0.003688171 -0.045483407 -0.08977135 -0.13152009 -0.15311888
-0.052129418 0.08275417 0.071594425 0.07120214 -0.03607914 -0.046499904 -0.014426681 -0.05154619
0.050494432 0.061526474 -0.027667357 -0.09543359 -0.04937439 0.02685663 -0.006139416 -0.028418304
0.04944285 0.016700497 0.050433904 0.054138675 -0.023505758 0.007335779 0.025701769 0.0031370833
-0.026162516 -0.037918705 -0.01613158 0.08706209 -0.07585227 -0.1093299 -0.13270506 -0.012077111
-0.047656883 -0.020425804 -0.15305102 -0.088856384 -0.073606916 -0.08349476 0.008512471 -0.057332296
-0.047404133 0.010665346 0.043720756 0.07915056 0.024268024 0.028766317 -0.06754725 -0.08893981
-0.09713415 -0.10258826 -0.035336334 -0.17373535 -0.11007849 0.009395893 -0.13684301 -0.017694682
-0.12290215 -0.07198913 0.031457216 0.03138446 -0.06380457 0.010229878 0.06393097 0.08315795
-0.056528255 -0.09142997 0.042757437 0.013895628 -0.17536569 -0.067019984 0.005345955 -0.047361583
0.00034375803 -0.0058938493 0.046363264 -0.09370044 0.07206367 0.041006215 0.008400032 -0.024983916
-0.09284572 0.011069144 0.03815601 -0.007750251 0.06015389 0.05305043 0.071842805 -0.06525561
0.0403701 -0.10277221 -0.11539031 0.04855784 0.084752366 0.08124129 0.13793334 -0.012672704
0.06395535 0.04313283 -0.16524269 -0.26053032 -0.1068524 -0.006036068 -0.050280802 0.035279784
-0.055998903 -0.006178044 0.058265973 0.023152022 -0.06872361 0.115671694 0.03715195 0.033987112
0.019994916 0.051889785 0.063607275 -0.009192005 -0.16751276 -0.24703589 0.037272662 -0.050618757
0.018490603 -0.07855497 -0.0043960214 0.12569542 -0.111773275 -0.04086852 0.02907487 -0.012319557
-0.13573267 -0.037054047 -0.0038167285 0.064674206 0.06497922 -0.030634744 0.111860104 0.051007085
-0.009920181 -0.08962832 -0.022461426 -0.120027885 -0.15439731 -0.04635682 -0.14663173 -0.07039017
0.05228793 0.04284546 -0.049234003 0.09173224 0.012240409 0.04770463 0.056385644 -0.048775535
0.038890198 0.029601557 -0.004042553 0.13663237 0.053539775 0.13656531 0.0077024745 -0.0067562605
0.08312831 0.0282985 -0.09850866 0.11283636 0.049665827 0.034740523 -0.01745184 -0.017435173
-0.042271733 0.031651624 -0.10785461 -0.13368307 -0.092006356 -0.15642229 -0.069221556 -0.04233742

conv3.conv2d.bias f4 [32]
00000000: 26e8 173d fa15 e8bd 743a d03d 73ad 5e3c
00000010: 42bf babc 40b4 82bd 606e 063d ebc2 88bc
00000020: 5fe4 2f3c 4934 3c3d 8785 12be 445c e63d
00000030: 46b1 58bd 784b 533c 819b 333d 6d35 afbd
00000040: 89a8 13bd ea4d bbbd 9d12 42bd e0c5 e8bd
00000050: a990 6e3d b080 523d 8951 61bd 2a08 783c
00000060: 976e d63d 2be5 c0bc 8973 f73c d34a 4fbd
00000070: c894 08ba 1f1e f2bc 1ab1 83bd 25f0 d7bd
0.03708663 -0.11332317 0.10167399 0.013591158 -0.022796277 -0.06382036 0.032820106 -0.016694507
0.0107356 0.0459483 -0.14308749 0.11248067 -0.052903436 0.012896411 0.043849472 -0.08555112
-0.0360494 -0.0914572 -0.047381032 -0.11365867 0.058243427 0.051392257 -0.0550094 0.015138665
0.10470312 -0.023546776 0.030206459 -0.050608467 -0.00052101584 -0.029555378 -0.06430264 -0.10543851

in3.weight f4 [32]
00000000: 7975 433f 0f43 743f dd19 493f 08b3 6d3f
00000010: 6e38 563f 7d81 463f 5d29 6e3f 7fd7 6f3f
00000020: bd21 553f 2623 563f 356c 593f a0d7 523f
00000030: 317b 563f 3a2e 743f 205f 593f 2422 503f
00000040: 5484 6f3f 8861 5d3f b07e 5d3f 97b1 593f
00000050: 6f5d 753f 8c5f 5d3f 860d 6c3f f76b 523f
00000060: 7415 6a3f 8e6f 533f 6430 6a3f aab1 483f
00000070: 48be 463f a2fc 503f ccb9 443f 4aef 683f
0.76351124 0.95414823 0.7855509 0.92851305 0.83679855 0.77541333 0.93031865 0.93688196
0.83254606 0.8364738 0.84930736 0.8236027 0.83781725 0.95383036 0.84910774 0.81302094
0.9356129 0.86476946 0.86521435 0.85036606 0.95845693 0.8647392 0.92208135 0.8219599
0.91438985 0.82592094 0.9148009 0.78396094 0.77634096 0.8163549 0.76846004 0.90990126

in3.bias f4 [32]
00000000: ba31 0fbe b288 b33c 5ef0 edbd d9b7 43bd
00000010: 4ee9 dabd 60d0 893c 5953 6fbe bfc7 1d3d
00000020: a1f3 49bd db1d 5bbd f61e 55be db11 72bd
00000030: 876f 16be 4e91 d23c 0372 febd d143 88bd
00000040: a63e b2bd b80c 88be e346 6cbd abff 8ebd
00000050: b3d6 f6bd cc75 55be 0ec6 fcba 3bba dcbd
00000060: ad5d 5abe 196c 713c 3042 99be c2ea f6bd
00000070: 22b7 06be 276f 03be f1d2 44be b908 adbd
-0.13983813 0.021915767 -0.11618112 -0.047782753 -0.106890306 0.016822994 -0.23371638 0.03852057
-0.04930461 -0.05349527 -0.20812592 -0.05909906 -0.14690982 0.025704052 -0.1242409 -0.0665356
-0.087033555 -0.26572204 -0.05768479 -0.069823585 -0.120526694 -0.20845717 -0.0019285099 -0.10777708
-0.21324797 0.014735245 -0.2993331 -0.12056495 -0.13155797 -0.1283537 -0.19221093 -0.08448929

resnets.0.conv1.conv2d.weight f4 [32, 32, 3, 3]
00000000: eadb 4c3d 325f 6e3d 96e9 6c3d 37b4 183d
00000010: 713b 803d 8598 3b3d 3430 683d c01c 383d
00000020: 142b df3b 5fdb 003d 112e b03b 0cb9 55bd
00000030: 7011 5e3d 26ef 0f3d 2069 96bd 31b4 3f3d
00000040: ddbf 4fbb e663 34bd d3d3 663d e451 8f3d
00000050: 2b15 33bd 493e a23d 00c8 9a3c a718 79bd
00000060: 4f99 113d b781 ba3d 1274 863c e3d5 b03b
00000070: 2cd6 123d 3961 16bd de69 86bb b615 1d3d
00000080: 27f4 133e c3aa 763c c8ce 753d 756f df3d
00000090: 34ca b5bd 7eb3 7b3d 3309 1ebd f51d 9cbd
000000a0: 9ee5 4bbd 05b1 523d 522b a9bc f92f 323c
000000b0: 2164 96bd 7575 f13b 5080 b83c 6b89 873b
000000c0: 6143 133d a16c 9e3d f21c 583b 4bcf a63d
000000d0: 51c9 2ebd b5e9 a53c fc80 21bd e088 b23b
000000e0: 8238 2d3d dee1 9c3c bec2 b03d f956 e63d
000000f0: 864d 593d 5e6e 753d 1adc 32bc 3ed9 c33c
00000100: e24e 583d 0925 95bd c7cf 35bd f903 f23b
00000110: aba7 45bd b00e ea3c d4bc 123d 8318 5bbb
00000120: 4da7 e53d 1e19 ed3c 4b0a 103d acde 9a3d
00000130: c5cd 92bd 4bd2 033d 7ada 983c 5a05 b9bd
00000140: 764f 90bd 89ee 223d 25f8 be3c cf0b a838
00000150: 2990 473d 9e62 3d3d 241f 83bc 8861 8dbc
00000160: 091b b43c 13e6 69bc cac3 7bbd b39d abbc
00000170: 98a8 c1bd 4e20 8b3c 84f1 1e3c 2cc9 8cbd
00000180: 27ad b93c daef dcbc 701a 5ebd e2d8 8f3d
00000190: d38a dfbc ef02 303d d786 7f3d 6835 01bc
000001a0: 5076 5bbb 1b0b 053d 09e7 3d3d 7b01 bcbd
000001b0: cc64 433d 8624 84bc 48b8 913d 6f5b 4f3d
000001c0: e5f6 6dbd 7d2c 883d 135d b0ba f209 373d
000001d0: d949 c93c 5296 2bbc 5add 36bc 1d35 0cbd
000001e0: 47f5 803c 4521 b6bd 9b14 78bd d9fe c6bd
000001f0: b6e8 eebd 792c 7bbd 8f21 4f3c fbb6 a0bc
00000200: 105d 2b3d 799c 623d 2058 d63d 5dfc 073d
00000210: 4037 acbb 05c0 10bd a753 6e3d 77e0 253d
00000220: e041 be3b 5103 b43c e327 b83d 1b9b 04bd
00000230: 0102 9bbd 866b 2a3d 5124 e2bb bcc3 063d
00000240: 4042 1ebd 3ef1 813d b3d7 f73a 23d2 10bd
00000250: 889b 1a3c f141 203b dbf5 89bd 7645 92bd
00000260: 8b0c 303c 487e 653d b0a8 6e3d 5e46 a63d
00000270: 0e23 8abc 4b24 763d 1e82 b63d d9d2 a93d
00000280: 7eb8 71bd 9f41 bd3d 1785 68bc 4c69 423d
00000290: 8af0 36bd 29be bb3c 6787 82bd 481c d0bc
000002a0: 0dcc a5bd 6edd 86bc 1e5c 0dbd 48e1 29bc
000002b0: 62b4 723d 027f 1f3d 43e6 3fbc 28d6 963d
000002c0: a13f 1a3e 20b2 143d a0bc a73d 2b97 3b3d
000002d0: cac6 c3bc 4550 203d 565f 873d 4c88 0d3c
000002e0: 7857 85bd 5371 813d f076 06bc b85c 1e39
000002f0: 294c 16bb 21f5 213c d04f 24bc 02b2 96bd
00000300: 8e6e 073d 8214 ad3c d900 07bd 0d88 843d
00000310: 1f62 873d aeff 23bc 8992 903a 1dba a2bd
00000320: c8f5 abbd ab87 ebbc 96a0 f53d cf33 ddbb
00000330: 71d1 6e3c ab0f e4bc bd18 c73d aeba 9b3c
00000340: 9922 003d 848c 033d 5320 953c bae5 bebc
00000350: 6b16 0dbc 874b 2f3d f060 383d 2c62 153b
00000360: a6da 823d 64df cd3d ab63 c33d 819e 183d
00000370: 2c04 0c3d 8252 913c a0d8 e03d de10 f33d
00000380: cdd1 bf3d d865 843c 7785 373d 8c4f a53d
00000390: 39a4 b43c 48e6 c7bb df5e e338 3801 86bb
000003a0: f912 0ebd 7c88 173d 5c70 54bd 1175 efbc
000003b0: 43f5 273d af15 c9ba d429 443d a840 2dbc
000003c0: 3414 ac3d 66d3 813d b0b3 4c3d 1cd8 b2bd
000003d0: cce9 87bd ca1c 2cbe 6968 f8bd 07ec a6bd
000003e0: 00f1 95bd 66f9 9fbc c6fd 1e3b 292a 20bd
000003f0: 841a 8cbd d5f0 923c b50c 64bd 574e abbc
0.050014414 0.058196254 0.057839952 0.03728124 0.062613375 0.04579975 0.056686595 0.044949293
0.0068105552 0.03145921 0.0053765853 -0.052178428 0.05421585 0.03514018 -0.0734427 0.046802703
-0.0031700053 -0.044040583 0.056354355 0.06998041 -0.04372136 0.07922036 0.018894196 -0.060814526
0.035546597 0.091067724 0.016412769 0.005396591 0.03584878 -0.036713813 -0.004101976 0.038350783
0.14448605 0.015055361 0.060011655 0.109099306 -0.08876458 0.061450474 -0.03858299 -0.07622901
-0.049779527 0.05143835 -0.02065054 0.010875695 -0.07343317 0.0073687383 0.022522122 0.0041362545
0.03595293 0.07735563 0.0032976237 0.08145007 -0.04267246 0.020253042 -0.03942965 0.0054484457
0.04229022 0.01915067 0.08630894 0.112470575 0.053052448 0.059919707 -0.010916734 0.0239073
0.052809604 -0.072824545 -0.044387605 0.0073857275 -0.048255604 0.028571457 0.03582461 -0.0033431358
0.11213551 0.02894264 0.035166066 0.075620025 -0.07168154 0.032182973 0.018658865 -0.09034224
-0.07046406 0.039778266 0.023311684 8.013064e-05 0.048721466 0.046236627 -0.01600606 -0.01725842
0.021985548 -0.014276045 -0.061466016 -0.02094922 -0.09455985 0.016983178 0.0097011365 -0.06874308
0.022665573 -0.026969839 -0.05422443 0.07023789 -0.027287876 0.042971548 0.062384453 -0.007886268
-0.0033487268 0.032481294 0.04636291 -0.0917997 0.04770355 -0.016130697 0.07115227 0.050624307
-0.058096785 0.066491105 -0.0013455473 0.04468722 0.024571346 -0.010472851 -0.011161173 -0.03423034
0.015741957 -0.088930644 -0.060566526 -0.09716577 -0.1166548 -0.06132171 0.012642278 -0.019618502
0.0418368 0.055325005 0.10466027 0.033199657 -0.0052556098 -0.035339374 0.058185246 0.04049727
0.0058061928 0.021974238 0.08991983 -0.032374483 -0.075687416 0.04160645 -0.006901302 0.03290151
-0.0386374 0.063448414 0.0018908888 -0.035356652 0.009436496 0.0024453367 -0.06736346 -0.07142155
0.010745178 0.056028634 0.05826634 0.0811889 -0.016862419 0.060093205 0.08911537 0.08292169
-0.059013836 0.09241032 -0.014191887 0.0474637 -0.04466299 0.022917824 -0.06373482 -0.02540411
-0.0809556 -0.016463008 -0.034511678 -0.010368653 0.059254058 0.038939483 -0.0117126135 0.07365066
0.15063335 0.036302686 0.08190274 0.045798462 -0.023898501 0.03913905 0.06609981 0.008638453
-0.06510824 0.06320443 -0.008207068 0.00015102595 -0.0022933579 0.009885103 -0.010028794 -0.07358171
0.033064418 0.021127943 -0.032959793 0.06471262 0.06610512 -0.010009689 0.0011029999 -0.079456545
-0.083964884 -0.028751215 0.1199352 -0.006750561 0.014576302 -0.027839502 0.09721515 0.019009914
0.031282995 0.032116428 0.01820389 -0.023302902 -0.008611302 0.042796638 0.04501432 0.002279411
0.0638936 0.10052374 0.095404945 0.037260536 0.034183666 0.017739538 0.10978818 0.118684515
0.09366188 0.016161844 0.044805016 0.08071813 0.022050964 -0.0061004497 0.000108418746 -0.0040895008
-0.034686062 0.036995396 -0.051864967 -0.029230626 0.041005384 -0.0015341545 0.047891453 -0.010574497
0.08402291 0.06339149 0.04997605 -0.08732626 -0.0663639 -0.16807857 -0.1212929 -0.081504874
-0.07321358 -0.019528102 0.0024260147 -0.039102707 -0.06840995 0.017937103 -0.05567618 -0.020911379

resnets.0.conv1.conv2d.bias f4 [32]
00000000: 4cfc 2d3d fd18 85bc e98a df3c 8c78 45bd
00000010: 1355 e33d 602b c23d e6cf e03d b803 813c
00000020: 040e 413d 99b2 713c 478c 4ebd a6b6 ae3c
00000030: 869f cdbc 18b3 83bd 3b74 4abc c52d 623d
00000040: 458f 91bc 0574 bebc 4206 393c 8850 a33d
00000050: 71b7 f23d 47ea 6f3c 5f23 d43c 4f2e 883d
00000060: 1cd0 f9bc a168 573d cc9b c43d bbd1 a93c
00000070: a92b b83c aea8 57bd f2ef e43b d576 fb3c
0.042476937 -0.016247267 0.027287917 -0.048210666 0.11100211 0.094809294 0.109771535 0.015748844
0.047132507 0.014752054 -0.050426748 0.021327328 -0.02510048 -0.06430644 -0.012356813 0.05521943
-0.017768512 -0.023248682 0.011292996 0.079743445 0.11851395 0.014643258 0.025895773 0.06649458
-0.030494742 0.052590016 0.096000284 0.02072989 0.022481756 -0.0526511 0.0069866115 0.030696312

resnets.0.in1.weight f4 [32]
00000000: ba57 743f ee86 763f 98e5 823f d300 813f
00000010: 8813 823f 2962 723f 9dad 713f 3424 8b3f
00000020: 36c8 763f d233 773f e470 5d3f c45e 743f
00000030: e547 803f d00a 7f3f ee9f 803f 26c2 743f
00000040: c7fe 753f 4734 8b3f c75a 723f da1f 633f
00000050: 0c7a 713f d773 803f e7a6 823f df71 733f
00000060: 8352 7b3f 019e 703f cd7f 723f a8ed 773f
00000070: 4af0 6e3f b3f7 6a3f 769d 873f 7b50 7e3f
0.9544636 0.96299636 1.0226316 1.0078377 1.016221 0.9468103 0.9440554 1.0870423
0.9639925 0.96563447 0.8650038 0.954571 1.002194 0.99625874 1.0048807 0.95608747
0.96091884 1.0875329 0.94669765 0.88720477 0.94326854 1.0035352 1.0207185 0.9509563
0.9817278 0.93991095 0.9472626 0.9684701 0.933354 0.9178421 1.0594928 0.99341553

resnets.0.in1.bias f4 [32]
00000000: 91fc abbd 05cf 9abd b7e0 eabe 0da1 b8be
00000010: 258f 0bbe e260 eebd c774 5abe a908 63be
00000020: 2bcb f3bd 0a5f 2dbe aa10 40be 6b0d 5ebe
00000030: f5a1 97be e25a 88be 1bd8 61be a254 4abe
00000040: 8ee4 f5bc d8c3 bdbd 9f9b 7ebd 5d75 87be
00000050: 3039 9fbd fb37 8dbe 4eb4 aabd aba9 53bd
00000060: 7c50 bebe a5f9 12be 06a4 40be 766c 94be
00000070: a512 aabe 6498 e9bd e3dc 2abe 5304 2cbe
-0.083977826 -0.07559017 -0.4587457 -0.36060372 -0.13628824 -0.11639573 -0.2133361 -0.22171272
-0.119039856 -0.16930786 -0.18756357 -0.21684806 -0.2961575 -0.26631838 -0.22055094 -0.19758847
-0.03001621 -0.0926587 -0.06216013 -0.2645673 -0.077745795 -0.27581772 -0.08335172 -0.05167548
-0.3717078 -0.14353044 -0.1881257 -0.28989 -0.3321735 -0.11406019 -0.16685824 -0.16798525

resnets.0.conv2.conv2d.weight f4 [32, 32, 3, 3]
00000000: 41c2 20bd 5583 d63c c76e 033d 28af 55bd
00000010: 52c0 c5bc 3971 8f3d 703d 8cbc 267e 1b3d
00000020: f626 b63d 238e cebc 3c7c 87bc ac6b 123c
00000030: da0a 3ebd 2153 c83d 6597 1c3c b447 0fbd
00000040: 90ea 633d c6be f73d 764a 0fbe f1c0 adbd
00000050: dcd6 a5bd 41ab 55bd 78e1 2bbe 74b1 3ebd
00000060: 982b a7bd a4b6 bb3c 21c9 7abd dddb 06be
00000070: 998e 27bd 576a 683c 9412 1dbe 9fee 20bd
00000080: 4d84 0bbd 1fa2 2ebd a399 973c e411 b33d
00000090: acfb 813d b771 7c3d 77e1 393c e60f 32bc
000000a0: 09e1 6a3c 97ae a33d 3e63 c13d c3ff 903d
000000b0: f8fd 8e3d e3a9 ea3b 8123 0dbd 6a5c b63b
000000c0: 60ef 7b3b 029c 7abd b62d 853d e79c 9dbd
000000d0: d4e8 c03c 3986 983c 9362 03bd 8848 ee3d
000000e0: ec00 5e3d a97c 47ba 4fc4 663a f142 e03d
000000f0: cdac dabc ce8c 6e3c 386f ba3d 7a02 183e
00000100: d156 c03d 4043 5b3c e04f ca3c e8da 66bb
00000110: 8562 2b3c 0266 df3c b3a9 80bd d8a3 2b3d
00000120: 82b8 bf3d c4e7 e23c 0499 bebd 13c4 c93d
00000130: 1374 5dbc fa5f 423d 0f3e 113e a333 293e
00000140: 3e91 053d 150a 363d 7c8c c33d 9872 97bd
00000150: 1441 453a 6b20 903d 0550 283d 9e0f e03b
00000160: 33e7 ba3d c5e2 893d f504 7f3c 20ac 763d
00000170: 1a98 4c3c fd24 21bc cdf8 563d de69 9bbd
00000180: 8ea0 773b 9ca7 eabc 51ba 0fbe 09d4 683d
00000190: d5bb 2cbc ada9 16bd d989 833c c91b 5f3c
000001a0: c624 7b3d 0823 6c3d f845 c03d b9c7 b33d
000001b0: a7be b2bd 3b77 13bd c076 7c3d 84dd 10be
000001c0: 6f41 81bb fda9 98bc c050 79bd 696e ccbb
000001d0: eb78 a73d 57fd 20be 4d2e 113d 9f3a 893d
000001e0: c0b5 10be c3b5 c2bd be78 f4bc a994 373c
000001f0: 51b5 593d d3c3 04bd 8c4d 0cbd 3531 a4bd
00000200: f5f3 3d3b 0b8e 2d3d 2311 113d 6b4e 70bd
00000210: ca0b c43d f16b 3ebd 8c90 a7bd 1ece 943c
00000220: 1ae2 c0bd 6d17 d2bd c50f c6bb 27d5 0dbd
00000230: ede0 083c b89f e23d e8db 163d b5e9 70bd
00000240: 9de2 663d 5c82 84bd 2ff6 5d3b dc7c 583d
00000250: 785f 0e3d 0e82 b0bc 0ddb fc3d 0847 573c
00000260: d841 823b 680a e53c 7d96 643d b4f3 afbb
00000270: 3a79 87bb 599c a73d 8d1a 2b3d fa02 893c
00000280: b43c a03d 479d 873d 5115 713d bc85 dc3c
00000290: a7c0 5ebc 255f c03d e1f2 893c dc72 053d
000002a0: 247d 183d acc1 913c 74fe 673d 2888 c5bc
000002b0: 5802 923d 91f6 903d 25a1 43be 756b ddbb
000002c0: e554 873d 2f4f e4bd 1192 acbc 10bb db3d
000002d0: cb93 aabc 1a67 a7bc e25a 7fbb 41f3 e53c
000002e0: 8ac2 f63c d0e5 bfbd 558a 2b3d 030b b73b
000002f0: 0c65 493d 1b39 d7bd 6af8 d3bd f77b 083e
00000300: 97b6 21be 6c51 853c f3ac 6c3d 5930 09bd
00000310: 7258 813d 2eb1 3f3e 9f1f dabb 89aa 87bd
00000320: 19e0 46bd e979 543d c7dd 54bd 66c9 06bc
00000330: 757d b23d 560b a13d 701c 05bd b57c d63d
00000340: 7f47 89bc 28b6 0cbd 4dc0 c03d c6fb 8dbd
00000350: 43f6 c83b 2cbe b0bc 4272 38bd 6045 b43d
00000360: 4b1a 17be 4734 9b3c 640d 173e 55d4 80bd
00000370: c7ca fa3c a0c1 193d ca75 24bd 14b5 ffbd
00000380: 55a0 503c 1384 d73d 8724 af3c f8c7 d7bc
00000390: 90cc 2b3d dcb1 24bd f89d 803d 5469 40bd
000003a0: 5fea 82bd 611c 5b3d 9169 883d 55b9 1a3c
000003b0: f76d f3bd dd14 2d3c d216 67bd ba62 40bd
000003c0: b207 5c3d 42ca cdbd 564e fabd 12ad d4bd
000003d0: 8aab 013d 28e6 223e e481 21bd 770c df3c
000003e0: 67b3 783d a0ad f43c b495 1f3c 144e eb3c
000003f0: d17d 07be e318 533d dbed 1f3e 8a73 503d
-0.039247755 0.02618567 0.032088067 -0.052168995 -0.024139557 0.070040174 -0.01711914 0.0379621
0.0889415 -0.02521426 -0.016538732 0.008936804 -0.046397068 0.097814806 0.00955758 -0.03498049
0.055643618 0.12096934 -0.13993248 -0.08484066 -0.08097622 -0.052165274 -0.16785228 -0.04655595
-0.08162612 0.022914238 -0.061226968 -0.13169809 -0.040907476 0.01418551 -0.15339118 -0.039290067
-0.03406172 -0.04263508 0.018505877 0.08743647 0.06346831 0.061631884 0.011345259 -0.010868048
0.014335879 0.07992285 0.09442757 0.07080033 0.069820344 0.0071613654 -0.034457687 0.005565216
0.003844224 -0.061183937 0.06502859 -0.07695942 0.023548521 0.01861869 -0.03207643 0.11634928
0.054200098 -0.00076098234 0.0008803056 0.10950268 -0.026693726 0.014559938 0.091032445 0.14844695
0.09391559 0.013382733 0.02469629 -0.0035225693 0.010460501 0.02727032 -0.062823676 0.0419043
0.09361364 0.027698405 -0.09306529 0.09851851 -0.013516444 0.04745481 0.1418383 0.16523604
0.032609217 0.04444321 0.0954828 -0.07394904 0.0007524651 0.07037433 0.041091938 0.006837799
0.09126129 0.06732706 0.015565147 0.060222745 0.012487436 -0.009835479 0.05248337 -0.07588552
0.0037784907 -0.028644376 -0.14035918 0.056842837 -0.0105428295 -0.03678291 0.016056942 0.013617464
0.061314367 0.057650596 0.093883455 0.087783284 -0.0872777 -0.03600238 0.061636686 -0.14147002
-0.003944568 -0.018635744 -0.060868025 -0.006238748 0.0817736 -0.15721641 0.035444546 0.06700634
-0.14131832 -0.095073245 -0.02984273 0.011204877 0.053151432 -0.032413315 -0.034253642 -0.08017198
0.002898452 0.04237179 0.035416733 -0.058668535 0.09572561 -0.04648966 -0.08181867 0.01816469
-0.094181255 -0.10258374 -0.0060443603 -0.034627106 0.008354408 0.1106562 0.036830813 -0.05881663
0.05636846 -0.064701766 0.003386866 0.05285345 0.034759015 -0.02154639 0.12346468 0.013139494
0.0039751343 0.027959064 0.05580758 -0.005369628 -0.0041343244 0.08184118 0.041773368 0.016725052
0.07824078 0.06621795 0.05885822 0.026919238 -0.013595737 0.093931474 0.016839446 0.03258024
0.03722872 0.017792545 0.05663915 -0.024112776 0.07129353 0.07078279 -0.1910444 -0.0067571946
0.06607989 -0.111479156 -0.021065744 0.10729039 -0.020822426 -0.020434905 -0.0038964082 0.028070094
0.03012206 -0.09370005 0.04187997 0.0055860295 0.04916863 -0.10508939 -0.103501156 0.13328539
-0.15792309 0.016274177 0.057782125 -0.033493374 0.06315698 0.18719932 -0.0066566016 -0.06624324
-0.04855356 0.051874075 -0.051969316 -0.008226728 0.08715335 0.0786349 -0.032497823 0.10473005
-0.016757725 -0.034353405 0.094116785 -0.069327876 0.0061328723 -0.021575056 -0.04503084 0.08802295
-0.14756124 0.018945826 0.14751202 -0.06290499 0.03061427 0.03753817 -0.040151395 -0.1248571
0.012733539 0.10523238 0.021379722 -0.02634047 0.041943133 -0.040208682 0.0628013 -0.04697545
-0.06392359 0.05349386 0.0666076 0.009443601 -0.118862085 0.010564056 -0.056418248 -0.046969153
0.053718276 -0.10048343 -0.12221973 -0.10384573 0.031657733 0.1590811 -0.039430514 0.027227623
0.060717966 0.029867947 0.009740282 0.028723754 -0.13231589 0.051537406 0.15618078 0.050891437

resnets.0.conv2.conv2d.bias f4 [32]
00000000: c994 0d3d 5079 8abd 6fb9 303d f283 e8b9
00000010: 9871 643d 66c5 b53c efe8 dabc 789a e9bc
00000020: 88d4 cd3c 7e04 75bd 9a58 a1bd b77d a3bd
00000030: 18a9 1f3d a885 823a b39c bd3c 866c 1ebd
00000040: 51d8 32bd c182 dd3d 7ee3 d1bd 6694 d8bb
00000050: 14d0 923d ee1d 1dbd 0fca e03c ce94 b8bc
00000060: 5ee1 e9bc 26e3 613d 7a98 5b3d 7487 663c
00000070: e7be a338 9323 9c3d ba4e bcbc 7572 4e3c
0.03456572 -0.0676142 0.043145593 -0.00044348795 0.055772394 0.022188853 -0.0267224 -0.02851604
0.025125757 -0.059818737 -0.078782275 -0.079829626 0.03897962 0.0009958046 0.02314601 -0.038677715
-0.043663327 0.10815955 -0.10248469 -0.0066094873 0.07168594 -0.03835862 0.027440099 -0.022531893
-0.028549846 0.055148266 0.05361221 0.0140703805 7.808004e-05 0.07623973 -0.022986759 0.012600531

resnets.0.in2.weight f4 [32]
00000000: a138 5a3f 6dbf 3c3f f41a 543f eb10 403f
00000010: d5f3 4b3f a97c 503f 1cc4 5d3f 35e4 4f3f
00000020: 7e84 413f 33da 4e3f 59a2 4d3f 2eeb 3c3f
00000030: ee50 373f 83d7 4f3f c13c 3b3f 79e0 633f
00000040: e671 3a3f b794 2e3f e3d8 5f3f f0d0 473f
00000050: c93e 4d3f 7d7f 353f 5e6f 4d3f b491 4b3f
00000060: 2e6a 4b3f 4168 3a3f c251 4d3f 0d83 2c3f
00000070: b2b8 343f 20f6 2e3f 2993 383f 2476 483f
0.8524266 0.7372959 0.8285363 0.75025815 0.79668933 0.81440216 0.86627364 0.8120759
0.7559279 0.80801696 0.8032585 0.73796356 0.71607864 0.8118822 0.7313958 0.89014393
0.72830045 0.6819567 0.8744032 0.7805319 0.8017393 0.70897657 0.8024806 0.795192
0.7945889 0.7281533 0.8020288 0.6738747 0.7059432 0.68344307 0.7209955 0.7830527

resnets.0.in2.bias f4 [32]
00000000: 3881 ecbb 2ba3 53bd aa83 573d 3c8c cabb
00000010: 3456 1d3d ec91 e13d cd25 2a3d 39cd 84bd
00000020: 5cf2 933d 75fb 93bc 5a09 aebd a447 54bd
00000030: 81d9 c33d 9060 13be 8091 a83d 0704 17be
00000040: f148 d9bc 1047 a93d 98eb 82bc ec18 813c
00000050: 49db 7d3d 27ae ee3c 0cd7 6bbc 38f1 65bc
00000060: 913c 14bd bfcf 933d e441 d03d 1ccd 1bbb
00000070: a162 3b3d 54fb 9f3d ccd2 a2ba 7dc4 a53d
-0.0072175525 -0.05166928 0.0526158 -0.006181268 0.038412288 0.110141605 0.041539956 -0.064844556
0.07223961 -0.01806424 -0.084978774 -0.051826134 0.0956297 -0.14392304 0.08230877 -0.1474763
-0.026524039 0.08265507 -0.01598148 0.015758954 0.061976705 0.029135777 -0.014394533 -0.014034562
-0.036190573 0.07217359 0.10168818 -0.0023773378 0.045748357 0.07811609 -0.0012422442 0.08094118

resnets.1.conv1.conv2d.weight f4 [32, 32, 3, 3]
00000000: 1c3a 8e3d 6cca 0cbc 54c1 753d 6bda 323e
00000010: c45f 933d 9c09 d83d 69b5 bdbd 2563 733c
00000020: 96e5 933c 40b2 ef3c 9a79 4dbb 6dfa 9e3c
00000030: 20e0 6dbd ae50 b93d 1a56 e23b fba6 c33b
00000040: 7dc1 ee3d 3cd4 a63d a9f1 f03b 9592 10bd
00000050: 33a1 2dbd aa5a c83c b3c5 973d 5a22 b5bd
00000060: 8ffe 2dbb a335 d03c ce8f 0ebe 11c1 8abd
00000070: 5d19 babd 6ebd 723c aeaf e13d b043 0a3d
00000080: 0989 5d3d 6cef 643d 3c63 813c 1348 043d
00000090: afe6 df3d fc68 fd3c 8164 35bc 7e39 cb3d
000000a0: 166f 803d ba13 713d 756e 3dbd ed5e d53d
000000b0: 3dc3 cc3d 35bf 7bbd 775a e7bc ba91 b3bd
000000c0: 4053 8dbd e189 2a3d 369d be3c 2028 063d
000000d0: d7a9 993d 4f2a b4bc a8f5 b3bd e6f6 dfbd
000000e0: 7f13 1cbe 1d36 073d 37a8 353d b9ae 0cbe
000000f0: 8c1e cb3d 911f bb3c bad3 8bbd 6754 733d
00000100: 6b6f 853d 8fed bc3c 68f1 abbc a0db f13b
00000110: d5e8 d73d 190f 063a 9d40 3ebd 382a 7a3d
00000120: c8ca 10bd a7ec 5cbd a960 97bc df9a e03d
00000130: d189 72bb 7707 08bc 0fa7 f13d cfc5 043d
00000140: 78a1 3b3d 5f17 4c3e a17a 7abd c4a1 fcba
00000150: fe2d 383d 9927 76bd d002 04bc 36a0 a03b
00000160: 5145 c03c ecf3 913c 63a6 b73c ba9d d5bd
00000170: 215d 413d b1b2 f23c 2a69 bebc eaec 06bd
00000180: 0943 6a3d 3915 373d cf94 c0bd 131e 11bd
00000190: ab27 00be e5e7 de3c c2ad afbd d09c 873d
000001a0: 9f85 41bd f033 debd 9b28 27bc 1ae2 08bc
000001b0: 7b4e 613c 7098 f9bd d6f6 47bd e19e f5bc
000001c0: e23b 3bbe 39d4 d83b 1a13 183d 5f03 a33d
000001d0: c91a 513d 71de af3d b4c8 fe3d b2a5 9f3d
000001e0: 35de c13c 2a4c 843d 4db4 2c3d a8d6 05bc
000001f0: 6c7a 8fbd f15d c63d ba07 933c 88c6 16bd
00000200: e2f8 83bc f3f4 953d 899d 003d 5275 c63c
00000210: 8baf 1a3d 79eb 543d b3d0 493d ab14 66bd
00000220: ca3f 423d f042 0d3e ea38 a43c 9aea 98bc
00000230: 92e8 cf3d 0ac6 543e 85ee 88bd d097 0f3d
00000240: f441 0e3d d267 a9bd 2ae9 bfbd 1fd1 48bb
00000250: de53 613d d0d4 743d 1e75 0fbc fab6 df3d
00000260: e96d 953c f0f7 f2bb 2119 5cbe 161e e73d
00000270: 004c 97bc c60a e6bd 5e76 583d 59be 11bd
00000280: 7675 af3c d2e2 1e3d f6ae 0bbd 7ae4 ed3d
00000290: 63e2 f33c f457 a83d 32a0 6cbd 2a5f ef3c
000002a0: 504c 1e3e 7f50 ac3b a777 a83d 729b 233d
000002b0: 5d61 293d 5560 99bb 9096 813d bd31 e33c
000002c0: 1b21 1b3d 8902 9abc 7aa6 a33d a18d 553c
000002d0: 9345 51bc a38f 22bc 6938 8dbd 6bdd 8bbd
000002e0: b49f 1d3c 0039 c2bd 9d29 0dbc 9328 1fbd
000002f0: 3d66 d43c a90d a9bd 5c11 78bd 2514 a43c
00000300: a8e4 e7bd 2156 3abd a758 85bb 0ce5 84be
00000310: 6a1e fdbc 6a64 143d 4c6b 363d d5e5 06be
00000320: 7441 c5bd c655 16bd e25a c2bd 1dd1 d9bc
00000330: 39b6 9c3c 3c59 423d 8358 f73c 3395 883d
00000340: 0366 173d dc27 ecbc 6b19 aabc e837 143d
00000350: 208a 723d 4799 523d e7ee 5bbd 4cbc d43c
00000360: b492 8b3c ec00 b6bd 5395 67bd 0855 ba3d
00000370: 5dd1 d53c 4651 533d 2d09 443d 8243 b2bd
00000380: 888e b3bd 80e5 00bd 9582 283d e361 4cbd
00000390: 7de6 bcbd 995c 213d 22b1 d13c 4d6d 03bd
000003a0: 2be8 283d 6309 8cbd f6fd 6fbd caf4 d7bc
000003b0: 8288 6bbc 7c60 97bd 7e29 9dbc e1af e1bd
000003c0: fb7e 1ebd 4528 49bd 9d5b cfbd 9f07 26bd
000003d0: d343 363d ac84 b23d 82ea f0bb 12e8 2a3e
000003e0: b779 003e 79f4 9fbd 9258 953b 2962 0f3e
000003f0: baf7 ff3c 1ffd 983c 6143 6a3c 4d0a 44bd
0.06944677 -0.008593183 0.059998825 0.17466132 0.07196 0.10548708 -0.09263117 0.014855181
0.018053811 0.0292598 -0.0031352998 0.019406522 -0.05807507 0.090485916 0.0069072368 0.0059708334
0.11657999 0.08145949 0.007353027 -0.03529604 -0.04239006 0.024457294 0.07410755 -0.08844443
-0.0026549434 0.025416201 -0.13922045 -0.06775106 -0.09086869 0.014815671 0.11019836 0.033755958
0.054085765 0.055892393 0.015794389 0.032295298 0.10932671 0.03093385 -0.011071325 0.09923075
0.06271188 0.058856703 -0.04624792 0.10418496 0.09998176 -0.061461646 -0.02824138 -0.087680295
-0.06900644 0.041635398 0.023268323 0.03275311 0.075030975 -0.02199283 -0.087870896 -0.10935764
-0.15241812 0.03301059 0.044349875 -0.13738526 0.09917936 0.0228422 -0.06827493 0.059406664
0.06515392 0.023062496 -0.020989135 0.0073809177 0.10542456 0.0005113944 -0.04644834 0.06107542
-0.035349637 -0.053936627 -0.018478708 0.10967039 -0.0037008415 -0.008302561 0.11799442 0.032415207
0.045808285 0.1993079 -0.061152104 -0.0019274284 0.044965737 -0.060096357 -0.008057311 0.004901911
0.023470553 0.017816506 0.022418207 -0.104304746 0.047207955 0.029626222 -0.023243506 -0.032940783
0.057192836 0.044697974 -0.09403383 -0.03542907 -0.12515132 0.027210185 -0.085780635 0.066217065
-0.04724657 -0.1084975 -0.010202552 -0.008354688 0.013751621 -0.12187278 -0.048819385 -0.029982986
-0.18284562 0.006617096 0.03712759 0.07959627 0.051050935 0.08587349 0.12440625 0.07795276
0.023665527 0.0645984 0.042164136 -0.008168854 -0.07005772 0.09685887 0.01794802 -0.036810428
-0.016109888 0.07322111 0.031400237 0.024225865 0.037765067 0.051982377 0.049271297 -0.056172054
0.047424115 0.13795066 0.02004667 -0.018666554 0.10151781 0.20778671 -0.06686119 0.03505689
0.034730867 -0.08271755 -0.093706444 -0.0030642224 0.055011623 0.059773266 -0.00875595 0.10923572
0.018240886 -0.0074148104 -0.21493961 0.11285035 -0.018468857 -0.112325236 0.05284726 -0.03558192
0.021418314 0.03879053 -0.034102403 0.11615844 0.029771036 0.08219901 -0.05776996 0.029220182
0.15458798 0.0052586193 0.08225947 0.039943166 0.04135262 -0.004680673 0.06327546 0.027733678
0.03787337 -0.018800037 0.07990737 0.013034255 -0.012772935 -0.009921941 -0.06895525 -0.068293415
0.009620596 -0.09483528 -0.008615878 -0.038857054 0.025927657 -0.082545586 -0.06056343 0.020029137
-0.113229096 -0.045492295 -0.004069406 -0.25956 -0.030898292 0.036228575 0.04453592 -0.13173611
-0.09631625 -0.036702894 -0.09489991 -0.02658897 0.01912986 0.04744838 0.030193573 0.066690825
0.03696252 -0.0288276 -0.020764073 0.03618613 0.059213758 0.051415708 -0.053694632 0.025968693
0.017037727 -0.088868946 -0.05653889 0.0909825 0.026100809 0.05159118 0.047860313 -0.08704282
-0.0876742 -0.03146887 0.041140158 -0.04989804 -0.0922365 0.03939495 0.025597159 -0.03208666
0.041237038 -0.06837728 -0.058591805 -0.026361842 -0.014375808 -0.0739145 -0.019184824 -0.11019874
-0.038695317 -0.04911067 -0.10124896 -0.04053461 0.044498276 0.087167114 -0.0073521743 0.1669009
0.1254643 -0.07810301 0.0045576775 0.14002289 0.031246055 0.018675385 0.014298291 -0.047861386

resnets.1.conv1.conv2d.bias f4 [32]
00000000: 17c3 cc3d 1c26 05bd 3e85 793d 4351 4c3d
00000010: 7d15 1b3c 1892 6f3c d575 69bd 1c80 61ba
00000020: 7c49 983d 1774 8b3c afcc fe3d ced5 f0bd
00000030: 7fac fb3b 7015 543d 436f 04bd 95e2 153c
00000040: aade 9a3c b4d4 723c 97b2 b23c d972 033c
00000050: fa18 4d3d 08f2 033e 8ab7 f03c 2cd2 95bd
00000060: a09c 9dbd db32 613d c36e 88bc 404c 203d
00000070: 2a3a 9ebd 3071 cb3d 4e69 83bd 3fc5 9bbd
0.09998148 -0.032507047 0.060918085 0.049882185 0.009465572 0.014622234 -0.05699714 -0.00086021586
0.07435891 0.01702313 0.12441384 -0.1175953 0.0076804752 0.051778257 -0.03233267 0.00914826
0.018905003 0.01482122 0.021813674 0.008022987 0.050072648 0.12885296 0.029384393 -0.07315478
-0.076958895 0.05498014 -0.016654378 0.039135218 -0.07725938 0.09933698 -0.0641657 -0.07605981

resnets.1.in1.weight f4 [32]
00000000: e8a2 793f 5b78 6b3f 0f0b 733f 34f3 643f
00000010: 3ada 763f d957 673f 0604 713f eba7 663f
00000020: 8a3a 543f 9810 7f3f a612 7b3f 5d9a 683f
00000030: 240a 713f 038f 6e3f c8f9 8b3f bc3b 773f
00000040: d776 7c3f ee0a 733f 3892 753f 5a76 823f
00000050: 0b91 883f 8500 773f 0dda 703f f439 4c3f
00000060: 5ba6 733f 0c36 7c3f fab1 7f3f bb7d 6b3f
00000070: 875c 6b3f ebac 6e3f a4fe 583f 3eca 683f
0.975142 0.9198052 0.9493875 0.894336 0.9642674 0.9036842 0.94146764 0.9009997
0.82901824 0.99634695 0.9807533 0.9086054 0.941561 0.9318697 1.0935602 0.9657552
0.98618835 0.9493855 0.9592624 1.0192368 1.0669264 0.9648517 0.9408272 0.7977593
0.95175713 0.9851997 0.99880946 0.91988724 0.9193806 0.932326 0.8476355 0.909336

resnets.1.in1.bias f4 [32]
00000000: ee84 5dbe 3d87 75be 7667 d9be 5e5f 14bf
00000010: 5bde c1be e759 22be 5203 00be 36af 68be
00000020: 80a7 a8be 674d 8cbe c77e 8dbe 8d52 b2be
00000030: c933 60be 2081 5abe 4340 f53c 29f4 dcbe
00000040: 8ee2 8ebe d123 b7be 0383 57be 3ba6 e6be
00000050: d071 88bb 2aa3 c8be ec07 a9bd 36e8 8bbe
00000060: 3b27 553d 55f3 fbbd bc7a 27be 456d a2be
00000070: ee6f 78be 25c6 24bf 28f4 bdbe af58 21bf
-0.2163274 -0.2397737 -0.42461747 -0.5795802 -0.37864956 -0.15854608 -0.12501267 -0.22723088
-0.32940292 -0.27402803 -0.27635786 -0.34828606 -0.21894754 -0.2133832 0.029937869 -0.4315503
-0.27907223 -0.35769513 -0.21046071 -0.450487 -0.004163958 -0.39186984 -0.08253464 -0.273256
0.052039366 -0.12302271 -0.16355413 -0.3172399 -0.24261448 -0.64364845 -0.3710034 -0.63025945
