Assets/Style_Transfer/Models/joyas9720_VIDEO.onnx (onnx, 449372 bytes, 62 tensors)

conv1.conv2d.weight f4 [8, 3, 9, 9]
-0.004891114 -0.12746316 -0.068248644 -0.05198065 -0.08387681 -0.16837831 -0.027019637 -0.04059435
-0.0955504 -0.03475579 -0.030566903 -0.056261048 -0.1360742 -0.09590059 -0.040033095 0.026231706
0.010308991 -0.06673428 0.026755774 0.04213597 -0.124024205 -0.1974201 0.008880944 0.012728572
-0.09915311 -0.02989005 -0.030953709 0.06529552 0.21015744 0.07843669 0.1873845 0.38375422
-0.034683134 -0.29066586 -0.067601666 0.13810761 0.1587841 0.1994897 0.2134085 0.407172
0.5850545 0.087677754 -0.32842484 -0.041428458 0.14188583 0.03793441 0.15080288 0.33499914
0.4188308 0.27509812 0.047863673 -0.18202431 -0.080685765 0.056541193 -0.12018274 0.0008532562
0.25594965 -0.017198274 -0.15831617 -0.06946467 0.012095746 0.09489069 -0.003428214 -0.091640055
-0.08036107 0.08228059 -0.13537242 -0.17155012 -0.17688224 -0.106325924 -0.017054949 -0.08162718
-0.017949373 -0.13327113 -0.15400453 -0.08618399 0.056742754 0.0033636794 -0.08786171 -0.024331909
-0.12325425 0.022422122 -0.060696803 -0.02814339 0.10299892 0.07406669 0.013491187 -0.007724277
0.09224813 0.07248513 -0.017068595 0.0075039845 0.02012186 -0.053360853 0.057188865 0.09023132
0.04251681 0.14350374 -0.020667689 -0.03146775 0.026529258 -0.15091008 -0.0962418 -0.0044082794
-0.010973292 -0.25440338 -0.044666428 0.040327463 0.04410248 0.010592346 -0.02461865 0.16248117
0.29695165 -0.0430637 -0.3915601 -0.07406715 0.0829777 0.004151013 0.031091027 0.16337109
0.2889538 0.45909852 -0.049376667 -0.4729629 -0.24759783 -0.0057519507 -0.104728766 0.12250515
0.28457445 0.34316203 0.27969295 -0.0768818 -0.33251163 -0.17363933 0.017664792 -0.04097417
-0.005818821 0.09335848 -0.014260735 -0.15700898 -0.20046628 -0.12377718 -0.057805244 0.10140144
-0.04291028 -0.039088603 0.095964625 0.008680173 -0.20394899 -0.14809264 -0.12048779 0.07061137
0.07026915 0.058507565 0.045356657 0.0057634674 0.001239839 0.15449697 -0.0001820302 -0.049887393
0.0785504 -0.05694708 -0.03917451 -0.033832353 -0.026326831 0.010080602 -0.0010899681 -0.048219927
-0.053076774 -9.6461124e-05 -0.025536949 0.07670135 -0.016223151 -0.02159734 -0.03438146 0.03209482
0.0032855086 0.015110697 -0.005271699 -0.030649375 0.06427538 0.07026806 -0.12655082 -0.09020177
0.07432481 -0.0021234693 -0.115264766 -0.08780034 -0.009348382 -0.006248199 0.04431078 0.004164843
0.14890747 0.27709687 -0.053772386 -0.26849753 -0.039930448 0.12404589 0.029033592 -0.059016757
-0.020706704 0.2343987 0.41523868 0.051724393 -0.32852757 -0.06428933 0.016623313 0.037429843
-0.01694062 0.10562843 0.1996739 0.21296728 0.045983028 -0.17640197 -0.08891447 -0.024568118
0.08225689 -0.09728891 -0.018675303 0.022390591 -0.17013817 -0.07966715 0.009708525 0.028705332
0.030751316 0.076943226 0.03472683 0.034147967 -0.07958735 -0.16867268 -0.1549568 -0.10763747
0.0076769507 0.008143084 0.022331996 -0.034985583 0.0025570355 -0.01134387 0.085097864 0.09227363
0.048009206 0.011722344 -0.12891178 0.12553667 0.125291 -0.060381196 -0.11452315 -0.028781062
0.025198067 -0.0046712034 0.11646869 -0.02763491 -0.042141546 -0.07505748 -0.060337633 0.19067433
00000000: a345 a0bb b485 02be f2c5 8bbd a9e9 54bd
00000010: 9bc7 abbd 5d6b 2cbe 4958 ddbc 4346 26bd
00000020: eeaf c3bd 165c 0ebd 7167 fabc fc71 66bd
00000030: 0957 0bbe 8767 c4bd bef9 23bd e0e3 d63c
00000040: 0be7 283c fbab 88bd ed2e db3c c496 2c3d
00000050: 6700 febd 7f28 4abe 6181 113c 808b 503c
00000060: c910 cbbd fadb f4bc a292 fdbc a8b9 853d
00000070: 8333 573e 6aa3 a03d b9e1 3f3e 6f7b c43e
00000080: e70f 0ebd 28d2 94be be72 8abd 156c 0d3e
00000090: 4d98 223e 0747 4c3e c287 5a3e d978 d03e
000000a0: 22c6 153f 6590 b33d 4d27 a8be e3b0 29bd
000000b0: 854a 113e 1d61 1b3d 126c 1a3e 0285 ab3e
000000c0: fe70 d63e a9d9 8c3e b30c 443d 9564 3abe
000000d0: 943e a5bd bd97 673d 5e22 f6bd 0ead 5f3a
000000e0: d50b 833e 65e3 8cbc a21d 22be 7e43 8ebd
000000f0: 3c2d 463c 0d56 c23d e3ab 60bb c8ad bbbd
00000100: 5894 a4bd ba82 a83d 119f 0abe d6aa 2fbe
00000110: 9e20 35be 68c1 d9bd d2b6 8bbc 272c a7bd
00000120: 900a 93bc 3a78 08be 5db3 1dbe 3b81 b0bd
00000130: 176b 683d 2d71 5c3b d7f0 b3bd b653 c7bc
00000140: b96c fcbd 99ae b73c 369d 78bd f78c e6bc
00000150: 19f1 d23d 47b0 973d 240a 5d3c ef1b fdbb
00000160: 96ec bc3d 1573 943d 70d3 8bbc fce3 f53b
00000170: 99d6 a43c e990 5abd df3e 6a3d 33cb b83d
00000180: 1b26 2e3d a5f2 123e 494f a9bc 54e4 00bd
00000190: e353 d93c 2c88 1abe 6c1a c5bd 5473 90bb
000001a0: 53c9 33bc 2941 82be 25f4 36bd 692e 253d
000001b0: cda4 343d 858b 2d3c 0dad c9bc 7761 263e
000001c0: 0c0a 983e 9063 30bd 917a c8be 85b0 97bd
000001d0: 36f0 a93d 3905 883b 9cb2 fe3c c04a 273e
000001e0: c1f1 933e f60e eb3e 303f 4abd 3128 f2be
000001f0: 498a 7dbe dc7a bcbb 097c d6bd fbe3 fa3d
00000200: beb3 913e efb2 af3e ea33 8f3e 3574 9dbd
00000210: f73e aabe 82ce 31be c1b5 903c 88d4 27bd
00000220: cfab bebb bb32 bf3d dca5 69bc f6c6 20be
00000230: 0847 4dbe e47e fdbd 31c5 6cbd 8fab cf3d
00000240: b1c2 2fbd 5f1b 20bd 1a89 c43d 4937 0e3c
00000250: 01d8 50be 99a5 17be 4dc2 f6bd b29c 903d
00000260: 46e9 8f3d a1a5 6f3d e7c7 393d 78db bc3b
00000270: 1882 a23a 7434 1e3e 5cdf 3eb9 b956 4cbd
00000280: 08df a03d 5741 69bd 7375 20bd cb93 0abd
00000290: 5eab d7bc 1c29 253c 43dd 8eba 4282 45bd
000002a0: 0867 59bd 2c4b cab8 dd32 d1bc 9915 9d3d
000002b0: 6ae6 84bc e8ec b0bc 93d3 0cbd dc75 033d
000002c0: b051 573b db92 773c 37be acbb 6614 fbbc
000002d0: cfa2 833d b3e8 8f3d 8a96 01be b5bb b8bd
000002e0: 9b37 983d e729 0bbb ef0f ecbd aad0 b3bd
000002f0: f529 19bc b1bd ccbb 387f 353d 3c79 883b
00000300: 337b 183e a4df 8d3e 6f40 5cbd 8278 89be
00000310: 1c8e 23bd c60b fe3d dbd7 ed3c 8ebb 71bd
00000320: 1ba1 a9bc 3606 703e 2a9a d43e f5dc 533d
00000330: c434 a8be 20aa 83bd 9d2d 883c 0950 193d
00000340: 0ec7 8abc b853 d83d 5177 4c3e 1814 5a3e
00000350: b358 3c3d b8a2 34be ca18 b6bd 1443 c9bc
00000360: 4d76 a83d 683f c7bd f3fc 98bc 796c b73c
00000370: b338 2ebe 8828 a3bd 8110 1f3c 7227 eb3c
00000380: 2fea fb3c 6994 9d3d b83d 0e3d bdde 0b3d
00000390: b1fe a2bd 88b8 2cbe ffac 1ebe 0971 dcbd
000003a0: ee8e fb3b 926a 053c 97f1 b63c 0b4d 0fbd
000003b0: f093 273b a4db 39bc ca47 ae3d f5f9 bc3d
000003c0: 4da5 443d 130f 403c 7301 04be af8c 003e
000003d0: 494c 003e 4652 77bd 1d8b eabd 43c6 ebbc
000003e0: 2d6c ce3c e510 99bb 2387 ee3d 9b62 e2bc
000003f0: 9d9c 2cbd bcb7 99bd 9824 77bd 2240 433e

conv1.conv2d.bias f4 [8]
0.16865425 0.06280714 0.13754493 0.045496784 -0.1336548 -0.1249673 -0.0645934 -0.07270817
00000000: b3b3 2c3e 08a1 803d 94d8 0c3e d65a 3a3d
00000010: cedc 08be dbee ffbd 8b49 84bd 05e8 94bd

in1.weight f4 [8]
1.0501448 0.8738773 1.271211 0.90900564 0.6818581 0.9995869 0.9136643 0.8678844
00000000: 256b 863f 6cb6 5f3f 0bb7 a23f 98b4 683f
00000010: 418e 2e3f ede4 7f3f e7e5 693f ac2d 5e3f

in1.bias f4 [8]
1.5925218 2.1089582 0.7666231 1.4543723 1.6736314 1.8207946 1.4741361 1.985576
00000000: c1d7 cb3f 2cf9 0640 6941 443f df28 ba3f
00000010: 8e39 d63f cc0f e93f 7eb0 bc3f 5b27 fe3f

conv2.conv2d.weight f4 [16, 8, 3, 3]
-0.09350184 0.0827525 -0.2845789 0.0527179 0.13608687 -0.028375234 -0.10971206 0.24651958
0.034010295 -0.09551154 -0.051375717 -0.19081628 0.025742339 -0.011074779 -0.085311994 0.035166167
-0.021155918 -0.09198529 -0.31588238 -0.09586258 0.3284774 -0.3425205 -0.4376683 0.13786633
-0.12624504 -0.2402127 0.14526145 -0.12626982 -0.21276292 -0.0050528175 -0.051461954 -0.23191631
-0.16012475 -0.102196746 -0.07321186 -0.030132702 0.14062163 0.08681933 0.05539864 -0.0058427085
0.058501624 0.013822912 0.12579578 -0.14038947 -0.1441936 0.19401073 0.18015443 0.1281193
0.15749723 0.19989567 0.13538599 0.092037685 0.26930574 0.18933184 -0.15994768 -0.14548044
0.020957509 -0.34512633 -0.33163184 -0.19252846 -0.264297 -0.58728063 -0.5777123 -0.07636912
-0.04611255 -0.16572975 -0.02594707 0.014608305 0.01643143 -0.24480508 0.040617287 0.22580092
-0.20447011 0.047451735 0.09924739 -0.2330587 0.09335239 0.33530167 -0.36295557 0.21775097
0.3571085 0.029139798 -0.073760085 -0.061532643 0.0707518 -0.054431725 -0.19531752 -0.023846405
-0.08726583 -0.08751228 -0.0041137687 -0.24309917 -0.5085995 0.17495109 -0.19956426 -0.52675074
-0.0062826765 -0.12071557 -0.35349235 0.19201 0.17278066 -0.15147248 0.006650345 -0.056902416
-0.17119588 0.055634823 0.000373185 -0.0840877 -0.06720568 -0.09552181 -0.20104726 0.13518527
0.07862629 -0.046096593 -0.10653228 0.024439791 -0.11570505 0.07519798 0.097755075 0.21130383
0.093643025 -0.086731195 0.113980494 0.15207116 -0.018225 0.14681718 -0.021035587 -0.058210548
-0.40389913 0.4649799 0.037608635 -0.18998012 0.24855395 -0.037850056 -0.55575943 -0.08694612
-0.103537396 -0.05977555 -0.012280643 -0.22313567 -0.14053552 0.049574487 -0.25789347 -0.1590884
-0.10998103 0.15501934 0.2946241 -0.14553116 -0.003982359 0.037353367 -0.020146048 0.0121741695
0.17996746 0.024227036 0.22657415 0.12690778 0.18953268 0.18195447 0.20364065 0.2002966
0.17726955 0.275359 0.009816064 -0.20323673 -0.53300685 0.08215721 -0.03795923 -0.30450544
0.048701905 -0.08766764 -0.21108207 0.07394791 0.13997741 0.0037508917 0.20430817 0.013167455
0.083966434 0.15940496 0.21168496 0.18998045 0.044069964 -0.14225668 -0.23587619 -0.065750495
-0.007816228 -0.11289155 -0.047369085 -0.050261945 -0.013881582 0.0010717225 0.040130854 0.012683303
-0.033149436 0.04012559 -0.060685527 -0.22814277 -0.11632931 0.009222238 0.39560235 0.20022164
0.12288468 0.26399723 0.25397158 0.20844132 0.5051804 0.41977075 0.38065648 0.08363915
0.079640865 0.26083642 0.04690238 0.08079699 0.09274996 0.030985698 0.0645106 0.23838046
-0.15344562 0.10693267 0.2359813 -0.12274869 -0.026749663 -0.09963172 -0.2309707 -0.15684994
-0.10825478 -0.04764913 -0.027600002 -0.13838327 0.050987672 -0.12280815 -0.060993407 0.014514926
0.014703171 -0.056925535 0.00066691876 -0.16107193 0.23784195 0.031660795 -0.09511004 0.009583457
0.061764155 -0.21520835 -0.04926668 -0.077975675 0.013010114 -0.016528623 -0.11625168 0.091378056
-0.11961388 0.03366742 -0.11587269 -0.015565894 0.029748216 0.046019807 0.2176778 0.054023527
00000000: e57d bfbd 257a a93d 53b4 91be baee 573d
00000010: 5b5a 0b3e 2e73 e8bc b7b0 e0bd a16f 7c3e
00000020: 614e 0b3d 8e9b c3bd 586f 52bd 5865 43be
00000030: 99e1 d23c fd72 35bc 0eb8 aebd 660a 103d
00000040: 2d4f adbc c962 bcbd 56bb a1be 9a53 c4bd
00000050: 312e a83e d95e afbe 0f16 e0be d52c 0d3e
00000060: 6146 01be 51fa 75be 6bbf 143e e04c 01be
00000070: 86de 59be 1b92 a5bb c5c9 52bd 787b 6dbe
00000080: bef7 23be 874c d1bd 1af0 95bd dbd8 f6bc
00000090: 1eff 0f3e 55ce b13d afe9 623d 3174 bfbb
000000a0: 669f 6f3d 7f79 623c 9cd0 003e 42c2 0fbe
000000b0: 7da7 13be c0aa 463e 677a 383e b531 033e
000000c0: f446 213e 73b1 4c3e a0a2 0a3e 417e bc3d
000000d0: 71e2 893e 35e0 413e 53c9 23be d3f8 14be
000000e0: 15af ab3c 66b4 b0be a6cb a9be 2e26 45be
000000f0: f051 87be 0658 16bf f4e4 13bf 6a67 9cbd
00000100: 83e0 3cbd 0fb5 29be f38e d4bc ac57 6f3c
00000110: 359b 863c 2fae 7abe 505e 263d 5b38 673e
00000120: 9d60 51be c05c 423d 3742 cb3d f1a6 6ebe
00000130: 8a2f bf3d a9ac ab3e 50d5 b9be 1cfa 5e3e
00000140: edd6 b63e 96b6 ee3c 870f 97bd a709 7cbd
00000150: 52e6 903d cdf3 5ebd 5101 48be 8959 c3bc
00000160: 6db8 b2bd a339 b3bd cbcc 86bb fdee 78be
00000170: 9433 02bf 6126 333e 935a 4cbe 23d9 06bf
00000180: e9de cdbb ba39 f7bd f3fc b4be 459e 443e
00000190: 6aed 303e 9a1b 1bbe 23eb d93b 8212 69bd
000001a0: f94d 2fbe 57e1 633d 0ba8 c339 2c36 acbd
000001b0: 22a3 89bd f0a0 c3bd 55df 4dbe 026e 0a3e
000001c0: d206 a13d c8cf 3cbd 992d dabd f535 c83c
000001d0: c5f6 ecbd 6601 9a3d d033 c83d 0860 583e
000001e0: eac7 bf3d 20a0 b1bd 9b6e e93d 8bb8 1b3e
000001f0: 984c 95bc 3e57 163e d352 acbc 2f6e 6ebd
00000200: decb cebe d811 ee3e 830b 1a3d 268a 42be
00000210: ed84 7e3e a908 1bbd 4046 0ebf cf10 b2bd
00000220: 6a0b d4bd 35d7 74bd c034 49bc ad7d 64be
00000230: 8be8 0fbe 9e0e 4b3d 9d0a 84be 12e8 22be
00000240: bc3d e1bd 64bd 1e3e f8d8 963e 1f06 15be
00000250: 737e 82bb d8ff 183d 5309 a5bc 2b76 473c
00000260: 6449 383e c777 c63c 0e03 683e 1df4 013e
00000270: db14 423e 4652 3a3e 2d87 503e 8d1a 4d3e
00000280: 2686 353e dbfb 8c3e 8ed3 203c 4a1d 50be
00000290: 2373 08bf 0a42 a83d 237b 1bbd 23e8 9bbe
000002a0: a67b 473d 178b b3bd e625 58be 0072 973d
000002b0: 3d56 0f3e 85d1 753b 2936 513e 4fbc 573c
000002c0: 98f6 ab3d 0e3b 233e f1c3 583e 3c8a 423e
000002d0: b582 343d bcab 11be 8789 71be 32a8 86bd
000002e0: a30f 00bc af33 e7bd 1606 42bd 78df 4dbd
000002f0: 936f 63bc 0a79 8c3a 4060 243d a1cd 4f3c
00000300: b4c7 07bd bb5a 243d 6391 78bd 429e 69be
00000310: 103e eebd df18 173c 648c ca3e e706 4d3e
00000320: f7aa fb3d a52a 873e 9008 823e a471 553e
00000330: 8153 013f 31ec d63e 68e5 c23e 014b ab3d
00000340: c01a a33d 5a8c 853e b61c 403d e478 a53d
00000350: b1f3 bd3d b8d5 fd3c 221e 843d 021a 743e
00000360: d920 1dbe 84ff da3d 15a5 713e aa63 fbbd
00000370: 1c22 dbbc b70b ccbd 9583 6cbe 459d 20be
00000380: afb4 ddbd bc2b 43bd 6619 e2bc 58b4 0dbe
00000390: 73d8 503d d782 fbbd 39d4 79bd 03d0 6d3c
000003a0: 92e5 703c c02a 69bd 29d4 2e3a 0af0 24be
000003b0: d78c 733e c0ae 013d 0dc9 c2bd ef03 1d3c
000003c0: 69fc 7c3d 945f 5cbe dccb 49bd b6b1 9fbd
000003d0: 6028 553c 0967 87bc 5c15 eebd 6b24 bb3d
000003e0: 1ff8 f4bd d9e6 093d a94e edbd 1708 7fbc
000003f0: 88b2 f33c 447f 3c3d eee6 5e3e c647 5d3d

conv2.conv2d.bias f4 [16]
0.23353621 -0.09385764 0.23734081 0.14907987 -0.1530755 0.25356618 0.0128101725 -0.15874037
0.052627616 -0.026165143 0.07114839 0.02357207 -0.14113773 -0.1432692 0.08274468 -0.03495493
00000000: 1e24 6f3e 6f38 c0bd 7809 733e 65a8 183e
00000010: d3bf 1cbe 6dd3 813e c2e1 513c d68c 22be
00000020: 0e90 573d 4858 d6bc 3fb6 913d 371a c13c
00000030: 6986 10be 29b5 12be 0b76 a93d e72c 0fbd

in2.weight f4 [16]
0.57849544 0.6212561 0.5082082 0.48605624 0.41552085 0.49313217 0.6283965 0.6148939
0.76771504 0.47990176 0.37205607 0.3942144 0.8584627 0.6860395 0.6466081 0.47073144
00000000: 4718 143f a40a 1f3f ef19 023f 5ddc f83e
00000010: 26bf d43e d27b fc3e 98de 203f b069 1d3f
00000020: f988 443f afb5 f53e 227e be3e 78d6 c93e
00000030: 36c4 5b3f 49a0 2f3f 1c88 253f b603 f13e

in2.bias f4 [16]
0.35791397 -0.30778894 -0.3081228 -0.28650677 0.043477934 -0.10443027 -0.34884095 0.019936936
0.46324518 -0.089378916 -0.30781 -0.2779627 0.5235928 -0.029829487 0.08509306 -0.097102985
00000000: 8040 b73e 8396 9dbe 46c2 9dbe 04b1 92be
00000010: eb15 323d 8adf d5bd 489b b2be c952 a33c
00000020: 792e ed3e 4b0c b7bd 4699 9dbe 2151 8ebe
00000030: 2e0a 063f f85c f4bc 4545 ae3d eedd c6bd

conv3.conv2d.weight f4 [32, 16, 3, 3]
-0.0008551742 0.012399835 -0.0059585418 -0.09879453 -0.43399942 -0.3471386 0.046152018 -0.085202836
-0.3318591 -0.199354 -0.30058384 -0.09543123 -0.29228434 -0.41245756 -0.08541282 -0.17902693
-0.4851245 -0.05412628 -0.20302027 -0.11130713 -0.23305215 -0.26458913 -0.30869633 -0.19744422
-0.21100381 -0.29514068 -0.29944548 0.07648503 -0.17116024 -0.24378197 0.13524526 0.09599739
-0.106963 -0.06425072 0.07108656 0.09710443 -0.17244586 -0.006592387 0.08874621 0.06930474
0.09880679 -0.19443342 0.25797865 0.15527442 0.027909005 -0.082407005 -0.16549495 -0.061991412
-0.111656144 -0.4760206 -0.24703816 0.25486282 0.041582253 -0.15591207 -0.11661115 -0.15673631
-0.21696313 -0.14647408 -0.03783147 -0.2025364 -0.11557346 -0.13838552 -0.24818482 -0.14606637
-0.08525007 -0.074010044 0.08235562 0.036077965 0.007209876 0.1957814 0.165663 0.006789824
-0.0064203055 0.03727646 0.23636276 -0.1254545 -0.34175086 -0.122625336 -0.025436942 -0.24302109
-0.34168082 -0.116319366 -0.10061461 -0.30282125 -0.013255233 -0.21503866 -0.27022156 -0.024684727
-0.18529566 -0.32024097 0.031049376 -0.021048713 -0.104840375 -0.03773512 0.07061029 0.092089176
-0.16478728 0.02187538 0.12830819 0.13637593 0.15649335 0.0008826926 0.11824736 0.27578136
0.16635719 -0.0001375146 0.14214303 0.2394072 -0.118082784 -0.032477513 0.19117041 -0.13852452
-0.48883504 -0.6025219 0.11168956 -0.14757082 -0.45868692 -0.055941295 0.04733977 0.07220516
-0.1451904 0.12349051 0.17962946 -0.25501072 0.024450153 0.018303344 -0.061275322 -0.07051282
0.22764525 -0.16927993 -0.09836371 0.2279397 -0.066363014 -0.11405492 -0.08939259 0.17061241
0.2601366 0.09660597 -0.17146395 -0.035039548 0.0660852 -0.25618023 -0.034081582 0.11772256
-0.1144881 0.04465462 0.4401669 0.024169087 0.35192582 0.47526026 -0.23270662 0.06135732
0.20173155 -0.20099083 -0.087913185 0.16289926 -0.1935577 -0.07582259 0.073815614 -0.09589628
-0.024446748 -0.013169545 -0.29263592 -0.2968995 -0.295304 -0.17860247 -0.30259618 -0.25799212
-0.018179698 -0.091088064 -0.16906592 -0.07955376 -0.00014496567 -0.039887846 -0.11404267 -0.066484116
0.14801739 -0.2585655 -0.389066 -0.16010539 0.11740732 -0.037523977 -0.019976627 0.19819257
0.10043082 0.007298537 -0.034287754 -0.0046135667 0.021687444 -0.10922824 0.14834493 0.076818824
0.070005976 0.49524957 0.33399332 0.06685584 0.2442928 0.27139953 -0.21851203 -0.108151816
-0.09647637 -0.021055134 -0.03701909 -0.18803552 -0.023456333 -0.16315584 -0.08360299 -0.068179965
0.032072812 0.18342017 0.106417075 0.3267022 0.25419018 -0.11215377 0.061892804 0.10589631
-0.19756134 0.0017211345 0.10503571 -0.06238109 0.11393603 0.077273525 0.09087342 0.2055152
0.19794865 -0.16861187 -0.046496313 0.20104527 -0.26322556 -0.104276285 0.05583122 -0.19306341
-0.009837362 0.07617771 -0.07911441 -0.25323376 -0.13678312 0.09155949 0.010905193 -0.077386685
0.033777315 0.065974645 0.097476415 0.17360593 0.10784957 -0.06024794 -0.12088339 -0.15498033
-0.15931334 0.056413244 -0.036530677 0.09017369 -0.27661347 0.06688357 0.09726115 -0.071030736
00000000: c52d 60ba ad28 4b3c df3f c3bb c954 cabd
00000010: 2c35 debe 27bc b1be e609 3d3d d37e aebd
00000020: 70e9 a9be 7423 4cbe 20e6 99be 7371 c3bd
00000030: 4ba6 95be a32d d3be ebec aebd d652 37be
00000040: 3d62 f8be 85b3 5dbd 8ce4 4fbe fef4 e3bd
00000050: 39a5 6ebe 3a78 87be 720d 9ebe d12e 4abe
00000060: 6211 58be ae1c 97be eb50 99be 2fa4 9c3d
00000070: a144 2fbe fba1 79be bc7d 0a3e 489a c43d
00000080: 6b0f dbbd e295 83bd d595 913d b0de c63d
00000090: a695 30be f304 d8bb 93c0 b53d a5ef 8d3d
000000a0: 375b ca3d 8e19 47be c715 843e 4200 1f3e
000000b0: 6da1 e43c 01c5 a8bd 8277 29be b5ea 7dbd
000000c0: faab e4bd f9b8 f3be 92f7 7cbe 617d 823e
000000d0: 2752 2a3d 6aa7 1fbe d4d1 eebd 7c7f 20be
000000e0: 952b 5ebe 4dfd 15be 2cf5 1abd b465 4fbe
000000f0: c7b1 ecbd efb4 0dbe 2924 7ebe 6c92 15be
00000100: 9797 aebd 9492 97bd 10aa a83d 7dc6 133d
00000110: d340 ec3b eb7a 483e 90a3 293e 2c7d de3b
00000120: 6d61 d2bb 34af 183d 1409 723e 2577 00be
00000130: f8f9 aebe fe22 fbbd 2261 d0bc 85da 78be
00000140: caf0 aebe d938 eebd 080f cebd 630b 9bbe
00000150: 7a2c 59bc 1833 5cbe 7b5a 8abe a037 cabc
00000160: 25be 3dbe a0f6 a3be 435b fe3c 5a6e acbc
00000170: 8db6 d6bd 2490 1abd 219c 903d 4099 bc3d
00000180: ffbd 28be ff33 b33c 3963 033e 22a6 0b3e
00000190: cb3f 203e 7f64 673a ac2b f23d 3733 8d3e
000001a0: 8a59 2a3e cb31 10b9 f18d 113e 2927 753e
000001b0: 63d5 f1bd 2407 05bd 2dc2 433e 5fd9 0dbe
000001c0: 9648 fabe e03e 1abf 7fbd e43d ce1c 17be
000001d0: 03d9 eabe b322 65bd 59e7 413d 4de0 933d
000001e0: cbac 14be 98e8 fc3d c9f0 373e c490 82be
000001f0: b04b c83c e5f0 953c d5fb 7abd 0669 90bd
00000200: d61b 693e b857 2dbe ea72 c9bd 0669 693e
00000210: 55e9 87bd a095 e9bd 7613 b7bd 05b5 2e3e
00000220: a030 853e 5ad9 c53d 3f94 2fbe a185 0fbd
00000230: ad57 873d 0e2a 83be 2199 0bbd 8718 f13d
00000240: bd78 eabd c3e7 363d 8e5d e13e 40fe c53c
00000250: 9f2f b43e 5055 f33e a54a 6ebe d051 7b3d
00000260: b792 4e3e 8ad0 4dbe d40b b4bd 10cf 263e
00000270: fd33 46be e048 9bbd a42c 973d 4565 c4bd
00000280: 8c44 c8bc 13c5 57bc 60d4 95be 3603 98be
00000290: 1632 97be 91e3 36be e3ed 9abe 8b17 84be
000002a0: 97ed 94bc 618c babd 9e1f 2dbe 15ed a2bd
000002b0: ed01 18b9 7061 23bd 348f e9bd d328 88bd
000002c0: df91 173e b262 84be a933 c7be abf2 23be
000002d0: 4073 f03d beb2 19bd 06a6 a3bc fef2 4a3e
000002e0: acae cd3d 9128 ef3b 5171 0cbd 672d 97bb
000002f0: dea9 b13c 0eb3 dfbd bce7 173e 3053 9d3d
00000300: 4b5f 8f3d 5a91 fd3e 2c01 ab3e b7eb 883d
00000310: e427 7a3e e1f4 8a3e 9ec1 5fbe b37e ddbd
00000320: 6795 c5bd d17b acbc 54a1 17bd 628c 40be
00000330: 7f27 c0bc 5312 27be 0b38 abbd f0a1 8bbd
00000340: c85e 033d 7fd2 3b3e 32f1 d93d 8345 a73e
00000350: 3725 823e e0b0 e5bd 4f83 7d3d 2ae0 d83d
00000360: 854d 4abe b197 e13a f61c d73d 5083 7fbd
00000370: 4b57 e93d 9541 9e3d d81b ba3d 9472 523e
00000380: 0db3 4a3e 97a8 2cbe eb72 3ebd d0de 4d3e
00000390: 80c5 86be ce8e d5bd 47af 643d 6ab2 45be
000003a0: e32c 21bc 0f03 9c3d bc06 a2bd dba7 81be
000003b0: e010 0cbe 8b83 bb3d b2ab 323c e97c 9ebd
000003c0: 155a 0a3d b71d 873d b7a1 c73d c1c5 313e
000003d0: 3ce0 dc3d 8bc6 76bd b691 f7bd 2ab3 1ebe
000003e0: 0923 23be 9311 673d 31a1 15bd fcac b83d
000003f0: 48a0 8dbe 41fa 883d db30 c73d 9078 91bd

conv3.conv2d.bias f4 [32]
0.0023287043 0.09390217 -0.0016976336 0.20736802 0.10867312 -0.18712461 0.16380091 0.02881013
0.07666581 -0.04887097 -0.06295554 -0.084674984 -0.08855804 0.13340883 0.003809271 0.13549627
0.11830839 0.08215855 0.0029303632 0.07231995 0.01584081 -0.050499074 -0.040939473 -0.12042864
0.040681582 0.21990927 -0.17074807 0.0875852 0.18142755 0.032946877 -0.09611125 -0.099188544
00000000: 2d9d 183b c84f c03d 2283 deba 4858 543e
00000010: 0390 de3d 989d 3fbe 6dbb 273e 3903 ec3c
00000020: f702 9d3d ed2c 48bd d6ee 80bd 146a adbd
00000030: eb5d b5bd 539c 083e f6a4 793b 89bf 0a3e
00000040: ab4b f23d be42 a83d 560b 403b 7b1c 943d
00000050: 96c4 813c 1ed8 4ebd 26b0 27bd 4aa3 f6bd
00000060: bba1 263d e52f 613e 95d8 2ebe df5f b33d
00000070: 25c8 393e 4ef3 063d fad5 c4bd 5d23 cbbd

in3.weight f4 [32]
0.62012476 0.46566507 0.59840256 0.6102614 0.48865107 0.51789266 0.53628075 0.5813841
0.60612315 0.74410397 0.7390334 0.5980845 0.37838292 0.45478874 0.52763426 0.621579
0.5986787 0.64516205 0.44614473 0.5345431 0.77598 0.5638049 0.49020442 0.73320645
0.4336516 0.6560418 0.57739687 0.7808618 0.64777195 0.6668651 0.8158517 0.6308781
00000000: 7fc0 1e3f a76b ee3e e930 193f 173a 1c3f
00000010: 7930 fa3e 9d94 043f b249 093f 97d5 143f
00000020: e32a 1b3f 997d 3e3f 4b31 3d3f 111c 193f
00000030: 68bb c13e 12da e83e 0a13 073f cd1f 1f3f
00000040: 0243 193f 5729 253f 156d e43e d1d7 083f
00000050: a0a6 463f 8555 103f 13fc fa3e 6bb3 3b3f
00000060: 9507 de3e 5bf2 273f 48d0 133f 8fe6 473f
00000070: 62d4 253f acb7 2a3f a8db 503f 3a81 213f

in3.bias f4 [32]
-0.19665344 -0.28043848 0.2768691 -0.24327202 -0.3213674 -0.22669463 0.034146238 -0.0501985
-0.17734751 -0.21724728 -0.1852045 -0.30507907 0.049163196 -0.2540098 -0.10042294 -0.15399167
-0.18303463 0.14419062 -0.3258047 0.05622756 -0.16390184 -0.42051145 -0.11188116 -0.14542739
-0.089568235 -0.07680745 -0.25936896 0.18725497 -0.25367138 -0.08670042 -0.13097954 -0.21307395
00000000: 855f 49be a295 8fbe c9c1 8d3e 4d1c 79be
00000010: 458a a4be a322 68be eddc 0b3d f19c 4dbd
00000020: 969a 35be 1276 5ebe 40a6 3dbe 5333 9cbe
00000030: 595f 493d 930d 82be 8baa cdbd feaf 1dbe
00000040: 6e6d 3bbe b5a6 133e e0cf a6be df4e 663d
00000050: e2d5 27be 474d d7be f321 e5bd ebea 14be
00000060: 8d6f b7bd 394d 9dbd 02cc 84be c4bf 3f3e
00000070: 37e1 81be fd8f b1bd 801f 06be 0f30 5abe

resnets.0.conv1.conv2d.weight f4 [32, 32, 3, 3]
0.108772814 -0.029926458 0.026847783 0.0534783 0.19294219 -0.03651723 0.14503966 0.23012908
0.34244925 0.42066726 0.3950966 0.22198668 0.2591577 0.067239955 0.18865713 0.1516929
-0.094356984 0.07561324 0.084096715 0.07544198 0.01071005 0.2166441 0.003652419 0.2040723
0.2477829 -0.047881 -0.26509446 -0.23464191 0.10097716 -0.09379362 -0.16743173 -0.094044626
-0.17929576 0.04983814 -0.0156206405 0.054619502 -0.081615515 -0.1150583 -0.14004852 -0.19810516
-0.2733227 -0.26062837 -0.14889243 -0.13887982 -0.28307495 -0.07283275 -0.035903282 -0.029474925
-0.0044051055 0.06372808 -0.06327849 -0.062403023 -0.124769315 -0.13611527 -0.005680556 0.120783105
0.06878752 0.09528451 0.13001011 0.23912661 -0.18167342 0.12028192 -0.053354353 0.09478884
0.07836762 0.19222961 0.08768438 0.18629831 0.20667201 -0.106633194 0.040235076 0.07227841
-0.15013802 0.053837936 0.048884742 -0.20136723 -0.15024824 -0.032098025 0.08017026 0.11719135
0.02787906 0.07517756 0.25071013 0.35571623 -0.02975151 -0.054217935 -0.043503445 0.33058408
0.35386324 0.06597399 -0.022726882 0.28772783 0.32978672 -0.22561976 -0.12064221 -0.050164204
0.19760045 0.21539041 0.18923934 0.17615195 0.056565553 0.28238237 0.06827639 0.0700211
0.09273699 -0.11457795 -0.17062995 0.020498894 0.085535355 0.13557933 0.2627343 0.17321981
0.27729407 0.09912234 0.11536481 0.13920952 0.07617949 -0.11750951 0.049797136 0.048746537
-0.049391758 0.15678112 0.068941705 -0.088610135 -0.0971055 -0.060407437 -0.22573301 -0.14339553
-0.34779364 -0.06475186 -0.09932676 -0.27667248 -0.047227055 -0.2373875 -0.52371424 -0.15929383
-0.18385659 -0.15539333 -0.052700467 -0.16542864 -0.10460468 0.023899022 -0.008426889 -0.14267607
-0.004287418 0.14900813 0.14598635 -0.21900888 0.16217545 -0.01678462 -0.035859734 0.14307897
-0.041828305 0.14758392 -0.010233429 -0.12260286 0.39919883 0.15933494 0.0104936445 0.2779694
-0.027088296 0.094542235 -0.2047389 -0.116332226 -0.027623303 -0.17134151 -0.20730418 -0.04807845
-0.08404165 -0.12895967 -0.11028745 -0.08065624 -0.19458047 -0.23480557 0.054989986 0.11947112
-0.23126784 0.22148405 -0.11898644 -0.11532616 0.19072513 0.28514934 0.18711407 0.13650735
-0.027231777 0.2337418 0.41542852 0.25536537 0.18228488 -0.08809997 -0.18279567 -0.089108564
0.007537244 0.023204619 -0.123765156 -0.23298275 -0.15239523 -0.1185738 0.22013961 0.1565398
-0.015150095 0.07815941 0.039034862 0.0151593955 -0.03138997 0.007272081 -0.037430037 0.30341968
0.10896169 0.07465662 0.0582739 0.035240654 -0.004702086 -0.094096154 -0.10710414 0.25097573
0.089016914 -0.19610669 -0.41393888 -0.26618257 -0.3132556 -0.26911917 -0.21507648 -0.22356127
-0.5055817 -0.067053914 0.092134275 0.07536801 -0.012624111 0.17049266 0.11612885 0.18927416
0.29303294 0.1738253 -0.1511721 -0.032719787 0.041222345 -0.08191238 -0.14167431 -0.33301207
-0.18617015 -0.012057037 -0.071212016 0.008381381 0.17029256 0.3118555 0.023675116 -0.13074993
0.03676725 -0.029764026 -0.30604804 -0.06806648 -0.031033428 -0.10532235 0.06324561 -0.10760354
00000000: 48c4 de3d 5528 f5bc e2ef db3c 100c 5b3d
00000010: a392 453e 1793 15bd 4785 143e f5a6 6b3e
00000020: 8255 af3e b361 d73e 1a4a ca3e 7a50 633e
00000030: 51b0 843e 1ab5 893d 562f 413e 6255 1b3e
00000040: 3c3e c1bd 1ddb 9a3d e63a ac3d 5381 9a3d
00000050: 3579 2f3c f3d7 5d3e 6c5d 6f3b 54f8 503e
00000060: cdba 7d3e de1e 44bd 76ba 87be f845 70be
00000070: 1dcd ce3d df16 c0bd 3973 2bbe 789a c0bd
00000080: 4f99 37be 1423 4c3d b7ed 7fbc b3b8 5f3d
00000090: 0926 a7bd b0a3 ebbd e168 0fbe 14dc 4abe
000000a0: f4f0 8bbe 1571 85be 4277 18be 8336 0ebe
000000b0: 33ef 90be 5629 95bd 520f 13bd 6675 f1bc
000000c0: b458 90bb de83 823d 2798 81bd 509a 7fbd
000000d0: 0e87 ffbd cd61 0bbe f523 babb 225d f73d
000000e0: 79e0 8c3d 8624 c33d 5f21 053e 9bdd 743e
000000f0: 9908 3abe 5e56 f63d 188a 5abd a720 c23d
00000100: 347f a03d d7d7 443e de93 b33d fcc4 3e3e
00000110: d4a1 533e 8162 dabd 89cd 243d b406 943d
00000120: c8bd 19be 2b85 5c3d 5e3b 483d 3633 4ebe
00000130: adda 19be 3879 03bd 4e30 a43d 0502 f03d
00000140: a062 e43c b1f6 993d 145d 803e 7020 b63e
00000150: 70b9 f3bc a013 5ebd ab30 32bd 5142 a93e
00000160: 902d b53e 5f1d 873d ba2d babc 1051 933e
00000170: ced9 a83e de08 67be 4313 f7bd fb78 4dbd
00000180: c657 4a3e 4e8f 5c3e f5c7 413e 2d61 343e
00000190: 48b1 673d 6c94 903e 7ed4 8b3d 3967 8f3d
000001a0: e4ec bd3d d8a7 eabd 9eb9 2ebe 4ced a73c
000001b0: 292d af3d 4fd5 0a3e 1c85 863e 8960 313e
000001c0: 7df9 8d3e a700 cb3d 6344 ec3d f18c 0e3e
000001d0: fe03 9c3d d3a8 f0bd 15f8 4b3d 73aa 473d
000001e0: 034f 4abd 3b8b 203e 4f31 8d3d 3b79 b5bd
000001f0: 40df c6bd ca6d 77bd 8e26 67be 47d6 12be
00000200: 0212 b2be a09c 84bd d46b cbbd 04a8 8dbe
00000210: 2871 41bd b515 73be 2312 06bf ec1d 23be
00000220: e744 3cbe 6e1f 1fbe 72dc 57bd 2066 29be
00000230: fa3a d6bd e2c7 c33c ef10 0abc ad19 12be
00000240: 787d 8cbb 9695 183e 727d 153e dd43 60be
00000250: 5211 263e e67f 89bc a8e1 12bd 4b83 123e
00000260: 2854 2bbd 3d20 173e 1daa 27bc 3517 fbbd
00000270: ca63 cc3e b328 233e 89ed 2b3c 0152 8e3e
00000280: 46e8 ddbc 5c9f c13d 13a7 51be 973f eebd
00000290: 444a e2bc 2674 2fbe 8c47 54be e9ed 44bd
000002a0: 071e acbd 010e 04be 63de e1bd 192f a5bd
000002b0: 1a40 47be df70 70be 2e3d 613d 46ad f43d
000002c0: 7ad1 6cbe b7cc 623e 2aaf f3bd 1f30 ecbd
000002d0: 734d 433e 18ff 913e d59a 3f3e 95c8 0b3e
000002e0: 2d15 dfbc 035a 6f3e 0cb3 d43e 40bf 823e
000002f0: e3a8 3a3e c26d b4bd ca2e 3bbe 8d7e b6bd
00000300: fcfa f63b 9d17 be3c 9678 fdbd 0893 6ebe
00000310: 7f0d 1cbe d2d6 f2bd 476c 613e f84b 203e
00000320: 1b38 78bc 0a12 a03d 05e3 1f3d 1d5f 783c
00000330: c592 00bd a34a ee3b 3d50 19bd d359 9b3e
00000340: 4e27 df3d 92e5 983d 9db0 6e3d 8158 103d
00000350: f513 9abb 7cb5 c0bd 6a59 dbbd e47f 803e
00000360: 804e b63d 31d0 48be ccef d3be 1549 88be
00000370: 0a63 a0be fdc9 89be 023d 5cbe 3fed 64be
00000380: cd6d 01bf 9053 89bd e5b0 bc3d 8b5a 9a3d
00000390: 5cd5 4ebc a195 2e3e f6d4 ed3d 16d1 413e
000003a0: 6a08 963e 42ff 313e dccc 1abe 2f05 06bd
000003b0: c3d8 283d aec1 a7bd 1213 11be 8f80 aabe
000003c0: 63a3 3ebe e18a 45bc 9bd7 91bd 0f52 093c
000003d0: 2c61 2e3e 86ab 9f3e 51f2 c13c 4fe3 05be
000003e0: 4299 163d b0d3 f3bc 54b2 9cbe 7066 8bbd
000003f0: d139 febc 3fb3 d7bd ea86 813d 3f5f dcbd

resnets.0.conv1.conv2d.bias f4 [32]
0.06129826 0.026636949 -0.03211105 0.11550613 -0.004508983 -0.033018492 0.07308768 7.791562e-05
0.19191366 0.11848516 -0.16286384 -0.12710938 -0.050308693 -0.10916555 -0.012039853 -0.11148099
0.17863283 0.116508886 0.054720555 0.14176166 -0.083587974 0.03785663 -0.009120197 0.1951939
-0.13940719 0.0047891187 0.14886343 -0.015788624 0.03604092 0.08726495 -0.03587087 0.13630326
00000000: e213 7b3d bb35 da3c e086 03bd 7a8e ec3d
00000010: 17c0 93bb 663e 07bd feae 953d a166 a338
00000020: 0485 443e 59a8 f23d c7c5 26be f628 02be
00000030: 7d10 4ebd 3092 dfbd ce42 45bc 2550 e4bd
00000040: 86eb 363e 369c ee3d a922 603d f829 113e
00000050: 2c30 abbd 8e0f 1b3d e16c 15bc e9e0 473e
00000060: c2c0 0ebe 0aee 9c3b a86f 183e 2557 81bc
00000070: a59f 133d f7b7 b23d 55ed 12bd 1593 0b3e

resnets.0.in1.weight f4 [32]
0.842889 0.9771116 0.88566446 0.8066977 1.0340445 0.93136084 1.2076209 0.8672256
0.8259013 0.9192858 0.9546538 1.0139734 0.8870611 0.89643884 0.82566524 0.910698
0.7988205 0.9457913 0.924322 1.2250332 0.96041274 0.89925456 1.2897358 0.9916401
1.0584049 1.0485117 1.2138898 1.1215854 1.189258 1.1089374 0.81301624 1.1193025
00000000: 93c7 573f fc23 7a3f e8ba 623f be83 4e3f
00000010: 925b 843f aa6d 6e3f 5293 9a3f 7f02 5e3f
00000020: 456e 533f 5056 6b3f 3164 743f e1c9 813f
00000030: 7016 633f 047d 653f cc5e 533f 8123 693f
00000040: 807f 4c3f 611f 723f 5ea0 6c3f e3cd 9c3f
00000050: 9cdd 753f 8c35 663f 1016 a53f 20dc 7d3f
00000060: d079 873f a235 863f be60 9b3f 1c90 8f3f
00000070: 9b39 983f a9f1 8d3f d521 503f 4e45 8f3f

resnets.0.in1.bias f4 [32]
-0.014492508 -0.36055177 -0.1881574 -0.33144602 -0.34008414 -0.028031128 -0.25295624 -0.052205663
-0.18203689 -0.29113442 -0.36342308 -0.26228783 -0.4277415 -0.421376 -0.24659385 -0.18250392
-0.13939853 -0.39315352 -0.3934874 -0.40831786 -0.34692323 -0.09441064 -0.3792081 -0.17483734
-0.49882028 -0.17651708 -0.29830432 -0.3336471 0.019872487 -0.48012492 -0.24926421 -0.46197936
00000000: fc71 6dbc 3e9a b8be 55ac 40be 4bb3 a9be
00000010: 821f aebe 89a1 e5bc 7b83 81be 9bd5 55bd
00000020: e167 3abe 920f 95be 9712 babe 974a 86be
00000030: ef00 dbbe 98be d7be 1983 7cbe 4fe2 3abe
00000040: 7dbe 0ebe 6b4b c9be 2e77 c9be 0a0f d1be
00000050: ec9f b1be 5e5a c1bd 9027 c2be 8f08 33be
00000060: 5f65 ffbe e5c0 34be 58bb 98be cbd3 aabe
00000070: a0cb a23c efd2 f5be 1e3f 7fbe 8f88 ecbe

resnets.0.conv2.conv2d.weight f4 [32, 32, 3, 3]
-0.099721774 -0.10031551 0.06919306 -0.09079018 -0.2897394 -0.037574016 -0.14612176 -0.07707636
0.02277435 0.061642356 0.16960195 0.2181498 0.026305722 0.109296635 0.17018957 -0.13734469
-0.012612478 -0.18356013 0.38050205 0.03519529 0.1856314 0.10470407 0.066455945 0.25396264
0.089257635 0.008336972 0.16212346 -0.14692874 0.13400818 0.13498865 -0.19821116 0.02026207
0.2917344 0.00749928 -0.05050423 0.3107312 -0.25188172 0.028818527 0.15946811 0.073019914
0.028609395 -0.11415 0.032334596 0.2946795 0.43315944 0.13171253 -0.03525273 0.12819415
-0.13869497 -0.26357263 -0.07736268 -0.2270029 -0.72068626 -0.40829992 -0.21403894 -0.07124712
0.14112465 -0.22552054 -0.16758227 0.2689897 -0.022552026 -0.19676642 -0.079089016 0.07165504
0.004533402 -0.03287862 -0.15384108 -0.22099222 -0.21017206 -0.13245772 -0.1522548 -0.2183978
-0.19953191 -0.12168048 0.19832444 -0.3617485 -0.12515168 0.018018765 0.032835312 0.14874886
0.10618193 0.07591675 -0.035183527 -0.090413205 0.23228325 -0.15564555 -0.14050004 -0.1578613
-0.07432503 -0.05751134 -0.14673217 -0.064793564 -0.193917 -0.068010844 -0.056753118 0.0051599923
-0.024201468 0.22059475 0.18176013 0.073495835 -0.081825994 -0.05084376 -0.016681746 -0.10326514
-0.001242139 -0.009720627 -0.010822873 -0.071626626 -0.2029604 -0.22235124 -0.09435022 -0.08638312
-0.09525193 -0.24489038 0.23989652 0.0762185 0.038076207 -0.09395541 0.038795184 0.21551767
-0.4369052 -0.3148968 -0.10675535 -0.11183398 0.09648941 0.119638115 0.28834182 0.12098755
0.022920093 0.16670743 0.041376837 0.05656205 0.2073524 0.13117018 0.020698378 -0.25629714
-0.4158093 -0.0037491163 -0.09078405 0.06668354 0.065747194 -0.0016911163 0.022418348 0.33154702
-0.19160645 -0.20257731 0.049542714 -0.34170938 -0.22969289 -0.2069796 -0.53010035 -0.3319049
-0.045797005 0.03937865 0.17447163 0.18428569 -0.07125413 -0.033569843 0.019357715 0.095784165
0.126667 0.09114579 0.021440968 -0.037155803 0.21013628 0.15665022 0.09180861 0.07030992
0.15042457 -0.13405536 0.16824007 0.035069484 0.19861674 0.22389643 0.041833688 0.065567814
0.3130232 -0.042093314 -0.06365814 -0.009189689 0.2490941 0.45920333 -0.108788684 -0.043724988
-0.00011201779 0.105313286 0.016201917 0.009217602 0.006412898 -0.16016494 0.045964096 0.081023484
-0.058976155 -0.022400392 0.16168407 0.10375736 0.0682714 0.1962222 0.1474364 -0.14151369
-0.14165844 0.04931619 -0.08349676 -0.1791419 0.04554454 0.048673674 0.09259092 -0.17971916
-0.37080348 -0.22142793 -0.3947989 -0.32021254 -0.37921306 -0.22589529 -0.18541266 -0.29404396
-0.24862094 -0.33724657 -0.18698043 0.2516604 0.073421165 0.03774611 0.20716019 0.27825552
0.24353084 0.21892509 0.014504049 -0.27398357 -0.01397755 0.03472359 0.12408866 -0.080788456
-0.3587917 -0.06710145 -0.059235163 0.09608795 0.062344007 -0.08853509 -0.037942663 0.14340566
0.17870629 0.16896501 0.0019874983 0.17665584 0.17266114 0.19569115 0.2296657 -0.07403502
0.071368195 0.20803079 0.0031208547 0.011815551 0.22377086 0.05656675 0.054196026 -0.039073512
00000000: ee3a ccbd 3872 cdbd 17b5 8d3d 34f0 b9bd
00000010: b958 94be 36e7 19bd f1a0 15be 36da 9dbd
00000020: 4691 ba3c b27c 7c3d 22ac 2d3e a962 5f3e
00000030: 197f d73c ead6 df3d 2d46 2e3e 16a4 0cbe
00000040: 91a4 4ebc 30f7 3bbe 2ad1 c23e f028 103d
00000050: 2816 3e3e 166f d63d 0e1a 883d 6407 823e
00000060: b5cc b63d cc97 083c b103 263e 7d74 16be
00000070: 7139 093e 773a 0a3e def7 4abe a4fc a53c
00000080: 365e 953e 85bc f53b 86dd 4ebd 2918 9f3e
00000090: a4f6 80be d514 ec3c 9c4b 233e 778b 953d
000000a0: 405e ea3c 7ac7 e9bd 4871 043d 3be0 963e
000000b0: 13c7 dd3e a6df 063e 2b65 10bd 5445 033e
000000c0: 0e06 0ebe fef2 86be 5370 9ebd 7373 68be
000000d0: e57e 38bf b00c d1be 062d 5bbe 03ea 91bd
000000e0: fb82 103e dbee 66be b09a 2bbe 05b9 893e
000000f0: 07bf b8bc 237d 49be 6cf9 a1bd e1bf 923d
00000100: ef8c 943b bbab 06bd 8488 1dbe c94b 62be
00000110: 5837 57be ffa2 07be afe8 1bbe aca3 5fbe
00000120: 1852 4cbe 9e33 f9bd 9015 4b3e 1937 b9be
00000130: c327 00be 179c 933c 527e 063d 9f51 183e
00000140: e975 d93d 3e7a 9b3d 9a1c 10bd 8f2a b9bd
00000150: a9db 6d3e 8c61 1fbe 3edf 0fbe 65a6 21be
00000160: b937 98bd 0391 6bbd f540 16be 7db2 84bd
00000170: 2e92 46be 4549 8bbd f575 68bd 2715 a93b
00000180: 2842 c6bc 97e3 613e 541f 3a3e fc84 963d
00000190: 6394 a7bd 8c41 50bd 28a8 88bc ac7c d3bd
000001a0: 45cf a2ba 4443 1fbc 6b52 31bc fbb0 92bd
000001b0: dad4 4fbe 0bb0 63be b03a c1bd a2e9 b0bd
000001c0: 7213 c3bd 8bc4 7abe 6fa7 753e 7218 9c3d
000001d0: ccf5 1b3d b26b c0bd b3e7 1e3d aab0 5c3e
000001e0: 0ab2 dfbe 273a a1be 8da2 dabd 3709 e5bd
000001f0: 3d9c c53d d404 f53d 8aa1 933e 52c8 f73d
00000200: ebc2 bb3c 5ab5 2a3e c27a 293d 9cad 673d
00000210: 3054 543e 7a51 063e a58f a93c 6139 83be
00000220: f5e4 d4be bcb3 75bb fdec b9bd 6191 883d
00000230: 77a6 863d 72a8 ddba afa6 b73c 88c0 a93e
00000240: 7b34 44be 6d70 4fbe 4ded 4a3d 88f4 aebe
00000250: 9d34 6bbe 76f2 53be a8b4 07bf 70ef a9be
00000260: a495 3bbd 824b 213d b1a8 323e 63b5 3c3e
00000270: afed 91bd 8880 09bd 1294 9e3c 7d2a c43d
00000280: feb4 013e a5aa ba3d f8a4 af3c af30 18bd
00000290: f72d 573e ea68 203e 2706 bc3d a6fe 8f3d
000002a0: e608 1a3e cf45 09be 2047 2c3e 05a5 0f3d
000002b0: 3062 4b3e 1b45 653e cd59 2b3d 6b48 863d
000002c0: 9444 a03e 0a6a 2cbd 335f 82bd 5990 16bc
000002d0: 8612 7f3e b31c eb3e 9acc debd f918 33bd
000002e0: 18eb eab8 7eae d73d e2b9 843c 6d05 173c
000002f0: 4a23 d23b 4702 24be d944 3c3d a4ef a53d
00000300: fb90 71bd 0781 b7bc 8290 253e bd7e d43d
00000310: e0d1 8b3d 79ee 483e 91f9 163e f7e8 10be
00000320: e90e 11be c6ff 493d 5900 abbd f970 37be
00000330: e98c 3a3d 0c5e 473d 4fa0 bd3d 4d08 38be
00000340: f4d9 bdbe 01be 62be 1523 cabe e6f2 a3be
00000350: 3728 c2be 1851 67be d1dc 3dbe ee8c 96be
00000360: 7d96 7ebe 95ab acbe cc77 3fbe a2d9 803e
00000370: d65d 963d aa9b 1a3d cd21 543e 8277 8e3e
00000380: 2660 793e e62d 603e 64a2 6d3c 9347 8cbe
00000390: 1802 65bc 533a 0e3d 3222 fe3d 6b74 a5bd
000003a0: 8cb3 b7be 7c6c 89bd 92a0 72bd c2c9 c43d
000003b0: 6e5c 7f3d e351 b5bd c469 1bbd efd8 123e
000003c0: c8fe 363e 2a05 2d3e b040 023b 45e5 343e
000003d0: 15ce 303e 4363 483e 7c2d 6b3e ac9f 97bd
000003e0: 7d29 923d 0606 553e 4187 4c3b 0396 413c
000003f0: 3024 653e 89b2 673d a7fc 5d3d 8c0b 20bd

resnets.0.conv2.conv2d.bias f4 [32]
0.12820056 0.010528436 0.060672723 0.11348262 0.046518728 0.030534292 0.14406724 -0.13499542
-0.008548442 -0.08027111 -0.12274591 0.079828985 -0.11314564 0.036375027 -0.25656405 0.07694417
-0.09617254 -0.042452425 0.003920513 -0.19331302 0.18864897 -0.114531964 -0.026614763 0.061064847
0.0978605 0.073219545 0.029183052 0.085395426 -0.01005511 0.09334901 0.039871585 0.17639174
00000000: 0247 033e 767f 2c3c f683 783d 9369 e83d
00000010: 6c8a 3e3d 0d23 fa3c 5d86 133e 3d3c 0abe
00000020: c40e 0cbc 2e65 a4bd 3562 fbbd 617d a33d
00000030: e7b8 e7bd fbfd 143d 5d5c 83be e894 9d3d
00000040: 1cf6 c4bd 98e2 2dbd a677 803b d9f3 45be
00000050: 322d 413e bc8f eabd 3407 dabc 221f 7a3d
00000060: 166b c83d 21f4 953d 4c11 ef3c cce3 ae3d
00000070: 30be 24bc c42d bf3d 6350 233d 09a0 343e

resnets.0.in2.weight f4 [32]
0.5760937 0.48357326 0.5336122 0.5188249 0.43060154 0.6132089 0.54913473 0.46986958
0.4036669 0.60478437 0.44569746 0.7112583 0.8008435 0.59026146 0.3456613 0.46513262
0.44532058 0.39601642 0.4066572 0.6494646 0.7013259 0.5592871 0.41387394 0.56657755
0.5709139 0.57413197 0.102957726 0.7232605 0.5703945 0.38718194 0.6214578 0.42582583
00000000: e07a 133f ea96 f73e cf9a 083f b5d1 043f
00000010: ce77 dc3e 42fb 1c3f 1894 0c3f bf92 f03e
00000020: 6ead ce3e 26d3 1a3f 7532 e43e 0615 363f
00000030: 1404 4d3f 601b 173f 85fa b03e dd25 ee3e
00000040: 0f01 e43e aac2 ca3e 5f35 d03e 5043 263f
00000050: 188a 333f 702d 0f3f 49e7 d33e 3a0b 113f
00000060: 6a27 123f 50fa 123f 80db d23d 9a27 393f
00000070: 6005 123f b63c c63e dc17 1f3f d805 da3e

resnets.0.in2.bias f4 [32]
0.11027087 -0.036999885 0.13249359 0.14799097 0.08543026 0.022801727 -0.020374881 -0.2283811
-0.14072387 0.013534861 -0.13575481 0.108190246 -0.071305685 -0.020001609 -0.21100931 -0.023110626
-0.026123118 -0.0154335275 0.2514606 -0.06700525 -0.033690136 0.047204953 0.048102107 0.08412364
0.19864237 0.14703059 0.041237928 0.08939683 -0.050009783 0.23954837 0.13726753 0.06624566
00000000: b2d5 e13d 318d 17bd 66ac 073e f28a 173e
00000010: 0ff6 ae3d b0ca ba3c 39e9 a6bc bcdc 69be
00000020: eb19 10be 52c1 5d3c 4f03 0bbe d992 dd3d
00000030: b708 92bd 6ada a3bc d312 58be 7f52 bdbc
00000040: 2600 d6bc e8dc 7cbc 72bf 803e 0c3a 89bd
00000050: abfe 09bd fb59 413d b706 453d 0449 ac3d
00000060: e868 4b3e 308f 163e 1ae9 283d af15 b73d
00000070: 0fd7 4cbd 2b4c 753e dc8f 0c3e ceab 873d

resnets.1.conv1.conv2d.weight f4 [32, 32, 3, 3]
-0.034352064 -0.01864994 0.065278634 0.19402578 0.027586158 -0.09139002 0.35530984 0.0839574
-0.21205477 -0.1159102 0.18382972 -0.050068732 -0.2752969 0.007825201 -0.20309712 -0.14434247
-0.07482128 -0.20497048 -0.13382062 -0.05225365 -0.12571174 -0.10266646 -0.040401947 -0.14221813
-0.07211511 -0.014813337 -0.16189992 0.049564563 -0.12154775 0.008319579 -0.21461605 -0.018491857
0.14995582 -0.28386822 -0.09285642 0.18088003 0.08375653 0.12797083 0.10608068 0.13275574
0.1485218 0.027292091 0.06968938 0.03823082 0.030929176 -0.5493704 -0.22250962 -0.2833718
-0.2976793 -0.15096255 -0.06287138 -0.26598096 -0.17937511 -0.04312556 0.21387711 0.0007508563
0.33589453 -0.07901994 -0.16689463 0.13514744 -0.112999976 -0.21928285 0.05073692 -0.07489805
-0.05882934 -0.11324703 0.036052316 -0.14799872 -0.3583416 -0.08236593 -0.030405883 -0.34969577
-0.4340374 -0.30134514 -0.11082602 -0.21105076 -0.29315656 0.021376291 -0.03985157 -0.016370682
0.06704879 -0.20960753 -0.11778458 -0.018143162 0.06466557 -0.08793097 -0.13119568 0.24338813
0.0015576308 -0.0050288164 -0.0034076094 0.10598986 0.0637203 -0.10745739 -0.12607527 0.009932821
-0.010654251 -0.12207239 -0.023271604 0.2549937 0.042698026 0.3087566 0.17840002 -0.053935435
-0.11818672 0.30723894 -0.13370766 -0.3233092 0.28177 -0.19650681 -0.0849494 0.24832211
0.11331131 -0.13014238 0.118492976 0.21808414 -0.08184012 -0.09830134 -0.27719906 -0.044788152
-0.08079764 -0.18649063 -0.0012838057 -0.08096959 -0.14814064 -0.033743326 -0.36155492 -0.042434033
-0.20529416 -0.40882227 -0.19299136 -0.2011807 -0.4254664 -0.36778876 -0.2042957 -0.14931434
-0.3246828 -0.29635957 -0.27464423 -0.36132142 -0.22598656 -0.25219017 -0.2512052 -0.19622597
0.036710177 0.037850056 0.0883377 -0.09472773 0.045049768 0.06535113 -0.02599211 -0.06694158
0.073123224 -0.10387819 -0.33485928 -0.4351751 -0.06901652 -0.36232623 -0.23948282 -0.017268775
-0.09860428 -0.3202835 -0.33041078 -0.25410601 -0.19143261 -0.3156203 -0.20408046 -0.2481103
-0.2582917 -0.31059104 -0.18333979 0.22994246 0.011225878 0.02967906 0.2323465 -0.16521077
0.119531475 -0.0016756053 -0.23004498 -0.12467346 0.09935991 0.32991257 0.12716377 0.16616179
0.093607016 0.097884335 0.29874504 -0.018226352 -0.0932181 0.24151991 0.14235544 0.2877835
0.16893904 0.039330848 0.11948824 0.062408708 0.0028578602 0.094792545 0.12782508 -0.040289387
-0.09413294 0.09077794 -0.044713695 -0.13592894 0.0020830464 0.06563862 -0.10146519 -0.08124013
-0.0115283085 -0.24137558 -0.024435952 -0.024342548 -0.20853817 -0.121042855 -0.3107101 -0.4705335
-0.1409363 -0.17711209 -0.2502913 -0.13467644 -0.11513457 0.04450958 -0.12776062 0.19158147
-0.013663195 -0.1260131 0.046842787 -0.19318072 -0.19245228 0.18934114 0.05263079 -0.062248398
0.15172872 0.012541147 0.105443545 0.072917774 0.117740914 -0.081557035 -0.074044906 0.023540687
-0.04734108 0.10932138 0.11635201 -0.25399116 0.00046589092 -0.2212592 -0.19022341 -0.013691751
-0.22093669 -0.25838685 -0.044315774 -0.2167103 -0.20307039 -0.16630195 -0.35851777 -0.12162477
00000000: c0b4 0cbd c2c7 98bc ceb0 853d b2ae 463e
00000010: 5efc e13c b12a bbbd 2ceb b53e dbf1 ab3d
00000020: e324 59be 5462 edbd dc3d 3c3e df14 4dbd
00000030: b7f3 8cbe 4635 003c b1f8 4fbe 83ce 13be
00000040: e63b 99bd c8e3 51be 4608 09be ec07 56bd
00000050: 94ba 00be cb42 d2bd 837c 25bd a1a1 11be
00000060: 16b1 93bd a3b3 72bc 18c9 25be 3604 4b3d
00000070: 07ee f8bd d84e 083c 4fc4 5bbe 3c7c 97bc
00000080: 058e 193e 2d57 91be 822b bebd 9d38 393e
00000090: 8b88 ab3d c90a 033e d440 d93d 1ff1 073e
000000a0: 1916 183e aa93 df3c 4eb9 8e3d ec97 1c3d
000000b0: 2f5f fd3c 8aa3 0cbf 90d9 63be 1c16 91be
000000c0: 6c69 98be ed95 1abe b6c2 80bd a82e 88be
000000d0: 1cae 37be 6da4 30bd 9a02 5b3e 1dd5 443a
000000e0: 5efa ab3e 35d5 a1bd 6de6 2abe 1764 0a3e
000000f0: 886c e7bd af8b 60be 84d1 4f3d 2664 99bd
00000100: 09f7 70bd 0fee e7bd 98ab 133d fa8c 17be
00000110: 8d78 b7be 78af a8bd c215 f9bc 530b b3be
00000120: 263a debe e949 9abe c1f8 e2bd b11d 58be
00000130: 9e18 96be 551d af3c 663b 23bd cf1b 86bc
00000140: e050 893d 5ba3 56be 0b39 f1bd f8a0 94bc
00000150: 626f 843d 2715 b4bd 2958 06be bd3a 793e
00000160: 6b29 cc3a c5c8 a4bb 3352 5fbb 3611 d93d
00000170: ca7f 823d 9f12 dcbd e019 01be 45bd 223c
00000180: 2b8f 2ebc 1701 fabd 17a4 bebc 898e 823e
00000190: 20e4 2e3d 5815 9e3e 7fae 363e 67eb 5cbd
000001a0: e10b f2bd 6c4e 9d3e a9ea 08be c988 a5be
000001b0: 2844 903e 1539 49be f3f9 adbd 2748 7e3e
000001c0: c30f e83d 0b44 05be 72ac f23d 7351 5f3e
000001d0: cb9b a7bd 3752 c9bd 09ed 8dbe c873 37bd
000001e0: 3c79 a5bd 66f7 3ebe 5f45 a8ba 62d3 a5bd
000001f0: 2eb2 17be 7136 0abd ba1d b9be 4fcf 2dbd
00000200: a238 52be 2751 d1be 879f 45be 5002 4ebe
00000210: bbd6 d9be cf4e bcbe e432 51be dce5 18be
00000220: d33c a6be 71bc 97be 2b9e 8cbe 1fff b8be
00000230: 0569 67be 121f 81be f89d 80be 76ef 48be
00000240: 695d 163d a908 1b3d 65ea b43d 9d00 c2bd
00000250: 1b86 383d d0d6 853d 68ed d4bc ab18 89bd
00000260: a1c1 953d 17be d4bd ad72 abbe 45cf debe
00000270: 8958 8dbd d382 b9be fc3a 75be 3f77 8dbc
00000280: 0af1 c9bd 33fc a3be 9a2b a9be 2f1a 82be
00000290: e906 44be fc98 a1be 78fa 50be a010 7ebe
000002a0: cf3e 84be ca05 9fbe 6dbd 3bbe 0976 6b3e
000002b0: bfec 373c 8021 f33c 3eec 6d3e 032d 29be
000002c0: ebcc f43d fc9f dbba e990 6bbe cd54 ffbd
000002d0: 357d cb3d 4dea a83e 3837 023e 5126 2a3e
000002e0: 09b5 bf3d 9577 c83d 1cf5 983e 6e4f 95bc
000002f0: 22e9 bebd ff50 773e a0c5 113e 5c58 933e
00000300: 5bfe 2c3e 6219 213d 40b6 f43d 46a0 7f3d
00000310: f04a 3b3b 9822 c23d 94e4 023e 7c06 25bd
00000320: c5c8 c0bd c9e9 b93d b525 37bd f530 0bbe
00000330: b883 083b 8a6d 863d fbcc cfbd 3a61 a6bd
00000340: 3be1 3cbc 292b 77be e82d c8bc 066a c7bc
00000350: 088b 55be 51e5 f7bd 6515 9fbe c4e9 f0be
00000360: 9b51 10be df5c 35be 2e26 80be 9fe8 09be
00000370: accb ebbd ad4f 363d aed3 02be ef2d 443e
00000380: 98db 5fbc 9409 01be 39de 3f3d 2bd1 45be
00000390: 3612 45be a5e2 413e 6293 573d 2df8 7ebd
000003a0: c65e 1b3e 6279 4d3c c9f2 d73d ea55 953d
000003b0: 2622 f13d 6007 a7bd dba4 97bd 66d8 c03c
000003c0: b8e8 41bd e3e3 df3d f649 ee3d 210b 82be
000003d0: d242 f439 c691 62be edc9 42be 5e53 60bc
000003e0: 3a3d 62be 484b 84be 7584 35bd 4ee9 5dbe
000003f0: aff1 4fbe 0f4b 2abe a48f b7be 6816 f9bd

resnets.1.conv1.conv2d.bias f4 [32]
0.10469397 0.11350169 0.015080691 -0.117248476 -0.024657978 -0.10675597 0.057339627 0.023030115
0.07463773 -0.110584445 -0.026512314 0.23203936 -0.39741883 -0.061071705 -0.055439774 0.13763395
-0.014206582 -0.023556573 -0.10009189 -0.13904862 -0.1377185 0.013582111 0.040309016 0.051565472
-0.07014142 0.15878603 0.06945089 0.048459303 0.09155062 -0.116241254 0.17323078 -0.014405211
00000000: cb69 d63d 9373 e83d 0115 773c f81f f0bd
00000010: 87ff c9bc e0a2 dabd f5dc 6a3d a7a9 bc3c
00000020: abdb 983d 197a e2bd 5a30 d9bc ba9b 6d3e
00000030: 7b7a cbbe 5326 7abd d114 63bd eaef 0c3e
00000040: b9c2 68bc b7f9 c0bc fafc ccbd c362 0ebe
00000050: 1406 0dbe 8187 5e3c 111b 253d 5136 533d
00000060: 4ea6 8fbd ce98 223e 453c 8e3d 437d 463d
00000070: e47e bb3d e50f eebd 6963 313e d603 6cbc

resnets.1.in1.weight f4 [32]
0.8703854 0.947204 0.8122145 0.9005484 1.0334466 0.77077645 0.84946024 0.9736052
0.9497471 0.911481 0.95929885 1.0058491 0.85344523 0.94203895 0.9847054 0.74451035
0.8337808 0.99958533 0.83673364 1.0864756 0.73338383 1.0218846 0.74908817 0.8538388
0.8028046 0.8601844 0.8705631 1.0100118 0.8227163 0.9335098 0.9894229 0.84528714
00000000: 94d1 5e3f f67b 723f 4aed 4f3f 578a 663f
00000010: fa47 843f 9b51 453f 3a76 593f 313e 793f
00000020: a022 733f d256 693f 9c94 753f aabf 803f
00000030: 637b 5a3f 7729 713f a715 7c3f 3b98 3e3f
00000040: a972 553f d3e4 7f3f 2d34 563f a211 8b3f
00000050: 0bbf 3b3f 1dcd 823f 3ec4 3f3f 2e95 5a3f
00000060: 9a84 4d3f 0b35 5c3f 39dd 5e3f 1148 813f
00000070: 899d 523f 80fa 6e3f d24a 7d3f bd64 583f

resnets.1.in1.bias f4 [32]
-0.27154177 -0.49535736 -0.5312251 -0.42371303 -0.109076485 -0.3238515 -0.45722696 -0.21572465
-0.25011873 -0.8026713 -0.520137 -0.5920313 -0.5018295 -0.40484068 -0.38328633 -0.36384663
-0.48168215 -0.33329278 -0.73049074 -0.87949675 -0.38307974 -0.6465007 -0.16554564 -0.46601173
-0.28543633 -0.7238713 -0.1995869 -0.4473309 -0.19185391 -0.35063004 -0.4029027 -0.46330217
00000000: 8607 8bbe 7b9f fdbe 5efe 07bf eaf0 d8be
00000010: 7e63 dfbd ddcf a5be a719 eabe ece6 5cbe
00000020: 900f 80be de7b 4dbf b327 05bf 5d8f 17bf
00000030: e677 00bf 4747 cfbe 1b3e c4be 1b4a babe
00000040: 0b9f f6be 5aa5 aabe 7101 3bbf b326 61bf
00000050: 0723 c4be 1281 25bf cc84 29be 1799 eebe
00000060: b624 92be a14f 39bf 8260 4cbe 8e08 e5be
00000070: 5a75 44be c885 b3be 4349 cebe f135 edbe
