Assets/Style_Transfer/Models/noche_e10_7.onnx (onnx, 449372 bytes, 62 tensors)

conv1.conv2d.weight f4 [8, 3, 9, 9]
0	0x3d2abbd3	0.04168303
1	0xbdfa318b	-0.12216481
2	0x3ce4c3e3	0.027925437
3	0x3c8c8527	0.017153336
4	0x3c7cd2a7	0.015431083
5	0xbd0e22ad	-0.03470104
6	0xbcc17138	-0.023613557
7	0xbda80ffc	-0.08206174
8	0xba980cc4	-0.0011600484
9	0xbd5931ec	-0.053026125
10	0xbb22b814	-0.0024828957
11	0x3d1645f5	0.03668781
12	0x3ccfa683	0.025347954
13	0x3d1b6219	0.03793535
14	0x3b0c045d	0.0021364905
15	0x3d058411	0.03259665
16	0xbd3dd4b0	-0.046345413
17	0x3c8f8bd6	0.017522734
18	0x3d9bcf0a	0.07607849
19	0x3deb1589	0.11478717
20	0x3deb2525	0.11481694
21	0x3af087ec	0.0018351055
22	0xbe1ac1b8	-0.1511296
23	0xbddd8587	-0.10816484
24	0x3db80a55	0.08986346
25	0x3d1f2758	0.03885588
26	0xbc418046	-0.011810368
27	0x3d0eba52	0.034845658
28	0x3d40d8ed	0.047081877
29	0x3dc4fd1b	0.096185885
30	0xbd92fc30	-0.07177007
31	0xbe7fd29c	-0.24982685
32	0xbe921f89	-0.28539684
33	0x3da11f94	0.07867351
34	0x3e7b47cb	0.24539106
35	0x3d3c4b7e	0.045970432
36	0xbdd868fe	-0.10566901
37	0x3da515ab	0.080607735
38	0x3dbb9c6f	0.09160697
39	0xbd7dc0bf	-0.061951395
40	0xbe963aac	-0.29341638
41	0xbe0adad3	-0.13560037
42	0x3e541c23	0.20713858
43	0x3db01ad8	0.0859887
44	0xbdde9bd6	-0.10869567
45	0xbdf9b6bd	-0.12193058
46	0x3d7d6180	0.06186056
47	0x3e419f69	0.18908466
48	0xbca5a7d9	-0.020221638
49	0xbe61b925	-0.22043283
50	0x3c5e42eb	0.013565759
51	0x3e208e3e	0.15679261
52	0x3d26d13f	0.040726896
53	0xbdc5c19a	-0.09656067
54	0xbd69dfd2	-0.057098217
55	0xbabdc4bb	-0.0014478186
56	0x3dedc2af	0.116093986
57	0x3d0c098a	0.034188785
58	0x3c90197c	0.017590277
59	0x3d486bce	0.048930936
60	0x3c03a8bc	0.008035835
61	0x3b2002b6	0.0024415678
62	0x3beab2eb	0.007162442
63	0x3cd5192a	0.026012976
64	0x3d1982ee	0.03747838
65	0x3d07a0fa	0.033112504
66	0x3d8ba36e	0.06818281
67	0x3da2cade	0.0794885
68	0xbbc55d2b	-0.0060230694
69	0xbda09510	-0.078409314
70	0xbd5f4340	-0.054507494
71	0x3d9be9d5	0.07612959
72	0x3c8cfb13	0.017209565
73	0xbbf83bd1	-0.00757549
74	0xbdd1b1ad	-0.10238967
75	0x3bac1d77	0.005252536
76	0xbdc57b27	-0.0964263
77	0xbbd0f8fe	-0.0063773384
78	0x3d9ef341	0.07761241
79	0xbdbb1fc2	-0.09136917
80	0xbb9db944	-0.004813345
81	0x3d824043	0.06359913
82	0x3c803a59	0.015652822
83	0x3d024ec4	0.031813398
84	0x3c9da7b1	0.019245
85	0x3cd5fab9	0.02612053
86	0xbc31ac39	-0.010844284
87	0xbd1ac60a	-0.03778652
88	0xbd95ca02	-0.073139206
89	0x3e034b77	0.12821756
90	0x3ba332b8	0.0049804114
91	0x3d593516	0.053029142
92	0x3cf7e93c	0.030262582
93	0xbd4531b1	-0.048143093
94	0xbd9fe0e4	-0.07806566
95	0xbbf36b8a	-0.007428591
96	0x3be2e87a	0.006924686
97	0xbc97e13e	-0.018540021
98	0xbd18a9e8	-0.03727141
99	0xbc98b53f	-0.018641112
100	0x3da796ff	0.08183097
101	0x3d99638c	0.0748969
102	0xbd17fe03	-0.03710748
103	0xbe572f24	-0.21014076
104	0xbe0b5785	-0.13607605
105	0x3c9a3fc5	0.018829236
106	0x3dcc5b15	0.0997831
107	0xbd7c49b0	-0.06159371
108	0xbc4536cd	-0.012036991
109	0x3d9aac44	0.07552388
110	0x3dc99e68	0.09844667
111	0xbc674be1	-0.014117212
112	0xbe79dc3c	-0.24400419
113	0xbe92709f	-0.28601548
114	0x3df855f6	0.12125771
115	0x3e43c869	0.19119419
116	0x3d1905de	0.03735911
117	0xbdef932f	-0.11697995
118	0x3dc5fcb7	0.09667342
119	0x3e347989	0.17624487
120	0xbd7907db	-0.060798507
121	0xbe4a6799	-0.19766082
122	0xbdffb6f9	-0.12486071
123	0x3e8a77a9	0.27044418
124	0x3e479e1a	0.19493905
125	0xbceb1c60	-0.028700054
126	0xbd78ea19	-0.060770128
127	0x3c878b00	0.016545773
128	0x3e54454a	0.20729557
129	0xbcc6df1a	-0.024276305
130	0xbdca1109	-0.098665304
131	0xbaee3f7d	-0.001817688
132	0x3e4792fb	0.19489662
133	0xbb51ba56	-0.0032001934
134	0xbe01e3a6	-0.12684497
135	0xbd971cb5	-0.07378522
136	0x3c9ec736	0.0193821
137	0x3c96b578	0.018397078
138	0xbb138d1a	-0.0022514523
139	0xbd27bd4b	-0.04095201
140	0x3c66208e	0.014045848
141	0x3baef93c	0.0053397696
142	0xbce82bfd	-0.028341288
143	0xbae0c4b5	-0.0017148467
144	0x3cde2351	0.02711645
145	0xbc813cfc	-0.01577615
146	0xbd8c2794	-0.068434864
147	0x3d07b0d2	0.033127613
148	0x3d23a131	0.039948646
149	0xbda1ce4e	-0.079006776
150	0xbd38514c	-0.044999406
151	0xbd17893d	-0.036996115
152	0x38da9fa5	0.00010424786
153	0x3ce85548	0.028360978
154	0x3c97837b	0.018495312
155	0xbd4e85cc	-0.050420567
156	0x3d3f3f60	0.0466913
157	0x3d332d0c	0.043744132
158	0xbd7ef0e7	-0.06224146
159	0x3dd9e811	0.10639966
160	0xbd6565c8	-0.05600527
161	0xbc681784	-0.014165763
162	0x3c8fd640	0.017558217
163	0xbcb26ea3	-0.021781271
164	0xbd0ea999	-0.03482971
165	0xbc9b3803	-0.018947607
166	0x3ba58134	0.0050508026
167	0xbb479e98	-0.003045952
168	0xbd427d98	-0.047483057
169	0xbd7f2704	-0.062293068
170	0x3dd9cc15	0.10634629
171	0xbd0faa2c	-0.035074398
172	0x3d37fcf3	0.044918966
173	0xbcd4a903	-0.025959497
174	0x3d521f8b	0.051299613
175	0x3e01e8dc	0.12686485
176	0x3de37554	0.11106363
177	0x3ccba89f	0.024860678
178	0xbd9b273a	-0.07575841
179	0xbd187ee0	-0.037230372
180	0xbdae2490	-0.085030675
181	0xbd3a0857	-0.04541811
182	0xbba2e2e0	-0.0049708933
183	0x3d3c0d5c	0.045911178
184	0x3c07e351	0.008293943
185	0xbd8b8918	-0.06813258
186	0x3c1fddc4	0.009757463
187	0xbbb94a06	-0.0056545762
188	0xbd805530	-0.06266248
189	0xbe156320	-0.14588594
190	0x3d761e7d	0.06008767
191	0x3df09283	0.11746695
192	0x3cb9a08e	0.022659566
193	0xbc51e412	-0.012810724
194	0xbe12ac16	-0.14323458
195	0x3dce0712	0.10059942
196	0x3ddb3f51	0.10705436
197	0xbd28f8c8	-0.04125288
198	0xbe0553a3	-0.13020186
199	0x3d3fa4c4	0.046787992
200	0x3db49b7a	0.08818717
201	0x3d2ea808	0.042640716
202	0xbde6e35a	-0.112738326
203	0xb7c9e2b1	-2.4066629e-05
204	0x3e2cc131	0.16870572
205	0x3d8b476b	0.06800731
206	0xbe136b98	-0.14396513
207	0xbdaf648f	-0.08564102
208	0x3d8f24c1	0.06989432
209	0x3dc52cf0	0.09627712
210	0x3cf9b7cb	0.030483147
211	0xbdb8c9d8	-0.09022874
212	0xbd2c4d89	-0.04206613
213	0x3dada08a	0.08477886
214	0xbd7cedeb	-0.061750334
215	0xbd87c793	-0.06629863
216	0x3d928335	0.07153932
217	0xbcbfc7d5	-0.023410717
218	0x3d9105de	0.07081197
219	0xbde7b0bd	-0.11313007
220	0xbd7198cf	-0.05898362
221	0xbd9b5a00	-0.075855255
222	0xbc31ef64	-0.010860298
223	0xbd7eafe7	-0.062179472
224	0xbd24fbd6	-0.040279232
225	0x3d05cc0a	0.03266529
226	0xbc9ac313	-0.018891847
227	0xbd600dce	-0.054700665
228	0xbc855f23	-0.016280716
229	0xbb268e9b	-0.002541459
230	0x3b25310f	0.0025206243
231	0xbd5215d7	-0.05129036
232	0xbcd9a3fd	-0.026567454
233	0x3e13a4bc	0.1441831
234	0x3d943893	0.07237353
235	0x3d5aece7	0.053448584
236	0xbcb264ee	-0.021776643
237	0x3bd7541c	0.006571306
238	0x3c609a23	0.013708624
239	0xbcf9c76d	-0.030490601
240	0x3dde1207	0.10843282
241	0x3dc2ce0d	0.09511957
242	0x3bc3b0f8	0.005972024
243	0xbe12348f	-0.14277862
244	0xbe0293c7	-0.12751685
245	0xbd902541	-0.070383556
246	0xbe3c3c62	-0.18382409
247	0xbdfd1ddc	-0.12359211
248	0xbdb81203	-0.089878105
249	0xbe302962	-0.17203286
250	0xbd9f35e4	-0.07773951
251	0x3bba0d6a	0.0056778686
252	0xbdcff431	-0.10153998
253	0x3cd1e152	0.025620136
254	0x3c6e13b9	0.014531069
255	0x3de87876	0.11351101

conv1.conv2d.bias f4 [8]
0	0xbd8312ca	-0.06400068
1	0xbdb52dd5	-0.088466324
2	0xbd9993f3	-0.07498922
3	0x3c508098	0.012725972
4	0xbd4cafba	-0.049972273
5	0xbdcf4096	-0.10119741
6	0x3da3a091	0.0798961
7	0x3d2bce14	0.04194458

in1.weight f4 [8]
0	0x3f248118	0.6425948
1	0x3ee70fa5	0.45129123
2	0x3edd39a2	0.43208033
3	0x3f21c185	0.6318591
4	0x3f427563	0.7596037
5	0x3f100876	0.5626291
6	0x3f36484f	0.71204084
7	0x3f421801	0.7581788

in1.bias f4 [8]
0	0x3f0c1e7d	0.5473402
1	0x3fbddef3	1.4833664
2	0x3fbdee3e	1.4838331
3	0x3f5b2111	0.8559733
4	0x3ecb70c2	0.39734465
5	0x3f850014	1.0390649
6	0x3f44fabb	0.76945084
7	0x3f7428e6	0.95374906

conv2.conv2d.weight f4 [16, 8, 3, 3]
0	0x3d9dd601	0.07706834
1	0xbcf73319	-0.030175732
2	0xbe0df519	-0.13863029
3	0xbe1e1494	-0.15437537
4	0xbdf41ace	-0.11919175
5	0xbde08dfb	-0.109645806
6	0x3d03bc5a	0.032162048
7	0x3e00aa94	0.1256507
8	0x3e4955a6	0.19661579
9	0x3c948b45	0.018132815
10	0xbd1f1055	-0.038833935
11	0x3d2a7018	0.041610807
12	0x3dc323cb	0.09528311
13	0xbc65a518	-0.014016412
14	0x3d7179a3	0.058953892
15	0x3afd0d7f	0.001930639
16	0xbd9845c5	-0.074351825
17	0xbcaa31d2	-0.02077571
18	0x3d7c9992	0.061669894
19	0x3d2869f7	0.04111668
20	0xbdeb766f	-0.11497199
21	0xbdfbb56c	-0.12290463
22	0xbe0003bd	-0.12501426
23	0xbd4bd839	-0.049766753
24	0xbd302c0d	-0.04301076
25	0x3e83024f	0.255877
26	0x3e001acd	0.12510224
27	0x3db5d626	0.08878736
28	0x3d2c68c8	0.042092115
29	0x3d8b3ef7	0.06799119
30	0xbd494ad7	-0.04914364
31	0x3d414c12	0.047191687
32	0x3ca105e0	0.019656122
33	0xbd478964	-0.04871501
34	0xbc8029d3	-0.015644943
35	0x3d029177	0.031877007
36	0xbe2374a5	-0.15962465
37	0xbdaf4daa	-0.08559735
38	0xbd645f10	-0.05575472
39	0x3e814958	0.2525127
40	0x3e134071	0.14380051
41	0xbdd07600	-0.10178757
42	0x3d7a16b8	0.061056823
43	0x3d2c1a53	0.042017292
44	0xbd6a0f99	-0.05714378
45	0x3d48c727	0.04901805
46	0xbb9cf898	-0.004790377
47	0x3e1ffe60	0.1562438
48	0x3bf8c713	0.007592091
49	0x3d9661c1	0.07342864
50	0xbc6a6d92	-0.01430835
51	0x3d883ff3	0.06652822
52	0xbe4b8f3c	-0.19878858
53	0xbe357ec0	-0.17724133
54	0x3cee48e9	0.0290875
55	0x3e614338	0.21998298
56	0x3e9693e2	0.294097
57	0x3ec8f8a6	0.39252204
58	0x3f13cce0	0.5773449
59	0x3f011441	0.5042153
60	0x3d57c016	0.05267342
61	0x3e35da31	0.17759015
62	0xbd61a866	-0.055092238
63	0xbcbb307f	-0.022850273
64	0x3da2303e	0.07919358
65	0x3d89a775	0.06721393
66	0xbdf1cb2b	-0.11806329
67	0xbd4abc20	-0.049495816
68	0x3d95d559	0.073160835
69	0xbda8c1c7	-0.08240085
70	0xbe46a382	-0.19398311
71	0xbe2011cd	-0.1563179
72	0x3d044014	0.032287672
73	0xbda94d81	-0.08266736
74	0xbd2d10cf	-0.042252358
75	0xbc96d1d7	-0.018410606
76	0xbdc93675	-0.0982484
77	0xbc54d962	-0.012991281
78	0x3d9d1953	0.07670846
79	0xbc514671	-0.012773142
80	0x3df95453	0.12174287
81	0x3ccf372b	0.02529486
82	0x3ddb42bd	0.10706089
83	0x3da1ba03	0.07896807
84	0xbc1436bf	-0.009046256
85	0x3d5a3f8e	0.053283267
86	0x3e18c6fa	0.14919654
87	0x3cb800ec	0.022461377
88	0x3dbac9a9	0.09120495
89	0xbc761ce0	-0.015021533
90	0xbddae4d1	-0.106881745
91	0xbd617bbb	-0.05504964
92	0xbbd21652	-0.006411352
93	0xbd1d58d1	-0.03841478
94	0xbdee5be5	-0.11638621
95	0x3cd7c73b	0.026340118
96	0xbd2763ee	-0.040866785
97	0xbda712f4	-0.08157912
98	0x3e198669	0.1499268
99	0x3d2d6e88	0.04234174
100	0xbe31407f	-0.1730976
101	0xbeb6046c	-0.3555025
102	0x3c9c72e0	0.019097745
103	0xbe517432	-0.20454481
104	0xbe748e3f	-0.23882388
105	0x3df88fdf	0.12136816
106	0xbccacd7f	-0.024756191
107	0xbe0ebbc4	-0.13938814
108	0x3dd7666b	0.105175816
109	0x3d6751c7	0.056474473
110	0xbdb83d52	-0.08996071
111	0x3d7bfb9b	0.061519247
112	0xbe3e4eb1	-0.18584706
113	0xbe23a394	-0.15980369
114	0xbdd8bea1	-0.105832346
115	0xbd7564ec	-0.0599107
116	0xbe38699a	-0.18009034
117	0x3d6eb068	0.058273703
118	0x3ccfe6d1	0.025378617
119	0xbdb05206	-0.08609395
120	0xbd50265e	-0.05081784
121	0xbc6947e5	-0.014238332
122	0xbcf1e757	-0.029529257
123	0x3dac470d	0.08411989
124	0xbd3fd262	-0.046831496
125	0xbd839be3	-0.064262174
126	0x3d08d5d5	0.03340705
127	0x3c8266b8	0.01591812
128	0xbce43cb9	-0.027860986
129	0x3c81765d	0.01580351
130	0xbc705fd7	-0.0146712875
131	0xbd36e28a	-0.04464964
132	0xbe4bbed3	-0.19897012
133	0xbe05291e	-0.13003966
134	0xbde89b70	-0.11357772
135	0xbe77f9b1	-0.24216343
136	0xbd63e9fb	-0.055643063
137	0xbe66c282	-0.22535136
138	0xbe7afb32	-0.24509886
139	0xbe388d79	-0.18022718
140	0xbe12038f	-0.1425917
141	0xbe19240d	-0.14955159
142	0xbe6f18bf	-0.23349284
143	0xbe994db4	-0.29942095
144	0x3d0eb20d	0.03483777
145	0x3dcec6de	0.10096525
146	0x3d689850	0.05678588
147	0xbd6bab98	-0.05753669
148	0xbd175a03	-0.036951076
149	0xbd589eb8	-0.05288574
150	0x3ddb6a7c	0.1071367
151	0x3da114d5	0.078653015
152	0xbe6a25bd	-0.22865959
153	0xbd86f44a	-0.06589563
154	0xbcb21bb1	-0.02174172
155	0x3d8077e8	0.0627287
156	0xbc915fb2	-0.017745826
157	0x3defccf5	0.11709014
158	0x3d621d4c	0.05520372
159	0x3dbbdcd0	0.09172976
160	0x3d82c0cd	0.0638443
161	0xbe440417	-0.19142185
162	0xbdbb9ca8	-0.09160739
163	0xbd6e60bd	-0.058197726
164	0x3d5d8cd8	0.054089397
165	0x3d27b120	0.040940404
166	0xbe0a52b5	-0.13508113
167	0x3d302c3b	0.04301093
168	0xbb3f942e	-0.002923261
169	0x3dc24e4a	0.09487589
170	0xbd2d8dc5	-0.04237153
171	0x3cdf41bb	0.027253022
172	0x3d6c62fc	0.057711586
173	0x3d82d48b	0.063881956
174	0x3d9b8e8c	0.07595548
175	0xbccf7bfe	-0.025327679
176	0x3d628909	0.05530647
177	0xbd1f16cc	-0.0388401
178	0xbdd0233c	-0.101629704
179	0xbd2986cf	-0.04138833
180	0xbc102f0d	-0.00880028
181	0xbe5f9073	-0.21832447
182	0xbdbc0222	-0.09180094
183	0xbc70a02f	-0.014686628
184	0xbf58599c	-0.84511733
185	0xbf0f9260	-0.56082726
186	0xbdd198b9	-0.10234208
187	0xbf0e4986	-0.5558094
188	0xbf1329c0	-0.5748558
189	0x3e0f9c7f	0.14024542
190	0xbccdb52d	-0.025110805
191	0xbdb4abef	-0.08821856
192	0x3d965bc9	0.073417254
193	0x3bb9ec89	0.005673949
194	0xbe2ac3fe	-0.16676328
195	0xbe101bf8	-0.14073169
196	0xbc8d2c5d	-0.017233068
197	0xbc02892f	-0.007967277
198	0x3e06d082	0.13165477
199	0x3db382b3	0.08765163
200	0x3d93861b	0.07203313
201	0x3b619cc1	0.0034425708
202	0xbe2cc123	-0.16870551
203	0xbd086d44	-0.03330733
204	0xbd790d16	-0.060803495
205	0x3bb4fa07	0.0055229696
206	0x3c7f6d24	0.015589986
207	0xbdac9a62	-0.08427884
208	0x3ca34469	0.019930081
209	0xbd0a77a9	-0.033805523
210	0xbd0bc421	-0.03412259
211	0xbd79ba93	-0.060968947
212	0xbca1711c	-0.019707255
213	0xbe01a130	-0.12659144
214	0x3d9e5344	0.077307254
215	0x3ddf0bf8	0.10890955
216	0xbe088666	-0.13332519
217	0x3e22e513	0.15907697
218	0x3ceb7f65	0.02874727
219	0xbe0a15cc	-0.13484877
220	0x3cd2809b	0.02569609
221	0xbd571942	-0.052514322
222	0x3ce36f19	0.027762936
223	0x3e092dc1	0.1339636
224	0xbc7040c8	-0.014663883
225	0x3ded86c2	0.11597969
226	0x3d9cebf0	0.07662189
227	0xbe0fe457	-0.14051948
228	0x3e213a8d	0.15744992
229	0x3e358838	0.17727745
230	0xbde0dcae	-0.10979591
231	0x3be68f17	0.0070361006
232	0xbd35909f	-0.044327375
233	0xbe4d81f4	-0.20069104
234	0x3dac0fb3	0.08401432
235	0xbe0bb41f	-0.1364293
236	0xbe35b080	-0.1774311
237	0x3bbe95f0	0.005816214
238	0xba96f167	-0.0011516035
239	0x3cd9bfba	0.02658068
240	0x3e083ebf	0.13305186
241	0x3c1175be	0.00887817
242	0x3dca6f88	0.09884554
243	0x3e70a4e8	0.23500407
244	0x3cefdab0	0.029279083
245	0xbe9ab0ce	-0.30213016
246	0x3e90531a	0.281884
247	0x3c8f5b75	0.017499665
248	0xbe243797	-0.16036831
249	0x3d4aca6d	0.049509455
250	0xbdd53384	-0.104102165
251	0xbdcaaa85	-0.09895805
252	0x3e944bfa	0.28964216
253	0x3e70bb04	0.23508841
254	0x3e0cc49f	0.1374688
255	0x3e7844bd	0.24244972

conv2.conv2d.bias f4 [16]
0	0xbe439e13	-0.1910327
1	0x3e66409d	0.22485586
2	0xbe1cdd21	-0.15318729
3	0x3e4887ae	0.19583008
4	0xbe2c0842	-0.16800025
5	0xbe04263c	-0.1290521
6	0x3e16a0dc	0.147098
7	0x3deb0ef7	0.11477464
8	0x3e0f31a4	0.1398378
9	0x3a8dc5e3	0.0010816421
10	0x3e34c235	0.17652209
11	0xbc4a5a41	-0.01235062
12	0xbdb58bcc	-0.08864555
13	0xbe4b7238	-0.1986779
14	0xbdca974a	-0.09892137
15	0xbc9c5e2b	-0.019087872

in2.weight f4 [16]
0	0x3f3f891f	0.74818605
1	0x3f1c2584	0.60994744
2	0x3f68eddf	0.9098796
3	0x3f15b9ef	0.5848684
4	0x3f3e8a64	0.7442992
5	0x3f0c0b61	0.5470486
6	0x3f0c5159	0.54811627
7	0x3f202a77	0.62564796
8	0x3f564e86	0.8371357
9	0x3f0a71d4	0.5407994
10	0x3f321444	0.6956217
11	0x3f3f0aa7	0.7462563
12	0x3f3a3814	0.7274182
13	0x3f0988ae	0.5372418
14	0x3f18ec06	0.59735143
15	0x3f310637	0.6915011

in2.bias f4 [16]
0	0x3eafc0dd	0.3432683
1	0x3db8388b	0.0899516
2	0x3df39629	0.11893875
3	0x3e484379	0.19556989
4	0x3e66e029	0.22546448
5	0x3ec08c91	0.37607244
6	0x3dcb01ed	0.09912477
7	0x3e442888	0.19156086
8	0x3e059b02	0.13047412
9	0xbe8d0775	-0.27544752
10	0x3e33961a	0.17537728
11	0x3ede0400	0.43362427
12	0xbccd8ae8	-0.02509065
13	0x3da1f980	0.079089165
14	0xbe2b59ba	-0.16733447
15	0x3e20159a	0.1563324

conv3.conv2d.weight f4 [32, 16, 3, 3]
0	0xbda5f201	-0.08102799
1	0xbc7861a0	-0.015159994
2	0x3da336fc	0.07969472
3	0x39ab325f	0.0003265319
4	0xb88e0bd2	-6.773289e-05
5	0x3d976f68	0.07394296
6	0x3dbcbfa9	0.09216244
7	0xbd0ba20d	-0.03409009
8	0xbdd4e1bd	-0.10394619
9	0xbe633038	-0.22186363
10	0xbe2b961c	-0.16756481
11	0xbe2346f1	-0.15945031
12	0xbd51d5e8	-0.051229388
13	0xbcadfd77	-0.021239026
14	0x3c6e3258	0.01453837
15	0x3a4fa194	0.00079205004
16	0xbdc16c20	-0.09444451
17	0xbd3633fe	-0.044483177
18	0x3e053993	0.13010244
19	0x3e006bad	0.12541075
20	0x3c9a2263	0.018815225
21	0x3e175561	0.14778663
22	0x3e8d042c	0.27542245
23	0x3e32d347	0.17463408
24	0x3d905741	0.07047892
25	0xbb45f43f	-0.0030205396
26	0x3cffef0d	0.031241918
27	0xbdb3c3ff	-0.08777618
28	0xbd79f917	-0.061028566
29	0x3cdc2674	0.026873805
30	0xbd8f528a	-0.06998165
31	0x3d2f7224	0.042833462
32	0xbd791289	-0.060808692
33	0x3d7baec4	0.061445966
34	0x3e1ea494	0.15492469
35	0xbc0c4d2b	-0.00856332
36	0xbc84369d	-0.016139323
37	0xbd82a6a3	-0.0637944
38	0xbde873c4	-0.113502055
39	0xbc7b5a2e	-0.015341325
40	0xbdb64c0f	-0.08901226
41	0xbcb22ffa	-0.021751393
42	0xbd20ddf8	-0.039274186
43	0xbaa030c7	-0.0012221568
44	0x3d957192	0.072970524
45	0xbe4b8dec	-0.19878358
46	0xbe681c76	-0.22667107
47	0xbe29589d	-0.1653771
48	0xbdc0b5ea	-0.09409697
49	0xbeadc2d0	-0.33937693
50	0xbda5ae63	-0.08089902
51	0xbe049dba	-0.12950793
52	0xbdf13a99	-0.11778755
53	0xbe250519	-0.16115226
54	0xbe00309a	-0.1251854
55	0x3e0ed40a	0.13948074
56	0x3df20b0c	0.11818513
57	0x3bc8863c	0.0061195176
58	0x3dfcff34	0.12353364
59	0x3e336a11	0.1752093
60	0x3cfec494	0.031099595
61	0x3d550341	0.052005056
62	0x3d6b0a6a	0.05738298
63	0xbd20de94	-0.039274767
64	0xbd8cd41a	-0.06876393
65	0xbd73511f	-0.059403535
66	0xbe9d73c4	-0.30752385
67	0xbdf89776	-0.12138264
68	0xbcb450a5	-0.02201111
69	0xbda97434	-0.08274117
70	0xbdebc42d	-0.11512027
71	0xbe3a580b	-0.18197648
72	0x3c9f36e1	0.019435348
73	0x3d5389f4	0.051645234
74	0xbd43a398	-0.047763437
75	0x3d5a7782	0.053336628
76	0x3e2a51a8	0.16632712
77	0x3d03ec44	0.032207742
78	0xbd11686d	-0.03549998
79	0x3e200713	0.15627699
80	0x3b751eaf	0.0037402322
81	0x3d0f5ead	0.0350024
82	0x3db520d4	0.08844152
83	0xbb5bb561	-0.0033524858
84	0x3d821aa4	0.063527375
85	0x3e4ee7d7	0.20205627
86	0x3e81ed30	0.25376272
87	0x3e431fc2	0.19055083
88	0x3e69ab39	0.22819223
89	0x3e88a833	0.26690826
90	0xbd8057ae	-0.062667236
91	0x3d0cff9e	0.034423463
92	0xbd4a1980	-0.049340725
93	0xbc315b7c	-0.010825034
94	0x3e02d067	0.12774812
95	0xbcc06577	-0.023485882
96	0xbcda5331	-0.026650997
97	0x3e176ad2	0.14786842
98	0xbb2497aa	-0.0025114813
99	0x3e058ffe	0.1304321
100	0xbcf21cc2	-0.029554728
101	0xbe43a663	-0.1910644
102	0x3e3e7260	0.18598318
103	0x3d6f76c6	0.05846288
104	0xbd832462	-0.06403424
105	0x3d2f420f	0.042787608
106	0xbcba7255	-0.022759596
107	0x3dbaff95	0.0913078
108	0x3da8fa30	0.082508445
109	0xbcb3f29e	-0.021966275
110	0xbe35e1b2	-0.17761877
111	0xbd742efb	-0.059615117
112	0xbe09a1e1	-0.13440658
113	0xbe25389f	-0.1613488
114	0xbe6f9702	-0.23397449
115	0xbe655c7a	-0.22398558
116	0xbe34948e	-0.17634794
117	0x3d9f3e66	0.077755734
118	0x3e04a10b	0.12952058
119	0x3bd25855	0.0064192214
120	0x3e45761e	0.1928334
121	0x3e8e4b7d	0.27791968
122	0x3e346205	0.17615516
123	0x3e0ee09d	0.1395287
124	0x3e622152	0.22083023
125	0x3cd7de33	0.02635107
126	0xbcba9691	-0.022776874
127	0xbc68cde7	-0.014209247
128	0x3d6eb560	0.05827844
129	0xbc981165	-0.018562982
130	0x3e088de0	0.13335371
131	0x3cf0cc07	0.029394163
132	0x3e162e0d	0.14666004
133	0x3d4901af	0.04907387
134	0x3d9ed8e7	0.077562146
135	0x3d18da7a	0.03731773
136	0x3e23c22f	0.15992044
137	0x3e22c20d	0.15894337
138	0x3decb9e2	0.11558892
139	0x3db451c2	0.088046566
140	0x3e4cff39	0.20019235
141	0x3e2b84e4	0.16749913
142	0x3dc81320	0.09769273
143	0x3cd7529b	0.026284507
144	0x3daf4ec6	0.08559947
145	0xbe17946c	-0.14802712
146	0xbeadc7c1	-0.33941463
147	0xbdaff7d5	-0.08592192
148	0xbf1e2095	-0.61768466
149	0xbf09c9f8	-0.53823805
150	0xbe37baa7	-0.17942296
151	0xbdde320e	-0.10849391
152	0x3d846944	0.0646539
153	0x3d5a5577	0.053304162
154	0x3d4b8e58	0.049696296
155	0x3db8181d	0.08988974
156	0x3e258dfa	0.16167441
157	0x3dc24b18	0.09486979
158	0x3d8801f8	0.066410005
159	0x3d58cd17	0.052929964
160	0xbbf14883	-0.0073633804
161	0x3e22259c	0.1583466
162	0xbd9b6cdf	-0.07589125
163	0x3ccf6a21	0.02531916
164	0xbbc5233b	-0.0060161627
165	0x3d47d108	0.048783332
166	0x3d2e0d2f	0.04249304
167	0xbe00f945	-0.12595089
168	0x3d8e1bd3	0.06938901
169	0x3de1a723	0.11018207
170	0x3d8d8032	0.06909217
171	0x3d64e6b8	0.055884093
172	0x3e01c7c1	0.12673856
173	0xbdf3e615	-0.11909119
174	0x3cb17371	0.021661492
175	0xbe2cfb8d	-0.16892834
176	0xbf04d091	-0.5188075
177	0xb9bfb572	-0.00036565546
178	0xbe5f9e47	-0.21837722
179	0xbd897e8c	-0.0671359
180	0xbe03431d	-0.1281857
181	0xbdb6bf6f	-0.08923232
182	0xbd22a5d6	-0.039708935
183	0xbe7a1d18	-0.24425161
184	0xbe71f182	-0.23627284
185	0xbe99855b	-0.29984555
186	0xbdb0cd68	-0.08632928
187	0xbe7dbaf2	-0.24778345
188	0xbdc9c281	-0.09851552
189	0x3de754d2	0.11295475
190	0x3dc04018	0.09387225
191	0x3d06c576	0.032903157
192	0xbd6eba88	-0.05828336
193	0x3c5e7143	0.013576808
194	0x3d49e481	0.049290184
195	0xbcfdb649	-0.03097071
196	0x3d96057f	0.07325267
197	0xbd19a2b8	-0.037508696
198	0x3df3ae34	0.11898461
199	0x3d29c2d5	0.041445572
200	0xbc8521e7	-0.016251517
201	0x3c401c44	0.011725489
202	0x3cc92945	0.024555812
203	0x3c32589c	0.010885384
204	0xbd850097	-0.06494253
205	0xbd0da7ee	-0.03458398
206	0x3ad28844	0.0016062339
207	0x3e01f252	0.12690094
208	0x3cc51233	0.02405653
209	0xbd771cd8	-0.060330242
210	0x3daae4e1	0.083444364
211	0x3ccc1e61	0.02491683
212	0xbdd78d5c	-0.10525009
213	0x3d6d112b	0.0578777
214	0x3d74e3c3	0.059787523
215	0xbd41d803	-0.047325145
216	0xbcaad205	-0.020852098
217	0x3db71a60	0.089405775
218	0xbd02de56	-0.031950317
219	0xbc30314f	-0.010753944
220	0x3dd158ce	0.10222016
221	0x3d3d1ed4	0.046171978
222	0x3cf8f1a2	0.030388657
223	0x3e108350	0.14112592
224	0xbc457a0b	-0.012053023
225	0x3c34788b	0.011015068
226	0xbdab213a	-0.08355947
227	0x3c01ae29	0.007915058
228	0x3cd4f0bc	0.025993697
229	0xbe025455	-0.12727483
230	0xbe2d6e7f	-0.16936682
231	0x3d552a1b	0.052042108
232	0xbdea5484	-0.11441901
233	0xbdf3e54e	-0.11908971
234	0x3b44aa8a	0.0030008876
235	0xbcb49180	-0.022042036
236	0xbe0c3909	-0.13693632
237	0x3d92572d	0.07145534
238	0x3cad9e7d	0.021193737
239	0xbd4da365	-0.050204653
240	0x3e08aba3	0.13346724
241	0xbc5b78fa	-0.013395542
242	0x3d8ae2e4	0.06781557
243	0xbdd77b7e	-0.10521601
244	0x3c88634d	0.016648913
245	0x3ca9ef28	0.020743921
246	0xbcd10b20	-0.025518
247	0xbe4fc55e	-0.20290133
248	0xbe00487d	-0.12527652
249	0xbbe46cc8	-0.0069709755
250	0xbca1c6c2	-0.019748095
251	0x3bbbb7ff	0.005728721
252	0xbd4c5c7f	-0.0498929
253	0xbd72de9f	-0.05929434
254	0x3b6155bc	0.0034383377
255	0xbd14b74d	-0.03630762

conv3.conv2d.bias f4 [32]
0	0x3d17a55d	0.037022937
1	0xbdcaa5f6	-0.09894936
2	0x3e2cdaf9	0.16880406
3	0xbdd3d39b	-0.10343095
4	0xbd447c4b	-0.047970098
5	0x3d993dc1	0.07482482
6	0xbdf00395	-0.11719433
7	0x3de49397	0.11160963
8	0x3afab8aa	0.001912852
9	0xbc102d61	-0.008799882
10	0xbd9cc2ae	-0.0765432
11	0x3e8d91c8	0.27650285
12	0x3cbc6395	0.022996703
13	0x3dcf33c6	0.10117297
14	0x3e48d5a0	0.19612741
15	0xbb409ab9	-0.0029389097
16	0x3b7925b9	0.003801687
17	0x3d81a02a	0.06329377
18	0xbdb24f5f	-0.08706545
19	0xbd6e9401	-0.058246616
20	0x3cc06d9a	0.023489762
21	0xbe5f5cde	-0.2181277
22	0xbe130210	-0.14356256
23	0xbd0bf141	-0.034165625
24	0xbdcc5897	-0.09977835
25	0x3c189426	0.009312665
26	0xbdecdf2e	-0.11566006
27	0x3ce6a2bd	0.028153772
28	0xbd9d4153	-0.07678475
29	0xbe25c28a	-0.16187492
30	0xbc620879	-0.013795965
31	0xbc708642	-0.014680447

in3.weight f4 [32]
0	0x3ed36f13	0.4129568
1	0x3f1c34f4	0.610183
2	0x3f16a6d5	0.58848315
3	0x3ef711a2	0.4825564
4	0x3f1f06aa	0.62119544
5	0x3eea0274	0.45704997
6	0x3ed88a3a	0.42292958
7	0x3f092f89	0.5358816
8	0x3f050040	0.51953506
9	0x3f31ea30	0.69497967
10	0x3f21bda8	0.6318002
11	0x3ee2d6cd	0.44304505
12	0x3f15dac9	0.58536965
13	0x3f0a9a0a	0.54141295
14	0x3f1174fc	0.5681913
15	0x3ec6ff51	0.38866666
16	0x3f0ce7eb	0.5504138
17	0x3f152c82	0.5827104
18	0x3ec99e8c	0.39378774
19	0x3f302645	0.68808395
20	0x3f1896ba	0.5960499
21	0x3ed79700	0.4210739
22	0x3f25c7b4	0.6475785
23	0x3f30897f	0.689598
24	0x3ef44e39	0.4771593
25	0x3f0436a2	0.51645863
26	0x3edd77be	0.4325542
27	0x3f137302	0.57597363
28	0x3efb0325	0.49025837
29	0x3f1c52e6	0.6106399
30	0x3ed9f3ac	0.4256872
31	0x3ecfc898	0.40582728

in3.bias f4 [32]
0	0xbe39edbb	-0.18157093
1	0x3df4501d	0.11929343
2	0x3e97a940	0.29621315
3	0x3e296036	0.16540608
4	0x3e978dbf	0.2960033
5	0xbdf2e061	-0.11859203
6	0x3c7502a8	0.014954247
7	0xbdf51fe7	-0.119689755
8	0x3e65586d	0.22397013
9	0xbbb269d0	-0.0054447427
10	0x3d8d130f	0.06888401
11	0xbde2262c	-0.11042437
12	0xbe12a281	-0.14319803
13	0x3da9822a	0.0827678
14	0x3e0b8191	0.13623644
15	0x3d8487ac	0.0647119
16	0x3c5e893c	0.013582524
17	0x3d441640	0.04787278
18	0x3cdbfde0	0.026854455
19	0xbd07d254	-0.03315957
20	0xbdc8277b	-0.09773155
21	0xbc91b165	-0.017784784
22	0x3d4d6467	0.05014458
23	0xbc8a7f5d	-0.016906435
24	0xbe1de28d	-0.15418454
25	0xba6a78c2	-0.0008944386
26	0xbd67086c	-0.056404516
27	0xbd8d3bd8	-0.0689618
28	0x3d5bbc4d	0.053646374
29	0x3dfda6d4	0.123853356
30	0xbb33908f	-0.0027399396
31	0x3dc638c4	0.09678796

resnets.0.conv1.conv2d.weight f4 [32, 32, 3, 3]
0	0xbda8ffa4	-0.082518846
1	0x3d21a546	0.039464258
2	0xbdba6b15	-0.091024555
3	0x3da93ff2	0.0826415
4	0x3da2cdb5	0.07949392
5	0x3d5a72b9	0.053332064
6	0xbb14ba05	-0.0022693884
7	0x3d042d62	0.032269843
8	0x3d8f15e8	0.069866
9	0xbc245e26	-0.010032212
10	0x3a10d84e	0.0005525396
11	0x3b527385	0.0032112312
12	0x3a5f233d	0.0008512026
13	0xbd0ca84a	-0.03434018
14	0xbe068a37	-0.13138662
15	0xbd346361	-0.044040088
16	0xbe2bfd18	-0.16795766
17	0xbe1358c1	-0.14389326
18	0xbe1261e5	-0.14295156
19	0xbdf39442	-0.11893512
20	0x3ca73e1f	0.020415364
21	0x3d8be8e5	0.068315305
22	0xbc2b19de	-0.010443179
23	0xbcb29f61	-0.021804513
24	0x3de44d9a	0.11147614
25	0x3c740d33	0.014895725
26	0x3bc73ce3	0.0060802563
27	0x3ce0fc14	0.02746395
28	0xbd2147d9	-0.03937516
29	0xbd8d8384	-0.0690985
30	0x3d9b071f	0.075697176
31	0xbcb2e3bb	-0.021837106
32	0x3e0f82b1	0.14014699
33	0x3d5276af	0.051382717
34	0x3ddcfe36	0.107906744
35	0xbdb838e5	-0.08995227
36	0xbd84388b	-0.06456097
37	0xbd8765c1	-0.06611205
38	0xbc08fe55	-0.008361419
39	0xbe089b8a	-0.13340583
40	0xbc24e013	-0.010063189
41	0xbd686404	-0.056736007
42	0xbd9c8dec	-0.07644257
43	0x3d12f551	0.035878483
44	0x3e170ecd	0.1475174
45	0x3cfa7dee	0.030577626
46	0xbdb3cb23	-0.0877898
47	0xbd2990cb	-0.04139785
48	0xbc5c865d	-0.013459769
49	0xbd39f8c6	-0.045403264
50	0xbd1e3668	-0.038626105
51	0xbcd19b88	-0.025586858
52	0x3c600af1	0.013674484
53	0xbe00865d	-0.12551256
54	0xbe5602d5	-0.20899518
55	0x3d49d09f	0.049271222
56	0x3e0b06f9	0.13576879
57	0x3d8e1697	0.069379024
58	0x3de150ce	0.110017404
59	0x3e1ce1a5	0.15320452
60	0xbd1d21b6	-0.038362227
61	0xbcbe1236	-0.023202043
62	0x3ddc3215	0.1075174
63	0x3dd8743d	0.10569046
64	0xbcbbae98	-0.022910401
65	0xbe0eb41c	-0.13935894
66	0x3d56ee05	0.052473087
67	0xbd3c58dc	-0.04598318
68	0x3df73f7b	0.12072655
69	0xbc3efdde	-0.011657206
70	0x3db24c95	0.08706013
71	0x3e71dafa	0.23618689
72	0x3d1d7b9c	0.03844796
73	0x3d554e88	0.052076846
74	0xbd866769	-0.06562693
75	0x3cf4dcea	0.029890496
76	0x3e4bdafc	0.19907755
77	0x3c94ec84	0.018179186
78	0x3e102b95	0.14079125
79	0x3e1caac6	0.1529952
80	0xbde6568a	-0.11246975
81	0x3bc8edfb	0.006131885
82	0x3d7910e4	0.060807124
83	0x3c5e7b7b	0.013579245
84	0xbd9ad45a	-0.07560034
85	0x3e408865	0.1880203
86	0xbca9ca19	-0.02072625
87	0xbb7e4d48	-0.0038803387
88	0xbc96eb90	-0.018422872
89	0x3d36ad5f	0.044598933
90	0x3d80b01b	0.062835895
91	0x3e04b33c	0.12958997
92	0xbc7f644e	-0.015587879
93	0xbd9e017b	-0.07715126
94	0xbdb373e9	-0.087623425
95	0x3d8ef428	0.06980163
96	0x3e0fecfe	0.14055249
97	0x3e300254	0.17188388
98	0x3e3ade37	0.1824883
99	0x3d956d90	0.07296288
100	0x3e47ffe4	0.19531208
101	0x3e55a698	0.20864332
102	0x3d370638	0.044683665
103	0xbc297c51	-0.010344581
104	0x3d57b226	0.05266013
105	0x3da36a95	0.07979313
106	0xbe2d442f	-0.16920541
107	0xbd8d0c20	-0.06887078
108	0xbd934a4c	-0.071919054
109	0xbdb5f7e5	-0.08885173
110	0xbdec6c87	-0.115441374
111	0xbe08af61	-0.13348152
112	0xbd3d4f51	-0.04621822
113	0x3c5b45df	0.013383358
114	0xbe3b107b	-0.18268006
115	0xbdaa0e5a	-0.083035186
116	0x3c8dd19b	0.017311862
117	0x3e3ad86a	0.18246618
118	0x3e091ec3	0.13390641
119	0x3e4e216a	0.20129934
120	0x3d78185e	0.060570113
121	0xbdbe63a8	-0.09296352
122	0x3d89e503	0.06733134
123	0x3ccdf402	0.025140766
124	0xbba0ebea	-0.0049109356
125	0x3e549613	0.20760374
126	0xbe255c0b	-0.16148393
127	0xbd809d11	-0.06279958
128	0x3b8bdab0	0.004268013
129	0xbdc83ba6	-0.09777002
130	0xbe1ecdd2	-0.15508202
131	0xbd9d296e	-0.07673918
132	0xbd8016bf	-0.062543385
133	0xbcf26b21	-0.029592099
134	0xbc6df299	-0.014523172
135	0x3e247068	0.16058505
136	0xb988eef8	-0.00026117987
137	0xbc5ffcd6	-0.013671121
138	0x3cf59e6d	0.02998277
139	0x3cb2f5a8	0.021845654
140	0x3d4c6c72	0.04990811
141	0x3ccb3ef9	0.024810301
142	0x3cc07749	0.02349438
143	0x3e0a97bd	0.13534446
144	0xbdca9d17	-0.09893244
145	0xbe531c27	-0.20616208
146	0xbe3f5aa3	-0.18686919
147	0xbdfcdd0a	-0.12346847
148	0x3cf7a2c5	0.030228982
149	0x3d5d3350	0.054004014
150	0xbe612fba	-0.21990862
151	0xbe1f2a8e	-0.15543577
152	0xbd57cb47	-0.052684095
153	0x3e810f19	0.2520683
154	0x3c616d3a	0.013758952
155	0xbe829066	-0.25500792
156	0xbdf3f457	-0.119118385
157	0xbc6c6179	-0.014427536
158	0xbe89b2f7	-0.26894352
159	0xbdd2e84c	-0.10298213
160	0xbd39cb80	-0.04536009
161	0x3d883050	0.0664984
162	0x3dd04cfd	0.10170934
163	0x3b6dfade	0.0036312859
164	0x3dec43c9	0.115363665
165	0x3dcefd6b	0.101069294
166	0x3d84692d	0.06465373
167	0xbbc9ee18	-0.006162416
168	0xbc28ca29	-0.010302105
169	0xbc9e0983	-0.019291645
170	0xbd0603ec	-0.032718584
171	0xbc452f4d	-0.012035203
172	0xbe02bade	-0.12766597
173	0xbddefa7c	-0.1088762
174	0xbde8349b	-0.11338159
175	0xbe2dddb1	-0.169791
176	0x3cad50b1	0.02115664
177	0xbdaf036c	-0.085455745
178	0x3db6ce42	0.08926059
179	0xbdbab569	-0.091166325
180	0xbdb1e6b2	-0.0868658
181	0xbd9b4277	-0.075810365
182	0x39b78d7f	0.00035009903
183	0x3dbf3fc2	0.09338333
184	0x3e587109	0.2113687
185	0x3debb072	0.11508264
186	0x3dee1969	0.1162594
187	0x3de25c93	0.110528134
188	0x3e667b51	0.22507979
189	0x3e8f8e53	0.28038272
190	0x3e5b534d	0.21418495
191	0x3e143330	0.14472651
192	0x3e38e36a	0.18055502
193	0x3cf0daaf	0.029401151
194	0xbe87d2d3	-0.26528034
195	0xbbb7e057	-0.00561146
196	0xbe225ba3	-0.15855269
197	0xbc066e6e	-0.008205039
198	0x3c72ce76	0.014819732
199	0xbd91f001	-0.07125855
200	0xbdc3f2ec	-0.09567818
201	0xbce824d4	-0.028337874
202	0xbb265f57	-0.0025386417
203	0x3cd53a45	0.026028762
204	0xbd79b970	-0.060967863
205	0xbb6a377d	-0.003573864
206	0xbdb66ac9	-0.089070864
207	0xbe4121f3	-0.18860607
208	0xbd87ee15	-0.066372074
209	0x3cde5d32	0.027144048
210	0x3e0a258c	0.13490885
211	0x3ce652e5	0.028115699
212	0x3c73ed08	0.014888056
213	0x3e477be7	0.19480859
214	0x3cf60f48	0.030036584
215	0xbd33b955	-0.04387792
216	0x3d8346c3	0.06409981
217	0x3d2ec6ef	0.042670187
218	0xbb549379	-0.0032436533
219	0xbd8d62e5	-0.06903628
220	0xbe44555f	-0.19173191
221	0xbdbfe984	-0.093707114
222	0x3d90ee7d	0.07076738
223	0x3dcfe003	0.10150149
224	0x3d9eca64	0.07753447
225	0xbe7fd346	-0.24982938
226	0xbddc52d3	-0.10757985
227	0x3e25b36f	0.1618173
228	0xbd491a19	-0.049097154
229	0x3d4d7b0c	0.050166175
230	0x3bd2c1de	0.006431802
231	0x3dba8351	0.09107078
232	0xbe1c7834	-0.15280229
233	0xbe051633	-0.1299675
234	0xbe5109f8	-0.20413959
235	0xbd7c4c2b	-0.061596077
236	0xbd556993	-0.052102637
237	0xbc9bdb9a	-0.019025613
238	0x3d5a5ffb	0.05331419
239	0x3e24cb90	0.16093278
240	0x3d858895	0.065201916
241	0xbc0ab859	-0.0084668035
242	0xbdfd8f0e	-0.12380801
243	0x3e68c433	0.22731094
244	0x3e9f3240	0.31093025
245	0x3e9caaa5	0.3059894
246	0x3e6c20ee	0.23059437
247	0x3e3c0a5b	0.18363325
248	0xbdd1a4e8	-0.102365315
249	0x3e20e141	0.15710928
250	0x3d70c3e2	0.05878056
251	0x3e196d97	0.14983211
252	0x3e02a933	0.12759857
253	0xbe002272	-0.1251314
254	0xbdb5b8a7	-0.0887311
255	0xbd0112f2	-0.03151221

resnets.0.conv1.conv2d.bias f4 [32]
0	0xbe1d189d	-0.1534142
1	0xbe994af0	-0.29939985
2	0x3e76ad38	0.24089515
3	0xbe90c14c	-0.28272474
4	0x3d8cfcee	0.0688418
5	0xbdfbfb07	-0.12303739
6	0xbdab7f9d	-0.0837395
7	0xbe014a7a	-0.12626067
8	0xbdd726ee	-0.10505472
9	0xbd880af2	-0.06642713
10	0xbd8decdf	-0.06929945
11	0x3d0f0279	0.034914467
12	0xbdd3c69d	-0.10340617
13	0x3ced1316	0.028939765
14	0xbd323d5a	-0.04351554
15	0x3de20cbe	0.11037587
16	0xbd59a902	-0.053139694
17	0xbe8dbf69	-0.27685097
18	0x3e863a51	0.26216367
19	0x3e3aa8b1	0.18228413
20	0xbd94a015	-0.07257096
21	0xbdf242d3	-0.11829152
22	0x3d8758ce	0.06608735
23	0x3e11c208	0.14234173
24	0xbe1363bf	-0.14393519
25	0x3d8b79a8	0.068103135
26	0x3e2f2921	0.17105533
27	0x3d8a6d44	0.06759122
28	0x3e44a82c	0.19204777
29	0x3e6bee27	0.23040067
30	0xbe6a6ad2	-0.22892311
31	0xbca87ad7	-0.020566387

resnets.0.in1.weight f4 [32]
0	0x3f478b82	0.7794725
1	0x3f8d8993	1.1057609
2	0x3f7e86ad	0.9942425
3	0x3fa57d2d	1.2928826
4	0x3f8157dc	1.0104938
5	0x3f77fa25	0.96866065
6	0x3f702173	0.9380104
7	0x3f78b14b	0.9714553
8	0x3f83c2ec	1.029386
9	0x3f7ca0a5	0.98682624
10	0x3f6ed733	0.9329712
11	0x3f7c3897	0.9852385
12	0x3f5dd003	0.86645526
13	0x3f64520c	0.89187694
14	0x3f7a9569	0.9788423
15	0x3f723515	0.94612247
16	0x3f4c57c6	0.7982143
17	0x3f9db812	1.2321799
18	0x3f6efa3e	0.9335059
19	0x3f7d4051	0.98926264
20	0x3f8a1ad1	1.0789434
21	0x3f7a6a17	0.9781813
22	0x3f40da49	0.75333077
23	0x3f5558d1	0.8333865
24	0x3f9508ea	1.1643345
25	0x3f8acc50	1.0843601
26	0x3f4daca0	0.8034153
27	0x3f61071f	0.8790149
28	0x3f8f17f9	1.1179191
29	0x3f827aaf	1.019369
30	0x3f27877a	0.65441096
31	0x3f80c398	1.005969

resnets.0.in1.bias f4 [32]
0	0xbdc08b97	-0.09401625
1	0x3e0357d6	0.12826476
2	0x3c219244	0.009861533
3	0xbd6146b0	-0.054999053
4	0x3e5f73cc	0.21821517
5	0x3e086e0b	0.13323228
6	0x3e73f60c	0.23824328
7	0x3dac8437	0.084236555
8	0x3b1f16d8	0.002427509
9	0x3e94b640	0.29045296
10	0x3e7e1440	0.24812412
11	0x3e016731	0.1263702
12	0xbdf51444	-0.11966756
13	0xbd11f747	-0.035636213
14	0xbd1ab322	-0.03776849
15	0x3e4060a0	0.1878686
16	0x3e43142c	0.19050664
17	0xbe23b307	-0.15986262
18	0x3dbe9845	0.09306387
19	0x3d3508c4	0.044197813
20	0x3d442fc6	0.047897123
21	0x3ded56f5	0.11588851
22	0xbd6a7599	-0.057241056
23	0xbdf4ccf9	-0.11953158
24	0x3c709850	0.014684752
25	0x3e951e91	0.29124883
26	0x3dbbbeb4	0.09167233
27	0xbeb34886	-0.35016268
28	0x3cd2cd78	0.02573274
29	0x3ec1b01a	0.37829667
30	0x3e430e2d	0.19048376
31	0x3e16f183	0.14740567

resnets.0.conv2.conv2d.weight f4 [32, 32, 3, 3]
0	0x3d9adcab	0.0756162
1	0xbd1438e5	-0.03618707
2	0x3d0e0b92	0.034679003
3	0x3ddcc4fa	0.10779758
4	0xbd86ef49	-0.06588609
5	0x3c7fe4b8	0.015618496
6	0x3df6e4da	0.12055369
7	0x3c59c751	0.01329215
8	0x3db86bd7	0.09004944
9	0x3d82ff49	0.06396348
10	0xbdf1daee	-0.11809336
11	0x3e666bfd	0.22502132
12	0x3d8aa4a2	0.067696825
13	0x3e3c4c7a	0.18388548
14	0xbea31291	-0.31850103
15	0x3d07bf25	0.033141274
16	0x3bf0b50d	0.0073458017
17	0xbd133c46	-0.035946153
18	0x3e0a44b8	0.13502777
19	0x3d657879	0.056023095
20	0xbe4aa208	-0.19788373
21	0xbcbe98bd	-0.02326619
22	0xbe68ee7a	-0.22747222
23	0xbdbc2af0	-0.09187877
24	0xbc0b0ca9	-0.008486905
25	0x3e0e8860	0.1391921
26	0xbe1912db	-0.14948599
27	0x3d8ca384	0.06867126
28	0x3e357ee1	0.17724182
29	0xbe08ba5e	-0.13352343
30	0xbe865d39	-0.26242998
31	0xbd3df9d2	-0.046380825
32	0x3ca930e2	0.020653192
33	0x3d479f69	0.04873601
34	0x3dbaba3b	0.09117552
35	0xbd823b20	-0.063589334
36	0x3b4bec63	0.003111624
37	0xbd5545d2	-0.05206854
38	0xbcc9a676	-0.024615508
39	0xbc8f7ddd	-0.017516071
40	0xbcc80141	-0.02441466
41	0x3e089a12	0.13340023
42	0x3dd93c43	0.10607197
43	0x3e193bad	0.14964171
44	0x3e13a5d1	0.14418723
45	0x3d7d0638	0.06177351
46	0xbd4e320d	-0.0503407
47	0x3d270224	0.040773526
48	0x3d086889	0.033302817
49	0xbc5de196	-0.013542553
50	0x3c80e2e2	0.015733186
51	0xbd3b3355	-0.04570325
52	0x3bf533b9	0.0074829725
53	0xbcefc4a9	-0.02926858
54	0x3e280016	0.16406283
55	0x3c4544e2	0.012040349
56	0x3e25575b	0.16146605
57	0x3c78bea6	0.015182173
58	0x3c637ecd	0.013885212
59	0xbd123386	-0.035693668
60	0xbd5d5cde	-0.054043643
61	0xbd8b46ae	-0.068005905
62	0x3c415d2a	0.011801997
63	0x3d029cad	0.0318877
64	0xba8b8463	-0.0010644313
65	0xbda3f613	-0.08005919
66	0xbe0cbafb	-0.13743202
67	0xbc955235	-0.018227676
68	0x3b4015fe	0.0029309983
69	0xbd7cbe60	-0.061704993
70	0x3e19eb86	0.15031251
71	0x3e3adc04	0.18247992
72	0xbe02cea2	-0.12774137
73	0x3d99609f	0.07489132
74	0xbc8c9362	-0.017160121
75	0xbe4b3e1d	-0.19847913
76	0xbd389e81	-0.045073036
77	0x3d223469	0.039600763
78	0xbe495d07	-0.19664393
79	0x3c481b9d	0.012213615
80	0xbd110f44	-0.03541495
81	0x3cf20f66	0.029548358
82	0x3e4f1e6c	0.20226449
83	0xbc8a58a7	-0.016887976
84	0xbe46be48	-0.19408524
85	0x3c13e585	0.00902689
86	0x3e115e38	0.14196098
87	0x3dec638e	0.11542426
88	0xbe25ff79	-0.16210736
89	0xbe071a65	-0.13193662
90	0x3e1178b0	0.14206195
91	0xbd1b41ce	-0.037904553
92	0xba9799e0	-0.0011566244
93	0x3e6413d9	0.22273196
94	0x3cbcd115	0.023048917
95	0xbe43c988	-0.19119847
96	0x3bbbc4f1	0.0057302644
97	0xbdbebfa8	-0.09313899
98	0x3d72757f	0.059194084
99	0x3db943f7	0.090461664
100	0xbdb0206c	-0.08599934
101	0xbc4a212a	-0.0123370085
102	0x3e50c89f	0.20389031
103	0xbdc8d889	-0.09806926
104	0x3e012105	0.12610252
105	0x3e07c6e1	0.1325946
106	0xbdc54bb6	-0.09633581
107	0x3cb49222	0.022042338
108	0xbe33ee91	-0.17571475
109	0x3ada7656	0.0016667347
110	0xbc59e476	-0.013299098
111	0x3db79458	0.08963841
112	0x3dd72f06	0.10507016
113	0xbcad1ef0	-0.021132916
114	0xbc675091	-0.01411833
115	0x3ca37e60	0.019957721
116	0x3e1017e7	0.14071618
117	0x3d16c54e	0.03680926
118	0xbdfe1476	-0.12406246
119	0x3de11000	0.1098938
120	0x3d96ee1f	0.07369637
121	0x3d5a89a5	0.053353924
122	0x3e19843a	0.14991847
123	0x3dc4282b	0.09577974
124	0x3d332f1a	0.04374609
125	0x3d33e7ea	0.043922342
126	0xbdd1f1c9	-0.10251195
127	0xbe0c3b88	-0.13694584
128	0x3df5f817	0.1201021
129	0xbd9765ca	-0.073924616
130	0xbe2cb2cd	-0.16865082
131	0x3d6b338a	0.0574222
132	0x3e0c417e	0.13696858
133	0xbd8057ea	-0.06266768
134	0x3d88cd6e	0.066798076
135	0x3ca9edf7	0.020743353
136	0xbd49a8ca	-0.049233235
137	0x3da0abaf	0.07845246
138	0x3e231dd0	0.15929341
139	0xbd8b141f	-0.06790947
140	0xbd8b65c9	-0.06806523
141	0x3e65da12	0.22446468
142	0xbbdbf8ab	-0.006712993
143	0xbd14c557	-0.03632101
144	0xbe2d3f24	-0.16918617
145	0x3dc19fed	0.094543315
146	0x3db5840f	0.08863079
147	0xbe09648f	-0.13417266
148	0x3e05a8e9	0.13052715
149	0x3cffab49	0.031209605
150	0x3b54b06c	0.0032453788
151	0xbd81a0d0	-0.06329501
152	0x3d9845b4	0.0743517
153	0x3e33ed23	0.17570929
154	0xbd9147ff	-0.0709381
155	0x3e4f1edf	0.2022662
156	0xbca614a7	-0.02027352
157	0xbd8ecb6b	-0.06972393
158	0x3e44dc1b	0.19224589
159	0x3e49c29d	0.19703145
160	0xbd83c9a9	-0.06434948
161	0x3e27a4bf	0.1637144
162	0x3df0ad02	0.117517486
163	0x3e01fd91	0.12694384
164	0x3d9aa6a4	0.075513154
165	0xbd150daa	-0.036389984
166	0x3dcab918	0.09898585
167	0xbd2a87fb	-0.041633587
168	0xbe0afb11	-0.13572337
169	0xbcd52b0a	-0.0260215
170	0x3d3a0a71	0.045420114
171	0x3dc043f7	0.09387963
172	0xbdc91744	-0.09818891
173	0x3c258852	0.010103302
174	0x3dbd917a	0.09256263
175	0xbd4a7158	-0.0494245
176	0x3d212e4c	0.039350793
177	0x3d9b0503	0.07569315
178	0xbdd25271	-0.10269631
179	0xbc98b784	-0.018642195
180	0xbbbc2b5e	-0.0057424745
181	0x3d856abb	0.06514498
182	0x3d08896e	0.03333419
183	0x3e107705	0.14107902
184	0x3d426640	0.047460794
185	0xbe7a7bc5	-0.24461277
186	0xb9add86e	-0.00033158384
187	0xbd33fbcf	-0.043941315
188	0x3cf290ce	0.029610064
189	0x3e6a3a08	0.228737
190	0xbb72327a	-0.0036956356
191	0x3e9f592f	0.3112273
192	0xbd9f5235	-0.077793516
193	0x3e1a6d51	0.15080763
194	0x3c10772d	0.008817476
195	0xbd05f0b9	-0.032700274
196	0x3e3fb99a	0.18723145
197	0x3d56b9c4	0.052423254
198	0xbd55603a	-0.052093722
199	0x3d8e2894	0.069413334
200	0x3c172749	0.009225675
201	0x3d543115	0.05180462
202	0x3d6b63f8	0.057468385
203	0x3e19db03	0.15024953
204	0xbd93a1ec	-0.072086185
205	0x3db67ab8	0.089101255
206	0x3c051026	0.008121526
207	0xbd88fcdd	-0.06688855
208	0xbdecf76a	-0.11570628
209	0xbdf2cd15	-0.118555225
210	0xbce8ce47	-0.028418673
211	0xbe0e4402	-0.1389313
212	0xbc1b4efe	-0.009479282
213	0xbd50d38e	-0.050983004
214	0xbd3fca70	-0.04682392
215	0xbccf0184	-0.025269277
216	0x3cfe33b8	0.03103052
217	0x3cf6c966	0.030125331
218	0x3e6e110a	0.23248687
219	0x3e0238d1	0.12716986
220	0x3d8a4c08	0.06752783
221	0xbd56847a	-0.052372433
222	0x3e0cc4ff	0.13747023
223	0x3dae5db8	0.08513969
224	0x3e973aa9	0.29536942
225	0xbe375d8d	-0.1790678
226	0x3e6bd7e2	0.23031572
227	0xbe56d9cf	-0.20981525
228	0x3d46c8a9	0.04853121
229	0xbe9cf8ea	-0.30658656
230	0x3ea854fa	0.32877332
231	0xbc986776	-0.018604022
232	0x3e80ef1a	0.2518242
233	0xbde04273	-0.10950174
234	0xbcb07aab	-0.021542868
235	0xbd2c5424	-0.04207243
236	0xbcacd12f	-0.02109584
237	0x3db37cbb	0.08764025
238	0x3e078825	0.13235529
239	0x3d0c10c7	0.034195688
240	0x3d9014fa	0.07035251
241	0x3d203aed	0.039118696
242	0xbcebfdac	-0.028807484
243	0x3da3b625	0.07993726
244	0xbdd7432e	-0.105108604
245	0x3a9acfe5	0.0011811225
246	0x3cff692e	0.031178083
247	0x3b7ebe60	0.0038870797
248	0xbc4a19e9	-0.012335279
249	0x3e0cd8f9	0.13754643
250	0xbd3ee859	-0.046608303
251	0xbd721898	-0.059105486
252	0x3d792a78	0.060831517
253	0x3d619c4f	0.055080708
254	0x3e08f5a9	0.13374962
255	0x3e0dc8da	0.1384615

resnets.0.conv2.conv2d.bias f4 [32]
0	0xbe767636	-0.24068531
1	0xbd855b04	-0.065115005
2	0x3e6bc337	0.23023687
3	0xbe9f51f1	-0.31117204
4	0x3d1d0b13	0.03834064
5	0xbde6f4ba	-0.11277147
6	0x3d81b85a	0.063339904
7	0xbdd71bf6	-0.1050338
8	0xbd9d3cc6	-0.07677607
9	0x3d8c922c	0.068638176
10	0x3e6a23ea	0.22865263
11	0xbe0444dc	-0.12916893
12	0xbcf130ef	-0.029442279
13	0xbdf2450a	-0.118295744
14	0xbd0f4ae9	-0.03498355
15	0x3d834f6a	0.064116314
16	0xbd36b672	-0.044607587
17	0x3dca1f77	0.09869283
18	0xbb021d71	-0.0019853974
19	0x3e67f449	0.22651781
20	0x3e2ce240	0.16883183
21	0xbd93c58d	-0.07215414
22	0xbe8edd21	-0.27903083
23	0x3e04cc01	0.12968446
24	0x3d9cb343	0.07651379
25	0xbcdc340e	-0.02688029
26	0xbd8c730e	-0.068578824
27	0xbd817002	-0.06320192
28	0x3dc75343	0.09732678
29	0x3cd2ec8d	0.025747562
30	0x3da13a6b	0.078724705
31	0xbdcaacfe	-0.09896277

resnets.0.in2.weight f4 [32]
0	0x3f279e9d	0.654764
1	0x3f5d7482	0.865059
2	0x3f78ece3	0.9723646
3	0x3f2cc48c	0.67487407
4	0x3f2abfe9	0.6669908
5	0x3f4f0673	0.80869216
6	0x3f4d1b71	0.8012
7	0x3f58925d	0.8459833
8	0x3f6f7c85	0.93549377
9	0x3f35e776	0.71056306
10	0x3f4ff4d4	0.81232953
11	0x3f479d3c	0.77974296
12	0x3f54432e	0.8291501
13	0x3f6380b7	0.8886828
14	0x3f161d86	0.586388
15	0x3f55f246	0.83572805
16	0x3f5c920a	0.8616034
17	0x3f673b25	0.9032462
18	0x3f4a20d9	0.7895637
19	0x3f63823d	0.888706
20	0x3f1b970a	0.6077734
21	0x3f6911ed	0.9104298
22	0x3f4e2ce4	0.8053725
23	0x3f555cb5	0.83344585
24	0x3f31e963	0.69496745
25	0x3f2a8787	0.6661305
26	0x3f343938	0.7039981
27	0x3f0938fd	0.5360258
28	0x3f41cc4a	0.75702345
29	0x3f4b8d97	0.79512924
30	0x3f4c9eed	0.7993
31	0x3f5006fc	0.8126066

resnets.0.in2.bias f4 [32]
0	0xbeb79a1c	-0.35859764
1	0xbe2cf3ca	-0.16889873
2	0x3e043dea	0.12914243
3	0xbd59a32c	-0.05313413
4	0x3d82c9cc	0.06386146
5	0xbe0dc2ac	-0.13843793
6	0x3e09ccd9	0.1345705
7	0xbe5cf80b	-0.21578996
8	0xbd638e6b	-0.055555742
9	0x3d9c63ce	0.07636224
10	0x3c35a7a8	0.011087336
11	0xbe109052	-0.14117554
12	0xbe2b4b55	-0.16727956
13	0xbdd89742	-0.10575725
14	0xbce15161	-0.027504625
15	0x3d709dc0	0.058744192
16	0xbd734e39	-0.05940077
17	0x3cbce0e2	0.023056451
18	0xbe794ad6	-0.24344954
19	0x3e166f63	0.14690928
20	0x3e13c56d	0.1443078
21	0xbdfa1218	-0.12210482
22	0xbe8ebc4d	-0.27878037
23	0x3d234c1a	0.039867498
24	0x3c8b0417	0.016969724
25	0x3da48640	0.08033419
26	0x3c885e56	0.016646545
27	0x3e22aa63	0.1588531
28	0x3d5db584	0.054128185
29	0x3cedd8b6	0.029034
30	0x3d0b2e93	0.033979964
31	0xbb2a26a9	-0.0025962985

resnets.1.conv1.conv2d.weight f4 [32, 32, 3, 3]
0	0x3d3a8d6f	0.045545038
1	0xba8247c1	-0.0009939597
2	0x3d2cc6e9	0.042181883
3	0xbe594a41	-0.21219732
4	0x3e820088	0.2539103
5	0xbe20d075	-0.1570452
6	0x3e02d83a	0.12777796
7	0xbed25e4b	-0.41087565
8	0x3dfcf94f	0.12352239
9	0xbe131110	-0.14361978
10	0x3de5d7db	0.11222812
11	0xbd0e848b	-0.03479437
12	0x3e3d8fa1	0.18511821
13	0xbe284c56	-0.1643537
14	0x3e3021de	0.1720042
15	0xbdbd4c9c	-0.09243128
16	0x3e13d68b	0.1443731
17	0xbde9a944	-0.11409238
18	0x3c2fc1b1	0.010727332
19	0x3db1b912	0.086778775
20	0x3c718d01	0.014743091
21	0x3cae107e	0.021248098
22	0x3dbdc12c	0.0926536
23	0xbe26a73b	-0.16274731
24	0x3deed84d	0.1166235
25	0xbe820dec	-0.25401247
26	0x3d92ab63	0.07161596
27	0xbdee3187	-0.1163054
28	0xbc1490f8	-0.009067766
29	0xbe09ca91	-0.13456179
30	0x3b956ce6	0.004560101
31	0xbe124662	-0.14284661
32	0x3e0b1218	0.13581121
33	0xbe3db8e7	-0.18527566
34	0x3d9868bc	0.074418515
35	0xbb8ce470	-0.004299693
36	0xbcca7e5d	-0.024718458
37	0xbd89c454	-0.067269
38	0x3de26671	0.110546954
39	0xbe25969f	-0.16170739
40	0x3ebfe38c	0.37478292
41	0xbe9383a6	-0.28811377
42	0xbd731b80	-0.059352398
43	0xbe7ed0ae	-0.24884292
44	0x3e82f059	0.25573996
45	0x3d3d98d6	0.046288334
46	0xbe7b27bc	-0.24526876
47	0x3e038fb7	0.12847792
48	0xbe7c039a	-0.24610749
49	0x3ea3acd1	0.31967786
50	0xbe265dd5	-0.16246732
51	0x3e031451	0.12800719
52	0xbe37f4a0	-0.17964411
53	0xbd4f7cda	-0.050656177
54	0x3dfd79c6	0.12376742
55	0xbe00e84b	-0.12588613
56	0x3db8cbe7	0.09023266
57	0xbd33dc55	-0.043911297
58	0x3c472073	0.012153733
59	0xbe639c17	-0.22227512
60	0x3e2676f2	0.16256312
61	0xbd673cf4	-0.056454614
62	0xbc647668	-0.013944246
63	0x3e0b41e8	0.1359936
64	0xbe0995a2	-0.13435987
65	0x3d948f84	0.07253936
66	0xbdc1748c	-0.09446058
67	0x3e0112fa	0.12604895
68	0xbe9811a6	-0.29700965
69	0x3d12dc5d	0.035854686
70	0xbe26f149	-0.1630298
71	0x3e1d50ee	0.15362903
72	0x3e30a757	0.17251335
73	0xbe8fa4cc	-0.28055418
74	0x3e848733	0.258844
75	0xbe2dc85c	-0.16970962
76	0xbcfc8c2d	-0.03082856
77	0xbe90d3ee	-0.2828669
78	0xbd8326d4	-0.0640389
79	0x3d4d4bf5	0.050121266
80	0xbe41725c	-0.18891281
81	0xbd8f0c4c	-0.06984767
82	0xbc492f06	-0.012279278
83	0x3d37f9ad	0.044915844
84	0xbd429062	-0.047500975
85	0xbca6e8f3	-0.02037475
86	0xbe56d179	-0.20978345
87	0xbc65aaf2	-0.014017807
88	0xbe0294e8	-0.12752116
89	0x3c9957e5	0.01871867
90	0x3dcb2790	0.09919655
91	0xbdc9dfc5	-0.09857134
92	0xbd1f4e76	-0.038893186
93	0xbde304c9	-0.11084897
94	0x3d2b3a64	0.041803733
95	0x3b10d10f	0.0022097265
96	0x3d817187	0.06320482
97	0xbd29b3af	-0.041431125
98	0xbcd1cfd8	-0.025611803
99	0x3dcf2494	0.101143986
100	0xbd50b4f1	-0.05095381
101	0x3d06f55e	0.032948844
102	0xbd4f3c24	-0.050594464
103	0x3e3db7fd	0.18527217
104	0x3e3a2f1d	0.18182035
105	0x3da0a30c	0.07843599
106	0x3d7dee87	0.061995056
107	0x3ccb6567	0.024828626
108	0x3d4b0443	0.04956461
109	0xbd3283ec	-0.04358284
110	0x3d72edef	0.059308942
111	0xbd86d2d8	-0.06583184
112	0xbbaafb57	-0.0052179503
113	0xbc866ac2	-0.016408328
114	0xbdb724a9	-0.08942539
115	0x3d201c10	0.039089262
116	0x3dab7db4	0.08373585
117	0x3b642bb0	0.003481608
118	0x3dc8e53f	0.0980935
119	0x3ce49f27	0.027907921
120	0xbdb01de0	-0.08599448
121	0xbdfe0f63	-0.124052785
122	0x3d390090	0.045166552
123	0xbca6c859	-0.020359205
124	0x3e80bea8	0.2514546
125	0xbe18eacd	-0.1493332
126	0x3d91b91d	0.07115386
127	0xbe10bf7c	-0.14135545
128	0x3d6320b1	0.0554511
129	0xbda577c7	-0.08079486
130	0x3d489b07	0.04897597
131	0xbe406c7c	-0.18791384
132	0xbdcff300	-0.101537704
133	0xbe02048f	-0.12697051
134	0x3e2fc0ba	0.17163363
135	0xbd81e631	-0.06342734
136	0x3d3ba946	0.04581573
137	0xbca2d4f0	-0.019876927
138	0x3d106ce7	0.035260107
139	0x3dc5d4d4	0.09659734
140	0x3dfa3fa6	0.12219171
141	0xbc98c2c1	-0.018647553
142	0x3da75540	0.08170557
143	0x3d296e34	0.041364864
144	0x3d53d156	0.05171331
145	0x3d8420fc	0.06451604
146	0xbd922af0	-0.07137096
147	0xbd336185	-0.043794174
148	0x3e450bbf	0.19242762
149	0xbe022c27	-0.12712155
150	0x3d84eb57	0.064902
151	0xbe7dde82	-0.24791911
152	0x3e6246b8	0.2209729
153	0x3d34994b	0.044091504
154	0x3e3345b2	0.17507055
155	0x3c32859f	0.010896116
156	0x3d95ae53	0.0730864
157	0xbdf77818	-0.12083453
158	0x3d88a869	0.06672747
159	0xbd3e9bc7	-0.04653528
160	0x3d8c9cd5	0.06865851
161	0x3c969f19	0.01838641
162	0x3bec7760	0.007216379
163	0x3cf034fc	0.02932214
164	0xbd9966a7	-0.074902825
165	0x3d4375cf	0.047719773
166	0xbe65f457	-0.2245649
167	0x3d02743b	0.031849127
168	0xbb0d9d33	-0.002160859
169	0xbe1f8949	-0.15579714
170	0x3e09881d	0.1343083
171	0xbe448938	-0.1919297
172	0x3d293a8c	0.0413156
173	0x3bc62d8d	0.0060479105
174	0xbb409df5	-0.0029391025
175	0x3d3c6097	0.045990553
176	0xbd837618	-0.06419009
177	0x3ddb2515	0.10700432
178	0xbdd31dd7	-0.10308426
179	0xbd83365c	-0.064068526
180	0xbdb5e482	-0.08881475
181	0x3e0a4d18	0.13505971
182	0x3e16290b	0.14664094
183	0x3e7cb705	0.24679191
184	0xbe77d9d9	-0.24204196
185	0x3d331966	0.043725394
186	0xbe6f085b	-0.23343031
187	0x3e11b60c	0.14229602
188	0xbe1a2700	-0.1505394
189	0xbc435e52	-0.011924343
190	0x3cd8422a	0.026398737
191	0xbcc73bfc	-0.024320595
192	0xbdbfde68	-0.093685925
193	0x3d9fef22	0.07809283
194	0xbda446d2	-0.080213204
195	0x3d2db947	0.042413022
196	0xbbc60b41	-0.006043822
197	0x3e23dc96	0.16002116
198	0x3cae4c4d	0.021276617
199	0x3bae6615	0.0053222277
200	0x3cef1f09	0.029189603
201	0x3a036664	0.0005012511
202	0x3d943b3c	0.072378606
203	0xbe97d77d	-0.29656592
204	0x3dca26d7	0.09870689
205	0xbeb6b336	-0.35683602
206	0x3eae381b	0.3402718
207	0x3d492ed0	0.04911691
208	0xbc9909c4	-0.018681414
209	0xbd80c1b4	-0.06286946
210	0xbc678a84	-0.014132146
211	0xbe2b03d2	-0.16700676
212	0x3d0fa008	0.035064727
213	0x3bd58330	0.006515883
214	0x3d2bedb8	0.041974753
215	0xbd382e99	-0.044966314
216	0x3c11f48b	0.008908401
217	0xbc8a8d98	-0.01691322
218	0xbd385106	-0.044999145
219	0xbd85a5ed	-0.065257885
220	0xbddf4375	-0.10901538
221	0x3dcd77fb	0.1003265
222	0x3ca23843	0.019802218
223	0x3d1c0433	0.038089942
224	0x3dffe522	0.124948755
225	0x3caa0865	0.020755956
226	0xbd0bdff3	-0.03414912
227	0x3e228aa7	0.15873204
228	0xbc96c18f	-0.018402843
229	0x3d487ab3	0.04894514
230	0xbe04b0d2	-0.12958077
231	0x3d33314d	0.04374819
232	0xbdd20503	-0.10254862
233	0xbd3ec84a	-0.04657773
234	0x3d84be6d	0.06481633
235	0x3d121c07	0.03567126
236	0xbd187b02	-0.037226684
237	0x3d13a03e	0.03604149
238	0xbe0fb1d5	-0.14032681
239	0xbd66e062	-0.056366332
240	0x3d839ccc	0.06426391
241	0xbdcdbaa0	-0.100453615
242	0xbd1c8511	-0.03821284
243	0xbd968e12	-0.073513165
244	0xbe03c1a5	-0.12866838
245	0xbcf0aa9a	-0.029378224
246	0xbda98652	-0.08277573
247	0x3dec0cdd	0.11525891
248	0xbd8e8dc2	-0.06960632
249	0xbd90a44f	-0.070625894
250	0x3da24062	0.07922436
251	0xbc714e74	-0.014728177
252	0xbd6c5510	-0.05769831
253	0x3d28ea1e	0.041238897
254	0x3e0956c9	0.13412012
255	0xbe78d54b	-0.24300115
