Assets/Style_Transfer/Models/Estilos mejoras/RAFT/Raft_Style2.onnx (onnx, 449766 bytes, 62 tensors)

conv1.conv2d.weight f4 [8, 3, 9, 9]
0.05953837 -0.03670542 -0.04592395 -0.04062983 0.052895702 -0.029700946 -0.060410537 -0.043531753
-0.010179967 0.0333337 0.03221809 -0.0033249713 0.020066865 -0.05053714 -0.0027900124 -0.037113592
-0.011695135 -0.024254216 0.033393208 0.04051979 -0.031969037 -0.014490284 0.029538047 0.0058932845
0.05599788 0.03135001 0.0011484693 -0.023341333 0.0059949984 2.857282e-06 -0.00957533 -0.048447773
0.028500801 0.12802757 0.07655907 0.04233149 0.024442803 -0.039563913 0.03614062 0.001794295
-0.027366664 0.067422986 0.017289208 0.029684259 -0.030434215 0.012171503 -0.05726273 -0.021419674
0.025007743 0.025119862 -0.0081918845 0.08005502 0.006338789 0.060032077 0.06190103 -0.040948752
-0.030704772 0.035303395 0.0794914 0.037444435 0.07572913 0.023415016 0.015688179 0.044677302
-0.0018236524 -0.04498085 0.02104309 -0.022395259 0.039678358 -0.021559954 0.026277019 -0.0020394514
0.019417824 -0.025637457 0.0064618723 0.004875478 -0.016792329 0.07262461 -0.021031894 0.0077716657
0.044321805 -0.07464028 -0.007093204 -0.049708392 -0.07676616 -0.04011563 -0.059999965 -0.022589646
-0.0010715434 -0.07707336 0.02476393 -0.05617528 0.036864348 -0.057952676 0.009268631 -0.020629486
0.021796133 0.0072686123 -0.02510403 0.026052536 0.049231585 0.04169265 0.0055952454 0.003425784
0.084324 -0.005576901 0.055666972 0.024713008 0.044542443 -0.0039473055 0.036615632 -0.06524606
-0.013784874 0.09730251 0.10661755 0.09997258 0.01733871 0.0010073697 -0.029513912 0.0635808
-0.102980465 -0.079049855 0.034226697 0.062944666 0.08911692 0.05048617 -0.010303358 0.023830054
-0.050910097 0.02627795 -0.018858133 0.04823374 0.11642961 0.05852829 0.022902433 0.01636915
0.012408936 -0.018758181 0.010428555 -0.003655569 0.060195375 -0.027639173 0.03193409 0.015738294
-0.040804535 0.04225119 0.037950784 -0.075722225 -0.02458466 0.04901866 -0.017898306 0.031336352
-0.04270212 0.01345114 0.004037735 -0.02754207 0.039514888 -0.0011560345 0.02353209 -0.03698411
0.01882206 0.01809808 0.00035555914 0.022967484 -0.06754537 0.021047173 -0.07974551 0.016560758
-0.043317318 -0.014674564 -0.029624805 -0.04901491 -0.022030888 -0.033702143 -0.0056666387 0.009647156
0.020601667 0.043994036 0.033652518 -0.0049243323 -0.019366307 0.031204151 0.07378141 0.0034647626
0.05760078 0.030233378 0.0771041 0.028656512 0.018636689 0.04430652 -0.015195061 0.0662803
0.03270387 -0.029697768 0.006889942 0.05925959 0.07186234 -0.0028268555 -0.03800309 0.013564239
0.0059529967 -0.041493565 -0.042601943 0.0033471126 0.13457935 0.06485211 0.010147747 -0.07262414
0.040762898 -0.06928978 0.009176936 0.040977098 0.055154208 0.049893707 0.07402747 0.0011085512
-0.024513347 0.047047075 0.0059955125 0.026684688 0.033432417 0.021920465 0.008807292 0.05366791
-0.0045624576 -0.01717184 -0.035468012 -0.054169938 -0.006186392 0.020522615 0.02791274 -0.039965454
0.031446017 0.02889861 0.012329215 0.057597578 0.02164922 -0.0643578 -0.022849338 0.008044117
0.011476519 -0.047859527 -0.068246305 0.013057322 0.036221713 -0.0368691 -0.060120083 0.026295792
0.002948357 0.053338423 -0.03957184 0.012288645 -0.04733257 -0.03135376 0.03296343 0.036041442
00000000: 82de 733d 6c58 16bd c01a 3cbd 776b 26bd
00000010: 2aa9 583d 664f f3bc 0a71 77bd 5a4e 32bd
00000020: e0c9 26bc eb88 083d 1ef7 033d c3e7 59bb
00000030: 4463 a43c 0800 4fbd a4d8 36bb 6c04 18bd
00000040: f49c 3fbc c7b0 c6bc 51c7 083d 14f8 253d
00000050: f7f1 02bd a868 6dbc c6f9 f13c 741c c13b
00000060: 085e 653d de68 003d 3c88 963a 5336 bfbc
00000070: b171 c43b bbbf 3f36 d8e1 1cbc 2c71 46bd
00000080: 837a e93c a919 033e 00cb 9c3d c963 2d3d
00000090: 463c c83c c50d 22bd 3008 143d 8d2e eb3a
000000a0: 0e30 e0bc 1015 8a3d 19a2 8d3c 672c f33c
000000b0: 2d51 f9bc fc6a 473c 538c 6abd 5078 afbc
000000c0: 0add cc3c 2bc8 cd3c 4137 06bc e3f3 a33d
000000d0: 9eb5 cf3b 32e4 753d ef8b 7d3d e1b9 27bd
000000e0: 9388 fbbc 4b9a 103d 63cc a23d 565f 193d
000000f0: e017 9b3d d9d0 bf3c 7f84 803c 8cff 363d
00000100: 9f07 efba d73d 38bd 8f62 ac3c 4376 b7bc
00000110: c685 223d 809e b0bc e742 d73c 51a8 05bb
00000120: 2112 9f3c a505 d2bc 1dbe d33b 79c2 9f3b
00000130: 1190 89bc 36bc 943d 144b acbc 75a9 fe3b
00000140: c88a 353d 01dd 98bd 1c6e e8bb 079b 4bbd
00000150: 9437 9dbd 4950 24bd 86c2 75bd ec0d b9bc
00000160: 0873 8cba a3d8 9dbd badd ca3c 0d18 66bd
00000170: 12ff 163d c95f 6dbd 75db 173c 2bff a8bc
00000180: ce8d b23c 8a2d ee3b f7a6 cdbc 216c d53c
00000190: 0fa7 493d eac5 2a3d 5258 b73b 1e83 603b
000001a0: 10b2 ac3d 70be b6bb 0d03 643d ef72 ca3c
000001b0: 2372 363d 6658 81bb 46fa 153d ba9f 85bd
000001c0: f4d9 61bc 8a46 c73d 4d5a da3d 6dbe cc3d
000001d0: e909 8e3c b809 843a 29c7 f1bc a736 823d
000001e0: 6ce7 d2bd e4e4 a1bd 4b31 0c3d 22e9 803d
000001f0: ef82 b63d 96ca 4e3d 6acf 28bc 3f37 c33c
00000200: 1b87 50bd db44 d73c 5f7c 9abc be90 453d
00000210: a672 ee3d 5cbb 6f3d e29d bb3c 9818 863c
00000220: da4e 4b3c c2aa 99bc 88dc 2a3c 4592 6fbb
00000230: 6d8f 763d 8c6b e2bc 52cd 023d 98ed 803c
00000240: a822 27bd 950f 2d3d 4872 1b3d 4114 9bbd
00000250: c565 c9bc cac7 483d 789f 92bc 8c5a 003d
00000260: 6be8 2ebd 2c62 5c3c fa4e 843b e89f e1bc
00000270: 5dda 213d 1586 97ba 5fc6 c03c a67c 17bd
00000280: b930 9a3c 6d42 943c 576a ba39 4e26 bc3c
00000290: 3a55 8abd 1f6b ac3c 9d51 a3bd 6daa 873c
000002a0: 806d 31bd 956d 70bc b8af f2bc dcc3 48bd
000002b0: 1f7a b4bc 420b 0abd 36af b9bb 1b0f 1e3c
000002c0: d4c4 a83c 1733 343d 39d7 093d 4b5c a1bb
000002d0: 17a6 9ebc d99f ff3c b51a 973d 1211 633b
000002e0: ccee 6b3d fdab f73c c1e8 9d3d 10c1 ea3c
000002f0: f8ab 983c c17a 353d b5f4 78bc f7bd 873d
00000300: 7ef4 053d bc48 f3bc 06c5 e13b 2fba 723d
00000310: 902c 933d c442 39bb 21a9 1bbd 8b3c 5e3c
00000320: 5b11 c33b 28f5 29bd 607f 2ebd 3b5b 5b3b
00000330: 2bcf 093e 2fd1 843d bc42 263c f7bb 94bd
00000340: fff6 263d cde7 8dbd dc5a 163c 9ad7 273d
00000350: 61e9 613d 585d 4c3d b79b 973d ce4c 913a
00000360: 37d0 c8bc 6fb4 403d 0176 c43b d999 da3c
00000370: 6ef0 083d 8c92 b33c 764c 103c e2d2 5b3d
00000380: ab80 95bb f5ab 8cbc e846 11bd 4ce1 5dbd
00000390: 38b7 cabb 0b1f a83c 42a9 e43c d1b2 23bd
000003a0: 8acd 003d c7bc ec3c 7a00 4a3c 70eb 6b3d
000003b0: b459 b13c 06ce 83bd 892e bbbc 79cb 033c
000003c0: 0208 3c3c 5a08 44bd b8c4 8bbd 61ee 553c
000003d0: 385d 143d 0e04 17bd 7a40 76bd 466a d73c
000003e0: 3939 413b 6479 5a3d 1516 22bd 5056 493c
000003f0: ccdf 41bd cd6c 00bd a904 073d 31a0 133d

conv1.conv2d.bias f4 [8]
0.038464192 -0.0036862667 -0.005479426 0.025071248 0.0025811333 0.03482137 -0.10813866 0.014977614
00000000: a18c 1d3d 4b95 71bb c28c b3bb 3862 cd3c
00000010: 3b28 293b daa0 0e3d cd77 ddbd ab64 753c

in1.weight f4 [8]
0.88076085 0.87115663 0.70957977 0.89353377 0.95571697 0.90768313 0.9394961 0.9316753
00000000: 8b79 613f 1f04 5f3f 05a7 353f a1be 643f
00000010: dea9 743f ec5d 683f d182 703f 4682 6e3f

in1.bias f4 [8]
0.019953554 0.083521806 -0.071024865 -0.0851698 0.0019839986 -0.07128044 0.039877266 -0.025055168
00000000: a375 a33c 7b0d ab3d 7c75 91bd 816d aebd
00000010: f905 023b 7bfb 91bd 5856 233d 7f40 cdbc

conv2.conv2d.weight f4 [16, 8, 3, 3]
0.108296424 0.06812684 0.16549762 0.056083284 0.024983447 0.14166966 0.080462456 0.10763237
-0.098420784 -0.07600523 -0.039830226 0.11133143 0.011478863 0.06374654 0.13195337 -0.041001007
0.042560093 -0.05834118 0.11090564 0.12931587 0.13388306 -0.058421012 0.016076595 0.11836
0.05505226 0.14472756 0.13947149 -0.16072303 0.06401436 -0.075283945 0.012073489 -0.051171042
-0.0738333 -0.01401022 0.028459318 0.035451535 0.13767911 0.09169696 -0.06619259 -0.023841744
-0.043926943 0.09892705 -0.109932914 -0.15752867 0.042688172 0.12245705 0.10064765 -0.02010101
-0.07750624 0.0995066 0.00059268007 0.066956826 0.050930534 0.062131334 0.031212904 -0.0011658816
0.081015944 0.07444618 -0.04493821 -0.030512452 0.14350918 -0.058691498 0.1563643 -0.07009321
0.0939612 -0.017296363 -0.082412004 -0.039574802 0.071283996 0.06540196 -0.13245556 0.08710927
-0.11459485 -0.109865345 -0.058403827 -0.10583524 -0.02220116 -0.12981246 -0.022854324 0.021499427
-0.107471436 -0.073783234 -0.07648739 -0.12490631 0.053089377 -0.12751837 -0.05210238 -0.041304614
-0.0950786 -0.11587151 -0.06412215 0.069897264 -0.09240804 0.08274504 -0.10267163 -0.1274865
-0.07892773 -0.12779246 0.017774232 0.042733323 -0.023341224 -0.02862769 -0.021216579 0.043601222
0.059410587 -0.051858094 0.044745654 -0.10435492 -0.00031946853 -0.09216617 0.08008734 0.06612829
0.0027309125 -0.014056446 -0.069748685 -0.052193467 0.010247668 0.017779348 -0.10130659 0.057674345
0.007389992 0.0014268329 -0.0898616 0.047713123 0.034477234 -0.05446967 -0.13048144 -0.12038466
-0.07046026 -0.013953694 -0.100288615 -0.030267429 -0.05369792 -0.08828093 -0.03629235 0.049926795
0.044894088 0.0029648049 -0.0065995706 0.09108414 0.0961214 0.09362762 -0.067684434 -0.06045927
-0.094594136 -0.0026096953 -0.12027836 -0.07576991 -0.09595198 -0.08762711 0.07040263 0.017865501
0.057764895 -0.08263023 0.016823111 0.089275174 0.047055166 -0.0597285 -0.061873183 -0.046508767
-0.030919855 0.092955746 -0.031853173 -0.053318996 0.057060994 -0.030144613 0.019896768 0.12242428
-0.006274123 -0.019820848 0.1333255 0.024053384 0.053191934 -0.05413638 0.08577383 0.09301734
0.064130716 0.061071523 -0.07560793 0.016130177 0.028443927 -0.08735252 -0.08947963 -0.12111982
0.022949899 -0.06671718 -0.016132073 -0.023247935 0.009085003 0.024781087 0.09067996 -0.053014565
-0.09315816 0.038855184 0.008523151 -0.060365986 -0.047398042 0.076016545 -0.05983966 0.019549742
0.067668036 0.15061736 0.006344078 -0.09870314 0.09317655 0.042650457 -0.004801794 0.029370535
0.05534627 -0.08174046 -0.121063575 -0.09794487 0.030475156 -0.10929101 -0.0791807 0.036862746
-0.15541847 -0.08570952 0.07257252 -0.013386754 0.023399757 0.03910565 0.030614143 -0.10635394
-0.04581489 -0.14161703 -0.11413182 -0.11437968 -0.142857 0.010442261 -0.063013464 -0.067385405
0.05240662 -0.0004091088 -0.024090283 -0.13408747 -0.19658095 -0.098042704 -0.17653698 -0.019452073
-0.09179188 -0.11149422 -0.064860456 0.050414402 -0.098436184 -0.037987698 0.0251395 0.09103291
0.029579718 0.018418625 -0.028085705 -0.017395545 -0.13310052 -0.038636662 -0.1411158 0.08341796
00000000: 84ca dd3d 1686 8b3d 3578 293e 96b7 653d
00000010: 16aa cc3c da11 113e 80c9 a43d 5c6e dc3d
00000020: d690 c9bd a1a8 9bbd 0525 23bd bc01 e43d
00000030: d711 3c3c 8c8d 823d c91e 073e acf0 27bd
00000040: 7e53 2e3d 29f7 6ebd 7f22 e33d 616b 043e
00000050: a418 093e df4a 6fbd 10b3 833c ba66 f23d
00000060: 7b7e 613d 7633 143e 9dd1 0e3e 9494 24be
00000070: f619 833d 782e 9abd e2cf 453c ba98 51bd
00000080: ea35 97bd 1f8b 65bc 8423 e93c a135 113d
00000090: c1fb 0c3e 9ecb bb3d fb8f 87bd c34f c3bc
000000a0: bdec 33bd 449a ca3d 8224 e1bd 324f 21be
000000b0: cbd9 2e3d c3ca fa3d 5b20 ce3d e0aa a4bc
000000c0: 97bb 9ebd 1eca cb3d 165e 1b3a a920 893d
000000d0: 899c 503d 6d7d 7e3d 34b2 ff3c 7fd0 98ba
000000e0: b0eb a53d 3d77 983d 2111 38bd 40f5 f9bc
000000f0: 12f4 123e 7f66 70bd f71d 203e 078d 8fbd
00000100: bb6e c03d 1ab1 8dbc a0c7 a8bd 3019 22bd
00000110: 58fd 913d 76f1 853d 6ea2 07be 5866 b23d
00000120: b4b0 eabd 1501 e1bd da38 6fbd 25c0 d8bd
00000130: 35df b5bc 8fed 04be fe38 bbbc 911f b03c
00000140: fc19 dcbd aa1b 97bd 6ca5 9cbd e1ce ffbd
00000150: 3f74 593d 2d94 02be 4e69 55bd 072f 29bd
00000160: 92b8 c2bd 0b4e edbd 7952 83bd 4c26 8f3d
00000170: 6d40 bdbd 3b76 a93d 8145 d2bd d28b 02be
00000180: dda4 a1bd 07dc 02be 449b 913c 2309 2f3d
00000190: 1836 bfbc 9e84 eabc 64ce adbc 3297 323d
000001a0: 8458 733d 2769 54bd 3847 373d 08b8 d5bd
000001b0: 577e a7b9 9ec1 bcbd d504 a43d 456e 873d
000001c0: 1cf9 323b 024d 66bc 66d8 8ebd d1c8 55bd
000001d0: d6e5 273c ffa5 913c d479 cfbd ef3b 6c3d
000001e0: bf27 f23b 9104 bb3a 5c09 b8bd d66e 433d
000001f0: 0038 0d3d 971b 5fbd ed9c 05be 3c8c f6bd
00000200: 784d 90bd 099e 64bc 1e64 cdbd 66f3 f7bc
00000210: 5af2 5bbd a2cc b4bd 4aa7 14bd 0a80 4c3d
00000220: dde2 373d 2c4d 423b 3641 d8bb 528a ba3d
00000230: 4cdb c43d d6bf bf3d 239e 8abd 24a4 77bd
00000240: 92ba c1bd 6c07 2bbb 8054 f6bd 412d 9bbd
00000250: 7982 c4bd d875 b3bd 412f 903d ac5a 923c
00000260: e29a 6c3d 0a3a a9bd 9fd0 893c e7d5 b63d
00000270: ebbc 403d dfa5 74bd bc6e 7dbd fa7f 3ebd
00000280: a34b fdbc 955f be3d 7978 02bd 0565 5abd
00000290: cab8 693d d6f1 f6bc 8cfe a23c 95b9 fa3d
000002a0: 2997 cdbb 555f a2bc 7b86 083e 9a0b c53c
000002b0: c9df 593d 1cbe 5dbd 31aa af3d e07f be3d
000002c0: f756 833d 2226 7a3d 55d8 9abd 6f23 843c
000002d0: 3d03 e93c e1e5 b2bd 1941 b7bd ab0d f8bd
000002e0: 6d01 bc3c 04a3 88bd 6927 84bc 7472 bebc
000002f0: 44d9 143c b501 cb3c 6ab6 b93d cd25 59bd
00000300: b5c9 bebd 9d26 1f3d b0a4 0b3c 5342 77bd
00000310: 7324 42bd 90ae 9b3d 6e1a 75bd c826 a03c
00000320: 8a95 8a3d 703b 1a3e fce1 cf3b df24 cabd
00000330: 59d3 be3d 3fb2 2e3d 5e58 9dbb 7a9a f03c
00000340: c5b2 623d 8b67 a7bd 2ef0 f7bd 5297 c8bd
00000350: 09a7 f93c f7d3 dfbd 7e29 a2bd 64fd 163d
00000360: 0526 1fbe 7988 afbd e7a0 943d 1e54 5bbc
00000370: d9b0 bf3c 3f2d 203d 83ca fa3c 18d0 d9bd
00000380: 65a8 3bbd 0e04 11be f2bd e9bd e53f eabd
00000390: 1b49 12be 0416 2b3c 340d 81bd 5c01 8abd
000003a0: 53a8 563d a77d d6b9 fc58 c5bc 3a4e 09be
000003b0: 844c 49be 9dca c8bd 1cc6 34be f459 9fbc
000003c0: 62fd bbbd 1557 e4bd 8fd5 84bd 557f 4e3d
000003d0: e998 c9bd fd98 1bbd 5af1 cd3c 766f ba3d
000003e0: 2a51 f23c a8e2 963c fe13 e6bc 1a81 8ebc
000003f0: 814b 08be 7a41 1ebd a980 10be 09d7 aa3d

conv2.conv2d.bias f4 [16]
0.16920732 -0.057411417 0.077449545 0.00042264006 0.10700956 0.11875254 -0.07285181 0.020755148
0.022516523 0.0040766806 -0.021308916 -0.0049679643 0.023960823 0.092193484 0.08054936 0.13606791
00000000: af44 2d3e 3c28 6bbd de9d 9e3d ca95 dd39
00000010: d427 db3d 8834 f33d 5433 95bd b306 aa3c
00000020: 9274 b83c ad95 853b 0990 aebc 4eca a2bb
00000030: 7d49 c43c f0cf bc3d 10f7 a43d 6355 0b3e

in2.weight f4 [16]
0.96090657 0.87829196 0.95347136 0.8518699 0.9724708 0.83785766 0.92218554 0.9038846
0.8950437 0.9320289 0.95435184 0.9246271 0.83355117 0.8322195 0.9724073 0.9587424
00000000: f9fd 753f bed7 603f b316 743f 2514 5a3f
00000010: d9f3 783f d77d 563f 5a14 6c3f fb64 673f
00000020: 9521 653f 7299 6e3f 6750 743f 5db4 6c3f
00000030: 9c63 553f 560c 553f afef 783f 2470 753f

in2.bias f4 [16]
0.024532173 -0.07232329 -0.019334307 -0.15838315 0.044081945 -0.023043374 -0.014137519 -0.079844184
0.119639136 -0.07961496 -0.083821565 -0.09493403 -0.1321679 0.13268512 0.061084956 0.06733278
00000000: b2f7 c83c 3c1e 94bd fb62 9ebc 312f 22be
00000010: 458f 343d 75c5 bcbc 0da1 67bc 5985 a3bd
00000020: 5d05 f53d 2b0d a3bd a4aa abbd c66c c2bd
00000030: 0657 07be 9cde 073e 3834 7a3d c5e5 893d

conv3.conv2d.weight f4 [32, 16, 3, 3]
0.044448998 -0.017371852 -0.11839496 -0.012922034 0.098096415 -0.0006813573 0.054064278 0.052689765
-0.014559152 0.007866999 0.027949048 -0.003093028 -0.05777034 -0.10070341 0.07416101 -0.005222089
-0.12241061 -0.022677435 -0.022024425 -0.098429196 -0.08984139 -0.018656762 -0.07546923 -0.0065896907
0.012016366 -0.013150092 -0.008994319 -0.0747682 0.007766345 0.016416024 -0.024398373 -0.0019951581
0.046850882 0.041812256 -0.07273882 -0.1025712 0.02599041 0.0709785 0.13107824 -0.13717757
0.07359731 0.10947846 -0.1527228 -0.10982517 -0.0077086505 0.07344514 -0.042751126 0.05289082
-0.07755012 0.011944911 -0.02540179 -0.0862955 -0.057282865 0.021351837 -0.07620778 -0.028687522
0.09777968 -0.070097394 0.0010644746 0.03914741 0.01074664 -0.19967061 -0.105104074 0.09810735
-0.028068937 -0.022189869 0.008815205 -0.005572315 -0.025062136 0.082323655 0.10131481 0.023453094
0.07161858 0.023036426 -0.104380414 0.13090277 0.08082627 -0.096429855 0.15007517 0.11129134
0.073523015 -0.06413942 0.012453665 0.039813977 -0.043740034 0.02857806 -0.08656 -0.015469696
-0.004324365 -0.02397113 -0.07392028 0.005004451 0.042276055 -0.042338535 -0.0069189235 0.01703752
-0.093132004 -0.014042366 -0.026155388 0.007745567 -0.015983876 0.046469484 -0.100682765 -0.0018428806
0.0647572 -0.003235147 -0.09638804 -0.07368944 0.09037141 -0.007642133 0.020345522 -0.023041386
0.07924431 0.17277136 -0.021046057 -0.035376143 0.0024872508 -0.08076921 -0.0094487425 -0.08323939
0.092319205 -0.011237849 -0.03752173 -0.04783252 -0.08602126 0.027586872 -0.061537664 0.09657528
0.13125992 -0.123941176 -0.08897822 0.123442836 -0.11713923 -0.086675264 -0.13563614 0.022745851
0.035423152 0.1268622 -0.051329646 -0.061474685 0.043224145 0.04010168 -0.06833219 -0.022027655
-0.05045324 -0.035067216 0.048644885 -0.12132454 0.0722701 -0.02814384 -0.10061171 0.020781664
0.031835403 -0.029113896 -0.035971053 -0.08064864 -0.06662695 0.06451047 -0.028311543 -0.029115375
0.06072037 -0.059558317 0.045188446 -0.048286393 -0.0086082965 0.0010926012 0.11588023 0.12273822
0.08493864 0.118937396 0.12049919 0.011590204 -0.08915637 -0.0053790137 0.08759212 -0.07995017
-0.039087087 -0.05883966 0.06847987 -0.07252282 0.016817058 -0.093087696 -0.10163815 -0.0653092
0.010038214 0.018059622 -0.00626231 -0.018211285 -0.07249291 0.014804182 -0.004883776 0.059413567
-0.041915175 -0.08345102 0.025387982 -0.09597855 -0.0075921896 -0.0051218565 0.031980112 -0.023757843
-0.06151595 0.042800684 0.09967504 -0.047366556 0.08676393 0.036312807 0.047182336 -0.09590305
-0.05515967 0.0346076 -0.12258449 -0.09921042 -0.039620914 -0.034608558 -0.036811754 -0.05862521
0.028508656 0.010019675 0.029595926 -0.0005064618 -0.07025358 0.15982875 -0.017292297 0.029663369
0.016305134 0.09971032 0.09680349 -0.02944458 0.021465832 0.12219879 -0.0252247 0.062834516
0.114873484 -0.0107078 0.019323267 0.043550964 0.030890934 -0.054750673 -0.022702836 -0.050676394
0.05856219 -0.099159636 -0.096588805 0.033410598 -0.03647615 -0.038674098 -0.06877189 -0.05059738
-0.03505191 -0.0953166 -0.047095202 0.062442593 -0.08326546 -0.008497407 -0.011186961 -0.05860608
00000000: 2710 363d 6a4f 8ebc 0f79 f2bd f0b6 53bc
00000010: c6e6 c83d 1d9d 32ba 8172 5d3d 39d1 573d
00000020: 8289 6ebc 96e4 003c 67f5 e43c 66b4 4abb
00000030: 98a0 6cbd 973d cebd bae1 973d 0f1e abbb
00000040: 6ab2 fabd 07c6 b9bc 916c b4bc 3f95 c9bd
00000050: c3fe b7bd 11d6 98bc 9d8f 9abd 55ee d7bb
00000060: 4be0 443c 7c73 57bc e85c 13bc 1220 99bd
00000070: d37c fe3b e67a 863c 19df c7bc 33c1 02bb
00000080: b6e6 3f3d 5443 2b3d 17f8 94bd d910 d2bd
00000090: d7e9 d43c 2d5d 913d 6039 063e 4778 0cbe
000000a0: 30ba 963d 3e36 e03d 5e63 1cbe 05ec e0bd
000000b0: d998 fcbb 686a 963d ce1b 2fbd 0ba4 583d
000000c0: 99d2 9ebd 97b4 433c 6a17 d0bc b2bb b0bd
000000d0: 70a1 6abd 0cea ae3c d312 9cbd 1802 ebbc
000000e0: b640 c83d 398f 8fbd d785 8b3a 0959 203d
000000f0: ad12 303c 7476 4cbe ce40 d7bd 82ec c83d
00000100: d4f0 e5bc 87c7 b5bc a66d 103c f797 b6bb
00000110: 1c4f cdbc 4e99 a83d 247e cf3d b420 c03c
00000120: c3ac 923d e3b6 bc3c 66c5 d5bd 600b 063e
00000130: 3e88 a53d 047d c5bd 4ead 193e b7ec e33d
00000140: 3c93 963d 875b 83bd 750a 4c3c fb13 233d
00000150: c028 33bd 891c ea3c 5f46 b1bd 9c74 7dbc
00000160: 67b3 8dbb 1a5f c4bc 8463 97bd 61fc a33b
00000170: a829 2d3d 2c6b 2dbd 23b8 e2bb 4592 8b3c
00000180: febb bebd f411 66bc d343 d6bc 86ce fd3b
00000190: 9ef0 82bc c956 3e3d c432 cebd d08c f1ba
000001a0: 6c9f 843d c304 54bb 1867 c5bd 7dea 96bd
000001b0: a514 b93d dc6a fabb a7ab a63c 4ac1 bcbc
000001c0: d74a a23d faea 303e c868 acbc 93e6 10bd
000001d0: 2501 233b 546a a5bd e6ce 1abc 6a79 aabd
000001e0: da11 bd3d f41e 38bc 63b0 19bd 08ec 43bd
000001f0: ea2b b0bd ddfd e13c eb0e 7cbd 43c9 c53d
00000200: 0069 063e dfd4 fdbd 373a b6bd 99cf fc3d
00000210: b1e6 efbd cd82 b1bd 33e4 0abe 8255 ba3c
00000220: de17 113d 2ae8 013e 093f 52bd e1cc 7bbd
00000230: cd0b 313d a941 243d bff1 8bbd 5773 b4bc
00000240: 0ea8 4ebd a4a2 0fbd dc3f 473d 0079 f8bd
00000250: 5902 943d e98d e6bc 830d cebd 4f3e aa3c
00000260: d765 023d 4480 eebc 6256 13bd 1d2b a5bd
00000270: b673 88bd 111e 843d 9ced e7bc 5e83 eebc
00000280: ecb5 783d 6cf3 73bd 8517 393d f4c7 45bd
00000290: d009 0dbc 9d35 8f3a 9d52 ed3d 2d5e fb3d
000002a0: 4ff4 ad3d 7395 f33d 48c8 f63d d7e4 3d3c
000002b0: 9d97 b6bd 7042 b0bb 7f63 b33d eabc a3bd
000002c0: c819 20bd db01 71bd 2d3f 8c3d d886 94bd
000002d0: edc3 893c c3a4 bebd aa27 d0bd d4c0 85bd
000002e0: 5277 243c c6f1 933c 1034 cdbb d52f 95bc
000002f0: 2a77 94bd 3d8d 723c 1508 a0bb a45b 733d
00000300: 3faf 2bbd 5ee8 aabd 75fa cf3c 6790 c4bd
00000310: e7c7 f8bb 3fd5 a7bb 94fd 023d cf9f c2bc
00000320: 26f8 7bbd c54f 2f3d 6d22 cc3d 6f03 42bd
00000330: 4ab1 b13d bdbc 143d 4442 413d d168 c4bd
00000340: 1bef 61bd b3c0 0d3d 940d fbbd d52e cbbd
00000350: 8a49 22bd b4c1 0dbd ecc7 16bd fd20 70bd
00000360: fc8a e93c 9029 243c 2873 f23c 13c4 04ba
00000370: 1ce1 8fbd 26aa 233e 93a8 8dbc 9800 f33c
00000380: 5892 853c ed34 cc3d e840 c63d c335 f1bc
00000390: 1dd9 af3c 5c43 fa3d 08a4 cebc 62af 803d
000003a0: ca42 eb3d c56f 2fbc d44b 9e3c 7f62 323d
000003b0: fc0e fd3c 3e42 60bd 4cfb b9bc 0d92 4fbd
000003c0: e8de 6f3d 3514 cbbd 5ad0 c5bd 8dd9 083d
000003d0: 0468 15bd bb68 1ebd 47d8 8cbd 333f 4fbd
000003e0: 9792 0fbd 5935 c3bd e6e6 40bd cec3 7f3d
000003f0: 1587 aabd b538 0bbc 8449 37bc ee0c 70bd

conv3.conv2d.bias f4 [32]
-0.051582918 0.051237978 -0.016712211 0.05964915 -0.08174098 -0.16021377 -0.015496341 -0.10069638
0.1166283 0.1513668 0.027508432 -0.07744981 -0.020812953 0.053496234 0.04119789 0.063819766
-0.13614093 0.033309072 0.027091254 -0.020858739 -0.0060814754 0.02829111 -0.0049120774 -0.07584982
0.00956699 0.11400763 -0.10862767 -0.04348527 -0.03488359 0.053585645 0.0033713304 -0.028027628
00000000: 9c48 53bd eade 513d 0ce8 88bc ab52 743d
00000010: d167 a7bd 140f 24be 5de4 7dbc e739 cebd
00000020: d1da ee3d e6ff 1a3e 5d59 e13c 029e 9ebd
00000030: ed7f aabc de1e 5b3d 1ebf 283d f0b3 823d
00000040: 8768 0bbe 186f 083d 7aee dd3c f2df aabc
00000050: 1d47 c7bb c2c2 e73c 7ef5 a0bb 2757 9bbd
00000060: ddbe 1c3c d57c e93d 2f78 debd 9c1d 32bd
00000070: 18e2 0ebd 9f7c 5b3d 8af1 5c3b 329a e5bc

in3.weight f4 [32]
0.87481207 0.86309206 0.8307975 0.79970396 0.8378614 0.86331016 0.97662467 0.83703595
0.7916018 0.87866014 0.86089754 0.857048 0.85776436 0.83922035 0.84430015 0.73225135
0.8739437 0.936108 0.9655288 0.83611286 0.8416299 0.8900096 0.85416013 0.8859925
0.8361598 0.88759506 0.8160714 0.77015615 0.85290545 0.944951 0.8759694 0.81776106
00000000: aff3 5f3f 9af3 5c3f 25af 543f 66b9 4c3f
00000010: 167e 563f e501 5d3f 1304 7a3f fd47 563f
00000020: 6aa6 4a3f dfef 603f c863 5c3f 7f67 5b3f
00000030: 7296 5b3f 25d7 563f 0e24 583f d374 3b3f
00000040: c6ba 5f3f c6a4 6f3f e52c 773f 7e0b 563f
00000050: 0f75 573f abd7 633f 3daa 5a3f 68d0 623f
00000060: 920e 563f 6e39 633f 0eea 503f f428 453f
00000070: 0358 5a3f 4fe8 713f 883f 603f ca58 513f

in3.bias f4 [32]
-0.10587496 -0.14139453 -0.12199375 -0.11890643 -0.09975777 -0.035265565 -0.06047782 -0.074986055
-0.04990127 -0.09595899 -0.09744754 -0.06898965 -0.04813532 -0.0486416 -0.020411735 -0.12372843
-0.2338642 -0.09072222 -0.03145123 -0.077230684 -0.049331356 -0.015727328 -0.1039298 0.0054707457
-0.07188535 -0.065616906 -0.11563101 -0.17622943 -0.09900619 -0.07777065 -0.09749752 -0.13227418
00000000: f9d4 d8bd bac9 10be dcd7 f9bd 3785 f3bd
00000010: cd4d ccbd a072 10bd 97b7 77bd 4a92 99bd
00000020: 4665 4cbd 2686 c4bd 9392 c7bd 724a 8dbd
00000030: 8b29 45bd 6a3c 47bd 8336 a7bc 5565 fdbd
00000040: 197a 6fbe 92cc b9bd 01d3 00bd 1f2b 9ebd
00000050: ad0f 4abd 99d6 80bc 26d9 d4bd f143 b33b
00000060: a038 93bd 2862 86bd f3cf ecbd 7d75 34be
00000070: c2c3 cabd 3846 9fbd c8ac c7bd e272 07be

resnets.0.conv1.conv2d.weight f4 [32, 32, 3, 3]
-0.05002174 0.050675925 0.009867661 -0.04245544 -0.048301585 -0.0025632335 -0.045146417 -0.07891547
-0.038207732 -0.07241984 -0.0073248907 -0.028862825 0.029423472 -0.0011802564 -0.0254308 -0.090416275
-0.005640301 0.027075358 -0.0183059 -0.052648805 -0.093852855 -0.020097625 -0.05878179 -0.03612386
-0.01945051 -0.06496824 -0.12772962 -0.045509823 -0.059420414 -0.04787792 0.0050013284 -0.040563647
0.042764273 -0.023521936 -0.0095673455 -0.057253506 0.038089406 0.017742516 -0.057622414 -0.020296475
0.016702402 -0.0461161 -0.017192373 -0.045344654 -0.07754789 0.0057841125 -0.057800923 -0.091073364
-0.010332314 -0.030726861 -0.065586716 -0.021814587 -0.004568148 0.02939166 0.106275626 0.100788295
0.03855967 0.019031752 -0.012339051 0.039577723 0.076252356 0.005788203 0.011154728 0.058502845
-0.058703166 -0.023775995 0.0002792772 -0.010207064 -0.032200165 -0.06958123 -0.05514618 -0.08612643
0.024166415 0.048026487 0.05944768 -0.0034138802 -0.0064831297 0.027558176 -0.046125185 0.004358018
0.06833059 0.0812735 0.052661784 0.0050784373 0.08583423 -0.04657369 0.0034826787 0.013242424
-0.03437709 0.065168515 -0.014933276 0.045174036 -0.029157097 -0.018822577 -0.0468779 0.055847403
-0.006553068 0.035485014 0.09101575 0.032496266 -0.029215189 0.017833844 -0.07585076 0.024891572
0.047790207 0.08661865 0.068425536 0.12164576 0.094702855 0.014321269 0.024160303 -0.034142464
-0.0405499 0.021839146 0.07975857 -0.01824901 -0.011688477 0.016214406 0.026073655 -0.005262132
-0.060421303 -0.025634004 -0.07441469 -0.06648348 -0.0804025 -0.12506258 -0.0023884287 0.024557184
-5.588283e-05 -0.062447406 0.011480328 -0.07691648 -0.012485329 0.012269389 -0.019323472 -0.0036586989
-0.008588385 0.025440112 -0.07026318 -0.026956007 -0.044901226 -0.096747294 -0.1144132 -0.10546339
0.050397273 -0.014773816 0.124255635 0.029094249 -0.059555 0.024028765 -0.0172909 -0.006888997
-0.06816976 0.0040421886 -0.005147341 -0.022777043 -0.024830328 -0.07624084 0.0041653877 -0.060135502
-0.040454656 -0.0678985 0.034665782 0.0431498 0.027381334 -0.03816299 0.005063944 0.0045132553
0.022025831 -0.056759935 -0.08708817 0.03931028 0.018339505 -0.03756824 -0.031301606 0.03201742
-0.0114808185 0.032961786 0.016296236 -0.010136507 0.04912603 -0.0581521 0.010145914 -0.018561574
-0.061505426 0.024184262 -0.029843174 -0.026717082 -0.08204075 0.05124557 0.01312155 -0.039419696
0.0007238423 0.061308 0.040006436 -0.0050308267 0.039124515 0.08960843 0.08693058 0.032303974
0.08668626 0.058637172 -0.008692983 -0.004429918 -0.009308522 -0.024803326 -0.0024531798 -0.07258662
0.008622264 0.04806128 0.028151134 -0.006302571 -0.04208167 0.012696014 -0.054756727 -0.07169564
0.026565164 -0.04007317 0.04511618 0.059883367 -0.014723904 0.025991654 -0.016320994 0.014252674
0.11897877 0.009419966 -0.025687926 -0.0075859516 -0.0060741166 0.06353635 -0.020368401 -0.015047664
0.06213647 0.072435714 -0.02957342 -0.0494534 -0.1360894 -0.11394545 -0.059884906 -0.0391503
-0.12259701 -0.07209542 -0.019922502 0.022940978 -0.025351144 -0.014519448 -0.005698542 0.03863136
0.017347507 -0.075225875 -0.06481384 0.009564929 -0.06131595 -0.0044791815 -0.0828244 -0.109099925
00000000: 99e3 4cbd 8f91 4f3d f8ab 213c c1e5 2dbd
00000010: e2d7 45bd ecfb 27bb 73eb 38bd 6f9e a1bd
00000020: b67f 1cbd da50 94bd a305 f0bb bb71 ecbc
00000030: 7e09 f13c d5b2 9aba 4154 d0bc 2b2c b9bd
00000040: 46d2 b8bb 24cd dd3c 41f6 95bc 46a6 57bd
00000050: ed35 c0bd c6a3 a4bc 2dc5 70bd 9df6 13bd
00000060: ad56 9fbc 120e 85bd 8ecb 02be 8268 3abd
00000070: d262 73bd a31b 44bd 2fe2 a33b 1126 26bd
00000080: 9729 2f3d 13b1 c0bc 5bc0 1cbc a782 6abd
00000090: a303 1c3d c158 913c 7b05 6cbd cb44 a6bc
000000a0: 7ad3 883c 3ce4 3cbd 05d7 8cbc 51bb 39bd
000000b0: 6ed1 9ebd a788 bd3b a9c0 6cbd ac84 babd
000000c0: de48 29bc e6b6 fbbc 5452 86bd 81b4 b2bc
000000d0: 67b0 95bb c7c6 f03c 09a7 d93d 186a ce3d
000000e0: bff0 1d3d 7ae8 9b3c bb29 4abc 401c 223d
000000f0: 322a 9c3d f7aa bd3b 52c2 363c aea0 6f3d
00000100: bb72 70bd e0c5 c2bc f46b 9239 883b 27bc
00000110: 52e4 03bd 9b80 8ebd f6e0 61bd 0e63 b0bd
00000120: a5f8 c53c 6cb7 443d 697f 733d 68bb 5fbb
00000130: 6f70 d4bb afc1 e13c c3ed 3cbd b4cd 8e3b
00000140: e9f0 8b3d b972 a63d e2b3 573d 0569 a63b
00000150: dbc9 af3d 0ec4 3ebd a73d 643b c0f6 583c
00000160: fece 0cbd 1277 853d b3aa 74bc 6908 393d
00000170: ddda eebc ce31 9abc 0a03 40bd 3fc0 643d
00000180: 1ebb d6bb bc58 113d 7766 ba3d ce1a 053d
00000190: b154 efbc 4818 923c a557 9bbd 69e9 cb3c
000001a0: aabf 433d 1e65 b13d b022 8c3d 6a21 f93d
000001b0: 92f3 c13d c1a3 6a3c d4eb c53c f8d8 0bbd
000001c0: a717 26bd 02e8 b23c 7658 a33d f37e 95bc
000001d0: 0781 3fbc 13d4 843c 6b98 d53c f66d acbb
000001e0: 547c 77bd 67fe d1bc bb66 98bd 7e28 88bd
000001f0: 11aa a4bd 6810 00be 2f87 1cbb 262c c93c
00000200: bb63 6ab8 dac8 7fbd fc17 3c3c 6386 9dbd
00000210: 448f 4cbc 8c05 493c 424c 9ebc c8c6 6fbb
00000220: 4cb6 0cbc c867 d03c 24e6 8fbd d8d2 dcbc
00000230: 59ea 37bd 7223 c6bd 7851 eabd 31fd d7bd
00000240: 5f6d 4e3d e00d 72bc bd79 fe3d 1057 ee3c
00000250: f2ef 73bd f9d7 c43c a5a5 8dbc 18bd e1bb
00000260: 969c 8bbd 5674 843b 07ab a8bb ec96 babc
00000270: f968 cbbc 2824 9cbd ce7d 883b a550 76bd
00000280: c8b3 25bd 5e0e 8bbd b5fd 0d3d d8bd 303d
00000290: d24e e03c cc50 1cbd 71ef a53b eee3 933b
000002a0: 846f b43c 1b7d 68bd 485b b2bd d103 213d
000002b0: bb3c 963c 28e1 19bd 1d36 00bd b324 033d
000002c0: 0b1a 3cbc f002 073d af7f 853c 9813 26bc
000002d0: 6038 493d e530 6ebd 0c3b 263c 710e 98bc
000002e0: 1ded 7bbd 131e c63c ac79 f4bc c8dd dabc
000002f0: fb04 a8bd e0e6 513d c5fb 563c 8c76 21bd
00000300: 3cc0 3d3a 191e 7b3d cadd 233d a2d9 a4bb
00000310: 0741 203d a084 b73d a908 b23d 2c51 043d
00000320: 9188 b13d 882d 703d 036d 0ebc d828 91bb
00000330: c582 18bc 5830 cbbc 87c5 20bb 4ba8 94bd
00000340: 6544 0d3c e8db 443d 359d e63c cc85 cebb
00000350: d45d 2cbd f102 503c 9748 60bd 2ad5 92bd
00000360: 309f d93c c423 24bd becb 383d 4348 753d
00000370: 883c 71bc 73ec d43c 9bb3 85bc 0c84 693c
00000380: 24ab f33d 3356 1a3c 7c6f d2bc 9393 f8bb
00000390: 6209 c7bb 591f 823d a2db a6bc 7a8a 76bc
000003a0: d082 7e3d 2d59 943d f543 f2bc a68f 4abd
000003b0: 055b 0bbe 3b5c e9bd e049 75bd 115c 20bd
000003c0: 2414 fbbd c3a6 93bd 8434 a3bc b8ee bb3c
000003d0: 34ad cfbc fbe2 6dbc d6ba babb eb3b 1e3d
000003e0: 5c1c 8e3c 0610 9abd 1ebd 84bd 38b6 1c3c
000003f0: 6f26 7bbd 19c6 92bb d79f a9bd c86f dfbd

resnets.0.conv1.conv2d.bias f4 [32]
0.021697713 0.060802717 -0.065555476 0.05363755 -0.07927465 0.07274588 -0.028647888 -0.0075364755
0.022039358 0.053225186 -0.10441688 -0.062395137 -0.020578863 -0.034151178 0.0071212603 0.118343174
-0.023963707 -0.030409157 -0.040916514 0.072249465 0.0040455265 0.15002741 0.016637191 0.109114684
0.0796629 -0.020757861 0.06482897 0.037327167 0.0613932 -0.057802226 -0.003221701 -0.031298175
00000000: 67bf b13c 450c 793d f341 86bd 0cb3 5b3d
00000010: bf5a a2bd cbfb 943d faae eabc 8af4 f6bb
00000020: e28b b43c a702 5a3d 84d8 d5bd 0b92 7fbd
00000030: 0195 a8bc 1be2 0bbd 7659 e93b e85d f23d
00000040: 894f c4bc a01c f9bc 1398 27bd 87f7 933d
00000050: 5690 843b c9a0 193e b84a 883c 8577 df3d
00000060: 4d26 a33d 640c aabc 0dc5 843d 5fe4 183d
00000070: 7077 7b3d 07c2 6cbd 2c23 53bb 8432 00bd

resnets.0.in1.weight f4 [32]
1.1442306 1.0132283 0.95986277 1.0144953 1.0680736 0.98392296 1.0033094 0.98096126
0.97612894 1.0031123 1.0059546 0.89049464 0.97123855 0.9981826 0.8929073 1.0672092
0.9405235 1.0180713 0.97249335 0.9802661 0.9505805 1.0657195 1.0637473 0.93628156
0.96117854 0.97497165 1.0020162 0.9279993 0.99470526 0.9509603 1.0882443 0.9751443
00000000: 2676 923f 77b1 813f 91b9 753f fbda 813f
00000010: a3b6 883f 60e2 7b3f 716c 803f 4720 7b3f
00000020: 96e3 793f fc65 803f 1fc3 803f 75f7 633f
00000030: 17a3 783f e588 7f3f 9395 643f 509a 883f
00000040: 26c6 703f 2950 823f 53f5 783f b8f2 7a3f
00000050: 3e59 733f 7f69 883f df28 883f 26b0 6f3f
00000060: cc0f 763f be97 793f 1142 803f 5d91 6d3f
00000070: 01a5 7e3f 2272 733f 974b 8b3f 0fa3 793f

resnets.0.in1.bias f4 [32]
-0.020945882 -0.038480368 -0.097705424 -0.09841353 -0.24875072 -0.1207442 -0.08555375 -0.12211328
-0.083968535 0.048814945 -0.08708784 -0.22440675 -0.0057898713 -0.00838608 -0.1233613 -0.020368341
-0.003409719 0.08567398 -0.13940921 -0.021428732 -0.07078589 -0.24155822 0.052906107 -0.044626545
-0.1254859 0.032214977 -0.015204798 0.07146376 -0.080096684 -0.069962144 -0.18876942 0.014622967
00000000: b396 abbc 979d 1dbd c819 c8bd 088d c9bd
00000010: 82b8 7ebe bc48 f7bd ce36 afbd 8716 fabd
00000020: b2f7 abbd 2ef2 473d 1c5b b2bd e2ca 65be
00000030: f6b8 bdbb c565 09bc d9a4 fcbd 82db a6bc
00000040: 9875 5fbb d775 af3d 4ac1 0ebe 4f8b afbc
00000050: 31f8 90bd 0a5b 77be 13b4 583d 53ca 36bd
00000060: 607f 00be daf3 033d 8c1d 79bc 985b 923d
00000070: bb09 a4bd 5048 8fbd c54c 41be 2b95 6f3c

resnets.0.conv2.conv2d.weight f4 [32, 32, 3, 3]
-0.01515681 -0.012241688 0.07615873 0.07247419 0.10341304 0.028113334 0.011992826 -0.021946734
-0.026687248 0.0890049 0.031034222 -0.04233854 -0.03090845 -0.062333003 -0.071247265 -0.030229274
0.012851511 -0.08523329 0.033115573 0.033591952 0.012319024 0.07824731 0.018084552 -0.016233599
0.023049084 0.0015717007 -0.018672282 0.10086454 0.081927225 0.059765946 -0.031716257 0.0675383
0.1146359 -0.025394328 0.014513777 0.038209938 0.18253711 0.097954735 0.09537179 0.028248992
0.09717017 0.1286502 -0.033756413 -0.012804223 0.13001622 0.025310004 0.03790851 -0.025523344
0.040789116 -0.022310903 -0.025568651 -0.009470932 0.03940811 -0.021096908 0.07490359 0.006546832
0.020538371 0.103518955 0.02448083 0.035966236 -0.02096967 0.059882022 0.055000514 0.014042575
0.039316498 0.08257678 -0.0096753705 -0.009015722 0.022994168 -0.017228128 -0.03588799 0.0008705027
0.035077278 -0.0742662 -0.015944725 0.05513377 0.01860283 -0.024664778 -0.029963443 -0.0108531965
0.021549739 -0.092317685 -0.07798386 -0.06645158 -0.087783754 -0.06780795 -0.08702102 -0.055755243
-0.051410086 -0.053942516 0.0698104 0.07040147 -0.009987111 0.038517572 0.05878877 -0.0013097471
0.045083575 0.051683135 0.11273664 -0.0255239 0.035617284 -0.02856939 -0.019583976 -0.05615789
-0.004038724 0.009804637 -0.012712483 0.010539776 -0.01976852 0.08032603 0.09004891 0.074623235
-0.017758189 0.009829342 0.010545545 -0.0033860134 0.00094012724 0.009609985 0.04880978 0.06464515
-0.015267014 -0.087750934 -0.03799978 -0.030014014 -0.06481272 -0.0629284 0.015374522 -0.008849029
0.0098396875 0.047932647 0.045271337 0.0001291463 0.02425947 0.03587161 0.046093617 0.016728232
-0.054071385 -0.029624306 0.027061274 -0.010246861 -0.038306437 -0.027266933 -0.07158266 0.011132466
0.05762061 0.03536823 0.025700323 0.09974063 -0.009232425 -0.006071372 0.034866184 -0.002720954
-0.10424182 -0.018908963 -0.036933437 0.04969677 -0.04549087 -0.012925819 0.03589874 -0.0052732998
0.030527543 0.04333942 0.08673194 -0.027186649 0.03943491 -0.0134535 -0.021115389 0.026970008
0.044556115 -0.026856398 0.029814273 0.0130352145 0.033241298 -0.03929491 -0.014120715 0.033988398
0.039231494 -0.024340725 -0.054241523 -0.029008044 0.007563015 0.0567673 0.019341625 0.11294191
0.04533251 0.08614868 0.033062693 0.09943268 0.009688256 -0.07146536 0.0011530612 -0.012035432
0.062411252 0.017823959 -0.02737084 -0.03720615 0.0474196 0.020670416 0.04094344 8.2375554e-05
0.03793089 0.06102186 -0.04221858 0.091625206 -0.008510556 0.03377474 0.020258041 -0.082406744
-0.07871132 0.008562234 -0.07341727 -0.015119891 0.0051527945 -0.057258483 -0.024912924 -0.014999413
0.02938784 0.010933397 -0.013269797 -0.041323256 -0.0038695834 -0.061113708 -0.027651327 0.012060996
0.052340254 -0.026167933 0.02432418 0.0033546968 -0.020332962 0.02773698 -0.010780076 -0.0024094079
0.0410049 -0.036494702 0.040413477 0.039690875 0.05770476 0.008144288 0.04997159 0.093070894
-0.04655368 -0.022239504 0.13129161 -0.016696936 -0.0021548541 0.052523635 -0.058254052 -0.020742686
-0.017073803 -0.054951094 -0.044076193 -0.004713513 0.04266629 0.05748512 0.042075843 0.018570723
00000000: 4554 78bc 5c91 48bc 1cf9 9b3d 596d 943d
00000010: 37ca d33d ef4d e63c 8f7d 443c a3c9 b3bc
00000020: 379f dabc 3348 b63d 7b3b fe3c 2d6b 2dbd
00000030: b833 fdbc e450 7fbd 16ea 91bd 62a3 f7bc
00000040: 258f 523c cb8e aebd 32a4 073d b797 093d
00000050: bbd5 493c 2040 a03d 0e26 943c 53fc 84bc
00000060: 6fd1 bc3c 8601 ce3a 9df6 98bc 1192 ce3d
00000070: 76c9 a73d 23cd 743d e8e8 01bd 8551 8a3d
00000080: 3ac6 ea3d c407 d0bc 31cb 6d3c 0682 1c3d
00000090: 02eb 3a3e 7e9c c83d 4952 c33d 6e6a e73c
000000a0: 2701 c73d e1bc 033e 2a44 0abd cec8 51bc
000000b0: f922 053e ed56 cf3c f445 1b3d 5516 d1bc
000000c0: 7d12 273d 5bc5 b6bc 5975 d1bc f82b 1bbc
000000d0: 666a 213d 6cd3 acbc 0e67 993d cf86 d63b
000000e0: 1640 a83c bf01 d43d 068c c83c 5551 133d
000000f0: 96c8 abbc da46 753d 3848 613d d412 663c
00000100: 560a 213d 041e a93d 7285 1ebc aeb6 13bc
00000110: 445e bc3c 0122 8dbc 49ff 12bd 7332 643a
00000120: 31ad 0f3d e118 98bd 839e 82bc f3d3 613d
00000130: f664 983c ca0d cabc e575 f5bc 9bd1 31bc
00000140: 1489 b03c 0e11 bdbd 01b6 9fbd c417 88bd
00000150: f8c7 b3bd e5de 8abd 1438 b2bd 9c5f 64bd
00000160: 6293 52bd d4f2 5cbd c1f8 8e3d a52e 903d
00000170: fba0 23bc 9ac4 1d3d 7ecc 703d d2ab abba
00000180: 8ea9 383d b2b1 533d 78e2 e63d 7f17 d1bc
00000190: 6ee3 113d 5a0a eabc 936e a0bc d105 66bd
000001a0: 4657 84bb a1a3 203c 0548 50bc 06af 2c3c
000001b0: 97f1 a1bc f981 a43d 906b b83d 11d4 983d
000001c0: 9f79 91bc 400b 213c 39c7 2c3c e1e7 5dbb
000001d0: df72 763a 3373 1d3c c4ec 473d ad64 843d
000001e0: 7f22 7abc c3b6 b3bd a8a5 1bbd f3df f5bc
000001f0: 88bc 84bd 9be0 80bd 6be5 7b3c 85fb 10bc
00000200: a436 213c 0655 443d 706e 393d 726b 0739
00000210: ccbb c63c 1cee 123d a9cc 3c3d a509 893c
00000220: f579 5dbd acae f2bc 9baf dd3c 73e2 27bc
00000230: 36e7 1cbd e75e dfbc ee99 92bd f264 363c
00000240: 9703 6c3d 47de 103d 7c89 d23c d144 cc3d
00000250: 9943 17bc 5cf2 c6bb d8cf 0e3d 0852 32bb
00000260: bc7c d5bd f8e6 9abc 8447 17bd d78e 4b3d
00000270: a254 3abd d0c6 53bc 8f0a 133d a5cb acbb
00000280: e614 fa3c ad84 313d 84a0 b13d 89b6 debc
00000290: 8086 213d 126c 5cbc 2efa acbc 35f0 dc3c
000002a0: 7980 363d f301 dcbc 103d f43c a791 553c
000002b0: 0728 083d b3f3 20bd 925a 67bc 6b37 0b3d
000002c0: 34b1 203d 3366 c7bc 5c2c 5ebd 47a2 edbc
000002d0: 2bd3 f73b d484 683d 5472 9e3c 174e e73d
000002e0: 95ae 393d b86e b03d bf6c 073d 5ca3 cb3d
000002f0: 7ebb 1e3c 6e5c 92bd 5022 973a 4330 45bc
00000300: f1a2 7f3d 8d03 923c d038 e0bc 7a65 18bd
00000310: 0e3b 423d 0155 a93c 4fb4 273d 0ac1 ac38
00000320: 6c5d 1b3d 0ff2 793d 64ed 2cbd ffa5 bb3d
00000330: dc6f 0bbc 6257 0a3d 31f4 a53c dec4 a8bd
00000340: 6733 a1bd 9d48 0c3c cb5b 96bd 6bb9 77bc
00000350: c6d8 a83b df87 6abd 3016 ccbc 19c0 75bc
00000360: c4be f03c fe21 333c 9069 59bc 9342 29bd
00000370: d698 7dbb 5e52 7abd 0985 e2bc 7c9b 453c
00000380: bc62 563d 225e d6bc 8143 c73c 79da 5b3b
00000390: 5091 a6bc aa38 e33c ea9e 30bc 28e7 1dbb
000003a0: c1f4 273d 787b 15bd 9a88 253d e692 223d
000003b0: d45b 6c3d 9f6f 053c 03af 4c3d f49b be3d
000003c0: 12af 3ebd 9f2f b6bc 4f71 063e 03c8 88bc
000003d0: 7438 0dbb 0623 573d cd9b 6ebd 91ec a9bc
000003e0: 5cde 8bbc 6614 61bd 3d89 34bd d073 9abb
000003f0: d9c2 2e3d 8475 6b3d b857 2c3d a121 983c

resnets.0.conv2.conv2d.bias f4 [32]
0.03315871 -0.008442104 0.010822357 -0.023850935 0.049493335 -0.025001045 0.02445003 -0.07935442
-0.047762442 0.024095662 -0.015993921 -0.10194469 -0.08156643 0.00010261903 0.0055140015 0.06352976
-0.090695724 -0.018492352 -0.010612229 -0.008739235 0.017780159 -0.00226989 -0.036371812 0.024282787
0.0015167196 -0.042328097 -0.0017938104 -0.022075549 0.10227385 -0.034339413 -0.061309602 0.018257195
00000000: 6dd1 073d c050 0abc 4150 313c 0963 c3bc
00000010: 86b9 4a3d fece ccbc 6e4b c83c 9284 a2bd
00000020: 8da2 43bd 4464 c53c af05 83bc 61c8 d0bd
00000030: 4d0c a7bd 2c35 d738 ccae b43b e41b 823d
00000040: aebe b9bd 467d 97bc eade 2dbc 022f 0fbc
00000050: b2a7 913c 6fc2 14bb 9cfa 14bd b2ec c63c
00000060: aacc c63a 3a60 2dbd 4a1e ebba c8d7 b4bc
00000070: f474 d13d 7ca7 0cbd c71f 7bbd 1d90 953c

resnets.0.in2.weight f4 [32]
0.6696189 0.6758846 0.8688412 0.9298753 0.9434779 0.83488286 0.81937623 0.6254378
0.81653106 0.8266862 0.8397649 0.79208815 0.86558247 0.7841022 0.8175568 0.844418
0.809551 0.8508312 0.83351034 0.82524955 0.8231369 0.89891505 0.8447683 0.9091886
0.9215549 0.8315469 0.77843934 0.8885065 0.9090283 0.95496255 0.80722487 0.8599322
00000000: 256c 2b3f c606 2d3f 606c 5e3f 4f0c 6e3f
00000010: c587 713f e2ba 553f a4c2 513f b11c 203f
00000020: 2e08 513f b5a1 533f d5fa 563f 4ac6 4a3f
00000030: d096 5d3f ecba 483f 674b 513f c72b 583f
00000040: bc3e 4f3f 13d0 593f ef60 553f 8e43 533f
00000050: 1ab9 523f 4c1f 663f bc42 583f 96c0 683f
00000060: 06eb 6b3f 42e0 543f cd47 473f 2975 633f
00000070: 14b6 683f 6d78 743f 4aa6 4e3f 8424 5c3f

resnets.0.in2.bias f4 [32]
0.055548433 -0.080149844 -0.01134318 -0.0061082016 0.0434025 0.020680308 -0.023127101 -0.071277894
0.03472595 0.061686885 -0.039603923 -0.101123914 -0.047235135 -0.028999988 -0.002762961 0.057962596
-0.026393233 -0.02578886 0.000660443 0.018112734 0.005358661 -0.011185358 -0.0072118584 0.021501953
0.07308599 -0.07841709 -0.04307354 0.023623591 0.008904646 -0.033081558 -0.04944143 -0.0021233167
00000000: c186 633d 9a25 a4bd bfd8 39bc 4f27 c8bb
00000010: d2c6 313d c069 a93c 0c75 bdbc 25fa 91bd
00000020: cc3c 0e3d 63ab 7c3d b937 22bd 0e1a cfbd
00000030: a179 41bd 6291 edbc cb12 35bb 306a 6d3d
00000040: 9f36 d8bc 2943 d3bc 9421 2d3a 2861 943c
00000050: b597 af3b cb42 37bc 7451 ecbb dd24 b03c
00000060: 1cae 953d 2499 a0bd e16d 30bd 4386 c13c
00000070: cbe4 113c 8780 07bd 1983 4abd 5827 0bbb

resnets.1.conv1.conv2d.weight f4 [32, 32, 3, 3]
-0.011682692 -0.014795368 -0.08888109 0.0006679259 -0.06366866 -0.0481343 -0.086878575 -0.073835224
-0.06905857 -0.04693332 -0.045112096 0.010972429 0.021028757 -0.049280923 -0.004272504 0.04304079
-0.11048711 0.037058767 0.009329116 0.025893336 -0.074480325 0.060710892 0.06666454 0.019478839
-0.026387654 -0.017095763 -0.058049142 0.0041446793 -0.03746838 -0.04968367 -0.10136746 0.020937828
-0.08231805 -0.11998619 -0.03005349 -0.02603235 -0.06379162 0.029556965 0.08136288 0.06485155
0.015019685 0.052890483 -0.051817264 -0.041926216 0.062542036 -0.0005588766 -0.031883232 0.0013763417
-0.016493484 -0.023534575 -0.023598297 0.03836405 0.039219208 0.013650996 -0.13082632 -0.07717524
-0.0033629518 -0.07399026 -0.07153261 0.005495555 0.0050594686 0.026968304 -0.043636005 -0.024639407
0.042472776 -0.06533892 -0.15387754 -0.053039037 -0.07691147 0.004605494 0.05480297 0.03985507
0.09690931 0.103174955 -0.06711829 -0.006572133 0.017179118 -0.096371464 -0.040196408 0.023508832
-0.07651659 -0.01954257 -0.092729315 -0.080188945 0.045886084 0.08363743 -0.08360422 0.039409146
0.015347676 -0.10500874 0.05469593 -0.048751123 -0.06536408 0.03864559 -0.04065788 -0.08196124
0.0044175526 -0.067216046 -0.12704127 0.022828022 0.06832342 0.14835197 0.076297864 0.035221376
0.13169786 -0.053185433 -0.016690305 0.10797683 -0.07951478 -0.012944511 0.034590475 -0.09897936
-0.07009673 0.10813748 0.038673684 0.05051827 0.046714712 0.032014534 -0.057495277 0.06802076
0.038202047 0.013833909 0.014292672 0.007071469 -0.065781526 0.0090453075 0.059838165 -0.012515366
-0.048279148 0.004402358 0.11794268 0.026261156 0.022015933 -0.018288204 -0.044745736 -0.025136644
-0.041977897 -0.0377819 0.049969837 -0.045334253 -0.07934964 -0.0445705 -0.11662159 -0.0379743
-0.034737498 0.0035706672 -0.010310559 -0.05688612 -0.045945864 -0.02130546 -0.091179006 0.034319893
0.038647715 0.12243174 0.07919304 0.084881745 0.044726674 0.04323685 0.03239609 -0.11826133
-0.019467488 0.02629723 -0.0033487966 -0.039556883 -0.07517881 0.018408222 0.10354248 0.015095034
0.06129874 0.10580564 -0.0735007 -0.023617562 -0.053811852 0.024784887 0.022411605 0.049173303
-0.018017972 -0.07901766 -0.013026288 0.009264613 0.002889811 0.031211741 0.0022651504 0.07339827
-0.08190577 -0.021616412 -0.10614381 0.018701822 0.04848079 -0.014281496 0.09608337 -0.00028174894
0.020094965 0.07160993 0.019720048 0.075588755 0.05869151 -0.019206021 -0.04945907 -0.047271263
-0.028663438 -0.035658166 -0.024684805 -0.020842072 -0.025191862 -0.031466622 0.06508918 0.044678878
-0.05237015 0.023098148 -0.041480254 0.008046026 -0.07415725 0.09595283 0.11326662 -0.097994894
-0.14658928 -0.0319545 -0.028750194 -0.0017922428 0.03031779 0.032791946 0.032347172 -0.024711039
0.09972928 0.050641723 -0.023312727 0.036034036 0.10102779 0.025653355 0.019441612 -0.012202682
-0.042825375 -0.012943681 0.078744024 0.091607735 0.05195523 -0.017466074 0.006463335 0.069213025
-0.080516286 -0.051605903 0.06741987 0.05933638 0.048697237 0.07445061 0.0018735153 0.022059884
0.04857278 0.009730137 0.051456798 0.015339895 -0.07663253 -0.069231555 -0.2502945 -0.015774714
00000000: c368 3fbc 4568 72bc 4a07 b6bd c017 2f3a
00000010: b764 82bd 7928 45bd 65ed b1bd ec36 97bd
00000020: 946e 8dbd 273d 40bd 76c7 38bd b4c5 333c
00000030: 8044 ac3c cbda 49bd 5c00 8cbb 8a4b 303d
00000040: 1147 e2bd efca 173d 26d9 183c 431e d43c
00000050: 2489 98bd fcab 783d 6b87 883d 1692 9f3c
00000060: ec2a d8bc 6a0c 8cbc f0c4 6dbd 17d0 873b
00000070: 7278 19bd 1b81 4bbd be99 cfbd cf85 ab3c
00000080: 5e96 a8bd 52bb f5bd bd32 f6bc cb41 d5bc
00000090: 2ea5 82bd 7321 f23c 95a1 a63d e4d0 843d
000000a0: 2015 763c b1a3 583d 573e 54bd d3ba 2bbd
000000b0: 0a16 803d 9381 12ba fe97 02bd 5d66 b43a
000000c0: 581d 87bc 95cb c0bc 3751 c1bc 9f23 1d3d
000000d0: 52a4 203d 6da8 5f3c 56f7 05be 0d0e 9ebd
000000e0: f864 5cbb 3588 97bd b07f 92bd 0e14 b43b
000000f0: e6c9 a53b a2ec dc3c abbb 32bd 95d8 c9bc
00000100: eff7 2d3d 69d0 85bd 1392 1dbe 763f 59bd
00000110: c383 9dbd afe9 963b 1479 603d 123f 233d
00000120: 6378 c63d 644d d33d 5075 89bd 0c5b d7bb
00000130: 39bb 8c3c 675e c5bd fda4 24bd 9895 c03c
00000140: bbb4 9cbd bd17 a0bc dee8 bdbd 1a3a a4bd
00000150: 0cf3 3b3d 1a4a ab3d b038 abbd 7c6b 213d
00000160: d274 7b3c d30e d7bd d708 603d 42af 47bd
00000170: 9add 85bd d74a 1e3d e188 26bd 4bdb a7bd
00000180: 1ec1 903b 91a8 89bd 1b17 02be d501 bb3c
00000190: 26ed 8b3d 94e9 173e 0e42 9c3d 4a44 103d
000001a0: cedb 063e f8d8 59bd 1bba 88bc f522 dd3d
000001b0: a5d8 a2bd 3715 54bc beae 0d3d b1b5 cabd
000001c0: e08e 8fbd 2f77 dd3d 4c68 1e3d 3fec 4e3d
000001d0: ed57 3f3d ac21 033d 2b80 6bbd 784e 8b3d
000001e0: c079 1c3d 9fa7 623c d02b 6a3c c8b7 e73b
000001f0: 77b8 86bd c532 143c dd18 753d 400d 4dbc
00000200: 5bc0 45bd a841 903b ef8b f13d a321 d73c
00000210: c25a b43c 25d1 95bc 4e47 37bd 5deb cdbc
00000220: 04f1 2bbd 32c1 1abd 2cad 4c3d 69b0 39bd
00000230: 1082 a2bd 8e8f 36bd 4dd7 eebd f18a 1bbd
00000240: e848 0ebd db01 6a3b 9eed 28bc 6c01 69bd
00000250: bb31 3cbd ca88 aebc 0fbc babd 0493 0c3d
00000260: 114d 1e3d 7ebd fa3d f62f a23d 7bd6 ad3d
00000270: 5133 373d 2019 313d c3b1 043d ff32 f2bd
00000280: 487a 9fbc 4a6d d73c 7c77 5bbb 6606 22bd
00000290: 59f7 99bd d7cc 963c 140e d43d 2951 773c
000002a0: 6314 7b3d a1b0 d83d 8987 96bd 9e79 c1bc
000002b0: d169 5cbd ad09 cb3c 8b98 b73c f269 493d
000002c0: 6d9a 93bc 03d4 a1bd 366c 55bc 9aca 173c
000002d0: fc62 3d3b c4af ff3c eb72 143b d551 963d
000002e0: 36be a7bd e714 b1bc ed61 d9bd 9034 993c
000002f0: cb93 463d f0fc 69bc 5cc7 c43d b4b7 93b9
00000300: 329e a43c 3aa8 923d f08b a13c 47ce 9a3d
00000310: 8266 703d f255 9dbc 9895 4abd 839f 41bd
00000320: 96cf eabc 4c0e 12bd ca37 cabc febc aabc
00000330: 2a5f cebc 25e3 00bd 7a4d 853d 3301 373d
00000340: 1582 56bd 5438 bd3c 33e7 29bd 7bd3 033c
00000350: c2df 97bd eb82 c43d 54f8 e73d 8cb1 c8bd
00000360: 801b 16be b9e2 02bd 8785 ebbc b0e9 eaba
00000370: 045d f83c d950 063d 787e 043d ce6e cabc
00000380: dd3e cc3d b26d 4f3d 55fa bebc 6d98 133d
00000390: a8e7 ce3d fc26 d23c 0444 9f3c c2ed 47bc
000003a0: a969 2fbd bc11 54bc 8c44 a13d d69c bb3d
000003b0: 02cf 543d 0315 8fbc 62ca d33b 8fbf 8d3d
000003c0: b9e5 a4bd b660 53bd 6e13 8a3d b40a 733d
000003d0: c176 473d 9079 983d be90 f53a eeb6 b43c
000003e0: 40f4 463d 276b 1f3c 5dc4 523d 2f54 7b3c
000003f0: 84f1 9cbd 46c9 8dbd 9a26 80be f939 81bc

resnets.1.conv1.conv2d.bias f4 [32]
-0.105960086 0.08287304 0.01414459 0.09754329 -0.024409894 -0.066471145 -0.057505712 0.11839809
-0.00052329776 0.024059178 0.025550557 -0.12767093 -0.070403375 0.02724736 -0.019438017 0.023137605
0.03506152 -0.02396739 -0.099074446 0.095635645 -0.07337767 -0.0057618963 -0.045265254 -0.011185
-0.048907455 0.053228218 -0.0048149102 -0.009128731 -0.08916695 0.07270651 0.024841849 0.0153825665
00000000: 9a01 d9bd 57b9 a93d b6be 673c c7c4 c73d
00000010: 42f7 c7bc 0622 88bd 1c8b 6bbd b37a f23d
00000020: eb2d 09ba c117 c53c 674f d13c 2bbc 02be
00000030: a52f 90bd db35 df3c 7a3c 9fbc 138b bd3c
00000040: ab9c 0f3d 4357 c4bc 8be7 cabd 9fdc c33d
00000050: 0847 96bd 4ace bcbb 0f68 39bd 4a41 37bc
00000060: 2f53 48bd d505 5a3d 65c6 9dbb ac90 15bc
00000070: 299d b6bd 27e7 943d 2281 cb3c 2907 7c3c

resnets.1.in1.weight f4 [32]
1.0468695 0.99282396 0.8821406 0.99754184 1.056112 0.9237988 0.9789962 1.0313288
1.018097 1.1327401 0.98183143 0.95090586 0.8726544 1.0428973 0.97324836 1.0275313
0.9180212 0.87682354 0.9282967 0.8997851 0.9503257 1.1113672 0.9457481 0.9750687
1.0907029 0.95874935 1.1026181 0.963994 0.9063739 0.9755422 1.0322292 0.91325545
00000000: d2ff 853f b629 7e3f f7d3 613f e75e 7f3f
00000010: ae2e 873f 147e 6c3f 7f9f 7a3f 9502 843f
00000020: 0151 823f a1fd 903f 4e59 7b3f 916e 733f
00000030: 4766 5f3f a97d 853f ce26 793f 2586 833f
00000040: 7003 6b3f 8277 603f daa4 6d3f 5158 663f
00000050: 8c48 733f 4841 8e3f 8c1c 723f 1a9e 793f
00000060: 279c 8b3f 9970 753f 9722 8d3f 50c8 763f
00000070: 1f08 683f 22bd 793f 1620 843f 1ccb 693f

resnets.1.in1.bias f4 [32]
-0.04508016 -0.06276462 -0.106836535 -0.2858713 -0.1739222 -0.25293595 -0.104685575 -0.10408264
-0.03957087 -0.20139067 -0.34770706 -0.16309601 -0.10909951 -0.3294745 -0.09042786 -0.10132039
-0.107118964 -0.30371234 -0.051974777 -0.1330421 -0.25430393 -0.041022062 -0.08515568 -0.0887479
-0.013468263 -0.16228963 -0.010547889 -0.1717318 -0.1331078 -0.14127617 -0.35894436 -0.08572968
00000000: f9a5 38bd bd8a 80bd 1dcd dabd b95d 92be
00000010: a918 32be d280 81be 6465 d6bd 4729 d5bd
00000020: 1115 22bd 5b39 4ebe a906 b2be a402 27be
00000030: 906f dfbd e2b0 a8be 3e32 b9bd 1181 cfbd
00000040: 3061 dbbd 2f80 9bbe 81e3 54bd 303c 08be
00000050: 2034 82be c006 28bd 1a66 aebd 76c1 b5bd
00000060: fda9 5cbc 412f 26be 0ed1 2cbc 76da 2fbe
00000070: 694d 08be b3aa 10be 8ec7 b7be 0b93 afbd
