Assets/Style_Transfer/Models/Estilos mejoras/RAFT/Raft_style7.onnx (onnx, 449766 bytes, 62 tensors)

conv1.conv2d.weight f4 [8, 3, 9, 9]
0.006897951 -0.0072751185 -0.051290166 -0.022073792 0.051210288 0.0689798 -0.03103653 0.018665796
-0.028636685 0.032918356 0.031772144 0.022178315 -0.021510227 0.0062403595 0.05659053 -0.020477887
-0.010059646 0.03624032 -0.10344475 0.028100435 -0.012832264 -0.021968026 0.0070744874 0.091249265
0.08313079 0.01299757 0.053129293 0.005076235 0.00459485 -0.02735196 -0.0017358864 0.052297793
0.07315449 0.0654941 0.027844219 -0.0044678003 0.05010428 0.07270008 0.080518775 0.09142709
0.113193125 0.01159983 0.036298793 0.04604679 0.064419545 -0.05029408 -0.00013364547 0.0048448793
0.06389393 0.055987142 -0.065760784 -0.08876202 -0.039180428 -0.0069177495 0.008862774 0.106721565
-0.002570168 0.03513749 -0.01228916 -0.21634458 -0.1449113 -0.038538743 -0.007312628 0.004345588
0.084445685 0.01876496 0.033997763 -0.043114223 -0.056083072 -0.12996125 -0.0060323807 -0.036182567
0.038287546 -0.07592814 -0.01301885 0.073373936 -0.04886675 -0.14229447 -0.03147388 -0.011595687
0.01264649 -0.033675984 -0.06665775 -0.060938224 0.0135004865 0.05352564 0.05649413 0.00045950667
-0.031463705 -0.012854841 0.017669179 -0.01821232 -0.010300339 0.0024774836 -0.027370641 0.0771429
0.06102493 -0.021881495 0.065448634 0.0002869093 0.039311673 -0.086787425 0.034611814 0.05660888
0.09709789 -0.011531727 0.053642925 -0.058286704 0.005326264 0.020093052 0.031937487 0.07263492
0.08660575 0.04754843 0.025347605 -0.04051793 0.030804498 0.05907551 -0.0036289794 0.08133502
0.07239891 0.15972471 0.07114399 0.04413766 0.0012259609 0.03196109 0.017391915 0.027645808
0.0028132484 0.06123283 -0.050959475 -0.09602191 -0.107608475 0.0027886615 -0.030285522 0.059864342
-0.008046355 0.0019512153 0.0131668225 -0.07189936 -0.16736852 -0.271974 -0.1339918 0.030538067
0.027039096 0.015255889 0.067891635 0.09338653 0.0063525974 -0.19068949 -0.15218382 -0.05814149
-0.026058447 0.002069922 -0.04381132 -0.059543513 0.07135401 -0.014189922 -0.045354404 -0.015657447
-0.03604415 0.057675064 0.014452857 0.03582781 -0.054109447 0.009973884 0.006860889 -0.015521172
-0.0063942242 0.03302956 0.045917034 -0.029073702 0.044017494 -0.07813465 -0.048843 0.039595306
0.0013768496 -0.027266376 0.00559756 0.061319575 -0.06853443 0.043670785 -0.0519456 -0.011882959
0.047221996 0.09630093 0.050275195 -0.0046981936 0.032686926 0.008406214 0.053720366 0.023433188
-0.00844271 0.055022266 0.06027359 0.043669812 0.05128449 0.022141494 0.00054004544 0.033716723
0.07002813 0.14330584 0.13335149 0.09175634 0.019039229 0.015657712 0.033254195 0.06792511
0.045448765 0.062314555 -0.020089976 8.865516e-05 -0.084058106 -0.15884393 -0.00288789 0.020187192
-0.014985751 0.072843276 -0.018794702 -0.062053304 -0.090219975 -0.21831958 -0.21344407 -0.057426494
-0.058659587 -0.0074105402 0.08702948 0.12446192 0.08894998 0.004562975 -0.11742724 -0.17500202
0.030234711 0.08292301 0.089840285 -0.010436347 -0.0017005976 0.042685315 -0.03871277 -0.09642725
-0.043155663 -0.011705318 0.07378895 0.024960667 -0.0059142984 -0.0317204 -0.03454945 0.00047093944
0.038104866 -0.05956974 -0.046536557 0.06882968 -0.05303173 0.0348377 0.032912444 0.046590205
00000000: 3508 e23b 1e64 eebb a315 52bd 19d4 b4bc
00000010: e1c1 513d 4845 8d3d 5240 febc 03e9 983c
00000020: 7b97 eabc 66d5 063d 8223 023d 4caf b53c
00000030: 3736 b0bc ee7b cc3b 79cb 673d 3ec1 a7bc
00000040: 37d1 24bc bb70 143d d7da d3bd e232 e63c
00000050: 6b3e 52bc 4af6 b3bc 1ad1 e73b e5e0 ba3d
00000060: 7a40 aa3d c3f3 543c 1a9e 593d 8c56 a63b
00000070: 6590 963b 3811 e0bc af86 e3ba 3636 563d
00000080: 05d2 953d c521 863d 8f19 e43c a066 92bb
00000090: 253a 4d3d c8e3 943d 07e7 a43d 203e bb3d
000000a0: ccd1 e73d 370d 3e3c 0bae 143d 8f9b 3c3d
000000b0: 65ee 833d 2a01 4ebd 2f23 0cb9 cbc1 9e3b
000000c0: d2da 823d c652 653d 97ad 86bd ddc8 b5bd
000000d0: a87b 20bd 4aae e2bb 2b35 113c d690 da3d
000000e0: 4470 28bb 54ec 0f3d 7958 49bc 6f89 5dbe
000000f0: a163 14be cdda 1dbd c59e efbb 6f65 8e3b
00000100: dcf1 ac3d f9b8 993c 3d41 0b3d 8a98 30bd
00000110: 5db7 65bd 9014 05be 47ab c5bb 2c34 14bd
00000120: 67d3 1c3d 3680 9bbd 044d 55bc 1345 963d
00000130: 8028 48bd a4b5 11be c1ea 00bd d6fb 3dbc
00000140: 3933 4f3c d4ef 09bd dc83 88bd 5c9a 79bd
00000150: 2531 5d3c b43d 5b3d 6466 673d f1e9 f039
00000160: 16e0 00bd 1c9d 52bc f4be 903c 0132 95bc
00000170: c1c2 28bc 475d 223b 6538 e0bc 19fd 9d3d
00000180: 47f5 793d d240 b3bc ef09 863d 506c 9639
00000190: 4705 213d 9bbd b1bd 1ec5 0d3d b7de 673d
000001a0: 42db c63d 92ef 3cbc afb8 5b3d 0abe 6ebd
000001b0: f187 ae3b 2f9a a43c e2d0 023d 9ec1 943d
000001c0: 5b5e b13d 24c2 423d c8a5 cf3c 21f6 25bd
000001d0: b759 fc3c 29f9 713d 2cd4 6dbb fa92 a63d
000001e0: e145 943d e08e 233e f1b3 913d b1c9 343d
000001f0: 6cb0 a03a a2e9 023d 7d79 8e3c 7679 e23c
00000200: 7a5e 383b 47cf 7a3d e2ba 50bd 23a7 c4bd
00000210: d561 dcbd fac1 363b 5819 f8bc 5034 753d
00000220: dcd4 03bc ecbf ff3a a8b9 573c f93f 93bd
00000230: a762 2bbe 2d40 8bbe 2535 09be f82a fa3c
00000240: 1881 dd3c d6f3 793c c50a 8b3d 7041 bf3d
00000250: 7329 d03b 1b44 43be 13d6 1bbe c525 6ebd
00000260: 8678 d5bc 87a7 073b 8073 33bd e6e3 73bd
00000270: 0d22 923d d97c 68bc 8ac5 39bd 0c44 80bc
00000280: 08a3 13bd b03c 6c3d adcb 6c3c 2fc0 123d
00000290: dea1 5dbd 8069 233c 4fd1 e03b 844c 7ebc
000002a0: a486 d1bb 014a 073d 8013 3c3d f92b eebc
000002b0: b04b 343d 0f05 a0bd 990f 48bd b02e 223d
000002c0: 6877 b43a bc5d dfbc bd6b b73b 3c2a 7b3d
000002d0: c75b 8cbd 23e0 323d e9c4 54bd beb0 42bc
000002e0: da6b 413d 6c39 c53d 5ded 4d3d 4ef3 99bb
000002f0: bae2 053d 38ba 093c e309 5c3d f5f6 bf3c
00000300: 4b53 0abc 075f 613d 71e1 763d 1edf 323d
00000310: af0f 523d 1462 b53c d691 0d3a 8c1a 0a3d
00000320: e96a 8f3d c4be 123e 4b8d 083e bfea bb3d
00000330: 28f8 9b3c 9a44 803c 8d35 083d 521c 8b3d
00000340: 7c28 3a3d 8c3d 7f3d bc93 a4bc 60ec b938
00000350: a826 acbd fca7 22be c142 3dbb 9c5f a53c
00000360: cc86 75bc db2e 953d 59f7 99bc 9b2b 7ebd
00000370: 40c5 b8bd 2b8f 5fbe 1591 5abe 0b38 6bbd
00000380: 0945 70bd 1ed4 f2bb 833c b23d e4e5 fe3d
00000390: 682b b63d 0285 953b b17d f0bd bb33 33be
000003a0: c9ae f73c 8ad3 a93d 2ffe b73d 36fd 2abc
000003b0: 96e6 deba ccd6 2e3d 4891 1ebd a67b c5bd
000003c0: fec3 30bd a9c7 3fbc a91e 973d 507a cc3c
000003d0: bbcc c1bb 40ed 01bd b983 0dbd 6ce8 f639
000003e0: d913 1c3d 66ff 73bd 1e9d 3ebd 93f6 8c3d
000003f0: cd37 59bd fab1 0e3d 33cf 063d 5fd5 3e3d

conv1.conv2d.bias f4 [8]
0.0870298 -0.0055398075 -0.017837223 -0.030025896 -0.08500817 -0.071352944 -0.04751288 0.0014456549
00000000: ae3c b23d 4687 b5bb 5e1f 92bc def8 f5bc
00000010: c318 aebd 7e21 92bd de9c 42bd 217c bd3a

in1.weight f4 [8]
0.91688764 0.9160275 0.9585113 0.89466053 0.990252 0.8150982 0.8466155 0.98698175
00000000: 26b9 6a3f c780 6a3f ff60 753f 7908 653f
00000010: 2881 7d3f 47aa 503f cbbb 583f d6aa 7c3f

in1.bias f4 [8]
-0.07917695 -0.0567643 -0.017210275 -0.027096987 -0.03240827 -0.15090366 -0.013222302 0.055552885
00000000: 8627 a2bd af81 68bd 90fc 8cbc 80fa ddbc
00000010: 89be 04bd 7d86 1abe 5ba2 58bc 6c8b 633d

conv2.conv2d.weight f4 [16, 8, 3, 3]
-0.018234983 0.07263559 0.03231962 -0.025030274 0.07443174 0.017853798 0.19900347 0.18431418
0.053109292 -0.024837904 -0.1259675 -0.0071981023 0.059427977 0.07096141 0.042326212 0.058445703
-0.033006713 -0.032846525 0.003944779 0.06963643 -0.16648796 0.0474861 -0.07672988 -0.17658105
-0.07106531 -0.12585206 -0.03217162 -0.04675285 0.13620058 -0.08019921 -0.09498055 -0.032300156
0.023233801 -0.12546298 -0.050515793 -0.102386855 -0.02334213 0.052528325 0.009067933 0.03277807
0.014057186 -0.122342594 -0.06961153 0.03593859 -0.07944346 -0.028395789 0.045088235 0.008395412
-0.040873364 -0.0935844 -0.039563175 -0.09885679 0.10079403 -0.07568572 -0.0097333845 0.033458177
-0.016606135 0.0051718354 -0.097131245 -0.0671457 -0.015524491 -0.116210766 -0.10156335 -0.21643937
-0.10919683 0.01640659 -0.02325322 0.022767907 0.07836539 -0.0389201 0.06677246 0.22637278
0.0047838646 -0.062828906 -0.03264199 0.10702909 -0.08213435 -0.063283525 0.051151477 0.1212868
0.111472465 0.017205091 0.05622729 -0.023420734 -0.03317999 -0.0993742 0.073778234 -0.024846502
0.07322364 -0.07256589 0.07074634 0.09495373 -0.047219314 0.018981658 -0.15302433 0.048996013
-0.041542575 -0.047441248 -0.031812597 -0.0133559415 0.075893484 0.021319155 -0.11948815 0.052094728
0.08882519 -0.10791821 -0.06540596 0.032261115 0.10432388 -0.026441367 -0.11247798 -0.08254999
-0.031971946 -0.016766129 0.0020687685 -0.006648938 -0.107386775 -0.040701684 -0.10541266 -0.11200029
-0.027610024 0.039042685 -0.071888685 -0.018183162 -0.049294464 0.014685224 -0.044704437 0.07462243
0.09612903 0.02322701 -0.067667246 -0.046000738 0.011195051 -0.07252066 -0.06051724 -0.08247255
-0.030638764 -0.034356512 0.019374168 -0.015048717 -0.04976678 -0.06631192 -0.021618966 -0.043938383
0.11310683 0.036175713 0.08281283 -0.052297123 0.11293126 -0.0075274818 -0.14850406 0.040738944
-0.1015011 -0.085700706 -0.10386408 -0.13529456 -0.14236477 0.054396186 -0.13173823 0.004210177
-0.12265132 -0.014327235 0.01101943 -0.02799311 0.040372092 0.024196679 -0.10072558 0.009643685
0.00081576535 -0.087811664 0.01389312 -0.062221803 -0.09672884 0.07362987 -0.015895244 0.14228585
-0.052861303 0.08977128 -0.047930814 0.06742422 -0.05191494 -0.048398007 -0.023596704 0.08031018
-0.046886537 0.010998514 0.05417322 -0.059942976 -0.06669616 -0.055036064 -0.039270733 -0.0402211
-0.10457367 -0.084249824 0.076613806 -0.001578863 -0.121292606 -0.04161547 0.035026167 0.1266182
0.10015536 -0.033260133 0.075812235 0.055722456 -0.10893916 -0.026448842 0.094917946 0.1252198
0.10321848 0.030266745 -0.07071567 0.051514447 0.14017987 -0.09821227 -0.017857242 -0.023577051
0.12711659 -0.11547939 0.03281985 0.09560955 -0.060180105 -0.05154069 -0.05704383 -0.044193372
-0.11144593 0.13574147 -0.040889844 -0.005727818 0.092830405 0.068268135 -0.04985147 0.053448226
-0.0076405415 -0.06814645 -0.07223291 -0.009622685 -0.03546011 0.114077814 -0.07576173 -0.022493863
-0.053456638 -0.002086604 -0.15985456 0.08012463 -0.009353126 -0.107241854 -0.033822667 -0.03681708
0.018684246 0.03962733 0.020694558 -0.028231774 -0.049900405 0.0329111 0.040168937 -0.023657866
00000000: 8861 95bc f8c1 943d 9461 043d 4a0c cdbc
00000010: ab6f 983d 2142 923c 91c7 4b3e dbbc 3c3e
00000020: 2189 593d dc78 cbbc a0fd 00be 0fde ebbb
00000030: c06a 733d 3754 913d 405e 2d3d c364 6f3d
00000040: 0c32 07bd 148a 06bd 3443 813b 8b9d 8e3d
00000050: d27b 2abe c980 423d 8e24 9dbd aad1 34be
00000060: b08a 91bd 5ddf 00be 63c6 03bd eb7f 3fbd
00000070: 2a78 0b3e 7c3f a4bd 2a85 c2bd 2b4d 04bd
00000080: d054 be3c 5e79 00be a6e9 4ebd 33b0 d1bd
00000090: ff37 bfbc f127 573d ab91 143c 4c42 063d
000000a0: 1d50 663c c18e fabd 7d90 8ebd 5834 133d
000000b0: 41b3 a2bd 499e e8bc 71ae 383d e98c 093c
000000c0: d46a 27bd 2ea9 bfbd ff0c 22bd 6e75 cabd
000000d0: 1a6d ce3d 1d01 9bbd c678 1fbc 710b 093d
000000e0: 9709 88bc 8078 a93b bfec c6bd af83 89bd
000000f0: 6f5a 7ebc e9ff edbd 7200 d0bd 48a2 5dbe
00000100: 96a2 dfbd 1d67 863c 897d bebc c383 ba3c
00000110: 097e a03d af6a 1fbd 00c0 883d 44ce 673e
00000120: f7c1 9c3b 71ac 80bd 9bb3 05bd 1132 db3d
00000130: 0e36 a8bd cb9a 81bd 3684 513d 3765 f83d
00000140: ad4b e43d b1f1 8c3c 964e 663d d7dc bfbc
00000150: bee7 07bd b384 cbbd 0b19 973d e48a cbbc
00000160: 47f6 953d 6d9d 94bd 75e3 903d 1a77 c23d
00000170: 0a69 41bd 6c7f 9b3c 69b2 1cbe 0bb0 483d
00000180: 8c28 2abd c151 42bd ed4d 02bd e1d2 5abc
00000190: 0b6e 9b3d 82a5 ae3c 34b6 f4bd 4861 553d
000001a0: fbe9 b53d 3904 ddbd 8ff3 85bd 3b24 043d
000001b0: c2a7 d53d 919b d8bc db5a e6bd f80f a9bd
000001c0: 04f5 02bd 1f59 89bc 2d94 073b 56df d9bb
000001d0: 99ed dbbd cfb6 26bd 98e2 d7bd 6860 e5bd
000001e0: 6b2e e2bc 39eb 1f3d 603a 93bd dbf4 94bc
000001f0: fee8 49bd 4b9a 703c 001c 37bd a5d3 983d
00000200: 4cdf c43d 9246 be3c 2095 8abd 456b 3cbd
00000210: 726b 373c b685 94bd ede0 77bd 5ee7 a8bd
00000220: 25fe fabc 6ab9 0cbd 93b6 9e3c e58e 76bc
00000230: 40d8 4bbd 8bce 87bd 421a b1bc bcf8 33bd
00000240: 8ea4 e73d fc2c 143d c699 a93d 8235 56bd
00000250: 8148 e73d 18a9 f6bb 7311 18be e1dd 263d
00000260: cfdf cfbd da83 afbd b1b6 d4bd a88a 0abe
00000270: 12c8 11be 89ce 5e3d 63e6 06be 86f5 893b
00000280: 9e30 fbbd c7bc 6abc d78a 343c ce51 e5bc
00000290: 355d 253d 1d38 c63c 3649 cebd 8c00 1e3c
000002a0: 16d9 553a 9ad6 b3bd f89f 633c 4adc 7ebd
000002b0: c519 c6bd 42cb 963d be36 82bc 62b3 113e
000002c0: 1885 58bd 01da b73d 1a53 44bd b615 8a3d
000002d0: c3a4 54bd fd3c 46bd e04d c1bc aa79 a43d
000002e0: 190c 40bd 1c33 343c bde4 5d3d c486 75bd
000002f0: ff97 88bd 7f6d 61bd 59da 20bd e1be 24bd
00000300: b82a d6bd 2c8b acbd b3e7 9c3d daf1 ceba
00000310: 4268 f8bd fc74 2abd 9977 0f3d 34a8 013e
00000320: 411e cd3d c73b 08bd 7243 9b3d 3b3d 643d
00000330: 7f1b dfbd 3eab d8bc 5764 c23d 9f39 003e
00000340: 3664 d33d f7f1 f73c 61d3 90bd d000 533d
00000350: 508b 0f3e 8423 c9bd 5a49 92bc a924 c1bc
00000360: da2a 023e 7580 ecbd 1b6e 063d f1ce c33d
00000370: 6a7f 76bd 551c 53bd cba6 69bd 1c04 35bd
00000380: c43d e4bd d0ff 0a3e 1c7c 27bd 6bb0 bbbb
00000390: de1d be3d 2ad0 8b3d 0e31 4cbd 87ec 5a3d
000003a0: 825d fabb 5e90 8bbd d9ee 93bd 77a8 1dbc
000003b0: 9f3e 11bd a1a1 e93d f728 9bbd 0d45 b8bc
000003c0: 59f5 5abd 68bf 08bb eab0 23be 6218 a43d
000003d0: db3d 19bc 9ea1 dbbd a389 0abd 82cd 16bd
000003e0: b40f 993c 4450 223d a287 a93c 5246 e7bc
000003f0: 5e64 4cbd cacd 063d 2f88 243d 24ce c1bc

conv2.conv2d.bias f4 [16]
-0.0019471912 0.096222885 -0.08520202 -0.04350056 0.06863983 -0.023269745 0.012591543 0.09028805
-0.009620485 0.08132947 -0.014895934 -0.14348376 -0.15608102 -0.06529678 0.04787988 -0.103151865
00000000: e538 ffba 8110 c53d 667e aebd a52d 32bd
00000010: 0a93 8c3d 31a0 bebc c24c 4e3c f1e8 b83d
00000020: 3d9f 1dbc 1190 a63d 130e 74bc 68ed 12be
00000030: b4d3 1fbe 51ba 85bd b11d 443d 4941 d3bd

in2.weight f4 [16]
0.9754919 0.858882 0.9421679 0.88289696 0.96177 1.1615696 0.97980595 0.8939274
0.8301435 0.95620507 1.0083522 0.9708018 0.6866685 0.87510717 0.86942095 1.0584619
00000000: d6b9 793f b1df 5b3f ea31 713f 8905 623f
00000010: 8f36 763f 50ae 943f 90d4 7a3f 6dd8 643f
00000020: 4984 543f dbc9 743f af11 813f 7786 783f
00000030: 82c9 2f3f 0607 603f 5f92 5e3f ae7b 873f

in2.bias f4 [16]
0.038030554 -0.05816145 -0.039020322 -0.1434074 -0.03623835 0.21366352 0.0019437118 -0.04994896
-0.1468051 -0.030840056 -0.0078050895 -0.007034536 0.018247088 -0.10056344 -0.10125197 -0.13590169
00000000: edc5 1b3d b33a 6ebd c6d3 1fbd 64d9 12be
00000010: aa6e 14bd 9cca 5a3e 25c4 fe3a 4897 4cbd
00000020: 1354 16be 49a4 fcbc d6c1 ffbb f781 e6bb
00000030: eb7a 953c 34f4 cdbd 315d cfbd d029 0bbe

conv3.conv2d.weight f4 [32, 16, 3, 3]
0.051102914 0.0278352 0.019430546 -0.07259106 -0.011956611 0.0021549847 0.016055776 -0.062922366
-0.058563124 -0.04186557 -0.011781602 -0.038905535 0.017003734 -0.01904426 -0.019531256 0.06620186
0.022036541 -0.07886312 -0.0038032155 0.068753354 0.086725205 -0.03740939 0.045865703 -0.052458003
-0.042589173 -0.030597696 -0.039729618 -0.048348263 0.027995806 0.074420005 0.034748867 0.040029906
-0.01347427 0.013379569 -0.03904831 0.009809737 0.073033854 -0.07742799 -0.041834615 -0.007920301
-0.0058447123 -0.034914106 0.056559213 -0.05087126 -0.03695119 -0.04252257 -0.041929137 0.0015399663
-0.029966155 0.04405797 -0.0020869754 -0.0745135 -0.014324086 -0.02590834 0.04747027 0.005627377
-0.00038786643 -0.010808218 -0.021849606 -0.055561915 0.058970056 -0.079870045 0.005612808 -0.00017565995
0.012070033 0.01573324 -7.90847e-05 -0.1024285 -0.0463498 -0.058268465 -0.04054127 -0.008994783
-0.09523924 -0.09534067 0.078941286 0.027108584 -0.074921355 0.059909336 -0.014593509 -0.036865413
-0.059088763 -0.026742088 -0.018373692 0.1080589 -0.026350241 0.019517425 -0.0727705 0.0121489875
0.043860085 0.010452057 -0.09585147 -0.066354446 -0.09850168 -0.09730901 0.027982472 0.045818828
-0.08764223 0.023891307 -0.04965808 0.11441021 0.10189736 -0.012857152 -0.04311685 0.020194324
0.047780085 0.06543786 -0.0073206224 0.003156303 0.06498306 -0.022953534 0.06307762 0.10094813
0.085838206 0.08770959 0.07092815 0.11727258 0.014076818 0.025803372 -0.01991445 0.08356719
0.05261746 0.039326496 -0.07925395 0.0180489 0.03367471 0.019893358 -0.019845821 -0.03036072
0.031384107 0.05909698 0.0671098 0.09401972 0.0265152 0.0138441585 0.08055043 -0.06394007
-0.013906076 0.038790166 0.07598908 -0.05017137 -0.09067306 0.009675218 -0.074929 -0.011066905
0.02669731 0.09756749 0.11567276 -0.06907184 -0.07278646 0.10849712 0.043262612 -0.010242974
0.014855235 0.082075246 -0.05516472 -0.028092727 -0.033375107 -0.035751093 0.018321529 -0.021601412
-0.0058291825 -0.068993285 0.049772814 -0.06296093 -0.043328397 -0.05330737 0.022609565 0.06320901
-0.096685685 -0.0455188 0.06693447 0.0014309209 -0.04530278 -0.048402846 0.071445405 -0.050506826
-0.06324223 0.027731145 0.042313162 0.0013778531 -0.015417977 0.04970904 -0.044936884 0.08819981
0.02038977 -0.13415416 0.0705771 -0.056222066 -0.14300513 -0.01311977 -0.09751196 0.06945959
-0.15785037 -0.10527131 -0.10004929 -0.09963718 -0.11399019 -0.06114745 0.02823397 -0.0082957
-0.051161744 0.05129627 0.008700608 -0.0055052917 0.019601949 -0.029971013 -0.004530322 -0.091952994
-0.04344574 0.08680574 -0.049071558 -0.065610394 0.10067522 0.007609092 -0.055128988 0.031279705
-0.0033257292 -0.018300515 -0.060438693 -0.056853235 -0.06694693 -0.085322835 -0.07527062 -0.09585592
-0.021857046 -0.024020093 -0.06900551 0.07796862 -0.0011263619 -0.017911362 0.030082503 -0.07189488
-0.09671111 -0.045426458 -0.02373001 0.009212671 -0.0721294 -0.039287273 -0.07438528 -0.029828524
-0.06850173 -0.06999824 -0.029926306 -0.051327866 -0.068629764 -0.054834962 -0.09741218 -0.07252809
0.032685906 0.046336327 -0.10927668 -0.07757066 0.1293568 0.072722174 -0.098869525 0.0376027
00000000: 4a51 513d a506 e43c cf2c 9f3c 9faa 94bd
00000010: a9e5 43bc a53a 0d3b 6787 833c 71dd 80bd
00000020: e3df 6fbd 3b7b 2bbd 9f07 41bc 695b 1fbd
00000030: 6a4b 8b3c b502 9cbc 0300 a0bc d794 873d
00000040: fa85 b43c fd82 a1bd 5e3f 79bb 8fce 8c3d
00000050: fc9c b13d 973a 19bd addd 3b3d 34de 56bd
00000060: fc71 2ebd 05a8 fabc 86bb 22bd d408 46bd
00000070: 7657 e53c 8469 983d d454 0e3d 66f6 233d
00000080: 2fc3 5cbc fb35 5b3c 1ff1 1fbd 05b9 203c
00000090: c692 953d 9192 9ebd c65a 2bbd 26c4 01bc
000000a0: 0085 bfbb 1802 0fbd a2aa 673d 625e 50bd
000000b0: 225a 17bd 252c 2ebd e3bd 2bbd b2d8 c93a
000000c0: 957b f5bc 2176 343d a3c5 08bb 899a 98bd
000000d0: 92af 6abc ba3d d4bc 3070 423d dc65 b83b
000000e0: 8d5a cbb9 f414 31bc f2fd b2bc e494 63bd
000000f0: 968a 713d e892 a3bd a5eb b73b 5c31 38b9
00000100: 63c1 453c ffe2 803c 46da a5b8 09c6 d1bd
00000110: 4ad9 3dbd eaaa 6ebd 9a0e 26bd db5e 13bc
00000120: ca0c c3bd f841 c3bd f8ab a13d d212 de3c
00000130: 5e70 99bd 7e63 753d 9d19 6fbc 3000 17bd
00000140: 0f07 72bd 3912 dbbc 6d84 96bc fc4d dd3d
00000150: 76dc d7bc 02e3 9f3c b308 95bd 8c0c 473c
00000160: a2a6 333d 1b3f 2b3c c74d c4bd d7e4 87bd
00000170: 40bb c9bd f249 c7bd 7f3b e53c 86ac 3b3d
00000180: c57d b3bd b4b7 c33c 4566 4bbd e64f ea3d
00000190: 90af d03d cea6 52bc 4b9b 30bd 916e a53c
000001a0: 0db5 433d 4904 863d d5e1 efbb fad9 4e3b
000001b0: d715 853d 0d09 bcbc d72e 813d e5bd ce3d
000001c0: f1cb af3d 16a1 b33d c742 913d 9b2c f03d
000001d0: 74a2 663c 9861 d33c a123 a3bc 4625 ab3d
000001e0: 6885 573d d214 213d e54f a2bd 49db 933c
000001f0: 7eee 093d 65f7 a23c b493 a2bc 0bb7 f8bc
00000200: 9f8c 003d ad0f 723d dd70 893d 698d c03d
00000210: 6836 d93c 9cd2 623c a0f7 a43d 03f3 82bd
00000220: 4fd6 63bc 70e2 1e3d 2aa0 9b3d 7f80 4dbd
00000230: ccb2 b9bd ce84 1e3c 6074 99bd f751 35bc
00000240: 51b4 da3c 77d1 c73d d7e5 ec3d 8975 8dbd
00000250: 1111 95bd bd33 de3d 2334 313d 26d2 27bc
00000260: 5f63 733c 1117 a83d 67f4 61bd b822 e6bc
00000270: 56b4 08bd bd6f 12bd 0817 963c 72f5 b0bc
00000280: ba02 bfbb 5a4c 8dbd 94de 4b3d a9f1 80bd
00000290: 1e79 31bd d458 5abd b237 b93c ba73 813d
000002a0: 2503 c6bd ec71 3abd f014 893d bd8d bb3a
000002b0: 688f 39bd 1042 46bd f851 923d 3fe0 4ebd
000002c0: 2485 81bd 6d2c e33c 9150 2d3d 1499 b43a
000002d0: af9b 7cbc b59b 4b3d bd0f 38bd 1aa2 b43d
000002e0: 7208 a73c b55f 09be ba8a 903d 1c49 66bd
000002f0: f06f 12be 4ef4 56bc 5ab4 c7bd d440 8e3d
00000300: 87a3 21be 7c98 d7bd a4e6 ccbd 940e ccbd
00000310: b073 e9bd c075 7abd ed4a e73c b0ea 07bc
00000320: fa8e 51bd 0a1c 523d ff8c 0e3c bc65 b4bb
00000330: 4494 a03c c585 f5bc 1873 94bb da51 bcbd
00000340: 29f4 31bd 35c7 b13d 42ff 48bd be5e 86bd
00000350: cf2e ce3d b155 f93b efce 61bd 261f 003d
00000360: 7af4 59bb f6ea 95bc 908e 77bd f0de 68bd
00000370: 791b 89bd bdbd aebd 7c27 9abd 1c50 c4bd
00000380: 8c0d b3bc c9c5 c4bc c352 8dbd 03ae 9f3d
00000390: 6fa2 93ba d9ba 92bc 956f f63c 9f3d 93bd
000003a0: 7910 c6bd 1811 3abd 7065 c2bc bef0 163c
000003b0: 94b8 93bd b1eb 20bd 4f57 98bd f35a f4bc
000003c0: a34a 8cbd 3d5b 8fbd 0328 f5bc 2b3d 52bd
000003d0: c38d 8cbd a09a 60bd 0980 c7bd 9b89 94bd
000003e0: a8e1 053d 29cb 3d3d 74cc dfbd 5edd 9ebd
000003f0: 1c76 043e 5def 943d 1b7c cabd 4a05 1a3d

conv3.conv2d.bias f4 [32]
-0.12137561 0.010673888 0.2171471 -0.13324621 0.08275847 -0.21159439 0.058267295 -0.05360193
0.068499774 0.05268095 -0.03284273 0.104703665 0.044664364 -0.0025311115 -0.04169631 0.034767736
-0.060491044 0.13814165 0.11249748 -0.045961473 0.05965323 -0.031201953 0.038504817 0.08927553
0.15075436 -0.075072 -0.07226896 -0.01690728 0.11535583 0.013034898 0.061976656 0.020305574
00000000: c793 f8bd 88e1 2e3c cf5b 5e3e b271 08be
00000010: 467d a93d 33ac 58be b0a9 6e3d b38d 5bbd
00000020: 9c49 8c3d fbc7 573d 1986 06bd e06e d63d
00000030: fbf1 363d 01e1 25bb c0c9 2abd 9d68 0e3d
00000040: 75c5 77bd 0175 0d3e 1465 e63d 1942 3cbd
00000050: f256 743d 3d9b ffbc 3ab7 1d3d 17d6 b63d
00000060: 5a5f 1a3e 59bf 99bd c001 94bd 2381 8abc
00000070: ad3f ec3d 5390 553c 3cdb 7d3d e057 a63c

in3.weight f4 [32]
0.97775763 0.97347385 0.9544329 1.0250163 0.85060227 0.9823492 1.0299824 0.9136589
1.0156031 1.013355 0.76730293 0.9788968 0.9563518 0.9713262 0.9156405 0.88772875
0.87200624 0.8603722 0.96054363 0.93286014 0.8734527 1.0540229 0.90261763 0.9096403
0.94612426 1.031222 1.0484698 1.0504483 0.8277334 0.9775412 0.9488321 0.9344692
00000000: 534e 7a3f 9535 793f b755 743f bc33 833f
00000010: 12c1 593f 3d7b 7b3f 77d6 833f 8de5 693f
00000020: 48ff 813f 9eb5 813f f76d 443f fb98 7a3f
00000030: 79d3 743f d5a8 783f 6a67 6a3f 3142 633f
00000040: cd3b 5f3f 5a41 5c3f 30e6 753f eccf 6e3f
00000050: 999a 5f3f 39ea 863f f311 673f 30de 683f
00000060: 3335 723f 15ff 833f 4234 863f 1775 863f
00000070: 56e6 533f 2440 7a3f a9e6 723f 6039 6f3f

in3.bias f4 [32]
-0.008575947 -0.026764244 -0.012508295 -0.0057970765 -0.053705294 -0.021150751 -0.056411657 -0.044079684
-0.11150369 0.012643225 -0.22273713 -0.017406456 -0.023752175 -0.015922673 -0.033341862 -0.10099738
-0.046196565 -0.039743543 -0.008375183 -0.034714792 -0.16130537 -0.06101227 -0.11494817 -0.039989494
-0.10009032 -0.033092793 -0.028340375 -0.16028994 -0.033781845 -0.022317575 -0.020864582 -0.03156996
00000000: 2182 0cbc b040 dbbc 97ef 4cbc 67f5 bdbb
00000010: 15fa 5bbd 5744 adbc e90f 67bd e68c 34bd
00000020: 0c5c e4bd 8725 4f3c 3415 64be fc97 8ebc
00000030: ec93 c2bc 4470 82bc 7a91 08bd b7d7 cebd
00000040: 9c38 3dbd 20ca 22bd 1038 09bc 1931 0ebd
00000050: 3c2d 25be 01e8 79bd f269 ebbd 06cc 23bd
00000060: 27fc ccbd 4f8c 07bd 132a e8bc 0c23 24be
00000070: d55e 0abd 59d3 b6bc 33ec aabc 814f 01bd

resnets.0.conv1.conv2d.weight f4 [32, 32, 3, 3]
-0.048239302 0.051375166 -0.023375606 -0.040517185 0.014768475 0.047216233 -0.04291428 0.037800208
0.0012307 -0.002849937 -0.0039913976 0.04551173 -0.02151423 -0.049069587 0.034040883 0.028081732
-0.045964167 -0.01053256 -0.06597203 0.04504859 -0.05764721 -0.004986313 0.012671036 -0.03969781
0.03870715 -0.016871596 -0.017752394 0.025679752 -0.023516137 -0.031254567 -0.04780992 -0.013667251
-0.01220969 0.0012535723 0.030361157 -0.0027701708 -0.020006027 0.021771593 -0.014248862 -0.003056663
-0.02454712 -0.015682027 0.06806241 0.033880506 0.0043517267 -0.002515046 -0.03403295 0.03583195
-0.0054493574 0.017980399 0.0015038488 -0.010148956 0.016482849 0.03285389 -0.043399725 -0.093078606
-0.006321484 -0.11982161 -0.029512761 0.021726415 0.021480292 -0.090443015 -0.039403073 -0.04297492
-0.06510395 0.037240915 -0.013699887 -0.002407548 0.03253733 0.033395745 0.020156331 -0.053830113
-0.036578782 0.033547774 0.05173944 -0.0057105646 0.01488949 -0.06290286 -0.015105503 0.01024848
-0.03881517 -0.048410486 0.013130264 0.0057219877 -0.042628054 -0.0456216 -0.013757926 -0.04643958
0.033856187 -0.0074647903 -0.067288436 0.0027414756 -0.048864316 -0.0015200598 0.023593033 -0.0045941016
0.0014424578 -0.027149828 -0.023461994 -0.01343276 0.0075893193 -0.052540127 -0.0072432444 -0.0043424405
0.041044097 -0.028635034 -0.039645184 0.052737057 -0.04126688 0.022001972 0.02176109 -0.06687772
0.040171836 -0.013126158 -0.029110424 0.050140783 -0.039772186 0.060176212 -0.054175567 0.016774131
-0.022331772 -0.09253682 0.059338816 -0.012724892 -0.02852077 0.0700128 0.01792965 -0.036374886
-0.009262842 -0.06585343 0.013158865 -0.050949734 -0.03526619 0.041303072 -0.00021652412 0.007485076
-0.033406552 0.0059916843 0.031965733 -0.013299862 -0.043708213 0.02498596 0.028762836 -0.05319907
0.04634311 0.0077643762 -0.017624844 -0.023874907 -0.023347834 0.026806135 0.011998179 -0.07176139
0.06982467 -0.0008514056 -0.054456912 0.03325118 -0.0024937429 -0.0020310052 0.052948542 0.00023644509
0.011611535 0.07587682 -0.024736403 0.05475005 -0.020685127 0.036645565 -0.019204397 0.0034448926
-0.0728141 -0.002324925 -0.025940903 0.043733656 -0.05333932 -0.105787985 -0.06682564 -0.009414036
-0.018880108 -0.02035456 -0.099315785 -0.014428241 0.037097964 -0.045722906 0.012901644 -0.016386217
0.02709376 0.013517303 0.040279556 -0.057436302 0.033528436 -0.071372114 -0.062309757 -0.044510335
-0.08026699 -0.08012535 -0.042743646 0.005899857 -0.03568799 -0.034826085 -0.059920818 -0.030391142
-0.010721925 0.032272283 0.053638466 0.029818289 -0.03593932 -0.009325924 0.028106708 0.0084574595
0.033568334 0.0067676837 0.032761727 0.0151495775 -0.0030876687 -0.056834728 0.017336715 -0.10084868
0.017739333 0.0634915 -0.043230962 -0.028188594 -0.03079005 0.0050426475 0.052498676 0.004625994
0.039978616 -0.010101369 0.015026942 -0.057975076 -0.03590811 0.0067697205 -0.028629195 -0.094676755
-0.013912205 0.010025707 -0.01070135 0.01681846 -0.039332483 -0.033768952 -0.039553642 -0.0728521
-0.06851136 -0.07019129 0.09231814 0.032467555 0.00221327 0.07295033 -0.009538633 -0.0182187
0.05647613 -0.029419087 -0.008591321 0.01933051 -0.05648093 0.021240128 0.027223079 0.011715788
00000000: 9396 45bd c46e 523d 337e bfbc 59f5 25bd
00000010: 79f7 713c cf65 413d e2c6 2fbd 64d4 1a3d
00000020: 714f a13a 02c6 3abb 45ca 82bb 826a 3a3d
00000030: 9c3e b0bc 31fd 48bd 746e 0b3d a90b e63c
00000040: ec44 3cbd c290 2cbc 581c 87bd df84 383d
00000050: 7b1f 6cbd 3a64 a3bb 2d9a 4f3c 2c9a 22bd
00000060: 638b 1e3d 4d36 8abc 786d 91bc 585e d23c
00000070: eaa4 c0bc ca04 00bd 56d4 43bd 9bec 5fbc
00000080: 270b 48bc e84e a43a f6b7 f83c c18b 35bb
00000090: aee3 a3bc 575a b23c 0f74 69bc 4c52 48bb
000000a0: 0b17 c9bc 9877 80bc 4e64 8b3d 49c6 0a3d
000000b0: ee98 8e3b 78d3 24bb 2266 0bbd 86c4 123d
000000c0: 8690 b2bb a14b 933c cb1c c53a cf47 26bc
000000d0: 0a07 873c cd91 063d e9c3 31bd ff9f bebd
000000e0: 7424 cfbb 0865 f5bd bfc4 f1bc 98fb b13c
000000f0: 70f7 af3c 303a b9bd 1e65 21bd 7806 30bd
00000100: 3855 85bd ee89 183d 7e75 60bc f4c7 1dbb
00000110: dd45 053d fac9 083d e41e a53c f77c 5cbd
00000120: a2d3 15bd 6469 093d bcec 533d b01f bbbb
00000130: 0cf3 733c 37d3 80bd 127d 77bc 3ee9 273c
00000140: a8fc 1ebd 134a 46bd 5220 573c 837f bb3b
00000150: c19a 2ebd b7dd 3abd ed68 61bc 6e37 3ebd
00000160: c9ac 0a3d 339b f4bb 85ce 89bd 54aa 333b
00000170: f325 48bd be3c c7ba 2d46 c13c 1e8a 96bb
00000180: da10 bd3a 5169 debc 5e33 c0bc 1415 5cbc
00000190: d3af f83b 5134 57bd bd58 edbb 084b 8ebb
000001a0: db1d 283d 0594 eabc fd62 22bd d002 583d
000001b0: 7607 29bd 7b3d b43c 5044 b23c 30f7 88bd
000001c0: 398b 243d 190f 57bc fc78 eebc 6c60 4d3d
000001d0: 29e8 22bd 557b 763d 33e7 5dbd e769 893c
000001e0: 1ff1 b6bc f283 bdbd 420d 733d 117c 50bc
000001f0: 64a4 e9bc df62 8f3d 34e1 923c d5fd 14bd
00000200: 2dc3 17bc 2ade 86bd 4898 573c abb0 50bd
00000210: 4873 10bd 692d 293d c00a 63b9 5e45 f53b
00000220: 4fd5 08bd e455 c43b 80ee 023d aae7 59bc
00000230: 6207 33bd 5baf cc3c 0aa0 eb3c 45e7 59bd
00000240: 46d2 3d3d 4f6c fe3b fa61 90bc 4f95 c3bc
00000250: f543 bfbc 8a98 db3c 0394 443c a3f7 92bd
00000260: 3d00 8f3d dd30 5fba 360e 5fbd 6432 083d
00000270: 106e 23bb 9d1a 05bb 92e0 583d 3fee 7739
00000280: 4f3e 3e3c 4e65 9b3d ffa3 cabc 9741 603d
00000290: db73 a9bc a919 163d 8a52 9dbc b5c3 613b
000002a0: 8f1f 95bd c55d 18bb 0482 d4bc 1022 333d
000002b0: 557a 5abd 5fa7 d8bd e2db 88bd 543d 1abc
000002c0: 75aa 9abc 9bbe a6bc 1366 cbbd 6e64 6cbc
000002d0: 09f4 173d f147 3bbd 6b61 533c 633c 86bc
000002e0: bcf3 dd3c ae77 5d3c 2dfc 243d 5442 6bbd
000002f0: 1d55 093d 8b2b 92bd 8438 7fbd 7850 36bd
00000300: 0563 a4bd c218 a4bd f613 2fbd 9653 c13b
00000310: 922d 12bd cca5 0ebd 886f 75bd d8f6 f8bc
00000320: 03ab 2fbc f12f 043d 02b4 5b3d 7c45 f43c
00000330: 1c35 13bd c3cb 18bc 0a40 e63c 2891 0a3c
00000340: f37e 093d 72c3 dd3b 2931 063d ef35 783c
00000350: 7c5a 4abb 88cb 68bd ba05 8e3c c189 cebd
00000360: 1452 913c d507 823d f312 31bd c4eb e6bc
00000370: 6a3b fcbc cb3c a53b da08 573d a695 973b
00000380: 9ec0 233d 3680 25bc 9033 763c 4677 6dbd
00000390: 6214 13bd 88d4 dd3b c687 eabc e3e5 c1bd
000003a0: 04f0 63bc dd42 243c b754 2fbc dec6 893c
000003b0: 191b 21bd 5051 0abd 0003 22bd 7b33 95bd
000003c0: af4f 8cbd 73c0 8fbd 4b11 bd3d b3fc 043d
000003d0: 820c 113b fc66 953d ed47 1cbc 623f 95bc
000003e0: 8453 673d 4c00 f1bc 9dc2 0cbc 055b 9e3c
000003f0: 8c58 67bd c7ff ad3c ef02 df3c 94f3 3f3c

resnets.0.conv1.conv2d.bias f4 [32]
0.053824246 -0.049365576 0.056851137 -0.046931274 -0.022641469 0.014019468 0.02764521 0.012863233
0.021818155 -0.06778554 -0.0531688 0.07909872 -0.0542794 -0.04920023 0.02184054 -0.029260676
0.03548909 0.10856639 0.02591781 0.08059796 0.054893892 -0.14210692 0.015018627 0.064377844
-0.014370845 0.0044833166 0.020241415 -0.11548568 0.040105086 -0.029920936 -0.1604823 -0.051438503
00000000: d076 5c3d 8f33 4abd bddc 683d 023b 40bd
00000010: 9a7a b9bc e9b1 653c 3578 e23c 4fc0 523c
00000020: fdbb b23c 25d3 8abd 87c7 59bd 82fe a13d
00000030: 1354 5ebd 2e86 49bd efea b23c 16b4 efbc
00000040: 025d 113d 0e58 de3d 9651 d43c 8b10 a53d
00000050: 6bd8 603d 7a84 11be b010 763c 88d8 833d
00000060: b173 6bbc c9e8 923b 53d1 a53c c283 ecbd
00000070: 3b45 243d c01c f5bc 7955 24be 2eb1 52bd

resnets.0.in1.weight f4 [32]
0.992216 1.0277151 0.9859489 1.1493386 1.0011419 1.0262808 0.9839793 1.1207612
0.9446669 0.9910647 0.9334265 0.94281715 1.0000238 0.98717827 0.9545526 0.93137705
1.0223587 0.9710936 0.9657935 1.1011326 1.0183426 0.94628316 1.0282904 1.0021573
0.95309806 0.9317469 0.9061653 1.1552753 0.98754346 0.8728375 1.0160506 0.9563537
00000000: de01 7e3f 2b8c 833f 2667 7c3f 871d 933f
00000010: 6b25 803f 2b5d 833f 11e6 7b3f 1a75 8f3f
00000020: b1d5 713f 6bb6 7d3f 0af5 6e3f 775c 713f
00000030: c800 803f b7b7 7c3f 8f5d 743f ba6e 6e3f
00000040: a6dc 823f 9799 783f 3e3e 773f eaf1 8c3f
00000050: 0d59 823f 9d3f 723f 059f 833f b146 803f
00000060: 3cfe 733f f786 6e3f 73fa 673f 10e0 933f
00000070: a6cf 7c3f 4772 5f3f f20d 823f 99d3 743f

resnets.0.in1.bias f4 [32]
-0.0027418567 0.003244813 -0.006692447 0.039278645 0.0070642354 0.14527117 -0.0063376725 0.045769393
-0.03293981 -0.008417142 -0.14633144 -0.047012564 -0.038245216 -0.051541403 -0.07103892 -0.16094607
0.05391435 -0.051701553 -0.14169881 0.073502146 -0.099725984 -0.031431854 -0.035308104 -0.029344635
-0.023476858 -0.17123307 -0.0035593198 -0.028423242 -0.010583432 -0.20151469 -0.14646524 -0.08675
00000000: b9b0 33bb eea6 543b 504c dbbb a5e2 203d
00000010: 1a7b e73b f7c1 143e 40ac cfbb b078 3b3d
00000020: e5eb 06bd 0de8 09bc e9d7 15be 3f90 40bd
00000030: 04a7 1cbd 141d 53bd da7c 91bd 0ccf 24be
00000040: 4bd5 5c3d 02c5 53bd 7e19 11be 4b88 963d
00000050: 233d ccbd b0be 00bd 3b9f 10bd 2964 f0bc
00000060: 8a52 c0bc b957 2fbe 7a43 69bb dcd7 e8bc
00000070: 2266 2dbc de59 4ebe fcfa 15be fca9 b1bd

resnets.0.conv2.conv2d.weight f4 [32, 32, 3, 3]
-0.050753023 -0.039580733 -0.038629826 -0.009366232 -0.011328999 0.098082975 0.010325823 -0.04496513
0.06970618 0.037072785 0.060187362 0.052579146 -0.011976573 0.004463487 0.13076822 0.00606906
0.013074751 -0.08023628 -0.025564104 0.06482155 -0.01624811 -0.04759652 -0.013425151 -0.02962356
0.01470319 -0.014932639 0.14190854 -0.037100755 -0.005349934 0.020752097 0.012836652 0.025869982
0.059174344 -0.032961868 0.042721502 -0.18333404 0.02869688 0.022289257 -0.052648935 0.0408702
0.046485744 0.015481212 0.042334747 -0.06481435 0.03528569 0.020962736 -0.020464815 0.009051122
-0.0030633488 -0.031133227 -0.04230082 0.03221428 -0.02091712 0.039228316 -0.047574893 -0.027662056
-0.04417286 -0.04579736 0.031801462 -0.09119299 -0.031928018 0.0493766 -0.06787882 -0.076567054
0.12659211 -0.05232576 -0.024479244 -0.007048776 0.07107379 -0.029065937 -0.017031975 0.09737225
-0.055868402 -0.037302036 -0.034360845 -0.013114814 -0.033816516 0.0030551818 -0.023788054 -0.03088935
-0.043047253 -0.00979893 -0.011939386 -0.038553808 -0.0017208017 -0.032956876 -0.016818333 0.021590611
0.013527805 -0.010289651 0.00358693 0.009261407 0.04809774 0.061087076 -0.052453563 -0.018268714
0.059750855 -0.024548626 -0.07705182 -0.009547277 -0.0045481776 0.08520257 0.058993954 0.03254308
0.032814514 0.09519601 0.029659597 0.00059297663 -0.03587177 0.013765673 -0.05526761 -0.06069636
-0.05509132 -0.03592153 0.059592355 -0.043871615 -0.0415276 -0.049261093 -0.05378547 0.009357443
0.014547767 0.0677031 0.03272762 0.009875054 -0.067286454 0.003993076 -0.022019358 0.010951524
0.057383552 0.045566242 -0.0015365623 -0.04294562 -0.09708814 -0.05416428 0.076697074 -0.05461666
-0.04662841 0.008142629 0.014859888 -0.04404803 0.15202051 -0.00013119278 0.03907192 -0.010551641
0.072403654 -0.064516924 -0.009223996 0.050649498 0.030926315 0.03487739 0.033808313 -0.01735929
0.059353054 -0.033858974 -0.0012850827 -0.0056030797 -0.023361942 0.002170256 0.024091085 0.04394016
-0.032690223 -0.013004767 0.0508605 0.018933514 -0.074146144 -0.0154123455 0.047259185 -0.04361099
0.053466376 0.031190928 0.05423839 -0.020897198 0.004594181 -0.023854364 -0.09572101 0.048717283
-0.018932017 0.0019914599 0.05545431 0.02346435 0.06380026 -0.13172956 0.03213039 0.09907351
0.025256775 0.030881325 0.03700474 0.09153402 0.024958052 0.0038505003 -0.0053993226 0.046036065
-0.026890356 -0.028386626 -0.011825723 0.0044572228 0.018633949 0.0072564245 0.031971764 0.028689485
-0.049667045 0.059178296 0.036743045 0.048962038 0.004791307 0.046480767 0.08905394 -0.043089334
0.06300519 -0.0814132 0.05052299 0.06820199 0.076432 0.00093552994 -0.0021370247 -0.032692194
0.04139115 -0.0060907523 0.04582481 0.016315551 0.035485625 0.050672002 0.08596154 0.001075898
-0.11243066 0.0045029903 -0.01698511 0.09576454 -0.044934295 0.057400215 -0.028402636 0.016480546
0.0033128897 -0.03225722 0.026884628 -0.00732006 -0.019462427 0.034006286 0.0667084 -0.008720471
-0.030237835 0.014431641 -0.01771162 -0.027324425 0.037768893 -0.003947926 0.06431612 0.03125393
0.17762975 -0.15040238 -0.038917974 0.035390817 0.05141546 -0.00600762 -0.049686007 0.029575067
00000000: 67e2 4fbd 681f 22bd 4f3a 1ebd d374 19bc
00000010: 449d 39bc badf c83d a42d 293c 5b2d 38bd
00000020: 1dc2 8e3d a2d9 173d 0687 763d 3b5d 573d
00000030: 6339 44bc 7142 923b 1be8 053e f7de c63b
00000040: 7b37 563c eb52 a4bd d06b d1bc 29c1 843d
00000050: c21a 85bc 92f4 42bd 2af5 5bbc 1cad f2bc
00000060: a6e5 703c 07a8 74bc 7950 113e f6f6 17bd
00000070: 804e afbb 4d00 aa3c d250 523c 49ed d33c
00000080: cc60 723d 0603 07bd befc 2e3d ebbb 3bbe
00000090: b815 eb3c f697 b63c 69a6 57bd 8367 273d
000000a0: d667 3e3d e9a4 7d3c 3367 2d3d 63bd 84bd
000000b0: ba87 103d 0bba ab3c d4a5 a7bc 284b 143c
000000c0: 77c2 48bb 1c0b ffbc a043 2dbd 1ff3 033d
000000d0: 615a abbc dfad 203d e4dd 42bd 899b e2bc
000000e0: 9aee 34bd 0396 3bbd 4042 023d 64c3 babd
000000f0: f4c6 02bd 1e3f 4a3d 0d04 8bbd 30cf 9cbd
00000100: 5da1 013e 8953 56bd b288 c8bc 6bf9 e6bb
00000110: 238f 913d b01b eebc a486 8bbc 1a6b c73d
00000120: 44d6 64bd 05ca 18bd f5bd 0cbd 84df 56bc
00000130: 3083 0abd 7239 483b 2adf c2bc aa0b fdbc
00000140: 5152 30bd b18b 20bc 6a9d 43bc 99ea 1dbd
00000150: 868c e1ba cafd 06bd 9ac6 89bc cbde b03c
00000160: baa3 5d3c ed95 28bc b312 6b3b 28bd 173c
00000170: 2302 453d 7136 7a3d 8cd9 56bd 45a8 95bc
00000180: 50bd 743d 331a c9bc 58cd 9dbd 2f6c 1cbc
00000190: e108 95bb af7e ae3d a5a3 713d e54b 053d
000001a0: 8368 063d 20f6 c23d aff8 f23c fd71 1b3a
000001b0: 47ee 12bd 6b89 613c 4a60 62bd bf9c 78bd
000001c0: 70a7 61bd 7422 13bd 1d17 743d b9b2 33bd
000001d0: d818 2abd 00c6 49bd 274e 5cbd f64f 193c
000001e0: c259 6e3c eca7 8a3d 660d 063d faca 213c
000001f0: 7bcd 89bd 59d8 823b f161 b4bc 056e 333c
00000200: 040b 6b3d aba3 3a3d 7a66 c9ba bfe7 2fbd
00000210: 26d6 c6bd 5ddb 5dbd 5b13 9d3d b8b5 5fbd
00000220: 6ffd 3ebd a968 053c e376 733c b56b 34bd
00000230: 44ab 1b3e cb90 09b9 e109 203d cae0 2cbc
00000240: 5e48 943d 7321 84bd 3e20 17bc d975 4f3d
00000250: 2f59 fd3c 98db 0e3d 967a 0a3d 1235 8ebc
00000260: 301c 733d b5af 0abd 3870 a8ba 0a9a b7bb
00000270: 8b61 bfbc db3a 0e3b ab5a c53c 99fa 333d
00000280: 2fe6 05bd f211 55bc 1a53 503d 751a 9b3c
00000290: efd9 97bd 1084 7cbc d992 413d 70a1 32bd
000002a0: 8fff 5a3d 1e84 ff3c 1329 5e3d 9a30 abbc
000002b0: c98a 963b 3a6a c3bc 6009 c4bd c68b 473d
000002c0: 5117 9bbc 2783 023b 0f24 633d 4f38 c03c
000002d0: b6a9 823d 1de4 06be 289b 033d 0de7 ca3d
000002e0: 4ce7 ce3c d5fa fc3c 4892 173d 3076 bb3d
000002f0: d474 cc3c ad58 7c3b cdec b0bb 5090 3c3d
00000300: 2a49 dcbc 128b e8bc adc0 41bc e50d 923b
00000310: 39a6 983c 4dc7 ed3b d3f4 023d 3606 eb3c
00000320: ac6f 4bbd f164 723d e07f 163d 6b8c 483d
00000330: 6500 9d3b 9e62 3e3d e961 b63d 717e 30bd
00000340: dd08 813d f7bb a6bd 32f1 4e3d 7cad 8b3d
00000350: 6188 9c3d 5a3e 753a 530d 0cbb 40e8 05bd
00000360: c489 293d ef94 c7bb ccb2 3b3d 31a8 853c
00000370: 6059 113d 728d 4f3d 9b0c b03d 2505 8d3a
00000380: 0c42 e6bd d28d 933b 5b24 8bbc 3320 c43d
00000390: 060d 38bd 7d1c 6b3d a5ac e8bc 3602 873c
000003a0: 111d 593b 2620 04bd 273d dc3c 1ddd efbb
000003b0: ab6f 9fbc 2d4a 0b3d 6a9e 883d 4ee0 0ebc
000003c0: 56b5 f7bc b172 6c3c f617 91bc 79d7 dfbc
000003d0: 8eb3 1a3d 9b5d 81bb 2cb8 833d 1f04 003d
000003e0: 93e4 353e 1503 1abe 7468 1fbd f6f5 103d
000003f0: 0499 523d 92db c4bb 8e83 4bbd 6947 f23c

resnets.0.conv2.conv2d.bias f4 [32]
-0.11841934 -0.15480186 -0.0896379 -0.07905761 0.059876796 0.076849386 -0.103992686 0.053448133
-0.13386047 -0.10849391 -0.08362599 -0.00014957783 -0.08011493 -0.06647899 0.05219471 -0.06955108
-0.01415869 0.0018581263 0.044453416 -0.0059580673 -0.089918666 0.003026734 -0.0009023036 -0.022948973
-0.03100269 0.007818721 -0.06655675 -0.01738477 0.0135465795 0.13799584 0.034429114 0.016189389
00000000: d785 f2bd 6184 1ebe 1394 b7bd f5e8 a1bd
00000010: 5f41 753d 3663 9d3d 1efa d4bd 6eec 5a3d
00000020: b812 09be 0e32 debd 1a44 abbd fed7 1cb9
00000030: 4c13 a4bd 2326 88bd 1fca 553d cc70 8ebd
00000040: daf9 67bc 5f8c f33a c914 363d e43b c3bb
00000050: 4727 b8bd 2c5c 463b 9288 6cba 7cff bbbc
00000060: 5af9 fdbc 181a 003c e84e 88bd 816a 8ebc
00000070: 79f2 5d3c c84e 0d3e 8b05 0d3d 9c9f 843c

resnets.0.in2.weight f4 [32]
1.0158352 0.94511604 0.9845861 0.97379416 0.96909314 0.9842391 0.92431945 0.8401083
1.0093341 1.0547686 1.046392 0.91868997 1.1717156 0.9569962 1.0388997 0.94998384
0.999522 0.99352384 0.95341873 0.97891676 1.0231901 0.9774998 0.98571724 0.96035624
0.96548396 0.8520863 0.9715534 1.0373353 0.9688209 1.0396 0.9293847 0.9241744
00000000: e306 823f 20f3 713f d60d 7c3f 934a 793f
00000010: 7d16 783f 18f7 7b3f 33a0 6c3f 5611 573f
00000020: dc31 813f a802 873f 2cf0 853f 442f 6b3f
00000030: c7fa 953f b4fd 743f aafa 843f 2432 733f
00000040: ace0 7f3f 9457 7e3f 4013 743f 4a9a 7a3f
00000050: e5f7 823f 6d3d 7a3f f757 7c3f e8d9 753f
00000060: f529 773f 5422 5a3f b9b7 783f 67c7 843f
00000070: a604 783f 9d11 853f 28ec 6d3f b296 6c3f

resnets.0.in2.bias f4 [32]
-0.101602234 -0.09268366 -0.059251882 -0.09304334 -0.0010211183 0.08008733 -0.066839 0.04193162
-0.115310505 -0.08765744 0.00024827494 -0.06601156 -0.05717436 -0.060904607 0.024581255 0.0028807332
-0.014402492 -0.009425384 0.08715846 0.032565054 -0.041293748 -0.07806172 0.06709942 -0.055279717
-0.038162865 0.0071111294 -0.088018 -0.04601569 -0.003451696 0.04015169 -0.031711526 -0.006530612
00000000: d514 d0bd eed0 bdbd 1ab2 72bd 828d bebd
00000010: 0bd7 85ba d304 a43d e3e2 88bd 7ec0 2b3d
00000020: ea27 ecbd be85 b3bd e62a 8239 1231 87bd
00000030: a92f 6abd 1c77 79bd a15e c93c afca 3c3b
00000040: 6ef8 6bbc ed6c 1abc 2280 b23d ef62 053d
00000050: a223 29bd d3de 9fbd 6c6b 893d fc6c 62bd
00000060: aa50 1cbd 7a04 e93b c842 b4bd f37a 3cbd
00000070: d935 62bb 1976 243d f2e3 01bd befe d5bb

resnets.1.conv1.conv2d.weight f4 [32, 32, 3, 3]
0.011892705 -0.004143183 -0.037937004 0.009383755 0.018355832 -0.030317608 -5.0083006e-05 -0.0548867
-0.021235293 -0.112956405 -0.053798903 -0.056417003 0.027293855 -0.09951809 -0.04948136 0.047858957
0.012168981 -0.1005014 -0.13069175 -0.030150054 -0.012861629 0.03317168 -0.01058025 0.017705342
0.013758632 -0.08446965 -0.06901803 -0.12078003 0.018574486 -0.050833687 -0.0066757444 0.012143102
-0.07722461 -0.010496184 -0.01507795 -0.07604448 0.057192612 -0.010955812 0.008638958 0.060226433
-0.016398998 0.05995933 -0.028223827 0.0391618 0.12896484 -0.005925226 -0.025360938 -0.033642795
-0.0185864 0.0056124516 -0.058100566 -0.0062655383 -0.03692984 0.006409632 -0.010276538 0.07088608
-0.019231236 -0.012614903 -0.018534675 -0.012247376 0.025383437 0.057828937 -0.036075618 0.024674304
0.054761123 0.014814033 0.046330158 -0.021827579 0.025737837 -0.016028628 0.011468934 -0.015510207
-0.045125656 -0.032442626 -0.037738495 -0.012272764 -0.022514852 0.022022203 -0.053367432 0.13252111
-0.027732618 -0.120221056 -0.003580307 0.049928643 0.013993638 0.07627951 -0.099622585 -0.038134053
0.15618877 -0.056030065 -0.0062436955 -0.034287684 0.109568015 0.071790084 0.004141329 0.05801463
0.15362294 -0.033253286 -5.5527693e-05 0.052464798 0.022863276 -0.03770517 -0.011753851 -0.02514438
-0.042922396 -0.02885191 -0.065380804 0.04351969 0.033715267 -0.02941584 0.06614516 0.06703316
0.064105615 0.026943792 -0.057403564 -0.088784255 -0.02264828 -0.016645504 -0.09488162 -0.048950627
-0.049321916 -0.07519319 0.054625735 -0.05752355 0.02960255 0.009851292 0.055755842 -0.015995674
-0.032822233 -0.13725854 0.012590811 0.11864429 0.021309424 -0.036510408 0.1056065 0.035933606
0.04407972 -0.028826283 -0.025782697 0.0016855923 -0.024844287 -0.086429484 0.002813844 -0.0138035165
-0.049324095 0.022744963 -0.055717867 0.00038994485 -0.03692469 -0.016505858 0.010897199 -0.10404131
0.044425406 -0.023772324 0.049383678 -0.009431381 -0.004376822 0.050753083 -0.056791853 -0.10001867
-0.03480258 -0.07443156 0.032185063 0.094204105 0.046277884 0.07476248 0.038526203 0.056874152
-0.0057534883 -0.011695966 0.074958935 -0.066235304 -0.06571051 -0.009430934 0.07870344 0.010263955
0.0330594 -0.030654196 -0.02879695 -0.03634452 0.05199668 -0.062605865 0.029435866 0.049350176
-0.03990015 0.09938332 -0.12178463 -0.04065629 -0.032168277 -0.0029659679 -0.05918198 -0.09525059
-0.116602354 -0.012953702 0.06831941 -0.046502125 0.013538314 0.030132202 0.019874886 -0.0015501601
-0.024369135 -0.04035109 -0.069570914 0.013789025 -0.038183767 -0.029761441 0.00789711 -0.01661987
-0.022207426 -0.05074199 -0.034234542 -0.024442285 -0.0025079425 0.017666742 0.01143405 -0.035576705
0.003564154 -0.023234215 -0.027687043 -0.017411724 0.0012765799 -0.010903591 -0.0026678783 0.050560325
-0.023269055 0.022643296 -0.070159055 -0.09238282 -0.08438012 -0.10151044 -0.050388284 -0.008252876
-0.09334193 0.08921049 -0.01730711 -0.06699216 0.041038886 -0.04776227 -0.0006074953 0.12568597
0.007789352 0.024614194 -0.025341673 0.05667707 0.0460956 -0.019843116 -0.057016272 -0.035737228
0.025170976 -0.1562704 -0.13862951 0.1914115 -0.018251557 -0.031061703 0.010120597 0.028200472
00000000: 9fd9 423c 8ac3 87bb d563 1bbd 52be 193c
00000010: f85e 963c a25c f8bc 3810 52b8 e0d0 60bd
00000020: a3f5 adbc b055 e7bd 3d5c 5cbd 8415 67bd
00000030: 5d97 df3c 24d0 cbbd f7ac 4abd c107 443d
00000040: 6860 473c aed3 cdbd 0fd4 05be 3ffd f6bc
00000050: 95b9 52bc 07df 073d c958 2dbc cb0a 913c
00000060: e36b 613c 6dfe acbd 5359 8dbd 855b f7bd
00000070: 8529 983c fc36 50bd 34c0 dabb dcf3 463c
00000080: f027 9ebd 30f8 2bbc 8209 77bc 35bd 9bbd
00000090: cd42 6a3d 0280 33bc 6b8a 0d3c feaf 763d
000000a0: 3157 86bc ea97 753d a835 e7bc 2068 203d
000000b0: 5c0f 043e 6628 c2bb bec1 cfbc 07cd 09bd
000000c0: 8242 98bc a8e8 b73b dcfa 6dbd 254f cdbb
000000d0: be43 17bd e407 d23b ed5e 28bc b92c 913d
000000e0: d38a 9dbc bdae 4ebc 08d6 97bc 38a9 48bc
000000f0: edf0 cf3c 09de 6c3d 07c4 13bd c421 ca3c
00000100: 334d 603d 8fb6 723c b1c4 3d3d c0cf b2bc
00000110: 28d8 d23c 784e 83bc 32e8 3b3c 861e 7ebc
00000120: aed5 38bd 8fe2 04bd ae93 1abd b413 49bc
00000130: 1171 b8bc e867 b43c cf97 5abd 9db3 073e
00000140: 842f e3bc 7536 f6bd 95a3 6abb fa81 4c3d
00000150: 9245 653c 6f38 9c3d ed06 ccbd 7432 1cbd
00000160: f3ef 1f3e c87f 65bd ea97 ccbb 3e71 0cbd
00000170: 3265 e03d ae06 933d fcb3 873b c0a0 6d3d
00000180: 554f 1d3e 9934 08bd 68e6 68b8 54e5 563d
00000190: c44b bb3c bd70 1abd 3993 40bc 96fb cdbc
000001a0: 65cf 2fbd d75a ecbc 5fe6 85bd b441 323d
000001b0: 0519 0a3d 7df9 f0bc 1d77 873d ae48 893d
000001c0: ce49 833d 3ab9 dc3c 0020 6bbd 85d4 b5bd
000001d0: e388 b9bc 275c 88bc 4b51 c2bd 7480 48bd
000001e0: c705 4abd e3fe 99bd 3cbf 5f3d d09d 6bbd
000001f0: 0c81 f23c 5067 213c 3d60 643d 5c09 83bc
00000200: 9b70 06bd 818d 0cbe b049 4e3c c7fb f23d
00000210: 1a91 ae3c f08b 15bd 3848 d83d 1e2f 133d
00000220: f08c 343d 1925 ecbc 3c36 d3bc 18ef dc3a
00000230: 3f86 cbbc f101 b1bd 7868 383b 2528 62bc
00000240: 1008 4abd a553 ba3c 6b38 64bd 8371 cc39
00000250: 583e 17bd 4b37 87bc 2a8a 323c 9c13 d5bd
00000260: 6af7 353d 2dbe c2bc 8a46 4a3d 1486 1abc
00000270: 726b 8fbb 77e2 4f3d 939e 68bd 97d6 ccbd
00000280: 268d 0ebd 936f 98bd 7cd4 033d 15ee c03d
00000290: e18d 3d3d 121d 993d a7cd 1d3d dff4 683d
000002a0: c287 bcbb 70a0 3fbc 1284 993d 60a6 87bd
000002b0: 3b93 86bd 3484 1abc 452f a13d 262a 283c
000002c0: 4b69 073d 821e fbbc 95e7 ebbc fedd 14bd
000002d0: 79fa 543d 8137 80bd 7c23 f13c 6923 4a3d
000002e0: 576e 23bd 7b89 cb3d 386a f9bd 3687 26bd
000002f0: e2c2 03bd af60 42bb ce68 72bd be12 c3bd
00000300: 37cd eebd c43b 54bc 0ceb 8b3d 0379 3ebd
00000310: cecf 5d3c cfd7 f63c a8d0 a23c be2e cbba
00000320: c8a1 c7bc 2f47 25bd 327b 8ebd 5deb 613c
00000330: 9566 1cbd 44ce f3bc e162 013c 6526 88bc
00000340: 59ec b5bc d5d6 4fbd 8539 0cbd 303b c8bc
00000350: 4b5c 24bb d8b9 903c e255 3b3c e1b8 11bd
00000360: 9594 693b ae55 bebc f0cf e2bc 08a3 8ebc
00000370: ea52 a73a faa4 32bc 92d7 2ebb 5818 4f3d
00000380: bf9e bebc 6f7e b93c 8daf 8fbd 3433 bdbd
00000390: 7ccf acbd b5e4 cfbd f263 4ebd 1237 07bc
000003a0: 0e2a bfbd fdb3 b63d a4c7 8dbc 3033 89bd
000003b0: 6418 283d 5fa2 43bd 5240 1fba d3b3 003e
000003c0: d23d ff3b b5a3 c93c 5799 cfbc 3726 683d
000003d0: bdce 3c3d 088e a2bc e589 69bd 3361 12bd
000003e0: 5d33 ce3c 5905 20be e5f4 0dbe 6001 443e
000003f0: 4a84 95bc 1d75 febc dcd0 253c ad04 e73c

resnets.1.conv1.conv2d.bias f4 [32]
0.017627548 -0.037163086 -0.008550736 -0.0618803 -0.022225121 -0.016139455 -0.10032072 0.04796292
0.12057986 0.039641514 0.0202122 0.02364048 0.085135184 0.10457092 0.1229465 0.107334174
-0.0021749504 -0.10151467 0.01996984 -0.023272954 0.09445157 0.08794901 -0.012898347 0.014336601
-0.0068674195 0.017350618 0.026196655 -0.020550977 0.01477715 -0.03534207 -0.061477914 -0.001887204
00000000: a667 903c 5238 18bd 6318 0cbc 3376 7dbd
00000010: 7511 b6bc e436 84bc f374 cdbd c474 443d
00000020: 93f2 f63d 245f 223d 0e94 a53c aea9 c13c
00000030: 5b5b ae3d 4729 d63d 60cb fb3d 05d2 db3d
00000040: 9d89 0ebb ece6 cfbd ca97 a33c eca6 bebc
00000050: d36f c13d 9c1e b43d 9753 53bc 10e4 6a3c
00000060: 1708 e1bb e222 8e3c 5e9a d63c 865a a8bc
00000070: dc1b 723c d9c2 10bd 44d0 7bbd 0f5c f7ba

resnets.1.in1.weight f4 [32]
1.0306605 0.9887486 0.9587696 1.0180434 0.99971974 0.9874164 1.0631278 0.87042713
0.9634138 0.9887375 0.99994874 1.0826083 0.964002 1.0651069 0.9890845 1.113536
1.0355334 0.884811 0.9961261 1.0786977 1.0188063 1.0492213 0.9251612 1.0057919
1.240478 0.98303515 1.0708445 0.9627045 1.0058656 0.98123175 0.85688937 1.0129929
00000000: afec 833f a11e 7d3f ed71 753f 3f4f 823f
00000010: a2ed 7f3f 52c7 7c3f 9214 883f 50d4 5e3f
00000020: 49a2 763f e71d 7d3f a4fc 7f3f e992 8a3f
00000030: d6c8 763f 6c55 883f a434 7d3f 5988 8e3f
00000040: 5c8c 843f f982 623f 1f02 7f3f c412 8a3f
00000050: 3f68 823f e24c 863f 5dd7 6c3f cabd 803f
00000060: fcc7 9e3f 31a8 7b3f 6f11 893f cd73 763f
00000070: 34c0 803f 0132 7b3f 1a5d 5b3f c0a9 813f

resnets.1.in1.bias f4 [32]
0.03444924 -0.04045754 -0.08787711 -0.016063442 -0.055671424 -0.011672878 -0.096671976 -0.20272286
-0.11364148 -0.05623423 -0.022897094 -0.099426955 -0.08772784 0.03337253 -0.047469787 -0.068851076
-0.02572617 -0.12752245 -0.010745999 -0.04964551 -0.052526314 -0.13259752 -0.104491934 -0.16866264
-0.22746684 0.005455258 -0.036960807 -0.15390752 -0.019769121 -0.13715507 -0.055335548 -0.035560224
00000000: a51a 0d3d ceb6 25bd eaf8 b3bd 7b97 83bc
00000010: b807 64bd 993f 3fbc f5fb c5bd 9596 4fbe
00000020: ddbc e8bd dd55 66bd b092 bbbc 5ca0 cbbd
00000030: a7aa b3bd a2b1 083d ae6f 42bd cb01 8dbd
00000040: b0bf d2bc 3f95 02be fd0f 30bc 1759 4bbd
00000050: d525 57bd a5c7 07be deff d5bd e6b5 2cbe
00000060: 11ed 68be 05c2 b23b 3764 17bd ef99 1dbe
00000070: daf2 a1bc 6172 0cbe 87a7 62bd 99a7 11bd
