Assets/Style_Transfer/Models/Estilos mejoras/RAFT/Raft_style7.1.onnx (onnx, 449766 bytes, 62 tensors)

conv1.conv2d.weight f4 [8, 3, 9, 9]
0.022025926 0.011865182 -0.03877757 -0.014617019 0.037915017 0.0433805 -0.036576513 0.031557042
-0.008120929 0.038582683 0.040444892 0.020188399 -0.012140338 -3.173958e-05 0.023925742 -0.052494694
-0.03725353 0.035472278 -0.09148128 0.035961792 -0.02216311 0.0005217877 0.06496974 0.14516202
0.11145102 -0.029201336 0.047502384 -0.012474578 -0.047977723 -0.10216472 -0.048825853 0.06612425
0.1543541 0.21838224 0.028822482 -0.038844116 0.037199594 0.05006816 0.04274446 0.10200813
0.169113 0.026730875 0.18086095 0.17863473 0.12814806 -0.08113914 0.0014098966 -0.010980142
0.0822132 0.11829284 -0.15700518 -0.16730233 -0.008302563 0.044538382 -0.035016064 0.12935033
0.017986815 0.020611726 0.0041433573 -0.2904049 -0.21232696 -0.02869525 0.042568356 -0.046579845
0.06568772 0.080773875 0.086632594 -0.011650315 -0.10164358 -0.14872076 0.005030188 -0.0048442343
0.029850293 -0.13741867 -0.008020725 0.09065946 -0.07105695 -0.20815651 -0.07926506 -0.056444816
-0.010715878 -0.03934187 -0.06421772 -0.06438442 0.00179745 0.018347573 0.005738606 -0.03037241
-0.04363473 -0.019374173 0.021379964 -0.011511325 -0.017351935 -0.0035933913 -0.057022486 0.01822311
0.003648025 -0.0702544 0.043457825 0.01746469 0.04905566 -0.10098218 0.04070577 0.08645066
0.11936829 -0.0056142444 -0.00051279226 -0.072748795 -0.0058621075 -0.03588228 -0.05958477 -0.005580507
0.058901444 0.08558988 0.15090542 -0.051231127 -0.012762032 0.054236673 -0.02722198 0.030759018
0.05843452 0.1855279 0.05209281 0.16818507 0.12994394 0.09486092 -0.011390082 0.027517647
-0.025139587 0.059164293 -0.003930321 -0.19933058 -0.19053462 0.03618932 0.025815599 0.014680743
0.012982697 0.013360165 -0.021813191 -0.071917266 -0.24411124 -0.33072603 -0.1139722 0.08558333
-0.027195554 -0.005260803 0.12577383 0.13026105 0.019746413 -0.24552156 -0.16994356 -0.041925274
0.004865092 -0.0026201962 -0.10156529 -0.05376365 0.079197995 -0.048480522 -0.118344456 -0.06441214
-0.07841333 0.032107912 0.024505042 0.063710615 -0.028105242 0.027192282 -0.00015533809 -0.04024632
-0.016605526 0.03929204 0.05824826 0.013328549 0.091754295 -0.044614002 -0.018560333 0.040019505
-0.037015647 -0.06921992 -0.022409018 0.061509717 -0.0050997725 0.09577944 -0.030401824 0.02137981
0.09301612 0.1220545 0.05468839 -0.04329831 0.039932355 0.036741637 0.032781955 -0.041128412
-0.070934616 0.027257966 0.085188776 0.14683516 0.039801285 -0.011912874 0.028459176 0.034483433
0.0404852 0.14238627 0.16138652 0.071775414 0.12695102 0.13329269 0.0920506 0.05997064
0.057251528 0.043900557 -0.012381517 0.056925237 -0.16429925 -0.22294398 0.036177088 0.078660496
-0.045041952 0.10377779 -0.00057087676 -0.09338263 -0.08704553 -0.2726038 -0.245131 -0.022388395
0.0015785506 -0.047285754 0.07833331 0.18924625 0.12609485 0.016202718 -0.16109926 -0.17721657
0.059541777 0.11682037 0.097513735 -0.05264596 0.011306974 0.04929306 -0.07247123 -0.1634131
-0.08273715 -0.042809118 0.04763198 0.006421324 -0.010865053 -0.03185422 -0.045422997 -0.0068483753
0.025983863 -0.06026704 -0.053177718 0.09407694 -0.06995497 0.033081252 0.045054384 0.032308657
00000000: b76f b43c 2e66 423c 3bd5 1ebd 397c 6fbc
00000010: c74c 1b3d c0af 313d 41d1 15bd f541 013d
00000020: a50d 05bc e008 1e3d 8ba9 253d 2462 a53c
00000030: 45e8 46bc 1d20 05b8 ebff c33c ad04 57bd
00000040: 2897 18bd 614b 113d 8a5a bbbd ac4c 133d
00000050: 698f b5bc 94c8 083a db0e 853d 5aa5 143e
00000060: 6f40 e43d a437 efbc dc91 423d 2c62 4cbc
00000070: 4a84 44bd bd3b d1bd 9efd 47bd 276c 873d
00000080: 000f 1e3e 989f 5f3e 201d ec3c 021b 1fbd
00000090: 9a5e 183d 4514 4d3d d114 2f3d a3e9 d03d
000000a0: f52b 2d3e b5fa da3c 9d33 393e 06ec 363e
000000b0: 3f39 033e 472c a6bd 48cc b83a 0ee6 33bc
000000c0: 655f a83d 8443 f23d f7c5 20be 4d51 2bbe
000000d0: 7907 08bc e16d 363d 016d 0fbd 6a74 043e
000000e0: 1659 933c ecd9 a83c 00c5 873b f3af 94be
000000f0: 3d6c 59be 4d12 ebbc 285c 2e3d 82ca 3ebd
00000100: 4987 863d c66c a53d 6e6c b13d f6e0 3ebc
00000110: 822a d0bd 414a 18be 46d4 a43b 62bc 9ebb
00000120: 9a88 f43c 7bb7 0cbe 5c69 03bc abab b93d
00000130: 4e86 91bd fb26 55be b855 a2bd ae32 67bd
00000140: a691 2fbc f124 21bd 9484 83bd fbdb 83bd
00000150: 6a98 eb3a a64d 963c eb0a bc3b 8fcf f8bc
00000160: 55ba 32bd 96b6 9ebc 0925 af3c ff99 3cbc
00000170: a525 8ebc 1a7f 6bbb 6990 69bd a248 953c
00000180: b413 6f3b 8ae1 8fbd d500 323d 1c12 8f3c
00000190: 96ee 483d bfcf cebd 18bb 263d 0b0d b13d
000001a0: 5d77 f43d b2f7 b7bb e86c 06ba 52fd 94bd
000001b0: ec16 c0bb 4cf9 12bd 290f 74bd b0dc b6bb
000001c0: a442 713d bf49 af3d f386 1a3e bbd7 51bd
000001d0: d817 51bc 4627 5e3d a100 dfbc 56fa fb3c
000001e0: 0959 6f3d 07fb 3d3e 455f 553d b538 2c3e
000001f0: 0610 053e 7146 c23d 779d 3abc b06c e13c
00000200: 89f1 cdbc 4256 723d ecc9 80bb 511d 4cbe
00000210: 821b 43be 413b 143d 3c7b d33c 8087 703c
00000220: 61b5 543c 98e4 5a3c 94b1 b2bc 5c49 93bd
00000230: 4cf8 79be ec54 a9be 426a e9bd 5046 af3d
00000240: 36c9 debc d062 acbb dbca 003e 2763 053e
00000250: 3bc3 a13c 016a 7bbe af05 2ebe d6b9 2bbd
00000260: 5a6b 9f3b 99b7 2bbb 7601 d0bd 4637 5cbd
00000270: 8f32 a23d 8393 46bd 945e f2bd 83ea 83bd
00000280: 2b97 a0bd 9683 033d ccbe c83c b67a 823d
00000290: f73c e6bc 59c2 de3c 40e2 22b9 53d9 24bd
000002a0: 5008 88bc b1f0 203d ba95 6e3d fd5f 5a3c
000002b0: ade9 bb3d 2cbd 36bd d70b 98bc 7eeb 233d
000002c0: b89d 17bd 2cc3 8dbd 1e93 b7bc 9df1 7b3d
000002d0: fe1b a7bb 0328 c43d 3f0d f9bc b624 af3c
000002e0: 3c7f be3d b6f7 f93d ef00 603d 9259 31bd
000002f0: 1c90 233d 667e 163d 5f46 063d 4476 28bd
00000300: 2b46 91bd 194c df3c 7477 ae3d f55b 163e
00000310: ac06 233d 372e 43bc 3823 e93c 803e 0d3d
00000320: cfd3 253d b5cd 113e 8242 253e fdfe 923d
00000330: 73ff 013e e17d 083e 0685 bc3d c6a3 753d
00000340: 9480 6a3d 12d1 333d d9db 4abc 702a 693d
00000350: 103e 28be 6d4b 64be 6d2e 143d c118 a13d
00000360: e97d 38bd 7389 d43d e4a6 15ba 643f bfbd
00000370: ed44 b2bd ba92 8bbe 9f03 7bbe de67 b7bc
00000380: 5ee7 ce3a b5ae 41bd 376d a03d c5c9 413e
00000390: 021f 013e 90bb 843c 34f7 24be 4378 35be
000003a0: 14e2 733d 853f ef3d 48b5 c73d 4aa3 57bd
000003b0: e340 393c 85e7 493d cc6b 94bd c455 27be
000003c0: 1872 a9bd 9d58 2fbd c019 433d f869 d23b
000003d0: 5603 32bc 9279 02bd 770d 3abd 5668 e0bb
000003e0: 1cdc d43c 92da 76bd e1d0 59bd 69ab c03d
000003f0: 8d44 8fbd 3580 073d f28a 383d 1556 043d

conv1.conv2d.bias f4 [8]
0.17567815 0.0043775053 -0.06356762 -0.10661817 -0.102038816 -0.06193081 -0.02399479 -0.061895087
00000000: f9e4 333e 2d71 8f3b be2f 82bd a15a dabd
00000010: baf9 d0bd 29ab 7dbd b990 c4bc b485 7dbd

in1.weight f4 [8]
0.747227 0.7728161 0.73626274 0.7915164 0.8813573 0.76556194 0.6062274 0.7870371
00000000: 454a 3f3f 47d7 453f b77b 3c3f d2a0 4a3f
00000010: a2a0 613f defb 433f b831 1b3f 437b 493f

in1.bias f4 [8]
0.020034133 -0.15076862 -0.017808624 -0.050971925 -0.14606328 -0.18253757 -0.013208912 0.059197553
00000000: 9f1e a43c 1763 1abe 64e3 91bc f0c7 50bd
00000010: 9d91 15be 21eb 3abe 316a 58bc 2279 723d

conv2.conv2d.weight f4 [16, 8, 3, 3]
-0.017820762 0.093006134 0.031688664 0.020587174 0.14267017 0.021819212 0.23766266 0.23982628
0.03916423 -0.037713762 -0.12089245 0.022302376 0.04816394 0.06142462 0.058955524 0.08346888
-0.029362114 -0.014020053 0.08481261 0.09588261 -0.18544346 0.096187696 -0.088258475 -0.21886666
-0.051661946 -0.14655717 -0.059413362 -0.03610601 0.1662651 -0.044400085 -0.06996603 0.0017710679
0.0644961 -0.11305838 -0.016825985 -0.04245528 -0.025795158 0.063783295 0.019234918 0.04397771
0.03246448 -0.097055964 -0.07586481 0.041397963 -0.031297337 -0.02647044 0.05033508 0.05578103
-0.028538736 -0.08850878 0.0029777812 -0.06688324 0.11031826 -0.05341452 0.035999727 0.08123648
0.028185703 0.04363849 -0.064869605 -0.030244151 0.00882431 -0.10271065 -0.08058832 -0.25191623
-0.09838418 0.026262116 -0.06881734 0.044294044 0.10782651 -0.10466234 0.052175492 0.22865887
-0.024687659 -0.043162733 -0.03761611 0.08259497 -0.06000535 -0.0466576 0.03702153 0.11480487
0.10539744 -0.025401859 0.029653633 -0.054635387 -0.07043625 -0.12942593 0.043722123 -0.05387842
0.04770743 -0.09039571 0.13648908 0.13234092 -0.029127024 0.02083287 -0.18309742 0.010184076
-0.058837403 -0.0820301 -0.05957578 -0.024293298 0.058034334 0.0036746385 -0.12505268 0.028749978
0.0749797 -0.12133054 -0.08928636 0.024476998 0.08438407 -0.028653687 -0.09882062 -0.10025167
-0.054536406 -0.021942955 -0.018006569 -0.034390494 -0.11432523 -0.08565525 -0.14715083 -0.13231668
-0.07375964 0.008647773 -0.08377325 -0.050232098 -0.07553404 -0.0020415916 -0.069051996 0.043600235
0.07410381 -0.0024425872 -0.10018656 -0.07337394 -0.018174589 -0.107338354 -0.086010106 -0.09636008
-0.012159271 -0.013600823 0.011038218 0.006747265 -0.0008133967 -0.06566342 -0.04378757 -0.06467285
0.12799327 -0.0025991937 -0.04952226 0.03285647 0.1506516 -0.07338176 -0.12366191 0.02850939
-0.16267897 -0.07894131 -0.111856006 -0.11969722 -0.15198214 0.028202912 -0.12955245 -0.00878417
-0.14188917 -0.023839852 0.004856423 -0.06356974 0.042717084 -0.0125564085 -0.105621204 0.033352442
0.008545785 -0.06495024 0.024558842 -0.06059991 -0.12589242 0.03484226 -0.04455771 0.13478154
-0.038975153 0.07809327 -0.017183844 0.10760882 -0.034112513 -0.03824715 -0.014055615 0.0875925
-0.044432167 0.01774891 0.074777655 -0.04531304 -0.053940784 -0.052904744 -0.013015656 0.00018549591
-0.10394016 -0.060388606 0.120204374 -0.022805842 -0.12109417 -0.019846825 0.030207954 0.1472256
0.13012819 -0.058028262 0.0875076 0.09445715 -0.14168587 -0.011807207 0.14852762 0.0708375
0.11086408 0.06205158 -0.11747101 0.04920549 0.17115137 -0.18385611 -0.08751469 -0.031483293
0.13446346 -0.12663311 0.070812516 0.09126767 -0.11255181 -0.07908203 0.008933954 0.004138987
-0.09756207 0.1662948 -0.014193731 0.007503893 0.072670855 0.10217532 -0.005571522 -0.02240007
-0.03954116 -0.074806556 -0.030548867 0.008533276 -0.03485992 0.16666634 -0.08583535 -0.079577886
-0.04855909 -0.044060927 -0.18595074 0.08645564 -0.0076770387 -0.111163445 -0.01925974 -0.048789624
-0.008951888 0.03974796 0.0022154478 -0.055448372 -0.019634089 0.085424766 0.073360085 0.03574647
00000000: d9fc 91bc 007a be3d f9cb 013d 6fa6 a83c
00000010: 2118 123e 34be b23c d75d 733e 0595 753e
00000020: ac6a 203d bf79 1abd 7696 f7bd 79b3 b63c
00000030: 8d47 453d 6298 7b3d 597b 713d bbf1 aa3d
00000040: d188 f0bc 5db4 65bc 3cb2 ad3d 1a5e c43d
00000050: e4e4 3dbe 0efe c43d dcc0 b4bd 951e 60be
00000060: 7a9b 53bd 1513 16be 6d5b 73bd e5e3 13bd
00000070: 6641 2a3e dddc 35bd 5a4a 8fbd 2d23 e83a
00000080: 8816 843d 278b e7bd a6d6 89bc 96e5 2dbd
00000090: 5e50 d3bc d1a0 823d 8c92 9d3c f921 343d
000000a0: 79f9 043d 47c5 c6bd 025f 9bbd e990 293d
000000b0: a331 00bd 89d8 d8bc 282c 4e3d a67a 643d
000000c0: 11ca e9bc 1744 b5bd e126 433b 15fa 88bd
000000d0: 8aee e13d 2fc9 5abd 7374 133d 505f a63d
000000e0: b4e5 e63c 46be 323d 5bda 84bd 95c2 f7bc
000000f0: d793 103c f659 d2bd 7d0b a5bd 2afb 80be
00000100: a57d c9bd a623 d73c 1bf0 8cbd ac6d 353d
00000110: 25d4 dc3d 3559 d6bd f8b5 553d 8d25 6a3e
00000120: c63d cabc 68cb 30bd 5a13 1abd 8d27 a93d
00000130: 2bc8 75bd 0a1c 3fbd e3a3 173d d11e eb3d
00000140: 9dda d73d 8f17 d0bc 2dec f23c 5bc9 5fbd
00000150: e140 90bd 3b88 04be f815 333d 9eaf 5cbd
00000160: de68 433d 6321 b9bd cbc3 0b3e 6184 073e
00000170: cc9b eebc b2a9 aa3c e47d 3bbe 1cdb 263c
00000180: 7dff 70bd 66ff a7bd bc05 74bd bd02 c7bc
00000190: 69b5 6d3d 34d2 703b cf0d 00be 1385 eb3c
000001a0: f58e 993d 257c f8bd c4db b6bd fc83 c83c
000001b0: 8ed1 ac3d 23bb eabc 7762 cabd bf50 cdbd
000001c0: 9161 5fbd b6c1 b3bc 8382 93bc 0cdd 0cbd
000001d0: 5923 eabd 056c afbd b5ae 16be 067e 07be
000001e0: 4b0f 97bd 64af 0d3c 4f91 abbd 2cc0 4dbd
000001f0: 97b1 9abd 39cc 05bb 226b 8dbd 2996 323d
00000200: bdc3 973d d013 20bb 9c2e cdbd 1445 96bd
00000210: e0e2 94bc 36d4 dbbd 1126 b0bd 6f58 c5bd
00000220: ae37 47bc fcd5 5ebc a4d9 343c 2918 dd3b
00000230: 213a 55ba 8b7a 86bd 985a 33bd 3373 84bd
00000240: ab10 033e 3c57 2abb dad7 4abd 8294 063d
00000250: 6a44 1a3e 2d49 96bd 7542 fdbd 868c e93c
00000260: 5195 26be fbab a1bd c314 e5bd d123 f5bd
00000270: 35a1 1bbe cb09 e73c 66a9 04be 7beb 0fbc
00000280: 654b 11be cb4b c3bc a122 9f3b da30 82bd
00000290: 1cf8 2e3d 65b9 4dbc ee4f d8bd 929c 083d
000002a0: 9f03 0c3c a204 85bd a02f c93c 9c37 78bd
000002b0: f1e9 00be c2b6 0e3d 2582 36bd 2c04 0a3e
000002c0: 69a4 1fbd 5def 9f3d 22c5 8cbc 0362 dc3d
000002d0: 90b9 0bbd 0ba9 1cbd 8649 66bc b263 b33d
000002e0: 81fe 35bd 2966 913c 0725 993d 2b9a 39bd
000002f0: 03f1 5cbd a5b2 58bd 9e3f 55bc ae81 4239
00000300: 94de d4bd 0b5a 77bd b62d f63d 51d3 babc
00000310: 3800 f8bd cf95 a2bc ac76 f73c 4fc2 163e
00000320: 5340 053e 0baf 6dbd 2f37 b33d c072 c13d
00000330: 1a16 11be 0473 41bc a017 183e 4013 913d
00000340: b50c e33d cc29 7e3d a494 f0bd b28b 493d
00000350: 4e42 2f3e c744 3cbe e73a b3bd a0f4 00bd
00000360: cab0 093e 1cac 01be 2706 913d 8bea ba3d
00000370: 9081 e6bd c2f5 a1bd b85f 123c 57a0 873b
00000380: 9fce c7bd 2f49 2a3e d38c 68bc 38e3 f53b
00000390: 75d4 943d 4b41 d13d 5091 b6bb 5a80 b7bc
000003a0: e9f5 21bd 2e34 99bd 9e41 fabc 27cf 0b3c
000003b0: 47c9 0ebd 95aa 2a3e 72ca afbd bbf9 a2bd
000003c0: e5e5 46bd 3b79 34bd df69 3ebe a80f b13d
000003d0: ab8f fbbb a9a9 e3bd 9ac6 9dbc a1d7 47bd
000003e0: f1aa 12bc c2ce 223d 0c31 113b d51d 63bd
000003f0: abd7 a0bc 2ef3 ae3d d03d 963d e46a 123d

conv2.conv2d.bias f4 [16]
0.015099418 0.092321895 -0.011490448 -0.030653283 0.10095624 0.0029080992 -0.04826003 0.16900307
0.02725534 0.029906547 0.0011994052 -0.13683943 -0.09772965 -0.086494334 0.044373192 -0.111995146
00000000: 8d63 773c 4313 bd3d 6f42 3cbc 981c fbbc
00000010: 25c2 ce3d cf95 3e3b 4fac 45bd 240f 2d3e
00000020: 9746 df3c 93fe f43c 5c35 9d3a a31f 0cbe
00000030: 7c26 c8bd f123 b1bd aac0 353d b65d e5bd

in2.weight f4 [16]
0.9602921 0.7145987 0.85723066 0.8097949 0.79419124 1.0721437 0.9283473 0.79533947
0.7545349 0.9418427 0.9424004 0.97186285 0.45989677 0.80994326 0.68547356 1.0099874
00000000: b4d5 753f f1ef 363f 7873 5b3f b84e 4f3f
00000010: 1e50 4b3f 013c 893f 2ba8 6d3f 5e9b 4b3f
00000020: 3329 413f 9a1c 713f 2741 713f 01cc 783f
00000030: 9777 eb3e 7158 4f3f 327b 2f3f 4447 813f

in2.bias f4 [16]
0.120374195 -0.05168794 -0.14100838 -0.24130696 -0.15358266 0.18239287 0.08010194 -0.18622541
-0.15643255 -0.07544325 -0.0046148486 0.07212731 -0.094576724 -0.108620815 -0.26421702 -0.2240243
00000000: bf86 f63d bcb6 53bd 8064 10be 2c19 77be
00000010: c644 1dbe 32c5 3a3e 7c0c a43d e0b1 3ebe
00000020: db2f 20be fe81 9abd 2838 97bb 7cb7 933d
00000030: 71b1 c1bd 9774 debd 7447 87be a066 65be

conv3.conv2d.weight f4 [32, 16, 3, 3]
0.10229819 0.022168776 0.04490842 -0.014441782 -0.012450001 0.034761276 0.064021036 -0.044946194
-0.04047569 -0.019228466 -0.027288193 -0.03590421 0.06751473 0.016737355 0.03698938 0.1457622
0.061593797 -0.08926637 0.034341875 0.1174329 0.11183915 0.013892261 0.09544056 -0.017631033
-0.033330787 0.0049729566 -0.01146193 -0.078289874 -0.019921187 -0.014639091 0.027030576 0.03281121
-0.1028614 -0.012545479 -0.035923928 -0.06157055 0.08922534 -0.13152467 -0.12834626 0.024642063
-0.040575348 -0.13012207 0.09609737 -0.04529663 -0.06923481 0.019844025 -0.016283982 0.048978884
-0.024617715 0.06112891 0.050352115 -0.12866554 -0.043576635 -0.09262689 0.062425017 -0.04376597
-0.074499376 0.032335043 -0.021647133 -0.11859377 0.14191575 0.013834888 0.0068843225 -0.01098999
0.03016358 0.027894683 -0.028606048 -0.10622457 -0.010490122 -0.09544162 -0.06828367 -0.019310636
-0.13962382 -0.09875942 0.105114155 -0.015606384 -0.06359017 0.13533582 -0.08617103 -0.0938268
-0.071168035 -0.030338097 -0.024548212 0.13019103 -0.016539108 0.024375385 -0.044581342 -0.029342411
-0.024059659 -0.032175947 -0.051377434 0.031387076 -0.043329466 -0.033016484 0.115737684 0.06733233
-0.02286555 0.11163647 -0.02646616 0.08926464 0.12129221 0.03628385 -0.053962447 0.024440786
0.054302875 0.05304072 -0.043735586 -0.030619936 0.060293518 -0.021383768 -0.050792083 0.12833194
0.13912155 0.030462308 0.092649184 0.1589292 0.00029263587 -0.011929859 0.041265633 0.16051565
0.018310998 0.100675434 0.0022587858 -0.0063342326 0.07211359 0.043350086 -0.006828064 -0.0441685
-0.0033344098 0.06224989 0.048393235 0.05462795 0.01657889 -0.026729263 0.042965494 0.035044584
0.06105069 -0.00065296976 0.12064498 -0.015944436 -0.13935632 0.0666354 -0.012104579 -0.080362745
-0.0281174 0.066476904 0.13792609 -0.03798874 -0.070262834 0.101558596 0.033954054 -0.050885987
-0.027299952 0.055735003 -0.05816613 -0.022837698 -0.045700423 -0.05294847 -0.019190377 -0.04633549
-0.04996081 -0.1235858 0.09345835 -0.087107874 -0.082689054 -0.034174263 -0.0058856513 0.023489842
-0.08988793 -0.09249043 0.03962424 0.015363767 -0.0833596 -0.099700116 0.059419654 -0.07176709
-0.09714706 0.045184564 0.0715382 -0.009979857 -0.04935191 -0.021472313 -0.06662289 0.060093068
-0.02445873 -0.15084207 0.06635704 -0.0795449 -0.16802388 -0.053380445 -0.18798365 -0.015787592
-0.24851999 -0.22144078 -0.08100012 -0.20815271 -0.20246221 -0.124964096 -0.014714153 -0.08207928
-0.09508858 0.060011692 0.011508237 -0.06691794 0.025720738 -0.06988587 -0.08667222 -0.13095263
-0.07851555 0.05041517 -0.09230335 -0.10705755 0.116960965 0.00256658 -0.08182092 0.07592899
0.023143757 0.021699365 -0.024961902 -0.023313731 -0.0077754143 -0.036821567 -0.06892256 -0.091923304
0.002835258 -0.061049275 -0.11736861 0.08081006 -0.023399627 -0.088120125 0.011172608 -0.025869085
-0.06627495 0.014545185 -0.07077556 0.015599139 -0.10388261 -0.13103756 -0.08555399 -0.037818342
-0.13443856 -0.07375838 -0.040018555 -0.048407704 -0.064528495 -0.07204591 -0.10993431 -0.07517698
0.015666643 0.099192284 -0.044049677 -0.040142167 0.116481364 0.078448735 -0.13233626 0.015000728
00000000: b781 d13d 4b9b b53c e4f1 373d 399d 6cbc
00000010: 17fb 4bbc d761 0e3d 761d 833d 8019 38bd
00000020: d6c9 25bd 0485 9dbc 7d8b dfbc 4b10 13bd
00000030: 2a45 8a3d c71c 893c 2d82 173d b042 153e
00000040: c749 7c3d 49d1 b6bd 11aa 0c3d a980 f03d
00000050: ed0b e53d 5e9c 633c 5776 c33d f56e 90bc
00000060: dd85 08bd 2ff4 a23b d2ca 3bbc 7156 a0bd
00000070: c231 a3bc ccd8 6fbc 3a6f dd3c 0c65 063d
00000080: ffa8 d2bd 8e8b 4dbc f824 13bd 6731 7cbd
00000090: c6bb b63d 67ae 06be 346d 03be 27de c93c
000000a0: 5632 26bd b83e 05be b3ce c43d f688 39bd
000000b0: fbca 8dbd f08f a23c fc65 85bc 159e 483d
000000c0: 17ab c9bc 4f62 7a3d 053e 4e3d e6c0 03be
000000d0: 6a7d 32bd 2bb3 bdbd 60b1 7f3d f243 33bd
000000e0: 2193 98bd c071 043d 5455 b1bc 4ae1 f2bd
000000f0: 5d52 113e baab 623c e295 e13b 5c0f 34bc
00000100: 9d19 f73c 6483 e43c 3b57 eabc 448c d9bd
00000110: c3de 2bbc e576 c3bd 4fd8 8bbd 5731 9ebc
00000120: 8cf9 0ebe 6142 cabd 1746 d73d ebb1 7fbc
00000130: 903b 82bd 7995 0a3e 707a b0bd 4428 c0bd
00000140: 8cc0 91bd 9a87 f8bc 5519 c9bc cc50 053e
00000150: 067d 87bc e3ae c73c ed9a 36bd 7f5f f0bc
00000160: c318 c5bc edca 03bd 2571 52bd bc8f 003d
00000170: 3d7a 31bd 4b3c 07bd e107 ed3d 88e5 893d
00000180: 8950 bbbc a9a1 e43d 8fcf d8bc 61d0 b63d
00000190: 0d68 f83d 609e 143d ba07 5dbd 0b38 c83c
000001a0: b16c 5e3d 3a41 593d 1624 33bd a9d6 fabc
000001b0: 56f6 763d 032d afbc 5c0b 50bd 7369 033e
000001c0: e175 0e3e 178c f93c dbbe bd3d 56be 223e
000001d0: ec6c 9939 7575 43bc 2706 293d 375e 243e
000001e0: f200 963c ec2e ce3d 2308 143b 658f cfbb
000001f0: 4ab0 933d dc8f 313d f4bd dfbb 07ea 34bd
00000200: 1d86 5abb bef9 7e3d fc37 463d 8fc1 5f3d
00000210: 74d0 873c 54f7 dabc 96fc 2f3d e98a 0f3d
00000220: 4a10 7a3d 0f2c 2bba b714 f73d e89d 82bc
00000230: 6cb3 0ebe 2478 883d 4952 46bc 3995 a4bd
00000240: 7656 e6bc 0b25 883d 7f3c 0d3e 159a 1bbd
00000250: f6e5 8fbd f4fd cf3d 6813 0b3d d36d 50bd
00000260: 26a4 dfbc 634a 643d 9c3f 6ebd 2016 bbbc
00000270: 5e30 3bbd 7fe0 58bd 2335 9dbc 48ca 3dbd
00000280: b5a3 4cbd 8d1a fdbd 1767 bf3d 9d65 b2bd
00000290: e158 a9bd 50fa 0bbd 6cdc c0bb c56d c03c
000002a0: 2a17 b8bd 9f6b bdbd 074d 223d 4fb8 7b3c
000002b0: 70b8 aabd 932f ccbd 0662 733d a0fa 92bd
000002c0: 0af5 c6bd 7313 393d 9f82 923d 8e82 23bc
000002d0: 3a25 4abd b4e6 afbc 9571 88bd 2624 763d
000002e0: ad5d c8bc 5876 1abe 33e6 873d 70e8 a2bd
000002f0: 740e 2cbe 74a5 5abd c97e 40be fb54 81bc
00000300: 067c 7ebe 5fc1 62be 64e3 a5bd fc25 55be
00000310: 4152 4fbe 2ded ffbd a113 71bc 2e19 a8bd
00000320: cdbd c2bd d2ce 753d 0b8d 3c3c 460c 89bd
00000330: 4cb4 d23c 5320 8fbd 3481 b1bd 7218 06be
00000340: c3cc a0bd 2380 4e3d 8a09 bdbd fd40 dbbd
00000350: 3b89 ef3d 1134 283b ba91 a7bd a980 9b3d
00000360: fa97 bd3c dec2 b13c e77c ccbc 70fc bebc
00000370: e7c8 febb 36d2 16bd 4527 8dbd 4942 bcbd
00000380: bccf 393b ce0e 7abd f45e f0bd bf7f a53d
00000390: 93b0 bfbc 5378 b4bd 500d 373c 67eb d3bc
000003a0: 29bb 87bd ed4e 6e3c c7f2 90bd 8893 7f3c
000003b0: 68c0 d4bd b62e 06be ee36 afbd 68e7 1abd
000003c0: 43aa 09be a20e 97bd 7fea 23bd 2847 46bd
000003d0: 8427 84bd ce8c 93bd 3d25 e1bd 63f6 99bd
000003e0: 5557 803c 5325 cb3d 6f6d 34bd 1d6c 24bd
000003f0: c88d ee3d bba9 a03d 2883 07be 9dc5 753c

conv3.conv2d.bias f4 [32]
-0.20431502 0.042818204 0.1799399 -0.13112094 0.08686833 -0.21552834 0.14239156 -0.124050505
-0.002721613 0.07021897 0.0063678273 0.17367396 0.04818981 -0.034891613 -0.05983308 0.031614766
0.021019535 0.24380521 0.1630094 -0.010319112 0.07415273 -0.14507714 0.07905351 0.10161043
0.17478415 -0.1307737 -0.14375195 -0.036197536 0.080830604 0.033147417 0.062311716 0.019363182
00000000: f537 51be 2462 2f3d 2a42 383e 9144 06be
00000010: 06e8 b13d 76b3 5cbe 18cf 113e 310e febd
00000020: 175d 32bb f7ce 8f3d 35a9 d03b 96d7 313e
00000030: ae62 453d 82ea 0ebd 8813 75bd 7c7e 013d
00000040: 2931 ac3c 13a8 793e f0eb 263e 7e11 29bc
00000050: 63dd 973d 1a8f 14be cfe6 a13d 2119 d03d
00000060: 9efa 323e 8ae9 05be b633 13be de43 14bd
00000070: 848a a53d 96c5 073d 923a 7f3d 899f 9e3c

in3.weight f4 [32]
0.8745016 0.78275394 0.70616764 0.8976699 0.7066934 0.8546051 1.0020243 0.7627858
0.94357574 0.9060108 0.6021775 0.8148982 0.8550074 0.8740494 0.7711863 0.7914544
0.8044801 0.7840758 0.879466 0.8242834 0.77964556 0.95014244 0.8129106 0.8238044
0.7811039 0.858999 1.0440187 0.9271706 0.6729284 0.8425916 0.8487824 0.9555893
00000000: 56df 5f3f 9062 483f 67c7 343f b2cd 653f
00000010: dce9 343f 66c7 5a3f 5542 803f ee45 433f
00000020: 2e8e 713f 53f0 673f 4e28 1a3f 2b9d 503f
00000030: c4e1 5a3f b4c1 5f3f 776c 453f c19c 4a3f
00000040: 68f2 4d3f 31b9 483f af24 613f 3d04 533f
00000050: da96 473f 893c 733f e91a 503f d8e4 523f
00000060: 6df6 473f 5ce7 5b3f 68a2 853f 0d5b 6d3f
00000070: 0945 2c3f 15b4 573f ce49 593f 80a1 743f

in3.bias f4 [32]
-0.09476773 -0.1772994 -0.07822118 -0.13097328 -0.078744985 -0.12274982 -0.28274864 -0.15979737
-0.3062492 -0.004642533 -0.30529502 -0.14325266 -0.14035691 -0.09429586 -0.13107999 -0.14364009
-0.1190793 -0.100487426 -0.058206223 -0.09811069 -0.3718641 -0.23873976 -0.25739962 -0.1443763
-0.23336783 -0.19165348 -0.04009294 -0.2715742 -0.117937244 -0.052312426 -0.09010498 -0.028516032
00000000: 9515 c2bd f98d 35be 6d32 a0bd dc1d 06be
00000010: 0d45 a1bd 4264 fbbd 6ec4 90be eca1 23be
00000020: b2cc 9cbe 6420 98bb a14f 9cbe d3b0 12be
00000030: b9b9 0fbe 301e c1bd d539 06be 6316 13be
00000040: d9df f3bd 5acc cdbd a669 6ebd 42ee c8bd
00000050: f964 bebe 3278 74be e2c9 83be 61d7 13be
00000060: faf7 6ebe cf40 44be 7f38 24bd c60b 8bbe
00000070: 1589 f1bd 8e45 56bd f688 b8bd 749a e9bc

resnets.0.conv1.conv2d.weight f4 [32, 32, 3, 3]
-0.06437471 0.038438924 -0.0077408594 -0.085372135 -0.020576032 0.076653264 -0.101987496 0.011875585
0.061937604 0.002175124 0.011687172 0.06271086 0.004688486 -0.04777549 0.043088403 0.03780384
-0.04351883 -0.011340873 -0.084894136 -0.010568986 -0.06386034 -0.027152628 -0.0063691996 -0.028628254
-0.0006322039 -0.018359046 -0.05537327 0.033080798 -0.054955527 -0.06075621 -0.087785445 -0.04802332
0.018026428 -0.08055153 0.0640452 -0.042016655 -0.008846329 0.01746944 -0.033735756 -0.0058382666
-0.024749162 -0.023350168 0.066214934 0.053454503 -0.034273364 -0.0097679375 -0.04213006 0.063059814
-0.046777274 -0.002424716 -0.015203392 -0.005455763 -0.03784284 0.022391424 -0.089532554 -0.11680713
-0.032519218 -0.15651096 -0.08618353 0.056355804 -0.04991462 -0.06228762 -0.04116774 -0.05131179
-0.06201002 0.06968989 0.03423782 -0.042253017 0.050507292 0.023050489 0.049614917 -0.13861357
-0.02454613 0.05916179 0.057060312 -0.009186983 0.014913223 -0.040467706 -0.012842745 0.040168125
-0.03010737 -0.006753673 0.021983072 0.016711477 -0.013609971 -0.03543302 -0.020739267 -0.022293417
0.07618952 -0.03242689 -0.09027049 -0.0073707364 -0.0929939 -0.029979337 -0.013212003 -0.038788784
-0.056198537 -0.05426579 -0.029260566 -0.016025754 0.010491613 -0.06741618 -0.03486844 -0.021456262
0.0255849 -0.05361484 -0.015935102 0.06658453 -0.03859717 0.01995888 0.05388686 -0.06031314
0.060025804 -0.010179512 -0.036312833 0.04921632 -0.053517297 0.07110443 -0.05662125 0.0074683465
-0.06095618 -0.098264374 0.13644719 -0.11914105 0.008924953 0.11879311 0.03355177 -0.005555722
-0.014527481 -0.039977312 0.022324875 -0.016785331 -0.010598073 0.05167266 0.014218706 0.027230363
-0.04160441 -0.011568173 0.000882078 -0.034821786 0.00902609 -0.054818936 0.06373385 -0.10713385
0.008149546 0.0018322652 -0.005726796 -0.047494207 -0.039292894 0.004998405 0.019696858 -0.102040395
0.0769667 0.0053361524 -0.06262862 0.032274645 -0.03277731 -0.008311353 0.029102594 -0.0034809154
-0.03331202 0.1302599 -0.032927528 0.03842765 -0.059129436 0.030039482 -0.0540553 -0.054434076
-0.06308786 -0.018450458 -0.070481546 -0.03731454 -0.12807375 -0.17639755 -0.11519319 -0.054763917
-0.07932748 -0.04326147 -0.13807891 -0.012667231 0.023494296 -0.055328712 -0.01895204 -0.035014518
0.024883846 0.018804058 0.012861259 -0.035082888 0.03482765 0.018849926 -0.0037428283 0.002052316
-0.012808783 -0.009246325 -0.025342276 -0.0022307693 0.0031842974 0.028899763 -0.09377446 -0.029194115
0.02599978 0.0171424 0.031431798 0.028455775 -0.110145085 -0.027252223 0.010652266 0.016612554
0.01890492 0.05345179 0.03734995 0.034907583 0.05434286 -0.045579176 0.041316364 -0.0327457
0.0030384732 0.051569693 -0.008035905 -0.07336357 -0.08261977 0.029240344 -0.06554728 -0.013239506
-0.043732863 0.007040672 0.06976826 -0.07946597 -0.032789487 -0.0037814123 -0.039326068 -0.10520159
-0.023575775 0.042075377 -0.033860505 -0.0031753038 -0.07023362 -0.043606985 -0.072233744 -0.13713124
-0.08346729 -0.10679771 0.14295276 0.034586344 -0.0072424756 0.0416819 -0.015568579 -0.039028678
0.06856285 -0.041506737 -0.004946147 0.02446519 -0.07640581 -0.03482627 0.0260816 -0.070490144
00000000: e3d6 83bd 2272 1d3d 09a7 fdbb 96d7 aebd
00000010: 118f a8bc 63fc 9c3d d2de d0bd d091 423c
00000020: 49b2 7d3d 868c 0e3b 8d7b 3f3c 8d6e 803d
00000030: dfa1 993b 3bb0 43bd 777d 303d 33d8 1a3d
00000040: cd40 32bd 12cf 39bc fadc adbd 8a29 2dbc
00000050: 36c9 82bd 306f debc b8b4 d0bb cd85 eabc
00000060: 7cba 25ba b665 96bc 15cf 62bd bb7f 073d
00000070: 0c19 61bd 81db 78bd dbc8 b3bd 1ab4 44bd
00000080: 29ac 933c 33f8 a4bd 212a 833d a819 2cbd
00000090: 31f0 10bc 121c 8f3c 812e 0abd ee4e bfbb
000000a0: c1be cabc da48 bfbc b29b 873d 1cf3 5a3d
000000b0: 3a62 0cbd b309 20bc 9290 2cbd 8125 813d
000000c0: 8799 3fbd fce7 1ebb a617 79bc 42c6 b2bb
000000d0: 1801 1bbd 386e b73c d85c b7bd 9438 efbd
000000e0: df32 05bd 6944 20be fe80 b0bd 58d5 663d
000000f0: 4673 4cbd 4e21 7fbd 819f 28bd 502c 52bd
00000100: 38fe 7dbd 93b9 8e3d f53c 0c3d 8011 2dbd
00000110: bce0 4e3d 61d4 bc3c 0339 4b3d b7f0 0dbe
00000120: f714 c9bc a253 723d 13b8 693d 0085 16bc
00000130: 9756 743c 77c1 25bd 606a 52bc 5587 243d
00000140: bba3 f6bc ea4d ddbb d815 b43c 82e6 883c
00000150: 5bfc 5ebc 3722 11bd 65e5 a9bc afa0 b6bc
00000160: 4009 9c3d 0fd2 04bd bcdf b8bd 3886 f1bb
00000170: 9673 bebd 3a97 f5bc 2877 58bc fde0 1ebd
00000180: 7030 66bd ce45 5ebd dbb3 efbc 7148 83bc
00000190: 04e5 2b3c 7f11 8abd 36d2 0ebd 0bc5 afbc
000001a0: 6d97 d13c 3c9b 5bbd 558a 82bc 785d 883d
000001b0: 1118 1ebd ce80 a33c 78b8 5c3d e90a 77bd
000001c0: 9edd 753d f8c7 26bc c4bc 14bd 0d97 493d
000001d0: f434 5bbd 339f 913d afeb 67bd 08b9 f43b
000001e0: 30ad 79bd d53e c9bd d0b8 0b3e 3900 f4bd
000001f0: f739 123c cd49 f33d 956d 093d c60c b6bb
00000200: ac04 6ebc 40bf 23bd a8e2 b63c 6481 89bc
00000210: 8aa3 2dbc b6a6 533d 93f5 683c 3612 df3c
00000220: 6369 2abd 6f88 3dbc 413b 673a 4aa1 0ebd
00000230: 2ae2 133c d289 60bd e586 823d fe68 dbbd
00000240: ac85 053c 9e28 f03a d9a7 bbbb 4989 42bd
00000250: 96f1 20bd a9c9 a33b 4e5b a13c 8efa d0bd
00000260: b8a0 9d3d e4da ae3b 6f43 80bd 6b32 043d
00000270: 8041 06bd 572c 08bc 9068 ee3c 1220 64bb
00000280: 2f72 08bd da62 053e 04df 06bd 5066 1d3d
00000290: b531 72bd 5c15 f63c 1769 5dbd 44f6 5ebd
000002a0: 3534 81bd 6a25 97bc a158 90bd 22d7 18bd
000002b0: c425 03be 8fa1 34be 68ea ebbd 2150 60bd
000002c0: 7276 a2bd f032 31bd 8f64 0dbe 388a 4fbc
000002d0: 1c77 c03c 5ca0 62bd 4f41 9bbc 626b 0fbd
000002e0: 35d9 cb3c f80a 9a3c 08b8 523c 13b3 0fbd
000002f0: 70a7 0e3d 296b 9a3c 3d4a 75bb 2680 063b
00000300: eedb 51bc e67d 17bc 9b9a cfbc 1932 12bb
00000310: a5af 503b 32bf ec3c d30c c0bd 7f28 efbc
00000320: 7efd d43c 386e 8c3c a1be 003d 161c e93c
00000330: bf93 e1bd 0e40 dfbc d886 2e3c 0d17 883c
00000340: 7ede 9a3c 44f0 5a3d 43fc 183d 41fb 0e3d
00000350: 9e96 5e3d 3bb1 3abd 593b 293d 5b20 06bd
00000360: 1f21 473b be3a 533d 07a9 03bc a43f 96bd
00000370: 8e34 a9bd 7289 ef3c a73d 86bd 83ea 58bc
00000380: 3b21 33bd 70b5 e63b a9e2 8e3d 0ebf a2bd
00000390: 454e 06bd 92d1 77bb 5f14 21bd ee73 d7bd
000003a0: fc21 c1bc 3b57 2c3d 50b1 0abd c218 50bb
000003b0: a5d6 8fbd 3d9d 32bd 49ef 93bd 226c 0cbe
000003c0: e6f0 aabd c2b8 dabd 3562 123e 69aa 0d3d
000003d0: 4a52 edbb a4ba 2a3d 5a13 7fbc 89dc 1fbd
000003e0: ae6a 8c3d f802 2abd 4a13 a2bb 396b c83c
000003f0: a67a 9cbd fea5 0ebd 14a9 d53c 235d 90bd

resnets.0.conv1.conv2d.bias f4 [32]
0.05546059 -0.08963577 0.049533453 -0.009501436 0.02248125 0.016766258 0.062411506 0.024967771
-0.06572407 -0.08882086 -0.081279896 0.12686913 -0.0011428914 -0.011804336 0.08086034 0.01653121
0.21587764 0.073807955 0.04479504 0.119667836 0.09163592 -0.17968212 0.023342606 0.04327085
-0.043613654 -0.028321262 -0.04327453 -0.23386766 0.026664805 -0.06760522 -0.11443773 -0.07130211
00000000: a52a 633d f592 b7bd 97e3 4a3d e9ab 1bbc
00000010: 992a b83c 6459 893c 35a3 7f3d 3689 cc3c
00000020: 579a 86bd b6e7 b5bd 1376 a6bd fbe9 013e
00000030: 12cd 95ba f966 41bc 1b9a a53d 766c 873c
00000040: 070f 5d3e a028 973d 017b 373d 6914 f53d
00000050: 9dab bb3d 97fe 37be fe38 bf3c c63c 313d
00000060: 3ba4 32bd fe01 e8bc a240 31bd 017b 6fbe
00000070: 2670 da3c 9b74 8abd 545e eabd d706 92bd

resnets.0.in1.weight f4 [32]
1.0294604 1.0192373 0.97795 1.0470487 0.9782385 0.9004633 0.9391923 1.1484302
0.91736263 0.9755333 0.966662 0.92449087 0.970497 0.99310344 0.9143369 0.99423635
1.0137391 0.88752246 0.9843487 1.0812783 1.1046485 0.8273918 1.0212798 0.96910375
0.85112303 0.8712071 0.83356506 1.0526706 0.94756347 0.84562427 1.1438017 0.89201254
00000000: 5cc5 833f 5e76 823f ee5a 7a3f b105 863f
00000010: d76d 7a3f c384 663f e86e 703f c3ff 923f
00000020: 47d8 6a3f 8dbc 793f 2977 773f 6fab 6c3f
00000030: 7e72 783f 073c 7e3f fc11 6a3f 4686 7e3f
00000040: 34c2 813f ac34 633f 47fe 7b3f 5467 8a3f
00000050: 1f65 8d3f f3cf 533f 4cb9 823f 2f17 783f
00000060: 33e3 593f 6e07 5f3f 8564 553f e9bd 863f
00000070: 8593 723f d57a 583f 1868 923f ef5a 643f

resnets.0.in1.bias f4 [32]
0.0394108 -0.035097133 -0.07461754 -0.11691122 -0.013864493 0.018494537 -0.051868185 -0.022393383
-0.15133928 -0.027022747 -0.28668883 -0.1907985 -0.16539335 -0.17829308 -0.17291816 -0.3465572
-0.0029353094 -0.1703801 -0.2843759 -0.087872855 -0.2808075 -0.18809973 -0.11967995 -0.072765015
-0.119841434 -0.292386 -0.10840023 -0.19662285 -0.24509934 -0.30546784 -0.5753971 -0.11597364
00000000: 386d 213d 03c2 0fbd 15d1 98bd 266f efbd
00000010: e627 63bc db81 973c bc73 54bd 5472 b7bc
00000020: aff8 1abe cf5e ddbc e1c8 92be af60 43be
00000030: e05c 29be 7692 36be 7511 31be f26f b1be
00000040: 525e 40bb 1f78 2ebe b899 91be aff6 b3bd
00000050: 00c6 8fbe 379d 40be c31a f5bd d305 95bd
00000060: 6d6f f5bd 9eb3 95be f100 debd 8057 49be
00000070: 52fb 7abe 4866 9cbe 394d 13bf 9683 edbd

resnets.0.conv2.conv2d.weight f4 [32, 32, 3, 3]
0.065351136 0.006399205 0.01995319 0.03188456 0.04980456 0.13855721 0.078431875 -0.03379313
0.16651091 0.03475593 0.050822336 0.06411153 0.03294315 0.05060291 0.15690537 -0.0027591158
0.05959724 -0.08486703 -0.062625 0.019708464 -0.022832805 -0.13118422 -0.044385985 -0.0018813113
-0.042454105 -0.009133496 0.2614914 -0.054362714 -0.023848498 -0.006117229 -0.020696426 0.035840806
0.028300842 -0.036953226 0.0868196 -0.18229993 0.05324076 0.036405854 -0.10047204 0.09128302
0.1662718 0.048388325 0.01915707 -0.03804418 -0.021635141 0.030415645 -0.013097217 -0.029172054
0.018058017 -0.043602906 -0.06990238 0.039646536 0.032895897 0.038131185 -0.06492933 -0.052745428
-0.0539799 -0.11113787 0.05995308 -0.06777521 -0.16446827 0.06446524 -0.032729525 -0.0033301127
0.16870084 -0.017407555 -0.0029995218 -0.0051989686 0.069300584 -0.01379266 0.024714604 0.15683037
-0.046914704 -0.010922111 -0.0034284182 -0.024295025 -0.03026423 0.02404387 -0.060446534 -0.055688247
-0.024964351 0.031299155 -0.029863242 -0.03834101 -0.036208883 -0.02189808 -0.061316364 0.030896345
0.058279913 -0.0377249 0.029301876 0.016643366 0.036967404 0.076805174 -0.15854679 -0.042721692
0.052105315 -0.077420175 -0.054995455 -0.046020363 0.02022899 0.06577789 0.081495225 0.065804325
0.097558774 0.13035358 0.1287453 0.13548017 -0.0071594953 0.018205084 -0.15812206 -0.16289897
-0.02903813 0.029392593 0.02008889 0.0039273966 -0.0034057428 -0.085549526 0.0046854005 0.14589337
-0.04839076 0.12696698 0.040762328 0.006111179 -0.17292732 -0.0080494555 -0.03947373 0.052083876
0.13376716 0.12125059 0.0287044 -0.030934246 -0.10071346 -0.06764399 0.09828828 -0.1777983
-0.10399792 -0.01712072 0.036648195 -0.0756224 0.29491636 0.006485808 0.006624271 0.036054663
0.0681152 -0.059155185 0.023328668 0.047198966 -0.014477968 0.03125816 0.020419117 0.001900088
0.07041086 0.059134074 0.016983341 0.11192366 0.02642324 -0.025374878 -0.0014877331 0.08715039
-0.00054296304 -0.015051204 0.093562335 0.040064424 -0.12807715 0.009360902 0.06655303 -0.051769067
-0.007824512 0.035824675 0.09748059 -0.064507075 0.03819452 0.01557978 -0.06590582 0.059110455
-0.03619988 -0.00013826546 0.048106853 -0.0010373536 -0.024957813 -0.13756022 0.06144753 0.117435634
0.16689126 -0.0050858413 0.08624096 0.22630803 -0.05311302 -0.009817491 -0.00782384 0.056469835
-0.007822083 -0.005388541 -0.057294536 0.023660399 0.014057379 -0.043690566 -0.03152116 0.05733292
-0.027322425 0.15194969 0.03339214 0.1369753 0.061081626 0.04284135 0.17243627 -0.0075727827
0.010172142 -0.08316137 0.0614793 0.10389686 0.15241764 0.10387795 0.001354482 -0.002945225
0.044250708 -0.002002134 0.058538735 -0.015383515 0.07757095 0.015970977 0.13783295 0.0125810215
-0.1545908 -0.024387134 0.061670456 0.11534165 -0.061818175 0.10308871 0.09542501 0.0053533223
0.02327294 0.0046730605 0.012323073 -0.0002850822 -0.08820525 -0.012932838 0.019982738 0.024092626
-0.121351235 -0.059692807 -0.033108354 -0.04026913 -0.031243613 0.005665617 0.09771883 0.052183457
0.141887 -0.074863344 -0.038846217 -0.025313674 -0.03861453 -0.013720881 -0.052046884 0.07986657
00000000: d1d6 853d 6cb0 d13b df74 a33c 6299 023d
00000010: deff 4b3d f1e1 0d3e e4a0 a03d aa6a 0abd
00000020: d681 2a3e 3c5c 0e3d 152b 503d e84c 833d
00000030: 65ef 063d ff44 4f3d cdab 203e 48d2 34bb
00000040: 3c1c 743d c4ce adbd 8941 80bd a573 a13c
00000050: dd0b bbbc 2855 06be 14ce 35bd 5596 f6ba
00000060: 5be4 2dbd a9a4 15bc 33e2 853e 70ab 5ebd
00000070: ed5d c3bc 0973 c8bb 8d8b a9bc cfcd 123d
00000080: 2bd7 e73c 445c 17bd 79ce b13d d5ac 3abe
00000090: fc12 5a3d 4e1e 153d 49c4 cdbd 98f2 ba3d
000000a0: 2843 2a3e d632 463d 4aef 9c3c 37d4 1bbd
000000b0: 2e3c b1bc 3b2a f93c b695 56bc 3bfa eebc
000000c0: 68ee 933c f698 32bd fb28 8fbd 6864 223d
000000d0: d9bd 063d 722f 1c3d abf9 84bd 970b 58bd
000000e0: 071a 5dbd 409c e3bd 5c91 753d bbcd 8abd
000000f0: 5f6a 28be 5a06 843d 650f 06bd 053e 5abb
00000100: eabf 2c3e 4a9a 8ebc a093 44bb 1c5c aabb
00000110: 77ed 8d3d 9cfa 61bc 4876 ca3c 2498 203e
00000120: a229 40bd a7f2 32bc 50af 60bb 5c06 c7bc
00000130: b1ec f7bc a6f7 c43c c996 77bd 5c19 64bd
00000140: 0a82 ccbc 8b33 003d c2a3 f4bc 770b 1dbd
00000150: c44f 14bd 9a63 b3bc de26 7bbd 551a fd3c
00000160: ebb6 6e3d 6d85 1abd 7d0a f03c ab57 883c
00000170: 226b 173d 084c 9d3d 175a 22be f1fc 2ebd
00000180: 626c 553d 788e 9ebd ea42 61bd d97f 3cbd
00000190: 44b7 a53c 8fb6 863d f8e6 a63d 6bc4 863d
000001a0: e5cc c73d 697b 053e cfd5 033e 50bb 0a3e
000001b0: 339a eabb d422 953c c0ea 21be fdce 26be
000001c0: 5fe1 edbc bcc8 f03c 7591 a43c 64b1 803b
000001d0: e232 5fbb 9734 afbd fd87 993b 1265 153e
000001e0: 6435 46bd a203 023e 66f6 263d 4940 c83b
000001f0: dc13 31be dde1 03bc 35af 21bd e755 553d
00000200: 42fa 083e 3b52 f83d 7d25 eb3c d169 fdbc
00000210: dc42 cebd ef88 8abd 5e4b c93d c210 36be
00000220: ddfc d4bd c140 8cbc 6b1c 163d ebdf 9abd
00000230: 47ff 963e e786 d43b 6a10 d93b 0eae 133d
00000240: fb7f 8b3d b54c 72bd c31b bf3c b453 413d
00000250: 0035 6dbc 8e08 003d fe45 a73c 600c f93a
00000260: 9233 903d 9236 723d a620 8b3c 3b38 e53d
00000270: 8d75 d83c fade cfbc 0a00 c3ba e77b b23d
00000280: a255 0eba 5399 76bc 9c9d bf3d 981a 243d
00000290: a826 03be 785e 193c f44c 883d cd0b 54bd
000002a0: 6232 00bc e5bc 123d e7a3 c73d 491c 84bd
000002b0: db71 1c3d 5542 7f3c a1f9 86bd ce1d 723d
000002c0: 5346 14bd 5afb 10b9 b10b 453d d0f7 87ba
000002d0: 5474 ccbc 96dc 0cbe 68b0 7b3d 1882 f03d
000002e0: 8be5 2a3e 21a7 a6bb 1a9f b03d 4bbd 673e
000002f0: 0a8d 59bd 8bd9 20bc 902f 00bc ea4c 673d
00000300: 3228 00bc 5c92 b0bb adad 6abd 74d3 c13c
00000310: ec50 663c e1f4 32bd 551c 01bd edd5 6a3d
00000320: 47d3 dfbc b398 1b3e 32c6 083d 4143 0c3e
00000330: ba30 7a3d 697a 2f3d 2293 303e 1b25 f8bb
00000340: 0ea9 263c 8250 aabd b8d1 7b3d e0c7 d43d
00000350: 5f13 1c3e f6bd d43d e088 b13a ad04 41bb
00000360: 3b40 353d 3c36 03bb 50c6 6f3d 230b 7cbc
00000370: 85dd 9e3d 91d5 823c 1524 0d3e a120 4e3c
00000380: 0d4d 1ebe 87c7 c7bc 299a 7c3d 3e38 ec3d
00000390: 0e35 7dbd 2c20 d33d 306e c33d ec6a af3b
000003a0: e5a6 be3c 7920 993b b7e6 493c 1677 95b9
000003b0: f4a4 b4bd 41e4 53bc d7b2 a33c e65d c53c
000003c0: ff86 f8bd 7280 74bd a09c 07bd 3ef1 24bd
000003d0: 9bf2 ffbc a4a6 b93b cf20 c83d 52be 553d
000003e0: d34a 113e f451 99bd 361d 1fbd 9f5e cfbc
000003f0: 452a 1ebd 8ccd 60bc 1d2f 55bd 1691 a33d

resnets.0.conv2.conv2d.bias f4 [32]
-0.120912045 -0.20031561 -0.116846934 -0.121478505 0.055558763 0.044688072 -0.10170808 -0.02420553
-0.09341685 -0.011454087 -0.058247842 -0.06527059 -0.07990067 -0.14167282 0.08180275 -0.014609778
-0.10516348 0.059696045 0.16119687 -0.0069530546 -0.044924915 0.023612382 0.008333373 -0.08427035
-0.024100143 -0.05636267 -0.09830166 0.0157761 -0.032992367 0.17245957 -0.013670518 -0.028224874
00000000: bca0 f7bd 891f 4dbe 724d efbd b9c9 f8bd
00000010: 9691 633d d70a 373d 534c d0bd ad4a c6bc
00000020: 5551 bfbd eca9 3bbc 4a95 6ebd 96ac 85bd
00000030: f6a2 a3bd ae12 11be 3388 a73d da5d 6fbc
00000040: f35f d7bd d783 743d cb10 253e 73d6 e3bb
00000050: 3003 38bd c16e c13c b388 083c ef95 acbd
00000060: aa6d c5bc 8bdc 66bd 6152 c9bd e13c 813c
00000070: 0123 07bd 3e99 303e 4ffa 5fbc da37 e7bc

resnets.0.in2.weight f4 [32]
0.97707814 0.87780786 0.9388103 0.8850009 0.80798876 0.85249573 0.8677904 0.68829435
0.9204204 1.0123999 0.98028415 0.871051 1.1361227 0.85427356 0.97701705 0.9105532
0.87199473 0.8808676 0.89053583 0.8992379 1.0008957 0.971733 0.9585846 0.8509058
0.86239743 0.76742816 0.9007197 0.8977325 0.9042616 0.9948173 0.81849015 0.84807056
00000000: cb21 7a3f 04b8 603f df55 703f 6b8f 623f
00000010: 5ad8 4e3f 293d 5a3f 8327 5e3f 0f34 303f
00000020: aca0 6b3f 5296 813f e7f3 7a3f 33fd 5e3f
00000030: 786c 913f acb1 5a3f ca1d 7a3f 041a 693f
00000040: 0c3b 5f3f 8a80 613f 28fa 633f 7434 663f
00000050: 5a1d 803f 7ec3 783f cd65 753f f6d4 593f
00000060: 14c6 5c3f 2c76 443f 9195 663f ccd1 653f
00000070: b07d 673f 59ac 7e3f 9288 513f 271b 593f

resnets.0.in2.bias f4 [32]
-0.155043 -0.111694634 -0.1099107 -0.13109413 -0.03106641 0.047633916 -0.0969356 -0.02982987
-0.029749135 -0.026801959 -0.0067069265 -0.17188339 -0.046006307 -0.15295026 0.09571745 0.070130214
-0.15581645 -0.006800286 0.26466253 0.06883919 -0.01724595 -0.079623975 0.083032265 -0.12112118
0.013619385 -0.048880346 -0.14005797 -0.06861719 -0.03724726 0.15249802 -0.07246116 -0.08872832
00000000: 98c3 1ebe 28c0 e4bd dc18 e1bd 8a3d 06be
00000010: fc7e febc c81b 433d 2c86 c6bd c65d f4bc
00000020: 75b4 f3bc c88f dbbc c7c5 dbbb 3302 30be
00000030: 1c71 3cbd fe9e 1cbe 8307 c43d 6ea0 8f3d
00000040: 598e 1fbe efd4 debb d981 873e 90fb 8c3d
00000050: 6147 8dbc e511 a3bd d20c aa3d 620e f8bd
00000060: d723 5f3c c236 48bd 5b6b 0fbe 2b87 8cbd
00000070: 9590 18bd 7128 1c3e 8466 94bd 32b7 b5bd

resnets.1.conv1.conv2d.weight f4 [32, 32, 3, 3]
0.091030955 -0.049323395 -0.021162648 0.116774485 0.017046712 -0.06228934 0.04396728 -0.075854644
-0.10801676 -0.008590673 0.006583111 -0.09820796 0.13684364 -0.05049917 0.006599083 0.17253955
0.04362221 -0.09091887 0.033148304 0.062150095 0.013306827 0.108934596 0.014740818 -0.0025350722
-0.011329484 -0.12823422 -0.13251944 -0.072853096 0.023107113 -0.0078461785 -0.00032830436 0.012760046
-0.08704145 -0.035167236 -0.07509403 -0.17325942 0.0022393225 -0.031579293 0.017094897 0.052671447
0.017557614 0.067345805 0.020320902 0.0147757325 0.08006226 0.02064807 0.04571712 0.0032582625
0.06253292 0.011203495 -0.08824623 0.07142951 -0.0739283 -0.034008227 -0.11205621 0.058352593
-0.08028331 -0.054248597 0.041220658 -0.0018337801 0.07960723 0.10234593 -0.026960714 0.112082675
0.09554328 0.035694636 0.060935065 0.007738861 0.034681123 0.0470972 0.045291226 -0.028077353
-0.15218304 -0.17005055 -0.16602458 0.031369597 0.018489992 0.06744156 0.008185001 0.2661037
0.066271454 -0.060324278 0.04456923 0.037016414 0.11010126 0.07311419 -0.095286384 0.0048596626
0.20015934 -0.045883678 0.02758766 -0.02327334 0.13834457 0.114351474 0.020980632 0.10561192
0.14688781 0.025922123 0.10882563 -0.106276296 -0.06529634 -0.11047142 -0.14934258 -0.035174288
-0.07194136 -0.08489495 -0.07481416 -0.009702253 0.12820289 0.041630685 0.20153217 0.05972095
0.0059855497 0.100765884 -0.12765671 -0.046769492 -0.15535331 0.069747716 -0.047837466 -0.06913869
-0.05053484 -0.13607067 0.012441149 -0.056907963 0.040524546 -0.029597683 -0.018417094 -0.14777957
-0.041000336 -0.18714961 0.06261119 0.09316039 0.102291286 0.047202013 0.17406863 0.07902813
0.080106586 -0.013104297 -0.04052126 0.027688533 -0.08952356 -0.117544405 -0.051897682 -0.10199575
-0.011957298 0.100749135 0.003936563 0.0003064307 -0.05397332 -0.03030477 0.06022368 -0.1395635
-0.006937858 0.055830605 0.08463058 0.050555043 -0.0027022597 0.062400218 -0.011306282 -0.099580236
0.011233088 -0.08908722 0.069470815 0.12006577 0.1235698 0.13149127 0.07649181 0.090358034
-0.039577875 0.023351932 0.08835758 0.010974599 0.015005772 -0.022569 0.13603196 -0.027115611
-0.02489477 -0.046806555 -0.038935754 0.03154421 0.008381535 -0.15288937 0.018974569 -0.0354168
-0.050038192 0.06220868 -0.19452195 0.03644824 0.016460368 -0.13874514 -0.11223414 -0.21713412
-0.10841242 0.03442528 0.015610587 0.05552418 0.055076126 0.057812545 -0.017547147 0.019934433
-0.05884352 -0.047599744 -0.05332393 -0.043263357 0.04959023 -0.012721905 -0.009923482 -0.08411878
-0.031941164 -0.060319394 -0.040727083 0.03709991 -0.014281472 0.023403563 0.021101473 -0.06615279
-0.031828918 -0.06339396 -0.10920536 -0.014401917 0.05064798 0.019903755 0.036926385 0.08713836
0.035068367 -0.02450051 -0.13694845 -0.13586822 -0.114926 -0.06334115 -0.06721854 -0.0073084203
-0.055788115 0.06085299 -0.10127452 -0.09756891 -0.023094865 -0.024215454 -0.023789214 0.108561784
0.089306444 -0.04906693 0.028859666 0.060139112 0.042717505 -0.12675878 -0.120491214 -0.016879562
-0.05696765 -0.17445764 -0.13584583 0.12107483 -0.053008396 -0.059855625 -0.023391487 0.018317461
00000000: 706e ba3d 5407 4abd 4a5d adbc 7627 ef3d
00000010: 8ca5 8b3c 1b23 7fbd 0917 343d ae59 9bbd
00000020: e437 ddbd e5bf 0cbc 23b7 d73b 4121 c9bd
00000030: bd20 0c3e 38d8 4ebd 1f3d d83b 35ae 303e
00000040: 34ad 323d ac33 babd 84c6 073d 1991 7e3d
00000050: e104 5a3c 1a19 df3d 7983 713c 7423 26bb
00000060: 4d9f 39bc d54f 03be 2db3 07be 0134 95bd
00000070: 214b bd3c 428d 00bc 4420 acb9 830f 513c
00000080: ca42 b2bd 850b 10bd e6ca 99bd eb6a 31be
00000090: 99c1 123b 4a59 01bd 990a 8c3c 04be 573d
000000a0: fcd4 8f3c 99ec 893d 0578 a63c ea15 723c
000000b0: aff7 a33d 2426 a93c e041 3b3d 9388 553b
000000c0: 4211 803d dd8e 373c 70ba b4bd a349 923d
000000d0: b867 97bd 364c 0bbd ba7d e5bd 2103 6f3d
000000e0: 936b a4bd c733 5ebd fed6 283d 735b f0ba
000000f0: 1e09 a33d be9a d13d b7dc dcbc 9a8b e53d
00000100: 32ac c33d 8a34 123d 0c97 793d 4596 fd3b
00000110: cb0d 0e3d fee8 403d 4b83 393d 7a02 e6bc
00000120: dfd5 1bbe bb21 2ebe 5902 2abe 687d 003d
00000130: 5378 973c cd1e 8a3d 621a 063c bf3e 883e
00000140: 54b9 873d 9716 77bd 3a8e 363d 869e 173d
00000150: c57c e13d e4bc 953d 8225 c3bd ce3d 9f3b
00000160: 92f6 4c3e 86f0 3bbd 84ff e13c bba7 bebc
00000170: 33aa 0d3e 1b31 ea3d 93df ab3c 104b d83d
00000180: c269 163e a25a d43c f9df de3d 63a7 d9bd
00000190: 16ba 85bd d73e e2bd 43ed 18be ea12 10bd
000001a0: fe55 93bd 67dd adbd 2b38 99bd 33f6 1ebc
000001b0: 9e47 033e f084 2a3d 735e 4e3e f49d 743d
000001c0: 6e22 c43b 585e ce3d 71b8 02be 5e91 3fbd
000001d0: f014 1fbe e4d7 8e3d 38f1 43bd 9698 8dbd
000001e0: 9ffd 4ebd 1c56 0bbe f6d5 4b3c 5318 69bd
000001f0: 11fd 253d d776 f2bc 72df 96bc 8753 17be
00000200: f8ef 27bd 26a4 3fbe 4c3a 803d e0ca be3d
00000210: 187e d13d e656 413d 0c3f 323e 80d9 a13d
00000220: ec0e a43d 68b3 56bc 9ff9 25bd 10d3 e23c
00000230: 2158 b7bd 1fbb f0bd aa92 54bd 26e3 d0bd
00000240: 8be8 43bc 9055 ce3d 49fe 803b 6fa8 a039
00000250: 2113 5dbd b641 f8bc 1bad 763d bce9 0ebe
00000260: f956 e3bb a2ae 643d cc52 ad3d ce12 4f3d
00000270: 6518 31bb 5f97 7f3d fc3d 39bc b9f0 cbbd
00000280: fc0a 383c 5c73 b6bd b746 8e3d 0be5 f53d
00000290: 2a12 fd3d a6a5 063e bda7 9c3d a20d b93d
000002a0: 691c 22bd 8d4c bf3c d2f4 b43d cece 333c
000002b0: c5da 753c a0e2 b8bc f64b 0b3e 8f21 debc
000002c0: 1ef0 cbbc 3bb8 3fbd 197b 1fbd 8034 013d
000002d0: b552 093c 088f 1cbe 8e70 9b3c 3511 11bd
000002e0: d9f4 4cbd 87ce 7e3d c330 47be c04a 153d
000002f0: e5d7 863c 3513 0ebe 03db e5bd 6858 5ebe
00000300: 5507 debd 8601 0d3d 8cc3 7f3c 536d 633d
00000310: 8197 613d d9cc 6c3d 09bf 8fbc 894d a33c
00000320: e705 71bd f3f7 42bd 316a 5abd eb34 31bd
00000330: 201f 4b3d 896f 50bc 1a96 22bc 7846 acbd
00000340: bdd4 02bd 7811 77bd 71d1 26bd 13f6 173d
00000350: d6fc 69bc d4b8 bf3c ffdc ac3c 1d7b 87bd
00000360: 0a5f 02bd b1d4 81bd 0fa7 dfbd 05f6 6bbc
00000370: 4274 4f3d 330d a33c 1f40 173d 9975 b23d
00000380: d9a3 0f3d 4bb5 c8bc 373c 0cbe 0a21 0bbe
00000390: 535e ebbd 01b9 81bd e0a9 89bd 797b efbb
000003a0: 1482 64bd fc40 793d 0469 cfbd 35d2 c7bd
000003b0: 7131 bdbc 7d5f c6bc 99e1 c2bc a455 de3d
000003c0: 4ce6 b63d 68fa 48bd 1b6b ec3c 6e54 763d
000003d0: 8df8 2e3d 0ecd 01be 19c4 f6bd 0247 8abc
000003e0: e956 69bd 06a5 32be 2b1b 0bbe 15f6 f73d
000003f0: 551f 59bd 2c2b 75bd 819f bfbc 800e 963c

resnets.1.conv1.conv2d.bias f4 [32]
-0.09018686 -0.021836996 -0.06832036 -0.15176934 -0.15719101 0.02806056 0.014801437 0.030923266
0.2819623 0.060949903 -0.054106634 0.14282937 0.13953812 0.15689526 0.11477014 0.13885948
-0.14197193 -0.086638875 -0.003955818 0.01795311 0.20895438 0.17358212 -0.103435986 -0.06004282
-0.06943632 -0.017457953 0.08904005 0.025855258 0.08280003 0.0010299673 -0.041607857 0.029112628
00000000: e3b3 b8bd 80e3 b2bc 8beb 8bbd 6c69 1bbe
00000010: aef6 20be 42df e53c ba81 723c ca52 fd3c
00000020: 5d5d 903e 9ba6 793d eb9e 5dbd dd41 123e
00000030: 15e3 0e3e 27a9 203e 9b0c eb3d 2e31 0e3e
00000040: 1761 11be b96f b1bd ce9f 81bb 6712 933c
00000050: 23f8 553e 83bf 313e 3fd6 d3bd 76ef 75bd
00000060: a134 8ebd fb03 8fbc a15a b63d 68ce d33c
00000070: 1093 a93d f8ff 863a 006d 2abd 9b7d ee3c

resnets.1.in1.weight f4 [32]
1.0403917 0.86698914 0.93525773 1.0836946 0.9501413 0.9752662 1.0693424 0.7791281
1.0124979 0.9731464 1.044983 1.0838144 0.95359194 0.98937774 1.0326433 1.0947834
0.9924484 0.89536667 0.9759379 1.0412059 1.0630773 1.104354 0.8731307 1.0447348
1.2608904 1.1025438 0.9951465 0.9007661 0.9364291 1.0024853 0.732834 0.97576654
00000000: 8e2b 853f 00f3 5d3f 0d6d 6f3f 81b6 8a3f
00000010: 763c 733f 0cab 793f 36e0 883f f074 473f
00000020: 8899 813f 1f20 793f 01c2 853f 6eba 8a3f
00000030: 9a1e 743f dc47 7d3f a82d 843f dd21 8c3f
00000040: 1911 7e3f c036 653f 11d7 793f 3c46 853f
00000050: eb12 883f 795b 8d3f 7e85 5f3f dfb9 853f
00000060: db64 a13f 2820 8d3f ecc1 7e3f 9b98 663f
00000070: d1b9 6f3f 7051 803f 029b 3b3f d6cb 793f

resnets.1.in1.bias f4 [32]
-0.056397967 -0.1636056 -0.156997 -0.25187197 -0.31514108 -0.14192691 -0.17428477 -0.37493283
-0.15604563 -0.19006704 -0.01887709 -0.21702215 -0.125564 -0.0572972 -0.2862494 -0.21912277
-0.15197584 -0.2387377 -0.06703226 -0.12629858 -0.071068265 -0.15692112 -0.20734365 -0.23190333
-0.37262422 -0.16726156 -0.2022712 -0.33673406 -0.1151153 -0.39479813 -0.22799334 -0.12222508
00000000: 8e01 67bd 3a88 27be d2c3 20be 5df5 80be
00000010: 2c5a a1be 4a55 11be b577 32be 32f7 bfbe
00000020: 6dca 1fbe efa0 42be 21a4 9abc 0e3b 5ebe
00000030: d993 00be 78b0 6abd 488f 92be b861 60be
00000040: 8e9f 1bbe a877 74be 3648 89bd 6a54 01be
00000050: 3d8c 91bd eeaf 20be e551 54be 1178 6dbe
00000060: 9ac8 bebe 9d46 2bbe 2e20 4fbe 6868 acbe
00000070: 92c1 ebbd fb22 cabe 1677 69be 2551 fabd
