Assets/Style_Transfer/Models/Estilos mejoras/RAFT/RAFT.onnx (onnx, 449372 bytes, 62 tensors)

conv1.conv2d.weight f4 [8, 3, 9, 9]
0	0xbd9aca49	-0.07558114
1	0x3bfad692	0.0076549733
2	0xbd8cd314	-0.068761975
3	0xbd8f0dff	-0.069850914
4	0x3dca13b1	0.09867037
5	0x3d65b5b7	0.0560815
6	0x3cce8402	0.02520943
7	0xbcbbaf45	-0.022910723
8	0x3b8af4a1	0.004240588
9	0xba9b5b0b	-0.0011852694
10	0xbdc473c7	-0.09592395
11	0xbdd87983	-0.105700515
12	0xbd63b985	-0.055596847
13	0xbca6b431	-0.020349594
14	0x3d616c73	0.055035066
15	0x3c659067	0.014011479
16	0x3d446246	0.047945283
17	0x3ca241aa	0.019806702
18	0xbd8e4e0c	-0.0694848
19	0xbd6e967f	-0.058248993
20	0xbdb87c0c	-0.09008035
21	0xbe23ba64	-0.15989071
22	0xbdd36abc	-0.10323092
23	0xbcbc46d9	-0.022983002
24	0x3d8954a2	0.067055956
25	0x3c3d913d	0.011570272
26	0xbd23435a	-0.039859153
27	0x3b50bab8	0.0031849574
28	0xbd2afc52	-0.041744538
29	0x3ce5a725	0.028033802
30	0xbcd40c4c	-0.02588477
31	0xbdc23f7f	-0.09484767
32	0xbd40bcf0	-0.047055185
33	0xbcce7281	-0.025201084
34	0x3da2b4e2	0.07944657
35	0xbcb685bb	-0.022280565
36	0xbbf095b6	-0.0073420657
37	0xbcbba9e8	-0.022908166
38	0x3de7c618	0.1131708
39	0x3da29156	0.07937877
40	0xbe0eebe4	-0.13957173
41	0xbe112eb1	-0.14177968
42	0x3d5bb74b	0.0536416
43	0x3dfde85d	0.123978354
44	0x3c62652f	0.013818069
45	0xbccd6aa8	-0.025075272
46	0xbd8f2fca	-0.06991537
47	0x3d7c80d4	0.061646298
48	0x3bdddca4	0.006770687
49	0xbda588bb	-0.0808272
50	0xbd720490	-0.059086382
51	0x3d3913cd	0.0451849
52	0x3e1eb0c1	0.15497114
53	0xbcfcb836	-0.030849557
54	0x3cff8efe	0.031196114
55	0xbc617148	-0.0137599185
56	0x3ccf49b6	0.025303703
57	0xbc50255a	-0.012704218
58	0xbdc71047	-0.097199015
59	0x3b3c366b	0.002871896
60	0x3cc29cd1	0.023756417
61	0x3e2911f5	0.16510756
62	0xbcd34050	-0.025787503
63	0x3c946ce6	0.018118333
64	0xbdc1a483	-0.09455206
65	0xbbce3bb2	-0.0062937373
66	0x3dbed270	0.093174815
67	0x3d7e5a3a	0.062097766
68	0xbd1c7602	-0.03819848
69	0x3d73c59e	0.059514634
70	0x3d3f1126	0.046647213
71	0xbd10bb79	-0.035335038
72	0x3d68ade6	0.056806467
73	0xbc7e5d1a	-0.015525127
74	0x3c8cf0b1	0.017204614
75	0x3d8416f9	0.06449694
76	0x3d2e956a	0.04262296
77	0x3cecc723	0.02890355
78	0x3d736efd	0.05943202
79	0x3d7bfb2a	0.061518826
80	0xbd2b98da	-0.041893817
81	0x3cd6fa81	0.026242496
82	0xbb4b5a9c	-0.003102935
83	0xbcf33324	-0.029687472
84	0x3da21514	0.079141766
85	0x3dc128ec	0.09431633
86	0x3db32bda	0.087485984
87	0xbd6099da	-0.054834224
88	0xbdb9b637	-0.09067958
89	0x3d66ff41	0.056395773
90	0xbcaa7616	-0.02080826
91	0xbc36f37d	-0.011166451
92	0xbd830b7c	-0.06398675
93	0xbd5696a6	-0.052389763
94	0xbcc8a1e9	-0.024491267
95	0x3dbc1ca5	0.09185151
96	0x3d868abc	0.0656943
97	0x3c4d0ae4	0.012514804
98	0xbd81cd55	-0.06337992
99	0xbd9dcc15	-0.07704941
100	0xbb7b0357	-0.0038301551
101	0xbd1a7aba	-0.037714697
102	0xbd56694b	-0.05234651
103	0xbdcf9a8b	-0.101368986
104	0xbce78b5c	-0.028264694
105	0x3cf9a8b2	0.030475948
106	0x3d187640	0.037222147
107	0xbd447efd	-0.047972668
108	0x3c11627f	0.008873581
109	0x3d85f242	0.06540348
110	0x3da16b76	0.07881825
111	0x3dbfa12c	0.09356913
112	0xbd792fa0	-0.060836434
113	0xbde24285	-0.11047844
114	0x3da8de77	0.08245557
115	0x3d507363	0.05089129
116	0xbc20b9de	-0.009809939
117	0x3c75f17f	0.01501119
118	0xbd4fedd7	-0.05076393
119	0x3d808ac5	0.06276468
120	0x3db8f3a8	0.09030849
121	0xbcdec871	-0.027195187
122	0xbdf6fff8	-0.12060541
123	0xbcbd17c6	-0.023082625
124	0x3da79643	0.08182957
125	0xbd0572bf	-0.032580134
126	0xbd875a67	-0.0660904
127	0xbd8be4a8	-0.06830722
128	0x3ca4edcf	0.020132927
129	0x3dd86560	0.10566211
130	0xbc540383	-0.01294029
131	0xbdd4ff79	-0.1040029
132	0x3b7748d5	0.003773262
133	0x3e118d46	0.14214048
134	0x3d312ac3	0.04325367
135	0xbd87b77c	-0.06626794
136	0x3b76ab4e	0.0037638727
137	0xbd077877	-0.03307387
138	0x3ab570a6	0.0013842776
139	0xb85f727c	-5.3273965e-05
140	0xbded875f	-0.115980856
141	0xbad0c679	-0.001592829
142	0x3deb63a3	0.114936136
143	0x3b11ac02	0.0022227769
144	0x3bc4efd6	0.006010036
145	0xbcecc9f5	-0.028904894
146	0x3c0d791f	0.008634835
147	0x3d937118	0.07199305
148	0x3c656522	0.014001163
149	0xbd3ccee6	-0.04609575
150	0xbcb097c5	-0.021556744
151	0x3d809fd7	0.06280487
152	0xbc6a407c	-0.014297601
153	0x3bb6db3c	0.005580334
154	0xbd86881f	-0.06568932
155	0xbbb05c7d	-0.005382119
156	0x3c4bf936	0.012449553
157	0x3ce449e2	0.027867261
158	0xbd062555	-0.032750446
159	0xbd4b3e8a	-0.04962019
160	0x3d4b3b8a	0.049617328
161	0xbd70b8f3	-0.05877013
162	0xbd2a8428	-0.04162994
163	0x3da19164	0.07889059
164	0x3cb2ec97	0.02184133
165	0x3d3df064	0.046371832
166	0x3dd4b610	0.10386288
167	0x3d7e9a15	0.062158663
168	0xbd81763d	-0.0632138
169	0xbc26d345	-0.0101822065
170	0x3c2f313f	0.0106928935
171	0x3cc12eb4	0.02358184
172	0x3cda8e9d	0.026679331
173	0xbce761e6	-0.028244924
174	0x3d142b7c	0.036174282
175	0x3d1acd20	0.03779328
176	0x3d1c7f93	0.0382076
177	0x3dc3a272	0.09552468
178	0xbdbeeaab	-0.09322103
179	0xbdbc141e	-0.091835245
180	0xbd7d2513	-0.061802935
181	0xbc465518	-0.012105249
182	0x3d8f1e04	0.06988147
183	0x3d6d63b2	0.057956405
184	0xbd42a801	-0.047523502
185	0x3d4ba212	0.04971511
186	0xbaad8e3f	-0.0013241245
187	0xbb0aaa14	-0.0021158503
188	0xbd9a4d46	-0.0753427
189	0x3d4e31ee	0.050340585
190	0x3bccfc39	0.006255653
191	0x3d9b0a22	0.07570292
192	0x3e0842e7	0.13306771
193	0x3d14504a	0.036209382
194	0x3c846f3c	0.016166322
195	0x3daf4ee2	0.085599676
196	0x3bf1c643	0.007378371
197	0xbdbf5a44	-0.09343389
198	0xbd167d8f	-0.036740836
199	0xbd1e661e	-0.038671605
200	0x3db20238	0.086918294
201	0x3e078852	0.13235596
202	0x3d218141	0.039429907
203	0xbdf1a503	-0.117990516
204	0xbd31025d	-0.043215144
205	0x3d3aa323	0.045565736
206	0xbc86c689	-0.01645209
207	0xbce1d44b	-0.02756705
208	0xbc425903	-0.011862042
209	0x3cc5a9d5	0.024128834
210	0x3d1da264	0.038484946
211	0xbd182704	-0.037146583
212	0xbd3f5782	-0.046714313
213	0xbd2b9a28	-0.04189506
214	0xbc10232e	-0.00879745
215	0xbe0bbac8	-0.1364547
216	0xbc6360cd	-0.01387806
217	0xbcb6a4e3	-0.022295421
218	0x3d6cd9f5	0.057825048
219	0x3b8a3385	0.0042175674
220	0xbc603ff9	-0.013687127
221	0xbd8f0456	-0.06983249
222	0xbd3f089f	-0.04663908
223	0xbd69696c	-0.056985304
224	0xbe073518	-0.13203847
225	0xbbffd766	-0.00780766
226	0xbd90b8aa	-0.07066472
227	0xbd5d2394	-0.053989008
228	0xbc86bf77	-0.01644872
229	0x3d267416	0.040638052
230	0xbdd22810	-0.102615476
231	0x3c00e4eb	0.007867078
232	0xbd798645	-0.060919065
233	0xbd7290bc	-0.05922006
234	0x3c296b50	0.010340527
235	0xbd879a44	-0.06621221
236	0xbd307a32	-0.043085285
237	0xbbea5391	-0.007151075
238	0xbda831f1	-0.082126506
239	0xbdcb7211	-0.09933866
240	0xbc43f222	-0.011959584
241	0xbd115e36	-0.035490237
242	0xbd05cc29	-0.032665405
243	0xbd0aed03	-0.03391744
244	0x3d6f0da0	0.058362603
245	0xbd680998	-0.056649774
246	0xbc6d67fb	-0.014490123
247	0x3cd4abea	0.025960881
248	0xbd73d25b	-0.059526782
249	0xbd734255	-0.05938943
250	0xbd1fbbe3	-0.038997542
251	0xbd118855	-0.035530407
252	0x3c66cecc	0.01408739
253	0xbd015d09	-0.031582866
254	0xbdb358a4	-0.08757141
255	0xbd5a23cc	-0.053256795

conv1.conv2d.bias f4 [8]
0	0x3d3e3d48	0.04644516
1	0x39cae2fd	0.00038697562
2	0x3d9b1da1	0.07574011
3	0xbd16c732	-0.03681106
4	0x3cd51269	0.026009755
5	0xbb011832	-0.001969826
6	0xbbc273cd	-0.0059342147
7	0xbdd9e5c4	-0.106395274

in1.weight f4 [8]
0	0x3f83a6e0	1.0285301
1	0x3f64b268	0.89334726
2	0x3f99ac59	1.2005721
3	0x3f5d45a1	0.8643437
4	0x3f89ee7b	1.0775903
5	0x3f6d33dc	0.92657256
6	0x3f897e0a	1.0741589
7	0x3f925b02	1.1434023

in1.bias f4 [8]
0	0x3e5e6ec2	0.21721938
1	0x3f024014	0.50879025
2	0x3d7d99cc	0.06191425
3	0xbcd2ff38	-0.025756463
4	0x3e08f434	0.13374406
5	0x3d5a3874	0.053276494
6	0xbb4a402d	-0.0030861006
7	0x3cf3c879	0.029758679

conv2.conv2d.weight f4 [16, 8, 3, 3]
0	0x3db5b43e	0.08872269
1	0xbc6f5ba6	-0.014609253
2	0x3ccc5d2e	0.024946775
3	0xbdd3e38c	-0.103461355
4	0xbe42b4d9	-0.190143
5	0x3e16b044	0.14715677
6	0xbd774d83	-0.060376655
7	0xbd6a6a06	-0.057230018
8	0x3e13b90d	0.1442606
9	0xbe377a33	-0.17917709
10	0xbd128c3c	-0.03577827
11	0x3dbc3271	0.091893084
12	0xbe1c0076	-0.15234551
13	0x3cd642c0	0.026154876
14	0x3e25bec6	0.16186056
15	0x3d6e484e	0.058174424
16	0xbc7d2e33	-0.015452909
17	0x3e45f96e	0.19333431
18	0xbc1e0d39	-0.009646707
19	0x3ce7eef8	0.028312191
20	0x3d7297dc	0.059226856
21	0xbd98ce6c	-0.07461247
22	0xbcef4b53	-0.029210722
23	0xbc36d73b	-0.011159713
24	0xbc32f56d	-0.010922772
25	0x3e79a9ab	0.2438113
26	0x3cc8b91a	0.024502326
27	0x3c157099	0.009121084
28	0x3dec4448	0.11536461
29	0x3d914211	0.07092679
30	0xbd4f32cc	-0.050585553
31	0xbbbe059b	-0.005799008
32	0xbd9ab21b	-0.07553502
33	0x3c9b735a	0.018975902
34	0x3dba661b	0.09101506
35	0x3d718117	0.058961
36	0xbd2cffe5	-0.042236228
37	0xbd039941	-0.032128576
38	0x3d8bcf10	0.068266034
39	0x3d756084	0.059906498
40	0x3d93821c	0.07202551
41	0xbce8e9b2	-0.028431747
42	0x3e078972	0.13236025
43	0xbdb8c1cd	-0.090213396
44	0xbdf7103d	-0.12063644
45	0xbd2823d2	-0.041049786
46	0xbd3e2a51	-0.046427075
47	0x3dad3b86	0.08458619
48	0xbd2b5290	-0.041826785
49	0x3ca60b0f	0.020268945
50	0x3e5fe48a	0.21864524
51	0x3cf9c076	0.03048728
52	0x3dcfd7a3	0.10148551
53	0x3e14e23a	0.14539424
54	0x3d32e3ba	0.04367421
55	0xbd863f4e	-0.06555043
56	0xbcec4f59	-0.02884643
57	0x3dbe41f8	0.09289926
58	0x3e0f6737	0.14004217
59	0xbd690854	-0.056892708
60	0x3dc1450f	0.09437
61	0x3e2c0ac7	0.16800986
62	0x3db558ff	0.08854865
63	0xbcbbae54	-0.022910275
64	0x3dd8f871	0.105942614
65	0xbddbfbd9	-0.107413955
66	0xbd533427	-0.05156341
67	0xbc53e809	-0.012933739
68	0xbd65396e	-0.055962972
69	0x3cbf11b0	0.023323864
70	0x3dd35365	0.103186406
71	0x3d9a2c73	0.07528009
72	0xbc821642	-0.015879754
73	0xbd98db2e	-0.0746368
74	0xbdd4ce96	-0.10390966
75	0xbc29a591	-0.0103544155
76	0x3d6276da	0.055289127
77	0xbd55f3b2	-0.05223436
78	0x3ddcba4c	0.10777721
79	0xbd3146d0	-0.043280423
80	0xbb5a729c	-0.0033332473
81	0x3d5daf31	0.054122154
82	0xbce560cf	-0.028000263
83	0xbd5698ff	-0.052392002
84	0x3d8e1779	0.06938071
85	0x3d5b9936	0.05361291
86	0xbe2e8437	-0.17042623
87	0xbd6163f1	-0.055026952
88	0x3dfd42ee	0.123662814
89	0xbdf40fde	-0.11917089
90	0x3d04f8c6	0.03246381
91	0xbd7fd32c	-0.06245725
92	0xbd3bc10a	-0.045838393
93	0x3cf9adf4	0.030478455
94	0xbc81c0f8	-0.015839085
95	0xbddc8166	-0.10766868
96	0x3deffe7c	0.11718461
97	0x3db9eb7c	0.09078118
98	0x3c8c4e03	0.017127043
99	0xbdde9012	-0.10867323
100	0xbd672562	-0.056432135
101	0xbe71f796	-0.23629603
102	0xbcfae880	-0.030628443
103	0xbd978f19	-0.074003406
104	0xbdfac4fc	-0.12244603
105	0x3e1f53f1	0.15559365
106	0xbd08a0c2	-0.033356436
107	0xbe067d15	-0.13133653
108	0xbdb330a0	-0.08749509
109	0xbd19798b	-0.037469428
110	0xbd64849f	-0.05579054
111	0x3d6bc56e	0.05756133
112	0x3ca3b881	0.01998544
113	0xbddaa6dc	-0.10676357
114	0x3e2839dc	0.16428322
115	0x3d4c19e2	0.04982937
116	0x3d92986f	0.07157981
117	0x3d4f099c	0.050546274
118	0xbd968852	-0.0735022
119	0x3bd2047f	0.0064092274
120	0x3cacd2e0	0.021096647
121	0xbd94992e	-0.07255779
122	0x3c91906a	0.017769057
123	0x3d6b635d	0.057467807
124	0xbda894fe	-0.08231543
125	0xbdc4a968	-0.09602624
126	0xbe071a0f	-0.13193534
127	0xbda916d3	-0.082563065
128	0xbe88980f	-0.26678512
129	0x3d28946b	0.041157167
130	0xbcd3b900	-0.02584505
131	0xbe130311	-0.14356638
132	0x3c62926b	0.013828854
133	0xbddf5526	-0.10904913
134	0xbbef5424	-0.0073037315
135	0xbd906c8f	-0.07051956
136	0xbdc136c6	-0.09434275
137	0xbd9fd85d	-0.0780494
138	0xbc8e5092	-0.017372403
139	0xbe157008	-0.14593518
140	0xbd920ee9	-0.0713175
141	0x3c342e85	0.010997419
142	0x3cd44654	0.025912441
143	0xbabaa1c5	-0.0014238885
144	0xbcf2f3c5	-0.029657254
145	0x3dc4b001	0.096038826
146	0x3db46b03	0.08809473
147	0xbcfa38eb	-0.030544719
148	0x3da9f688	0.08298975
149	0x3dce02b2	0.10059108
150	0xbd0a877a	-0.033820607
151	0xbcc798a0	-0.02436477
152	0xbd049ee0	-0.032378078
153	0x3de70046	0.11279349
154	0x3d816da2	0.06319739
155	0x3cd02778	0.025409445
156	0x3e735958	0.2376455
157	0x3c5572f0	0.0130278915
158	0xbd97ce5a	-0.07412405
159	0x3cb10965	0.021610925
160	0xbd04f5b6	-0.03246089
161	0xbd24a5cb	-0.040197175
162	0xbd24c932	-0.040230937
163	0x3e0fb75c	0.1403479
164	0x3d78009f	0.060547467
165	0x3d1a1125	0.037614007
166	0xbd869d0c	-0.06572923
167	0xbd41d8c9	-0.047325883
168	0x3d28d993	0.04122312
169	0xbdb5abb4	-0.088706404
170	0xbd656f65	-0.056014437
171	0xbde09151	-0.10965217
172	0xbdc200ed	-0.09472833
173	0x3d015991	0.031579558
174	0xbe3d2564	-0.18471295
175	0xbc75c410	-0.015000358
176	0x3db9eda1	0.09078527
177	0xbdacf11c	-0.084444255
178	0xbdb47ec9	-0.08813245
179	0xbd8239fd	-0.06358717
180	0x3bd767dd	0.0065736608
181	0x3cfb4008	0.03067018
182	0xbd20595b	-0.039147716
183	0x3dd0e078	0.10199064
184	0xbd6d7736	-0.057975017
185	0x3cb05875	0.021526555
186	0x3cd3a35f	0.025834737
187	0xbdae9b7b	-0.08525749
188	0xbd347248	-0.0440543
189	0x3ce2aaed	0.027669394
190	0x3b9930cd	0.004675007
191	0x3c9b6fcf	0.018974213
192	0x3da27503	0.079324745
193	0xbdf86c16	-0.12129991
194	0xbd8c1568	-0.068400204
195	0xbe2553d5	-0.1614526
196	0xbdef964d	-0.116985895
197	0xbda2f5b9	-0.07957024
198	0xbc621071	-0.013797865
199	0xbd8970c8	-0.067109644
200	0x3d2113ed	0.039325643
201	0xbdda2d8c	-0.106532186
202	0xbe188e34	-0.14897996
203	0xbdf9522d	-0.12173877
204	0xbd829095	-0.06375233
205	0xbdfb6241	-0.122746
206	0xbd99ccbc	-0.07509753
207	0xbd53e57a	-0.051732518
208	0xbda2696d	-0.079302646
209	0xbd6a945f	-0.057270404
210	0xbd773158	-0.060349792
211	0x3bc12b7e	0.0058950773
212	0x3e0bd66a	0.13656011
213	0xbde84e1b	-0.113430224
214	0x3db11423	0.08646419
215	0xbcbd66dc	-0.023120336
216	0xb9de8c62	-0.00042447733
217	0x3c28c031	0.010299728
218	0x3e03c8de	0.12869594
219	0xbda61c38	-0.08110851
220	0xbd8620f8	-0.06549257
221	0xbbe0a2fe	-0.0068553677
222	0xbc90e155	-0.017685572
223	0xbdb047ea	-0.086074665
224	0x3c606d4b	0.0136979325
225	0x3d74fa48	0.059809
226	0xbdd97849	-0.10618646
227	0xbce94626	-0.028475832
228	0x3dbb269d	0.09138224
229	0x3bca6cb9	0.0061775115
230	0xbd6e5d85	-0.058194656
231	0xbd92b013	-0.0716249
232	0xbc22a4c2	-0.009926977
233	0x3d7f1c6d	0.06228297
234	0xbdbbc879	-0.091690965
235	0x3bcc68ce	0.0062380796
236	0xbce0616c	-0.027390204
237	0x3d4bed54	0.04978688
238	0x3c081b1c	0.008307245
239	0xbd1ebc3a	-0.038753726
240	0xbc36b44f	-0.011151387
241	0xbc6ed451	-0.014576987
242	0xbdac9b8f	-0.08428108
243	0xbdb6bb46	-0.08922438
244	0xbde32972	-0.110918894
245	0xbdffc61b	-0.124889575
246	0xbd4a3e13	-0.049375605
247	0xbde12259	-0.109928794
248	0xbd8cfcf9	-0.06884188
249	0x3dc28da3	0.09499671
250	0x3d625791	0.05525929
251	0xbdcbd4f0	-0.09952724
252	0xbcf1bb67	-0.029508306
253	0x3cccc4c3	0.024996167
254	0xbe2afedf	-0.16698788
255	0xbd928c7b	-0.07155701

conv2.conv2d.bias f4 [16]
0	0xbd041115	-0.032242853
1	0x3d8ea14f	0.06964361
2	0xbd3b4a6a	-0.045725264
3	0xbb9eb36d	-0.0048431666
4	0xbda14c01	-0.07875825
5	0xbd9b8820	-0.07594323
6	0x3d0f1e7c	0.03494118
7	0xbc558523	-0.013032231
8	0x3cd37953	0.025814688
9	0xbd5e8638	-0.05432722
10	0x3ca7d037	0.020485027
11	0xbcf1ce0a	-0.029517192
12	0x3ccd1d15	0.025038281
13	0x3e0dda13	0.1385272
14	0xbce039e8	-0.027371362
15	0x3e12e310	0.1434443

in2.weight f4 [16]
0	0x3f3c5c04	0.73577905
1	0x3f581171	0.84401613
2	0x3f574667	0.840918
3	0x3f5ae99a	0.855127
4	0x3f1f8f2d	0.62327844
5	0x3f46d4f2	0.7766868
6	0x3f65adf5	0.8971856
7	0x3f6064f1	0.87654024
8	0x3f3d2dcf	0.73898023
9	0x3f30034c	0.6875503
10	0x3f4807a7	0.78136677
11	0x3f64d5af	0.89388555
12	0x3f2b5ce0	0.6693859
13	0x3f8653ed	1.0494362
14	0x3f5ee9a3	0.8707525
15	0x3f6dff43	0.92967623

in2.bias f4 [16]
0	0xbe2ad120	-0.16681337
1	0x3d0f33f9	0.034961674
2	0x3ddbdaec	0.107351154
3	0x3beaa584	0.0071608443
4	0xbd05ee48	-0.032697946
5	0xbd318b9a	-0.043346025
6	0x3ca55a84	0.020184763
7	0xbd6be623	-0.057592522
8	0xbe48d54d	-0.19612618
9	0xbe0a43e0	-0.13502455
10	0xbe264623	-0.16237693
11	0x3d89421d	0.06702063
12	0xbde8ad19	-0.11361141
13	0x3e11be68	0.1423279
14	0xbd28a275	-0.041170556
15	0x3d5a1190	0.053239405

conv3.conv2d.weight f4 [32, 16, 3, 3]
0	0xbdfe3eae	-0.12414299
1	0xbd9f74d2	-0.077859536
2	0x3c939419	0.018014954
3	0xbc20dedc	-0.009818759
4	0x3d86baf0	0.06578624
5	0x3b63d181	0.0034762325
6	0x3c329691	0.010900156
7	0x3ce506a1	0.027957262
8	0xbd3be843	-0.0458758
9	0x3e3adfe9	0.18249477
10	0xbd125fd2	-0.035735913
11	0xbd5c6ee1	-0.05381668
12	0x3e09f3a5	0.1347185
13	0xbcf1b6cb	-0.029506108
14	0xbd96faf3	-0.073720835
15	0x3d20fa93	0.039301466
16	0xbe249db1	-0.1607578
17	0x3ce18cd6	0.027532976
18	0x3e63b112	0.22235516
19	0x3d8dd6c3	0.06925728
20	0xbd154f6f	-0.036452707
21	0x3d56e360	0.052462935
22	0xbe0600c0	-0.13086224
23	0xbd0c3624	-0.03423132
24	0xbab3c29f	-0.0013714618
25	0xbd2c49be	-0.042062514
26	0x3e0a347d	0.13496585
27	0x3d969ce4	0.07354143
28	0x3c631e8b	0.0138622625
29	0xbd603206	-0.054735206
30	0x3e077d27	0.13231336
31	0xbd73b0f5	-0.05949493
32	0x3d451c09	0.04812244
33	0xbc79481c	-0.015214946
34	0xbe47fb62	-0.19529489
35	0x3dd32e2b	0.1031154
36	0xbcd7cc70	-0.0263426
37	0x3c3ff77c	0.01171672
38	0x3cf47387	0.029840244
39	0xbd09f9b4	-0.0336854
40	0x3d0938c1	0.03350139
41	0xbc9a0330	-0.018800348
42	0x3d43bba4	0.04778637
43	0x3de7b087	0.11312967
44	0x3cdb306a	0.026756484
45	0x3e313b55	0.1730779
46	0xbd21348f	-0.039356764
47	0x3c80220d	0.015641237
48	0x3dd45291	0.10367311
49	0x3d5b9b51	0.05361492
50	0xbd070a7e	-0.03296899
51	0x3cdf9e01	0.027297022
52	0xbe4d2dd1	-0.20037009
53	0xbe170868	-0.147493
54	0x3e0111e5	0.12604482
55	0x3dec8340	0.115484715
56	0xbcaaef67	-0.020866109
57	0x3dc47a35	0.09593622
58	0x3d12a2d9	0.035799835
59	0xbd2eb5d0	-0.04265386
60	0x3de0e88f	0.10981857
61	0xbdcfb580	-0.1014204
62	0xbd4bfd07	-0.049801853
63	0x3ada9af5	0.0016678261
64	0x3d0b4634	0.034002498
65	0xbd7ad4e2	-0.061238177
66	0xbd7bfa2a	-0.061517872
67	0xbcd8aa7d	-0.026448483
68	0xbd9b36bf	-0.07578801
69	0xbccf9442	-0.02533925
70	0xbd997556	-0.07493083
71	0xbdaf4d1a	-0.08559628
72	0xbdeb593b	-0.11491629
73	0xbd134c4f	-0.035961445
74	0xbd84ea57	-0.06490009
75	0xbb239e2b	-0.0024966102
76	0x3dab5398	0.083655536
77	0x3c9d082f	0.019168941
78	0xbc8bed43	-0.017080909
79	0x3d09c97c	0.033639416
80	0x3d9c5c38	0.07634777
81	0x3e44973a	0.19198313
82	0x3d9c43ee	0.07630144
83	0xbddfeb54	-0.10933557
84	0x3e0772e4	0.13227421
85	0xbbf2b57c	-0.0074068885
86	0x3c8f0509	0.017458456
87	0xbcab135a	-0.020883251
88	0xbdc87733	-0.097883604
89	0xbccb0e1b	-0.024787
90	0xbdbecec8	-0.09316784
91	0x3cd11190	0.02552107
92	0x3e0125c9	0.1261207
93	0xbd80ef1c	-0.062956065
94	0x3d287749	0.041129384
95	0x3d704074	0.058655217
96	0x3c94091f	0.018070756
97	0x3d26e106	0.040741943
98	0x3e1fd6e7	0.15609322
99	0x3c7d8d9b	0.015475656
100	0xbe041dfb	-0.12902062
101	0x3d63719a	0.05552826
102	0xbd405e93	-0.046965193
103	0x3d4d7560	0.050160766
104	0x3de1385c	0.10997078
105	0xbce7e410	-0.02830699
106	0x3e279fa1	0.16369487
107	0xbd56c127	-0.0524303
108	0x3d86ada3	0.06576087
109	0x3cc607e2	0.02417368
110	0x3dc7f564	0.097636014
111	0x3dd214de	0.10257886
112	0xbd8aec8a	-0.067833975
113	0xbd633ba2	-0.055476792
114	0x3d81c459	0.063362785
115	0xbdf66ca2	-0.12032439
116	0xbe29cec4	-0.16582781
117	0x3ddb190a	0.10698135
118	0x3d6fb6c2	0.0585239
119	0x3dd33c48	0.10314232
120	0x3dd15903	0.10222056
121	0x3bac36ca	0.005255555
122	0xbd28bbce	-0.04119473
123	0x3d2f12ed	0.04274266
124	0x3c08c770	0.008348331
125	0xbe21ff89	-0.15820135
126	0xbdd7c164	-0.10534933
127	0xbdf2461f	-0.11829781
128	0xbd91773b	-0.071028195
129	0xbddbdc10	-0.10735333
130	0xbb08590d	-0.0020805032
131	0x3d9aa4c2	0.07550956
132	0xbd9449f0	-0.07240665
133	0x3caffcb8	0.02148281
134	0x3d76286b	0.06009714
135	0x3d92be35	0.07165185
136	0x3d90a8d1	0.07063449
137	0x3ddf0f34	0.10891572
138	0x3c0c288c	0.008554589
139	0x3d282369	0.041049395
140	0x3de10edc	0.10989162
141	0xbd861fd7	-0.06549042
142	0xbdddd97c	-0.108324975
143	0xbd1f1d37	-0.03884622
144	0x3d58f36b	0.052966516
145	0xbd3aae38	-0.045576304
146	0xbe09da72	-0.13462237
147	0xbd9b2937	-0.075762205
148	0xbe321d9a	-0.17394105
149	0xbdbb96eb	-0.09159645
150	0xbcff6293	-0.031174934
151	0xbd6fd4c9	-0.058552537
152	0xbe174913	-0.1477397
153	0x3da69c8c	0.08135328
154	0x3d3e0a9a	0.04639683
155	0xbd514c43	-0.05109812
156	0x3d6b301f	0.05741894
157	0x3d740e78	0.05958411
158	0x3d52d358	0.051471084
159	0x3cb9d0a0	0.022682488
160	0x3d151496	0.036396585
161	0xbd3fe576	-0.04684969
162	0x3d06e76d	0.03293555
163	0x3e13e30e	0.14442083
164	0xbd8863e3	-0.06659677
165	0x3cac4b0c	0.021031879
166	0xbda1288e	-0.07869063
167	0x3daeb48b	0.085305296
168	0xbcb20860	-0.02173251
169	0xbd0fa1da	-0.035066463
170	0x3d763866	0.06011238
171	0x3dd638be	0.104600415
172	0x3e17b892	0.14816502
173	0x3e3e9b25	0.1861387
174	0x3c8a3459	0.016870664
175	0x3dae2399	0.085028835
176	0x3e018c7c	0.12651247
177	0xbd4040ec	-0.046936914
178	0xbd19fb34	-0.03759308
179	0x3d968de3	0.073512815
180	0xbd1ef9d5	-0.038812477
181	0x3d720dd0	0.059095204
182	0xbd9f7483	-0.07785895
183	0xbd059c4a	-0.032619752
184	0x3bb8be36	0.0056379093
185	0xbcc65b54	-0.02421347
186	0xbac6f637	-0.0015179579
187	0xbd73abb7	-0.059489932
188	0xbdf9affc	-0.121917695
189	0xbd9e8dd0	-0.07741892
190	0x3d076532	0.03305549
191	0xbd1a2de9	-0.03764144
192	0x3cbcc97b	0.023045292
193	0xbdbda0ed	-0.0925921
194	0xbdf58df0	-0.11989963
195	0x3dbc6bda	0.092002586
196	0x3ca1c323	0.019746369
197	0xbe09ce6e	-0.13457653
198	0xbc575972	-0.013143884
199	0xbbc0c366	-0.0058826683
200	0x3d016a70	0.031595647
201	0x3d32bdee	0.043638162
202	0xbd077299	-0.033068273
203	0xbccdf467	-0.025140954
204	0x3d3599bc	0.044336066
205	0xbca808b9	-0.020511972
206	0xbb0f8767	-0.0021900774
207	0x3dc2c846	0.095108554
208	0x3dfe0207	0.124027304
209	0x3ca8b7c2	0.020595435
210	0x3ad5a9e1	0.0016301238
211	0xbcb68a97	-0.022282882
212	0xbc133dea	-0.008986929
213	0xbd39e306	-0.045382522
214	0x3d1b06dc	0.03784834
215	0xbc3283e1	-0.0108957
216	0x3db6e28e	0.089299306
217	0xbcec9023	-0.028877323
218	0xbdbb96a5	-0.091595925
219	0x3d541790	0.051780283
220	0xbdacc8bd	-0.08436725
221	0xbe063c56	-0.13108954
222	0xbcdcb8ac	-0.026943527
223	0xbe03caa2	-0.12870267
224	0xbd8feed6	-0.07027976
225	0xbc86dbc0	-0.016462207
226	0x3ca08402	0.019594196
227	0xbc4fdd75	-0.012687077
228	0xbca26b0e	-0.019826438
229	0xbcc2a274	-0.023759104
230	0x3cd041c6	0.025421988
231	0xbc932b8f	-0.017965106
232	0xbcd4fd42	-0.025999669
233	0xbb1334aa	-0.002246181
234	0x3d9ba19b	0.07599183
235	0x3cb1a03d	0.021682853
236	0xbc8c867f	-0.017153976
237	0xbd75a32f	-0.059970077
238	0x3aeadc0e	0.0017918365
239	0xbd03bbe0	-0.032161593
240	0xbcd8f21f	-0.02648264
241	0xbc0c7414	-0.008572597
242	0x3c38fb09	0.01129032
243	0x3d8b48c4	0.06800988
244	0xbd16b5a7	-0.03679433
245	0xbdc27a35	-0.094959654
246	0x3b14cd1a	0.0022705258
247	0xbdf0ca7d	-0.117573716
248	0xbd23dbcd	-0.04000454
249	0x3c7fcc37	0.015612653
250	0xbe2bef19	-0.16790427
251	0xbde488a1	-0.111588724
252	0xbc4778c8	-0.012174793
253	0x3c2d19cb	0.010565232
254	0xbc5e4991	-0.013567344
255	0x3d283ae4	0.041071787

conv3.conv2d.bias f4 [32]
0	0x3d7b4563	0.06134547
1	0xbda78501	-0.08179665
2	0x3d86714b	0.06564578
3	0xbd32da61	-0.043665294
4	0x3df53918	0.119737804
5	0x3d0519b2	0.032495208
6	0x3c1ddf5c	0.009635773
7	0x3c53066f	0.012879952
8	0x3d6d2b48	0.057902604
9	0x3b814bd6	0.003945808
10	0xbd77d139	-0.060502265
11	0x3c523e39	0.012832218
12	0xbdba1628	-0.09086257
13	0x3cbcd978	0.023052916
14	0xbe10cbf9	-0.1414031
15	0xbc7d6b24	-0.015467439
16	0xbdbe212e	-0.09283672
17	0x3d26e7a3	0.04074825
18	0x3cbbbb6d	0.02291652
19	0x3d8af70a	0.067854
20	0xbd9a6eca	-0.075406626
21	0xbce22269	-0.027604299
22	0xbde968ae	-0.11396919
23	0x3d5c507d	0.053787697
24	0xbdb9e8d2	-0.0907761
25	0x3da44be8	0.080222905
26	0xbdb0d13a	-0.08633657
27	0x3cc01a48	0.023450032
28	0xbe0ce118	-0.13757741
29	0x3d7ac0ca	0.061219014
30	0xbca70081	-0.020385982
31	0x3c701c88	0.01465524

in3.weight f4 [32]
0	0x3f57fbce	0.843686
1	0x3f3dd131	0.74147326
2	0x3f4f3f9d	0.8095644
3	0x3f57a419	0.8423477
4	0x3f50739e	0.8142642
5	0x3f32a1fe	0.6977843
6	0x3f545f33	0.8295776
7	0x3f72cecb	0.9484679
8	0x3f6c030a	0.9219214
9	0x3f3ed70b	0.7454688
10	0x3f78a11e	0.97120845
11	0x3f5e9634	0.8694794
12	0x3f6a2f98	0.9147887
13	0x3f451a95	0.76993686
14	0x3f576076	0.8413156
15	0x3f555b99	0.8334289
16	0x3f5f2e99	0.8718048
17	0x3f3854cb	0.72004384
18	0x3f62dda6	0.8861946
19	0x3f509901	0.81483465
20	0x3f5973ce	0.8494233
21	0x3f59a5f8	0.85018873
22	0x3f532ba8	0.8248849
23	0x3f7031be	0.938259
24	0x3f51bfc7	0.81933254
25	0x3f59141f	0.8479633
26	0x3f437193	0.76345176
27	0x3f5fa33c	0.8735845
28	0x3f509240	0.8147316
29	0x3f603196	0.8757566
30	0x3f5df334	0.86699224
31	0x3f630792	0.88683426

in3.bias f4 [32]
0	0xbdc3ce56	-0.0956084
1	0xbd896ebf	-0.06710576
2	0xbe66ae58	-0.22527444
3	0xbcd2a930	-0.02571544
4	0xbd92e97b	-0.07173439
5	0xbe0ed2fe	-0.13947675
6	0xbd3658e4	-0.044518366
7	0xbdef92de	-0.116979346
8	0xbe16fc1d	-0.14744611
9	0xbddb9adf	-0.10722899
10	0xbec432e8	-0.38320088
11	0xbdcae380	-0.099066734
12	0xbd1c5302	-0.0381651
13	0xbd87136d	-0.06595502
14	0xbdc1da31	-0.09465445
15	0xbe2ac368	-0.16676104
16	0xbdadf09f	-0.084931605
17	0xbda66136	-0.0812401
18	0xbd5029e9	-0.05082122
19	0xbd8c3316	-0.06845681
20	0xbb75011b	-0.0037384692
21	0x3c16e8a2	0.009210737
22	0xbd363761	-0.044486407
23	0xbd53f76e	-0.05174964
24	0xbd9288cb	-0.071549974
25	0xbd0732fe	-0.033007614
26	0xbc81d3f4	-0.015848137
27	0xbd804034	-0.06262246
28	0xbd98c01f	-0.07458519
29	0xbd4b830b	-0.04968552
30	0xbdc1d6f1	-0.09464825
31	0xbe323e6b	-0.17406623

resnets.0.conv1.conv2d.weight f4 [32, 32, 3, 3]
0	0x3db132f6	0.08652298
1	0x3d92404b	0.07141169
2	0x3d59499e	0.053048722
3	0xbd381e54	-0.0449508
4	0xbbf2bef4	-0.0074080173
5	0xbd70413f	-0.058655974
6	0x3d6559b8	0.055993766
7	0x3d39be9b	0.04534779
8	0x3d661971	0.056176607
9	0xbdfbc954	-0.1229426
10	0x3d11c6a9	0.035589848
11	0x3caafce4	0.02087254
12	0xbce128bb	-0.027485242
13	0xbd341726	-0.04396739
14	0xb958a49c	-0.00020660687
15	0x3cefbc66	0.02926464
16	0x3d99653f	0.07490014
17	0xbd565cc6	-0.05233457
18	0x3e1b808e	0.15185758
19	0xb82e22b1	-4.151714e-05
20	0x3d4fa012	0.050689764
21	0xbd7621f6	-0.06009098
22	0xbd8f11c1	-0.06985808
23	0xbcaeb313	-0.021325624
24	0x3d22c1cd	0.039735604
25	0x3dd17fd9	0.10229463
26	0xbc782597	-0.015145681
27	0xbda4a984	-0.08040145
28	0xbdd23ad3	-0.10265126
29	0xbd47b9ef	-0.048761304
30	0xbc1220bf	-0.00891894
31	0x3d713a8c	0.058893725
32	0xbd626231	-0.055269424
33	0x3d3a4a3d	0.045480955
34	0xbcf667cf	-0.030078797
35	0x3d43ecfd	0.04783343
36	0xbccaf1a5	-0.024773428
37	0x3cf86ee2	0.03032631
38	0x3bff03b9	0.007782426
39	0x3ce8a031	0.028396698
40	0xbd9adee0	-0.07562041
41	0xbcd95e0c	-0.026534103
42	0xbcec8901	-0.028873922
43	0x3dca1795	0.09867779
44	0xbce59eff	-0.028029917
45	0xbc4f9966	-0.01267085
46	0x3bcf851e	0.0063330075
47	0x3d65e571	0.056127016
48	0xbc43e869	-0.011957266
49	0x3d3c85b1	0.046025936
50	0xbcba0191	-0.022705825
51	0x3cb3a8fd	0.021931166
52	0xbd38d97f	-0.045129295
53	0xbd806cb6	-0.06270735
54	0x3d9e01b1	0.07715166
55	0x3bd37656	0.0064533157
56	0x3db63a43	0.08897831
57	0xbcc3afdf	-0.023887573
58	0xbd366bea	-0.04453651
59	0xbbddf085	-0.006773057
60	0xbcdca1dd	-0.026932651
61	0xbc4ff58f	-0.012692823
62	0x3c42d3d6	0.011891326
63	0x3d369d09	0.044583354
64	0xbe01c96a	-0.1267449
65	0xbd9e3ba6	-0.07726221
66	0x3c8743a3	0.016511744
67	0x3c3f74ad	0.0116855325
68	0xbccdd1ef	-0.025124518
69	0xbd7d390b	-0.06182198
70	0xbd194133	-0.037415694
71	0xbd5f892d	-0.05457418
72	0xbd5bcc13	-0.053661417
73	0x3d5398fc	0.05165957
74	0xbd550a9b	-0.052012067
75	0x3df8f9b5	0.12157003
76	0x3e20cc1e	0.15702865
77	0x3dbeadc1	0.09310485
78	0xbd9f7344	-0.07785657
79	0xbde54fb6	-0.11196844
80	0xbdeae90f	-0.11470234
81	0xbd93565f	-0.07194208
82	0xbd865f90	-0.06561196
83	0xbd71f115	-0.059067804
84	0xbd469eb1	-0.048491184
85	0xbd75ad89	-0.05997995
86	0x3c9bee2d	0.01903447
87	0xbd8a9066	-0.06765823
88	0x3dc25fff	0.09490966
89	0xbc58b02c	-0.013225596
90	0x3c7d9523	0.0154774515
91	0x3e33f595	0.17574151
92	0x3dd765ca	0.105174616
93	0x3c7e904d	0.015537334
94	0xbe345bb4	-0.17613107
95	0xbd69d65c	-0.057089195
96	0x3dbca1fe	0.09210585
97	0x3dac3c1d	0.08409903
98	0xbd177c8b	-0.036984008
99	0xbcd67cea	-0.02618261
100	0x3c99c88b	0.018772384
101	0x3d990c0c	0.07473001
102	0xbc34ec49	-0.011042663
103	0xbe21951c	-0.15779537
104	0xbd74ec02	-0.059795387
105	0x3d413607	0.047170665
106	0x3dbb5318	0.09146708
107	0x3d1565e9	0.036474142
108	0xbd92973a	-0.071577504
109	0x3bba3cae	0.005683503
110	0x3d051316	0.032488905
111	0x3cc76074	0.024337985
112	0x3dcf5338	0.101232946
113	0xbd7e9a5e	-0.062158935
114	0xbd8a5d88	-0.06756121
115	0xbd0a8647	-0.033819463
116	0xbce36215	-0.02775673
117	0xbc69c9db	-0.0142693175
118	0x3cad8c5c	0.021185093
119	0x3d3d9bfc	0.046291336
120	0xbb54b2f5	-0.00324553
121	0x3af67667	0.0018803597
122	0xbd1d3452	-0.038379975
123	0x3d326598	0.04355392
124	0x3d543868	0.051811606
125	0x3cb19188	0.02167584
126	0xbb34238e	-0.0027487013
127	0xbd260c97	-0.04053935
128	0xbd644d4b	-0.055737775
129	0xbd01c7eb	-0.031684797
130	0xbbacff56	-0.005279462
131	0xbc1a251a	-0.00940826
132	0xbdbd0b19	-0.09230632
133	0xbe079a26	-0.13242397
134	0xbc3e8b92	-0.011629956
135	0x3c3e7bfb	0.011626239
136	0x3d637330	0.055529773
137	0x3d8ec6ff	0.06971549
138	0x3c566fcf	0.013088181
139	0xbafcd297	-0.0019288835
140	0xbc52b86d	-0.012861353
141	0x3dc23d24	0.09484318
142	0xbcc3e490	-0.023912698
143	0x3d999391	0.07498849
144	0xbcb08d28	-0.021551684
145	0x3c5f0732	0.013612555
146	0xbc0b7595	-0.00851192
147	0xbd44462f	-0.047918495
148	0xbca85d5f	-0.020552335
149	0x3da9041b	0.08252736
150	0x3cc314d7	0.023813648
151	0x3dedb185	0.11606125
152	0xbd4b5530	-0.049641788
153	0x3d1c5310	0.038165152
154	0xbc8be692	-0.017077718
155	0xbb92ad06	-0.0044761924
156	0xbdb3abc6	-0.087729976
157	0xbcb54ef5	-0.022132376
158	0xbdbd13fe	-0.09232329
159	0x3c0fe290	0.008782044
160	0xbd749871	-0.059715692
161	0xbcf092fe	-0.029366966
162	0x3d421725	0.047385354
163	0x3c73932b	0.014866631
164	0x3d8c83df	0.0686109
165	0xbd6853d3	-0.056720566
166	0xbe1d5aa6	-0.15366611
167	0x3d855de0	0.06512046
168	0x3d79d73a	0.06099627
169	0x3d4fa62d	0.050695587
170	0xbd943f1c	-0.072386
171	0xbc4a7af2	-0.012358414
172	0x3922e968	0.00015536475
173	0xbca59300	-0.020211697
174	0xbde2c258	-0.110722244
175	0xbcfe4623	-0.031039303
176	0xbd660cba	-0.05616448
177	0x3d2c2eb5	0.04203673
178	0x3c72a9b7	0.014810971
179	0x3d10a79e	0.035316102
180	0xbd302846	-0.043007158
181	0xbcaad68d	-0.020854259
182	0xbd0472d4	-0.03233607
183	0x3cf7a4e0	0.030229986
184	0x3de12d6c	0.10994992
185	0x3d570f2d	0.052504707
186	0xba14e60b	-0.0005680031
187	0x3b9ac6ed	0.004723421
188	0xbd0b107e	-0.033951275
189	0x3c323863	0.010877701
190	0x3cc4ca43	0.024022227
191	0x3d65575f	0.055991527
192	0x3d93f447	0.072243266
193	0xbd9c6909	-0.07637221
194	0xbd98a7d1	-0.074538834
195	0xbd0c4cce	-0.034252934
196	0x3c4a154b	0.012334178
197	0x3d67f29a	0.056627847
198	0x3c41ec3e	0.01183611
199	0xbcedae86	-0.029013883
200	0xbd3245d9	-0.043523643
201	0x3de5447f	0.11194705
202	0x3c85a37c	0.016313307
203	0xbcda9433	-0.026681995
204	0xbc18028a	-0.009277949
205	0xbd17cad3	-0.037058663
206	0x3cb490da	0.022041727
207	0xbd207230	-0.039171398
208	0xbd2f7a4f	-0.042841252
209	0xbd2a6975	-0.041604478
210	0x3d284b77	0.041087594
211	0xbcc1cdbe	-0.023657676
212	0x3db41867	0.08793717
213	0x3d962b7d	0.073325135
214	0xbd2ad63d	-0.04170822
215	0xbc7f009c	-0.01556411
216	0xbd96bd02	-0.07360269
217	0x3c042425	0.008065258
218	0x3d837194	0.06418148
219	0xba333ee1	-0.0006837678
220	0x3da02495	0.078194775
221	0xbd427380	-0.04747343
222	0x3d467b5e	0.048457496
223	0x3d47b6b2	0.048758216
224	0xbce995ba	-0.028513778
225	0xbceb7f98	-0.028747365
226	0xbd511317	-0.051043596
227	0x3ce9d234	0.028542615
228	0x3c555292	0.013020175
229	0xbdafddab	-0.08587202
230	0xbddfa771	-0.10920609
231	0xbd8b6a89	-0.06807429
232	0x3d80f798	0.06297225
233	0x3d12e2b9	0.03586075
234	0x3ca4bb46	0.02010883
235	0xbc07646b	-0.008263688
236	0xba63069a	-0.00086603465
237	0xbd6b8598	-0.05750045
238	0xbd3e8bbe	-0.046519987
239	0xbd09bf83	-0.033629905
240	0xbd81b3ba	-0.06333108
241	0x3d98d6f6	0.074628755
242	0xbb330dd2	-0.002732147
243	0x3d367a13	0.044550013
244	0xba6fe907	-0.000915185
245	0x3caaafe4	0.020835824
246	0x3d607e40	0.0548079
247	0xbd17b9eb	-0.03704254
248	0xbd8cbcf2	-0.06871976
249	0xbd491628	-0.049093395
250	0x3c6614d1	0.014043049
251	0x3c9933d3	0.01870147
252	0x3c02cfbb	0.007984097
253	0xbd222e9b	-0.039595228
254	0x3b49577f	0.0030722318
255	0xba7209de	-0.00092330377

resnets.0.conv1.conv2d.bias f4 [32]
0	0x3cf008e1	0.029301109
1	0xbcd55c0e	-0.026044872
2	0x3c5d85e5	0.0135206925
3	0x3d86b581	0.06577588
4	0x3ca33b0c	0.019925617
5	0xbdc76c79	-0.097374864
6	0xbc8a42c1	-0.016877534
7	0xbd38519d	-0.044999707
8	0x3cf6dc02	0.030134205
9	0x3df07afb	0.11742207
10	0x3c1ff23b	0.009762342
11	0xbd14b6c6	-0.03630712
12	0xbc44f2d8	-0.012020789
13	0x3d76fbf1	0.060298864
14	0xbd73557b	-0.059407692
15	0x3d37e4b3	0.04489584
16	0xbc7d2185	-0.015449886
17	0x3d8416c9	0.064496584
18	0xbdf24c0b	-0.1183091
19	0x3d1fe0ff	0.039032932
20	0x3c6d94c3	0.0145008
21	0xbc6bdcd9	-0.014395916
22	0x3cb45b34	0.022016145
23	0x3cd84ba3	0.026403254
24	0xbc19195f	-0.009344428
25	0x3cbf963c	0.023387067
26	0xba97469a	-0.0011541427
27	0x3d96f849	0.073715754
28	0xbcf1c00d	-0.029510522
29	0x3defa127	0.11700659
30	0x3caeb8a9	0.021328287
31	0x3d8e0298	0.069340885

resnets.0.in1.weight f4 [32]
0	0x3f7b991c	0.982805
1	0x3f6cc156	0.9248251
2	0x3f81cec9	1.0141231
3	0x3f78862d	0.97079736
4	0x3f7fcb85	0.9991992
5	0x3f82adb2	1.0209258
6	0x3f6e33f8	0.9304805
7	0x3f5e4bb2	0.8683425
8	0x3f806efd	1.0033871
9	0x3f813958	1.0095625
10	0x3f75e996	0.9605955
11	0x3f818190	1.0117664
12	0x3f859bf2	1.0438216
13	0x3f721519	0.9456344
14	0x3f7b3f13	0.9814312
15	0x3f6e67e1	0.93127257
16	0x3f5028f3	0.81312484
17	0x3f715a27	0.94278187
18	0x3f70fa5f	0.94132036
19	0x3f71c153	0.94435614
20	0x3f70edc7	0.9411282
21	0x3f855426	1.0416305
22	0x3f7eeac3	0.9957697
23	0x3f812911	1.0090657
24	0x3f7dc544	0.9912913
25	0x3f815eff	1.0107116
26	0x3f775984	0.96620965
27	0x3f8e742d	1.1129204
28	0x3f776b5b	0.96648186
29	0x3f78aec0	0.9714165
30	0x3f762590	0.96151066
31	0x3f69b5eb	0.9129321

resnets.0.in1.bias f4 [32]
0	0xbea16d37	-0.31528637
1	0xbe25856c	-0.16164178
2	0xbdeec083	-0.116578124
3	0xbe031bab	-0.12803523
4	0x3aad14ff	0.001320511
5	0xbe266322	-0.16248754
6	0xbd3e7ba8	-0.046504647
7	0xbe48d2f9	-0.1961173
8	0xbcce94b6	-0.025217395
9	0xbe7dad8d	-0.24773236
10	0xbddcd43f	-0.1078267
11	0xbecffeb4	-0.4062401
12	0xbe47dd04	-0.19517905
13	0xbe689524	-0.22713143
14	0xbd82dfc2	-0.06390335
15	0xbe524f6e	-0.20538113
16	0xbdb5c3d3	-0.08875241
17	0xbde7b4f6	-0.113138124
18	0xbe268d02	-0.16264728
19	0xbdb6991b	-0.08915921
20	0xbe88c8e8	-0.2671578
21	0xbe8a0b0f	-0.26961562
22	0xbec96a22	-0.39338785
23	0xbdf12e83	-0.117764495
24	0xbd22da75	-0.039759118
25	0xbde7361f	-0.1128962
26	0xbeb5cad0	-0.35506296
27	0xbe55a963	-0.20865397
28	0xbe3734b9	-0.17891206
29	0xbdf53da0	-0.11974645
30	0xbdba48b0	-0.09095895
31	0xbd9a5263	-0.07535245

resnets.0.conv2.conv2d.weight f4 [32, 32, 3, 3]
0	0xbd15f528	-0.036610752
1	0x3d3765b5	0.04477473
2	0x3cdef004	0.027214058
3	0xbd72f024	-0.059311047
4	0xbd05e7e5	-0.032691855
5	0x3dfbd5ab	0.12296613
6	0xbc606ddb	-0.013698067
7	0x3be8308a	0.0070858644
8	0x3d771453	0.060322117
9	0xbc8ad5f7	-0.01694773
10	0x3d16cac4	0.036814466
11	0xbd851e4c	-0.06499919
12	0xbbc041b8	-0.0058672093
13	0xbd0a24b0	-0.033726394
14	0xba455c36	-0.0007528694
15	0xbd6d1f5d	-0.05789124
16	0xbd996e32	-0.07491721
17	0x3ba3cb9d	0.004998638
18	0xbdaeba5b	-0.08531638
19	0xbe3753ca	-0.17903057
20	0xbc09296d	-0.008371693
21	0xbdbdfcb2	-0.092767134
22	0xbd321cb3	-0.0434844
23	0x3b53a2a0	0.0032292977
24	0x3c284961	0.010271401
25	0xbabb0791	-0.0014269223
26	0xb9738dc6	-0.000232271
27	0xbc5b9654	-0.01340254
28	0xbd348787	-0.04407456
29	0xb86fdbe2	-5.7186822e-05
30	0xbb7ade11	-0.0038279335
31	0xbd2f4095	-0.0427862
32	0xbd34af26	-0.044112347
33	0x3d8b562d	0.06803546
34	0x3d52c924	0.051461354
35	0xba9eddd0	-0.0012120549
36	0xbd6d3739	-0.057913993
37	0xbe0e1c7e	-0.13878056
38	0x3afcac60	0.0019277446
39	0xbd5679a5	-0.052362103
40	0xbc941a83	-0.018079048
41	0xbd7c76bb	-0.061636668
42	0x3ba1beab	0.0049360595
43	0xbca90253	-0.020630991
44	0xbd2e687a	-0.042580105
45	0xbdc0f8db	-0.094224654
46	0xbd85eaf1	-0.06538952
47	0xbd6af055	-0.057358105
48	0xbd855c0b	-0.065116964
49	0xbd75ecc8	-0.060040265
50	0xb9faf400	-0.0004786551
51	0x3bd2b9be	0.0064308336
52	0xba506a01	-0.0007950366
53	0xbdfdbc83	-0.123894714
54	0x3d8011cc	0.062533945
55	0x3c9036e2	0.017604295
56	0xbd9bc05d	-0.0760505
57	0x3bbb39ca	0.005713676
58	0xbc9f9c1f	-0.019483624
59	0xbd7d4e31	-0.061842147
60	0xbbd9a22d	-0.0066416473
61	0xbdd3091d	-0.103044726
62	0xbdf27141	-0.11838008
63	0xbb6f1248	-0.0036479402
64	0xbb407872	-0.0029368666
65	0xbd0a3f0e	-0.03375154
66	0x3d4647e3	0.0484084
67	0xbd30159a	-0.04298935
68	0x3ce1b8c1	0.027553918
69	0x3a9104a3	0.0011064004
70	0x3c9ccae5	0.019139716
71	0x3cec0612	0.028811488
72	0x3db17474	0.0866479
73	0x3d354c1a	0.04426203
74	0xbcf22d81	-0.029562714
75	0x3d905369	0.07047159
76	0xbcf504d2	-0.029909525
77	0x3bf8a956	0.007588546
78	0x3e15f977	0.14645945
79	0x3d9b3990	0.075793386
80	0x3d3489e3	0.04407681
81	0xbdcb620b	-0.099308096
82	0x3bee8323	0.0072788163
83	0x3d97fdac	0.07421431
84	0xbd442eac	-0.047896072
85	0x3bfe573e	0.007761865
86	0x3db30a7d	0.08742235
87	0xbdc25281	-0.094883926
88	0x3ce184e2	0.027529184
89	0x3d1a9830	0.037742794
90	0x3b9e8a48	0.0048382618
91	0xbd371835	-0.04470082
92	0xbdb28009	-0.08715827
93	0xbd208a29	-0.03919426
94	0xbd5ab615	-0.053396303
95	0xbd3c44bf	-0.045964
96	0x3da34fee	0.0797423
97	0xbd340613	-0.043951105
98	0xbdaf3cda	-0.085565284
99	0xbdd44496	-0.10364644
100	0xbd1d112b	-0.03834645
101	0x3c16c75b	0.0092028035
102	0xbd734c6c	-0.059399053
103	0xbd1423f0	-0.036167085
104	0x3d460177	0.04834124
105	0xbc3bc0d2	-0.011459546
106	0x3d82c393	0.06384959
107	0x3decde0f	0.11565792
108	0x3bf5c445	0.007500204
109	0xbd8fddfe	-0.070247635
110	0xbe0588b9	-0.13040437
111	0x3cab9b20	0.020947993
112	0xbd49f095	-0.049301703
113	0xbb9ad419	-0.004724991
114	0x3d18f0fa	0.03733919
115	0xbdaa3b75	-0.08312122
116	0x3c7d35b2	0.0154546965
117	0x3d4b483b	0.04962943
118	0xbbc4b461	-0.006002948
119	0x3d0ffa9f	0.03515112
120	0x3cd255c9	0.025675671
121	0x3de96256	0.11395709
122	0x3cf9c2fa	0.03048848
123	0xbc55e3af	-0.013054772
124	0x3d82a7c7	0.06379657
125	0x3c2fc715	0.010728617
126	0x3d732ca6	0.059368752
127	0x3d1f6e8a	0.038923778
128	0x3c0c0727	0.008546627
129	0x3dafae49	0.08578164
130	0x3c63abb1	0.013895915
131	0x3cf8f053	0.030388033
132	0x3da6de04	0.08147815
133	0x3dcf565a	0.10123892
134	0x3d0de905	0.034646053
135	0x3ba57541	0.005049378
136	0xbd7b6d95	-0.061383802
137	0x3d27c6fd	0.040961254
138	0xbda712be	-0.08157872
139	0xbd8cbe35	-0.068722166
140	0xbd903cd2	-0.070428506
141	0xbd9df4e9	-0.077127285
142	0xbdb5f831	-0.088852294
143	0xbd1814bd	-0.037129153
144	0xbd9a3d8d	-0.07531271
145	0x3d476ab5	0.048685748
146	0x3c3359e7	0.010946727
147	0x3c941e7a	0.018080939
148	0x3d606298	0.054781526
149	0x3cae6033	0.021286106
150	0xbdc6756d	-0.09690366
151	0xbcd04467	-0.025423242
152	0x3c76eb6c	0.015070777
153	0x3daa0589	0.08301837
154	0xbc98116f	-0.018563
155	0x3c0c8b8f	0.008578195
156	0xbdb925e2	-0.09040429
157	0x3d559c13	0.052150797
158	0x3ccf0f76	0.025275927
159	0x3db63a27	0.088978104
160	0x3d3a5108	0.045487434
161	0x3d02d4e8	0.031941324
162	0x3ca2f60a	0.019892711
163	0xbd390de9	-0.04517928
164	0xbda882a4	-0.08228043
165	0xbc79ee16	-0.015254518
166	0x3dad7143	0.084688686
167	0xbda91b9a	-0.08257218
168	0x3d983c9f	0.074334376
169	0xbd27b5cc	-0.04094486
170	0x3d36e8b2	0.04465551
171	0xbcb9cfe6	-0.022682142
172	0xbd7747ac	-0.060371086
173	0xbca7938f	-0.020456104
174	0xbd58c568	-0.052922636
175	0xbd98e9d3	-0.074664734
176	0xbca8f909	-0.020626562
177	0xbcbb3851	-0.022854002
178	0xbdd6057d	-0.104502656
179	0x3dee987a	0.11650176
180	0x3d08dfef	0.033416685
181	0x3d0f73a5	0.035022397
182	0x3a34e6ca	0.00069008453
183	0x3dcf0453	0.10108247
184	0xbd8368b5	-0.06416456
185	0xbc4aa229	-0.012367764
186	0x3d29fab3	0.04149885
187	0xbbea5522	-0.007151262
188	0xbd63cfba	-0.055618025
189	0x3dff6228	0.12469894
190	0x3d4b11a2	0.049577363
191	0x3d54d2ba	0.051958777
192	0x3c93e9bb	0.018055787
193	0xbd05d5ae	-0.032674484
194	0x3d302197	0.043000784
195	0x3dc4483b	0.09584089
196	0x3dc40d55	0.095728554
197	0x3d364bda	0.04450593
198	0xbde8d069	-0.11367876
199	0xbcb27feb	-0.021789512
200	0x3d22fa92	0.039789744
201	0xbad98b59	-0.0016597315
202	0x3d1a7c8a	0.037716426
203	0x3e035899	0.12826766
204	0xbd231aac	-0.03982036
205	0x3d6ab46e	0.057300977
206	0x3d860c5a	0.065453246
207	0x3d0fdf9c	0.03512536
208	0xbcaf19cd	-0.021374607
209	0x3c0b0b1d	0.008486536
210	0xbcc91f9e	-0.024551209
211	0x3d855018	0.06509417
212	0xbc811a5f	-0.015759645
213	0xbd988908	-0.07448012
214	0x3ca7562e	0.020426836
215	0x3bcf4e6d	0.0063264878
216	0xbc8cb497	-0.017175956
217	0xbde2ed4e	-0.110804185
218	0xbc84d220	-0.016213477
219	0xbd05239a	-0.032504655
220	0xbe220faf	-0.15826295
221	0x3bb9ade7	0.0056664827
222	0xbd9b131d	-0.07572005
223	0x3d23cd7b	0.039990883
224	0x3d5437f3	0.05181117
225	0xbd59a4cb	-0.053135674
226	0x3c1ee4f5	0.009698142
227	0xbe1b798b	-0.15183084
228	0x3c3e89cc	0.011629533
229	0xbd469d4b	-0.04848985
230	0xbe16da3c	-0.14731687
231	0x3c51f8a3	0.012815627
232	0xbe0d87af	-0.1382129
233	0xbb83223e	-0.0040018847
234	0xbdf92730	-0.121656775
235	0xbd341f18	-0.043974966
236	0x3c438ae5	0.0119349705
237	0xbdc85b5d	-0.09783051
238	0xbbfa139a	-0.007631731
239	0x3dfd4feb	0.12368759
240	0x3d46559d	0.04842149
241	0x3db1cc92	0.08681597
242	0x3d891376	0.06693165
243	0x3d43405d	0.047668803
244	0x3d9ed5bd	0.07755611
245	0x3bfd89aa	0.007737358
246	0xbc26b0d7	-0.010173998
247	0xbb1733c3	-0.0023071624
248	0x3cc03720	0.023463786
249	0x3dbc41c1	0.09192229
250	0x3d4974ab	0.04918353
251	0x3daa09a0	0.08302617
252	0x3ddde383	0.1083441
253	0x3bfa046b	0.007629921
254	0xbd176afa	-0.036967255
255	0x3cf146a4	0.02945263

resnets.0.conv2.conv2d.bias f4 [32]
0	0x3d6ed807	0.05831149
1	0xbdc6a0ca	-0.09698637
2	0xbcda255a	-0.026629139
3	0xbd9248b2	-0.07142772
4	0x3c8fac6c	0.017538272
5	0xbd2da1a5	-0.042390484
6	0xbce0b8e4	-0.027431913
7	0xbd1309e7	-0.035898115
8	0x3e03491a	0.12820855
9	0xbdbd29ed	-0.09236512
10	0xbcdc6a97	-0.026906295
11	0xbc0c712f	-0.008571907
12	0xbc515641	-0.012776912
13	0x3be912ca	0.0071128355
14	0x3c6b4a1d	0.014360932
15	0x3d3fa144	0.046784654
16	0x3d4358e8	0.04769221
17	0x3b3d62bd	0.0028897964
18	0x3d332fdb	0.04374681
19	0xbd383c92	-0.04497964
20	0x3cb2d4ef	0.02183005
21	0xbd036a0d	-0.03208356
22	0xbbd1f235	-0.006407047
23	0x3d163b42	0.036677606
24	0x3cf65325	0.030068943
25	0x3dba17e2	0.090865865
26	0xbc9d0269	-0.019166188
27	0x3c8270f6	0.015923005
28	0xbd26ca89	-0.040720496
29	0xbda8519a	-0.08218689
30	0xbb931800	-0.004488945
31	0x3d25d017	0.040481653

resnets.0.in2.weight f4 [32]
0	0x3f520a4e	0.82046974
1	0x3f5767f7	0.8414301
2	0x3f301d81	0.6879502
3	0x3f546812	0.829713
4	0x3f5ae46d	0.855048
5	0x3f52f08d	0.823983
6	0x3f454c1b	0.7706925
7	0x3f3aa43a	0.7290684
8	0x3f446efe	0.7673186
9	0x3f4d684f	0.8023729
10	0x3f4ca054	0.7993214
11	0x3f4e8a77	0.8068003
12	0x3f432d95	0.7624143
13	0x3f45a177	0.771995
14	0x3f4abc98	0.7919402
15	0x3f4e2a28	0.80533075
16	0x3f2fcb9a	0.68670046
17	0x3f452089	0.7700277
18	0x3f2ee9a7	0.68325275
19	0x3f586be7	0.84539646
20	0x3f57c30a	0.8428198
21	0x3f5b3f41	0.8564339
22	0x3f3d2701	0.7388764
23	0x3f3dc82a	0.7413355
24	0x3f30635f	0.6890163
25	0x3f320df4	0.6955254
26	0x3f4d4a3b	0.8019139
27	0x3f5402e8	0.82816935
28	0x3f43fb09	0.76554924
29	0x3f45ec94	0.77314115
30	0x3f53bfe8	0.827147
31	0x3f432fb5	0.7624467

resnets.0.in2.bias f4 [32]
0	0x3ba74e3d	0.0051057623
1	0xbd76fee4	-0.060301676
2	0x3ba1aaba	0.0049336823
3	0xbd88e660	-0.066845655
4	0xbcec5bb6	-0.028852325
5	0xbcc8f4c5	-0.024530778
6	0xbda12341	-0.07868052
7	0xbcc97ee5	-0.02459664
8	0x3cacb9f7	0.021084769
9	0xbdb7356e	-0.08945738
10	0xbd0f49b7	-0.03498241
11	0x3cb19353	0.021676695
12	0xbd33d61a	-0.043905355
13	0x3d086343	0.03329779
14	0xbda13cb7	-0.078729086
15	0x3d2f5f74	0.04281564
16	0xbcf7ce45	-0.030249724
17	0x3b136d2b	0.002249549
18	0xbcbc6bd6	-0.023000639
19	0xbccc012e	-0.024902906
20	0xbd403a56	-0.046930633
21	0x3d456068	0.048187643
22	0x3c818dcf	0.01581469
23	0x3d6cf14e	0.057847314
24	0x3bf1c296	0.007377933
25	0x3cce6373	0.025193905
26	0xbd03f5a5	-0.032216687
27	0x3d0de166	0.034638785
28	0xbd1cc8b0	-0.038277328
29	0xbde7d022	-0.11318995
30	0x3d50da25	0.05098929
31	0x3d74c310	0.05975634
