Assets/Style_Transfer/Models/Estilos mejoras/RAFT/Raft_colores.onnx (onnx, 449766 bytes, 62 tensors)

conv1.conv2d.weight f4 [8, 3, 9, 9]
00000000: 9d74 f1bb f98c 1dbc 6e93 84bd 7341 0b3c
00000010: 464e 7b3c 6e3b 21bd cb81 743d 025d 05bc
00000020: 280e 483d 1357 8abc 0b7e f9bc b987 9fbd
00000030: c00d 31bc 7389 6b3d 4869 333c d097 2f3d
00000040: 57de 913c 8e24 5ebd 4e96 f0bc ad6d f8bc
00000050: 5ac5 253d 3466 633c 4f6a 483d 6ac3 c13d
00000060: dc74 533d 5da7 433c b842 123d 5e9c 00bd
00000070: a5f7 f4bc 2d3b c93d f72d 2b3e e481 163e
00000080: 43b5 65bc 1856 08bc ff56 2a3d 6408 3cbc
00000090: b85d 803d 34f0 e73c 4dcd b53d 4331 b73d
000000a0: 6c8d cd3d 853e 823c 4043 aabd 152b 2abd
000000b0: cb62 18bd c8a9 283a e519 1f3d cb3d 833d
000000c0: d9fe ba3d 8a90 9a3c f849 0d3d 0ddd b63c
000000d0: e21c 61bd 547b cdbb 4937 9b3d e619 b93c
000000e0: 696e e93d 9ce8 a23d 66c1 01bd 8460 4abd
000000f0: 7b27 b0bc 7f6f b73b afb8 52bd fbb8 813d
00000100: 5841 16bc 3760 cb3d 5e17 3e3c eced 10bd
00000110: 3b77 153b 1f84 f13c 6c9f 18bd 55e5 1fbd
00000120: 3ff4 dfbc 57a8 743c b15a 0b3d b41e 863d
00000130: c0dd d3bc 88da babc da7e 5e3c 83fb 0fbd
00000140: dd2e bebb 18f9 06bc c0b6 a13c 247f abbd
00000150: 4200 28bd 3b00 0c3d e73a 273d ecaf a83c
00000160: 64c1 7dbd 34b9 10bd 830b 093d 4da0 9fbd
00000170: f2e0 d7bd c5a8 ffbd cea3 993d c042 f43c
00000180: 96c5 c5bc 09d8 8abb 2b06 bd3c b319 2ebc
00000190: 7723 1dbd 620b dfbc 57c6 91bc c236 d13d
000001a0: 1a32 90bb 7ae9 56bd f5ac ea3c e16a 18bd
000001b0: 958a 06bd 362a cebd 918d 813d f9a7 7c3d
000001c0: 92ce c3bb f0e4 bc3c 0b36 7abd 3eed 20bb
000001d0: f156 bb3b 53a1 363d 66c2 15bd 7aec a6bc
000001e0: 8011 cc3d 874a 083d 09b9 7ebb e90c 08be
000001f0: fddc bf3c 7db4 ecbb b372 18bd 8f06 7ebc
00000200: b3c6 1a3d febb 1a3d c144 e03c 4cfc d33b
00000210: 17d1 f3bc 32f5 abbb 9e4b e53c 113c 38bc
00000220: 9249 9a3d 9489 993d 63e0 923c 3731 cabc
00000230: 4978 633c 8584 80bc 62b1 fe3a 9cfa f3bc
00000240: d5da 073d a0a0 1dbd ccae dfbc 04ed 963d
00000250: 1c3d 0fbd b084 c5bd 6c26 56bd ddb4 163d
00000260: b1df 47bd 0a62 9ebc 0321 f8bb dbc2 fbbc
00000270: 35c9 7e3d e83c c23b 1531 96bb ec6d 73bc
00000280: da5a 2c3d c213 5dbd 902b 8ebc c8a4 1bbd
00000290: bebc 8bbd 0c7b 9bbd 4085 d7bb 588c ba3d
000002a0: 9887 303d 1dab 413d 7eca f73c 08a3 003c
000002b0: 8f20 a0bc 7391 16bd f74d 4d3c 2f95 a03d
000002c0: cab9 c3bc c325 4abd 2fda 8e3d 92fe 623d
000002d0: 321d bbbd 8b2a 8cbb 3048 e8bc 418f fc3c
000002e0: f488 d33c 228b 76bb 4204 333d d779 f9bc
000002f0: d9eb 983d ac3f 93bd 640d 8dbc 12cd 95bc
00000300: ff1a 503d d72a d13a c116 7d3b 5e68 0f3d
00000310: c532 453d a63c 5cbd 1f19 9b3c 9fcb fbbb
00000320: d04c db3c cb31 2dbc 5bd6 173d 0d0d 3ebd
00000330: f4b5 cabd 8895 e93c eaf4 fa3c 1c0d 20bc
00000340: 2b2b bc3c e5e3 f73c b59b 183d ed23 e1bc
00000350: edc0 59bd 7a3f 8bbc 8b55 bbbc 9c63 343c
00000360: 7fe5 ecbc 477b 88bb 7ea4 5c3c 3fcd 8a3c
00000370: c2b0 393c 5c9c 9b3c b8f0 363d 6cac 293d
00000380: fdd5 e7bc a36f f4bc 05bd 263d 3dfc 9d3d
00000390: 2d92 383d 0e22 20bd a509 a63c 85c8 6d3d
000003a0: e6b0 463d 786f dc3b 91ed 13bd ae63 9cbd
000003b0: 33d0 273c 157c aebc 313f 0bbd a256 32bd
000003c0: 998f 51bd df3f 933c 9088 073a 09be 623c
000003d0: 164b 093d c1e5 52bd ff4a 04bd 0b61 dfbc
000003e0: 7222 593d c98e 21bd 9955 e3bc 1a20 93bc
000003f0: ad0a 81bb ad03 f13c a854 ef3c 45a0 3f3c
-0.0073686377 -0.00961613 -0.064734325 0.008499491 0.015338486 -0.039363317 0.059694093 -0.008139851
0.048841625 -0.016887223 -0.03045561 -0.07789559 -0.010806501 0.05750413 0.010950394 0.04286939
0.017806215 -0.05423408 -0.029368546 -0.030325735 0.040471412 0.013879348 0.04892951 0.094611004
0.051625118 0.011941758 0.03570816 -0.031399123 -0.029903242 0.0982574 0.16716753 0.14697987
-0.014020267 -0.008321308 0.041586872 -0.01147661 0.062678754 0.02831278 0.08877049 0.08944943
0.1003674 0.015898952 -0.08313608 -0.041544992 -0.03720359 0.0006433991 0.038843054 0.064082704
0.091306396 0.01886775 0.03449437 0.022322202 -0.054959185 -0.0062708054 0.07578904 0.022595357
0.11398012 0.07954523 -0.03167858 -0.04940845 -0.0215032 0.005598008 -0.05144566 0.0633411
-0.009170853 0.09930461 0.011602251 -0.03538315 0.0022806663 0.029481946 -0.03726141 -0.039037067
-0.027338145 0.0149327135 0.034022037 0.06548825 -0.025862575 -0.022809282 0.013580048 -0.03515197
-0.0058039264 -0.0082380995 0.019740462 -0.083738595 -0.04101587 0.034179907 0.040827658 0.020591699
-0.06195201 -0.035332873 0.033458244 -0.07794247 -0.10540952 -0.12483362 0.075019464 0.029816985
-0.024142068 -0.004237179 0.02307423 -0.010626244 -0.0383639 -0.027227107 -0.017794771 0.10215522
-0.004400504 -0.052468754 0.028646925 -0.037211303 -0.032847006 -0.10066645 0.0632583 0.06168363
-0.005975553 0.023058385 -0.061086696 -0.002455547 0.0057171513 0.044587445 -0.036562346 -0.020376433
0.09964275 0.0332742 -0.0038867614 -0.13286175 0.023420805 -0.0072236643 -0.03721876 -0.015504493
0.03778715 0.03777694 0.027376534 0.006469285 -0.029762788 -0.0052477354 0.027990159 -0.01124479
0.07533564 0.07496944 0.017929262 -0.02468167 0.013883659 -0.01568819 0.0019431526 -0.029782586
0.03316768 -0.038483262 -0.02730503 0.07369426 -0.034970388 -0.09644449 -0.052282736 0.03679358
-0.048797313 -0.019333858 -0.0075722947 -0.030732563 0.062203605 0.0059276707 -0.0045834878 -0.01485775
0.04207883 -0.05397392 -0.017354757 -0.037998945 -0.06823109 -0.07591829 -0.006577164 0.091088
0.043098062 0.047282327 0.030247923 0.00785137 -0.019546775 -0.036759805 0.012530795 0.078409545
-0.023892302 -0.04935242 0.06975209 0.05541856 -0.09136428 -0.0042775325 -0.028354734 0.030830028
0.02582214 -0.003761955 0.043705232 -0.030453606 0.07466859 -0.07189879 -0.0172183 -0.018286262
0.050806995 0.0015958202 0.0038618299 0.03501164 0.04814412 -0.053768776 0.018932877 -0.0076841856
0.026770025 -0.010570954 0.03706966 -0.046399165 -0.09897986 0.028513685 0.030634362 -0.0097687505
0.022969803 0.030260036 0.03725787 -0.027482951 -0.053162504 -0.016998041 -0.022867939 0.011010077
-0.028918026 -0.0041650864 0.013466952 0.016943572 0.011333646 0.018995456 0.04466316 0.0414242
-0.02830028 -0.029838389 0.040707607 0.07714126 0.04506128 -0.039094977 0.02026827 0.05805256
0.048508547 0.0067271553 -0.036115233 -0.076362 0.01024251 -0.021299401 -0.03399581 -0.04353965
-0.051162336 0.017974792 0.00051701907 0.013839253 0.033518873 -0.05148864 -0.032298084 -0.027267953
0.053011365 -0.03944281 -0.027750777 -0.017959643 -0.00393804 0.029420698 0.029215172 0.011695926

conv1.conv2d.bias f4 [8]
00000000: 2bd3 72bd f92f a6bb 4311 98bc bf13 1abd
00000010: 7234 8f3d e19c 223c 8d94 a83c edb5 5f3d
-0.059283417 -0.0050716368 -0.018562919 -0.037616488 0.06992425 0.009925098 0.020578647 0.054616857

in1.weight f4 [8]
00000000: 3825 733f 450d 733f c24b 6e3f 84bc 773f
00000010: 76cb 623f dbeb 713f 23e7 6b3f bc4b 743f
0.94978666 0.9494212 0.9308435 0.96772027 0.88591707 0.9450051 0.9214956 0.9542806

in1.bias f4 [8]
00000000: 73c6 81bc c915 6dbc 83cd afbc b41b cabc
00000010: 5186 34bd 1cfd 073c 845f 5bbc 5bd2 92bc
-0.015841698 -0.014470526 -0.0214603 -0.024671413 -0.044073407 0.008300092 -0.013389472 -0.01792257

conv2.conv2d.weight f4 [16, 8, 3, 3]
00000000: 1c14 953d 82cd ca3d 80fd 4c3d bb85 ba3d
00000010: 8457 c5bc 727f 06bd 13d4 013d 5295 933d
00000020: 0003 a9bd 7559 34bd c9f1 063c b129 8dbb
00000030: 277a e7bd 0bb2 19bd 2fa6 31bd 687d b53d
00000040: f855 223d f9d1 a83c f4a4 8e3d b2eb 81bd
00000050: 1257 41bd 391f dd3d 871b 59bc 5c12 f73c
00000060: 12e1 a8bd 6ca3 d63d af5d 38bb e0b6 da3d
00000070: 68aa 983d 17cb 143e cda1 d93c bf4b 20bd
00000080: 8345 633d e0d0 263c b604 9e3d 4017 c8bd
00000090: 966c 3b3d 3700 ba3d b361 dbbd 2e8d 37bd
000000a0: 1215 753d 93d0 d9bd 1652 9d3b 54ce 63bd
000000b0: e0f0 85bb 2a03 36bd f8a5 a2bc 38e1 553d
000000c0: df0e 1fbe e21f 493c b999 fdbc 17bc d5bd
000000d0: fadc 19be 6271 0bbd deb4 acbb 18f8 eb3d
000000e0: 822b a53d 5156 893d a2e1 7b3d 82c7 0f3e
000000f0: 85af 823d 8f0f 86bc 982a bd3d 2aa6 aabc
00000100: a0b7 8e3d 82d2 f6b9 37ae ae3c 2147 9d3d
00000110: 84ec ec3c f836 b63d 4086 a2bc 8fa0 9d3d
00000120: b366 cfbd 8c24 7abd 1f31 13be 2840 4dbd
00000130: 4ad2 f3bd e996 31bd 837c 933c 0ea7 eebc
00000140: 2a90 4cbe 3c8a 71bd 132b a2bd 9e65 27bd
00000150: 2e23 e6bc d10a 0cbd a2a2 56bd ef44 99bd
00000160: 3ad7 debd 7002 e9bd 1f2b 183e dee5 79bd
00000170: 1aba acbd 5e1f 113e 93b8 bbbd a84e a4bd
00000180: 8f2b 61bd 20d8 05bd 206f 7dbd 6a91 833c
00000190: c594 72bd fd5d e6bc 73d9 43bd a30b e53d
000001a0: 78eb 763d 05f5 4c3d 559c 9cbd 1ef8 033d
000001b0: b2f6 abbd 7eb8 94bc 621a bf3d fa8a fb3b
000001c0: 1ae6 3fbd dd42 ed3d 0303 b13d 3eba 0abd
000001d0: 42d2 cf3d 4f6f 7abd 8e21 2b3d 7010 e23c
000001e0: 48fb b73c 6bf2 9c3b b685 8dbd 0c21 c9bd
000001f0: 1afd 653d 33ca 50bd 7f5c 14bc f483 c33d
00000200: a079 5abd ac3a f8bb a72a f5bd d747 9e3d
00000210: bc73 8f3d b03d f9bb fb38 18be 71e9 f8bc
00000220: 27ae ea3c 684a a93d 5266 afbd 2684 5f3d
00000230: 6fb3 c73d d517 5fbc 84e3 213d 364b b93d
00000240: 37d7 8dbd e102 03bc 9254 cc3d 7e8a 413d
00000250: 0e6e 953c 3e50 7c3d 8e18 433d a725 97bd
00000260: febd 83bd c27b f93d 2fdb ff3d 19d5 003d
00000270: 2cfa d6bc ac5a bebd 96e3 643d 5cbb 71bd
00000280: 4fb5 883d 588a 9cbc cf48 58bd 49f3 47bc
00000290: 2fb3 c0bb f302 4bbd 27b1 27bc 7f75 b23d
000002a0: 25c1 74bd 49b7 3fbd d9c8 493d 60a3 acbd
000002b0: 0b3c 0a3d 4572 6d3d 4787 24bd d4fe f23d
000002c0: 4814 a0bc b826 043e 5593 653d d1ab e83d
000002d0: a51b 1dbd da2b 3abd b78a 353b b9a1 d53d
000002e0: 0954 d1bd 2a20 1dbb efcf b13c 7e47 f03d
000002f0: b4ac ca3d 19df d23d 370b ddbd ee8e af3c
00000300: e46f cfbc 0aff 9fbc 327b 853c fb43 3ebd
00000310: 2c5e 46bd 2cab cfbc 8c04 bb3d 94e0 d13c
00000320: 2fa3 b13d 5f04 c4bc 1207 8f3d fdc5 ed3d
00000330: d6c6 01bb e8d3 74bd c8a2 c43d 0999 55bb
00000340: e2b3 a3bc b1a8 8abc 148d f83d ff6c e83b
00000350: af2d 013d c8a2 ca3d 58ae aebd 8868 6c3d
00000360: fc61 313d 5d9d 04be a26e a23c c977 cfbc
00000370: fea4 7f3d 3035 4d3d f3a0 e6bc d3b3 c4bd
00000380: 727c 913d e4e0 93bd 6629 0a3d 9685 9abb
00000390: 9471 d4bd daa8 91bd d080 833c c1da 053b
000003a0: ad73 05bd a753 74bd 77e2 f2bc 9b69 123d
000003b0: 99fe 3a3d cf92 753d fe0c 093d 31d5 12bd
000003c0: fee3 183e 49d1 033b e04c 813d 3e93 9abc
000003d0: 6466 bc3c 776b 84bc 3504 bd3d d442 ac3d
000003e0: 7ef1 a6bd c384 163d 5bfd 253b bc88 75bd
000003f0: 61ce acbd cfb2 933d 455f 1d3d adf1 63bd
0.07279226 0.09902479 0.050046444 0.09107538 -0.024089582 -0.032836385 0.03169639 0.07206215
-0.08252525 -0.044030625 0.008236357 -0.0043079485 -0.113025956 -0.03752331 -0.043371376 0.0886181
0.039632767 0.020607935 0.06965056 -0.063437834 -0.047202177 0.10796971 -0.013251192 0.030160122
-0.08246054 0.10480389 -0.0028132012 0.10679412 0.074543774 0.14530598 0.02656641 -0.039134737
0.055486213 0.010181636 0.07715742 -0.097700596 0.045757852 0.09082072 -0.10711994 -0.044812374
0.059834547 -0.106354855 0.004801045 -0.05561669 -0.0040875524 -0.04443661 -0.01985453 0.05221674
-0.15533017 0.012275668 -0.03095709 -0.10436266 -0.15025702 -0.034043677 -0.0052705845 0.115219295
0.08064939 0.06705917 0.061494477 0.1404095 0.06381134 -0.01636484 0.0923664 -0.020831186
0.069686174 -0.00047077617 0.021323306 0.076795824 0.028921373 0.08897203 -0.019839406 0.0769664
-0.1012701 -0.06107001 -0.14374207 -0.050110012 -0.11905344 -0.04335681 0.018003708 -0.029132392
-0.19976869 -0.05896972 -0.07918372 -0.040868394 -0.028092947 -0.034190003 -0.052401192 -0.07483851
-0.10880895 -0.11377418 0.148602 -0.061010234 -0.084339336 0.14172122 -0.09166064 -0.08022815
-0.05497318 -0.032676816 -0.061873555 0.01606055 -0.05922391 -0.028120989 -0.047814798 0.1118386
0.060283154 0.050038356 -0.076470055 0.032219045 -0.08396663 -0.018154379 0.09331204 0.0076764794
-0.0468503 0.11585019 0.086431526 -0.03386902 0.10147525 -0.06114131 0.041780047 0.027595729
0.022458687 0.0047896407 -0.06910269 -0.09820756 0.05614958 -0.050974082 -0.009055256 0.095466524
-0.053338647 -0.0075753536 -0.11971026 0.07728546 0.070044965 -0.0076062307 -0.14865486 -0.030384751
0.028647495 0.08266145 -0.08564438 0.054569386 0.09751021 -0.013616522 0.039523616 0.090475485
-0.069258146 -0.007996292 0.09977068 0.047251217 0.018240955 0.061599962 0.04763084 -0.073802285
-0.064327225 0.12181808 0.12492978 0.031453226 -0.026242338 -0.09294638 0.055881105 -0.05901657
0.06675207 -0.019108936 -0.05280381 -0.012204 -0.0058807353 -0.04956336 -0.0102351075 0.08713817
-0.05975451 -0.046805654 0.04926381 -0.08429599 0.033748668 0.057970304 -0.040168073 0.11865011
-0.01954092 0.12905395 0.05604871 0.113608964 -0.038356442 -0.045451976 0.0027701089 0.10431237
-0.102211066 -0.002397547 0.021705596 0.11732386 0.09896222 0.10296459 -0.10793155 0.021430459
-0.025321908 -0.019530792 0.016294096 -0.04645155 -0.048429653 -0.025350176 0.091317266 0.025619783
0.08673703 -0.023927866 0.069837704 0.11610029 -0.0019802353 -0.059772402 0.096013606 -0.0032592437
-0.019983236 -0.016926141 0.121362835 0.0070930715 0.031537708 0.09894329 -0.08529347 0.057716876
0.043306336 -0.12950654 0.019828144 -0.025325673 0.06241321 0.05009955 -0.028152918 -0.09604611
0.07103814 -0.07220629 0.033730887 -0.0047156317 -0.10373226 -0.07112284 0.016052634 0.0020424577
-0.03258102 -0.05965009 -0.029649002 0.035745244 0.04565296 0.05995446 0.033459656 -0.035847846
0.14930722 0.0020113757 0.06313491 -0.018869039 0.022998042 -0.016164524 0.09229318 0.08411184
-0.0815153 0.036747705 0.0025328014 -0.059944853 -0.08437801 0.072118394 0.038420934 -0.0556504

conv2.conv2d.bias f4 [16]
00000000: 34a4 033e ab3b 0cbc 7819 9bbd 9246 3b3d
00000010: dd1a 9ebd 90dd 0abe 0bb7 d33c 3588 bc3d
00000020: d307 783b 3841 08be 875e aabd d46a c43d
00000030: 7f2b e0bd 589a 1b3d 544e 5bbd 7c13 6abd
0.12855607 -0.008559148 -0.07573217 0.045721598 -0.077199675 -0.13561082 0.025844118 0.09205667
0.003784646 -0.13306129 -0.08318811 0.09590688 -0.10945796 0.03798899 -0.053541496 -0.057147488

in2.weight f4 [16]
00000000: 94a6 753f c010 753f da98 5f3f 98a7 623f
00000010: 05b4 783f 01ff 7a3f 6076 653f a1a2 793f
00000020: 2b95 6b3f 9ef8 633f 7891 803f 4d00 703f
00000030: fe7d 743f b850 813f 7685 723f a946 763f
0.95957303 0.95728683 0.8734261 0.8853698 0.9714969 0.98045355 0.8963375 0.97513777
0.9202449 0.89051235 1.0044394 0.9375046 0.9550475 1.0102758 0.94734895 0.9620157

in2.bias f4 [16]
00000000: 9ded 72bc ce6c 81bd 3a60 57bd 269b 79bd
00000010: c36a 6cbc 8106 a3bc 3c1b 43bd 74eb 483d
00000020: 4c25 0dbd be1c aabd 12ff 943c 5d86 93bd
00000030: bed4 fbbb ec56 39bd 3e5b 89bd ff4f 02bd
-0.014827159 -0.06319581 -0.052582003 -0.060938977 -0.014429751 -0.019900562 -0.047633395 0.04905267
-0.034459397 -0.083062634 0.018188033 -0.07203362 -0.007685273 -0.04524891 -0.06706856 -0.03181457

conv3.conv2d.weight f4 [32, 16, 3, 3]
00000000: d025 22bd 1add 04be fc08 d7bd 8528 3c3d
00000010: 4c91 17bc ae82 00be dbbe 40bd d4c7 70bd
00000020: 2101 8fbd 045f 9bbd c6c9 18bb f9b2 c7bc
00000030: 6462 a2bd 12b8 be3d 4fa2 a93d 56a2 22bd
00000040: 15ce a13d f703 da3c 5bab cfbd c640 2cbd
00000050: 8313 17be c8bb 18bc ff2c f0bd fc02 cabd
00000060: ec91 563d 52e2 6bbd 8716 053d 4f76 3639
00000070: 1613 dfba 3bed aebd b898 cbbc 4676 58bd
00000080: 1850 f4bb 5c24 81bb 32f2 2b3d a70b 09bd
00000090: 3712 613d 03f5 4cbd 2939 02be 5644 893c
000000a0: 9d18 a13d 25ea 8d3c 0238 d63c 96e0 77bd
000000b0: 08bf 4e3d f185 d7bc 15ae 9cbd 6aad c6bd
000000c0: 35e2 603d 49e8 01bd 72db a4bd 55a6 153c
000000d0: 00ad 433b e1ae 87bc 3f1a 9e3d 1ed2 283d
000000e0: 91d4 5e3c 1285 843d 1402 213d 955a 793d
000000f0: 2dfd a73c bd5e b13d 437e 133b 3152 9f3d
00000100: 5460 81bd ecc4 97ba 44db 883d d2e7 43bc
00000110: 46c7 613d 1590 8bbd f469 e8bc 2561 823d
00000120: 8643 7fbd debe 05be 1187 58bd a05d a5bd
00000130: 0d09 00be 95a2 5ebd 7262 843c fc2f d9bd
00000140: c9b6 0dbb 9682 26bb fea0 f4bb cc00 113c
00000150: 4696 8dbd c737 b8bd c722 6abd 44e5 46bd
00000160: a3e7 d63c 02f1 923b f13a 6cbd 31aa b3bd
00000170: 2e8e ddbd 06bc 963d 6aaa cdbb cedb d4bc
00000180: fcf1 8d3d 58ad 9dbd 99a2 6dbd de15 aebc
00000190: 971e ddbd afc1 ae3c c3f5 7fbd e869 2ebd
000001a0: 82d0 14be e3e6 dabc 559d 08bd 2601 cfbd
000001b0: bdac a2bd 435c e2bc 886c c1bd 2dde d2bd
000001c0: dc00 88bd 601d b8bd 88d8 a53d 830e 8b3a
000001d0: 0157 9ebd 4ea0 82bd 75f0 b0bd 5bc1 4ebd
000001e0: c583 b83c a308 d7bc 830a 62bc 4d70 4cbd
000001f0: 7352 443d f09c 55bd 05f2 233b 945c 13be
00000200: bb3b 8fbc 2ee1 4abd 3748 cdbd 1019 9fbd
00000210: 26e0 a03c ea3a bdbd 83fc 1bbe 5284 0fbd
00000220: 6e53 19bc cffb e23b 9856 b23a 1534 823d
00000230: ecb6 5fbd dacc 6bbd d77e bb3d d9cf ac3d
00000240: ff90 9c3d f603 eebb 3b40 8f3c 9a18 6bbd
00000250: 478b 963c 5774 41bd 1e9c adbc ed5d 9d3d
00000260: d381 83bd 4bf3 363d 63f9 fb3c 9da7 41bd
00000270: 9e85 70bd 0c27 c5bd a7ac a23c 3c37 a5bb
00000280: c62c 34bc 35e6 11bd 2264 edbc 7132 753d
00000290: 8707 01bd 1575 c33d d7e3 9e3c 4993 c13d
000002a0: 71cb 693d 3487 843d a8cb c63d 4a51 033d
000002b0: 68e1 ed3d 633c f13d aedf 1c3d 7318 b83d
000002c0: 313b 183d f494 81bc cd30 363c e75c fe3d
000002d0: 84c4 563d f620 9abc da84 fe3d 7d2f 85bd
000002e0: 33dd a73d 721c dc3d ce16 993c d141 8cbb
000002f0: e88d d63d 1145 16bd 7267 2abd d09f 7e3c
00000300: 4ee6 513c 5f83 87bb 00c8 d83c 98b6 c7bc
00000310: 33dc 843d 72a1 2d3d 6726 1dbd f050 a9bc
00000320: 5a45 e9bd 178e 76bd 4815 82bd 95b5 a0bd
00000330: 62bb 5cbd b323 5cbd c2ba bd3d 868f 283d
00000340: 8693 3b3d 7f44 17bd 0745 8e3d 4030 d53c
00000350: 1e08 32bd 792e af3d 5c54 323c 5eb7 6b3b
00000360: c945 223c 18e2 403d 8cbe 0b3d c309 893d
00000370: 565f b23d eb78 b93b 2b27 20bd 0ffc 9b3d
00000380: 2153 25bd b3a2 bebc cc3c 2c3c 0d55 02bd
00000390: f6ca 7cbd 856e 2c3d a763 0bbd b1bf 88bd
000003a0: 8875 afbc 0f9d 043d 6dc1 513d a9be 073d
000003b0: 1fc5 23bd 4a9b c4bb 9890 98bd 94e5 113d
000003c0: d2dc 8a3d ab43 49bd db29 a73c a53c 393d
000003d0: 2163 ae3d 1458 9cbc fad8 813d cee4 c13d
000003e0: 52d2 71bd f085 7d3d 37e4 213c ad12 433c
000003f0: a5df 993d 982b 3cbd a8b7 603d e473 243d
-0.039586842 -0.12974969 -0.104997605 0.04593708 -0.00925095 -0.1254985 -0.047057014 -0.05878432
-0.06982637 -0.07586482 -0.0023313626 -0.024377333 -0.07928923 0.093124524 0.08282911 -0.039705597
0.07900635 0.026613219 -0.10140105 -0.04205396 -0.14753537 -0.009322114 -0.11727332 -0.098638505
0.052385256 -0.057588883 0.032492187 0.00017400946 -0.0017019238 -0.08541342 -0.024853095 -0.05284717
-0.007455837 -0.003941102 0.041979022 -0.03345838 0.05494901 -0.05003835 -0.12717117 0.016756218
0.07866023 0.017323563 0.026149753 -0.060516916 0.05047515 -0.026308985 -0.07650391 -0.09701045
0.054903228 -0.031715665 -0.08049668 0.009133895 0.0029857755 -0.016562881 0.0771985 0.04121601
0.0136004845 0.06470694 0.039308622 0.0608774 0.020506466 0.08660648 0.0022505678 0.07779349
-0.06317201 -0.0011579073 0.066824466 -0.011957126 0.055121683 -0.06814591 -0.028370835 0.06366185
-0.062320255 -0.13061091 -0.052863184 -0.08074498 -0.12503453 -0.05435427 0.016160224 -0.106048554
-0.002162384 -0.0025407425 -0.007465481 0.008850288 -0.06913428 -0.08995014 -0.057162073 -0.04855849
0.0262335 0.004484297 -0.0576734 -0.08772696 -0.10818134 0.073600814 -0.0062764185 -0.025983717
0.069309205 -0.07699078 -0.058016393 -0.021250661 -0.1079685 0.02133259 -0.062490236 -0.04258147
-0.14532664 -0.026721423 -0.03335317 -0.10107641 -0.079431035 -0.027631884 -0.09444529 -0.10296283
-0.06640789 -0.08989978 0.08097941 0.0010609183 -0.077314384 -0.06378232 -0.086396135 -0.050477367
0.02252377 -0.026249235 -0.0137964515 -0.049911786 0.047930192 -0.05215162 0.002501608 -0.14390785
-0.017484536 -0.049531154 -0.100235395 -0.07768452 0.019638132 -0.092397526 -0.15233044 -0.0350383
-0.00935827 0.0069269906 0.0013606129 0.0635759 -0.054617807 -0.05756841 0.09155052 0.08438081
0.07644843 -0.007263656 0.017486682 -0.05739651 0.01837696 -0.04723009 -0.021192607 0.076839305
-0.064212464 0.044665616 0.030758565 -0.04727899 -0.058721177 -0.09626588 0.019857718 -0.005041985
-0.010997003 -0.035619933 -0.028978411 0.059862558 -0.03150132 0.09543816 0.019395752 0.094519205
0.057078782 0.064711004 0.09706813 0.032059945 0.116152585 0.11779096 0.038299255 0.08989038
0.037165824 -0.015818097 0.011120033 0.124200635 0.052433506 -0.018814545 0.12427683 -0.06503198
0.08196487 0.10747613 0.018687632 -0.004280307 0.10476285 -0.03668696 -0.04160256 0.015541032
0.012811257 -0.0041355337 0.026462555 -0.02437906 0.06487312 0.042390294 -0.0383667 -0.020668477
-0.11390181 -0.0601941 -0.06351715 -0.07847134 -0.05388964 -0.053744983 0.09264137 0.0411525
0.045794986 -0.036930557 0.0694676 0.026023984 -0.043464772 0.08553786 0.010884371 0.003596745
0.009904333 0.04709062 0.034117267 0.06691315 0.0870959 0.0056601665 -0.039099853 0.07616436
-0.04036248 -0.02327094 0.010512542 -0.031819392 -0.061716996 0.042097587 -0.034030583 -0.06677187
-0.021418348 0.032376345 0.051209856 0.033140812 -0.03998291 -0.005999957 -0.07449454 0.035619333
0.067803994 -0.0491368 0.0204057 0.04522385 0.08515001 -0.019084968 0.06340213 0.09467469
-0.059038468 0.06189531 0.009881071 0.011906308 0.0751336 -0.04594001 0.05486265 0.040149584

conv3.conv2d.bias f4 [32]
00000000: 97b5 fcbc 1d37 823d c10f fc3d 1ccb 98bd
00000010: b8df 3c3d 68b7 55bd ad61 4b3d ac5a a33d
00000020: f9a9 353d d5ed 62bd e6ad f2bd 0ef3 a6bc
00000030: 6725 3b3d 8312 27bd fe73 cbbc afd5 173d
00000040: b6c7 2cbd f298 cc3c 7c12 51bd b3d8 c83d
00000050: b232 32bd 2aff d03c 1b9f d83d 7b2d 92bb
00000060: 891a dcbd 6a50 2f3a 33ef 1f3d 419d 983d
00000070: ec88 51bd 28f6 35bd 4736 5c3d 5b16 613d
-0.030848308 0.06358168 0.12307692 -0.07460615 0.046111792 -0.052176863 0.049653698 0.07976279
0.04435155 -0.055402596 -0.11849575 -0.02037957 0.045689967 -0.04078914 -0.024835583 0.03706902
-0.042182647 0.024975274 -0.05104302 0.09806957 -0.043505378 0.025512297 0.10577222 -0.004460988
-0.10747249 0.0006687703 0.039046478 0.07451869 -0.05115597 -0.044424206 0.0537627 0.05495296

in3.weight f4 [32]
00000000: 6aa6 583f 0658 593f 21cb 6e3f 53d4 833f
00000010: 3d04 7f3f 6a79 6a3f f17c 6b3f 8b67 5f3f
00000020: 0c49 553f 0e68 753f 3543 783f 154e 5b3f
00000030: 4e4c 783f 7e43 503f 6b54 6b3f 3f38 6e3f
00000040: 8d80 763f cf99 863f 7aea 7a3f 5cbe 533f
00000050: 66c2 553f c410 663f 9a18 5a3f 9e1e 6d3f
00000060: 6542 6f3f be8b 793f adb5 813f 192d 663f
00000070: 0c9e 523f 7f45 623f 03c7 653f 1804 5c3f
0.8462893 0.8489994 0.932787 1.0299171 0.9961584 0.91591513 0.9198752 0.8726737
0.83314586 0.958619 0.9697755 0.8566602 0.9699143 0.81352985 0.91925687 0.93054575
0.962899 1.0515689 0.9801403 0.8271234 0.83499753 0.8986933 0.8519379 0.92624843
0.93460685 0.97478855 1.0133568 0.89912564 0.8227241 0.8838729 0.8975679 0.85943747

in3.bias f4 [32]
00000000: b6e8 e8bd b152 b4bd ac0f babd c347 35bd
00000010: 17f7 99bb 491c f7bc e468 eebc d8b7 05be
00000020: b600 ffbd 35ea 78bd f31a 95bd 31c9 cdbd
00000030: 8aee 9f3b 6adb 6abd 0961 89bd 2409 79bd
00000040: d67d 8dbc 14ef 89bc 384e a6bd 77cf e4bd
00000050: 4ce8 1fbd 163e 89bd db76 eebd ae78 9dbd
00000060: 575b 0cbd babb 7dbd 95db eebc 03c5 39bd
00000070: 41ab 1abc 237b b0bd e1c0 c5bd 3534 0abd
-0.11372511 -0.08804835 -0.090850204 -0.04425789 -0.004698645 -0.030164855 -0.02910275 -0.13058412
-0.124513075 -0.060770232 -0.07280531 -0.1004814 0.004880731 -0.057338156 -0.06707961 -0.060799733
-0.017271917 -0.016837634 -0.08120388 -0.11172383 -0.039039895 -0.06701295 -0.11643764 -0.076890334
-0.034266796 -0.061946608 -0.02915744 -0.0453539 -0.009440244 -0.086172365 -0.09655929 -0.033741195

resnets.0.conv1.conv2d.weight f4 [32, 32, 3, 3]
00000000: ddb9 213c 09b1 2abd 284c 4f3d 52fd ee3c
00000010: e51d 15bd cf41 653d 328d 47bd 5423 1dbc
00000020: 5e14 93bc e13b 5fbc 6ef7 babc cce1 64bd
00000030: 6910 03bd 4536 45bd dc78 06bd 4574 d4bc
00000040: aa3a 96bd 5c81 0d3c 61d7 42bd c469 62bc
00000050: adf3 3dbd 8058 bfbc 3e71 e13c c8a9 55bc
00000060: 2d13 02bd 850d 2ebc df94 2db9 a65d 833d
00000070: 6b28 5cbd 9164 31bd 02e6 5b3d c631 083c
00000080: 7f8e bcbb 0609 fc3c 70c0 66bc 5da9 0b3d
00000090: 437b 853d 9d2a 903c c420 c338 c370 253d
000000a0: 0c6c f13c 93e0 5f3d 868e 15bd c9da 383d
000000b0: b32f 2c3d 97a1 513d 6919 5c3c 18da c0bc
000000c0: 1b30 3ebd 34c1 ac3c f8fb 96bd 0c93 373d
000000d0: b99f 9fbd fea6 84bd 4b45 95bd 0c47 89bd
000000e0: 396d 0a3d 74d9 2ebd 83c3 783a b764 82bd
000000f0: 9dd5 233c 83a9 fcbd 9477 8cbd f2ab d13c
00000100: 8209 dc3b b4af 96bc 2d25 f9bc 1f97 333d
00000110: 3d50 0ebd 154e 4f3d 4399 a83b 2077 083d
00000120: edbe 073c 06af 1fbd 42c8 5abd f840 09bc
00000130: 00ef 8cbb f7e6 79bd cb12 2dbd 0b8e 723d
00000140: ce2d 643c 2042 93bd 60a3 b03d 431c 053e
00000150: 7da7 64bd aa8b f7bc c324 113d bb01 91bb
00000160: 6fce 23bb 9e7c ad3c 203e 523d 5353 98bc
00000170: d449 03be f7a5 aa3c d9de 87bc 9760 71bc
00000180: 9051 743b d3af eabd f8e4 b8bc 1ca9 d1bd
00000190: 427e a9bc bc5a 013d b0ed 6f3b 2c93 91ba
000001a0: 5ccc 62bd bda4 22bb 5f1f a9bc 979d 99bd
000001b0: a8be f83c 29cc be3c e916 933d a507 9c3b
000001c0: 0e69 8d3d 101e 9e3c a02c 99bd 0640 42bd
000001d0: 6b80 833d 102e 40bd a88e 813d 3dd6 133e
000001e0: 992b fdbc 03af 79bd 7c3e cd3c a7f2 7f3c
000001f0: 9bef 82bd 8e50 8abd 8e57 c5bd c330 52bb
00000200: 8939 923c b366 5e3c 9216 183d 0405 553b
00000210: f63f f2bd 5a43 a63d b9a9 dbbd 864e cc3a
00000220: 3501 84bd 4338 27bd a343 d4bc 4388 1a3d
00000230: 7dca ddbc ed8c c2bc a85f 863c cdde 86bd
00000240: e62d 09bd c549 b8bc 9696 803d 9b74 583d
00000250: fd70 673c 5936 cbbb be16 c33b 9df5 dcbb
00000260: c3d0 363b b0cf 503d ae7b d13c 247a 813c
00000270: b19f 11bd 3c8e e5bc 635c c63b cd2a 6fbc
00000280: 9b86 b33b ec1d aa3d 3e7b 713d df86 e93c
00000290: 010d 8cbc 9942 d43c 74ad a33c b0dc 813d
000002a0: dc4d 5e3c 2f74 483d 8688 a23b 59c8 a7bd
000002b0: 2b98 e53c dcb8 1e3d 261e 12bd 42a1 09bc
000002c0: 4b2f d63c 0378 51bc 4f49 89bd 82b8 78bc
000002d0: f849 b2bd cbd8 803d babf b43d 570f 8bbb
000002e0: 4237 cabc e773 11bd 1b30 dcbc b79c 003a
000002f0: 0eca 4cbd 9196 1abd 323a d93c 2ae7 1d3d
00000300: 6170 8cbd 1708 2abd 189d 643c d0fb adbd
00000310: f5d5 bf3c fa9a cebb d340 963b 4ce9 84bd
00000320: bf42 febb 1411 873c e52a 3d3b 0e8b 94bc
00000330: 8860 803a 13dc e43a 2fec cdbb 625e dcbc
00000340: 6c2b c1bc 4339 373c f5df fdbc bed7 9cbc
00000350: 0a7c 673d 030f aebc 9905 67bc 8138 eb3c
00000360: 5c74 12bc ba52 b93b 2402 1b3d 0002 273d
00000370: a64e 89bd c287 b7ba 38a6 223d 72b6 09bd
00000380: 86e3 123d 42ac f93c 3087 b7ba c758 04bd
00000390: 1c2d b83c 0d37 92bd 3046 a1bc 3c66 99bc
000003a0: 431e b5bc c96b b5bd f124 493c 3028 b5bd
000003b0: 9e37 cabc b735 1ebd c21c 0f3c 9704 85bd
000003c0: be79 6f3d 7983 56bd b8ed aabd c416 23bd
000003d0: e411 273d f79a c03d e8cd 64bc 7b35 973a
000003e0: ad4c 2fbd 5981 b6bd 4fbf 1b3d c9d4 adbd
000003f0: 9900 fa3c f20e 07bd 8315 83bc 0ee3 1abd
0.009870973 -0.04167274 0.050609738 0.029173527 -0.036405463 0.055970963 -0.04871864 -0.009590942
-0.017954048 -0.013625116 -0.022823062 -0.0558794 -0.03199807 -0.04814746 -0.032830104 -0.025934348
-0.07335408 0.008636799 -0.047568683 -0.013819162 -0.046374965 -0.02335763 0.027519818 -0.013040967
-0.03175657 -0.0106233405 -0.00016554024 0.064143464 -0.053749483 -0.0433088 0.05368615 0.008312648
-0.0057542915 0.030766021 -0.014083967 0.034097064 0.06517651 0.017598445 9.304428e-05 0.04039074
0.029470466 0.05465753 -0.036512874 0.045130525 0.042037677 0.051179495 0.013433793 -0.023541495
-0.046432596 0.02108822 -0.07372278 0.04481797 -0.077941366 -0.06477164 -0.07288607 -0.06703004
0.03379557 -0.04268785 0.0009489583 -0.06366866 0.00999966 -0.12337019 -0.06858745 0.025594685
0.0067150006 -0.018394329 -0.030413235 0.043845292 -0.03474449 0.050611574 0.0051452233 0.03331673
0.008285266 -0.038985275 -0.053413637 -0.008377306 -0.004300952 -0.06101128 -0.04225425 0.059217494
0.013926936 -0.07190347 0.08624911 0.12999062 -0.05582379 -0.030217964 0.03543545 -0.004425255
-0.002499487 0.021177586 0.05132878 -0.01859442 -0.12821132 0.020831091 -0.016585754 -0.0147325015
0.003728006 -0.11459317 -0.022570118 -0.10237333 -0.020690087 0.03158067 0.0036610179 -0.0011106483
-0.055370674 -0.002481743 -0.020644842 -0.07500761 0.03036435 0.02329071 0.07182104 0.0047616535
0.06904803 0.019301444 -0.07479215 -0.04742434 0.06420978 -0.04691893 0.06326038 0.14437194
-0.030904578 -0.06095792 0.025054209 0.015621818 -0.06393357 -0.06753646 -0.0963584 -0.0032072521
0.0178497 0.01357429 0.0371309 0.003250421 -0.11828606 0.08118315 -0.107257314 0.0015587367
-0.06445543 -0.04082514 -0.025911158 0.037727606 -0.027074093 -0.02374884 0.016403034 -0.065854646
-0.033491038 -0.022496114 0.06278722 0.05284558 0.01412606 -0.006201547 0.005953639 -0.0067431466
0.0027895428 0.050979316 0.02557167 0.015805312 -0.035552684 -0.028021924 0.006053494 -0.014597607
0.0054786927 0.083064884 0.058955424 0.028506694 -0.017096044 0.025910662 0.01998017 0.06340921
0.013568368 0.048938926 0.0049601225 -0.0819251 0.02802666 0.038750514 -0.035673283 -0.008400263
0.026145598 -0.012784961 -0.06703436 -0.015180709 -0.08705515 0.0629135 0.088256314 -0.004243772
-0.024684552 -0.035510924 -0.026878407 0.0004906165 -0.049997382 -0.037741248 0.026517007 0.038550533
-0.06857372 -0.04151162 0.01395347 -0.08495295 0.023417452 -0.0063050957 0.0045853644 -0.0648981
-0.0077594216 0.016487636 0.0028864678 -0.018132713 0.0009794394 0.0017460607 -0.006284259 -0.026900474
-0.023580275 0.011183086 -0.03099058 -0.019145843 0.056514777 -0.021247393 -0.014100456 0.028713467
-0.008938875 0.0056556137 0.03784384 0.04077339 -0.06704454 -0.0014002251 0.0397093 -0.03362126
0.035861515 0.030477647 -0.0014002081 -0.032311227 0.022482447 -0.07139406 -0.019686788 -0.018725507
-0.022109156 -0.08858449 0.012276874 -0.08845556 -0.024684723 -0.038625445 0.008734884 -0.06495016
0.05846571 -0.052371476 -0.083461225 -0.039816633 0.040788546 0.09404557 -0.0139651075 0.0011536324
-0.042797733 -0.0891139 0.038024243 -0.08487851 0.030517863 -0.032973237 -0.016001469 -0.037814192

resnets.0.conv1.conv2d.bias f4 [32]
00000000: 9d35 9d3d 7508 813d 049d 11bd 8557 643b
00000010: 9b9f 2a3c 8f62 9b3b 281a b03d 8b4e 6a3d
00000020: b753 3b3b f039 a2bc 099d 2fbc fdb4 523c
00000030: d177 6e3c 0d5a a5bc edab 08bd 0cbf 333c
00000040: ea86 873d 9a87 343d 2961 dcbd 5aa0 d1bc
00000050: 2ed7 f5bb df92 303d 7f23 22bc 41a6 993d
00000060: 109d 843d 4d09 ea3c 684d 6ebd 6b12 95bc
00000070: a876 d83b 7f41 8dbd 3300 33bd 0802 32bd
0.076762415 0.06300441 -0.035550132 0.0034842205 0.0104140295 0.0047419737 0.08598739 0.05720381
0.0028583833 -0.019803017 -0.010718592 0.012860534 0.014554934 -0.020184541 -0.033367086 0.010970842
0.0661753 0.044074632 -0.10760719 -0.025589157 -0.007502458 0.043108817 -0.009896158 0.075024135
0.0647527 0.028568888 -0.05817929 -0.018197259 0.006605942 -0.06897258 -0.043701362 -0.04345897

resnets.0.in1.weight f4 [32]
00000000: 77a3 773f 01e8 7b3f ef73 7f3f 66b9 7f3f
00000010: 915d 853f ab71 7e3f d4e2 8d3f 0ab2 763f
00000020: 7a22 7a3f 0efc 813f 3950 7d3f a17d 783f
00000030: 18c8 7e3f 25e7 7d3f 6afe 7b3f 6250 863f
00000040: e0d7 753f 545d 803f 2aae 863f 115e 8a3f
00000050: 681d 7c3f ec1b 743f 1cad 683f 0158 783f
00000060: 837d 7a3f 6bef 7f3f eb79 753f afb2 7c3f
00000070: d1f8 7e3f b30f 733f 25fa 7e3f f458 893f
0.967338 0.98400885 0.99786276 0.9989227 1.0419179 0.99392194 1.1084847 0.96365416
0.9770886 1.0155046 0.98950535 0.97066694 0.9952407 0.99180824 0.9843508 1.0493281
0.96032524 1.0028481 1.0521901 1.0809957 0.9848237 0.95355105 0.90889144 0.97009283
0.97847766 0.999747 0.9588916 0.9871015 0.99598414 0.9494583 0.9960044 1.0730271

resnets.0.in1.bias f4 [32]
00000000: cd32 94bd 162d 5dbd 4839 c2bd 8a65 4a3c
00000010: 8a93 15bd 2e76 9fbc a801 913c dbdc f2bc
00000020: 0d77 f43b fab4 cdbd 1775 e9bc 300d 69bd
00000030: 424f 5cbd 4cea 9cbc 42c8 403b 3b93 f3bd
00000040: 74dd d4bd 14cf 22be 2e15 76bd 1d6d 0ebe
00000050: dea2 55bc 8810 cbbb 780a 9fbd 9828 9ebc
00000060: 6221 06bd e1e5 8bbc ee1a c8bc ca31 b0bc
00000070: c85a 1cbd 6036 efbc e8fa 13bd 7d8c 6cbd
-0.07236252 -0.053998075 -0.09483582 0.01235331 -0.036517657 -0.019465532 0.017700985 -0.029646328
0.007460481 -0.10044284 -0.028498216 -0.056897342 -0.053786524 -0.01915469 0.0029416238 -0.11893316
-0.10393801 -0.15899307 -0.060078792 -0.13908811 -0.013039319 -0.006197039 -0.07765669 -0.019306466
-0.03274668 -0.017077388 -0.024426904 -0.021508116 -0.038172513 -0.029200733 -0.036127955 -0.057751168

resnets.0.conv2.conv2d.weight f4 [32, 32, 3, 3]
00000000: b38f 92bc 4ffc c63c 61b2 463d 24c6 81bd
00000010: f5ae 01bd aeaa 973c c886 893c cc15 3f3d
00000020: fee5 4a3d 3b6f 3c3c 6a07 6a39 d96a 19bd
00000030: a4f3 a4bb 6ae2 28bd d05a 8f3c 4207 153d
00000040: 41e3 8e3a 14f4 28bd 5dc7 1dbd 1398 4c3d
00000050: 8851 7d3c 23ca 163b 50b7 2b3d 84f9 973c
00000060: 01a7 0c3c 0f17 7ebc c7e7 9cbc b0c5 4ebd
00000070: bec9 81bc da59 bbbd 4cc2 12bd caff c1bb
00000080: c592 52bc c2c5 1abd 92db b63c f080 89bd
00000090: 721f fbbb a5fc b8bd 1182 e5bc 2b65 513c
000000a0: 86f6 013d 104c c4bd 760b 9f3d ed9f 813d
000000b0: d157 6e3d b0cd b93c 0dd7 3bbd 65e1 ca3b
000000c0: b9e5 a8bc eaba 80bc 6871 0fbd 58a5 813d
000000d0: f6bf d53c f5b7 8cbd 79db 053d ec63 27bd
000000e0: 3290 e3bc 7fb8 c53d 7bb0 bcbc b939 bcbc
000000f0: 5f09 883d 79db 7b3d 51c8 9fbd acc9 cebb
00000100: 4baf 55bd bcbf a43c aa52 693c 29fa c0bd
00000110: f7cd 42bd c4f2 98bc e6a2 f3bd b81c 95bd
00000120: 872f 24bd 0f8a 943d c655 4dbd b719 0cbc
00000130: 8680 59bd 7c34 613d 34c0 7fbb a484 953b
00000140: 7dd8 92bc 1013 11bd 010e 04bc 12c8 cf3b
00000150: 8089 0d3d 42d9 3bbd b3ca 15bd 2408 45bd
00000160: 2bf2 47bd d1f7 0bbd 5666 95bb 1991 453d
00000170: 3ee3 673c e5bd 6abd 88ee 8b3b 831d a8bc
00000180: ca7b 33bd 7840 993a 484c 4c3d 71ef 353d
00000190: c1b9 fc3c b396 0cbd 65fc c8bd ded7 c9bd
000001a0: 8173 b93c 63c0 7dbc e8e6 4ebd 9b92 8bbd
000001b0: feb2 323c f6fd 403c 8e48 94bc f543 50bd
000001c0: d844 3abd 3528 18bd ff72 843c 0648 52bd
000001d0: 3d7f c8bc bf65 64bd fa3f 413d a25c 093d
000001e0: 4092 8bbd 8b5a 953d 7081 593d a29a b0bd
000001f0: 505e cdbc 0002 4a3d fde0 d53c cd35 acbd
00000200: 5a71 d4bd 2df1 c83c e5d5 33bc 8f1b cb3b
00000210: 0c05 e53b 5a28 4fbd 5937 d1bc 728e 8abd
00000220: 7bd2 95bd c001 733c 08f6 05bc caf0 07bd
00000230: 1576 edbb 7bbb 373d a9fe fbbd f35a 4ebd
00000240: a343 c13b ba01 b8bc d3fb 9b3b 8d41 4e3d
00000250: 6238 78bd 1faa 81bd 83b3 303d 18c0 8a3d
00000260: ac7a 783c cb59 d23d 85ff 9a3d 759e 04be
00000270: e3c9 e3bc 33a8 9dbc c90f c63d f320 c63c
00000280: 91b5 1bbd 6adf 733c 1f65 0abc ac05 81bd
00000290: 21e5 43bd f6b0 bd3d c80d 00bd 5107 d1bd
000002a0: 5b8d c33d f391 dcbc 7e95 e7bd 345c 263e
000002b0: f97f 593c 37fb 93bd 2cb3 a43d 5cbe 6f3d
000002c0: 454f 413d cacd ba3b 8661 fd3c 0db2 453c
000002d0: b214 07bd 1706 493d bbad 53bd a14c cc39
000002e0: b867 2dbd 1aca cbbd 75dc 9bbc dfc6 b2bd
000002f0: a014 ea3b ebaa 9abc ccfa ba3c 153e bbbc
00000300: 67fe 3ebd a5d4 5fbc f1b7 3cbd 6431 51bd
00000310: 9adc 8ebd 165a 8abd f516 a4bb 32cd 813c
00000320: df6b 8fbc a150 75bd 99fc 1fbc 9feb b93d
00000330: 8e1a 4fbd 2cbb a8bc 5e5b 9cbc 736b 8d3c
00000340: fc79 f93b 5c8d 2dbc 6ed3 913c 843d 743c
00000350: 12df 833b f52a 69bc 2ef6 80bd 661d a3bc
00000360: ab1f 38bd 7736 573d 3b54 1bbd 4063 aebd
00000370: 78ac 08bd 5099 863d c917 e73c 5418 da3b
00000380: 640d 933d 6827 35bd ccb1 773c 7e36 83bd
00000390: 4b6b 03bd 586f a03b 7a5d 62bd 3fb7 0c3d
000003a0: b66c 0fbd 5e07 3bbd d71b 95bd 51a4 adba
000003b0: 790b 3a3d d12a 1a3d 02d0 b1bd 62e1 703d
000003c0: 519d 30bb 530d 45bb 7d6e 8dbd 61a8 7d3c
000003d0: a87d e63c 52b7 b23c 5680 8abc d9d5 73bd
000003e0: 6c15 d7bc b572 92bc 9add 93bd e079 763d
000003f0: 7151 a73c 659e 423b c018 ee3b 80c4 97bd
-0.017890787 0.024290232 0.04850996 -0.063366205 -0.031660993 0.018514004 0.016787902 0.046651646
0.049535744 0.011501129 0.00022318741 -0.037455413 -0.005033927 -0.04123155 0.017499357 0.036383875
0.0010901467 -0.041248396 -0.038520206 0.049949717 0.015461333 0.0023008666 0.041922867 0.018551596
0.008584739 -0.015508427 -0.019153489 -0.0504815 -0.015843268 -0.09147997 -0.035829827 -0.005920385
-0.012852375 -0.037786253 0.022321496 -0.06714046 -0.0076636607 -0.09032563 -0.028016122 0.012780468
0.031729244 -0.0958482 0.07765858 0.063293315 0.058189217 0.022681087 -0.045859385 0.00619142
-0.020617353 -0.015714128 -0.035020262 0.06330365 0.02609251 -0.068710245 0.03268001 -0.040866777
-0.027778719 0.096543305 -0.023033371 -0.022976743 0.066424124 0.061488602 -0.07801879 -0.0063106623
-0.052169126 0.020110957 0.0142409 -0.09422714 -0.047559705 -0.018670447 -0.11896305 -0.07280868
-0.040084388 0.07252895 -0.050130628 -0.008551053 -0.053101085 0.054981694 -0.0039024474 0.004562931
-0.017925495 -0.03541857 -0.008059979 0.006340989 0.03455496 -0.04586149 -0.036570262 -0.048103467
-0.048814934 -0.034171883 -0.0045593185 0.04823408 0.0141533 -0.057310004 0.0042703785 -0.020521885
-0.043819226 0.0011692187 0.049877435 0.044417802 0.030850293 -0.034323405 -0.098137654 -0.098556265
0.022638084 -0.015487763 -0.050513178 -0.06815072 0.010906933 0.011779299 -0.018101003 -0.05084606
-0.04547581 -0.03714772 0.016168116 -0.05133822 -0.024474734 -0.055761095 0.047180153 0.033535607
-0.06815004 0.0729266 0.053101957 -0.08623244 -0.025069386 0.049318314 0.02610826 -0.08408699
-0.103731826 0.024529064 -0.010976289 0.0061983536 0.006989127 -0.05057559 -0.025539087 -0.067654505
-0.073155366 0.01483196 -0.008176334 -0.03318862 -0.0072467425 0.04485653 -0.12304432 -0.050379705
0.0058979555 -0.02246176 0.0047602444 0.050355483 -0.060600646 -0.06331276 0.043139946 0.0677492
0.015165966 0.10271033 0.07568268 -0.12951072 -0.027806228 -0.019245243 0.096709795 0.024185633
-0.038014952 0.014884809 -0.008446961 -0.0629991 -0.047825936 0.09262268 -0.031263143 -0.102064736
0.09548446 -0.026925063 -0.1130781 0.1624611 0.01327514 -0.0722565 0.08041987 0.05853115
0.047194738 0.0057008015 0.030930292 0.012066376 -0.03297872 0.049078073 -0.051679354 0.00038967005
-0.042335242 -0.09950657 -0.01902602 -0.08729338 0.007143572 -0.018880328 0.022824667 -0.022856751
-0.046629336 -0.013661538 -0.046073858 -0.051072493 -0.0697567 -0.06755464 -0.0050076195 0.015844915
-0.017507492 -0.059891347 -0.009764814 0.09078144 -0.050562434 -0.020597063 -0.019086536 0.01726315
0.0076134186 -0.010592785 0.017801013 0.014907245 0.004024395 -0.014231433 -0.06296955 -0.01991148
-0.044952076 0.052542176 -0.037922125 -0.08515024 -0.033367604 0.06572211 0.028209584 0.006655732
0.071802884 -0.044227034 0.015118074 -0.06406878 -0.032084744 0.0048960857 -0.055264927 0.034354445
-0.035015784 -0.045661323 -0.07280701 -0.0013247823 0.045421097 0.03763849 -0.086822525 0.05880869
-0.0026949237 -0.0030067756 -0.069058396 0.015482039 0.02813609 0.02181593 -0.016906898 -0.059530113
-0.026255332 -0.017876962 -0.072200015 0.060174823 0.020424576 0.0029696461 0.007266134 -0.07410526

resnets.0.conv2.conv2d.bias f4 [32]
00000000: e105 3c3d 2511 d03b 018a e33c 416d 96bd
00000010: fef2 80bd 53af 513d be22 c1bc 9cd3 babd
00000020: 528c fbb9 f633 383d bac3 4a3d c213 123c
00000030: 5fed 36bd 6c8f 57bd 48f8 1b3d 2e34 c6bc
00000040: e04d 213d 53df 65bd 4b45 f93b 8ed0 cdbc
00000050: e7e1 ed3b 32a7 953d 899f a3bd 7e23 41bc
00000060: 626d bdbd c72b ba3d 2cf3 d23c e9cb ba3d
00000070: 5ac4 583a 3640 eabc e966 24bc 6742 13bb
0.045904044 0.0063497 0.027775766 -0.07345057 -0.06296347 0.051192593 -0.023576137 -0.091223925
-0.00047978997 0.04497143 0.049503066 0.008915843 -0.04465997 -0.052627012 0.038078576 -0.024194803
0.039380908 -0.05612118 0.0076071373 -0.02512386 0.0072595957 0.073072806 -0.07989413 -0.011788247
-0.09249379 0.09090381 0.025750719 0.09120924 0.0008269005 -0.028595071 -0.010034301 -0.0022469999

resnets.0.in2.weight f4 [32]
00000000: 9315 5f3f 7f2b 853f 4392 653f 3c67 693f
00000010: 2ffb 553f b913 643f 52e0 533f 298e 593f
00000020: 97b8 663f 3752 443f 7603 6a3f ecee 813f
00000030: f534 663f 645e 763f 2627 723f 02ba 663f
00000040: 27d4 523f f998 4d3f 0d79 683f e5a1 873f
00000050: 6b22 7c3f 0c61 5f3f 9d36 803f 28a4 533f
00000060: 54fa 5b3f af3f 843f 3edb 703f 1656 5a3f
00000070: dbeb 793f 016e 6c3f 910c 813f b91f 6a3f
0.87142295 1.0403899 0.896763 0.9117315 0.835864 0.89092594 0.8276416 0.84982544
0.9012541 0.7668795 0.9141153 1.0151038 0.89924556 0.9623778 0.94590986 0.90127575
0.8235497 0.8031154 0.9080971 1.0596281 0.9849002 0.87257457 1.0016667 0.8267236
0.85928845 1.0331935 0.9408454 0.85287607 0.9762551 0.9235535 1.008196 0.91454655

resnets.0.in2.bias f4 [32]
00000000: bdb1 a83c 5c0b 3b3d ec4a 4c3c 4b72 083c
00000010: 5f5e d23b 1005 5fbc 0f20 b7bb d995 ecbc
00000020: bfb0 743c 2f6a 72bd b132 773d d8da c03c
00000030: cd46 3e3d ffb3 5ebc f379 bcba fe93 88bb
00000040: 85f2 c53d 8729 0a3d bbeb 8a3c f3c0 19bd
00000050: af91 9fba 77e7 8c3d b835 1abd 60db e7bd
00000060: f109 34bd 2ce7 143d 977f 953c 2c0d b33d
00000070: d3e4 a0bc 09f8 86bc 66eb cb3c ed90 37bc
0.020592565 0.04566513 0.012469035 0.008328031 0.0064199413 -0.013612047 -0.0055885385 -0.028880047
0.014934718 -0.059183296 0.060351077 0.023541853 0.04645424 -0.013592719 -0.0014379605 -0.0041680327
0.096653976 0.03373101 0.016958108 -0.037537526 -0.0012174154 0.06880086 -0.037648886 -0.11321139
-0.043954793 0.036353275 0.018249316 0.08742747 -0.019640362 -0.016475694 0.02489252 -0.011203987

resnets.1.conv1.conv2d.weight f4 [32, 32, 3, 3]
00000000: 0878 c03d cb0a ef3b e7ab 8bbc f10a d13c
00000010: 2694 d73d 0af9 3b3d 92f7 283b 462b 413c
00000020: 049a b63c 1360 31bd 3260 5d3c 0b2b 46bc
00000030: 7444 adbd 00e6 58bd 4912 9a3c d732 ef3a
00000040: 79a1 d53b 1b6b 383d a445 8d3d acb0 193d
00000050: 1b45 eebc 49e6 aebb 3413 aaba 0440 7dbd
00000060: 975b 683c ad9a 84bd ae5f 913c 9bc7 883d
00000070: 495a 33bc 6569 ad3c 9c30 2d3d ff1d 373d
00000080: a7eb ce3c 7a34 f3bc df2d aabb 73a2 a53c
00000090: af1b 9b3a 7aac 1f3d d21f a23d 96ba abbd
000000a0: cc95 1a3d e49d 303d 0337 92bc 2723 17bd
000000b0: afc2 69ba 1855 e6bb 2836 6fbc f8af a43a
000000c0: 3d23 43bb 028c be3b b16d 933d c842 903d
000000d0: 2aee 8fbc 01d4 473d 88ef 5fbd 0913 a13d
000000e0: d7af 01bd ee17 ccbb 095e d2bc 34c8 10be
000000f0: 07ad a9bc 0416 14bc 8f2c 7dbd 13c6 843d
00000100: d20c 6bbd 1e02 95bd 802d 293d bf7d 81bb
00000110: 6621 48bd 2a81 f93c cc84 7e3c 52d0 b2bb
00000120: 53a4 bbbc fe48 813d b525 3cbd 78df 1abd
00000130: 0ecc a73d fb69 9b3d 9504 143d eea4 693d
00000140: 0a1b 07bd df24 9abc 8489 7ab9 1d58 ad3d
00000150: b553 13bd d353 5a3c 5a79 46bd 366f b3bc
00000160: 3fcd d6bd 9783 f2bc ad7a 853d 667b 0f3d
00000170: f9cd 80bd 392d 803d d3ba 143d 8392 093d
00000180: 9968 59bd 8e01 3bbb ac8a 30bd 46a8 853d
00000190: 0026 383d d954 96bd 1747 74bc 8ce5 3cbd
000001a0: f8e6 72bc 2bf0 603d 80ec a83d 47f8 463d
000001b0: ea8f 5d3d f82c c7bc 3dea 2cbc 5582 b33d
000001c0: 07fe b0bd 7459 103c 7863 d73c ac9b 1abb
000001d0: 5115 253d 028f 53bd 441c 573c 73d1 943c
000001e0: 9d6a b73c e3e6 853c 4c50 f8bb 1d78 a23d
000001f0: 9781 253d 2874 7c3c 4794 8abd 469f 523d
00000200: 58b2 cf3c 2ba6 4fbd f12e 74bd 0c66 37bb
00000210: aa25 95bd 6221 f0bd 219e ccbd 0121 c4bd
00000220: c7e7 88bd 8799 78bd d712 93bd a6d4 96bc
00000230: 9d9f 3ebc f2fd 4bbd 4e00 1ebc 452a a33d
00000240: 707c 94bc 472b 1a3d 0989 dfbc 9a63 a5bb
00000250: 977c 5d3d 9c9f 2f3d c4d5 663c f5d5 933b
00000260: f419 7b3d d288 4fbd 368f 45bc 93eb 853c
00000270: 2e64 4fbd 0e6d 823c 51b1 443d da0c 9cbd
00000280: 2bb9 bcbc f09b 373d 389a 5f3c 794c cfbc
00000290: cc23 28bd 1b09 9ebd 73b8 d3bd 8d03 8abd
000002a0: 31c3 0dbd 931d b8bd 70c8 ebbb 9bd5 06be
000002b0: fce4 08bc aa97 b23d 5dd6 52bd 6448 823d
000002c0: b2b7 f23c 97b5 e83c c78e 98ba 6015 eebc
000002d0: 5c68 4a3c d0a6 f4bc 4608 3abb f143 debb
000002e0: 5f1e c9bc f368 03bd 7544 2f3c 97c4 a6bc
000002f0: 3073 e9bc 5dc2 b0bd cbbc 5c3d a9b7 2fbd
00000300: 2b5b 03bd fdec 0cbd 6132 9ebd 711c a8bd
00000310: 3946 4a3c 2f43 f1bc 9b54 a6bc 8d05 ebbc
00000320: 63c4 64bb 2bf7 313c 7b20 31bb de3d 1a3d
00000330: 7219 2fba 418e b83c dd5c 1e3d 11b8 1d3e
00000340: 6169 afbc 83e9 6abc 7c3c 113e bb4e 7bbc
00000350: 9af5 79bc 92e5 023d 1771 1c3d 1e76 adbc
00000360: 7511 723d 6dc3 c9bc 090e 47bd 5046 81bd
00000370: 319e f7bc 7118 a2bd 9fa4 b93b 6693 d03b
00000380: a8f9 a6bc 407d 293d 7d7f 093c fdd9 9fbd
00000390: e452 813c b20b 7e3d 48ac 92bd f06e 95bd
000003a0: 2b07 abbd 98c5 84ba 9daf 153d a40b 8a3d
000003b0: b59e 6ebc b183 143d c0a2 933d b4c6 61bd
000003c0: c374 56bb 40f7 393d e643 153c 2b10 f1bc
000003d0: 5333 a73d 32a1 123e 7eb2 89bc 7ded d3bb
000003e0: 2209 e1ba e819 45bd 3e90 d3bc f85f d3bb
000003f0: 7379 413c 4c26 8d3d 0f1e ffbd 09f3 6bbc
0.09397894 0.007294988 -0.017049743 0.025517913 0.10526304 0.0458918 0.002578233 0.011790102
0.022290237 -0.043304514 0.013511704 -0.012095223 -0.08460322 -0.05295372 0.018807547 0.0018249404
0.006519493 0.04502402 0.068980485 0.037522003 -0.029085686 -0.0053375107 -0.0012975694 -0.06182863
0.014181993 -0.064748146 0.017745819 0.06678697 -0.010946819 0.02116842 0.042282686 0.04470634
0.025258852 -0.029688109 -0.0051934565 0.020219063 0.0011833812 0.038982846 0.079162255 -0.08385198
0.037740514 0.043119326 -0.017848497 -0.03689876 -0.0008917255 -0.007029187 -0.014600314 0.001256465
-0.0029775642 0.00581503 0.07198656 0.070439875 -0.01756962 0.048786167 -0.054671794 0.07864959
-0.031661835 -0.0062284386 -0.025679605 -0.14138871 -0.020712389 -0.009038452 -0.061810073 0.06483092
-0.057385273 -0.072757944 0.041303158 -0.0039517577 -0.048859976 0.030457098 0.015534591 -0.0054569626
-0.022905504 0.0631275 -0.045934398 -0.037810773 0.08193217 0.075885735 0.036137182 0.057042055
-0.03298477 -0.01881641 -0.00023893086 0.08464072 -0.0359685 0.013325649 -0.048455574 -0.021903615
-0.10488366 -0.029603763 0.06517539 0.03502979 -0.06289286 0.062586255 0.036310982 0.03358699
-0.053078268 -0.0028534862 -0.043100998 0.06526236 0.044958115 -0.07340402 -0.014909527 -0.04611735
-0.014825575 0.054916542 0.08248234 0.04857662 0.054092325 -0.024313435 -0.010553894 0.08765093
-0.08642202 0.00881039 0.026292548 -0.0023591323 0.040303532 -0.051650055 0.013129298 0.01816628
0.022389704 0.016345447 -0.0075779315 0.07933066 0.04040679 0.015408553 -0.06766563 0.051421426
0.025353596 -0.05069558 -0.05961508 -0.0027984409 -0.072825745 -0.11725117 -0.09991098 -0.095766075
-0.06684833 -0.06069329 -0.07181328 -0.018411946 -0.011634734 -0.049802728 -0.009643627 0.07967047
-0.018125743 0.03763893 -0.027287023 -0.005047274 0.054073896 0.042876825 0.014089052 0.0045115897
0.061304048 -0.05066759 -0.01205807 0.016347682 -0.05063265 0.015921142 0.048020665 -0.07619639
-0.023037514 0.044826448 0.013647608 -0.02530502 -0.041049764 -0.077165805 -0.10337915 -0.067389585
-0.034609977 -0.08990016 -0.007195525 -0.13167422 -0.008355375 0.08720334 -0.051473964 0.06361464
0.029628608 0.028406901 -0.0011639231 -0.029062927 0.012353983 -0.029864699 -0.002838628 -0.0067830016
-0.024550615 -0.03208251 0.010697474 -0.020357413 -0.028497308 -0.08630822 0.053890985 -0.04289976
-0.032069366 -0.034405697 -0.07724453 -0.0820855 0.012345844 -0.029450981 -0.020304015 -0.02868917
-0.0034907095 0.010862152 -0.0027027417 0.037656657 -0.0006679512 0.02252877 0.03866278 0.15402247
-0.021412553 -0.0143379 0.14183229 -0.015338595 -0.01525631 0.031957217 0.03819379 -0.021174487
0.05909868 -0.02462932 -0.04859737 -0.06312239 -0.030226799 -0.07914818 0.0056653763 0.0063652275
-0.020382717 0.041379213 0.008392212 -0.0780525 0.015786596 0.062022872 -0.07161766 -0.0729655
-0.083509766 -0.0010129688 0.03654443 0.067405015 -0.014564206 0.036258403 0.072087765 -0.05512114
-0.0032723404 0.04540181 0.0091104265 -0.029426655 0.08164086 0.14319304 -0.016808745 -0.00646752
-0.001716886 -0.04812041 -0.025825616 -0.0064506494 0.011808741 0.0689207 -0.12456905 -0.014401206

resnets.1.conv1.conv2d.bias f4 [32]
00000000: f8f6 a7bd 3aeb afbd 1c70 2abc cf71 ba3a
00000010: 58e4 373b b604 68bc 4c84 303d fbe8 1d3d
00000020: f38b f0bc 09ed a13d 570f e53d 4ebd ee3c
00000030: 9931 94ba 9ecc abbc 85c3 eebd b45e 9d3d
00000040: 8106 40bc 7b17 6cbd 5a9e aab9 0505 a3bc
00000050: cd78 e9bb ffe6 cebc 84d5 3a3d ba12 4dbd
00000060: bb4a 9b3d fb79 963c e9e3 4a3c fc36 a5bd
00000070: be96 733d f09f 8cbd a8d4 403d 9b41 ccbd
-0.082014024 -0.08589788 -0.0104027055 0.0014224591 0.0028059687 -0.014161279 0.043094918 0.038552266
-0.029363608 0.07906539 0.111845665 0.029143002 -0.0011306285 -0.020971593 -0.11658386 0.07684079
-0.011720301 -0.05763958 -0.00032542908 -0.019899854 -0.0071249963 -0.025256632 0.04561378 -0.050066687
0.07582613 0.018368712 0.01238344 -0.08067128 0.05946993 -0.06866443 0.047077805 -0.09973451

resnets.1.in1.weight f4 [32]
00000000: e282 813f af98 7d3f 752e 703f 2a17 723f
00000010: 69cd 833f 1b82 873f 804e 603f 645f 833f
00000020: 41d2 733f d144 723f eae8 833f c675 6b3f
00000030: ae8d 823f 2b09 6b3f dd74 7f3f 648a 5b3f
00000040: c368 713f e291 803f 239f 7b3f b19d 783f
00000050: 2872 753f 7170 773f bc12 7a3f dcd8 613f
00000060: 07c7 813f 6a27 873f 5b88 833f 93bf 803f
00000070: 45b5 973f 2924 6d3f 42b7 773f 3f3e 7b3f
1.0118067 0.990611 0.9382089 0.94566596 1.0297061 1.058658 0.8761978 1.0263486
0.95242697 0.94636256 1.0305455 0.91976583 1.0199487 0.91810864 0.99787694 0.8575804
0.9430048 1.004452 0.982897 0.9711562 0.95877314 0.96655947 0.97684836 0.88221526
1.0138863 1.0558903 1.0275987 1.0058464 1.1852194 0.926333 0.96764004 0.98141855

resnets.1.in1.bias f4 [32]
00000000: d6a5 18be ecab 10be 74f2 8cbd d546 c73a
00000010: 5842 00be 087a 5bbe 6e70 d8bd 955f 04bd
00000020: fd29 76bd a67a c3bd 40da 84be 498f b5bd
00000030: e6c2 edbd d39e 42be b5ce 3bbe 5ad8 2cbe
00000040: 60b8 2b3d 4448 9cbd 9ab1 57bd 2729 62bd
00000050: 683c f0bd 0abd 08be d7ab b2bd a359 3fbe
00000060: 82f7 5fbd 6d89 f6bd b420 e1bd 21ab 1cbe
00000070: 3a3d 7fbe 4ddc b6bd 3ed7 09be 3156 39be
-0.14907011 -0.14128083 -0.06882182 0.0015203605 -0.12525308 -0.2143327 -0.10568319 -0.032317717
-0.060098637 -0.09544878 -0.25947762 -0.0886522 -0.116094396 -0.19005899 -0.18340571 -0.16879407
0.04192388 -0.07630971 -0.05265961 -0.055215027 -0.117302716 -0.13353363 -0.08724182 -0.18686537
-0.0546794 -0.12037931 -0.10992566 -0.15299655 -0.249257 -0.08928738 -0.13461015 -0.18099286
