Assets/Style_Transfer/Models/mas estilo/cara10_512.onnx (onnx, 449372 bytes, 62 tensors)

conv1.conv2d.weight f4 [8, 3, 9, 9]
0.0077445875 0.05689676 -0.092171274 0.05923146 -0.015094305 0.0009853165 0.11242941 0.16218828
-0.025925277 -0.034710914 0.06539856 0.08542235 0.010117888 0.03165132 -0.09948398 -0.13500787
-0.035164062 0.073453106 -0.021183154 -0.049980264 -0.038271252 -0.016300753 -0.013030334 0.05050508
-0.06926222 0.06903834 0.049231257 0.11526623 0.021702394 -0.101069264 -0.06399043 0.033524103
-0.03606778 -0.08392348 0.03477651 -0.021491876 0.054516975 0.044046488 0.013524718 -0.06540709
-0.098824635 -0.047785457 -0.04337634 0.12003901 -0.019812206 -0.029789375 -0.04303305 0.07485307
-0.0070692054 -0.028338755 0.036887076 0.044696722 0.1537736 0.06583376 -0.019138863 -0.08991888
0.0527084 -0.07157362 0.027626114 0.03278547 -0.06885216 0.012927017 -0.06456447 0.017987993
-0.005516103 -0.021921625 -0.13880518 -0.0009856914 0.04816173 0.04343972 0.10354558 -0.0049476204
0.03718596 -0.0047299005 0.034863956 0.055114802 -0.04971897 0.020236038 -0.050342076 0.058655746
-0.023836158 0.097635575 0.00030589543 -0.13453415 -0.041052002 -0.051823866 -0.12563233 0.040854868
0.06132661 0.052454043 0.018297737 -0.015377033 -0.06395363 0.024078634 -0.054199893 -0.14448097
-0.2772189 -0.09086995 0.008989403 -0.034797795 -0.15276408 -0.13617155 -0.027539352 0.07203962
0.05365528 -0.07253576 -0.041091293 -0.0050919508 0.033216827 -0.05228317 -0.2076847 -0.088764064
0.18433546 -0.003880997 -0.045942277 0.041697852 -0.023840876 -0.10505289 0.15214086 0.19010016
0.041744184 0.059978906 0.057412367 -0.10074642 -0.028846031 -0.031371336 -0.016638322 0.028195625
0.31569862 0.042137142 0.047424108 0.086964905 -0.07180228 0.029624823 -0.030687781 0.082823046
0.105922006 0.24269514 0.010825123 0.09766862 0.0112325745 -0.082722254 -0.03053518 -0.03688718
0.0037851774 0.040095113 0.16722187 0.03510185 0.021781486 0.09067996 0.019737802 -0.0036302458
0.0058741434 -0.099177904 0.037051924 -0.0042805453 -0.047575925 -0.057720784 -0.085702375 -0.08759717
-0.038610253 -0.033265628 -0.020900663 0.05374388 -0.09891615 -0.02103268 0.056598786 -0.0075525977
0.048774786 0.04138071 -0.07149974 0.02431667 0.014276705 0.0442975 0.18332908 0.07663501
-0.012944903 -0.080851406 -0.029271748 -0.051571283 0.038431004 -0.058526035 0.074990526 0.22199504
0.336003 0.2816606 0.07429048 -0.02935642 -0.101904206 -0.016535547 -0.06873866 -0.16215335
0.03406956 0.33528987 0.1981916 0.059280153 0.048205495 -0.08645266 -0.10312256 0.0025042333
-0.029807603 -0.02617681 0.04387789 0.106025316 0.032169808 -0.016182702 -0.072226 -0.030976612
-0.17217828 0.032828562 -0.176306 -0.12735954 0.0033973267 -0.05009627 0.0085153505 -0.006875163
0.0653851 -0.17325121 -0.05380664 -0.14718935 -0.060813695 -0.062477805 -0.12723929 0.03427305
-0.06520293 -0.04167982 -0.11789852 -0.083780184 -0.16802298 -0.029357616 0.027783863 0.13721687
0.06379748 0.031730603 -0.0075911344 0.05727561 0.039803624 0.024270559 0.08869837 0.02622609
0.033034384 0.037493456 -0.016546149 -0.050086986 -0.007656265 0.026126873 0.0073002223 0.0067834333
0.052089028 0.054730713 -0.06072595 0.04356573 0.044244654 0.039134372 -0.068829246 -0.030094963
00000000: 4fc6 fd3b 940c 693d 4bc4 bcbd b09c 723d
00000010: 1b4e 77bc bc25 813a 6441 e63d af14 263e
00000020: 3f61 d4bc 082d 0ebd aeef 853d eaf1 ae3d
00000030: 80c5 253c d1a4 013d 42be cbbd 813f 0abe
00000040: 3108 10bd 956e 963d 4b88 adbc 1bb8 4cbd
00000050: 51c2 1cbd 2889 85bc 2f7d 55bc 6ade 4e3d
00000060: 5ad9 8dbd f963 8d3d b7a6 493d b410 ec3d
00000070: 38c9 b13c 67fd cebd 6a0d 83bd 9250 093d
00000080: cfbb 13bd 13e0 abbd d071 0e3d bb0f b0bc
00000090: 314d 5f3d 176a 343d c796 5d3c 27f4 85bd
000000a0: 9264 cabd afba 43bd 64ab 31bd 03d7 f53d
000000b0: 354d a2bc d908 f4bc 6c43 30bd 914c 993d
000000c0: cba4 e7bb ad26 e8bc e716 173d e913 373d
000000d0: d476 1d3e dad3 863d 1bc9 9cbc 6427 b8bd
000000e0: c3e4 573d 3195 92bd 2950 e23c 0f4a 063d
000000f0: 5c02 8dbd d7cb 533c 603a 84bd 8e5b 933c
00000100: 6dc0 b4bb fb94 b3bc f222 0ebe 5132 81ba
00000110: 3c45 453d d9ed 313d b40f d43d a61f a2bb
00000120: 4e50 183d 48fd 9abb 82cd 0e3d 0fc0 613d
00000130: 1ea6 4bbd 0cc6 a53c 7e33 4ebd 0241 703d
00000140: 0c44 c3bc 29f5 c73d 9760 a039 52c3 09be
00000150: 2526 28bd 4345 54bd c3a5 00be 6f57 273d
00000160: 9d31 7b3d 0dda 563d 23e5 953c f3ef 7bbc
00000170: 1ffa 82bd 8e40 c53c b500 5ebd d2f2 13be
00000180: a3ef 8dbe 061a babd 4a48 133c 2288 0ebd
00000190: 306e 1cbe 8e70 0bbe 359a e1bc 8289 933d
000001a0: a4c5 5b3d a18d 94bd 584f 28bd 61da a6bb
000001b0: 5e0e 083d e126 56bd 4cab 54be efc9 b5bd
000001c0: 6fc2 3c3e 5358 7ebb f82d 3cbd 5ecb 2a3d
000001d0: f14d c3bc f825 d7bd d0ca 1b3e 9ea9 423e
000001e0: f3fb 2a3d 71ac 753d 3b29 6b3d 2454 cebd
000001f0: 834e ecbc 3b7f 00bd 174d 88bc 83fa e63c
00000200: 40a3 a13e ff97 2c3d c83f 423d a81a b23d
00000210: 130d 93bd c2af f23c f164 fbbc 219f a93d
00000220: a3ed d83d 1385 783e db5b 313c 7c06 c83d
00000230: d508 383c 496a a9bd ea24 fabc 0317 17bd
00000240: bd10 783b c63a 243d 363c 2b3e f5c6 0f3d
00000250: 166f b23c 6ab6 b93d 2cb1 a13c 6be9 6dbb
00000260: e37b c03b c91d cbbd c2c3 173d d143 8cbb
00000270: f9de 42bd a16c 6cbd ba84 afbd 2566 b3bd
00000280: c925 1ebd 8a41 08bd de37 abbc 8b22 5c3d
00000290: 8d94 cabd ba4c acbc 21d4 673d c87b f7bb
000002a0: 12c8 473d d27e 293d 756e 92bd c133 c73c
000002b0: d7e8 693c 4c71 353d 9eba 3b3e d1f2 9c3d
000002c0: dc16 54bc 6c95 a5bd 4ecb efbc 693c 53bd
000002d0: d469 1d3d ffb8 6fbd a294 993d ab52 633e
000002e0: 9608 ac3e d135 903e 9b25 983d e07c f0bc
000002f0: 27b3 d0bd 8e75 87bc dbc6 8cbd 870b 26be
00000300: 868c 0b3d 1dab ab3e bdf2 4a3e bfcf 723d
00000310: 2073 453d 180e b1bd ec31 d3bd 101e 243b
00000320: 132f f4bc c070 d6bc 4db9 333d cd23 d93d
00000330: 7dc4 033d 9691 84bc 3aeb 93bd aac2 fdbc
00000340: 814f 30be 3e77 063d 8f89 34be 8a6a 02be
00000350: afa5 5e3b bf31 4dbd f883 0b3c 0c49 e1bb
00000360: a0e8 853d c468 31be 5a64 5cbd ceb8 16be
00000370: c817 79bd bae8 7fbd 044b 02be e661 0c3d
00000380: 1d89 85bd 75b8 2abd c774 f1bd f294 abbd
00000390: 370e 2cbe 627f f0bc fc9a e33c 9482 0c3e
000003a0: 41a8 823d f3f7 013d 0dbf f8bb d499 6a3d
000003b0: 2009 233d 0dd3 c63c 7ea7 b53d 19d8 d63c
000003c0: 104f 073d bd92 193d ca8b 87bc 0328 4dbd
000003d0: 68e1 fabb 0608 d63c b436 ef3b 9047 de3b
000003e0: 4e5b 553d 502d 603d c6bb 78bd fb71 323d
000003f0: e239 353d 5d4b 203d 59f6 8cbd b689 f6bc

conv1.conv2d.bias f4 [8]
0.054133162 -0.1032874 0.06715513 0.06605813 0.08551821 0.03726685 0.102086514 -0.08924647
00000000: bcba 5d3d 5888 d3bd a188 893d 7c49 873d
00000010: 2c24 af3d 20a5 183d bc12 d13d dac6 b6bd

in1.weight f4 [8]
0.7767622 1.0990143 0.7457306 1.2370776 0.70174503 0.7188742 0.5690822 0.91488594
00000000: e3d9 463f 80ac 8c3f 33e8 3e3f 8f58 9e3f
00000010: 90a5 333f 2408 383f 5faf 113f f735 6a3f

in1.bias f4 [8]
1.4917942 1.1327798 1.3801985 0.69380784 1.1332935 1.6645305 1.4060228 1.7841526
00000000: 1df3 be3f eefe 903f 58aa b03f 649d 313f
00000010: c30f 913f 560f d53f 8ef8 b33f 1d5f e43f

conv2.conv2d.weight f4 [16, 8, 3, 3]
0.12455982 0.01196697 -0.027449189 0.1345855 0.0010293263 -0.011201788 0.013734419 0.14736316
0.015935972 0.10774549 -0.031193677 0.043228783 0.10914506 -0.07960198 -0.17691514 -0.2686707
-0.12509845 -0.15759274 0.12922007 0.050065447 0.028456498 0.053196464 -0.02797123 -0.039913896
0.11473384 -0.011195682 0.031029055 -0.13259526 -0.035338808 0.0351177 -0.20987579 -0.019092994
0.0737008 -0.13924329 0.15215223 0.0011966109 -0.12299702 0.016157942 -0.06260174 -0.16290343
-0.08482788 0.11961825 0.07626276 0.09335259 0.18753429 0.26610294 -0.10566893 -0.19940883
0.016612822 0.0062328386 -0.16635527 -0.040020853 0.0043111816 0.107152745 -0.12787265 0.06133773
0.19421892 0.06782709 0.10859492 0.27613518 0.045953237 0.09875784 0.12369313 0.14913374
-0.20012057 -0.09403179 -0.05311366 -0.116326 -0.04381007 0.013183316 0.08136335 0.08613935
-0.035369728 -0.040428624 0.011600484 -0.12009881 -0.048541754 0.12655286 -0.01813346 0.13241367
-0.0051640337 -0.0695571 0.098834366 -0.037104644 0.080423355 0.089045465 -0.047416933 0.051913362
-0.05784219 0.049220245 0.07755568 -0.22894152 0.0667233 -0.057878915 0.011818696 0.12416287
-0.052694492 0.15689182 -0.0835136 0.009412571 0.00520791 0.041570093 0.04101329 -0.079216905
-0.05431827 0.03992871 -0.051820442 0.076279774 0.12846985 -0.15045825 0.036527105 -0.025904043
-0.08358611 0.073940314 -0.058175866 0.0073594665 0.0928134 -0.1099904 0.07506468 -0.021097139
-0.17785452 0.20191783 0.05666478 0.08795492 0.09798872 -0.25055522 0.037292715 -0.004662101
0.02065064 0.036917605 -0.109409384 -0.007559395 -0.09355464 0.025869828 0.105230995 -0.22495829
0.24091089 0.041751202 0.14120013 0.38827157 -0.39169785 0.23007962 -0.19672376 -0.1723278
-0.14826767 -0.17697133 -0.16268255 -0.080235556 -0.18259107 -0.1416333 -0.09342474 -0.16129543
-0.0948661 0.013487112 0.027344694 0.05343381 0.07671606 0.035487235 -0.0406513 -0.06305386
0.0027899207 0.085470475 -0.15977919 -0.03713798 0.098405644 0.012881869 0.04457285 0.1257189
-0.048294157 0.02318899 -0.028114777 -0.096740246 -0.032167505 0.11038208 0.028367355 0.005646505
0.23950252 0.06649489 -0.0046681887 0.11679591 -0.059633266 0.17418617 -0.16600738 0.0555534
-0.11135426 -0.27797264 -0.09125793 -0.34538296 -0.18653113 0.069279216 -0.055025853 -0.06242858
0.05967229 0.08865457 0.08765926 0.13768037 0.21236834 0.054353107 -0.10321309 -0.10872845
-0.17304203 -0.19050094 -0.13463387 -0.08976173 -0.080210306 -0.20602699 -0.20633146 0.100440584
0.07673793 0.12748957 0.26641983 0.012771234 0.00958949 0.08300486 0.11614589 -0.013158834
-0.107161336 0.086566284 0.1446949 -0.12821005 -0.21156682 0.060216542 -0.18437943 -0.14941043
-0.11504607 0.23218772 0.1555982 -0.082762465 -0.07488947 -0.11125332 -0.10722404 -0.16641033
-0.34730592 -0.023136938 0.0021349306 -0.13942477 -0.039521232 -0.2341004 -0.07015427 0.04575634
-0.20476373 -0.05241716 0.041330535 0.05085406 -0.3226928 -0.16002889 -0.004719245 -0.104992054
0.07358157 0.05253522 0.20181896 0.11625419 0.019790506 0.03547538 -0.024385696 -0.088769466
00000000: 3819 ff3d 1c11 443c 1fdd e0bc c8d0 093e
00000010: 76ea 863a b487 37bc 5406 613c 5ee6 163e
00000020: 288c 823c aba9 dc3d e289 ffbc aa10 313d
00000030: 7287 df3d 5d06 a3bd 3e29 35be 358f 89be
00000040: cf19 00be fe5f 21be 4452 043e 6d11 4d3d
00000050: 9a1d e93c 89e4 593d ec23 e5bc c17c 23bd
00000060: 93f9 ea3d 186e 37bc a530 fe3c 0dc7 07be
00000070: 6dbf 10bd 94d7 0f3d aee9 56be e968 9cbc
00000080: 72f0 963d cb95 0ebe cbcd 1b3e 99d7 9c3a
00000090: dde5 fbbd a95d 843c 5735 80bd 28d0 26be
000000a0: 3dba adbd 6afa f43d a62f 9c3d a52f bf3d
000000b0: fd08 403e a53e 883e f468 d8bd d431 4cbe
000000c0: 9d17 883c d73c cc3b 0959 2abe e8ec 23bd
000000d0: d044 8d3b e672 db3d 0cf1 02be 463d 7b3d
000000e0: 53e1 463e eee8 8a3d 0367 de3d 9761 8d3e
000000f0: 7639 3c3d 8d41 ca3d d352 fd3d 84b6 183e
00000100: 68ec 4cbe bd93 c0bd b68d 59bd 533c eebd
00000110: 3072 33bd d6fe 573c d4a1 a63d d469 b03d
00000120: d9df 10bd 7c98 25bd f50f 3e3c 5df6 f5bd
00000130: b8d3 46bd 1397 013e 9f8c 94bc 7397 073e
00000140: 0e37 a9bb f473 8ebd ac69 ca3d 0afb 17bd
00000150: 00b5 a43d 785d b63d 4238 42bd 1ba3 543d
00000160: efeb 6cbd 2b9b 493d 83d5 9e3d a56f 6abe
00000170: 3aa6 883d 7112 6dbd 34a3 413c 1a49 fe3d
00000180: 2ed6 57bd 40a8 203e 2e09 abbd 2f37 1a3c
00000190: 1ea7 aa3b 6745 2a3d 8dfd 273d 793c a2bd
000001a0: d67c 5ebd 498c 233d ac41 54bd 9238 9c3d
000001b0: 9a8d 033e ba11 1abe 729d 153d b734 d4bc
000001c0: 322f abbd 056e 973d d149 6ebd ae27 f13b
000001d0: f414 be3d a642 e1bd 83bb 993d e8d3 acbc
000001e0: 7f1f 36be 8cc3 4e3e 5419 683d b621 b43d
000001f0: 4fae c83d c648 80be 3fc0 183d 8ac4 98bb
00000200: 882b a93c ea36 173d 0712 e0bd cdb4 f7bb
00000210: 9399 bfbd f6ec d33c 5983 d73d 775b 66be
00000220: 58b1 763e 4f03 2b3d c496 103e 88cb c63e
00000230: 9f8c c8be fe99 6b3e f471 49be b376 30be
00000240: 7bd3 17be f937 35be 4196 26be 8a52 a4bd
00000250: 27f9 3abe 5208 11be 7855 bfbd a12a 25be
00000260: 2849 c2bd 0cf9 5c3c fb01 e03c 69dd 5a3d
00000270: 4f1d 9d3d 105b 113d fa81 26bd 6222 81bd
00000280: 1ad7 363b 250b af3d 289d 23be ff1d 18bd
00000290: e688 c93d 7a0e 533c 0592 363d 75bc 003e
000002a0: 18d0 45bd d6f6 bd3c f650 e6bc c01f c6bd
000002b0: 13c2 03bd 0010 e23d a862 e83c 5106 b93b
000002c0: 2640 753e 792e 883d 9bf7 98bb b232 ef3d
000002d0: 0342 74bd dc5d 323e d7fd 29be f68b 633d
000002e0: b40d e4bd 6e52 8ebe 70e5 babd 09d6 b0be
000002f0: 0402 3fbe 43e2 8d3d ca62 61bd 1cb5 7fbd
00000300: ee6a 743d 8790 b53d b386 b33d 15fc 0c3e
00000310: 1677 593e 5da1 5e3d 6261 d3bd 06ad debd
00000320: ee31 31be ae12 43be 76dd 09be ffd4 b7bd
00000330: 4d45 a4bd bdf8 52be 8e48 53be cbb3 cd3d
00000340: c728 9d3d a08c 023e 2e68 883e 703e 513c
00000350: 3c1d 1d3c 74fe a93d e5dd ed3d 2698 57bc
00000360: 6777 dbbd aa49 b13d e62a 143e 7f49 03be
00000370: f9a4 58be 9fa5 763d f6cd 3cbe 0cff 18be
00000380: 469d ebbd 9ec2 6d3e 2255 1f3e 5e7f a9bd
00000390: a75f 99bd c8d8 e3bd 4798 dbbd 7867 2abe
000003a0: 15d2 b1be ad89 bdbc 31ea 0b3b 5ec5 0ebe
000003b0: 04e1 21bd 04b8 6fbe 0bad 8fbd 006b 3b3d
000003c0: 95ad 51be 60b3 56bd 354a 293d 594c 503d
000003d0: fe37 a5be 9dde 23be e5a3 9abb 1306 d7bd
000003e0: efb1 963d 2c2f 573d a1a9 4e3e ad16 ee3d
000003f0: b31f a23c a24e 113d 83c4 c7bc c4cc b5bd

conv2.conv2d.bias f4 [16]
0.078064464 0.11167451 0.13466275 -0.07717089 -0.24688178 -0.2102446 -0.11434537 0.12445247
0.21695492 -0.10090792 0.08753555 -0.24119309 0.14023532 -0.001557786 0.075671844 -0.339879
00000000: 43e0 9f3d 9bb5 e43d 08e5 093e c60b 9ebd
00000010: 94ce 7cbe 5c4a 57be e82d eabd f0e0 fe3d
00000020: 6e29 5e3e d0a8 cebd d745 b33d 52fb 76be
00000030: d999 0f3e a02e ccba d7f9 9a3d 9f04 aebe

in2.weight f4 [16]
0.49969125 0.6538919 0.5936144 0.28569704 0.6094308 0.6076322 0.5232622 0.538501
0.63125384 0.6368168 0.7396115 0.55398947 0.45061752 0.508569 0.67176896 0.5750389
00000000: 88d7 ff3e 7665 273f 1df7 173f e246 923e
00000010: a803 1c3f c98d 1b3f 83f4 053f 34db 093f
00000020: da99 213f 6d06 233f 2e57 3d3f 41d2 0d3f
00000030: 57b7 e63e 9431 023f 0df9 2b3f c035 133f

in2.bias f4 [16]
0.21271072 0.098541215 -0.23431315 0.64566296 0.4765528 0.44293988 -0.16528727 -0.3438858
0.47320902 0.13756081 0.33495978 -0.2106241 0.06847378 0.30334434 0.24715526 0.4748205
00000000: d7d0 593e facf c93d c9ef 6fbe 2b4a 253f
00000010: bbfe f33e 04c9 e23e 1141 29be cd11 b0be
00000020: 7448 f23e bedc 0c3e d97f ab3e d8ad 57be
00000030: fb3b 8c3d f34f 9b3e 4516 7d3e ac1b f33e

conv3.conv2d.weight f4 [32, 16, 3, 3]
-0.003185372 0.15335494 -0.055951074 0.044388436 0.056346536 0.08353665 0.06281508 -0.036872678
-0.073273696 0.03181162 0.08151136 -0.008748058 0.048737895 0.034104116 0.048347585 0.023787843
-0.007211941 0.04182137 0.09513355 -0.038197152 -0.021011904 -0.062368013 -0.03127946 -0.10538303
-0.1717181 -0.17194887 -0.4132084 0.04345752 0.20012403 0.12631929 0.07131405 0.09884201
0.06622573 0.021466473 -0.10224952 0.058923844 0.064847454 0.14926453 0.09375087 -0.06597387
0.22182155 -0.03663574 -0.011095362 0.15690874 -0.018697333 0.0520234 0.003348776 0.14471953
0.085140266 -0.21310301 0.14886053 0.067367755 0.0054209223 0.02026171 0.079922386 0.080553524
-0.053205702 0.06857337 -0.043284375 0.009436527 8.360687e-05 0.016878089 0.15523255 0.071312875
0.074870914 0.050858818 0.038877018 0.13553303 0.009154666 0.02874635 0.007338263 -0.14510052
0.027204879 0.0044794627 -0.1607888 0.049943704 -0.37794447 -0.17379619 0.05346236 -0.1670928
0.026644276 0.10265933 -0.13497503 0.095513344 0.11259193 -0.118980356 -0.14451888 0.03393229
-0.010542117 -0.014832449 0.14896186 -0.013435254 -0.04158269 0.09460467 0.06161284 -0.19416769
0.004585636 0.045567438 -0.08642652 0.016671674 -0.020465981 -0.079949684 0.008363299 -0.055398393
-0.11685176 -0.012466899 -0.11581972 -0.023902677 0.0649766 0.1615477 -0.011725321 0.061498452
0.06187833 0.01173409 0.08072441 -0.082739264 -0.0566501 0.040748965 0.13649619 -0.107450746
0.06601486 0.085447684 -0.16969132 0.0836203 0.0023861655 -0.035598982 0.101462685 0.12738387
-0.069319636 0.16722932 -0.061449014 0.07725516 -0.03318985 -0.12873437 -0.018556112 0.09799186
-0.0735764 -0.039629456 0.041885186 -0.32346237 -0.052558478 0.009037005 -0.06188238 0.0045186975
0.12973192 0.024611723 0.00365143 0.13711706 0.0743941 0.019570412 0.08143118 0.054893002
0.036816303 -0.060234956 -0.07489756 -0.015440997 -0.01297685 -0.2113644 -0.028222041 0.012137921
-0.14135946 -0.044914123 -0.057306122 -0.024680173 0.025898786 -0.09164718 -0.0905716 0.012528835
-0.06787955 -0.0170859 -0.0259392 -0.036999512 0.063228 0.013779344 -0.12729925 0.08762342
0.08954934 -0.011583821 0.06987707 0.34006327 0.02357939 -0.039569512 0.10761817 0.084216885
0.21140854 0.060845613 0.084683076 0.18219231 0.12943138 -0.18352242 0.025705203 -0.09610453
-0.27724585 -0.14375222 -0.09055409 -0.3511617 -0.1941802 -0.0060196896 -0.13219477 -0.09100738
-0.033141855 -0.16062999 -0.02260435 0.031614535 -0.18241414 -0.14169371 0.121706 -0.021737311
0.0024746628 0.06336684 0.051196676 -0.051771924 -0.11996712 -0.022391746 -0.008217116 -0.09178934
-0.04070941 0.041889112 -0.10421421 0.07105348 -0.25955346 -0.074494794 0.07503223 -0.094746314
-0.09077784 -0.03761928 -0.021385862 -0.056115415 -0.043572918 -0.35175264 -0.09725915 -0.08982887
-0.33504128 -0.008766003 0.057757933 -0.11628209 0.06313665 -0.017103037 -0.14919485 -0.25218943
0.17773873 0.015924318 -0.05198798 -0.09558064 0.075624995 0.032688547 0.057961088 -0.0021812788
-0.03596874 -0.05402127 0.0064560263 -0.13461679 -0.0904342 0.03299245 -0.15283147 0.065020025
00000000: adc1 50bb 1409 1d3e f42c 65bd a6d0 353d
00000010: a0cb 663d 4315 ab3d 31a5 803d ce07 17bd
00000020: 8510 96bd e74c 023d 6eef a63d 0454 0fbc
00000030: 63a1 473d c2b0 0b3d 1e08 463d b9de c23c
00000040: 2552 ecbb e34c 2b3d 61d5 c23d 9e74 1cbd
00000050: 2821 acbc 9a75 7fbd e41e 00bd 0fd3 d7bd
00000060: dfd6 2fbe 5d13 30be 0d90 d3be 8300 323d
00000070: 50ed 4c3e d859 013e 1a0d 923d ae6d ca3d
00000080: 5ba1 873d 75da af3c 3268 d1bd 215a 713d
00000090: bece 843d cdd8 183e 7500 c03d 4f1d 87bd
000000a0: 3025 633e 5c0f 16bd 52c9 35bc afac 203e
000000b0: 262b 99bc 7d16 553d 2377 5b3b 5b31 143e
000000c0: 055e ae3d ad37 5abe e56e 183e 1bf8 893d
000000d0: fea1 b13b e3fb a53c 59ae a33d 3ff9 a43d
000000e0: 39ee 59bd 3270 8c3d f54a 31bd aa9b 1a3c
000000f0: 1956 af38 eb43 8a3c 48f5 1e3e 7c0c 923d
00000100: ec55 993d 5651 503d 823d 1f3d 2cc9 0a3e
00000110: 74fd 153c 777d eb3c d075 f03b 3b95 14be
00000120: c4dc de3c 75c8 923b d2a5 24be c591 4c3d
00000130: f081 c1be a1f7 31be 59fb 5a3d 601a 2bbe
00000140: 1945 da3c 0e3f d23d e536 0abe 809c c33d
00000150: 9996 e63d f9ab f3bd c2fc 13be 96fc 0a3d
00000160: d8b8 2cbc cd03 73bc 7589 183e 8a1f 5cbc
00000170: 9c52 2abd 18c0 c13d bf5d 7c3d e5d3 46be
00000180: 1a43 963b eca4 3a3d 6300 b1bd 0993 883c
00000190: 46a8 a7bc a9bc a3bd 3806 093c 6de9 62bd
000001a0: fa4f efbd f741 4cbc e432 edbd 8ccf c3bc
000001b0: 7412 853d c36c 253e 901b 40bc cde5 7b3d
000001c0: 2274 7d3d 5740 403c d752 a53d 3473 a9bd
000001d0: ef09 68bd 63e8 263d a8c5 0b3e 230f dcbd
000001e0: cd32 873d 32ff ae3d 90c3 2dbe 1f41 ab3d
000001f0: 3761 1c3b 3dd0 11bd abcb cf3d eb70 023e
00000200: 74f7 8dbd 2a3e 2b3e f6b1 7bbd f437 9e3d
00000210: 15f2 07bd f1d2 03be fd02 98bc f5af c83d
00000220: 39af 96bd 7f52 22bd cd8f 2b3d dc9c a5be
00000230: 8f47 57bd f20f 143c 6178 7dbd 9511 943b
00000240: 72d8 043e 869e c93c d44c 6f3b 6a68 0c3e
00000250: ef5b 983d 2152 a03c 64c5 a63d 7cd7 603d
00000260: b1cc 163d eeb8 76bd e463 99bd 3cfc 7cbc
00000270: db9c 54bc e96f 58be e931 e7bc 21de 463c
00000280: 89c0 10be dff7 37bd d3b9 6abd 132e cabc
00000290: b129 d43c 84b1 bbbd 9a7d b9bd be45 4d3c
000002a0: 6f04 8bbd bbf7 8bbc 727e d4bc cd8c 17bd
000002b0: af7d 813d c2c2 613c bc5a 02be e873 b33d
000002c0: a565 b73d 11ca 3dbc b61b 8f3d c61c ae3e
000002d0: 9129 c13c a413 22bd ea66 dc3d e779 ac3d
000002e0: 7b7b 583e 4039 793d 526e ad3d 9f90 3a3e
000002f0: a989 043e 4ded 3bbe b893 d23c 74d2 c4bd
00000300: 2bf3 8dbe c833 13be 6c74 b9bd 77cb b3be
00000310: 2dd7 46be d140 c5bb 115e 07be 1462 babd
00000320: c1bf 07bd 307c 24be c22c b9bc 3e7e 013d
00000330: c6ca 3abe 2818 11be ff40 f93d 7212 b2bc
00000340: f42d 223b 79c6 813d 9bb3 513d cc0e 54bd
00000350: 52b1 f5bd e56e b7bc 15a1 06bc 0dfc bbbd
00000360: e9be 26bd eb93 2b3d 426e d5bd 7d84 913d
00000370: 31e4 84be ba90 98bd 7faa 993d 5b0a c2bd
00000380: bbe9 b9bd ad16 1abd 6731 afbc 47d9 65bd
00000390: 8479 32bd ec18 b4be ce2f c7bd 33f8 b7bd
000003a0: 888a abbe 489f 0fbc 9593 6c3d 4e25 eebd
000003b0: ca4d 813d ab1b 8cbc 89c6 18be f91e 81be
000003c0: 2401 363e b773 823c 59f1 54bd c8bf c3bd
000003d0: 47e1 9a3d 6de4 053d 9b68 6d3d c9f3 0ebb
000003e0: f553 13bd 6845 5dbd 138d d33b fcd8 09be
000003f0: 9135 b9bd 1723 073d da7f 1cbe 3829 853d

conv3.conv2d.bias f4 [32]
-0.011013538 -0.16142215 0.20167102 0.07673126 0.084952526 -0.11354341 0.023793172 -0.040832806
0.089021385 0.07806332 -0.051122252 -0.050392214 -0.077947065 -0.06073429 0.04847905 0.18705355
-0.16237709 -0.06883835 0.092899986 -0.06763832 0.095291264 0.12099225 0.06113455 -0.11038323
-0.22986437 0.027074987 -0.07584401 -0.18183059 0.06016436 0.11087701 0.001969971 0.07165936
00000000: 2072 34bc d94b 25be d982 4e3e 4725 9d3d
00000010: 97fb ad3d 7389 e8bd e6e9 c23c 4d40 27bd
00000020: d850 b63d a9df 9f3d 9165 51bd 1168 4ebd
00000030: b6a2 9fbd 85c4 78bd f891 463d f78a 3f3e
00000040: 2e46 26be 1ffb 8cbd 5942 be3d f685 8abd
00000050: 1128 c33d c9ca f73d 3968 7a3d 9a10 e2bd
00000060: 9161 6bbe 5dcc dd3c 1b54 9bbd cc31 3abe
00000070: e76e 763d 7c13 e33d a11a 013b 24c2 923d

in3.weight f4 [32]
0.3968994 0.44375864 0.40875238 0.4470721 0.68676805 0.55484736 0.5028642 0.42412546
0.68335617 0.6186183 0.38255942 0.45366117 0.47135797 0.3671319 0.3106238 0.52376974
0.5861498 0.5053418 0.33584026 0.46695593 0.68553853 0.5562533 0.7114451 0.3940421
0.43455222 0.55930954 0.63393736 0.58723027 0.5719709 0.5304364 0.62865824 0.49650374
00000000: 6636 cb3e 5534 e33e fe47 d13e a2e6 e43e
00000010: 08d0 2f3f 7a0a 0e3f b5bb 003f f926 d93e
00000020: 6ef0 2e3f c55d 1e3f d4de c33e 4746 e83e
00000030: d555 f13e b6f8 bb3e 150a 9f3e c615 063f
00000040: ea0d 163f 155e 013f 41f3 ab3e d914 ef3e
00000050: 747f 2f3f 9e66 0e3f 4421 363f e3bf c93e
00000060: a17d de3e e92e 0f3f b849 223f b954 163f
00000070: af6c 123f aeca 073f bfef 203f bd35 fe3e

in3.bias f4 [32]
-0.17423044 -0.07002802 -0.040401656 -0.1268498 -0.008102278 0.043061692 0.21771371 -0.29676795
0.19244021 0.16247158 0.2870875 -0.1636193 0.2167298 -0.019162318 0.048635997 0.18017574
0.28053585 0.1016915 0.036716007 0.06678733 0.028144184 0.2553395 0.033488948 -0.052414663
0.07911265 0.07763953 0.22116049 0.091530934 0.16288877 -0.051799607 0.1208381 -0.019650923
00000000: 7769 32be da6a 8fbd 357c 25bd eae4 01be
00000010: 6bbf 04bc 7561 303d 58f0 5e3e f8f1 97be
00000020: 0c0f 453e f35e 263e 22fd 923e d18b 27be
00000030: 6bee 5d3e 4bfa 9cbc 8a36 473d fd7f 383e
00000040: 65a2 8f3e a243 d03d 8663 163d ccc7 883d
00000050: a28e e63c dcbb 823e b52b 093d c2b0 56bd
00000060: d005 a23d 7901 9f3d e577 623e 9274 bb3d
00000070: 50cc 263e d32b 54bd f779 f73d f9fa a0bc

resnets.0.conv1.conv2d.weight f4 [32, 32, 3, 3]
0.030116709 -0.046509054 -0.008600268 0.0351029 -0.09604259 -0.008976441 0.04277655 0.049011152
0.019952977 -0.0978502 0.11128767 0.06194554 0.04298463 0.034769416 -0.03833934 0.081747204
0.102853954 -0.07543037 0.024063535 -0.0006481284 -0.033172626 0.07140802 -0.055982944 -0.0452953
-0.020181336 0.0040839254 0.009231064 -0.0141871525 -0.029263923 0.036651853 -0.050415937 -0.0074684047
0.030170454 0.02918619 -0.01156184 -0.040861856 0.033623457 0.08724121 0.040473774 -0.07283276
-0.023492452 0.021637337 0.080173016 0.018732809 -0.06080166 -0.05118045 -0.101845264 0.03882287
0.115242675 -0.07103017 -0.1441281 -0.01967744 0.15187319 0.0018192892 -0.10844081 0.06675027
0.16959827 -0.061790485 -0.11503587 -0.0069105327 0.21727236 -0.09077344 -0.29617724 -0.06950709
0.025586357 0.10540985 -0.010922556 0.057739645 0.096097395 0.08934399 -0.049447298 -0.03945389
0.09141668 0.021262694 -0.099603236 0.015597004 0.046626862 -0.031639215 -0.08635261 -0.05382161
0.13504082 0.1284174 -0.15261267 -0.15733589 0.14775838 0.08861136 -0.24355063 -0.34680402
0.021405648 0.26875475 0.030090915 0.12863787 -0.0062914826 -0.016296022 0.010002227 0.022287864
-0.035590727 -0.07084293 0.017508984 0.066207044 0.14425111 -0.096512616 -0.1468181 -0.069636814
0.26694658 -0.0008647362 -0.13287067 -0.051863566 0.0068469015 -0.03378772 0.017666528 -0.08272148
0.053222407 0.040582087 0.048006482 -0.02508587 -0.042532507 0.14007553 0.11136064 -0.074841775
-0.09268737 0.16379967 -0.007961306 -0.029506285 -0.0610256 0.020480888 0.08216332 -0.05118949
-0.2996362 0.11960729 0.06294529 -0.0499503 -0.1984797 -0.028852245 0.028431792 0.058066115
-0.04319383 0.0062824753 0.07541186 -0.05568366 -0.06241458 -0.0005413252 -0.0057860403 0.04859443
0.15755144 -0.024515111 -0.19374654 0.003316824 0.14963971 -0.0821027 -0.24036914 -0.06880086
0.23743229 -0.057938743 -0.087887086 0.006804418 0.07597097 -0.04588046 -0.014514156 0.025178263
0.01776106 -0.050788123 0.065833025 -0.12453816 -0.06963771 0.14671984 5.9641614e-05 -0.16358891
0.008655376 0.0807439 0.06648104 0.03203724 0.0070184916 -0.05841705 -0.045974888 0.01620239
-0.0226109 0.0036949846 0.009363535 0.04092256 0.19362715 0.13283914 -0.22753647 -0.3659272
0.167792 0.22089165 -0.11853424 -0.14360642 0.2084968 0.1182528 0.0021006048 -0.066726714
-0.07078945 0.004804243 -0.061416935 -0.07672034 0.05393796 0.060765155 -0.17805997 0.016417844
0.102031246 0.08371276 -0.011404152 -0.09108995 0.11926236 0.04579381 -0.028839506 0.14243232
-0.0002141782 -0.09566379 -0.07679145 0.21938263 0.093961835 -0.1414893 -0.022886286 -0.023318036
-0.100664355 -0.032676738 0.123685226 0.05754636 0.04809945 -0.047583606 0.102655716 0.07282772
-0.06851537 0.15384454 -0.062127132 -0.16237687 0.1739539 0.06885354 0.010542503 -0.20134565
0.009141057 0.105603166 -0.22236095 -0.06635651 0.089936435 -0.019432934 0.04651633 -0.0819394
0.10666942 -0.02483336 -0.042869177 0.0519334 0.031921744 -0.10697978 -0.006846177 -0.06957756
0.09457758 -0.034376297 0.020145176 0.08570309 0.12544319 0.14057955 -0.08756551 -0.056845877
00000000: 51b7 f63c 4780 3ebd 23e8 0cbc 0fc8 0f3d
00000010: fab1 c4bd ec11 13bc 7736 2f3d ebbf 483d
00000020: 6d74 a33c b065 c8bd caea e33d 9bba 7d3d
00000030: a710 303d 606a 0e3d b609 1dbd 146b a73d
00000040: 18a5 d23d 3d7b 9abd e420 c53c 29e7 29ba
00000050: 05e0 07bd 5e3e 923d 5f4e 65bd 9187 39bd
00000060: 5453 a5bc 73d2 853b e33d 173c 3b71 68bc
00000070: e5ba efbc 4120 163d f180 4ebd 85b9 f4bb
00000080: 0728 f73c e017 ef3c df6d 3dbc c35e 27bd
00000090: c0b8 093d 85ab b23d d4c7 253d 5829 95bd
000000a0: 3e73 c0bc c940 b13c c031 a43d 8c75 993c
000000b0: 290b 79bd 97a2 51bd 4094 d0bd bb04 1f3d
000000c0: 5a04 ec3d 4478 91bd 5196 13be 9532 a1bc
000000d0: a584 1b3e 3775 ee3a 3716 debd 5eb4 883d
000000e0: 2bab 2d3e 0518 7dbd ed97 ebbd c071 e2bb
000000f0: a57c 5e3e 6de7 b9bd 8ba4 97be bc59 8ebd
00000100: 7b9a d13c 1fe1 d73d 85f4 32bc 6880 6c3d
00000110: b6ce c43d fbf9 b63d 4089 4abd 679a 21bd
00000120: ab38 bb3d 1a2f ae3c c8fc cbbd 948a 7f3c
00000130: cffb 3e3d 1f98 01bd a3d9 b0bd 0c74 5cbd
00000140: 2448 0a3e da7f 033e 7f46 1cbe a91c 21be
00000150: f94d 173e df79 b53d 5665 79be 4c90 b1be
00000160: e65a af3c 399a 893e 3981 f63c a5b9 033e
00000170: c828 cebb 3c7f 85bc 61e0 233c 0a95 b63c
00000180: 95c7 11bd 1916 91bd 006f 8f3c 8f97 873d
00000190: 90b6 133e 68a8 c5bd 7c57 16be bf9d 8ebd
000001a0: 39ad 883e 77af 62ba 400f 08be e46e 54bd
000001b0: f95b e03b fe64 0abd 65b9 903c e169 a9bd
000001c0: bdff 593d 6739 263d 72a2 443d e280 cdbc
000001d0: 9136 2ebd f66f 0f3e 0c11 e43d a546 99bd
000001e0: e0d2 bdbd 1abb 273e 2370 02bc 2ab7 f1bc
000001f0: fbf5 79bd 89c7 a73c 3e45 a83d 12ac 51bd
00000200: ea69 99be abf4 f43d 76e9 803d b098 4cbd
00000210: 433e 4bbe 8b5b ecbc cae9 e83c bcd6 6d3d
00000220: 03ec 30bd 39dd cd3b 8971 9a3d 8d14 64bd
00000230: 6ea6 7fbd b8e7 0dba d398 bdbb f40a 473d
00000240: 2a55 213e ead3 c8bc 7e65 46be 135f 593b
00000250: 273b 193e 7625 a8bd 5423 76be 77e7 8cbd
00000260: 7321 733e 2d51 6dbd 25fe b3bd 98f7 de3b
00000270: ab96 9b3d 26ed 3bbd c8cc 6dbc a542 ce3c
00000280: a47f 913c 3507 50bd 77d3 863d dd0d ffbd
00000290: 379e 8ebd ba3d 163e b227 7a38 da83 27be
000002a0: 47cf 0d3c 0f5d a53d 3627 883d 7b39 033d
000002b0: 60fb e53b b746 6fbd 2a50 3cbd e0ba 843c
000002c0: 7f3a b9bc 8e27 723b 8369 193c 6a9e 273d
000002d0: 3246 463e fc06 083e 52ff 68be cf5a bbbe
000002e0: abd1 2b3e 6c31 623e 14c2 f2bd 900d 13be
000002f0: 2f80 553e 862e f23d 4daa 093b 04a8 88bd
00000300: 0ffa 90bd e96c 9d3b 5390 7bbd 8e1f 9dbd
00000310: 0dee 5c3d e2e4 783d 5a55 36be b77e 863c
00000320: c2f5 d03d 9871 ab3d 7bd8 3abc 5e8d babd
00000330: d33f f43d 4a92 3b3d d440 ecbc c7d9 113e
00000340: 0695 60b9 61eb c3bd d644 9dbd d7a5 603e
00000350: 106f c03d 92e2 10be 057c bbbc 7705 bfbc
00000360: 1d29 cebd 0bd8 05bd ae4e fd3d bbb5 6b3d
00000370: ee03 453d 07e7 42bd 293d d23d b326 953d
00000380: c951 8cbd 6c89 1d3e 0579 7ebd 1f46 26be
00000390: f920 323e 1603 8d3d 76ba 2c3c 8e2d 4ebe
000003a0: 5fc4 153c 7946 d83d 97b2 63be ece5 87bd
000003b0: 9830 b83d d131 9fbc e887 3e3d d8cf a7bd
000003c0: 7f75 da3d 556f cbbc 9797 2fbd 1eb8 543d
000003d0: 60c0 023d 3718 dbbd e555 e0bb ae7e 8ebd
000003e0: e4b1 c13d 29ce 0cbd 7f07 a53c 1a85 af3d
000003f0: 2e74 003e 16f4 0f3e 8c55 b3bd 39d7 68bd

resnets.0.conv1.conv2d.bias f4 [32]
-0.022223238 0.064790614 -0.03999652 0.065549605 0.1822639 -0.04736078 -0.002264238 -0.05271727
-0.051423956 -0.058448877 -0.070826955 -0.108833954 0.09091708 0.16175818 0.023764202 -0.12955776
-0.11176623 -0.21229461 -0.10954654 -0.17772594 -0.046194807 -0.048797064 0.06914117 -0.050088022
0.18330482 -0.072383106 0.24521863 0.006496519 -0.032410033 0.17500325 0.08643009 -0.100836486
00000000: 820d b6bc f1b0 843d 64d3 23bd df3e 863d
00000010: 63a3 3a3e 61fd 41bd 9c63 14bb 10ee 57bd
00000020: eda1 52bd 1768 6fbd b90d 91bd 56e4 debd
00000030: bc32 ba3d f0a3 253e 25ad c23c caaa 04be
00000040: b1e5 e4bd c263 59be f059 e0bd cafd 35be
00000050: c436 3dbd 6edf 47bd e399 8d3d 1929 4dbd
00000060: 42b4 3b3e 983d 94bd 981a 7b3e c0e0 d43b
00000070: 62c0 04bd 0d34 333e 4202 b13d 5c83 cebd

resnets.0.in1.weight f4 [32]
1.0936182 1.2360361 0.8996251 0.9849025 1.0890647 0.91420615 0.81532544 1.1760182
0.9356469 0.8047138 1.1060054 1.162219 0.95079213 0.94013095 0.8986651 0.9506092
1.1096355 0.9318476 0.9674711 0.84602934 0.8746335 1.1101981 0.96578324 1.1120851
1.0551441 0.9888465 0.92802 0.83348715 0.88398117 1.0229354 1.0850258 1.0206373
00000000: aefb 8b3f 6e36 9e3f d54d 663f 9222 7c3f
00000010: 7966 8b3f 6a09 6a3f 2bb9 503f c487 963f
00000020: 8e86 6f3f b901 4e3f 9691 8d3f 98c3 943f
00000030: 1d67 733f 6cac 703f ea0e 663f 205b 733f
00000040: 8908 8e3f 908d 6e3f 30ac 773f 6195 583f
00000050: fbe7 5f3f f91a 8e3f 923d 773f ce58 8e3f
00000060: f60e 873f 0b25 7d3f b892 6d3f 6a5f 553f
00000070: 974c 623f 8cef 823f 20e2 8a3f 3ea4 823f

resnets.0.in1.bias f4 [32]
0.079650715 0.1458265 0.4261816 0.104425155 0.034638368 -0.02213113 0.129487 -0.0694681
0.08711338 -0.07307436 0.12634867 0.17826433 0.21864358 0.1677325 -0.27973634 0.38733545
-0.1953229 0.25925562 -0.08736305 -0.1623914 -0.25687176 0.095753334 -0.048283245 0.054728433
0.116994634 0.18263955 0.13132976 0.13601688 -0.15381294 -0.10110614 0.11688371 0.107206754
00000000: ea1f a33d 8b53 153e 7a34 da3e dbdc d53d
00000010: f6e0 0d3d 584c b5bc 3d98 043e 4b45 8ebd
00000020: 8068 b23d 03a8 95bd 8c61 013e ed8a 363e
00000030: 1ae4 5f3e 12c2 2b3e 9a39 8fbe d550 c63e
00000040: ba02 48be 27bd 843e 66eb b2bd ee49 26be
00000050: b284 83be 531a c43d a7c4 45bd ec2a 603d
00000060: e29a ef3d dd05 3b3e 4f7b 063e 0248 0b3e
00000070: 2481 1dbe bc10 cfbd ba60 ef3d 378f db3d

resnets.0.conv2.conv2d.weight f4 [32, 32, 3, 3]
-0.022885622 -0.07068161 -0.06757899 0.03151818 -0.23472494 -0.22449724 -0.036654603 0.010113493
0.0025672985 -0.06371722 -0.11240845 0.026792696 0.1105422 0.049371853 0.14540216 -0.02761199
-0.040481925 -0.07358914 0.04420803 0.052464742 0.049397606 0.048997123 -0.0052170125 -0.11986022
0.0654424 -0.008475134 -0.087930635 0.082257554 -0.07218676 -0.06264961 0.017954256 -0.060744844
-0.17511246 0.04241374 -0.091514446 -0.11926637 0.05664848 -0.031875227 0.11273239 -0.13463849
-0.10791289 -0.045946628 0.16476098 0.095904246 0.29859117 0.2630802 0.25087908 0.2012799
0.14296299 0.11720981 0.15144221 0.0041065686 0.049232844 0.13304985 0.12204937 -0.040187698
-0.11009615 0.028913667 -0.009503947 0.019170132 0.03683707 -0.044577844 -0.15179092 -0.07258149
-0.12218671 -0.1477702 -0.11532904 -0.124548666 0.060095448 0.112545215 0.08408254 0.15582277
-0.07742365 -0.09072755 -0.17894794 -0.019173296 -0.09876088 0.047239892 0.044593632 0.074527815
0.026051944 0.11322338 0.116446204 0.010625596 0.028546574 0.09480029 0.078697145 -0.17981203
-0.06859506 -0.0052669276 0.08678685 -0.00039046266 -0.026568606 -0.14006917 -0.11574408 -0.03023773
0.122383855 0.041916225 -0.00066589576 -0.20148537 -0.010726673 -0.017679576 -0.12929186 -0.17263338
0.024007428 -0.043348894 0.012316944 0.027731044 0.06494769 0.0029143568 -0.05290124 0.10106099
-0.010227196 0.042142645 -0.06561045 -0.20112547 -0.07881724 -0.12779203 -0.017526193 -0.027072985
0.005474508 -0.08127459 -0.006292692 -0.112935916 -0.0938538 -0.053587448 0.0005218115 -0.021958943
-0.004015966 -0.0076414575 -0.081145555 -0.0583723 -0.0054752356 0.04555183 0.027439935 0.053801104
0.00991003 -0.06454102 0.052843183 -0.057372604 0.024901848 0.019497948 -0.053463377 0.10106953
0.20185769 -0.057764314 -0.092966095 0.15386862 -0.046232775 -0.09388197 0.1392574 -0.09686223
-0.26776963 -0.060314953 -0.12670073 0.009673698 -0.18577015 0.047580224 -0.09264811 0.06170706
-0.067098804 -0.00530958 -0.13761218 -0.083550036 -0.02911136 0.03620534 0.053841386 -0.094292045
-0.031689193 0.09510889 0.07508249 -0.0067357174 -0.02703263 -0.11000905 -0.023484254 -0.09444585
0.013137163 0.038649954 -0.030892445 -0.015307433 0.08076939 -0.055632554 0.09989613 -0.084428556
-0.056375317 0.08480198 0.052813265 -0.08735907 -0.06364889 -0.09612188 -0.1720763 -0.12450328
0.0043147365 0.15903988 -0.03126622 -0.039113667 -0.07283722 -0.1568672 -0.038979195 0.016786471
-0.014481157 0.10338537 -0.02809698 0.011813577 -0.122431315 -0.04737598 -0.10246868 -0.080172285
-0.14329013 -0.04026944 0.03018654 -0.029072786 0.016686907 -0.009798856 0.11115347 0.15490936
0.10536369 0.09303994 0.07252 0.02418934 -0.059521463 -0.049441226 0.023319835 -0.11088701
-0.102037385 -0.066512875 -0.14353514 -0.0907343 0.09149995 0.008557579 0.21803589 0.050519865
0.04101401 -0.10991822 -0.10698403 0.017618291 -0.19553687 0.052890535 0.09871179 0.0404379
0.02929548 0.026313812 0.0242762 -0.11009516 0.014093443 0.19407359 -0.15433568 0.0028070593
0.17000669 -0.09898231 -0.024628678 0.21078415 0.1666007 -0.022097325 0.03859543 0.06630417
00000000: a17a bbbc 85c1 90bd da66 8abd 3519 013d
00000010: bc5b 70be 9be2 65be 2323 16bd 10b3 253c
00000020: 1f40 283b 2d7e 82bd 6736 e6bd 5b7c db3c
00000030: f363 e23d 243a 4a3d 4ee4 143e 8a32 e2bc
00000040: 60d0 25bd e7b5 96bd 7b13 353d 45e5 563d
00000050: 2555 4a3d 35b1 483d 79f3 aabb 4679 f5bd
00000060: aa06 863d 4adb 0abc fa14 b4bd a676 a83d
00000070: a7d6 93bd 704e 80bd ce14 933c 96cf 78bd
00000080: ae50 33be 08ba 2d3d ed6b bbbd ed41 f4bd
00000090: 3d08 683d 998f 02bd 3de0 e63d acde 09be
000000a0: 6f01 ddbd 8832 3cbd 1ab7 283e 7269 c43d
000000b0: f1e0 983e 73b2 863e 3973 803e 511c 4e3e
000000c0: e464 123e b20b f03d ab13 1b3e 6590 863b
000000d0: 61a8 493d 383e 083e 05f5 f93d db9b 24bd
000000e0: 177a e1bd 5bdc ec3c 71b6 1bbc ae0a 9d3c
000000f0: 78e2 163d 4297 36bd 146f 1bbe 9ba5 94bd
00000100: 073d fabd 1251 17be a231 ecbd 5f13 ffbd
00000110: a526 763d 1b7e e63d 7733 ac3d 0190 1f3e
00000120: 4a90 9ebd 5ecf b9bd 213e 37be 5111 9dbc
00000130: 2543 cabd 9e7e 413d d0a7 363d 0aa2 983d
00000140: e36a d53c a9e1 e73d 597b ee3d fb16 2e3c
00000150: 81da e93c a826 c23d f82b a13d a520 38be
00000160: 917b 8cbd 3196 acbb 4ebd b13d 03b7 ccb9
00000170: 68a6 d9bc 4b6e 0fbe 3b0b edbd 1eb5 f7bc
00000180: 63a4 fa3d 59b0 2b3d 828f 2eba 2e52 4ebe
00000190: edbe 2fbc c2d4 90bc 1665 04be cec6 30be
000001a0: 3aab c43c 9c8e 31bd 02cd 493c 372c e33c
000001b0: 4b03 853d cbfe 3e3b f8ae 58bd 10f9 ce3d
000001c0: f88f 27bc c49d 2c3d c65e 86bd d6f3 4dbe
000001d0: ef6a a1bd eadb 02be 1793 8fbc 2ac8 ddbc
000001e0: 8063 b33b 4b73 a6bd ed32 cebb f24a e7bd
000001f0: 6c36 c0bd 837e 5bbd 2dca 083a 3ee3 b3bc
00000200: 5d98 83bb 3165 fabb a42f a6bd cb17 6fbd
00000210: 9b69 b3bb 8e94 3a3d b7c9 e03c 8c5e 5c3d
00000220: ae5d 223c 152e 84bd 1872 583d 89ff 6abd
00000230: f6fe cb3c 29ba 9f3c 6afc 5abd 8bfd ce3d
00000240: c8b3 4e3e 469a 6cbd 0265 bebd bc8f 1d3e
00000250: 945e 3dbd 3145 c0bd 7e99 0e3e b45f c6bd
00000260: 1a19 89be d00c 77bd d6bd 01be 6e7e 1e3c
00000270: 883a 3ebe 7be3 423d 4bbe bdbd 8bc0 7c3d
00000280: 196b 89bd fcfb adbb 35ea 0cbe 481c abbd
00000290: f27a eebc 0d4c 143d c988 5c3d 301c c1bd
000002a0: 87cc 01bd 73c8 c23d d9c4 993d 4bb7 dcbb
000002b0: 8973 ddbc 6d4c e1bd 0d62 c0bc d36c c1bd
000002c0: 413d 573c 6a4f 1e3d 2712 fdbc 07cc 7abc
000002d0: 6c6a a53d f6de 63bd 5896 cc3d e1e8 acbd
000002e0: cee9 66bd a9ac ad3d b952 583d 50e9 b2bd
000002f0: 595a 82bd 8cdb c4bd c534 30be 93fb febd
00000300: a262 8d3b 5adb 223e 0211 00bd a735 20bd
00000310: ae2b 95bd cca1 20be a6a8 1fbd c883 893c
00000320: 6042 6dbc b5bb d33d a32b e6bc bc8d 413c
00000330: 45bd fabd 510d 42bd 19db d1bd 5e31 a4bd
00000340: a6ba 12be 91f1 24bd c349 f73c 0d2a eebc
00000350: fbb2 883c 628b 20bc 6ea4 e33d 8fa0 1e3e
00000360: ebc8 d73d b98b be3d 5e85 943d b928 c63c
00000370: c7cc 73bd e282 4abd 3d09 bf3c bb18 e3bd
00000380: faf8 d0bd e737 88bd e0fa 12be e8d2 b9bd
00000390: 5364 bb3d 1635 0c3c cd44 5f3e ebed 4e3d
000003a0: 4efe 273d ce1c e1bd 711a dbbd 3c54 903c
000003b0: d13a 48be bfa3 583d 6829 ca3d 36a2 253d
000003c0: 13fd ef3c 1090 d73c e2de c63c 9279 e1bd
000003d0: 2fe8 663c 3abb 463e 2c0a 1ebe a4f6 373b
000003e0: 3c16 2e3e 3db7 cabd 15c2 c9bc cdd7 573e
000003f0: 6099 2a3e 7305 b5bc 3e16 1e3d 7bca 873d

resnets.0.conv2.conv2d.bias f4 [32]
-0.15753365 0.11885082 0.05563737 -0.03694344 -0.07042837 0.14378045 -0.06494752 0.056345697
-0.17407335 -0.007626119 0.10763014 0.22305618 -0.21716034 0.06822848 -0.33493432 0.07157398
-0.097150594 -0.22887188 -0.071838 -0.03641231 0.0037872922 0.061945338 -0.059505034 -0.14130443
-0.011817883 -0.08920064 0.013820491 -0.072759934 -0.13579658 -0.12428608 -0.23452222 -0.071048744
00000000: 8050 21be 0f68 f33d 03e4 633d 0152 17bd
00000010: c03c 90bd 2f3b 133e 3503 85bd bfca 663d
00000020: 4940 32be 86e4 f9bb 316d dc3d d768 643e
00000030: 485f 5ebe 60bb 8b3d 837c abbe 6195 923d
00000040: e4f6 c6bd 645d 6abe cd1f 93bd 1325 15bd
00000050: 3834 783b 65ba 7d3d 8dbb 73bd 1cb2 10be
00000060: cb9f 41bc d3ae b6bd 576f 623c 2903 95bd
00000070: 420e 0bbe b389 febd 9826 70be 0182 91bd

resnets.0.in2.weight f4 [32]
0.56898874 0.70499915 0.812055 0.5684087 0.72715914 0.7728095 0.7118438 0.6414264
0.7558929 0.8628779 0.7068825 0.80879045 0.61802006 0.73634624 0.90498346 0.61818326
0.92584324 0.64504075 0.70518035 0.6262608 0.8880122 0.8534272 0.79364985 0.5776835
0.775289 0.7836226 0.87496465 0.7552421 0.6851586 0.69739354 0.83687884 0.8797387
00000000: 3fa9 113f d37a 343f d6e2 4f3f 3c83 113f
00000010: 1a27 3a3f d8d6 453f 653b 363f 8534 243f
00000020: 3282 413f 91e5 5c3f 40f6 343f e40c 4f3f
00000030: 9036 1e3f 3081 3c3f ffac 673f 4241 1e3f
00000040: 1004 6d3f 6421 253f b386 343f a152 203f
00000050: c454 633f 347a 5a3f a32c 4b3f 11e3 133f
00000060: 5779 463f 7e9b 483f affd 5f3f 8c57 413f
00000070: 8e66 2f3f 6288 323f b13d 563f 8e36 613f

resnets.0.in2.bias f4 [32]
-0.10384918 0.12117063 0.011855803 0.055696633 -0.04211428 0.20256948 -0.075754024 0.03592631
-0.1795926 0.21443453 0.21860832 0.14666407 -0.09928278 -0.16010642 -0.20670116 0.022087734
-0.047637906 -0.26009977 -0.018686384 0.16000867 -0.037287284 0.18142766 -0.03759623 -0.021205064
0.12955676 -0.10665036 0.113377005 -0.104675345 -0.06614324 -0.0791214 -0.17297019 0.17433728
00000000: e1ae d4bd 4f28 f83d d83e 423c 2722 643d
00000010: 0680 2cbd 606e 4f3e ed24 9bbd 7727 133d
00000020: 1fe7 37be ba94 5b3e dcda 5f3e 1b2f 163e
00000030: c554 cbbd f0f2 23be 78a9 53be 56f1 b43c
00000040: f71f 43bd cc2b 85be 3014 99bc 50d9 233e
00000050: 8dba 18bd 2cc8 393e 81fe 19bd 3eb6 adbc
00000060: 87aa 043e 816b dabd 3432 e83d 0760 d6bd
00000070: 1b76 87bd 670a a2bd 191f 31be 7985 323e

resnets.1.conv1.conv2d.weight f4 [32, 32, 3, 3]
0.0034047768 -0.065478645 0.004230054 0.07065202 -0.16124418 -0.050494667 0.1280422 -0.1506253
-0.018829944 -0.05190874 -0.014164678 0.090032235 -0.01714407 -0.15905099 0.16907184 -0.067013286
-0.1432943 0.03833196 0.04286372 -0.25057158 0.078623466 0.07223608 -0.24969119 0.07658499
0.10875536 -0.25361663 -0.015720699 0.0034170623 -0.12942511 -0.020629946 -0.04550629 -0.106652156
-0.006487757 0.0252597 -0.19633093 -0.028370135 -0.06817314 0.02518933 -0.06389561 -0.028196162
0.1365867 -0.17814466 -0.022072311 -0.046135843 -0.17320856 0.023746572 -0.097018726 0.036607556
0.08549679 -0.062622026 0.07541743 0.0921306 -0.16030006 0.018647127 -0.21293552 0.14110295
-0.04503606 0.0027583588 0.2643606 -0.1203456 -0.08956874 0.10742367 -0.09077524 -0.04678866
-0.057520997 0.04715882 -0.022495825 -0.039302897 0.03240951 0.028217047 -0.0042850776 -0.018124707
0.07313255 -0.12888937 0.06662185 0.12958619 -0.14959398 0.10285872 0.06893812 -0.16086558
0.03104152 0.014372715 -0.23218752 0.106575 0.062452585 -0.11114882 0.16253391 0.0054331524
-0.13145521 0.042122588 -0.07081375 0.027022721 0.042415977 -0.023737447 -0.00908434 -0.095322974
-0.064947784 -0.024655014 -0.07001832 -0.033032738 0.13035475 -0.18779863 -0.02800013 0.10557537
-0.12609878 -0.012300287 0.10963036 -0.18476279 0.14838293 -0.098048195 0.0487824 0.14218007
-0.10623963 0.080425784 0.12457181 -0.18186095 -0.067159474 0.04866006 -0.028181834 0.020310396
0.037275493 -0.08378512 -0.048574038 0.112893686 -0.15759712 0.027716767 -0.014424749 0.011547523
0.20188189 0.006341575 0.00747406 0.19307703 0.01352806 -0.10113174 0.016492257 -0.072960496
-0.07177167 0.23171669 -0.057411715 0.029385295 0.048789904 -0.0028793446 -0.00690556 0.2228872
0.13594 -0.06271201 0.053924296 0.045221012 -0.09740915 0.118553385 0.023735223 -0.017986633
-0.004634319 0.08566546 0.14351189 0.008900803 0.102677144 0.09090377 -0.04722925 0.047416285
-0.05900082 -0.102402344 -0.015084634 -0.080018476 -0.073089615 0.017412826 0.01432105 0.07642405
0.033464476 0.05416833 0.039808292 0.23199934 -0.030677382 0.033860065 0.15260114 -0.10651569
0.0009258004 -0.008545296 -0.14541593 -0.13659693 -0.028243594 -0.029136164 0.14291148 -0.09101666
0.09297306 0.03671866 -0.025520477 0.08598361 0.030102544 0.040822938 0.06789476 -0.08579212
-0.009808013 0.14217816 -0.07381764 0.034027062 0.14253259 -0.022370648 -0.059135243 -0.12454508
0.08459873 0.022346089 -0.09948901 -0.00800079 0.0048395367 -0.10921328 -0.052516542 0.007881605
0.10653891 -0.07154922 -0.09718061 0.001334848 -0.019161202 -0.107247435 0.04388434 -0.1135239
-0.07474262 0.1170366 -0.080624446 0.0067139543 0.1548058 -0.1177052 -0.004876682 0.18436743
-0.14427163 0.18944183 -0.122326046 0.018448975 -0.002164178 -0.30658263 0.0350194 0.068962425
-0.19926557 0.21481724 0.07875717 -0.22513723 -0.07934761 0.09041049 -0.13387792 -0.013464217
0.13562854 -0.17724308 -0.07256535 0.019580089 -0.1845641 0.024950013 0.027671564 -0.21486919
0.053717777 -0.019452073 -0.022352036 0.17357257 0.028953822 0.052710712 -0.032921858 -0.011387287
00000000: ad22 5f3b ab19 86bd 449c 8a3b 02b2 903d
00000010: 321d 25be 7fd3 4ebd 7f1d 033e 853d 1abe
00000020: 4141 9abc 429e 54bd f712 68bc d262 b83d
00000030: b871 8cbc 43de 22be 2b21 2d3e 433e 89bd
00000040: bebb 12be f901 1d3d de91 2f3d eb4a 80be
00000050: 5705 a13d 83f0 933d 0caf 7fbe 97d8 9c3d
00000060: 21bb de3d 0ada 81be b2c8 80bc cbf0 5f3b
00000070: 0488 04be 2200 a9bc ce64 3abd 726c dabd
00000080: 4097 d4bb 6eed ce3c fa0a 49be 7c68 e8bc
00000090: 5c9e 8bbd db59 ce3c b4db 82bd a3fb e6bc
000000a0: 62dd 0b3e 8e6b 36be fed0 b4bc f0f8 3cbd
000000b0: 965d 31be 2c88 c23c c1b1 c6bd cef1 153d
000000c0: f118 af3d fa3f 80bd 7474 9a3d f8ae bc3d
000000d0: b325 24be dcc1 983c c50b 5abe 4b7d 103e
000000e0: bb77 38bd 95c5 343b 465a 873e c177 f6bd
000000f0: d16f b7bd f100 dc3d 5ee8 b9bd 77a5 3fbd
00000100: 239b 6bbd 9b29 413d 2a49 b8bc 13fc 20bd
00000110: d6bf 043d 7027 e73c d669 8cbb 447a 94bc
00000120: 85c6 953d 93fb 03be 0971 883d 3eb2 043e
00000130: 2a2f 19be 98a7 d23d 6e2f 8d3d f2b9 24be
00000140: c94a fe3c 897b 6b3c 91c2 6dbe fe43 da3d
00000150: 48ce 7f3d fea1 e3bd 4a6f 263e 9608 b23b
00000160: 329c 06be bc88 2c3d cd06 91bd c15e dd3c
00000170: 60bc 2d3d 0975 c2bc 7cd6 14bc b138 c3bd
00000180: 5803 85bd 50f9 c9bc c465 8fbd 564d 07bd
00000190: b77b 053e 494e 40be 8760 e5bc e637 d83d
000001a0: 0a20 01be 2587 49bc e285 e03d 7532 3dbe
000001b0: b2f1 173e 7ecd c8bd 0ed0 473d a797 113e
000001c0: 2a94 d9bd 46b6 a43d 811f ff3d c239 3abe
000001d0: e88a 89bd c54f 473d 97dd e6bc fd61 a63c
000001e0: 30ae 183d 8897 abbd 92f5 46bd ce34 e73d
000001f0: 2461 21be 460e e33c c855 6cbc d231 3d3c
00000200: 20ba 4e3e fdcc cf3b f6e8 f43b fcb5 453e
00000210: cca4 5d3c 281e cfbd c51a 873c 506c 95bd
00000220: 06fd 92bd 2447 6d3e 8c28 6bbd 6eb9 f03c
00000230: ecd7 473d 63b3 3cbb 0948 e2bb 8b3c 643e
00000240: db33 0b3e 286f 80bd b9df 5c3d ab39 393d
00000250: 737e c7bd 1ecc f23d 5f70 c23c b458 93bc
00000260: 7cdb 97bb 5f71 af3d c8f4 123e acd4 113c
00000270: 6548 d23d c12b ba3d 7573 41bd 9437 423d
00000280: d8aa 71bd 52b8 d1bd 8a25 77bc bae0 a3bd
00000290: 02b0 95bd 58a5 8e3c d6a2 6a3c 3684 9c3d
000002a0: 0c12 093d 9cdf 5d3d 050e 233d 3c91 6d3e
000002b0: 224f fbbc dab0 0a3d 7943 1c3e e624 dabd
000002c0: 6ab1 723a 9201 0cbc eae7 14be 11e0 0bbe
000002d0: 1c5f e7bc f7ae eebc 6357 123e f166 babd
000002e0: a968 be3d 4e66 163d 5210 d1bc 2d18 b03d
000002f0: 9c99 f63c f435 273d 680c 8b3d c7b3 afbd
00000300: cab1 20bc 2797 113e b42d 97bd f65f 0b3d
00000310: 10f4 113e a642 b7bc cc37 72bd 7e11 ffbd
00000320: 1942 ad3d 250f b73c e5c0 cbbd bf15 03bc
00000330: fa94 9e3b 36ab dfbd 961b 57bd d921 013c
00000340: 1231 da3d 6688 92bd a106 c7bd 11f6 ae3a
00000350: f4f7 9cbc 8ba4 dbbd 11c0 333d 387f e8bd
00000360: a912 99bd e3b0 ef3d 6e1e a5bd bb00 dc3b
00000370: 6985 1e3e 6d0f f1bd 93cc 9fbb d1ca 3c3e
00000380: f1bb 13be 0afd 413e 1486 fabd 4e22 973c
00000390: e2d4 0dbb 66f8 9cbe 8170 0f3d 2c3c 8d3d
000003a0: 460c 4cbe 0df9 5b3e 704b a13d 608a 66be
000003b0: 0081 a2bd 2329 b93d 4b17 09be 0599 5cbc
000003c0: 35e2 0a3e 367f 35be 249d 94bd 6c66 a03c
000003d0: 5ffe 3cbe f863 cc3c 7aaf e23c ab06 5cbe
000003e0: 2c07 5c3d f459 9fbc 9e1b b7bc 02bd 313e
000003f0: 9130 ed3c 30e7 573d 12d9 06bd be91 3abc

resnets.1.conv1.conv2d.bias f4 [32]
0.05973833 0.18307647 0.17358264 -0.16393113 0.17632261 -0.0012927396 0.10162313 -0.08590439
-0.08453687 0.0127250245 -0.06643129 0.2535226 -0.052345157 -0.02048186 0.04733 0.22961295
0.018630194 -0.004630869 -0.07569874 0.093010694 0.08881377 0.06238249 0.039197948 0.042326175
-0.023704104 -0.047534823 0.03924982 0.07665626 0.09872076 0.006653515 0.051852506 -0.13116047
00000000: 2eb0 743d 6678 3b3e a6bf 313e 90dd 27be
00000010: ea8d 343e 2571 a9ba ca1f d03d a4ee afbd
00000020: ab21 adbd 9f7c 503c 210d 88bd b7cd 813e
00000030: e067 56bd 93c9 a7bc 1add 413d a81f 6b3e
00000040: 599e 983c 8bbe 97bb f107 9bbd 647c be3d
00000050: fee3 b53d c884 7f3d 078e 203d 365e 2d3d
00000060: 1c2f c2bc e0b3 42bd 6bc4 203d f5fd 9c3d
00000070: 1c2e ca3d bb05 da3b 4b63 543d ee4e 06be

resnets.1.in1.weight f4 [32]
0.9595737 1.0927023 0.86440164 0.85660785 1.0738571 0.90391254 0.7661173 0.8507566
0.82445866 0.90351284 0.87908053 1.1376045 1.1708331 0.90639955 0.9984057 0.9471074
0.9827025 0.9001157 0.9608566 0.7147315 0.983342 1.0562606 0.87417763 0.89498353
1.0872003 0.86351734 0.8690744 0.92743194 1.1437582 0.97978044 0.9163528 0.8850043
00000000: 9fa6 753f abdd 8b3f 6d49 5d3f a74a 5b3f
00000010: 2674 893f d066 673f 4320 443f 2fcb 593f
00000020: b90f 533f 9e4c 673f 6c0b 613f 069d 913f
00000030: dcdd 953f cd09 683f 8497 7f3f a175 723f
00000040: 6492 7b3f fc6d 663f b3fa 753f a5f8 363f
00000050: 4dbc 7b3f 8c33 873f 1bca 5f3f a41d 653f
00000060: 6129 8b3f 790f 5d3f a97b 5e3f 2e6c 6d3f
00000070: ab66 923f e4d2 7a3f 1996 6a3f a48f 623f

resnets.1.in1.bias f4 [32]
0.110459134 0.27699718 0.028872762 -0.07717883 0.29099357 -0.005354119 0.094918534 0.23991917
-0.06775132 0.30994818 0.33229446 0.26011413 -0.34696043 -0.23601007 -0.20846985 0.000759272
-0.0669998 -0.17793657 -0.6731077 0.521591 0.011709459 0.0934535 -0.13052896 -0.031036934
0.26002854 -0.23109569 0.15802579 -0.26230666 -0.23728609 -0.79902685 0.0044160057 -0.04154057
00000000: 6638 e23d 93d2 8d3e 9286 ec3c ef0f 9ebd
00000010: 1cfd 943e 9b71 afbb a664 c23d 5fad 753e
00000020: 34c1 8abd 87b1 9e3e 8022 aa3e ae2d 853e
00000030: cca4 b1be a0ac 71be 1f79 55be e209 473a
00000040: 3137 89bd 0135 36be c950 2cbf fd86 053f
00000050: 08d9 3f3c 8c64 bf3d 62a9 05be 2b41 febc
00000060: 7622 853e 59a4 6cbe 83d1 213e 0f4d 86be
00000070: 20fb 72be 068d 4cbf 24b4 903b 7226 2abd
