Assets/Style_Transfer/Models/mas estilo/ola e9-720.onnx (onnx, 449372 bytes, 62 tensors)

conv1.conv2d.weight f4 [8, 3, 9, 9]
0	0xbb3efd30	-0.002914261
1	0x3d8e37dc	0.06944248
2	0x3d8be692	0.06831087
3	0x3d872b02	0.066
4	0x3d567024	0.05235304
5	0x3cee03fd	0.029054636
6	0xbda96df4	-0.08272925
7	0xbd1bad47	-0.038007047
8	0x3caba4d3	0.020952618
9	0x3de55175	0.11197177
10	0x3e247427	0.16059934
11	0xbc8dc2ce	-0.017304804
12	0xbdd67974	-0.10472384
13	0x3ccae361	0.024766626
14	0x3e04a3fe	0.12953183
15	0x3ce5c765	0.02804918
16	0x3d4dd37b	0.05025051
17	0x3dca4faa	0.09878476
18	0x3cfdf1b0	0.030999035
19	0x3d5c23a3	0.053744923
20	0xbd9569b5	-0.07295553
21	0xbe1ff323	-0.15620093
22	0xbd84d36d	-0.06485639
23	0x3d9e8070	0.07739341
24	0x3c1a5725	0.009420191
25	0x3c9f99b8	0.019482478
26	0x3d486c59	0.048931453
27	0x3d897c45	0.06713156
28	0x3c474b4c	0.012163948
29	0xbe57848a	-0.21046653
30	0xbeafe044	-0.3435079
31	0xbe0aa1c9	-0.13538279
32	0x3d387644	0.045034662
33	0x3d8adf66	0.06780891
34	0x3d13ce88	0.036085635
35	0x3cff3bdb	0.031156471
36	0x3df45398	0.11930007
37	0xbd4bf880	-0.049797535
38	0xbe874c4b	-0.26425394
39	0xbea39882	-0.31952292
40	0xbe297897	-0.16549908
41	0xbc966d7e	-0.018362757
42	0xbbbd0499	-0.0057683703
43	0xbdc45fc5	-0.09588579
44	0x3c98a4f9	0.018633353
45	0x3d80ebee	0.06295
46	0xbda6bcf6	-0.0814151
47	0x3cdbb67d	0.026820416
48	0x3d56f0b3	0.052475642
49	0x3de61581	0.1123457
50	0x3c9c6c0e	0.019094493
51	0x3d0acc40	0.033886194
52	0xbcf5cb86	-0.030004274
53	0xbc7dccce	-0.015490724
54	0x3dfdc8aa	0.12391789
55	0xbcfc5075	-0.030800084
56	0x3ba99e09	0.00517631
57	0xbc07ce51	-0.008288936
58	0x3d58f019	0.05296335
59	0x3d24529e	0.040117852
60	0x3d0e635e	0.034762733
61	0xbd728cca	-0.0592163
62	0x3b9d8f69	0.0048083556
63	0x3ce020e1	0.027359428
64	0x3d954fe0	0.072906256
65	0xbc2872a6	-0.010281241
66	0xbbc95401	-0.0061440472
67	0x3c516db3	0.012782502
68	0x3d3c9b13	0.046046328
69	0x3c8c9692	0.017161641
70	0xbd2cb5ff	-0.042165753
71	0x3d60a278	0.054842442
72	0xbc089efd	-0.008338687
73	0x3d42b1a0	0.047532678
74	0x3bbca54b	0.005757009
75	0x3dbd7d8d	0.092524625
76	0x3c25ad09	0.010112056
77	0xbd69a862	-0.057045348
78	0xbb92fd3f	-0.0044857557
79	0x3c5fd7c6	0.013662284
80	0x3cdceb4f	0.026967673
81	0x3aa9551a	0.0012919039
82	0xbc578a17	-0.013155482
83	0x3d9de8ca	0.077104166
84	0x3cba2b36	0.022725683
85	0x3d2b71ab	0.04185645
86	0x3d7f8cf4	0.062390283
87	0xbbe2003f	-0.006897002
88	0x3d928dfb	0.07155987
89	0x3cd2bf3b	0.025725951
90	0x3dcf5fa8	0.10125667
91	0x3e030b73	0.12797336
92	0xbd24ffd9	-0.040283058
93	0xbd29a949	-0.04142121
94	0x3d7786e0	0.06043136
95	0x3dd32a49	0.103108
96	0x3d8454ab	0.06461462
97	0x3a9076ab	0.0011021694
98	0xbd8e87b6	-0.069594786
99	0xbd612e9b	-0.054976087
100	0x3dc95f7e	0.09832667
101	0xbc9e7134	-0.019341089
102	0xbe3ca1dd	-0.18421121
103	0xbc31e803	-0.010858539
104	0x3d41289d	0.047157872
105	0x3d4a2c62	0.049358733
106	0xbc95390e	-0.018215682
107	0x3d6243ec	0.055240557
108	0x3d469f4f	0.048491772
109	0x3c0447df	0.008073776
110	0xbe3524a9	-0.17689766
111	0xbecff5a9	-0.4061711
112	0xbd9e10af	-0.07718026
113	0x3dd6018b	0.10449513
114	0x3d419fbd	0.04727148
115	0x3b7deee9	0.0038747138
116	0x3cdb6aa0	0.026784241
117	0x3ce003f6	0.027345639
118	0xbdeee9af	-0.11665665
119	0xbe59d123	-0.21271186
120	0xbeb78dfa	-0.35850507
121	0xbe211ef8	-0.1573447
122	0xbd38050b	-0.044926684
123	0xbdb8bfc2	-0.0902095
124	0xbd63db8f	-0.05562931
125	0x3d5f6fac	0.054549858
126	0xbc4c64fe	-0.01247525
127	0xbd843926	-0.06456213
128	0xbb875f34	-0.004131222
129	0x3d23b781	0.039969925
130	0x3d92455b	0.07142135
131	0x3dd32b68	0.103110135
132	0x3da171c2	0.07883026
133	0xbc6c8e94	-0.01443829
134	0xbcf3d310	-0.029763728
135	0xbc944bdb	-0.018102577
136	0xbde0ce80	-0.10976887
137	0xbd179f76	-0.03701731
138	0x3c00ea2d	0.007868332
139	0x3caa494a	0.0207869
140	0x3c068324	0.008209977
141	0x3d6b8b16	0.05750569
142	0xbcdb1a89	-0.026746051
143	0x3cb62bed	0.022237742
144	0x3d45bc92	0.048275538
145	0xbd854233	-0.06506767
146	0x3ca99b92	0.020704065
147	0x3c12a048	0.008949347
148	0xbccb0e2e	-0.024787035
149	0xbbfd22ef	-0.0077251117
150	0x3d52e3ac	0.051486656
151	0x3c8eb4da	0.017420221
152	0x3c04fcfc	0.008116957
153	0x3c97c4f8	0.01852654
154	0x3ce77cea	0.028257806
155	0x3d423cbf	0.047421213
156	0x3da809cc	0.082049936
157	0xbc97cc0a	-0.01852991
158	0xbc9e1684	-0.019297846
159	0x3d2fab82	0.042888172
160	0x3b4b1f5b	0.003099403
161	0x3c9be744	0.019031174
162	0xbd0ae80d	-0.033912707
163	0xbd2dccd5	-0.04243167
164	0x3c4e9178	0.012607925
165	0x3cc1e208	0.02366735
166	0x3d841ecd	0.06451187
167	0xbd3170c7	-0.043320443
168	0xbc59bc1a	-0.013289476
169	0x3ccf604b	0.02531447
170	0xbd104a20	-0.03522694
171	0xbc62d283	-0.013844135
172	0x3ce5dd6d	0.028059686
173	0xbc04dcbe	-0.00810927
174	0xbc7fa3fd	-0.015603063
175	0x3d04d7c8	0.032432348
176	0x3d2c59cf	0.042077836
177	0x3a79c6aa	0.00095281994
178	0xbd0371eb	-0.032091063
179	0x3bb7bad3	0.005606988
180	0xbc264980	-0.01014936
181	0x3da77796	0.08177106
182	0x3d1a99b9	0.037744258
183	0xbd4cd142	-0.05000425
184	0x3d9bd9fe	0.07609938
185	0x3d153150	0.03642398
186	0xbcac9457	-0.021066828
187	0x3bff72f8	0.0077956878
188	0xbc7942cf	-0.015213682
189	0xbbebf798	-0.0072011463
190	0x3e3b6519	0.18300284
191	0xbbb9780e	-0.0056600636
192	0xbd962fbf	-0.073333256
193	0xbcc57cd6	-0.024107378
194	0x3d8fc6ce	0.07020341
195	0xbd2ee23e	-0.04269623
196	0xbcabf0f0	-0.020988911
197	0x3dbbc350	0.09168112
198	0x3d40e0ea	0.047089495
199	0x3dadbad6	0.08482902
200	0xbd92a961	-0.07161213
201	0xbe181a54	-0.14853793
202	0xbde9a90d	-0.11409197
203	0xbd91a7b7	-0.07112067
204	0xbd24b69d	-0.040213216
205	0x3b89f4c3	0.004210086
206	0x3d34a3f0	0.044101655
207	0x3a02b2d4	0.0004985754
208	0x3d6a1f8f	0.057159003
209	0x3cb718b4	0.022350647
210	0x3d11006c	0.035400793
211	0x3dac312e	0.08407818
212	0xbcb1ab59	-0.02168815
213	0xbd69202a	-0.05691544
214	0xbcf65f46	-0.030074727
215	0x3d941154	0.072298676
216	0x3d07018b	0.032960456
217	0xbd2b568e	-0.04183059
218	0x3d1ec30f	0.03876024
219	0xbd8f74ab	-0.070046745
220	0xbbcfbcdb	-0.006339652
221	0xbd13f00b	-0.036117595
222	0xbad51c34	-0.0016259016
223	0xbcee4868	-0.02908726
224	0x3ccbd7b7	0.024883134
225	0x3d035820	0.032066464
226	0x3d7dc33e	0.061953776
227	0x3d8236fd	0.063581444
228	0x3dc4350d	0.09580431
229	0x3be779e9	0.0070640934
230	0x3c85e1ab	0.016342958
231	0x3b6c5f05	0.0036067378
232	0xbc909cf4	-0.017652966
233	0x3b3ec2cc	0.0029107807
234	0xbdb336ec	-0.0875071
235	0xbcec9aaf	-0.028882353
236	0x3c0a4fba	0.00844186
237	0x3d032748	0.032019883
238	0xbd054f71	-0.032546464
239	0xbc858ebd	-0.016303414
240	0xbcb3a177	-0.021927578
241	0xbc3d38eb	-0.011549215
242	0xbd3d9910	-0.04628855
243	0xbd1c456c	-0.038152143
244	0xbd6f626d	-0.058443476
245	0xbcb83e14	-0.022490539
246	0x3c721018	0.014774345
247	0xbe0f746b	-0.14009254
248	0xbd9f7562	-0.07786061
249	0x3c74a90b	0.014932881
250	0x3b642a23	0.0034815155
251	0xbdd9526d	-0.106114246
252	0xbd0fb186	-0.03508141
253	0xbc26f643	-0.010190549
254	0x3dc849bf	0.09779691
255	0x3e054152	0.13013199

conv1.conv2d.bias f4 [8]
0	0xbb806967	-0.003918815
1	0xbdf1ad2f	-0.1180061
2	0x3d0f8f94	0.035049036
3	0x3c5306c6	0.012880033
4	0xbc4e9617	-0.012609026
5	0x3e1db5d3	0.15401392
6	0xbc55080d	-0.013002408
7	0x3d5a1405	0.05324175

in1.weight f4 [8]
0	0x3f880ea8	1.0629473
1	0x3f4f3ceb	0.8095233
2	0x3f62a3b4	0.8853104
3	0x3f7c0103	0.98439044
4	0x3f4768a2	0.7789403
5	0x3f55369e	0.83286464
6	0x3f866b84	1.0501561
7	0x3f7fa61d	0.99862844

in1.bias f4 [8]
0	0x3f1ba046	0.6079143
1	0x3fd13186	1.6343238
2	0x40058666	2.086328
3	0x3fcbf7af	1.5934962
4	0x3fefac9a	1.8724549
5	0x3fb20458	1.3907576
6	0x3fd7f163	1.687054
7	0x3ff38b2b	1.9026846

conv2.conv2d.weight f4 [16, 8, 3, 3]
0	0x3d9af5ab	0.07566389
1	0x3d958069	0.07299883
2	0x3d639f2b	0.055571716
3	0xbe23b650	-0.15987515
4	0xbd73589b	-0.059410673
5	0x3d5eeb76	0.05442377
6	0x3e394f32	0.18096617
7	0xbde66b2a	-0.11250909
8	0xbe2ce205	-0.16883095
9	0x3e390cc1	0.18071271
10	0xbe2ec0f3	-0.17065792
11	0xbe868e36	-0.26280373
12	0x3df8ccf8	0.1214847
13	0x3e2977f9	0.16549672
14	0xbe5ef100	-0.21771622
15	0xbdaadf64	-0.0834339
16	0x3ea1e599	0.31620482
17	0xbcbc8105	-0.02301074
18	0xbded66f0	-0.115918994
19	0x3daa5a5e	0.083180174
20	0xbd1e07a4	-0.038581505
21	0x3ceab592	0.028651033
22	0xbb1196ed	-0.0022215203
23	0x3d2bf678	0.041983098
24	0xbd30f5db	-0.043203216
25	0xbce6c676	-0.028170805
26	0xbbd511b4	-0.0065023545
27	0xbd728ba3	-0.0592152
28	0xbc090f5e	-0.00836548
29	0xbd54f06b	-0.051987093
30	0x3d94be18	0.0726282
31	0xbd1d5268	-0.038408667
32	0xbe15fbd0	-0.1464684
33	0x3cf28569	0.02960463
34	0x3dd8d7ba	0.105880216
35	0x3c6eaa22	0.01456693
36	0xbe42aa3f	-0.19010256
37	0x3af72a8f	0.0018857288
38	0x3e08a980	0.13345909
39	0x3dc74c52	0.09731354
40	0xbe227d37	-0.15868078
41	0x3cf63eee	0.030059304
42	0x3e3e92b0	0.18610644
43	0xbd4e669e	-0.050390832
44	0xbd89ccd7	-0.06728523
45	0x3da35e0c	0.079769224
46	0xbdf7765b	-0.120831214
47	0xbe05f6fd	-0.130825
48	0x3dcc0c47	0.09963279
49	0x3dcb49ff	0.09926223
50	0xbe064b90	-0.13114762
51	0x3d8c6e64	0.06856993
52	0x3d08f4ac	0.033436462
53	0x3c7847c0	0.015153825
54	0xbcab9fb1	-0.02095017
55	0xbd3a59f0	-0.045495927
56	0xbd5f224e	-0.054476075
57	0x3da1ba39	0.07896847
58	0xbb875efb	-0.0041311956
59	0x3c56d3a4	0.0131119825
60	0xbd743181	-0.059617523
61	0x3d90b665	0.07066039
62	0xbbfdb9ab	-0.0077430806
63	0x3df825ac	0.1211656
64	0x3d84d5e4	0.06486109
65	0xbe28d4dd	-0.16487451
66	0xbcb7e1c3	-0.022446519
67	0x3e350c96	0.17680582
68	0x3d04da1b	0.032434564
69	0xbe16a966	-0.14713058
70	0xbda9f4e1	-0.0829866
71	0x3e42eb10	0.19034982
72	0x3de25116	0.11050622
73	0xbdd6d6e3	-0.10490205
74	0xbe1fac78	-0.15593135
75	0xbe0954a6	-0.13411197
76	0xbd0903c5	-0.03345086
77	0xbd7e50f1	-0.06208891
78	0xbdbd5ee5	-0.09246615
79	0xbda31873	-0.07963648
80	0x3be4b699	0.006979775
81	0x3d3cd842	0.046104677
82	0xbd4a0541	-0.049321417
83	0xbd18e91a	-0.037331678
84	0x3cfeb908	0.03109409
85	0x3d68f638	0.056875437
86	0x39b4e566	0.0003450319
87	0x3c5803d5	0.013184507
88	0x3e151ee7	0.1456257
89	0x3dd48e9f	0.10378765
90	0xbdbdc8a5	-0.092667855
91	0x3e02a0fb	0.12756722
92	0x3d88adda	0.066737846
93	0x3d80b4b8	0.06284469
94	0x3dea189b	0.11430474
95	0x3db90ec8	0.090360224
96	0x3e05ea3d	0.13077636
97	0x3e104166	0.14087448
98	0xbd2b3cf1	-0.041806165
99	0xbd1c40fe	-0.03814792
100	0xbdaec31b	-0.08533307
101	0xbddf301e	-0.108978495
102	0x3d4159f9	0.047204945
103	0xbcc04f26	-0.02347524
104	0xbda3b956	-0.079943344
105	0xbc1fae0b	-0.009746085
106	0xbd924c70	-0.071434855
107	0x3d6c79fc	0.05773352
108	0x3e0f2cc9	0.13981928
109	0x3d71d96d	0.059045244
110	0xbdae100b	-0.08499154
111	0x3dd43673	0.10361948
112	0x3dfa2d0f	0.122156255
113	0xbdeec662	-0.11658932
114	0x3e11f1bb	0.14252369
115	0xbcc515c8	-0.024058238
116	0xbd31e8d5	-0.043434937
117	0x3c5f8f60	0.013645023
118	0xbd05e663	-0.032690417
119	0x3dadde76	0.08489697
120	0x3e3e79dd	0.18601175
121	0x3ec55808	0.38543725
122	0x3ea13815	0.314881
123	0x3df689c0	0.120379925
124	0x3e1c93a3	0.15290694
125	0x3e747cae	0.23875687
126	0x3c9e9798	0.019359395
127	0x3c99f5df	0.018793998
128	0xbe23fb3e	-0.1601381
129	0x3caaaa10	0.020833045
130	0xbc323ed9	-0.010879242
131	0xbd71f3f5	-0.059070546
132	0xbd408826	-0.04700484
133	0xbd70c898	-0.05878505
134	0x3ce977af	0.028499452
135	0x3d6ba6d5	0.05753215
136	0x3bdba7e3	0.0067033633
137	0x3c14d0a5	0.009082948
138	0xbc3d7abc	-0.011564907
139	0xbd8341eb	-0.06409057
140	0x3a6054ce	0.0008557559
141	0xbcb1fd7a	-0.021727312
142	0x3c32d880	0.010915875
143	0x3cedde44	0.029036649
144	0x3d9ca095	0.07647816
145	0x3dc2fdaa	0.09521039
146	0x3d8e0d07	0.069360785
147	0x3db707d1	0.08937038
148	0x3e485e6e	0.19567272
149	0x3da0c7e5	0.07850627
150	0x3d605c71	0.05477566
151	0x3e31198a	0.17294899
152	0x3d962c4a	0.07332666
153	0xbdf8c5bf	-0.12147092
154	0x3c530ddb	0.012881721
155	0x3e1ee7ed	0.1551816
156	0xbc47b57a	-0.0121892635
157	0xbe1b5160	-0.15167761
158	0x3ca85f27	0.020553185
159	0xbd42bffc	-0.04754637
160	0x3c9e53c7	0.019327058
161	0xbe5130c0	-0.20428753
162	0x3d777c17	0.060421076
163	0xbe135f16	-0.14391741
164	0x3cb7b61e	0.022425707
165	0xbdd8c8a7	-0.105851464
166	0xbdd47d1b	-0.103754245
167	0x3b2eece4	0.002669149
168	0xbe1e095c	-0.15433258
169	0xbdf73864	-0.120713025
170	0xbd2e7307	-0.042590167
171	0xbc841f77	-0.016128285
172	0x3dbb1954	0.0913569
173	0xbbda0af7	-0.006654139
174	0x3cd846d0	0.026400954
175	0x3c744579	0.014909142
176	0x3b7dcd70	0.0038727187
177	0x3c18cfee	0.009326918
178	0x3d32788f	0.043572005
179	0xbd87b4ef	-0.06626307
180	0xbe825d44	-0.2546178
181	0x3cf1ff96	0.029540818
182	0x3e813ca6	0.25241584
183	0xbe7cc909	-0.24686064
184	0xbdc8b4f2	-0.098001376
185	0x3de49137	0.1116051
186	0x3c9710f5	0.018440703
187	0xbcad4a45	-0.021153579
188	0x3d241faf	0.04006928
189	0xbdccfa41	-0.1000867
190	0xbc857d53	-0.01629511
191	0xbdc7eb7a	-0.097617105
192	0xbd9806c5	-0.07423166
193	0xbe610acb	-0.21976773
194	0xbe97cd16	-0.29648656
195	0xbe0684ee	-0.13136646
196	0xbe8546a6	-0.26030463
197	0xbe9d0807	-0.30670187
198	0x3d7be436	0.061496936
199	0xbc7604a6	-0.015015757
200	0x3cd6b747	0.02621044
201	0x3d755681	0.05989695
202	0x3cff14ed	0.031137908
203	0x3c57e9a2	0.013178261
204	0x3b811578	0.003939327
205	0x3d3775d2	0.044790097
206	0x3d5c684c	0.053810403
207	0xbdc4752c	-0.09592661
208	0x3c053745	0.008130853
209	0x3ca4e910	0.020130664
210	0x3c04f286	0.008114463
211	0x3d0e2c3d	0.034710158
212	0xbe0e5742	-0.13900474
213	0x3e80567e	0.25065988
214	0x3dc6f447	0.09714561
215	0xbde92bad	-0.113852836
216	0xbbbff556	-0.0058581037
217	0xbdbdb295	-0.092625774
218	0xbd46e6bb	-0.048559885
219	0x3e033528	0.12813246
220	0xbde63ce8	-0.11242086
221	0xbe135e4a	-0.14391437
222	0x3d4ca694	0.04996355
223	0xbe826e71	-0.25474885
224	0xbe2c3f6e	-0.16821072
225	0xbd1bfde3	-0.038083922
226	0x3d15646b	0.03647272
227	0x3dfd4cee	0.12368189
228	0xbe3fd589	-0.18733801
229	0x3a8e4a2d	0.0010855846
230	0x3e3d4858	0.18484628
231	0xbd03eb95	-0.03220709
232	0xbd7d3c8c	-0.06182532
233	0x3b95e5c3	0.004574509
234	0x3e4f2fd1	0.20233084
235	0x3d828146	0.06372313
236	0xbe862700	-0.2620163
237	0x3e49e7ac	0.19717282
238	0x3cadf1d8	0.021233484
239	0xbe7c7a22	-0.24655965
240	0x3e40cbfd	0.18827815
241	0xbe5cad70	-0.21550536
242	0xbd87fdb4	-0.06640187
243	0xbdcce8b6	-0.100053236
244	0xbd85436d	-0.06507001
245	0x3d29a02c	0.041412517
246	0xbd173100	-0.036911964
247	0x3db3164e	0.08744489
248	0xbcb56d27	-0.022146774
249	0x3d954b64	0.0728977
250	0x3d1690e1	0.03675926
251	0xbcaa7b7d	-0.020810837
252	0x3c753101	0.014965297
253	0xbd376324	-0.044772282
254	0xbe6d39c5	-0.23166569
255	0x3e8395f1	0.25700334

conv2.conv2d.bias f4 [16]
0	0x3d8b70b7	0.06808608
1	0x3d0807a8	0.033210427
2	0xbdc8514d	-0.09781132
3	0x3dc987a0	0.098403215
4	0x3d1151db	0.035478454
5	0xbd87e6aa	-0.066357926
6	0xbc996597	-0.0187252
7	0x3dc60186	0.09668259
8	0xbda377bd	-0.07981823
9	0xbdc44944	-0.09584287
10	0x3e342c9d	0.17595144
11	0x3d454c67	0.048168566
12	0xbddbcef7	-0.10732835
13	0xbc8f6053	-0.017501986
14	0x3e02ec33	0.12785415
15	0x3d6aa25a	0.057283737

in2.weight f4 [16]
0	0x3f190f4c	0.59788966
1	0x3f20f64a	0.6287581
2	0x3f15f3d3	0.5857517
3	0x3ebfe54d	0.3747963
4	0x3f135791	0.5755549
5	0x3f2745a9	0.6534067
6	0x3f060342	0.5234872
7	0x3e93f85f	0.2890043
8	0x3f2c8865	0.6739562
9	0x3f20eacc	0.6285827
10	0x3f1d6c21	0.61493117
11	0x3f38ffb9	0.722652
12	0x3f166727	0.5875115
13	0x3f04a1f4	0.5180962
14	0x3e84329a	0.25819856
15	0x3eec5507	0.4615862

in2.bias f4 [16]
0	0xbe21e991	-0.15811755
1	0xbe1db30f	-0.15400337
2	0x3eb68323	0.35646924
3	0x3e17e964	0.14835125
4	0xbd4c2fcb	-0.049850266
5	0xbe163e90	-0.14672303
6	0x3b8293f7	0.003984924
7	0x3e768865	0.24075468
8	0xbe920618	-0.28520274
9	0xbeaa5674	-0.33269083
10	0xbbd83745	-0.0065983855
11	0xbe8a6b65	-0.2703506
12	0xbde4d8cd	-0.11174164
13	0xbeb385c9	-0.35063007
14	0x3eb81940	0.35956764
15	0x3d653ac4	0.055964246

conv3.conv2d.weight f4 [32, 16, 3, 3]
0	0xbd60ff9e	-0.054931276
1	0xbc3388f1	-0.010957942
2	0x3d1411aa	0.03614966
3	0xbe62a5a9	-0.22133507
4	0xbde56cfb	-0.11202427
5	0x3a9104a8	0.001106401
6	0xbe29df48	-0.16589081
7	0xbe64cbda	-0.22343388
8	0xbddac3c2	-0.10681869
9	0xbd57b91b	-0.052666765
10	0xbdfbddab	-0.12298139
11	0xbdb484c0	-0.088143826
12	0xbe2771e6	-0.16352043
13	0xbeb5177b	-0.35369477
14	0xbe6238c5	-0.22091968
15	0xbe475f83	-0.19470029
16	0xbe8aa22b	-0.2707685
17	0xbe9ccbb8	-0.30624175
18	0x3dadd4d1	0.08487857
19	0x3d671be7	0.056423094
20	0xbd03d8ff	-0.032189365
21	0xbddbc2a0	-0.10730481
22	0x3dd3bb1d	0.103384234
23	0x3d9758fd	0.0739002
24	0x3d5a949e	0.05336439
25	0x3b7846b6	0.0037883944
26	0x3d0a2677	0.03372809
27	0xbd91c501	-0.07117654
28	0x3d4b52ca	0.0496395
29	0x3d169bba	0.036769606
30	0x3db28268	0.08716279
31	0xbdb060c6	-0.08612208
32	0x3c48552c	0.012227338
33	0x3df373e2	0.11887337
34	0x3d2795ac	0.040914223
35	0xbded018e	-0.11572562
36	0x3d31b89c	0.043388948
37	0x3c266569	0.010156014
38	0x3e2d8b91	0.16947772
39	0xbe0efa86	-0.13962755
40	0xbebb53c9	-0.3658736
41	0xbe0ac97d	-0.13553424
42	0xbe3ec5b7	-0.1863011
43	0xbe9bc8c3	-0.30426607
44	0xbe5a4fd4	-0.21319515
45	0x3dbc951d	0.092081286
46	0x3dc6b9d1	0.097034104
47	0x3e2a1208	0.16608441
48	0xbe07995a	-0.13242093
49	0x3d06854c	0.032841966
50	0x3e045ca0	0.12925959
51	0xbe2cb347	-0.16865264
52	0xbe3bf7ac	-0.18356198
53	0xbc352527	-0.011056221
54	0x3ddc4a70	0.10756385
55	0x3d8411fb	0.06448742
56	0xbc9537e0	-0.01821512
57	0x3cb3ac41	0.021932723
58	0xbe0262c7	-0.12732993
59	0xbd98a868	-0.07453996
60	0xbe1fcd48	-0.15605652
61	0xbcd97a0a	-0.02654745
62	0xbe42a410	-0.19007897
63	0xbda63a3b	-0.08116575
64	0xbdeda73e	-0.116041645
65	0xbc11b54a	-0.00889332
66	0x3ce61905	0.028088102
67	0x3b3c0133	0.0028687238
68	0x3e09e555	0.1346639
69	0xbb162239	-0.0022908582
70	0x3d34959e	0.044088
71	0x3d8c5dc2	0.068538204
72	0x3cf7c064	0.030243106
73	0x3dbda061	0.092591055
74	0x3dc13622	0.09434153
75	0x3d163466	0.036671065
76	0x3d45aefd	0.048262585
77	0xbc0cdca6	-0.008597529
78	0xbe3f2d34	-0.18669587
79	0xbe2e9813	-0.17050199
80	0xbc12ca29	-0.008959332
81	0x3d851ad3	0.06499257
82	0x3dbc3c64	0.09191206
83	0x3d4c55df	0.04988658
84	0x3ddf17de	0.10893224
85	0x3d2fe942	0.04294706
86	0xbdcb22b7	-0.09918731
87	0x3d0c3786	0.03423264
88	0xbe5b6ae8	-0.214275
89	0xbd087db7	-0.033323016
90	0xbd0efd09	-0.034909282
91	0xbda8f1df	-0.08249258
92	0x3c7d1084	0.015445832
93	0xbcda0ed5	-0.0266184
94	0x3c6c5b71	0.014426098
95	0xbd035ba0	-0.032069802
96	0x3d1175b4	0.03551264
97	0xbd190cf9	-0.037365887
98	0x3d684b93	0.0567127
99	0x3b92a311	0.0044750054
100	0xbd4a95b2	-0.049459167
101	0xbdda5071	-0.10659874
102	0xbd29a1ea	-0.04141418
103	0xbdde7a07	-0.108631186
104	0xbe5a3703	-0.21310048
105	0x3d0f1650	0.03493339
106	0xbe188dd6	-0.14897856
107	0xbc680b7f	-0.014162897
108	0x3dd29a73	0.10283365
109	0xbd66097e	-0.056161396
110	0x3c089f1d	0.008338717
111	0x3d64eed8	0.05589184
112	0xbcd0a466	-0.025469016
113	0xbd096a40	-0.033548594
114	0xbd13790b	-0.036004107
115	0xbdd9520f	-0.106113546
116	0xbd9be426	-0.07611875
117	0x3d068881	0.032845024
118	0x3e042199	0.12903441
119	0x3d119b2d	0.035548378
120	0x3c7229cd	0.014780474
121	0xbdb7ff54	-0.08984247
122	0x3d091bdc	0.033473834
123	0x3d6f3b72	0.0584063
124	0xbbd3d99e	-0.006465151
125	0xbdca6c85	-0.0988398
126	0x3d231423	0.039814126
127	0xbcd70002	-0.02624512
128	0xbe262733	-0.16225891
129	0xbd6f323a	-0.05839751
130	0xbd677d76	-0.056516133
131	0x3ccea861	0.025226774
132	0x3d6f2519	0.05838499
133	0xbd8c7d88	-0.06859881
134	0xbc4756ca	-0.012166688
135	0xbb2a7a04	-0.0026012668
136	0xbb064ce3	-0.0020492605
137	0x3c4dcb23	0.012560639
138	0x3cd1688b	0.025562545
139	0x3e31744d	0.17329521
140	0x3e3d2c57	0.18473946
141	0x3d99288e	0.07478438
142	0x3c0beeec	0.00854085
143	0x3dc0edc9	0.09420354
144	0xbd92228b	-0.07135495
145	0xbd319a36	-0.043359958
146	0x3b76bfdc	0.0037650978
147	0xbdf7e88d	-0.121049024
148	0xbaa33e8b	-0.0012454552
149	0xbd96dcc7	-0.07366329
150	0xbdc4b460	-0.09604716
151	0xbde133b6	-0.10996191
152	0x3c6c1ed5	0.014411648
153	0xbe2607c2	-0.16213897
154	0xbd995481	-0.07486821
155	0xbca9740a	-0.020685215
156	0xbd14c214	-0.0363179
157	0x3d77df4e	0.060515694
158	0x3d9920be	0.07476948
159	0xbd606a86	-0.05478909
160	0x3de83a97	0.113393
161	0xbd70b2ba	-0.058764197
162	0x3e3ae916	0.18252978
163	0x3da4aa02	0.08040239
164	0xbccc5036	-0.024940591
165	0x3db9cc6e	0.09072195
166	0xbdc20d7f	-0.094752304
167	0xbe126bad	-0.14298888
168	0xbd81fbe3	-0.06346872
169	0xbe057353	-0.13032274
170	0xbd8eec8d	-0.06978712
171	0xbe14d94e	-0.1453602
172	0x3df59163	0.11990621
173	0x3ddcb6b2	0.10777034
174	0xbdd7b2d1	-0.105321534
175	0x3e534d82	0.20635036
176	0xbe44e01f	-0.1922612
177	0xbd9c3554	-0.07627359
178	0xbda03876	-0.07823269
179	0x3d35c170	0.04437393
180	0xbcb7b237	-0.022423847
181	0xbe0aebcb	-0.1356651
182	0xbdac1182	-0.08401777
183	0xbe18379f	-0.14864968
184	0x3cfcc484	0.030855425
185	0xbd3b40c3	-0.04571606
186	0xbd506ff6	-0.050888024
187	0xbce23116	-0.027611297
188	0xbd2ab113	-0.041672777
189	0x3cb93ec8	0.022612944
190	0xbc2da802	-0.010599138
191	0xbd0fb923	-0.03508867
192	0x3d470ab6	0.0485942
193	0x3d04cab8	0.03241989
194	0xbc9bb10b	-0.01900532
195	0xbcef9e90	-0.029250413
196	0x3d8d3bb6	0.068961546
197	0x3d54cfd6	0.05195602
198	0xbe6d0c43	-0.23149209
199	0xbcbfa95c	-0.023396187
200	0xbcc843ce	-0.024446394
201	0xbde9f844	-0.11424306
202	0x3dd9dc7d	0.10637758
203	0x3dbdd2c0	0.09268713
204	0x3d2a3c50	0.041561425
205	0x3dace39b	0.0844185
206	0x3d0fdb03	0.035120975
207	0x3aa0b257	0.0012260181
208	0x3e387b41	0.18015768
209	0x3e17497d	0.14774127
210	0x3df8364e	0.12119733
211	0x3ca00a2f	0.019536106
212	0xbe6c981c	-0.231049
213	0x3c95ce72	0.018286917
214	0xbe081d7b	-0.13292496
215	0xbce1dd5c	-0.027571373
216	0xbe3eb1bb	-0.18622486
217	0x3cde73e0	0.027154863
218	0x3d6edd83	0.05831672
219	0x3c81446f	0.015779702
220	0x3e80f5aa	0.25187427
221	0xbd870702	-0.065931335
222	0x3dd80be8	0.10549146
223	0xbdd861b5	-0.10565511
224	0xbd423c76	-0.04742094
225	0xbe04967c	-0.1294803
226	0x3d7c6243	0.061617147
227	0xbca1c2cb	-0.019746205
228	0x3cd52294	0.026017465
229	0x3dca8b14	0.09889808
230	0x3e08b6fd	0.13351054
231	0x3cd67084	0.026176699
232	0x3e78a3d8	0.24281251
233	0x3d5c12eb	0.05372898
234	0x3d3a856f	0.04553741
235	0xbce72aaf	-0.028218595
236	0xbd8d1d1e	-0.06890319
237	0xbdd9791e	-0.106188044
238	0x3dabb83e	0.08384751
239	0x3d1d4dbe	0.03840422
240	0xbd8c35cd	-0.06846199
241	0x3be6e92f	0.0070468406
242	0xbb3920a0	-0.0028248206
243	0xbddec2d9	-0.10877008
244	0x3e148a32	0.14505842
245	0xbc79a122	-0.015236171
246	0x3e16a770	0.1471231
247	0x3e33b403	0.17549138
248	0xbddf94ef	-0.10917079
249	0x3c4ba3ba	0.012429172
250	0xbe1d429b	-0.15357439
251	0xba84e6b8	-0.001013956
252	0xbd03d799	-0.03218803
253	0x3d5bc8b1	0.05365819
254	0xbd9a0621	-0.075207
255	0x3cd15ef1	0.025557967

conv3.conv2d.bias f4 [32]
0	0xbe27aa66	-0.16373596
1	0xbd57c763	-0.052680384
2	0x3d9b8bc9	0.07595021
3	0x3e37cbc5	0.17948826
4	0xbcdd6f0a	-0.027030487
5	0x3d805e28	0.06267959
6	0x3e0f86b2	0.14016226
7	0x3e1ea8bd	0.15494056
8	0xbdacd1f4	-0.08438483
9	0x3d82b216	0.063816234
10	0x3df9c424	0.12195614
11	0xbdf5d361	-0.12003208
12	0xbc87c999	-0.016575621
13	0xbc6ec332	-0.014572905
14	0xbd829d85	-0.06377701
15	0xbcdfc32b	-0.027314743
16	0xbd447ed5	-0.04797252
17	0x3dbc5392	0.09195627
18	0xbd5cd1a2	-0.05391086
19	0xbda3364f	-0.07969343
20	0x3ddf3f59	0.109007545
21	0xbdce7dd5	-0.10082594
22	0x3d9b5db9	0.075862356
23	0x3e128cfd	0.14311595
24	0xbd8857a8	-0.06657344
25	0x3da13fdd	0.07873509
26	0x3db9db56	0.09075038
27	0x3e42c3ea	0.19020048
28	0xbb141ca0	-0.002260007
29	0xbd50e831	-0.051002685
30	0x3de7cafa	0.113180116
31	0x3d1d9482	0.038471706

in3.weight f4 [32]
0	0x3eefdeed	0.46849766
1	0x3ee6efac	0.4510473
2	0x3ec97084	0.39343655
3	0x3ee94504	0.45560467
4	0x3eb8dc7e	0.36105722
5	0x3f045dc3	0.5170557
6	0x3ede83be	0.43459886
7	0x3ee67295	0.45009294
8	0x3ed84b5f	0.42245004
9	0x3f01f286	0.50760686
10	0x3ecf2d7d	0.40464392
11	0x3f043572	0.5164405
12	0x3ede9482	0.43472677
13	0x3f170e30	0.59006023
14	0x3ebaffa5	0.36523166
15	0x3efee9b2	0.4978767
16	0x3f06d192	0.5266353
17	0x3eda094a	0.42585212
18	0x3ef19b19	0.47188643
19	0x3eba48c5	0.36383644
20	0x3eddb708	0.43303704
21	0x3f01b11e	0.50660884
22	0x3ebf0d7f	0.37314984
23	0x3f036448	0.5132489
24	0x3ec78995	0.38972154
25	0x3ef883b8	0.48537993
26	0x3f015d44	0.5053294
27	0x3ed1f56e	0.4100756
28	0x3ed06b32	0.40706784
29	0x3ebdf581	0.37101367
30	0x3ed5fbd1	0.41793683
31	0x3ec65ccd	0.38742676

in3.bias f4 [32]
0	0xbdf0188b	-0.11723431
1	0xbce7e877	-0.02830909
2	0x3da0d778	0.078535974
3	0xbd133507	-0.035939243
4	0xbdee81a7	-0.11645823
5	0xbdabe859	-0.08393926
6	0xbe0294d0	-0.1275208
7	0xbe4d86b9	-0.20070924
8	0xbd7c82e3	-0.06164826
9	0xbd9ca97f	-0.07649516
10	0xbd97b566	-0.07407646
11	0xbd3821b1	-0.044954006
12	0xbe0e1c71	-0.13878037
13	0xbe84dbec	-0.25949037
14	0x3d9f6eab	0.0778478
15	0xbe119f2b	-0.14220874
16	0xbe264bf1	-0.16239907
17	0x3e4548ca	0.19266048
18	0xbea64910	-0.32477617
19	0xbe848dfd	-0.25889578
20	0xbd075655	-0.033041317
21	0xbe7f5c93	-0.24937658
22	0xbe1122ed	-0.1417348
23	0x3e402873	0.1876543
24	0x3d399ff4	0.04531856
25	0xbddd19da	-0.107959464
26	0xbd50946b	-0.050922792
27	0xbd68b8c7	-0.056816842
28	0xbd722f3c	-0.059127077
29	0xbce993a0	-0.028512776
30	0xbe117d64	-0.14207989
31	0xba7ee130	-0.00097228866

resnets.0.conv1.conv2d.weight f4 [32, 32, 3, 3]
0	0xbd317583	-0.04332496
1	0x3b9e001c	0.0048217904
2	0xbd1e3027	-0.03862014
3	0xbd8c4e68	-0.06850892
4	0xbdb937df	-0.0904386
5	0xbd3aa012	-0.04556281
6	0x3d58035c	0.05273758
7	0xbdd4b638	-0.10386318
8	0xbe1e9344	-0.15485865
9	0xbd4637ef	-0.048393186
10	0xbe42bd96	-0.19017634
11	0xbe1cdaa9	-0.15317787
12	0xbe5c06e3	-0.21487002
13	0xbe69f213	-0.2284625
14	0x3e4e9687	0.20174609
15	0xbe31d9c4	-0.17368227
16	0x3d1bbaea	0.038020052
17	0x3cac632e	0.021043386
18	0x3d2be349	0.041964803
19	0xbd5b2ef6	-0.053511582
20	0xbafa0266	-0.0019074201
21	0x3bc6ceb6	0.0060671223
22	0x3d434b99	0.047679517
23	0xbcbe82a7	-0.02325566
24	0x3bb87fd8	0.0056304745
25	0x3c36e3de	0.011162726
26	0x3d99a058	0.07501286
27	0xbcc7dc82	-0.024397139
28	0x3d92b1dd	0.07162831
29	0x3d376c94	0.044781283
30	0x3d4e2d86	0.050336383
31	0xbd6cd671	-0.057821695
32	0xbc633d04	-0.013869528
33	0xbe133f30	-0.14379573
34	0x3d86a70d	0.06574831
35	0xbe0f6fff	-0.14007567
36	0x3cf9d8f6	0.030498963
37	0xbe93fdbb	-0.28904518
38	0xbe0a3805	-0.13497932
39	0x3c2d0638	0.010560565
40	0xbb8d240c	-0.0043072756
41	0xbe56644e	-0.209367
42	0xbd2e7577	-0.042592492
43	0x3c833596	0.016016763
44	0xbd06fab8	-0.032953948
45	0xbda8d269	-0.082432576
46	0x3d7d5090	0.06184441
47	0x3d153591	0.036428038
48	0x3b82b01f	0.0039882804
49	0xbd4c7f86	-0.049926303
50	0x3d927fe9	0.07153303
51	0x3d3273fa	0.043567635
52	0xbcde8018	-0.02716069
53	0x3d42a65f	0.047521945
54	0xbdacf865	-0.08445815
55	0xbc0b9c6b	-0.00852118
56	0x3b964274	0.0045855585
57	0xbd75b56c	-0.05998747
58	0xbe1fbf0b	-0.15600221
59	0xbd1af5f3	-0.03783221
60	0xbd3c7600	-0.04601097
61	0xbcb1cac8	-0.021703139
62	0xbe39784d	-0.18112297
63	0xbd987b8d	-0.074454404
64	0xbd575c9b	-0.05257855
65	0xbdcd0453	-0.100105904
66	0xbcb486b8	-0.022036895
67	0x3d000b1b	0.03126059
68	0xbde55da2	-0.111995
69	0xbdb973d3	-0.09055295
70	0xbe4e982e	-0.2017524
71	0xbe47afa2	-0.19500592
72	0xbb15ce5d	-0.0022858598
73	0xbd57b26c	-0.05266039
74	0xbd3a04b6	-0.04541465
75	0x3d8f6ef1	0.07003582
76	0xbdacf150	-0.08444464
77	0x3d2eb2ed	0.042651106
78	0x3dbdea2e	0.09273182
79	0xbcd3e1b8	-0.025864467
80	0xbd435b5e	-0.047694556
81	0xbdb557ff	-0.088546745
82	0x3c15c821	0.009141953
83	0xbcd52ad6	-0.026021402
84	0x3d5c7860	0.053825736
85	0x3d1e8a83	0.038706314
86	0x3d982647	0.07429176
87	0x3db8d03e	0.09024094
88	0xbc816dfc	-0.015799515
89	0x3c982ec4	0.018576987
90	0x3d411710	0.047141135
91	0xbd6a2a86	-0.05716946
92	0xbddcad57	-0.107752495
93	0xbc37bd5c	-0.01121458
94	0x3d169429	0.03676239
95	0xbae6203f	-0.0017557218
96	0xbdc0340c	-0.09384927
97	0xbc19bc56	-0.009383282
98	0xbd6c05f5	-0.05762287
99	0xbc877240	-0.01653397
100	0x3d309943	0.04311491
101	0xba98f238	-0.0011668867
102	0xbc2e8f33	-0.010654259
103	0x3b819b2e	0.0039552664
104	0xbe04a6e8	-0.12954295
105	0xbd12c257	-0.03582987
106	0xba5ed40f	-0.0008500227
107	0xbd4e6d31	-0.0503971
108	0x3c719169	0.014744141
109	0xbca5fbb5	-0.020261625
110	0x3d4102df	0.04712188
111	0xbda01da6	-0.07818155
112	0xbd19b2c5	-0.037524004
113	0x3cba3790	0.022731572
114	0xbde178b7	-0.11009353
115	0xbd89326a	-0.06699069
116	0xbdcd95e4	-0.10038355
117	0x3dcfea7e	0.10152148
118	0xbc4a129e	-0.01233354
119	0xbc8a8c97	-0.016912742
120	0xbb956a18	-0.0045597665
121	0xbd9ea8ce	-0.07747041
122	0xbe4a3a18	-0.19748724
123	0x3b868fb9	0.0041064885
124	0x3c64ea96	0.013971945
125	0xbe6927e8	-0.2276913
126	0xbcdb6bb9	-0.026784765
127	0xbd60c089	-0.054871116
128	0x3d94b1f4	0.07260504
129	0x3e61ec54	0.22062808
130	0xbe20663c	-0.15664
131	0xbdc84704	-0.0977917
132	0xbc83a803	-0.016071325
133	0x3b203923	0.0024448119
134	0xbd73aa74	-0.05948873
135	0x3cd378db	0.025814464
136	0xbe2cdbc3	-0.16880707
137	0xbdd94aeb	-0.106099926
138	0xbd4cb023	-0.049972665
139	0xbd4cd4cc	-0.050007626
140	0xbd8d752d	-0.06907115
141	0xbdd33e66	-0.10314636
142	0xbe37368f	-0.17891906
143	0xbd28642e	-0.041111164
144	0xbcd731bb	-0.02626883
145	0x3d39dce8	0.04537669
146	0x3cb43c30	0.022001356
147	0x3bef31ec	0.0072996523
148	0xbd931a6e	-0.071827754
149	0xbe09f6a5	-0.13472994
150	0xbcfc65d6	-0.030810278
151	0x3ce231a5	0.027611563
152	0xbdc9834a	-0.098394945
153	0x3c993525	0.0187021
154	0xbdd88a0a	-0.10573204
155	0xbd1bd78b	-0.038047355
156	0xbcf9b73f	-0.030482886
157	0x3c22bc51	0.009932593
158	0xbe41c9d0	-0.18924642
159	0xbd0e81a6	-0.03479161
160	0xbd5ee168	-0.054414183
161	0x3c0ed6a3	0.008718166
162	0xbce9326c	-0.028466426
163	0x3d78a6c5	0.06070592
164	0x3ca5030f	0.02014306
165	0xbdb013ec	-0.0859755
166	0xbdc7a86a	-0.09748919
167	0xbd2cc515	-0.04218014
168	0x3db859df	0.090015166
169	0xbd70e46b	-0.058811586
170	0xbc322ac2	-0.010874452
171	0xbe418269	-0.18897404
172	0xbe48d05a	-0.1961073
173	0xbe096efa	-0.1342124
174	0xbe22852b	-0.15871112
175	0xbdd9c9a2	-0.106341615
176	0xbe124b42	-0.14286521
177	0xbe636bdc	-0.22209114
178	0xbdcc67c4	-0.09980729
179	0xbdef41d1	-0.11682475
180	0x3b8a879b	0.004227591
181	0x3d39b987	0.04534295
182	0x3d607520	0.0547992
183	0x3da89f5c	0.082335204
184	0xbe004e5a	-0.12529889
185	0xbd4d469b	-0.050116163
186	0x3d84e55f	0.064890616
187	0xbd4bf0ba	-0.04979012
188	0x3ae4608c	0.0017423793
189	0xbd00c042	-0.03143335
190	0xbb95be53	-0.0045698076
191	0x3da224aa	0.07917149
192	0xbd81ad9e	-0.06331943
193	0xbd57e99d	-0.052713025
194	0xbdc1beb2	-0.094602
195	0xbd41f1b3	-0.047349643
196	0xbb79f14c	-0.003813821
197	0x3cd6ed73	0.026236271
198	0xbdf5f2cb	-0.120092
199	0xbc8db695	-0.017298976
200	0xbde8723b	-0.11349913
201	0xbe229326	-0.15876445
202	0xbdde632b	-0.108587585
203	0xbeab3c81	-0.33444598
204	0xbd634067	-0.05548134
205	0xbdd75f72	-0.105162516
206	0xbe0c8ac8	-0.13724816
207	0xbbab9855	-0.0052366653
208	0x3db1c20b	0.08679589
209	0x3d17942e	0.03700655
210	0xbd0de421	-0.03464139
211	0xbde119a2	-0.10991217
212	0xbdb2cd70	-0.0873059
213	0x3d936e37	0.07198756
214	0xbd886a3a	-0.06660886
215	0xbc441598	-0.011968039
216	0x3a9d542e	0.0012003237
217	0xbd835906	-0.06413464
218	0x3d2343a7	0.03985944
219	0x3d889658	0.06669301
220	0x3c84035b	0.016114881
221	0xbe866679	-0.26250055
222	0x3daf205b	0.08551093
223	0xbdc3f07e	-0.095673546
224	0x3d308c57	0.04310259
225	0x3c38df6c	0.011283737
226	0x3d3ef10a	0.04661659
227	0x3d52ab35	0.051432807
228	0xbd341e79	-0.043974373
229	0xbbbccc27	-0.0057616415
230	0xbc02d901	-0.007986308
231	0xbc03ff07	-0.008056409
232	0xbd2f6a07	-0.042825725
233	0xbdb49a41	-0.08818484
234	0xbc14b3f1	-0.0090761045
235	0x3da8635a	0.08222075
236	0x3ce13ddd	0.027495319
237	0xbe0c26fd	-0.13686748
238	0xbdf4bd2b	-0.119501434
239	0x3d9dae14	0.076992184
240	0xbe143512	-0.1447337
241	0xbcb50016	-0.022094768
242	0xbc16c26c	-0.009201627
243	0xbdde0ff3	-0.10842886
244	0xbe137165	-0.14398725
245	0xbcae4c1d	-0.021276528
246	0xbe2678ae	-0.16256973
247	0xbbb79230	-0.0056021437
248	0x3e3b0485	0.18263443
249	0xbd86e166	-0.0658596
250	0x3d6efb64	0.058345214
251	0x3b680214	0.003540163
252	0xbdfc6ed7	-0.123258285
253	0xbda0a285	-0.07843498
254	0xbdbd0ef3	-0.09231367
255	0xbd518499	-0.051151846

resnets.0.conv1.conv2d.bias f4 [32]
0	0xbbeddcfb	-0.007259009
1	0xbc801a95	-0.015637675
2	0x3d468f14	0.048476294
3	0x3d66a3dc	0.056308612
4	0x3d59c954	0.053170517
5	0xbd23554e	-0.039876275
6	0x3d5a5e79	0.053312752
7	0xbca50628	-0.020144537
8	0x3dd29c28	0.10283691
9	0xbcdaf3de	-0.026727613
10	0x3d814e04	0.063137084
11	0x3d9ff98e	0.07811271
12	0x3d67187d	0.05641984
13	0xbcbbbfc0	-0.022918582
14	0x3deb1eaa	0.11480458
15	0xbe52aee9	-0.20574535
16	0x3cce156e	0.025156703
17	0xbde8d84b	-0.113693796
18	0x3d7043bc	0.058658347
19	0xbe3052c0	-0.17219067
20	0xbdab2e19	-0.08358402
21	0x3e627c9a	0.22117844
22	0xbcfd582f	-0.030925838
23	0xbe2230f5	-0.15838988
24	0x3dc709aa	0.0971864
25	0x3e04b0d8	0.12958086
26	0x3e28d111	0.16486003
27	0xbe88ebba	-0.26742345
28	0x3e49ca97	0.19706188
29	0xbc2a651b	-0.010400082
30	0x3dca68a1	0.09883238
31	0xbd50091f	-0.05078995

resnets.0.in1.weight f4 [32]
0	0x3f708032	0.9394561
1	0x3f485ae2	0.78263676
2	0x3f79cd9d	0.97579366
3	0x3f4b14a1	0.7932835
4	0x3f9448fd	1.1584774
5	0x3f599caa	0.85004675
6	0x3f74e134	0.9565613
7	0x3f4974d5	0.78693897
8	0x3f826443	1.0186847
9	0x3f75b839	0.95984226
10	0x3f769128	0.9631524
11	0x3f686953	0.9078571
12	0x3f906a30	1.1282406
13	0x3f8551c7	1.0415581
14	0x3f4ffb6a	0.81243
15	0x3f5e4cab	0.86835736
16	0x3f8217fa	1.0163567
17	0x3f4f9355	0.81084186
18	0x3f73fbbf	0.9530601
19	0x3f5ae415	0.85504276
20	0x3f87c93e	1.0608289
21	0x3f8cf6c5	1.1012808
22	0x3f89bc31	1.0760556
23	0x3f813736	1.0094974
24	0x3f7410d5	0.95338184
25	0x3f8c60d6	1.0967052
26	0x3f82a575	1.0206743
27	0x3f71c4e3	0.9444105
28	0x3f8ce829	1.100835
29	0x3f88a12b	1.0674185
30	0x3f828527	1.0196885
31	0x3f824e2b	1.0180105

resnets.0.in1.bias f4 [32]
0	0x3cdb2010	0.026748687
1	0x3ea39be5	0.31954876
2	0x3cb81b28	0.022473887
3	0x3e1bd0f9	0.15216435
4	0xbe3ab55a	-0.18233243
5	0xbdc420a8	-0.09576541
6	0xbe109575	-0.14119513
7	0x3e8559cf	0.2604508
8	0xbd8bba17	-0.06822603
9	0x3e522ec4	0.20525652
10	0xbf05ccee	-0.5226582
11	0xbda41872	-0.08012475
12	0xbe780d30	-0.2422378
13	0x3d84bada	0.064809516
14	0xbb89f548	-0.004210148
15	0xbd9867e2	-0.07441689
16	0xbd19bdc5	-0.037534494
17	0x3ebab88a	0.36468917
18	0xbdebe422	-0.11518122
19	0x3a03e501	0.00050313777
20	0xbef88dbb	-0.48545632
21	0xbbe81c29	-0.007083435
22	0xbdfb2c11	-0.122642644
23	0x3da63ed7	0.081174545
24	0x3d3d7471	0.046253625
25	0x3c9f7608	0.019465461
26	0x3ddc4f7b	0.10757347
27	0xbdf30571	-0.11866272
28	0xbf3d7e77	-0.74021095
29	0xbddd6d59	-0.10811872
30	0xbcace78e	-0.021106508
31	0xbe26f837	-0.16305624

resnets.0.conv2.conv2d.weight f4 [32, 32, 3, 3]
0	0x3d631f98	0.055450052
1	0x3da09441	0.07840777
2	0xbc19ecbe	-0.009394823
3	0xbd33a219	-0.04385576
4	0x3dee2e1e	0.1162989
5	0xbc823331	-0.01589355
6	0xbdcdfe37	-0.10058253
7	0x3bebe12b	0.007198473
8	0xbc961d0a	-0.018324394
9	0xbcfb6782	-0.030689005
10	0xbd205436	-0.03914281
11	0xbce46807	-0.027881635
12	0xbba0ec2c	-0.0049109664
13	0x3df85803	0.12126162
14	0x3d587584	0.052846447
15	0xbda83dd1	-0.082149155
16	0xbd4b3700	-0.049613
17	0xbda7d79e	-0.081954226
18	0x3ce48cf3	0.027899241
19	0x3bcafb65	0.0061945193
20	0x3de20b72	0.11037339
21	0xbd094ceb	-0.03352062
22	0x3c8a834f	0.016908316
23	0x3d2f4c3d	0.042797316
24	0xbd91e0ff	-0.07122993
25	0xbd813e73	-0.06310739
26	0x3d521c11	0.051296297
27	0x3d95ad84	0.07308486
28	0x3d1e74f9	0.038685773
29	0xbc894e9b	-0.016761115
30	0x3e0f8a95	0.14017709
31	0x3da48253	0.0803267
32	0x3c930e50	0.01795116
33	0x3d55f573	0.05223603
34	0xbd3fefdb	-0.046859603
35	0x3dadb4d2	0.08481754
36	0xbca15999	-0.019696044
37	0x3e2447e1	0.16043045
38	0xbc8b71cc	-0.017022036
39	0xbce341de	-0.027741369
40	0x3cb3b01b	0.02193456
41	0xbd50b5b8	-0.05095455
42	0xbe32af13	-0.17449598
43	0xbe1a0c65	-0.1504379
44	0xbe1a15bf	-0.15047358
45	0x3d1b2517	0.03787717
46	0x3d892b61	0.06697727
47	0xbd699423	-0.05702604
48	0xbd910aac	-0.070821136
49	0xbceb0347	-0.028688086
50	0xbd126117	-0.035737123
51	0xbd3cca6e	-0.04609149
52	0xbd858b08	-0.06520659
53	0xbd8511ef	-0.06497561
54	0xbdd12616	-0.102123424
55	0xbdc99761	-0.09843326
56	0xbdcc11f5	-0.099643625
57	0x3d81fb66	0.063467786
58	0x3d87be7e	0.066281304
59	0xbca19b20	-0.01972729
60	0xbda993d0	-0.08280146
61	0x3c6cb4ab	0.0144473715
62	0xbd3438f3	-0.043999624
63	0xbe06ba2b	-0.13156955
64	0x3cd8e61d	0.026476914
65	0x3e1199c6	0.14218816
66	0x3db1159b	0.08646699
67	0x3d379944	0.0448239
68	0x3e8776c4	0.26457798
69	0x3ac6d33d	0.0015169155
70	0x3dacf36b	0.08444866
71	0xbbc595ad	-0.0060298056
72	0xbdda6f7b	-0.106657945
73	0xbd1dedd9	-0.038556907
74	0xbd65ca91	-0.056101386
75	0x3c0d4e90	0.008624688
76	0x3e12e90e	0.14346716
77	0x3c79d6bc	0.015248951
78	0xbd2b46bd	-0.04181551
79	0x3da815b3	0.08207264
80	0x3d1e139a	0.038592912
81	0xbd43c0c2	-0.04779125
82	0x3d72b5db	0.059255462
83	0xbdc89817	-0.09794634
84	0xbb1fdd90	-0.0024393536
85	0x3da0ef48	0.07858139
86	0x3ddc1563	0.10746267
87	0xbd865108	-0.06558424
88	0xbb1134bf	-0.0022156683
89	0xbd7a0547	-0.06104019
90	0x3d32dc07	0.043666866
91	0x3dc6d3cc	0.09708366
92	0x3d97871a	0.073988155
93	0x3d085911	0.033288065
94	0x3dd4db1c	0.10393354
95	0x3dcb1300	0.09915733
96	0x3d25e01c	0.04049693
97	0x3db64ec8	0.08901745
98	0x3e1f7c25	0.15574701
99	0x3bd38b02	0.00645578
100	0x3d34897d	0.04407643
101	0xbc342b24	-0.010996614
102	0x3d8f287b	0.06990143
103	0x3e22be2c	0.15892857
104	0x3d240bda	0.040050365
105	0x3e0195b3	0.12654762
106	0x3e03a21d	0.1285481
107	0x3e62bed7	0.22143112
108	0xbcff4ee1	-0.031165542
109	0x3c8351a1	0.016030135
110	0x3dd787dc	0.1052396
111	0xbcba6387	-0.022752536
112	0x3dc2e643	0.09516575
113	0x3b2609a4	0.0025335336
114	0x3da1fd2a	0.07909615
115	0xbcdf77c0	-0.027278781
116	0x3d191e63	0.037382495
117	0xbd33502f	-0.04377764
118	0x3dee8dda	0.1164815
119	0x3c83153d	0.016001338
120	0x3d07b7ca	0.03313426
121	0x3d134ab1	0.035959903
122	0xbcf22270	-0.029557437
123	0xbca145ad	-0.019686544
124	0xbc4dc81a	-0.012559915
125	0xbcdecad5	-0.027196327
126	0x3d8caf30	0.06869352
127	0x3ce4fb21	0.027951779
128	0x3b05685e	0.0020356397
129	0x3db56bb4	0.08858433
130	0x3d7ac204	0.061220184
131	0x3d844ed2	0.06460346
132	0x3cdc3673	0.026881432
133	0xbd1bda0b	-0.03804974
134	0xbd8ece36	-0.06972925
135	0x3d48aa55	0.048990566
136	0x3cbcb6e0	0.02303642
137	0xbb0aec97	-0.0021198147
138	0xbc15e176	-0.009147992
139	0x3c7427b1	0.014902041
140	0xbd8f22b7	-0.06989043
141	0xbd28c312	-0.04120166
142	0xbdb45989	-0.0880614
143	0xbdacf79a	-0.08445664
144	0xbd951228	-0.07278854
145	0x3df42182	0.119204536
146	0x3d42bcb1	0.04754323
147	0x3c8eb23b	0.017418971
148	0x3ce158dc	0.027508192
149	0xbdae4ca8	-0.08510715
150	0xbd3133f3	-0.043262433
151	0xbc111d3e	-0.00885707
152	0xbdc84e9d	-0.09780619
153	0x3db2b33e	0.08725594
154	0x3d4debc8	0.050273687
155	0x3de78556	0.11304729
156	0xbd0f69a5	-0.03501286
157	0xbd861291	-0.0654651
158	0x3d4ceee1	0.0500325
159	0xbda85e98	-0.08221167
160	0xba15fd80	-0.00057216734
161	0xbd47f637	-0.048818793
162	0xbbf558c5	-0.007487389
163	0xbbfd8288	-0.007736508
164	0x3c830cad	0.015997255
165	0x3cf6547b	0.03006958
166	0x3c999f99	0.01875286
167	0x3d9f37a0	0.077742815
168	0xbb9519a6	-0.0045501767
169	0xbc15c853	-0.009141999
170	0x3ccd9f43	0.025100356
171	0xbdaf913e	-0.085726246
172	0xbd8f8d6e	-0.070093974
173	0xbdd9b58a	-0.10630329
174	0xbc904feb	-0.017616233
175	0x3ccf2ad7	0.025288982
176	0xbcbfb8d4	-0.023403563
177	0xbd8d5211	-0.069004185
178	0x3dbb2738	0.0913834
179	0xbbbcf455	-0.0057664313
180	0xbc399fd6	-0.011329612
181	0x3dd10dcc	0.1020771
182	0xbd72f237	-0.059313025
183	0x3d476480	0.04867983
184	0x3d9ebc56	0.07750766
185	0x3d17ce42	0.037061937
186	0xbd0d359b	-0.03447495
187	0x3e254794	0.16140586
188	0xbc296146	-0.010338133
189	0x3d3ab630	0.045583904
190	0x3e53ccbf	0.20683573
191	0x3c7f4cc9	0.015582272
192	0xbd0e7a0f	-0.034784373
193	0x3edaa1ef	0.4270167
194	0x3e1673ff	0.14692686
195	0xbd76d16a	-0.060258307
196	0x3d759cfe	0.059964173
197	0x3ce8ab93	0.028402125
198	0xbe365289	-0.17804922
199	0xbce0cee3	-0.027442401
200	0x3cbf0689	0.023318546
201	0x3d1d0905	0.03833868
202	0x3ce479f3	0.027890181
203	0xbdc9da75	-0.098561205
204	0x3b5d3df7	0.0033758858
205	0x3d512107	0.051056888
206	0xbd65eda1	-0.056134824
207	0x3c75e9ff	0.015009402
208	0xbbc22170	-0.005924396
209	0x3d2ffe69	0.042967234
210	0x3cd421bb	0.02589499
211	0xbdc04954	-0.09388986
212	0xbd64aaec	-0.055827066
213	0xbd871065	-0.06594924
214	0x3d0be4a5	0.0341536
215	0xbd7ed053	-0.062210392
216	0x3d11fbb4	0.035640433
217	0x3d629570	0.055318296
218	0x3d7d9abd	0.061915148
219	0x3dd1a3e5	0.102363385
220	0x3e40e077	0.18835627
221	0x3d2a0cae	0.041516
222	0xbba6c51c	-0.0050894152
223	0x3da37e14	0.07983032
224	0x3d1e0c14	0.038585737
225	0xbd8c0f31	-0.06838835
226	0xbc388d36	-0.011264136
227	0x3d88c66f	0.06678473
228	0xbc477bb9	-0.012175494
229	0x3cee80f1	0.029114218
230	0xbd3e342f	-0.046436485
231	0x3d660e37	0.0561659
232	0x3d3bd56d	0.045857836
233	0xbcd82bd9	-0.026388096
234	0x3da50dd9	0.08059282
235	0xbd9cca7a	-0.07655807
236	0xbdbb6212	-0.09149565
237	0x3d59133a	0.05299685
238	0xbd8146b1	-0.063123114
239	0xbd9ab44d	-0.07553921
240	0xbd91e590	-0.07123864
241	0xbd8ed7c8	-0.06974751
242	0xbe046a93	-0.1293128
243	0xbe168af6	-0.14701447
244	0xbe1f3467	-0.15547334
245	0xbdfad393	-0.12247386
246	0xbe25e3a9	-0.16200127
247	0xbe330256	-0.1748136
248	0xbd1ae69d	-0.037817586
249	0xbde1753c	-0.11008689
250	0xbd9079b8	-0.07054466
251	0xbd91e5ce	-0.0712391
252	0x3d08eb7c	0.0334277
253	0x3e6e2e2a	0.23259798
254	0x3da51ff0	0.08062732
255	0x3d9a21c7	0.07525974

resnets.0.conv2.conv2d.bias f4 [32]
0	0x3bcc481c	0.006234182
1	0xbd82dd4a	-0.06389864
2	0xbd4f3a08	-0.050592452
3	0x3e43a91f	0.19107483
4	0x3df1a863	0.11799695
5	0x3daefe85	0.085446395
6	0x3da7900e	0.08181773
7	0x3cb31c48	0.021864071
8	0x3c5d65e1	0.013513059
9	0xbdd98961	-0.10621906
10	0x3c891277	0.016732438
11	0x3d409091	0.04701287
12	0xbe1b020d	-0.15137501
13	0xbd7a48ce	-0.06110459
14	0x3cb9b732	0.022670362
15	0xbe072785	-0.13198669
16	0xbdf94c13	-0.12172713
17	0x3d6a7fa0	0.05725062
18	0x3cd0fdb6	0.025511604
19	0xbda37a8b	-0.079823576
20	0xbd5e89a0	-0.05433047
21	0x3da43155	0.08017222
22	0x3c3f3bf3	0.011672008
23	0x3d5d2b1f	0.0539962
24	0xbac471a7	-0.0014987484
25	0x3d78508f	0.0606237
26	0xbc55b0ee	-0.013042672
27	0x3cb4bd63	0.022062963
28	0x3cbbbbfe	0.02291679
29	0xbcb6f9a7	-0.02233584
30	0xbdfe1bcf	-0.12407648
31	0x3d93c35d	0.07214997

resnets.0.in2.weight f4 [32]
0	0x3f13d7bb	0.57751054
1	0x3f11912d	0.56862146
2	0x3f142ddb	0.5788247
3	0x3f0ef56a	0.5584322
4	0x3f51b333	0.8191406
5	0x3f336a60	0.7008419
6	0x3f1dac8e	0.6159142
7	0x3effc250	0.49952936
8	0x3f2b6ee4	0.6696608
9	0x3f375bce	0.7162446
10	0x3f341fcb	0.7036101
11	0x3f1ecf9d	0.6203554
12	0x3f14a6f3	0.58067244
13	0x3f221989	0.63320214
14	0x3f1b241c	0.60601974
15	0x3f4a4020	0.79004097
16	0x3f4a543b	0.79034775
17	0x3f28998f	0.6585931
18	0x3f0a8720	0.54112434
19	0x3f2b9cc5	0.67036086
20	0x3f2a21b2	0.66457665
21	0x3f1c62a6	0.61088026
22	0x3f0ef4e9	0.55842453
23	0x3f3b90d1	0.7326785
24	0x3f4aa290	0.791543
25	0x3f3dc92a	0.74135077
26	0x3f2d89f4	0.67788625
27	0x3f23c3aa	0.63970435
28	0x3f2a8b88	0.6661916
29	0x3f29f5f0	0.66390896
30	0x3f2102b2	0.6289474
31	0x3f2ec56c	0.6826999

resnets.0.in2.bias f4 [32]
0	0x3d9be21a	0.07611485
1	0xbd6f16be	-0.058371298
2	0xbd6b293a	-0.057412364
3	0x3d34d28d	0.04414611
4	0x3d6d5439	0.05794165
5	0x3dcc2893	0.099686764
6	0x3df06857	0.11738651
7	0x3cd59b97	0.026075168
8	0xbc352cbe	-0.011058031
9	0xbc7bbd9e	-0.0153650325
10	0xbcbf6fff	-0.023368834
11	0xbd0b93fa	-0.03407667
12	0xbdc090b7	-0.09402602
13	0xbcdc9593	-0.026926791
14	0x3d721410	0.059101164
15	0xbdf913e4	-0.12161997
16	0xbda75b7c	-0.08171746
17	0x3da16acd	0.07881699
18	0x3d0f70e3	0.035019767
19	0xbd3c0c8d	-0.045910407
20	0x3da02ee7	0.07821446
21	0x3db19ffc	0.08673093
22	0xbdc30479	-0.095223375
23	0xbd82c95a	-0.06386061
24	0x3c3c5db7	0.011496953
25	0x3d4f9c89	0.050686393
26	0xbc071cf2	-0.008246647
27	0x3cef42bd	0.029206628
28	0xbd15dcac	-0.036587402
29	0x3d867310	0.06564915
30	0xbcc7f7ab	-0.02441009
31	0x3cdd2780	0.026996374

resnets.1.conv1.conv2d.weight f4 [32, 32, 3, 3]
0	0x3e304e6a	0.17217413
1	0x3e55ef96	0.20892176
2	0x3e2ff44a	0.17183033
3	0x3d5f0d07	0.054455783
4	0xbbcda9d8	-0.0062763505
5	0xbd3cd830	-0.04610461
6	0x3c698628	0.014253177
7	0xbdcd0bb8	-0.10012001
8	0x3d79f705	0.06102659
9	0xbd34bb91	-0.04412419
10	0x3d23f3dc	0.040027484
11	0xbd36e216	-0.044649206
12	0x3ce425ea	0.02785011
13	0xbe06e6cc	-0.1317398
14	0xbdd45157	-0.10367077
15	0xbae33075	-0.0017333167
16	0x3b0f6f3b	0.0021886367
17	0xbda21fcd	-0.07916222
18	0xba8ba1ba	-0.0010653057
19	0x3c21a747	0.009866542
20	0xbc6674c3	-0.014065924
21	0xbd19ed7a	-0.03757999
22	0xbd91ec12	-0.07125105
23	0xbd6f3e65	-0.058409113
24	0xbdfd2c2e	-0.12361942
25	0xbcd910c4	-0.026497252
26	0xbe061a54	-0.13095981
27	0x3ceb2233	0.02870283
28	0x3da6ca0d	0.08144007
29	0x3e2102cc	0.15723723
30	0xbd84148e	-0.06449233
31	0xbd6813aa	-0.056659378
32	0xbd22dd53	-0.039761852
33	0x3d5c2f85	0.053756256
34	0xbd96ca62	-0.0736282
35	0xbe1c03e8	-0.15235865
36	0xbdf64ba4	-0.12026146
37	0xbe260b16	-0.16215166
38	0xbcf926bb	-0.030413976
39	0xbd8109c6	-0.06300692
40	0xbdc3fa44	-0.09569219
41	0xbd964bc9	-0.073386736
42	0xbd9ddb8b	-0.0770789
43	0xbd8d4280	-0.068974495
44	0x3d82bdbf	0.063838474
45	0xbe172d99	-0.14763488
46	0xbe027ec9	-0.12743677
47	0x3c398ee3	0.011325571
48	0xbe31f63e	-0.1737909
49	0x3c4847b7	0.012224129
50	0x3d7d2aaf	0.061808284
51	0xbddefc06	-0.108879134
52	0x3d71d549	0.059041295
53	0x3d8c783b	0.0685887
54	0xbce36a42	-0.027760629
55	0xbe5861b8	-0.21131027
56	0xbdff099d	-0.124530055
57	0x3d39e1ee	0.04538148
58	0xbe326851	-0.17422606
59	0xbe2b7d85	-0.167471
60	0x3dba1991	0.09086908
61	0xbe38d88e	-0.18051359
62	0xbe5be757	-0.21474968
63	0xbe1b03d0	-0.15138173
64	0xbde7bc9a	-0.1131527
65	0xbcc30e60	-0.023810565
66	0xbcf81fb6	-0.030288558
67	0xbd2c34ae	-0.042042427
68	0xbdc71c22	-0.09722163
69	0xbdf43838	-0.119247854
70	0xbdd05071	-0.10171593
71	0xbd0a46d9	-0.03375897
72	0xbe16ed42	-0.14738944
73	0x3c9ac870	0.018894404
74	0xbdc844e9	-0.097787686
75	0x3d84bfc0	0.06481886
76	0x3de52a8c	0.11189756
77	0x3d9eda2c	0.07756457
78	0xbc7ba97f	-0.015360235
79	0x3d9a7ecc	0.07543716
80	0xbcb9f39a	-0.022699166
81	0xbd6aeed2	-0.057356663
82	0xbd933b34	-0.071890265
83	0xbd6a9c21	-0.057277802
84	0xbe2bfcb8	-0.16795623
85	0xbe248d68	-0.16069567
86	0xbc9f81d4	-0.019471087
87	0xbe7cb7de	-0.24679515
88	0xbe40dd82	-0.18834499
89	0xbd8e0af8	-0.06935686
90	0xbdb27593	-0.08713832
91	0xbd273cd8	-0.04082951
92	0x3cc00218	0.023438498
93	0xbe00badf	-0.12571286
94	0xbcf74db6	-0.030188423
95	0x3d825d55	0.06365458
96	0xbd386cb0	-0.045025527
97	0x3a855ccd	0.0010174752
98	0x3e2440d1	0.1604035
99	0xbd88ea7f	-0.066853516
100	0xbc275604	-0.010213379
101	0x3bb16d30	0.0054146275
102	0x3dec3918	0.11534327
103	0x3ca8514a	0.020546574
104	0x3e1a8abd	0.15091987
105	0x3e0805c9	0.13283457
106	0x3df685ec	0.12037262
107	0x3e442a23	0.19156699
108	0x3c20889a	0.009798193
109	0xbdc11770	-0.094282985
110	0xbe015b74	-0.12632543
111	0x3d6e7a03	0.05822183
112	0xbc9c4dc0	-0.019080043
113	0x3d47e475	0.048801858
114	0xbe5c0df6	-0.214897
115	0xbe0a3e32	-0.13500288
116	0x3e1a8745	0.15090664
117	0xbb2d8853	-0.002647896
118	0x3d54a254	0.05191262
119	0xbc5a09b3	-0.013307977
120	0x3d411707	0.0471411
121	0x3d8c91d0	0.06863749
122	0xbce7e2ff	-0.028306482
123	0xbb2f416e	-0.002674188
124	0x3d8ee887	0.06977945
125	0xbd0d3ee8	-0.03448382
126	0x3df7fdbc	0.12108943
127	0x3b9c0022	0.004760758
128	0x3dbf3cae	0.093377456
129	0xbe09f575	-0.1347254
130	0xbe2cb576	-0.16866097
131	0xbb7f4310	-0.0038949884
132	0x3e04e5ca	0.12978283
133	0x3dae9709	0.085249014
134	0x3cc78200	0.024353981
135	0xbcec7f6a	-0.02886935
136	0x3d49d4f9	0.049275372
137	0xbd5b8e3b	-0.05360244
138	0xbc4f3a8c	-0.012648236
139	0xbd7e39bc	-0.06206678
140	0xbd162391	-0.036655013
141	0x3bd09eab	0.006366571
142	0xbc067ca2	-0.008208426
143	0x3d44ee15	0.048078615
144	0xb98b46ff	-0.00026565042
145	0x3cee7384	0.029107817
146	0x3dabd4a1	0.08390165
147	0x3d8f45c3	0.06995728
148	0x3d941167	0.07229882
149	0x3dedd080	0.11612034
150	0x3dd62a9b	0.10457345
151	0x3d910d6f	0.070826404
152	0x3e2a4cda	0.16630879
153	0xbdb3980e	-0.087692365
154	0xbda5f914	-0.081041485
155	0xbe5bb16c	-0.214544
156	0x3d98958f	0.07450401
157	0x3dd36c5a	0.10323401
158	0xbc5447ce	-0.012956573
159	0xbc4e19c3	-0.012579384
160	0xbd133121	-0.035935525
161	0xbd88d2da	-0.06680842
162	0x3e3162c7	0.17322837
163	0x3dd71654	0.105023056
164	0x3cc3cc04	0.023900993
165	0x3c633985	0.013868694
166	0xbde17361	-0.11008335
167	0xbdd61b9d	-0.104544856
168	0x3d858bda	0.06520815
169	0xbd69b747	-0.057059553
170	0xbd3c0004	-0.045898452
171	0xbc55af35	-0.013042261
172	0xbcfc028d	-0.030762935
173	0xbde7aff0	-0.11312854
174	0x3d26de53	0.04073937
175	0xbdd2c195	-0.10290829
176	0xbdf6f51e	-0.12058471
177	0xbd0752fd	-0.03303813
178	0x3cfd3302	0.030908111
179	0x3df6fc1a	0.12059803
180	0xbb79cb84	-0.003811569
181	0xbc3e8c56	-0.011630138
182	0x3d1b966b	0.037985247
183	0xbddeae41	-0.1087308
184	0x3c970f85	0.018440017
185	0xbd328b7e	-0.04359006
186	0x3d78358b	0.060597938
187	0x3dd0f503	0.10202982
188	0x3dc89dfb	0.097957574
189	0x3c0ac464	0.008469675
190	0xbc34db6d	-0.011038643
191	0x3ba45d16	0.0050159795
192	0xbdea4e0e	-0.11440669
193	0xbd18365c	-0.037161216
194	0xbd80c590	-0.06287682
195	0xbb6c736f	-0.0036079546
196	0x3cd4fb4f	0.02599874
197	0xbc990122	-0.018677298
198	0x3d0640b9	0.032776568
199	0xbd80f82d	-0.06297336
200	0xbc9d904a	-0.019233841
201	0xbda0e558	-0.07856244
202	0x3be418e4	0.006960975
203	0xbc99ced1	-0.018775376
204	0x3cba0bed	0.022710765
205	0x3d8d1921	0.068895586
206	0xbda40cf4	-0.08010283
207	0x3b55a21b	0.0032597843
208	0xbd9956f3	-0.07487287
209	0xbcb2f0c5	-0.021843323
210	0xbda5d1c7	-0.080966525
211	0xbdb090f2	-0.08621396
212	0x3d29641c	0.041355237
213	0xbdc24b01	-0.09486962
214	0xbe11576f	-0.1419351
215	0xbdc5b35f	-0.09653353
216	0xbdba6431	-0.09101141
217	0x3cbf1df3	0.02332971
218	0x3d843aa8	0.064565
219	0x3c703698	0.014661454
220	0xbc8be282	-0.01707578
221	0xbe3126e3	-0.1729999
222	0xbcc7081c	-0.024295859
223	0xbd9ad7a7	-0.07560664
224	0xbdd49c53	-0.10381379
225	0xbd0657d7	-0.032798614
226	0xbe330730	-0.1748321
227	0xbe37c0c1	-0.17944624
228	0xbd9f72f1	-0.07785595
229	0xbdf23b14	-0.118276745
230	0xbcdcf425	-0.026971886
231	0x3ce05340	0.027383447
232	0xbc17f4be	-0.00927466
233	0xbd8b2653	-0.06794419
234	0x3cbc25e8	0.022967294
235	0x3dc1cdd7	0.09463089
236	0x3c28afc7	0.010295815
237	0xbb5502d5	-0.0032502909
238	0x3bef1d60	0.007297203
239	0xbcddc641	-0.027072074
240	0xbdab4d68	-0.083643734
241	0xbc25f052	-0.010128098
242	0x3e48f1d4	0.196235
243	0xbc9a1f97	-0.018813891
244	0xbd7f2280	-0.06228876
245	0xbd955b0a	-0.07292755
246	0xbdeb5b31	-0.11492003
247	0xbc8ef0fe	-0.017448898
248	0xbda207aa	-0.07911618
249	0xbd9f1a3b	-0.07768675
250	0x3d280cc0	0.041027784
251	0x3ca577cc	0.020198725
252	0xbd3e898b	-0.04651789
253	0x3cc6e139	0.024277316
254	0xbc66b067	-0.0140801435
255	0xbdad2a44	-0.08455327
