Assets/Style_Transfer/Models/mas estilo/ola e10-512.onnx (onnx, 449372 bytes, 62 tensors)

conv1.conv2d.weight f4 [8, 3, 9, 9]
0	0x3cc871e1	0.024468364
1	0x3d418be7	0.047252562
2	0x3d9f3af8	0.07774919
3	0x3dd48051	0.10376037
4	0x3cb3dc8a	0.021955747
5	0x3cf5b014	0.029991187
6	0xbd69bf1a	-0.057067014
7	0xbb57ae50	-0.0032910295
8	0x3d8f791c	0.07005522
9	0x3df5548c	0.11979017
10	0x3e5262fe	0.20545575
11	0x3d0a47a6	0.033759736
12	0xbdf94f6a	-0.1217335
13	0xbc44cf18	-0.012012266
14	0x3e208790	0.15676713
15	0x3d73b31b	0.05949698
16	0x3c8bd5ef	0.017069785
17	0x3dbd8f41	0.09255839
18	0x3c24b755	0.010053475
19	0x3ce750a6	0.028236698
20	0xbe25a619	-0.16176642
21	0xbeba5f85	-0.36401
22	0xbe54bd77	-0.207754
23	0x3dccf6b6	0.10007994
24	0x3db3f7f3	0.08787527
25	0xbbd68685	-0.0065467977
26	0x3c6eb690	0.0145698935
27	0x3e0f3aed	0.13987322
28	0x3d620dcb	0.055188935
29	0xbeb8a9ce	-0.3606705
30	0xbf10c006	-0.56543005
31	0xbe533fdd	-0.2062983
32	0x3df7be5c	0.12096855
33	0x3e2fbcf3	0.17161922
34	0x3d9d4833	0.076797865
35	0x3d0c22a9	0.034212742
36	0x3e17130a	0.14753357
37	0xbccacef9	-0.024756895
38	0xbeccdba7	-0.4001133
39	0xbefae03d	-0.48999205
40	0xbe29d328	-0.16584456
41	0x3d2a298a	0.04154352
42	0x3d791c18	0.060817808
43	0xbc805724	-0.015666552
44	0x3d930e51	0.07180465
45	0x3d7d6a8b	0.061869185
46	0xbd8fe67d	-0.07026384
47	0xbd5b8a7e	-0.053598873
48	0xbde740d9	-0.112916656
49	0x3cdf223f	0.02723801
50	0xbc8c49f0	-0.0171251
51	0x3d1216ca	0.035666265
52	0xbd1452f1	-0.03621191
53	0xbb895857	-0.004191439
54	0x3e0dce17	0.13848148
55	0x3d1f1c2c	0.038845226
56	0x3de0f43e	0.109840855
57	0x3cd39d79	0.025831925
58	0x3d4a81f4	0.04944034
59	0x3d085117	0.03328046
60	0x3d7f4bbd	0.06232809
61	0xbd73eb02	-0.059550293
62	0x3ce52031	0.027969452
63	0x3cface43	0.030615931
64	0x3db269d2	0.0871159
65	0x3d132f0c	0.03593354
66	0x3d27b95d	0.04094826
67	0x3cdae600	0.026721
68	0x3d39ab39	0.045329306
69	0x3ce7d127	0.028297974
70	0xbd3a98b0	-0.04555577
71	0x3d4d9650	0.050192177
72	0x3d51eec3	0.05125309
73	0x3d9a25ae	0.07526718
74	0xbcb9d08a	-0.022682447
75	0x3da6e57f	0.08149242
76	0x3c2927be	0.010324417
77	0xbcd58cbe	-0.026068088
78	0x3b4b0eb6	0.003098411
79	0x3acddc2a	0.0015705873
80	0x3cd7e9b6	0.02635656
81	0x3ccfd2a2	0.025368992
82	0xbcbb35d3	-0.022852814
83	0x3dd17ee9	0.10229284
84	0x3d77ee08	0.06052974
85	0x3cb8fc92	0.022581372
86	0x3d6111e4	0.054948702
87	0x3a97ee14	0.0011591339
88	0x3dd8b4a0	0.105813265
89	0x3daf3a84	0.08556083
90	0x3da87c88	0.082268775
91	0x3e3721ed	0.17884035
92	0x3cac5889	0.02103831
93	0xbd807e68	-0.0627411
94	0x3b2e1e62	0.0026568403
95	0x3de61283	0.112339996
96	0x3d8204aa	0.06348546
97	0xbca481e4	-0.020081468
98	0xbd527a3c	-0.051386103
99	0xbdaa6270	-0.08319557
100	0x3d494bf6	0.049144708
101	0xbdb6f292	-0.08932985
102	0xbeb97ec9	-0.36229542
103	0xbe172b17	-0.14762531
104	0x3ca9a47e	0.020708319
105	0x3d815417	0.06314867
106	0xbd575278	-0.052568883
107	0x3d48562a	0.048910297
108	0x3deeae31	0.11654318
109	0x3cb2097b	0.021733036
110	0xbe93ec3a	-0.28891164
111	0xbf190394	-0.59771085
112	0xbe15d430	-0.14631724
113	0x3e19e677	0.15029322
114	0x3dc72530	0.0972389
115	0x3cb6a499	0.022295283
116	0x3d2ee800	0.04270172
117	0x3d5297c4	0.051414266
118	0xbe054a56	-0.13016638
119	0xbe9d0765	-0.30669704
120	0xbeef6e7a	-0.46763974
121	0xbe40769f	-0.1879525
122	0xbd3f1788	-0.0466533
123	0xbd76afab	-0.060226124
124	0x3bea7bc6	0.007155868
125	0x3dd0b672	0.10191049
126	0xbc099dbd	-0.008399424
127	0xbdc83e39	-0.09777493
128	0xbdd9c706	-0.10633664
129	0xbdff6663	-0.124707006
130	0xbd40b036	-0.047043048
131	0x3c757dce	0.014983607
132	0x3d6a11fc	0.057146057
133	0xbcf3c35b	-0.029756239
134	0xbcec6818	-0.02885823
135	0x3cc2dda0	0.02378732
136	0xbd9c5e51	-0.07635177
137	0x3cdcb6b8	0.026942596
138	0x3cd3d482	0.025858168
139	0xba2337dc	-0.000622628
140	0xbd00c1b4	-0.03143473
141	0x3d996b6d	0.07491193
142	0xbd0e1f01	-0.034697536
143	0x3cc9aefa	0.024619568
144	0x3d5ff357	0.054675426
145	0xbd94847d	-0.07251833
146	0x3d4665fb	0.0484371
147	0x3d7837d6	0.060600124
148	0xbbe9765e	-0.007124706
149	0xbc25aa53	-0.010111409
150	0x3d5c8320	0.053835988
151	0x3c93d365	0.018045137
152	0xbbc663d4	-0.006054381
153	0x3d82f35c	0.06394073
154	0x3caea0ce	0.021316912
155	0x3c4b496f	0.012407645
156	0x3dcb1449	0.099159785
157	0x3c67bf18	0.014144681
158	0x3d248bef	0.040172514
159	0x3d47f567	0.04881802
160	0x3bc0c4b6	0.005882825
161	0x3cff2a13	0.031147992
162	0xbb785e2c	-0.0037897928
163	0xbdb2f449	-0.08738
164	0xbc122ca9	-0.008921781
165	0x3d87a202	0.066226974
166	0x3d5f7263	0.054552447
167	0xbd7345cf	-0.059392747
168	0xbc36ac54	-0.011149485
169	0x3d5c6f0c	0.05381684
170	0xbbdd46eb	-0.006752839
171	0xbd3407d2	-0.04395277
172	0x3d03fca9	0.032223377
173	0x3d10812a	0.03527943
174	0x3b4b8619	0.003105527
175	0x3c8e95c4	0.017405398
176	0x3d44e091	0.048065726
177	0x3c04d7b5	0.008108069
178	0xbd67ac95	-0.05656107
179	0xbc7fddb8	-0.015616827
180	0xbc887fee	-0.016662564
181	0x3d4a79e9	0.04943267
182	0x3ccf2acf	0.025288967
183	0xbd97230f	-0.07379734
184	0x3d0774fe	0.033070557
185	0x3d04a490	0.0323835
186	0x3c12df37	0.008964351
187	0xbc7d2023	-0.0154495565
188	0xbd4bbb4e	-0.049739175
189	0x3da16ecc	0.07882461
190	0x3e70518a	0.23468605
191	0x3ad13985	0.0015962577
192	0xbd7d64ac	-0.061863586
193	0x3cef7e94	0.029235162
194	0x3e1267bc	0.14297384
195	0x3ccb64c0	0.024828315
196	0x3c2662bb	0.010155375
197	0x3d9e6134	0.07733384
198	0x3dc603f4	0.09668723
199	0x3de9f3b5	0.114234366
200	0xbd815815	-0.063156284
201	0xbdd41fa5	-0.10357598
202	0xbcf63edf	-0.030059276
203	0xbc6f4c28	-0.014605559
204	0x3ccad02d	0.02475747
205	0x3db43326	0.08798818
206	0x3d993b81	0.074820526
207	0x3bc34dd1	0.005960204
208	0x3d00f04a	0.031479158
209	0xbd2be64a	-0.041967668
210	0xbd84b134	-0.06479111
211	0x3cd0294a	0.025410313
212	0xbd8d6bc5	-0.06905321
213	0xbd477234	-0.048692897
214	0xbc9d078c	-0.019168638
215	0x3d8ad766	0.06779365
216	0x3d8c56e6	0.06852512
217	0xbc11877c	-0.0088824
218	0x3dd13a8b	0.10216244
219	0xbceb0436	-0.028688531
220	0x3a561234	0.00081661646
221	0xbd620b78	-0.05518672
222	0x3cb78398	0.022401616
223	0xbcb83602	-0.02248669
224	0x3c787a02	0.015165808
225	0x3d103ceb	0.035214346
226	0x3d2c29c1	0.042032007
227	0x3d5ef846	0.05443599
228	0x3df8ad95	0.12142483
229	0x3c561f6c	0.013069015
230	0xbbae1194	-0.005312154
231	0xbbfb0d49	-0.007661496
232	0xbc93b9c2	-0.018032912
233	0xbca55b76	-0.020185214
234	0xbd37c3cd	-0.044864465
235	0xbd52d0cd	-0.05146866
236	0xbd7934d7	-0.060841408
237	0x3bccbf67	0.006248403
238	0xbd265228	-0.040605694
239	0x3b24039a	0.002502656
240	0xbcc07f01	-0.02349806
241	0x3c16737d	0.009182808
242	0xbcb70d18	-0.02234511
243	0x3bacbce3	0.0052715405
244	0xbd1166c8	-0.03549841
245	0xbc1a3cdd	-0.009413925
246	0xbce083d2	-0.027406607
247	0xbe2632a8	-0.16230261
248	0xbd8770c6	-0.06613307
249	0xbd08ec2c	-0.033428356
250	0xbd5e2a02	-0.05423928
251	0xbe00a27c	-0.12561983
252	0xbc1290f1	-0.00894569
253	0x3c8bf817	0.017086072
254	0x3e2dfc30	0.16990733
255	0x3e1a00c1	0.1503935

conv1.conv2d.bias f4 [8]
0	0x3d74e6c5	0.05979039
1	0xbdf6a3bd	-0.12042949
2	0x3dc8a676	0.09797375
3	0x3c4e2ea8	0.012584366
4	0x3d2a2247	0.041536596
5	0x3e59a6e9	0.21255077
6	0xbd3a3133	-0.045457076
7	0x3dd17ad3	0.10228505

in1.weight f4 [8]
0	0x3f35c99b	0.7101075
1	0x3f180fc5	0.5939906
2	0x3f2e9f3f	0.6821174
3	0x3f50e4f3	0.8159935
4	0x3f144bc4	0.5792811
5	0x3f1ab3ff	0.604309
6	0x3f414054	0.7548878
7	0x3f21920c	0.63113475

in1.bias f4 [8]
0	0x3eb250aa	0.34827167
1	0x3fe5b2e3	1.7945217
2	0x40194cd3	2.395314
3	0x3ff15913	1.8855308
4	0x4009bbc1	2.1520846
5	0x3fc5347d	1.5406643
6	0x4002980c	2.0405302
7	0x401082af	2.2579763

conv2.conv2d.weight f4 [16, 8, 3, 3]
0	0x3c244f1f	0.01002863
1	0x3cd9e7f5	0.026599864
2	0x3dc8d7dd	0.09806798
3	0xbe829c1d	-0.2550973
4	0xbe1d6a8d	-0.15372677
5	0x3e083d83	0.13304715
6	0x3eb598d4	0.3546816
7	0xbdf8bc8a	-0.12145336
8	0xbe9dc21e	-0.30812162
9	0x3dfc8492	0.12329973
10	0xbe785246	-0.24250135
11	0xbd8a8cc6	-0.06765132
12	0x3dfffa7e	0.124989495
13	0x3e08c05b	0.13354628
14	0xbe71f2bc	-0.23627752
15	0xbde3d413	-0.11124434
16	0x3eaae07b	0.3337439
17	0xbd2b034e	-0.0417512
18	0xbdf2201b	-0.1182253
19	0x3c8042dc	0.015656881
20	0x3c9469bc	0.018116824
21	0x3d9dcffe	0.07705687
22	0xbe06e3b5	-0.13172801
23	0xbc117e5f	-0.008880227
24	0x3db79cc1	0.08965445
25	0xbd250592	-0.040288515
26	0xbd538c01	-0.05164719
27	0xbe27a08d	-0.16369839
28	0xbd845f9d	-0.06463549
29	0x3d97507f	0.073884
30	0x3d8a297a	0.06746192
31	0xbd3b43f1	-0.04571909
32	0xbdc2e6fc	-0.09516713
33	0x3ddef7b5	0.1088709
34	0x3e112687	0.14174853
35	0xbd9b1621	-0.0757258
36	0xbe248fd7	-0.16070496
37	0x3c2a9e43	0.010413709
38	0x3dc08c97	0.094018154
39	0x3d861b76	0.065482065
40	0xbdedff23	-0.11620929
41	0x3ccc1aa6	0.02491505
42	0x3e0e2267	0.13880311
43	0xbb8d424f	-0.004310883
44	0x3c66888b	0.01407064
45	0x3d553d53	0.052060436
46	0xbe8f3371	-0.27968934
47	0xbe8eb7b7	-0.27874538
48	0x3e847af9	0.2587507
49	0x3dec518d	0.11538992
50	0xbe5ec2e8	-0.21754038
51	0x3d68d5cd	0.05684452
52	0x3d7c4b2d	0.06159513
53	0x3db50e73	0.088406466
54	0x3d69bd24	0.057065144
55	0x3c3e3852	0.0116101075
56	0xbd02eb2f	-0.03196257
57	0xbd480e08	-0.048841506
58	0xbd30df2a	-0.043181576
59	0x3d05d766	0.032676123
60	0xbd1825e5	-0.037145514
61	0x3df2404b	0.11828669
62	0xbd552dc3	-0.052045595
63	0x3d8360b1	0.06414927
64	0xbe38f00b	-0.18060319
65	0xbe3b0ed4	-0.18267375
66	0x3e29fc8b	0.16600244
67	0x3eb39659	0.35075644
68	0xbe0ec31e	-0.13941619
69	0xbe89f94a	-0.26948005
70	0xba2b4554	-0.0006533463
71	0x3e94b375	0.29043165
72	0x3e8ec356	0.27883404
73	0xbdb84fb1	-0.08999575
74	0xbe3e2896	-0.1857017
75	0xbd85a55f	-0.06525683
76	0xbe00efc5	-0.12591465
77	0xbd3676f7	-0.044547047
78	0x3c9f3d4d	0.01943841
79	0xbe0bb326	-0.13642558
80	0x3ce03bd5	0.02737228
81	0x3e12ee3d	0.14348693
82	0xbc91d629	-0.017802315
83	0xbdf9c521	-0.121958025
84	0xbd0d1552	-0.03444416
85	0x3de7fbdf	0.113273375
86	0xbb2a8eed	-0.0026025132
87	0xbc31b7d3	-0.01084705
88	0x3e2d5908	0.16928494
89	0x3d69a011	0.057037417
90	0xbd5579ce	-0.052118115
91	0x3dce1aca	0.10063703
92	0x3dec0ebf	0.1152625
93	0x3d0a7435	0.03380223
94	0x3dae4423	0.0850909
95	0x3e157a79	0.14597501
96	0x3dd296bf	0.10282659
97	0x3d8b1d99	0.06792755
98	0xbd2a592d	-0.04158895
99	0x3dc4e807	0.09614568
100	0x3c927cb5	0.01788173
101	0xbdd78b42	-0.10524608
102	0x3de0b659	0.1097228
103	0x3c2127ba	0.009836132
104	0xbd6adb55	-0.057338078
105	0x3cc2ffef	0.02380368
106	0xbd8db6f8	-0.06919664
107	0x3cdfb90e	0.02730992
108	0x3e92ac00	0.2864685
109	0x3e9f2a9e	0.31087202
110	0x3cc5a808	0.024127975
111	0x3e36530c	0.17805117
112	0x3e006430	0.12538218
113	0xbe02f70c	-0.12789553
114	0x3c1e89c2	0.009676399
115	0xbdc7685d	-0.097367026
116	0xbde8f417	-0.113746814
117	0x3c99fb0c	0.018796466
118	0xbc9304d7	-0.017946644
119	0xbac24ba6	-0.001482357
120	0x3e96ef23	0.29479322
121	0x3f0fae42	0.5612527
122	0x3ed8e3d7	0.42361328
123	0x3e15355b	0.14571135
124	0x3e89b5ea	0.26896602
125	0x3e905ba3	0.28194913
126	0x3dd77c92	0.10521807
127	0x3bd23ea4	0.0064161588
128	0xbde985bc	-0.11402461
129	0x3d9373ee	0.07199846
130	0x3bb6b216	0.0055754287
131	0xbda5a4fd	-0.0808811
132	0x3cac8fab	0.0210646
133	0x3c1708a4	0.009218369
134	0x38a83f41	8.022646e-05
135	0x3e5f8798	0.21829069
136	0x3df1c223	0.11804607
137	0xbd388540	-0.045048952
138	0xbd82917d	-0.06375406
139	0xbdeacd0f	-0.11464893
140	0xbe3daff8	-0.18524158
141	0xbdbcbbf6	-0.09215538
142	0xbe08fed6	-0.13378462
143	0x3d950664	0.072766095
144	0x3d150912	0.036385603
145	0x3e0c4924	0.13699776
146	0x3df23a67	0.118275456
147	0xbb973cbe	-0.0046153953
148	0x3e3647f0	0.1780088
149	0x3d4c0229	0.049806748
150	0x3d7ec16b	0.062196176
151	0x3e65ad93	0.22429495
152	0x3dd11291	0.102086194
153	0xbe876b44	-0.26449025
154	0x3d1de2ef	0.0385465
155	0x3e82340e	0.2543034
156	0xbd35816a	-0.044312872
157	0xbe40dda3	-0.18834548
158	0x3db988e6	0.090593144
159	0x3d19a9ac	0.037515327
160	0xbd126018	-0.035736173
161	0xbeab654a	-0.33475715
162	0x3cf3ae9c	0.029746346
163	0xbe2532db	-0.16132681
164	0x3d144fb7	0.036208834
165	0xbd00f6e6	-0.03148546
166	0xbdd93beb	-0.106071316
167	0x3b56d4ae	0.0032780576
168	0xbd5aa2e6	-0.05337801
169	0xbe339a5a	-0.17539349
170	0xbd5c4c02	-0.053783424
171	0x3d0c8f74	0.034316495
172	0x3d9d9d06	0.076959655
173	0x3d4db52e	0.050221615
174	0xbd5b49c0	-0.05353713
175	0xbcfc5de8	-0.030806497
176	0x3da8bfa6	0.08239679
177	0x3d14e676	0.036352597
178	0x3d17469a	0.036932565
179	0xbce0d9b1	-0.027447553
180	0xbe91c872	-0.2847324
181	0xbda6b12d	-0.08139262
182	0x3d8c09c1	0.06837798
183	0xbe7207cd	-0.23635788
184	0xbdf0a3a1	-0.1174996
185	0x3d99fc7f	0.07518863
186	0x3dca10c4	0.09866479
187	0x3d3f6457	0.04672655
188	0x3d26310d	0.040574122
189	0xbceea721	-0.029132428
190	0x3cdb608f	0.026779441
191	0xbe20d676	-0.1570681
192	0xbe1ffbde	-0.15623423
193	0xbecadc23	-0.39621076
194	0xbeeeca5a	-0.46638757
195	0xbe1954aa	-0.14973703
196	0xbe9a1c5f	-0.3009977
197	0xbeaaf588	-0.3339045
198	0xbbeb5b7c	-0.0071825366
199	0x3d3e020d	0.046388675
200	0xbc9c4c83	-0.019079452
201	0x3d5fe0e1	0.05465782
202	0x3d2786c7	0.040900018
203	0x3d2782e1	0.0408963
204	0x3ccc4a5a	0.024937797
205	0x3d01bda7	0.031675007
206	0x3d60347a	0.054737546
207	0xbeb661d9	-0.35621527
208	0xbc0a90a5	-0.0084573375
209	0x3dd882e9	0.10571844
210	0x3e6198eb	0.2203099
211	0xbd062828	-0.03275314
212	0xbd89b706	-0.06724362
213	0x3eb7a0bc	0.35864818
214	0x3e2f6b8f	0.17130874
215	0xbe8fe98f	-0.2810788
216	0x3e05b838	0.13058555
217	0x3c8966f9	0.016772734
218	0x3cd11917	0.02552466
219	0x3e80b277	0.25136158
220	0xbe16be78	-0.14721096
221	0xbdad1a92	-0.084523335
222	0x3d8ed965	0.069750585
223	0xbe9eb8a4	-0.31000245
224	0xbdcf79f7	-0.10130685
225	0x3b052f7c	0.0020322492
226	0xbbcb6dc6	-0.0062081544
227	0x3e2fd80a	0.17172256
228	0xbe74a881	-0.23892404
229	0xbb063293	-0.0020476922
230	0x3e38d764	0.18050915
231	0x3d769272	0.060198255
232	0xbe43d339	-0.19123544
233	0xbda7ad09	-0.08187301
234	0x3e5b2704	0.21401602
235	0x3e1bbba5	0.152083
236	0xbebc0951	-0.36725858
237	0x3e366b0f	0.17814277
238	0x3d881863	0.066452764
239	0xbe8a5484	-0.27017605
240	0x3eabad9a	0.33530885
241	0xbea6af6e	-0.32555717
242	0xbc58677e	-0.013208268
243	0xbd827517	-0.06369989
244	0xbe0b2e89	-0.1359197
245	0xbcdf5abd	-0.027264947
246	0xbcbf67be	-0.023364898
247	0x3e1a43cf	0.1506493
248	0x3cab1aba	0.020886768
249	0x3ddd53e2	0.10807015
250	0x3d8b0354	0.06787744
251	0xbda321f0	-0.079654574
252	0x3d7a08e5	0.06104364
253	0xbd91f332	-0.07126464
254	0xbe4eba10	-0.20188165
255	0x3e96250e	0.29325145

conv2.conv2d.bias f4 [16]
0	0x3dd37a7d	0.10326097
1	0x3dd88e53	0.10574021
2	0xbe11babf	-0.14231394
3	0x3e1007ef	0.14065526
4	0x3d9a2003	0.07525637
5	0xbc45941c	-0.012059238
6	0x3dc5d2ad	0.09659324
7	0x3e6514b5	0.2237118
8	0xbd8838ac	-0.06651434
9	0xbe89997c	-0.26874912
10	0x3e1c3e9c	0.15258259
11	0x3bf0c3dc	0.007347567
12	0x3d2dd1e9	0.042436514
13	0xbdafdfca	-0.08587606
14	0x3d9daa11	0.07698453
15	0x3dff0574	0.12452212

in2.weight f4 [16]
0	0x3ecb3a51	0.3969293
1	0x3edb4ef3	0.4283367
2	0x3f0322a3	0.51224726
3	0x3e9321f0	0.2873683
4	0x3ecbb2fe	0.39784998
5	0x3ee4e947	0.44709226
6	0x3e9d93fe	0.30776972
7	0x3e230111	0.15918376
8	0x3f0b2fe5	0.54369956
9	0x3f12c49e	0.57331264
10	0x3ee5b324	0.44863236
11	0x3f0cc861	0.54993254
12	0x3ef9045d	0.4863614
13	0x3ee2eeb5	0.44322744
14	0x3e8499b8	0.25898528
15	0x3ea67198	0.3250854

in2.bias f4 [16]
0	0xbe25c502	-0.16188434
1	0xbe5810c4	-0.21100146
2	0x3e8ac098	0.27100062
3	0x3d652008	0.05593875
4	0x3e7ee113	0.24890547
5	0xbde55c67	-0.11199265
6	0xbd08a193	-0.033357214
7	0x3e38fdd6	0.1806558
8	0xbeb55f5b	-0.35424313
9	0xbec4e7af	-0.3845801
10	0xbe437ded	-0.19091006
11	0xbe7c07d4	-0.24612361
12	0xbe4cdf72	-0.20007113
13	0xbeb4ea95	-0.35335222
14	0x3ec3ed50	0.38266993
15	0xbc2353dd	-0.009968725

conv3.conv2d.weight f4 [32, 16, 3, 3]
0	0xbe0d31e1	-0.13788559
1	0x3e0554a3	0.13020568
2	0x3e135262	0.14386895
3	0xbe995100	-0.2994461
4	0xbea2108a	-0.31653243
5	0x3ce89c6c	0.0283949
6	0xbdecb873	-0.115586184
7	0xbe953fcc	-0.29150236
8	0xbeb08395	-0.3447539
9	0xbd238db8	-0.039930075
10	0xbd6b1efc	-0.057402596
11	0xbdd8cc8b	-0.105858885
12	0xbe084ba6	-0.13310108
13	0xbf2e19fd	-0.68008405
14	0xbedfdb37	-0.43721935
15	0xbe7121c5	-0.23548038
16	0xbee1428c	-0.43996084
17	0xbf093979	-0.5360332
18	0x3b3b4d76	0.0028580106
19	0x3d9bbaa8	0.07603961
20	0x3c63c3be	0.013901649
21	0xbe106490	-0.14100862
22	0xbc506a66	-0.01272068
23	0x3deddbbd	0.116141774
24	0x3d1c2668	0.038122565
25	0xbd378d14	-0.044812277
26	0x3d120891	0.0356527
27	0x3d63b04d	0.055588055
28	0x3e04a2f3	0.12952785
29	0xbe6aebb4	-0.22941476
30	0x3e3f4b1c	0.18680996
31	0xbe36a855	-0.17837651
32	0xbda1e208	-0.0790444
33	0x3e32095f	0.17386387
34	0xbda99218	-0.08279818
35	0xbe570c0f	-0.21000694
36	0x3caccf8a	0.021095056
37	0x3c2603db	0.010132755
38	0x3e5cfe8d	0.21581478
39	0xbdc6a0de	-0.09698652
40	0xbeb840f5	-0.35987058
41	0xbe871b24	-0.26387894
42	0xbe8470ca	-0.258673
43	0xbea83fcb	-0.3286117
44	0xbea331fe	-0.3187408
45	0x3dc187cd	0.0944973
46	0x3e370aa0	0.17875147
47	0x3e0e708a	0.13910118
48	0xbdd79eab	-0.105283104
49	0x3d50b034	0.05094929
50	0x3c4bb4b4	0.01243322
51	0xbe31ac31	-0.17350842
52	0xbea51b82	-0.3224755
53	0xbe0ff115	-0.14056809
54	0x3dcd624d	0.10028515
55	0x3e6d75ab	0.23189418
56	0x3e3e5dad	0.18590422
57	0xbd67e097	-0.05661067
58	0xbd44e158	-0.048066467
59	0x3d725fc5	0.059173364
60	0xbe345fe2	-0.17614701
61	0xbda0257c	-0.078196496
62	0xbe5b74a9	-0.21431221
63	0xbdb71c38	-0.08940929
64	0xbdcdd22b	-0.10049852
65	0xbd68cc74	-0.056835607
66	0x3d395fe9	0.045257483
67	0xbad659a7	-0.0016353623
68	0x3e1fba1d	0.1559834
69	0x3c1147b7	0.008867196
70	0x3b5df3a5	0.0033867147
71	0xbbb60488	-0.0055547394
72	0x3d5785ee	0.05261796
73	0x3d9dc155	0.07702891
74	0xbc185d3e	-0.009299574
75	0x3cf9b15e	0.030480083
76	0xbb7d118c	-0.0038615195
77	0xbe233c71	-0.15941025
78	0xbe3cfe38	-0.18456352
79	0xbe187a51	-0.1489041
80	0xbe15e630	-0.14638591
81	0x3da303aa	0.07959683
82	0x3d98bdef	0.07458102
83	0xbd9c37c7	-0.07627826
84	0x3e15e8e7	0.14639626
85	0x3e53f8ca	0.20700374
86	0xbda35fea	-0.079772785
87	0xbd7a46b8	-0.0611026
88	0xbe9219fa	-0.28535444
89	0xbd462064	-0.048370734
90	0xbe06de7e	-0.13170812
91	0xbd44cab2	-0.048044868
92	0x3d17fd71	0.037106935
93	0xbe470513	-0.1943553
94	0xbd5cb4ea	-0.05388347
95	0x3ca80edd	0.0205149
96	0x3d97368f	0.07383453
97	0xbe2ff80a	-0.17184463
98	0x3da2e956	0.079546615
99	0xbd09dc46	-0.033657335
100	0xbcd6bc3c	-0.026212804
101	0xbb02429d	-0.001987613
102	0x3cc65cad	0.024214113
103	0xbdb89bb8	-0.09014076
104	0xbe4825ef	-0.1954572
105	0x3d3bdddd	0.045865882
106	0xbde327fb	-0.1109161
107	0xbe05c7ea	-0.13064542
108	0x3d8c2e8f	0.06844818
109	0xbd8d1141	-0.068880565
110	0x3c4e68d4	0.012598235
111	0x3d369b1d	0.04458152
112	0xbc709da6	-0.014686024
113	0x3baafb67	0.005217958
114	0xbd2bb4f8	-0.041920632
115	0xbe365cf5	-0.17808898
116	0x3d8baccb	0.06820067
117	0xbd1d4c2c	-0.03840272
118	0x3d9440df	0.07238936
119	0xbbae808e	-0.0053253835
120	0xbe255385	-0.16145141
121	0x3d857ae1	0.06517578
122	0x3d68c7fd	0.05683135
123	0x3e1bbb79	0.15208234
124	0xbe06e527	-0.13173352
125	0xbccebfd4	-0.025237955
126	0x3d8cc6f5	0.068738855
127	0x3ddb094c	0.106951326
128	0xbe13e5a4	-0.1444307
129	0xbe154849	-0.14578356
130	0xbd9138e0	-0.07090926
131	0x3dc13879	0.094345994
132	0x3dc60294	0.096684605
133	0xbd8383f2	-0.06421651
134	0x3e108d59	0.1411642
135	0x3da6eae1	0.08150268
136	0x3e27507b	0.16339295
137	0x3d907a83	0.07054617
138	0xbcd83bc0	-0.026395679
139	0x3e3109ae	0.17288849
140	0x3e4ced42	0.20012382
141	0xbe5ae3d9	-0.2137598
142	0xbdf99095	-0.1218578
143	0x3d5d8909	0.054085765
144	0x3af7ad04	0.0018896167
145	0xbd3e6091	-0.04647881
146	0x3d3a44b2	0.04547567
147	0xbd960f08	-0.07327086
148	0xbdd75319	-0.105138965
149	0xbdb11fda	-0.08648653
150	0xbe55b053	-0.20868044
151	0xbe494858	-0.19656503
152	0x3d45e465	0.048313517
153	0xbe02bbdd	-0.12766977
154	0xbd82b4dd	-0.06382153
155	0x3dab5800	0.08366394
156	0xbdd66066	-0.10467605
157	0x3c964f3e	0.018348332
158	0x3d663169	0.056199465
159	0xbc1dd4bf	-0.009633242
160	0x3d7a80c2	0.06115795
161	0xbdadc29e	-0.08484386
162	0x3e887665	0.26652828
163	0x3e5452e6	0.20734748
164	0xbc36c7da	-0.011156047
165	0x3dfdb6ef	0.123884074
166	0xbdde36f4	-0.10850325
167	0xbe693e3a	-0.22777644
168	0xbe199ce4	-0.15001255
169	0xbe49e893	-0.19717626
170	0x3d0624d5	0.03274997
171	0xbe711d1b	-0.23546259
172	0x3dceb984	0.10093978
173	0x3e663331	0.22480465
174	0xbe311f87	-0.17297183
175	0x3ee21472	0.44156224
176	0xbe4177e5	-0.18893392
177	0x3d320f14	0.04347141
178	0xbdf9a4db	-0.12189647
179	0x3b29373f	0.0025820283
180	0xbdd9c022	-0.106323496
181	0xbe5a303c	-0.21307462
182	0x3c5f2777	0.013620249
183	0xbe44daf6	-0.19224152
184	0x3da470de	0.0802934
185	0x3df85a76	0.12126629
186	0x3c5b0565	0.013367985
187	0x3c3111c1	0.0108074555
188	0xbc7d665a	-0.015466297
189	0x3d5dcc45	0.054149885
190	0xbcf97bd9	-0.030454563
191	0xbccb2553	-0.024798071
192	0xbceeb4f1	-0.029139014
193	0x3cfc019f	0.030762492
194	0x3aaf1209	0.0013356815
195	0x3ac1ed84	0.0014795517
196	0x3df0f4e2	0.11765458
197	0x3d8fbb45	0.07018141
198	0xbaa52331	-0.0012598989
199	0x3cfe5207	0.031044973
200	0xbd94e185	-0.07269577
201	0xbded6226	-0.11590986
202	0x3dc7bbe0	0.09752631
203	0x3e19b376	0.15009865
204	0xbc88875d	-0.016666109
205	0x3e1bb9b6	0.15207562
206	0xbc7ec3a5	-0.015549575
207	0xbcf0dd74	-0.029402472
208	0x3e30fef4	0.17284757
209	0x3e68cad6	0.22733626
210	0x3e395d90	0.18102098
211	0x3d43a4e5	0.047764678
212	0xbe9adf94	-0.30248702
213	0x3c9b752c	0.01897677
214	0xbe85c441	-0.26126292
215	0xbe1d4a7f	-0.15360449
216	0xbe59b957	-0.21262108
217	0x3c090111	0.008362071
218	0x3d8b50e2	0.068025365
219	0x3db09065	0.08621291
220	0x3e6c3f87	0.23071109
221	0xbdc68e5f	-0.09695124
222	0x3d5e10ca	0.05421523
223	0xbe07bc8f	-0.13255523
224	0xbe0053de	-0.12531993
225	0xbdf2b311	-0.118505605
226	0xbcb520e0	-0.022110403
227	0xbd5d8d52	-0.05408985
228	0x3bbf5aeb	0.0058396957
229	0x3e321212	0.17389706
230	0x3e378c1d	0.17924543
231	0x3d449c82	0.04800082
232	0x3ec2d57e	0.38053507
233	0xbd6f1693	-0.058371138
234	0x3d56e4dd	0.052464355
235	0x3d3c6044	0.045990244
236	0xbd8eb006	-0.069671676
237	0xbd98a975	-0.07454196
238	0x3dbd60b6	0.09246962
239	0xbd538213	-0.05163772
240	0xbc132e41	-0.008983196
241	0x3d638eb2	0.055556007
242	0x3bc8cd7c	0.0061280113
243	0xbdd0f804	-0.10203555
244	0x3e16fcb0	0.1474483
245	0xbc02b23d	-0.007977066
246	0x3e6ca431	0.23109509
247	0x3ea9c32d	0.3315672
248	0xbe3bd9ce	-0.18344805
249	0x3dc50945	0.09620909
250	0xbe8797f4	-0.2648312
251	0x3d7d50b0	0.061844528
252	0xbd6f7232	-0.058458515
253	0x3d27da02	0.040979393
254	0x3c0ece3d	0.008716163
255	0x3d80d5a8	0.06290752

conv3.conv2d.bias f4 [32]
0	0xbe174a9e	-0.14774558
1	0xbde4ba33	-0.11168327
2	0xbd83ebae	-0.06441437
3	0x3e3a3c3a	0.18187037
4	0x3e117d0a	0.14207855
5	0x3da34f74	0.07974139
6	0x3c129993	0.008947748
7	0x3e63dc29	0.22251953
8	0x3cce51d8	0.02518551
9	0xbd4884bd	-0.048954714
10	0x3c58b046	0.013225621
11	0xbc8230f3	-0.015892481
12	0xbe097ec9	-0.13427271
13	0xbe1a5c0b	-0.15074174
14	0x3d2f57c9	0.042808328
15	0xbb189103	-0.0023279793
16	0x3da69e52	0.08135666
17	0x3df2763a	0.11838956
18	0xbdeabcc2	-0.11461784
19	0xbdf08be7	-0.11745434
20	0x3dca3541	0.098734386
21	0xbdb71fc4	-0.08941606
22	0x3d7935b4	0.06084223
23	0x3dfa2b45	0.12215284
24	0xbdb71025	-0.08938626
25	0x3d011c42	0.03152109
26	0x3d9b83e7	0.07593518
27	0x3ebb4d8a	0.36582595
28	0x3e3d17e8	0.18466151
29	0xbca61505	-0.020273695
30	0x3ea03911	0.31293538
31	0x3d4ecf2d	0.050490547

in3.weight f4 [32]
0	0x3e9a54e4	0.3014289
1	0x3e6daa2f	0.23209451
2	0x3e543fbd	0.20727439
3	0x3e8301e4	0.2558738
4	0x3e5057af	0.20345949
5	0x3ec977be	0.3934917
6	0x3e707b33	0.23484497
7	0x3eb6a73e	0.3567447
8	0x3e6fc59f	0.2341523
9	0x3e66a23f	0.2252283
10	0x3ea01378	0.31264853
11	0x3e9132af	0.2835898
12	0x3e9a07ba	0.3008402
13	0x3f09241e	0.53570735
14	0x3e323023	0.17401175
15	0x3ea10461	0.31448653
16	0x3ed15fd8	0.40893435
17	0x3e9117d9	0.28338507
18	0x3ef594b5	0.47965017
19	0x3eaf711a	0.34265977
20	0x3e93fb65	0.28902736
21	0x3eea47eb	0.45757994
22	0x3e4d3217	0.20038639
23	0x3eb883ea	0.36038142
24	0x3e5fe576	0.21864876
25	0x3ebdd7ae	0.37078613
26	0x3eb3f142	0.35145003
27	0x3e82527c	0.25453556
28	0x3e79dba1	0.24400188
29	0x3e2bb2e1	0.16767456
30	0x3e943501	0.2894669
31	0x3e694bb7	0.22782789

in3.bias f4 [32]
0	0xbd85c219	-0.06531162
1	0x3bcbc24d	0.006218231
2	0x3e4908fc	0.19632334
3	0xbc70a4ae	-0.0146877
4	0xbb1efc8d	-0.0024259419
5	0xbd404d68	-0.04694882
6	0xbc32c4d0	-0.010911182
7	0xbe1b56d3	-0.1516984
8	0x3d833bde	0.06407903
9	0x3d2d59dc	0.042322025
10	0xbd0fd103	-0.03511144
11	0x3d6e04f9	0.05811021
12	0xbe04ea34	-0.12979966
13	0xbe460fa7	-0.19341908
14	0x3e7a925b	0.24469893
15	0xbd026751	-0.03183681
16	0xbdb5e317	-0.088812046
17	0x3e656fab	0.22405879
18	0xbeb30f53	-0.3497263
19	0xbe6e6147	-0.23279296
20	0x3d13cb0d	0.036082316
21	0xbe5e15d2	-0.21688011
22	0xbccc02a6	-0.024903607
23	0x3e166fd7	0.14691101
24	0x3de1454f	0.10999548
25	0xbd8741fb	-0.06604382
26	0xbc642d3a	-0.0139267985
27	0xbc512dac	-0.012767237
28	0xbccdd3e7	-0.025125457
29	0x3db1038a	0.08643253
30	0xbd8e223f	-0.06940126
31	0x3ce1845b	0.027528932

resnets.0.conv1.conv2d.weight f4 [32, 32, 3, 3]
0	0x3b4a68e3	0.0030885271
1	0x3da6783c	0.08128402
2	0xbdb3a0c0	-0.08770895
3	0xbde971d0	-0.11398661
4	0xbe405ad5	-0.1878465
5	0xbe3b1a7c	-0.18271822
6	0x3d7bf5f9	0.061513875
7	0xbddb6b77	-0.10713857
8	0xbe216d61	-0.15764381
9	0x3c7d2f65	0.015453194
10	0xbe2b9aad	-0.16758223
11	0xbe1cb4ae	-0.15303299
12	0xbe7ac9e1	-0.24491073
13	0xbe6b3c30	-0.22972178
14	0x3e87b402	0.26504523
15	0xbe0399e3	-0.12851672
16	0xbcdd5ee0	-0.027022779
17	0xbcfc1dd1	-0.030775936
18	0x3cc7674b	0.024341246
19	0x3df1a39c	0.11798784
20	0xbc13cf21	-0.009021551
21	0x3d7261eb	0.059175413
22	0x3ded655f	0.115916006
23	0x3c63600d	0.013877881
24	0xba918e2e	-0.0011104995
25	0xbd186a35	-0.037210662
26	0x3dfd7c20	0.123771906
27	0xbe113c38	-0.14183128
28	0x3db54498	0.08850974
29	0x3de4a362	0.11163975
30	0x3e146384	0.14491087
31	0xbe04b944	-0.12961298
32	0x3d04625e	0.032320373
33	0xbe364f28	-0.17803633
34	0xbb208b10	-0.002449695
35	0xbd999428	-0.07498962
36	0x3c31cef0	0.01085256
37	0xbe7e69cc	-0.24845046
38	0xbdbb660f	-0.091503255
39	0xbaf6bf92	-0.0018825403
40	0x3df03ac1	0.117299564
41	0xbe8fd52a	-0.2809232
42	0x3d5856b6	0.05281707
43	0x3c90525c	0.017617397
44	0xbde5ee63	-0.11227109
45	0xbd1fa822	-0.038978703
46	0x3d0648fb	0.032784443
47	0x3ca1cdbe	0.019751426
48	0x3d56ae20	0.052412152
49	0xbd63d6ac	-0.05562465
50	0x3d35bdce	0.044370465
51	0x3dd395a7	0.10331278
52	0x3c82e987	0.015980495
53	0x3dbdbe12	0.09264769
54	0xbdaf7666	-0.085675046
55	0x3d6636b3	0.05620451
56	0x3ca974f4	0.02068565
57	0xbd2b27fb	-0.041786175
58	0xbe9f7a84	-0.3114816
59	0xbc423f46	-0.011855906
60	0xbdd19100	-0.10232735
61	0xbde250b3	-0.110505484
62	0xbe4e0855	-0.20120366
63	0xbd92783e	-0.071518406
64	0xbe837e39	-0.25682238
65	0xbe602356	-0.2188848
66	0xbdcb30d4	-0.099214226
67	0xbe4741f3	-0.19458751
68	0xbec3d6e7	-0.38249895
69	0xbe511140	-0.20416737
70	0xbe7fd5fb	-0.24983971
71	0xbebe28e7	-0.3714058
72	0x3d42c26a	0.04754869
73	0xbd680cb2	-0.056652732
74	0xbe30cdd9	-0.17266025
75	0x3e328b57	0.17435966
76	0xbe5bfff9	-0.21484365
77	0xbd45f473	-0.048328828
78	0x3d1b9b22	0.037989743
79	0xbd138a22	-0.036020406
80	0xbb06689e	-0.0020509134
81	0xbdd1dc5d	-0.10247109
82	0x3c92b385	0.017907867
83	0xbdf4d9ca	-0.119556025
84	0x3d8e51bc	0.06949183
85	0xbd382745	-0.044959325
86	0x3d537d17	0.051632967
87	0x3db57a0c	0.08861169
88	0xbdf83f90	-0.121214986
89	0x3ca84719	0.020541715
90	0x3dbac419	0.09119434
91	0xbcb57aa8	-0.022153214
92	0xbdd6fe8d	-0.104977705
93	0xbd55ced3	-0.052199196
94	0x3d4f005e	0.05053746
95	0x3dab9a8f	0.08379089
96	0xbc5d9a55	-0.013525565
97	0xbe190edf	-0.14947079
98	0xbd5a8e33	-0.053358268
99	0xbdac641d	-0.084175326
100	0x3d08457f	0.0332694
101	0x3d69bd03	0.05706502
102	0xbdbe338c	-0.092871755
103	0x3e08d9a3	0.13364272
104	0xbda48b8f	-0.08034431
105	0xbc371162	-0.011173578
106	0xbd4049e7	-0.04694548
107	0xbdb9d871	-0.09074486
108	0x3de295f5	0.11063758
109	0xbced0061	-0.028930845
110	0xbba9b884	-0.0051794667
111	0x3b1aabac	0.002360086
112	0x3d70354c	0.058644578
113	0x3e057de7	0.13036309
114	0xbe2f2c59	-0.17106761
115	0xbdc1e579	-0.094675966
116	0xbdecf8db	-0.11570903
117	0x3dca55f7	0.09879678
118	0xbd51d16c	-0.05122511
119	0x3dcdca50	0.10048354
120	0xbc568685	-0.013093595
121	0xbde06248	-0.10956246
122	0xbe0d9ca2	-0.13829282
123	0x3d6ff029	0.058578644
124	0x3bd65e7d	0.0065420256
125	0xbe0bab72	-0.1363962
126	0xbd98556c	-0.07438168
127	0xbdb64950	-0.08900702
128	0x3e1bb210	0.15204644
129	0x3e806f1a	0.25084764
130	0xbe881a76	-0.26582688
131	0xbe3daa6a	-0.18522039
132	0xbd07ff0d	-0.03320222
133	0xbb880cca	-0.004151915
134	0xbd64e1b2	-0.055879302
135	0x3d32853e	0.0435841
136	0xbe3c793d	-0.18405624
137	0xbde64394	-0.11243358
138	0xbc66435f	-0.014054148
139	0xbe6e8f9e	-0.23296973
140	0xbe8bbefc	-0.27294147
141	0xbe01674a	-0.12637058
142	0xbdfb559f	-0.1227219
143	0xbe348c89	-0.17631735
144	0xbd431354	-0.047625855
145	0x3dac65b4	0.08417836
146	0x3d827a93	0.063710354
147	0xbc022ea8	-0.007945694
148	0xbe050bf7	-0.12992845
149	0xbd83a9fb	-0.064289056
150	0x3b1749be	0.0023084725
151	0xbdb08d8d	-0.08620749
152	0xbd33d31e	-0.04390251
153	0xbdc7d582	-0.0975752
154	0xbe34b9a2	-0.17648938
155	0xbc7e78a8	-0.015531696
156	0xbd7df139	-0.061997626
157	0xbd8b0471	-0.067879565
158	0xbea54e54	-0.32286322
159	0xbc7bb5e0	-0.015363187
160	0xbc1f94f4	-0.009740103
161	0xbba6f9c7	-0.0050956937
162	0xbe2bf4af	-0.16792558
163	0xbd84b261	-0.064793356
164	0xbd44145d	-0.047870982
165	0xbe92191c	-0.28534782
166	0xbebecde7	-0.37266466
167	0xbec0f934	-0.37690127
168	0xbe8e62a9	-0.27809647
169	0xbed7288e	-0.42023128
170	0xbe80c48d	-0.25149956
171	0xbe340937	-0.1758164
172	0xbe13721c	-0.14398998
173	0xbe6abc32	-0.22923353
174	0xbe6c1f06	-0.2305871
175	0xbda4c282	-0.08044912
176	0xbe854c7c	-0.26034915
177	0xbe7954be	-0.24348733
178	0xbcde5ab3	-0.027142858
179	0xbda29b3f	-0.07939767
180	0xbe231238	-0.15924919
181	0xbdbc8f94	-0.09207073
182	0xbdc33fba	-0.09533639
183	0x3da2f503	0.079568885
184	0xbe68bea3	-0.22728972
185	0xbe40f810	-0.18844628
186	0x3ca4953c	0.020090692
187	0xbdef8709	-0.11695678
188	0xbc787247	-0.015163965
189	0xbe0ce473	-0.13759021
190	0xbe868bc7	-0.26278517
191	0xbdea734c	-0.114477724
192	0x3ca9fbf1	0.020750018
193	0xbdda3a31	-0.106556304
194	0xbe8715c4	-0.26383793
195	0xbde64741	-0.11244059
196	0xbe899e12	-0.2687841
197	0xbdd27b79	-0.10277457
198	0xbe5f0008	-0.21777356
199	0x3df5cd8a	0.12002094
200	0xbe7342c9	-0.23755945
201	0xbe4c4fcc	-0.19952315
202	0xbc87343d	-0.016504401
203	0xbefb4fdc	-0.49084365
204	0xbd952885	-0.07283119
205	0xbe42898a	-0.1899778
206	0xbe2e0bca	-0.16996685
207	0x3c6c1cd3	0.014411169
208	0x3dde5662	0.1085632
209	0x3da1cd3a	0.07900472
210	0x3d8f3831	0.069931395
211	0xbe0e03bf	-0.13868617
212	0xbd6e5e3a	-0.05819533
213	0x3df92f1a	0.12167187
214	0xbd0b3acc	-0.03399162
215	0x3c96210b	0.018326303
216	0x3bc5e5d1	0.006039359
217	0xbd0b5dae	-0.034024887
218	0xbd954d76	-0.07290165
219	0x3da74031	0.081665404
220	0xbdf11322	-0.117712274
221	0xbe3cf6c0	-0.18453503
222	0xbd45481e	-0.04816448
223	0xbc785a3c	-0.015158232
224	0xbd26ad41	-0.04069257
225	0x3ddc80d1	0.10766757
226	0xbd313845	-0.043266553
227	0x3d570139	0.0524914
228	0xbd1e6ccd	-0.03867798
229	0xbd4a68d1	-0.049416367
230	0x3c1defd9	0.009639704
231	0xbd97fcc7	-0.0742126
232	0xbe247a5c	-0.16062301
233	0xbe0cb4a9	-0.13740791
234	0x3d7794f4	0.060444787
235	0x3d6b4142	0.05743528
236	0xbd2ff0e2	-0.042954333
237	0xbe1439c2	-0.14475158
238	0xbdeb79ed	-0.11497865
239	0x3df2f89d	0.118638255
240	0xbe77d646	-0.24202833
241	0xbd959786	-0.073042914
242	0xbd8608a7	-0.06544619
243	0xbe12d090	-0.14337373
244	0xbea3c101	-0.31983188
245	0xbd61f37b	-0.05516384
246	0xbe31a70e	-0.17348883
247	0xbc23d27a	-0.009998912
248	0x3e7f719a	0.2494568
249	0xbdfb318b	-0.12265309
250	0xbb9dac27	-0.004811782
251	0x3da6a3be	0.081367
252	0xbe26e662	-0.16298822
253	0xbd0445ab	-0.032293003
254	0x3ab3df0d	0.001372309
255	0xbd9e3b58	-0.07726163

resnets.0.conv1.conv2d.bias f4 [32]
0	0xbd5eb1fc	-0.054368958
1	0xbe32027d	-0.17383762
2	0xbe471f6d	-0.19445582
3	0x3d893b0e	0.06700717
4	0x3d40cde1	0.04707134
5	0x3d5bc066	0.053650282
6	0x3e553d73	0.20824222
7	0xbd988c72	-0.07448663
8	0x3e06e3e5	0.13172872
9	0x3cff4545	0.03116096
10	0x3ddd98dd	0.10820172
11	0xbe281d5b	-0.16417448
12	0x3dcc6d8d	0.09981833
13	0x3e1f5463	0.15559535
14	0x3e3fee4a	0.18743244
15	0xbe28b266	-0.16474304
16	0xbd92b0e0	-0.071626425
17	0xbe379f40	-0.17931843
18	0x3e8e4226	0.27784842
19	0xbe4638a1	-0.1935754
20	0xbed1a45a	-0.40945703
21	0x3da68ccf	0.08132326
22	0xbe0a45e8	-0.1350323
23	0xbe36e6bb	-0.17861454
24	0x3e81937c	0.25307834
25	0xbd1cf606	-0.038320564
26	0x3dd043da	0.10169192
27	0xbe7df60c	-0.2480089
28	0x3e84c3ae	0.25930542
29	0x3dfb763f	0.12278413
30	0x3d8b66b0	0.068066955
31	0x3d822b3f	0.06355905

resnets.0.in1.weight f4 [32]
0	0x3f68547a	0.907539
1	0x3f25890f	0.6466226
2	0x3f6a1019	0.91430813
3	0x3f2b8ef2	0.6701499
4	0x3f91b10c	1.1382155
5	0x3f4fe98b	0.81215733
6	0x3f6e35b2	0.9305068
7	0x3f2da574	0.67830586
8	0x3f7bbb75	0.9833291
9	0x3f705cb3	0.9389145
10	0x3f76175f	0.9612941
11	0x3f61cd98	0.88204336
12	0x3fa26c04	1.2689214
13	0x3f8433aa	1.0328267
14	0x3f4a5b4e	0.7904557
15	0x3f5bf723	0.85923976
16	0x3f80fe80	1.0077667
17	0x3f26a648	0.65097475
18	0x3f6b9f59	0.9204002
19	0x3f53bf03	0.82713336
20	0x3f8c499d	1.0959965
21	0x3f92d4bf	1.1471175
22	0x3f8d46e6	1.1037261
23	0x3f792aed	0.97331125
24	0x3f6c1a41	0.9222756
25	0x3f869467	1.0514039
26	0x3f7b5867	0.98181766
27	0x3f6d57f2	0.9271232
28	0x3f8f6b73	1.1204666
29	0x3f915ffd	1.1357418
30	0x3f8149b6	1.010062
31	0x3f8fa8cb	1.1223387

resnets.0.in1.bias f4 [32]
0	0x3e11a1b9	0.14221849
1	0x3f29b3a5	0.6628974
2	0x3de7832a	0.113043144
3	0x3e6b8984	0.23001677
4	0xbe9f6983	-0.31135187
5	0xbe301c6b	-0.1719834
6	0xbe2ef446	-0.1708537
7	0x3e3fe69b	0.18740313
8	0x3d7074d3	0.058705162
9	0x3e714f09	0.23565306
10	0xbf023563	-0.5086271
11	0xbcbdf766	-0.023189258
12	0xbe7d978f	-0.24764846
13	0x3e354fdf	0.1770625
14	0x3d221f7d	0.03958081
15	0xbde25580	-0.11051464
16	0xbcf5edf1	-0.030020686
17	0x3eaf1ea5	0.34203067
18	0xbd03130d	-0.03200059
19	0x3daf7476	0.08567135
20	0xbefe897c	-0.49714267
21	0x3d59b72c	0.053153202
22	0xbd17d1a3	-0.03706516
23	0x3e46f4d6	0.19429335
24	0x3cbf41a1	0.023346724
25	0x3e5809e4	0.21097523
26	0x3e7cbd75	0.24681647
27	0xbdc71196	-0.09720151
28	0xbf8ec6ec	-1.1154456
29	0xbe826690	-0.25468874
30	0xbc134435	-0.00898843
31	0xbe1cc24b	-0.15308492

resnets.0.conv2.conv2d.weight f4 [32, 32, 3, 3]
0	0x3cc5d9ea	0.024151761
1	0x3dbadd23	0.0912421
2	0x3c6920e3	0.014229032
3	0xbdb469b9	-0.088092275
4	0x3e198c9e	0.14995047
5	0xbd05427c	-0.032534108
6	0xbe49fcdb	-0.19725363
7	0x3e00a3da	0.12562504
8	0xbda339ec	-0.07970032
9	0xbcfeccf5	-0.03110359
10	0x3c5eb308	0.013592489
11	0x3d31a5e6	0.043371104
12	0xbd5c9409	-0.053852115
13	0x3e4f6e67	0.20256959
14	0x3d1d770c	0.03844361
15	0xbd4b833e	-0.04968571
16	0xbd77e46b	-0.06052057
17	0xbd7df556	-0.06200155
18	0x3cdb7d11	0.026793035
19	0x3d6e1e24	0.058134213
20	0x3e1595e9	0.14607967
21	0xbdb813dd	-0.089881636
22	0x3d9dde8e	0.077084646
23	0x3e1e3f5b	0.15453856
24	0xbdef9de5	-0.11700038
25	0xbce9c4e2	-0.028536264
26	0x3b2dee7a	0.0026539848
27	0x3e165180	0.14679527
28	0x3dfe5dff	0.12420272
29	0x3d56b296	0.052416407
30	0x3de98d8a	0.114039496
31	0x3e67cd11	0.2263682
32	0x3dcc9ef5	0.09991256
33	0x3cdde156	0.027084988
34	0xbca71cf0	-0.02039954
35	0x3db3e3d9	0.08783693
36	0x3d2c7f65	0.04211368
37	0x3e925d93	0.28587016
38	0x3de58a19	0.11207981
39	0x3d2b273f	0.041785475
40	0x3c1f6959	0.009729707
41	0xbd8b46f3	-0.06800642
42	0xbd5fda7d	-0.054651726
43	0xbe33a411	-0.17543055
44	0xbe18032f	-0.14844964
45	0x3e02fb94	0.12791282
46	0x3e09a588	0.13442051
47	0x3cf04565	0.029329965
48	0xbe0119fe	-0.12607571
49	0xbdc01202	-0.09378435
50	0xbe2334f7	-0.15938173
51	0xbd8c3358	-0.068457305
52	0xbde13a9d	-0.10997508
53	0xbdf5b942	-0.11998226
54	0xbdbc97d9	-0.0920865
55	0xbd28a29c	-0.0411707
56	0xbd932ca0	-0.07186246
57	0x3d8f378b	0.06993016
58	0x3e1c03d2	0.15235832
59	0xbd215ec2	-0.03939701
60	0xbd971d83	-0.07378676
61	0x3dc9491a	0.09828396
62	0xbbcfdc9b	-0.006343437
63	0xbe035587	-0.12825595
64	0x3d7bfeac	0.06152217
65	0x3e6991a8	0.2280947
66	0x3dc85c5c	0.09783241
67	0x3ba45bb8	0.0050158165
68	0x3eba1d4b	0.36350474
69	0xbd638d97	-0.055554952
70	0x3dcb9611	0.09940732
71	0x3c984fc9	0.018592732
72	0xbe57ba11	-0.21067072
73	0xbd150520	-0.03638184
74	0xbcb56bb0	-0.022146076
75	0x3b3e34ab	0.0029023092
76	0x3e82911a	0.2550133
77	0xbd815e9e	-0.06316875
78	0xbdacae99	-0.08431739
79	0x3d968e62	0.07351376
80	0xbd1f8479	-0.038944695
81	0x3bb52444	0.005528005
82	0x3e49f2f6	0.19721588
83	0xbdc7d86e	-0.097580776
84	0x3db07c64	0.08617476
85	0x3e180a3a	0.14847651
86	0x3e3ea21d	0.18616529
87	0x3c553b05	0.01301456
88	0x3d8c9b6f	0.06865584
89	0xbd3a7546	-0.045521997
90	0x3d3f26c2	0.04666782
91	0x3d3a651a	0.045506574
92	0xba073bcb	-0.0005158751
93	0x3dd14753	0.10218682
94	0x3afcc7bf	0.0019285603
95	0x3e0615d0	0.13094258
96	0xbbaf8938	-0.005356934
97	0x3e168ef2	0.14702967
98	0x3e51bcbc	0.20482153
99	0x3c3226ae	0.01087348
100	0x3d9c5145	0.076326884
101	0x3ca8cc86	0.020605337
102	0x3d08e4ea	0.033421434
103	0x3e82b18a	0.25526077
104	0x3d456491	0.04819161
105	0x3e1a7611	0.15084101
106	0x3e219d4c	0.1578266
107	0x3ec68a8a	0.38777572
108	0xbdbe15c9	-0.09281499
109	0x3d4f735e	0.050647132
110	0x3e20dc78	0.15709102
111	0x3bf19deb	0.0073735616
112	0x3e274499	0.16334762
113	0x3cdb1629	0.026743965
114	0x3e9079fe	0.28218073
115	0xbd65d68a	-0.056112804
116	0xbbd5c643	-0.006523879
117	0xbd87e4ff	-0.066354744
118	0x3e2323a2	0.15931562
119	0x3c2e969c	0.010656025
120	0xbd816a30	-0.06319082
121	0xbd144ece	-0.036207967
122	0xbd059fa8	-0.032622963
123	0xbaee0edb	-0.0018162386
124	0x3d102804	0.035194412
125	0x3cc5d0a5	0.024147341
126	0x3d38be1d	0.04510318
127	0x3caf4ba5	0.021398375
128	0xbd6c4932	-0.057686992
129	0x3e2d1026	0.16900691
130	0x3dd8e88a	0.10591228
131	0xbcfea1cd	-0.031083012
132	0xbca218a1	-0.019787135
133	0x3dc3d2bb	0.09561678
134	0xbd93be86	-0.07214074
135	0x3d309a44	0.04311587
136	0x3da58c37	0.080833845
137	0xbdacaab6	-0.08430998
138	0xbc17c92a	-0.00926427
139	0x3d7470c7	0.059677865
140	0xbe3cb598	-0.18428648
141	0xbc6367b3	-0.013879704
142	0xbdb945be	-0.090465054
143	0xbdf4fef7	-0.11962693
144	0xbd255754	-0.040366486
145	0x3da1463f	0.078747265
146	0xbd527762	-0.051383384
147	0xbc765a82	-0.015036227
148	0x3e0f0453	0.13966493
149	0xbdfc72a4	-0.123265535
150	0xbdd4f6ca	-0.10398634
151	0xbd2b7566	-0.041860007
152	0xbda44016	-0.08020036
153	0x3e393077	0.18084894
154	0x3b22e423	0.0024855218
155	0x3d98006b	0.07421955
156	0xbd176223	-0.036958825
157	0xbdb7696e	-0.08955656
158	0x3d5bb618	0.053640455
159	0xbdb22468	-0.0869835
160	0x3e0d7987	0.1381589
161	0xbd967a9d	-0.073476054
162	0xbd5ad8d5	-0.053429443
163	0x3cb855f2	0.02250192
164	0x3d782996	0.060586534
165	0x3d69c014	0.057067946
166	0xbbb4ba46	-0.0055153696
167	0x3e3c7fc0	0.18408108
168	0x3da8719e	0.08224796
169	0xbd4e74a3	-0.050404202
170	0x3d97b88b	0.07408246
171	0xbdf8d012	-0.12149061
172	0xbdb6c5f2	-0.08924474
173	0xbd358b10	-0.044322073
174	0xbd6036ff	-0.05473995
175	0x3d73f161	0.05955637
176	0xbd33c6aa	-0.043890633
177	0xbdcd3f17	-0.10021799
178	0x3df63d6d	0.12023435
179	0xbd78e674	-0.060766652
180	0xbbb034d1	-0.00537739
181	0x3d6976d1	0.056998078
182	0xbe2759f8	-0.16342914
183	0xba22b8ea	-0.0006207364
184	0x3d737163	0.059434306
185	0xbd3d9b37	-0.046290603
186	0xbddcf2eb	-0.107885204
187	0x3d309ee2	0.043120272
188	0xbbd5d11b	-0.0065251715
189	0x3c958548	0.01825203
190	0x3ec9f9f7	0.3944852
191	0xbd96b329	-0.07358391
192	0xbe01d017	-0.12677036
193	0x3f0687be	0.52550876
194	0x3e116210	0.14197564
195	0xbddb4bc4	-0.107078105
196	0x3df437d1	0.11924709
197	0x3c968e2d	0.018378342
198	0xbe5e753a	-0.21724406
199	0xbdbe6a9e	-0.09297679
200	0x3e041211	0.12897517
201	0x3b0bc721	0.0021328407
202	0x3d76df79	0.060271714
203	0xbe02e5f2	-0.1278303
204	0x3d61567a	0.05501411
205	0x3d3185dd	0.043340553
206	0xbdfbcda0	-0.12295079
207	0x3cac6205	0.021042833
208	0xbd3a5019	-0.045486543
209	0x3d92dbbc	0.07170817
210	0xbdc2d839	-0.095138974
211	0xbe41864d	-0.18898888
212	0xbdf583a0	-0.11987996
213	0xbc67f6db	-0.014157976
214	0x3e3d2c2e	0.18473884
215	0xbd3bff28	-0.045897633
216	0x3d2044c5	0.039128084
217	0x3e0a4c7b	0.13505737
218	0x3d9dca6b	0.07704624
219	0x3e218b6b	0.1577584
220	0x3e85f63d	0.26164427
221	0x3c13f985	0.009031658
222	0xbd90acad	-0.07064185
223	0x3d987e47	0.074459605
224	0x3d5e4056	0.054260574
225	0xbd72331d	-0.059130777
226	0x3cdb4f6d	0.026771272
227	0x3df6bb5d	0.120474555
228	0xbcb9ad6e	-0.022665706
229	0xbbeab274	-0.0071623866
230	0xbc7d7d4b	-0.015471767
231	0x3ad9b51f	0.0016609764
232	0xbc1d99c5	-0.009619181
233	0xbd188233	-0.037233543
234	0x3e14fdc2	0.14549926
235	0xbe181993	-0.14853506
236	0xbdbaaadd	-0.09114621
237	0x3e6eb4c9	0.23311152
238	0xbdd55db6	-0.104182646
239	0x3baddc84	0.0053058285
240	0xbd5ca6c5	-0.05386998
241	0xbda2ab80	-0.07942867
242	0xbddb8ce9	-0.10720236
243	0xbe3ec923	-0.18631415
244	0xbe31b4dd	-0.1735415
245	0xbd951d2e	-0.07280956
246	0xbe226f93	-0.15862875
247	0xbe2435cd	-0.16036148
248	0x3da74e70	0.08169258
249	0xbde32c71	-0.11092461
250	0xbcd9e141	-0.026596667
251	0xbc6c16e7	-0.014409757
252	0x3e10805e	0.14111468
253	0x3e5306e5	0.20608099
254	0x3c9bef9e	0.019035157
255	0x3d06c6b6	0.03290435

resnets.0.conv2.conv2d.bias f4 [32]
0	0x3c2595e9	0.010106542
1	0xbd48c164	-0.049012557
2	0xbe110aa2	-0.14164212
3	0x3eaabd12	0.33347374
4	0x3df71792	0.120650426
5	0x3d00ea9a	0.031473733
6	0x3ddf69a2	0.1090882
7	0x3e0f82c8	0.14014733
8	0xbe25ebc8	-0.16203225
9	0x3d5fd9ff	0.054651257
10	0x3bd939e1	0.006629214
11	0x3e16313c	0.14667219
12	0xbdc5b6c4	-0.096540004
13	0xbe109807	-0.14120494
14	0xbd083662	-0.03325499
15	0xbd2d9c29	-0.042385254
16	0xbdfdb176	-0.123873636
17	0xbd8bd40d	-0.06827555
18	0x3d848f59	0.06472654
19	0xbdaba519	-0.08381099
20	0x3d190d58	0.03736624
21	0x3cd29925	0.02570779
22	0x3deb296f	0.11482512
23	0x3dada163	0.08478048
24	0x3e0d6db9	0.13811387
25	0x3d22c863	0.039741885
26	0xbd3219ed	-0.043481756
27	0x3da9a107	0.08282667
28	0x3cfa8b05	0.030583868
29	0x3d8a6e8f	0.06759369
30	0xbdeab305	-0.114599265
31	0x3d2441b0	0.040101707

resnets.0.in2.weight f4 [32]
0	0x3eed17b3	0.46307144
1	0x3eb590c5	0.35462013
2	0x3ec66ff9	0.38757303
3	0x3ee0809e	0.43848127
4	0x3f359eda	0.70945513
5	0x3f118549	0.56844
6	0x3f088d0f	0.5334024
7	0x3ecb9fac	0.39770257
8	0x3f06123c	0.52371573
9	0x3f0afd8a	0.5429312
10	0x3f09bbdc	0.53802276
11	0x3f029117	0.5100264
12	0x3ef201e6	0.47267073
13	0x3f1d4259	0.61429363
14	0x3f0606f0	0.52354336
15	0x3f24eba9	0.6442209
16	0x3f2ee84d	0.6832321
17	0x3efd8d9d	0.49522105
18	0x3ed4ec6e	0.41586632
19	0x3f0866f4	0.53282094
20	0x3f0014c2	0.50031674
21	0x3eff24cd	0.49832764
22	0x3ef565a8	0.4792912
23	0x3f0e989b	0.5570161
24	0x3f18d84e	0.59705055
25	0x3f2de35a	0.67925036
26	0x3f126319	0.5718246
27	0x3f0682fe	0.5254363
28	0x3f154347	0.5830578
29	0x3f096048	0.5366254
30	0x3efc02d1	0.492209
31	0x3f0b8122	0.54493916

resnets.0.in2.bias f4 [32]
0	0x3d366e7f	0.04453897
1	0xbcb5a17d	-0.02217173
2	0xbdf902bc	-0.12158725
3	0x3e1db0fe	0.15399548
4	0x3d538590	0.051641047
5	0x3dc91b35	0.098196425
6	0x3e216951	0.15762831
7	0x3e088200	0.13330841
8	0xbe2f726d	-0.17133494
9	0x3e33ec12	0.17570522
10	0x3cf0c86e	0.029392447
11	0xbe0a17d7	-0.13485657
12	0xbcd0004d	-0.025390768
13	0xbd72a8f1	-0.059243146
14	0x3cd6399f	0.026150523
15	0xbe0a8967	-0.13528977
16	0x3cb3490a	0.021885414
17	0xbd38f5a2	-0.04515613
18	0x3d4195ef	0.04726213
19	0xbdb6b134	-0.089205176
20	0x3e3c12d9	0.18366565
21	0x3d91ea7a	0.07124801
22	0x3e0d6178	0.13806713
23	0xbd5f68a9	-0.05454317
24	0x3dba0d5c	0.09084579
25	0xbd2ead1d	-0.042645562
26	0xbc097907	-0.008390672
27	0x3d703f99	0.0586544
28	0xbcad4cbb	-0.021154752
29	0x3e45f5c3	0.19332032
30	0x3cd601aa	0.02612384
31	0xbd333d80	-0.043759823

resnets.1.conv1.conv2d.weight f4 [32, 32, 3, 3]
0	0x3ea7d1a6	0.32777137
1	0x3e663ba6	0.22483692
2	0x3e78700e	0.24261495
3	0x3db6c442	0.08924152
4	0xbd2732ce	-0.040819936
5	0xbdc136b2	-0.094342604
6	0x3c700850	0.014650419
7	0xbddeb448	-0.1087423
8	0x3d125d15	0.0357333
9	0x3b14fbf8	0.0022733193
10	0x3cb1b426	0.021692347
11	0xbde7c1ec	-0.113162845
12	0x3c705b9c	0.014670279
13	0xbe85acf0	-0.26108503
14	0xbdbe6b08	-0.09297758
15	0xbd47963e	-0.048727266
16	0xbd36246d	-0.044468332
17	0xbd8b3f1e	-0.06799148
18	0xbe06a7b9	-0.13149919
19	0xbd4ce9dc	-0.050027713
20	0xbe071b53	-0.13194017
21	0xbe0c1877	-0.13681208
22	0xbdcfbf7d	-0.10143945
23	0xbd86ef0f	-0.065885656
24	0xbe4df9ea	-0.20114866
25	0xbcf4d2f6	-0.02988575
26	0xbe0854e3	-0.13313632
27	0x3d49eb39	0.04929659
28	0x3cbcb96f	0.02303764
29	0x3e404c22	0.18779042
30	0xbe18506b	-0.14874427
31	0xbdbf1e78	-0.09331983
32	0xbc013480	-0.007886052
33	0x3e575831	0.21029736
34	0xbd985598	-0.07438201
35	0xbe29f430	-0.16597056
36	0xbdbf0bd0	-0.09328425
37	0xbe778ad9	-0.2417406
38	0xbd24e5fc	-0.040258393
39	0xbd64d9cc	-0.05587177
40	0xbe34d56e	-0.17659542
41	0xbd9f2f9d	-0.077727534
42	0xbd64cae7	-0.055857565
43	0xbddc47ac	-0.10755858
44	0x3d0037a7	0.031303074
45	0xbe476b07	-0.19474421
46	0xbdc70989	-0.097186156
47	0x3e08336c	0.13300866
48	0xbe5538fc	-0.20822519
49	0x3c8e14e8	0.017343953
50	0x3dd4c478	0.10389036
51	0xbdd65204	-0.10464862
52	0x3bcf4b60	0.006326124
53	0x3dad08a7	0.08448916
54	0xbca239bf	-0.019802926
55	0xbe8b4b78	-0.27206016
56	0xbdf17885	-0.117905654
57	0x3dd03c4d	0.101677515
58	0xbe5c08a0	-0.21487665
59	0xbde748a8	-0.11293155
60	0x3d88fef4	0.066892534
61	0xbddfe50d	-0.1093236
62	0xbe5516a8	-0.20809424
63	0xbea0ec53	-0.314303
64	0xbe6c4e98	-0.23076856
65	0xbe2632fc	-0.16230386
66	0xbe156892	-0.14590672
67	0xbda524a6	-0.08063631
68	0xbdf7216c	-0.120669216
69	0xbe8c3ec6	-0.27391642
70	0xbe37740b	-0.1791536
71	0xbe176f7f	-0.14788626
72	0xbe3fd6cc	-0.18734282
73	0x3c3b8335	0.011444856
74	0xbd09af8b	-0.033614676
75	0x3da51ee2	0.08062531
76	0x3e87584d	0.26434556
77	0x3e6308a6	0.22171268
78	0x3d2171cb	0.039415162
79	0x3e13dadf	0.14438961
80	0x3d6d7dce	0.057981305
81	0xbdbe3014	-0.09286514
82	0xbd9eb9e3	-0.07750299
83	0xbdbe32e7	-0.092870526
84	0xbe6cff17	-0.23144184
85	0xbe2463c7	-0.16053687
86	0xbc5fa5a3	-0.013650331
87	0xbe866fa0	-0.26257038
88	0xbe8a3df8	-0.27000403
89	0xbe41ed92	-0.18938282
90	0xbe15b69a	-0.14620438
91	0xb8875429	-6.452978e-05
92	0xbce535ed	-0.027979815
93	0xbe2b1f5f	-0.16711186
94	0xbb0566b1	-0.0020355398
95	0x3db0a548	0.08625275
96	0xbe05b1ba	-0.13056079
97	0x3d87fb32	0.066397086
98	0x3e91919b	0.284314
99	0x3cbb885f	0.022892175
100	0x3d831062	0.06399609
101	0x3ddfe7ce	0.10932885
102	0x3e500928	0.20315993
103	0x3d750ff8	0.059829682
104	0x3e8cd0af	0.27502963
105	0x3e343495	0.17598183
106	0x3e46cc93	0.19413976
107	0x3e567755	0.20943959
108	0x3d8e64fb	0.06952854
109	0xbe43c8fe	-0.19119641
110	0xbe2cbd9d	-0.16869207
111	0x3db35cf3	0.08757963
112	0xbbacde51	-0.0052755256
113	0xbdcb842e	-0.09937321
114	0xbde48fc0	-0.11160231
115	0xbe0d132a	-0.13776842
116	0x3ca4c9bf	0.020115731
117	0x3e0d16fb	0.13778298
118	0x3dc28cda	0.094995216
119	0xbd3cb540	-0.04607129
120	0x3d8c5a8f	0.0685321
121	0x3cc93fbe	0.024566527
122	0xbd7032e6	-0.05864229
123	0xbbecdb1a	-0.0072282674
124	0x3d116c4c	0.03550367
125	0xbdfcf0fc	-0.123506516
126	0x3e330a33	0.1748436
127	0xbb4ad81d	-0.0030951567
128	0x3e044965	0.12918623
129	0xbe278f94	-0.16363364
130	0xbe45842b	-0.192887
131	0xbd2cf3ad	-0.042224575
132	0x3dddec9d	0.10836146
133	0x3c98dd49	0.018660204
134	0xbd877f85	-0.06616119
135	0xbc19e144	-0.009392086
136	0x3d906033	0.070495985
137	0xbd98678b	-0.07441624
138	0xbd84ae90	-0.06478608
139	0xbc5c4fda	-0.0134467725
140	0xbc135fd3	-0.008995014
141	0xbd463bf9	-0.048397038
142	0xbce3f930	-0.027828783
143	0x3dbd5997	0.092456035
144	0x3da47381	0.08029843
145	0x3daef746	0.085432574
146	0x3e4bfe06	0.19921121
147	0x3d6176cd	0.055044938
148	0x3d6a5941	0.057214025
149	0x3e09a7b9	0.13442887
150	0x3e307f14	0.17235976
151	0x3e29a9d8	0.16568696
152	0x3e95c2bf	0.29250142
153	0xbdd3a1c7	-0.10333591
154	0xbd63b05b	-0.055588108
155	0xbe88ccf3	-0.26718864
156	0x3e119981	0.14218713
157	0x3e60c8cb	0.21951596
158	0x3d7fe6e4	0.062476054
159	0xbd6371e5	-0.05552854
160	0x3c56cf47	0.013110942
161	0xbc6b1c73	-0.014350045
162	0x3e9ef93e	0.31049532
163	0x3df11020	0.11770654
164	0x3d26ee9a	0.040754892
165	0x3d41d508	0.047322303
166	0xbe23b250	-0.1598599
167	0xbe777f83	-0.24169736
168	0x3d343341	0.043994192
169	0xbd4c3324	-0.04985346
170	0xbdcc8b57	-0.099875145
171	0xbccf34dd	-0.025293762
172	0xbd22a05d	-0.039703716
173	0xbe0f66e0	-0.14004087
174	0x3d2a64c8	0.04160002
175	0xbd94db94	-0.07268444
176	0xbd0015eb	-0.031270903
177	0xbd0db614	-0.03459747
178	0x3d6da581	0.058019165
179	0x3e109c40	0.14122105
180	0xbc834bfc	-0.016027443
181	0xbd3eb6e2	-0.04656113
182	0x3d84962c	0.064739555
183	0xbe234b8e	-0.1594679
184	0xbd455bfd	-0.04818343
185	0xbdda5371	-0.106604464
186	0x3db83aed	0.08995614
187	0x3e1f196a	0.15537038
188	0x3e42ee11	0.19036128
189	0xbd589e18	-0.052885145
190	0xbced1da2	-0.028944794
191	0xbd3802df	-0.044924613
192	0xbe105759	-0.1409582
193	0xbe1049d6	-0.14090666
194	0xbcf2d1b5	-0.029641012
195	0xbc5548ac	-0.013017815
196	0xbbe36422	-0.006939427
197	0xbd1a3f0d	-0.037657786
198	0xbc31cc28	-0.010851897
199	0xbd5c34f8	-0.053761452
200	0xbb1c5c4e	-0.0023858729
201	0xbdde2445	-0.108467616
202	0x3ccc0d1c	0.024908595
203	0xbd595a05	-0.053064365
204	0x3d17912f	0.037003692
205	0x3c3bd3ee	0.011464102
206	0xbde89f47	-0.11358505
207	0xbd8b23d9	-0.06793947
208	0xbd088d83	-0.03333808
209	0x3d27c2a1	0.040957097
210	0xbe1be365	-0.15223463
211	0xbd86276b	-0.06550487
212	0x3e00eba0	0.12589884
213	0xbd343284	-0.043993488
214	0xbdd3352d	-0.10312877
215	0xbd87ffa9	-0.0664056
216	0xbc67f213	-0.014156836
217	0x3cd1cd5d	0.02561062
218	0x3de3fe87	0.111325316
219	0x3d5413b7	0.051776614
220	0x3cc73f5b	0.024322202
221	0xbe21fc95	-0.15819009
222	0x3cd8f5f8	0.026484475
223	0xbd2bdc28	-0.041958004
224	0xbe18976a	-0.1490151
225	0xbe0d5a37	-0.13803945
226	0xbe747d20	-0.23875856
227	0xbe7af7fc	-0.24508661
228	0xbe09baae	-0.13450119
229	0xbe1e59c0	-0.15463924
230	0xbd8aedd4	-0.06783643
231	0xbca08bc0	-0.019597888
232	0xbd286580	-0.041112423
233	0xbe0f1344	-0.13972193
234	0x3c10daa3	0.00884119
235	0x3d83f147	0.064425044
236	0x3d05f9dc	0.032708988
237	0xbcfe513c	-0.031044595
238	0x3daf7a22	0.08568217
239	0xbd84f877	-0.064927034
240	0xbd313c43	-0.04327036
241	0x3de3ccea	0.11123069
242	0x3e9759b9	0.2956064
243	0xbdb61071	-0.08889855
244	0xbd6e4eca	-0.058180608
245	0xbdff0b15	-0.124532856
246	0xbe33fb17	-0.17576252
247	0xbd88211c	-0.0664694
248	0xbda3108b	-0.0796214
249	0xbe5d1813	-0.21591215
250	0x3d2a4542	0.041569956
251	0x3cd245e4	0.025668092
252	0xbda7f9bd	-0.08201931
253	0x3c33fa5a	0.010984981
254	0x3d8afd85	0.06786636
255	0xbe03b80e	-0.1286318
