Assets/Style_Transfer/Models/mas estilo/puntos e9-720.onnx (onnx, 449372 bytes, 62 tensors)

conv1.conv2d.weight f4 [8, 3, 9, 9]
000000 52 3f 5c bd c2 a0 5f bd 1d ef 84 bd 81 45 e9 bc
       -0.053771324 -0.05459667 -0.0649092 -0.028475525
000010 65 3f 88 bd 6c 19 26 bc c2 47 09 be c1 c5 e4 bd
       -0.066527165 -0.010137897 -0.1340628 -0.11170531
000020 06 07 ca bc f7 c8 95 3c b5 8d b2 3d 6f 74 c8 bd
       -0.024661552 0.018284304 0.08718435 -0.09787833
000030 c1 a6 5b be 98 f6 e6 bd 00 0a 73 3d 1f bc c3 bc
       -0.2145033 -0.11277503 0.05933571 -0.023893414
000040 a3 9b c5 bc 03 58 0d 3d 6c 92 80 bb 06 2f 09 3d
       -0.024122065 0.034507763 -0.003923705 0.03349211
000050 e8 16 60 be 34 03 c2 be 5e c8 31 be 2d 26 03 3e
       -0.21883738 -0.3789307 -0.1736159 0.12807532
000060 28 0f 9f 3d de 8a c9 3b 9d 79 29 3d e8 be dd 3d
       0.07766563 0.0061505875 0.041375745 0.10827428
000070 28 62 ad 3d f6 4c d2 be a2 6b 1f bf 73 c9 2f be
       0.084659874 -0.41074342 -0.6227361 -0.1716669
000080 57 f0 4d 3e f9 2c 4d 3e 83 d2 b0 3d d0 bf c5 3d
       0.20111214 0.20036687 0.08633902 0.09655726
000090 3c 2f df 3d c2 13 f7 bb 0c ff d2 be 7e 90 09 bf
       0.10897681 -0.007540197 -0.4121021 -0.537361
0000a0 c1 2a 32 be 7e 58 9c 3d 00 f5 a8 3d 2e 1c 46 3c
       -0.17399122 0.07634066 0.08249855 0.0120916795
0000b0 4a b8 e9 3d 5a 4a 93 3b fa af 12 be ce 39 14 be
       0.114121035 0.0044949474 -0.14324942 -0.14475176
0000c0 0f 53 eb bd 68 93 39 3d e5 77 26 bd 31 a6 98 3c
       -0.114904515 0.045306593 -0.040641684 0.018633934
0000d0 1d 14 c4 bc bd 52 d2 bc ad 92 0c bd 3e 21 05 be
       -0.023935372 -0.025674218 -0.03431957 -0.13000962
0000e0 cf 08 47 bd 79 af 21 bd 3f 76 7a 3c 15 be 1d bd
       -0.048592385 -0.039473984 0.015286981 -0.038511354
0000f0 d3 0f b4 3c 70 cc c6 bd 80 03 2e bd 18 e1 37 be
       0.021980202 -0.09706962 -0.042483807 -0.1795696
000100 8e 0d 31 bd f4 be aa bd 26 fc d7 bd 63 2c a7 bd
       -0.043225817 -0.08337203 -0.105461404 -0.08162763
000110 6b bb 00 bd 71 b0 55 bd c5 21 18 be 98 cf 43 bd
       -0.031428736 -0.05217022 -0.14856632 -0.0478054
000120 c0 75 31 be 59 ff bb bd 96 e3 f0 bd 2b ea 78 bc
       -0.17330074 -0.09179563 -0.117621586 -0.015192549
000130 95 de c1 bd 74 4e 11 be 85 92 cc bd 55 f5 fe bd
       -0.09466282 -0.14190084 -0.09988884 -0.12449137
000140 84 e8 b7 bd 45 67 dd bd c6 31 28 be 94 18 41 bd
       -0.08979896 -0.10810713 -0.16425237 -0.04714258
000150 f8 a7 b5 bd db 93 99 bd 30 bc bb bb f9 67 bf bd
       -0.08869928 -0.07498904 -0.005729221 -0.09346003
000160 04 15 a6 bc e3 60 2a bc d6 b3 ab bd 79 c6 e9 3b
       -0.020273693 -0.010399076 -0.0838391 0.0071342555
000170 73 27 14 be 02 47 3b be d8 63 e2 bd dd 70 82 bb
       -0.14468174 -0.18288806 -0.110542 -0.0039807395
000180 a7 01 e9 bc 30 49 84 bd f4 57 c3 bd 95 2a 1a be
       -0.02844317 -0.06459272 -0.0953826 -0.15055306
000190 e8 e0 4b bc c1 21 5a be be ac db be 07 10 0b be
       -0.012443759 -0.21301939 -0.4290523 -0.13580333
0001a0 12 15 91 3c 9c 9b c6 3c b6 2e 41 bd ef b8 c0 3d
       0.017710242 0.024244122 -0.047163688 0.09410273
0001b0 ad 68 f2 3c a7 96 c9 bc 43 91 da be 7a be 37 bf
       0.029590929 -0.02460797 -0.4268895 -0.7177502
0001c0 48 bf 15 be 75 de 41 3e 37 0c c7 3d ef e5 d9 3c
       -0.1462375 0.18932517 0.09719127 0.026598899
0001d0 50 1d e8 3d 96 92 cc bc 10 9f 1c be df 12 b7 be
       0.11333716 -0.024972241 -0.15295053 -0.35756585
0001e0 d6 49 0b bf 8d c9 6c be 0d f8 37 bd 14 4a 35 bd
       -0.5440954 -0.2312376 -0.044914294 -0.0442601
0001f0 1c c3 19 3d 18 57 14 3e 46 41 bb bd 07 45 45 be
       0.037539586 0.14486349 -0.09143309 -0.19264613
000200 fc 6f 54 be f5 9e 07 be 16 07 4b bd 6d 70 19 bd
       -0.20745844 -0.13244231 -0.049567305 -0.037460733
000210 00 24 dd 3c 0a f1 a7 bc e0 fe 38 bd fe b0 17 be
       0.026994705 -0.020500679 -0.045164943 -0.14813611
000220 13 83 74 be f4 e5 06 be 21 96 7f bc f3 f6 1f bb
       -0.23878126 -0.13173658 -0.015599758 -0.0024408668
000230 60 7e c2 bd 26 9d 1d 3d 75 90 62 bd 14 6c 65 bc
       -0.0949676 0.038479947 -0.055313546 -0.014002819
000240 be 89 13 be 03 49 3f be bb b7 57 bd d1 ba 0a bd
       -0.14408013 -0.18680196 -0.052665453 -0.03386957
000250 b9 00 61 bd 74 19 78 bd 9f 5e 6c bb dd 21 5c bd
       -0.05493233 -0.06057115 -0.003606714 -0.053743232
000260 a1 b5 85 bd 49 7c 17 be cd 52 06 be 5a 96 5a bd
       -0.065287836 -0.14793505 -0.13117523 -0.053366043
000270 ad ba 8a 3d c2 1a 18 bd 10 0e 16 bd 0f e9 4f bc
       0.06773887 -0.037134893 -0.036634505 -0.012689843
000280 6e 00 a3 bd e0 01 4e bd b6 10 f7 3a cf fa ce bd
       -0.07959066 -0.050294757 0.0018849585 -0.10106432
000290 9a 45 09 bd 4b bd 35 3d ff a5 2f 3d 91 3f 51 bd
       -0.033513643 0.044369977 0.042882916 -0.051086012
0002a0 59 1d d8 bc d0 b0 b1 3c d5 2c 40 bc 4f c6 ae bd
       -0.026381182 0.021690756 -0.011729439 -0.08533918
0002b0 50 5e f0 bc 6a ff c9 bc 78 af c5 bc 59 34 13 bd
       -0.029341847 -0.024657924 -0.024131522 -0.035938594
0002c0 fc 67 66 bc f8 24 bb bc 00 05 09 bd 4b 28 81 3c
       -0.014062878 -0.022844777 -0.033452034 0.015766283
0002d0 73 b8 3c bc 31 81 5c 3d 60 99 a8 bc d9 45 a6 bd
       -0.0115185855 0.053834144 -0.020580947 -0.08118791
0002e0 1f 84 78 3d ab 3b 45 3d 5e a9 40 3c 03 b7 1f 3d
       0.060672875 0.048152607 0.01175913 0.038992893
0002f0 14 b6 03 3d 7e 50 4d 3d a6 13 6b 3e ce ac 68 bd
       0.032156065 0.05012559 0.22956714 -0.056805424
000300 b7 f8 ea bd 8c 5b 47 3d 4c e9 50 3e 8c 67 8b 3d
       -0.1147322 0.04867129 0.20401496 0.068068594
000310 a7 bc 54 3d 80 b4 2a 3e b2 8a a4 3d 37 9a 00 3e
       0.051937725 0.16670418 0.080342665 0.12558828
000320 3e 08 87 bd 75 30 01 be 24 82 1c bd d7 7f a6 3c
       -0.06593369 -0.12616141 -0.03821005 0.02032463
000330 a5 ec 99 3d 66 37 1c 3e 81 37 19 3e 27 bf 07 bc
       0.075158395 0.15255508 0.1496258 -0.00828532
000340 9c 90 f0 ba ed 37 99 bd c1 85 a6 bc c2 32 81 3d
       -0.0018353644 -0.0748137 -0.02032745 0.063085094
000350 73 ff 9d bd 02 15 08 bd 7a 88 0f 3d 0f 7f d0 3d
       -0.07714739 -0.03322316 0.035042264 0.101804845
000360 de 86 bf 3b cf 54 94 bd 1f 02 33 3d f9 d2 ce bb
       0.005844935 -0.072427385 0.043703195 -0.006311771
000370 07 4c 32 3d 16 e6 6c bd 5b 94 3d 3d ec 54 a7 3c
       0.043529537 -0.057836615 0.04628406 0.020426236
000380 f8 b9 0f 3d 10 3f db bc 41 e2 3c 3d c8 3e 87 3d
       0.035089463 -0.026763469 0.04611421 0.066037714
000390 8a 72 eb 3d ac 97 23 3d 23 b2 f6 3c 08 7c b6 3c
       0.11496456 0.039939567 0.03011424 0.02227594
0003a0 3c f7 46 bb 95 4e 2c 3b 62 de d8 bd c4 a7 79 bd
       -0.0030359766 0.0026291956 -0.10589291 -0.06095101
0003b0 72 0f 24 bc ef ba 7e 3d c0 06 3d ba 44 bc c2 3c
       -0.010013448 0.062189993 -0.00072107837 0.023771413
0003c0 cf 23 c5 3b ec 5b 9d 3c d1 6c 22 bc 56 01 2e 3d
       0.0060162316 0.01920887 -0.009913639 0.042481743
0003d0 a0 cd 55 bd 9a ea a4 3d fb 63 e2 3d 8a 45 6f bd
       -0.052198052 0.08052559 0.11054226 -0.058415927
0003e0 61 3d be bd b9 64 32 bd 7b b0 4c bd b9 05 a4 bd
       -0.09289051 -0.043553088 -0.049972992 -0.08008904
0003f0 6c 78 df bc 78 21 e8 3c 81 be 86 3e 9b 3b e3 3d
       -0.027279101 0.028336272 0.26317218 0.11095353

conv1.conv2d.bias f4 [8]
000000 7a c0 7b 3d c9 2a f5 bd ee 79 cd 3d be 29 4c 3c
       0.061462857 -0.11971051 0.10033022 0.012461124
000010 c7 f1 29 3d 3c 4e 59 3e 25 39 3a bd bc 74 cf 3d
       0.041490342 0.2122125 -0.045464654 0.10129687

in1.weight f4 [8]
000000 cc f7 e5 3e 75 4f 6d 3e 1f 12 33 3e 14 97 a1 3e
       0.44915617 0.23174842 0.17487381 0.31560576
000010 78 ce 0a 3e 9a db 8e 3e dc fa 83 3e 40 49 70 3e
       0.13555324 0.27901918 0.25777328 0.23465443

in1.bias f4 [8]
000000 66 29 c5 3e d5 e4 e3 3f cd a1 10 40 f6 b6 cf 3f
       0.38508147 1.7804209 2.2598755 1.622771
000010 be 2b 07 40 d5 ec ae 3f 1b 27 e8 3f 4f 74 0f 40
       2.1120448 1.3666025 1.8136934 2.241474

conv2.conv2d.weight f4 [16, 8, 3, 3]
000000 15 ba 49 3c fa 6b 9f 3d 0c 52 1d 3e 30 37 8a be
       0.012312432 0.07784267 0.1536333 -0.2699523
000010 01 a8 17 be 59 c4 1a 3e 95 7d 9d 3e f5 90 28 be
       -0.14810182 0.15113963 0.30759874 -0.16461547
000020 38 bc ae be be e2 27 3e c9 06 b2 be bf 32 55 be
       -0.34127975 0.16395089 -0.34770802 -0.2082014
000030 1b 29 8a 3e 20 17 36 3e 20 bf a3 be e6 0d 04 be
       0.26984486 0.17782259 -0.31981754 -0.12895927
000040 60 44 de 3e e8 b0 ba 3d b3 41 bb bd 85 d6 24 3c
       0.4341154 0.091157734 -0.091433905 0.010060911
000050 fa 2a 8c bd be 36 e6 3d 4c 49 cf bd 70 7a e9 bc
       -0.06844135 0.1124091 -0.10121402 -0.028500766
000060 02 cd 13 3e d1 4d 8c 3d 48 db 15 bd 24 0c 1b be
       0.14433673 0.0685078 -0.036586076 -0.1514135
000070 93 73 6d bd f7 79 9f 3d 1e 65 dd 3d 1e 7f 41 bd
       -0.05797155 0.07786935 0.10810302 -0.04724037
000080 04 62 db bd b2 5e 15 3e 36 a1 1d 3e 93 df a0 bd
       -0.10712054 0.14586905 0.15393528 -0.078551434
000090 49 e0 41 be 14 3d 0d bd 62 03 bf 3c 46 47 81 3d
       -0.18933214 -0.034482077 0.023317043 0.063124225
0000a0 58 4f 08 be a4 58 49 bb 71 a7 36 3e 19 22 1c 3d
       -0.13311517 -0.0030723 0.17837311 0.038118456
0000b0 69 8b 71 3d a8 a1 5d 3d 38 21 aa be 14 98 b0 be
       0.058970843 0.054109246 -0.3322847 -0.34491026
0000c0 22 ac 97 3e fb 27 1e 3e 81 a4 50 be e9 09 a3 3d
       0.29623514 0.15444939 -0.20375253 0.079608746
0000d0 7f 01 01 3e cd 87 1a 3e 27 3a ca 3c 23 bf 3c bd
       0.12598227 0.15090866 0.024685932 -0.04608072
0000e0 19 3c c8 bd 85 a4 54 bd 34 cc a8 bd 84 bb a5 bb
       -0.09777088 -0.05191471 -0.08242074 -0.005057754
0000f0 72 2d fd bc 7e ff d9 3d c7 07 6e bd f3 18 7c 3d
       -0.03090546 0.106444344 -0.058112886 0.06154723
000100 c7 ac 34 be 66 4b 28 be 35 1c 26 3e 02 05 be 3e
       -0.17644034 -0.16435012 0.16221698 0.37113196
000110 22 a8 06 be 7a 1f 98 be be c7 9e 3c c9 f7 a2 3e
       -0.13150075 -0.29711515 0.019382354 0.3182967
000120 28 c1 aa 3c 01 8a 8e be bd 74 a0 be d4 b4 63 be
       0.020844057 -0.27839664 -0.31339064 -0.22236949
000130 07 d7 55 be bb 34 0b be 10 2e d7 bd 65 c2 6c be
       -0.20882808 -0.13594334 -0.105068326 -0.2312103
000140 70 15 06 be 6e 84 da 3d a8 cf bc bc 73 51 01 be
       -0.13094115 0.1066979 -0.023048237 -0.12628727
000150 fd 80 5c bd f8 bf 69 3d dd 11 4f bd 60 ee bf 3b
       -0.05383395 0.05706784 -0.050554145 0.005857274
000160 f0 3b a6 3d ba 50 99 3c 27 f3 07 bd 9d ec 4c 3e
       0.08116901 0.018715251 -0.033190873 0.20012136
000170 0f 60 41 3e e1 4a 7c 3d 54 4a 3e 3e 54 f9 5f 3e
       0.188843 0.061594848 0.18583041 0.21872455
000180 42 d2 c8 3d 8f e5 2c 3e 9a 69 8a bc 00 31 23 3e
       0.098057285 0.16884445 -0.016896058 0.15936661
000190 a9 a7 ad 3d a6 00 56 bd 50 50 19 3e 7c db c9 3c
       0.08479244 -0.052246712 0.14972043 0.024640791
0001a0 b2 3f 82 bd f9 6c 3b 3d 5a 7f 9b bd 3b 53 a6 3c
       -0.06359805 0.04575822 -0.0759265 0.02030336
0001b0 8a a8 be 3e 20 35 a6 3e f5 a7 91 3c fe c2 5e 3e
       0.3723796 0.32462406 0.017780283 0.21754071
0001c0 94 a3 cc 3d be 38 23 be d3 40 28 3d 4e 26 09 be
       0.099921376 -0.15939614 0.041077446 -0.13393518
0001d0 f0 cc 25 be a6 0b 03 3d fe 76 d3 bc 1f 37 46 3d
       -0.16191459 0.03199353 -0.025813576 0.04839241
0001e0 d4 95 5a 3e cd 84 d5 3e f2 c1 a3 3e f0 3f 2f 3e
       0.21346217 0.4170288 0.31983906 0.17114234
0001f0 23 07 a2 3e 61 27 b6 3e 09 57 3c 3e 98 99 18 3d
       0.3164607 0.3557692 0.18392576 0.037255853
000200 06 d3 34 be e0 58 1d 3e 2d 6e 41 3d 15 04 ec bd
       -0.17658624 0.15365934 0.047224212 -0.11524216
000210 58 b9 b1 3d 56 34 17 3d 5e c6 cd bc d1 78 4f 3e
       0.0867793 0.036915146 -0.025119003 0.20260932
000220 69 00 c6 3d 60 de 13 bd f7 42 ca bd 53 08 07 be
       0.09668047 -0.036100745 -0.09876054 -0.13186769
000230 86 18 4c be 26 fa 0f be f4 eb 2c be 6a 6f 4a 3d
       -0.1993123 -0.14060268 -0.16886884 0.04942266
000240 09 4f 3e 3d 93 4e d0 3d 61 18 a7 3d 68 f2 18 ba
       0.046462093 0.10171237 0.08158947 -0.0005834461
000250 c7 74 02 3e eb 3d 87 bd e9 b8 b6 3d 2c 06 18 3e
       0.1273986 -0.06603607 0.089219876 0.14846104
000260 27 e7 6c bd 57 a7 cc be 17 32 41 bd 9c c0 a0 3e
       -0.05783763 -0.3997142 -0.04716691 0.3139695
000270 ae 38 90 bd 14 30 d6 bc 8d e8 16 3e 18 8f 90 3e
       -0.07042061 -0.026145972 0.14737149 0.28234172
000280 bd 45 01 3e b6 83 fe be f8 ed 8c 3d 12 75 b7 bd
       0.1262426 -0.49709862 0.068813264 -0.08957876
000290 f1 b6 98 bd b0 e6 1a bd 24 bd 13 be 2a 9f db bd
       -0.07456768 -0.037817657 -0.1442762 -0.107237175
0002a0 2b 98 11 be 67 12 5a be 53 6d 12 bd 10 d8 69 bc
       -0.14218204 -0.21296082 -0.03574879 -0.014272705
0002b0 f9 18 e3 3c 24 b8 13 bb 40 45 b6 bd d6 34 8d bd
       0.027721869 -0.0022540176 -0.08899927 -0.06894843
0002c0 9d 63 0d 3c ca 67 0d 3d 35 fc 8a 3c 38 4e 4d bd
       0.008629707 0.03452281 0.016965965 -0.050123423
0002d0 a1 78 6f be b8 fc 9d bd 22 80 73 3c a1 b2 4e be
       -0.2338586 -0.07714218 0.014862092 -0.20185329
0002e0 10 17 12 be 88 16 e4 bb ea 67 a6 3d 9e 9a 6c 3c
       -0.1426661 -0.0069606937 0.08125289 0.0144411605
0002f0 cc 14 4c bd f5 a5 05 3e cd 62 b4 3d ff eb 60 be
       -0.04982452 0.13051589 0.08807907 -0.21965025
000300 27 2a b3 bd ba 3f d4 be 6a 5c 09 bf ea 51 49 be
       -0.08748274 -0.4145487 -0.5365664 -0.19660154
000310 23 23 a0 be 51 93 c5 be be 1d bb bd 7b 40 18 3c
       -0.31276807 -0.38588956 -0.09136532 0.009292717
000320 69 81 88 3b 23 8f cb 3c b8 cd 0f 3d fc 5d db 3b
       0.0041658175 0.024848526 0.035108298 0.0066945534
000330 a1 4c 93 3c d1 23 8a bb c3 43 30 bc a4 4a a0 be
       0.017980875 -0.0042156954 -0.010758343 -0.31306946
000340 06 dd 70 3d 6a 7a 22 3e 15 2f 94 3e e5 9b 81 3d
       0.058804534 0.1586701 0.2894217 0.06328563
000350 2d 0c 9c bc 29 53 d7 3e a4 7f 57 3e ae d2 62 be
       -0.019048775 0.42055634 0.21044785 -0.2215068
000360 55 de 31 3e 81 aa 94 3c 6a c9 9f 3b 8e 45 9e 3e
       0.17369969 0.018147709 0.0048763053 0.3091244
000370 da 6a 12 be b4 ed f3 bd e1 16 ee 3d e3 b2 a4 be
       -0.14298573 -0.11910573 0.116254576 -0.3216773
000380 20 61 21 be ff b2 45 be 59 80 61 bd 52 fa a9 3e
       -0.15759706 -0.19306563 -0.055054042 0.33198792
000390 49 74 a8 be 83 93 b6 3d 01 ff 61 3e e8 91 87 3e
       -0.3290122 0.089148544 0.22069933 0.26478505
0003a0 f0 a7 54 bd 24 81 91 be d5 dd 58 3e fc 2d 90 3e
       -0.05191797 -0.2841884 0.21178372 0.28160083
0003b0 b3 c7 91 be fe 19 29 3e da c9 b5 3d 37 79 8f be
       -0.2847267 0.16513821 0.08876391 -0.28022167
0003c0 27 b7 82 3e 7a 9a d2 be 97 a8 28 3c 24 bf 8a bd
       0.2553036 -0.4113348 0.010294101 -0.067747384
0003d0 d6 53 14 be 48 c0 87 bd 19 61 d7 bc 41 64 1b 3e
       -0.14485106 -0.066284716 -0.026291417 0.15174963
0003e0 ef 09 2e 3c 32 85 08 3e 56 5e 61 3d 17 2b a5 bd
       0.010622486 0.1333206 0.055021606 -0.08064859
0003f0 13 20 aa 3d 0f 99 45 bd 6d 7f 31 be 63 51 a3 3e
       0.08306899 -0.04824167 -0.17333765 0.3189803

conv2.conv2d.bias f4 [16]
000000 b1 ad 11 3e 11 9a b9 3a 79 f7 6b be 0b d5 fc 3d
       0.14226414 0.0014160295 -0.23043622 0.12345322
000010 f2 35 09 3e ad b2 97 3c 47 d6 4e 3e 39 df 4c 3e
       0.13399485 0.018517816 0.20198928 0.20007028
000020 3e 94 a8 bd 80 ce 01 bf 20 2b db 3d 3a 24 23 3c
       -0.082314 -0.5070572 0.10701585 0.009957368
000030 f4 25 31 bd 29 91 3b be 3d c0 bc bd 5d 64 1d bc
       -0.043249086 -0.18317093 -0.09216354 -0.009606448

in2.weight f4 [16]
000000 e5 5f 71 3e af c1 ad 3e c9 7f d0 3e 36 5a 4e 3e
       0.23571737 0.3393683 0.40722492 0.201516
000010 03 c2 6b 3e 1c c3 7d 3e 13 c7 4d 3e 72 a7 7c 3e
       0.23023228 0.2478146 0.20095472 0.2467325
000020 44 b5 c6 3e d3 52 a2 3e 10 18 77 3e 71 a8 84 3e
       0.3881017 0.31703815 0.24130273 0.2590976
000030 e3 09 a1 3e 06 09 c3 3e 23 c4 66 3e 41 21 31 3e
       0.31452855 0.38092822 0.22535758 0.17297842

in2.bias f4 [16]
000000 d1 44 f2 bc 52 4a 85 be 24 7f a5 3e 25 74 60 3d
       -0.02957383 -0.26033264 0.32323563 0.054798264
000010 db 48 13 3e 5c ba 80 bd 24 0e 30 3d de 83 7a 3e
       0.14383261 -0.06285545 0.042982236 0.24464366
000020 97 5e 92 be cc 14 c0 be 2e f7 e6 bd 32 43 23 be
       -0.2858779 -0.37515867 -0.112776145 -0.15943602
000030 3c de 78 be 96 11 c7 be 1e 23 c8 3e dd eb f3 bd
       -0.24303526 -0.38880605 0.39089292 -0.11910222

conv3.conv2d.weight f4 [32, 16, 3, 3]
000000 56 4a 16 be 61 7b 50 3e 01 c3 49 bd 4e 2b be be
       -0.14676794 0.20359565 -0.049258236 -0.37142414
000010 75 bf c9 be 21 c2 79 bd bc bf 4b be ca e0 98 be
       -0.39403883 -0.06097615 -0.1989736 -0.29859
000020 99 dc b1 be c3 6a 7b be bc a7 62 be 3b 1e 6e be
       -0.34738615 -0.24552445 -0.22134298 -0.2325372
000030 da 24 2a be bd 34 2a bf 91 af fc be 12 ad 82 be
       -0.1661562 -0.6648672 -0.49352697 -0.25522667
000040 37 e3 e1 be c8 35 0d bf cf cd 8c 3c ae 6e 02 bd
       -0.44118664 -0.5516019 0.017187981 -0.031843834
000050 18 2b 6a bc 12 e0 d7 bd 65 09 a4 bb dd 2b 39 3e
       -0.014292501 -0.10540785 -0.0050060027 0.18083139
000060 49 1f 49 bb f7 77 4e bd 0b 9a f0 3d 28 0f 05 3c
       -0.0030688813 -0.050407376 0.11748131 0.008121289
000070 df 7e 33 3d 7b 1e 6c be 9b 8c b1 3d d8 19 15 be
       0.043822166 -0.23058502 0.086693965 -0.1456064
000080 8b ab 6f be 3f 88 4a 3e fd bf 18 be f8 e1 a9 be
       -0.23405282 0.19778536 -0.14916988 -0.33180213
000090 02 1c ff bd 14 cc 25 bd df fc 00 3e 41 34 01 be
       -0.12456514 -0.040477827 0.12596463 -0.1261759
0000a0 a3 43 ad be 00 69 9c be 50 ae 3e be d1 dd 7f be
       -0.33840665 -0.3054886 -0.18621182 -0.2498696
0000b0 e2 ca b6 be 2f 69 e2 3c f9 73 f1 3d 6f 32 cb 3d
       -0.35701662 0.027638046 0.11789698 0.09921729
0000c0 27 a3 0f be b0 b9 99 bc c8 1b b5 bc 2f ee 09 be
       -0.14027081 -0.0187653 -0.022107974 -0.13469766
0000d0 5f 0c a3 be d3 b0 45 be 73 42 92 3c 6a 51 2e 3e
       -0.31845376 -0.19305734 0.017853951 0.17023245
0000e0 a7 f5 29 3e e8 68 9a be 92 48 fe bd 1b 8c 84 bd
       0.16597615 -0.30158162 -0.124161854 -0.064720355
0000f0 56 61 02 bf 56 ba cf be c4 d2 36 bf db 87 8f bd
       -0.5092977 -0.4057185 -0.7141535 -0.07008334
000100 dd 2b dd bd 0f 23 a9 bd 27 0d ed 3d 5d 36 4a 3c
       -0.10799382 -0.0825864 0.11574774 0.012342063
000110 73 6b 0e 3e 7f 8e 49 3d 7c b5 53 3c 95 6d 8e 3d
       0.13908176 0.04920816 0.012921687 0.06954495
000120 64 af bd 3c 1e 4d 9b 3d 96 81 1f bd b1 cb c9 3d
       0.023154922 0.07583068 -0.038941942 0.09853304
000130 ad 37 e1 bd 03 52 8f be 5b 98 7f be 19 2e 23 be
       -0.109969474 -0.27992257 -0.24960463 -0.15935554
000140 46 71 40 be d9 f6 71 3d a9 9d 73 bd f1 b5 47 be
       -0.1879321 0.059073303 -0.05947653 -0.19502999
000150 b8 44 a6 3d d6 56 2e 3e 5a b3 ac bd cb 65 44 be
       0.08118576 0.17025313 -0.08432646 -0.19179456
000160 f1 d9 30 be d2 7e a7 ba 84 10 d0 bd 7c 3d 5d bd
       -0.17270638 -0.0012778884 -0.101594 -0.054013714
000170 49 07 06 be 07 7a 36 be 86 69 f4 bc 27 fd 8d bd
       -0.13088717 -0.17819987 -0.029835474 -0.069330506
000180 de 98 e8 3d 8d 42 12 bd cd a3 aa 3d 49 84 22 be
       0.11357282 -0.035708 0.08332024 -0.15870775
000190 64 bd 7c 3b 9d 73 76 be 50 30 0b bc e6 0c ee bd
       0.0038565034 -0.2406754 -0.008495405 -0.11623554
0001a0 ff 46 3c be 5f 3e 06 3d fa a0 fa bd f4 0a 26 be
       -0.18386458 0.032774325 -0.12237735 -0.16215116
0001b0 0f 21 25 3e 3b 05 b7 bd e0 ba 08 3c 3d bc d4 3d
       0.16125892 -0.089365445 0.008345336 0.10387466
0001c0 da d8 32 bb fb 36 fb 3b 02 01 84 3c a1 b3 12 bb
       -0.0027289898 0.0076664663 0.016113762 -0.00223849
0001d0 ed 99 0d 3e 32 a7 2b 3c 5f a6 a4 3d 15 79 99 3b
       0.1382825 0.010476874 0.08039545 0.0046836236
0001e0 b0 02 0b be 64 73 d9 3d db 2f a8 3d db 13 04 3e
       -0.13575244 0.10617712 0.08212253 0.128982
0001f0 bb 42 57 bd 94 c6 2b 3d 20 fb 99 3c ce 49 22 3d
       -0.052553874 0.041937426 0.018796504 0.039621167
000200 e7 b0 7f bd 4c 52 4f be 29 db a6 bd fd c0 0a 3e
       -0.062424567 -0.20246238 -0.0814727 0.13550182
000210 24 bb 00 bc f5 f2 c6 bd 32 05 94 3d 12 8d 0f 3e
       -0.007857118 -0.09714309 0.072275534 0.14018658
000220 fa 04 5b 3e 71 5a 08 3e da 15 68 3d 22 75 56 3e
       0.21388617 0.1331575 0.056661464 0.2094312
000230 d1 aa 82 3e 06 f5 1e be 17 a2 b9 bc 89 80 bb 3d
       0.25520948 -0.15523157 -0.022660298 0.091553755
000240 b9 fb af 3d b4 77 cb 3d f2 d4 17 3e 84 38 a3 3b
       0.08592934 0.09934941 0.14827326 0.0049811024
000250 2e c1 c0 3d 34 fe f6 bd 4b f2 54 bd ca 29 a1 bd
       0.09411846 -0.12060204 -0.05198888 -0.07869299
000260 74 b0 ba 3d d4 81 4f be 69 ea 10 be 3f 41 53 3c
       0.09115687 -0.20264369 -0.1415192 0.012893974
000270 eb 47 cf bd 9d 54 8a 3d 3f c9 66 3c 66 ca 3d 3d
       -0.10121139 0.0675442 0.014086067 0.0463356
000280 22 c9 32 3e bf 94 68 bc 97 b0 c7 3e dd 34 89 3e
       0.17459539 -0.01419562 0.39001915 0.26798144
000290 68 fa 68 bd d1 7d 29 3e 56 bb 1e be a3 70 aa be
       -0.05687943 0.16551901 -0.1550115 -0.3328906
0002a0 b6 c7 05 be bd 0b 6d be 13 f9 f5 3d 21 3a d5 be
       -0.13064465 -0.23149009 0.12010398 -0.4164591
0002b0 58 78 15 3d 97 d5 6a 3e 93 9f ea bd 46 08 90 3e
       0.036491722 0.2293304 -0.114562176 0.28131312
0002c0 57 11 de bd 4a 2d d0 3d 65 39 26 be 70 96 3c bd
       -0.10843151 0.10164888 -0.16232832 -0.046041906
0002d0 d3 9f f7 bd 35 96 4e be 9d 6d 45 3d fc 64 27 be
       -0.12091031 -0.20174487 0.04820024 -0.16347116
0002e0 14 70 28 3e 18 c0 3a 3e 8f 57 4d 3d e7 d8 b9 3d
       0.16449004 0.1823734 0.05013233 0.09074574
0002f0 0a c9 7a 3d 85 39 bf 3d 82 cd dc bc bb a0 54 bd
       0.061226882 0.09337143 -0.026953463 -0.051911097
000300 ed c3 67 3c 8d fb a4 3d d9 d7 10 bd 4c fc 1d 3d
       0.014145833 0.08055792 -0.0353621 0.038570687
000310 31 f5 bf 3d a0 5d 23 3e f8 2c 5e 3d 73 c3 65 bd
       0.093729384 0.15953684 0.054242104 -0.056094598
000320 ec 6f 85 be bb ab be be 7f 73 87 bd c2 27 01 3e
       -0.26061952 -0.37240395 -0.06613826 0.12612823
000330 20 14 d0 bd dd be a6 3e 3b 2d a1 3d 2e ca 27 3c
       -0.101600885 0.32567492 0.07869955 0.0102410745
000340 bd 9c 42 3e 0a 93 71 3e 98 d2 79 3e f2 05 5f 3d
       0.19005103 0.23591247 0.24396741 0.05444903
000350 33 c2 a0 be 5b d8 2f 3d a5 c5 75 be 10 5e 21 be
       -0.31398162 0.042930942 -0.24001177 -0.15758538
000360 9e c8 3a be d0 6c 0b 3d 2b 4b 02 bd 49 75 95 bc
       -0.18240592 0.03403932 -0.031809967 -0.018244402
000370 47 4b c4 3d 88 30 40 be 1c 15 2d 3b 22 e8 1f be
       0.095846705 -0.18768513 0.0026410287 -0.15615895
000380 b3 b4 05 be 17 13 d9 bc 5b fa a6 bd 9e b2 45 be
       -0.13057213 -0.02649836 -0.0815322 -0.19306418
000390 55 c4 28 3d 54 62 82 3d 7b d5 8a 3d a4 63 27 3d
       0.04120286 0.06366411 0.067789994 0.04086651
0003a0 21 23 a2 3e df c2 96 3d ad 57 fd 3d c7 4b 96 3c
       0.31667426 0.073613875 0.123702385 0.01834668
0003b0 e2 c2 a7 bd 77 60 0e bc c3 87 55 3d 52 02 bc bc
       -0.08191468 -0.008689991 0.052131426 -0.022950325
0003c0 e6 93 54 bd 55 a3 aa 3d 64 e5 26 3d 79 42 1b 3d
       -0.05189886 0.08331934 0.040746108 0.03790519
0003d0 30 d9 8b 3d d4 af 0c 3d 38 a8 5a 3e e2 d2 88 3e
       0.068285346 0.03434737 0.21353233 0.2672339
0003e0 ea 6a 53 be d6 ec ee bc a0 2f 8f be d2 52 94 bc
       -0.20646253 -0.029165667 -0.27966022 -0.018105898
0003f0 63 92 8a bc 63 ff 23 3e 88 83 01 3e cd 92 36 3e
       -0.016915506 0.16015391 0.12647831 0.17829438

conv3.conv2d.bias f4 [32]
000000 b3 18 c0 bd cd 16 14 3c a5 f8 42 be 12 6c 29 3e
       -0.09379711 0.009038639 -0.19040163 0.16545132
000010 ea dd 39 3e 81 14 e7 bc fa a4 04 3e 32 f5 ad 3e
       0.1815106 -0.02820802 0.12953559 0.33976132
000020 65 9e 98 3d ab 59 46 bd ca 17 55 3d db f0 56 3d
       0.07452086 -0.048425358 0.05202464 0.05247579
000030 53 a3 17 be 88 b6 28 be 91 1a 34 bb e3 ea 6b bd
       -0.14808397 -0.1647588 -0.0027481655 -0.057597052
000040 a4 86 6d 3d b1 13 97 3e 8b 6f 84 be 45 99 1c bd
       0.05798973 0.2950721 -0.2586635 -0.038232107
000050 1f 04 04 3e b2 0e 06 bd ea 38 b2 3d 9a 14 22 3e
       0.12892197 -0.03272886 0.08702262 0.15828171
000060 af 50 e0 bd 73 ba be 3d 89 79 16 3e f7 91 aa 3e
       -0.10952889 0.09312906 0.146948 0.33314487
000070 56 39 d6 3d 41 7c f0 bc 85 76 b0 3e d6 04 de 3d
       0.10460155 -0.029356124 0.34465423 0.10840766

in3.weight f4 [32]
000000 7e 84 53 3e aa b3 0a 3e b9 72 d7 3d a1 de 1b 3e
       0.2065601 0.13545099 0.105199285 0.15221645
000010 87 6e 37 3e 05 1a 82 3e d1 ef 3d 3e f9 14 91 3e
       0.17913257 0.25410476 0.18548514 0.28336313
000020 c5 db 50 3e ec 2f 27 3e 2a ce 24 3e 2f 05 40 3e
       0.20396335 0.16326874 0.1609427 0.18751977
000030 d8 1b 91 3e d5 a6 00 3f c4 e9 12 3e 76 11 65 3e
       0.28341556 0.50254565 0.14346987 0.22369942
000040 eb 85 8e 3e e5 51 86 3e 64 cc e3 3e 9d 5e a5 3e
       0.27836546 0.26234356 0.44491875 0.32298747
000050 dc 2c a1 3d 40 35 ba 3e ba de 1f 3e 5b 7c 37 3e
       0.07869884 0.36368752 0.15612307 0.17918532
000060 61 a3 44 3e 60 07 86 3e 61 df 71 3e 9b 6e 7e 3e
       0.19202949 0.26177502 0.23620369 0.2484688
000070 f3 7c 55 3e b7 b0 02 3e ed 0d 5b 3e bd c2 a0 3e
       0.20848446 0.12762724 0.21392031 0.31398574

in3.bias f4 [32]
000000 94 02 c2 bd 5a 49 70 3c 27 0c 5c 3d 2c 06 28 bb
       -0.09473148 0.014665926 0.053722527 -0.0025638444
000010 2c 33 a3 bc 27 d0 98 bc 06 ac 1e 3b ff b6 3d be
       -0.019921862 -0.018653942 0.002421142 -0.18526839
000020 4c c5 6d 3d 2d 31 cc 3d 1e 55 28 3c 59 98 23 bc
       0.058049485 0.09970317 0.0102742 -0.009985053
000030 c0 4f 83 bd d1 dd e7 bd 91 3b 20 3e 30 46 87 bd
       -0.064116955 -0.11321605 0.15647723 -0.06605184
000040 49 39 c0 bd ba 15 73 3e 88 9a b5 be 15 a8 49 be
       -0.09385926 0.23738757 -0.3546946 -0.19693024
000050 00 ed e1 3c cd 8e 56 be 24 d3 ad bc 4f 6e 0a 3e
       0.02757883 -0.20952912 -0.021218844 0.13518642
000060 49 d1 0f 3d 50 e5 18 be b5 8c b0 3b 6d 99 d2 bc
       0.0351117 -0.14931226 0.0053878673 -0.025707925
000070 5f ee ed bc fb 2b 7e 3b 38 9f fa bd 99 69 8a bd
       -0.029044328 0.0038783539 -0.122374 -0.067584224

resnets.0.conv1.conv2d.weight f4 [32, 32, 3, 3]
000000 20 7f 36 bd 6f db 1c 3e ea 31 64 3d e1 ab 3d be
       -0.04455483 0.15318082 0.055711664 -0.18522598
000010 58 a0 39 be dc 42 c2 bd 34 1c e9 3d fa 10 f8 bc
       -0.18127573 -0.09485409 0.113823324 -0.030281533
000020 8d 1b af bd 33 2c d8 bc ee c7 3f be bb f4 11 be
       -0.08550177 -0.026388263 -0.18728611 -0.14253514
000030 63 6d 32 be 9a 6f 51 be 9e 46 69 3e 03 29 28 be
       -0.1742454 -0.20452729 0.22780845 -0.16421895
000040 d6 ea b3 bd 38 42 63 bd 24 7f 43 bd aa 1b bc 3d
       -0.08785026 -0.055483073 -0.047728673 0.09184964
000050 4d e7 c0 bd 48 ee 1a bb 59 f4 e9 3d a6 9a a2 3c
       -0.09419117 -0.0023640562 0.11423559 0.019849133
000060 e4 49 6e bc 66 52 32 bc a2 3b ce 3d 20 1e 45 be
       -0.014543984 -0.010883903 0.10069968 -0.19249773
000070 c0 f0 1c bd 0b a9 42 bb d6 84 9c 3d f0 70 54 be
       -0.038315535 -0.0029702808 0.07642524 -0.20746207
000080 3c e0 47 3d ea dc 2d be 01 0f c9 3c 65 bd 53 be
       0.04879783 -0.16978803 0.024543287 -0.20677717
000090 b9 3b af 3d 3a ca 59 be 07 59 51 be 3a c6 f1 3c
       0.08556313 -0.2126855 -0.20444117 0.029513467
0000a0 c2 f4 d4 3d be 2f 92 be 3c c5 45 bd a1 82 8c 3c
       0.10398246 -0.2855205 -0.0482838 0.017152132
0000b0 b2 2f 08 be c9 45 cf bd a3 45 b6 3c 34 21 cd 3c
       -0.13299444 -0.10120732 0.022250002 0.025040247
0000c0 31 57 84 3d ad cb 6e bd 68 71 8f 3d ac 1a fc 3d
       0.06461943 -0.05829971 0.070040524 0.12309775
0000d0 5c 90 9f 3d 03 a9 cb 3d 9d 67 3b be e1 26 96 bd
       0.07791206 0.09944346 -0.18301244 -0.07331634
0000e0 5a a8 b1 3d 26 62 42 be cb 70 b1 be 80 25 0b bc
       0.08674689 -0.18982753 -0.34656367 -0.008492827
0000f0 83 60 92 be 3e 3e c7 3c 3b c4 6e be cf c0 df bd
       -0.28589258 0.024321672 -0.23317043 -0.10925447
000100 75 24 43 be 5f 48 a2 be da 8b cc bd 76 fd aa be
       -0.19056876 -0.3169584 -0.09987612 -0.333965
000110 6f 52 d1 be 10 bf d4 be 36 bb af be 69 ee e0 be
       -0.40883204 -0.4155202 -0.34322518 -0.43931893
000120 86 e2 1f bd 03 e8 69 bd 46 d0 0d be 3e 25 5f 3d
       -0.03903439 -0.05710603 -0.13848981 0.054478876
000130 e7 e0 95 be af e0 d8 bd 85 e4 01 bd 91 c3 be bd
       -0.2927315 -0.1058973 -0.031712074 -0.09314645
000140 8a 1e 8a bd b9 17 1d be 50 16 91 bd 08 51 43 be
       -0.06744106 -0.1534108 -0.07084334 -0.1907388
000150 c9 8f c7 3d db c7 72 bd 07 5f d3 3c 54 d7 ce 3d
       0.09744222 -0.05927263 0.025802149 0.10099664
000160 3b 31 f9 bd 3a 2b e1 bc 9c 73 89 3d f0 29 c4 3b
       -0.12167593 -0.027486432 0.06711504 0.0059864447
000170 7e b3 b4 bc 86 00 32 be a0 64 12 3c 5e fc 91 3d
       -0.022058245 -0.17383012 0.008935124 0.07128213
000180 b7 e6 b3 bd 1c b2 1d be d1 0a c0 bd 4e 9e 1b be
       -0.0878424 -0.15399975 -0.09377063 -0.15197107
000190 46 89 88 3d 45 1e d0 3c 8b d8 f6 bc 9b e5 5f 3d
       0.06666808 0.025405059 -0.030132553 0.05466233
0001a0 30 e9 de bd 40 c7 c1 bd 83 a1 40 bd 82 c4 76 bd
       -0.10884321 -0.09461832 -0.04702903 -0.060246
0001b0 25 33 af 3d cb db 06 bb a5 51 8a 3d bd 4c d8 bd
       0.08554677 -0.0020577784 0.06753854 -0.10561512
0001c0 e9 75 13 3c 8e 8d e6 3d e2 dc 9e be 3f 33 5f be
       0.00900028 0.11257468 -0.31027895 -0.21796893
0001d0 28 db 01 be d4 51 1b 3e a3 0e 9f 3d f6 c5 d9 3d
       -0.12681258 0.15167934 0.077664636 0.10633461
0001e0 6a 7d d1 3c 60 c9 84 bd 62 81 3f be db 1d 0c 3e
       0.025572497 -0.06483722 -0.187017 0.13683264
0001f0 ee d3 08 3e 6f 68 af 3d 85 bf d6 3b d8 10 92 bd
       0.13362095 0.08564841 0.0065535926 -0.07132119
000200 66 f3 30 3e 53 29 c2 3e 2e 20 cb bd 54 cc 03 be
       0.17280349 0.37922153 -0.09918247 -0.12870914
000210 61 94 48 3d 58 68 44 bd 0b 4f c4 bc f0 f6 39 3d
       0.04896963 -0.047951072 -0.023963472 0.045401514
000220 22 7c ad bd 83 4c 7e be 8f b3 86 bc 1a ea d3 be
       -0.08470942 -0.24833874 -0.016443042 -0.41389543
000230 5a d2 8d be b7 4e 22 be 0c 9a 2c bd e6 51 0d be
       -0.27699548 -0.1585034 -0.042139098 -0.13800773
000240 be 2c e9 bc ed a7 3d 3e 7b f2 53 3b f0 1e 06 3d
       -0.028463718 0.1852109 0.0032340575 0.032744348
000250 fc 9e d0 3d 3e 03 5f be 24 80 cc 3d 87 2f 3c 3d
       0.10186574 -0.2177858 0.099853784 0.045943763
000260 0b 5c f9 bd ed b8 c7 bd fb fb 4f be 0d f8 da bc
       -0.12175759 -0.09752069 -0.20310967 -0.026729608
000270 51 73 93 3c 64 c3 90 bd ce 6e 93 be 37 9a d6 3d
       0.017999323 -0.07068518 -0.28795475 0.10478633
000280 e0 8c 01 3d 73 a0 95 3c 0f 03 49 bd b5 d6 e0 3d
       0.03162849 0.018264985 -0.049075183 0.10978452
000290 f6 7f ca 3d 93 14 82 bd f7 64 89 be d9 b5 2e be
       0.09887688 -0.063515805 -0.26834843 -0.17061557
0002a0 54 29 8a be 5a ab b3 be f2 66 83 be be 16 c1 bd
       -0.26984656 -0.35091668 -0.2566448 -0.09428166
0002b0 99 9b 0e be d6 cb 9c be 6f f0 8b be 3e 89 4e bd
       -0.13926543 -0.30624264 -0.27331874 -0.050423853
0002c0 97 99 c5 be f6 80 4c 3d d0 6a 01 3e f7 77 29 bd
       -0.38593742 0.049927674 0.12638402 -0.041374173
0002d0 d1 2b 3e be b6 44 19 3d 48 72 a3 3c f2 1c 29 3e
       -0.18571402 0.037419043 0.019951954 0.16514948
0002e0 b1 e6 f4 bd 8e ff cf bc 65 b2 15 3d 46 cb 8b bd
       -0.119580634 -0.025390413 0.036547083 -0.06825881
0002f0 3d f6 4b 3d 14 fe 16 be 4a d3 72 bd 2d 5b 37 3d
       0.049795378 -0.1474536 -0.059283532 0.044764686
000300 c6 90 99 3b 3e 86 09 bd e5 ee 8c be 9a 8d 27 be
       0.004686448 -0.03357529 -0.27526012 -0.1636261
000310 6b c4 90 be e0 f1 37 be 6d b0 32 be fa 2f 00 3e
       -0.28274855 -0.17963362 -0.17450114 0.12518302
000320 3b 3e b8 be b3 c0 37 be 03 be d9 3d 12 db 33 bf
       -0.35984978 -0.17944603 0.10631945 -0.7025615
000330 cb 2b 55 bd 2f 06 42 be 92 15 07 be 5b 87 71 bc
       -0.052043717 -0.18947671 -0.13191822 -0.014741744
000340 98 bc 8a 3d ea e2 67 bc 05 5a 70 3d 9f 1c 58 be
       0.06774253 -0.014153222 0.0586796 -0.21104668
000350 64 b3 35 be a5 f7 87 3d 26 80 b9 bd bb 9a c0 b8
       -0.17744213 0.06639031 -0.090576455 -9.184094e-05
000360 18 99 ce bd a9 d5 77 3c 1b 3e c6 bd 0b e2 92 3d
       -0.10087794 0.015126624 -0.096798144 0.071720205
000370 8f 98 c6 bd 3e 0e d3 bd 65 34 f5 bd ab e1 71 bd
       -0.09697067 -0.10305451 -0.11972884 -0.059053104
000380 6d f5 52 3d 7f fd 97 3d ac 67 08 be ab 3a 4b bc
       0.051503588 0.074213974 -0.13320798 -0.012404124
000390 16 63 34 bd 14 b6 b2 bd 26 06 26 bd 73 80 89 bd
       -0.04403981 -0.08726135 -0.040533207 -0.06713953
0003a0 69 e5 34 be c7 26 4c be 4b b2 5e bd a7 49 21 3b
       -0.17665638 -0.19936667 -0.054369252 0.002461055
0003b0 5f 0b ce bb 8e b0 52 be 6a 07 25 be 3b 6a 1f 3e
       -0.0062879766 -0.20575163 -0.1611611 0.15567867
0003c0 60 18 a7 be 24 ad 84 bd e8 56 7e bd 08 c6 38 be
       -0.32635784 -0.064783365 -0.0620946 -0.18044293
0003d0 db ea db be cb 70 a3 3d 69 5f 3a be 09 8f af 3d
       -0.42952618 0.07980498 -0.18200459 0.08572204
0003e0 41 45 e3 3e 2f f6 42 be ef d6 3e 3d 6a 8f 8d 3e
       0.44388774 -0.19039224 0.046591695 0.2764848
0003f0 49 fe 11 be e0 92 96 3c b0 30 02 3c 92 3a 10 3d
       -0.14257158 0.018380582 0.007946178 0.035212107

resnets.0.conv1.conv2d.bias f4 [32]
000000 13 de f8 3c af 22 5a be 7e 40 86 be 37 77 8d 3d
       0.03037933 -0.21302293 -0.2622108 0.06907504
000010 fe 3c 6d bd 11 f2 f5 3d 64 d1 4c 3e ee fa 1e 3e
       -0.057919495 0.12009061 0.20001751 0.1552541
000020 3c 4c 76 3e 0b 99 3f 3d f5 c1 c7 3d d9 1d 80 be
       0.24052519 0.046776813 0.09753791 -0.25022772
000030 82 a2 ce 3d de 42 1f 3e cf 6b 75 3e de 71 2c be
       0.1008959 0.15552852 0.23966907 -0.16840312
000040 bf 50 21 bd 0c 8c 16 be 3f f1 87 3e eb de 6c be
       -0.039383646 -0.14701861 0.26551244 -0.23131911
000050 ec 6c be be 17 54 18 bd 4f 9c 2d be 38 f4 5e be
       -0.37192476 -0.03718957 -0.16954158 -0.2177285
000060 8b 18 c9 3e 96 3f a1 bc f3 56 68 3d c4 ea da be
       0.39276537 -0.01968364 0.056723546 -0.42757237
000070 99 f7 98 3e 01 4f ed 3d be 57 06 3d 0c 47 1f 3e
       0.29876402 0.115873344 0.03279852 0.15554446

resnets.0.in1.weight f4 [32]
000000 23 da 50 3f 01 89 10 3f dd ce 68 3f a1 56 2b 3f
       0.8158285 0.5645905 0.9094065 0.6692906
000010 7c 83 7c 3f 1c c2 23 3f 34 bb 85 3f 40 4b 1c 3f
       0.9863813 0.6396806 1.0447755 0.6105232
000020 5d 68 8d 3f 8b a8 42 3f 76 40 72 3f 42 ba 5e 3f
       1.1047474 0.76038426 0.9462961 0.87002957
000030 68 b0 b1 3f 9c d5 82 3f 23 f4 31 3f 6d c8 68 3f
       1.388196 1.0221438 0.6951315 0.90930825
000040 de b8 7c 3f f2 4e 28 3f 60 28 51 3f 77 20 81 3f
       0.98719585 0.6574546 0.8170223 1.0088032
000050 eb 47 a1 3f 9f 66 96 3f 03 4e 8a 3f 28 2a 6f 3f
       1.2600073 1.1750067 1.0805057 0.934237
000060 58 09 6d 3f 8a 35 84 3f 05 84 80 3f cf 59 65 3f
       0.9259238 1.0328839 1.0040289 0.8959016
000070 32 76 88 3f 7e cc 6f 3f 27 77 74 3f 5b e2 9a 3f
       1.066107 0.93671405 0.9549431 1.2100328

resnets.0.in1.bias f4 [32]
000000 66 27 0c 3d 5e 7f 2e 3f 99 7c fc 3b a0 6b 1b 3c
       0.03421726 0.68163097 0.007705283 0.009486109
000010 0e bd d0 be d4 6c 55 be ac 7d a7 bd 2a 1d 56 3e
       -0.40769237 -0.20842296 -0.08178267 0.20909563
000020 a0 2c 87 be 75 2e 51 3e 54 bc 49 bf ce d4 9b be
       -0.26401234 0.20427878 -0.7880299 -0.30435795
000030 21 9d f1 be 48 e3 ac 3d 76 11 76 3d 75 d7 f9 bd
       -0.47190192 0.08441788 0.060075246 -0.12199298
000040 11 40 61 be 55 e4 b5 3e 07 41 34 be ca 09 d8 3d
       -0.21997096 0.35525766 -0.17602931 0.10548742
000050 19 ac ce be 29 a0 29 3d b0 e6 8a be 35 61 a1 3e
       -0.40365675 0.041412506 -0.27129126 0.31519476
000060 63 54 91 bc 2f 25 b7 3d c1 b7 4d 3d 71 fa 0e be
       -0.017740434 0.08942639 0.05022407 -0.13962723
000070 40 36 98 bf 42 74 55 be 19 1a a7 3c 57 40 12 be
       -1.1891556 -0.2084513 0.020398187 -0.14282356

resnets.0.conv2.conv2d.weight f4 [32, 32, 3, 3]
000000 ad f4 ab bd b6 37 fa 3c 79 e8 96 bd fe 29 20 be
       -0.083962776 0.030544143 -0.073685594 -0.15641019
000010 02 c9 e3 3d d6 cf 0d bd e4 c9 6a be 09 be bd 3d
       0.111223236 -0.034622036 -0.22928578 0.09264762
000020 0b a4 3d 3c 89 32 0c be a3 79 12 bd c9 a7 c6 bd
       0.011574755 -0.13691153 -0.035760533 -0.09699971
000030 13 4a 6d bd ab 7b 71 3d b7 05 9e bd fd 7e ed bc
       -0.05793197 0.05895583 -0.07715934 -0.028991217
000040 7e 4a 5d bd 63 4b 96 bd c4 e1 17 3d b8 03 28 3d
       -0.05402612 -0.073385976 0.03708054 0.04101917
000050 80 fc 0d 3e 14 08 46 bc 72 9d f3 3d 3d 25 3c 3e
       0.13865852 -0.012086887 0.11895265 0.1837358
000060 85 a8 14 be cb 2d 7c bd 26 15 70 3d e6 d2 18 3e
       -0.1451741 -0.06156711 0.05861392 0.14924201
000070 52 2d 44 3e f5 90 08 3b 75 95 47 3e 6a 96 28 3e
       0.19157913 0.0020838354 0.19490607 0.16463628
000080 81 4e 18 3e 98 17 83 bc 8a 95 b1 bd 72 1e 82 3d
       0.14873697 -0.016002461 -0.086711004 0.06353463
000090 3e b3 e8 bc ea 9f 78 3e b0 bc 96 3d b1 36 65 bd
       -0.028405782 0.24279752 0.07360208 -0.05596036
0000a0 2f fd 2d 3d 7c 1b 0b be 75 8d 48 be 14 6a 9f be
       0.042477783 -0.13584703 -0.19585212 -0.3113562
0000b0 11 72 33 be 4c 61 3c 3e 9e 87 0c 3e f9 1d ab 3c
       -0.17523982 0.18396491 0.13723609 0.020888316
0000c0 3d a7 9f bd 6c 46 da 3d 0f 63 49 be 96 5d 25 3b
       -0.0779557 0.10657963 -0.19666694 0.0025232784
0000d0 2a a2 ca bd 19 30 e2 bc 1c cd 1c be 81 92 80 bd
       -0.098942116 -0.027610825 -0.15312618 -0.062779434
0000e0 82 be 52 bd 7f 73 bc 3c 91 4c ea 3d b9 ab ff 3c
       -0.051451214 0.023004292 0.11440385 0.031209813
0000f0 fc 00 07 be 4b aa 57 3d 91 c7 2b 3d 27 94 87 be
       -0.1318397 0.05265264 0.04193837 -0.2648022
000100 a3 d6 8f 3c 8f fc 48 3e 36 11 05 3e c8 49 f2 bd
       0.017558401 0.19627593 0.12994847 -0.11830479
000110 ef 4d 81 3e 56 c3 83 bd 72 d5 cb bc fe 8d 12 be
       0.2525477 -0.06433742 -0.024882052 -0.14311978
000120 f4 05 0b be 85 d1 01 be 2b 30 04 3e 2a c7 cb bc
       -0.1357649 -0.12677582 0.12909 -0.024875242
000130 3a 55 57 3e d7 35 e2 3d b3 3e 53 bd 1b 22 18 3e
       0.21028605 0.110454254 -0.051573467 0.1485676
000140 33 1c 3e 3e 27 e8 0e 3e 6c 4e d3 3d 79 d0 93 ba
       0.18565445 0.13955747 0.10317692 -0.001127734
000150 78 3a 6b 3c 81 27 ad 3d 9e 3c ff 3d b1 59 0d bc
       0.014357202 0.084548004 0.12462734 -0.008627341
000160 72 c7 04 bd 40 50 2d bd fb 24 c1 bd a1 e9 31 be
       -0.03241677 -0.04231286 -0.094308816 -0.17374279
000170 12 f4 7b be ad 63 57 3c 3d dc b2 bd 54 f8 68 bd
       -0.24604824 0.013146323 -0.08733413 -0.05687745
000180 f8 54 25 bc 16 cc 96 3d b6 64 bf 3d 50 79 23 bd
       -0.010091059 0.07363145 0.09345381 -0.039910614
000190 cc a1 3c 3d cf c1 e6 3c 85 ab 06 bd 1b a9 29 3e
       0.04605274 0.028168587 -0.032878418 0.16568415
0001a0 8e d5 b2 3d 04 f0 49 3d 2a b4 7b 3e ef 49 b3 3e
       0.087321386 0.049301162 0.24580446 0.35017344
0001b0 0b 8d 1d be e9 16 9e 3d d7 eb 16 3e 88 6a 22 bc
       -0.15385835 0.077192135 0.14738403 -0.009913094
0001c0 6c 6c 9f 3d 41 80 03 3e 26 d4 95 3e af 4b 72 bb
       0.07784352 0.12841894 0.2926342 -0.003697138
0001d0 6f fc a5 bd 45 58 5d bd 88 96 82 3d b0 c6 37 be
       -0.081047885 -0.05403926 0.06376368 -0.17946887
0001e0 f3 2a 94 bc a2 18 c8 bd d0 c1 b0 bc 27 bb 20 bd
       -0.018086886 -0.09770323 -0.021576792 -0.039240982
0001f0 a0 c5 c3 bc e9 52 d3 3c 19 2a ab bc 63 e4 a5 bd
       -0.023897946 0.02579637 -0.020894097 -0.08100202
000200 9b 05 9c bd ef 83 d1 3c 9a 78 94 3d b6 c1 c4 bd
       -0.07618257 0.025575606 0.072495654 -0.0960726
000210 ea f5 a0 bd a9 41 6c 3b a0 5e f6 bd ac 61 41 3d
       -0.078594044 0.0036049879 -0.12029767 0.047212288
000220 5a c3 35 3e 81 33 c6 bd dc bc a2 3d 36 51 02 3d
       0.17750302 -0.09677792 0.07946178 0.03181573
000230 dd ad 69 be c6 ea 2e 3d 84 1a 06 be b5 d6 86 bd
       -0.2282023 0.042704366 -0.13096052 -0.06583921
000240 db 36 12 be 80 ca 0a 3e 1d 48 17 be 2c f4 eb bc
       -0.14278738 0.1355381 -0.14773603 -0.028802954
000250 89 19 32 3e 01 00 1a be 63 bc 12 be e3 5e de bd
       0.17392553 -0.15039064 -0.14329676 -0.10857942
000260 01 80 41 be 0a 84 33 3e 3a 47 ec bc 0e 00 8c 3d
       -0.18896486 0.17530838 -0.028842557 0.06835948
000270 fc 62 bc bd e1 e0 b5 bd af 78 26 3d 1a 9f 39 be
       -0.09198567 -0.08880783 0.040642437 -0.18127099
000280 53 68 cf 3d 2a 64 24 be b6 9e 64 bd 82 82 ba 3d
       0.1012732 -0.16053835 -0.05581542 0.09106924
000290 49 0f 29 3d 54 64 4f bc 13 26 df b9 a0 75 12 3e
       0.041274343 -0.012658197 -0.00042562242 0.14302683
0002a0 d0 d1 a1 bc e9 d6 74 bd c3 74 99 3b a6 41 b1 be
       -0.019753367 -0.059775267 0.0046831085 -0.34620398
0002b0 07 7e 67 be 4b d9 ce bd af e7 82 be dd 27 33 3d
       -0.2260667 -0.10100039 -0.25567386 0.04373919
0002c0 91 42 04 3d 4b 04 4f be 61 05 1c 3e af 02 1d 3d
       0.032290045 -0.20216481 0.15236427 0.038332637
0002d0 d1 27 93 3d 07 a1 27 3e 08 01 10 be 9c b9 fa 3d
       0.07185329 0.16370021 -0.14062893 0.122424334
0002e0 6b 83 e8 3d 67 6d 8e bc 87 0e 2e 3e d6 d3 aa 3d
       0.11353191 -0.017386151 0.16997729 0.08341186
0002f0 87 cd d0 3d 11 1d 49 3e e1 18 09 3f 24 ee 6b 3d
       0.10195451 0.19639994 0.5355359 0.057600155
000300 b1 47 d5 bc c3 06 10 3f 41 50 1f 3e 47 bd 95 bd
       -0.026035162 0.5626032 0.15557958 -0.073114924
000310 12 09 32 3e 8f 0c 2d 3d b8 01 29 be 63 d6 81 bd
       0.17386273 0.042248305 -0.16504562 -0.06339719
000320 55 6a f2 3c 82 a6 fe 3d 07 eb 11 3e 14 31 e6 bd
       0.029591719 0.124341026 0.14249812 -0.1123983
000330 df 2a 05 3e cd 27 de 3d 6c 74 cc bd 7f c2 aa bd
       0.13004635 0.10847435 -0.09983143 -0.083378784
000340 0c ff a5 bd 6f 13 96 3d 74 8c 35 be 5b 29 2c be
       -0.08105287 0.073279254 -0.1772936 -0.16812651
000350 d8 14 e3 bd 8a 40 01 3d 53 83 65 3e f5 c9 c9 bd
       -0.1108796 0.03155569 0.22413377 -0.09852973
000360 ec 0f 89 bd 95 8c 41 3e c3 b0 cd 3d af a6 2c 3e
       -0.0669249 0.18901284 0.1004348 0.1686046
000370 fd 8e 6d 3e 1b 68 ae 3d 74 ed a1 bd de d4 91 3d
       0.23199077 0.0851595 -0.07906619 0.07120679
000380 11 5c c9 bc 3d ec 95 bd 0b a9 02 3e 35 4d 1c 3e
       -0.024580033 -0.073204495 0.12759797 0.15263827
000390 b6 a8 8c 3d 7c 74 bc bd dd 0a f6 3d a7 4e 85 bb
       0.068681166 -0.09201905 0.12013791 -0.004068214
0003a0 17 f3 96 bc 48 8e b6 bd af a0 af 3d 25 95 ef bd
       -0.018426461 -0.08913857 0.0857557 -0.11698369
0003b0 87 7d 8f be 1d 6e 6c 3e d5 09 d3 bd 7e e7 30 be
       -0.28025457 0.2308888 -0.1030461 -0.17275807
0003c0 17 62 55 bd eb 52 0b be bb a3 9e be b2 0b 9a be
       -0.0520955 -0.1360585 -0.3098429 -0.30087048
0003d0 c3 4b 5a be 94 d8 c9 bb 1f 98 6b be 17 aa 9d bd
       -0.21317963 -0.0061598513 -0.23007248 -0.07698458
0003e0 e7 08 5f 3e 43 92 ff bd b0 79 99 3d 95 62 1e 3e
       0.2178074 -0.12479069 0.07493913 0.15467294
0003f0 1b 26 af 3d 81 09 40 3e c4 92 b6 3d bd 56 56 bd
       0.0855219 0.18753625 0.08914712 -0.052328814

resnets.0.conv2.conv2d.bias f4 [32]
000000 a9 06 32 3e 90 64 8b bd ca 45 55 bd a4 13 88 3e
       0.17385353 -0.0680629 -0.05206851 0.26577485
000010 4a 0a 3f 3e 40 9d 34 3e b9 98 0f bd 2c d8 fd 3d
       0.18656269 0.17638111 -0.035057757 0.12394747
000020 0c 21 db bd 9c 31 40 3d 11 c5 db bd 4c 30 82 3e
       -0.106996626 0.04692231 -0.10730947 0.25427473
000030 3b 6c 55 be 38 51 56 be 3f 6c 3f be 01 8c 96 3c
       -0.20842068 -0.2092942 -0.18693636 0.018377306
000040 9d 56 62 be 16 30 5a bd 39 49 d0 3d a2 00 bf bc
       -0.22103353 -0.053268515 0.10170216 -0.023315731
000050 cf 68 6f 3b fb 71 2c 3e ca ed 33 3d a4 d7 e2 3d
       0.0036530977 0.16840355 0.043927945 0.110762864
000060 d6 23 5b 3e a6 3b e7 3c a9 fc 01 3d 46 a0 e3 bc
       0.21400389 0.028226685 0.031735096 -0.027786385
000070 e5 d6 10 3e 57 76 a2 3d ac 43 1c be 23 b8 94 3c
       0.14144476 0.07932728 -0.1526019 0.01815421

resnets.0.in2.weight f4 [32]
000000 75 89 bd 3e 49 1e 43 3e b5 28 85 3e 9e 48 98 3e
       0.37018934 0.19054522 0.2600762 0.29742903
000010 14 8b 18 3f 6f e4 e4 3e 85 15 e5 3e 57 67 a6 3e
       0.59587216 0.4470553 0.4474298 0.32500717
000020 b5 2a da 3e 42 91 bb 3e 6b 0e e8 3e 73 a7 fd 3e
       0.42610708 0.3663426 0.453235 0.49541816
000030 fb 82 c7 3e c3 2c 1b 3f fe ff e3 3e 44 1e 1a 3f
       0.38967118 0.60615176 0.44531244 0.6020243
000040 74 75 1b 3f 87 d0 0f 3f f6 9c 99 3e 3a c5 e6 3e
       0.60726094 0.5617756 0.30002564 0.45072347
000050 7c bf b6 3e c3 6a de 3e c7 d4 b0 3e ad 9b e8 3e
       0.35692966 0.43440828 0.34537336 0.4543127
000060 49 12 ec 3e 85 d7 e1 3e 4e 92 f6 3e ac 3d 00 3f
       0.461077 0.4410974 0.48158497 0.50094104
000070 2f 14 f6 3e 2a 87 ef 3e b6 a2 b1 3e 1b 10 b5 3e
       0.48062274 0.4678281 0.3469445 0.3536385

resnets.0.in2.bias f4 [32]
000000 a3 ac 7f 3e 94 d0 a9 bd 89 d7 07 3e be 2a c6 3d
       0.249682 -0.08291736 0.13265814 0.09676121
000010 07 76 d6 3d f8 4a 8c 3e 3c 03 a1 3d 9b 25 c7 3d
       0.10471731 0.27400947 0.07861945 0.097239695
000020 f0 48 3c be f9 de 99 3e 5c 37 de bc cd 03 e0 bd
       -0.18387198 0.30052927 -0.027126007 -0.10938225
000030 62 99 30 be cc 21 0b be 2c 6a 10 be 16 c6 1c be
       -0.17246011 -0.13587111 -0.14103001 -0.15309939
000040 44 41 d7 bd 27 40 b5 3b 78 7c b4 3d cb 7a 38 3c
       -0.10510495 0.005531329 0.08812803 0.011259745
000050 11 d3 55 3e ee 4e 60 3e fe 09 27 3e a6 96 a5 bd
       0.20881297 0.2190511 0.16312405 -0.080853745
000060 f5 8a b8 3d d5 fc f9 3b 1b 0a 5c 3d ff b9 43 bc
       0.09010879 0.007629017 0.053720575 -0.0119462
000070 62 3b 5f 3d 63 5a 8c 3e 2e f2 c3 3d b5 bb 12 bc
       0.05449999 0.2741271 0.095676765 -0.008955886
